…
I0701 14:28:10.653775 30423 net.cpp:327] The NetState phase (0) differed from the phase (1) specified by a rule in layer accuracy/top1
I0701 14:28:10.653781 30423 net.cpp:327] The NetState phase (0) differed from the phase (1) specified by a rule in layer accuracy/top5
I0701 14:28:10.653939 30423 net.cpp:56] Initializing net from parameters: 
name: "jacintonet11v2_train"
state {
  phase: TRAIN
}
layer {
  name: "data"
  type: "Data"
  top: "data"
  top: "label"
  transform_param {
    mirror: true
    crop_size: 32
    mean_value: 0
    mean_value: 0
    mean_value: 0
  }
  data_param {
    source: "./data/cifar10_train_lmdb"
    batch_size: 21
    backend: LMDB
    threads: 1
  }
}
layer {
  name: "data/bias"
  type: "Bias"
  bottom: "data"
  top: "data/bias"
  param {
    lr_mult: 0
    decay_mult: 0
  }
  bias_param {
    filler {
      type: "constant"
      value: -128
    }
  }
}
layer {
  name: "conv1a"
  type: "Convolution"
  bottom: "data/bias"
  top: "conv1a"
  param {
    lr_mult: 1
    decay_mult: 1
  }
  param {
    lr_mult: 2
    decay_mult: 0
  }
  convolution_param {
    num_output: 32
    bias_term: true
    pad: 2
    kernel_size: 5
    group: 1
    stride: 1
    weight_filler {
      type: "msra"
    }
    bias_filler {
      type: "constant"
      value: 0
    }
    dilation: 1
  }
}
layer {
  name: "conv1a/bn"
  type: "BatchNorm"
  bottom: "conv1a"
  top: "conv1a/bn"
  param {
    lr_mult: 1
    decay_mult: 1
  }
  param {
    lr_mult: 1
    decay_mult: 1
  }
  param {
    lr_mult: 0
    decay_mult: 0
  }
  param {
    lr_mult: 0
    decay_mult: 0
  }
  batch_norm_param {
    moving_average_fraction: 0.99
    eps: 0.0001
    scale_filler {
      type: "constant"
      value: 1
    }
    bias_filler {
      type: "constant"
      value: 0
    }
  }
}
layer {
  name: "conv1a/relu"
  type: "ReLU"
  bottom: "conv1a/bn"
  top: "conv1a/bn"
}
layer {
  name: "conv1b"
  type: "Convolution"
  bottom: "conv1a/bn"
  top: "conv1b"
  param {
    lr_mult: 1
    decay_mult: 1
  }
  param {
    lr_mult: 2
    decay_mult: 0
  }
  convolution_param {
    num_output: 32
    bias_term: true
    pad: 1
    kernel_size: 3
    group: 4
    stride: 1
    weight_filler {
      type: "msra"
    }
    bias_filler {
      type: "constant"
      value: 0
    }
    dilation: 1
  }
}
layer {
  name: "conv1b/bn"
  type: "BatchNorm"
  bottom: "conv1b"
  top: "conv1b/bn"
  param {
    lr_mult: 1
    decay_mult: 1
  }
  param {
    lr_mult: 1
    decay_mult: 1
  }
  param {
    lr_mult: 0
    decay_mult: 0
  }
  param {
    lr_mult: 0
    decay_mult: 0
  }
  batch_norm_param {
    moving_average_fraction: 0.99
    eps: 0.0001
    scale_filler {
      type: "constant"
      value: 1
    }
    bias_filler {
      type: "constant"
      value: 0
    }
  }
}
layer {
  name: "conv1b/relu"
  type: "ReLU"
  bottom: "conv1b/bn"
  top: "conv1b/bn"
}
layer {
  name: "pool1"
  type: "Pooling"
  bottom: "conv1b/bn"
  top: "pool1"
  pooling_param {
    pool: MAX
    kernel_size: 1
    stride: 1
  }
}
layer {
  name: "res2a_branch2a"
  type: "Convolution"
  bottom: "pool1"
  top: "res2a_branch2a"
  param {
    lr_mult: 1
    decay_mult: 1
  }
  param {
    lr_mult: 2
    decay_mult: 0
  }
  convolution_param {
    num_output: 64
    bias_term: true
    pad: 1
    kernel_size: 3
    group: 1
    stride: 1
    weight_filler {
      type: "msra"
    }
    bias_filler {
      type: "constant"
      value: 0
    }
    dilation: 1
  }
}
layer {
  name: "res2a_branch2a/bn"
  type: "BatchNorm"
  bottom: "res2a_branch2a"
  top: "res2a_branch2a/bn"
  param {
    lr_mult: 1
    decay_mult: 1
  }
  param {
    lr_mult: 1
    decay_mult: 1
  }
  param {
    lr_mult: 0
    decay_mult: 0
  }
  param {
    lr_mult: 0
    decay_mult: 0
  }
  batch_norm_param {
    moving_average_fraction: 0.99
    eps: 0.0001
    scale_filler {
      type: "constant"
      value: 1
    }
    bias_filler {
      type: "constant"
      value: 0
    }
  }
}
layer {
  name: "res2a_branch2a/relu"
  type: "ReLU"
  bottom: "res2a_branch2a/bn"
  top: "res2a_branch2a/bn"
}
layer {
  name: "res2a_branch2b"
  type: "Convolution"
  bottom: "res2a_branch2a/bn"
  top: "res2a_branch2b"
  param {
    lr_mult: 1
    decay_mult: 1
  }
  param {
    lr_mult: 2
    decay_mult: 0
  }
  convolution_param {
    num_output: 64
    bias_term: true
    pad: 1
    kernel_size: 3
    group: 4
    stride: 1
    weight_filler {
      type: "msra"
    }
    bias_filler {
      type: "constant"
      value: 0
    }
    dilation: 1
  }
}
layer {
  name: "res2a_branch2b/bn"
  type: "BatchNorm"
  bottom: "res2a_branch2b"
  top: "res2a_branch2b/bn"
  param {
    lr_mult: 1
    decay_mult: 1
  }
  param {
    lr_mult: 1
    decay_mult: 1
  }
  param {
    lr_mult: 0
    decay_mult: 0
  }
  param {
    lr_mult: 0
    decay_mult: 0
  }
  batch_norm_param {
    moving_average_fraction: 0.99
    eps: 0.0001
    scale_filler {
      type: "constant"
      value: 1
    }
    bias_filler {
      type: "constant"
      value: 0
    }
  }
}
layer {
  name: "res2a_branch2b/relu"
  type: "ReLU"
  bottom: "res2a_branch2b/bn"
  top: "res2a_branch2b/bn"
}
layer {
  name: "pool2"
  type: "Pooling"
  bottom: "res2a_branch2b/bn"
  top: "pool2"
  pooling_param {
    pool: MAX
    kernel_size: 2
    stride: 2
  }
}
layer {
  name: "res3a_branch2a"
  type: "Convolution"
  bottom: "pool2"
  top: "res3a_branch2a"
  param {
    lr_mult: 1
    decay_mult: 1
  }
  param {
    lr_mult: 2
    decay_mult: 0
  }
  convolution_param {
    num_output: 128
    bias_term: true
    pad: 1
    kernel_size: 3
    group: 1
    stride: 1
    weight_filler {
      type: "msra"
    }
    bias_filler {
      type: "constant"
      value: 0
    }
    dilation: 1
  }
}
layer {
  name: "res3a_branch2a/bn"
  type: "BatchNorm"
  bottom: "res3a_branch2a"
  top: "res3a_branch2a/bn"
  param {
    lr_mult: 1
    decay_mult: 1
  }
  param {
    lr_mult: 1
    decay_mult: 1
  }
  param {
    lr_mult: 0
    decay_mult: 0
  }
  param {
    lr_mult: 0
    decay_mult: 0
  }
  batch_norm_param {
    moving_average_fraction: 0.99
    eps: 0.0001
    scale_filler {
      type: "constant"
      value: 1
    }
    bias_filler {
      type: "constant"
      value: 0
    }
  }
}
layer {
  name: "res3a_branch2a/relu"
  type: "ReLU"
  bottom: "res3a_branch2a/bn"
  top: "res3a_branch2a/bn"
}
layer {
  name: "res3a_branch2b"
  type: "Convolution"
  bottom: "res3a_branch2a/bn"
  top: "res3a_branch2b"
  param {
    lr_mult: 1
    decay_mult: 1
  }
  param {
    lr_mult: 2
    decay_mult: 0
  }
  convolution_param {
    num_output: 128
    bias_term: true
    pad: 1
    kernel_size: 3
    group: 4
    stride: 1
    weight_filler {
      type: "msra"
    }
    bias_filler {
      type: "constant"
      value: 0
    }
    dilation: 1
  }
}
layer {
  name: "res3a_branch2b/bn"
  type: "BatchNorm"
  bottom: "res3a_branch2b"
  top: "res3a_branch2b/bn"
  param {
    lr_mult: 1
    decay_mult: 1
  }
  param {
    lr_mult: 1
    decay_mult: 1
  }
  param {
    lr_mult: 0
    decay_mult: 0
  }
  param {
    lr_mult: 0
    decay_mult: 0
  }
  batch_norm_param {
    moving_average_fraction: 0.99
    eps: 0.0001
    scale_filler {
      type: "constant"
      value: 1
    }
    bias_filler {
      type: "constant"
      value: 0
    }
  }
}
layer {
  name: "res3a_branch2b/relu"
  type: "ReLU"
  bottom: "res3a_branch2b/bn"
  top: "res3a_branch2b/bn"
}
layer {
  name: "pool3"
  type: "Pooling"
  bottom: "res3a_branch2b/bn"
  top: "pool3"
  pooling_param {
    pool: MAX
    kernel_size: 1
    stride: 1
  }
}
layer {
  name: "res4a_branch2a"
  type: "Convolution"
  bottom: "pool3"
  top: "res4a_branch2a"
  param {
    lr_mult: 1
    decay_mult: 1
  }
  param {
    lr_mult: 2
    decay_mult: 0
  }
  convolution_param {
    num_output: 256
    bias_term: true
    pad: 1
    kernel_size: 3
    group: 1
    stride: 1
    weight_filler {
      type: "msra"
    }
    bias_filler {
      type: "constant"
      value: 0
    }
    dilation: 1
  }
}
layer {
  name: "res4a_branch2a/bn"
  type: "BatchNorm"
  bottom: "res4a_branch2a"
  top: "res4a_branch2a/bn"
  param {
    lr_mult: 1
    decay_mult: 1
  }
  param {
    lr_mult: 1
    decay_mult: 1
  }
  param {
    lr_mult: 0
    decay_mult: 0
  }
  param {
    lr_mult: 0
    decay_mult: 0
  }
  batch_norm_param {
    moving_average_fraction: 0.99
    eps: 0.0001
    scale_filler {
      type: "constant"
      value: 1
    }
    bias_filler {
      type: "constant"
      value: 0
    }
  }
}
layer {
  name: "res4a_branch2a/relu"
  type: "ReLU"
  bottom: "res4a_branch2a/bn"
  top: "res4a_branch2a/bn"
}
layer {
  name: "res4a_branch2b"
  type: "Convolution"
  bottom: "res4a_branch2a/bn"
  top: "res4a_branch2b"
  param {
    lr_mult: 1
    decay_mult: 1
  }
  param {
    lr_mult: 2
    decay_mult: 0
  }
  convolution_param {
    num_output: 256
    bias_term: true
    pad: 1
    kernel_size: 3
    group: 4
    stride: 1
    weight_filler {
      type: "msra"
    }
    bias_filler {
      type: "constant"
      value: 0
    }
    dilation: 1
  }
}
layer {
  name: "res4a_branch2b/bn"
  type: "BatchNorm"
  bottom: "res4a_branch2b"
  top: "res4a_branch2b/bn"
  param {
    lr_mult: 1
    decay_mult: 1
  }
  param {
    lr_mult: 1
    decay_mult: 1
  }
  param {
    lr_mult: 0
    decay_mult: 0
  }
  param {
    lr_mult: 0
    decay_mult: 0
  }
  batch_norm_param {
    moving_average_fraction: 0.99
    eps: 0.0001
    scale_filler {
      type: "constant"
      value: 1
    }
    bias_filler {
      type: "constant"
      value: 0
    }
  }
}
layer {
  name: "res4a_branch2b/relu"
  type: "ReLU"
  bottom: "res4a_branch2b/bn"
  top: "res4a_branch2b/bn"
}
layer {
  name: "pool4"
  type: "Pooling"
  bottom: "res4a_branch2b/bn"
  top: "pool4"
  pooling_param {
    pool: MAX
    kernel_size: 2
    stride: 2
  }
}
layer {
  name: "res5a_branch2a"
  type: "Convolution"
  bottom: "pool4"
  top: "res5a_branch2a"
  param {
    lr_mult: 1
    decay_mult: 1
  }
  param {
    lr_mult: 2
    decay_mult: 0
  }
  convolution_param {
    num_output: 512
    bias_term: true
    pad: 1
    kernel_size: 3
    group: 1
    stride: 1
    weight_filler {
      type: "msra"
    }
    bias_filler {
      type: "constant"
      value: 0
    }
    dilation: 1
  }
}
layer {
  name: "res5a_branch2a/bn"
  type: "BatchNorm"
  bottom: "res5a_branch2a"
  top: "res5a_branch2a/bn"
  param {
    lr_mult: 1
    decay_mult: 1
  }
  param {
    lr_mult: 1
    decay_mult: 1
  }
  param {
    lr_mult: 0
    decay_mult: 0
  }
  param {
    lr_mult: 0
    decay_mult: 0
  }
  batch_norm_param {
    moving_average_fraction: 0.99
    eps: 0.0001
    scale_filler {
      type: "constant"
      value: 1
    }
    bias_filler {
      type: "constant"
      value: 0
    }
  }
}
layer {
  name: "res5a_branch2a/relu"
  type: "ReLU"
  bottom: "res5a_branch2a/bn"
  top: "res5a_branch2a/bn"
}
layer {
  name: "res5a_branch2b"
  type: "Convolution"
  bottom: "res5a_branch2a/bn"
  top: "res5a_branch2b"
  param {
    lr_mult: 1
    decay_mult: 1
  }
  param {
    lr_mult: 2
    decay_mult: 0
  }
  convolution_param {
    num_output: 512
    bias_term: true
    pad: 1
    kernel_size: 3
    group: 4
    stride: 1
    weight_filler {
      type: "msra"
    }
    bias_filler {
      type: "constant"
      value: 0
    }
    dilation: 1
  }
}
layer {
  name: "res5a_branch2b/bn"
  type: "BatchNorm"
  bottom: "res5a_branch2b"
  top: "res5a_branch2b/bn"
  param {
    lr_mult: 1
    decay_mult: 1
  }
  param {
    lr_mult: 1
    decay_mult: 1
  }
  param {
    lr_mult: 0
    decay_mult: 0
  }
  param {
    lr_mult: 0
    decay_mult: 0
  }
  batch_norm_param {
    moving_average_fraction: 0.99
    eps: 0.0001
    scale_filler {
      type: "constant"
      value: 1
    }
    bias_filler {
      type: "constant"
      value: 0
    }
  }
}
layer {
  name: "res5a_branch2b/relu"
  type: "ReLU"
  bottom: "res5a_branch2b/bn"
  top: "res5a_branch2b/bn"
}
layer {
  name: "pool5"
  type: "Pooling"
  bottom: "res5a_branch2b/bn"
  top: "pool5"
  pooling_param {
    pool: AVE
    global_pooling: true
  }
}
layer {
  name: "fc10"
  type: "InnerProduct"
  bottom: "pool5"
  top: "fc10"
  param {
    lr_mult: 1
    decay_mult: 1
  }
  param {
    lr_mult: 2
    decay_mult: 0
  }
  inner_product_param {
    num_output: 10
    weight_filler {
      type: "msra"
    }
    bias_filler {
      type: "constant"
      value: 0
    }
  }
}
layer {
  name: "loss"
  type: "SoftmaxWithLoss"
  bottom: "fc10"
  bottom: "label"
  top: "loss"
  propagate_down: true
  propagate_down: false
}
I0701 14:28:10.654023 30423 layer_factory.hpp:77] Creating layer data
I0701 14:28:10.654101 30423 net.cpp:98] Creating Layer data
I0701 14:28:10.654108 30423 net.cpp:413] data -> data
I0701 14:28:10.654124 30423 net.cpp:413] data -> label
I0701 14:28:10.718039 30452 db_lmdb.cpp:35] Opened lmdb ./data/cifar10_train_lmdb
I0701 14:28:10.743927 30423 data_layer.cpp:78] ReshapePrefetch 21, 3, 32, 32
I0701 14:28:10.744019 30423 data_layer.cpp:83] output data size: 21,3,32,32
I0701 14:28:10.746642 30423 net.cpp:148] Setting up data
I0701 14:28:10.746670 30423 net.cpp:155] Top shape: 21 3 32 32 (64512)
I0701 14:28:10.746676 30423 net.cpp:155] Top shape: 21 (21)
I0701 14:28:10.746680 30423 net.cpp:163] Memory required for data: 258132
I0701 14:28:10.746691 30423 layer_factory.hpp:77] Creating layer data/bias
I0701 14:28:10.746711 30423 net.cpp:98] Creating Layer data/bias
I0701 14:28:10.746718 30423 net.cpp:439] data/bias <- data
I0701 14:28:10.746731 30423 net.cpp:413] data/bias -> data/bias
I0701 14:28:10.748436 30423 net.cpp:148] Setting up data/bias
I0701 14:28:10.748456 30423 net.cpp:155] Top shape: 21 3 32 32 (64512)
I0701 14:28:10.748461 30423 net.cpp:163] Memory required for data: 516180
I0701 14:28:10.748476 30423 layer_factory.hpp:77] Creating layer conv1a
I0701 14:28:10.748492 30423 net.cpp:98] Creating Layer conv1a
I0701 14:28:10.748500 30423 net.cpp:439] conv1a <- data/bias
I0701 14:28:10.748510 30423 net.cpp:413] conv1a -> conv1a
I0701 14:28:10.749061 30454 blocking_queue.cpp:50] Waiting for data
I0701 14:28:10.750982 30423 net.cpp:148] Setting up conv1a
I0701 14:28:10.751003 30423 net.cpp:155] Top shape: 21 32 32 32 (688128)
I0701 14:28:10.751008 30423 net.cpp:163] Memory required for data: 3268692
I0701 14:28:10.751018 30423 layer_factory.hpp:77] Creating layer conv1a/bn
I0701 14:28:10.751030 30423 net.cpp:98] Creating Layer conv1a/bn
I0701 14:28:10.751037 30423 net.cpp:439] conv1a/bn <- conv1a
I0701 14:28:10.751044 30423 net.cpp:413] conv1a/bn -> conv1a/bn
I0701 14:28:10.752418 30423 net.cpp:148] Setting up conv1a/bn
I0701 14:28:10.752432 30423 net.cpp:155] Top shape: 21 32 32 32 (688128)
I0701 14:28:10.752437 30423 net.cpp:163] Memory required for data: 6021204
I0701 14:28:10.752450 30423 layer_factory.hpp:77] Creating layer conv1a/relu
I0701 14:28:10.752460 30423 net.cpp:98] Creating Layer conv1a/relu
I0701 14:28:10.752465 30423 net.cpp:439] conv1a/relu <- conv1a/bn
I0701 14:28:10.752470 30423 net.cpp:400] conv1a/relu -> conv1a/bn (in-place)
I0701 14:28:10.752491 30423 net.cpp:148] Setting up conv1a/relu
I0701 14:28:10.752498 30423 net.cpp:155] Top shape: 21 32 32 32 (688128)
I0701 14:28:10.752503 30423 net.cpp:163] Memory required for data: 8773716
I0701 14:28:10.752507 30423 layer_factory.hpp:77] Creating layer conv1b
I0701 14:28:10.752533 30423 net.cpp:98] Creating Layer conv1b
I0701 14:28:10.752539 30423 net.cpp:439] conv1b <- conv1a/bn
I0701 14:28:10.752545 30423 net.cpp:413] conv1b -> conv1b
I0701 14:28:10.753285 30423 net.cpp:148] Setting up conv1b
I0701 14:28:10.753298 30423 net.cpp:155] Top shape: 21 32 32 32 (688128)
I0701 14:28:10.753304 30423 net.cpp:163] Memory required for data: 11526228
I0701 14:28:10.753312 30423 layer_factory.hpp:77] Creating layer conv1b/bn
I0701 14:28:10.753320 30423 net.cpp:98] Creating Layer conv1b/bn
I0701 14:28:10.753325 30423 net.cpp:439] conv1b/bn <- conv1b
I0701 14:28:10.753331 30423 net.cpp:413] conv1b/bn -> conv1b/bn
I0701 14:28:10.754858 30423 net.cpp:148] Setting up conv1b/bn
I0701 14:28:10.754871 30423 net.cpp:155] Top shape: 21 32 32 32 (688128)
I0701 14:28:10.754876 30423 net.cpp:163] Memory required for data: 14278740
I0701 14:28:10.754889 30423 layer_factory.hpp:77] Creating layer conv1b/relu
I0701 14:28:10.754894 30423 net.cpp:98] Creating Layer conv1b/relu
I0701 14:28:10.754900 30423 net.cpp:439] conv1b/relu <- conv1b/bn
I0701 14:28:10.754905 30423 net.cpp:400] conv1b/relu -> conv1b/bn (in-place)
I0701 14:28:10.754914 30423 net.cpp:148] Setting up conv1b/relu
I0701 14:28:10.754922 30423 net.cpp:155] Top shape: 21 32 32 32 (688128)
I0701 14:28:10.754928 30423 net.cpp:163] Memory required for data: 17031252
I0701 14:28:10.754933 30423 layer_factory.hpp:77] Creating layer pool1
I0701 14:28:10.754943 30423 net.cpp:98] Creating Layer pool1
I0701 14:28:10.754948 30423 net.cpp:439] pool1 <- conv1b/bn
I0701 14:28:10.754954 30423 net.cpp:413] pool1 -> pool1
I0701 14:28:10.755040 30423 net.cpp:148] Setting up pool1
I0701 14:28:10.755050 30423 net.cpp:155] Top shape: 21 32 32 32 (688128)
I0701 14:28:10.755054 30423 net.cpp:163] Memory required for data: 19783764
I0701 14:28:10.755059 30423 layer_factory.hpp:77] Creating layer res2a_branch2a
I0701 14:28:10.755069 30423 net.cpp:98] Creating Layer res2a_branch2a
I0701 14:28:10.755076 30423 net.cpp:439] res2a_branch2a <- pool1
I0701 14:28:10.755082 30423 net.cpp:413] res2a_branch2a -> res2a_branch2a
I0701 14:28:10.756551 30423 net.cpp:148] Setting up res2a_branch2a
I0701 14:28:10.756564 30423 net.cpp:155] Top shape: 21 64 32 32 (1376256)
I0701 14:28:10.756568 30423 net.cpp:163] Memory required for data: 25288788
I0701 14:28:10.756578 30423 layer_factory.hpp:77] Creating layer res2a_branch2a/bn
I0701 14:28:10.756585 30423 net.cpp:98] Creating Layer res2a_branch2a/bn
I0701 14:28:10.756592 30423 net.cpp:439] res2a_branch2a/bn <- res2a_branch2a
I0701 14:28:10.756597 30423 net.cpp:413] res2a_branch2a/bn -> res2a_branch2a/bn
I0701 14:28:10.758311 30423 net.cpp:148] Setting up res2a_branch2a/bn
I0701 14:28:10.758327 30423 net.cpp:155] Top shape: 21 64 32 32 (1376256)
I0701 14:28:10.758332 30423 net.cpp:163] Memory required for data: 30793812
I0701 14:28:10.758347 30423 layer_factory.hpp:77] Creating layer res2a_branch2a/relu
I0701 14:28:10.758354 30423 net.cpp:98] Creating Layer res2a_branch2a/relu
I0701 14:28:10.758361 30423 net.cpp:439] res2a_branch2a/relu <- res2a_branch2a/bn
I0701 14:28:10.758368 30423 net.cpp:400] res2a_branch2a/relu -> res2a_branch2a/bn (in-place)
I0701 14:28:10.758376 30423 net.cpp:148] Setting up res2a_branch2a/relu
I0701 14:28:10.758391 30423 net.cpp:155] Top shape: 21 64 32 32 (1376256)
I0701 14:28:10.758397 30423 net.cpp:163] Memory required for data: 36298836
I0701 14:28:10.758402 30423 layer_factory.hpp:77] Creating layer res2a_branch2b
I0701 14:28:10.758412 30423 net.cpp:98] Creating Layer res2a_branch2b
I0701 14:28:10.758420 30423 net.cpp:439] res2a_branch2b <- res2a_branch2a/bn
I0701 14:28:10.758429 30423 net.cpp:413] res2a_branch2b -> res2a_branch2b
I0701 14:28:10.761548 30423 net.cpp:148] Setting up res2a_branch2b
I0701 14:28:10.761569 30423 net.cpp:155] Top shape: 21 64 32 32 (1376256)
I0701 14:28:10.761576 30423 net.cpp:163] Memory required for data: 41803860
I0701 14:28:10.761586 30423 layer_factory.hpp:77] Creating layer res2a_branch2b/bn
I0701 14:28:10.761596 30423 net.cpp:98] Creating Layer res2a_branch2b/bn
I0701 14:28:10.761603 30423 net.cpp:439] res2a_branch2b/bn <- res2a_branch2b
I0701 14:28:10.761626 30423 net.cpp:413] res2a_branch2b/bn -> res2a_branch2b/bn
I0701 14:28:10.763429 30423 net.cpp:148] Setting up res2a_branch2b/bn
I0701 14:28:10.763447 30423 net.cpp:155] Top shape: 21 64 32 32 (1376256)
I0701 14:28:10.763453 30423 net.cpp:163] Memory required for data: 47308884
I0701 14:28:10.763468 30423 layer_factory.hpp:77] Creating layer res2a_branch2b/relu
I0701 14:28:10.763475 30423 net.cpp:98] Creating Layer res2a_branch2b/relu
I0701 14:28:10.763481 30423 net.cpp:439] res2a_branch2b/relu <- res2a_branch2b/bn
I0701 14:28:10.763489 30423 net.cpp:400] res2a_branch2b/relu -> res2a_branch2b/bn (in-place)
I0701 14:28:10.763502 30423 net.cpp:148] Setting up res2a_branch2b/relu
I0701 14:28:10.763511 30423 net.cpp:155] Top shape: 21 64 32 32 (1376256)
I0701 14:28:10.763516 30423 net.cpp:163] Memory required for data: 52813908
I0701 14:28:10.763521 30423 layer_factory.hpp:77] Creating layer pool2
I0701 14:28:10.763530 30423 net.cpp:98] Creating Layer pool2
I0701 14:28:10.763536 30423 net.cpp:439] pool2 <- res2a_branch2b/bn
I0701 14:28:10.763542 30423 net.cpp:413] pool2 -> pool2
I0701 14:28:10.763641 30423 net.cpp:148] Setting up pool2
I0701 14:28:10.763653 30423 net.cpp:155] Top shape: 21 64 16 16 (344064)
I0701 14:28:10.763659 30423 net.cpp:163] Memory required for data: 54190164
I0701 14:28:10.763664 30423 layer_factory.hpp:77] Creating layer res3a_branch2a
I0701 14:28:10.763684 30423 net.cpp:98] Creating Layer res3a_branch2a
I0701 14:28:10.763694 30423 net.cpp:439] res3a_branch2a <- pool2
I0701 14:28:10.763701 30423 net.cpp:413] res3a_branch2a -> res3a_branch2a
I0701 14:28:10.770318 30423 net.cpp:148] Setting up res3a_branch2a
I0701 14:28:10.770340 30423 net.cpp:155] Top shape: 21 128 16 16 (688128)
I0701 14:28:10.770346 30423 net.cpp:163] Memory required for data: 56942676
I0701 14:28:10.770356 30423 layer_factory.hpp:77] Creating layer res3a_branch2a/bn
I0701 14:28:10.770367 30423 net.cpp:98] Creating Layer res3a_branch2a/bn
I0701 14:28:10.770375 30423 net.cpp:439] res3a_branch2a/bn <- res3a_branch2a
I0701 14:28:10.770382 30423 net.cpp:413] res3a_branch2a/bn -> res3a_branch2a/bn
I0701 14:28:10.772038 30423 net.cpp:148] Setting up res3a_branch2a/bn
I0701 14:28:10.772058 30423 net.cpp:155] Top shape: 21 128 16 16 (688128)
I0701 14:28:10.772063 30423 net.cpp:163] Memory required for data: 59695188
I0701 14:28:10.772094 30423 layer_factory.hpp:77] Creating layer res3a_branch2a/relu
I0701 14:28:10.772101 30423 net.cpp:98] Creating Layer res3a_branch2a/relu
I0701 14:28:10.772110 30423 net.cpp:439] res3a_branch2a/relu <- res3a_branch2a/bn
I0701 14:28:10.772116 30423 net.cpp:400] res3a_branch2a/relu -> res3a_branch2a/bn (in-place)
I0701 14:28:10.772128 30423 net.cpp:148] Setting up res3a_branch2a/relu
I0701 14:28:10.772137 30423 net.cpp:155] Top shape: 21 128 16 16 (688128)
I0701 14:28:10.772142 30423 net.cpp:163] Memory required for data: 62447700
I0701 14:28:10.772147 30423 layer_factory.hpp:77] Creating layer res3a_branch2b
I0701 14:28:10.772159 30423 net.cpp:98] Creating Layer res3a_branch2b
I0701 14:28:10.772166 30423 net.cpp:439] res3a_branch2b <- res3a_branch2a/bn
I0701 14:28:10.772173 30423 net.cpp:413] res3a_branch2b -> res3a_branch2b
I0701 14:28:10.774978 30423 net.cpp:148] Setting up res3a_branch2b
I0701 14:28:10.774996 30423 net.cpp:155] Top shape: 21 128 16 16 (688128)
I0701 14:28:10.775001 30423 net.cpp:163] Memory required for data: 65200212
I0701 14:28:10.775009 30423 layer_factory.hpp:77] Creating layer res3a_branch2b/bn
I0701 14:28:10.775019 30423 net.cpp:98] Creating Layer res3a_branch2b/bn
I0701 14:28:10.775025 30423 net.cpp:439] res3a_branch2b/bn <- res3a_branch2b
I0701 14:28:10.775035 30423 net.cpp:413] res3a_branch2b/bn -> res3a_branch2b/bn
I0701 14:28:10.776650 30423 net.cpp:148] Setting up res3a_branch2b/bn
I0701 14:28:10.776669 30423 net.cpp:155] Top shape: 21 128 16 16 (688128)
I0701 14:28:10.776859 30423 net.cpp:163] Memory required for data: 67952724
I0701 14:28:10.776926 30423 layer_factory.hpp:77] Creating layer res3a_branch2b/relu
I0701 14:28:10.776979 30423 net.cpp:98] Creating Layer res3a_branch2b/relu
I0701 14:28:10.777016 30423 net.cpp:439] res3a_branch2b/relu <- res3a_branch2b/bn
I0701 14:28:10.777036 30423 net.cpp:400] res3a_branch2b/relu -> res3a_branch2b/bn (in-place)
I0701 14:28:10.777055 30423 net.cpp:148] Setting up res3a_branch2b/relu
I0701 14:28:10.777073 30423 net.cpp:155] Top shape: 21 128 16 16 (688128)
I0701 14:28:10.777082 30423 net.cpp:163] Memory required for data: 70705236
I0701 14:28:10.777093 30423 layer_factory.hpp:77] Creating layer pool3
I0701 14:28:10.777109 30423 net.cpp:98] Creating Layer pool3
I0701 14:28:10.777122 30423 net.cpp:439] pool3 <- res3a_branch2b/bn
I0701 14:28:10.777134 30423 net.cpp:413] pool3 -> pool3
I0701 14:28:10.777289 30423 net.cpp:148] Setting up pool3
I0701 14:28:10.777309 30423 net.cpp:155] Top shape: 21 128 16 16 (688128)
I0701 14:28:10.777320 30423 net.cpp:163] Memory required for data: 73457748
I0701 14:28:10.777330 30423 layer_factory.hpp:77] Creating layer res4a_branch2a
I0701 14:28:10.777349 30423 net.cpp:98] Creating Layer res4a_branch2a
I0701 14:28:10.777359 30423 net.cpp:439] res4a_branch2a <- pool3
I0701 14:28:10.777367 30423 net.cpp:413] res4a_branch2a -> res4a_branch2a
I0701 14:28:10.785326 30423 net.cpp:148] Setting up res4a_branch2a
I0701 14:28:10.785338 30423 net.cpp:155] Top shape: 21 256 16 16 (1376256)
I0701 14:28:10.785341 30423 net.cpp:163] Memory required for data: 78962772
I0701 14:28:10.785346 30423 layer_factory.hpp:77] Creating layer res4a_branch2a/bn
I0701 14:28:10.785351 30423 net.cpp:98] Creating Layer res4a_branch2a/bn
I0701 14:28:10.785353 30423 net.cpp:439] res4a_branch2a/bn <- res4a_branch2a
I0701 14:28:10.785357 30423 net.cpp:413] res4a_branch2a/bn -> res4a_branch2a/bn
I0701 14:28:10.785964 30423 net.cpp:148] Setting up res4a_branch2a/bn
I0701 14:28:10.785970 30423 net.cpp:155] Top shape: 21 256 16 16 (1376256)
I0701 14:28:10.785972 30423 net.cpp:163] Memory required for data: 84467796
I0701 14:28:10.785977 30423 layer_factory.hpp:77] Creating layer res4a_branch2a/relu
I0701 14:28:10.785980 30423 net.cpp:98] Creating Layer res4a_branch2a/relu
I0701 14:28:10.785984 30423 net.cpp:439] res4a_branch2a/relu <- res4a_branch2a/bn
I0701 14:28:10.785985 30423 net.cpp:400] res4a_branch2a/relu -> res4a_branch2a/bn (in-place)
I0701 14:28:10.785989 30423 net.cpp:148] Setting up res4a_branch2a/relu
I0701 14:28:10.785991 30423 net.cpp:155] Top shape: 21 256 16 16 (1376256)
I0701 14:28:10.785993 30423 net.cpp:163] Memory required for data: 89972820
I0701 14:28:10.785995 30423 layer_factory.hpp:77] Creating layer res4a_branch2b
I0701 14:28:10.786000 30423 net.cpp:98] Creating Layer res4a_branch2b
I0701 14:28:10.786002 30423 net.cpp:439] res4a_branch2b <- res4a_branch2a/bn
I0701 14:28:10.786005 30423 net.cpp:413] res4a_branch2b -> res4a_branch2b
I0701 14:28:10.789189 30423 net.cpp:148] Setting up res4a_branch2b
I0701 14:28:10.789194 30423 net.cpp:155] Top shape: 21 256 16 16 (1376256)
I0701 14:28:10.789196 30423 net.cpp:163] Memory required for data: 95477844
I0701 14:28:10.789199 30423 layer_factory.hpp:77] Creating layer res4a_branch2b/bn
I0701 14:28:10.789203 30423 net.cpp:98] Creating Layer res4a_branch2b/bn
I0701 14:28:10.789206 30423 net.cpp:439] res4a_branch2b/bn <- res4a_branch2b
I0701 14:28:10.789208 30423 net.cpp:413] res4a_branch2b/bn -> res4a_branch2b/bn
I0701 14:28:10.789793 30423 net.cpp:148] Setting up res4a_branch2b/bn
I0701 14:28:10.789798 30423 net.cpp:155] Top shape: 21 256 16 16 (1376256)
I0701 14:28:10.789800 30423 net.cpp:163] Memory required for data: 100982868
I0701 14:28:10.789804 30423 layer_factory.hpp:77] Creating layer res4a_branch2b/relu
I0701 14:28:10.789808 30423 net.cpp:98] Creating Layer res4a_branch2b/relu
I0701 14:28:10.789809 30423 net.cpp:439] res4a_branch2b/relu <- res4a_branch2b/bn
I0701 14:28:10.789811 30423 net.cpp:400] res4a_branch2b/relu -> res4a_branch2b/bn (in-place)
I0701 14:28:10.789815 30423 net.cpp:148] Setting up res4a_branch2b/relu
I0701 14:28:10.789818 30423 net.cpp:155] Top shape: 21 256 16 16 (1376256)
I0701 14:28:10.789829 30423 net.cpp:163] Memory required for data: 106487892
I0701 14:28:10.789831 30423 layer_factory.hpp:77] Creating layer pool4
I0701 14:28:10.789835 30423 net.cpp:98] Creating Layer pool4
I0701 14:28:10.789839 30423 net.cpp:439] pool4 <- res4a_branch2b/bn
I0701 14:28:10.789841 30423 net.cpp:413] pool4 -> pool4
I0701 14:28:10.789876 30423 net.cpp:148] Setting up pool4
I0701 14:28:10.789880 30423 net.cpp:155] Top shape: 21 256 8 8 (344064)
I0701 14:28:10.789882 30423 net.cpp:163] Memory required for data: 107864148
I0701 14:28:10.789885 30423 layer_factory.hpp:77] Creating layer res5a_branch2a
I0701 14:28:10.789888 30423 net.cpp:98] Creating Layer res5a_branch2a
I0701 14:28:10.789891 30423 net.cpp:439] res5a_branch2a <- pool4
I0701 14:28:10.789892 30423 net.cpp:413] res5a_branch2a -> res5a_branch2a
I0701 14:28:10.814815 30423 net.cpp:148] Setting up res5a_branch2a
I0701 14:28:10.814836 30423 net.cpp:155] Top shape: 21 512 8 8 (688128)
I0701 14:28:10.814838 30423 net.cpp:163] Memory required for data: 110616660
I0701 14:28:10.814844 30423 layer_factory.hpp:77] Creating layer res5a_branch2a/bn
I0701 14:28:10.814851 30423 net.cpp:98] Creating Layer res5a_branch2a/bn
I0701 14:28:10.814854 30423 net.cpp:439] res5a_branch2a/bn <- res5a_branch2a
I0701 14:28:10.814859 30423 net.cpp:413] res5a_branch2a/bn -> res5a_branch2a/bn
I0701 14:28:10.815500 30423 net.cpp:148] Setting up res5a_branch2a/bn
I0701 14:28:10.815506 30423 net.cpp:155] Top shape: 21 512 8 8 (688128)
I0701 14:28:10.815508 30423 net.cpp:163] Memory required for data: 113369172
I0701 14:28:10.815515 30423 layer_factory.hpp:77] Creating layer res5a_branch2a/relu
I0701 14:28:10.815520 30423 net.cpp:98] Creating Layer res5a_branch2a/relu
I0701 14:28:10.815521 30423 net.cpp:439] res5a_branch2a/relu <- res5a_branch2a/bn
I0701 14:28:10.815523 30423 net.cpp:400] res5a_branch2a/relu -> res5a_branch2a/bn (in-place)
I0701 14:28:10.815527 30423 net.cpp:148] Setting up res5a_branch2a/relu
I0701 14:28:10.815531 30423 net.cpp:155] Top shape: 21 512 8 8 (688128)
I0701 14:28:10.815531 30423 net.cpp:163] Memory required for data: 116121684
I0701 14:28:10.815533 30423 layer_factory.hpp:77] Creating layer res5a_branch2b
I0701 14:28:10.815542 30423 net.cpp:98] Creating Layer res5a_branch2b
I0701 14:28:10.815546 30423 net.cpp:439] res5a_branch2b <- res5a_branch2a/bn
I0701 14:28:10.815549 30423 net.cpp:413] res5a_branch2b -> res5a_branch2b
I0701 14:28:10.828374 30423 net.cpp:148] Setting up res5a_branch2b
I0701 14:28:10.828384 30423 net.cpp:155] Top shape: 21 512 8 8 (688128)
I0701 14:28:10.828387 30423 net.cpp:163] Memory required for data: 118874196
I0701 14:28:10.828393 30423 layer_factory.hpp:77] Creating layer res5a_branch2b/bn
I0701 14:28:10.828397 30423 net.cpp:98] Creating Layer res5a_branch2b/bn
I0701 14:28:10.828400 30423 net.cpp:439] res5a_branch2b/bn <- res5a_branch2b
I0701 14:28:10.828403 30423 net.cpp:413] res5a_branch2b/bn -> res5a_branch2b/bn
I0701 14:28:10.829026 30423 net.cpp:148] Setting up res5a_branch2b/bn
I0701 14:28:10.829031 30423 net.cpp:155] Top shape: 21 512 8 8 (688128)
I0701 14:28:10.829035 30423 net.cpp:163] Memory required for data: 121626708
I0701 14:28:10.829040 30423 layer_factory.hpp:77] Creating layer res5a_branch2b/relu
I0701 14:28:10.829042 30423 net.cpp:98] Creating Layer res5a_branch2b/relu
I0701 14:28:10.829044 30423 net.cpp:439] res5a_branch2b/relu <- res5a_branch2b/bn
I0701 14:28:10.829046 30423 net.cpp:400] res5a_branch2b/relu -> res5a_branch2b/bn (in-place)
I0701 14:28:10.829049 30423 net.cpp:148] Setting up res5a_branch2b/relu
I0701 14:28:10.829052 30423 net.cpp:155] Top shape: 21 512 8 8 (688128)
I0701 14:28:10.829054 30423 net.cpp:163] Memory required for data: 124379220
I0701 14:28:10.829056 30423 layer_factory.hpp:77] Creating layer pool5
I0701 14:28:10.829061 30423 net.cpp:98] Creating Layer pool5
I0701 14:28:10.829063 30423 net.cpp:439] pool5 <- res5a_branch2b/bn
I0701 14:28:10.829066 30423 net.cpp:413] pool5 -> pool5
I0701 14:28:10.829092 30423 net.cpp:148] Setting up pool5
I0701 14:28:10.829097 30423 net.cpp:155] Top shape: 21 512 1 1 (10752)
I0701 14:28:10.829107 30423 net.cpp:163] Memory required for data: 124422228
I0701 14:28:10.829109 30423 layer_factory.hpp:77] Creating layer fc10
I0701 14:28:10.829113 30423 net.cpp:98] Creating Layer fc10
I0701 14:28:10.829115 30423 net.cpp:439] fc10 <- pool5
I0701 14:28:10.829118 30423 net.cpp:413] fc10 -> fc10
I0701 14:28:10.829340 30423 net.cpp:148] Setting up fc10
I0701 14:28:10.829345 30423 net.cpp:155] Top shape: 21 10 (210)
I0701 14:28:10.829347 30423 net.cpp:163] Memory required for data: 124423068
I0701 14:28:10.829350 30423 layer_factory.hpp:77] Creating layer loss
I0701 14:28:10.829354 30423 net.cpp:98] Creating Layer loss
I0701 14:28:10.829355 30423 net.cpp:439] loss <- fc10
I0701 14:28:10.829357 30423 net.cpp:439] loss <- label
I0701 14:28:10.829360 30423 net.cpp:413] loss -> loss
I0701 14:28:10.829367 30423 layer_factory.hpp:77] Creating layer loss
…
I0701 14:28:10.830044 30423 solver.cpp:182] Creating test net (#0) specified by test_net file: training/cifar10_jacintonet11v2_2017-07-01_14-28-09/initial/test.prototxt
I0701 14:28:10.830230 30423 net.cpp:56] Initializing net from parameters: 
name: "jacintonet11v2_test"
state {
  phase: TEST
}
layer {
  name: "data"
  type: "Data"
  top: "data"
  top: "label"
  transform_param {
    mirror: false
    crop_size: 32
    mean_value: 0
    mean_value: 0
    mean_value: 0
  }
  data_param {
    source: "./data/cifar10_test_lmdb"
    batch_size: 50
    backend: LMDB
    threads: 1
  }
}
layer {
  name: "data/bias"
  type: "Bias"
  bottom: "data"
  top: "data/bias"
  param {
    lr_mult: 0
    decay_mult: 0
  }
  bias_param {
    filler {
      type: "constant"
      value: -128
    }
  }
}
layer {
  name: "conv1a"
  type: "Convolution"
  bottom: "data/bias"
  top: "conv1a"
  param {
    lr_mult: 1
    decay_mult: 1
  }
  param {
    lr_mult: 2
    decay_mult: 0
  }
  convolution_param {
    num_output: 32
    bias_term: true
    pad: 2
    kernel_size: 5
    group: 1
    stride: 1
    weight_filler {
      type: "msra"
    }
    bias_filler {
      type: "constant"
      value: 0
    }
    dilation: 1
  }
}
layer {
  name: "conv1a/bn"
  type: "BatchNorm"
  bottom: "conv1a"
  top: "conv1a/bn"
  param {
    lr_mult: 1
    decay_mult: 1
  }
  param {
    lr_mult: 1
    decay_mult: 1
  }
  param {
    lr_mult: 0
    decay_mult: 0
  }
  param {
    lr_mult: 0
    decay_mult: 0
  }
  batch_norm_param {
    moving_average_fraction: 0.99
    eps: 0.0001
    scale_filler {
      type: "constant"
      value: 1
    }
    bias_filler {
      type: "constant"
      value: 0
    }
  }
}
layer {
  name: "conv1a/relu"
  type: "ReLU"
  bottom: "conv1a/bn"
  top: "conv1a/bn"
}
layer {
  name: "conv1b"
  type: "Convolution"
  bottom: "conv1a/bn"
  top: "conv1b"
  param {
    lr_mult: 1
    decay_mult: 1
  }
  param {
    lr_mult: 2
    decay_mult: 0
  }
  convolution_param {
    num_output: 32
    bias_term: true
    pad: 1
    kernel_size: 3
    group: 4
    stride: 1
    weight_filler {
      type: "msra"
    }
    bias_filler {
      type: "constant"
      value: 0
    }
    dilation: 1
  }
}
layer {
  name: "conv1b/bn"
  type: "BatchNorm"
  bottom: "conv1b"
  top: "conv1b/bn"
  param {
    lr_mult: 1
    decay_mult: 1
  }
  param {
    lr_mult: 1
    decay_mult: 1
  }
  param {
    lr_mult: 0
    decay_mult: 0
  }
  param {
    lr_mult: 0
    decay_mult: 0
  }
  batch_norm_param {
    moving_average_fraction: 0.99
    eps: 0.0001
    scale_filler {
      type: "constant"
      value: 1
    }
    bias_filler {
      type: "constant"
      value: 0
    }
  }
}
layer {
  name: "conv1b/relu"
  type: "ReLU"
  bottom: "conv1b/bn"
  top: "conv1b/bn"
}
layer {
  name: "pool1"
  type: "Pooling"
  bottom: "conv1b/bn"
  top: "pool1"
  pooling_param {
    pool: MAX
    kernel_size: 1
    stride: 1
  }
}
layer {
  name: "res2a_branch2a"
  type: "Convolution"
  bottom: "pool1"
  top: "res2a_branch2a"
  param {
    lr_mult: 1
    decay_mult: 1
  }
  param {
    lr_mult: 2
    decay_mult: 0
  }
  convolution_param {
    num_output: 64
    bias_term: true
    pad: 1
    kernel_size: 3
    group: 1
    stride: 1
    weight_filler {
      type: "msra"
    }
    bias_filler {
      type: "constant"
      value: 0
    }
    dilation: 1
  }
}
layer {
  name: "res2a_branch2a/bn"
  type: "BatchNorm"
  bottom: "res2a_branch2a"
  top: "res2a_branch2a/bn"
  param {
    lr_mult: 1
    decay_mult: 1
  }
  param {
    lr_mult: 1
    decay_mult: 1
  }
  param {
    lr_mult: 0
    decay_mult: 0
  }
  param {
    lr_mult: 0
    decay_mult: 0
  }
  batch_norm_param {
    moving_average_fraction: 0.99
    eps: 0.0001
    scale_filler {
      type: "constant"
      value: 1
    }
    bias_filler {
      type: "constant"
      value: 0
    }
  }
}
layer {
  name: "res2a_branch2a/relu"
  type: "ReLU"
  bottom: "res2a_branch2a/bn"
  top: "res2a_branch2a/bn"
}
layer {
  name: "res2a_branch2b"
  type: "Convolution"
  bottom: "res2a_branch2a/bn"
  top: "res2a_branch2b"
  param {
    lr_mult: 1
    decay_mult: 1
  }
  param {
    lr_mult: 2
    decay_mult: 0
  }
  convolution_param {
    num_output: 64
    bias_term: true
    pad: 1
    kernel_size: 3
    group: 4
    stride: 1
    weight_filler {
      type: "msra"
    }
    bias_filler {
      type: "constant"
      value: 0
    }
    dilation: 1
  }
}
layer {
  name: "res2a_branch2b/bn"
  type: "BatchNorm"
  bottom: "res2a_branch2b"
  top: "res2a_branch2b/bn"
  param {
    lr_mult: 1
    decay_mult: 1
  }
  param {
    lr_mult: 1
    decay_mult: 1
  }
  param {
    lr_mult: 0
    decay_mult: 0
  }
  param {
    lr_mult: 0
    decay_mult: 0
  }
  batch_norm_param {
    moving_average_fraction: 0.99
    eps: 0.0001
    scale_filler {
      type: "constant"
      value: 1
    }
    bias_filler {
      type: "constant"
      value: 0
    }
  }
}
layer {
  name: "res2a_branch2b/relu"
  type: "ReLU"
  bottom: "res2a_branch2b/bn"
  top: "res2a_branch2b/bn"
}
layer {
  name: "pool2"
  type: "Pooling"
  bottom: "res2a_branch2b/bn"
  top: "pool2"
  pooling_param {
    pool: MAX
    kernel_size: 2
    stride: 2
  }
}
layer {
  name: "res3a_branch2a"
  type: "Convolution"
  bottom: "pool2"
  top: "res3a_branch2a"
  param {
    lr_mult: 1
    decay_mult: 1
  }
  param {
    lr_mult: 2
    decay_mult: 0
  }
  convolution_param {
    num_output: 128
    bias_term: true
    pad: 1
    kernel_size: 3
    group: 1
    stride: 1
    weight_filler {
      type: "msra"
    }
    bias_filler {
      type: "constant"
      value: 0
    }
    dilation: 1
  }
}
layer {
  name: "res3a_branch2a/bn"
  type: "BatchNorm"
  bottom: "res3a_branch2a"
  top: "res3a_branch2a/bn"
  param {
    lr_mult: 1
    decay_mult: 1
  }
  param {
    lr_mult: 1
    decay_mult: 1
  }
  param {
    lr_mult: 0
    decay_mult: 0
  }
  param {
    lr_mult: 0
    decay_mult: 0
  }
  batch_norm_param {
    moving_average_fraction: 0.99
    eps: 0.0001
    scale_filler {
      type: "constant"
      value: 1
    }
    bias_filler {
      type: "constant"
      value: 0
    }
  }
}
layer {
  name: "res3a_branch2a/relu"
  type: "ReLU"
  bottom: "res3a_branch2a/bn"
  top: "res3a_branch2a/bn"
}
layer {
  name: "res3a_branch2b"
  type: "Convolution"
  bottom: "res3a_branch2a/bn"
  top: "res3a_branch2b"
  param {
    lr_mult: 1
    decay_mult: 1
  }
  param {
    lr_mult: 2
    decay_mult: 0
  }
  convolution_param {
    num_output: 128
    bias_term: true
    pad: 1
    kernel_size: 3
    group: 4
    stride: 1
    weight_filler {
      type: "msra"
    }
    bias_filler {
      type: "constant"
      value: 0
    }
    dilation: 1
  }
}
layer {
  name: "res3a_branch2b/bn"
  type: "BatchNorm"
  bottom: "res3a_branch2b"
  top: "res3a_branch2b/bn"
  param {
    lr_mult: 1
    decay_mult: 1
  }
  param {
    lr_mult: 1
    decay_mult: 1
  }
  param {
    lr_mult: 0
    decay_mult: 0
  }
  param {
    lr_mult: 0
    decay_mult: 0
  }
  batch_norm_param {
    moving_average_fraction: 0.99
    eps: 0.0001
    scale_filler {
      type: "constant"
      value: 1
    }
    bias_filler {
      type: "constant"
      value: 0
    }
  }
}
layer {
  name: "res3a_branch2b/relu"
  type: "ReLU"
  bottom: "res3a_branch2b/bn"
  top: "res3a_branch2b/bn"
}
layer {
  name: "pool3"
  type: "Pooling"
  bottom: "res3a_branch2b/bn"
  top: "pool3"
  pooling_param {
    pool: MAX
    kernel_size: 1
    stride: 1
  }
}
layer {
  name: "res4a_branch2a"
  type: "Convolution"
  bottom: "pool3"
  top: "res4a_branch2a"
  param {
    lr_mult: 1
    decay_mult: 1
  }
  param {
    lr_mult: 2
    decay_mult: 0
  }
  convolution_param {
    num_output: 256
    bias_term: true
    pad: 1
    kernel_size: 3
    group: 1
    stride: 1
    weight_filler {
      type: "msra"
    }
    bias_filler {
      type: "constant"
      value: 0
    }
    dilation: 1
  }
}
layer {
  name: "res4a_branch2a/bn"
  type: "BatchNorm"
  bottom: "res4a_branch2a"
  top: "res4a_branch2a/bn"
  param {
    lr_mult: 1
    decay_mult: 1
  }
  param {
    lr_mult: 1
    decay_mult: 1
  }
  param {
    lr_mult: 0
    decay_mult: 0
  }
  param {
    lr_mult: 0
    decay_mult: 0
  }
  batch_norm_param {
    moving_average_fraction: 0.99
    eps: 0.0001
    scale_filler {
      type: "constant"
      value: 1
    }
    bias_filler {
      type: "constant"
      value: 0
    }
  }
}
layer {
  name: "res4a_branch2a/relu"
  type: "ReLU"
  bottom: "res4a_branch2a/bn"
  top: "res4a_branch2a/bn"
}
layer {
  name: "res4a_branch2b"
  type: "Convolution"
  bottom: "res4a_branch2a/bn"
  top: "res4a_branch2b"
  param {
    lr_mult: 1
    decay_mult: 1
  }
  param {
    lr_mult: 2
    decay_mult: 0
  }
  convolution_param {
    num_output: 256
    bias_term: true
    pad: 1
    kernel_size: 3
    group: 4
    stride: 1
    weight_filler {
      type: "msra"
    }
    bias_filler {
      type: "constant"
      value: 0
    }
    dilation: 1
  }
}
layer {
  name: "res4a_branch2b/bn"
  type: "BatchNorm"
  bottom: "res4a_branch2b"
  top: "res4a_branch2b/bn"
  param {
    lr_mult: 1
    decay_mult: 1
  }
  param {
    lr_mult: 1
    decay_mult: 1
  }
  param {
    lr_mult: 0
    decay_mult: 0
  }
  param {
    lr_mult: 0
    decay_mult: 0
  }
  batch_norm_param {
    moving_average_fraction: 0.99
    eps: 0.0001
    scale_filler {
      type: "constant"
      value: 1
    }
    bias_filler {
      type: "constant"
      value: 0
    }
  }
}
layer {
  name: "res4a_branch2b/relu"
  type: "ReLU"
  bottom: "res4a_branch2b/bn"
  top: "res4a_branch2b/bn"
}
layer {
  name: "pool4"
  type: "Pooling"
  bottom: "res4a_branch2b/bn"
  top: "pool4"
  pooling_param {
    pool: MAX
    kernel_size: 2
    stride: 2
  }
}
layer {
  name: "res5a_branch2a"
  type: "Convolution"
  bottom: "pool4"
  top: "res5a_branch2a"
  param {
    lr_mult: 1
    decay_mult: 1
  }
  param {
    lr_mult: 2
    decay_mult: 0
  }
  convolution_param {
    num_output: 512
    bias_term: true
    pad: 1
    kernel_size: 3
    group: 1
    stride: 1
    weight_filler {
      type: "msra"
    }
    bias_filler {
      type: "constant"
      value: 0
    }
    dilation: 1
  }
}
layer {
  name: "res5a_branch2a/bn"
  type: "BatchNorm"
  bottom: "res5a_branch2a"
  top: "res5a_branch2a/bn"
  param {
    lr_mult: 1
    decay_mult: 1
  }
  param {
    lr_mult: 1
    decay_mult: 1
  }
  param {
    lr_mult: 0
    decay_mult: 0
  }
  param {
    lr_mult: 0
    decay_mult: 0
  }
  batch_norm_param {
    moving_average_fraction: 0.99
    eps: 0.0001
    scale_filler {
      type: "constant"
      value: 1
    }
    bias_filler {
      type: "constant"
      value: 0
    }
  }
}
layer {
  name: "res5a_branch2a/relu"
  type: "ReLU"
  bottom: "res5a_branch2a/bn"
  top: "res5a_branch2a/bn"
}
layer {
  name: "res5a_branch2b"
  type: "Convolution"
  bottom: "res5a_branch2a/bn"
  top: "res5a_branch2b"
  param {
    lr_mult: 1
    decay_mult: 1
  }
  param {
    lr_mult: 2
    decay_mult: 0
  }
  convolution_param {
    num_output: 512
    bias_term: true
    pad: 1
    kernel_size: 3
    group: 4
    stride: 1
    weight_filler {
      type: "msra"
    }
    bias_filler {
      type: "constant"
      value: 0
    }
    dilation: 1
  }
}
layer {
  name: "res5a_branch2b/bn"
  type: "BatchNorm"
  bottom: "res5a_branch2b"
  top: "res5a_branch2b/bn"
  param {
    lr_mult: 1
    decay_mult: 1
  }
  param {
    lr_mult: 1
    decay_mult: 1
  }
  param {
    lr_mult: 0
    decay_mult: 0
  }
  param {
    lr_mult: 0
    decay_mult: 0
  }
  batch_norm_param {
    moving_average_fraction: 0.99
    eps: 0.0001
    scale_filler {
      type: "constant"
      value: 1
    }
    bias_filler {
      type: "constant"
      value: 0
    }
  }
}
layer {
  name: "res5a_branch2b/relu"
  type: "ReLU"
  bottom: "res5a_branch2b/bn"
  top: "res5a_branch2b/bn"
}
layer {
  name: "pool5"
  type: "Pooling"
  bottom: "res5a_branch2b/bn"
  top: "pool5"
  pooling_param {
    pool: AVE
    global_pooling: true
  }
}
layer {
  name: "fc10"
  type: "InnerProduct"
  bottom: "pool5"
  top: "fc10"
  param {
    lr_mult: 1
    decay_mult: 1
  }
  param {
    lr_mult: 2
    decay_mult: 0
  }
  inner_product_param {
    num_output: 10
    weight_filler {
      type: "msra"
    }
    bias_filler {
      type: "constant"
      value: 0
    }
  }
}
layer {
  name: "loss"
  type: "SoftmaxWithLoss"
  bottom: "fc10"
  bottom: "label"
  top: "loss"
  propagate_down: true
  propagate_down: false
}
layer {
  name: "accuracy/top1"
  type: "Accuracy"
  bottom: "fc10"
  bottom: "label"
  top: "accuracy/top1"
  include {
    phase: TEST
  }
}
layer {
  name: "accuracy/top5"
  type: "Accuracy"
  bottom: "fc10"
  bottom: "label"
  top: "accuracy/top5"
  include {
    phase: TEST
  }
  accuracy_param {
    top_k: 5
  }
}
I0701 14:28:10.830312 30423 layer_factory.hpp:77] Creating layer data
I0701 14:28:10.830366 30423 net.cpp:98] Creating Layer data
I0701 14:28:10.830371 30423 net.cpp:413] data -> data
I0701 14:28:10.830376 30423 net.cpp:413] data -> label
I0701 14:28:10.836664 30455 db_lmdb.cpp:35] Opened lmdb ./data/cifar10_test_lmdb
I0701 14:28:10.840301 30423 data_layer.cpp:78] ReshapePrefetch 50, 3, 32, 32
I0701 14:28:10.840373 30423 data_layer.cpp:83] output data size: 50,3,32,32
I0701 14:28:10.842820 30423 net.cpp:148] Setting up data
I0701 14:28:10.842833 30423 net.cpp:155] Top shape: 50 3 32 32 (153600)
I0701 14:28:10.842839 30423 net.cpp:155] Top shape: 50 (50)
I0701 14:28:10.842842 30423 net.cpp:163] Memory required for data: 614600
I0701 14:28:10.842849 30423 layer_factory.hpp:77] Creating layer label_data_1_split
I0701 14:28:10.842859 30423 net.cpp:98] Creating Layer label_data_1_split
I0701 14:28:10.842864 30423 net.cpp:439] label_data_1_split <- label
I0701 14:28:10.842869 30423 net.cpp:413] label_data_1_split -> label_data_1_split_0
I0701 14:28:10.842877 30423 net.cpp:413] label_data_1_split -> label_data_1_split_1
I0701 14:28:10.842882 30423 net.cpp:413] label_data_1_split -> label_data_1_split_2
I0701 14:28:10.842998 30423 net.cpp:148] Setting up label_data_1_split
I0701 14:28:10.843008 30423 net.cpp:155] Top shape: 50 (50)
I0701 14:28:10.843014 30423 net.cpp:155] Top shape: 50 (50)
I0701 14:28:10.843017 30423 net.cpp:155] Top shape: 50 (50)
I0701 14:28:10.843021 30423 net.cpp:163] Memory required for data: 615200
I0701 14:28:10.843026 30423 layer_factory.hpp:77] Creating layer data/bias
I0701 14:28:10.843034 30423 net.cpp:98] Creating Layer data/bias
I0701 14:28:10.843039 30423 net.cpp:439] data/bias <- data
I0701 14:28:10.843044 30423 net.cpp:413] data/bias -> data/bias
I0701 14:28:10.843149 30423 net.cpp:148] Setting up data/bias
I0701 14:28:10.843155 30423 net.cpp:155] Top shape: 50 3 32 32 (153600)
I0701 14:28:10.843159 30423 net.cpp:163] Memory required for data: 1229600
I0701 14:28:10.843166 30423 layer_factory.hpp:77] Creating layer conv1a
I0701 14:28:10.843174 30423 net.cpp:98] Creating Layer conv1a
I0701 14:28:10.843178 30423 net.cpp:439] conv1a <- data/bias
I0701 14:28:10.843183 30423 net.cpp:413] conv1a -> conv1a
I0701 14:28:10.843539 30423 net.cpp:148] Setting up conv1a
I0701 14:28:10.843547 30423 net.cpp:155] Top shape: 50 32 32 32 (1638400)
I0701 14:28:10.843551 30423 net.cpp:163] Memory required for data: 7783200
I0701 14:28:10.843559 30423 layer_factory.hpp:77] Creating layer conv1a/bn
I0701 14:28:10.843565 30423 net.cpp:98] Creating Layer conv1a/bn
I0701 14:28:10.843569 30423 net.cpp:439] conv1a/bn <- conv1a
I0701 14:28:10.843575 30423 net.cpp:413] conv1a/bn -> conv1a/bn
I0701 14:28:10.844449 30423 net.cpp:148] Setting up conv1a/bn
I0701 14:28:10.844455 30423 net.cpp:155] Top shape: 50 32 32 32 (1638400)
I0701 14:28:10.844458 30423 net.cpp:163] Memory required for data: 14336800
I0701 14:28:10.844467 30423 layer_factory.hpp:77] Creating layer conv1a/relu
I0701 14:28:10.844473 30423 net.cpp:98] Creating Layer conv1a/relu
I0701 14:28:10.844477 30423 net.cpp:439] conv1a/relu <- conv1a/bn
I0701 14:28:10.844491 30423 net.cpp:400] conv1a/relu -> conv1a/bn (in-place)
I0701 14:28:10.844497 30423 net.cpp:148] Setting up conv1a/relu
I0701 14:28:10.844502 30423 net.cpp:155] Top shape: 50 32 32 32 (1638400)
I0701 14:28:10.844506 30423 net.cpp:163] Memory required for data: 20890400
I0701 14:28:10.844509 30423 layer_factory.hpp:77] Creating layer conv1b
I0701 14:28:10.844521 30423 net.cpp:98] Creating Layer conv1b
I0701 14:28:10.844527 30423 net.cpp:439] conv1b <- conv1a/bn
I0701 14:28:10.844534 30423 net.cpp:413] conv1b -> conv1b
I0701 14:28:10.844871 30423 net.cpp:148] Setting up conv1b
I0701 14:28:10.844877 30423 net.cpp:155] Top shape: 50 32 32 32 (1638400)
I0701 14:28:10.844882 30423 net.cpp:163] Memory required for data: 27444000
I0701 14:28:10.844888 30423 layer_factory.hpp:77] Creating layer conv1b/bn
I0701 14:28:10.844895 30423 net.cpp:98] Creating Layer conv1b/bn
I0701 14:28:10.844898 30423 net.cpp:439] conv1b/bn <- conv1b
I0701 14:28:10.844904 30423 net.cpp:413] conv1b/bn -> conv1b/bn
I0701 14:28:10.845692 30423 net.cpp:148] Setting up conv1b/bn
I0701 14:28:10.845700 30423 net.cpp:155] Top shape: 50 32 32 32 (1638400)
I0701 14:28:10.845703 30423 net.cpp:163] Memory required for data: 33997600
I0701 14:28:10.845711 30423 layer_factory.hpp:77] Creating layer conv1b/relu
I0701 14:28:10.845716 30423 net.cpp:98] Creating Layer conv1b/relu
I0701 14:28:10.845721 30423 net.cpp:439] conv1b/relu <- conv1b/bn
I0701 14:28:10.845726 30423 net.cpp:400] conv1b/relu -> conv1b/bn (in-place)
I0701 14:28:10.845731 30423 net.cpp:148] Setting up conv1b/relu
I0701 14:28:10.845736 30423 net.cpp:155] Top shape: 50 32 32 32 (1638400)
I0701 14:28:10.845739 30423 net.cpp:163] Memory required for data: 40551200
I0701 14:28:10.845742 30423 layer_factory.hpp:77] Creating layer pool1
I0701 14:28:10.845748 30423 net.cpp:98] Creating Layer pool1
I0701 14:28:10.845752 30423 net.cpp:439] pool1 <- conv1b/bn
I0701 14:28:10.845755 30423 net.cpp:413] pool1 -> pool1
I0701 14:28:10.845794 30423 net.cpp:148] Setting up pool1
I0701 14:28:10.845799 30423 net.cpp:155] Top shape: 50 32 32 32 (1638400)
I0701 14:28:10.845803 30423 net.cpp:163] Memory required for data: 47104800
I0701 14:28:10.845806 30423 layer_factory.hpp:77] Creating layer res2a_branch2a
I0701 14:28:10.845814 30423 net.cpp:98] Creating Layer res2a_branch2a
I0701 14:28:10.845818 30423 net.cpp:439] res2a_branch2a <- pool1
I0701 14:28:10.845824 30423 net.cpp:413] res2a_branch2a -> res2a_branch2a
I0701 14:28:10.846491 30423 net.cpp:148] Setting up res2a_branch2a
I0701 14:28:10.846498 30423 net.cpp:155] Top shape: 50 64 32 32 (3276800)
I0701 14:28:10.846503 30423 net.cpp:163] Memory required for data: 60212000
I0701 14:28:10.846509 30423 layer_factory.hpp:77] Creating layer res2a_branch2a/bn
I0701 14:28:10.846514 30423 net.cpp:98] Creating Layer res2a_branch2a/bn
I0701 14:28:10.846518 30423 net.cpp:439] res2a_branch2a/bn <- res2a_branch2a
I0701 14:28:10.846524 30423 net.cpp:413] res2a_branch2a/bn -> res2a_branch2a/bn
I0701 14:28:10.847208 30423 net.cpp:148] Setting up res2a_branch2a/bn
I0701 14:28:10.847214 30423 net.cpp:155] Top shape: 50 64 32 32 (3276800)
I0701 14:28:10.847218 30423 net.cpp:163] Memory required for data: 73319200
I0701 14:28:10.847226 30423 layer_factory.hpp:77] Creating layer res2a_branch2a/relu
I0701 14:28:10.847230 30423 net.cpp:98] Creating Layer res2a_branch2a/relu
I0701 14:28:10.847235 30423 net.cpp:439] res2a_branch2a/relu <- res2a_branch2a/bn
I0701 14:28:10.847239 30423 net.cpp:400] res2a_branch2a/relu -> res2a_branch2a/bn (in-place)
I0701 14:28:10.847245 30423 net.cpp:148] Setting up res2a_branch2a/relu
I0701 14:28:10.847249 30423 net.cpp:155] Top shape: 50 64 32 32 (3276800)
I0701 14:28:10.847254 30423 net.cpp:163] Memory required for data: 86426400
I0701 14:28:10.847256 30423 layer_factory.hpp:77] Creating layer res2a_branch2b
I0701 14:28:10.847262 30423 net.cpp:98] Creating Layer res2a_branch2b
I0701 14:28:10.847266 30423 net.cpp:439] res2a_branch2b <- res2a_branch2a/bn
I0701 14:28:10.847271 30423 net.cpp:413] res2a_branch2b -> res2a_branch2b
I0701 14:28:10.847743 30423 net.cpp:148] Setting up res2a_branch2b
I0701 14:28:10.847749 30423 net.cpp:155] Top shape: 50 64 32 32 (3276800)
I0701 14:28:10.847754 30423 net.cpp:163] Memory required for data: 99533600
I0701 14:28:10.847759 30423 layer_factory.hpp:77] Creating layer res2a_branch2b/bn
I0701 14:28:10.847764 30423 net.cpp:98] Creating Layer res2a_branch2b/bn
I0701 14:28:10.847769 30423 net.cpp:439] res2a_branch2b/bn <- res2a_branch2b
I0701 14:28:10.847774 30423 net.cpp:413] res2a_branch2b/bn -> res2a_branch2b/bn
I0701 14:28:10.848454 30423 net.cpp:148] Setting up res2a_branch2b/bn
I0701 14:28:10.848460 30423 net.cpp:155] Top shape: 50 64 32 32 (3276800)
I0701 14:28:10.848464 30423 net.cpp:163] Memory required for data: 112640800
I0701 14:28:10.848472 30423 layer_factory.hpp:77] Creating layer res2a_branch2b/relu
I0701 14:28:10.848476 30423 net.cpp:98] Creating Layer res2a_branch2b/relu
I0701 14:28:10.848480 30423 net.cpp:439] res2a_branch2b/relu <- res2a_branch2b/bn
I0701 14:28:10.848485 30423 net.cpp:400] res2a_branch2b/relu -> res2a_branch2b/bn (in-place)
I0701 14:28:10.848490 30423 net.cpp:148] Setting up res2a_branch2b/relu
I0701 14:28:10.848495 30423 net.cpp:155] Top shape: 50 64 32 32 (3276800)
I0701 14:28:10.848500 30423 net.cpp:163] Memory required for data: 125748000
I0701 14:28:10.848502 30423 layer_factory.hpp:77] Creating layer pool2
I0701 14:28:10.848508 30423 net.cpp:98] Creating Layer pool2
I0701 14:28:10.848511 30423 net.cpp:439] pool2 <- res2a_branch2b/bn
I0701 14:28:10.848516 30423 net.cpp:413] pool2 -> pool2
I0701 14:28:10.848556 30423 net.cpp:148] Setting up pool2
I0701 14:28:10.848562 30423 net.cpp:155] Top shape: 50 64 16 16 (819200)
I0701 14:28:10.848565 30423 net.cpp:163] Memory required for data: 129024800
I0701 14:28:10.848569 30423 layer_factory.hpp:77] Creating layer res3a_branch2a
I0701 14:28:10.848575 30423 net.cpp:98] Creating Layer res3a_branch2a
I0701 14:28:10.848579 30423 net.cpp:439] res3a_branch2a <- pool2
I0701 14:28:10.848584 30423 net.cpp:413] res3a_branch2a -> res3a_branch2a
I0701 14:28:10.851197 30423 net.cpp:148] Setting up res3a_branch2a
I0701 14:28:10.851207 30423 net.cpp:155] Top shape: 50 128 16 16 (1638400)
I0701 14:28:10.851210 30423 net.cpp:163] Memory required for data: 135578400
I0701 14:28:10.851217 30423 layer_factory.hpp:77] Creating layer res3a_branch2a/bn
I0701 14:28:10.851222 30423 net.cpp:98] Creating Layer res3a_branch2a/bn
I0701 14:28:10.851227 30423 net.cpp:439] res3a_branch2a/bn <- res3a_branch2a
I0701 14:28:10.851233 30423 net.cpp:413] res3a_branch2a/bn -> res3a_branch2a/bn
I0701 14:28:10.851836 30423 net.cpp:148] Setting up res3a_branch2a/bn
I0701 14:28:10.851843 30423 net.cpp:155] Top shape: 50 128 16 16 (1638400)
I0701 14:28:10.851847 30423 net.cpp:163] Memory required for data: 142132000
I0701 14:28:10.851856 30423 layer_factory.hpp:77] Creating layer res3a_branch2a/relu
I0701 14:28:10.851862 30423 net.cpp:98] Creating Layer res3a_branch2a/relu
I0701 14:28:10.851866 30423 net.cpp:439] res3a_branch2a/relu <- res3a_branch2a/bn
I0701 14:28:10.851871 30423 net.cpp:400] res3a_branch2a/relu -> res3a_branch2a/bn (in-place)
I0701 14:28:10.851877 30423 net.cpp:148] Setting up res3a_branch2a/relu
I0701 14:28:10.851881 30423 net.cpp:155] Top shape: 50 128 16 16 (1638400)
I0701 14:28:10.851886 30423 net.cpp:163] Memory required for data: 148685600
I0701 14:28:10.851888 30423 layer_factory.hpp:77] Creating layer res3a_branch2b
I0701 14:28:10.851894 30423 net.cpp:98] Creating Layer res3a_branch2b
I0701 14:28:10.851898 30423 net.cpp:439] res3a_branch2b <- res3a_branch2a/bn
I0701 14:28:10.851903 30423 net.cpp:413] res3a_branch2b -> res3a_branch2b
I0701 14:28:10.852916 30423 net.cpp:148] Setting up res3a_branch2b
I0701 14:28:10.852921 30423 net.cpp:155] Top shape: 50 128 16 16 (1638400)
I0701 14:28:10.852926 30423 net.cpp:163] Memory required for data: 155239200
I0701 14:28:10.852931 30423 layer_factory.hpp:77] Creating layer res3a_branch2b/bn
I0701 14:28:10.852936 30423 net.cpp:98] Creating Layer res3a_branch2b/bn
I0701 14:28:10.852941 30423 net.cpp:439] res3a_branch2b/bn <- res3a_branch2b
I0701 14:28:10.852952 30423 net.cpp:413] res3a_branch2b/bn -> res3a_branch2b/bn
I0701 14:28:10.853560 30423 net.cpp:148] Setting up res3a_branch2b/bn
I0701 14:28:10.853566 30423 net.cpp:155] Top shape: 50 128 16 16 (1638400)
I0701 14:28:10.853570 30423 net.cpp:163] Memory required for data: 161792800
I0701 14:28:10.853579 30423 layer_factory.hpp:77] Creating layer res3a_branch2b/relu
I0701 14:28:10.853582 30423 net.cpp:98] Creating Layer res3a_branch2b/relu
I0701 14:28:10.853587 30423 net.cpp:439] res3a_branch2b/relu <- res3a_branch2b/bn
I0701 14:28:10.853591 30423 net.cpp:400] res3a_branch2b/relu -> res3a_branch2b/bn (in-place)
I0701 14:28:10.853597 30423 net.cpp:148] Setting up res3a_branch2b/relu
I0701 14:28:10.853601 30423 net.cpp:155] Top shape: 50 128 16 16 (1638400)
I0701 14:28:10.853605 30423 net.cpp:163] Memory required for data: 168346400
I0701 14:28:10.853608 30423 layer_factory.hpp:77] Creating layer pool3
I0701 14:28:10.853613 30423 net.cpp:98] Creating Layer pool3
I0701 14:28:10.853617 30423 net.cpp:439] pool3 <- res3a_branch2b/bn
I0701 14:28:10.853621 30423 net.cpp:413] pool3 -> pool3
I0701 14:28:10.853662 30423 net.cpp:148] Setting up pool3
I0701 14:28:10.853667 30423 net.cpp:155] Top shape: 50 128 16 16 (1638400)
I0701 14:28:10.853669 30423 net.cpp:163] Memory required for data: 174900000
I0701 14:28:10.853673 30423 layer_factory.hpp:77] Creating layer res4a_branch2a
I0701 14:28:10.853682 30423 net.cpp:98] Creating Layer res4a_branch2a
I0701 14:28:10.853684 30423 net.cpp:439] res4a_branch2a <- pool3
I0701 14:28:10.853689 30423 net.cpp:413] res4a_branch2a -> res4a_branch2a
I0701 14:28:10.859738 30423 net.cpp:148] Setting up res4a_branch2a
I0701 14:28:10.859745 30423 net.cpp:155] Top shape: 50 256 16 16 (3276800)
I0701 14:28:10.859748 30423 net.cpp:163] Memory required for data: 188007200
I0701 14:28:10.859755 30423 layer_factory.hpp:77] Creating layer res4a_branch2a/bn
I0701 14:28:10.859760 30423 net.cpp:98] Creating Layer res4a_branch2a/bn
I0701 14:28:10.859764 30423 net.cpp:439] res4a_branch2a/bn <- res4a_branch2a
I0701 14:28:10.859769 30423 net.cpp:413] res4a_branch2a/bn -> res4a_branch2a/bn
I0701 14:28:10.860378 30423 net.cpp:148] Setting up res4a_branch2a/bn
I0701 14:28:10.860383 30423 net.cpp:155] Top shape: 50 256 16 16 (3276800)
I0701 14:28:10.860388 30423 net.cpp:163] Memory required for data: 201114400
I0701 14:28:10.860396 30423 layer_factory.hpp:77] Creating layer res4a_branch2a/relu
I0701 14:28:10.860400 30423 net.cpp:98] Creating Layer res4a_branch2a/relu
I0701 14:28:10.860404 30423 net.cpp:439] res4a_branch2a/relu <- res4a_branch2a/bn
I0701 14:28:10.860409 30423 net.cpp:400] res4a_branch2a/relu -> res4a_branch2a/bn (in-place)
I0701 14:28:10.860414 30423 net.cpp:148] Setting up res4a_branch2a/relu
I0701 14:28:10.860419 30423 net.cpp:155] Top shape: 50 256 16 16 (3276800)
I0701 14:28:10.860422 30423 net.cpp:163] Memory required for data: 214221600
I0701 14:28:10.860426 30423 layer_factory.hpp:77] Creating layer res4a_branch2b
I0701 14:28:10.860432 30423 net.cpp:98] Creating Layer res4a_branch2b
I0701 14:28:10.860436 30423 net.cpp:439] res4a_branch2b <- res4a_branch2a/bn
I0701 14:28:10.860441 30423 net.cpp:413] res4a_branch2b -> res4a_branch2b
I0701 14:28:10.863603 30423 net.cpp:148] Setting up res4a_branch2b
I0701 14:28:10.863610 30423 net.cpp:155] Top shape: 50 256 16 16 (3276800)
I0701 14:28:10.863615 30423 net.cpp:163] Memory required for data: 227328800
I0701 14:28:10.863620 30423 layer_factory.hpp:77] Creating layer res4a_branch2b/bn
I0701 14:28:10.863626 30423 net.cpp:98] Creating Layer res4a_branch2b/bn
I0701 14:28:10.863629 30423 net.cpp:439] res4a_branch2b/bn <- res4a_branch2b
I0701 14:28:10.863636 30423 net.cpp:413] res4a_branch2b/bn -> res4a_branch2b/bn
I0701 14:28:10.864248 30423 net.cpp:148] Setting up res4a_branch2b/bn
I0701 14:28:10.864254 30423 net.cpp:155] Top shape: 50 256 16 16 (3276800)
I0701 14:28:10.864258 30423 net.cpp:163] Memory required for data: 240436000
I0701 14:28:10.864265 30423 layer_factory.hpp:77] Creating layer res4a_branch2b/relu
I0701 14:28:10.864275 30423 net.cpp:98] Creating Layer res4a_branch2b/relu
I0701 14:28:10.864279 30423 net.cpp:439] res4a_branch2b/relu <- res4a_branch2b/bn
I0701 14:28:10.864284 30423 net.cpp:400] res4a_branch2b/relu -> res4a_branch2b/bn (in-place)
I0701 14:28:10.864290 30423 net.cpp:148] Setting up res4a_branch2b/relu
I0701 14:28:10.864295 30423 net.cpp:155] Top shape: 50 256 16 16 (3276800)
I0701 14:28:10.864298 30423 net.cpp:163] Memory required for data: 253543200
I0701 14:28:10.864302 30423 layer_factory.hpp:77] Creating layer pool4
I0701 14:28:10.864307 30423 net.cpp:98] Creating Layer pool4
I0701 14:28:10.864310 30423 net.cpp:439] pool4 <- res4a_branch2b/bn
I0701 14:28:10.864315 30423 net.cpp:413] pool4 -> pool4
I0701 14:28:10.864354 30423 net.cpp:148] Setting up pool4
I0701 14:28:10.864359 30423 net.cpp:155] Top shape: 50 256 8 8 (819200)
I0701 14:28:10.864363 30423 net.cpp:163] Memory required for data: 256820000
I0701 14:28:10.864367 30423 layer_factory.hpp:77] Creating layer res5a_branch2a
I0701 14:28:10.864373 30423 net.cpp:98] Creating Layer res5a_branch2a
I0701 14:28:10.864377 30423 net.cpp:439] res5a_branch2a <- pool4
I0701 14:28:10.864382 30423 net.cpp:413] res5a_branch2a -> res5a_branch2a
I0701 14:28:10.889181 30423 net.cpp:148] Setting up res5a_branch2a
I0701 14:28:10.889204 30423 net.cpp:155] Top shape: 50 512 8 8 (1638400)
I0701 14:28:10.889207 30423 net.cpp:163] Memory required for data: 263373600
I0701 14:28:10.889215 30423 layer_factory.hpp:77] Creating layer res5a_branch2a/bn
I0701 14:28:10.889226 30423 net.cpp:98] Creating Layer res5a_branch2a/bn
I0701 14:28:10.889230 30423 net.cpp:439] res5a_branch2a/bn <- res5a_branch2a
I0701 14:28:10.889237 30423 net.cpp:413] res5a_branch2a/bn -> res5a_branch2a/bn
I0701 14:28:10.889909 30423 net.cpp:148] Setting up res5a_branch2a/bn
I0701 14:28:10.889917 30423 net.cpp:155] Top shape: 50 512 8 8 (1638400)
I0701 14:28:10.889922 30423 net.cpp:163] Memory required for data: 269927200
I0701 14:28:10.889931 30423 layer_factory.hpp:77] Creating layer res5a_branch2a/relu
I0701 14:28:10.889936 30423 net.cpp:98] Creating Layer res5a_branch2a/relu
I0701 14:28:10.889940 30423 net.cpp:439] res5a_branch2a/relu <- res5a_branch2a/bn
I0701 14:28:10.889945 30423 net.cpp:400] res5a_branch2a/relu -> res5a_branch2a/bn (in-place)
I0701 14:28:10.889951 30423 net.cpp:148] Setting up res5a_branch2a/relu
I0701 14:28:10.889956 30423 net.cpp:155] Top shape: 50 512 8 8 (1638400)
I0701 14:28:10.889960 30423 net.cpp:163] Memory required for data: 276480800
I0701 14:28:10.889963 30423 layer_factory.hpp:77] Creating layer res5a_branch2b
I0701 14:28:10.889971 30423 net.cpp:98] Creating Layer res5a_branch2b
I0701 14:28:10.889974 30423 net.cpp:439] res5a_branch2b <- res5a_branch2a/bn
I0701 14:28:10.889979 30423 net.cpp:413] res5a_branch2b -> res5a_branch2b
I0701 14:28:10.902959 30423 net.cpp:148] Setting up res5a_branch2b
I0701 14:28:10.902990 30423 net.cpp:155] Top shape: 50 512 8 8 (1638400)
I0701 14:28:10.902994 30423 net.cpp:163] Memory required for data: 283034400
I0701 14:28:10.903010 30423 layer_factory.hpp:77] Creating layer res5a_branch2b/bn
I0701 14:28:10.903025 30423 net.cpp:98] Creating Layer res5a_branch2b/bn
I0701 14:28:10.903031 30423 net.cpp:439] res5a_branch2b/bn <- res5a_branch2b
I0701 14:28:10.903038 30423 net.cpp:413] res5a_branch2b/bn -> res5a_branch2b/bn
I0701 14:28:10.903734 30423 net.cpp:148] Setting up res5a_branch2b/bn
I0701 14:28:10.903743 30423 net.cpp:155] Top shape: 50 512 8 8 (1638400)
I0701 14:28:10.903745 30423 net.cpp:163] Memory required for data: 289588000
I0701 14:28:10.903754 30423 layer_factory.hpp:77] Creating layer res5a_branch2b/relu
I0701 14:28:10.903759 30423 net.cpp:98] Creating Layer res5a_branch2b/relu
I0701 14:28:10.903762 30423 net.cpp:439] res5a_branch2b/relu <- res5a_branch2b/bn
I0701 14:28:10.903766 30423 net.cpp:400] res5a_branch2b/relu -> res5a_branch2b/bn (in-place)
I0701 14:28:10.903771 30423 net.cpp:148] Setting up res5a_branch2b/relu
I0701 14:28:10.903774 30423 net.cpp:155] Top shape: 50 512 8 8 (1638400)
I0701 14:28:10.903775 30423 net.cpp:163] Memory required for data: 296141600
I0701 14:28:10.903789 30423 layer_factory.hpp:77] Creating layer pool5
I0701 14:28:10.903795 30423 net.cpp:98] Creating Layer pool5
I0701 14:28:10.903796 30423 net.cpp:439] pool5 <- res5a_branch2b/bn
I0701 14:28:10.903800 30423 net.cpp:413] pool5 -> pool5
I0701 14:28:10.903825 30423 net.cpp:148] Setting up pool5
I0701 14:28:10.903828 30423 net.cpp:155] Top shape: 50 512 1 1 (25600)
I0701 14:28:10.903829 30423 net.cpp:163] Memory required for data: 296244000
I0701 14:28:10.903831 30423 layer_factory.hpp:77] Creating layer fc10
I0701 14:28:10.903838 30423 net.cpp:98] Creating Layer fc10
I0701 14:28:10.903841 30423 net.cpp:439] fc10 <- pool5
I0701 14:28:10.903843 30423 net.cpp:413] fc10 -> fc10
I0701 14:28:10.904079 30423 net.cpp:148] Setting up fc10
I0701 14:28:10.904084 30423 net.cpp:155] Top shape: 50 10 (500)
I0701 14:28:10.904088 30423 net.cpp:163] Memory required for data: 296246000
I0701 14:28:10.904090 30423 layer_factory.hpp:77] Creating layer fc10_fc10_0_split
I0701 14:28:10.904094 30423 net.cpp:98] Creating Layer fc10_fc10_0_split
I0701 14:28:10.904096 30423 net.cpp:439] fc10_fc10_0_split <- fc10
I0701 14:28:10.904099 30423 net.cpp:413] fc10_fc10_0_split -> fc10_fc10_0_split_0
I0701 14:28:10.904103 30423 net.cpp:413] fc10_fc10_0_split -> fc10_fc10_0_split_1
I0701 14:28:10.904106 30423 net.cpp:413] fc10_fc10_0_split -> fc10_fc10_0_split_2
I0701 14:28:10.904160 30423 net.cpp:148] Setting up fc10_fc10_0_split
I0701 14:28:10.904165 30423 net.cpp:155] Top shape: 50 10 (500)
I0701 14:28:10.904166 30423 net.cpp:155] Top shape: 50 10 (500)
I0701 14:28:10.904170 30423 net.cpp:155] Top shape: 50 10 (500)
I0701 14:28:10.904170 30423 net.cpp:163] Memory required for data: 296252000
I0701 14:28:10.904172 30423 layer_factory.hpp:77] Creating layer loss
I0701 14:28:10.904175 30423 net.cpp:98] Creating Layer loss
I0701 14:28:10.904178 30423 net.cpp:439] loss <- fc10_fc10_0_split_0
I0701 14:28:10.904181 30423 net.cpp:439] loss <- label_data_1_split_0
I0701 14:28:10.904183 30423 net.cpp:413] loss -> loss
…
