…
I0704 07:19:30.889276 22258 net.cpp:327] The NetState phase (0) differed from the phase (1) specified by a rule in layer accuracy/top1
I0704 07:19:30.889282 22258 net.cpp:327] The NetState phase (0) differed from the phase (1) specified by a rule in layer accuracy/top5
I0704 07:19:30.889478 22258 net.cpp:56] Initializing net from parameters: 
name: "jacintonet11v2_train"
state {
  phase: TRAIN
}
layer {
  name: "data"
  type: "Data"
  top: "data"
  top: "label"
  transform_param {
    mirror: true
    crop_size: 32
    mean_value: 0
    mean_value: 0
    mean_value: 0
  }
  data_param {
    source: "./data/cifar10_train_lmdb"
    batch_size: 21
    backend: LMDB
    threads: 1
  }
}
layer {
  name: "data/bias"
  type: "Bias"
  bottom: "data"
  top: "data/bias"
  param {
    lr_mult: 0
    decay_mult: 0
  }
  bias_param {
    filler {
      type: "constant"
      value: -128
    }
  }
}
layer {
  name: "conv1a"
  type: "Convolution"
  bottom: "data/bias"
  top: "conv1a"
  param {
    lr_mult: 1
    decay_mult: 1
  }
  param {
    lr_mult: 2
    decay_mult: 0
  }
  convolution_param {
    num_output: 32
    bias_term: true
    pad: 2
    kernel_size: 5
    group: 1
    stride: 1
    weight_filler {
      type: "msra"
    }
    bias_filler {
      type: "constant"
      value: 0
    }
    dilation: 1
  }
}
layer {
  name: "conv1a/bn"
  type: "BatchNorm"
  bottom: "conv1a"
  top: "conv1a/bn"
  param {
    lr_mult: 1
    decay_mult: 1
  }
  param {
    lr_mult: 1
    decay_mult: 1
  }
  param {
    lr_mult: 0
    decay_mult: 0
  }
  param {
    lr_mult: 0
    decay_mult: 0
  }
  batch_norm_param {
    moving_average_fraction: 0.99
    eps: 0.0001
    scale_filler {
      type: "constant"
      value: 1
    }
    bias_filler {
      type: "constant"
      value: 0
    }
  }
}
layer {
  name: "conv1a/relu"
  type: "ReLU"
  bottom: "conv1a/bn"
  top: "conv1a/bn"
}
layer {
  name: "conv1b"
  type: "Convolution"
  bottom: "conv1a/bn"
  top: "conv1b"
  param {
    lr_mult: 1
    decay_mult: 1
  }
  param {
    lr_mult: 2
    decay_mult: 0
  }
  convolution_param {
    num_output: 32
    bias_term: true
    pad: 1
    kernel_size: 3
    group: 4
    stride: 1
    weight_filler {
      type: "msra"
    }
    bias_filler {
      type: "constant"
      value: 0
    }
    dilation: 1
  }
}
layer {
  name: "conv1b/bn"
  type: "BatchNorm"
  bottom: "conv1b"
  top: "conv1b/bn"
  param {
    lr_mult: 1
    decay_mult: 1
  }
  param {
    lr_mult: 1
    decay_mult: 1
  }
  param {
    lr_mult: 0
    decay_mult: 0
  }
  param {
    lr_mult: 0
    decay_mult: 0
  }
  batch_norm_param {
    moving_average_fraction: 0.99
    eps: 0.0001
    scale_filler {
      type: "constant"
      value: 1
    }
    bias_filler {
      type: "constant"
      value: 0
    }
  }
}
layer {
  name: "conv1b/relu"
  type: "ReLU"
  bottom: "conv1b/bn"
  top: "conv1b/bn"
}
layer {
  name: "pool1"
  type: "Pooling"
  bottom: "conv1b/bn"
  top: "pool1"
  pooling_param {
    pool: MAX
    kernel_size: 1
    stride: 1
  }
}
layer {
  name: "res2a_branch2a"
  type: "Convolution"
  bottom: "pool1"
  top: "res2a_branch2a"
  param {
    lr_mult: 1
    decay_mult: 1
  }
  param {
    lr_mult: 2
    decay_mult: 0
  }
  convolution_param {
    num_output: 64
    bias_term: true
    pad: 1
    kernel_size: 3
    group: 1
    stride: 1
    weight_filler {
      type: "msra"
    }
    bias_filler {
      type: "constant"
      value: 0
    }
    dilation: 1
  }
}
layer {
  name: "res2a_branch2a/bn"
  type: "BatchNorm"
  bottom: "res2a_branch2a"
  top: "res2a_branch2a/bn"
  param {
    lr_mult: 1
    decay_mult: 1
  }
  param {
    lr_mult: 1
    decay_mult: 1
  }
  param {
    lr_mult: 0
    decay_mult: 0
  }
  param {
    lr_mult: 0
    decay_mult: 0
  }
  batch_norm_param {
    moving_average_fraction: 0.99
    eps: 0.0001
    scale_filler {
      type: "constant"
      value: 1
    }
    bias_filler {
      type: "constant"
      value: 0
    }
  }
}
layer {
  name: "res2a_branch2a/relu"
  type: "ReLU"
  bottom: "res2a_branch2a/bn"
  top: "res2a_branch2a/bn"
}
layer {
  name: "res2a_branch2b"
  type: "Convolution"
  bottom: "res2a_branch2a/bn"
  top: "res2a_branch2b"
  param {
    lr_mult: 1
    decay_mult: 1
  }
  param {
    lr_mult: 2
    decay_mult: 0
  }
  convolution_param {
    num_output: 64
    bias_term: true
    pad: 1
    kernel_size: 3
    group: 4
    stride: 1
    weight_filler {
      type: "msra"
    }
    bias_filler {
      type: "constant"
      value: 0
    }
    dilation: 1
  }
}
layer {
  name: "res2a_branch2b/bn"
  type: "BatchNorm"
  bottom: "res2a_branch2b"
  top: "res2a_branch2b/bn"
  param {
    lr_mult: 1
    decay_mult: 1
  }
  param {
    lr_mult: 1
    decay_mult: 1
  }
  param {
    lr_mult: 0
    decay_mult: 0
  }
  param {
    lr_mult: 0
    decay_mult: 0
  }
  batch_norm_param {
    moving_average_fraction: 0.99
    eps: 0.0001
    scale_filler {
      type: "constant"
      value: 1
    }
    bias_filler {
      type: "constant"
      value: 0
    }
  }
}
layer {
  name: "res2a_branch2b/relu"
  type: "ReLU"
  bottom: "res2a_branch2b/bn"
  top: "res2a_branch2b/bn"
}
layer {
  name: "pool2"
  type: "Pooling"
  bottom: "res2a_branch2b/bn"
  top: "pool2"
  pooling_param {
    pool: MAX
    kernel_size: 2
    stride: 2
  }
}
layer {
  name: "res3a_branch2a"
  type: "Convolution"
  bottom: "pool2"
  top: "res3a_branch2a"
  param {
    lr_mult: 1
    decay_mult: 1
  }
  param {
    lr_mult: 2
    decay_mult: 0
  }
  convolution_param {
    num_output: 128
    bias_term: true
    pad: 1
    kernel_size: 3
    group: 1
    stride: 1
    weight_filler {
      type: "msra"
    }
    bias_filler {
      type: "constant"
      value: 0
    }
    dilation: 1
  }
}
layer {
  name: "res3a_branch2a/bn"
  type: "BatchNorm"
  bottom: "res3a_branch2a"
  top: "res3a_branch2a/bn"
  param {
    lr_mult: 1
    decay_mult: 1
  }
  param {
    lr_mult: 1
    decay_mult: 1
  }
  param {
    lr_mult: 0
    decay_mult: 0
  }
  param {
    lr_mult: 0
    decay_mult: 0
  }
  batch_norm_param {
    moving_average_fraction: 0.99
    eps: 0.0001
    scale_filler {
      type: "constant"
      value: 1
    }
    bias_filler {
      type: "constant"
      value: 0
    }
  }
}
layer {
  name: "res3a_branch2a/relu"
  type: "ReLU"
  bottom: "res3a_branch2a/bn"
  top: "res3a_branch2a/bn"
}
layer {
  name: "res3a_branch2b"
  type: "Convolution"
  bottom: "res3a_branch2a/bn"
  top: "res3a_branch2b"
  param {
    lr_mult: 1
    decay_mult: 1
  }
  param {
    lr_mult: 2
    decay_mult: 0
  }
  convolution_param {
    num_output: 128
    bias_term: true
    pad: 1
    kernel_size: 3
    group: 4
    stride: 1
    weight_filler {
      type: "msra"
    }
    bias_filler {
      type: "constant"
      value: 0
    }
    dilation: 1
  }
}
layer {
  name: "res3a_branch2b/bn"
  type: "BatchNorm"
  bottom: "res3a_branch2b"
  top: "res3a_branch2b/bn"
  param {
    lr_mult: 1
    decay_mult: 1
  }
  param {
    lr_mult: 1
    decay_mult: 1
  }
  param {
    lr_mult: 0
    decay_mult: 0
  }
  param {
    lr_mult: 0
    decay_mult: 0
  }
  batch_norm_param {
    moving_average_fraction: 0.99
    eps: 0.0001
    scale_filler {
      type: "constant"
      value: 1
    }
    bias_filler {
      type: "constant"
      value: 0
    }
  }
}
layer {
  name: "res3a_branch2b/relu"
  type: "ReLU"
  bottom: "res3a_branch2b/bn"
  top: "res3a_branch2b/bn"
}
layer {
  name: "pool3"
  type: "Pooling"
  bottom: "res3a_branch2b/bn"
  top: "pool3"
  pooling_param {
    pool: MAX
    kernel_size: 1
    stride: 1
  }
}
layer {
  name: "res4a_branch2a"
  type: "Convolution"
  bottom: "pool3"
  top: "res4a_branch2a"
  param {
    lr_mult: 1
    decay_mult: 1
  }
  param {
    lr_mult: 2
    decay_mult: 0
  }
  convolution_param {
    num_output: 256
    bias_term: true
    pad: 1
    kernel_size: 3
    group: 1
    stride: 1
    weight_filler {
      type: "msra"
    }
    bias_filler {
      type: "constant"
      value: 0
    }
    dilation: 1
  }
}
layer {
  name: "res4a_branch2a/bn"
  type: "BatchNorm"
  bottom: "res4a_branch2a"
  top: "res4a_branch2a/bn"
  param {
    lr_mult: 1
    decay_mult: 1
  }
  param {
    lr_mult: 1
    decay_mult: 1
  }
  param {
    lr_mult: 0
    decay_mult: 0
  }
  param {
    lr_mult: 0
    decay_mult: 0
  }
  batch_norm_param {
    moving_average_fraction: 0.99
    eps: 0.0001
    scale_filler {
      type: "constant"
      value: 1
    }
    bias_filler {
      type: "constant"
      value: 0
    }
  }
}
layer {
  name: "res4a_branch2a/relu"
  type: "ReLU"
  bottom: "res4a_branch2a/bn"
  top: "res4a_branch2a/bn"
}
layer {
  name: "res4a_branch2b"
  type: "Convolution"
  bottom: "res4a_branch2a/bn"
  top: "res4a_branch2b"
  param {
    lr_mult: 1
    decay_mult: 1
  }
  param {
    lr_mult: 2
    decay_mult: 0
  }
  convolution_param {
    num_output: 256
    bias_term: true
    pad: 1
    kernel_size: 3
    group: 4
    stride: 1
    weight_filler {
      type: "msra"
    }
    bias_filler {
      type: "constant"
      value: 0
    }
    dilation: 1
  }
}
layer {
  name: "res4a_branch2b/bn"
  type: "BatchNorm"
  bottom: "res4a_branch2b"
  top: "res4a_branch2b/bn"
  param {
    lr_mult: 1
    decay_mult: 1
  }
  param {
    lr_mult: 1
    decay_mult: 1
  }
  param {
    lr_mult: 0
    decay_mult: 0
  }
  param {
    lr_mult: 0
    decay_mult: 0
  }
  batch_norm_param {
    moving_average_fraction: 0.99
    eps: 0.0001
    scale_filler {
      type: "constant"
      value: 1
    }
    bias_filler {
      type: "constant"
      value: 0
    }
  }
}
layer {
  name: "res4a_branch2b/relu"
  type: "ReLU"
  bottom: "res4a_branch2b/bn"
  top: "res4a_branch2b/bn"
}
layer {
  name: "pool4"
  type: "Pooling"
  bottom: "res4a_branch2b/bn"
  top: "pool4"
  pooling_param {
    pool: MAX
    kernel_size: 2
    stride: 2
  }
}
layer {
  name: "res5a_branch2a"
  type: "Convolution"
  bottom: "pool4"
  top: "res5a_branch2a"
  param {
    lr_mult: 1
    decay_mult: 1
  }
  param {
    lr_mult: 2
    decay_mult: 0
  }
  convolution_param {
    num_output: 512
    bias_term: true
    pad: 1
    kernel_size: 3
    group: 1
    stride: 1
    weight_filler {
      type: "msra"
    }
    bias_filler {
      type: "constant"
      value: 0
    }
    dilation: 1
  }
}
layer {
  name: "res5a_branch2a/bn"
  type: "BatchNorm"
  bottom: "res5a_branch2a"
  top: "res5a_branch2a/bn"
  param {
    lr_mult: 1
    decay_mult: 1
  }
  param {
    lr_mult: 1
    decay_mult: 1
  }
  param {
    lr_mult: 0
    decay_mult: 0
  }
  param {
    lr_mult: 0
    decay_mult: 0
  }
  batch_norm_param {
    moving_average_fraction: 0.99
    eps: 0.0001
    scale_filler {
      type: "constant"
      value: 1
    }
    bias_filler {
      type: "constant"
      value: 0
    }
  }
}
layer {
  name: "res5a_branch2a/relu"
  type: "ReLU"
  bottom: "res5a_branch2a/bn"
  top: "res5a_branch2a/bn"
}
layer {
  name: "res5a_branch2b"
  type: "Convolution"
  bottom: "res5a_branch2a/bn"
  top: "res5a_branch2b"
  param {
    lr_mult: 1
    decay_mult: 1
  }
  param {
    lr_mult: 2
    decay_mult: 0
  }
  convolution_param {
    num_output: 512
    bias_term: true
    pad: 1
    kernel_size: 3
    group: 4
    stride: 1
    weight_filler {
      type: "msra"
    }
    bias_filler {
      type: "constant"
      value: 0
    }
    dilation: 1
  }
}
layer {
  name: "res5a_branch2b/bn"
  type: "BatchNorm"
  bottom: "res5a_branch2b"
  top: "res5a_branch2b/bn"
  param {
    lr_mult: 1
    decay_mult: 1
  }
  param {
    lr_mult: 1
    decay_mult: 1
  }
  param {
    lr_mult: 0
    decay_mult: 0
  }
  param {
    lr_mult: 0
    decay_mult: 0
  }
  batch_norm_param {
    moving_average_fraction: 0.99
    eps: 0.0001
    scale_filler {
      type: "constant"
      value: 1
    }
    bias_filler {
      type: "constant"
      value: 0
    }
  }
}
layer {
  name: "res5a_branch2b/relu"
  type: "ReLU"
  bottom: "res5a_branch2b/bn"
  top: "res5a_branch2b/bn"
}
layer {
  name: "pool5"
  type: "Pooling"
  bottom: "res5a_branch2b/bn"
  top: "pool5"
  pooling_param {
    pool: AVE
    global_pooling: true
  }
}
layer {
  name: "fc10"
  type: "InnerProduct"
  bottom: "pool5"
  top: "fc10"
  param {
    lr_mult: 1
    decay_mult: 1
  }
  param {
    lr_mult: 2
    decay_mult: 0
  }
  inner_product_param {
    num_output: 10
    weight_filler {
      type: "msra"
    }
    bias_filler {
      type: "constant"
      value: 0
    }
  }
}
layer {
  name: "loss"
  type: "SoftmaxWithLoss"
  bottom: "fc10"
  bottom: "label"
  top: "loss"
  propagate_down: true
  propagate_down: false
}
I0704 07:19:30.889600 22258 layer_factory.hpp:77] Creating layer data
I0704 07:19:30.889694 22258 net.cpp:98] Creating Layer data
I0704 07:19:30.889703 22258 net.cpp:413] data -> data
I0704 07:19:30.889722 22258 net.cpp:413] data -> label
I0704 07:19:30.951930 22288 db_lmdb.cpp:35] Opened lmdb ./data/cifar10_train_lmdb
I0704 07:19:30.985878 22258 data_layer.cpp:78] ReshapePrefetch 21, 3, 32, 32
I0704 07:19:30.986153 22258 data_layer.cpp:83] output data size: 21,3,32,32
I0704 07:19:30.988332 22258 net.cpp:148] Setting up data
I0704 07:19:30.988348 22258 net.cpp:155] Top shape: 21 3 32 32 (64512)
I0704 07:19:30.988350 22258 net.cpp:155] Top shape: 21 (21)
I0704 07:19:30.988353 22258 net.cpp:163] Memory required for data: 258132
I0704 07:19:30.988359 22258 layer_factory.hpp:77] Creating layer data/bias
I0704 07:19:30.988374 22258 net.cpp:98] Creating Layer data/bias
I0704 07:19:30.988381 22258 net.cpp:439] data/bias <- data
I0704 07:19:30.988392 22258 net.cpp:413] data/bias -> data/bias
I0704 07:19:30.990209 22258 net.cpp:148] Setting up data/bias
I0704 07:19:30.990221 22258 net.cpp:155] Top shape: 21 3 32 32 (64512)
I0704 07:19:30.990223 22258 net.cpp:163] Memory required for data: 516180
I0704 07:19:30.990236 22258 layer_factory.hpp:77] Creating layer conv1a
I0704 07:19:30.990247 22258 net.cpp:98] Creating Layer conv1a
I0704 07:19:30.990252 22258 net.cpp:439] conv1a <- data/bias
I0704 07:19:30.990257 22258 net.cpp:413] conv1a -> conv1a
I0704 07:19:30.990470 22293 blocking_queue.cpp:50] Waiting for data
I0704 07:19:30.995522 22258 net.cpp:148] Setting up conv1a
I0704 07:19:30.995532 22258 net.cpp:155] Top shape: 21 32 32 32 (688128)
I0704 07:19:30.995534 22258 net.cpp:163] Memory required for data: 3268692
I0704 07:19:30.995539 22258 layer_factory.hpp:77] Creating layer conv1a/bn
I0704 07:19:30.995548 22258 net.cpp:98] Creating Layer conv1a/bn
I0704 07:19:30.995551 22258 net.cpp:439] conv1a/bn <- conv1a
I0704 07:19:30.995554 22258 net.cpp:413] conv1a/bn -> conv1a/bn
I0704 07:19:30.996318 22258 net.cpp:148] Setting up conv1a/bn
I0704 07:19:30.996326 22258 net.cpp:155] Top shape: 21 32 32 32 (688128)
I0704 07:19:30.996328 22258 net.cpp:163] Memory required for data: 6021204
I0704 07:19:30.996335 22258 layer_factory.hpp:77] Creating layer conv1a/relu
I0704 07:19:30.996340 22258 net.cpp:98] Creating Layer conv1a/relu
I0704 07:19:30.996341 22258 net.cpp:439] conv1a/relu <- conv1a/bn
I0704 07:19:30.996345 22258 net.cpp:400] conv1a/relu -> conv1a/bn (in-place)
I0704 07:19:30.996356 22258 net.cpp:148] Setting up conv1a/relu
I0704 07:19:30.996358 22258 net.cpp:155] Top shape: 21 32 32 32 (688128)
I0704 07:19:30.996361 22258 net.cpp:163] Memory required for data: 8773716
I0704 07:19:30.996364 22258 layer_factory.hpp:77] Creating layer conv1b
I0704 07:19:30.996379 22258 net.cpp:98] Creating Layer conv1b
I0704 07:19:30.996382 22258 net.cpp:439] conv1b <- conv1a/bn
I0704 07:19:30.996384 22258 net.cpp:413] conv1b -> conv1b
I0704 07:19:30.996711 22258 net.cpp:148] Setting up conv1b
I0704 07:19:30.996716 22258 net.cpp:155] Top shape: 21 32 32 32 (688128)
I0704 07:19:30.996719 22258 net.cpp:163] Memory required for data: 11526228
I0704 07:19:30.996723 22258 layer_factory.hpp:77] Creating layer conv1b/bn
I0704 07:19:30.996727 22258 net.cpp:98] Creating Layer conv1b/bn
I0704 07:19:30.996729 22258 net.cpp:439] conv1b/bn <- conv1b
I0704 07:19:30.996732 22258 net.cpp:413] conv1b/bn -> conv1b/bn
I0704 07:19:30.997391 22258 net.cpp:148] Setting up conv1b/bn
I0704 07:19:30.997397 22258 net.cpp:155] Top shape: 21 32 32 32 (688128)
I0704 07:19:30.997400 22258 net.cpp:163] Memory required for data: 14278740
I0704 07:19:30.997404 22258 layer_factory.hpp:77] Creating layer conv1b/relu
I0704 07:19:30.997407 22258 net.cpp:98] Creating Layer conv1b/relu
I0704 07:19:30.997409 22258 net.cpp:439] conv1b/relu <- conv1b/bn
I0704 07:19:30.997411 22258 net.cpp:400] conv1b/relu -> conv1b/bn (in-place)
I0704 07:19:30.997416 22258 net.cpp:148] Setting up conv1b/relu
I0704 07:19:30.997418 22258 net.cpp:155] Top shape: 21 32 32 32 (688128)
I0704 07:19:30.997421 22258 net.cpp:163] Memory required for data: 17031252
I0704 07:19:30.997421 22258 layer_factory.hpp:77] Creating layer pool1
I0704 07:19:30.997427 22258 net.cpp:98] Creating Layer pool1
I0704 07:19:30.997429 22258 net.cpp:439] pool1 <- conv1b/bn
I0704 07:19:30.997436 22258 net.cpp:413] pool1 -> pool1
I0704 07:19:30.997516 22258 net.cpp:148] Setting up pool1
I0704 07:19:30.997536 22258 net.cpp:155] Top shape: 21 32 32 32 (688128)
I0704 07:19:30.997544 22258 net.cpp:163] Memory required for data: 19783764
I0704 07:19:30.997548 22258 layer_factory.hpp:77] Creating layer res2a_branch2a
I0704 07:19:30.997560 22258 net.cpp:98] Creating Layer res2a_branch2a
I0704 07:19:30.997565 22258 net.cpp:439] res2a_branch2a <- pool1
I0704 07:19:30.997573 22258 net.cpp:413] res2a_branch2a -> res2a_branch2a
I0704 07:19:30.998594 22258 net.cpp:148] Setting up res2a_branch2a
I0704 07:19:30.998605 22258 net.cpp:155] Top shape: 21 64 32 32 (1376256)
I0704 07:19:30.998610 22258 net.cpp:163] Memory required for data: 25288788
I0704 07:19:30.998616 22258 layer_factory.hpp:77] Creating layer res2a_branch2a/bn
I0704 07:19:30.998625 22258 net.cpp:98] Creating Layer res2a_branch2a/bn
I0704 07:19:30.998628 22258 net.cpp:439] res2a_branch2a/bn <- res2a_branch2a
I0704 07:19:30.998632 22258 net.cpp:413] res2a_branch2a/bn -> res2a_branch2a/bn
I0704 07:19:30.999430 22258 net.cpp:148] Setting up res2a_branch2a/bn
I0704 07:19:30.999439 22258 net.cpp:155] Top shape: 21 64 32 32 (1376256)
I0704 07:19:30.999441 22258 net.cpp:163] Memory required for data: 30793812
I0704 07:19:30.999446 22258 layer_factory.hpp:77] Creating layer res2a_branch2a/relu
I0704 07:19:30.999451 22258 net.cpp:98] Creating Layer res2a_branch2a/relu
I0704 07:19:30.999454 22258 net.cpp:439] res2a_branch2a/relu <- res2a_branch2a/bn
I0704 07:19:30.999457 22258 net.cpp:400] res2a_branch2a/relu -> res2a_branch2a/bn (in-place)
I0704 07:19:30.999462 22258 net.cpp:148] Setting up res2a_branch2a/relu
I0704 07:19:30.999467 22258 net.cpp:155] Top shape: 21 64 32 32 (1376256)
I0704 07:19:30.999469 22258 net.cpp:163] Memory required for data: 36298836
I0704 07:19:30.999470 22258 layer_factory.hpp:77] Creating layer res2a_branch2b
I0704 07:19:30.999475 22258 net.cpp:98] Creating Layer res2a_branch2b
I0704 07:19:30.999477 22258 net.cpp:439] res2a_branch2b <- res2a_branch2a/bn
I0704 07:19:30.999480 22258 net.cpp:413] res2a_branch2b -> res2a_branch2b
I0704 07:19:31.003311 22258 net.cpp:148] Setting up res2a_branch2b
I0704 07:19:31.003324 22258 net.cpp:155] Top shape: 21 64 32 32 (1376256)
I0704 07:19:31.003327 22258 net.cpp:163] Memory required for data: 41803860
I0704 07:19:31.003332 22258 layer_factory.hpp:77] Creating layer res2a_branch2b/bn
I0704 07:19:31.003338 22258 net.cpp:98] Creating Layer res2a_branch2b/bn
I0704 07:19:31.003341 22258 net.cpp:439] res2a_branch2b/bn <- res2a_branch2b
I0704 07:19:31.003356 22258 net.cpp:413] res2a_branch2b/bn -> res2a_branch2b/bn
I0704 07:19:31.004042 22258 net.cpp:148] Setting up res2a_branch2b/bn
I0704 07:19:31.004050 22258 net.cpp:155] Top shape: 21 64 32 32 (1376256)
I0704 07:19:31.004055 22258 net.cpp:163] Memory required for data: 47308884
I0704 07:19:31.004063 22258 layer_factory.hpp:77] Creating layer res2a_branch2b/relu
I0704 07:19:31.004068 22258 net.cpp:98] Creating Layer res2a_branch2b/relu
I0704 07:19:31.004073 22258 net.cpp:439] res2a_branch2b/relu <- res2a_branch2b/bn
I0704 07:19:31.004078 22258 net.cpp:400] res2a_branch2b/relu -> res2a_branch2b/bn (in-place)
I0704 07:19:31.004088 22258 net.cpp:148] Setting up res2a_branch2b/relu
I0704 07:19:31.004092 22258 net.cpp:155] Top shape: 21 64 32 32 (1376256)
I0704 07:19:31.004096 22258 net.cpp:163] Memory required for data: 52813908
I0704 07:19:31.004099 22258 layer_factory.hpp:77] Creating layer pool2
I0704 07:19:31.004106 22258 net.cpp:98] Creating Layer pool2
I0704 07:19:31.004108 22258 net.cpp:439] pool2 <- res2a_branch2b/bn
I0704 07:19:31.004113 22258 net.cpp:413] pool2 -> pool2
I0704 07:19:31.004154 22258 net.cpp:148] Setting up pool2
I0704 07:19:31.004160 22258 net.cpp:155] Top shape: 21 64 16 16 (344064)
I0704 07:19:31.004164 22258 net.cpp:163] Memory required for data: 54190164
I0704 07:19:31.004168 22258 layer_factory.hpp:77] Creating layer res3a_branch2a
I0704 07:19:31.004180 22258 net.cpp:98] Creating Layer res3a_branch2a
I0704 07:19:31.004184 22258 net.cpp:439] res3a_branch2a <- pool2
I0704 07:19:31.004189 22258 net.cpp:413] res3a_branch2a -> res3a_branch2a
I0704 07:19:31.012516 22258 net.cpp:148] Setting up res3a_branch2a
I0704 07:19:31.012529 22258 net.cpp:155] Top shape: 21 128 16 16 (688128)
I0704 07:19:31.012532 22258 net.cpp:163] Memory required for data: 56942676
I0704 07:19:31.012539 22258 layer_factory.hpp:77] Creating layer res3a_branch2a/bn
I0704 07:19:31.012547 22258 net.cpp:98] Creating Layer res3a_branch2a/bn
I0704 07:19:31.012552 22258 net.cpp:439] res3a_branch2a/bn <- res3a_branch2a
I0704 07:19:31.012558 22258 net.cpp:413] res3a_branch2a/bn -> res3a_branch2a/bn
I0704 07:19:31.013175 22258 net.cpp:148] Setting up res3a_branch2a/bn
I0704 07:19:31.013182 22258 net.cpp:155] Top shape: 21 128 16 16 (688128)
I0704 07:19:31.013187 22258 net.cpp:163] Memory required for data: 59695188
I0704 07:19:31.013203 22258 layer_factory.hpp:77] Creating layer res3a_branch2a/relu
I0704 07:19:31.013209 22258 net.cpp:98] Creating Layer res3a_branch2a/relu
I0704 07:19:31.013213 22258 net.cpp:439] res3a_branch2a/relu <- res3a_branch2a/bn
I0704 07:19:31.013218 22258 net.cpp:400] res3a_branch2a/relu -> res3a_branch2a/bn (in-place)
I0704 07:19:31.013224 22258 net.cpp:148] Setting up res3a_branch2a/relu
I0704 07:19:31.013228 22258 net.cpp:155] Top shape: 21 128 16 16 (688128)
I0704 07:19:31.013232 22258 net.cpp:163] Memory required for data: 62447700
I0704 07:19:31.013236 22258 layer_factory.hpp:77] Creating layer res3a_branch2b
I0704 07:19:31.013244 22258 net.cpp:98] Creating Layer res3a_branch2b
I0704 07:19:31.013247 22258 net.cpp:439] res3a_branch2b <- res3a_branch2a/bn
I0704 07:19:31.013253 22258 net.cpp:413] res3a_branch2b -> res3a_branch2b
I0704 07:19:31.014269 22258 net.cpp:148] Setting up res3a_branch2b
I0704 07:19:31.014276 22258 net.cpp:155] Top shape: 21 128 16 16 (688128)
I0704 07:19:31.014279 22258 net.cpp:163] Memory required for data: 65200212
I0704 07:19:31.014286 22258 layer_factory.hpp:77] Creating layer res3a_branch2b/bn
I0704 07:19:31.014292 22258 net.cpp:98] Creating Layer res3a_branch2b/bn
I0704 07:19:31.014297 22258 net.cpp:439] res3a_branch2b/bn <- res3a_branch2b
I0704 07:19:31.014302 22258 net.cpp:413] res3a_branch2b/bn -> res3a_branch2b/bn
I0704 07:19:31.014928 22258 net.cpp:148] Setting up res3a_branch2b/bn
I0704 07:19:31.014935 22258 net.cpp:155] Top shape: 21 128 16 16 (688128)
I0704 07:19:31.014940 22258 net.cpp:163] Memory required for data: 67952724
I0704 07:19:31.014948 22258 layer_factory.hpp:77] Creating layer res3a_branch2b/relu
I0704 07:19:31.014961 22258 net.cpp:98] Creating Layer res3a_branch2b/relu
I0704 07:19:31.014966 22258 net.cpp:439] res3a_branch2b/relu <- res3a_branch2b/bn
I0704 07:19:31.014969 22258 net.cpp:400] res3a_branch2b/relu -> res3a_branch2b/bn (in-place)
I0704 07:19:31.014976 22258 net.cpp:148] Setting up res3a_branch2b/relu
I0704 07:19:31.014981 22258 net.cpp:155] Top shape: 21 128 16 16 (688128)
I0704 07:19:31.014984 22258 net.cpp:163] Memory required for data: 70705236
I0704 07:19:31.014988 22258 layer_factory.hpp:77] Creating layer pool3
I0704 07:19:31.014994 22258 net.cpp:98] Creating Layer pool3
I0704 07:19:31.014997 22258 net.cpp:439] pool3 <- res3a_branch2b/bn
I0704 07:19:31.015002 22258 net.cpp:413] pool3 -> pool3
I0704 07:19:31.015039 22258 net.cpp:148] Setting up pool3
I0704 07:19:31.015044 22258 net.cpp:155] Top shape: 21 128 16 16 (688128)
I0704 07:19:31.015048 22258 net.cpp:163] Memory required for data: 73457748
I0704 07:19:31.015053 22258 layer_factory.hpp:77] Creating layer res4a_branch2a
I0704 07:19:31.015058 22258 net.cpp:98] Creating Layer res4a_branch2a
I0704 07:19:31.015063 22258 net.cpp:439] res4a_branch2a <- pool3
I0704 07:19:31.015067 22258 net.cpp:413] res4a_branch2a -> res4a_branch2a
I0704 07:19:31.021193 22258 net.cpp:148] Setting up res4a_branch2a
I0704 07:19:31.021201 22258 net.cpp:155] Top shape: 21 256 16 16 (1376256)
I0704 07:19:31.021205 22258 net.cpp:163] Memory required for data: 78962772
I0704 07:19:31.021212 22258 layer_factory.hpp:77] Creating layer res4a_branch2a/bn
I0704 07:19:31.021219 22258 net.cpp:98] Creating Layer res4a_branch2a/bn
I0704 07:19:31.021222 22258 net.cpp:439] res4a_branch2a/bn <- res4a_branch2a
I0704 07:19:31.021227 22258 net.cpp:413] res4a_branch2a/bn -> res4a_branch2a/bn
I0704 07:19:31.021842 22258 net.cpp:148] Setting up res4a_branch2a/bn
I0704 07:19:31.021849 22258 net.cpp:155] Top shape: 21 256 16 16 (1376256)
I0704 07:19:31.021852 22258 net.cpp:163] Memory required for data: 84467796
I0704 07:19:31.021860 22258 layer_factory.hpp:77] Creating layer res4a_branch2a/relu
I0704 07:19:31.021864 22258 net.cpp:98] Creating Layer res4a_branch2a/relu
I0704 07:19:31.021869 22258 net.cpp:439] res4a_branch2a/relu <- res4a_branch2a/bn
I0704 07:19:31.021874 22258 net.cpp:400] res4a_branch2a/relu -> res4a_branch2a/bn (in-place)
I0704 07:19:31.021879 22258 net.cpp:148] Setting up res4a_branch2a/relu
I0704 07:19:31.021884 22258 net.cpp:155] Top shape: 21 256 16 16 (1376256)
I0704 07:19:31.021888 22258 net.cpp:163] Memory required for data: 89972820
I0704 07:19:31.021891 22258 layer_factory.hpp:77] Creating layer res4a_branch2b
I0704 07:19:31.021898 22258 net.cpp:98] Creating Layer res4a_branch2b
I0704 07:19:31.021901 22258 net.cpp:439] res4a_branch2b <- res4a_branch2a/bn
I0704 07:19:31.021908 22258 net.cpp:413] res4a_branch2b -> res4a_branch2b
I0704 07:19:31.025095 22258 net.cpp:148] Setting up res4a_branch2b
I0704 07:19:31.025102 22258 net.cpp:155] Top shape: 21 256 16 16 (1376256)
I0704 07:19:31.025106 22258 net.cpp:163] Memory required for data: 95477844
I0704 07:19:31.025112 22258 layer_factory.hpp:77] Creating layer res4a_branch2b/bn
I0704 07:19:31.025118 22258 net.cpp:98] Creating Layer res4a_branch2b/bn
I0704 07:19:31.025122 22258 net.cpp:439] res4a_branch2b/bn <- res4a_branch2b
I0704 07:19:31.025127 22258 net.cpp:413] res4a_branch2b/bn -> res4a_branch2b/bn
I0704 07:19:31.025734 22258 net.cpp:148] Setting up res4a_branch2b/bn
I0704 07:19:31.025740 22258 net.cpp:155] Top shape: 21 256 16 16 (1376256)
I0704 07:19:31.025745 22258 net.cpp:163] Memory required for data: 100982868
I0704 07:19:31.025753 22258 layer_factory.hpp:77] Creating layer res4a_branch2b/relu
I0704 07:19:31.025758 22258 net.cpp:98] Creating Layer res4a_branch2b/relu
I0704 07:19:31.025763 22258 net.cpp:439] res4a_branch2b/relu <- res4a_branch2b/bn
I0704 07:19:31.025766 22258 net.cpp:400] res4a_branch2b/relu -> res4a_branch2b/bn (in-place)
I0704 07:19:31.025773 22258 net.cpp:148] Setting up res4a_branch2b/relu
I0704 07:19:31.025777 22258 net.cpp:155] Top shape: 21 256 16 16 (1376256)
I0704 07:19:31.025787 22258 net.cpp:163] Memory required for data: 106487892
I0704 07:19:31.025790 22258 layer_factory.hpp:77] Creating layer pool4
I0704 07:19:31.025795 22258 net.cpp:98] Creating Layer pool4
I0704 07:19:31.025799 22258 net.cpp:439] pool4 <- res4a_branch2b/bn
I0704 07:19:31.025804 22258 net.cpp:413] pool4 -> pool4
I0704 07:19:31.025841 22258 net.cpp:148] Setting up pool4
I0704 07:19:31.025846 22258 net.cpp:155] Top shape: 21 256 8 8 (344064)
I0704 07:19:31.025851 22258 net.cpp:163] Memory required for data: 107864148
I0704 07:19:31.025854 22258 layer_factory.hpp:77] Creating layer res5a_branch2a
I0704 07:19:31.025861 22258 net.cpp:98] Creating Layer res5a_branch2a
I0704 07:19:31.025864 22258 net.cpp:439] res5a_branch2a <- pool4
I0704 07:19:31.025869 22258 net.cpp:413] res5a_branch2a -> res5a_branch2a
I0704 07:19:31.050856 22258 net.cpp:148] Setting up res5a_branch2a
I0704 07:19:31.050873 22258 net.cpp:155] Top shape: 21 512 8 8 (688128)
I0704 07:19:31.050876 22258 net.cpp:163] Memory required for data: 110616660
I0704 07:19:31.050884 22258 layer_factory.hpp:77] Creating layer res5a_branch2a/bn
I0704 07:19:31.050892 22258 net.cpp:98] Creating Layer res5a_branch2a/bn
I0704 07:19:31.050896 22258 net.cpp:439] res5a_branch2a/bn <- res5a_branch2a
I0704 07:19:31.050902 22258 net.cpp:413] res5a_branch2a/bn -> res5a_branch2a/bn
I0704 07:19:31.051568 22258 net.cpp:148] Setting up res5a_branch2a/bn
I0704 07:19:31.051575 22258 net.cpp:155] Top shape: 21 512 8 8 (688128)
I0704 07:19:31.051578 22258 net.cpp:163] Memory required for data: 113369172
I0704 07:19:31.051587 22258 layer_factory.hpp:77] Creating layer res5a_branch2a/relu
I0704 07:19:31.051594 22258 net.cpp:98] Creating Layer res5a_branch2a/relu
I0704 07:19:31.051597 22258 net.cpp:439] res5a_branch2a/relu <- res5a_branch2a/bn
I0704 07:19:31.051601 22258 net.cpp:400] res5a_branch2a/relu -> res5a_branch2a/bn (in-place)
I0704 07:19:31.051607 22258 net.cpp:148] Setting up res5a_branch2a/relu
I0704 07:19:31.051612 22258 net.cpp:155] Top shape: 21 512 8 8 (688128)
I0704 07:19:31.051616 22258 net.cpp:163] Memory required for data: 116121684
I0704 07:19:31.051620 22258 layer_factory.hpp:77] Creating layer res5a_branch2b
I0704 07:19:31.051635 22258 net.cpp:98] Creating Layer res5a_branch2b
I0704 07:19:31.051638 22258 net.cpp:439] res5a_branch2b <- res5a_branch2a/bn
I0704 07:19:31.051645 22258 net.cpp:413] res5a_branch2b -> res5a_branch2b
I0704 07:19:31.064442 22258 net.cpp:148] Setting up res5a_branch2b
I0704 07:19:31.064452 22258 net.cpp:155] Top shape: 21 512 8 8 (688128)
I0704 07:19:31.064456 22258 net.cpp:163] Memory required for data: 118874196
I0704 07:19:31.064469 22258 layer_factory.hpp:77] Creating layer res5a_branch2b/bn
I0704 07:19:31.064476 22258 net.cpp:98] Creating Layer res5a_branch2b/bn
I0704 07:19:31.064481 22258 net.cpp:439] res5a_branch2b/bn <- res5a_branch2b
I0704 07:19:31.064486 22258 net.cpp:413] res5a_branch2b/bn -> res5a_branch2b/bn
I0704 07:19:31.065147 22258 net.cpp:148] Setting up res5a_branch2b/bn
I0704 07:19:31.065155 22258 net.cpp:155] Top shape: 21 512 8 8 (688128)
I0704 07:19:31.065158 22258 net.cpp:163] Memory required for data: 121626708
I0704 07:19:31.065167 22258 layer_factory.hpp:77] Creating layer res5a_branch2b/relu
I0704 07:19:31.065172 22258 net.cpp:98] Creating Layer res5a_branch2b/relu
I0704 07:19:31.065176 22258 net.cpp:439] res5a_branch2b/relu <- res5a_branch2b/bn
I0704 07:19:31.065181 22258 net.cpp:400] res5a_branch2b/relu -> res5a_branch2b/bn (in-place)
I0704 07:19:31.065186 22258 net.cpp:148] Setting up res5a_branch2b/relu
I0704 07:19:31.065191 22258 net.cpp:155] Top shape: 21 512 8 8 (688128)
I0704 07:19:31.065194 22258 net.cpp:163] Memory required for data: 124379220
I0704 07:19:31.065198 22258 layer_factory.hpp:77] Creating layer pool5
I0704 07:19:31.065206 22258 net.cpp:98] Creating Layer pool5
I0704 07:19:31.065209 22258 net.cpp:439] pool5 <- res5a_branch2b/bn
I0704 07:19:31.065213 22258 net.cpp:413] pool5 -> pool5
I0704 07:19:31.065244 22258 net.cpp:148] Setting up pool5
I0704 07:19:31.065249 22258 net.cpp:155] Top shape: 21 512 1 1 (10752)
I0704 07:19:31.065261 22258 net.cpp:163] Memory required for data: 124422228
I0704 07:19:31.065265 22258 layer_factory.hpp:77] Creating layer fc10
I0704 07:19:31.065273 22258 net.cpp:98] Creating Layer fc10
I0704 07:19:31.065276 22258 net.cpp:439] fc10 <- pool5
I0704 07:19:31.065281 22258 net.cpp:413] fc10 -> fc10
I0704 07:19:31.065511 22258 net.cpp:148] Setting up fc10
I0704 07:19:31.065517 22258 net.cpp:155] Top shape: 21 10 (210)
I0704 07:19:31.065521 22258 net.cpp:163] Memory required for data: 124423068
I0704 07:19:31.065526 22258 layer_factory.hpp:77] Creating layer loss
I0704 07:19:31.065536 22258 net.cpp:98] Creating Layer loss
I0704 07:19:31.065541 22258 net.cpp:439] loss <- fc10
I0704 07:19:31.065544 22258 net.cpp:439] loss <- label
I0704 07:19:31.065551 22258 net.cpp:413] loss -> loss
I0704 07:19:31.065559 22258 layer_factory.hpp:77] Creating layer loss
…
I0704 07:19:31.066323 22258 solver.cpp:182] Creating test net (#0) specified by test_net file: training/cifar10_jacintonet11v2_2017-07-04_07-19-29/initial/test.prototxt
I0704 07:19:31.066514 22258 net.cpp:56] Initializing net from parameters: 
name: "jacintonet11v2_test"
state {
  phase: TEST
}
layer {
  name: "data"
  type: "Data"
  top: "data"
  top: "label"
  transform_param {
    mirror: false
    crop_size: 32
    mean_value: 0
    mean_value: 0
    mean_value: 0
  }
  data_param {
    source: "./data/cifar10_test_lmdb"
    batch_size: 50
    backend: LMDB
    threads: 1
  }
}
layer {
  name: "data/bias"
  type: "Bias"
  bottom: "data"
  top: "data/bias"
  param {
    lr_mult: 0
    decay_mult: 0
  }
  bias_param {
    filler {
      type: "constant"
      value: -128
    }
  }
}
layer {
  name: "conv1a"
  type: "Convolution"
  bottom: "data/bias"
  top: "conv1a"
  param {
    lr_mult: 1
    decay_mult: 1
  }
  param {
    lr_mult: 2
    decay_mult: 0
  }
  convolution_param {
    num_output: 32
    bias_term: true
    pad: 2
    kernel_size: 5
    group: 1
    stride: 1
    weight_filler {
      type: "msra"
    }
    bias_filler {
      type: "constant"
      value: 0
    }
    dilation: 1
  }
}
layer {
  name: "conv1a/bn"
  type: "BatchNorm"
  bottom: "conv1a"
  top: "conv1a/bn"
  param {
    lr_mult: 1
    decay_mult: 1
  }
  param {
    lr_mult: 1
    decay_mult: 1
  }
  param {
    lr_mult: 0
    decay_mult: 0
  }
  param {
    lr_mult: 0
    decay_mult: 0
  }
  batch_norm_param {
    moving_average_fraction: 0.99
    eps: 0.0001
    scale_filler {
      type: "constant"
      value: 1
    }
    bias_filler {
      type: "constant"
      value: 0
    }
  }
}
layer {
  name: "conv1a/relu"
  type: "ReLU"
  bottom: "conv1a/bn"
  top: "conv1a/bn"
}
layer {
  name: "conv1b"
  type: "Convolution"
  bottom: "conv1a/bn"
  top: "conv1b"
  param {
    lr_mult: 1
    decay_mult: 1
  }
  param {
    lr_mult: 2
    decay_mult: 0
  }
  convolution_param {
    num_output: 32
    bias_term: true
    pad: 1
    kernel_size: 3
    group: 4
    stride: 1
    weight_filler {
      type: "msra"
    }
    bias_filler {
      type: "constant"
      value: 0
    }
    dilation: 1
  }
}
layer {
  name: "conv1b/bn"
  type: "BatchNorm"
  bottom: "conv1b"
  top: "conv1b/bn"
  param {
    lr_mult: 1
    decay_mult: 1
  }
  param {
    lr_mult: 1
    decay_mult: 1
  }
  param {
    lr_mult: 0
    decay_mult: 0
  }
  param {
    lr_mult: 0
    decay_mult: 0
  }
  batch_norm_param {
    moving_average_fraction: 0.99
    eps: 0.0001
    scale_filler {
      type: "constant"
      value: 1
    }
    bias_filler {
      type: "constant"
      value: 0
    }
  }
}
layer {
  name: "conv1b/relu"
  type: "ReLU"
  bottom: "conv1b/bn"
  top: "conv1b/bn"
}
layer {
  name: "pool1"
  type: "Pooling"
  bottom: "conv1b/bn"
  top: "pool1"
  pooling_param {
    pool: MAX
    kernel_size: 1
    stride: 1
  }
}
layer {
  name: "res2a_branch2a"
  type: "Convolution"
  bottom: "pool1"
  top: "res2a_branch2a"
  param {
    lr_mult: 1
    decay_mult: 1
  }
  param {
    lr_mult: 2
    decay_mult: 0
  }
  convolution_param {
    num_output: 64
    bias_term: true
    pad: 1
    kernel_size: 3
    group: 1
    stride: 1
    weight_filler {
      type: "msra"
    }
    bias_filler {
      type: "constant"
      value: 0
    }
    dilation: 1
  }
}
layer {
  name: "res2a_branch2a/bn"
  type: "BatchNorm"
  bottom: "res2a_branch2a"
  top: "res2a_branch2a/bn"
  param {
    lr_mult: 1
    decay_mult: 1
  }
  param {
    lr_mult: 1
    decay_mult: 1
  }
  param {
    lr_mult: 0
    decay_mult: 0
  }
  param {
    lr_mult: 0
    decay_mult: 0
  }
  batch_norm_param {
    moving_average_fraction: 0.99
    eps: 0.0001
    scale_filler {
      type: "constant"
      value: 1
    }
    bias_filler {
      type: "constant"
      value: 0
    }
  }
}
layer {
  name: "res2a_branch2a/relu"
  type: "ReLU"
  bottom: "res2a_branch2a/bn"
  top: "res2a_branch2a/bn"
}
layer {
  name: "res2a_branch2b"
  type: "Convolution"
  bottom: "res2a_branch2a/bn"
  top: "res2a_branch2b"
  param {
    lr_mult: 1
    decay_mult: 1
  }
  param {
    lr_mult: 2
    decay_mult: 0
  }
  convolution_param {
    num_output: 64
    bias_term: true
    pad: 1
    kernel_size: 3
    group: 4
    stride: 1
    weight_filler {
      type: "msra"
    }
    bias_filler {
      type: "constant"
      value: 0
    }
    dilation: 1
  }
}
layer {
  name: "res2a_branch2b/bn"
  type: "BatchNorm"
  bottom: "res2a_branch2b"
  top: "res2a_branch2b/bn"
  param {
    lr_mult: 1
    decay_mult: 1
  }
  param {
    lr_mult: 1
    decay_mult: 1
  }
  param {
    lr_mult: 0
    decay_mult: 0
  }
  param {
    lr_mult: 0
    decay_mult: 0
  }
  batch_norm_param {
    moving_average_fraction: 0.99
    eps: 0.0001
    scale_filler {
      type: "constant"
      value: 1
    }
    bias_filler {
      type: "constant"
      value: 0
    }
  }
}
layer {
  name: "res2a_branch2b/relu"
  type: "ReLU"
  bottom: "res2a_branch2b/bn"
  top: "res2a_branch2b/bn"
}
layer {
  name: "pool2"
  type: "Pooling"
  bottom: "res2a_branch2b/bn"
  top: "pool2"
  pooling_param {
    pool: MAX
    kernel_size: 2
    stride: 2
  }
}
layer {
  name: "res3a_branch2a"
  type: "Convolution"
  bottom: "pool2"
  top: "res3a_branch2a"
  param {
    lr_mult: 1
    decay_mult: 1
  }
  param {
    lr_mult: 2
    decay_mult: 0
  }
  convolution_param {
    num_output: 128
    bias_term: true
    pad: 1
    kernel_size: 3
    group: 1
    stride: 1
    weight_filler {
      type: "msra"
    }
    bias_filler {
      type: "constant"
      value: 0
    }
    dilation: 1
  }
}
layer {
  name: "res3a_branch2a/bn"
  type: "BatchNorm"
  bottom: "res3a_branch2a"
  top: "res3a_branch2a/bn"
  param {
    lr_mult: 1
    decay_mult: 1
  }
  param {
    lr_mult: 1
    decay_mult: 1
  }
  param {
    lr_mult: 0
    decay_mult: 0
  }
  param {
    lr_mult: 0
    decay_mult: 0
  }
  batch_norm_param {
    moving_average_fraction: 0.99
    eps: 0.0001
    scale_filler {
      type: "constant"
      value: 1
    }
    bias_filler {
      type: "constant"
      value: 0
    }
  }
}
layer {
  name: "res3a_branch2a/relu"
  type: "ReLU"
  bottom: "res3a_branch2a/bn"
  top: "res3a_branch2a/bn"
}
layer {
  name: "res3a_branch2b"
  type: "Convolution"
  bottom: "res3a_branch2a/bn"
  top: "res3a_branch2b"
  param {
    lr_mult: 1
    decay_mult: 1
  }
  param {
    lr_mult: 2
    decay_mult: 0
  }
  convolution_param {
    num_output: 128
    bias_term: true
    pad: 1
    kernel_size: 3
    group: 4
    stride: 1
    weight_filler {
      type: "msra"
    }
    bias_filler {
      type: "constant"
      value: 0
    }
    dilation: 1
  }
}
layer {
  name: "res3a_branch2b/bn"
  type: "BatchNorm"
  bottom: "res3a_branch2b"
  top: "res3a_branch2b/bn"
  param {
    lr_mult: 1
    decay_mult: 1
  }
  param {
    lr_mult: 1
    decay_mult: 1
  }
  param {
    lr_mult: 0
    decay_mult: 0
  }
  param {
    lr_mult: 0
    decay_mult: 0
  }
  batch_norm_param {
    moving_average_fraction: 0.99
    eps: 0.0001
    scale_filler {
      type: "constant"
      value: 1
    }
    bias_filler {
      type: "constant"
      value: 0
    }
  }
}
layer {
  name: "res3a_branch2b/relu"
  type: "ReLU"
  bottom: "res3a_branch2b/bn"
  top: "res3a_branch2b/bn"
}
layer {
  name: "pool3"
  type: "Pooling"
  bottom: "res3a_branch2b/bn"
  top: "pool3"
  pooling_param {
    pool: MAX
    kernel_size: 1
    stride: 1
  }
}
layer {
  name: "res4a_branch2a"
  type: "Convolution"
  bottom: "pool3"
  top: "res4a_branch2a"
  param {
    lr_mult: 1
    decay_mult: 1
  }
  param {
    lr_mult: 2
    decay_mult: 0
  }
  convolution_param {
    num_output: 256
    bias_term: true
    pad: 1
    kernel_size: 3
    group: 1
    stride: 1
    weight_filler {
      type: "msra"
    }
    bias_filler {
      type: "constant"
      value: 0
    }
    dilation: 1
  }
}
layer {
  name: "res4a_branch2a/bn"
  type: "BatchNorm"
  bottom: "res4a_branch2a"
  top: "res4a_branch2a/bn"
  param {
    lr_mult: 1
    decay_mult: 1
  }
  param {
    lr_mult: 1
    decay_mult: 1
  }
  param {
    lr_mult: 0
    decay_mult: 0
  }
  param {
    lr_mult: 0
    decay_mult: 0
  }
  batch_norm_param {
    moving_average_fraction: 0.99
    eps: 0.0001
    scale_filler {
      type: "constant"
      value: 1
    }
    bias_filler {
      type: "constant"
      value: 0
    }
  }
}
layer {
  name: "res4a_branch2a/relu"
  type: "ReLU"
  bottom: "res4a_branch2a/bn"
  top: "res4a_branch2a/bn"
}
layer {
  name: "res4a_branch2b"
  type: "Convolution"
  bottom: "res4a_branch2a/bn"
  top: "res4a_branch2b"
  param {
    lr_mult: 1
    decay_mult: 1
  }
  param {
    lr_mult: 2
    decay_mult: 0
  }
  convolution_param {
    num_output: 256
    bias_term: true
    pad: 1
    kernel_size: 3
    group: 4
    stride: 1
    weight_filler {
      type: "msra"
    }
    bias_filler {
      type: "constant"
      value: 0
    }
    dilation: 1
  }
}
layer {
  name: "res4a_branch2b/bn"
  type: "BatchNorm"
  bottom: "res4a_branch2b"
  top: "res4a_branch2b/bn"
  param {
    lr_mult: 1
    decay_mult: 1
  }
  param {
    lr_mult: 1
    decay_mult: 1
  }
  param {
    lr_mult: 0
    decay_mult: 0
  }
  param {
    lr_mult: 0
    decay_mult: 0
  }
  batch_norm_param {
    moving_average_fraction: 0.99
    eps: 0.0001
    scale_filler {
      type: "constant"
      value: 1
    }
    bias_filler {
      type: "constant"
      value: 0
    }
  }
}
layer {
  name: "res4a_branch2b/relu"
  type: "ReLU"
  bottom: "res4a_branch2b/bn"
  top: "res4a_branch2b/bn"
}
layer {
  name: "pool4"
  type: "Pooling"
  bottom: "res4a_branch2b/bn"
  top: "pool4"
  pooling_param {
    pool: MAX
    kernel_size: 2
    stride: 2
  }
}
layer {
  name: "res5a_branch2a"
  type: "Convolution"
  bottom: "pool4"
  top: "res5a_branch2a"
  param {
    lr_mult: 1
    decay_mult: 1
  }
  param {
    lr_mult: 2
    decay_mult: 0
  }
  convolution_param {
    num_output: 512
    bias_term: true
    pad: 1
    kernel_size: 3
    group: 1
    stride: 1
    weight_filler {
      type: "msra"
    }
    bias_filler {
      type: "constant"
      value: 0
    }
    dilation: 1
  }
}
layer {
  name: "res5a_branch2a/bn"
  type: "BatchNorm"
  bottom: "res5a_branch2a"
  top: "res5a_branch2a/bn"
  param {
    lr_mult: 1
    decay_mult: 1
  }
  param {
    lr_mult: 1
    decay_mult: 1
  }
  param {
    lr_mult: 0
    decay_mult: 0
  }
  param {
    lr_mult: 0
    decay_mult: 0
  }
  batch_norm_param {
    moving_average_fraction: 0.99
    eps: 0.0001
    scale_filler {
      type: "constant"
      value: 1
    }
    bias_filler {
      type: "constant"
      value: 0
    }
  }
}
layer {
  name: "res5a_branch2a/relu"
  type: "ReLU"
  bottom: "res5a_branch2a/bn"
  top: "res5a_branch2a/bn"
}
layer {
  name: "res5a_branch2b"
  type: "Convolution"
  bottom: "res5a_branch2a/bn"
  top: "res5a_branch2b"
  param {
    lr_mult: 1
    decay_mult: 1
  }
  param {
    lr_mult: 2
    decay_mult: 0
  }
  convolution_param {
    num_output: 512
    bias_term: true
    pad: 1
    kernel_size: 3
    group: 4
    stride: 1
    weight_filler {
      type: "msra"
    }
    bias_filler {
      type: "constant"
      value: 0
    }
    dilation: 1
  }
}
layer {
  name: "res5a_branch2b/bn"
  type: "BatchNorm"
  bottom: "res5a_branch2b"
  top: "res5a_branch2b/bn"
  param {
    lr_mult: 1
    decay_mult: 1
  }
  param {
    lr_mult: 1
    decay_mult: 1
  }
  param {
    lr_mult: 0
    decay_mult: 0
  }
  param {
    lr_mult: 0
    decay_mult: 0
  }
  batch_norm_param {
    moving_average_fraction: 0.99
    eps: 0.0001
    scale_filler {
      type: "constant"
      value: 1
    }
    bias_filler {
      type: "constant"
      value: 0
    }
  }
}
layer {
  name: "res5a_branch2b/relu"
  type: "ReLU"
  bottom: "res5a_branch2b/bn"
  top: "res5a_branch2b/bn"
}
layer {
  name: "pool5"
  type: "Pooling"
  bottom: "res5a_branch2b/bn"
  top: "pool5"
  pooling_param {
    pool: AVE
    global_pooling: true
  }
}
layer {
  name: "fc10"
  type: "InnerProduct"
  bottom: "pool5"
  top: "fc10"
  param {
    lr_mult: 1
    decay_mult: 1
  }
  param {
    lr_mult: 2
    decay_mult: 0
  }
  inner_product_param {
    num_output: 10
    weight_filler {
      type: "msra"
    }
    bias_filler {
      type: "constant"
      value: 0
    }
  }
}
layer {
  name: "loss"
  type: "SoftmaxWithLoss"
  bottom: "fc10"
  bottom: "label"
  top: "loss"
  propagate_down: true
  propagate_down: false
}
layer {
  name: "accuracy/top1"
  type: "Accuracy"
  bottom: "fc10"
  bottom: "label"
  top: "accuracy/top1"
  include {
    phase: TEST
  }
}
layer {
  name: "accuracy/top5"
  type: "Accuracy"
  bottom: "fc10"
  bottom: "label"
  top: "accuracy/top5"
  include {
    phase: TEST
  }
  accuracy_param {
    top_k: 5
  }
}
I0704 07:19:31.066610 22258 layer_factory.hpp:77] Creating layer data
I0704 07:19:31.066674 22258 net.cpp:98] Creating Layer data
I0704 07:19:31.066680 22258 net.cpp:413] data -> data
I0704 07:19:31.066687 22258 net.cpp:413] data -> label
I0704 07:19:31.079757 22294 db_lmdb.cpp:35] Opened lmdb ./data/cifar10_test_lmdb
I0704 07:19:31.080672 22258 data_layer.cpp:78] ReshapePrefetch 50, 3, 32, 32
I0704 07:19:31.080978 22258 data_layer.cpp:83] output data size: 50,3,32,32
I0704 07:19:31.089512 22258 net.cpp:148] Setting up data
I0704 07:19:31.089548 22258 net.cpp:155] Top shape: 50 3 32 32 (153600)
I0704 07:19:31.089565 22258 net.cpp:155] Top shape: 50 (50)
I0704 07:19:31.089581 22258 net.cpp:163] Memory required for data: 614600
I0704 07:19:31.089598 22258 layer_factory.hpp:77] Creating layer label_data_1_split
I0704 07:19:31.089623 22258 net.cpp:98] Creating Layer label_data_1_split
I0704 07:19:31.089638 22258 net.cpp:439] label_data_1_split <- label
I0704 07:19:31.089655 22258 net.cpp:413] label_data_1_split -> label_data_1_split_0
I0704 07:19:31.089679 22258 net.cpp:413] label_data_1_split -> label_data_1_split_1
I0704 07:19:31.089699 22258 net.cpp:413] label_data_1_split -> label_data_1_split_2
I0704 07:19:31.089928 22258 net.cpp:148] Setting up label_data_1_split
I0704 07:19:31.089948 22258 net.cpp:155] Top shape: 50 (50)
I0704 07:19:31.089965 22258 net.cpp:155] Top shape: 50 (50)
I0704 07:19:31.089982 22258 net.cpp:155] Top shape: 50 (50)
I0704 07:19:31.089994 22258 net.cpp:163] Memory required for data: 615200
I0704 07:19:31.090010 22258 layer_factory.hpp:77] Creating layer data/bias
I0704 07:19:31.090034 22258 net.cpp:98] Creating Layer data/bias
I0704 07:19:31.090046 22258 net.cpp:439] data/bias <- data
I0704 07:19:31.090065 22258 net.cpp:413] data/bias -> data/bias
I0704 07:19:31.090380 22258 net.cpp:148] Setting up data/bias
I0704 07:19:31.090423 22258 net.cpp:155] Top shape: 50 3 32 32 (153600)
I0704 07:19:31.090438 22258 net.cpp:163] Memory required for data: 1229600
I0704 07:19:31.090461 22258 layer_factory.hpp:77] Creating layer conv1a
I0704 07:19:31.090487 22258 net.cpp:98] Creating Layer conv1a
I0704 07:19:31.090499 22258 net.cpp:439] conv1a <- data/bias
I0704 07:19:31.090518 22258 net.cpp:413] conv1a -> conv1a
I0704 07:19:31.092212 22258 net.cpp:148] Setting up conv1a
I0704 07:19:31.092239 22258 net.cpp:155] Top shape: 50 32 32 32 (1638400)
I0704 07:19:31.092254 22258 net.cpp:163] Memory required for data: 7783200
I0704 07:19:31.092283 22258 layer_factory.hpp:77] Creating layer conv1a/bn
I0704 07:19:31.092304 22258 net.cpp:98] Creating Layer conv1a/bn
I0704 07:19:31.092319 22258 net.cpp:439] conv1a/bn <- conv1a
I0704 07:19:31.092339 22258 net.cpp:413] conv1a/bn -> conv1a/bn
I0704 07:19:31.094861 22258 net.cpp:148] Setting up conv1a/bn
I0704 07:19:31.094882 22258 net.cpp:155] Top shape: 50 32 32 32 (1638400)
I0704 07:19:31.094892 22258 net.cpp:163] Memory required for data: 14336800
I0704 07:19:31.094916 22258 layer_factory.hpp:77] Creating layer conv1a/relu
I0704 07:19:31.094929 22258 net.cpp:98] Creating Layer conv1a/relu
I0704 07:19:31.094940 22258 net.cpp:439] conv1a/relu <- conv1a/bn
I0704 07:19:31.094969 22258 net.cpp:400] conv1a/relu -> conv1a/bn (in-place)
I0704 07:19:31.094986 22258 net.cpp:148] Setting up conv1a/relu
I0704 07:19:31.095000 22258 net.cpp:155] Top shape: 50 32 32 32 (1638400)
I0704 07:19:31.095010 22258 net.cpp:163] Memory required for data: 20890400
I0704 07:19:31.095021 22258 layer_factory.hpp:77] Creating layer conv1b
I0704 07:19:31.095037 22258 net.cpp:98] Creating Layer conv1b
I0704 07:19:31.095046 22258 net.cpp:439] conv1b <- conv1a/bn
I0704 07:19:31.095060 22258 net.cpp:413] conv1b -> conv1b
I0704 07:19:31.095975 22258 net.cpp:148] Setting up conv1b
I0704 07:19:31.095993 22258 net.cpp:155] Top shape: 50 32 32 32 (1638400)
I0704 07:19:31.096002 22258 net.cpp:163] Memory required for data: 27444000
I0704 07:19:31.096021 22258 layer_factory.hpp:77] Creating layer conv1b/bn
I0704 07:19:31.096048 22258 net.cpp:98] Creating Layer conv1b/bn
I0704 07:19:31.096058 22258 net.cpp:439] conv1b/bn <- conv1b
I0704 07:19:31.096071 22258 net.cpp:413] conv1b/bn -> conv1b/bn
I0704 07:19:31.098311 22258 net.cpp:148] Setting up conv1b/bn
I0704 07:19:31.098341 22258 net.cpp:155] Top shape: 50 32 32 32 (1638400)
I0704 07:19:31.098356 22258 net.cpp:163] Memory required for data: 33997600
I0704 07:19:31.098400 22258 layer_factory.hpp:77] Creating layer conv1b/relu
I0704 07:19:31.098422 22258 net.cpp:98] Creating Layer conv1b/relu
I0704 07:19:31.098436 22258 net.cpp:439] conv1b/relu <- conv1b/bn
I0704 07:19:31.098453 22258 net.cpp:400] conv1b/relu -> conv1b/bn (in-place)
I0704 07:19:31.098474 22258 net.cpp:148] Setting up conv1b/relu
I0704 07:19:31.098491 22258 net.cpp:155] Top shape: 50 32 32 32 (1638400)
I0704 07:19:31.098505 22258 net.cpp:163] Memory required for data: 40551200
I0704 07:19:31.098517 22258 layer_factory.hpp:77] Creating layer pool1
I0704 07:19:31.098536 22258 net.cpp:98] Creating Layer pool1
I0704 07:19:31.098549 22258 net.cpp:439] pool1 <- conv1b/bn
I0704 07:19:31.098567 22258 net.cpp:413] pool1 -> pool1
I0704 07:19:31.098729 22258 net.cpp:148] Setting up pool1
I0704 07:19:31.098747 22258 net.cpp:155] Top shape: 50 32 32 32 (1638400)
I0704 07:19:31.098760 22258 net.cpp:163] Memory required for data: 47104800
I0704 07:19:31.098773 22258 layer_factory.hpp:77] Creating layer res2a_branch2a
I0704 07:19:31.098805 22258 net.cpp:98] Creating Layer res2a_branch2a
I0704 07:19:31.098819 22258 net.cpp:439] res2a_branch2a <- pool1
I0704 07:19:31.098834 22258 net.cpp:413] res2a_branch2a -> res2a_branch2a
I0704 07:19:31.100829 22258 net.cpp:148] Setting up res2a_branch2a
I0704 07:19:31.100847 22258 net.cpp:155] Top shape: 50 64 32 32 (3276800)
I0704 07:19:31.100857 22258 net.cpp:163] Memory required for data: 60212000
I0704 07:19:31.100873 22258 layer_factory.hpp:77] Creating layer res2a_branch2a/bn
I0704 07:19:31.100886 22258 net.cpp:98] Creating Layer res2a_branch2a/bn
I0704 07:19:31.100895 22258 net.cpp:439] res2a_branch2a/bn <- res2a_branch2a
I0704 07:19:31.100906 22258 net.cpp:413] res2a_branch2a/bn -> res2a_branch2a/bn
I0704 07:19:31.102996 22258 net.cpp:148] Setting up res2a_branch2a/bn
I0704 07:19:31.103014 22258 net.cpp:155] Top shape: 50 64 32 32 (3276800)
I0704 07:19:31.103024 22258 net.cpp:163] Memory required for data: 73319200
I0704 07:19:31.103041 22258 layer_factory.hpp:77] Creating layer res2a_branch2a/relu
I0704 07:19:31.103052 22258 net.cpp:98] Creating Layer res2a_branch2a/relu
I0704 07:19:31.103061 22258 net.cpp:439] res2a_branch2a/relu <- res2a_branch2a/bn
I0704 07:19:31.103070 22258 net.cpp:400] res2a_branch2a/relu -> res2a_branch2a/bn (in-place)
I0704 07:19:31.103083 22258 net.cpp:148] Setting up res2a_branch2a/relu
I0704 07:19:31.103092 22258 net.cpp:155] Top shape: 50 64 32 32 (3276800)
I0704 07:19:31.103101 22258 net.cpp:163] Memory required for data: 86426400
I0704 07:19:31.103109 22258 layer_factory.hpp:77] Creating layer res2a_branch2b
I0704 07:19:31.103123 22258 net.cpp:98] Creating Layer res2a_branch2b
I0704 07:19:31.103132 22258 net.cpp:439] res2a_branch2b <- res2a_branch2a/bn
I0704 07:19:31.103143 22258 net.cpp:413] res2a_branch2b -> res2a_branch2b
I0704 07:19:31.104482 22258 net.cpp:148] Setting up res2a_branch2b
I0704 07:19:31.104496 22258 net.cpp:155] Top shape: 50 64 32 32 (3276800)
I0704 07:19:31.104504 22258 net.cpp:163] Memory required for data: 99533600
I0704 07:19:31.104516 22258 layer_factory.hpp:77] Creating layer res2a_branch2b/bn
I0704 07:19:31.104528 22258 net.cpp:98] Creating Layer res2a_branch2b/bn
I0704 07:19:31.104537 22258 net.cpp:439] res2a_branch2b/bn <- res2a_branch2b
I0704 07:19:31.104545 22258 net.cpp:413] res2a_branch2b/bn -> res2a_branch2b/bn
I0704 07:19:31.106292 22258 net.cpp:148] Setting up res2a_branch2b/bn
I0704 07:19:31.106305 22258 net.cpp:155] Top shape: 50 64 32 32 (3276800)
I0704 07:19:31.106313 22258 net.cpp:163] Memory required for data: 112640800
I0704 07:19:31.106328 22258 layer_factory.hpp:77] Creating layer res2a_branch2b/relu
I0704 07:19:31.106336 22258 net.cpp:98] Creating Layer res2a_branch2b/relu
I0704 07:19:31.106343 22258 net.cpp:439] res2a_branch2b/relu <- res2a_branch2b/bn
I0704 07:19:31.106350 22258 net.cpp:400] res2a_branch2b/relu -> res2a_branch2b/bn (in-place)
I0704 07:19:31.106360 22258 net.cpp:148] Setting up res2a_branch2b/relu
I0704 07:19:31.106369 22258 net.cpp:155] Top shape: 50 64 32 32 (3276800)
I0704 07:19:31.106375 22258 net.cpp:163] Memory required for data: 125748000
I0704 07:19:31.106382 22258 layer_factory.hpp:77] Creating layer pool2
I0704 07:19:31.106396 22258 net.cpp:98] Creating Layer pool2
I0704 07:19:31.106403 22258 net.cpp:439] pool2 <- res2a_branch2b/bn
I0704 07:19:31.106412 22258 net.cpp:413] pool2 -> pool2
I0704 07:19:31.106498 22258 net.cpp:148] Setting up pool2
I0704 07:19:31.106508 22258 net.cpp:155] Top shape: 50 64 16 16 (819200)
I0704 07:19:31.106515 22258 net.cpp:163] Memory required for data: 129024800
I0704 07:19:31.106521 22258 layer_factory.hpp:77] Creating layer res3a_branch2a
I0704 07:19:31.106531 22258 net.cpp:98] Creating Layer res3a_branch2a
I0704 07:19:31.106539 22258 net.cpp:439] res3a_branch2a <- pool2
I0704 07:19:31.106547 22258 net.cpp:413] res3a_branch2a -> res3a_branch2a
I0704 07:19:31.111567 22258 net.cpp:148] Setting up res3a_branch2a
I0704 07:19:31.111582 22258 net.cpp:155] Top shape: 50 128 16 16 (1638400)
I0704 07:19:31.111587 22258 net.cpp:163] Memory required for data: 135578400
I0704 07:19:31.111593 22258 layer_factory.hpp:77] Creating layer res3a_branch2a/bn
I0704 07:19:31.111600 22258 net.cpp:98] Creating Layer res3a_branch2a/bn
I0704 07:19:31.111605 22258 net.cpp:439] res3a_branch2a/bn <- res3a_branch2a
I0704 07:19:31.111611 22258 net.cpp:413] res3a_branch2a/bn -> res3a_branch2a/bn
I0704 07:19:31.112572 22258 net.cpp:148] Setting up res3a_branch2a/bn
I0704 07:19:31.112581 22258 net.cpp:155] Top shape: 50 128 16 16 (1638400)
I0704 07:19:31.112586 22258 net.cpp:163] Memory required for data: 142132000
I0704 07:19:31.112594 22258 layer_factory.hpp:77] Creating layer res3a_branch2a/relu
I0704 07:19:31.112607 22258 net.cpp:98] Creating Layer res3a_branch2a/relu
I0704 07:19:31.112612 22258 net.cpp:439] res3a_branch2a/relu <- res3a_branch2a/bn
I0704 07:19:31.112617 22258 net.cpp:400] res3a_branch2a/relu -> res3a_branch2a/bn (in-place)
I0704 07:19:31.112623 22258 net.cpp:148] Setting up res3a_branch2a/relu
I0704 07:19:31.112628 22258 net.cpp:155] Top shape: 50 128 16 16 (1638400)
I0704 07:19:31.112632 22258 net.cpp:163] Memory required for data: 148685600
I0704 07:19:31.112635 22258 layer_factory.hpp:77] Creating layer res3a_branch2b
I0704 07:19:31.112642 22258 net.cpp:98] Creating Layer res3a_branch2b
I0704 07:19:31.112645 22258 net.cpp:439] res3a_branch2b <- res3a_branch2a/bn
I0704 07:19:31.112649 22258 net.cpp:413] res3a_branch2b -> res3a_branch2b
I0704 07:19:31.114183 22258 net.cpp:148] Setting up res3a_branch2b
I0704 07:19:31.114192 22258 net.cpp:155] Top shape: 50 128 16 16 (1638400)
I0704 07:19:31.114195 22258 net.cpp:163] Memory required for data: 155239200
I0704 07:19:31.114200 22258 layer_factory.hpp:77] Creating layer res3a_branch2b/bn
I0704 07:19:31.114205 22258 net.cpp:98] Creating Layer res3a_branch2b/bn
I0704 07:19:31.114209 22258 net.cpp:439] res3a_branch2b/bn <- res3a_branch2b
I0704 07:19:31.114223 22258 net.cpp:413] res3a_branch2b/bn -> res3a_branch2b/bn
I0704 07:19:31.115072 22258 net.cpp:148] Setting up res3a_branch2b/bn
I0704 07:19:31.115079 22258 net.cpp:155] Top shape: 50 128 16 16 (1638400)
I0704 07:19:31.115083 22258 net.cpp:163] Memory required for data: 161792800
I0704 07:19:31.115090 22258 layer_factory.hpp:77] Creating layer res3a_branch2b/relu
I0704 07:19:31.115094 22258 net.cpp:98] Creating Layer res3a_branch2b/relu
I0704 07:19:31.115098 22258 net.cpp:439] res3a_branch2b/relu <- res3a_branch2b/bn
I0704 07:19:31.115103 22258 net.cpp:400] res3a_branch2b/relu -> res3a_branch2b/bn (in-place)
I0704 07:19:31.115108 22258 net.cpp:148] Setting up res3a_branch2b/relu
I0704 07:19:31.115111 22258 net.cpp:155] Top shape: 50 128 16 16 (1638400)
I0704 07:19:31.115113 22258 net.cpp:163] Memory required for data: 168346400
I0704 07:19:31.115118 22258 layer_factory.hpp:77] Creating layer pool3
I0704 07:19:31.115121 22258 net.cpp:98] Creating Layer pool3
I0704 07:19:31.115124 22258 net.cpp:439] pool3 <- res3a_branch2b/bn
I0704 07:19:31.115128 22258 net.cpp:413] pool3 -> pool3
I0704 07:19:31.115181 22258 net.cpp:148] Setting up pool3
I0704 07:19:31.115186 22258 net.cpp:155] Top shape: 50 128 16 16 (1638400)
I0704 07:19:31.115190 22258 net.cpp:163] Memory required for data: 174900000
I0704 07:19:31.115192 22258 layer_factory.hpp:77] Creating layer res4a_branch2a
I0704 07:19:31.115198 22258 net.cpp:98] Creating Layer res4a_branch2a
I0704 07:19:31.115202 22258 net.cpp:439] res4a_branch2a <- pool3
I0704 07:19:31.115206 22258 net.cpp:413] res4a_branch2a -> res4a_branch2a
I0704 07:19:31.124558 22258 net.cpp:148] Setting up res4a_branch2a
I0704 07:19:31.124575 22258 net.cpp:155] Top shape: 50 256 16 16 (3276800)
I0704 07:19:31.124578 22258 net.cpp:163] Memory required for data: 188007200
I0704 07:19:31.124586 22258 layer_factory.hpp:77] Creating layer res4a_branch2a/bn
I0704 07:19:31.124594 22258 net.cpp:98] Creating Layer res4a_branch2a/bn
I0704 07:19:31.124600 22258 net.cpp:439] res4a_branch2a/bn <- res4a_branch2a
I0704 07:19:31.124608 22258 net.cpp:413] res4a_branch2a/bn -> res4a_branch2a/bn
I0704 07:19:31.125502 22258 net.cpp:148] Setting up res4a_branch2a/bn
I0704 07:19:31.125511 22258 net.cpp:155] Top shape: 50 256 16 16 (3276800)
I0704 07:19:31.125515 22258 net.cpp:163] Memory required for data: 201114400
I0704 07:19:31.125524 22258 layer_factory.hpp:77] Creating layer res4a_branch2a/relu
I0704 07:19:31.125530 22258 net.cpp:98] Creating Layer res4a_branch2a/relu
I0704 07:19:31.125533 22258 net.cpp:439] res4a_branch2a/relu <- res4a_branch2a/bn
I0704 07:19:31.125538 22258 net.cpp:400] res4a_branch2a/relu -> res4a_branch2a/bn (in-place)
I0704 07:19:31.125545 22258 net.cpp:148] Setting up res4a_branch2a/relu
I0704 07:19:31.125550 22258 net.cpp:155] Top shape: 50 256 16 16 (3276800)
I0704 07:19:31.125552 22258 net.cpp:163] Memory required for data: 214221600
I0704 07:19:31.125557 22258 layer_factory.hpp:77] Creating layer res4a_branch2b
I0704 07:19:31.125566 22258 net.cpp:98] Creating Layer res4a_branch2b
I0704 07:19:31.125569 22258 net.cpp:439] res4a_branch2b <- res4a_branch2a/bn
I0704 07:19:31.125574 22258 net.cpp:413] res4a_branch2b -> res4a_branch2b
I0704 07:19:31.128950 22258 net.cpp:148] Setting up res4a_branch2b
I0704 07:19:31.128958 22258 net.cpp:155] Top shape: 50 256 16 16 (3276800)
I0704 07:19:31.128962 22258 net.cpp:163] Memory required for data: 227328800
I0704 07:19:31.128968 22258 layer_factory.hpp:77] Creating layer res4a_branch2b/bn
I0704 07:19:31.128974 22258 net.cpp:98] Creating Layer res4a_branch2b/bn
I0704 07:19:31.128978 22258 net.cpp:439] res4a_branch2b/bn <- res4a_branch2b
I0704 07:19:31.128989 22258 net.cpp:413] res4a_branch2b/bn -> res4a_branch2b/bn
I0704 07:19:31.129662 22258 net.cpp:148] Setting up res4a_branch2b/bn
I0704 07:19:31.129668 22258 net.cpp:155] Top shape: 50 256 16 16 (3276800)
I0704 07:19:31.129673 22258 net.cpp:163] Memory required for data: 240436000
I0704 07:19:31.129680 22258 layer_factory.hpp:77] Creating layer res4a_branch2b/relu
I0704 07:19:31.129693 22258 net.cpp:98] Creating Layer res4a_branch2b/relu
I0704 07:19:31.129698 22258 net.cpp:439] res4a_branch2b/relu <- res4a_branch2b/bn
I0704 07:19:31.129703 22258 net.cpp:400] res4a_branch2b/relu -> res4a_branch2b/bn (in-place)
I0704 07:19:31.129709 22258 net.cpp:148] Setting up res4a_branch2b/relu
I0704 07:19:31.129714 22258 net.cpp:155] Top shape: 50 256 16 16 (3276800)
I0704 07:19:31.129717 22258 net.cpp:163] Memory required for data: 253543200
I0704 07:19:31.129721 22258 layer_factory.hpp:77] Creating layer pool4
I0704 07:19:31.129727 22258 net.cpp:98] Creating Layer pool4
I0704 07:19:31.129730 22258 net.cpp:439] pool4 <- res4a_branch2b/bn
I0704 07:19:31.129735 22258 net.cpp:413] pool4 -> pool4
I0704 07:19:31.129779 22258 net.cpp:148] Setting up pool4
I0704 07:19:31.129786 22258 net.cpp:155] Top shape: 50 256 8 8 (819200)
I0704 07:19:31.129789 22258 net.cpp:163] Memory required for data: 256820000
I0704 07:19:31.129793 22258 layer_factory.hpp:77] Creating layer res5a_branch2a
I0704 07:19:31.129801 22258 net.cpp:98] Creating Layer res5a_branch2a
I0704 07:19:31.129804 22258 net.cpp:439] res5a_branch2a <- pool4
I0704 07:19:31.129809 22258 net.cpp:413] res5a_branch2a -> res5a_branch2a
I0704 07:19:31.155391 22258 net.cpp:148] Setting up res5a_branch2a
I0704 07:19:31.155414 22258 net.cpp:155] Top shape: 50 512 8 8 (1638400)
I0704 07:19:31.155417 22258 net.cpp:163] Memory required for data: 263373600
I0704 07:19:31.155426 22258 layer_factory.hpp:77] Creating layer res5a_branch2a/bn
I0704 07:19:31.155436 22258 net.cpp:98] Creating Layer res5a_branch2a/bn
I0704 07:19:31.155441 22258 net.cpp:439] res5a_branch2a/bn <- res5a_branch2a
I0704 07:19:31.155448 22258 net.cpp:413] res5a_branch2a/bn -> res5a_branch2a/bn
I0704 07:19:31.156158 22258 net.cpp:148] Setting up res5a_branch2a/bn
I0704 07:19:31.156172 22258 net.cpp:155] Top shape: 50 512 8 8 (1638400)
I0704 07:19:31.156175 22258 net.cpp:163] Memory required for data: 269927200
I0704 07:19:31.156183 22258 layer_factory.hpp:77] Creating layer res5a_branch2a/relu
I0704 07:19:31.156188 22258 net.cpp:98] Creating Layer res5a_branch2a/relu
I0704 07:19:31.156193 22258 net.cpp:439] res5a_branch2a/relu <- res5a_branch2a/bn
I0704 07:19:31.156198 22258 net.cpp:400] res5a_branch2a/relu -> res5a_branch2a/bn (in-place)
I0704 07:19:31.156204 22258 net.cpp:148] Setting up res5a_branch2a/relu
I0704 07:19:31.156209 22258 net.cpp:155] Top shape: 50 512 8 8 (1638400)
I0704 07:19:31.156213 22258 net.cpp:163] Memory required for data: 276480800
I0704 07:19:31.156217 22258 layer_factory.hpp:77] Creating layer res5a_branch2b
I0704 07:19:31.156225 22258 net.cpp:98] Creating Layer res5a_branch2b
I0704 07:19:31.156229 22258 net.cpp:439] res5a_branch2b <- res5a_branch2a/bn
I0704 07:19:31.156234 22258 net.cpp:413] res5a_branch2b -> res5a_branch2b
I0704 07:19:31.169116 22258 net.cpp:148] Setting up res5a_branch2b
I0704 07:19:31.169127 22258 net.cpp:155] Top shape: 50 512 8 8 (1638400)
I0704 07:19:31.169131 22258 net.cpp:163] Memory required for data: 283034400
I0704 07:19:31.169143 22258 layer_factory.hpp:77] Creating layer res5a_branch2b/bn
I0704 07:19:31.169152 22258 net.cpp:98] Creating Layer res5a_branch2b/bn
I0704 07:19:31.169155 22258 net.cpp:439] res5a_branch2b/bn <- res5a_branch2b
I0704 07:19:31.169162 22258 net.cpp:413] res5a_branch2b/bn -> res5a_branch2b/bn
I0704 07:19:31.169863 22258 net.cpp:148] Setting up res5a_branch2b/bn
I0704 07:19:31.169870 22258 net.cpp:155] Top shape: 50 512 8 8 (1638400)
I0704 07:19:31.169874 22258 net.cpp:163] Memory required for data: 289588000
I0704 07:19:31.169883 22258 layer_factory.hpp:77] Creating layer res5a_branch2b/relu
I0704 07:19:31.169888 22258 net.cpp:98] Creating Layer res5a_branch2b/relu
I0704 07:19:31.169893 22258 net.cpp:439] res5a_branch2b/relu <- res5a_branch2b/bn
I0704 07:19:31.169898 22258 net.cpp:400] res5a_branch2b/relu -> res5a_branch2b/bn (in-place)
I0704 07:19:31.169903 22258 net.cpp:148] Setting up res5a_branch2b/relu
I0704 07:19:31.169909 22258 net.cpp:155] Top shape: 50 512 8 8 (1638400)
I0704 07:19:31.169911 22258 net.cpp:163] Memory required for data: 296141600
I0704 07:19:31.169924 22258 layer_factory.hpp:77] Creating layer pool5
I0704 07:19:31.169930 22258 net.cpp:98] Creating Layer pool5
I0704 07:19:31.169934 22258 net.cpp:439] pool5 <- res5a_branch2b/bn
I0704 07:19:31.169939 22258 net.cpp:413] pool5 -> pool5
I0704 07:19:31.169966 22258 net.cpp:148] Setting up pool5
I0704 07:19:31.169971 22258 net.cpp:155] Top shape: 50 512 1 1 (25600)
I0704 07:19:31.169975 22258 net.cpp:163] Memory required for data: 296244000
I0704 07:19:31.169980 22258 layer_factory.hpp:77] Creating layer fc10
I0704 07:19:31.169991 22258 net.cpp:98] Creating Layer fc10
I0704 07:19:31.169996 22258 net.cpp:439] fc10 <- pool5
I0704 07:19:31.169999 22258 net.cpp:413] fc10 -> fc10
I0704 07:19:31.170241 22258 net.cpp:148] Setting up fc10
I0704 07:19:31.170248 22258 net.cpp:155] Top shape: 50 10 (500)
I0704 07:19:31.170251 22258 net.cpp:163] Memory required for data: 296246000
I0704 07:19:31.170258 22258 layer_factory.hpp:77] Creating layer fc10_fc10_0_split
I0704 07:19:31.170262 22258 net.cpp:98] Creating Layer fc10_fc10_0_split
I0704 07:19:31.170266 22258 net.cpp:439] fc10_fc10_0_split <- fc10
I0704 07:19:31.170271 22258 net.cpp:413] fc10_fc10_0_split -> fc10_fc10_0_split_0
I0704 07:19:31.170279 22258 net.cpp:413] fc10_fc10_0_split -> fc10_fc10_0_split_1
I0704 07:19:31.170284 22258 net.cpp:413] fc10_fc10_0_split -> fc10_fc10_0_split_2
I0704 07:19:31.170347 22258 net.cpp:148] Setting up fc10_fc10_0_split
I0704 07:19:31.170353 22258 net.cpp:155] Top shape: 50 10 (500)
I0704 07:19:31.170357 22258 net.cpp:155] Top shape: 50 10 (500)
I0704 07:19:31.170362 22258 net.cpp:155] Top shape: 50 10 (500)
I0704 07:19:31.170367 22258 net.cpp:163] Memory required for data: 296252000
I0704 07:19:31.170370 22258 layer_factory.hpp:77] Creating layer loss
I0704 07:19:31.170377 22258 net.cpp:98] Creating Layer loss
I0704 07:19:31.170380 22258 net.cpp:439] loss <- fc10_fc10_0_split_0
I0704 07:19:31.170388 22258 net.cpp:439] loss <- label_data_1_split_0
I0704 07:19:31.170393 22258 net.cpp:413] loss -> loss
…
