…
I0630 22:02:32.280336  6183 net.cpp:327] The NetState phase (0) differed from the phase (1) specified by a rule in layer accuracy/top5
I0630 22:02:32.281893  6183 net.cpp:56] Initializing net from parameters: 
name: "jsegnet21v2_train"
state {
  phase: TRAIN
}
layer {
  name: "data"
  type: "ImageLabelData"
  top: "data"
  top: "label"
  transform_param {
    mirror: true
    crop_size: 640
    mean_value: 0
  }
  image_label_data_param {
    image_list_path: "data/train-image-lmdb"
    label_list_path: "data/train-label-lmdb"
    batch_size: 5
    threads: 4
    backend: LMDB
  }
}
layer {
  name: "data/bias"
  type: "Bias"
  bottom: "data"
  top: "data/bias"
  param {
    lr_mult: 0
    decay_mult: 0
  }
  bias_param {
    filler {
      type: "constant"
      value: -128
    }
  }
}
layer {
  name: "conv1a"
  type: "Convolution"
  bottom: "data/bias"
  top: "conv1a"
  param {
    lr_mult: 1
    decay_mult: 1
  }
  param {
    lr_mult: 2
    decay_mult: 0
  }
  convolution_param {
    num_output: 32
    bias_term: true
    pad: 2
    kernel_size: 5
    group: 1
    stride: 2
    weight_filler {
      type: "msra"
    }
    bias_filler {
      type: "constant"
      value: 0
    }
    dilation: 1
  }
}
layer {
  name: "conv1a/bn"
  type: "BatchNorm"
  bottom: "conv1a"
  top: "conv1a/bn"
  param {
    lr_mult: 1
    decay_mult: 1
  }
  param {
    lr_mult: 1
    decay_mult: 1
  }
  param {
    lr_mult: 0
    decay_mult: 0
  }
  param {
    lr_mult: 0
    decay_mult: 0
  }
  batch_norm_param {
    moving_average_fraction: 0.99
    eps: 0.0001
    scale_filler {
      type: "constant"
      value: 1
    }
    bias_filler {
      type: "constant"
      value: 0
    }
  }
}
layer {
  name: "conv1a/relu"
  type: "ReLU"
  bottom: "conv1a/bn"
  top: "conv1a/bn"
}
layer {
  name: "conv1b"
  type: "Convolution"
  bottom: "conv1a/bn"
  top: "conv1b"
  param {
    lr_mult: 1
    decay_mult: 1
  }
  param {
    lr_mult: 2
    decay_mult: 0
  }
  convolution_param {
    num_output: 32
    bias_term: true
    pad: 1
    kernel_size: 3
    group: 4
    stride: 1
    weight_filler {
      type: "msra"
    }
    bias_filler {
      type: "constant"
      value: 0
    }
    dilation: 1
  }
}
layer {
  name: "conv1b/bn"
  type: "BatchNorm"
  bottom: "conv1b"
  top: "conv1b/bn"
  param {
    lr_mult: 1
    decay_mult: 1
  }
  param {
    lr_mult: 1
    decay_mult: 1
  }
  param {
    lr_mult: 0
    decay_mult: 0
  }
  param {
    lr_mult: 0
    decay_mult: 0
  }
  batch_norm_param {
    moving_average_fraction: 0.99
    eps: 0.0001
    scale_filler {
      type: "constant"
      value: 1
    }
    bias_filler {
      type: "constant"
      value: 0
    }
  }
}
layer {
  name: "conv1b/relu"
  type: "ReLU"
  bottom: "conv1b/bn"
  top: "conv1b/bn"
}
layer {
  name: "pool1"
  type: "Pooling"
  bottom: "conv1b/bn"
  top: "pool1"
  pooling_param {
    pool: MAX
    kernel_size: 2
    stride: 2
  }
}
layer {
  name: "res2a_branch2a"
  type: "Convolution"
  bottom: "pool1"
  top: "res2a_branch2a"
  param {
    lr_mult: 1
    decay_mult: 1
  }
  param {
    lr_mult: 2
    decay_mult: 0
  }
  convolution_param {
    num_output: 64
    bias_term: true
    pad: 1
    kernel_size: 3
    group: 1
    stride: 1
    weight_filler {
      type: "msra"
    }
    bias_filler {
      type: "constant"
      value: 0
    }
    dilation: 1
  }
}
layer {
  name: "res2a_branch2a/bn"
  type: "BatchNorm"
  bottom: "res2a_branch2a"
  top: "res2a_branch2a/bn"
  param {
    lr_mult: 1
    decay_mult: 1
  }
  param {
    lr_mult: 1
    decay_mult: 1
  }
  param {
    lr_mult: 0
    decay_mult: 0
  }
  param {
    lr_mult: 0
    decay_mult: 0
  }
  batch_norm_param {
    moving_average_fraction: 0.99
    eps: 0.0001
    scale_filler {
      type: "constant"
      value: 1
    }
    bias_filler {
      type: "constant"
      value: 0
    }
  }
}
layer {
  name: "res2a_branch2a/relu"
  type: "ReLU"
  bottom: "res2a_branch2a/bn"
  top: "res2a_branch2a/bn"
}
layer {
  name: "res2a_branch2b"
  type: "Convolution"
  bottom: "res2a_branch2a/bn"
  top: "res2a_branch2b"
  param {
    lr_mult: 1
    decay_mult: 1
  }
  param {
    lr_mult: 2
    decay_mult: 0
  }
  convolution_param {
    num_output: 64
    bias_term: true
    pad: 1
    kernel_size: 3
    group: 4
    stride: 1
    weight_filler {
      type: "msra"
    }
    bias_filler {
      type: "constant"
      value: 0
    }
    dilation: 1
  }
}
layer {
  name: "res2a_branch2b/bn"
  type: "BatchNorm"
  bottom: "res2a_branch2b"
  top: "res2a_branch2b/bn"
  param {
    lr_mult: 1
    decay_mult: 1
  }
  param {
    lr_mult: 1
    decay_mult: 1
  }
  param {
    lr_mult: 0
    decay_mult: 0
  }
  param {
    lr_mult: 0
    decay_mult: 0
  }
  batch_norm_param {
    moving_average_fraction: 0.99
    eps: 0.0001
    scale_filler {
      type: "constant"
      value: 1
    }
    bias_filler {
      type: "constant"
      value: 0
    }
  }
}
layer {
  name: "res2a_branch2b/relu"
  type: "ReLU"
  bottom: "res2a_branch2b/bn"
  top: "res2a_branch2b/bn"
}
layer {
  name: "pool2"
  type: "Pooling"
  bottom: "res2a_branch2b/bn"
  top: "pool2"
  pooling_param {
    pool: MAX
    kernel_size: 2
    stride: 2
  }
}
layer {
  name: "res3a_branch2a"
  type: "Convolution"
  bottom: "pool2"
  top: "res3a_branch2a"
  param {
    lr_mult: 1
    decay_mult: 1
  }
  param {
    lr_mult: 2
    decay_mult: 0
  }
  convolution_param {
    num_output: 128
    bias_term: true
    pad: 1
    kernel_size: 3
    group: 1
    stride: 1
    weight_filler {
      type: "msra"
    }
    bias_filler {
      type: "constant"
      value: 0
    }
    dilation: 1
  }
}
layer {
  name: "res3a_branch2a/bn"
  type: "BatchNorm"
  bottom: "res3a_branch2a"
  top: "res3a_branch2a/bn"
  param {
    lr_mult: 1
    decay_mult: 1
  }
  param {
    lr_mult: 1
    decay_mult: 1
  }
  param {
    lr_mult: 0
    decay_mult: 0
  }
  param {
    lr_mult: 0
    decay_mult: 0
  }
  batch_norm_param {
    moving_average_fraction: 0.99
    eps: 0.0001
    scale_filler {
      type: "constant"
      value: 1
    }
    bias_filler {
      type: "constant"
      value: 0
    }
  }
}
layer {
  name: "res3a_branch2a/relu"
  type: "ReLU"
  bottom: "res3a_branch2a/bn"
  top: "res3a_branch2a/bn"
}
layer {
  name: "res3a_branch2b"
  type: "Convolution"
  bottom: "res3a_branch2a/bn"
  top: "res3a_branch2b"
  param {
    lr_mult: 1
    decay_mult: 1
  }
  param {
    lr_mult: 2
    decay_mult: 0
  }
  convolution_param {
    num_output: 128
    bias_term: true
    pad: 1
    kernel_size: 3
    group: 4
    stride: 1
    weight_filler {
      type: "msra"
    }
    bias_filler {
      type: "constant"
      value: 0
    }
    dilation: 1
  }
}
layer {
  name: "res3a_branch2b/bn"
  type: "BatchNorm"
  bottom: "res3a_branch2b"
  top: "res3a_branch2b/bn"
  param {
    lr_mult: 1
    decay_mult: 1
  }
  param {
    lr_mult: 1
    decay_mult: 1
  }
  param {
    lr_mult: 0
    decay_mult: 0
  }
  param {
    lr_mult: 0
    decay_mult: 0
  }
  batch_norm_param {
    moving_average_fraction: 0.99
    eps: 0.0001
    scale_filler {
      type: "constant"
      value: 1
    }
    bias_filler {
      type: "constant"
      value: 0
    }
  }
}
layer {
  name: "res3a_branch2b/relu"
  type: "ReLU"
  bottom: "res3a_branch2b/bn"
  top: "res3a_branch2b/bn"
}
layer {
  name: "pool3"
  type: "Pooling"
  bottom: "res3a_branch2b/bn"
  top: "pool3"
  pooling_param {
    pool: MAX
    kernel_size: 2
    stride: 2
  }
}
layer {
  name: "res4a_branch2a"
  type: "Convolution"
  bottom: "pool3"
  top: "res4a_branch2a"
  param {
    lr_mult: 1
    decay_mult: 1
  }
  param {
    lr_mult: 2
    decay_mult: 0
  }
  convolution_param {
    num_output: 256
    bias_term: true
    pad: 1
    kernel_size: 3
    group: 1
    stride: 1
    weight_filler {
      type: "msra"
    }
    bias_filler {
      type: "constant"
      value: 0
    }
    dilation: 1
  }
}
layer {
  name: "res4a_branch2a/bn"
  type: "BatchNorm"
  bottom: "res4a_branch2a"
  top: "res4a_branch2a/bn"
  param {
    lr_mult: 1
    decay_mult: 1
  }
  param {
    lr_mult: 1
    decay_mult: 1
  }
  param {
    lr_mult: 0
    decay_mult: 0
  }
  param {
    lr_mult: 0
    decay_mult: 0
  }
  batch_norm_param {
    moving_average_fraction: 0.99
    eps: 0.0001
    scale_filler {
      type: "constant"
      value: 1
    }
    bias_filler {
      type: "constant"
      value: 0
    }
  }
}
layer {
  name: "res4a_branch2a/relu"
  type: "ReLU"
  bottom: "res4a_branch2a/bn"
  top: "res4a_branch2a/bn"
}
layer {
  name: "res4a_branch2b"
  type: "Convolution"
  bottom: "res4a_branch2a/bn"
  top: "res4a_branch2b"
  param {
    lr_mult: 1
    decay_mult: 1
  }
  param {
    lr_mult: 2
    decay_mult: 0
  }
  convolution_param {
    num_output: 256
    bias_term: true
    pad: 1
    kernel_size: 3
    group: 4
    stride: 1
    weight_filler {
      type: "msra"
    }
    bias_filler {
      type: "constant"
      value: 0
    }
    dilation: 1
  }
}
layer {
  name: "res4a_branch2b/bn"
  type: "BatchNorm"
  bottom: "res4a_branch2b"
  top: "res4a_branch2b/bn"
  param {
    lr_mult: 1
    decay_mult: 1
  }
  param {
    lr_mult: 1
    decay_mult: 1
  }
  param {
    lr_mult: 0
    decay_mult: 0
  }
  param {
    lr_mult: 0
    decay_mult: 0
  }
  batch_norm_param {
    moving_average_fraction: 0.99
    eps: 0.0001
    scale_filler {
      type: "constant"
      value: 1
    }
    bias_filler {
      type: "constant"
      value: 0
    }
  }
}
layer {
  name: "res4a_branch2b/relu"
  type: "ReLU"
  bottom: "res4a_branch2b/bn"
  top: "res4a_branch2b/bn"
}
layer {
  name: "pool4"
  type: "Pooling"
  bottom: "res4a_branch2b/bn"
  top: "pool4"
  pooling_param {
    pool: MAX
    kernel_size: 1
    stride: 1
  }
}
layer {
  name: "res5a_branch2a"
  type: "Convolution"
  bottom: "pool4"
  top: "res5a_branch2a"
  param {
    lr_mult: 1
    decay_mult: 1
  }
  param {
    lr_mult: 2
    decay_mult: 0
  }
  convolution_param {
    num_output: 512
    bias_term: true
    pad: 2
    kernel_size: 3
    group: 1
    stride: 1
    weight_filler {
      type: "msra"
    }
    bias_filler {
      type: "constant"
      value: 0
    }
    dilation: 2
  }
}
layer {
  name: "res5a_branch2a/bn"
  type: "BatchNorm"
  bottom: "res5a_branch2a"
  top: "res5a_branch2a/bn"
  param {
    lr_mult: 1
    decay_mult: 1
  }
  param {
    lr_mult: 1
    decay_mult: 1
  }
  param {
    lr_mult: 0
    decay_mult: 0
  }
  param {
    lr_mult: 0
    decay_mult: 0
  }
  batch_norm_param {
    moving_average_fraction: 0.99
    eps: 0.0001
    scale_filler {
      type: "constant"
      value: 1
    }
    bias_filler {
      type: "constant"
      value: 0
    }
  }
}
layer {
  name: "res5a_branch2a/relu"
  type: "ReLU"
  bottom: "res5a_branch2a/bn"
  top: "res5a_branch2a/bn"
}
layer {
  name: "res5a_branch2b"
  type: "Convolution"
  bottom: "res5a_branch2a/bn"
  top: "res5a_branch2b"
  param {
    lr_mult: 1
    decay_mult: 1
  }
  param {
    lr_mult: 2
    decay_mult: 0
  }
  convolution_param {
    num_output: 512
    bias_term: true
    pad: 2
    kernel_size: 3
    group: 4
    stride: 1
    weight_filler {
      type: "msra"
    }
    bias_filler {
      type: "constant"
      value: 0
    }
    dilation: 2
  }
}
layer {
  name: "res5a_branch2b/bn"
  type: "BatchNorm"
  bottom: "res5a_branch2b"
  top: "res5a_branch2b/bn"
  param {
    lr_mult: 1
    decay_mult: 1
  }
  param {
    lr_mult: 1
    decay_mult: 1
  }
  param {
    lr_mult: 0
    decay_mult: 0
  }
  param {
    lr_mult: 0
    decay_mult: 0
  }
  batch_norm_param {
    moving_average_fraction: 0.99
    eps: 0.0001
    scale_filler {
      type: "constant"
      value: 1
    }
    bias_filler {
      type: "constant"
      value: 0
    }
  }
}
layer {
  name: "res5a_branch2b/relu"
  type: "ReLU"
  bottom: "res5a_branch2b/bn"
  top: "res5a_branch2b/bn"
}
layer {
  name: "out5a"
  type: "Convolution"
  bottom: "res5a_branch2b/bn"
  top: "out5a"
  param {
    lr_mult: 1
    decay_mult: 1
  }
  param {
    lr_mult: 2
    decay_mult: 0
  }
  convolution_param {
    num_output: 64
    bias_term: true
    pad: 4
    kernel_size: 3
    group: 2
    stride: 1
    weight_filler {
      type: "msra"
    }
    bias_filler {
      type: "constant"
      value: 0
    }
    dilation: 4
  }
}
layer {
  name: "out5a/bn"
  type: "BatchNorm"
  bottom: "out5a"
  top: "out5a/bn"
  param {
    lr_mult: 1
    decay_mult: 1
  }
  param {
    lr_mult: 1
    decay_mult: 1
  }
  param {
    lr_mult: 0
    decay_mult: 0
  }
  param {
    lr_mult: 0
    decay_mult: 0
  }
  batch_norm_param {
    moving_average_fraction: 0.99
    eps: 0.0001
    scale_filler {
      type: "constant"
      value: 1
    }
    bias_filler {
      type: "constant"
      value: 0
    }
  }
}
layer {
  name: "out5a/relu"
  type: "ReLU"
  bottom: "out5a/bn"
  top: "out5a/bn"
}
layer {
  name: "out5a_up2"
  type: "Deconvolution"
  bottom: "out5a/bn"
  top: "out5a_up2"
  param {
    lr_mult: 0
    decay_mult: 0
  }
  convolution_param {
    num_output: 64
    bias_term: false
    pad: 1
    kernel_size: 4
    group: 64
    stride: 2
    weight_filler {
      type: "bilinear"
    }
  }
}
layer {
  name: "out3a"
  type: "Convolution"
  bottom: "res3a_branch2b/bn"
  top: "out3a"
  param {
    lr_mult: 1
    decay_mult: 1
  }
  param {
    lr_mult: 2
    decay_mult: 0
  }
  convolution_param {
    num_output: 64
    bias_term: true
    pad: 1
    kernel_size: 3
    group: 2
    stride: 1
    weight_filler {
      type: "msra"
    }
    bias_filler {
      type: "constant"
      value: 0
    }
    dilation: 1
  }
}
layer {
  name: "out3a/bn"
  type: "BatchNorm"
  bottom: "out3a"
  top: "out3a/bn"
  param {
    lr_mult: 1
    decay_mult: 1
  }
  param {
    lr_mult: 1
    decay_mult: 1
  }
  param {
    lr_mult: 0
    decay_mult: 0
  }
  param {
    lr_mult: 0
    decay_mult: 0
  }
  batch_norm_param {
    moving_average_fraction: 0.99
    eps: 0.0001
    scale_filler {
      type: "constant"
      value: 1
    }
    bias_filler {
      type: "constant"
      value: 0
    }
  }
}
layer {
  name: "out3a/relu"
  type: "ReLU"
  bottom: "out3a/bn"
  top: "out3a/bn"
}
layer {
  name: "out3_out5_combined"
  type: "Eltwise"
  bottom: "out5a_up2"
  bottom: "out3a/bn"
  top: "out3_out5_combined"
}
layer {
  name: "ctx_conv1"
  type: "Convolution"
  bottom: "out3_out5_combined"
  top: "ctx_conv1"
  param {
    lr_mult: 1
    decay_mult: 1
  }
  param {
    lr_mult: 2
    decay_mult: 0
  }
  convolution_param {
    num_output: 64
    bias_term: true
    pad: 1
    kernel_size: 3
    group: 1
    stride: 1
    weight_filler {
      type: "msra"
    }
    bias_filler {
      type: "constant"
      value: 0
    }
    dilation: 1
  }
}
layer {
  name: "ctx_conv1/bn"
  type: "BatchNorm"
  bottom: "ctx_conv1"
  top: "ctx_conv1/bn"
  param {
    lr_mult: 1
    decay_mult: 1
  }
  param {
    lr_mult: 1
    decay_mult: 1
  }
  param {
    lr_mult: 0
    decay_mult: 0
  }
  param {
    lr_mult: 0
    decay_mult: 0
  }
  batch_norm_param {
    moving_average_fraction: 0.99
    eps: 0.0001
    scale_filler {
      type: "constant"
      value: 1
    }
    bias_filler {
      type: "constant"
      value: 0
    }
  }
}
layer {
  name: "ctx_conv1/relu"
  type: "ReLU"
  bottom: "ctx_conv1/bn"
  top: "ctx_conv1/bn"
}
layer {
  name: "ctx_conv2"
  type: "Convolution"
  bottom: "ctx_conv1/bn"
  top: "ctx_conv2"
  param {
    lr_mult: 1
    decay_mult: 1
  }
  param {
    lr_mult: 2
    decay_mult: 0
  }
  convolution_param {
    num_output: 64
    bias_term: true
    pad: 4
    kernel_size: 3
    group: 1
    stride: 1
    weight_filler {
      type: "msra"
    }
    bias_filler {
      type: "constant"
      value: 0
    }
    dilation: 4
  }
}
layer {
  name: "ctx_conv2/bn"
  type: "BatchNorm"
  bottom: "ctx_conv2"
  top: "ctx_conv2/bn"
  param {
    lr_mult: 1
    decay_mult: 1
  }
  param {
    lr_mult: 1
    decay_mult: 1
  }
  param {
    lr_mult: 0
    decay_mult: 0
  }
  param {
    lr_mult: 0
    decay_mult: 0
  }
  batch_norm_param {
    moving_average_fraction: 0.99
    eps: 0.0001
    scale_filler {
      type: "constant"
      value: 1
    }
    bias_filler {
      type: "constant"
      value: 0
    }
  }
}
layer {
  name: "ctx_conv2/relu"
  type: "ReLU"
  bottom: "ctx_conv2/bn"
  top: "ctx_conv2/bn"
}
layer {
  name: "ctx_conv3"
  type: "Convolution"
  bottom: "ctx_conv2/bn"
  top: "ctx_conv3"
  param {
    lr_mult: 1
    decay_mult: 1
  }
  param {
    lr_mult: 2
    decay_mult: 0
  }
  convolution_param {
    num_output: 64
    bias_term: true
    pad: 4
    kernel_size: 3
    group: 1
    stride: 1
    weight_filler {
      type: "msra"
    }
    bias_filler {
      type: "constant"
      value: 0
    }
    dilation: 4
  }
}
layer {
  name: "ctx_conv3/bn"
  type: "BatchNorm"
  bottom: "ctx_conv3"
  top: "ctx_conv3/bn"
  param {
    lr_mult: 1
    decay_mult: 1
  }
  param {
    lr_mult: 1
    decay_mult: 1
  }
  param {
    lr_mult: 0
    decay_mult: 0
  }
  param {
    lr_mult: 0
    decay_mult: 0
  }
  batch_norm_param {
    moving_average_fraction: 0.99
    eps: 0.0001
    scale_filler {
      type: "constant"
      value: 1
    }
    bias_filler {
      type: "constant"
      value: 0
    }
  }
}
layer {
  name: "ctx_conv3/relu"
  type: "ReLU"
  bottom: "ctx_conv3/bn"
  top: "ctx_conv3/bn"
}
layer {
  name: "ctx_conv4"
  type: "Convolution"
  bottom: "ctx_conv3/bn"
  top: "ctx_conv4"
  param {
    lr_mult: 1
    decay_mult: 1
  }
  param {
    lr_mult: 2
    decay_mult: 0
  }
  convolution_param {
    num_output: 64
    bias_term: true
    pad: 4
    kernel_size: 3
    group: 1
    stride: 1
    weight_filler {
      type: "msra"
    }
    bias_filler {
      type: "constant"
      value: 0
    }
    dilation: 4
  }
}
layer {
  name: "ctx_conv4/bn"
  type: "BatchNorm"
  bottom: "ctx_conv4"
  top: "ctx_conv4/bn"
  param {
    lr_mult: 1
    decay_mult: 1
  }
  param {
    lr_mult: 1
    decay_mult: 1
  }
  param {
    lr_mult: 0
    decay_mult: 0
  }
  param {
    lr_mult: 0
    decay_mult: 0
  }
  batch_norm_param {
    moving_average_fraction: 0.99
    eps: 0.0001
    scale_filler {
      type: "constant"
      value: 1
    }
    bias_filler {
      type: "constant"
      value: 0
    }
  }
}
layer {
  name: "ctx_conv4/relu"
  type: "ReLU"
  bottom: "ctx_conv4/bn"
  top: "ctx_conv4/bn"
}
layer {
  name: "ctx_final"
  type: "Convolution"
  bottom: "ctx_conv4/bn"
  top: "ctx_final"
  param {
    lr_mult: 1
    decay_mult: 1
  }
  param {
    lr_mult: 2
    decay_mult: 0
  }
  convolution_param {
    num_output: 20
    bias_term: true
    pad: 1
    kernel_size: 3
    kernel_size: 3
    group: 1
    stride: 1
    weight_filler {
      type: "msra"
    }
    bias_filler {
      type: "constant"
      value: 0
    }
    dilation: 1
  }
}
layer {
  name: "ctx_final/relu"
  type: "ReLU"
  bottom: "ctx_final"
  top: "ctx_final"
}
layer {
  name: "out_deconv_final_up2"
  type: "Deconvolution"
  bottom: "ctx_final"
  top: "out_deconv_final_up2"
  param {
    lr_mult: 0
    decay_mult: 0
  }
  convolution_param {
    num_output: 20
    bias_term: false
    pad: 1
    kernel_size: 4
    group: 20
    stride: 2
    weight_filler {
      type: "bilinear"
    }
  }
}
layer {
  name: "out_deconv_final_up4"
  type: "Deconvolution"
  bottom: "out_deconv_final_up2"
  top: "out_deconv_final_up4"
  param {
    lr_mult: 0
    decay_mult: 0
  }
  convolution_param {
    num_output: 20
    bias_term: false
    pad: 1
    kernel_size: 4
    group: 20
    stride: 2
    weight_filler {
      type: "bilinear"
    }
  }
}
layer {
  name: "out_deconv_final_up8"
  type: "Deconvolution"
  bottom: "out_deconv_final_up4"
  top: "out_deconv_final_up8"
  param {
    lr_mult: 0
    decay_mult: 0
  }
  convolution_param {
    num_output: 20
    bias_term: false
    pad: 1
    kernel_size: 4
    group: 20
    stride: 2
    weight_filler {
      type: "bilinear"
    }
  }
}
layer {
  name: "loss"
  type: "SoftmaxWithLoss"
  bottom: "out_deconv_final_up8"
  bottom: "label"
  top: "loss"
  propagate_down: true
  propagate_down: false
  loss_param {
    ignore_label: 255
    normalization: VALID
  }
}
I0630 22:02:32.289773  6183 layer_factory.hpp:77] Creating layer data
I0630 22:02:32.289852  6183 net.cpp:98] Creating Layer data
I0630 22:02:32.289880  6183 net.cpp:413] data -> data
I0630 22:02:32.289980  6183 net.cpp:413] data -> label
I0630 22:02:32.331529  6266 db_lmdb.cpp:35] Opened lmdb data/train-image-lmdb
I0630 22:02:32.341922  6271 db_lmdb.cpp:35] Opened lmdb data/train-label-lmdb
I0630 22:02:32.352357  6183 data_layer.cpp:78] ReshapePrefetch 5, 3, 640, 640
I0630 22:02:32.352638  6183 data_layer.cpp:83] output data size: 5,3,640,640
I0630 22:02:32.401856  6183 data_layer.cpp:78] ReshapePrefetch 5, 1, 640, 640
I0630 22:02:32.401929  6183 data_layer.cpp:83] output data size: 5,1,640,640
I0630 22:02:32.408550  6276 blocking_queue.cpp:50] Waiting for data
I0630 22:02:32.414536  6183 net.cpp:148] Setting up data
I0630 22:02:32.414557  6183 net.cpp:155] Top shape: 5 3 640 640 (6144000)
I0630 22:02:32.414561  6183 net.cpp:155] Top shape: 5 1 640 640 (2048000)
I0630 22:02:32.414562  6183 net.cpp:163] Memory required for data: 32768000
I0630 22:02:32.414569  6183 layer_factory.hpp:77] Creating layer data/bias
I0630 22:02:32.414578  6183 net.cpp:98] Creating Layer data/bias
I0630 22:02:32.414582  6183 net.cpp:439] data/bias <- data
I0630 22:02:32.414590  6183 net.cpp:413] data/bias -> data/bias
I0630 22:02:32.415817  6183 net.cpp:148] Setting up data/bias
I0630 22:02:32.415827  6183 net.cpp:155] Top shape: 5 3 640 640 (6144000)
I0630 22:02:32.415829  6183 net.cpp:163] Memory required for data: 57344000
I0630 22:02:32.415838  6183 layer_factory.hpp:77] Creating layer conv1a
I0630 22:02:32.415848  6183 net.cpp:98] Creating Layer conv1a
I0630 22:02:32.415851  6183 net.cpp:439] conv1a <- data/bias
I0630 22:02:32.415855  6183 net.cpp:413] conv1a -> conv1a
I0630 22:02:32.417227  6183 net.cpp:148] Setting up conv1a
I0630 22:02:32.417237  6183 net.cpp:155] Top shape: 5 32 320 320 (16384000)
I0630 22:02:32.417240  6183 net.cpp:163] Memory required for data: 122880000
I0630 22:02:32.417245  6183 layer_factory.hpp:77] Creating layer conv1a/bn
I0630 22:02:32.417255  6183 net.cpp:98] Creating Layer conv1a/bn
I0630 22:02:32.417258  6183 net.cpp:439] conv1a/bn <- conv1a
I0630 22:02:32.417263  6183 net.cpp:413] conv1a/bn -> conv1a/bn
I0630 22:02:32.419606  6183 net.cpp:148] Setting up conv1a/bn
I0630 22:02:32.419620  6183 net.cpp:155] Top shape: 5 32 320 320 (16384000)
I0630 22:02:32.419622  6183 net.cpp:163] Memory required for data: 188416000
I0630 22:02:32.419631  6183 layer_factory.hpp:77] Creating layer conv1a/relu
I0630 22:02:32.419636  6183 net.cpp:98] Creating Layer conv1a/relu
I0630 22:02:32.419638  6183 net.cpp:439] conv1a/relu <- conv1a/bn
I0630 22:02:32.419641  6183 net.cpp:400] conv1a/relu -> conv1a/bn (in-place)
I0630 22:02:32.419656  6183 net.cpp:148] Setting up conv1a/relu
I0630 22:02:32.419659  6183 net.cpp:155] Top shape: 5 32 320 320 (16384000)
I0630 22:02:32.419661  6183 net.cpp:163] Memory required for data: 253952000
I0630 22:02:32.419664  6183 layer_factory.hpp:77] Creating layer conv1b
I0630 22:02:32.419669  6183 net.cpp:98] Creating Layer conv1b
I0630 22:02:32.419682  6183 net.cpp:439] conv1b <- conv1a/bn
I0630 22:02:32.419685  6183 net.cpp:413] conv1b -> conv1b
I0630 22:02:32.420146  6183 net.cpp:148] Setting up conv1b
I0630 22:02:32.420153  6183 net.cpp:155] Top shape: 5 32 320 320 (16384000)
I0630 22:02:32.420156  6183 net.cpp:163] Memory required for data: 319488000
I0630 22:02:32.420161  6183 layer_factory.hpp:77] Creating layer conv1b/bn
I0630 22:02:32.420164  6183 net.cpp:98] Creating Layer conv1b/bn
I0630 22:02:32.420166  6183 net.cpp:439] conv1b/bn <- conv1b
I0630 22:02:32.420171  6183 net.cpp:413] conv1b/bn -> conv1b/bn
I0630 22:02:32.420917  6183 net.cpp:148] Setting up conv1b/bn
I0630 22:02:32.420924  6183 net.cpp:155] Top shape: 5 32 320 320 (16384000)
I0630 22:02:32.420928  6183 net.cpp:163] Memory required for data: 385024000
I0630 22:02:32.420933  6183 layer_factory.hpp:77] Creating layer conv1b/relu
I0630 22:02:32.420935  6183 net.cpp:98] Creating Layer conv1b/relu
I0630 22:02:32.420938  6183 net.cpp:439] conv1b/relu <- conv1b/bn
I0630 22:02:32.420939  6183 net.cpp:400] conv1b/relu -> conv1b/bn (in-place)
I0630 22:02:32.420943  6183 net.cpp:148] Setting up conv1b/relu
I0630 22:02:32.420945  6183 net.cpp:155] Top shape: 5 32 320 320 (16384000)
I0630 22:02:32.420948  6183 net.cpp:163] Memory required for data: 450560000
I0630 22:02:32.420949  6183 layer_factory.hpp:77] Creating layer pool1
I0630 22:02:32.420958  6183 net.cpp:98] Creating Layer pool1
I0630 22:02:32.420961  6183 net.cpp:439] pool1 <- conv1b/bn
I0630 22:02:32.420964  6183 net.cpp:413] pool1 -> pool1
I0630 22:02:32.421375  6183 net.cpp:148] Setting up pool1
I0630 22:02:32.421382  6183 net.cpp:155] Top shape: 5 32 160 160 (4096000)
I0630 22:02:32.421386  6183 net.cpp:163] Memory required for data: 466944000
I0630 22:02:32.421387  6183 layer_factory.hpp:77] Creating layer res2a_branch2a
I0630 22:02:32.421392  6183 net.cpp:98] Creating Layer res2a_branch2a
I0630 22:02:32.421394  6183 net.cpp:439] res2a_branch2a <- pool1
I0630 22:02:32.421397  6183 net.cpp:413] res2a_branch2a -> res2a_branch2a
I0630 22:02:32.422894  6183 net.cpp:148] Setting up res2a_branch2a
I0630 22:02:32.422904  6183 net.cpp:155] Top shape: 5 64 160 160 (8192000)
I0630 22:02:32.422905  6183 net.cpp:163] Memory required for data: 499712000
I0630 22:02:32.422910  6183 layer_factory.hpp:77] Creating layer res2a_branch2a/bn
I0630 22:02:32.422914  6183 net.cpp:98] Creating Layer res2a_branch2a/bn
I0630 22:02:32.422916  6183 net.cpp:439] res2a_branch2a/bn <- res2a_branch2a
I0630 22:02:32.422919  6183 net.cpp:413] res2a_branch2a/bn -> res2a_branch2a/bn
I0630 22:02:32.423575  6183 net.cpp:148] Setting up res2a_branch2a/bn
I0630 22:02:32.423581  6183 net.cpp:155] Top shape: 5 64 160 160 (8192000)
I0630 22:02:32.423583  6183 net.cpp:163] Memory required for data: 532480000
I0630 22:02:32.423588  6183 layer_factory.hpp:77] Creating layer res2a_branch2a/relu
I0630 22:02:32.423591  6183 net.cpp:98] Creating Layer res2a_branch2a/relu
I0630 22:02:32.423593  6183 net.cpp:439] res2a_branch2a/relu <- res2a_branch2a/bn
I0630 22:02:32.423595  6183 net.cpp:400] res2a_branch2a/relu -> res2a_branch2a/bn (in-place)
I0630 22:02:32.423599  6183 net.cpp:148] Setting up res2a_branch2a/relu
I0630 22:02:32.423601  6183 net.cpp:155] Top shape: 5 64 160 160 (8192000)
I0630 22:02:32.423604  6183 net.cpp:163] Memory required for data: 565248000
I0630 22:02:32.423605  6183 layer_factory.hpp:77] Creating layer res2a_branch2b
I0630 22:02:32.423609  6183 net.cpp:98] Creating Layer res2a_branch2b
I0630 22:02:32.423610  6183 net.cpp:439] res2a_branch2b <- res2a_branch2a/bn
I0630 22:02:32.423614  6183 net.cpp:413] res2a_branch2b -> res2a_branch2b
I0630 22:02:32.424897  6183 net.cpp:148] Setting up res2a_branch2b
I0630 22:02:32.424906  6183 net.cpp:155] Top shape: 5 64 160 160 (8192000)
I0630 22:02:32.424907  6183 net.cpp:163] Memory required for data: 598016000
I0630 22:02:32.424911  6183 layer_factory.hpp:77] Creating layer res2a_branch2b/bn
I0630 22:02:32.424916  6183 net.cpp:98] Creating Layer res2a_branch2b/bn
I0630 22:02:32.424924  6183 net.cpp:439] res2a_branch2b/bn <- res2a_branch2b
I0630 22:02:32.424928  6183 net.cpp:413] res2a_branch2b/bn -> res2a_branch2b/bn
I0630 22:02:32.425596  6183 net.cpp:148] Setting up res2a_branch2b/bn
I0630 22:02:32.425602  6183 net.cpp:155] Top shape: 5 64 160 160 (8192000)
I0630 22:02:32.425604  6183 net.cpp:163] Memory required for data: 630784000
I0630 22:02:32.425609  6183 layer_factory.hpp:77] Creating layer res2a_branch2b/relu
I0630 22:02:32.425612  6183 net.cpp:98] Creating Layer res2a_branch2b/relu
I0630 22:02:32.425614  6183 net.cpp:439] res2a_branch2b/relu <- res2a_branch2b/bn
I0630 22:02:32.425616  6183 net.cpp:400] res2a_branch2b/relu -> res2a_branch2b/bn (in-place)
I0630 22:02:32.425622  6183 net.cpp:148] Setting up res2a_branch2b/relu
I0630 22:02:32.425626  6183 net.cpp:155] Top shape: 5 64 160 160 (8192000)
I0630 22:02:32.425626  6183 net.cpp:163] Memory required for data: 663552000
I0630 22:02:32.425629  6183 layer_factory.hpp:77] Creating layer pool2
I0630 22:02:32.425632  6183 net.cpp:98] Creating Layer pool2
I0630 22:02:32.425634  6183 net.cpp:439] pool2 <- res2a_branch2b/bn
I0630 22:02:32.425637  6183 net.cpp:413] pool2 -> pool2
I0630 22:02:32.425670  6183 net.cpp:148] Setting up pool2
I0630 22:02:32.425674  6183 net.cpp:155] Top shape: 5 64 80 80 (2048000)
I0630 22:02:32.425676  6183 net.cpp:163] Memory required for data: 671744000
I0630 22:02:32.425678  6183 layer_factory.hpp:77] Creating layer res3a_branch2a
I0630 22:02:32.425683  6183 net.cpp:98] Creating Layer res3a_branch2a
I0630 22:02:32.425684  6183 net.cpp:439] res3a_branch2a <- pool2
I0630 22:02:32.425688  6183 net.cpp:413] res3a_branch2a -> res3a_branch2a
I0630 22:02:32.427408  6183 net.cpp:148] Setting up res3a_branch2a
I0630 22:02:32.427414  6183 net.cpp:155] Top shape: 5 128 80 80 (4096000)
I0630 22:02:32.427417  6183 net.cpp:163] Memory required for data: 688128000
I0630 22:02:32.427419  6183 layer_factory.hpp:77] Creating layer res3a_branch2a/bn
I0630 22:02:32.427423  6183 net.cpp:98] Creating Layer res3a_branch2a/bn
I0630 22:02:32.427426  6183 net.cpp:439] res3a_branch2a/bn <- res3a_branch2a
I0630 22:02:32.427428  6183 net.cpp:413] res3a_branch2a/bn -> res3a_branch2a/bn
I0630 22:02:32.428021  6183 net.cpp:148] Setting up res3a_branch2a/bn
I0630 22:02:32.428026  6183 net.cpp:155] Top shape: 5 128 80 80 (4096000)
I0630 22:02:32.428028  6183 net.cpp:163] Memory required for data: 704512000
I0630 22:02:32.428035  6183 layer_factory.hpp:77] Creating layer res3a_branch2a/relu
I0630 22:02:32.428037  6183 net.cpp:98] Creating Layer res3a_branch2a/relu
I0630 22:02:32.428040  6183 net.cpp:439] res3a_branch2a/relu <- res3a_branch2a/bn
I0630 22:02:32.428042  6183 net.cpp:400] res3a_branch2a/relu -> res3a_branch2a/bn (in-place)
I0630 22:02:32.428045  6183 net.cpp:148] Setting up res3a_branch2a/relu
I0630 22:02:32.428047  6183 net.cpp:155] Top shape: 5 128 80 80 (4096000)
I0630 22:02:32.428050  6183 net.cpp:163] Memory required for data: 720896000
I0630 22:02:32.428051  6183 layer_factory.hpp:77] Creating layer res3a_branch2b
I0630 22:02:32.428056  6183 net.cpp:98] Creating Layer res3a_branch2b
I0630 22:02:32.428057  6183 net.cpp:439] res3a_branch2b <- res3a_branch2a/bn
I0630 22:02:32.428061  6183 net.cpp:413] res3a_branch2b -> res3a_branch2b
I0630 22:02:32.429150  6183 net.cpp:148] Setting up res3a_branch2b
I0630 22:02:32.429159  6183 net.cpp:155] Top shape: 5 128 80 80 (4096000)
I0630 22:02:32.429162  6183 net.cpp:163] Memory required for data: 737280000
I0630 22:02:32.429168  6183 layer_factory.hpp:77] Creating layer res3a_branch2b/bn
I0630 22:02:32.429174  6183 net.cpp:98] Creating Layer res3a_branch2b/bn
I0630 22:02:32.429177  6183 net.cpp:439] res3a_branch2b/bn <- res3a_branch2b
I0630 22:02:32.429181  6183 net.cpp:413] res3a_branch2b/bn -> res3a_branch2b/bn
I0630 22:02:32.429862  6183 net.cpp:148] Setting up res3a_branch2b/bn
I0630 22:02:32.429869  6183 net.cpp:155] Top shape: 5 128 80 80 (4096000)
I0630 22:02:32.429872  6183 net.cpp:163] Memory required for data: 753664000
I0630 22:02:32.429877  6183 layer_factory.hpp:77] Creating layer res3a_branch2b/relu
I0630 22:02:32.429885  6183 net.cpp:98] Creating Layer res3a_branch2b/relu
I0630 22:02:32.429888  6183 net.cpp:439] res3a_branch2b/relu <- res3a_branch2b/bn
I0630 22:02:32.429890  6183 net.cpp:400] res3a_branch2b/relu -> res3a_branch2b/bn (in-place)
I0630 22:02:32.429894  6183 net.cpp:148] Setting up res3a_branch2b/relu
I0630 22:02:32.429896  6183 net.cpp:155] Top shape: 5 128 80 80 (4096000)
I0630 22:02:32.429898  6183 net.cpp:163] Memory required for data: 770048000
I0630 22:02:32.429900  6183 layer_factory.hpp:77] Creating layer res3a_branch2b/bn_res3a_branch2b/relu_0_split
I0630 22:02:32.429903  6183 net.cpp:98] Creating Layer res3a_branch2b/bn_res3a_branch2b/relu_0_split
I0630 22:02:32.429905  6183 net.cpp:439] res3a_branch2b/bn_res3a_branch2b/relu_0_split <- res3a_branch2b/bn
I0630 22:02:32.429908  6183 net.cpp:413] res3a_branch2b/bn_res3a_branch2b/relu_0_split -> res3a_branch2b/bn_res3a_branch2b/relu_0_split_0
I0630 22:02:32.429911  6183 net.cpp:413] res3a_branch2b/bn_res3a_branch2b/relu_0_split -> res3a_branch2b/bn_res3a_branch2b/relu_0_split_1
I0630 22:02:32.429945  6183 net.cpp:148] Setting up res3a_branch2b/bn_res3a_branch2b/relu_0_split
I0630 22:02:32.429949  6183 net.cpp:155] Top shape: 5 128 80 80 (4096000)
I0630 22:02:32.429951  6183 net.cpp:155] Top shape: 5 128 80 80 (4096000)
I0630 22:02:32.429953  6183 net.cpp:163] Memory required for data: 802816000
I0630 22:02:32.429955  6183 layer_factory.hpp:77] Creating layer pool3
I0630 22:02:32.429958  6183 net.cpp:98] Creating Layer pool3
I0630 22:02:32.429960  6183 net.cpp:439] pool3 <- res3a_branch2b/bn_res3a_branch2b/relu_0_split_0
I0630 22:02:32.429962  6183 net.cpp:413] pool3 -> pool3
I0630 22:02:32.429997  6183 net.cpp:148] Setting up pool3
I0630 22:02:32.430001  6183 net.cpp:155] Top shape: 5 128 40 40 (1024000)
I0630 22:02:32.430003  6183 net.cpp:163] Memory required for data: 806912000
I0630 22:02:32.430006  6183 layer_factory.hpp:77] Creating layer res4a_branch2a
I0630 22:02:32.430008  6183 net.cpp:98] Creating Layer res4a_branch2a
I0630 22:02:32.430011  6183 net.cpp:439] res4a_branch2a <- pool3
I0630 22:02:32.430013  6183 net.cpp:413] res4a_branch2a -> res4a_branch2a
I0630 22:02:32.437062  6183 net.cpp:148] Setting up res4a_branch2a
I0630 22:02:32.437072  6183 net.cpp:155] Top shape: 5 256 40 40 (2048000)
I0630 22:02:32.437074  6183 net.cpp:163] Memory required for data: 815104000
I0630 22:02:32.437078  6183 layer_factory.hpp:77] Creating layer res4a_branch2a/bn
I0630 22:02:32.437084  6183 net.cpp:98] Creating Layer res4a_branch2a/bn
I0630 22:02:32.437088  6183 net.cpp:439] res4a_branch2a/bn <- res4a_branch2a
I0630 22:02:32.437090  6183 net.cpp:413] res4a_branch2a/bn -> res4a_branch2a/bn
I0630 22:02:32.437706  6183 net.cpp:148] Setting up res4a_branch2a/bn
I0630 22:02:32.437712  6183 net.cpp:155] Top shape: 5 256 40 40 (2048000)
I0630 22:02:32.437714  6183 net.cpp:163] Memory required for data: 823296000
I0630 22:02:32.437719  6183 layer_factory.hpp:77] Creating layer res4a_branch2a/relu
I0630 22:02:32.437722  6183 net.cpp:98] Creating Layer res4a_branch2a/relu
I0630 22:02:32.437724  6183 net.cpp:439] res4a_branch2a/relu <- res4a_branch2a/bn
I0630 22:02:32.437726  6183 net.cpp:400] res4a_branch2a/relu -> res4a_branch2a/bn (in-place)
I0630 22:02:32.437729  6183 net.cpp:148] Setting up res4a_branch2a/relu
I0630 22:02:32.437732  6183 net.cpp:155] Top shape: 5 256 40 40 (2048000)
I0630 22:02:32.437733  6183 net.cpp:163] Memory required for data: 831488000
I0630 22:02:32.437736  6183 layer_factory.hpp:77] Creating layer res4a_branch2b
I0630 22:02:32.437739  6183 net.cpp:98] Creating Layer res4a_branch2b
I0630 22:02:32.437741  6183 net.cpp:439] res4a_branch2b <- res4a_branch2a/bn
I0630 22:02:32.437744  6183 net.cpp:413] res4a_branch2b -> res4a_branch2b
I0630 22:02:32.440902  6183 net.cpp:148] Setting up res4a_branch2b
I0630 22:02:32.440908  6183 net.cpp:155] Top shape: 5 256 40 40 (2048000)
I0630 22:02:32.440910  6183 net.cpp:163] Memory required for data: 839680000
I0630 22:02:32.440913  6183 layer_factory.hpp:77] Creating layer res4a_branch2b/bn
I0630 22:02:32.440924  6183 net.cpp:98] Creating Layer res4a_branch2b/bn
I0630 22:02:32.440927  6183 net.cpp:439] res4a_branch2b/bn <- res4a_branch2b
I0630 22:02:32.440929  6183 net.cpp:413] res4a_branch2b/bn -> res4a_branch2b/bn
I0630 22:02:32.441534  6183 net.cpp:148] Setting up res4a_branch2b/bn
I0630 22:02:32.441539  6183 net.cpp:155] Top shape: 5 256 40 40 (2048000)
I0630 22:02:32.441541  6183 net.cpp:163] Memory required for data: 847872000
I0630 22:02:32.441545  6183 layer_factory.hpp:77] Creating layer res4a_branch2b/relu
I0630 22:02:32.441548  6183 net.cpp:98] Creating Layer res4a_branch2b/relu
I0630 22:02:32.441550  6183 net.cpp:439] res4a_branch2b/relu <- res4a_branch2b/bn
I0630 22:02:32.441552  6183 net.cpp:400] res4a_branch2b/relu -> res4a_branch2b/bn (in-place)
I0630 22:02:32.441555  6183 net.cpp:148] Setting up res4a_branch2b/relu
I0630 22:02:32.441558  6183 net.cpp:155] Top shape: 5 256 40 40 (2048000)
I0630 22:02:32.441560  6183 net.cpp:163] Memory required for data: 856064000
I0630 22:02:32.441561  6183 layer_factory.hpp:77] Creating layer pool4
I0630 22:02:32.441565  6183 net.cpp:98] Creating Layer pool4
I0630 22:02:32.441566  6183 net.cpp:439] pool4 <- res4a_branch2b/bn
I0630 22:02:32.441570  6183 net.cpp:413] pool4 -> pool4
I0630 22:02:32.441603  6183 net.cpp:148] Setting up pool4
I0630 22:02:32.441607  6183 net.cpp:155] Top shape: 5 256 40 40 (2048000)
I0630 22:02:32.441609  6183 net.cpp:163] Memory required for data: 864256000
I0630 22:02:32.441612  6183 layer_factory.hpp:77] Creating layer res5a_branch2a
I0630 22:02:32.441617  6183 net.cpp:98] Creating Layer res5a_branch2a
I0630 22:02:32.441618  6183 net.cpp:439] res5a_branch2a <- pool4
I0630 22:02:32.441622  6183 net.cpp:413] res5a_branch2a -> res5a_branch2a
I0630 22:02:32.467459  6183 net.cpp:148] Setting up res5a_branch2a
I0630 22:02:32.467479  6183 net.cpp:155] Top shape: 5 512 40 40 (4096000)
I0630 22:02:32.467481  6183 net.cpp:163] Memory required for data: 880640000
I0630 22:02:32.467488  6183 layer_factory.hpp:77] Creating layer res5a_branch2a/bn
I0630 22:02:32.467499  6183 net.cpp:98] Creating Layer res5a_branch2a/bn
I0630 22:02:32.467501  6183 net.cpp:439] res5a_branch2a/bn <- res5a_branch2a
I0630 22:02:32.467505  6183 net.cpp:413] res5a_branch2a/bn -> res5a_branch2a/bn
I0630 22:02:32.468149  6183 net.cpp:148] Setting up res5a_branch2a/bn
I0630 22:02:32.468155  6183 net.cpp:155] Top shape: 5 512 40 40 (4096000)
I0630 22:02:32.468158  6183 net.cpp:163] Memory required for data: 897024000
I0630 22:02:32.468163  6183 layer_factory.hpp:77] Creating layer res5a_branch2a/relu
I0630 22:02:32.468166  6183 net.cpp:98] Creating Layer res5a_branch2a/relu
I0630 22:02:32.468168  6183 net.cpp:439] res5a_branch2a/relu <- res5a_branch2a/bn
I0630 22:02:32.468170  6183 net.cpp:400] res5a_branch2a/relu -> res5a_branch2a/bn (in-place)
I0630 22:02:32.468174  6183 net.cpp:148] Setting up res5a_branch2a/relu
I0630 22:02:32.468178  6183 net.cpp:155] Top shape: 5 512 40 40 (4096000)
I0630 22:02:32.468179  6183 net.cpp:163] Memory required for data: 913408000
I0630 22:02:32.468180  6183 layer_factory.hpp:77] Creating layer res5a_branch2b
I0630 22:02:32.468185  6183 net.cpp:98] Creating Layer res5a_branch2b
I0630 22:02:32.468188  6183 net.cpp:439] res5a_branch2b <- res5a_branch2a/bn
I0630 22:02:32.468194  6183 net.cpp:413] res5a_branch2b -> res5a_branch2b
I0630 22:02:32.481076  6183 net.cpp:148] Setting up res5a_branch2b
I0630 22:02:32.481086  6183 net.cpp:155] Top shape: 5 512 40 40 (4096000)
I0630 22:02:32.481088  6183 net.cpp:163] Memory required for data: 929792000
I0630 22:02:32.481094  6183 layer_factory.hpp:77] Creating layer res5a_branch2b/bn
I0630 22:02:32.481099  6183 net.cpp:98] Creating Layer res5a_branch2b/bn
I0630 22:02:32.481101  6183 net.cpp:439] res5a_branch2b/bn <- res5a_branch2b
I0630 22:02:32.481104  6183 net.cpp:413] res5a_branch2b/bn -> res5a_branch2b/bn
I0630 22:02:32.481736  6183 net.cpp:148] Setting up res5a_branch2b/bn
I0630 22:02:32.481741  6183 net.cpp:155] Top shape: 5 512 40 40 (4096000)
I0630 22:02:32.481752  6183 net.cpp:163] Memory required for data: 946176000
I0630 22:02:32.481758  6183 layer_factory.hpp:77] Creating layer res5a_branch2b/relu
I0630 22:02:32.481761  6183 net.cpp:98] Creating Layer res5a_branch2b/relu
I0630 22:02:32.481763  6183 net.cpp:439] res5a_branch2b/relu <- res5a_branch2b/bn
I0630 22:02:32.481765  6183 net.cpp:400] res5a_branch2b/relu -> res5a_branch2b/bn (in-place)
I0630 22:02:32.481770  6183 net.cpp:148] Setting up res5a_branch2b/relu
I0630 22:02:32.481772  6183 net.cpp:155] Top shape: 5 512 40 40 (4096000)
I0630 22:02:32.481773  6183 net.cpp:163] Memory required for data: 962560000
I0630 22:02:32.481775  6183 layer_factory.hpp:77] Creating layer out5a
I0630 22:02:32.481779  6183 net.cpp:98] Creating Layer out5a
I0630 22:02:32.481782  6183 net.cpp:439] out5a <- res5a_branch2b/bn
I0630 22:02:32.481786  6183 net.cpp:413] out5a -> out5a
I0630 22:02:32.485831  6183 net.cpp:148] Setting up out5a
I0630 22:02:32.485841  6183 net.cpp:155] Top shape: 5 64 40 40 (512000)
I0630 22:02:32.485842  6183 net.cpp:163] Memory required for data: 964608000
I0630 22:02:32.485846  6183 layer_factory.hpp:77] Creating layer out5a/bn
I0630 22:02:32.485851  6183 net.cpp:98] Creating Layer out5a/bn
I0630 22:02:32.485852  6183 net.cpp:439] out5a/bn <- out5a
I0630 22:02:32.485855  6183 net.cpp:413] out5a/bn -> out5a/bn
I0630 22:02:32.486553  6183 net.cpp:148] Setting up out5a/bn
I0630 22:02:32.486559  6183 net.cpp:155] Top shape: 5 64 40 40 (512000)
I0630 22:02:32.486562  6183 net.cpp:163] Memory required for data: 966656000
I0630 22:02:32.486567  6183 layer_factory.hpp:77] Creating layer out5a/relu
I0630 22:02:32.486570  6183 net.cpp:98] Creating Layer out5a/relu
I0630 22:02:32.486572  6183 net.cpp:439] out5a/relu <- out5a/bn
I0630 22:02:32.486574  6183 net.cpp:400] out5a/relu -> out5a/bn (in-place)
I0630 22:02:32.486578  6183 net.cpp:148] Setting up out5a/relu
I0630 22:02:32.486580  6183 net.cpp:155] Top shape: 5 64 40 40 (512000)
I0630 22:02:32.486582  6183 net.cpp:163] Memory required for data: 968704000
I0630 22:02:32.486584  6183 layer_factory.hpp:77] Creating layer out5a_up2
I0630 22:02:32.486593  6183 net.cpp:98] Creating Layer out5a_up2
I0630 22:02:32.486594  6183 net.cpp:439] out5a_up2 <- out5a/bn
I0630 22:02:32.486598  6183 net.cpp:413] out5a_up2 -> out5a_up2
I0630 22:02:32.486843  6183 net.cpp:148] Setting up out5a_up2
I0630 22:02:32.486850  6183 net.cpp:155] Top shape: 5 64 80 80 (2048000)
I0630 22:02:32.486851  6183 net.cpp:163] Memory required for data: 976896000
I0630 22:02:32.486853  6183 layer_factory.hpp:77] Creating layer out3a
I0630 22:02:32.486857  6183 net.cpp:98] Creating Layer out3a
I0630 22:02:32.486860  6183 net.cpp:439] out3a <- res3a_branch2b/bn_res3a_branch2b/relu_0_split_1
I0630 22:02:32.486862  6183 net.cpp:413] out3a -> out3a
I0630 22:02:32.487880  6183 net.cpp:148] Setting up out3a
I0630 22:02:32.487886  6183 net.cpp:155] Top shape: 5 64 80 80 (2048000)
I0630 22:02:32.487888  6183 net.cpp:163] Memory required for data: 985088000
I0630 22:02:32.487891  6183 layer_factory.hpp:77] Creating layer out3a/bn
I0630 22:02:32.487895  6183 net.cpp:98] Creating Layer out3a/bn
I0630 22:02:32.487897  6183 net.cpp:439] out3a/bn <- out3a
I0630 22:02:32.487900  6183 net.cpp:413] out3a/bn -> out3a/bn
I0630 22:02:32.488595  6183 net.cpp:148] Setting up out3a/bn
I0630 22:02:32.488600  6183 net.cpp:155] Top shape: 5 64 80 80 (2048000)
I0630 22:02:32.488602  6183 net.cpp:163] Memory required for data: 993280000
I0630 22:02:32.488607  6183 layer_factory.hpp:77] Creating layer out3a/relu
I0630 22:02:32.488610  6183 net.cpp:98] Creating Layer out3a/relu
I0630 22:02:32.488612  6183 net.cpp:439] out3a/relu <- out3a/bn
I0630 22:02:32.488615  6183 net.cpp:400] out3a/relu -> out3a/bn (in-place)
I0630 22:02:32.488617  6183 net.cpp:148] Setting up out3a/relu
I0630 22:02:32.488620  6183 net.cpp:155] Top shape: 5 64 80 80 (2048000)
I0630 22:02:32.488621  6183 net.cpp:163] Memory required for data: 1001472000
I0630 22:02:32.488623  6183 layer_factory.hpp:77] Creating layer out3_out5_combined
I0630 22:02:32.488629  6183 net.cpp:98] Creating Layer out3_out5_combined
I0630 22:02:32.488641  6183 net.cpp:439] out3_out5_combined <- out5a_up2
I0630 22:02:32.488643  6183 net.cpp:439] out3_out5_combined <- out3a/bn
I0630 22:02:32.488646  6183 net.cpp:413] out3_out5_combined -> out3_out5_combined
I0630 22:02:32.488670  6183 net.cpp:148] Setting up out3_out5_combined
I0630 22:02:32.488674  6183 net.cpp:155] Top shape: 5 64 80 80 (2048000)
I0630 22:02:32.488677  6183 net.cpp:163] Memory required for data: 1009664000
I0630 22:02:32.488678  6183 layer_factory.hpp:77] Creating layer ctx_conv1
I0630 22:02:32.488682  6183 net.cpp:98] Creating Layer ctx_conv1
I0630 22:02:32.488683  6183 net.cpp:439] ctx_conv1 <- out3_out5_combined
I0630 22:02:32.488687  6183 net.cpp:413] ctx_conv1 -> ctx_conv1
I0630 22:02:32.489694  6183 net.cpp:148] Setting up ctx_conv1
I0630 22:02:32.489699  6183 net.cpp:155] Top shape: 5 64 80 80 (2048000)
I0630 22:02:32.489701  6183 net.cpp:163] Memory required for data: 1017856000
I0630 22:02:32.489704  6183 layer_factory.hpp:77] Creating layer ctx_conv1/bn
I0630 22:02:32.489707  6183 net.cpp:98] Creating Layer ctx_conv1/bn
I0630 22:02:32.489709  6183 net.cpp:439] ctx_conv1/bn <- ctx_conv1
I0630 22:02:32.489712  6183 net.cpp:413] ctx_conv1/bn -> ctx_conv1/bn
I0630 22:02:32.490404  6183 net.cpp:148] Setting up ctx_conv1/bn
I0630 22:02:32.490411  6183 net.cpp:155] Top shape: 5 64 80 80 (2048000)
I0630 22:02:32.490412  6183 net.cpp:163] Memory required for data: 1026048000
I0630 22:02:32.490417  6183 layer_factory.hpp:77] Creating layer ctx_conv1/relu
I0630 22:02:32.490420  6183 net.cpp:98] Creating Layer ctx_conv1/relu
I0630 22:02:32.490422  6183 net.cpp:439] ctx_conv1/relu <- ctx_conv1/bn
I0630 22:02:32.490425  6183 net.cpp:400] ctx_conv1/relu -> ctx_conv1/bn (in-place)
I0630 22:02:32.490428  6183 net.cpp:148] Setting up ctx_conv1/relu
I0630 22:02:32.490430  6183 net.cpp:155] Top shape: 5 64 80 80 (2048000)
I0630 22:02:32.490432  6183 net.cpp:163] Memory required for data: 1034240000
I0630 22:02:32.490434  6183 layer_factory.hpp:77] Creating layer ctx_conv2
I0630 22:02:32.490438  6183 net.cpp:98] Creating Layer ctx_conv2
I0630 22:02:32.490442  6183 net.cpp:439] ctx_conv2 <- ctx_conv1/bn
I0630 22:02:32.490443  6183 net.cpp:413] ctx_conv2 -> ctx_conv2
I0630 22:02:32.491449  6183 net.cpp:148] Setting up ctx_conv2
I0630 22:02:32.491454  6183 net.cpp:155] Top shape: 5 64 80 80 (2048000)
I0630 22:02:32.491456  6183 net.cpp:163] Memory required for data: 1042432000
I0630 22:02:32.491459  6183 layer_factory.hpp:77] Creating layer ctx_conv2/bn
I0630 22:02:32.491462  6183 net.cpp:98] Creating Layer ctx_conv2/bn
I0630 22:02:32.491466  6183 net.cpp:439] ctx_conv2/bn <- ctx_conv2
I0630 22:02:32.491467  6183 net.cpp:413] ctx_conv2/bn -> ctx_conv2/bn
I0630 22:02:32.492166  6183 net.cpp:148] Setting up ctx_conv2/bn
I0630 22:02:32.492171  6183 net.cpp:155] Top shape: 5 64 80 80 (2048000)
I0630 22:02:32.492172  6183 net.cpp:163] Memory required for data: 1050624000
I0630 22:02:32.492177  6183 layer_factory.hpp:77] Creating layer ctx_conv2/relu
I0630 22:02:32.492182  6183 net.cpp:98] Creating Layer ctx_conv2/relu
I0630 22:02:32.492183  6183 net.cpp:439] ctx_conv2/relu <- ctx_conv2/bn
I0630 22:02:32.492185  6183 net.cpp:400] ctx_conv2/relu -> ctx_conv2/bn (in-place)
I0630 22:02:32.492188  6183 net.cpp:148] Setting up ctx_conv2/relu
I0630 22:02:32.492192  6183 net.cpp:155] Top shape: 5 64 80 80 (2048000)
I0630 22:02:32.492192  6183 net.cpp:163] Memory required for data: 1058816000
I0630 22:02:32.492194  6183 layer_factory.hpp:77] Creating layer ctx_conv3
I0630 22:02:32.492197  6183 net.cpp:98] Creating Layer ctx_conv3
I0630 22:02:32.492200  6183 net.cpp:439] ctx_conv3 <- ctx_conv2/bn
I0630 22:02:32.492202  6183 net.cpp:413] ctx_conv3 -> ctx_conv3
I0630 22:02:32.493213  6183 net.cpp:148] Setting up ctx_conv3
I0630 22:02:32.493217  6183 net.cpp:155] Top shape: 5 64 80 80 (2048000)
I0630 22:02:32.493219  6183 net.cpp:163] Memory required for data: 1067008000
I0630 22:02:32.493223  6183 layer_factory.hpp:77] Creating layer ctx_conv3/bn
I0630 22:02:32.493227  6183 net.cpp:98] Creating Layer ctx_conv3/bn
I0630 22:02:32.493234  6183 net.cpp:439] ctx_conv3/bn <- ctx_conv3
I0630 22:02:32.493237  6183 net.cpp:413] ctx_conv3/bn -> ctx_conv3/bn
I0630 22:02:32.493947  6183 net.cpp:148] Setting up ctx_conv3/bn
I0630 22:02:32.493952  6183 net.cpp:155] Top shape: 5 64 80 80 (2048000)
I0630 22:02:32.493954  6183 net.cpp:163] Memory required for data: 1075200000
I0630 22:02:32.493959  6183 layer_factory.hpp:77] Creating layer ctx_conv3/relu
I0630 22:02:32.493963  6183 net.cpp:98] Creating Layer ctx_conv3/relu
I0630 22:02:32.493965  6183 net.cpp:439] ctx_conv3/relu <- ctx_conv3/bn
I0630 22:02:32.493968  6183 net.cpp:400] ctx_conv3/relu -> ctx_conv3/bn (in-place)
I0630 22:02:32.493973  6183 net.cpp:148] Setting up ctx_conv3/relu
I0630 22:02:32.493975  6183 net.cpp:155] Top shape: 5 64 80 80 (2048000)
I0630 22:02:32.493976  6183 net.cpp:163] Memory required for data: 1083392000
I0630 22:02:32.493978  6183 layer_factory.hpp:77] Creating layer ctx_conv4
I0630 22:02:32.493983  6183 net.cpp:98] Creating Layer ctx_conv4
I0630 22:02:32.493985  6183 net.cpp:439] ctx_conv4 <- ctx_conv3/bn
I0630 22:02:32.493988  6183 net.cpp:413] ctx_conv4 -> ctx_conv4
I0630 22:02:32.495029  6183 net.cpp:148] Setting up ctx_conv4
I0630 22:02:32.495036  6183 net.cpp:155] Top shape: 5 64 80 80 (2048000)
I0630 22:02:32.495038  6183 net.cpp:163] Memory required for data: 1091584000
I0630 22:02:32.495041  6183 layer_factory.hpp:77] Creating layer ctx_conv4/bn
I0630 22:02:32.495044  6183 net.cpp:98] Creating Layer ctx_conv4/bn
I0630 22:02:32.495048  6183 net.cpp:439] ctx_conv4/bn <- ctx_conv4
I0630 22:02:32.495049  6183 net.cpp:413] ctx_conv4/bn -> ctx_conv4/bn
I0630 22:02:32.495744  6183 net.cpp:148] Setting up ctx_conv4/bn
I0630 22:02:32.495750  6183 net.cpp:155] Top shape: 5 64 80 80 (2048000)
I0630 22:02:32.495753  6183 net.cpp:163] Memory required for data: 1099776000
I0630 22:02:32.495756  6183 layer_factory.hpp:77] Creating layer ctx_conv4/relu
I0630 22:02:32.495759  6183 net.cpp:98] Creating Layer ctx_conv4/relu
I0630 22:02:32.495761  6183 net.cpp:439] ctx_conv4/relu <- ctx_conv4/bn
I0630 22:02:32.495764  6183 net.cpp:400] ctx_conv4/relu -> ctx_conv4/bn (in-place)
I0630 22:02:32.495766  6183 net.cpp:148] Setting up ctx_conv4/relu
I0630 22:02:32.495769  6183 net.cpp:155] Top shape: 5 64 80 80 (2048000)
I0630 22:02:32.495770  6183 net.cpp:163] Memory required for data: 1107968000
I0630 22:02:32.495772  6183 layer_factory.hpp:77] Creating layer ctx_final
I0630 22:02:32.495776  6183 net.cpp:98] Creating Layer ctx_final
I0630 22:02:32.495777  6183 net.cpp:439] ctx_final <- ctx_conv4/bn
I0630 22:02:32.495780  6183 net.cpp:413] ctx_final -> ctx_final
I0630 22:02:32.496299  6183 net.cpp:148] Setting up ctx_final
I0630 22:02:32.496305  6183 net.cpp:155] Top shape: 5 20 80 80 (640000)
I0630 22:02:32.496307  6183 net.cpp:163] Memory required for data: 1110528000
I0630 22:02:32.496310  6183 layer_factory.hpp:77] Creating layer ctx_final/relu
I0630 22:02:32.496312  6183 net.cpp:98] Creating Layer ctx_final/relu
I0630 22:02:32.496315  6183 net.cpp:439] ctx_final/relu <- ctx_final
I0630 22:02:32.496316  6183 net.cpp:400] ctx_final/relu -> ctx_final (in-place)
I0630 22:02:32.496320  6183 net.cpp:148] Setting up ctx_final/relu
I0630 22:02:32.496322  6183 net.cpp:155] Top shape: 5 20 80 80 (640000)
I0630 22:02:32.496323  6183 net.cpp:163] Memory required for data: 1113088000
I0630 22:02:32.496325  6183 layer_factory.hpp:77] Creating layer out_deconv_final_up2
I0630 22:02:32.496328  6183 net.cpp:98] Creating Layer out_deconv_final_up2
I0630 22:02:32.496330  6183 net.cpp:439] out_deconv_final_up2 <- ctx_final
I0630 22:02:32.496333  6183 net.cpp:413] out_deconv_final_up2 -> out_deconv_final_up2
I0630 22:02:32.496562  6183 net.cpp:148] Setting up out_deconv_final_up2
I0630 22:02:32.496567  6183 net.cpp:155] Top shape: 5 20 160 160 (2560000)
I0630 22:02:32.496568  6183 net.cpp:163] Memory required for data: 1123328000
I0630 22:02:32.496572  6183 layer_factory.hpp:77] Creating layer out_deconv_final_up4
I0630 22:02:32.496574  6183 net.cpp:98] Creating Layer out_deconv_final_up4
I0630 22:02:32.496582  6183 net.cpp:439] out_deconv_final_up4 <- out_deconv_final_up2
I0630 22:02:32.496585  6183 net.cpp:413] out_deconv_final_up4 -> out_deconv_final_up4
I0630 22:02:32.496820  6183 net.cpp:148] Setting up out_deconv_final_up4
I0630 22:02:32.496825  6183 net.cpp:155] Top shape: 5 20 320 320 (10240000)
I0630 22:02:32.496826  6183 net.cpp:163] Memory required for data: 1164288000
I0630 22:02:32.496829  6183 layer_factory.hpp:77] Creating layer out_deconv_final_up8
I0630 22:02:32.496832  6183 net.cpp:98] Creating Layer out_deconv_final_up8
I0630 22:02:32.496834  6183 net.cpp:439] out_deconv_final_up8 <- out_deconv_final_up4
I0630 22:02:32.496837  6183 net.cpp:413] out_deconv_final_up8 -> out_deconv_final_up8
I0630 22:02:32.497062  6183 net.cpp:148] Setting up out_deconv_final_up8
I0630 22:02:32.497066  6183 net.cpp:155] Top shape: 5 20 640 640 (40960000)
I0630 22:02:32.497068  6183 net.cpp:163] Memory required for data: 1328128000
I0630 22:02:32.497071  6183 layer_factory.hpp:77] Creating layer loss
I0630 22:02:32.497074  6183 net.cpp:98] Creating Layer loss
I0630 22:02:32.497076  6183 net.cpp:439] loss <- out_deconv_final_up8
I0630 22:02:32.497078  6183 net.cpp:439] loss <- label
I0630 22:02:32.497083  6183 net.cpp:413] loss -> loss
…
I0630 22:02:32.548369  6183 solver.cpp:182] Creating test net (#0) specified by test_net file: training/cityscapes20_jsegnet21v2_2017-06-30_19-26-17/sparse/test.prototxt
I0630 22:02:32.548646  6183 net.cpp:56] Initializing net from parameters: 
name: "jsegnet21v2_test"
state {
  phase: TEST
}
layer {
  name: "data"
  type: "ImageLabelData"
  top: "data"
  top: "label"
  transform_param {
    mirror: false
    crop_size: 640
    mean_value: 0
  }
  image_label_data_param {
    image_list_path: "data/val-image-lmdb"
    label_list_path: "data/val-label-lmdb"
    batch_size: 4
    threads: 4
    backend: LMDB
  }
}
layer {
  name: "data/bias"
  type: "Bias"
  bottom: "data"
  top: "data/bias"
  param {
    lr_mult: 0
    decay_mult: 0
  }
  bias_param {
    filler {
      type: "constant"
      value: -128
    }
  }
}
layer {
  name: "conv1a"
  type: "Convolution"
  bottom: "data/bias"
  top: "conv1a"
  param {
    lr_mult: 1
    decay_mult: 1
  }
  param {
    lr_mult: 2
    decay_mult: 0
  }
  convolution_param {
    num_output: 32
    bias_term: true
    pad: 2
    kernel_size: 5
    group: 1
    stride: 2
    weight_filler {
      type: "msra"
    }
    bias_filler {
      type: "constant"
      value: 0
    }
    dilation: 1
  }
}
layer {
  name: "conv1a/bn"
  type: "BatchNorm"
  bottom: "conv1a"
  top: "conv1a/bn"
  param {
    lr_mult: 1
    decay_mult: 1
  }
  param {
    lr_mult: 1
    decay_mult: 1
  }
  param {
    lr_mult: 0
    decay_mult: 0
  }
  param {
    lr_mult: 0
    decay_mult: 0
  }
  batch_norm_param {
    moving_average_fraction: 0.99
    eps: 0.0001
    scale_filler {
      type: "constant"
      value: 1
    }
    bias_filler {
      type: "constant"
      value: 0
    }
  }
}
layer {
  name: "conv1a/relu"
  type: "ReLU"
  bottom: "conv1a/bn"
  top: "conv1a/bn"
}
layer {
  name: "conv1b"
  type: "Convolution"
  bottom: "conv1a/bn"
  top: "conv1b"
  param {
    lr_mult: 1
    decay_mult: 1
  }
  param {
    lr_mult: 2
    decay_mult: 0
  }
  convolution_param {
    num_output: 32
    bias_term: true
    pad: 1
    kernel_size: 3
    group: 4
    stride: 1
    weight_filler {
      type: "msra"
    }
    bias_filler {
      type: "constant"
      value: 0
    }
    dilation: 1
  }
}
layer {
  name: "conv1b/bn"
  type: "BatchNorm"
  bottom: "conv1b"
  top: "conv1b/bn"
  param {
    lr_mult: 1
    decay_mult: 1
  }
  param {
    lr_mult: 1
    decay_mult: 1
  }
  param {
    lr_mult: 0
    decay_mult: 0
  }
  param {
    lr_mult: 0
    decay_mult: 0
  }
  batch_norm_param {
    moving_average_fraction: 0.99
    eps: 0.0001
    scale_filler {
      type: "constant"
      value: 1
    }
    bias_filler {
      type: "constant"
      value: 0
    }
  }
}
layer {
  name: "conv1b/relu"
  type: "ReLU"
  bottom: "conv1b/bn"
  top: "conv1b/bn"
}
layer {
  name: "pool1"
  type: "Pooling"
  bottom: "conv1b/bn"
  top: "pool1"
  pooling_param {
    pool: MAX
    kernel_size: 2
    stride: 2
  }
}
layer {
  name: "res2a_branch2a"
  type: "Convolution"
  bottom: "pool1"
  top: "res2a_branch2a"
  param {
    lr_mult: 1
    decay_mult: 1
  }
  param {
    lr_mult: 2
    decay_mult: 0
  }
  convolution_param {
    num_output: 64
    bias_term: true
    pad: 1
    kernel_size: 3
    group: 1
    stride: 1
    weight_filler {
      type: "msra"
    }
    bias_filler {
      type: "constant"
      value: 0
    }
    dilation: 1
  }
}
layer {
  name: "res2a_branch2a/bn"
  type: "BatchNorm"
  bottom: "res2a_branch2a"
  top: "res2a_branch2a/bn"
  param {
    lr_mult: 1
    decay_mult: 1
  }
  param {
    lr_mult: 1
    decay_mult: 1
  }
  param {
    lr_mult: 0
    decay_mult: 0
  }
  param {
    lr_mult: 0
    decay_mult: 0
  }
  batch_norm_param {
    moving_average_fraction: 0.99
    eps: 0.0001
    scale_filler {
      type: "constant"
      value: 1
    }
    bias_filler {
      type: "constant"
      value: 0
    }
  }
}
layer {
  name: "res2a_branch2a/relu"
  type: "ReLU"
  bottom: "res2a_branch2a/bn"
  top: "res2a_branch2a/bn"
}
layer {
  name: "res2a_branch2b"
  type: "Convolution"
  bottom: "res2a_branch2a/bn"
  top: "res2a_branch2b"
  param {
    lr_mult: 1
    decay_mult: 1
  }
  param {
    lr_mult: 2
    decay_mult: 0
  }
  convolution_param {
    num_output: 64
    bias_term: true
    pad: 1
    kernel_size: 3
    group: 4
    stride: 1
    weight_filler {
      type: "msra"
    }
    bias_filler {
      type: "constant"
      value: 0
    }
    dilation: 1
  }
}
layer {
  name: "res2a_branch2b/bn"
  type: "BatchNorm"
  bottom: "res2a_branch2b"
  top: "res2a_branch2b/bn"
  param {
    lr_mult: 1
    decay_mult: 1
  }
  param {
    lr_mult: 1
    decay_mult: 1
  }
  param {
    lr_mult: 0
    decay_mult: 0
  }
  param {
    lr_mult: 0
    decay_mult: 0
  }
  batch_norm_param {
    moving_average_fraction: 0.99
    eps: 0.0001
    scale_filler {
      type: "constant"
      value: 1
    }
    bias_filler {
      type: "constant"
      value: 0
    }
  }
}
layer {
  name: "res2a_branch2b/relu"
  type: "ReLU"
  bottom: "res2a_branch2b/bn"
  top: "res2a_branch2b/bn"
}
layer {
  name: "pool2"
  type: "Pooling"
  bottom: "res2a_branch2b/bn"
  top: "pool2"
  pooling_param {
    pool: MAX
    kernel_size: 2
    stride: 2
  }
}
layer {
  name: "res3a_branch2a"
  type: "Convolution"
  bottom: "pool2"
  top: "res3a_branch2a"
  param {
    lr_mult: 1
    decay_mult: 1
  }
  param {
    lr_mult: 2
    decay_mult: 0
  }
  convolution_param {
    num_output: 128
    bias_term: true
    pad: 1
    kernel_size: 3
    group: 1
    stride: 1
    weight_filler {
      type: "msra"
    }
    bias_filler {
      type: "constant"
      value: 0
    }
    dilation: 1
  }
}
layer {
  name: "res3a_branch2a/bn"
  type: "BatchNorm"
  bottom: "res3a_branch2a"
  top: "res3a_branch2a/bn"
  param {
    lr_mult: 1
    decay_mult: 1
  }
  param {
    lr_mult: 1
    decay_mult: 1
  }
  param {
    lr_mult: 0
    decay_mult: 0
  }
  param {
    lr_mult: 0
    decay_mult: 0
  }
  batch_norm_param {
    moving_average_fraction: 0.99
    eps: 0.0001
    scale_filler {
      type: "constant"
      value: 1
    }
    bias_filler {
      type: "constant"
      value: 0
    }
  }
}
layer {
  name: "res3a_branch2a/relu"
  type: "ReLU"
  bottom: "res3a_branch2a/bn"
  top: "res3a_branch2a/bn"
}
layer {
  name: "res3a_branch2b"
  type: "Convolution"
  bottom: "res3a_branch2a/bn"
  top: "res3a_branch2b"
  param {
    lr_mult: 1
    decay_mult: 1
  }
  param {
    lr_mult: 2
    decay_mult: 0
  }
  convolution_param {
    num_output: 128
    bias_term: true
    pad: 1
    kernel_size: 3
    group: 4
    stride: 1
    weight_filler {
      type: "msra"
    }
    bias_filler {
      type: "constant"
      value: 0
    }
    dilation: 1
  }
}
layer {
  name: "res3a_branch2b/bn"
  type: "BatchNorm"
  bottom: "res3a_branch2b"
  top: "res3a_branch2b/bn"
  param {
    lr_mult: 1
    decay_mult: 1
  }
  param {
    lr_mult: 1
    decay_mult: 1
  }
  param {
    lr_mult: 0
    decay_mult: 0
  }
  param {
    lr_mult: 0
    decay_mult: 0
  }
  batch_norm_param {
    moving_average_fraction: 0.99
    eps: 0.0001
    scale_filler {
      type: "constant"
      value: 1
    }
    bias_filler {
      type: "constant"
      value: 0
    }
  }
}
layer {
  name: "res3a_branch2b/relu"
  type: "ReLU"
  bottom: "res3a_branch2b/bn"
  top: "res3a_branch2b/bn"
}
layer {
  name: "pool3"
  type: "Pooling"
  bottom: "res3a_branch2b/bn"
  top: "pool3"
  pooling_param {
    pool: MAX
    kernel_size: 2
    stride: 2
  }
}
layer {
  name: "res4a_branch2a"
  type: "Convolution"
  bottom: "pool3"
  top: "res4a_branch2a"
  param {
    lr_mult: 1
    decay_mult: 1
  }
  param {
    lr_mult: 2
    decay_mult: 0
  }
  convolution_param {
    num_output: 256
    bias_term: true
    pad: 1
    kernel_size: 3
    group: 1
    stride: 1
    weight_filler {
      type: "msra"
    }
    bias_filler {
      type: "constant"
      value: 0
    }
    dilation: 1
  }
}
layer {
  name: "res4a_branch2a/bn"
  type: "BatchNorm"
  bottom: "res4a_branch2a"
  top: "res4a_branch2a/bn"
  param {
    lr_mult: 1
    decay_mult: 1
  }
  param {
    lr_mult: 1
    decay_mult: 1
  }
  param {
    lr_mult: 0
    decay_mult: 0
  }
  param {
    lr_mult: 0
    decay_mult: 0
  }
  batch_norm_param {
    moving_average_fraction: 0.99
    eps: 0.0001
    scale_filler {
      type: "constant"
      value: 1
    }
    bias_filler {
      type: "constant"
      value: 0
    }
  }
}
layer {
  name: "res4a_branch2a/relu"
  type: "ReLU"
  bottom: "res4a_branch2a/bn"
  top: "res4a_branch2a/bn"
}
layer {
  name: "res4a_branch2b"
  type: "Convolution"
  bottom: "res4a_branch2a/bn"
  top: "res4a_branch2b"
  param {
    lr_mult: 1
    decay_mult: 1
  }
  param {
    lr_mult: 2
    decay_mult: 0
  }
  convolution_param {
    num_output: 256
    bias_term: true
    pad: 1
    kernel_size: 3
    group: 4
    stride: 1
    weight_filler {
      type: "msra"
    }
    bias_filler {
      type: "constant"
      value: 0
    }
    dilation: 1
  }
}
layer {
  name: "res4a_branch2b/bn"
  type: "BatchNorm"
  bottom: "res4a_branch2b"
  top: "res4a_branch2b/bn"
  param {
    lr_mult: 1
    decay_mult: 1
  }
  param {
    lr_mult: 1
    decay_mult: 1
  }
  param {
    lr_mult: 0
    decay_mult: 0
  }
  param {
    lr_mult: 0
    decay_mult: 0
  }
  batch_norm_param {
    moving_average_fraction: 0.99
    eps: 0.0001
    scale_filler {
      type: "constant"
      value: 1
    }
    bias_filler {
      type: "constant"
      value: 0
    }
  }
}
layer {
  name: "res4a_branch2b/relu"
  type: "ReLU"
  bottom: "res4a_branch2b/bn"
  top: "res4a_branch2b/bn"
}
layer {
  name: "pool4"
  type: "Pooling"
  bottom: "res4a_branch2b/bn"
  top: "pool4"
  pooling_param {
    pool: MAX
    kernel_size: 1
    stride: 1
  }
}
layer {
  name: "res5a_branch2a"
  type: "Convolution"
  bottom: "pool4"
  top: "res5a_branch2a"
  param {
    lr_mult: 1
    decay_mult: 1
  }
  param {
    lr_mult: 2
    decay_mult: 0
  }
  convolution_param {
    num_output: 512
    bias_term: true
    pad: 2
    kernel_size: 3
    group: 1
    stride: 1
    weight_filler {
      type: "msra"
    }
    bias_filler {
      type: "constant"
      value: 0
    }
    dilation: 2
  }
}
layer {
  name: "res5a_branch2a/bn"
  type: "BatchNorm"
  bottom: "res5a_branch2a"
  top: "res5a_branch2a/bn"
  param {
    lr_mult: 1
    decay_mult: 1
  }
  param {
    lr_mult: 1
    decay_mult: 1
  }
  param {
    lr_mult: 0
    decay_mult: 0
  }
  param {
    lr_mult: 0
    decay_mult: 0
  }
  batch_norm_param {
    moving_average_fraction: 0.99
    eps: 0.0001
    scale_filler {
      type: "constant"
      value: 1
    }
    bias_filler {
      type: "constant"
      value: 0
    }
  }
}
layer {
  name: "res5a_branch2a/relu"
  type: "ReLU"
  bottom: "res5a_branch2a/bn"
  top: "res5a_branch2a/bn"
}
layer {
  name: "res5a_branch2b"
  type: "Convolution"
  bottom: "res5a_branch2a/bn"
  top: "res5a_branch2b"
  param {
    lr_mult: 1
    decay_mult: 1
  }
  param {
    lr_mult: 2
    decay_mult: 0
  }
  convolution_param {
    num_output: 512
    bias_term: true
    pad: 2
    kernel_size: 3
    group: 4
    stride: 1
    weight_filler {
      type: "msra"
    }
    bias_filler {
      type: "constant"
      value: 0
    }
    dilation: 2
  }
}
layer {
  name: "res5a_branch2b/bn"
  type: "BatchNorm"
  bottom: "res5a_branch2b"
  top: "res5a_branch2b/bn"
  param {
    lr_mult: 1
    decay_mult: 1
  }
  param {
    lr_mult: 1
    decay_mult: 1
  }
  param {
    lr_mult: 0
    decay_mult: 0
  }
  param {
    lr_mult: 0
    decay_mult: 0
  }
  batch_norm_param {
    moving_average_fraction: 0.99
    eps: 0.0001
    scale_filler {
      type: "constant"
      value: 1
    }
    bias_filler {
      type: "constant"
      value: 0
    }
  }
}
layer {
  name: "res5a_branch2b/relu"
  type: "ReLU"
  bottom: "res5a_branch2b/bn"
  top: "res5a_branch2b/bn"
}
layer {
  name: "out5a"
  type: "Convolution"
  bottom: "res5a_branch2b/bn"
  top: "out5a"
  param {
    lr_mult: 1
    decay_mult: 1
  }
  param {
    lr_mult: 2
    decay_mult: 0
  }
  convolution_param {
    num_output: 64
    bias_term: true
    pad: 4
    kernel_size: 3
    group: 2
    stride: 1
    weight_filler {
      type: "msra"
    }
    bias_filler {
      type: "constant"
      value: 0
    }
    dilation: 4
  }
}
layer {
  name: "out5a/bn"
  type: "BatchNorm"
  bottom: "out5a"
  top: "out5a/bn"
  param {
    lr_mult: 1
    decay_mult: 1
  }
  param {
    lr_mult: 1
    decay_mult: 1
  }
  param {
    lr_mult: 0
    decay_mult: 0
  }
  param {
    lr_mult: 0
    decay_mult: 0
  }
  batch_norm_param {
    moving_average_fraction: 0.99
    eps: 0.0001
    scale_filler {
      type: "constant"
      value: 1
    }
    bias_filler {
      type: "constant"
      value: 0
    }
  }
}
layer {
  name: "out5a/relu"
  type: "ReLU"
  bottom: "out5a/bn"
  top: "out5a/bn"
}
layer {
  name: "out5a_up2"
  type: "Deconvolution"
  bottom: "out5a/bn"
  top: "out5a_up2"
  param {
    lr_mult: 0
    decay_mult: 0
  }
  convolution_param {
    num_output: 64
    bias_term: false
    pad: 1
    kernel_size: 4
    group: 64
    stride: 2
    weight_filler {
      type: "bilinear"
    }
  }
}
layer {
  name: "out3a"
  type: "Convolution"
  bottom: "res3a_branch2b/bn"
  top: "out3a"
  param {
    lr_mult: 1
    decay_mult: 1
  }
  param {
    lr_mult: 2
    decay_mult: 0
  }
  convolution_param {
    num_output: 64
    bias_term: true
    pad: 1
    kernel_size: 3
    group: 2
    stride: 1
    weight_filler {
      type: "msra"
    }
    bias_filler {
      type: "constant"
      value: 0
    }
    dilation: 1
  }
}
layer {
  name: "out3a/bn"
  type: "BatchNorm"
  bottom: "out3a"
  top: "out3a/bn"
  param {
    lr_mult: 1
    decay_mult: 1
  }
  param {
    lr_mult: 1
    decay_mult: 1
  }
  param {
    lr_mult: 0
    decay_mult: 0
  }
  param {
    lr_mult: 0
    decay_mult: 0
  }
  batch_norm_param {
    moving_average_fraction: 0.99
    eps: 0.0001
    scale_filler {
      type: "constant"
      value: 1
    }
    bias_filler {
      type: "constant"
      value: 0
    }
  }
}
layer {
  name: "out3a/relu"
  type: "ReLU"
  bottom: "out3a/bn"
  top: "out3a/bn"
}
layer {
  name: "out3_out5_combined"
  type: "Eltwise"
  bottom: "out5a_up2"
  bottom: "out3a/bn"
  top: "out3_out5_combined"
}
layer {
  name: "ctx_conv1"
  type: "Convolution"
  bottom: "out3_out5_combined"
  top: "ctx_conv1"
  param {
    lr_mult: 1
    decay_mult: 1
  }
  param {
    lr_mult: 2
    decay_mult: 0
  }
  convolution_param {
    num_output: 64
    bias_term: true
    pad: 1
    kernel_size: 3
    group: 1
    stride: 1
    weight_filler {
      type: "msra"
    }
    bias_filler {
      type: "constant"
      value: 0
    }
    dilation: 1
  }
}
layer {
  name: "ctx_conv1/bn"
  type: "BatchNorm"
  bottom: "ctx_conv1"
  top: "ctx_conv1/bn"
  param {
    lr_mult: 1
    decay_mult: 1
  }
  param {
    lr_mult: 1
    decay_mult: 1
  }
  param {
    lr_mult: 0
    decay_mult: 0
  }
  param {
    lr_mult: 0
    decay_mult: 0
  }
  batch_norm_param {
    moving_average_fraction: 0.99
    eps: 0.0001
    scale_filler {
      type: "constant"
      value: 1
    }
    bias_filler {
      type: "constant"
      value: 0
    }
  }
}
layer {
  name: "ctx_conv1/relu"
  type: "ReLU"
  bottom: "ctx_conv1/bn"
  top: "ctx_conv1/bn"
}
layer {
  name: "ctx_conv2"
  type: "Convolution"
  bottom: "ctx_conv1/bn"
  top: "ctx_conv2"
  param {
    lr_mult: 1
    decay_mult: 1
  }
  param {
    lr_mult: 2
    decay_mult: 0
  }
  convolution_param {
    num_output: 64
    bias_term: true
    pad: 4
    kernel_size: 3
    group: 1
    stride: 1
    weight_filler {
      type: "msra"
    }
    bias_filler {
      type: "constant"
      value: 0
    }
    dilation: 4
  }
}
layer {
  name: "ctx_conv2/bn"
  type: "BatchNorm"
  bottom: "ctx_conv2"
  top: "ctx_conv2/bn"
  param {
    lr_mult: 1
    decay_mult: 1
  }
  param {
    lr_mult: 1
    decay_mult: 1
  }
  param {
    lr_mult: 0
    decay_mult: 0
  }
  param {
    lr_mult: 0
    decay_mult: 0
  }
  batch_norm_param {
    moving_average_fraction: 0.99
    eps: 0.0001
    scale_filler {
      type: "constant"
      value: 1
    }
    bias_filler {
      type: "constant"
      value: 0
    }
  }
}
layer {
  name: "ctx_conv2/relu"
  type: "ReLU"
  bottom: "ctx_conv2/bn"
  top: "ctx_conv2/bn"
}
layer {
  name: "ctx_conv3"
  type: "Convolution"
  bottom: "ctx_conv2/bn"
  top: "ctx_conv3"
  param {
    lr_mult: 1
    decay_mult: 1
  }
  param {
    lr_mult: 2
    decay_mult: 0
  }
  convolution_param {
    num_output: 64
    bias_term: true
    pad: 4
    kernel_size: 3
    group: 1
    stride: 1
    weight_filler {
      type: "msra"
    }
    bias_filler {
      type: "constant"
      value: 0
    }
    dilation: 4
  }
}
layer {
  name: "ctx_conv3/bn"
  type: "BatchNorm"
  bottom: "ctx_conv3"
  top: "ctx_conv3/bn"
  param {
    lr_mult: 1
    decay_mult: 1
  }
  param {
    lr_mult: 1
    decay_mult: 1
  }
  param {
    lr_mult: 0
    decay_mult: 0
  }
  param {
    lr_mult: 0
    decay_mult: 0
  }
  batch_norm_param {
    moving_average_fraction: 0.99
    eps: 0.0001
    scale_filler {
      type: "constant"
      value: 1
    }
    bias_filler {
      type: "constant"
      value: 0
    }
  }
}
layer {
  name: "ctx_conv3/relu"
  type: "ReLU"
  bottom: "ctx_conv3/bn"
  top: "ctx_conv3/bn"
}
layer {
  name: "ctx_conv4"
  type: "Convolution"
  bottom: "ctx_conv3/bn"
  top: "ctx_conv4"
  param {
    lr_mult: 1
    decay_mult: 1
  }
  param {
    lr_mult: 2
    decay_mult: 0
  }
  convolution_param {
    num_output: 64
    bias_term: true
    pad: 4
    kernel_size: 3
    group: 1
    stride: 1
    weight_filler {
      type: "msra"
    }
    bias_filler {
      type: "constant"
      value: 0
    }
    dilation: 4
  }
}
layer {
  name: "ctx_conv4/bn"
  type: "BatchNorm"
  bottom: "ctx_conv4"
  top: "ctx_conv4/bn"
  param {
    lr_mult: 1
    decay_mult: 1
  }
  param {
    lr_mult: 1
    decay_mult: 1
  }
  param {
    lr_mult: 0
    decay_mult: 0
  }
  param {
    lr_mult: 0
    decay_mult: 0
  }
  batch_norm_param {
    moving_average_fraction: 0.99
    eps: 0.0001
    scale_filler {
      type: "constant"
      value: 1
    }
    bias_filler {
      type: "constant"
      value: 0
    }
  }
}
layer {
  name: "ctx_conv4/relu"
  type: "ReLU"
  bottom: "ctx_conv4/bn"
  top: "ctx_conv4/bn"
}
layer {
  name: "ctx_final"
  type: "Convolution"
  bottom: "ctx_conv4/bn"
  top: "ctx_final"
  param {
    lr_mult: 1
    decay_mult: 1
  }
  param {
    lr_mult: 2
    decay_mult: 0
  }
  convolution_param {
    num_output: 20
    bias_term: true
    pad: 1
    kernel_size: 3
    kernel_size: 3
    group: 1
    stride: 1
    weight_filler {
      type: "msra"
    }
    bias_filler {
      type: "constant"
      value: 0
    }
    dilation: 1
  }
}
layer {
  name: "ctx_final/relu"
  type: "ReLU"
  bottom: "ctx_final"
  top: "ctx_final"
}
layer {
  name: "out_deconv_final_up2"
  type: "Deconvolution"
  bottom: "ctx_final"
  top: "out_deconv_final_up2"
  param {
    lr_mult: 0
    decay_mult: 0
  }
  convolution_param {
    num_output: 20
    bias_term: false
    pad: 1
    kernel_size: 4
    group: 20
    stride: 2
    weight_filler {
      type: "bilinear"
    }
  }
}
layer {
  name: "out_deconv_final_up4"
  type: "Deconvolution"
  bottom: "out_deconv_final_up2"
  top: "out_deconv_final_up4"
  param {
    lr_mult: 0
    decay_mult: 0
  }
  convolution_param {
    num_output: 20
    bias_term: false
    pad: 1
    kernel_size: 4
    group: 20
    stride: 2
    weight_filler {
      type: "bilinear"
    }
  }
}
layer {
  name: "out_deconv_final_up8"
  type: "Deconvolution"
  bottom: "out_deconv_final_up4"
  top: "out_deconv_final_up8"
  param {
    lr_mult: 0
    decay_mult: 0
  }
  convolution_param {
    num_output: 20
    bias_term: false
    pad: 1
    kernel_size: 4
    group: 20
    stride: 2
    weight_filler {
      type: "bilinear"
    }
  }
}
layer {
  name: "loss"
  type: "SoftmaxWithLoss"
  bottom: "out_deconv_final_up8"
  bottom: "label"
  top: "loss"
  propagate_down: true
  propagate_down: false
  loss_param {
    ignore_label: 255
    normalization: VALID
  }
}
layer {
  name: "accuracy/top1"
  type: "Accuracy"
  bottom: "out_deconv_final_up8"
  bottom: "label"
  top: "accuracy/top1"
  include {
    phase: TEST
  }
  accuracy_param {
    ignore_label: 255
  }
}
layer {
  name: "accuracy/top5"
  type: "Accuracy"
  bottom: "out_deconv_final_up8"
  bottom: "label"
  top: "accuracy/top5"
  include {
    phase: TEST
  }
  accuracy_param {
    top_k: 5
    ignore_label: 255
  }
}
I0630 22:02:32.548765  6183 layer_factory.hpp:77] Creating layer data
I0630 22:02:32.548773  6183 net.cpp:98] Creating Layer data
I0630 22:02:32.548775  6183 net.cpp:413] data -> data
I0630 22:02:32.548780  6183 net.cpp:413] data -> label
I0630 22:02:32.572214  6283 db_lmdb.cpp:35] Opened lmdb data/val-label-lmdb
I0630 22:02:32.593104  6278 db_lmdb.cpp:35] Opened lmdb data/val-image-lmdb
I0630 22:02:32.596525  6183 data_layer.cpp:78] ReshapePrefetch 4, 3, 640, 640
I0630 22:02:32.596609  6183 data_layer.cpp:83] output data size: 4,3,640,640
I0630 22:02:32.620383  6183 data_layer.cpp:78] ReshapePrefetch 4, 1, 640, 640
I0630 22:02:32.620451  6183 data_layer.cpp:83] output data size: 4,1,640,640
I0630 22:02:32.634029  6183 net.cpp:148] Setting up data
I0630 22:02:32.634061  6183 net.cpp:155] Top shape: 4 3 640 640 (4915200)
I0630 22:02:32.634066  6183 net.cpp:155] Top shape: 4 1 640 640 (1638400)
I0630 22:02:32.634068  6183 net.cpp:163] Memory required for data: 26214400
I0630 22:02:32.634074  6183 layer_factory.hpp:77] Creating layer label_data_1_split
I0630 22:02:32.634114  6183 net.cpp:98] Creating Layer label_data_1_split
I0630 22:02:32.634119  6183 net.cpp:439] label_data_1_split <- label
I0630 22:02:32.634125  6183 net.cpp:413] label_data_1_split -> label_data_1_split_0
I0630 22:02:32.634135  6183 net.cpp:413] label_data_1_split -> label_data_1_split_1
I0630 22:02:32.634152  6183 net.cpp:413] label_data_1_split -> label_data_1_split_2
I0630 22:02:32.634294  6183 net.cpp:148] Setting up label_data_1_split
I0630 22:02:32.634300  6183 net.cpp:155] Top shape: 4 1 640 640 (1638400)
I0630 22:02:32.634305  6183 net.cpp:155] Top shape: 4 1 640 640 (1638400)
I0630 22:02:32.634310  6183 net.cpp:155] Top shape: 4 1 640 640 (1638400)
I0630 22:02:32.634312  6183 net.cpp:163] Memory required for data: 45875200
I0630 22:02:32.634317  6183 layer_factory.hpp:77] Creating layer data/bias
I0630 22:02:32.634326  6183 net.cpp:98] Creating Layer data/bias
I0630 22:02:32.634331  6183 net.cpp:439] data/bias <- data
I0630 22:02:32.634336  6183 net.cpp:413] data/bias -> data/bias
I0630 22:02:32.635743  6183 net.cpp:148] Setting up data/bias
I0630 22:02:32.635761  6183 net.cpp:155] Top shape: 4 3 640 640 (4915200)
I0630 22:02:32.635764  6183 net.cpp:163] Memory required for data: 65536000
I0630 22:02:32.635776  6183 layer_factory.hpp:77] Creating layer conv1a
I0630 22:02:32.635799  6183 net.cpp:98] Creating Layer conv1a
I0630 22:02:32.635807  6183 net.cpp:439] conv1a <- data/bias
I0630 22:02:32.635812  6183 net.cpp:413] conv1a -> conv1a
I0630 22:02:32.636579  6183 net.cpp:148] Setting up conv1a
I0630 22:02:32.636589  6183 net.cpp:155] Top shape: 4 32 320 320 (13107200)
I0630 22:02:32.636591  6183 net.cpp:163] Memory required for data: 117964800
I0630 22:02:32.636602  6183 layer_factory.hpp:77] Creating layer conv1a/bn
I0630 22:02:32.636615  6183 net.cpp:98] Creating Layer conv1a/bn
I0630 22:02:32.636620  6183 net.cpp:439] conv1a/bn <- conv1a
I0630 22:02:32.636626  6183 net.cpp:413] conv1a/bn -> conv1a/bn
I0630 22:02:32.639363  6183 net.cpp:148] Setting up conv1a/bn
I0630 22:02:32.639380  6183 net.cpp:155] Top shape: 4 32 320 320 (13107200)
I0630 22:02:32.639384  6183 net.cpp:163] Memory required for data: 170393600
I0630 22:02:32.639396  6183 layer_factory.hpp:77] Creating layer conv1a/relu
I0630 22:02:32.639406  6183 net.cpp:98] Creating Layer conv1a/relu
I0630 22:02:32.639410  6183 net.cpp:439] conv1a/relu <- conv1a/bn
I0630 22:02:32.639418  6183 net.cpp:400] conv1a/relu -> conv1a/bn (in-place)
I0630 22:02:32.639430  6183 net.cpp:148] Setting up conv1a/relu
I0630 22:02:32.639437  6183 net.cpp:155] Top shape: 4 32 320 320 (13107200)
I0630 22:02:32.639441  6183 net.cpp:163] Memory required for data: 222822400
I0630 22:02:32.639446  6183 layer_factory.hpp:77] Creating layer conv1b
I0630 22:02:32.639458  6183 net.cpp:98] Creating Layer conv1b
I0630 22:02:32.639462  6183 net.cpp:439] conv1b <- conv1a/bn
I0630 22:02:32.639468  6183 net.cpp:413] conv1b -> conv1b
I0630 22:02:32.640049  6183 net.cpp:148] Setting up conv1b
I0630 22:02:32.640058  6183 net.cpp:155] Top shape: 4 32 320 320 (13107200)
I0630 22:02:32.640061  6183 net.cpp:163] Memory required for data: 275251200
I0630 22:02:32.640070  6183 layer_factory.hpp:77] Creating layer conv1b/bn
I0630 22:02:32.640079  6183 net.cpp:98] Creating Layer conv1b/bn
I0630 22:02:32.640084  6183 net.cpp:439] conv1b/bn <- conv1b
I0630 22:02:32.640091  6183 net.cpp:413] conv1b/bn -> conv1b/bn
I0630 22:02:32.641099  6183 net.cpp:148] Setting up conv1b/bn
I0630 22:02:32.641110  6183 net.cpp:155] Top shape: 4 32 320 320 (13107200)
I0630 22:02:32.641113  6183 net.cpp:163] Memory required for data: 327680000
I0630 22:02:32.641124  6183 layer_factory.hpp:77] Creating layer conv1b/relu
I0630 22:02:32.641134  6183 net.cpp:98] Creating Layer conv1b/relu
I0630 22:02:32.641137  6183 net.cpp:439] conv1b/relu <- conv1b/bn
I0630 22:02:32.641142  6183 net.cpp:400] conv1b/relu -> conv1b/bn (in-place)
I0630 22:02:32.641149  6183 net.cpp:148] Setting up conv1b/relu
I0630 22:02:32.641155  6183 net.cpp:155] Top shape: 4 32 320 320 (13107200)
I0630 22:02:32.641186  6183 net.cpp:163] Memory required for data: 380108800
I0630 22:02:32.641191  6183 layer_factory.hpp:77] Creating layer pool1
I0630 22:02:32.641201  6183 net.cpp:98] Creating Layer pool1
I0630 22:02:32.641204  6183 net.cpp:439] pool1 <- conv1b/bn
I0630 22:02:32.641209  6183 net.cpp:413] pool1 -> pool1
I0630 22:02:32.641273  6183 net.cpp:148] Setting up pool1
I0630 22:02:32.641280  6183 net.cpp:155] Top shape: 4 32 160 160 (3276800)
I0630 22:02:32.641283  6183 net.cpp:163] Memory required for data: 393216000
I0630 22:02:32.641288  6183 layer_factory.hpp:77] Creating layer res2a_branch2a
I0630 22:02:32.641297  6183 net.cpp:98] Creating Layer res2a_branch2a
I0630 22:02:32.641301  6183 net.cpp:439] res2a_branch2a <- pool1
I0630 22:02:32.641306  6183 net.cpp:413] res2a_branch2a -> res2a_branch2a
I0630 22:02:32.642202  6183 net.cpp:148] Setting up res2a_branch2a
I0630 22:02:32.642212  6183 net.cpp:155] Top shape: 4 64 160 160 (6553600)
I0630 22:02:32.642215  6183 net.cpp:163] Memory required for data: 419430400
I0630 22:02:32.642225  6183 layer_factory.hpp:77] Creating layer res2a_branch2a/bn
I0630 22:02:32.642235  6183 net.cpp:98] Creating Layer res2a_branch2a/bn
I0630 22:02:32.642238  6183 net.cpp:439] res2a_branch2a/bn <- res2a_branch2a
I0630 22:02:32.642244  6183 net.cpp:413] res2a_branch2a/bn -> res2a_branch2a/bn
I0630 22:02:32.645519  6183 net.cpp:148] Setting up res2a_branch2a/bn
I0630 22:02:32.645532  6183 net.cpp:155] Top shape: 4 64 160 160 (6553600)
I0630 22:02:32.645535  6183 net.cpp:163] Memory required for data: 445644800
I0630 22:02:32.645545  6183 layer_factory.hpp:77] Creating layer res2a_branch2a/relu
I0630 22:02:32.645638  6183 net.cpp:98] Creating Layer res2a_branch2a/relu
I0630 22:02:32.645644  6183 net.cpp:439] res2a_branch2a/relu <- res2a_branch2a/bn
I0630 22:02:32.645648  6183 net.cpp:400] res2a_branch2a/relu -> res2a_branch2a/bn (in-place)
I0630 22:02:32.645658  6183 net.cpp:148] Setting up res2a_branch2a/relu
I0630 22:02:32.645738  6183 net.cpp:155] Top shape: 4 64 160 160 (6553600)
I0630 22:02:32.645743  6183 net.cpp:163] Memory required for data: 471859200
I0630 22:02:32.645747  6183 layer_factory.hpp:77] Creating layer res2a_branch2b
I0630 22:02:32.645757  6183 net.cpp:98] Creating Layer res2a_branch2b
I0630 22:02:32.645823  6183 net.cpp:439] res2a_branch2b <- res2a_branch2a/bn
I0630 22:02:32.645830  6183 net.cpp:413] res2a_branch2b -> res2a_branch2b
I0630 22:02:32.646499  6183 net.cpp:148] Setting up res2a_branch2b
I0630 22:02:32.646508  6183 net.cpp:155] Top shape: 4 64 160 160 (6553600)
I0630 22:02:32.646512  6183 net.cpp:163] Memory required for data: 498073600
I0630 22:02:32.646519  6183 layer_factory.hpp:77] Creating layer res2a_branch2b/bn
I0630 22:02:32.646540  6183 net.cpp:98] Creating Layer res2a_branch2b/bn
I0630 22:02:32.646546  6183 net.cpp:439] res2a_branch2b/bn <- res2a_branch2b
I0630 22:02:32.646551  6183 net.cpp:413] res2a_branch2b/bn -> res2a_branch2b/bn
I0630 22:02:32.647469  6183 net.cpp:148] Setting up res2a_branch2b/bn
I0630 22:02:32.647480  6183 net.cpp:155] Top shape: 4 64 160 160 (6553600)
I0630 22:02:32.647485  6183 net.cpp:163] Memory required for data: 524288000
I0630 22:02:32.647493  6183 layer_factory.hpp:77] Creating layer res2a_branch2b/relu
I0630 22:02:32.647500  6183 net.cpp:98] Creating Layer res2a_branch2b/relu
I0630 22:02:32.647505  6183 net.cpp:439] res2a_branch2b/relu <- res2a_branch2b/bn
I0630 22:02:32.647508  6183 net.cpp:400] res2a_branch2b/relu -> res2a_branch2b/bn (in-place)
I0630 22:02:32.647514  6183 net.cpp:148] Setting up res2a_branch2b/relu
I0630 22:02:32.647519  6183 net.cpp:155] Top shape: 4 64 160 160 (6553600)
I0630 22:02:32.647522  6183 net.cpp:163] Memory required for data: 550502400
I0630 22:02:32.647526  6183 layer_factory.hpp:77] Creating layer pool2
I0630 22:02:32.647536  6183 net.cpp:98] Creating Layer pool2
I0630 22:02:32.647538  6183 net.cpp:439] pool2 <- res2a_branch2b/bn
I0630 22:02:32.647543  6183 net.cpp:413] pool2 -> pool2
I0630 22:02:32.647611  6183 net.cpp:148] Setting up pool2
I0630 22:02:32.647619  6183 net.cpp:155] Top shape: 4 64 80 80 (1638400)
I0630 22:02:32.647639  6183 net.cpp:163] Memory required for data: 557056000
I0630 22:02:32.647644  6183 layer_factory.hpp:77] Creating layer res3a_branch2a
I0630 22:02:32.647653  6183 net.cpp:98] Creating Layer res3a_branch2a
I0630 22:02:32.647657  6183 net.cpp:439] res3a_branch2a <- pool2
I0630 22:02:32.647662  6183 net.cpp:413] res3a_branch2a -> res3a_branch2a
I0630 22:02:32.649709  6183 net.cpp:148] Setting up res3a_branch2a
I0630 22:02:32.649741  6183 net.cpp:155] Top shape: 4 128 80 80 (3276800)
I0630 22:02:32.649744  6183 net.cpp:163] Memory required for data: 570163200
I0630 22:02:32.649755  6183 layer_factory.hpp:77] Creating layer res3a_branch2a/bn
I0630 22:02:32.649767  6183 net.cpp:98] Creating Layer res3a_branch2a/bn
I0630 22:02:32.649773  6183 net.cpp:439] res3a_branch2a/bn <- res3a_branch2a
I0630 22:02:32.649785  6183 net.cpp:413] res3a_branch2a/bn -> res3a_branch2a/bn
I0630 22:02:32.650602  6183 net.cpp:148] Setting up res3a_branch2a/bn
I0630 22:02:32.650614  6183 net.cpp:155] Top shape: 4 128 80 80 (3276800)
I0630 22:02:32.650617  6183 net.cpp:163] Memory required for data: 583270400
I0630 22:02:32.650630  6183 layer_factory.hpp:77] Creating layer res3a_branch2a/relu
I0630 22:02:32.650638  6183 net.cpp:98] Creating Layer res3a_branch2a/relu
I0630 22:02:32.650642  6183 net.cpp:439] res3a_branch2a/relu <- res3a_branch2a/bn
I0630 22:02:32.650646  6183 net.cpp:400] res3a_branch2a/relu -> res3a_branch2a/bn (in-place)
I0630 22:02:32.650653  6183 net.cpp:148] Setting up res3a_branch2a/relu
I0630 22:02:32.650657  6183 net.cpp:155] Top shape: 4 128 80 80 (3276800)
I0630 22:02:32.650660  6183 net.cpp:163] Memory required for data: 596377600
I0630 22:02:32.650663  6183 layer_factory.hpp:77] Creating layer res3a_branch2b
I0630 22:02:32.650672  6183 net.cpp:98] Creating Layer res3a_branch2b
I0630 22:02:32.650676  6183 net.cpp:439] res3a_branch2b <- res3a_branch2a/bn
I0630 22:02:32.650679  6183 net.cpp:413] res3a_branch2b -> res3a_branch2b
I0630 22:02:32.652637  6183 net.cpp:148] Setting up res3a_branch2b
I0630 22:02:32.652650  6183 net.cpp:155] Top shape: 4 128 80 80 (3276800)
I0630 22:02:32.652653  6183 net.cpp:163] Memory required for data: 609484800
I0630 22:02:32.652662  6183 layer_factory.hpp:77] Creating layer res3a_branch2b/bn
I0630 22:02:32.652673  6183 net.cpp:98] Creating Layer res3a_branch2b/bn
I0630 22:02:32.652676  6183 net.cpp:439] res3a_branch2b/bn <- res3a_branch2b
I0630 22:02:32.652691  6183 net.cpp:413] res3a_branch2b/bn -> res3a_branch2b/bn
I0630 22:02:32.653501  6183 net.cpp:148] Setting up res3a_branch2b/bn
I0630 22:02:32.653512  6183 net.cpp:155] Top shape: 4 128 80 80 (3276800)
I0630 22:02:32.653514  6183 net.cpp:163] Memory required for data: 622592000
I0630 22:02:32.653524  6183 layer_factory.hpp:77] Creating layer res3a_branch2b/relu
I0630 22:02:32.653530  6183 net.cpp:98] Creating Layer res3a_branch2b/relu
I0630 22:02:32.653535  6183 net.cpp:439] res3a_branch2b/relu <- res3a_branch2b/bn
I0630 22:02:32.653540  6183 net.cpp:400] res3a_branch2b/relu -> res3a_branch2b/bn (in-place)
I0630 22:02:32.653548  6183 net.cpp:148] Setting up res3a_branch2b/relu
I0630 22:02:32.653553  6183 net.cpp:155] Top shape: 4 128 80 80 (3276800)
I0630 22:02:32.653556  6183 net.cpp:163] Memory required for data: 635699200
I0630 22:02:32.653560  6183 layer_factory.hpp:77] Creating layer res3a_branch2b/bn_res3a_branch2b/relu_0_split
I0630 22:02:32.653568  6183 net.cpp:98] Creating Layer res3a_branch2b/bn_res3a_branch2b/relu_0_split
I0630 22:02:32.653573  6183 net.cpp:439] res3a_branch2b/bn_res3a_branch2b/relu_0_split <- res3a_branch2b/bn
I0630 22:02:32.653578  6183 net.cpp:413] res3a_branch2b/bn_res3a_branch2b/relu_0_split -> res3a_branch2b/bn_res3a_branch2b/relu_0_split_0
I0630 22:02:32.653584  6183 net.cpp:413] res3a_branch2b/bn_res3a_branch2b/relu_0_split -> res3a_branch2b/bn_res3a_branch2b/relu_0_split_1
I0630 22:02:32.653638  6183 net.cpp:148] Setting up res3a_branch2b/bn_res3a_branch2b/relu_0_split
I0630 22:02:32.653643  6183 net.cpp:155] Top shape: 4 128 80 80 (3276800)
I0630 22:02:32.653663  6183 net.cpp:155] Top shape: 4 128 80 80 (3276800)
I0630 22:02:32.653668  6183 net.cpp:163] Memory required for data: 661913600
I0630 22:02:32.653672  6183 layer_factory.hpp:77] Creating layer pool3
I0630 22:02:32.653681  6183 net.cpp:98] Creating Layer pool3
I0630 22:02:32.653684  6183 net.cpp:439] pool3 <- res3a_branch2b/bn_res3a_branch2b/relu_0_split_0
I0630 22:02:32.653689  6183 net.cpp:413] pool3 -> pool3
I0630 22:02:32.653739  6183 net.cpp:148] Setting up pool3
I0630 22:02:32.653744  6183 net.cpp:155] Top shape: 4 128 40 40 (819200)
I0630 22:02:32.653748  6183 net.cpp:163] Memory required for data: 665190400
I0630 22:02:32.653753  6183 layer_factory.hpp:77] Creating layer res4a_branch2a
I0630 22:02:32.653764  6183 net.cpp:98] Creating Layer res4a_branch2a
I0630 22:02:32.653767  6183 net.cpp:439] res4a_branch2a <- pool3
I0630 22:02:32.653774  6183 net.cpp:413] res4a_branch2a -> res4a_branch2a
I0630 22:02:32.663594  6183 net.cpp:148] Setting up res4a_branch2a
I0630 22:02:32.663645  6183 net.cpp:155] Top shape: 4 256 40 40 (1638400)
I0630 22:02:32.663647  6183 net.cpp:163] Memory required for data: 671744000
I0630 22:02:32.663658  6183 layer_factory.hpp:77] Creating layer res4a_branch2a/bn
I0630 22:02:32.663679  6183 net.cpp:98] Creating Layer res4a_branch2a/bn
I0630 22:02:32.663686  6183 net.cpp:439] res4a_branch2a/bn <- res4a_branch2a
I0630 22:02:32.663702  6183 net.cpp:413] res4a_branch2a/bn -> res4a_branch2a/bn
I0630 22:02:32.664508  6183 net.cpp:148] Setting up res4a_branch2a/bn
I0630 22:02:32.664517  6183 net.cpp:155] Top shape: 4 256 40 40 (1638400)
I0630 22:02:32.664520  6183 net.cpp:163] Memory required for data: 678297600
I0630 22:02:32.664525  6183 layer_factory.hpp:77] Creating layer res4a_branch2a/relu
I0630 22:02:32.664531  6183 net.cpp:98] Creating Layer res4a_branch2a/relu
I0630 22:02:32.664533  6183 net.cpp:439] res4a_branch2a/relu <- res4a_branch2a/bn
I0630 22:02:32.664536  6183 net.cpp:400] res4a_branch2a/relu -> res4a_branch2a/bn (in-place)
I0630 22:02:32.664543  6183 net.cpp:148] Setting up res4a_branch2a/relu
I0630 22:02:32.664546  6183 net.cpp:155] Top shape: 4 256 40 40 (1638400)
I0630 22:02:32.664547  6183 net.cpp:163] Memory required for data: 684851200
I0630 22:02:32.664551  6183 layer_factory.hpp:77] Creating layer res4a_branch2b
I0630 22:02:32.664557  6183 net.cpp:98] Creating Layer res4a_branch2b
I0630 22:02:32.664561  6183 net.cpp:439] res4a_branch2b <- res4a_branch2a/bn
I0630 22:02:32.664563  6183 net.cpp:413] res4a_branch2b -> res4a_branch2b
I0630 22:02:32.668623  6183 net.cpp:148] Setting up res4a_branch2b
I0630 22:02:32.668642  6183 net.cpp:155] Top shape: 4 256 40 40 (1638400)
I0630 22:02:32.668648  6183 net.cpp:163] Memory required for data: 691404800
I0630 22:02:32.668656  6183 layer_factory.hpp:77] Creating layer res4a_branch2b/bn
I0630 22:02:32.668666  6183 net.cpp:98] Creating Layer res4a_branch2b/bn
I0630 22:02:32.668673  6183 net.cpp:439] res4a_branch2b/bn <- res4a_branch2b
I0630 22:02:32.668679  6183 net.cpp:413] res4a_branch2b/bn -> res4a_branch2b/bn
I0630 22:02:32.670132  6183 net.cpp:148] Setting up res4a_branch2b/bn
I0630 22:02:32.670168  6183 net.cpp:155] Top shape: 4 256 40 40 (1638400)
I0630 22:02:32.670182  6183 net.cpp:163] Memory required for data: 697958400
I0630 22:02:32.670204  6183 layer_factory.hpp:77] Creating layer res4a_branch2b/relu
I0630 22:02:32.670222  6183 net.cpp:98] Creating Layer res4a_branch2b/relu
I0630 22:02:32.670235  6183 net.cpp:439] res4a_branch2b/relu <- res4a_branch2b/bn
I0630 22:02:32.670246  6183 net.cpp:400] res4a_branch2b/relu -> res4a_branch2b/bn (in-place)
I0630 22:02:32.670261  6183 net.cpp:148] Setting up res4a_branch2b/relu
I0630 22:02:32.670276  6183 net.cpp:155] Top shape: 4 256 40 40 (1638400)
I0630 22:02:32.670287  6183 net.cpp:163] Memory required for data: 704512000
I0630 22:02:32.670297  6183 layer_factory.hpp:77] Creating layer pool4
I0630 22:02:32.670313  6183 net.cpp:98] Creating Layer pool4
I0630 22:02:32.670322  6183 net.cpp:439] pool4 <- res4a_branch2b/bn
I0630 22:02:32.670339  6183 net.cpp:413] pool4 -> pool4
I0630 22:02:32.670423  6183 net.cpp:148] Setting up pool4
I0630 22:02:32.670435  6183 net.cpp:155] Top shape: 4 256 40 40 (1638400)
I0630 22:02:32.670442  6183 net.cpp:163] Memory required for data: 711065600
I0630 22:02:32.670450  6183 layer_factory.hpp:77] Creating layer res5a_branch2a
I0630 22:02:32.670464  6183 net.cpp:98] Creating Layer res5a_branch2a
I0630 22:02:32.670471  6183 net.cpp:439] res5a_branch2a <- pool4
I0630 22:02:32.670480  6183 net.cpp:413] res5a_branch2a -> res5a_branch2a
I0630 22:02:32.696772  6183 net.cpp:148] Setting up res5a_branch2a
I0630 22:02:32.696799  6183 net.cpp:155] Top shape: 4 512 40 40 (3276800)
I0630 22:02:32.696801  6183 net.cpp:163] Memory required for data: 724172800
I0630 22:02:32.696808  6183 layer_factory.hpp:77] Creating layer res5a_branch2a/bn
I0630 22:02:32.696818  6183 net.cpp:98] Creating Layer res5a_branch2a/bn
I0630 22:02:32.696822  6183 net.cpp:439] res5a_branch2a/bn <- res5a_branch2a
I0630 22:02:32.696826  6183 net.cpp:413] res5a_branch2a/bn -> res5a_branch2a/bn
I0630 22:02:32.697567  6183 net.cpp:148] Setting up res5a_branch2a/bn
I0630 22:02:32.697573  6183 net.cpp:155] Top shape: 4 512 40 40 (3276800)
I0630 22:02:32.697576  6183 net.cpp:163] Memory required for data: 737280000
I0630 22:02:32.697582  6183 layer_factory.hpp:77] Creating layer res5a_branch2a/relu
I0630 22:02:32.697584  6183 net.cpp:98] Creating Layer res5a_branch2a/relu
I0630 22:02:32.697587  6183 net.cpp:439] res5a_branch2a/relu <- res5a_branch2a/bn
I0630 22:02:32.697589  6183 net.cpp:400] res5a_branch2a/relu -> res5a_branch2a/bn (in-place)
I0630 22:02:32.697593  6183 net.cpp:148] Setting up res5a_branch2a/relu
I0630 22:02:32.697595  6183 net.cpp:155] Top shape: 4 512 40 40 (3276800)
I0630 22:02:32.697597  6183 net.cpp:163] Memory required for data: 750387200
I0630 22:02:32.697599  6183 layer_factory.hpp:77] Creating layer res5a_branch2b
I0630 22:02:32.697604  6183 net.cpp:98] Creating Layer res5a_branch2b
I0630 22:02:32.697607  6183 net.cpp:439] res5a_branch2b <- res5a_branch2a/bn
I0630 22:02:32.697610  6183 net.cpp:413] res5a_branch2b -> res5a_branch2b
I0630 22:02:32.710532  6183 net.cpp:148] Setting up res5a_branch2b
I0630 22:02:32.710546  6183 net.cpp:155] Top shape: 4 512 40 40 (3276800)
I0630 22:02:32.710549  6183 net.cpp:163] Memory required for data: 763494400
I0630 22:02:32.710557  6183 layer_factory.hpp:77] Creating layer res5a_branch2b/bn
I0630 22:02:32.710563  6183 net.cpp:98] Creating Layer res5a_branch2b/bn
I0630 22:02:32.710566  6183 net.cpp:439] res5a_branch2b/bn <- res5a_branch2b
I0630 22:02:32.710569  6183 net.cpp:413] res5a_branch2b/bn -> res5a_branch2b/bn
I0630 22:02:32.711264  6183 net.cpp:148] Setting up res5a_branch2b/bn
I0630 22:02:32.711271  6183 net.cpp:155] Top shape: 4 512 40 40 (3276800)
I0630 22:02:32.711272  6183 net.cpp:163] Memory required for data: 776601600
I0630 22:02:32.711277  6183 layer_factory.hpp:77] Creating layer res5a_branch2b/relu
I0630 22:02:32.711280  6183 net.cpp:98] Creating Layer res5a_branch2b/relu
I0630 22:02:32.711283  6183 net.cpp:439] res5a_branch2b/relu <- res5a_branch2b/bn
I0630 22:02:32.711285  6183 net.cpp:400] res5a_branch2b/relu -> res5a_branch2b/bn (in-place)
I0630 22:02:32.711289  6183 net.cpp:148] Setting up res5a_branch2b/relu
I0630 22:02:32.711292  6183 net.cpp:155] Top shape: 4 512 40 40 (3276800)
I0630 22:02:32.711293  6183 net.cpp:163] Memory required for data: 789708800
I0630 22:02:32.711295  6183 layer_factory.hpp:77] Creating layer out5a
I0630 22:02:32.711299  6183 net.cpp:98] Creating Layer out5a
I0630 22:02:32.711302  6183 net.cpp:439] out5a <- res5a_branch2b/bn
I0630 22:02:32.711304  6183 net.cpp:413] out5a -> out5a
I0630 22:02:32.715437  6183 net.cpp:148] Setting up out5a
I0630 22:02:32.715445  6183 net.cpp:155] Top shape: 4 64 40 40 (409600)
I0630 22:02:32.715447  6183 net.cpp:163] Memory required for data: 791347200
I0630 22:02:32.715451  6183 layer_factory.hpp:77] Creating layer out5a/bn
I0630 22:02:32.715456  6183 net.cpp:98] Creating Layer out5a/bn
I0630 22:02:32.715459  6183 net.cpp:439] out5a/bn <- out5a
I0630 22:02:32.715472  6183 net.cpp:413] out5a/bn -> out5a/bn
I0630 22:02:32.716223  6183 net.cpp:148] Setting up out5a/bn
I0630 22:02:32.716228  6183 net.cpp:155] Top shape: 4 64 40 40 (409600)
I0630 22:02:32.716229  6183 net.cpp:163] Memory required for data: 792985600
I0630 22:02:32.716234  6183 layer_factory.hpp:77] Creating layer out5a/relu
I0630 22:02:32.716238  6183 net.cpp:98] Creating Layer out5a/relu
I0630 22:02:32.716239  6183 net.cpp:439] out5a/relu <- out5a/bn
I0630 22:02:32.716243  6183 net.cpp:400] out5a/relu -> out5a/bn (in-place)
I0630 22:02:32.716245  6183 net.cpp:148] Setting up out5a/relu
I0630 22:02:32.716248  6183 net.cpp:155] Top shape: 4 64 40 40 (409600)
I0630 22:02:32.716249  6183 net.cpp:163] Memory required for data: 794624000
I0630 22:02:32.716251  6183 layer_factory.hpp:77] Creating layer out5a_up2
I0630 22:02:32.716255  6183 net.cpp:98] Creating Layer out5a_up2
I0630 22:02:32.716258  6183 net.cpp:439] out5a_up2 <- out5a/bn
I0630 22:02:32.716259  6183 net.cpp:413] out5a_up2 -> out5a_up2
I0630 22:02:32.716527  6183 net.cpp:148] Setting up out5a_up2
I0630 22:02:32.716532  6183 net.cpp:155] Top shape: 4 64 80 80 (1638400)
I0630 22:02:32.716534  6183 net.cpp:163] Memory required for data: 801177600
I0630 22:02:32.716537  6183 layer_factory.hpp:77] Creating layer out3a
I0630 22:02:32.716542  6183 net.cpp:98] Creating Layer out3a
I0630 22:02:32.716544  6183 net.cpp:439] out3a <- res3a_branch2b/bn_res3a_branch2b/relu_0_split_1
I0630 22:02:32.716547  6183 net.cpp:413] out3a -> out3a
I0630 22:02:32.718616  6183 net.cpp:148] Setting up out3a
I0630 22:02:32.718626  6183 net.cpp:155] Top shape: 4 64 80 80 (1638400)
I0630 22:02:32.718628  6183 net.cpp:163] Memory required for data: 807731200
I0630 22:02:32.718632  6183 layer_factory.hpp:77] Creating layer out3a/bn
I0630 22:02:32.718637  6183 net.cpp:98] Creating Layer out3a/bn
I0630 22:02:32.718641  6183 net.cpp:439] out3a/bn <- out3a
I0630 22:02:32.718644  6183 net.cpp:413] out3a/bn -> out3a/bn
I0630 22:02:32.719415  6183 net.cpp:148] Setting up out3a/bn
I0630 22:02:32.719420  6183 net.cpp:155] Top shape: 4 64 80 80 (1638400)
I0630 22:02:32.719424  6183 net.cpp:163] Memory required for data: 814284800
I0630 22:02:32.719429  6183 layer_factory.hpp:77] Creating layer out3a/relu
I0630 22:02:32.719431  6183 net.cpp:98] Creating Layer out3a/relu
I0630 22:02:32.719434  6183 net.cpp:439] out3a/relu <- out3a/bn
I0630 22:02:32.719435  6183 net.cpp:400] out3a/relu -> out3a/bn (in-place)
I0630 22:02:32.719439  6183 net.cpp:148] Setting up out3a/relu
I0630 22:02:32.719441  6183 net.cpp:155] Top shape: 4 64 80 80 (1638400)
I0630 22:02:32.719444  6183 net.cpp:163] Memory required for data: 820838400
I0630 22:02:32.719445  6183 layer_factory.hpp:77] Creating layer out3_out5_combined
I0630 22:02:32.719449  6183 net.cpp:98] Creating Layer out3_out5_combined
I0630 22:02:32.719450  6183 net.cpp:439] out3_out5_combined <- out5a_up2
I0630 22:02:32.719452  6183 net.cpp:439] out3_out5_combined <- out3a/bn
I0630 22:02:32.719456  6183 net.cpp:413] out3_out5_combined -> out3_out5_combined
I0630 22:02:32.719481  6183 net.cpp:148] Setting up out3_out5_combined
I0630 22:02:32.719485  6183 net.cpp:155] Top shape: 4 64 80 80 (1638400)
I0630 22:02:32.719487  6183 net.cpp:163] Memory required for data: 827392000
I0630 22:02:32.719490  6183 layer_factory.hpp:77] Creating layer ctx_conv1
I0630 22:02:32.719493  6183 net.cpp:98] Creating Layer ctx_conv1
I0630 22:02:32.719496  6183 net.cpp:439] ctx_conv1 <- out3_out5_combined
I0630 22:02:32.719498  6183 net.cpp:413] ctx_conv1 -> ctx_conv1
I0630 22:02:32.720547  6183 net.cpp:148] Setting up ctx_conv1
I0630 22:02:32.720552  6183 net.cpp:155] Top shape: 4 64 80 80 (1638400)
I0630 22:02:32.720554  6183 net.cpp:163] Memory required for data: 833945600
I0630 22:02:32.720557  6183 layer_factory.hpp:77] Creating layer ctx_conv1/bn
I0630 22:02:32.720561  6183 net.cpp:98] Creating Layer ctx_conv1/bn
I0630 22:02:32.720563  6183 net.cpp:439] ctx_conv1/bn <- ctx_conv1
I0630 22:02:32.720566  6183 net.cpp:413] ctx_conv1/bn -> ctx_conv1/bn
I0630 22:02:32.721339  6183 net.cpp:148] Setting up ctx_conv1/bn
I0630 22:02:32.721345  6183 net.cpp:155] Top shape: 4 64 80 80 (1638400)
I0630 22:02:32.721348  6183 net.cpp:163] Memory required for data: 840499200
I0630 22:02:32.721351  6183 layer_factory.hpp:77] Creating layer ctx_conv1/relu
I0630 22:02:32.721354  6183 net.cpp:98] Creating Layer ctx_conv1/relu
I0630 22:02:32.721356  6183 net.cpp:439] ctx_conv1/relu <- ctx_conv1/bn
I0630 22:02:32.721359  6183 net.cpp:400] ctx_conv1/relu -> ctx_conv1/bn (in-place)
I0630 22:02:32.721362  6183 net.cpp:148] Setting up ctx_conv1/relu
I0630 22:02:32.721364  6183 net.cpp:155] Top shape: 4 64 80 80 (1638400)
I0630 22:02:32.721366  6183 net.cpp:163] Memory required for data: 847052800
I0630 22:02:32.721369  6183 layer_factory.hpp:77] Creating layer ctx_conv2
I0630 22:02:32.721375  6183 net.cpp:98] Creating Layer ctx_conv2
I0630 22:02:32.721379  6183 net.cpp:439] ctx_conv2 <- ctx_conv1/bn
I0630 22:02:32.721381  6183 net.cpp:413] ctx_conv2 -> ctx_conv2
I0630 22:02:32.722437  6183 net.cpp:148] Setting up ctx_conv2
I0630 22:02:32.722442  6183 net.cpp:155] Top shape: 4 64 80 80 (1638400)
I0630 22:02:32.722445  6183 net.cpp:163] Memory required for data: 853606400
I0630 22:02:32.722448  6183 layer_factory.hpp:77] Creating layer ctx_conv2/bn
I0630 22:02:32.722451  6183 net.cpp:98] Creating Layer ctx_conv2/bn
I0630 22:02:32.722453  6183 net.cpp:439] ctx_conv2/bn <- ctx_conv2
I0630 22:02:32.722456  6183 net.cpp:413] ctx_conv2/bn -> ctx_conv2/bn
I0630 22:02:32.723242  6183 net.cpp:148] Setting up ctx_conv2/bn
I0630 22:02:32.723248  6183 net.cpp:155] Top shape: 4 64 80 80 (1638400)
I0630 22:02:32.723249  6183 net.cpp:163] Memory required for data: 860160000
I0630 22:02:32.723254  6183 layer_factory.hpp:77] Creating layer ctx_conv2/relu
I0630 22:02:32.723258  6183 net.cpp:98] Creating Layer ctx_conv2/relu
I0630 22:02:32.723259  6183 net.cpp:439] ctx_conv2/relu <- ctx_conv2/bn
I0630 22:02:32.723261  6183 net.cpp:400] ctx_conv2/relu -> ctx_conv2/bn (in-place)
I0630 22:02:32.723264  6183 net.cpp:148] Setting up ctx_conv2/relu
I0630 22:02:32.723266  6183 net.cpp:155] Top shape: 4 64 80 80 (1638400)
I0630 22:02:32.723268  6183 net.cpp:163] Memory required for data: 866713600
I0630 22:02:32.723270  6183 layer_factory.hpp:77] Creating layer ctx_conv3
I0630 22:02:32.723274  6183 net.cpp:98] Creating Layer ctx_conv3
I0630 22:02:32.723276  6183 net.cpp:439] ctx_conv3 <- ctx_conv2/bn
I0630 22:02:32.723280  6183 net.cpp:413] ctx_conv3 -> ctx_conv3
I0630 22:02:32.724333  6183 net.cpp:148] Setting up ctx_conv3
I0630 22:02:32.724337  6183 net.cpp:155] Top shape: 4 64 80 80 (1638400)
I0630 22:02:32.724339  6183 net.cpp:163] Memory required for data: 873267200
I0630 22:02:32.724342  6183 layer_factory.hpp:77] Creating layer ctx_conv3/bn
I0630 22:02:32.724346  6183 net.cpp:98] Creating Layer ctx_conv3/bn
I0630 22:02:32.724349  6183 net.cpp:439] ctx_conv3/bn <- ctx_conv3
I0630 22:02:32.724350  6183 net.cpp:413] ctx_conv3/bn -> ctx_conv3/bn
I0630 22:02:32.725127  6183 net.cpp:148] Setting up ctx_conv3/bn
I0630 22:02:32.725132  6183 net.cpp:155] Top shape: 4 64 80 80 (1638400)
I0630 22:02:32.725134  6183 net.cpp:163] Memory required for data: 879820800
I0630 22:02:32.725139  6183 layer_factory.hpp:77] Creating layer ctx_conv3/relu
I0630 22:02:32.725143  6183 net.cpp:98] Creating Layer ctx_conv3/relu
I0630 22:02:32.725145  6183 net.cpp:439] ctx_conv3/relu <- ctx_conv3/bn
I0630 22:02:32.725148  6183 net.cpp:400] ctx_conv3/relu -> ctx_conv3/bn (in-place)
I0630 22:02:32.725152  6183 net.cpp:148] Setting up ctx_conv3/relu
I0630 22:02:32.725153  6183 net.cpp:155] Top shape: 4 64 80 80 (1638400)
I0630 22:02:32.725155  6183 net.cpp:163] Memory required for data: 886374400
I0630 22:02:32.725157  6183 layer_factory.hpp:77] Creating layer ctx_conv4
I0630 22:02:32.725162  6183 net.cpp:98] Creating Layer ctx_conv4
I0630 22:02:32.725163  6183 net.cpp:439] ctx_conv4 <- ctx_conv3/bn
I0630 22:02:32.725167  6183 net.cpp:413] ctx_conv4 -> ctx_conv4
I0630 22:02:32.726215  6183 net.cpp:148] Setting up ctx_conv4
I0630 22:02:32.726219  6183 net.cpp:155] Top shape: 4 64 80 80 (1638400)
I0630 22:02:32.726228  6183 net.cpp:163] Memory required for data: 892928000
I0630 22:02:32.726233  6183 layer_factory.hpp:77] Creating layer ctx_conv4/bn
I0630 22:02:32.726235  6183 net.cpp:98] Creating Layer ctx_conv4/bn
I0630 22:02:32.726238  6183 net.cpp:439] ctx_conv4/bn <- ctx_conv4
I0630 22:02:32.726240  6183 net.cpp:413] ctx_conv4/bn -> ctx_conv4/bn
I0630 22:02:32.727008  6183 net.cpp:148] Setting up ctx_conv4/bn
I0630 22:02:32.727015  6183 net.cpp:155] Top shape: 4 64 80 80 (1638400)
I0630 22:02:32.727016  6183 net.cpp:163] Memory required for data: 899481600
I0630 22:02:32.727021  6183 layer_factory.hpp:77] Creating layer ctx_conv4/relu
I0630 22:02:32.727023  6183 net.cpp:98] Creating Layer ctx_conv4/relu
I0630 22:02:32.727025  6183 net.cpp:439] ctx_conv4/relu <- ctx_conv4/bn
I0630 22:02:32.727028  6183 net.cpp:400] ctx_conv4/relu -> ctx_conv4/bn (in-place)
I0630 22:02:32.727031  6183 net.cpp:148] Setting up ctx_conv4/relu
I0630 22:02:32.727033  6183 net.cpp:155] Top shape: 4 64 80 80 (1638400)
I0630 22:02:32.727035  6183 net.cpp:163] Memory required for data: 906035200
I0630 22:02:32.727037  6183 layer_factory.hpp:77] Creating layer ctx_final
I0630 22:02:32.727041  6183 net.cpp:98] Creating Layer ctx_final
I0630 22:02:32.727042  6183 net.cpp:439] ctx_final <- ctx_conv4/bn
I0630 22:02:32.727046  6183 net.cpp:413] ctx_final -> ctx_final
I0630 22:02:32.727603  6183 net.cpp:148] Setting up ctx_final
I0630 22:02:32.727608  6183 net.cpp:155] Top shape: 4 20 80 80 (512000)
I0630 22:02:32.727610  6183 net.cpp:163] Memory required for data: 908083200
I0630 22:02:32.727613  6183 layer_factory.hpp:77] Creating layer ctx_final/relu
I0630 22:02:32.727617  6183 net.cpp:98] Creating Layer ctx_final/relu
I0630 22:02:32.727618  6183 net.cpp:439] ctx_final/relu <- ctx_final
I0630 22:02:32.727620  6183 net.cpp:400] ctx_final/relu -> ctx_final (in-place)
I0630 22:02:32.727623  6183 net.cpp:148] Setting up ctx_final/relu
I0630 22:02:32.727627  6183 net.cpp:155] Top shape: 4 20 80 80 (512000)
I0630 22:02:32.727627  6183 net.cpp:163] Memory required for data: 910131200
I0630 22:02:32.727629  6183 layer_factory.hpp:77] Creating layer out_deconv_final_up2
I0630 22:02:32.727633  6183 net.cpp:98] Creating Layer out_deconv_final_up2
I0630 22:02:32.727635  6183 net.cpp:439] out_deconv_final_up2 <- ctx_final
I0630 22:02:32.727638  6183 net.cpp:413] out_deconv_final_up2 -> out_deconv_final_up2
I0630 22:02:32.727898  6183 net.cpp:148] Setting up out_deconv_final_up2
I0630 22:02:32.727902  6183 net.cpp:155] Top shape: 4 20 160 160 (2048000)
I0630 22:02:32.727905  6183 net.cpp:163] Memory required for data: 918323200
I0630 22:02:32.727907  6183 layer_factory.hpp:77] Creating layer out_deconv_final_up4
I0630 22:02:32.727910  6183 net.cpp:98] Creating Layer out_deconv_final_up4
I0630 22:02:32.727912  6183 net.cpp:439] out_deconv_final_up4 <- out_deconv_final_up2
I0630 22:02:32.727916  6183 net.cpp:413] out_deconv_final_up4 -> out_deconv_final_up4
I0630 22:02:32.728173  6183 net.cpp:148] Setting up out_deconv_final_up4
I0630 22:02:32.728178  6183 net.cpp:155] Top shape: 4 20 320 320 (8192000)
I0630 22:02:32.728180  6183 net.cpp:163] Memory required for data: 951091200
I0630 22:02:32.728183  6183 layer_factory.hpp:77] Creating layer out_deconv_final_up8
I0630 22:02:32.728185  6183 net.cpp:98] Creating Layer out_deconv_final_up8
I0630 22:02:32.728188  6183 net.cpp:439] out_deconv_final_up8 <- out_deconv_final_up4
I0630 22:02:32.728190  6183 net.cpp:413] out_deconv_final_up8 -> out_deconv_final_up8
I0630 22:02:32.728442  6183 net.cpp:148] Setting up out_deconv_final_up8
I0630 22:02:32.728447  6183 net.cpp:155] Top shape: 4 20 640 640 (32768000)
I0630 22:02:32.728449  6183 net.cpp:163] Memory required for data: 1082163200
I0630 22:02:32.728452  6183 layer_factory.hpp:77] Creating layer out_deconv_final_up8_out_deconv_final_up8_0_split
I0630 22:02:32.728456  6183 net.cpp:98] Creating Layer out_deconv_final_up8_out_deconv_final_up8_0_split
I0630 22:02:32.728459  6183 net.cpp:439] out_deconv_final_up8_out_deconv_final_up8_0_split <- out_deconv_final_up8
I0630 22:02:32.728468  6183 net.cpp:413] out_deconv_final_up8_out_deconv_final_up8_0_split -> out_deconv_final_up8_out_deconv_final_up8_0_split_0
I0630 22:02:32.728472  6183 net.cpp:413] out_deconv_final_up8_out_deconv_final_up8_0_split -> out_deconv_final_up8_out_deconv_final_up8_0_split_1
I0630 22:02:32.728477  6183 net.cpp:413] out_deconv_final_up8_out_deconv_final_up8_0_split -> out_deconv_final_up8_out_deconv_final_up8_0_split_2
I0630 22:02:32.728533  6183 net.cpp:148] Setting up out_deconv_final_up8_out_deconv_final_up8_0_split
I0630 22:02:32.728538  6183 net.cpp:155] Top shape: 4 20 640 640 (32768000)
I0630 22:02:32.728540  6183 net.cpp:155] Top shape: 4 20 640 640 (32768000)
I0630 22:02:32.728543  6183 net.cpp:155] Top shape: 4 20 640 640 (32768000)
I0630 22:02:32.728544  6183 net.cpp:163] Memory required for data: 1475379200
I0630 22:02:32.728546  6183 layer_factory.hpp:77] Creating layer loss
I0630 22:02:32.728550  6183 net.cpp:98] Creating Layer loss
I0630 22:02:32.728554  6183 net.cpp:439] loss <- out_deconv_final_up8_out_deconv_final_up8_0_split_0
I0630 22:02:32.728555  6183 net.cpp:439] loss <- label_data_1_split_0
…
