…
I0711 21:56:26.133332 13090 net.cpp:327] The NetState phase (0) differed from the phase (1) specified by a rule in layer accuracy/top5
I0711 21:56:26.134222 13090 net.cpp:56] Initializing net from parameters: 
name: "jsegnet21v2_train"
state {
  phase: TRAIN
}
layer {
  name: "data"
  type: "ImageLabelData"
  top: "data"
  top: "label"
  transform_param {
    mirror: true
    crop_size: 640
    mean_value: 0
  }
  image_label_data_param {
    image_list_path: "data/train-image-lmdb"
    label_list_path: "data/train-label-lmdb"
    batch_size: 5
    shuffle: false
    threads: 4
    backend: LMDB
  }
}
layer {
  name: "data/bias"
  type: "Bias"
  bottom: "data"
  top: "data/bias"
  param {
    lr_mult: 0
    decay_mult: 0
  }
  bias_param {
    filler {
      type: "constant"
      value: -128
    }
  }
}
layer {
  name: "conv1a"
  type: "Convolution"
  bottom: "data/bias"
  top: "conv1a"
  param {
    lr_mult: 1
    decay_mult: 1
  }
  param {
    lr_mult: 2
    decay_mult: 0
  }
  convolution_param {
    num_output: 32
    bias_term: true
    pad: 2
    kernel_size: 5
    group: 1
    stride: 2
    weight_filler {
      type: "msra"
    }
    bias_filler {
      type: "constant"
      value: 0
    }
    dilation: 1
  }
}
layer {
  name: "conv1a/bn"
  type: "BatchNorm"
  bottom: "conv1a"
  top: "conv1a/bn"
  param {
    lr_mult: 1
    decay_mult: 1
  }
  param {
    lr_mult: 1
    decay_mult: 1
  }
  param {
    lr_mult: 0
    decay_mult: 0
  }
  param {
    lr_mult: 0
    decay_mult: 0
  }
  batch_norm_param {
    moving_average_fraction: 0.99
    eps: 0.0001
    scale_filler {
      type: "constant"
      value: 1
    }
    bias_filler {
      type: "constant"
      value: 0
    }
  }
}
layer {
  name: "conv1a/relu"
  type: "ReLU"
  bottom: "conv1a/bn"
  top: "conv1a/bn"
}
layer {
  name: "conv1b"
  type: "Convolution"
  bottom: "conv1a/bn"
  top: "conv1b"
  param {
    lr_mult: 1
    decay_mult: 1
  }
  param {
    lr_mult: 2
    decay_mult: 0
  }
  convolution_param {
    num_output: 32
    bias_term: true
    pad: 1
    kernel_size: 3
    group: 4
    stride: 1
    weight_filler {
      type: "msra"
    }
    bias_filler {
      type: "constant"
      value: 0
    }
    dilation: 1
  }
}
layer {
  name: "conv1b/bn"
  type: "BatchNorm"
  bottom: "conv1b"
  top: "conv1b/bn"
  param {
    lr_mult: 1
    decay_mult: 1
  }
  param {
    lr_mult: 1
    decay_mult: 1
  }
  param {
    lr_mult: 0
    decay_mult: 0
  }
  param {
    lr_mult: 0
    decay_mult: 0
  }
  batch_norm_param {
    moving_average_fraction: 0.99
    eps: 0.0001
    scale_filler {
      type: "constant"
      value: 1
    }
    bias_filler {
      type: "constant"
      value: 0
    }
  }
}
layer {
  name: "conv1b/relu"
  type: "ReLU"
  bottom: "conv1b/bn"
  top: "conv1b/bn"
}
layer {
  name: "pool1"
  type: "Pooling"
  bottom: "conv1b/bn"
  top: "pool1"
  pooling_param {
    pool: MAX
    kernel_size: 2
    stride: 2
  }
}
layer {
  name: "res2a_branch2a"
  type: "Convolution"
  bottom: "pool1"
  top: "res2a_branch2a"
  param {
    lr_mult: 1
    decay_mult: 1
  }
  param {
    lr_mult: 2
    decay_mult: 0
  }
  convolution_param {
    num_output: 64
    bias_term: true
    pad: 1
    kernel_size: 3
    group: 1
    stride: 1
    weight_filler {
      type: "msra"
    }
    bias_filler {
      type: "constant"
      value: 0
    }
    dilation: 1
  }
}
layer {
  name: "res2a_branch2a/bn"
  type: "BatchNorm"
  bottom: "res2a_branch2a"
  top: "res2a_branch2a/bn"
  param {
    lr_mult: 1
    decay_mult: 1
  }
  param {
    lr_mult: 1
    decay_mult: 1
  }
  param {
    lr_mult: 0
    decay_mult: 0
  }
  param {
    lr_mult: 0
    decay_mult: 0
  }
  batch_norm_param {
    moving_average_fraction: 0.99
    eps: 0.0001
    scale_filler {
      type: "constant"
      value: 1
    }
    bias_filler {
      type: "constant"
      value: 0
    }
  }
}
layer {
  name: "res2a_branch2a/relu"
  type: "ReLU"
  bottom: "res2a_branch2a/bn"
  top: "res2a_branch2a/bn"
}
layer {
  name: "res2a_branch2b"
  type: "Convolution"
  bottom: "res2a_branch2a/bn"
  top: "res2a_branch2b"
  param {
    lr_mult: 1
    decay_mult: 1
  }
  param {
    lr_mult: 2
    decay_mult: 0
  }
  convolution_param {
    num_output: 64
    bias_term: true
    pad: 1
    kernel_size: 3
    group: 4
    stride: 1
    weight_filler {
      type: "msra"
    }
    bias_filler {
      type: "constant"
      value: 0
    }
    dilation: 1
  }
}
layer {
  name: "res2a_branch2b/bn"
  type: "BatchNorm"
  bottom: "res2a_branch2b"
  top: "res2a_branch2b/bn"
  param {
    lr_mult: 1
    decay_mult: 1
  }
  param {
    lr_mult: 1
    decay_mult: 1
  }
  param {
    lr_mult: 0
    decay_mult: 0
  }
  param {
    lr_mult: 0
    decay_mult: 0
  }
  batch_norm_param {
    moving_average_fraction: 0.99
    eps: 0.0001
    scale_filler {
      type: "constant"
      value: 1
    }
    bias_filler {
      type: "constant"
      value: 0
    }
  }
}
layer {
  name: "res2a_branch2b/relu"
  type: "ReLU"
  bottom: "res2a_branch2b/bn"
  top: "res2a_branch2b/bn"
}
layer {
  name: "pool2"
  type: "Pooling"
  bottom: "res2a_branch2b/bn"
  top: "pool2"
  pooling_param {
    pool: MAX
    kernel_size: 2
    stride: 2
  }
}
layer {
  name: "res3a_branch2a"
  type: "Convolution"
  bottom: "pool2"
  top: "res3a_branch2a"
  param {
    lr_mult: 1
    decay_mult: 1
  }
  param {
    lr_mult: 2
    decay_mult: 0
  }
  convolution_param {
    num_output: 128
    bias_term: true
    pad: 1
    kernel_size: 3
    group: 1
    stride: 1
    weight_filler {
      type: "msra"
    }
    bias_filler {
      type: "constant"
      value: 0
    }
    dilation: 1
  }
}
layer {
  name: "res3a_branch2a/bn"
  type: "BatchNorm"
  bottom: "res3a_branch2a"
  top: "res3a_branch2a/bn"
  param {
    lr_mult: 1
    decay_mult: 1
  }
  param {
    lr_mult: 1
    decay_mult: 1
  }
  param {
    lr_mult: 0
    decay_mult: 0
  }
  param {
    lr_mult: 0
    decay_mult: 0
  }
  batch_norm_param {
    moving_average_fraction: 0.99
    eps: 0.0001
    scale_filler {
      type: "constant"
      value: 1
    }
    bias_filler {
      type: "constant"
      value: 0
    }
  }
}
layer {
  name: "res3a_branch2a/relu"
  type: "ReLU"
  bottom: "res3a_branch2a/bn"
  top: "res3a_branch2a/bn"
}
layer {
  name: "res3a_branch2b"
  type: "Convolution"
  bottom: "res3a_branch2a/bn"
  top: "res3a_branch2b"
  param {
    lr_mult: 1
    decay_mult: 1
  }
  param {
    lr_mult: 2
    decay_mult: 0
  }
  convolution_param {
    num_output: 128
    bias_term: true
    pad: 1
    kernel_size: 3
    group: 4
    stride: 1
    weight_filler {
      type: "msra"
    }
    bias_filler {
      type: "constant"
      value: 0
    }
    dilation: 1
  }
}
layer {
  name: "res3a_branch2b/bn"
  type: "BatchNorm"
  bottom: "res3a_branch2b"
  top: "res3a_branch2b/bn"
  param {
    lr_mult: 1
    decay_mult: 1
  }
  param {
    lr_mult: 1
    decay_mult: 1
  }
  param {
    lr_mult: 0
    decay_mult: 0
  }
  param {
    lr_mult: 0
    decay_mult: 0
  }
  batch_norm_param {
    moving_average_fraction: 0.99
    eps: 0.0001
    scale_filler {
      type: "constant"
      value: 1
    }
    bias_filler {
      type: "constant"
      value: 0
    }
  }
}
layer {
  name: "res3a_branch2b/relu"
  type: "ReLU"
  bottom: "res3a_branch2b/bn"
  top: "res3a_branch2b/bn"
}
layer {
  name: "pool3"
  type: "Pooling"
  bottom: "res3a_branch2b/bn"
  top: "pool3"
  pooling_param {
    pool: MAX
    kernel_size: 2
    stride: 2
  }
}
layer {
  name: "res4a_branch2a"
  type: "Convolution"
  bottom: "pool3"
  top: "res4a_branch2a"
  param {
    lr_mult: 1
    decay_mult: 1
  }
  param {
    lr_mult: 2
    decay_mult: 0
  }
  convolution_param {
    num_output: 256
    bias_term: true
    pad: 1
    kernel_size: 3
    group: 1
    stride: 1
    weight_filler {
      type: "msra"
    }
    bias_filler {
      type: "constant"
      value: 0
    }
    dilation: 1
  }
}
layer {
  name: "res4a_branch2a/bn"
  type: "BatchNorm"
  bottom: "res4a_branch2a"
  top: "res4a_branch2a/bn"
  param {
    lr_mult: 1
    decay_mult: 1
  }
  param {
    lr_mult: 1
    decay_mult: 1
  }
  param {
    lr_mult: 0
    decay_mult: 0
  }
  param {
    lr_mult: 0
    decay_mult: 0
  }
  batch_norm_param {
    moving_average_fraction: 0.99
    eps: 0.0001
    scale_filler {
      type: "constant"
      value: 1
    }
    bias_filler {
      type: "constant"
      value: 0
    }
  }
}
layer {
  name: "res4a_branch2a/relu"
  type: "ReLU"
  bottom: "res4a_branch2a/bn"
  top: "res4a_branch2a/bn"
}
layer {
  name: "res4a_branch2b"
  type: "Convolution"
  bottom: "res4a_branch2a/bn"
  top: "res4a_branch2b"
  param {
    lr_mult: 1
    decay_mult: 1
  }
  param {
    lr_mult: 2
    decay_mult: 0
  }
  convolution_param {
    num_output: 256
    bias_term: true
    pad: 1
    kernel_size: 3
    group: 4
    stride: 1
    weight_filler {
      type: "msra"
    }
    bias_filler {
      type: "constant"
      value: 0
    }
    dilation: 1
  }
}
layer {
  name: "res4a_branch2b/bn"
  type: "BatchNorm"
  bottom: "res4a_branch2b"
  top: "res4a_branch2b/bn"
  param {
    lr_mult: 1
    decay_mult: 1
  }
  param {
    lr_mult: 1
    decay_mult: 1
  }
  param {
    lr_mult: 0
    decay_mult: 0
  }
  param {
    lr_mult: 0
    decay_mult: 0
  }
  batch_norm_param {
    moving_average_fraction: 0.99
    eps: 0.0001
    scale_filler {
      type: "constant"
      value: 1
    }
    bias_filler {
      type: "constant"
      value: 0
    }
  }
}
layer {
  name: "res4a_branch2b/relu"
  type: "ReLU"
  bottom: "res4a_branch2b/bn"
  top: "res4a_branch2b/bn"
}
layer {
  name: "pool4"
  type: "Pooling"
  bottom: "res4a_branch2b/bn"
  top: "pool4"
  pooling_param {
    pool: MAX
    kernel_size: 1
    stride: 1
  }
}
layer {
  name: "res5a_branch2a"
  type: "Convolution"
  bottom: "pool4"
  top: "res5a_branch2a"
  param {
    lr_mult: 1
    decay_mult: 1
  }
  param {
    lr_mult: 2
    decay_mult: 0
  }
  convolution_param {
    num_output: 512
    bias_term: true
    pad: 2
    kernel_size: 3
    group: 1
    stride: 1
    weight_filler {
      type: "msra"
    }
    bias_filler {
      type: "constant"
      value: 0
    }
    dilation: 2
  }
}
layer {
  name: "res5a_branch2a/bn"
  type: "BatchNorm"
  bottom: "res5a_branch2a"
  top: "res5a_branch2a/bn"
  param {
    lr_mult: 1
    decay_mult: 1
  }
  param {
    lr_mult: 1
    decay_mult: 1
  }
  param {
    lr_mult: 0
    decay_mult: 0
  }
  param {
    lr_mult: 0
    decay_mult: 0
  }
  batch_norm_param {
    moving_average_fraction: 0.99
    eps: 0.0001
    scale_filler {
      type: "constant"
      value: 1
    }
    bias_filler {
      type: "constant"
      value: 0
    }
  }
}
layer {
  name: "res5a_branch2a/relu"
  type: "ReLU"
  bottom: "res5a_branch2a/bn"
  top: "res5a_branch2a/bn"
}
layer {
  name: "res5a_branch2b"
  type: "Convolution"
  bottom: "res5a_branch2a/bn"
  top: "res5a_branch2b"
  param {
    lr_mult: 1
    decay_mult: 1
  }
  param {
    lr_mult: 2
    decay_mult: 0
  }
  convolution_param {
    num_output: 512
    bias_term: true
    pad: 2
    kernel_size: 3
    group: 4
    stride: 1
    weight_filler {
      type: "msra"
    }
    bias_filler {
      type: "constant"
      value: 0
    }
    dilation: 2
  }
}
layer {
  name: "res5a_branch2b/bn"
  type: "BatchNorm"
  bottom: "res5a_branch2b"
  top: "res5a_branch2b/bn"
  param {
    lr_mult: 1
    decay_mult: 1
  }
  param {
    lr_mult: 1
    decay_mult: 1
  }
  param {
    lr_mult: 0
    decay_mult: 0
  }
  param {
    lr_mult: 0
    decay_mult: 0
  }
  batch_norm_param {
    moving_average_fraction: 0.99
    eps: 0.0001
    scale_filler {
      type: "constant"
      value: 1
    }
    bias_filler {
      type: "constant"
      value: 0
    }
  }
}
layer {
  name: "res5a_branch2b/relu"
  type: "ReLU"
  bottom: "res5a_branch2b/bn"
  top: "res5a_branch2b/bn"
}
layer {
  name: "out5a"
  type: "Convolution"
  bottom: "res5a_branch2b/bn"
  top: "out5a"
  param {
    lr_mult: 1
    decay_mult: 1
  }
  param {
    lr_mult: 2
    decay_mult: 0
  }
  convolution_param {
    num_output: 64
    bias_term: true
    pad: 4
    kernel_size: 3
    group: 2
    stride: 1
    weight_filler {
      type: "msra"
    }
    bias_filler {
      type: "constant"
      value: 0
    }
    dilation: 4
  }
}
layer {
  name: "out5a/bn"
  type: "BatchNorm"
  bottom: "out5a"
  top: "out5a/bn"
  param {
    lr_mult: 1
    decay_mult: 1
  }
  param {
    lr_mult: 1
    decay_mult: 1
  }
  param {
    lr_mult: 0
    decay_mult: 0
  }
  param {
    lr_mult: 0
    decay_mult: 0
  }
  batch_norm_param {
    moving_average_fraction: 0.99
    eps: 0.0001
    scale_filler {
      type: "constant"
      value: 1
    }
    bias_filler {
      type: "constant"
      value: 0
    }
  }
}
layer {
  name: "out5a/relu"
  type: "ReLU"
  bottom: "out5a/bn"
  top: "out5a/bn"
}
layer {
  name: "out5a_up2"
  type: "Deconvolution"
  bottom: "out5a/bn"
  top: "out5a_up2"
  param {
    lr_mult: 0
    decay_mult: 0
  }
  convolution_param {
    num_output: 64
    bias_term: false
    pad: 1
    kernel_size: 4
    group: 64
    stride: 2
    weight_filler {
      type: "bilinear"
    }
  }
}
layer {
  name: "out3a"
  type: "Convolution"
  bottom: "res3a_branch2b/bn"
  top: "out3a"
  param {
    lr_mult: 1
    decay_mult: 1
  }
  param {
    lr_mult: 2
    decay_mult: 0
  }
  convolution_param {
    num_output: 64
    bias_term: true
    pad: 1
    kernel_size: 3
    group: 2
    stride: 1
    weight_filler {
      type: "msra"
    }
    bias_filler {
      type: "constant"
      value: 0
    }
    dilation: 1
  }
}
layer {
  name: "out3a/bn"
  type: "BatchNorm"
  bottom: "out3a"
  top: "out3a/bn"
  param {
    lr_mult: 1
    decay_mult: 1
  }
  param {
    lr_mult: 1
    decay_mult: 1
  }
  param {
    lr_mult: 0
    decay_mult: 0
  }
  param {
    lr_mult: 0
    decay_mult: 0
  }
  batch_norm_param {
    moving_average_fraction: 0.99
    eps: 0.0001
    scale_filler {
      type: "constant"
      value: 1
    }
    bias_filler {
      type: "constant"
      value: 0
    }
  }
}
layer {
  name: "out3a/relu"
  type: "ReLU"
  bottom: "out3a/bn"
  top: "out3a/bn"
}
layer {
  name: "out3_out5_combined"
  type: "Eltwise"
  bottom: "out5a_up2"
  bottom: "out3a/bn"
  top: "out3_out5_combined"
}
layer {
  name: "ctx_conv1"
  type: "Convolution"
  bottom: "out3_out5_combined"
  top: "ctx_conv1"
  param {
    lr_mult: 1
    decay_mult: 1
  }
  param {
    lr_mult: 2
    decay_mult: 0
  }
  convolution_param {
    num_output: 64
    bias_term: true
    pad: 1
    kernel_size: 3
    group: 1
    stride: 1
    weight_filler {
      type: "msra"
    }
    bias_filler {
      type: "constant"
      value: 0
    }
    dilation: 1
  }
}
layer {
  name: "ctx_conv1/bn"
  type: "BatchNorm"
  bottom: "ctx_conv1"
  top: "ctx_conv1/bn"
  param {
    lr_mult: 1
    decay_mult: 1
  }
  param {
    lr_mult: 1
    decay_mult: 1
  }
  param {
    lr_mult: 0
    decay_mult: 0
  }
  param {
    lr_mult: 0
    decay_mult: 0
  }
  batch_norm_param {
    moving_average_fraction: 0.99
    eps: 0.0001
    scale_filler {
      type: "constant"
      value: 1
    }
    bias_filler {
      type: "constant"
      value: 0
    }
  }
}
layer {
  name: "ctx_conv1/relu"
  type: "ReLU"
  bottom: "ctx_conv1/bn"
  top: "ctx_conv1/bn"
}
layer {
  name: "ctx_conv2"
  type: "Convolution"
  bottom: "ctx_conv1/bn"
  top: "ctx_conv2"
  param {
    lr_mult: 1
    decay_mult: 1
  }
  param {
    lr_mult: 2
    decay_mult: 0
  }
  convolution_param {
    num_output: 64
    bias_term: true
    pad: 4
    kernel_size: 3
    group: 1
    stride: 1
    weight_filler {
      type: "msra"
    }
    bias_filler {
      type: "constant"
      value: 0
    }
    dilation: 4
  }
}
layer {
  name: "ctx_conv2/bn"
  type: "BatchNorm"
  bottom: "ctx_conv2"
  top: "ctx_conv2/bn"
  param {
    lr_mult: 1
    decay_mult: 1
  }
  param {
    lr_mult: 1
    decay_mult: 1
  }
  param {
    lr_mult: 0
    decay_mult: 0
  }
  param {
    lr_mult: 0
    decay_mult: 0
  }
  batch_norm_param {
    moving_average_fraction: 0.99
    eps: 0.0001
    scale_filler {
      type: "constant"
      value: 1
    }
    bias_filler {
      type: "constant"
      value: 0
    }
  }
}
layer {
  name: "ctx_conv2/relu"
  type: "ReLU"
  bottom: "ctx_conv2/bn"
  top: "ctx_conv2/bn"
}
layer {
  name: "ctx_conv3"
  type: "Convolution"
  bottom: "ctx_conv2/bn"
  top: "ctx_conv3"
  param {
    lr_mult: 1
    decay_mult: 1
  }
  param {
    lr_mult: 2
    decay_mult: 0
  }
  convolution_param {
    num_output: 64
    bias_term: true
    pad: 4
    kernel_size: 3
    group: 1
    stride: 1
    weight_filler {
      type: "msra"
    }
    bias_filler {
      type: "constant"
      value: 0
    }
    dilation: 4
  }
}
layer {
  name: "ctx_conv3/bn"
  type: "BatchNorm"
  bottom: "ctx_conv3"
  top: "ctx_conv3/bn"
  param {
    lr_mult: 1
    decay_mult: 1
  }
  param {
    lr_mult: 1
    decay_mult: 1
  }
  param {
    lr_mult: 0
    decay_mult: 0
  }
  param {
    lr_mult: 0
    decay_mult: 0
  }
  batch_norm_param {
    moving_average_fraction: 0.99
    eps: 0.0001
    scale_filler {
      type: "constant"
      value: 1
    }
    bias_filler {
      type: "constant"
      value: 0
    }
  }
}
layer {
  name: "ctx_conv3/relu"
  type: "ReLU"
  bottom: "ctx_conv3/bn"
  top: "ctx_conv3/bn"
}
layer {
  name: "ctx_conv4"
  type: "Convolution"
  bottom: "ctx_conv3/bn"
  top: "ctx_conv4"
  param {
    lr_mult: 1
    decay_mult: 1
  }
  param {
    lr_mult: 2
    decay_mult: 0
  }
  convolution_param {
    num_output: 64
    bias_term: true
    pad: 4
    kernel_size: 3
    group: 1
    stride: 1
    weight_filler {
      type: "msra"
    }
    bias_filler {
      type: "constant"
      value: 0
    }
    dilation: 4
  }
}
layer {
  name: "ctx_conv4/bn"
  type: "BatchNorm"
  bottom: "ctx_conv4"
  top: "ctx_conv4/bn"
  param {
    lr_mult: 1
    decay_mult: 1
  }
  param {
    lr_mult: 1
    decay_mult: 1
  }
  param {
    lr_mult: 0
    decay_mult: 0
  }
  param {
    lr_mult: 0
    decay_mult: 0
  }
  batch_norm_param {
    moving_average_fraction: 0.99
    eps: 0.0001
    scale_filler {
      type: "constant"
      value: 1
    }
    bias_filler {
      type: "constant"
      value: 0
    }
  }
}
layer {
  name: "ctx_conv4/relu"
  type: "ReLU"
  bottom: "ctx_conv4/bn"
  top: "ctx_conv4/bn"
}
layer {
  name: "ctx_final"
  type: "Convolution"
  bottom: "ctx_conv4/bn"
  top: "ctx_final"
  param {
    lr_mult: 1
    decay_mult: 1
  }
  param {
    lr_mult: 2
    decay_mult: 0
  }
  convolution_param {
    num_output: 8
    bias_term: true
    pad: 1
    kernel_size: 3
    kernel_size: 3
    group: 1
    stride: 1
    weight_filler {
      type: "msra"
    }
    bias_filler {
      type: "constant"
      value: 0
    }
    dilation: 1
  }
}
layer {
  name: "ctx_final/relu"
  type: "ReLU"
  bottom: "ctx_final"
  top: "ctx_final"
}
layer {
  name: "out_deconv_final_up2"
  type: "Deconvolution"
  bottom: "ctx_final"
  top: "out_deconv_final_up2"
  param {
    lr_mult: 0
    decay_mult: 0
  }
  convolution_param {
    num_output: 8
    bias_term: false
    pad: 1
    kernel_size: 4
    group: 8
    stride: 2
    weight_filler {
      type: "bilinear"
    }
  }
}
layer {
  name: "out_deconv_final_up4"
  type: "Deconvolution"
  bottom: "out_deconv_final_up2"
  top: "out_deconv_final_up4"
  param {
    lr_mult: 0
    decay_mult: 0
  }
  convolution_param {
    num_output: 8
    bias_term: false
    pad: 1
    kernel_size: 4
    group: 8
    stride: 2
    weight_filler {
      type: "bilinear"
    }
  }
}
layer {
  name: "out_deconv_final_up8"
  type: "Deconvolution"
  bottom: "out_deconv_final_up4"
  top: "out_deconv_final_up8"
  param {
    lr_mult: 0
    decay_mult: 0
  }
  convolution_param {
    num_output: 8
    bias_term: false
    pad: 1
    kernel_size: 4
    group: 8
    stride: 2
    weight_filler {
      type: "bilinear"
    }
  }
}
layer {
  name: "loss"
  type: "SoftmaxWithLoss"
  bottom: "out_deconv_final_up8"
  bottom: "label"
  top: "loss"
  propagate_down: true
  propagate_down: false
  loss_param {
    ignore_label: 255
    normalization: VALID
  }
}
I0711 21:56:26.142734 13090 layer_factory.hpp:77] Creating layer data
I0711 21:56:26.142781 13090 net.cpp:98] Creating Layer data
I0711 21:56:26.142802 13090 net.cpp:413] data -> data
I0711 21:56:26.142856 13090 net.cpp:413] data -> label
I0711 21:56:26.161072 13154 db_lmdb.cpp:35] Opened lmdb data/train-image-lmdb
I0711 21:56:26.161672 13159 db_lmdb.cpp:35] Opened lmdb data/train-label-lmdb
I0711 21:56:26.169936 13090 data_layer.cpp:78] ReshapePrefetch 5, 3, 640, 640
I0711 21:56:26.170123 13090 data_layer.cpp:83] output data size: 5,3,640,640
I0711 21:56:26.212430 13090 data_layer.cpp:78] ReshapePrefetch 5, 1, 640, 640
I0711 21:56:26.212502 13090 data_layer.cpp:83] output data size: 5,1,640,640
I0711 21:56:26.219228 13164 blocking_queue.cpp:50] Waiting for data
I0711 21:56:26.225298 13090 net.cpp:148] Setting up data
I0711 21:56:26.225318 13090 net.cpp:155] Top shape: 5 3 640 640 (6144000)
I0711 21:56:26.225322 13090 net.cpp:155] Top shape: 5 1 640 640 (2048000)
I0711 21:56:26.225323 13090 net.cpp:163] Memory required for data: 32768000
I0711 21:56:26.225329 13090 layer_factory.hpp:77] Creating layer data/bias
I0711 21:56:26.225337 13090 net.cpp:98] Creating Layer data/bias
I0711 21:56:26.225342 13090 net.cpp:439] data/bias <- data
I0711 21:56:26.225349 13090 net.cpp:413] data/bias -> data/bias
I0711 21:56:26.226560 13090 net.cpp:148] Setting up data/bias
I0711 21:56:26.226572 13090 net.cpp:155] Top shape: 5 3 640 640 (6144000)
I0711 21:56:26.226573 13090 net.cpp:163] Memory required for data: 57344000
I0711 21:56:26.226583 13090 layer_factory.hpp:77] Creating layer conv1a
I0711 21:56:26.226598 13090 net.cpp:98] Creating Layer conv1a
I0711 21:56:26.226600 13090 net.cpp:439] conv1a <- data/bias
I0711 21:56:26.226604 13090 net.cpp:413] conv1a -> conv1a
I0711 21:56:26.229665 13090 net.cpp:148] Setting up conv1a
I0711 21:56:26.229681 13090 net.cpp:155] Top shape: 5 32 320 320 (16384000)
I0711 21:56:26.229684 13090 net.cpp:163] Memory required for data: 122880000
I0711 21:56:26.229691 13090 layer_factory.hpp:77] Creating layer conv1a/bn
I0711 21:56:26.229696 13090 net.cpp:98] Creating Layer conv1a/bn
I0711 21:56:26.229699 13090 net.cpp:439] conv1a/bn <- conv1a
I0711 21:56:26.229702 13090 net.cpp:413] conv1a/bn -> conv1a/bn
I0711 21:56:26.231371 13090 net.cpp:148] Setting up conv1a/bn
I0711 21:56:26.231380 13090 net.cpp:155] Top shape: 5 32 320 320 (16384000)
I0711 21:56:26.231384 13090 net.cpp:163] Memory required for data: 188416000
I0711 21:56:26.231389 13090 layer_factory.hpp:77] Creating layer conv1a/relu
I0711 21:56:26.242259 13090 net.cpp:98] Creating Layer conv1a/relu
I0711 21:56:26.242269 13090 net.cpp:439] conv1a/relu <- conv1a/bn
I0711 21:56:26.242271 13090 net.cpp:400] conv1a/relu -> conv1a/bn (in-place)
I0711 21:56:26.242280 13090 net.cpp:148] Setting up conv1a/relu
I0711 21:56:26.242283 13090 net.cpp:155] Top shape: 5 32 320 320 (16384000)
I0711 21:56:26.242285 13090 net.cpp:163] Memory required for data: 253952000
I0711 21:56:26.242287 13090 layer_factory.hpp:77] Creating layer conv1b
I0711 21:56:26.242303 13090 net.cpp:98] Creating Layer conv1b
I0711 21:56:26.242306 13090 net.cpp:439] conv1b <- conv1a/bn
I0711 21:56:26.242308 13090 net.cpp:413] conv1b -> conv1b
I0711 21:56:26.242678 13090 net.cpp:148] Setting up conv1b
I0711 21:56:26.242684 13090 net.cpp:155] Top shape: 5 32 320 320 (16384000)
I0711 21:56:26.242686 13090 net.cpp:163] Memory required for data: 319488000
I0711 21:56:26.242691 13090 layer_factory.hpp:77] Creating layer conv1b/bn
I0711 21:56:26.242696 13090 net.cpp:98] Creating Layer conv1b/bn
I0711 21:56:26.242697 13090 net.cpp:439] conv1b/bn <- conv1b
I0711 21:56:26.242702 13090 net.cpp:413] conv1b/bn -> conv1b/bn
I0711 21:56:26.243401 13090 net.cpp:148] Setting up conv1b/bn
I0711 21:56:26.243407 13090 net.cpp:155] Top shape: 5 32 320 320 (16384000)
I0711 21:56:26.243409 13090 net.cpp:163] Memory required for data: 385024000
I0711 21:56:26.243413 13090 layer_factory.hpp:77] Creating layer conv1b/relu
I0711 21:56:26.243417 13090 net.cpp:98] Creating Layer conv1b/relu
I0711 21:56:26.243418 13090 net.cpp:439] conv1b/relu <- conv1b/bn
I0711 21:56:26.243420 13090 net.cpp:400] conv1b/relu -> conv1b/bn (in-place)
I0711 21:56:26.243424 13090 net.cpp:148] Setting up conv1b/relu
I0711 21:56:26.243427 13090 net.cpp:155] Top shape: 5 32 320 320 (16384000)
I0711 21:56:26.243428 13090 net.cpp:163] Memory required for data: 450560000
I0711 21:56:26.243430 13090 layer_factory.hpp:77] Creating layer pool1
I0711 21:56:26.243438 13090 net.cpp:98] Creating Layer pool1
I0711 21:56:26.243440 13090 net.cpp:439] pool1 <- conv1b/bn
I0711 21:56:26.243443 13090 net.cpp:413] pool1 -> pool1
I0711 21:56:26.246986 13090 net.cpp:148] Setting up pool1
I0711 21:56:26.247036 13090 net.cpp:155] Top shape: 5 32 160 160 (4096000)
I0711 21:56:26.247050 13090 net.cpp:163] Memory required for data: 466944000
I0711 21:56:26.247061 13090 layer_factory.hpp:77] Creating layer res2a_branch2a
I0711 21:56:26.247090 13090 net.cpp:98] Creating Layer res2a_branch2a
I0711 21:56:26.247102 13090 net.cpp:439] res2a_branch2a <- pool1
I0711 21:56:26.247123 13090 net.cpp:413] res2a_branch2a -> res2a_branch2a
I0711 21:56:26.253763 13090 net.cpp:148] Setting up res2a_branch2a
I0711 21:56:26.253808 13090 net.cpp:155] Top shape: 5 64 160 160 (8192000)
I0711 21:56:26.253819 13090 net.cpp:163] Memory required for data: 499712000
I0711 21:56:26.253844 13090 layer_factory.hpp:77] Creating layer res2a_branch2a/bn
I0711 21:56:26.253864 13090 net.cpp:98] Creating Layer res2a_branch2a/bn
I0711 21:56:26.253875 13090 net.cpp:439] res2a_branch2a/bn <- res2a_branch2a
I0711 21:56:26.253901 13090 net.cpp:413] res2a_branch2a/bn -> res2a_branch2a/bn
I0711 21:56:26.256338 13090 net.cpp:148] Setting up res2a_branch2a/bn
I0711 21:56:26.256359 13090 net.cpp:155] Top shape: 5 64 160 160 (8192000)
I0711 21:56:26.256367 13090 net.cpp:163] Memory required for data: 532480000
I0711 21:56:26.256383 13090 layer_factory.hpp:77] Creating layer res2a_branch2a/relu
I0711 21:56:26.256393 13090 net.cpp:98] Creating Layer res2a_branch2a/relu
I0711 21:56:26.256402 13090 net.cpp:439] res2a_branch2a/relu <- res2a_branch2a/bn
I0711 21:56:26.256409 13090 net.cpp:400] res2a_branch2a/relu -> res2a_branch2a/bn (in-place)
I0711 21:56:26.256423 13090 net.cpp:148] Setting up res2a_branch2a/relu
I0711 21:56:26.256433 13090 net.cpp:155] Top shape: 5 64 160 160 (8192000)
I0711 21:56:26.256439 13090 net.cpp:163] Memory required for data: 565248000
I0711 21:56:26.256446 13090 layer_factory.hpp:77] Creating layer res2a_branch2b
I0711 21:56:26.256458 13090 net.cpp:98] Creating Layer res2a_branch2b
I0711 21:56:26.256467 13090 net.cpp:439] res2a_branch2b <- res2a_branch2a/bn
I0711 21:56:26.256476 13090 net.cpp:413] res2a_branch2b -> res2a_branch2b
I0711 21:56:26.260087 13090 net.cpp:148] Setting up res2a_branch2b
I0711 21:56:26.260108 13090 net.cpp:155] Top shape: 5 64 160 160 (8192000)
I0711 21:56:26.260114 13090 net.cpp:163] Memory required for data: 598016000
I0711 21:56:26.260124 13090 layer_factory.hpp:77] Creating layer res2a_branch2b/bn
I0711 21:56:26.260133 13090 net.cpp:98] Creating Layer res2a_branch2b/bn
I0711 21:56:26.260157 13090 net.cpp:439] res2a_branch2b/bn <- res2a_branch2b
I0711 21:56:26.260166 13090 net.cpp:413] res2a_branch2b/bn -> res2a_branch2b/bn
I0711 21:56:26.261951 13090 net.cpp:148] Setting up res2a_branch2b/bn
I0711 21:56:26.261968 13090 net.cpp:155] Top shape: 5 64 160 160 (8192000)
I0711 21:56:26.261975 13090 net.cpp:163] Memory required for data: 630784000
I0711 21:56:26.261986 13090 layer_factory.hpp:77] Creating layer res2a_branch2b/relu
I0711 21:56:26.261994 13090 net.cpp:98] Creating Layer res2a_branch2b/relu
I0711 21:56:26.262001 13090 net.cpp:439] res2a_branch2b/relu <- res2a_branch2b/bn
I0711 21:56:26.262006 13090 net.cpp:400] res2a_branch2b/relu -> res2a_branch2b/bn (in-place)
I0711 21:56:26.262020 13090 net.cpp:148] Setting up res2a_branch2b/relu
I0711 21:56:26.262029 13090 net.cpp:155] Top shape: 5 64 160 160 (8192000)
I0711 21:56:26.262033 13090 net.cpp:163] Memory required for data: 663552000
I0711 21:56:26.262039 13090 layer_factory.hpp:77] Creating layer pool2
I0711 21:56:26.262046 13090 net.cpp:98] Creating Layer pool2
I0711 21:56:26.262053 13090 net.cpp:439] pool2 <- res2a_branch2b/bn
I0711 21:56:26.262059 13090 net.cpp:413] pool2 -> pool2
I0711 21:56:26.262152 13090 net.cpp:148] Setting up pool2
I0711 21:56:26.262162 13090 net.cpp:155] Top shape: 5 64 80 80 (2048000)
I0711 21:56:26.262167 13090 net.cpp:163] Memory required for data: 671744000
I0711 21:56:26.262172 13090 layer_factory.hpp:77] Creating layer res3a_branch2a
I0711 21:56:26.262182 13090 net.cpp:98] Creating Layer res3a_branch2a
I0711 21:56:26.262188 13090 net.cpp:439] res3a_branch2a <- pool2
I0711 21:56:26.262195 13090 net.cpp:413] res3a_branch2a -> res3a_branch2a
I0711 21:56:26.266203 13090 net.cpp:148] Setting up res3a_branch2a
I0711 21:56:26.266216 13090 net.cpp:155] Top shape: 5 128 80 80 (4096000)
I0711 21:56:26.266219 13090 net.cpp:163] Memory required for data: 688128000
I0711 21:56:26.266225 13090 layer_factory.hpp:77] Creating layer res3a_branch2a/bn
I0711 21:56:26.266232 13090 net.cpp:98] Creating Layer res3a_branch2a/bn
I0711 21:56:26.266237 13090 net.cpp:439] res3a_branch2a/bn <- res3a_branch2a
I0711 21:56:26.266242 13090 net.cpp:413] res3a_branch2a/bn -> res3a_branch2a/bn
I0711 21:56:26.267498 13090 net.cpp:148] Setting up res3a_branch2a/bn
I0711 21:56:26.267508 13090 net.cpp:155] Top shape: 5 128 80 80 (4096000)
I0711 21:56:26.267513 13090 net.cpp:163] Memory required for data: 704512000
I0711 21:56:26.267524 13090 layer_factory.hpp:77] Creating layer res3a_branch2a/relu
I0711 21:56:26.267531 13090 net.cpp:98] Creating Layer res3a_branch2a/relu
I0711 21:56:26.267535 13090 net.cpp:439] res3a_branch2a/relu <- res3a_branch2a/bn
I0711 21:56:26.267540 13090 net.cpp:400] res3a_branch2a/relu -> res3a_branch2a/bn (in-place)
I0711 21:56:26.267549 13090 net.cpp:148] Setting up res3a_branch2a/relu
I0711 21:56:26.267555 13090 net.cpp:155] Top shape: 5 128 80 80 (4096000)
I0711 21:56:26.267558 13090 net.cpp:163] Memory required for data: 720896000
I0711 21:56:26.267563 13090 layer_factory.hpp:77] Creating layer res3a_branch2b
I0711 21:56:26.267571 13090 net.cpp:98] Creating Layer res3a_branch2b
I0711 21:56:26.267576 13090 net.cpp:439] res3a_branch2b <- res3a_branch2a/bn
I0711 21:56:26.267582 13090 net.cpp:413] res3a_branch2b -> res3a_branch2b
I0711 21:56:26.269656 13090 net.cpp:148] Setting up res3a_branch2b
I0711 21:56:26.269670 13090 net.cpp:155] Top shape: 5 128 80 80 (4096000)
I0711 21:56:26.269673 13090 net.cpp:163] Memory required for data: 737280000
I0711 21:56:26.269678 13090 layer_factory.hpp:77] Creating layer res3a_branch2b/bn
I0711 21:56:26.269685 13090 net.cpp:98] Creating Layer res3a_branch2b/bn
I0711 21:56:26.269688 13090 net.cpp:439] res3a_branch2b/bn <- res3a_branch2b
I0711 21:56:26.269695 13090 net.cpp:413] res3a_branch2b/bn -> res3a_branch2b/bn
I0711 21:56:26.270802 13090 net.cpp:148] Setting up res3a_branch2b/bn
I0711 21:56:26.270814 13090 net.cpp:155] Top shape: 5 128 80 80 (4096000)
I0711 21:56:26.270818 13090 net.cpp:163] Memory required for data: 753664000
I0711 21:56:26.270838 13090 layer_factory.hpp:77] Creating layer res3a_branch2b/relu
I0711 21:56:26.270843 13090 net.cpp:98] Creating Layer res3a_branch2b/relu
I0711 21:56:26.270846 13090 net.cpp:439] res3a_branch2b/relu <- res3a_branch2b/bn
I0711 21:56:26.270850 13090 net.cpp:400] res3a_branch2b/relu -> res3a_branch2b/bn (in-place)
I0711 21:56:26.270856 13090 net.cpp:148] Setting up res3a_branch2b/relu
I0711 21:56:26.270862 13090 net.cpp:155] Top shape: 5 128 80 80 (4096000)
I0711 21:56:26.270865 13090 net.cpp:163] Memory required for data: 770048000
I0711 21:56:26.270869 13090 layer_factory.hpp:77] Creating layer res3a_branch2b/bn_res3a_branch2b/relu_0_split
I0711 21:56:26.270874 13090 net.cpp:98] Creating Layer res3a_branch2b/bn_res3a_branch2b/relu_0_split
I0711 21:56:26.270879 13090 net.cpp:439] res3a_branch2b/bn_res3a_branch2b/relu_0_split <- res3a_branch2b/bn
I0711 21:56:26.270882 13090 net.cpp:413] res3a_branch2b/bn_res3a_branch2b/relu_0_split -> res3a_branch2b/bn_res3a_branch2b/relu_0_split_0
I0711 21:56:26.270889 13090 net.cpp:413] res3a_branch2b/bn_res3a_branch2b/relu_0_split -> res3a_branch2b/bn_res3a_branch2b/relu_0_split_1
I0711 21:56:26.270967 13090 net.cpp:148] Setting up res3a_branch2b/bn_res3a_branch2b/relu_0_split
I0711 21:56:26.270978 13090 net.cpp:155] Top shape: 5 128 80 80 (4096000)
I0711 21:56:26.270987 13090 net.cpp:155] Top shape: 5 128 80 80 (4096000)
I0711 21:56:26.270992 13090 net.cpp:163] Memory required for data: 802816000
I0711 21:56:26.270999 13090 layer_factory.hpp:77] Creating layer pool3
I0711 21:56:26.271008 13090 net.cpp:98] Creating Layer pool3
I0711 21:56:26.271014 13090 net.cpp:439] pool3 <- res3a_branch2b/bn_res3a_branch2b/relu_0_split_0
I0711 21:56:26.271023 13090 net.cpp:413] pool3 -> pool3
I0711 21:56:26.271107 13090 net.cpp:148] Setting up pool3
I0711 21:56:26.271117 13090 net.cpp:155] Top shape: 5 128 40 40 (1024000)
I0711 21:56:26.271124 13090 net.cpp:163] Memory required for data: 806912000
I0711 21:56:26.271131 13090 layer_factory.hpp:77] Creating layer res4a_branch2a
I0711 21:56:26.271142 13090 net.cpp:98] Creating Layer res4a_branch2a
I0711 21:56:26.271149 13090 net.cpp:439] res4a_branch2a <- pool3
I0711 21:56:26.271157 13090 net.cpp:413] res4a_branch2a -> res4a_branch2a
I0711 21:56:26.281518 13090 net.cpp:148] Setting up res4a_branch2a
I0711 21:56:26.281529 13090 net.cpp:155] Top shape: 5 256 40 40 (2048000)
I0711 21:56:26.281533 13090 net.cpp:163] Memory required for data: 815104000
I0711 21:56:26.281538 13090 layer_factory.hpp:77] Creating layer res4a_branch2a/bn
I0711 21:56:26.281546 13090 net.cpp:98] Creating Layer res4a_branch2a/bn
I0711 21:56:26.281550 13090 net.cpp:439] res4a_branch2a/bn <- res4a_branch2a
I0711 21:56:26.281555 13090 net.cpp:413] res4a_branch2a/bn -> res4a_branch2a/bn
I0711 21:56:26.282407 13090 net.cpp:148] Setting up res4a_branch2a/bn
I0711 21:56:26.282415 13090 net.cpp:155] Top shape: 5 256 40 40 (2048000)
I0711 21:56:26.282418 13090 net.cpp:163] Memory required for data: 823296000
I0711 21:56:26.282425 13090 layer_factory.hpp:77] Creating layer res4a_branch2a/relu
I0711 21:56:26.282430 13090 net.cpp:98] Creating Layer res4a_branch2a/relu
I0711 21:56:26.282434 13090 net.cpp:439] res4a_branch2a/relu <- res4a_branch2a/bn
I0711 21:56:26.282438 13090 net.cpp:400] res4a_branch2a/relu -> res4a_branch2a/bn (in-place)
I0711 21:56:26.282444 13090 net.cpp:148] Setting up res4a_branch2a/relu
I0711 21:56:26.282447 13090 net.cpp:155] Top shape: 5 256 40 40 (2048000)
I0711 21:56:26.282450 13090 net.cpp:163] Memory required for data: 831488000
I0711 21:56:26.282454 13090 layer_factory.hpp:77] Creating layer res4a_branch2b
I0711 21:56:26.282461 13090 net.cpp:98] Creating Layer res4a_branch2b
I0711 21:56:26.282465 13090 net.cpp:439] res4a_branch2b <- res4a_branch2a/bn
I0711 21:56:26.282469 13090 net.cpp:413] res4a_branch2b -> res4a_branch2b
I0711 21:56:26.286404 13090 net.cpp:148] Setting up res4a_branch2b
I0711 21:56:26.286412 13090 net.cpp:155] Top shape: 5 256 40 40 (2048000)
I0711 21:56:26.286415 13090 net.cpp:163] Memory required for data: 839680000
I0711 21:56:26.286419 13090 layer_factory.hpp:77] Creating layer res4a_branch2b/bn
I0711 21:56:26.286432 13090 net.cpp:98] Creating Layer res4a_branch2b/bn
I0711 21:56:26.286437 13090 net.cpp:439] res4a_branch2b/bn <- res4a_branch2b
I0711 21:56:26.286440 13090 net.cpp:413] res4a_branch2b/bn -> res4a_branch2b/bn
I0711 21:56:26.287204 13090 net.cpp:148] Setting up res4a_branch2b/bn
I0711 21:56:26.287214 13090 net.cpp:155] Top shape: 5 256 40 40 (2048000)
I0711 21:56:26.287216 13090 net.cpp:163] Memory required for data: 847872000
I0711 21:56:26.287222 13090 layer_factory.hpp:77] Creating layer res4a_branch2b/relu
I0711 21:56:26.287226 13090 net.cpp:98] Creating Layer res4a_branch2b/relu
I0711 21:56:26.287230 13090 net.cpp:439] res4a_branch2b/relu <- res4a_branch2b/bn
I0711 21:56:26.287232 13090 net.cpp:400] res4a_branch2b/relu -> res4a_branch2b/bn (in-place)
I0711 21:56:26.287237 13090 net.cpp:148] Setting up res4a_branch2b/relu
I0711 21:56:26.287241 13090 net.cpp:155] Top shape: 5 256 40 40 (2048000)
I0711 21:56:26.287243 13090 net.cpp:163] Memory required for data: 856064000
I0711 21:56:26.287245 13090 layer_factory.hpp:77] Creating layer pool4
I0711 21:56:26.287250 13090 net.cpp:98] Creating Layer pool4
I0711 21:56:26.287252 13090 net.cpp:439] pool4 <- res4a_branch2b/bn
I0711 21:56:26.287256 13090 net.cpp:413] pool4 -> pool4
I0711 21:56:26.287302 13090 net.cpp:148] Setting up pool4
I0711 21:56:26.287308 13090 net.cpp:155] Top shape: 5 256 40 40 (2048000)
I0711 21:56:26.287313 13090 net.cpp:163] Memory required for data: 864256000
I0711 21:56:26.287317 13090 layer_factory.hpp:77] Creating layer res5a_branch2a
I0711 21:56:26.287325 13090 net.cpp:98] Creating Layer res5a_branch2a
I0711 21:56:26.287330 13090 net.cpp:439] res5a_branch2a <- pool4
I0711 21:56:26.287339 13090 net.cpp:413] res5a_branch2a -> res5a_branch2a
I0711 21:56:26.313550 13090 net.cpp:148] Setting up res5a_branch2a
I0711 21:56:26.313565 13090 net.cpp:155] Top shape: 5 512 40 40 (4096000)
I0711 21:56:26.313568 13090 net.cpp:163] Memory required for data: 880640000
I0711 21:56:26.313573 13090 layer_factory.hpp:77] Creating layer res5a_branch2a/bn
I0711 21:56:26.313581 13090 net.cpp:98] Creating Layer res5a_branch2a/bn
I0711 21:56:26.313585 13090 net.cpp:439] res5a_branch2a/bn <- res5a_branch2a
I0711 21:56:26.313590 13090 net.cpp:413] res5a_branch2a/bn -> res5a_branch2a/bn
I0711 21:56:26.314270 13090 net.cpp:148] Setting up res5a_branch2a/bn
I0711 21:56:26.314276 13090 net.cpp:155] Top shape: 5 512 40 40 (4096000)
I0711 21:56:26.314278 13090 net.cpp:163] Memory required for data: 897024000
I0711 21:56:26.314283 13090 layer_factory.hpp:77] Creating layer res5a_branch2a/relu
I0711 21:56:26.314287 13090 net.cpp:98] Creating Layer res5a_branch2a/relu
I0711 21:56:26.314290 13090 net.cpp:439] res5a_branch2a/relu <- res5a_branch2a/bn
I0711 21:56:26.314291 13090 net.cpp:400] res5a_branch2a/relu -> res5a_branch2a/bn (in-place)
I0711 21:56:26.314296 13090 net.cpp:148] Setting up res5a_branch2a/relu
I0711 21:56:26.314298 13090 net.cpp:155] Top shape: 5 512 40 40 (4096000)
I0711 21:56:26.314299 13090 net.cpp:163] Memory required for data: 913408000
I0711 21:56:26.314301 13090 layer_factory.hpp:77] Creating layer res5a_branch2b
I0711 21:56:26.314306 13090 net.cpp:98] Creating Layer res5a_branch2b
I0711 21:56:26.314308 13090 net.cpp:439] res5a_branch2b <- res5a_branch2a/bn
I0711 21:56:26.314312 13090 net.cpp:413] res5a_branch2b -> res5a_branch2b
I0711 21:56:26.327107 13090 net.cpp:148] Setting up res5a_branch2b
I0711 21:56:26.327116 13090 net.cpp:155] Top shape: 5 512 40 40 (4096000)
I0711 21:56:26.327118 13090 net.cpp:163] Memory required for data: 929792000
I0711 21:56:26.327124 13090 layer_factory.hpp:77] Creating layer res5a_branch2b/bn
I0711 21:56:26.327128 13090 net.cpp:98] Creating Layer res5a_branch2b/bn
I0711 21:56:26.327131 13090 net.cpp:439] res5a_branch2b/bn <- res5a_branch2b
I0711 21:56:26.327133 13090 net.cpp:413] res5a_branch2b/bn -> res5a_branch2b/bn
I0711 21:56:26.327795 13090 net.cpp:148] Setting up res5a_branch2b/bn
I0711 21:56:26.327802 13090 net.cpp:155] Top shape: 5 512 40 40 (4096000)
I0711 21:56:26.327813 13090 net.cpp:163] Memory required for data: 946176000
I0711 21:56:26.327819 13090 layer_factory.hpp:77] Creating layer res5a_branch2b/relu
I0711 21:56:26.327822 13090 net.cpp:98] Creating Layer res5a_branch2b/relu
I0711 21:56:26.327824 13090 net.cpp:439] res5a_branch2b/relu <- res5a_branch2b/bn
I0711 21:56:26.327826 13090 net.cpp:400] res5a_branch2b/relu -> res5a_branch2b/bn (in-place)
I0711 21:56:26.327831 13090 net.cpp:148] Setting up res5a_branch2b/relu
I0711 21:56:26.327832 13090 net.cpp:155] Top shape: 5 512 40 40 (4096000)
I0711 21:56:26.327834 13090 net.cpp:163] Memory required for data: 962560000
I0711 21:56:26.327836 13090 layer_factory.hpp:77] Creating layer out5a
I0711 21:56:26.327841 13090 net.cpp:98] Creating Layer out5a
I0711 21:56:26.327843 13090 net.cpp:439] out5a <- res5a_branch2b/bn
I0711 21:56:26.327847 13090 net.cpp:413] out5a -> out5a
I0711 21:56:26.331962 13090 net.cpp:148] Setting up out5a
I0711 21:56:26.331971 13090 net.cpp:155] Top shape: 5 64 40 40 (512000)
I0711 21:56:26.331974 13090 net.cpp:163] Memory required for data: 964608000
I0711 21:56:26.331977 13090 layer_factory.hpp:77] Creating layer out5a/bn
I0711 21:56:26.331981 13090 net.cpp:98] Creating Layer out5a/bn
I0711 21:56:26.331984 13090 net.cpp:439] out5a/bn <- out5a
I0711 21:56:26.331986 13090 net.cpp:413] out5a/bn -> out5a/bn
I0711 21:56:26.332720 13090 net.cpp:148] Setting up out5a/bn
I0711 21:56:26.332727 13090 net.cpp:155] Top shape: 5 64 40 40 (512000)
I0711 21:56:26.332729 13090 net.cpp:163] Memory required for data: 966656000
I0711 21:56:26.332734 13090 layer_factory.hpp:77] Creating layer out5a/relu
I0711 21:56:26.332737 13090 net.cpp:98] Creating Layer out5a/relu
I0711 21:56:26.332739 13090 net.cpp:439] out5a/relu <- out5a/bn
I0711 21:56:26.332741 13090 net.cpp:400] out5a/relu -> out5a/bn (in-place)
I0711 21:56:26.332746 13090 net.cpp:148] Setting up out5a/relu
I0711 21:56:26.332747 13090 net.cpp:155] Top shape: 5 64 40 40 (512000)
I0711 21:56:26.332749 13090 net.cpp:163] Memory required for data: 968704000
I0711 21:56:26.332751 13090 layer_factory.hpp:77] Creating layer out5a_up2
I0711 21:56:26.332759 13090 net.cpp:98] Creating Layer out5a_up2
I0711 21:56:26.332762 13090 net.cpp:439] out5a_up2 <- out5a/bn
I0711 21:56:26.332767 13090 net.cpp:413] out5a_up2 -> out5a_up2
I0711 21:56:26.333055 13090 net.cpp:148] Setting up out5a_up2
I0711 21:56:26.333061 13090 net.cpp:155] Top shape: 5 64 80 80 (2048000)
I0711 21:56:26.333063 13090 net.cpp:163] Memory required for data: 976896000
I0711 21:56:26.333066 13090 layer_factory.hpp:77] Creating layer out3a
I0711 21:56:26.333070 13090 net.cpp:98] Creating Layer out3a
I0711 21:56:26.333072 13090 net.cpp:439] out3a <- res3a_branch2b/bn_res3a_branch2b/relu_0_split_1
I0711 21:56:26.333076 13090 net.cpp:413] out3a -> out3a
I0711 21:56:26.334121 13090 net.cpp:148] Setting up out3a
I0711 21:56:26.334128 13090 net.cpp:155] Top shape: 5 64 80 80 (2048000)
I0711 21:56:26.334131 13090 net.cpp:163] Memory required for data: 985088000
I0711 21:56:26.334133 13090 layer_factory.hpp:77] Creating layer out3a/bn
I0711 21:56:26.334137 13090 net.cpp:98] Creating Layer out3a/bn
I0711 21:56:26.334141 13090 net.cpp:439] out3a/bn <- out3a
I0711 21:56:26.334143 13090 net.cpp:413] out3a/bn -> out3a/bn
I0711 21:56:26.334877 13090 net.cpp:148] Setting up out3a/bn
I0711 21:56:26.334884 13090 net.cpp:155] Top shape: 5 64 80 80 (2048000)
I0711 21:56:26.334887 13090 net.cpp:163] Memory required for data: 993280000
I0711 21:56:26.334892 13090 layer_factory.hpp:77] Creating layer out3a/relu
I0711 21:56:26.334893 13090 net.cpp:98] Creating Layer out3a/relu
I0711 21:56:26.334895 13090 net.cpp:439] out3a/relu <- out3a/bn
I0711 21:56:26.334898 13090 net.cpp:400] out3a/relu -> out3a/bn (in-place)
I0711 21:56:26.334902 13090 net.cpp:148] Setting up out3a/relu
I0711 21:56:26.334904 13090 net.cpp:155] Top shape: 5 64 80 80 (2048000)
I0711 21:56:26.334905 13090 net.cpp:163] Memory required for data: 1001472000
I0711 21:56:26.334908 13090 layer_factory.hpp:77] Creating layer out3_out5_combined
I0711 21:56:26.334919 13090 net.cpp:98] Creating Layer out3_out5_combined
I0711 21:56:26.334921 13090 net.cpp:439] out3_out5_combined <- out5a_up2
I0711 21:56:26.334925 13090 net.cpp:439] out3_out5_combined <- out3a/bn
I0711 21:56:26.334928 13090 net.cpp:413] out3_out5_combined -> out3_out5_combined
I0711 21:56:26.334954 13090 net.cpp:148] Setting up out3_out5_combined
I0711 21:56:26.334957 13090 net.cpp:155] Top shape: 5 64 80 80 (2048000)
I0711 21:56:26.334959 13090 net.cpp:163] Memory required for data: 1009664000
I0711 21:56:26.334960 13090 layer_factory.hpp:77] Creating layer ctx_conv1
I0711 21:56:26.334964 13090 net.cpp:98] Creating Layer ctx_conv1
I0711 21:56:26.334966 13090 net.cpp:439] ctx_conv1 <- out3_out5_combined
I0711 21:56:26.334969 13090 net.cpp:413] ctx_conv1 -> ctx_conv1
I0711 21:56:26.336050 13090 net.cpp:148] Setting up ctx_conv1
I0711 21:56:26.336056 13090 net.cpp:155] Top shape: 5 64 80 80 (2048000)
I0711 21:56:26.336058 13090 net.cpp:163] Memory required for data: 1017856000
I0711 21:56:26.336062 13090 layer_factory.hpp:77] Creating layer ctx_conv1/bn
I0711 21:56:26.336066 13090 net.cpp:98] Creating Layer ctx_conv1/bn
I0711 21:56:26.336067 13090 net.cpp:439] ctx_conv1/bn <- ctx_conv1
I0711 21:56:26.336071 13090 net.cpp:413] ctx_conv1/bn -> ctx_conv1/bn
I0711 21:56:26.336805 13090 net.cpp:148] Setting up ctx_conv1/bn
I0711 21:56:26.336812 13090 net.cpp:155] Top shape: 5 64 80 80 (2048000)
I0711 21:56:26.336813 13090 net.cpp:163] Memory required for data: 1026048000
I0711 21:56:26.336822 13090 layer_factory.hpp:77] Creating layer ctx_conv1/relu
I0711 21:56:26.336825 13090 net.cpp:98] Creating Layer ctx_conv1/relu
I0711 21:56:26.336827 13090 net.cpp:439] ctx_conv1/relu <- ctx_conv1/bn
I0711 21:56:26.336830 13090 net.cpp:400] ctx_conv1/relu -> ctx_conv1/bn (in-place)
I0711 21:56:26.336833 13090 net.cpp:148] Setting up ctx_conv1/relu
I0711 21:56:26.336836 13090 net.cpp:155] Top shape: 5 64 80 80 (2048000)
I0711 21:56:26.336838 13090 net.cpp:163] Memory required for data: 1034240000
I0711 21:56:26.336839 13090 layer_factory.hpp:77] Creating layer ctx_conv2
I0711 21:56:26.336843 13090 net.cpp:98] Creating Layer ctx_conv2
I0711 21:56:26.336846 13090 net.cpp:439] ctx_conv2 <- ctx_conv1/bn
I0711 21:56:26.336848 13090 net.cpp:413] ctx_conv2 -> ctx_conv2
I0711 21:56:26.337903 13090 net.cpp:148] Setting up ctx_conv2
I0711 21:56:26.337908 13090 net.cpp:155] Top shape: 5 64 80 80 (2048000)
I0711 21:56:26.337910 13090 net.cpp:163] Memory required for data: 1042432000
I0711 21:56:26.337914 13090 layer_factory.hpp:77] Creating layer ctx_conv2/bn
I0711 21:56:26.337918 13090 net.cpp:98] Creating Layer ctx_conv2/bn
I0711 21:56:26.337919 13090 net.cpp:439] ctx_conv2/bn <- ctx_conv2
I0711 21:56:26.337923 13090 net.cpp:413] ctx_conv2/bn -> ctx_conv2/bn
I0711 21:56:26.338667 13090 net.cpp:148] Setting up ctx_conv2/bn
I0711 21:56:26.338675 13090 net.cpp:155] Top shape: 5 64 80 80 (2048000)
I0711 21:56:26.338676 13090 net.cpp:163] Memory required for data: 1050624000
I0711 21:56:26.338681 13090 layer_factory.hpp:77] Creating layer ctx_conv2/relu
I0711 21:56:26.338685 13090 net.cpp:98] Creating Layer ctx_conv2/relu
I0711 21:56:26.338687 13090 net.cpp:439] ctx_conv2/relu <- ctx_conv2/bn
I0711 21:56:26.338690 13090 net.cpp:400] ctx_conv2/relu -> ctx_conv2/bn (in-place)
I0711 21:56:26.338693 13090 net.cpp:148] Setting up ctx_conv2/relu
I0711 21:56:26.338696 13090 net.cpp:155] Top shape: 5 64 80 80 (2048000)
I0711 21:56:26.338697 13090 net.cpp:163] Memory required for data: 1058816000
I0711 21:56:26.338698 13090 layer_factory.hpp:77] Creating layer ctx_conv3
I0711 21:56:26.338702 13090 net.cpp:98] Creating Layer ctx_conv3
I0711 21:56:26.338704 13090 net.cpp:439] ctx_conv3 <- ctx_conv2/bn
I0711 21:56:26.338706 13090 net.cpp:413] ctx_conv3 -> ctx_conv3
I0711 21:56:26.339768 13090 net.cpp:148] Setting up ctx_conv3
I0711 21:56:26.339774 13090 net.cpp:155] Top shape: 5 64 80 80 (2048000)
I0711 21:56:26.339777 13090 net.cpp:163] Memory required for data: 1067008000
I0711 21:56:26.339781 13090 layer_factory.hpp:77] Creating layer ctx_conv3/bn
I0711 21:56:26.339789 13090 net.cpp:98] Creating Layer ctx_conv3/bn
I0711 21:56:26.339792 13090 net.cpp:439] ctx_conv3/bn <- ctx_conv3
I0711 21:56:26.339794 13090 net.cpp:413] ctx_conv3/bn -> ctx_conv3/bn
I0711 21:56:26.340534 13090 net.cpp:148] Setting up ctx_conv3/bn
I0711 21:56:26.340540 13090 net.cpp:155] Top shape: 5 64 80 80 (2048000)
I0711 21:56:26.340543 13090 net.cpp:163] Memory required for data: 1075200000
I0711 21:56:26.340548 13090 layer_factory.hpp:77] Creating layer ctx_conv3/relu
I0711 21:56:26.340550 13090 net.cpp:98] Creating Layer ctx_conv3/relu
I0711 21:56:26.340553 13090 net.cpp:439] ctx_conv3/relu <- ctx_conv3/bn
I0711 21:56:26.340555 13090 net.cpp:400] ctx_conv3/relu -> ctx_conv3/bn (in-place)
I0711 21:56:26.340560 13090 net.cpp:148] Setting up ctx_conv3/relu
I0711 21:56:26.340564 13090 net.cpp:155] Top shape: 5 64 80 80 (2048000)
I0711 21:56:26.340564 13090 net.cpp:163] Memory required for data: 1083392000
I0711 21:56:26.340566 13090 layer_factory.hpp:77] Creating layer ctx_conv4
I0711 21:56:26.340570 13090 net.cpp:98] Creating Layer ctx_conv4
I0711 21:56:26.340572 13090 net.cpp:439] ctx_conv4 <- ctx_conv3/bn
I0711 21:56:26.340575 13090 net.cpp:413] ctx_conv4 -> ctx_conv4
I0711 21:56:26.341640 13090 net.cpp:148] Setting up ctx_conv4
I0711 21:56:26.341647 13090 net.cpp:155] Top shape: 5 64 80 80 (2048000)
I0711 21:56:26.341650 13090 net.cpp:163] Memory required for data: 1091584000
I0711 21:56:26.341652 13090 layer_factory.hpp:77] Creating layer ctx_conv4/bn
I0711 21:56:26.341655 13090 net.cpp:98] Creating Layer ctx_conv4/bn
I0711 21:56:26.341657 13090 net.cpp:439] ctx_conv4/bn <- ctx_conv4
I0711 21:56:26.341660 13090 net.cpp:413] ctx_conv4/bn -> ctx_conv4/bn
I0711 21:56:26.342406 13090 net.cpp:148] Setting up ctx_conv4/bn
I0711 21:56:26.342411 13090 net.cpp:155] Top shape: 5 64 80 80 (2048000)
I0711 21:56:26.342414 13090 net.cpp:163] Memory required for data: 1099776000
I0711 21:56:26.342418 13090 layer_factory.hpp:77] Creating layer ctx_conv4/relu
I0711 21:56:26.342422 13090 net.cpp:98] Creating Layer ctx_conv4/relu
I0711 21:56:26.342424 13090 net.cpp:439] ctx_conv4/relu <- ctx_conv4/bn
I0711 21:56:26.342427 13090 net.cpp:400] ctx_conv4/relu -> ctx_conv4/bn (in-place)
I0711 21:56:26.342429 13090 net.cpp:148] Setting up ctx_conv4/relu
I0711 21:56:26.342432 13090 net.cpp:155] Top shape: 5 64 80 80 (2048000)
I0711 21:56:26.342433 13090 net.cpp:163] Memory required for data: 1107968000
I0711 21:56:26.342435 13090 layer_factory.hpp:77] Creating layer ctx_final
I0711 21:56:26.342439 13090 net.cpp:98] Creating Layer ctx_final
I0711 21:56:26.342442 13090 net.cpp:439] ctx_final <- ctx_conv4/bn
I0711 21:56:26.342444 13090 net.cpp:413] ctx_final -> ctx_final
I0711 21:56:26.342871 13090 net.cpp:148] Setting up ctx_final
I0711 21:56:26.342877 13090 net.cpp:155] Top shape: 5 8 80 80 (256000)
I0711 21:56:26.342880 13090 net.cpp:163] Memory required for data: 1108992000
I0711 21:56:26.342882 13090 layer_factory.hpp:77] Creating layer ctx_final/relu
I0711 21:56:26.342885 13090 net.cpp:98] Creating Layer ctx_final/relu
I0711 21:56:26.342887 13090 net.cpp:439] ctx_final/relu <- ctx_final
I0711 21:56:26.342890 13090 net.cpp:400] ctx_final/relu -> ctx_final (in-place)
I0711 21:56:26.342893 13090 net.cpp:148] Setting up ctx_final/relu
I0711 21:56:26.342895 13090 net.cpp:155] Top shape: 5 8 80 80 (256000)
I0711 21:56:26.342896 13090 net.cpp:163] Memory required for data: 1110016000
I0711 21:56:26.342898 13090 layer_factory.hpp:77] Creating layer out_deconv_final_up2
I0711 21:56:26.342901 13090 net.cpp:98] Creating Layer out_deconv_final_up2
I0711 21:56:26.342905 13090 net.cpp:439] out_deconv_final_up2 <- ctx_final
I0711 21:56:26.342906 13090 net.cpp:413] out_deconv_final_up2 -> out_deconv_final_up2
I0711 21:56:26.343173 13090 net.cpp:148] Setting up out_deconv_final_up2
I0711 21:56:26.343178 13090 net.cpp:155] Top shape: 5 8 160 160 (1024000)
I0711 21:56:26.343180 13090 net.cpp:163] Memory required for data: 1114112000
I0711 21:56:26.343183 13090 layer_factory.hpp:77] Creating layer out_deconv_final_up4
I0711 21:56:26.343192 13090 net.cpp:98] Creating Layer out_deconv_final_up4
I0711 21:56:26.343194 13090 net.cpp:439] out_deconv_final_up4 <- out_deconv_final_up2
I0711 21:56:26.343197 13090 net.cpp:413] out_deconv_final_up4 -> out_deconv_final_up4
I0711 21:56:26.343446 13090 net.cpp:148] Setting up out_deconv_final_up4
I0711 21:56:26.343452 13090 net.cpp:155] Top shape: 5 8 320 320 (4096000)
I0711 21:56:26.343454 13090 net.cpp:163] Memory required for data: 1130496000
I0711 21:56:26.343456 13090 layer_factory.hpp:77] Creating layer out_deconv_final_up8
I0711 21:56:26.343459 13090 net.cpp:98] Creating Layer out_deconv_final_up8
I0711 21:56:26.343462 13090 net.cpp:439] out_deconv_final_up8 <- out_deconv_final_up4
I0711 21:56:26.343464 13090 net.cpp:413] out_deconv_final_up8 -> out_deconv_final_up8
I0711 21:56:26.343710 13090 net.cpp:148] Setting up out_deconv_final_up8
I0711 21:56:26.343716 13090 net.cpp:155] Top shape: 5 8 640 640 (16384000)
I0711 21:56:26.343719 13090 net.cpp:163] Memory required for data: 1196032000
I0711 21:56:26.343720 13090 layer_factory.hpp:77] Creating layer loss
I0711 21:56:26.343726 13090 net.cpp:98] Creating Layer loss
I0711 21:56:26.343729 13090 net.cpp:439] loss <- out_deconv_final_up8
I0711 21:56:26.343731 13090 net.cpp:439] loss <- label
I0711 21:56:26.343734 13090 net.cpp:413] loss -> loss
…
I0711 21:56:26.366222 13090 solver.cpp:182] Creating test net (#0) specified by test_net file: training/cityscapes5_jsegnet21v2_2017-07-11_18-09-28/sparse/test.prototxt
I0711 21:56:26.366515 13090 net.cpp:56] Initializing net from parameters: 
name: "jsegnet21v2_test"
state {
  phase: TEST
}
layer {
  name: "data"
  type: "ImageLabelData"
  top: "data"
  top: "label"
  transform_param {
    mirror: false
    crop_size: 640
    mean_value: 0
  }
  image_label_data_param {
    image_list_path: "data/val-image-lmdb"
    label_list_path: "data/val-label-lmdb"
    batch_size: 4
    threads: 4
    backend: LMDB
  }
}
layer {
  name: "data/bias"
  type: "Bias"
  bottom: "data"
  top: "data/bias"
  param {
    lr_mult: 0
    decay_mult: 0
  }
  bias_param {
    filler {
      type: "constant"
      value: -128
    }
  }
}
layer {
  name: "conv1a"
  type: "Convolution"
  bottom: "data/bias"
  top: "conv1a"
  param {
    lr_mult: 1
    decay_mult: 1
  }
  param {
    lr_mult: 2
    decay_mult: 0
  }
  convolution_param {
    num_output: 32
    bias_term: true
    pad: 2
    kernel_size: 5
    group: 1
    stride: 2
    weight_filler {
      type: "msra"
    }
    bias_filler {
      type: "constant"
      value: 0
    }
    dilation: 1
  }
}
layer {
  name: "conv1a/bn"
  type: "BatchNorm"
  bottom: "conv1a"
  top: "conv1a/bn"
  param {
    lr_mult: 1
    decay_mult: 1
  }
  param {
    lr_mult: 1
    decay_mult: 1
  }
  param {
    lr_mult: 0
    decay_mult: 0
  }
  param {
    lr_mult: 0
    decay_mult: 0
  }
  batch_norm_param {
    moving_average_fraction: 0.99
    eps: 0.0001
    scale_filler {
      type: "constant"
      value: 1
    }
    bias_filler {
      type: "constant"
      value: 0
    }
  }
}
layer {
  name: "conv1a/relu"
  type: "ReLU"
  bottom: "conv1a/bn"
  top: "conv1a/bn"
}
layer {
  name: "conv1b"
  type: "Convolution"
  bottom: "conv1a/bn"
  top: "conv1b"
  param {
    lr_mult: 1
    decay_mult: 1
  }
  param {
    lr_mult: 2
    decay_mult: 0
  }
  convolution_param {
    num_output: 32
    bias_term: true
    pad: 1
    kernel_size: 3
    group: 4
    stride: 1
    weight_filler {
      type: "msra"
    }
    bias_filler {
      type: "constant"
      value: 0
    }
    dilation: 1
  }
}
layer {
  name: "conv1b/bn"
  type: "BatchNorm"
  bottom: "conv1b"
  top: "conv1b/bn"
  param {
    lr_mult: 1
    decay_mult: 1
  }
  param {
    lr_mult: 1
    decay_mult: 1
  }
  param {
    lr_mult: 0
    decay_mult: 0
  }
  param {
    lr_mult: 0
    decay_mult: 0
  }
  batch_norm_param {
    moving_average_fraction: 0.99
    eps: 0.0001
    scale_filler {
      type: "constant"
      value: 1
    }
    bias_filler {
      type: "constant"
      value: 0
    }
  }
}
layer {
  name: "conv1b/relu"
  type: "ReLU"
  bottom: "conv1b/bn"
  top: "conv1b/bn"
}
layer {
  name: "pool1"
  type: "Pooling"
  bottom: "conv1b/bn"
  top: "pool1"
  pooling_param {
    pool: MAX
    kernel_size: 2
    stride: 2
  }
}
layer {
  name: "res2a_branch2a"
  type: "Convolution"
  bottom: "pool1"
  top: "res2a_branch2a"
  param {
    lr_mult: 1
    decay_mult: 1
  }
  param {
    lr_mult: 2
    decay_mult: 0
  }
  convolution_param {
    num_output: 64
    bias_term: true
    pad: 1
    kernel_size: 3
    group: 1
    stride: 1
    weight_filler {
      type: "msra"
    }
    bias_filler {
      type: "constant"
      value: 0
    }
    dilation: 1
  }
}
layer {
  name: "res2a_branch2a/bn"
  type: "BatchNorm"
  bottom: "res2a_branch2a"
  top: "res2a_branch2a/bn"
  param {
    lr_mult: 1
    decay_mult: 1
  }
  param {
    lr_mult: 1
    decay_mult: 1
  }
  param {
    lr_mult: 0
    decay_mult: 0
  }
  param {
    lr_mult: 0
    decay_mult: 0
  }
  batch_norm_param {
    moving_average_fraction: 0.99
    eps: 0.0001
    scale_filler {
      type: "constant"
      value: 1
    }
    bias_filler {
      type: "constant"
      value: 0
    }
  }
}
layer {
  name: "res2a_branch2a/relu"
  type: "ReLU"
  bottom: "res2a_branch2a/bn"
  top: "res2a_branch2a/bn"
}
layer {
  name: "res2a_branch2b"
  type: "Convolution"
  bottom: "res2a_branch2a/bn"
  top: "res2a_branch2b"
  param {
    lr_mult: 1
    decay_mult: 1
  }
  param {
    lr_mult: 2
    decay_mult: 0
  }
  convolution_param {
    num_output: 64
    bias_term: true
    pad: 1
    kernel_size: 3
    group: 4
    stride: 1
    weight_filler {
      type: "msra"
    }
    bias_filler {
      type: "constant"
      value: 0
    }
    dilation: 1
  }
}
layer {
  name: "res2a_branch2b/bn"
  type: "BatchNorm"
  bottom: "res2a_branch2b"
  top: "res2a_branch2b/bn"
  param {
    lr_mult: 1
    decay_mult: 1
  }
  param {
    lr_mult: 1
    decay_mult: 1
  }
  param {
    lr_mult: 0
    decay_mult: 0
  }
  param {
    lr_mult: 0
    decay_mult: 0
  }
  batch_norm_param {
    moving_average_fraction: 0.99
    eps: 0.0001
    scale_filler {
      type: "constant"
      value: 1
    }
    bias_filler {
      type: "constant"
      value: 0
    }
  }
}
layer {
  name: "res2a_branch2b/relu"
  type: "ReLU"
  bottom: "res2a_branch2b/bn"
  top: "res2a_branch2b/bn"
}
layer {
  name: "pool2"
  type: "Pooling"
  bottom: "res2a_branch2b/bn"
  top: "pool2"
  pooling_param {
    pool: MAX
    kernel_size: 2
    stride: 2
  }
}
layer {
  name: "res3a_branch2a"
  type: "Convolution"
  bottom: "pool2"
  top: "res3a_branch2a"
  param {
    lr_mult: 1
    decay_mult: 1
  }
  param {
    lr_mult: 2
    decay_mult: 0
  }
  convolution_param {
    num_output: 128
    bias_term: true
    pad: 1
    kernel_size: 3
    group: 1
    stride: 1
    weight_filler {
      type: "msra"
    }
    bias_filler {
      type: "constant"
      value: 0
    }
    dilation: 1
  }
}
layer {
  name: "res3a_branch2a/bn"
  type: "BatchNorm"
  bottom: "res3a_branch2a"
  top: "res3a_branch2a/bn"
  param {
    lr_mult: 1
    decay_mult: 1
  }
  param {
    lr_mult: 1
    decay_mult: 1
  }
  param {
    lr_mult: 0
    decay_mult: 0
  }
  param {
    lr_mult: 0
    decay_mult: 0
  }
  batch_norm_param {
    moving_average_fraction: 0.99
    eps: 0.0001
    scale_filler {
      type: "constant"
      value: 1
    }
    bias_filler {
      type: "constant"
      value: 0
    }
  }
}
layer {
  name: "res3a_branch2a/relu"
  type: "ReLU"
  bottom: "res3a_branch2a/bn"
  top: "res3a_branch2a/bn"
}
layer {
  name: "res3a_branch2b"
  type: "Convolution"
  bottom: "res3a_branch2a/bn"
  top: "res3a_branch2b"
  param {
    lr_mult: 1
    decay_mult: 1
  }
  param {
    lr_mult: 2
    decay_mult: 0
  }
  convolution_param {
    num_output: 128
    bias_term: true
    pad: 1
    kernel_size: 3
    group: 4
    stride: 1
    weight_filler {
      type: "msra"
    }
    bias_filler {
      type: "constant"
      value: 0
    }
    dilation: 1
  }
}
layer {
  name: "res3a_branch2b/bn"
  type: "BatchNorm"
  bottom: "res3a_branch2b"
  top: "res3a_branch2b/bn"
  param {
    lr_mult: 1
    decay_mult: 1
  }
  param {
    lr_mult: 1
    decay_mult: 1
  }
  param {
    lr_mult: 0
    decay_mult: 0
  }
  param {
    lr_mult: 0
    decay_mult: 0
  }
  batch_norm_param {
    moving_average_fraction: 0.99
    eps: 0.0001
    scale_filler {
      type: "constant"
      value: 1
    }
    bias_filler {
      type: "constant"
      value: 0
    }
  }
}
layer {
  name: "res3a_branch2b/relu"
  type: "ReLU"
  bottom: "res3a_branch2b/bn"
  top: "res3a_branch2b/bn"
}
layer {
  name: "pool3"
  type: "Pooling"
  bottom: "res3a_branch2b/bn"
  top: "pool3"
  pooling_param {
    pool: MAX
    kernel_size: 2
    stride: 2
  }
}
layer {
  name: "res4a_branch2a"
  type: "Convolution"
  bottom: "pool3"
  top: "res4a_branch2a"
  param {
    lr_mult: 1
    decay_mult: 1
  }
  param {
    lr_mult: 2
    decay_mult: 0
  }
  convolution_param {
    num_output: 256
    bias_term: true
    pad: 1
    kernel_size: 3
    group: 1
    stride: 1
    weight_filler {
      type: "msra"
    }
    bias_filler {
      type: "constant"
      value: 0
    }
    dilation: 1
  }
}
layer {
  name: "res4a_branch2a/bn"
  type: "BatchNorm"
  bottom: "res4a_branch2a"
  top: "res4a_branch2a/bn"
  param {
    lr_mult: 1
    decay_mult: 1
  }
  param {
    lr_mult: 1
    decay_mult: 1
  }
  param {
    lr_mult: 0
    decay_mult: 0
  }
  param {
    lr_mult: 0
    decay_mult: 0
  }
  batch_norm_param {
    moving_average_fraction: 0.99
    eps: 0.0001
    scale_filler {
      type: "constant"
      value: 1
    }
    bias_filler {
      type: "constant"
      value: 0
    }
  }
}
layer {
  name: "res4a_branch2a/relu"
  type: "ReLU"
  bottom: "res4a_branch2a/bn"
  top: "res4a_branch2a/bn"
}
layer {
  name: "res4a_branch2b"
  type: "Convolution"
  bottom: "res4a_branch2a/bn"
  top: "res4a_branch2b"
  param {
    lr_mult: 1
    decay_mult: 1
  }
  param {
    lr_mult: 2
    decay_mult: 0
  }
  convolution_param {
    num_output: 256
    bias_term: true
    pad: 1
    kernel_size: 3
    group: 4
    stride: 1
    weight_filler {
      type: "msra"
    }
    bias_filler {
      type: "constant"
      value: 0
    }
    dilation: 1
  }
}
layer {
  name: "res4a_branch2b/bn"
  type: "BatchNorm"
  bottom: "res4a_branch2b"
  top: "res4a_branch2b/bn"
  param {
    lr_mult: 1
    decay_mult: 1
  }
  param {
    lr_mult: 1
    decay_mult: 1
  }
  param {
    lr_mult: 0
    decay_mult: 0
  }
  param {
    lr_mult: 0
    decay_mult: 0
  }
  batch_norm_param {
    moving_average_fraction: 0.99
    eps: 0.0001
    scale_filler {
      type: "constant"
      value: 1
    }
    bias_filler {
      type: "constant"
      value: 0
    }
  }
}
layer {
  name: "res4a_branch2b/relu"
  type: "ReLU"
  bottom: "res4a_branch2b/bn"
  top: "res4a_branch2b/bn"
}
layer {
  name: "pool4"
  type: "Pooling"
  bottom: "res4a_branch2b/bn"
  top: "pool4"
  pooling_param {
    pool: MAX
    kernel_size: 1
    stride: 1
  }
}
layer {
  name: "res5a_branch2a"
  type: "Convolution"
  bottom: "pool4"
  top: "res5a_branch2a"
  param {
    lr_mult: 1
    decay_mult: 1
  }
  param {
    lr_mult: 2
    decay_mult: 0
  }
  convolution_param {
    num_output: 512
    bias_term: true
    pad: 2
    kernel_size: 3
    group: 1
    stride: 1
    weight_filler {
      type: "msra"
    }
    bias_filler {
      type: "constant"
      value: 0
    }
    dilation: 2
  }
}
layer {
  name: "res5a_branch2a/bn"
  type: "BatchNorm"
  bottom: "res5a_branch2a"
  top: "res5a_branch2a/bn"
  param {
    lr_mult: 1
    decay_mult: 1
  }
  param {
    lr_mult: 1
    decay_mult: 1
  }
  param {
    lr_mult: 0
    decay_mult: 0
  }
  param {
    lr_mult: 0
    decay_mult: 0
  }
  batch_norm_param {
    moving_average_fraction: 0.99
    eps: 0.0001
    scale_filler {
      type: "constant"
      value: 1
    }
    bias_filler {
      type: "constant"
      value: 0
    }
  }
}
layer {
  name: "res5a_branch2a/relu"
  type: "ReLU"
  bottom: "res5a_branch2a/bn"
  top: "res5a_branch2a/bn"
}
layer {
  name: "res5a_branch2b"
  type: "Convolution"
  bottom: "res5a_branch2a/bn"
  top: "res5a_branch2b"
  param {
    lr_mult: 1
    decay_mult: 1
  }
  param {
    lr_mult: 2
    decay_mult: 0
  }
  convolution_param {
    num_output: 512
    bias_term: true
    pad: 2
    kernel_size: 3
    group: 4
    stride: 1
    weight_filler {
      type: "msra"
    }
    bias_filler {
      type: "constant"
      value: 0
    }
    dilation: 2
  }
}
layer {
  name: "res5a_branch2b/bn"
  type: "BatchNorm"
  bottom: "res5a_branch2b"
  top: "res5a_branch2b/bn"
  param {
    lr_mult: 1
    decay_mult: 1
  }
  param {
    lr_mult: 1
    decay_mult: 1
  }
  param {
    lr_mult: 0
    decay_mult: 0
  }
  param {
    lr_mult: 0
    decay_mult: 0
  }
  batch_norm_param {
    moving_average_fraction: 0.99
    eps: 0.0001
    scale_filler {
      type: "constant"
      value: 1
    }
    bias_filler {
      type: "constant"
      value: 0
    }
  }
}
layer {
  name: "res5a_branch2b/relu"
  type: "ReLU"
  bottom: "res5a_branch2b/bn"
  top: "res5a_branch2b/bn"
}
layer {
  name: "out5a"
  type: "Convolution"
  bottom: "res5a_branch2b/bn"
  top: "out5a"
  param {
    lr_mult: 1
    decay_mult: 1
  }
  param {
    lr_mult: 2
    decay_mult: 0
  }
  convolution_param {
    num_output: 64
    bias_term: true
    pad: 4
    kernel_size: 3
    group: 2
    stride: 1
    weight_filler {
      type: "msra"
    }
    bias_filler {
      type: "constant"
      value: 0
    }
    dilation: 4
  }
}
layer {
  name: "out5a/bn"
  type: "BatchNorm"
  bottom: "out5a"
  top: "out5a/bn"
  param {
    lr_mult: 1
    decay_mult: 1
  }
  param {
    lr_mult: 1
    decay_mult: 1
  }
  param {
    lr_mult: 0
    decay_mult: 0
  }
  param {
    lr_mult: 0
    decay_mult: 0
  }
  batch_norm_param {
    moving_average_fraction: 0.99
    eps: 0.0001
    scale_filler {
      type: "constant"
      value: 1
    }
    bias_filler {
      type: "constant"
      value: 0
    }
  }
}
layer {
  name: "out5a/relu"
  type: "ReLU"
  bottom: "out5a/bn"
  top: "out5a/bn"
}
layer {
  name: "out5a_up2"
  type: "Deconvolution"
  bottom: "out5a/bn"
  top: "out5a_up2"
  param {
    lr_mult: 0
    decay_mult: 0
  }
  convolution_param {
    num_output: 64
    bias_term: false
    pad: 1
    kernel_size: 4
    group: 64
    stride: 2
    weight_filler {
      type: "bilinear"
    }
  }
}
layer {
  name: "out3a"
  type: "Convolution"
  bottom: "res3a_branch2b/bn"
  top: "out3a"
  param {
    lr_mult: 1
    decay_mult: 1
  }
  param {
    lr_mult: 2
    decay_mult: 0
  }
  convolution_param {
    num_output: 64
    bias_term: true
    pad: 1
    kernel_size: 3
    group: 2
    stride: 1
    weight_filler {
      type: "msra"
    }
    bias_filler {
      type: "constant"
      value: 0
    }
    dilation: 1
  }
}
layer {
  name: "out3a/bn"
  type: "BatchNorm"
  bottom: "out3a"
  top: "out3a/bn"
  param {
    lr_mult: 1
    decay_mult: 1
  }
  param {
    lr_mult: 1
    decay_mult: 1
  }
  param {
    lr_mult: 0
    decay_mult: 0
  }
  param {
    lr_mult: 0
    decay_mult: 0
  }
  batch_norm_param {
    moving_average_fraction: 0.99
    eps: 0.0001
    scale_filler {
      type: "constant"
      value: 1
    }
    bias_filler {
      type: "constant"
      value: 0
    }
  }
}
layer {
  name: "out3a/relu"
  type: "ReLU"
  bottom: "out3a/bn"
  top: "out3a/bn"
}
layer {
  name: "out3_out5_combined"
  type: "Eltwise"
  bottom: "out5a_up2"
  bottom: "out3a/bn"
  top: "out3_out5_combined"
}
layer {
  name: "ctx_conv1"
  type: "Convolution"
  bottom: "out3_out5_combined"
  top: "ctx_conv1"
  param {
    lr_mult: 1
    decay_mult: 1
  }
  param {
    lr_mult: 2
    decay_mult: 0
  }
  convolution_param {
    num_output: 64
    bias_term: true
    pad: 1
    kernel_size: 3
    group: 1
    stride: 1
    weight_filler {
      type: "msra"
    }
    bias_filler {
      type: "constant"
      value: 0
    }
    dilation: 1
  }
}
layer {
  name: "ctx_conv1/bn"
  type: "BatchNorm"
  bottom: "ctx_conv1"
  top: "ctx_conv1/bn"
  param {
    lr_mult: 1
    decay_mult: 1
  }
  param {
    lr_mult: 1
    decay_mult: 1
  }
  param {
    lr_mult: 0
    decay_mult: 0
  }
  param {
    lr_mult: 0
    decay_mult: 0
  }
  batch_norm_param {
    moving_average_fraction: 0.99
    eps: 0.0001
    scale_filler {
      type: "constant"
      value: 1
    }
    bias_filler {
      type: "constant"
      value: 0
    }
  }
}
layer {
  name: "ctx_conv1/relu"
  type: "ReLU"
  bottom: "ctx_conv1/bn"
  top: "ctx_conv1/bn"
}
layer {
  name: "ctx_conv2"
  type: "Convolution"
  bottom: "ctx_conv1/bn"
  top: "ctx_conv2"
  param {
    lr_mult: 1
    decay_mult: 1
  }
  param {
    lr_mult: 2
    decay_mult: 0
  }
  convolution_param {
    num_output: 64
    bias_term: true
    pad: 4
    kernel_size: 3
    group: 1
    stride: 1
    weight_filler {
      type: "msra"
    }
    bias_filler {
      type: "constant"
      value: 0
    }
    dilation: 4
  }
}
layer {
  name: "ctx_conv2/bn"
  type: "BatchNorm"
  bottom: "ctx_conv2"
  top: "ctx_conv2/bn"
  param {
    lr_mult: 1
    decay_mult: 1
  }
  param {
    lr_mult: 1
    decay_mult: 1
  }
  param {
    lr_mult: 0
    decay_mult: 0
  }
  param {
    lr_mult: 0
    decay_mult: 0
  }
  batch_norm_param {
    moving_average_fraction: 0.99
    eps: 0.0001
    scale_filler {
      type: "constant"
      value: 1
    }
    bias_filler {
      type: "constant"
      value: 0
    }
  }
}
layer {
  name: "ctx_conv2/relu"
  type: "ReLU"
  bottom: "ctx_conv2/bn"
  top: "ctx_conv2/bn"
}
layer {
  name: "ctx_conv3"
  type: "Convolution"
  bottom: "ctx_conv2/bn"
  top: "ctx_conv3"
  param {
    lr_mult: 1
    decay_mult: 1
  }
  param {
    lr_mult: 2
    decay_mult: 0
  }
  convolution_param {
    num_output: 64
    bias_term: true
    pad: 4
    kernel_size: 3
    group: 1
    stride: 1
    weight_filler {
      type: "msra"
    }
    bias_filler {
      type: "constant"
      value: 0
    }
    dilation: 4
  }
}
layer {
  name: "ctx_conv3/bn"
  type: "BatchNorm"
  bottom: "ctx_conv3"
  top: "ctx_conv3/bn"
  param {
    lr_mult: 1
    decay_mult: 1
  }
  param {
    lr_mult: 1
    decay_mult: 1
  }
  param {
    lr_mult: 0
    decay_mult: 0
  }
  param {
    lr_mult: 0
    decay_mult: 0
  }
  batch_norm_param {
    moving_average_fraction: 0.99
    eps: 0.0001
    scale_filler {
      type: "constant"
      value: 1
    }
    bias_filler {
      type: "constant"
      value: 0
    }
  }
}
layer {
  name: "ctx_conv3/relu"
  type: "ReLU"
  bottom: "ctx_conv3/bn"
  top: "ctx_conv3/bn"
}
layer {
  name: "ctx_conv4"
  type: "Convolution"
  bottom: "ctx_conv3/bn"
  top: "ctx_conv4"
  param {
    lr_mult: 1
    decay_mult: 1
  }
  param {
    lr_mult: 2
    decay_mult: 0
  }
  convolution_param {
    num_output: 64
    bias_term: true
    pad: 4
    kernel_size: 3
    group: 1
    stride: 1
    weight_filler {
      type: "msra"
    }
    bias_filler {
      type: "constant"
      value: 0
    }
    dilation: 4
  }
}
layer {
  name: "ctx_conv4/bn"
  type: "BatchNorm"
  bottom: "ctx_conv4"
  top: "ctx_conv4/bn"
  param {
    lr_mult: 1
    decay_mult: 1
  }
  param {
    lr_mult: 1
    decay_mult: 1
  }
  param {
    lr_mult: 0
    decay_mult: 0
  }
  param {
    lr_mult: 0
    decay_mult: 0
  }
  batch_norm_param {
    moving_average_fraction: 0.99
    eps: 0.0001
    scale_filler {
      type: "constant"
      value: 1
    }
    bias_filler {
      type: "constant"
      value: 0
    }
  }
}
layer {
  name: "ctx_conv4/relu"
  type: "ReLU"
  bottom: "ctx_conv4/bn"
  top: "ctx_conv4/bn"
}
layer {
  name: "ctx_final"
  type: "Convolution"
  bottom: "ctx_conv4/bn"
  top: "ctx_final"
  param {
    lr_mult: 1
    decay_mult: 1
  }
  param {
    lr_mult: 2
    decay_mult: 0
  }
  convolution_param {
    num_output: 8
    bias_term: true
    pad: 1
    kernel_size: 3
    kernel_size: 3
    group: 1
    stride: 1
    weight_filler {
      type: "msra"
    }
    bias_filler {
      type: "constant"
      value: 0
    }
    dilation: 1
  }
}
layer {
  name: "ctx_final/relu"
  type: "ReLU"
  bottom: "ctx_final"
  top: "ctx_final"
}
layer {
  name: "out_deconv_final_up2"
  type: "Deconvolution"
  bottom: "ctx_final"
  top: "out_deconv_final_up2"
  param {
    lr_mult: 0
    decay_mult: 0
  }
  convolution_param {
    num_output: 8
    bias_term: false
    pad: 1
    kernel_size: 4
    group: 8
    stride: 2
    weight_filler {
      type: "bilinear"
    }
  }
}
layer {
  name: "out_deconv_final_up4"
  type: "Deconvolution"
  bottom: "out_deconv_final_up2"
  top: "out_deconv_final_up4"
  param {
    lr_mult: 0
    decay_mult: 0
  }
  convolution_param {
    num_output: 8
    bias_term: false
    pad: 1
    kernel_size: 4
    group: 8
    stride: 2
    weight_filler {
      type: "bilinear"
    }
  }
}
layer {
  name: "out_deconv_final_up8"
  type: "Deconvolution"
  bottom: "out_deconv_final_up4"
  top: "out_deconv_final_up8"
  param {
    lr_mult: 0
    decay_mult: 0
  }
  convolution_param {
    num_output: 8
    bias_term: false
    pad: 1
    kernel_size: 4
    group: 8
    stride: 2
    weight_filler {
      type: "bilinear"
    }
  }
}
layer {
  name: "loss"
  type: "SoftmaxWithLoss"
  bottom: "out_deconv_final_up8"
  bottom: "label"
  top: "loss"
  propagate_down: true
  propagate_down: false
  loss_param {
    ignore_label: 255
    normalization: VALID
  }
}
layer {
  name: "accuracy/top1"
  type: "Accuracy"
  bottom: "out_deconv_final_up8"
  bottom: "label"
  top: "accuracy/top1"
  include {
    phase: TEST
  }
  accuracy_param {
    ignore_label: 255
  }
}
layer {
  name: "accuracy/top5"
  type: "Accuracy"
  bottom: "out_deconv_final_up8"
  bottom: "label"
  top: "accuracy/top5"
  include {
    phase: TEST
  }
  accuracy_param {
    top_k: 5
    ignore_label: 255
  }
}
I0711 21:56:26.366688 13090 layer_factory.hpp:77] Creating layer data
I0711 21:56:26.366696 13090 net.cpp:98] Creating Layer data
I0711 21:56:26.366700 13090 net.cpp:413] data -> data
I0711 21:56:26.366704 13090 net.cpp:413] data -> label
I0711 21:56:26.383443 13166 db_lmdb.cpp:35] Opened lmdb data/val-image-lmdb
I0711 21:56:26.386066 13090 data_layer.cpp:78] ReshapePrefetch 4, 3, 640, 640
I0711 21:56:26.386175 13090 data_layer.cpp:83] output data size: 4,3,640,640
I0711 21:56:26.396155 13171 db_lmdb.cpp:35] Opened lmdb data/val-label-lmdb
I0711 21:56:26.413851 13090 data_layer.cpp:78] ReshapePrefetch 4, 1, 640, 640
I0711 21:56:26.413929 13090 data_layer.cpp:83] output data size: 4,1,640,640
I0711 21:56:26.427109 13090 net.cpp:148] Setting up data
I0711 21:56:26.427201 13090 net.cpp:155] Top shape: 4 3 640 640 (4915200)
I0711 21:56:26.427220 13090 net.cpp:155] Top shape: 4 1 640 640 (1638400)
I0711 21:56:26.427242 13090 net.cpp:163] Memory required for data: 26214400
I0711 21:56:26.427266 13090 layer_factory.hpp:77] Creating layer label_data_1_split
I0711 21:56:26.427304 13090 net.cpp:98] Creating Layer label_data_1_split
I0711 21:56:26.427314 13090 net.cpp:439] label_data_1_split <- label
I0711 21:56:26.427327 13090 net.cpp:413] label_data_1_split -> label_data_1_split_0
I0711 21:56:26.427340 13090 net.cpp:413] label_data_1_split -> label_data_1_split_1
I0711 21:56:26.427350 13090 net.cpp:413] label_data_1_split -> label_data_1_split_2
I0711 21:56:26.427520 13090 net.cpp:148] Setting up label_data_1_split
I0711 21:56:26.427532 13090 net.cpp:155] Top shape: 4 1 640 640 (1638400)
I0711 21:56:26.427541 13090 net.cpp:155] Top shape: 4 1 640 640 (1638400)
I0711 21:56:26.427549 13090 net.cpp:155] Top shape: 4 1 640 640 (1638400)
I0711 21:56:26.427556 13090 net.cpp:163] Memory required for data: 45875200
I0711 21:56:26.427563 13090 layer_factory.hpp:77] Creating layer data/bias
I0711 21:56:26.427575 13090 net.cpp:98] Creating Layer data/bias
I0711 21:56:26.427583 13090 net.cpp:439] data/bias <- data
I0711 21:56:26.427592 13090 net.cpp:413] data/bias -> data/bias
I0711 21:56:26.429461 13090 net.cpp:148] Setting up data/bias
I0711 21:56:26.429524 13090 net.cpp:155] Top shape: 4 3 640 640 (4915200)
I0711 21:56:26.429538 13090 net.cpp:163] Memory required for data: 65536000
I0711 21:56:26.429558 13090 layer_factory.hpp:77] Creating layer conv1a
I0711 21:56:26.429595 13090 net.cpp:98] Creating Layer conv1a
I0711 21:56:26.429607 13090 net.cpp:439] conv1a <- data/bias
I0711 21:56:26.429618 13090 net.cpp:413] conv1a -> conv1a
I0711 21:56:26.430541 13090 net.cpp:148] Setting up conv1a
I0711 21:56:26.430554 13090 net.cpp:155] Top shape: 4 32 320 320 (13107200)
I0711 21:56:26.430557 13090 net.cpp:163] Memory required for data: 117964800
I0711 21:56:26.430565 13090 layer_factory.hpp:77] Creating layer conv1a/bn
I0711 21:56:26.430580 13090 net.cpp:98] Creating Layer conv1a/bn
I0711 21:56:26.430595 13090 net.cpp:439] conv1a/bn <- conv1a
I0711 21:56:26.430608 13090 net.cpp:413] conv1a/bn -> conv1a/bn
I0711 21:56:26.434708 13090 net.cpp:148] Setting up conv1a/bn
I0711 21:56:26.434737 13090 net.cpp:155] Top shape: 4 32 320 320 (13107200)
I0711 21:56:26.434741 13090 net.cpp:163] Memory required for data: 170393600
I0711 21:56:26.434763 13090 layer_factory.hpp:77] Creating layer conv1a/relu
I0711 21:56:26.434775 13090 net.cpp:98] Creating Layer conv1a/relu
I0711 21:56:26.434782 13090 net.cpp:439] conv1a/relu <- conv1a/bn
I0711 21:56:26.434795 13090 net.cpp:400] conv1a/relu -> conv1a/bn (in-place)
I0711 21:56:26.434828 13090 net.cpp:148] Setting up conv1a/relu
I0711 21:56:26.434835 13090 net.cpp:155] Top shape: 4 32 320 320 (13107200)
I0711 21:56:26.434840 13090 net.cpp:163] Memory required for data: 222822400
I0711 21:56:26.434844 13090 layer_factory.hpp:77] Creating layer conv1b
I0711 21:56:26.434857 13090 net.cpp:98] Creating Layer conv1b
I0711 21:56:26.434861 13090 net.cpp:439] conv1b <- conv1a/bn
I0711 21:56:26.434867 13090 net.cpp:413] conv1b -> conv1b
I0711 21:56:26.435618 13090 net.cpp:148] Setting up conv1b
I0711 21:56:26.435628 13090 net.cpp:155] Top shape: 4 32 320 320 (13107200)
I0711 21:56:26.435631 13090 net.cpp:163] Memory required for data: 275251200
I0711 21:56:26.435638 13090 layer_factory.hpp:77] Creating layer conv1b/bn
I0711 21:56:26.435647 13090 net.cpp:98] Creating Layer conv1b/bn
I0711 21:56:26.435649 13090 net.cpp:439] conv1b/bn <- conv1b
I0711 21:56:26.435654 13090 net.cpp:413] conv1b/bn -> conv1b/bn
I0711 21:56:26.436786 13090 net.cpp:148] Setting up conv1b/bn
I0711 21:56:26.436795 13090 net.cpp:155] Top shape: 4 32 320 320 (13107200)
I0711 21:56:26.436797 13090 net.cpp:163] Memory required for data: 327680000
I0711 21:56:26.436803 13090 layer_factory.hpp:77] Creating layer conv1b/relu
I0711 21:56:26.436812 13090 net.cpp:98] Creating Layer conv1b/relu
I0711 21:56:26.436836 13090 net.cpp:439] conv1b/relu <- conv1b/bn
I0711 21:56:26.436841 13090 net.cpp:400] conv1b/relu -> conv1b/bn (in-place)
I0711 21:56:26.436847 13090 net.cpp:148] Setting up conv1b/relu
I0711 21:56:26.436852 13090 net.cpp:155] Top shape: 4 32 320 320 (13107200)
I0711 21:56:26.436877 13090 net.cpp:163] Memory required for data: 380108800
I0711 21:56:26.436882 13090 layer_factory.hpp:77] Creating layer pool1
I0711 21:56:26.436893 13090 net.cpp:98] Creating Layer pool1
I0711 21:56:26.436897 13090 net.cpp:439] pool1 <- conv1b/bn
I0711 21:56:26.436902 13090 net.cpp:413] pool1 -> pool1
I0711 21:56:26.436957 13090 net.cpp:148] Setting up pool1
I0711 21:56:26.436962 13090 net.cpp:155] Top shape: 4 32 160 160 (3276800)
I0711 21:56:26.436966 13090 net.cpp:163] Memory required for data: 393216000
I0711 21:56:26.436970 13090 layer_factory.hpp:77] Creating layer res2a_branch2a
I0711 21:56:26.436980 13090 net.cpp:98] Creating Layer res2a_branch2a
I0711 21:56:26.436983 13090 net.cpp:439] res2a_branch2a <- pool1
I0711 21:56:26.436990 13090 net.cpp:413] res2a_branch2a -> res2a_branch2a
I0711 21:56:26.440515 13090 net.cpp:148] Setting up res2a_branch2a
I0711 21:56:26.440567 13090 net.cpp:155] Top shape: 4 64 160 160 (6553600)
I0711 21:56:26.440589 13090 net.cpp:163] Memory required for data: 419430400
I0711 21:56:26.440631 13090 layer_factory.hpp:77] Creating layer res2a_branch2a/bn
I0711 21:56:26.440670 13090 net.cpp:98] Creating Layer res2a_branch2a/bn
I0711 21:56:26.440699 13090 net.cpp:439] res2a_branch2a/bn <- res2a_branch2a
I0711 21:56:26.440732 13090 net.cpp:413] res2a_branch2a/bn -> res2a_branch2a/bn
I0711 21:56:26.443466 13090 net.cpp:148] Setting up res2a_branch2a/bn
I0711 21:56:26.443506 13090 net.cpp:155] Top shape: 4 64 160 160 (6553600)
I0711 21:56:26.443521 13090 net.cpp:163] Memory required for data: 445644800
I0711 21:56:26.443547 13090 layer_factory.hpp:77] Creating layer res2a_branch2a/relu
I0711 21:56:26.443567 13090 net.cpp:98] Creating Layer res2a_branch2a/relu
I0711 21:56:26.443583 13090 net.cpp:439] res2a_branch2a/relu <- res2a_branch2a/bn
I0711 21:56:26.443600 13090 net.cpp:400] res2a_branch2a/relu -> res2a_branch2a/bn (in-place)
I0711 21:56:26.443620 13090 net.cpp:148] Setting up res2a_branch2a/relu
I0711 21:56:26.443637 13090 net.cpp:155] Top shape: 4 64 160 160 (6553600)
I0711 21:56:26.443650 13090 net.cpp:163] Memory required for data: 471859200
I0711 21:56:26.443666 13090 layer_factory.hpp:77] Creating layer res2a_branch2b
I0711 21:56:26.443692 13090 net.cpp:98] Creating Layer res2a_branch2b
I0711 21:56:26.443706 13090 net.cpp:439] res2a_branch2b <- res2a_branch2a/bn
I0711 21:56:26.443722 13090 net.cpp:413] res2a_branch2b -> res2a_branch2b
I0711 21:56:26.444669 13090 net.cpp:148] Setting up res2a_branch2b
I0711 21:56:26.444689 13090 net.cpp:155] Top shape: 4 64 160 160 (6553600)
I0711 21:56:26.444699 13090 net.cpp:163] Memory required for data: 498073600
I0711 21:56:26.444710 13090 layer_factory.hpp:77] Creating layer res2a_branch2b/bn
I0711 21:56:26.444722 13090 net.cpp:98] Creating Layer res2a_branch2b/bn
I0711 21:56:26.444731 13090 net.cpp:439] res2a_branch2b/bn <- res2a_branch2b
I0711 21:56:26.444741 13090 net.cpp:413] res2a_branch2b/bn -> res2a_branch2b/bn
I0711 21:56:26.446015 13090 net.cpp:148] Setting up res2a_branch2b/bn
I0711 21:56:26.446082 13090 net.cpp:155] Top shape: 4 64 160 160 (6553600)
I0711 21:56:26.446094 13090 net.cpp:163] Memory required for data: 524288000
I0711 21:56:26.446110 13090 layer_factory.hpp:77] Creating layer res2a_branch2b/relu
I0711 21:56:26.446125 13090 net.cpp:98] Creating Layer res2a_branch2b/relu
I0711 21:56:26.446135 13090 net.cpp:439] res2a_branch2b/relu <- res2a_branch2b/bn
I0711 21:56:26.446146 13090 net.cpp:400] res2a_branch2b/relu -> res2a_branch2b/bn (in-place)
I0711 21:56:26.446159 13090 net.cpp:148] Setting up res2a_branch2b/relu
I0711 21:56:26.446168 13090 net.cpp:155] Top shape: 4 64 160 160 (6553600)
I0711 21:56:26.446177 13090 net.cpp:163] Memory required for data: 550502400
I0711 21:56:26.446184 13090 layer_factory.hpp:77] Creating layer pool2
I0711 21:56:26.446197 13090 net.cpp:98] Creating Layer pool2
I0711 21:56:26.446205 13090 net.cpp:439] pool2 <- res2a_branch2b/bn
I0711 21:56:26.446214 13090 net.cpp:413] pool2 -> pool2
I0711 21:56:26.446313 13090 net.cpp:148] Setting up pool2
I0711 21:56:26.446352 13090 net.cpp:155] Top shape: 4 64 80 80 (1638400)
I0711 21:56:26.446359 13090 net.cpp:163] Memory required for data: 557056000
I0711 21:56:26.446367 13090 layer_factory.hpp:77] Creating layer res3a_branch2a
I0711 21:56:26.446386 13090 net.cpp:98] Creating Layer res3a_branch2a
I0711 21:56:26.446395 13090 net.cpp:439] res3a_branch2a <- pool2
I0711 21:56:26.446405 13090 net.cpp:413] res3a_branch2a -> res3a_branch2a
I0711 21:56:26.448885 13090 net.cpp:148] Setting up res3a_branch2a
I0711 21:56:26.448900 13090 net.cpp:155] Top shape: 4 128 80 80 (3276800)
I0711 21:56:26.448904 13090 net.cpp:163] Memory required for data: 570163200
I0711 21:56:26.448909 13090 layer_factory.hpp:77] Creating layer res3a_branch2a/bn
I0711 21:56:26.448920 13090 net.cpp:98] Creating Layer res3a_branch2a/bn
I0711 21:56:26.448923 13090 net.cpp:439] res3a_branch2a/bn <- res3a_branch2a
I0711 21:56:26.448931 13090 net.cpp:413] res3a_branch2a/bn -> res3a_branch2a/bn
I0711 21:56:26.449734 13090 net.cpp:148] Setting up res3a_branch2a/bn
I0711 21:56:26.449743 13090 net.cpp:155] Top shape: 4 128 80 80 (3276800)
I0711 21:56:26.449745 13090 net.cpp:163] Memory required for data: 583270400
I0711 21:56:26.449759 13090 layer_factory.hpp:77] Creating layer res3a_branch2a/relu
I0711 21:56:26.449765 13090 net.cpp:98] Creating Layer res3a_branch2a/relu
I0711 21:56:26.449769 13090 net.cpp:439] res3a_branch2a/relu <- res3a_branch2a/bn
I0711 21:56:26.449779 13090 net.cpp:400] res3a_branch2a/relu -> res3a_branch2a/bn (in-place)
I0711 21:56:26.449784 13090 net.cpp:148] Setting up res3a_branch2a/relu
I0711 21:56:26.449790 13090 net.cpp:155] Top shape: 4 128 80 80 (3276800)
I0711 21:56:26.449792 13090 net.cpp:163] Memory required for data: 596377600
I0711 21:56:26.449796 13090 layer_factory.hpp:77] Creating layer res3a_branch2b
I0711 21:56:26.449805 13090 net.cpp:98] Creating Layer res3a_branch2b
I0711 21:56:26.449808 13090 net.cpp:439] res3a_branch2b <- res3a_branch2a/bn
I0711 21:56:26.449813 13090 net.cpp:413] res3a_branch2b -> res3a_branch2b
I0711 21:56:26.450959 13090 net.cpp:148] Setting up res3a_branch2b
I0711 21:56:26.450968 13090 net.cpp:155] Top shape: 4 128 80 80 (3276800)
I0711 21:56:26.450971 13090 net.cpp:163] Memory required for data: 609484800
I0711 21:56:26.450978 13090 layer_factory.hpp:77] Creating layer res3a_branch2b/bn
I0711 21:56:26.450995 13090 net.cpp:98] Creating Layer res3a_branch2b/bn
I0711 21:56:26.451001 13090 net.cpp:439] res3a_branch2b/bn <- res3a_branch2b
I0711 21:56:26.451012 13090 net.cpp:413] res3a_branch2b/bn -> res3a_branch2b/bn
I0711 21:56:26.454614 13090 net.cpp:148] Setting up res3a_branch2b/bn
I0711 21:56:26.454668 13090 net.cpp:155] Top shape: 4 128 80 80 (3276800)
I0711 21:56:26.454689 13090 net.cpp:163] Memory required for data: 622592000
I0711 21:56:26.454715 13090 layer_factory.hpp:77] Creating layer res3a_branch2b/relu
I0711 21:56:26.454747 13090 net.cpp:98] Creating Layer res3a_branch2b/relu
I0711 21:56:26.454769 13090 net.cpp:439] res3a_branch2b/relu <- res3a_branch2b/bn
I0711 21:56:26.454789 13090 net.cpp:400] res3a_branch2b/relu -> res3a_branch2b/bn (in-place)
I0711 21:56:26.454813 13090 net.cpp:148] Setting up res3a_branch2b/relu
I0711 21:56:26.454834 13090 net.cpp:155] Top shape: 4 128 80 80 (3276800)
I0711 21:56:26.454851 13090 net.cpp:163] Memory required for data: 635699200
I0711 21:56:26.454869 13090 layer_factory.hpp:77] Creating layer res3a_branch2b/bn_res3a_branch2b/relu_0_split
I0711 21:56:26.454895 13090 net.cpp:98] Creating Layer res3a_branch2b/bn_res3a_branch2b/relu_0_split
I0711 21:56:26.454915 13090 net.cpp:439] res3a_branch2b/bn_res3a_branch2b/relu_0_split <- res3a_branch2b/bn
I0711 21:56:26.454936 13090 net.cpp:413] res3a_branch2b/bn_res3a_branch2b/relu_0_split -> res3a_branch2b/bn_res3a_branch2b/relu_0_split_0
I0711 21:56:26.454957 13090 net.cpp:413] res3a_branch2b/bn_res3a_branch2b/relu_0_split -> res3a_branch2b/bn_res3a_branch2b/relu_0_split_1
I0711 21:56:26.455052 13090 net.cpp:148] Setting up res3a_branch2b/bn_res3a_branch2b/relu_0_split
I0711 21:56:26.455081 13090 net.cpp:155] Top shape: 4 128 80 80 (3276800)
I0711 21:56:26.455121 13090 net.cpp:155] Top shape: 4 128 80 80 (3276800)
I0711 21:56:26.455139 13090 net.cpp:163] Memory required for data: 661913600
I0711 21:56:26.455154 13090 layer_factory.hpp:77] Creating layer pool3
I0711 21:56:26.455175 13090 net.cpp:98] Creating Layer pool3
I0711 21:56:26.455193 13090 net.cpp:439] pool3 <- res3a_branch2b/bn_res3a_branch2b/relu_0_split_0
I0711 21:56:26.455209 13090 net.cpp:413] pool3 -> pool3
I0711 21:56:26.455313 13090 net.cpp:148] Setting up pool3
I0711 21:56:26.455332 13090 net.cpp:155] Top shape: 4 128 40 40 (819200)
I0711 21:56:26.455350 13090 net.cpp:163] Memory required for data: 665190400
I0711 21:56:26.455368 13090 layer_factory.hpp:77] Creating layer res4a_branch2a
I0711 21:56:26.455394 13090 net.cpp:98] Creating Layer res4a_branch2a
I0711 21:56:26.455411 13090 net.cpp:439] res4a_branch2a <- pool3
I0711 21:56:26.455436 13090 net.cpp:413] res4a_branch2a -> res4a_branch2a
I0711 21:56:26.465858 13090 net.cpp:148] Setting up res4a_branch2a
I0711 21:56:26.465960 13090 net.cpp:155] Top shape: 4 256 40 40 (1638400)
I0711 21:56:26.465978 13090 net.cpp:163] Memory required for data: 671744000
I0711 21:56:26.465997 13090 layer_factory.hpp:77] Creating layer res4a_branch2a/bn
I0711 21:56:26.466019 13090 net.cpp:98] Creating Layer res4a_branch2a/bn
I0711 21:56:26.466034 13090 net.cpp:439] res4a_branch2a/bn <- res4a_branch2a
I0711 21:56:26.466054 13090 net.cpp:413] res4a_branch2a/bn -> res4a_branch2a/bn
I0711 21:56:26.467051 13090 net.cpp:148] Setting up res4a_branch2a/bn
I0711 21:56:26.467061 13090 net.cpp:155] Top shape: 4 256 40 40 (1638400)
I0711 21:56:26.467063 13090 net.cpp:163] Memory required for data: 678297600
I0711 21:56:26.467072 13090 layer_factory.hpp:77] Creating layer res4a_branch2a/relu
I0711 21:56:26.467077 13090 net.cpp:98] Creating Layer res4a_branch2a/relu
I0711 21:56:26.467079 13090 net.cpp:439] res4a_branch2a/relu <- res4a_branch2a/bn
I0711 21:56:26.467083 13090 net.cpp:400] res4a_branch2a/relu -> res4a_branch2a/bn (in-place)
I0711 21:56:26.467090 13090 net.cpp:148] Setting up res4a_branch2a/relu
I0711 21:56:26.467094 13090 net.cpp:155] Top shape: 4 256 40 40 (1638400)
I0711 21:56:26.467097 13090 net.cpp:163] Memory required for data: 684851200
I0711 21:56:26.467102 13090 layer_factory.hpp:77] Creating layer res4a_branch2b
I0711 21:56:26.467109 13090 net.cpp:98] Creating Layer res4a_branch2b
I0711 21:56:26.467113 13090 net.cpp:439] res4a_branch2b <- res4a_branch2a/bn
I0711 21:56:26.467116 13090 net.cpp:413] res4a_branch2b -> res4a_branch2b
I0711 21:56:26.470491 13090 net.cpp:148] Setting up res4a_branch2b
I0711 21:56:26.470499 13090 net.cpp:155] Top shape: 4 256 40 40 (1638400)
I0711 21:56:26.470500 13090 net.cpp:163] Memory required for data: 691404800
I0711 21:56:26.470504 13090 layer_factory.hpp:77] Creating layer res4a_branch2b/bn
I0711 21:56:26.470507 13090 net.cpp:98] Creating Layer res4a_branch2b/bn
I0711 21:56:26.470510 13090 net.cpp:439] res4a_branch2b/bn <- res4a_branch2b
I0711 21:56:26.470512 13090 net.cpp:413] res4a_branch2b/bn -> res4a_branch2b/bn
I0711 21:56:26.471202 13090 net.cpp:148] Setting up res4a_branch2b/bn
I0711 21:56:26.471209 13090 net.cpp:155] Top shape: 4 256 40 40 (1638400)
I0711 21:56:26.471210 13090 net.cpp:163] Memory required for data: 697958400
I0711 21:56:26.471215 13090 layer_factory.hpp:77] Creating layer res4a_branch2b/relu
I0711 21:56:26.471217 13090 net.cpp:98] Creating Layer res4a_branch2b/relu
I0711 21:56:26.471220 13090 net.cpp:439] res4a_branch2b/relu <- res4a_branch2b/bn
I0711 21:56:26.471222 13090 net.cpp:400] res4a_branch2b/relu -> res4a_branch2b/bn (in-place)
I0711 21:56:26.471225 13090 net.cpp:148] Setting up res4a_branch2b/relu
I0711 21:56:26.471227 13090 net.cpp:155] Top shape: 4 256 40 40 (1638400)
I0711 21:56:26.471230 13090 net.cpp:163] Memory required for data: 704512000
I0711 21:56:26.471231 13090 layer_factory.hpp:77] Creating layer pool4
I0711 21:56:26.471235 13090 net.cpp:98] Creating Layer pool4
I0711 21:56:26.471237 13090 net.cpp:439] pool4 <- res4a_branch2b/bn
I0711 21:56:26.471251 13090 net.cpp:413] pool4 -> pool4
I0711 21:56:26.471293 13090 net.cpp:148] Setting up pool4
I0711 21:56:26.471297 13090 net.cpp:155] Top shape: 4 256 40 40 (1638400)
I0711 21:56:26.471299 13090 net.cpp:163] Memory required for data: 711065600
I0711 21:56:26.471302 13090 layer_factory.hpp:77] Creating layer res5a_branch2a
I0711 21:56:26.471307 13090 net.cpp:98] Creating Layer res5a_branch2a
I0711 21:56:26.471310 13090 net.cpp:439] res5a_branch2a <- pool4
I0711 21:56:26.471313 13090 net.cpp:413] res5a_branch2a -> res5a_branch2a
I0711 21:56:26.496119 13090 net.cpp:148] Setting up res5a_branch2a
I0711 21:56:26.496131 13090 net.cpp:155] Top shape: 4 512 40 40 (3276800)
I0711 21:56:26.496134 13090 net.cpp:163] Memory required for data: 724172800
I0711 21:56:26.496139 13090 layer_factory.hpp:77] Creating layer res5a_branch2a/bn
I0711 21:56:26.496146 13090 net.cpp:98] Creating Layer res5a_branch2a/bn
I0711 21:56:26.496150 13090 net.cpp:439] res5a_branch2a/bn <- res5a_branch2a
I0711 21:56:26.496152 13090 net.cpp:413] res5a_branch2a/bn -> res5a_branch2a/bn
I0711 21:56:26.496858 13090 net.cpp:148] Setting up res5a_branch2a/bn
I0711 21:56:26.496865 13090 net.cpp:155] Top shape: 4 512 40 40 (3276800)
I0711 21:56:26.496867 13090 net.cpp:163] Memory required for data: 737280000
I0711 21:56:26.496872 13090 layer_factory.hpp:77] Creating layer res5a_branch2a/relu
I0711 21:56:26.496876 13090 net.cpp:98] Creating Layer res5a_branch2a/relu
I0711 21:56:26.496877 13090 net.cpp:439] res5a_branch2a/relu <- res5a_branch2a/bn
I0711 21:56:26.496881 13090 net.cpp:400] res5a_branch2a/relu -> res5a_branch2a/bn (in-place)
I0711 21:56:26.496884 13090 net.cpp:148] Setting up res5a_branch2a/relu
I0711 21:56:26.496886 13090 net.cpp:155] Top shape: 4 512 40 40 (3276800)
I0711 21:56:26.496888 13090 net.cpp:163] Memory required for data: 750387200
I0711 21:56:26.496891 13090 layer_factory.hpp:77] Creating layer res5a_branch2b
I0711 21:56:26.496894 13090 net.cpp:98] Creating Layer res5a_branch2b
I0711 21:56:26.496896 13090 net.cpp:439] res5a_branch2b <- res5a_branch2a/bn
I0711 21:56:26.496899 13090 net.cpp:413] res5a_branch2b -> res5a_branch2b
I0711 21:56:26.509726 13090 net.cpp:148] Setting up res5a_branch2b
I0711 21:56:26.509734 13090 net.cpp:155] Top shape: 4 512 40 40 (3276800)
I0711 21:56:26.509737 13090 net.cpp:163] Memory required for data: 763494400
I0711 21:56:26.509743 13090 layer_factory.hpp:77] Creating layer res5a_branch2b/bn
I0711 21:56:26.509747 13090 net.cpp:98] Creating Layer res5a_branch2b/bn
I0711 21:56:26.509749 13090 net.cpp:439] res5a_branch2b/bn <- res5a_branch2b
I0711 21:56:26.509752 13090 net.cpp:413] res5a_branch2b/bn -> res5a_branch2b/bn
I0711 21:56:26.510453 13090 net.cpp:148] Setting up res5a_branch2b/bn
I0711 21:56:26.510459 13090 net.cpp:155] Top shape: 4 512 40 40 (3276800)
I0711 21:56:26.510462 13090 net.cpp:163] Memory required for data: 776601600
I0711 21:56:26.510466 13090 layer_factory.hpp:77] Creating layer res5a_branch2b/relu
I0711 21:56:26.510469 13090 net.cpp:98] Creating Layer res5a_branch2b/relu
I0711 21:56:26.510471 13090 net.cpp:439] res5a_branch2b/relu <- res5a_branch2b/bn
I0711 21:56:26.510473 13090 net.cpp:400] res5a_branch2b/relu -> res5a_branch2b/bn (in-place)
I0711 21:56:26.510478 13090 net.cpp:148] Setting up res5a_branch2b/relu
I0711 21:56:26.510479 13090 net.cpp:155] Top shape: 4 512 40 40 (3276800)
I0711 21:56:26.510481 13090 net.cpp:163] Memory required for data: 789708800
I0711 21:56:26.510483 13090 layer_factory.hpp:77] Creating layer out5a
I0711 21:56:26.510488 13090 net.cpp:98] Creating Layer out5a
I0711 21:56:26.510489 13090 net.cpp:439] out5a <- res5a_branch2b/bn
I0711 21:56:26.510491 13090 net.cpp:413] out5a -> out5a
I0711 21:56:26.514597 13090 net.cpp:148] Setting up out5a
I0711 21:56:26.514606 13090 net.cpp:155] Top shape: 4 64 40 40 (409600)
I0711 21:56:26.514608 13090 net.cpp:163] Memory required for data: 791347200
I0711 21:56:26.514612 13090 layer_factory.hpp:77] Creating layer out5a/bn
I0711 21:56:26.514617 13090 net.cpp:98] Creating Layer out5a/bn
I0711 21:56:26.514621 13090 net.cpp:439] out5a/bn <- out5a
I0711 21:56:26.514632 13090 net.cpp:413] out5a/bn -> out5a/bn
I0711 21:56:26.515403 13090 net.cpp:148] Setting up out5a/bn
I0711 21:56:26.515408 13090 net.cpp:155] Top shape: 4 64 40 40 (409600)
I0711 21:56:26.515410 13090 net.cpp:163] Memory required for data: 792985600
I0711 21:56:26.515415 13090 layer_factory.hpp:77] Creating layer out5a/relu
I0711 21:56:26.515419 13090 net.cpp:98] Creating Layer out5a/relu
I0711 21:56:26.515420 13090 net.cpp:439] out5a/relu <- out5a/bn
I0711 21:56:26.515424 13090 net.cpp:400] out5a/relu -> out5a/bn (in-place)
I0711 21:56:26.515426 13090 net.cpp:148] Setting up out5a/relu
I0711 21:56:26.515429 13090 net.cpp:155] Top shape: 4 64 40 40 (409600)
I0711 21:56:26.515430 13090 net.cpp:163] Memory required for data: 794624000
I0711 21:56:26.515432 13090 layer_factory.hpp:77] Creating layer out5a_up2
I0711 21:56:26.515436 13090 net.cpp:98] Creating Layer out5a_up2
I0711 21:56:26.515439 13090 net.cpp:439] out5a_up2 <- out5a/bn
I0711 21:56:26.515440 13090 net.cpp:413] out5a_up2 -> out5a_up2
I0711 21:56:26.515705 13090 net.cpp:148] Setting up out5a_up2
I0711 21:56:26.515710 13090 net.cpp:155] Top shape: 4 64 80 80 (1638400)
I0711 21:56:26.515712 13090 net.cpp:163] Memory required for data: 801177600
I0711 21:56:26.515715 13090 layer_factory.hpp:77] Creating layer out3a
I0711 21:56:26.515719 13090 net.cpp:98] Creating Layer out3a
I0711 21:56:26.515722 13090 net.cpp:439] out3a <- res3a_branch2b/bn_res3a_branch2b/relu_0_split_1
I0711 21:56:26.515724 13090 net.cpp:413] out3a -> out3a
I0711 21:56:26.517662 13090 net.cpp:148] Setting up out3a
I0711 21:56:26.517669 13090 net.cpp:155] Top shape: 4 64 80 80 (1638400)
I0711 21:56:26.517673 13090 net.cpp:163] Memory required for data: 807731200
I0711 21:56:26.517676 13090 layer_factory.hpp:77] Creating layer out3a/bn
I0711 21:56:26.517679 13090 net.cpp:98] Creating Layer out3a/bn
I0711 21:56:26.517683 13090 net.cpp:439] out3a/bn <- out3a
I0711 21:56:26.517685 13090 net.cpp:413] out3a/bn -> out3a/bn
I0711 21:56:26.518471 13090 net.cpp:148] Setting up out3a/bn
I0711 21:56:26.518476 13090 net.cpp:155] Top shape: 4 64 80 80 (1638400)
I0711 21:56:26.518478 13090 net.cpp:163] Memory required for data: 814284800
I0711 21:56:26.518483 13090 layer_factory.hpp:77] Creating layer out3a/relu
I0711 21:56:26.518486 13090 net.cpp:98] Creating Layer out3a/relu
I0711 21:56:26.518488 13090 net.cpp:439] out3a/relu <- out3a/bn
I0711 21:56:26.518491 13090 net.cpp:400] out3a/relu -> out3a/bn (in-place)
I0711 21:56:26.518494 13090 net.cpp:148] Setting up out3a/relu
I0711 21:56:26.518496 13090 net.cpp:155] Top shape: 4 64 80 80 (1638400)
I0711 21:56:26.518498 13090 net.cpp:163] Memory required for data: 820838400
I0711 21:56:26.518501 13090 layer_factory.hpp:77] Creating layer out3_out5_combined
I0711 21:56:26.518502 13090 net.cpp:98] Creating Layer out3_out5_combined
I0711 21:56:26.518504 13090 net.cpp:439] out3_out5_combined <- out5a_up2
I0711 21:56:26.518507 13090 net.cpp:439] out3_out5_combined <- out3a/bn
I0711 21:56:26.518509 13090 net.cpp:413] out3_out5_combined -> out3_out5_combined
I0711 21:56:26.518532 13090 net.cpp:148] Setting up out3_out5_combined
I0711 21:56:26.518537 13090 net.cpp:155] Top shape: 4 64 80 80 (1638400)
I0711 21:56:26.518537 13090 net.cpp:163] Memory required for data: 827392000
I0711 21:56:26.518539 13090 layer_factory.hpp:77] Creating layer ctx_conv1
I0711 21:56:26.518543 13090 net.cpp:98] Creating Layer ctx_conv1
I0711 21:56:26.518545 13090 net.cpp:439] ctx_conv1 <- out3_out5_combined
I0711 21:56:26.518548 13090 net.cpp:413] ctx_conv1 -> ctx_conv1
I0711 21:56:26.519593 13090 net.cpp:148] Setting up ctx_conv1
I0711 21:56:26.519598 13090 net.cpp:155] Top shape: 4 64 80 80 (1638400)
I0711 21:56:26.519600 13090 net.cpp:163] Memory required for data: 833945600
I0711 21:56:26.519604 13090 layer_factory.hpp:77] Creating layer ctx_conv1/bn
I0711 21:56:26.519608 13090 net.cpp:98] Creating Layer ctx_conv1/bn
I0711 21:56:26.519609 13090 net.cpp:439] ctx_conv1/bn <- ctx_conv1
I0711 21:56:26.519611 13090 net.cpp:413] ctx_conv1/bn -> ctx_conv1/bn
I0711 21:56:26.520397 13090 net.cpp:148] Setting up ctx_conv1/bn
I0711 21:56:26.520403 13090 net.cpp:155] Top shape: 4 64 80 80 (1638400)
I0711 21:56:26.520406 13090 net.cpp:163] Memory required for data: 840499200
I0711 21:56:26.520411 13090 layer_factory.hpp:77] Creating layer ctx_conv1/relu
I0711 21:56:26.520413 13090 net.cpp:98] Creating Layer ctx_conv1/relu
I0711 21:56:26.520416 13090 net.cpp:439] ctx_conv1/relu <- ctx_conv1/bn
I0711 21:56:26.520417 13090 net.cpp:400] ctx_conv1/relu -> ctx_conv1/bn (in-place)
I0711 21:56:26.520421 13090 net.cpp:148] Setting up ctx_conv1/relu
I0711 21:56:26.520423 13090 net.cpp:155] Top shape: 4 64 80 80 (1638400)
I0711 21:56:26.520426 13090 net.cpp:163] Memory required for data: 847052800
I0711 21:56:26.520426 13090 layer_factory.hpp:77] Creating layer ctx_conv2
I0711 21:56:26.520432 13090 net.cpp:98] Creating Layer ctx_conv2
I0711 21:56:26.520434 13090 net.cpp:439] ctx_conv2 <- ctx_conv1/bn
I0711 21:56:26.520437 13090 net.cpp:413] ctx_conv2 -> ctx_conv2
I0711 21:56:26.521483 13090 net.cpp:148] Setting up ctx_conv2
I0711 21:56:26.521489 13090 net.cpp:155] Top shape: 4 64 80 80 (1638400)
I0711 21:56:26.521492 13090 net.cpp:163] Memory required for data: 853606400
I0711 21:56:26.521494 13090 layer_factory.hpp:77] Creating layer ctx_conv2/bn
I0711 21:56:26.521497 13090 net.cpp:98] Creating Layer ctx_conv2/bn
I0711 21:56:26.521499 13090 net.cpp:439] ctx_conv2/bn <- ctx_conv2
I0711 21:56:26.521502 13090 net.cpp:413] ctx_conv2/bn -> ctx_conv2/bn
I0711 21:56:26.522287 13090 net.cpp:148] Setting up ctx_conv2/bn
I0711 21:56:26.522292 13090 net.cpp:155] Top shape: 4 64 80 80 (1638400)
I0711 21:56:26.522294 13090 net.cpp:163] Memory required for data: 860160000
I0711 21:56:26.522299 13090 layer_factory.hpp:77] Creating layer ctx_conv2/relu
I0711 21:56:26.522301 13090 net.cpp:98] Creating Layer ctx_conv2/relu
I0711 21:56:26.522303 13090 net.cpp:439] ctx_conv2/relu <- ctx_conv2/bn
I0711 21:56:26.522305 13090 net.cpp:400] ctx_conv2/relu -> ctx_conv2/bn (in-place)
I0711 21:56:26.522310 13090 net.cpp:148] Setting up ctx_conv2/relu
I0711 21:56:26.522311 13090 net.cpp:155] Top shape: 4 64 80 80 (1638400)
I0711 21:56:26.522312 13090 net.cpp:163] Memory required for data: 866713600
I0711 21:56:26.522315 13090 layer_factory.hpp:77] Creating layer ctx_conv3
I0711 21:56:26.522318 13090 net.cpp:98] Creating Layer ctx_conv3
I0711 21:56:26.522320 13090 net.cpp:439] ctx_conv3 <- ctx_conv2/bn
I0711 21:56:26.522323 13090 net.cpp:413] ctx_conv3 -> ctx_conv3
I0711 21:56:26.523368 13090 net.cpp:148] Setting up ctx_conv3
I0711 21:56:26.523373 13090 net.cpp:155] Top shape: 4 64 80 80 (1638400)
I0711 21:56:26.523375 13090 net.cpp:163] Memory required for data: 873267200
I0711 21:56:26.523378 13090 layer_factory.hpp:77] Creating layer ctx_conv3/bn
I0711 21:56:26.523381 13090 net.cpp:98] Creating Layer ctx_conv3/bn
I0711 21:56:26.523383 13090 net.cpp:439] ctx_conv3/bn <- ctx_conv3
I0711 21:56:26.523386 13090 net.cpp:413] ctx_conv3/bn -> ctx_conv3/bn
I0711 21:56:26.524163 13090 net.cpp:148] Setting up ctx_conv3/bn
I0711 21:56:26.524168 13090 net.cpp:155] Top shape: 4 64 80 80 (1638400)
I0711 21:56:26.524169 13090 net.cpp:163] Memory required for data: 879820800
I0711 21:56:26.524174 13090 layer_factory.hpp:77] Creating layer ctx_conv3/relu
I0711 21:56:26.524178 13090 net.cpp:98] Creating Layer ctx_conv3/relu
I0711 21:56:26.524179 13090 net.cpp:439] ctx_conv3/relu <- ctx_conv3/bn
I0711 21:56:26.524183 13090 net.cpp:400] ctx_conv3/relu -> ctx_conv3/bn (in-place)
I0711 21:56:26.524185 13090 net.cpp:148] Setting up ctx_conv3/relu
I0711 21:56:26.524188 13090 net.cpp:155] Top shape: 4 64 80 80 (1638400)
I0711 21:56:26.524189 13090 net.cpp:163] Memory required for data: 886374400
I0711 21:56:26.524191 13090 layer_factory.hpp:77] Creating layer ctx_conv4
I0711 21:56:26.524194 13090 net.cpp:98] Creating Layer ctx_conv4
I0711 21:56:26.524196 13090 net.cpp:439] ctx_conv4 <- ctx_conv3/bn
I0711 21:56:26.524199 13090 net.cpp:413] ctx_conv4 -> ctx_conv4
I0711 21:56:26.525246 13090 net.cpp:148] Setting up ctx_conv4
I0711 21:56:26.525257 13090 net.cpp:155] Top shape: 4 64 80 80 (1638400)
I0711 21:56:26.525259 13090 net.cpp:163] Memory required for data: 892928000
I0711 21:56:26.525264 13090 layer_factory.hpp:77] Creating layer ctx_conv4/bn
I0711 21:56:26.525266 13090 net.cpp:98] Creating Layer ctx_conv4/bn
I0711 21:56:26.525269 13090 net.cpp:439] ctx_conv4/bn <- ctx_conv4
I0711 21:56:26.525271 13090 net.cpp:413] ctx_conv4/bn -> ctx_conv4/bn
I0711 21:56:26.526054 13090 net.cpp:148] Setting up ctx_conv4/bn
I0711 21:56:26.526059 13090 net.cpp:155] Top shape: 4 64 80 80 (1638400)
I0711 21:56:26.526062 13090 net.cpp:163] Memory required for data: 899481600
I0711 21:56:26.526067 13090 layer_factory.hpp:77] Creating layer ctx_conv4/relu
I0711 21:56:26.526069 13090 net.cpp:98] Creating Layer ctx_conv4/relu
I0711 21:56:26.526072 13090 net.cpp:439] ctx_conv4/relu <- ctx_conv4/bn
I0711 21:56:26.526073 13090 net.cpp:400] ctx_conv4/relu -> ctx_conv4/bn (in-place)
I0711 21:56:26.526077 13090 net.cpp:148] Setting up ctx_conv4/relu
I0711 21:56:26.526078 13090 net.cpp:155] Top shape: 4 64 80 80 (1638400)
I0711 21:56:26.526080 13090 net.cpp:163] Memory required for data: 906035200
I0711 21:56:26.526082 13090 layer_factory.hpp:77] Creating layer ctx_final
I0711 21:56:26.526085 13090 net.cpp:98] Creating Layer ctx_final
I0711 21:56:26.526087 13090 net.cpp:439] ctx_final <- ctx_conv4/bn
I0711 21:56:26.526089 13090 net.cpp:413] ctx_final -> ctx_final
I0711 21:56:26.526509 13090 net.cpp:148] Setting up ctx_final
I0711 21:56:26.526513 13090 net.cpp:155] Top shape: 4 8 80 80 (204800)
I0711 21:56:26.526515 13090 net.cpp:163] Memory required for data: 906854400
I0711 21:56:26.526518 13090 layer_factory.hpp:77] Creating layer ctx_final/relu
I0711 21:56:26.526521 13090 net.cpp:98] Creating Layer ctx_final/relu
I0711 21:56:26.526523 13090 net.cpp:439] ctx_final/relu <- ctx_final
I0711 21:56:26.526525 13090 net.cpp:400] ctx_final/relu -> ctx_final (in-place)
I0711 21:56:26.526528 13090 net.cpp:148] Setting up ctx_final/relu
I0711 21:56:26.526531 13090 net.cpp:155] Top shape: 4 8 80 80 (204800)
I0711 21:56:26.526532 13090 net.cpp:163] Memory required for data: 907673600
I0711 21:56:26.526535 13090 layer_factory.hpp:77] Creating layer out_deconv_final_up2
I0711 21:56:26.526537 13090 net.cpp:98] Creating Layer out_deconv_final_up2
I0711 21:56:26.526540 13090 net.cpp:439] out_deconv_final_up2 <- ctx_final
I0711 21:56:26.526541 13090 net.cpp:413] out_deconv_final_up2 -> out_deconv_final_up2
I0711 21:56:26.526792 13090 net.cpp:148] Setting up out_deconv_final_up2
I0711 21:56:26.526796 13090 net.cpp:155] Top shape: 4 8 160 160 (819200)
I0711 21:56:26.526798 13090 net.cpp:163] Memory required for data: 910950400
I0711 21:56:26.526800 13090 layer_factory.hpp:77] Creating layer out_deconv_final_up4
I0711 21:56:26.526803 13090 net.cpp:98] Creating Layer out_deconv_final_up4
I0711 21:56:26.526805 13090 net.cpp:439] out_deconv_final_up4 <- out_deconv_final_up2
I0711 21:56:26.526808 13090 net.cpp:413] out_deconv_final_up4 -> out_deconv_final_up4
I0711 21:56:26.527055 13090 net.cpp:148] Setting up out_deconv_final_up4
I0711 21:56:26.527060 13090 net.cpp:155] Top shape: 4 8 320 320 (3276800)
I0711 21:56:26.527061 13090 net.cpp:163] Memory required for data: 924057600
I0711 21:56:26.527063 13090 layer_factory.hpp:77] Creating layer out_deconv_final_up8
I0711 21:56:26.527066 13090 net.cpp:98] Creating Layer out_deconv_final_up8
I0711 21:56:26.527068 13090 net.cpp:439] out_deconv_final_up8 <- out_deconv_final_up4
I0711 21:56:26.527070 13090 net.cpp:413] out_deconv_final_up8 -> out_deconv_final_up8
I0711 21:56:26.527313 13090 net.cpp:148] Setting up out_deconv_final_up8
I0711 21:56:26.527318 13090 net.cpp:155] Top shape: 4 8 640 640 (13107200)
I0711 21:56:26.527319 13090 net.cpp:163] Memory required for data: 976486400
I0711 21:56:26.527321 13090 layer_factory.hpp:77] Creating layer out_deconv_final_up8_out_deconv_final_up8_0_split
I0711 21:56:26.527324 13090 net.cpp:98] Creating Layer out_deconv_final_up8_out_deconv_final_up8_0_split
I0711 21:56:26.527328 13090 net.cpp:439] out_deconv_final_up8_out_deconv_final_up8_0_split <- out_deconv_final_up8
I0711 21:56:26.527334 13090 net.cpp:413] out_deconv_final_up8_out_deconv_final_up8_0_split -> out_deconv_final_up8_out_deconv_final_up8_0_split_0
I0711 21:56:26.527338 13090 net.cpp:413] out_deconv_final_up8_out_deconv_final_up8_0_split -> out_deconv_final_up8_out_deconv_final_up8_0_split_1
I0711 21:56:26.527340 13090 net.cpp:413] out_deconv_final_up8_out_deconv_final_up8_0_split -> out_deconv_final_up8_out_deconv_final_up8_0_split_2
I0711 21:56:26.527397 13090 net.cpp:148] Setting up out_deconv_final_up8_out_deconv_final_up8_0_split
I0711 21:56:26.527401 13090 net.cpp:155] Top shape: 4 8 640 640 (13107200)
I0711 21:56:26.527405 13090 net.cpp:155] Top shape: 4 8 640 640 (13107200)
I0711 21:56:26.527406 13090 net.cpp:155] Top shape: 4 8 640 640 (13107200)
I0711 21:56:26.527407 13090 net.cpp:163] Memory required for data: 1133772800
I0711 21:56:26.527410 13090 layer_factory.hpp:77] Creating layer loss
I0711 21:56:26.527413 13090 net.cpp:98] Creating Layer loss
I0711 21:56:26.527416 13090 net.cpp:439] loss <- out_deconv_final_up8_out_deconv_final_up8_0_split_0
I0711 21:56:26.527418 13090 net.cpp:439] loss <- label_data_1_split_0
…
