…
W0703 01:28:04.490933 31050 parallel.cpp:400] Batch size must be divisible by the number of solvers (GPUs)
I0703 01:28:04.491334 31050 net.cpp:56] Initializing net from parameters: 
name: "jsegnet21v2_train"
state {
  phase: TRAIN
}
layer {
  name: "data"
  type: "ImageLabelData"
  top: "data"
  top: "label"
  transform_param {
    mirror: true
    crop_size: 640
    mean_value: 0
  }
  image_label_data_param {
    image_list_path: "data/train-image-lmdb"
    label_list_path: "data/train-label-lmdb"
    batch_size: 8
    threads: 4
    backend: LMDB
  }
}
layer {
  name: "data/bias"
  type: "Bias"
  bottom: "data"
  top: "data/bias"
  param {
    lr_mult: 0
    decay_mult: 0
  }
  bias_param {
    filler {
      type: "constant"
      value: -128
    }
  }
}
layer {
  name: "conv1a"
  type: "Convolution"
  bottom: "data/bias"
  top: "conv1a"
  param {
    lr_mult: 1
    decay_mult: 1
  }
  param {
    lr_mult: 2
    decay_mult: 0
  }
  convolution_param {
    num_output: 32
    bias_term: true
    pad: 2
    kernel_size: 5
    group: 1
    stride: 2
    weight_filler {
      type: "msra"
    }
    bias_filler {
      type: "constant"
      value: 0
    }
    dilation: 1
  }
}
layer {
  name: "conv1a/bn"
  type: "BatchNorm"
  bottom: "conv1a"
  top: "conv1a/bn"
  param {
    lr_mult: 1
    decay_mult: 1
  }
  param {
    lr_mult: 1
    decay_mult: 1
  }
  param {
    lr_mult: 0
    decay_mult: 0
  }
  param {
    lr_mult: 0
    decay_mult: 0
  }
  batch_norm_param {
    moving_average_fraction: 0.99
    eps: 0.0001
    scale_filler {
      type: "constant"
      value: 1
    }
    bias_filler {
      type: "constant"
      value: 0
    }
  }
}
layer {
  name: "conv1a/relu"
  type: "ReLU"
  bottom: "conv1a/bn"
  top: "conv1a/bn"
}
layer {
  name: "conv1b"
  type: "Convolution"
  bottom: "conv1a/bn"
  top: "conv1b"
  param {
    lr_mult: 1
    decay_mult: 1
  }
  param {
    lr_mult: 2
    decay_mult: 0
  }
  convolution_param {
    num_output: 32
    bias_term: true
    pad: 1
    kernel_size: 3
    group: 4
    stride: 1
    weight_filler {
      type: "msra"
    }
    bias_filler {
      type: "constant"
      value: 0
    }
    dilation: 1
  }
}
layer {
  name: "conv1b/bn"
  type: "BatchNorm"
  bottom: "conv1b"
  top: "conv1b/bn"
  param {
    lr_mult: 1
    decay_mult: 1
  }
  param {
    lr_mult: 1
    decay_mult: 1
  }
  param {
    lr_mult: 0
    decay_mult: 0
  }
  param {
    lr_mult: 0
    decay_mult: 0
  }
  batch_norm_param {
    moving_average_fraction: 0.99
    eps: 0.0001
    scale_filler {
      type: "constant"
      value: 1
    }
    bias_filler {
      type: "constant"
      value: 0
    }
  }
}
layer {
  name: "conv1b/relu"
  type: "ReLU"
  bottom: "conv1b/bn"
  top: "conv1b/bn"
}
layer {
  name: "pool1"
  type: "Pooling"
  bottom: "conv1b/bn"
  top: "pool1"
  pooling_param {
    pool: MAX
    kernel_size: 2
    stride: 2
  }
}
layer {
  name: "res2a_branch2a"
  type: "Convolution"
  bottom: "pool1"
  top: "res2a_branch2a"
  param {
    lr_mult: 1
    decay_mult: 1
  }
  param {
    lr_mult: 2
    decay_mult: 0
  }
  convolution_param {
    num_output: 64
    bias_term: true
    pad: 1
    kernel_size: 3
    group: 1
    stride: 1
    weight_filler {
      type: "msra"
    }
    bias_filler {
      type: "constant"
      value: 0
    }
    dilation: 1
  }
}
layer {
  name: "res2a_branch2a/bn"
  type: "BatchNorm"
  bottom: "res2a_branch2a"
  top: "res2a_branch2a/bn"
  param {
    lr_mult: 1
    decay_mult: 1
  }
  param {
    lr_mult: 1
    decay_mult: 1
  }
  param {
    lr_mult: 0
    decay_mult: 0
  }
  param {
    lr_mult: 0
    decay_mult: 0
  }
  batch_norm_param {
    moving_average_fraction: 0.99
    eps: 0.0001
    scale_filler {
      type: "constant"
      value: 1
    }
    bias_filler {
      type: "constant"
      value: 0
    }
  }
}
layer {
  name: "res2a_branch2a/relu"
  type: "ReLU"
  bottom: "res2a_branch2a/bn"
  top: "res2a_branch2a/bn"
}
layer {
  name: "res2a_branch2b"
  type: "Convolution"
  bottom: "res2a_branch2a/bn"
  top: "res2a_branch2b"
  param {
    lr_mult: 1
    decay_mult: 1
  }
  param {
    lr_mult: 2
    decay_mult: 0
  }
  convolution_param {
    num_output: 64
    bias_term: true
    pad: 1
    kernel_size: 3
    group: 4
    stride: 1
    weight_filler {
      type: "msra"
    }
    bias_filler {
      type: "constant"
      value: 0
    }
    dilation: 1
  }
}
layer {
  name: "res2a_branch2b/bn"
  type: "BatchNorm"
  bottom: "res2a_branch2b"
  top: "res2a_branch2b/bn"
  param {
    lr_mult: 1
    decay_mult: 1
  }
  param {
    lr_mult: 1
    decay_mult: 1
  }
  param {
    lr_mult: 0
    decay_mult: 0
  }
  param {
    lr_mult: 0
    decay_mult: 0
  }
  batch_norm_param {
    moving_average_fraction: 0.99
    eps: 0.0001
    scale_filler {
      type: "constant"
      value: 1
    }
    bias_filler {
      type: "constant"
      value: 0
    }
  }
}
layer {
  name: "res2a_branch2b/relu"
  type: "ReLU"
  bottom: "res2a_branch2b/bn"
  top: "res2a_branch2b/bn"
}
layer {
  name: "pool2"
  type: "Pooling"
  bottom: "res2a_branch2b/bn"
  top: "pool2"
  pooling_param {
    pool: MAX
    kernel_size: 2
    stride: 2
  }
}
layer {
  name: "res3a_branch2a"
  type: "Convolution"
  bottom: "pool2"
  top: "res3a_branch2a"
  param {
    lr_mult: 1
    decay_mult: 1
  }
  param {
    lr_mult: 2
    decay_mult: 0
  }
  convolution_param {
    num_output: 128
    bias_term: true
    pad: 1
    kernel_size: 3
    group: 1
    stride: 1
    weight_filler {
      type: "msra"
    }
    bias_filler {
      type: "constant"
      value: 0
    }
    dilation: 1
  }
}
layer {
  name: "res3a_branch2a/bn"
  type: "BatchNorm"
  bottom: "res3a_branch2a"
  top: "res3a_branch2a/bn"
  param {
    lr_mult: 1
    decay_mult: 1
  }
  param {
    lr_mult: 1
    decay_mult: 1
  }
  param {
    lr_mult: 0
    decay_mult: 0
  }
  param {
    lr_mult: 0
    decay_mult: 0
  }
  batch_norm_param {
    moving_average_fraction: 0.99
    eps: 0.0001
    scale_filler {
      type: "constant"
      value: 1
    }
    bias_filler {
      type: "constant"
      value: 0
    }
  }
}
layer {
  name: "res3a_branch2a/relu"
  type: "ReLU"
  bottom: "res3a_branch2a/bn"
  top: "res3a_branch2a/bn"
}
layer {
  name: "res3a_branch2b"
  type: "Convolution"
  bottom: "res3a_branch2a/bn"
  top: "res3a_branch2b"
  param {
    lr_mult: 1
    decay_mult: 1
  }
  param {
    lr_mult: 2
    decay_mult: 0
  }
  convolution_param {
    num_output: 128
    bias_term: true
    pad: 1
    kernel_size: 3
    group: 4
    stride: 1
    weight_filler {
      type: "msra"
    }
    bias_filler {
      type: "constant"
      value: 0
    }
    dilation: 1
  }
}
layer {
  name: "res3a_branch2b/bn"
  type: "BatchNorm"
  bottom: "res3a_branch2b"
  top: "res3a_branch2b/bn"
  param {
    lr_mult: 1
    decay_mult: 1
  }
  param {
    lr_mult: 1
    decay_mult: 1
  }
  param {
    lr_mult: 0
    decay_mult: 0
  }
  param {
    lr_mult: 0
    decay_mult: 0
  }
  batch_norm_param {
    moving_average_fraction: 0.99
    eps: 0.0001
    scale_filler {
      type: "constant"
      value: 1
    }
    bias_filler {
      type: "constant"
      value: 0
    }
  }
}
layer {
  name: "res3a_branch2b/relu"
  type: "ReLU"
  bottom: "res3a_branch2b/bn"
  top: "res3a_branch2b/bn"
}
layer {
  name: "pool3"
  type: "Pooling"
  bottom: "res3a_branch2b/bn"
  top: "pool3"
  pooling_param {
    pool: MAX
    kernel_size: 2
    stride: 2
  }
}
layer {
  name: "res4a_branch2a"
  type: "Convolution"
  bottom: "pool3"
  top: "res4a_branch2a"
  param {
    lr_mult: 1
    decay_mult: 1
  }
  param {
    lr_mult: 2
    decay_mult: 0
  }
  convolution_param {
    num_output: 256
    bias_term: true
    pad: 1
    kernel_size: 3
    group: 1
    stride: 1
    weight_filler {
      type: "msra"
    }
    bias_filler {
      type: "constant"
      value: 0
    }
    dilation: 1
  }
}
layer {
  name: "res4a_branch2a/bn"
  type: "BatchNorm"
  bottom: "res4a_branch2a"
  top: "res4a_branch2a/bn"
  param {
    lr_mult: 1
    decay_mult: 1
  }
  param {
    lr_mult: 1
    decay_mult: 1
  }
  param {
    lr_mult: 0
    decay_mult: 0
  }
  param {
    lr_mult: 0
    decay_mult: 0
  }
  batch_norm_param {
    moving_average_fraction: 0.99
    eps: 0.0001
    scale_filler {
      type: "constant"
      value: 1
    }
    bias_filler {
      type: "constant"
      value: 0
    }
  }
}
layer {
  name: "res4a_branch2a/relu"
  type: "ReLU"
  bottom: "res4a_branch2a/bn"
  top: "res4a_branch2a/bn"
}
layer {
  name: "res4a_branch2b"
  type: "Convolution"
  bottom: "res4a_branch2a/bn"
  top: "res4a_branch2b"
  param {
    lr_mult: 1
    decay_mult: 1
  }
  param {
    lr_mult: 2
    decay_mult: 0
  }
  convolution_param {
    num_output: 256
    bias_term: true
    pad: 1
    kernel_size: 3
    group: 4
    stride: 1
    weight_filler {
      type: "msra"
    }
    bias_filler {
      type: "constant"
      value: 0
    }
    dilation: 1
  }
}
layer {
  name: "res4a_branch2b/bn"
  type: "BatchNorm"
  bottom: "res4a_branch2b"
  top: "res4a_branch2b/bn"
  param {
    lr_mult: 1
    decay_mult: 1
  }
  param {
    lr_mult: 1
    decay_mult: 1
  }
  param {
    lr_mult: 0
    decay_mult: 0
  }
  param {
    lr_mult: 0
    decay_mult: 0
  }
  batch_norm_param {
    moving_average_fraction: 0.99
    eps: 0.0001
    scale_filler {
      type: "constant"
      value: 1
    }
    bias_filler {
      type: "constant"
      value: 0
    }
  }
}
layer {
  name: "res4a_branch2b/relu"
  type: "ReLU"
  bottom: "res4a_branch2b/bn"
  top: "res4a_branch2b/bn"
}
layer {
  name: "pool4"
  type: "Pooling"
  bottom: "res4a_branch2b/bn"
  top: "pool4"
  pooling_param {
    pool: MAX
    kernel_size: 1
    stride: 1
  }
}
layer {
  name: "res5a_branch2a"
  type: "Convolution"
  bottom: "pool4"
  top: "res5a_branch2a"
  param {
    lr_mult: 1
    decay_mult: 1
  }
  param {
    lr_mult: 2
    decay_mult: 0
  }
  convolution_param {
    num_output: 512
    bias_term: true
    pad: 2
    kernel_size: 3
    group: 1
    stride: 1
    weight_filler {
      type: "msra"
    }
    bias_filler {
      type: "constant"
      value: 0
    }
    dilation: 2
  }
}
layer {
  name: "res5a_branch2a/bn"
  type: "BatchNorm"
  bottom: "res5a_branch2a"
  top: "res5a_branch2a/bn"
  param {
    lr_mult: 1
    decay_mult: 1
  }
  param {
    lr_mult: 1
    decay_mult: 1
  }
  param {
    lr_mult: 0
    decay_mult: 0
  }
  param {
    lr_mult: 0
    decay_mult: 0
  }
  batch_norm_param {
    moving_average_fraction: 0.99
    eps: 0.0001
    scale_filler {
      type: "constant"
      value: 1
    }
    bias_filler {
      type: "constant"
      value: 0
    }
  }
}
layer {
  name: "res5a_branch2a/relu"
  type: "ReLU"
  bottom: "res5a_branch2a/bn"
  top: "res5a_branch2a/bn"
}
layer {
  name: "res5a_branch2b"
  type: "Convolution"
  bottom: "res5a_branch2a/bn"
  top: "res5a_branch2b"
  param {
    lr_mult: 1
    decay_mult: 1
  }
  param {
    lr_mult: 2
    decay_mult: 0
  }
  convolution_param {
    num_output: 512
    bias_term: true
    pad: 2
    kernel_size: 3
    group: 4
    stride: 1
    weight_filler {
      type: "msra"
    }
    bias_filler {
      type: "constant"
      value: 0
    }
    dilation: 2
  }
}
layer {
  name: "res5a_branch2b/bn"
  type: "BatchNorm"
  bottom: "res5a_branch2b"
  top: "res5a_branch2b/bn"
  param {
    lr_mult: 1
    decay_mult: 1
  }
  param {
    lr_mult: 1
    decay_mult: 1
  }
  param {
    lr_mult: 0
    decay_mult: 0
  }
  param {
    lr_mult: 0
    decay_mult: 0
  }
  batch_norm_param {
    moving_average_fraction: 0.99
    eps: 0.0001
    scale_filler {
      type: "constant"
      value: 1
    }
    bias_filler {
      type: "constant"
      value: 0
    }
  }
}
layer {
  name: "res5a_branch2b/relu"
  type: "ReLU"
  bottom: "res5a_branch2b/bn"
  top: "res5a_branch2b/bn"
}
layer {
  name: "out5a"
  type: "Convolution"
  bottom: "res5a_branch2b/bn"
  top: "out5a"
  param {
    lr_mult: 1
    decay_mult: 1
  }
  param {
    lr_mult: 2
    decay_mult: 0
  }
  convolution_param {
    num_output: 64
    bias_term: true
    pad: 4
    kernel_size: 3
    group: 2
    stride: 1
    weight_filler {
      type: "msra"
    }
    bias_filler {
      type: "constant"
      value: 0
    }
    dilation: 4
  }
}
layer {
  name: "out5a/bn"
  type: "BatchNorm"
  bottom: "out5a"
  top: "out5a/bn"
  param {
    lr_mult: 1
    decay_mult: 1
  }
  param {
    lr_mult: 1
    decay_mult: 1
  }
  param {
    lr_mult: 0
    decay_mult: 0
  }
  param {
    lr_mult: 0
    decay_mult: 0
  }
  batch_norm_param {
    moving_average_fraction: 0.99
    eps: 0.0001
    scale_filler {
      type: "constant"
      value: 1
    }
    bias_filler {
      type: "constant"
      value: 0
    }
  }
}
layer {
  name: "out5a/relu"
  type: "ReLU"
  bottom: "out5a/bn"
  top: "out5a/bn"
}
layer {
  name: "out5a_up2"
  type: "Deconvolution"
  bottom: "out5a/bn"
  top: "out5a_up2"
  param {
    lr_mult: 0
    decay_mult: 0
  }
  convolution_param {
    num_output: 64
    bias_term: false
    pad: 1
    kernel_size: 4
    group: 64
    stride: 2
    weight_filler {
      type: "bilinear"
    }
  }
}
layer {
  name: "out3a"
  type: "Convolution"
  bottom: "res3a_branch2b/bn"
  top: "out3a"
  param {
    lr_mult: 1
    decay_mult: 1
  }
  param {
    lr_mult: 2
    decay_mult: 0
  }
  convolution_param {
    num_output: 64
    bias_term: true
    pad: 1
    kernel_size: 3
    group: 2
    stride: 1
    weight_filler {
      type: "msra"
    }
    bias_filler {
      type: "constant"
      value: 0
    }
    dilation: 1
  }
}
layer {
  name: "out3a/bn"
  type: "BatchNorm"
  bottom: "out3a"
  top: "out3a/bn"
  param {
    lr_mult: 1
    decay_mult: 1
  }
  param {
    lr_mult: 1
    decay_mult: 1
  }
  param {
    lr_mult: 0
    decay_mult: 0
  }
  param {
    lr_mult: 0
    decay_mult: 0
  }
  batch_norm_param {
    moving_average_fraction: 0.99
    eps: 0.0001
    scale_filler {
      type: "constant"
      value: 1
    }
    bias_filler {
      type: "constant"
      value: 0
    }
  }
}
layer {
  name: "out3a/relu"
  type: "ReLU"
  bottom: "out3a/bn"
  top: "out3a/bn"
}
layer {
  name: "out3_out5_combined"
  type: "Eltwise"
  bottom: "out5a_up2"
  bottom: "out3a/bn"
  top: "out3_out5_combined"
}
layer {
  name: "ctx_conv1"
  type: "Convolution"
  bottom: "out3_out5_combined"
  top: "ctx_conv1"
  param {
    lr_mult: 1
    decay_mult: 1
  }
  param {
    lr_mult: 2
    decay_mult: 0
  }
  convolution_param {
    num_output: 64
    bias_term: true
    pad: 1
    kernel_size: 3
    group: 1
    stride: 1
    weight_filler {
      type: "msra"
    }
    bias_filler {
      type: "constant"
      value: 0
    }
    dilation: 1
  }
}
layer {
  name: "ctx_conv1/bn"
  type: "BatchNorm"
  bottom: "ctx_conv1"
  top: "ctx_conv1/bn"
  param {
    lr_mult: 1
    decay_mult: 1
  }
  param {
    lr_mult: 1
    decay_mult: 1
  }
  param {
    lr_mult: 0
    decay_mult: 0
  }
  param {
    lr_mult: 0
    decay_mult: 0
  }
  batch_norm_param {
    moving_average_fraction: 0.99
    eps: 0.0001
    scale_filler {
      type: "constant"
      value: 1
    }
    bias_filler {
      type: "constant"
      value: 0
    }
  }
}
layer {
  name: "ctx_conv1/relu"
  type: "ReLU"
  bottom: "ctx_conv1/bn"
  top: "ctx_conv1/bn"
}
layer {
  name: "ctx_conv2"
  type: "Convolution"
  bottom: "ctx_conv1/bn"
  top: "ctx_conv2"
  param {
    lr_mult: 1
    decay_mult: 1
  }
  param {
    lr_mult: 2
    decay_mult: 0
  }
  convolution_param {
    num_output: 64
    bias_term: true
    pad: 4
    kernel_size: 3
    group: 1
    stride: 1
    weight_filler {
      type: "msra"
    }
    bias_filler {
      type: "constant"
      value: 0
    }
    dilation: 4
  }
}
layer {
  name: "ctx_conv2/bn"
  type: "BatchNorm"
  bottom: "ctx_conv2"
  top: "ctx_conv2/bn"
  param {
    lr_mult: 1
    decay_mult: 1
  }
  param {
    lr_mult: 1
    decay_mult: 1
  }
  param {
    lr_mult: 0
    decay_mult: 0
  }
  param {
    lr_mult: 0
    decay_mult: 0
  }
  batch_norm_param {
    moving_average_fraction: 0.99
    eps: 0.0001
    scale_filler {
      type: "constant"
      value: 1
    }
    bias_filler {
      type: "constant"
      value: 0
    }
  }
}
layer {
  name: "ctx_conv2/relu"
  type: "ReLU"
  bottom: "ctx_conv2/bn"
  top: "ctx_conv2/bn"
}
layer {
  name: "ctx_conv3"
  type: "Convolution"
  bottom: "ctx_conv2/bn"
  top: "ctx_conv3"
  param {
    lr_mult: 1
    decay_mult: 1
  }
  param {
    lr_mult: 2
    decay_mult: 0
  }
  convolution_param {
    num_output: 64
    bias_term: true
    pad: 4
    kernel_size: 3
    group: 1
    stride: 1
    weight_filler {
      type: "msra"
    }
    bias_filler {
      type: "constant"
      value: 0
    }
    dilation: 4
  }
}
layer {
  name: "ctx_conv3/bn"
  type: "BatchNorm"
  bottom: "ctx_conv3"
  top: "ctx_conv3/bn"
  param {
    lr_mult: 1
    decay_mult: 1
  }
  param {
    lr_mult: 1
    decay_mult: 1
  }
  param {
    lr_mult: 0
    decay_mult: 0
  }
  param {
    lr_mult: 0
    decay_mult: 0
  }
  batch_norm_param {
    moving_average_fraction: 0.99
    eps: 0.0001
    scale_filler {
      type: "constant"
      value: 1
    }
    bias_filler {
      type: "constant"
      value: 0
    }
  }
}
layer {
  name: "ctx_conv3/relu"
  type: "ReLU"
  bottom: "ctx_conv3/bn"
  top: "ctx_conv3/bn"
}
layer {
  name: "ctx_conv4"
  type: "Convolution"
  bottom: "ctx_conv3/bn"
  top: "ctx_conv4"
  param {
    lr_mult: 1
    decay_mult: 1
  }
  param {
    lr_mult: 2
    decay_mult: 0
  }
  convolution_param {
    num_output: 64
    bias_term: true
    pad: 4
    kernel_size: 3
    group: 1
    stride: 1
    weight_filler {
      type: "msra"
    }
    bias_filler {
      type: "constant"
      value: 0
    }
    dilation: 4
  }
}
layer {
  name: "ctx_conv4/bn"
  type: "BatchNorm"
  bottom: "ctx_conv4"
  top: "ctx_conv4/bn"
  param {
    lr_mult: 1
    decay_mult: 1
  }
  param {
    lr_mult: 1
    decay_mult: 1
  }
  param {
    lr_mult: 0
    decay_mult: 0
  }
  param {
    lr_mult: 0
    decay_mult: 0
  }
  batch_norm_param {
    moving_average_fraction: 0.99
    eps: 0.0001
    scale_filler {
      type: "constant"
      value: 1
    }
    bias_filler {
      type: "constant"
      value: 0
    }
  }
}
layer {
  name: "ctx_conv4/relu"
  type: "ReLU"
  bottom: "ctx_conv4/bn"
  top: "ctx_conv4/bn"
}
layer {
  name: "ctx_final"
  type: "Convolution"
  bottom: "ctx_conv4/bn"
  top: "ctx_final"
  param {
    lr_mult: 1
    decay_mult: 1
  }
  param {
    lr_mult: 2
    decay_mult: 0
  }
  convolution_param {
    num_output: 8
    bias_term: true
    pad: 1
    kernel_size: 3
    kernel_size: 3
    group: 1
    stride: 1
    weight_filler {
      type: "msra"
    }
    bias_filler {
      type: "constant"
      value: 0
    }
    dilation: 1
  }
}
layer {
  name: "ctx_final/relu"
  type: "ReLU"
  bottom: "ctx_final"
  top: "ctx_final"
}
layer {
  name: "out_deconv_final_up2"
  type: "Deconvolution"
  bottom: "ctx_final"
  top: "out_deconv_final_up2"
  param {
    lr_mult: 0
    decay_mult: 0
  }
  convolution_param {
    num_output: 8
    bias_term: false
    pad: 1
    kernel_size: 4
    group: 8
    stride: 2
    weight_filler {
      type: "bilinear"
    }
  }
}
layer {
  name: "out_deconv_final_up4"
  type: "Deconvolution"
  bottom: "out_deconv_final_up2"
  top: "out_deconv_final_up4"
  param {
    lr_mult: 0
    decay_mult: 0
  }
  convolution_param {
    num_output: 8
    bias_term: false
    pad: 1
    kernel_size: 4
    group: 8
    stride: 2
    weight_filler {
      type: "bilinear"
    }
  }
}
layer {
  name: "out_deconv_final_up8"
  type: "Deconvolution"
  bottom: "out_deconv_final_up4"
  top: "out_deconv_final_up8"
  param {
    lr_mult: 0
    decay_mult: 0
  }
  convolution_param {
    num_output: 8
    bias_term: false
    pad: 1
    kernel_size: 4
    group: 8
    stride: 2
    weight_filler {
      type: "bilinear"
    }
  }
}
layer {
  name: "loss"
  type: "SoftmaxWithLoss"
  bottom: "out_deconv_final_up8"
  bottom: "label"
  top: "loss"
  propagate_down: true
  propagate_down: false
  loss_param {
    ignore_label: 255
    normalization: VALID
  }
}
I0703 01:28:04.494552 31050 layer_factory.hpp:77] Creating layer data
I0703 01:28:04.494566 31050 net.cpp:98] Creating Layer data
I0703 01:28:04.494571 31050 net.cpp:413] data -> data
I0703 01:28:04.494590 31050 net.cpp:413] data -> label
I0703 01:28:04.529078 31118 db_lmdb.cpp:35] Opened lmdb data/train-image-lmdb
I0703 01:28:04.529698 31123 db_lmdb.cpp:35] Opened lmdb data/train-label-lmdb
I0703 01:28:04.543244 31050 data_layer.cpp:78] ReshapePrefetch 8, 3, 640, 640
I0703 01:28:04.543464 31050 data_layer.cpp:83] output data size: 8,3,640,640
I0703 01:28:04.603737 31050 data_layer.cpp:78] ReshapePrefetch 8, 1, 640, 640
I0703 01:28:04.603785 31050 data_layer.cpp:83] output data size: 8,1,640,640
I0703 01:28:04.612304 31128 blocking_queue.cpp:50] Waiting for data
I0703 01:28:04.620362 31050 net.cpp:148] Setting up data
I0703 01:28:04.620383 31050 net.cpp:155] Top shape: 8 3 640 640 (9830400)
I0703 01:28:04.620386 31050 net.cpp:155] Top shape: 8 1 640 640 (3276800)
I0703 01:28:04.620388 31050 net.cpp:163] Memory required for data: 52428800
I0703 01:28:04.620396 31050 layer_factory.hpp:77] Creating layer data/bias
I0703 01:28:04.620407 31050 net.cpp:98] Creating Layer data/bias
I0703 01:28:04.620411 31050 net.cpp:439] data/bias <- data
I0703 01:28:04.620420 31050 net.cpp:413] data/bias -> data/bias
I0703 01:28:04.621345 31050 net.cpp:148] Setting up data/bias
I0703 01:28:04.621353 31050 net.cpp:155] Top shape: 8 3 640 640 (9830400)
I0703 01:28:04.621356 31050 net.cpp:163] Memory required for data: 91750400
I0703 01:28:04.621363 31050 layer_factory.hpp:77] Creating layer conv1a
I0703 01:28:04.621372 31050 net.cpp:98] Creating Layer conv1a
I0703 01:28:04.621376 31050 net.cpp:439] conv1a <- data/bias
I0703 01:28:04.621378 31050 net.cpp:413] conv1a -> conv1a
I0703 01:28:04.622454 31050 net.cpp:148] Setting up conv1a
I0703 01:28:04.622465 31050 net.cpp:155] Top shape: 8 32 320 320 (26214400)
I0703 01:28:04.622467 31050 net.cpp:163] Memory required for data: 196608000
I0703 01:28:04.622473 31050 layer_factory.hpp:77] Creating layer conv1a/bn
I0703 01:28:04.622510 31050 net.cpp:98] Creating Layer conv1a/bn
I0703 01:28:04.622514 31050 net.cpp:439] conv1a/bn <- conv1a
I0703 01:28:04.622519 31050 net.cpp:413] conv1a/bn -> conv1a/bn
I0703 01:28:04.624825 31050 net.cpp:148] Setting up conv1a/bn
I0703 01:28:04.624836 31050 net.cpp:155] Top shape: 8 32 320 320 (26214400)
I0703 01:28:04.624840 31050 net.cpp:163] Memory required for data: 301465600
I0703 01:28:04.624846 31050 layer_factory.hpp:77] Creating layer conv1a/relu
I0703 01:28:04.624852 31050 net.cpp:98] Creating Layer conv1a/relu
I0703 01:28:04.624855 31050 net.cpp:439] conv1a/relu <- conv1a/bn
I0703 01:28:04.624860 31050 net.cpp:400] conv1a/relu -> conv1a/bn (in-place)
I0703 01:28:04.624871 31050 net.cpp:148] Setting up conv1a/relu
I0703 01:28:04.624876 31050 net.cpp:155] Top shape: 8 32 320 320 (26214400)
I0703 01:28:04.624877 31050 net.cpp:163] Memory required for data: 406323200
I0703 01:28:04.624879 31050 layer_factory.hpp:77] Creating layer conv1b
I0703 01:28:04.624894 31050 net.cpp:98] Creating Layer conv1b
I0703 01:28:04.624898 31050 net.cpp:439] conv1b <- conv1a/bn
I0703 01:28:04.624902 31050 net.cpp:413] conv1b -> conv1b
I0703 01:28:04.625190 31050 net.cpp:148] Setting up conv1b
I0703 01:28:04.625196 31050 net.cpp:155] Top shape: 8 32 320 320 (26214400)
I0703 01:28:04.625198 31050 net.cpp:163] Memory required for data: 511180800
I0703 01:28:04.625203 31050 layer_factory.hpp:77] Creating layer conv1b/bn
I0703 01:28:04.625208 31050 net.cpp:98] Creating Layer conv1b/bn
I0703 01:28:04.625211 31050 net.cpp:439] conv1b/bn <- conv1b
I0703 01:28:04.625213 31050 net.cpp:413] conv1b/bn -> conv1b/bn
I0703 01:28:04.625720 31050 net.cpp:148] Setting up conv1b/bn
I0703 01:28:04.625725 31050 net.cpp:155] Top shape: 8 32 320 320 (26214400)
I0703 01:28:04.625726 31050 net.cpp:163] Memory required for data: 616038400
I0703 01:28:04.625731 31050 layer_factory.hpp:77] Creating layer conv1b/relu
I0703 01:28:04.625735 31050 net.cpp:98] Creating Layer conv1b/relu
I0703 01:28:04.625737 31050 net.cpp:439] conv1b/relu <- conv1b/bn
I0703 01:28:04.625741 31050 net.cpp:400] conv1b/relu -> conv1b/bn (in-place)
I0703 01:28:04.625743 31050 net.cpp:148] Setting up conv1b/relu
I0703 01:28:04.625746 31050 net.cpp:155] Top shape: 8 32 320 320 (26214400)
I0703 01:28:04.625747 31050 net.cpp:163] Memory required for data: 720896000
I0703 01:28:04.625751 31050 layer_factory.hpp:77] Creating layer pool1
I0703 01:28:04.625761 31050 net.cpp:98] Creating Layer pool1
I0703 01:28:04.625762 31050 net.cpp:439] pool1 <- conv1b/bn
I0703 01:28:04.625766 31050 net.cpp:413] pool1 -> pool1
I0703 01:28:04.626039 31050 net.cpp:148] Setting up pool1
I0703 01:28:04.626045 31050 net.cpp:155] Top shape: 8 32 160 160 (6553600)
I0703 01:28:04.626049 31050 net.cpp:163] Memory required for data: 747110400
I0703 01:28:04.626050 31050 layer_factory.hpp:77] Creating layer res2a_branch2a
I0703 01:28:04.626055 31050 net.cpp:98] Creating Layer res2a_branch2a
I0703 01:28:04.626058 31050 net.cpp:439] res2a_branch2a <- pool1
I0703 01:28:04.626061 31050 net.cpp:413] res2a_branch2a -> res2a_branch2a
I0703 01:28:04.627339 31050 net.cpp:148] Setting up res2a_branch2a
I0703 01:28:04.627348 31050 net.cpp:155] Top shape: 8 64 160 160 (13107200)
I0703 01:28:04.627351 31050 net.cpp:163] Memory required for data: 799539200
I0703 01:28:04.627355 31050 layer_factory.hpp:77] Creating layer res2a_branch2a/bn
I0703 01:28:04.627360 31050 net.cpp:98] Creating Layer res2a_branch2a/bn
I0703 01:28:04.627363 31050 net.cpp:439] res2a_branch2a/bn <- res2a_branch2a
I0703 01:28:04.627367 31050 net.cpp:413] res2a_branch2a/bn -> res2a_branch2a/bn
I0703 01:28:04.627845 31050 net.cpp:148] Setting up res2a_branch2a/bn
I0703 01:28:04.627851 31050 net.cpp:155] Top shape: 8 64 160 160 (13107200)
I0703 01:28:04.627852 31050 net.cpp:163] Memory required for data: 851968000
I0703 01:28:04.627857 31050 layer_factory.hpp:77] Creating layer res2a_branch2a/relu
I0703 01:28:04.627861 31050 net.cpp:98] Creating Layer res2a_branch2a/relu
I0703 01:28:04.627863 31050 net.cpp:439] res2a_branch2a/relu <- res2a_branch2a/bn
I0703 01:28:04.627866 31050 net.cpp:400] res2a_branch2a/relu -> res2a_branch2a/bn (in-place)
I0703 01:28:04.627871 31050 net.cpp:148] Setting up res2a_branch2a/relu
I0703 01:28:04.627873 31050 net.cpp:155] Top shape: 8 64 160 160 (13107200)
I0703 01:28:04.627876 31050 net.cpp:163] Memory required for data: 904396800
I0703 01:28:04.627877 31050 layer_factory.hpp:77] Creating layer res2a_branch2b
I0703 01:28:04.627882 31050 net.cpp:98] Creating Layer res2a_branch2b
I0703 01:28:04.627884 31050 net.cpp:439] res2a_branch2b <- res2a_branch2a/bn
I0703 01:28:04.627887 31050 net.cpp:413] res2a_branch2b -> res2a_branch2b
I0703 01:28:04.628957 31050 net.cpp:148] Setting up res2a_branch2b
I0703 01:28:04.628967 31050 net.cpp:155] Top shape: 8 64 160 160 (13107200)
I0703 01:28:04.628968 31050 net.cpp:163] Memory required for data: 956825600
I0703 01:28:04.628973 31050 layer_factory.hpp:77] Creating layer res2a_branch2b/bn
I0703 01:28:04.628985 31050 net.cpp:98] Creating Layer res2a_branch2b/bn
I0703 01:28:04.628988 31050 net.cpp:439] res2a_branch2b/bn <- res2a_branch2b
I0703 01:28:04.628991 31050 net.cpp:413] res2a_branch2b/bn -> res2a_branch2b/bn
I0703 01:28:04.629472 31050 net.cpp:148] Setting up res2a_branch2b/bn
I0703 01:28:04.629477 31050 net.cpp:155] Top shape: 8 64 160 160 (13107200)
I0703 01:28:04.629479 31050 net.cpp:163] Memory required for data: 1009254400
I0703 01:28:04.629485 31050 layer_factory.hpp:77] Creating layer res2a_branch2b/relu
I0703 01:28:04.629488 31050 net.cpp:98] Creating Layer res2a_branch2b/relu
I0703 01:28:04.629492 31050 net.cpp:439] res2a_branch2b/relu <- res2a_branch2b/bn
I0703 01:28:04.629494 31050 net.cpp:400] res2a_branch2b/relu -> res2a_branch2b/bn (in-place)
I0703 01:28:04.629498 31050 net.cpp:148] Setting up res2a_branch2b/relu
I0703 01:28:04.629501 31050 net.cpp:155] Top shape: 8 64 160 160 (13107200)
I0703 01:28:04.629503 31050 net.cpp:163] Memory required for data: 1061683200
I0703 01:28:04.629505 31050 layer_factory.hpp:77] Creating layer pool2
I0703 01:28:04.629508 31050 net.cpp:98] Creating Layer pool2
I0703 01:28:04.629511 31050 net.cpp:439] pool2 <- res2a_branch2b/bn
I0703 01:28:04.629513 31050 net.cpp:413] pool2 -> pool2
I0703 01:28:04.629540 31050 net.cpp:148] Setting up pool2
I0703 01:28:04.629544 31050 net.cpp:155] Top shape: 8 64 80 80 (3276800)
I0703 01:28:04.629546 31050 net.cpp:163] Memory required for data: 1074790400
I0703 01:28:04.629549 31050 layer_factory.hpp:77] Creating layer res3a_branch2a
I0703 01:28:04.629554 31050 net.cpp:98] Creating Layer res3a_branch2a
I0703 01:28:04.629556 31050 net.cpp:439] res3a_branch2a <- pool2
I0703 01:28:04.629559 31050 net.cpp:413] res3a_branch2a -> res3a_branch2a
I0703 01:28:04.631212 31050 net.cpp:148] Setting up res3a_branch2a
I0703 01:28:04.631218 31050 net.cpp:155] Top shape: 8 128 80 80 (6553600)
I0703 01:28:04.631220 31050 net.cpp:163] Memory required for data: 1101004800
I0703 01:28:04.631224 31050 layer_factory.hpp:77] Creating layer res3a_branch2a/bn
I0703 01:28:04.631227 31050 net.cpp:98] Creating Layer res3a_branch2a/bn
I0703 01:28:04.631230 31050 net.cpp:439] res3a_branch2a/bn <- res3a_branch2a
I0703 01:28:04.631234 31050 net.cpp:413] res3a_branch2a/bn -> res3a_branch2a/bn
I0703 01:28:04.631695 31050 net.cpp:148] Setting up res3a_branch2a/bn
I0703 01:28:04.631705 31050 net.cpp:155] Top shape: 8 128 80 80 (6553600)
I0703 01:28:04.631707 31050 net.cpp:163] Memory required for data: 1127219200
I0703 01:28:04.631719 31050 layer_factory.hpp:77] Creating layer res3a_branch2a/relu
I0703 01:28:04.631724 31050 net.cpp:98] Creating Layer res3a_branch2a/relu
I0703 01:28:04.631727 31050 net.cpp:439] res3a_branch2a/relu <- res3a_branch2a/bn
I0703 01:28:04.631731 31050 net.cpp:400] res3a_branch2a/relu -> res3a_branch2a/bn (in-place)
I0703 01:28:04.631739 31050 net.cpp:148] Setting up res3a_branch2a/relu
I0703 01:28:04.631743 31050 net.cpp:155] Top shape: 8 128 80 80 (6553600)
I0703 01:28:04.631747 31050 net.cpp:163] Memory required for data: 1153433600
I0703 01:28:04.631749 31050 layer_factory.hpp:77] Creating layer res3a_branch2b
I0703 01:28:04.631755 31050 net.cpp:98] Creating Layer res3a_branch2b
I0703 01:28:04.631759 31050 net.cpp:439] res3a_branch2b <- res3a_branch2a/bn
I0703 01:28:04.631767 31050 net.cpp:413] res3a_branch2b -> res3a_branch2b
I0703 01:28:04.632817 31050 net.cpp:148] Setting up res3a_branch2b
I0703 01:28:04.632824 31050 net.cpp:155] Top shape: 8 128 80 80 (6553600)
I0703 01:28:04.632827 31050 net.cpp:163] Memory required for data: 1179648000
I0703 01:28:04.632832 31050 layer_factory.hpp:77] Creating layer res3a_branch2b/bn
I0703 01:28:04.632835 31050 net.cpp:98] Creating Layer res3a_branch2b/bn
I0703 01:28:04.632838 31050 net.cpp:439] res3a_branch2b/bn <- res3a_branch2b
I0703 01:28:04.632843 31050 net.cpp:413] res3a_branch2b/bn -> res3a_branch2b/bn
I0703 01:28:04.633273 31050 net.cpp:148] Setting up res3a_branch2b/bn
I0703 01:28:04.633280 31050 net.cpp:155] Top shape: 8 128 80 80 (6553600)
I0703 01:28:04.633281 31050 net.cpp:163] Memory required for data: 1205862400
I0703 01:28:04.633292 31050 layer_factory.hpp:77] Creating layer res3a_branch2b/relu
I0703 01:28:04.633296 31050 net.cpp:98] Creating Layer res3a_branch2b/relu
I0703 01:28:04.633299 31050 net.cpp:439] res3a_branch2b/relu <- res3a_branch2b/bn
I0703 01:28:04.633302 31050 net.cpp:400] res3a_branch2b/relu -> res3a_branch2b/bn (in-place)
I0703 01:28:04.633306 31050 net.cpp:148] Setting up res3a_branch2b/relu
I0703 01:28:04.633309 31050 net.cpp:155] Top shape: 8 128 80 80 (6553600)
I0703 01:28:04.633311 31050 net.cpp:163] Memory required for data: 1232076800
I0703 01:28:04.633313 31050 layer_factory.hpp:77] Creating layer res3a_branch2b/bn_res3a_branch2b/relu_0_split
I0703 01:28:04.633317 31050 net.cpp:98] Creating Layer res3a_branch2b/bn_res3a_branch2b/relu_0_split
I0703 01:28:04.633319 31050 net.cpp:439] res3a_branch2b/bn_res3a_branch2b/relu_0_split <- res3a_branch2b/bn
I0703 01:28:04.633322 31050 net.cpp:413] res3a_branch2b/bn_res3a_branch2b/relu_0_split -> res3a_branch2b/bn_res3a_branch2b/relu_0_split_0
I0703 01:28:04.633324 31050 net.cpp:413] res3a_branch2b/bn_res3a_branch2b/relu_0_split -> res3a_branch2b/bn_res3a_branch2b/relu_0_split_1
I0703 01:28:04.633350 31050 net.cpp:148] Setting up res3a_branch2b/bn_res3a_branch2b/relu_0_split
I0703 01:28:04.633354 31050 net.cpp:155] Top shape: 8 128 80 80 (6553600)
I0703 01:28:04.633357 31050 net.cpp:155] Top shape: 8 128 80 80 (6553600)
I0703 01:28:04.633359 31050 net.cpp:163] Memory required for data: 1284505600
I0703 01:28:04.633361 31050 layer_factory.hpp:77] Creating layer pool3
I0703 01:28:04.633364 31050 net.cpp:98] Creating Layer pool3
I0703 01:28:04.633368 31050 net.cpp:439] pool3 <- res3a_branch2b/bn_res3a_branch2b/relu_0_split_0
I0703 01:28:04.633370 31050 net.cpp:413] pool3 -> pool3
I0703 01:28:04.633396 31050 net.cpp:148] Setting up pool3
I0703 01:28:04.633400 31050 net.cpp:155] Top shape: 8 128 40 40 (1638400)
I0703 01:28:04.633402 31050 net.cpp:163] Memory required for data: 1291059200
I0703 01:28:04.633405 31050 layer_factory.hpp:77] Creating layer res4a_branch2a
I0703 01:28:04.633410 31050 net.cpp:98] Creating Layer res4a_branch2a
I0703 01:28:04.633412 31050 net.cpp:439] res4a_branch2a <- pool3
I0703 01:28:04.633416 31050 net.cpp:413] res4a_branch2a -> res4a_branch2a
I0703 01:28:04.640305 31050 net.cpp:148] Setting up res4a_branch2a
I0703 01:28:04.640316 31050 net.cpp:155] Top shape: 8 256 40 40 (3276800)
I0703 01:28:04.640317 31050 net.cpp:163] Memory required for data: 1304166400
I0703 01:28:04.640321 31050 layer_factory.hpp:77] Creating layer res4a_branch2a/bn
I0703 01:28:04.640326 31050 net.cpp:98] Creating Layer res4a_branch2a/bn
I0703 01:28:04.640329 31050 net.cpp:439] res4a_branch2a/bn <- res4a_branch2a
I0703 01:28:04.640333 31050 net.cpp:413] res4a_branch2a/bn -> res4a_branch2a/bn
I0703 01:28:04.640777 31050 net.cpp:148] Setting up res4a_branch2a/bn
I0703 01:28:04.640782 31050 net.cpp:155] Top shape: 8 256 40 40 (3276800)
I0703 01:28:04.640785 31050 net.cpp:163] Memory required for data: 1317273600
I0703 01:28:04.640790 31050 layer_factory.hpp:77] Creating layer res4a_branch2a/relu
I0703 01:28:04.640794 31050 net.cpp:98] Creating Layer res4a_branch2a/relu
I0703 01:28:04.640796 31050 net.cpp:439] res4a_branch2a/relu <- res4a_branch2a/bn
I0703 01:28:04.640799 31050 net.cpp:400] res4a_branch2a/relu -> res4a_branch2a/bn (in-place)
I0703 01:28:04.640802 31050 net.cpp:148] Setting up res4a_branch2a/relu
I0703 01:28:04.640805 31050 net.cpp:155] Top shape: 8 256 40 40 (3276800)
I0703 01:28:04.640807 31050 net.cpp:163] Memory required for data: 1330380800
I0703 01:28:04.640810 31050 layer_factory.hpp:77] Creating layer res4a_branch2b
I0703 01:28:04.640815 31050 net.cpp:98] Creating Layer res4a_branch2b
I0703 01:28:04.640816 31050 net.cpp:439] res4a_branch2b <- res4a_branch2a/bn
I0703 01:28:04.640820 31050 net.cpp:413] res4a_branch2b -> res4a_branch2b
I0703 01:28:04.643913 31050 net.cpp:148] Setting up res4a_branch2b
I0703 01:28:04.643918 31050 net.cpp:155] Top shape: 8 256 40 40 (3276800)
I0703 01:28:04.643920 31050 net.cpp:163] Memory required for data: 1343488000
I0703 01:28:04.643930 31050 layer_factory.hpp:77] Creating layer res4a_branch2b/bn
I0703 01:28:04.643935 31050 net.cpp:98] Creating Layer res4a_branch2b/bn
I0703 01:28:04.643939 31050 net.cpp:439] res4a_branch2b/bn <- res4a_branch2b
I0703 01:28:04.643942 31050 net.cpp:413] res4a_branch2b/bn -> res4a_branch2b/bn
I0703 01:28:04.644376 31050 net.cpp:148] Setting up res4a_branch2b/bn
I0703 01:28:04.644381 31050 net.cpp:155] Top shape: 8 256 40 40 (3276800)
I0703 01:28:04.644384 31050 net.cpp:163] Memory required for data: 1356595200
I0703 01:28:04.644389 31050 layer_factory.hpp:77] Creating layer res4a_branch2b/relu
I0703 01:28:04.644392 31050 net.cpp:98] Creating Layer res4a_branch2b/relu
I0703 01:28:04.644395 31050 net.cpp:439] res4a_branch2b/relu <- res4a_branch2b/bn
I0703 01:28:04.644398 31050 net.cpp:400] res4a_branch2b/relu -> res4a_branch2b/bn (in-place)
I0703 01:28:04.644402 31050 net.cpp:148] Setting up res4a_branch2b/relu
I0703 01:28:04.644404 31050 net.cpp:155] Top shape: 8 256 40 40 (3276800)
I0703 01:28:04.644407 31050 net.cpp:163] Memory required for data: 1369702400
I0703 01:28:04.644408 31050 layer_factory.hpp:77] Creating layer pool4
I0703 01:28:04.644412 31050 net.cpp:98] Creating Layer pool4
I0703 01:28:04.644414 31050 net.cpp:439] pool4 <- res4a_branch2b/bn
I0703 01:28:04.644418 31050 net.cpp:413] pool4 -> pool4
I0703 01:28:04.644443 31050 net.cpp:148] Setting up pool4
I0703 01:28:04.644448 31050 net.cpp:155] Top shape: 8 256 40 40 (3276800)
I0703 01:28:04.644449 31050 net.cpp:163] Memory required for data: 1382809600
I0703 01:28:04.644453 31050 layer_factory.hpp:77] Creating layer res5a_branch2a
I0703 01:28:04.644456 31050 net.cpp:98] Creating Layer res5a_branch2a
I0703 01:28:04.644459 31050 net.cpp:439] res5a_branch2a <- pool4
I0703 01:28:04.644462 31050 net.cpp:413] res5a_branch2a -> res5a_branch2a
I0703 01:28:04.669868 31050 net.cpp:148] Setting up res5a_branch2a
I0703 01:28:04.669888 31050 net.cpp:155] Top shape: 8 512 40 40 (6553600)
I0703 01:28:04.669891 31050 net.cpp:163] Memory required for data: 1409024000
I0703 01:28:04.669896 31050 layer_factory.hpp:77] Creating layer res5a_branch2a/bn
I0703 01:28:04.669906 31050 net.cpp:98] Creating Layer res5a_branch2a/bn
I0703 01:28:04.669909 31050 net.cpp:439] res5a_branch2a/bn <- res5a_branch2a
I0703 01:28:04.669914 31050 net.cpp:413] res5a_branch2a/bn -> res5a_branch2a/bn
I0703 01:28:04.670379 31050 net.cpp:148] Setting up res5a_branch2a/bn
I0703 01:28:04.670392 31050 net.cpp:155] Top shape: 8 512 40 40 (6553600)
I0703 01:28:04.670395 31050 net.cpp:163] Memory required for data: 1435238400
I0703 01:28:04.670400 31050 layer_factory.hpp:77] Creating layer res5a_branch2a/relu
I0703 01:28:04.670404 31050 net.cpp:98] Creating Layer res5a_branch2a/relu
I0703 01:28:04.670406 31050 net.cpp:439] res5a_branch2a/relu <- res5a_branch2a/bn
I0703 01:28:04.670409 31050 net.cpp:400] res5a_branch2a/relu -> res5a_branch2a/bn (in-place)
I0703 01:28:04.670413 31050 net.cpp:148] Setting up res5a_branch2a/relu
I0703 01:28:04.670415 31050 net.cpp:155] Top shape: 8 512 40 40 (6553600)
I0703 01:28:04.670418 31050 net.cpp:163] Memory required for data: 1461452800
I0703 01:28:04.670419 31050 layer_factory.hpp:77] Creating layer res5a_branch2b
I0703 01:28:04.670424 31050 net.cpp:98] Creating Layer res5a_branch2b
I0703 01:28:04.670426 31050 net.cpp:439] res5a_branch2b <- res5a_branch2a/bn
I0703 01:28:04.670428 31050 net.cpp:413] res5a_branch2b -> res5a_branch2b
I0703 01:28:04.683050 31050 net.cpp:148] Setting up res5a_branch2b
I0703 01:28:04.683059 31050 net.cpp:155] Top shape: 8 512 40 40 (6553600)
I0703 01:28:04.683063 31050 net.cpp:163] Memory required for data: 1487667200
I0703 01:28:04.683069 31050 layer_factory.hpp:77] Creating layer res5a_branch2b/bn
I0703 01:28:04.683074 31050 net.cpp:98] Creating Layer res5a_branch2b/bn
I0703 01:28:04.683076 31050 net.cpp:439] res5a_branch2b/bn <- res5a_branch2b
I0703 01:28:04.683079 31050 net.cpp:413] res5a_branch2b/bn -> res5a_branch2b/bn
I0703 01:28:04.683534 31050 net.cpp:148] Setting up res5a_branch2b/bn
I0703 01:28:04.683550 31050 net.cpp:155] Top shape: 8 512 40 40 (6553600)
I0703 01:28:04.683552 31050 net.cpp:163] Memory required for data: 1513881600
I0703 01:28:04.683557 31050 layer_factory.hpp:77] Creating layer res5a_branch2b/relu
I0703 01:28:04.683562 31050 net.cpp:98] Creating Layer res5a_branch2b/relu
I0703 01:28:04.683563 31050 net.cpp:439] res5a_branch2b/relu <- res5a_branch2b/bn
I0703 01:28:04.683565 31050 net.cpp:400] res5a_branch2b/relu -> res5a_branch2b/bn (in-place)
I0703 01:28:04.683569 31050 net.cpp:148] Setting up res5a_branch2b/relu
I0703 01:28:04.683571 31050 net.cpp:155] Top shape: 8 512 40 40 (6553600)
I0703 01:28:04.683573 31050 net.cpp:163] Memory required for data: 1540096000
I0703 01:28:04.683575 31050 layer_factory.hpp:77] Creating layer out5a
I0703 01:28:04.683579 31050 net.cpp:98] Creating Layer out5a
I0703 01:28:04.683581 31050 net.cpp:439] out5a <- res5a_branch2b/bn
I0703 01:28:04.683584 31050 net.cpp:413] out5a -> out5a
I0703 01:28:04.687404 31050 net.cpp:148] Setting up out5a
I0703 01:28:04.687412 31050 net.cpp:155] Top shape: 8 64 40 40 (819200)
I0703 01:28:04.687414 31050 net.cpp:163] Memory required for data: 1543372800
I0703 01:28:04.687418 31050 layer_factory.hpp:77] Creating layer out5a/bn
I0703 01:28:04.687422 31050 net.cpp:98] Creating Layer out5a/bn
I0703 01:28:04.687425 31050 net.cpp:439] out5a/bn <- out5a
I0703 01:28:04.687428 31050 net.cpp:413] out5a/bn -> out5a/bn
I0703 01:28:04.687930 31050 net.cpp:148] Setting up out5a/bn
I0703 01:28:04.687937 31050 net.cpp:155] Top shape: 8 64 40 40 (819200)
I0703 01:28:04.687939 31050 net.cpp:163] Memory required for data: 1546649600
I0703 01:28:04.687944 31050 layer_factory.hpp:77] Creating layer out5a/relu
I0703 01:28:04.687947 31050 net.cpp:98] Creating Layer out5a/relu
I0703 01:28:04.687950 31050 net.cpp:439] out5a/relu <- out5a/bn
I0703 01:28:04.687952 31050 net.cpp:400] out5a/relu -> out5a/bn (in-place)
I0703 01:28:04.687958 31050 net.cpp:148] Setting up out5a/relu
I0703 01:28:04.687960 31050 net.cpp:155] Top shape: 8 64 40 40 (819200)
I0703 01:28:04.687963 31050 net.cpp:163] Memory required for data: 1549926400
I0703 01:28:04.687964 31050 layer_factory.hpp:77] Creating layer out5a_up2
I0703 01:28:04.687973 31050 net.cpp:98] Creating Layer out5a_up2
I0703 01:28:04.687975 31050 net.cpp:439] out5a_up2 <- out5a/bn
I0703 01:28:04.687978 31050 net.cpp:413] out5a_up2 -> out5a_up2
I0703 01:28:04.688159 31050 net.cpp:148] Setting up out5a_up2
I0703 01:28:04.688163 31050 net.cpp:155] Top shape: 8 64 80 80 (3276800)
I0703 01:28:04.688165 31050 net.cpp:163] Memory required for data: 1563033600
I0703 01:28:04.688169 31050 layer_factory.hpp:77] Creating layer out3a
I0703 01:28:04.688172 31050 net.cpp:98] Creating Layer out3a
I0703 01:28:04.688175 31050 net.cpp:439] out3a <- res3a_branch2b/bn_res3a_branch2b/relu_0_split_1
I0703 01:28:04.688177 31050 net.cpp:413] out3a -> out3a
I0703 01:28:04.689134 31050 net.cpp:148] Setting up out3a
I0703 01:28:04.689141 31050 net.cpp:155] Top shape: 8 64 80 80 (3276800)
I0703 01:28:04.689143 31050 net.cpp:163] Memory required for data: 1576140800
I0703 01:28:04.689146 31050 layer_factory.hpp:77] Creating layer out3a/bn
I0703 01:28:04.689151 31050 net.cpp:98] Creating Layer out3a/bn
I0703 01:28:04.689153 31050 net.cpp:439] out3a/bn <- out3a
I0703 01:28:04.689155 31050 net.cpp:413] out3a/bn -> out3a/bn
I0703 01:28:04.689707 31050 net.cpp:148] Setting up out3a/bn
I0703 01:28:04.689713 31050 net.cpp:155] Top shape: 8 64 80 80 (3276800)
I0703 01:28:04.689715 31050 net.cpp:163] Memory required for data: 1589248000
I0703 01:28:04.689720 31050 layer_factory.hpp:77] Creating layer out3a/relu
I0703 01:28:04.689723 31050 net.cpp:98] Creating Layer out3a/relu
I0703 01:28:04.689725 31050 net.cpp:439] out3a/relu <- out3a/bn
I0703 01:28:04.689728 31050 net.cpp:400] out3a/relu -> out3a/bn (in-place)
I0703 01:28:04.689731 31050 net.cpp:148] Setting up out3a/relu
I0703 01:28:04.689733 31050 net.cpp:155] Top shape: 8 64 80 80 (3276800)
I0703 01:28:04.689735 31050 net.cpp:163] Memory required for data: 1602355200
I0703 01:28:04.689738 31050 layer_factory.hpp:77] Creating layer out3_out5_combined
I0703 01:28:04.689750 31050 net.cpp:98] Creating Layer out3_out5_combined
I0703 01:28:04.689754 31050 net.cpp:439] out3_out5_combined <- out5a_up2
I0703 01:28:04.689755 31050 net.cpp:439] out3_out5_combined <- out3a/bn
I0703 01:28:04.689757 31050 net.cpp:413] out3_out5_combined -> out3_out5_combined
I0703 01:28:04.689775 31050 net.cpp:148] Setting up out3_out5_combined
I0703 01:28:04.689779 31050 net.cpp:155] Top shape: 8 64 80 80 (3276800)
I0703 01:28:04.689779 31050 net.cpp:163] Memory required for data: 1615462400
I0703 01:28:04.689781 31050 layer_factory.hpp:77] Creating layer ctx_conv1
I0703 01:28:04.689785 31050 net.cpp:98] Creating Layer ctx_conv1
I0703 01:28:04.689787 31050 net.cpp:439] ctx_conv1 <- out3_out5_combined
I0703 01:28:04.689791 31050 net.cpp:413] ctx_conv1 -> ctx_conv1
I0703 01:28:04.690776 31050 net.cpp:148] Setting up ctx_conv1
I0703 01:28:04.690783 31050 net.cpp:155] Top shape: 8 64 80 80 (3276800)
I0703 01:28:04.690784 31050 net.cpp:163] Memory required for data: 1628569600
I0703 01:28:04.690788 31050 layer_factory.hpp:77] Creating layer ctx_conv1/bn
I0703 01:28:04.690791 31050 net.cpp:98] Creating Layer ctx_conv1/bn
I0703 01:28:04.690793 31050 net.cpp:439] ctx_conv1/bn <- ctx_conv1
I0703 01:28:04.690796 31050 net.cpp:413] ctx_conv1/bn -> ctx_conv1/bn
I0703 01:28:04.691311 31050 net.cpp:148] Setting up ctx_conv1/bn
I0703 01:28:04.691318 31050 net.cpp:155] Top shape: 8 64 80 80 (3276800)
I0703 01:28:04.691319 31050 net.cpp:163] Memory required for data: 1641676800
I0703 01:28:04.691324 31050 layer_factory.hpp:77] Creating layer ctx_conv1/relu
I0703 01:28:04.691328 31050 net.cpp:98] Creating Layer ctx_conv1/relu
I0703 01:28:04.691330 31050 net.cpp:439] ctx_conv1/relu <- ctx_conv1/bn
I0703 01:28:04.691332 31050 net.cpp:400] ctx_conv1/relu -> ctx_conv1/bn (in-place)
I0703 01:28:04.691335 31050 net.cpp:148] Setting up ctx_conv1/relu
I0703 01:28:04.691339 31050 net.cpp:155] Top shape: 8 64 80 80 (3276800)
I0703 01:28:04.691339 31050 net.cpp:163] Memory required for data: 1654784000
I0703 01:28:04.691341 31050 layer_factory.hpp:77] Creating layer ctx_conv2
I0703 01:28:04.691345 31050 net.cpp:98] Creating Layer ctx_conv2
I0703 01:28:04.691349 31050 net.cpp:439] ctx_conv2 <- ctx_conv1/bn
I0703 01:28:04.691350 31050 net.cpp:413] ctx_conv2 -> ctx_conv2
I0703 01:28:04.692312 31050 net.cpp:148] Setting up ctx_conv2
I0703 01:28:04.692317 31050 net.cpp:155] Top shape: 8 64 80 80 (3276800)
I0703 01:28:04.692319 31050 net.cpp:163] Memory required for data: 1667891200
I0703 01:28:04.692323 31050 layer_factory.hpp:77] Creating layer ctx_conv2/bn
I0703 01:28:04.692327 31050 net.cpp:98] Creating Layer ctx_conv2/bn
I0703 01:28:04.692328 31050 net.cpp:439] ctx_conv2/bn <- ctx_conv2
I0703 01:28:04.692332 31050 net.cpp:413] ctx_conv2/bn -> ctx_conv2/bn
I0703 01:28:04.692922 31050 net.cpp:148] Setting up ctx_conv2/bn
I0703 01:28:04.692929 31050 net.cpp:155] Top shape: 8 64 80 80 (3276800)
I0703 01:28:04.692931 31050 net.cpp:163] Memory required for data: 1680998400
I0703 01:28:04.692936 31050 layer_factory.hpp:77] Creating layer ctx_conv2/relu
I0703 01:28:04.692939 31050 net.cpp:98] Creating Layer ctx_conv2/relu
I0703 01:28:04.692940 31050 net.cpp:439] ctx_conv2/relu <- ctx_conv2/bn
I0703 01:28:04.692945 31050 net.cpp:400] ctx_conv2/relu -> ctx_conv2/bn (in-place)
I0703 01:28:04.692948 31050 net.cpp:148] Setting up ctx_conv2/relu
I0703 01:28:04.692950 31050 net.cpp:155] Top shape: 8 64 80 80 (3276800)
I0703 01:28:04.692952 31050 net.cpp:163] Memory required for data: 1694105600
I0703 01:28:04.692955 31050 layer_factory.hpp:77] Creating layer ctx_conv3
I0703 01:28:04.692958 31050 net.cpp:98] Creating Layer ctx_conv3
I0703 01:28:04.692960 31050 net.cpp:439] ctx_conv3 <- ctx_conv2/bn
I0703 01:28:04.692962 31050 net.cpp:413] ctx_conv3 -> ctx_conv3
I0703 01:28:04.693976 31050 net.cpp:148] Setting up ctx_conv3
I0703 01:28:04.693982 31050 net.cpp:155] Top shape: 8 64 80 80 (3276800)
I0703 01:28:04.693984 31050 net.cpp:163] Memory required for data: 1707212800
I0703 01:28:04.693994 31050 layer_factory.hpp:77] Creating layer ctx_conv3/bn
I0703 01:28:04.693997 31050 net.cpp:98] Creating Layer ctx_conv3/bn
I0703 01:28:04.694000 31050 net.cpp:439] ctx_conv3/bn <- ctx_conv3
I0703 01:28:04.694002 31050 net.cpp:413] ctx_conv3/bn -> ctx_conv3/bn
I0703 01:28:04.694576 31050 net.cpp:148] Setting up ctx_conv3/bn
I0703 01:28:04.694583 31050 net.cpp:155] Top shape: 8 64 80 80 (3276800)
I0703 01:28:04.694586 31050 net.cpp:163] Memory required for data: 1720320000
I0703 01:28:04.694591 31050 layer_factory.hpp:77] Creating layer ctx_conv3/relu
I0703 01:28:04.694593 31050 net.cpp:98] Creating Layer ctx_conv3/relu
I0703 01:28:04.694597 31050 net.cpp:439] ctx_conv3/relu <- ctx_conv3/bn
I0703 01:28:04.694598 31050 net.cpp:400] ctx_conv3/relu -> ctx_conv3/bn (in-place)
I0703 01:28:04.694602 31050 net.cpp:148] Setting up ctx_conv3/relu
I0703 01:28:04.694604 31050 net.cpp:155] Top shape: 8 64 80 80 (3276800)
I0703 01:28:04.694607 31050 net.cpp:163] Memory required for data: 1733427200
I0703 01:28:04.694608 31050 layer_factory.hpp:77] Creating layer ctx_conv4
I0703 01:28:04.694612 31050 net.cpp:98] Creating Layer ctx_conv4
I0703 01:28:04.694613 31050 net.cpp:439] ctx_conv4 <- ctx_conv3/bn
I0703 01:28:04.694617 31050 net.cpp:413] ctx_conv4 -> ctx_conv4
I0703 01:28:04.695638 31050 net.cpp:148] Setting up ctx_conv4
I0703 01:28:04.695644 31050 net.cpp:155] Top shape: 8 64 80 80 (3276800)
I0703 01:28:04.695647 31050 net.cpp:163] Memory required for data: 1746534400
I0703 01:28:04.695649 31050 layer_factory.hpp:77] Creating layer ctx_conv4/bn
I0703 01:28:04.695654 31050 net.cpp:98] Creating Layer ctx_conv4/bn
I0703 01:28:04.695657 31050 net.cpp:439] ctx_conv4/bn <- ctx_conv4
I0703 01:28:04.695660 31050 net.cpp:413] ctx_conv4/bn -> ctx_conv4/bn
I0703 01:28:04.696224 31050 net.cpp:148] Setting up ctx_conv4/bn
I0703 01:28:04.696230 31050 net.cpp:155] Top shape: 8 64 80 80 (3276800)
I0703 01:28:04.696233 31050 net.cpp:163] Memory required for data: 1759641600
I0703 01:28:04.696238 31050 layer_factory.hpp:77] Creating layer ctx_conv4/relu
I0703 01:28:04.696240 31050 net.cpp:98] Creating Layer ctx_conv4/relu
I0703 01:28:04.696243 31050 net.cpp:439] ctx_conv4/relu <- ctx_conv4/bn
I0703 01:28:04.696245 31050 net.cpp:400] ctx_conv4/relu -> ctx_conv4/bn (in-place)
I0703 01:28:04.696249 31050 net.cpp:148] Setting up ctx_conv4/relu
I0703 01:28:04.696250 31050 net.cpp:155] Top shape: 8 64 80 80 (3276800)
I0703 01:28:04.696252 31050 net.cpp:163] Memory required for data: 1772748800
I0703 01:28:04.696254 31050 layer_factory.hpp:77] Creating layer ctx_final
I0703 01:28:04.696259 31050 net.cpp:98] Creating Layer ctx_final
I0703 01:28:04.696260 31050 net.cpp:439] ctx_final <- ctx_conv4/bn
I0703 01:28:04.696262 31050 net.cpp:413] ctx_final -> ctx_final
I0703 01:28:04.696655 31050 net.cpp:148] Setting up ctx_final
I0703 01:28:04.696661 31050 net.cpp:155] Top shape: 8 8 80 80 (409600)
I0703 01:28:04.696663 31050 net.cpp:163] Memory required for data: 1774387200
I0703 01:28:04.696666 31050 layer_factory.hpp:77] Creating layer ctx_final/relu
I0703 01:28:04.696669 31050 net.cpp:98] Creating Layer ctx_final/relu
I0703 01:28:04.696671 31050 net.cpp:439] ctx_final/relu <- ctx_final
I0703 01:28:04.696674 31050 net.cpp:400] ctx_final/relu -> ctx_final (in-place)
I0703 01:28:04.696677 31050 net.cpp:148] Setting up ctx_final/relu
I0703 01:28:04.696681 31050 net.cpp:155] Top shape: 8 8 80 80 (409600)
I0703 01:28:04.696681 31050 net.cpp:163] Memory required for data: 1776025600
I0703 01:28:04.696683 31050 layer_factory.hpp:77] Creating layer out_deconv_final_up2
I0703 01:28:04.696686 31050 net.cpp:98] Creating Layer out_deconv_final_up2
I0703 01:28:04.696688 31050 net.cpp:439] out_deconv_final_up2 <- ctx_final
I0703 01:28:04.696691 31050 net.cpp:413] out_deconv_final_up2 -> out_deconv_final_up2
I0703 01:28:04.696899 31050 net.cpp:148] Setting up out_deconv_final_up2
I0703 01:28:04.696907 31050 net.cpp:155] Top shape: 8 8 160 160 (1638400)
I0703 01:28:04.696910 31050 net.cpp:163] Memory required for data: 1782579200
I0703 01:28:04.696915 31050 layer_factory.hpp:77] Creating layer out_deconv_final_up4
I0703 01:28:04.696929 31050 net.cpp:98] Creating Layer out_deconv_final_up4
I0703 01:28:04.696933 31050 net.cpp:439] out_deconv_final_up4 <- out_deconv_final_up2
I0703 01:28:04.696938 31050 net.cpp:413] out_deconv_final_up4 -> out_deconv_final_up4
I0703 01:28:04.697160 31050 net.cpp:148] Setting up out_deconv_final_up4
I0703 01:28:04.697167 31050 net.cpp:155] Top shape: 8 8 320 320 (6553600)
I0703 01:28:04.697170 31050 net.cpp:163] Memory required for data: 1808793600
I0703 01:28:04.697175 31050 layer_factory.hpp:77] Creating layer out_deconv_final_up8
I0703 01:28:04.697180 31050 net.cpp:98] Creating Layer out_deconv_final_up8
I0703 01:28:04.697182 31050 net.cpp:439] out_deconv_final_up8 <- out_deconv_final_up4
I0703 01:28:04.697187 31050 net.cpp:413] out_deconv_final_up8 -> out_deconv_final_up8
I0703 01:28:04.697401 31050 net.cpp:148] Setting up out_deconv_final_up8
I0703 01:28:04.697407 31050 net.cpp:155] Top shape: 8 8 640 640 (26214400)
I0703 01:28:04.697410 31050 net.cpp:163] Memory required for data: 1913651200
I0703 01:28:04.697414 31050 layer_factory.hpp:77] Creating layer loss
I0703 01:28:04.697419 31050 net.cpp:98] Creating Layer loss
I0703 01:28:04.697422 31050 net.cpp:439] loss <- out_deconv_final_up8
I0703 01:28:04.697427 31050 net.cpp:439] loss <- label
I0703 01:28:04.697432 31050 net.cpp:413] loss -> loss
…
I0703 01:28:04.730891 31050 solver.cpp:182] Creating test net (#0) specified by test_net file: training/cityscapes5_jsegnet21v2_2017-07-02_23-02-42/sparse/test.prototxt
I0703 01:28:04.731187 31050 net.cpp:56] Initializing net from parameters: 
name: "jsegnet21v2_test"
state {
  phase: TEST
}
layer {
  name: "data"
  type: "ImageLabelData"
  top: "data"
  top: "label"
  transform_param {
    mirror: false
    crop_size: 640
    mean_value: 0
  }
  image_label_data_param {
    image_list_path: "data/val-image-lmdb"
    label_list_path: "data/val-label-lmdb"
    batch_size: 4
    threads: 4
    backend: LMDB
  }
}
layer {
  name: "data/bias"
  type: "Bias"
  bottom: "data"
  top: "data/bias"
  param {
    lr_mult: 0
    decay_mult: 0
  }
  bias_param {
    filler {
      type: "constant"
      value: -128
    }
  }
}
layer {
  name: "conv1a"
  type: "Convolution"
  bottom: "data/bias"
  top: "conv1a"
  param {
    lr_mult: 1
    decay_mult: 1
  }
  param {
    lr_mult: 2
    decay_mult: 0
  }
  convolution_param {
    num_output: 32
    bias_term: true
    pad: 2
    kernel_size: 5
    group: 1
    stride: 2
    weight_filler {
      type: "msra"
    }
    bias_filler {
      type: "constant"
      value: 0
    }
    dilation: 1
  }
}
layer {
  name: "conv1a/bn"
  type: "BatchNorm"
  bottom: "conv1a"
  top: "conv1a/bn"
  param {
    lr_mult: 1
    decay_mult: 1
  }
  param {
    lr_mult: 1
    decay_mult: 1
  }
  param {
    lr_mult: 0
    decay_mult: 0
  }
  param {
    lr_mult: 0
    decay_mult: 0
  }
  batch_norm_param {
    moving_average_fraction: 0.99
    eps: 0.0001
    scale_filler {
      type: "constant"
      value: 1
    }
    bias_filler {
      type: "constant"
      value: 0
    }
  }
}
layer {
  name: "conv1a/relu"
  type: "ReLU"
  bottom: "conv1a/bn"
  top: "conv1a/bn"
}
layer {
  name: "conv1b"
  type: "Convolution"
  bottom: "conv1a/bn"
  top: "conv1b"
  param {
    lr_mult: 1
    decay_mult: 1
  }
  param {
    lr_mult: 2
    decay_mult: 0
  }
  convolution_param {
    num_output: 32
    bias_term: true
    pad: 1
    kernel_size: 3
    group: 4
    stride: 1
    weight_filler {
      type: "msra"
    }
    bias_filler {
      type: "constant"
      value: 0
    }
    dilation: 1
  }
}
layer {
  name: "conv1b/bn"
  type: "BatchNorm"
  bottom: "conv1b"
  top: "conv1b/bn"
  param {
    lr_mult: 1
    decay_mult: 1
  }
  param {
    lr_mult: 1
    decay_mult: 1
  }
  param {
    lr_mult: 0
    decay_mult: 0
  }
  param {
    lr_mult: 0
    decay_mult: 0
  }
  batch_norm_param {
    moving_average_fraction: 0.99
    eps: 0.0001
    scale_filler {
      type: "constant"
      value: 1
    }
    bias_filler {
      type: "constant"
      value: 0
    }
  }
}
layer {
  name: "conv1b/relu"
  type: "ReLU"
  bottom: "conv1b/bn"
  top: "conv1b/bn"
}
layer {
  name: "pool1"
  type: "Pooling"
  bottom: "conv1b/bn"
  top: "pool1"
  pooling_param {
    pool: MAX
    kernel_size: 2
    stride: 2
  }
}
layer {
  name: "res2a_branch2a"
  type: "Convolution"
  bottom: "pool1"
  top: "res2a_branch2a"
  param {
    lr_mult: 1
    decay_mult: 1
  }
  param {
    lr_mult: 2
    decay_mult: 0
  }
  convolution_param {
    num_output: 64
    bias_term: true
    pad: 1
    kernel_size: 3
    group: 1
    stride: 1
    weight_filler {
      type: "msra"
    }
    bias_filler {
      type: "constant"
      value: 0
    }
    dilation: 1
  }
}
layer {
  name: "res2a_branch2a/bn"
  type: "BatchNorm"
  bottom: "res2a_branch2a"
  top: "res2a_branch2a/bn"
  param {
    lr_mult: 1
    decay_mult: 1
  }
  param {
    lr_mult: 1
    decay_mult: 1
  }
  param {
    lr_mult: 0
    decay_mult: 0
  }
  param {
    lr_mult: 0
    decay_mult: 0
  }
  batch_norm_param {
    moving_average_fraction: 0.99
    eps: 0.0001
    scale_filler {
      type: "constant"
      value: 1
    }
    bias_filler {
      type: "constant"
      value: 0
    }
  }
}
layer {
  name: "res2a_branch2a/relu"
  type: "ReLU"
  bottom: "res2a_branch2a/bn"
  top: "res2a_branch2a/bn"
}
layer {
  name: "res2a_branch2b"
  type: "Convolution"
  bottom: "res2a_branch2a/bn"
  top: "res2a_branch2b"
  param {
    lr_mult: 1
    decay_mult: 1
  }
  param {
    lr_mult: 2
    decay_mult: 0
  }
  convolution_param {
    num_output: 64
    bias_term: true
    pad: 1
    kernel_size: 3
    group: 4
    stride: 1
    weight_filler {
      type: "msra"
    }
    bias_filler {
      type: "constant"
      value: 0
    }
    dilation: 1
  }
}
layer {
  name: "res2a_branch2b/bn"
  type: "BatchNorm"
  bottom: "res2a_branch2b"
  top: "res2a_branch2b/bn"
  param {
    lr_mult: 1
    decay_mult: 1
  }
  param {
    lr_mult: 1
    decay_mult: 1
  }
  param {
    lr_mult: 0
    decay_mult: 0
  }
  param {
    lr_mult: 0
    decay_mult: 0
  }
  batch_norm_param {
    moving_average_fraction: 0.99
    eps: 0.0001
    scale_filler {
      type: "constant"
      value: 1
    }
    bias_filler {
      type: "constant"
      value: 0
    }
  }
}
layer {
  name: "res2a_branch2b/relu"
  type: "ReLU"
  bottom: "res2a_branch2b/bn"
  top: "res2a_branch2b/bn"
}
layer {
  name: "pool2"
  type: "Pooling"
  bottom: "res2a_branch2b/bn"
  top: "pool2"
  pooling_param {
    pool: MAX
    kernel_size: 2
    stride: 2
  }
}
layer {
  name: "res3a_branch2a"
  type: "Convolution"
  bottom: "pool2"
  top: "res3a_branch2a"
  param {
    lr_mult: 1
    decay_mult: 1
  }
  param {
    lr_mult: 2
    decay_mult: 0
  }
  convolution_param {
    num_output: 128
    bias_term: true
    pad: 1
    kernel_size: 3
    group: 1
    stride: 1
    weight_filler {
      type: "msra"
    }
    bias_filler {
      type: "constant"
      value: 0
    }
    dilation: 1
  }
}
layer {
  name: "res3a_branch2a/bn"
  type: "BatchNorm"
  bottom: "res3a_branch2a"
  top: "res3a_branch2a/bn"
  param {
    lr_mult: 1
    decay_mult: 1
  }
  param {
    lr_mult: 1
    decay_mult: 1
  }
  param {
    lr_mult: 0
    decay_mult: 0
  }
  param {
    lr_mult: 0
    decay_mult: 0
  }
  batch_norm_param {
    moving_average_fraction: 0.99
    eps: 0.0001
    scale_filler {
      type: "constant"
      value: 1
    }
    bias_filler {
      type: "constant"
      value: 0
    }
  }
}
layer {
  name: "res3a_branch2a/relu"
  type: "ReLU"
  bottom: "res3a_branch2a/bn"
  top: "res3a_branch2a/bn"
}
layer {
  name: "res3a_branch2b"
  type: "Convolution"
  bottom: "res3a_branch2a/bn"
  top: "res3a_branch2b"
  param {
    lr_mult: 1
    decay_mult: 1
  }
  param {
    lr_mult: 2
    decay_mult: 0
  }
  convolution_param {
    num_output: 128
    bias_term: true
    pad: 1
    kernel_size: 3
    group: 4
    stride: 1
    weight_filler {
      type: "msra"
    }
    bias_filler {
      type: "constant"
      value: 0
    }
    dilation: 1
  }
}
layer {
  name: "res3a_branch2b/bn"
  type: "BatchNorm"
  bottom: "res3a_branch2b"
  top: "res3a_branch2b/bn"
  param {
    lr_mult: 1
    decay_mult: 1
  }
  param {
    lr_mult: 1
    decay_mult: 1
  }
  param {
    lr_mult: 0
    decay_mult: 0
  }
  param {
    lr_mult: 0
    decay_mult: 0
  }
  batch_norm_param {
    moving_average_fraction: 0.99
    eps: 0.0001
    scale_filler {
      type: "constant"
      value: 1
    }
    bias_filler {
      type: "constant"
      value: 0
    }
  }
}
layer {
  name: "res3a_branch2b/relu"
  type: "ReLU"
  bottom: "res3a_branch2b/bn"
  top: "res3a_branch2b/bn"
}
layer {
  name: "pool3"
  type: "Pooling"
  bottom: "res3a_branch2b/bn"
  top: "pool3"
  pooling_param {
    pool: MAX
    kernel_size: 2
    stride: 2
  }
}
layer {
  name: "res4a_branch2a"
  type: "Convolution"
  bottom: "pool3"
  top: "res4a_branch2a"
  param {
    lr_mult: 1
    decay_mult: 1
  }
  param {
    lr_mult: 2
    decay_mult: 0
  }
  convolution_param {
    num_output: 256
    bias_term: true
    pad: 1
    kernel_size: 3
    group: 1
    stride: 1
    weight_filler {
      type: "msra"
    }
    bias_filler {
      type: "constant"
      value: 0
    }
    dilation: 1
  }
}
layer {
  name: "res4a_branch2a/bn"
  type: "BatchNorm"
  bottom: "res4a_branch2a"
  top: "res4a_branch2a/bn"
  param {
    lr_mult: 1
    decay_mult: 1
  }
  param {
    lr_mult: 1
    decay_mult: 1
  }
  param {
    lr_mult: 0
    decay_mult: 0
  }
  param {
    lr_mult: 0
    decay_mult: 0
  }
  batch_norm_param {
    moving_average_fraction: 0.99
    eps: 0.0001
    scale_filler {
      type: "constant"
      value: 1
    }
    bias_filler {
      type: "constant"
      value: 0
    }
  }
}
layer {
  name: "res4a_branch2a/relu"
  type: "ReLU"
  bottom: "res4a_branch2a/bn"
  top: "res4a_branch2a/bn"
}
layer {
  name: "res4a_branch2b"
  type: "Convolution"
  bottom: "res4a_branch2a/bn"
  top: "res4a_branch2b"
  param {
    lr_mult: 1
    decay_mult: 1
  }
  param {
    lr_mult: 2
    decay_mult: 0
  }
  convolution_param {
    num_output: 256
    bias_term: true
    pad: 1
    kernel_size: 3
    group: 4
    stride: 1
    weight_filler {
      type: "msra"
    }
    bias_filler {
      type: "constant"
      value: 0
    }
    dilation: 1
  }
}
layer {
  name: "res4a_branch2b/bn"
  type: "BatchNorm"
  bottom: "res4a_branch2b"
  top: "res4a_branch2b/bn"
  param {
    lr_mult: 1
    decay_mult: 1
  }
  param {
    lr_mult: 1
    decay_mult: 1
  }
  param {
    lr_mult: 0
    decay_mult: 0
  }
  param {
    lr_mult: 0
    decay_mult: 0
  }
  batch_norm_param {
    moving_average_fraction: 0.99
    eps: 0.0001
    scale_filler {
      type: "constant"
      value: 1
    }
    bias_filler {
      type: "constant"
      value: 0
    }
  }
}
layer {
  name: "res4a_branch2b/relu"
  type: "ReLU"
  bottom: "res4a_branch2b/bn"
  top: "res4a_branch2b/bn"
}
layer {
  name: "pool4"
  type: "Pooling"
  bottom: "res4a_branch2b/bn"
  top: "pool4"
  pooling_param {
    pool: MAX
    kernel_size: 1
    stride: 1
  }
}
layer {
  name: "res5a_branch2a"
  type: "Convolution"
  bottom: "pool4"
  top: "res5a_branch2a"
  param {
    lr_mult: 1
    decay_mult: 1
  }
  param {
    lr_mult: 2
    decay_mult: 0
  }
  convolution_param {
    num_output: 512
    bias_term: true
    pad: 2
    kernel_size: 3
    group: 1
    stride: 1
    weight_filler {
      type: "msra"
    }
    bias_filler {
      type: "constant"
      value: 0
    }
    dilation: 2
  }
}
layer {
  name: "res5a_branch2a/bn"
  type: "BatchNorm"
  bottom: "res5a_branch2a"
  top: "res5a_branch2a/bn"
  param {
    lr_mult: 1
    decay_mult: 1
  }
  param {
    lr_mult: 1
    decay_mult: 1
  }
  param {
    lr_mult: 0
    decay_mult: 0
  }
  param {
    lr_mult: 0
    decay_mult: 0
  }
  batch_norm_param {
    moving_average_fraction: 0.99
    eps: 0.0001
    scale_filler {
      type: "constant"
      value: 1
    }
    bias_filler {
      type: "constant"
      value: 0
    }
  }
}
layer {
  name: "res5a_branch2a/relu"
  type: "ReLU"
  bottom: "res5a_branch2a/bn"
  top: "res5a_branch2a/bn"
}
layer {
  name: "res5a_branch2b"
  type: "Convolution"
  bottom: "res5a_branch2a/bn"
  top: "res5a_branch2b"
  param {
    lr_mult: 1
    decay_mult: 1
  }
  param {
    lr_mult: 2
    decay_mult: 0
  }
  convolution_param {
    num_output: 512
    bias_term: true
    pad: 2
    kernel_size: 3
    group: 4
    stride: 1
    weight_filler {
      type: "msra"
    }
    bias_filler {
      type: "constant"
      value: 0
    }
    dilation: 2
  }
}
layer {
  name: "res5a_branch2b/bn"
  type: "BatchNorm"
  bottom: "res5a_branch2b"
  top: "res5a_branch2b/bn"
  param {
    lr_mult: 1
    decay_mult: 1
  }
  param {
    lr_mult: 1
    decay_mult: 1
  }
  param {
    lr_mult: 0
    decay_mult: 0
  }
  param {
    lr_mult: 0
    decay_mult: 0
  }
  batch_norm_param {
    moving_average_fraction: 0.99
    eps: 0.0001
    scale_filler {
      type: "constant"
      value: 1
    }
    bias_filler {
      type: "constant"
      value: 0
    }
  }
}
layer {
  name: "res5a_branch2b/relu"
  type: "ReLU"
  bottom: "res5a_branch2b/bn"
  top: "res5a_branch2b/bn"
}
layer {
  name: "out5a"
  type: "Convolution"
  bottom: "res5a_branch2b/bn"
  top: "out5a"
  param {
    lr_mult: 1
    decay_mult: 1
  }
  param {
    lr_mult: 2
    decay_mult: 0
  }
  convolution_param {
    num_output: 64
    bias_term: true
    pad: 4
    kernel_size: 3
    group: 2
    stride: 1
    weight_filler {
      type: "msra"
    }
    bias_filler {
      type: "constant"
      value: 0
    }
    dilation: 4
  }
}
layer {
  name: "out5a/bn"
  type: "BatchNorm"
  bottom: "out5a"
  top: "out5a/bn"
  param {
    lr_mult: 1
    decay_mult: 1
  }
  param {
    lr_mult: 1
    decay_mult: 1
  }
  param {
    lr_mult: 0
    decay_mult: 0
  }
  param {
    lr_mult: 0
    decay_mult: 0
  }
  batch_norm_param {
    moving_average_fraction: 0.99
    eps: 0.0001
    scale_filler {
      type: "constant"
      value: 1
    }
    bias_filler {
      type: "constant"
      value: 0
    }
  }
}
layer {
  name: "out5a/relu"
  type: "ReLU"
  bottom: "out5a/bn"
  top: "out5a/bn"
}
layer {
  name: "out5a_up2"
  type: "Deconvolution"
  bottom: "out5a/bn"
  top: "out5a_up2"
  param {
    lr_mult: 0
    decay_mult: 0
  }
  convolution_param {
    num_output: 64
    bias_term: false
    pad: 1
    kernel_size: 4
    group: 64
    stride: 2
    weight_filler {
      type: "bilinear"
    }
  }
}
layer {
  name: "out3a"
  type: "Convolution"
  bottom: "res3a_branch2b/bn"
  top: "out3a"
  param {
    lr_mult: 1
    decay_mult: 1
  }
  param {
    lr_mult: 2
    decay_mult: 0
  }
  convolution_param {
    num_output: 64
    bias_term: true
    pad: 1
    kernel_size: 3
    group: 2
    stride: 1
    weight_filler {
      type: "msra"
    }
    bias_filler {
      type: "constant"
      value: 0
    }
    dilation: 1
  }
}
layer {
  name: "out3a/bn"
  type: "BatchNorm"
  bottom: "out3a"
  top: "out3a/bn"
  param {
    lr_mult: 1
    decay_mult: 1
  }
  param {
    lr_mult: 1
    decay_mult: 1
  }
  param {
    lr_mult: 0
    decay_mult: 0
  }
  param {
    lr_mult: 0
    decay_mult: 0
  }
  batch_norm_param {
    moving_average_fraction: 0.99
    eps: 0.0001
    scale_filler {
      type: "constant"
      value: 1
    }
    bias_filler {
      type: "constant"
      value: 0
    }
  }
}
layer {
  name: "out3a/relu"
  type: "ReLU"
  bottom: "out3a/bn"
  top: "out3a/bn"
}
layer {
  name: "out3_out5_combined"
  type: "Eltwise"
  bottom: "out5a_up2"
  bottom: "out3a/bn"
  top: "out3_out5_combined"
}
layer {
  name: "ctx_conv1"
  type: "Convolution"
  bottom: "out3_out5_combined"
  top: "ctx_conv1"
  param {
    lr_mult: 1
    decay_mult: 1
  }
  param {
    lr_mult: 2
    decay_mult: 0
  }
  convolution_param {
    num_output: 64
    bias_term: true
    pad: 1
    kernel_size: 3
    group: 1
    stride: 1
    weight_filler {
      type: "msra"
    }
    bias_filler {
      type: "constant"
      value: 0
    }
    dilation: 1
  }
}
layer {
  name: "ctx_conv1/bn"
  type: "BatchNorm"
  bottom: "ctx_conv1"
  top: "ctx_conv1/bn"
  param {
    lr_mult: 1
    decay_mult: 1
  }
  param {
    lr_mult: 1
    decay_mult: 1
  }
  param {
    lr_mult: 0
    decay_mult: 0
  }
  param {
    lr_mult: 0
    decay_mult: 0
  }
  batch_norm_param {
    moving_average_fraction: 0.99
    eps: 0.0001
    scale_filler {
      type: "constant"
      value: 1
    }
    bias_filler {
      type: "constant"
      value: 0
    }
  }
}
layer {
  name: "ctx_conv1/relu"
  type: "ReLU"
  bottom: "ctx_conv1/bn"
  top: "ctx_conv1/bn"
}
layer {
  name: "ctx_conv2"
  type: "Convolution"
  bottom: "ctx_conv1/bn"
  top: "ctx_conv2"
  param {
    lr_mult: 1
    decay_mult: 1
  }
  param {
    lr_mult: 2
    decay_mult: 0
  }
  convolution_param {
    num_output: 64
    bias_term: true
    pad: 4
    kernel_size: 3
    group: 1
    stride: 1
    weight_filler {
      type: "msra"
    }
    bias_filler {
      type: "constant"
      value: 0
    }
    dilation: 4
  }
}
layer {
  name: "ctx_conv2/bn"
  type: "BatchNorm"
  bottom: "ctx_conv2"
  top: "ctx_conv2/bn"
  param {
    lr_mult: 1
    decay_mult: 1
  }
  param {
    lr_mult: 1
    decay_mult: 1
  }
  param {
    lr_mult: 0
    decay_mult: 0
  }
  param {
    lr_mult: 0
    decay_mult: 0
  }
  batch_norm_param {
    moving_average_fraction: 0.99
    eps: 0.0001
    scale_filler {
      type: "constant"
      value: 1
    }
    bias_filler {
      type: "constant"
      value: 0
    }
  }
}
layer {
  name: "ctx_conv2/relu"
  type: "ReLU"
  bottom: "ctx_conv2/bn"
  top: "ctx_conv2/bn"
}
layer {
  name: "ctx_conv3"
  type: "Convolution"
  bottom: "ctx_conv2/bn"
  top: "ctx_conv3"
  param {
    lr_mult: 1
    decay_mult: 1
  }
  param {
    lr_mult: 2
    decay_mult: 0
  }
  convolution_param {
    num_output: 64
    bias_term: true
    pad: 4
    kernel_size: 3
    group: 1
    stride: 1
    weight_filler {
      type: "msra"
    }
    bias_filler {
      type: "constant"
      value: 0
    }
    dilation: 4
  }
}
layer {
  name: "ctx_conv3/bn"
  type: "BatchNorm"
  bottom: "ctx_conv3"
  top: "ctx_conv3/bn"
  param {
    lr_mult: 1
    decay_mult: 1
  }
  param {
    lr_mult: 1
    decay_mult: 1
  }
  param {
    lr_mult: 0
    decay_mult: 0
  }
  param {
    lr_mult: 0
    decay_mult: 0
  }
  batch_norm_param {
    moving_average_fraction: 0.99
    eps: 0.0001
    scale_filler {
      type: "constant"
      value: 1
    }
    bias_filler {
      type: "constant"
      value: 0
    }
  }
}
layer {
  name: "ctx_conv3/relu"
  type: "ReLU"
  bottom: "ctx_conv3/bn"
  top: "ctx_conv3/bn"
}
layer {
  name: "ctx_conv4"
  type: "Convolution"
  bottom: "ctx_conv3/bn"
  top: "ctx_conv4"
  param {
    lr_mult: 1
    decay_mult: 1
  }
  param {
    lr_mult: 2
    decay_mult: 0
  }
  convolution_param {
    num_output: 64
    bias_term: true
    pad: 4
    kernel_size: 3
    group: 1
    stride: 1
    weight_filler {
      type: "msra"
    }
    bias_filler {
      type: "constant"
      value: 0
    }
    dilation: 4
  }
}
layer {
  name: "ctx_conv4/bn"
  type: "BatchNorm"
  bottom: "ctx_conv4"
  top: "ctx_conv4/bn"
  param {
    lr_mult: 1
    decay_mult: 1
  }
  param {
    lr_mult: 1
    decay_mult: 1
  }
  param {
    lr_mult: 0
    decay_mult: 0
  }
  param {
    lr_mult: 0
    decay_mult: 0
  }
  batch_norm_param {
    moving_average_fraction: 0.99
    eps: 0.0001
    scale_filler {
      type: "constant"
      value: 1
    }
    bias_filler {
      type: "constant"
      value: 0
    }
  }
}
layer {
  name: "ctx_conv4/relu"
  type: "ReLU"
  bottom: "ctx_conv4/bn"
  top: "ctx_conv4/bn"
}
layer {
  name: "ctx_final"
  type: "Convolution"
  bottom: "ctx_conv4/bn"
  top: "ctx_final"
  param {
    lr_mult: 1
    decay_mult: 1
  }
  param {
    lr_mult: 2
    decay_mult: 0
  }
  convolution_param {
    num_output: 8
    bias_term: true
    pad: 1
    kernel_size: 3
    kernel_size: 3
    group: 1
    stride: 1
    weight_filler {
      type: "msra"
    }
    bias_filler {
      type: "constant"
      value: 0
    }
    dilation: 1
  }
}
layer {
  name: "ctx_final/relu"
  type: "ReLU"
  bottom: "ctx_final"
  top: "ctx_final"
}
layer {
  name: "out_deconv_final_up2"
  type: "Deconvolution"
  bottom: "ctx_final"
  top: "out_deconv_final_up2"
  param {
    lr_mult: 0
    decay_mult: 0
  }
  convolution_param {
    num_output: 8
    bias_term: false
    pad: 1
    kernel_size: 4
    group: 8
    stride: 2
    weight_filler {
      type: "bilinear"
    }
  }
}
layer {
  name: "out_deconv_final_up4"
  type: "Deconvolution"
  bottom: "out_deconv_final_up2"
  top: "out_deconv_final_up4"
  param {
    lr_mult: 0
    decay_mult: 0
  }
  convolution_param {
    num_output: 8
    bias_term: false
    pad: 1
    kernel_size: 4
    group: 8
    stride: 2
    weight_filler {
      type: "bilinear"
    }
  }
}
layer {
  name: "out_deconv_final_up8"
  type: "Deconvolution"
  bottom: "out_deconv_final_up4"
  top: "out_deconv_final_up8"
  param {
    lr_mult: 0
    decay_mult: 0
  }
  convolution_param {
    num_output: 8
    bias_term: false
    pad: 1
    kernel_size: 4
    group: 8
    stride: 2
    weight_filler {
      type: "bilinear"
    }
  }
}
layer {
  name: "loss"
  type: "SoftmaxWithLoss"
  bottom: "out_deconv_final_up8"
  bottom: "label"
  top: "loss"
  propagate_down: true
  propagate_down: false
  loss_param {
    ignore_label: 255
    normalization: VALID
  }
}
layer {
  name: "accuracy/top1"
  type: "Accuracy"
  bottom: "out_deconv_final_up8"
  bottom: "label"
  top: "accuracy/top1"
  include {
    phase: TEST
  }
  accuracy_param {
    ignore_label: 255
  }
}
layer {
  name: "accuracy/top5"
  type: "Accuracy"
  bottom: "out_deconv_final_up8"
  bottom: "label"
  top: "accuracy/top5"
  include {
    phase: TEST
  }
  accuracy_param {
    top_k: 5
    ignore_label: 255
  }
}
I0703 01:28:04.731325 31050 layer_factory.hpp:77] Creating layer data
I0703 01:28:04.731335 31050 net.cpp:98] Creating Layer data
I0703 01:28:04.731340 31050 net.cpp:413] data -> data
I0703 01:28:04.731348 31050 net.cpp:413] data -> label
I0703 01:28:04.732861 31135 db_lmdb.cpp:35] Opened lmdb data/val-label-lmdb
I0703 01:28:04.761632 31130 db_lmdb.cpp:35] Opened lmdb data/val-image-lmdb
I0703 01:28:04.771430 31050 data_layer.cpp:78] ReshapePrefetch 4, 3, 640, 640
I0703 01:28:04.771621 31050 data_layer.cpp:83] output data size: 4,3,640,640
I0703 01:28:04.803767 31050 data_layer.cpp:78] ReshapePrefetch 4, 1, 640, 640
I0703 01:28:04.803853 31050 data_layer.cpp:83] output data size: 4,1,640,640
I0703 01:28:04.816761 31050 net.cpp:148] Setting up data
I0703 01:28:04.816793 31050 net.cpp:155] Top shape: 4 3 640 640 (4915200)
I0703 01:28:04.816798 31050 net.cpp:155] Top shape: 4 1 640 640 (1638400)
I0703 01:28:04.816802 31050 net.cpp:163] Memory required for data: 26214400
I0703 01:28:04.816835 31050 layer_factory.hpp:77] Creating layer label_data_1_split
I0703 01:28:04.816850 31050 net.cpp:98] Creating Layer label_data_1_split
I0703 01:28:04.816855 31050 net.cpp:439] label_data_1_split <- label
I0703 01:28:04.816862 31050 net.cpp:413] label_data_1_split -> label_data_1_split_0
I0703 01:28:04.816870 31050 net.cpp:413] label_data_1_split -> label_data_1_split_1
I0703 01:28:04.816874 31050 net.cpp:413] label_data_1_split -> label_data_1_split_2
I0703 01:28:04.817032 31050 net.cpp:148] Setting up label_data_1_split
I0703 01:28:04.817041 31050 net.cpp:155] Top shape: 4 1 640 640 (1638400)
I0703 01:28:04.817045 31050 net.cpp:155] Top shape: 4 1 640 640 (1638400)
I0703 01:28:04.817049 31050 net.cpp:155] Top shape: 4 1 640 640 (1638400)
I0703 01:28:04.817052 31050 net.cpp:163] Memory required for data: 45875200
I0703 01:28:04.817055 31050 layer_factory.hpp:77] Creating layer data/bias
I0703 01:28:04.817065 31050 net.cpp:98] Creating Layer data/bias
I0703 01:28:04.817068 31050 net.cpp:439] data/bias <- data
I0703 01:28:04.817075 31050 net.cpp:413] data/bias -> data/bias
I0703 01:28:04.818848 31050 net.cpp:148] Setting up data/bias
I0703 01:28:04.818877 31050 net.cpp:155] Top shape: 4 3 640 640 (4915200)
I0703 01:28:04.818881 31050 net.cpp:163] Memory required for data: 65536000
I0703 01:28:04.818894 31050 layer_factory.hpp:77] Creating layer conv1a
I0703 01:28:04.818914 31050 net.cpp:98] Creating Layer conv1a
I0703 01:28:04.818919 31050 net.cpp:439] conv1a <- data/bias
I0703 01:28:04.818925 31050 net.cpp:413] conv1a -> conv1a
I0703 01:28:04.819674 31050 net.cpp:148] Setting up conv1a
I0703 01:28:04.819689 31050 net.cpp:155] Top shape: 4 32 320 320 (13107200)
I0703 01:28:04.819691 31050 net.cpp:163] Memory required for data: 117964800
I0703 01:28:04.819700 31050 layer_factory.hpp:77] Creating layer conv1a/bn
I0703 01:28:04.819713 31050 net.cpp:98] Creating Layer conv1a/bn
I0703 01:28:04.819716 31050 net.cpp:439] conv1a/bn <- conv1a
I0703 01:28:04.819726 31050 net.cpp:413] conv1a/bn -> conv1a/bn
I0703 01:28:04.821094 31050 net.cpp:148] Setting up conv1a/bn
I0703 01:28:04.821117 31050 net.cpp:155] Top shape: 4 32 320 320 (13107200)
I0703 01:28:04.821120 31050 net.cpp:163] Memory required for data: 170393600
I0703 01:28:04.821133 31050 layer_factory.hpp:77] Creating layer conv1a/relu
I0703 01:28:04.821153 31050 net.cpp:98] Creating Layer conv1a/relu
I0703 01:28:04.821175 31050 net.cpp:439] conv1a/relu <- conv1a/bn
I0703 01:28:04.821192 31050 net.cpp:400] conv1a/relu -> conv1a/bn (in-place)
I0703 01:28:04.821210 31050 net.cpp:148] Setting up conv1a/relu
I0703 01:28:04.821221 31050 net.cpp:155] Top shape: 4 32 320 320 (13107200)
I0703 01:28:04.821230 31050 net.cpp:163] Memory required for data: 222822400
I0703 01:28:04.821240 31050 layer_factory.hpp:77] Creating layer conv1b
I0703 01:28:04.821260 31050 net.cpp:98] Creating Layer conv1b
I0703 01:28:04.821269 31050 net.cpp:439] conv1b <- conv1a/bn
I0703 01:28:04.821288 31050 net.cpp:413] conv1b -> conv1b
I0703 01:28:04.821844 31050 net.cpp:148] Setting up conv1b
I0703 01:28:04.821852 31050 net.cpp:155] Top shape: 4 32 320 320 (13107200)
I0703 01:28:04.821854 31050 net.cpp:163] Memory required for data: 275251200
I0703 01:28:04.821861 31050 layer_factory.hpp:77] Creating layer conv1b/bn
I0703 01:28:04.821872 31050 net.cpp:98] Creating Layer conv1b/bn
I0703 01:28:04.821877 31050 net.cpp:439] conv1b/bn <- conv1b
I0703 01:28:04.821882 31050 net.cpp:413] conv1b/bn -> conv1b/bn
I0703 01:28:04.822856 31050 net.cpp:148] Setting up conv1b/bn
I0703 01:28:04.822880 31050 net.cpp:155] Top shape: 4 32 320 320 (13107200)
I0703 01:28:04.822885 31050 net.cpp:163] Memory required for data: 327680000
I0703 01:28:04.822896 31050 layer_factory.hpp:77] Creating layer conv1b/relu
I0703 01:28:04.822906 31050 net.cpp:98] Creating Layer conv1b/relu
I0703 01:28:04.822911 31050 net.cpp:439] conv1b/relu <- conv1b/bn
I0703 01:28:04.822916 31050 net.cpp:400] conv1b/relu -> conv1b/bn (in-place)
I0703 01:28:04.822922 31050 net.cpp:148] Setting up conv1b/relu
I0703 01:28:04.822948 31050 net.cpp:155] Top shape: 4 32 320 320 (13107200)
I0703 01:28:04.822952 31050 net.cpp:163] Memory required for data: 380108800
I0703 01:28:04.822957 31050 layer_factory.hpp:77] Creating layer pool1
I0703 01:28:04.822966 31050 net.cpp:98] Creating Layer pool1
I0703 01:28:04.822970 31050 net.cpp:439] pool1 <- conv1b/bn
I0703 01:28:04.822976 31050 net.cpp:413] pool1 -> pool1
I0703 01:28:04.823024 31050 net.cpp:148] Setting up pool1
I0703 01:28:04.823030 31050 net.cpp:155] Top shape: 4 32 160 160 (3276800)
I0703 01:28:04.823035 31050 net.cpp:163] Memory required for data: 393216000
I0703 01:28:04.823038 31050 layer_factory.hpp:77] Creating layer res2a_branch2a
I0703 01:28:04.823047 31050 net.cpp:98] Creating Layer res2a_branch2a
I0703 01:28:04.823051 31050 net.cpp:439] res2a_branch2a <- pool1
I0703 01:28:04.823057 31050 net.cpp:413] res2a_branch2a -> res2a_branch2a
I0703 01:28:04.824012 31050 net.cpp:148] Setting up res2a_branch2a
I0703 01:28:04.824026 31050 net.cpp:155] Top shape: 4 64 160 160 (6553600)
I0703 01:28:04.824031 31050 net.cpp:163] Memory required for data: 419430400
I0703 01:28:04.824041 31050 layer_factory.hpp:77] Creating layer res2a_branch2a/bn
I0703 01:28:04.824049 31050 net.cpp:98] Creating Layer res2a_branch2a/bn
I0703 01:28:04.824054 31050 net.cpp:439] res2a_branch2a/bn <- res2a_branch2a
I0703 01:28:04.824060 31050 net.cpp:413] res2a_branch2a/bn -> res2a_branch2a/bn
I0703 01:28:04.824805 31050 net.cpp:148] Setting up res2a_branch2a/bn
I0703 01:28:04.824813 31050 net.cpp:155] Top shape: 4 64 160 160 (6553600)
I0703 01:28:04.824817 31050 net.cpp:163] Memory required for data: 445644800
I0703 01:28:04.824832 31050 layer_factory.hpp:77] Creating layer res2a_branch2a/relu
I0703 01:28:04.824839 31050 net.cpp:98] Creating Layer res2a_branch2a/relu
I0703 01:28:04.824844 31050 net.cpp:439] res2a_branch2a/relu <- res2a_branch2a/bn
I0703 01:28:04.824849 31050 net.cpp:400] res2a_branch2a/relu -> res2a_branch2a/bn (in-place)
I0703 01:28:04.824856 31050 net.cpp:148] Setting up res2a_branch2a/relu
I0703 01:28:04.824862 31050 net.cpp:155] Top shape: 4 64 160 160 (6553600)
I0703 01:28:04.824867 31050 net.cpp:163] Memory required for data: 471859200
I0703 01:28:04.824870 31050 layer_factory.hpp:77] Creating layer res2a_branch2b
I0703 01:28:04.824878 31050 net.cpp:98] Creating Layer res2a_branch2b
I0703 01:28:04.824882 31050 net.cpp:439] res2a_branch2b <- res2a_branch2a/bn
I0703 01:28:04.824888 31050 net.cpp:413] res2a_branch2b -> res2a_branch2b
I0703 01:28:04.825492 31050 net.cpp:148] Setting up res2a_branch2b
I0703 01:28:04.825501 31050 net.cpp:155] Top shape: 4 64 160 160 (6553600)
I0703 01:28:04.825505 31050 net.cpp:163] Memory required for data: 498073600
I0703 01:28:04.825510 31050 layer_factory.hpp:77] Creating layer res2a_branch2b/bn
I0703 01:28:04.825517 31050 net.cpp:98] Creating Layer res2a_branch2b/bn
I0703 01:28:04.825522 31050 net.cpp:439] res2a_branch2b/bn <- res2a_branch2b
I0703 01:28:04.825526 31050 net.cpp:413] res2a_branch2b/bn -> res2a_branch2b/bn
I0703 01:28:04.826239 31050 net.cpp:148] Setting up res2a_branch2b/bn
I0703 01:28:04.826246 31050 net.cpp:155] Top shape: 4 64 160 160 (6553600)
I0703 01:28:04.826249 31050 net.cpp:163] Memory required for data: 524288000
I0703 01:28:04.826256 31050 layer_factory.hpp:77] Creating layer res2a_branch2b/relu
I0703 01:28:04.826264 31050 net.cpp:98] Creating Layer res2a_branch2b/relu
I0703 01:28:04.826268 31050 net.cpp:439] res2a_branch2b/relu <- res2a_branch2b/bn
I0703 01:28:04.826274 31050 net.cpp:400] res2a_branch2b/relu -> res2a_branch2b/bn (in-place)
I0703 01:28:04.826280 31050 net.cpp:148] Setting up res2a_branch2b/relu
I0703 01:28:04.826285 31050 net.cpp:155] Top shape: 4 64 160 160 (6553600)
I0703 01:28:04.826289 31050 net.cpp:163] Memory required for data: 550502400
I0703 01:28:04.826293 31050 layer_factory.hpp:77] Creating layer pool2
I0703 01:28:04.826300 31050 net.cpp:98] Creating Layer pool2
I0703 01:28:04.826304 31050 net.cpp:439] pool2 <- res2a_branch2b/bn
I0703 01:28:04.826309 31050 net.cpp:413] pool2 -> pool2
I0703 01:28:04.826361 31050 net.cpp:148] Setting up pool2
I0703 01:28:04.826369 31050 net.cpp:155] Top shape: 4 64 80 80 (1638400)
I0703 01:28:04.826372 31050 net.cpp:163] Memory required for data: 557056000
I0703 01:28:04.826375 31050 layer_factory.hpp:77] Creating layer res3a_branch2a
I0703 01:28:04.826382 31050 net.cpp:98] Creating Layer res3a_branch2a
I0703 01:28:04.826390 31050 net.cpp:439] res3a_branch2a <- pool2
I0703 01:28:04.826396 31050 net.cpp:413] res3a_branch2a -> res3a_branch2a
I0703 01:28:04.829180 31050 net.cpp:148] Setting up res3a_branch2a
I0703 01:28:04.829195 31050 net.cpp:155] Top shape: 4 128 80 80 (3276800)
I0703 01:28:04.829197 31050 net.cpp:163] Memory required for data: 570163200
I0703 01:28:04.829205 31050 layer_factory.hpp:77] Creating layer res3a_branch2a/bn
I0703 01:28:04.829213 31050 net.cpp:98] Creating Layer res3a_branch2a/bn
I0703 01:28:04.829221 31050 net.cpp:439] res3a_branch2a/bn <- res3a_branch2a
I0703 01:28:04.829228 31050 net.cpp:413] res3a_branch2a/bn -> res3a_branch2a/bn
I0703 01:28:04.830379 31050 net.cpp:148] Setting up res3a_branch2a/bn
I0703 01:28:04.830410 31050 net.cpp:155] Top shape: 4 128 80 80 (3276800)
I0703 01:28:04.830416 31050 net.cpp:163] Memory required for data: 583270400
I0703 01:28:04.830430 31050 layer_factory.hpp:77] Creating layer res3a_branch2a/relu
I0703 01:28:04.830438 31050 net.cpp:98] Creating Layer res3a_branch2a/relu
I0703 01:28:04.830443 31050 net.cpp:439] res3a_branch2a/relu <- res3a_branch2a/bn
I0703 01:28:04.830449 31050 net.cpp:400] res3a_branch2a/relu -> res3a_branch2a/bn (in-place)
I0703 01:28:04.830456 31050 net.cpp:148] Setting up res3a_branch2a/relu
I0703 01:28:04.830461 31050 net.cpp:155] Top shape: 4 128 80 80 (3276800)
I0703 01:28:04.830463 31050 net.cpp:163] Memory required for data: 596377600
I0703 01:28:04.830467 31050 layer_factory.hpp:77] Creating layer res3a_branch2b
I0703 01:28:04.830476 31050 net.cpp:98] Creating Layer res3a_branch2b
I0703 01:28:04.830480 31050 net.cpp:439] res3a_branch2b <- res3a_branch2a/bn
I0703 01:28:04.830484 31050 net.cpp:413] res3a_branch2b -> res3a_branch2b
I0703 01:28:04.831899 31050 net.cpp:148] Setting up res3a_branch2b
I0703 01:28:04.831910 31050 net.cpp:155] Top shape: 4 128 80 80 (3276800)
I0703 01:28:04.831913 31050 net.cpp:163] Memory required for data: 609484800
I0703 01:28:04.831919 31050 layer_factory.hpp:77] Creating layer res3a_branch2b/bn
I0703 01:28:04.831925 31050 net.cpp:98] Creating Layer res3a_branch2b/bn
I0703 01:28:04.831928 31050 net.cpp:439] res3a_branch2b/bn <- res3a_branch2b
I0703 01:28:04.831933 31050 net.cpp:413] res3a_branch2b/bn -> res3a_branch2b/bn
I0703 01:28:04.832545 31050 net.cpp:148] Setting up res3a_branch2b/bn
I0703 01:28:04.832551 31050 net.cpp:155] Top shape: 4 128 80 80 (3276800)
I0703 01:28:04.832553 31050 net.cpp:163] Memory required for data: 622592000
I0703 01:28:04.832558 31050 layer_factory.hpp:77] Creating layer res3a_branch2b/relu
I0703 01:28:04.832561 31050 net.cpp:98] Creating Layer res3a_branch2b/relu
I0703 01:28:04.832563 31050 net.cpp:439] res3a_branch2b/relu <- res3a_branch2b/bn
I0703 01:28:04.832566 31050 net.cpp:400] res3a_branch2b/relu -> res3a_branch2b/bn (in-place)
I0703 01:28:04.832569 31050 net.cpp:148] Setting up res3a_branch2b/relu
I0703 01:28:04.832571 31050 net.cpp:155] Top shape: 4 128 80 80 (3276800)
I0703 01:28:04.832573 31050 net.cpp:163] Memory required for data: 635699200
I0703 01:28:04.832576 31050 layer_factory.hpp:77] Creating layer res3a_branch2b/bn_res3a_branch2b/relu_0_split
I0703 01:28:04.832579 31050 net.cpp:98] Creating Layer res3a_branch2b/bn_res3a_branch2b/relu_0_split
I0703 01:28:04.832581 31050 net.cpp:439] res3a_branch2b/bn_res3a_branch2b/relu_0_split <- res3a_branch2b/bn
I0703 01:28:04.832583 31050 net.cpp:413] res3a_branch2b/bn_res3a_branch2b/relu_0_split -> res3a_branch2b/bn_res3a_branch2b/relu_0_split_0
I0703 01:28:04.832587 31050 net.cpp:413] res3a_branch2b/bn_res3a_branch2b/relu_0_split -> res3a_branch2b/bn_res3a_branch2b/relu_0_split_1
I0703 01:28:04.832624 31050 net.cpp:148] Setting up res3a_branch2b/bn_res3a_branch2b/relu_0_split
I0703 01:28:04.832644 31050 net.cpp:155] Top shape: 4 128 80 80 (3276800)
I0703 01:28:04.832648 31050 net.cpp:155] Top shape: 4 128 80 80 (3276800)
I0703 01:28:04.832648 31050 net.cpp:163] Memory required for data: 661913600
I0703 01:28:04.832650 31050 layer_factory.hpp:77] Creating layer pool3
I0703 01:28:04.832656 31050 net.cpp:98] Creating Layer pool3
I0703 01:28:04.832659 31050 net.cpp:439] pool3 <- res3a_branch2b/bn_res3a_branch2b/relu_0_split_0
I0703 01:28:04.832664 31050 net.cpp:413] pool3 -> pool3
I0703 01:28:04.832698 31050 net.cpp:148] Setting up pool3
I0703 01:28:04.832717 31050 net.cpp:155] Top shape: 4 128 40 40 (819200)
I0703 01:28:04.832722 31050 net.cpp:163] Memory required for data: 665190400
I0703 01:28:04.832726 31050 layer_factory.hpp:77] Creating layer res4a_branch2a
I0703 01:28:04.832736 31050 net.cpp:98] Creating Layer res4a_branch2a
I0703 01:28:04.832741 31050 net.cpp:439] res4a_branch2a <- pool3
I0703 01:28:04.832746 31050 net.cpp:413] res4a_branch2a -> res4a_branch2a
I0703 01:28:04.841529 31050 net.cpp:148] Setting up res4a_branch2a
I0703 01:28:04.841632 31050 net.cpp:155] Top shape: 4 256 40 40 (1638400)
I0703 01:28:04.841646 31050 net.cpp:163] Memory required for data: 671744000
I0703 01:28:04.841665 31050 layer_factory.hpp:77] Creating layer res4a_branch2a/bn
I0703 01:28:04.841686 31050 net.cpp:98] Creating Layer res4a_branch2a/bn
I0703 01:28:04.841696 31050 net.cpp:439] res4a_branch2a/bn <- res4a_branch2a
I0703 01:28:04.841709 31050 net.cpp:413] res4a_branch2a/bn -> res4a_branch2a/bn
I0703 01:28:04.842458 31050 net.cpp:148] Setting up res4a_branch2a/bn
I0703 01:28:04.842479 31050 net.cpp:155] Top shape: 4 256 40 40 (1638400)
I0703 01:28:04.842488 31050 net.cpp:163] Memory required for data: 678297600
I0703 01:28:04.842499 31050 layer_factory.hpp:77] Creating layer res4a_branch2a/relu
I0703 01:28:04.842509 31050 net.cpp:98] Creating Layer res4a_branch2a/relu
I0703 01:28:04.842516 31050 net.cpp:439] res4a_branch2a/relu <- res4a_branch2a/bn
I0703 01:28:04.842525 31050 net.cpp:400] res4a_branch2a/relu -> res4a_branch2a/bn (in-place)
I0703 01:28:04.842536 31050 net.cpp:148] Setting up res4a_branch2a/relu
I0703 01:28:04.842545 31050 net.cpp:155] Top shape: 4 256 40 40 (1638400)
I0703 01:28:04.842551 31050 net.cpp:163] Memory required for data: 684851200
I0703 01:28:04.842558 31050 layer_factory.hpp:77] Creating layer res4a_branch2b
I0703 01:28:04.842571 31050 net.cpp:98] Creating Layer res4a_branch2b
I0703 01:28:04.842577 31050 net.cpp:439] res4a_branch2b <- res4a_branch2a/bn
I0703 01:28:04.842586 31050 net.cpp:413] res4a_branch2b -> res4a_branch2b
I0703 01:28:04.846402 31050 net.cpp:148] Setting up res4a_branch2b
I0703 01:28:04.846436 31050 net.cpp:155] Top shape: 4 256 40 40 (1638400)
I0703 01:28:04.846439 31050 net.cpp:163] Memory required for data: 691404800
I0703 01:28:04.846448 31050 layer_factory.hpp:77] Creating layer res4a_branch2b/bn
I0703 01:28:04.846463 31050 net.cpp:98] Creating Layer res4a_branch2b/bn
I0703 01:28:04.846468 31050 net.cpp:439] res4a_branch2b/bn <- res4a_branch2b
I0703 01:28:04.846478 31050 net.cpp:413] res4a_branch2b/bn -> res4a_branch2b/bn
I0703 01:28:04.847033 31050 net.cpp:148] Setting up res4a_branch2b/bn
I0703 01:28:04.847040 31050 net.cpp:155] Top shape: 4 256 40 40 (1638400)
I0703 01:28:04.847043 31050 net.cpp:163] Memory required for data: 697958400
I0703 01:28:04.847051 31050 layer_factory.hpp:77] Creating layer res4a_branch2b/relu
I0703 01:28:04.847056 31050 net.cpp:98] Creating Layer res4a_branch2b/relu
I0703 01:28:04.847060 31050 net.cpp:439] res4a_branch2b/relu <- res4a_branch2b/bn
I0703 01:28:04.847065 31050 net.cpp:400] res4a_branch2b/relu -> res4a_branch2b/bn (in-place)
I0703 01:28:04.847071 31050 net.cpp:148] Setting up res4a_branch2b/relu
I0703 01:28:04.847076 31050 net.cpp:155] Top shape: 4 256 40 40 (1638400)
I0703 01:28:04.847079 31050 net.cpp:163] Memory required for data: 704512000
I0703 01:28:04.847084 31050 layer_factory.hpp:77] Creating layer pool4
I0703 01:28:04.847091 31050 net.cpp:98] Creating Layer pool4
I0703 01:28:04.847095 31050 net.cpp:439] pool4 <- res4a_branch2b/bn
I0703 01:28:04.847112 31050 net.cpp:413] pool4 -> pool4
I0703 01:28:04.847151 31050 net.cpp:148] Setting up pool4
I0703 01:28:04.847157 31050 net.cpp:155] Top shape: 4 256 40 40 (1638400)
I0703 01:28:04.847160 31050 net.cpp:163] Memory required for data: 711065600
I0703 01:28:04.847164 31050 layer_factory.hpp:77] Creating layer res5a_branch2a
I0703 01:28:04.847174 31050 net.cpp:98] Creating Layer res5a_branch2a
I0703 01:28:04.847185 31050 net.cpp:439] res5a_branch2a <- pool4
I0703 01:28:04.847192 31050 net.cpp:413] res5a_branch2a -> res5a_branch2a
I0703 01:28:04.874207 31050 net.cpp:148] Setting up res5a_branch2a
I0703 01:28:04.874224 31050 net.cpp:155] Top shape: 4 512 40 40 (3276800)
I0703 01:28:04.874228 31050 net.cpp:163] Memory required for data: 724172800
I0703 01:28:04.874234 31050 layer_factory.hpp:77] Creating layer res5a_branch2a/bn
I0703 01:28:04.874244 31050 net.cpp:98] Creating Layer res5a_branch2a/bn
I0703 01:28:04.874248 31050 net.cpp:439] res5a_branch2a/bn <- res5a_branch2a
I0703 01:28:04.874254 31050 net.cpp:413] res5a_branch2a/bn -> res5a_branch2a/bn
I0703 01:28:04.874765 31050 net.cpp:148] Setting up res5a_branch2a/bn
I0703 01:28:04.874773 31050 net.cpp:155] Top shape: 4 512 40 40 (3276800)
I0703 01:28:04.874776 31050 net.cpp:163] Memory required for data: 737280000
I0703 01:28:04.874784 31050 layer_factory.hpp:77] Creating layer res5a_branch2a/relu
I0703 01:28:04.874789 31050 net.cpp:98] Creating Layer res5a_branch2a/relu
I0703 01:28:04.874794 31050 net.cpp:439] res5a_branch2a/relu <- res5a_branch2a/bn
I0703 01:28:04.874799 31050 net.cpp:400] res5a_branch2a/relu -> res5a_branch2a/bn (in-place)
I0703 01:28:04.874805 31050 net.cpp:148] Setting up res5a_branch2a/relu
I0703 01:28:04.874811 31050 net.cpp:155] Top shape: 4 512 40 40 (3276800)
I0703 01:28:04.874814 31050 net.cpp:163] Memory required for data: 750387200
I0703 01:28:04.874816 31050 layer_factory.hpp:77] Creating layer res5a_branch2b
I0703 01:28:04.874821 31050 net.cpp:98] Creating Layer res5a_branch2b
I0703 01:28:04.874824 31050 net.cpp:439] res5a_branch2b <- res5a_branch2a/bn
I0703 01:28:04.874830 31050 net.cpp:413] res5a_branch2b -> res5a_branch2b
I0703 01:28:04.887445 31050 net.cpp:148] Setting up res5a_branch2b
I0703 01:28:04.887456 31050 net.cpp:155] Top shape: 4 512 40 40 (3276800)
I0703 01:28:04.887459 31050 net.cpp:163] Memory required for data: 763494400
I0703 01:28:04.887465 31050 layer_factory.hpp:77] Creating layer res5a_branch2b/bn
I0703 01:28:04.887470 31050 net.cpp:98] Creating Layer res5a_branch2b/bn
I0703 01:28:04.887473 31050 net.cpp:439] res5a_branch2b/bn <- res5a_branch2b
I0703 01:28:04.887476 31050 net.cpp:413] res5a_branch2b/bn -> res5a_branch2b/bn
I0703 01:28:04.887969 31050 net.cpp:148] Setting up res5a_branch2b/bn
I0703 01:28:04.887974 31050 net.cpp:155] Top shape: 4 512 40 40 (3276800)
I0703 01:28:04.887975 31050 net.cpp:163] Memory required for data: 776601600
I0703 01:28:04.887980 31050 layer_factory.hpp:77] Creating layer res5a_branch2b/relu
I0703 01:28:04.887984 31050 net.cpp:98] Creating Layer res5a_branch2b/relu
I0703 01:28:04.887986 31050 net.cpp:439] res5a_branch2b/relu <- res5a_branch2b/bn
I0703 01:28:04.887989 31050 net.cpp:400] res5a_branch2b/relu -> res5a_branch2b/bn (in-place)
I0703 01:28:04.887992 31050 net.cpp:148] Setting up res5a_branch2b/relu
I0703 01:28:04.887995 31050 net.cpp:155] Top shape: 4 512 40 40 (3276800)
I0703 01:28:04.887996 31050 net.cpp:163] Memory required for data: 789708800
I0703 01:28:04.887998 31050 layer_factory.hpp:77] Creating layer out5a
I0703 01:28:04.888002 31050 net.cpp:98] Creating Layer out5a
I0703 01:28:04.888005 31050 net.cpp:439] out5a <- res5a_branch2b/bn
I0703 01:28:04.888007 31050 net.cpp:413] out5a -> out5a
I0703 01:28:04.891876 31050 net.cpp:148] Setting up out5a
I0703 01:28:04.891885 31050 net.cpp:155] Top shape: 4 64 40 40 (409600)
I0703 01:28:04.891887 31050 net.cpp:163] Memory required for data: 791347200
I0703 01:28:04.891891 31050 layer_factory.hpp:77] Creating layer out5a/bn
I0703 01:28:04.891896 31050 net.cpp:98] Creating Layer out5a/bn
I0703 01:28:04.891907 31050 net.cpp:439] out5a/bn <- out5a
I0703 01:28:04.891911 31050 net.cpp:413] out5a/bn -> out5a/bn
I0703 01:28:04.892448 31050 net.cpp:148] Setting up out5a/bn
I0703 01:28:04.892453 31050 net.cpp:155] Top shape: 4 64 40 40 (409600)
I0703 01:28:04.892457 31050 net.cpp:163] Memory required for data: 792985600
I0703 01:28:04.892463 31050 layer_factory.hpp:77] Creating layer out5a/relu
I0703 01:28:04.892467 31050 net.cpp:98] Creating Layer out5a/relu
I0703 01:28:04.892468 31050 net.cpp:439] out5a/relu <- out5a/bn
I0703 01:28:04.892472 31050 net.cpp:400] out5a/relu -> out5a/bn (in-place)
I0703 01:28:04.892474 31050 net.cpp:148] Setting up out5a/relu
I0703 01:28:04.892477 31050 net.cpp:155] Top shape: 4 64 40 40 (409600)
I0703 01:28:04.892478 31050 net.cpp:163] Memory required for data: 794624000
I0703 01:28:04.892480 31050 layer_factory.hpp:77] Creating layer out5a_up2
I0703 01:28:04.892484 31050 net.cpp:98] Creating Layer out5a_up2
I0703 01:28:04.892487 31050 net.cpp:439] out5a_up2 <- out5a/bn
I0703 01:28:04.892488 31050 net.cpp:413] out5a_up2 -> out5a_up2
I0703 01:28:04.892678 31050 net.cpp:148] Setting up out5a_up2
I0703 01:28:04.892681 31050 net.cpp:155] Top shape: 4 64 80 80 (1638400)
I0703 01:28:04.892684 31050 net.cpp:163] Memory required for data: 801177600
I0703 01:28:04.892688 31050 layer_factory.hpp:77] Creating layer out3a
I0703 01:28:04.892691 31050 net.cpp:98] Creating Layer out3a
I0703 01:28:04.892693 31050 net.cpp:439] out3a <- res3a_branch2b/bn_res3a_branch2b/relu_0_split_1
I0703 01:28:04.892699 31050 net.cpp:413] out3a -> out3a
I0703 01:28:04.894356 31050 net.cpp:148] Setting up out3a
I0703 01:28:04.894364 31050 net.cpp:155] Top shape: 4 64 80 80 (1638400)
I0703 01:28:04.894366 31050 net.cpp:163] Memory required for data: 807731200
I0703 01:28:04.894371 31050 layer_factory.hpp:77] Creating layer out3a/bn
I0703 01:28:04.894374 31050 net.cpp:98] Creating Layer out3a/bn
I0703 01:28:04.894377 31050 net.cpp:439] out3a/bn <- out3a
I0703 01:28:04.894381 31050 net.cpp:413] out3a/bn -> out3a/bn
I0703 01:28:04.894922 31050 net.cpp:148] Setting up out3a/bn
I0703 01:28:04.894927 31050 net.cpp:155] Top shape: 4 64 80 80 (1638400)
I0703 01:28:04.894929 31050 net.cpp:163] Memory required for data: 814284800
I0703 01:28:04.894934 31050 layer_factory.hpp:77] Creating layer out3a/relu
I0703 01:28:04.894937 31050 net.cpp:98] Creating Layer out3a/relu
I0703 01:28:04.894938 31050 net.cpp:439] out3a/relu <- out3a/bn
I0703 01:28:04.894942 31050 net.cpp:400] out3a/relu -> out3a/bn (in-place)
I0703 01:28:04.894944 31050 net.cpp:148] Setting up out3a/relu
I0703 01:28:04.894946 31050 net.cpp:155] Top shape: 4 64 80 80 (1638400)
I0703 01:28:04.894948 31050 net.cpp:163] Memory required for data: 820838400
I0703 01:28:04.894950 31050 layer_factory.hpp:77] Creating layer out3_out5_combined
I0703 01:28:04.894953 31050 net.cpp:98] Creating Layer out3_out5_combined
I0703 01:28:04.894955 31050 net.cpp:439] out3_out5_combined <- out5a_up2
I0703 01:28:04.894958 31050 net.cpp:439] out3_out5_combined <- out3a/bn
I0703 01:28:04.894959 31050 net.cpp:413] out3_out5_combined -> out3_out5_combined
I0703 01:28:04.894979 31050 net.cpp:148] Setting up out3_out5_combined
I0703 01:28:04.894984 31050 net.cpp:155] Top shape: 4 64 80 80 (1638400)
I0703 01:28:04.894985 31050 net.cpp:163] Memory required for data: 827392000
I0703 01:28:04.894987 31050 layer_factory.hpp:77] Creating layer ctx_conv1
I0703 01:28:04.894990 31050 net.cpp:98] Creating Layer ctx_conv1
I0703 01:28:04.894992 31050 net.cpp:439] ctx_conv1 <- out3_out5_combined
I0703 01:28:04.894995 31050 net.cpp:413] ctx_conv1 -> ctx_conv1
I0703 01:28:04.895939 31050 net.cpp:148] Setting up ctx_conv1
I0703 01:28:04.895944 31050 net.cpp:155] Top shape: 4 64 80 80 (1638400)
I0703 01:28:04.895946 31050 net.cpp:163] Memory required for data: 833945600
I0703 01:28:04.895949 31050 layer_factory.hpp:77] Creating layer ctx_conv1/bn
I0703 01:28:04.895953 31050 net.cpp:98] Creating Layer ctx_conv1/bn
I0703 01:28:04.895956 31050 net.cpp:439] ctx_conv1/bn <- ctx_conv1
I0703 01:28:04.895964 31050 net.cpp:413] ctx_conv1/bn -> ctx_conv1/bn
I0703 01:28:04.896492 31050 net.cpp:148] Setting up ctx_conv1/bn
I0703 01:28:04.896498 31050 net.cpp:155] Top shape: 4 64 80 80 (1638400)
I0703 01:28:04.896500 31050 net.cpp:163] Memory required for data: 840499200
I0703 01:28:04.896504 31050 layer_factory.hpp:77] Creating layer ctx_conv1/relu
I0703 01:28:04.896507 31050 net.cpp:98] Creating Layer ctx_conv1/relu
I0703 01:28:04.896509 31050 net.cpp:439] ctx_conv1/relu <- ctx_conv1/bn
I0703 01:28:04.896512 31050 net.cpp:400] ctx_conv1/relu -> ctx_conv1/bn (in-place)
I0703 01:28:04.896515 31050 net.cpp:148] Setting up ctx_conv1/relu
I0703 01:28:04.896517 31050 net.cpp:155] Top shape: 4 64 80 80 (1638400)
I0703 01:28:04.896519 31050 net.cpp:163] Memory required for data: 847052800
I0703 01:28:04.896522 31050 layer_factory.hpp:77] Creating layer ctx_conv2
I0703 01:28:04.896524 31050 net.cpp:98] Creating Layer ctx_conv2
I0703 01:28:04.896526 31050 net.cpp:439] ctx_conv2 <- ctx_conv1/bn
I0703 01:28:04.896529 31050 net.cpp:413] ctx_conv2 -> ctx_conv2
I0703 01:28:04.897475 31050 net.cpp:148] Setting up ctx_conv2
I0703 01:28:04.897480 31050 net.cpp:155] Top shape: 4 64 80 80 (1638400)
I0703 01:28:04.897481 31050 net.cpp:163] Memory required for data: 853606400
I0703 01:28:04.897485 31050 layer_factory.hpp:77] Creating layer ctx_conv2/bn
I0703 01:28:04.897488 31050 net.cpp:98] Creating Layer ctx_conv2/bn
I0703 01:28:04.897490 31050 net.cpp:439] ctx_conv2/bn <- ctx_conv2
I0703 01:28:04.897493 31050 net.cpp:413] ctx_conv2/bn -> ctx_conv2/bn
I0703 01:28:04.898030 31050 net.cpp:148] Setting up ctx_conv2/bn
I0703 01:28:04.898035 31050 net.cpp:155] Top shape: 4 64 80 80 (1638400)
I0703 01:28:04.898036 31050 net.cpp:163] Memory required for data: 860160000
I0703 01:28:04.898041 31050 layer_factory.hpp:77] Creating layer ctx_conv2/relu
I0703 01:28:04.898046 31050 net.cpp:98] Creating Layer ctx_conv2/relu
I0703 01:28:04.898047 31050 net.cpp:439] ctx_conv2/relu <- ctx_conv2/bn
I0703 01:28:04.898049 31050 net.cpp:400] ctx_conv2/relu -> ctx_conv2/bn (in-place)
I0703 01:28:04.898053 31050 net.cpp:148] Setting up ctx_conv2/relu
I0703 01:28:04.898056 31050 net.cpp:155] Top shape: 4 64 80 80 (1638400)
I0703 01:28:04.898056 31050 net.cpp:163] Memory required for data: 866713600
I0703 01:28:04.898058 31050 layer_factory.hpp:77] Creating layer ctx_conv3
I0703 01:28:04.898062 31050 net.cpp:98] Creating Layer ctx_conv3
I0703 01:28:04.898064 31050 net.cpp:439] ctx_conv3 <- ctx_conv2/bn
I0703 01:28:04.898067 31050 net.cpp:413] ctx_conv3 -> ctx_conv3
I0703 01:28:04.899019 31050 net.cpp:148] Setting up ctx_conv3
I0703 01:28:04.899024 31050 net.cpp:155] Top shape: 4 64 80 80 (1638400)
I0703 01:28:04.899026 31050 net.cpp:163] Memory required for data: 873267200
I0703 01:28:04.899029 31050 layer_factory.hpp:77] Creating layer ctx_conv3/bn
I0703 01:28:04.899034 31050 net.cpp:98] Creating Layer ctx_conv3/bn
I0703 01:28:04.899035 31050 net.cpp:439] ctx_conv3/bn <- ctx_conv3
I0703 01:28:04.899039 31050 net.cpp:413] ctx_conv3/bn -> ctx_conv3/bn
I0703 01:28:04.899581 31050 net.cpp:148] Setting up ctx_conv3/bn
I0703 01:28:04.899586 31050 net.cpp:155] Top shape: 4 64 80 80 (1638400)
I0703 01:28:04.899588 31050 net.cpp:163] Memory required for data: 879820800
I0703 01:28:04.899593 31050 layer_factory.hpp:77] Creating layer ctx_conv3/relu
I0703 01:28:04.899596 31050 net.cpp:98] Creating Layer ctx_conv3/relu
I0703 01:28:04.899598 31050 net.cpp:439] ctx_conv3/relu <- ctx_conv3/bn
I0703 01:28:04.899603 31050 net.cpp:400] ctx_conv3/relu -> ctx_conv3/bn (in-place)
I0703 01:28:04.899607 31050 net.cpp:148] Setting up ctx_conv3/relu
I0703 01:28:04.899610 31050 net.cpp:155] Top shape: 4 64 80 80 (1638400)
I0703 01:28:04.899611 31050 net.cpp:163] Memory required for data: 886374400
I0703 01:28:04.899613 31050 layer_factory.hpp:77] Creating layer ctx_conv4
I0703 01:28:04.899616 31050 net.cpp:98] Creating Layer ctx_conv4
I0703 01:28:04.899619 31050 net.cpp:439] ctx_conv4 <- ctx_conv3/bn
I0703 01:28:04.899622 31050 net.cpp:413] ctx_conv4 -> ctx_conv4
I0703 01:28:04.900574 31050 net.cpp:148] Setting up ctx_conv4
I0703 01:28:04.900585 31050 net.cpp:155] Top shape: 4 64 80 80 (1638400)
I0703 01:28:04.900588 31050 net.cpp:163] Memory required for data: 892928000
I0703 01:28:04.900591 31050 layer_factory.hpp:77] Creating layer ctx_conv4/bn
I0703 01:28:04.900595 31050 net.cpp:98] Creating Layer ctx_conv4/bn
I0703 01:28:04.900598 31050 net.cpp:439] ctx_conv4/bn <- ctx_conv4
I0703 01:28:04.900600 31050 net.cpp:413] ctx_conv4/bn -> ctx_conv4/bn
I0703 01:28:04.901127 31050 net.cpp:148] Setting up ctx_conv4/bn
I0703 01:28:04.901132 31050 net.cpp:155] Top shape: 4 64 80 80 (1638400)
I0703 01:28:04.901134 31050 net.cpp:163] Memory required for data: 899481600
I0703 01:28:04.901139 31050 layer_factory.hpp:77] Creating layer ctx_conv4/relu
I0703 01:28:04.901142 31050 net.cpp:98] Creating Layer ctx_conv4/relu
I0703 01:28:04.901144 31050 net.cpp:439] ctx_conv4/relu <- ctx_conv4/bn
I0703 01:28:04.901146 31050 net.cpp:400] ctx_conv4/relu -> ctx_conv4/bn (in-place)
I0703 01:28:04.901149 31050 net.cpp:148] Setting up ctx_conv4/relu
I0703 01:28:04.901152 31050 net.cpp:155] Top shape: 4 64 80 80 (1638400)
I0703 01:28:04.901154 31050 net.cpp:163] Memory required for data: 906035200
I0703 01:28:04.901155 31050 layer_factory.hpp:77] Creating layer ctx_final
I0703 01:28:04.901160 31050 net.cpp:98] Creating Layer ctx_final
I0703 01:28:04.901161 31050 net.cpp:439] ctx_final <- ctx_conv4/bn
I0703 01:28:04.901163 31050 net.cpp:413] ctx_final -> ctx_final
I0703 01:28:04.901484 31050 net.cpp:148] Setting up ctx_final
I0703 01:28:04.901489 31050 net.cpp:155] Top shape: 4 8 80 80 (204800)
I0703 01:28:04.901491 31050 net.cpp:163] Memory required for data: 906854400
I0703 01:28:04.901495 31050 layer_factory.hpp:77] Creating layer ctx_final/relu
I0703 01:28:04.901497 31050 net.cpp:98] Creating Layer ctx_final/relu
I0703 01:28:04.901499 31050 net.cpp:439] ctx_final/relu <- ctx_final
I0703 01:28:04.901502 31050 net.cpp:400] ctx_final/relu -> ctx_final (in-place)
I0703 01:28:04.901504 31050 net.cpp:148] Setting up ctx_final/relu
I0703 01:28:04.901507 31050 net.cpp:155] Top shape: 4 8 80 80 (204800)
I0703 01:28:04.901509 31050 net.cpp:163] Memory required for data: 907673600
I0703 01:28:04.901510 31050 layer_factory.hpp:77] Creating layer out_deconv_final_up2
I0703 01:28:04.901515 31050 net.cpp:98] Creating Layer out_deconv_final_up2
I0703 01:28:04.901515 31050 net.cpp:439] out_deconv_final_up2 <- ctx_final
I0703 01:28:04.901518 31050 net.cpp:413] out_deconv_final_up2 -> out_deconv_final_up2
I0703 01:28:04.901687 31050 net.cpp:148] Setting up out_deconv_final_up2
I0703 01:28:04.901692 31050 net.cpp:155] Top shape: 4 8 160 160 (819200)
I0703 01:28:04.901693 31050 net.cpp:163] Memory required for data: 910950400
I0703 01:28:04.901696 31050 layer_factory.hpp:77] Creating layer out_deconv_final_up4
I0703 01:28:04.901700 31050 net.cpp:98] Creating Layer out_deconv_final_up4
I0703 01:28:04.901701 31050 net.cpp:439] out_deconv_final_up4 <- out_deconv_final_up2
I0703 01:28:04.901705 31050 net.cpp:413] out_deconv_final_up4 -> out_deconv_final_up4
I0703 01:28:04.901871 31050 net.cpp:148] Setting up out_deconv_final_up4
I0703 01:28:04.901875 31050 net.cpp:155] Top shape: 4 8 320 320 (3276800)
I0703 01:28:04.901877 31050 net.cpp:163] Memory required for data: 924057600
I0703 01:28:04.901880 31050 layer_factory.hpp:77] Creating layer out_deconv_final_up8
I0703 01:28:04.901882 31050 net.cpp:98] Creating Layer out_deconv_final_up8
I0703 01:28:04.901885 31050 net.cpp:439] out_deconv_final_up8 <- out_deconv_final_up4
I0703 01:28:04.901887 31050 net.cpp:413] out_deconv_final_up8 -> out_deconv_final_up8
I0703 01:28:04.902055 31050 net.cpp:148] Setting up out_deconv_final_up8
I0703 01:28:04.902058 31050 net.cpp:155] Top shape: 4 8 640 640 (13107200)
I0703 01:28:04.902060 31050 net.cpp:163] Memory required for data: 976486400
I0703 01:28:04.902063 31050 layer_factory.hpp:77] Creating layer out_deconv_final_up8_out_deconv_final_up8_0_split
I0703 01:28:04.902066 31050 net.cpp:98] Creating Layer out_deconv_final_up8_out_deconv_final_up8_0_split
I0703 01:28:04.902073 31050 net.cpp:439] out_deconv_final_up8_out_deconv_final_up8_0_split <- out_deconv_final_up8
I0703 01:28:04.902076 31050 net.cpp:413] out_deconv_final_up8_out_deconv_final_up8_0_split -> out_deconv_final_up8_out_deconv_final_up8_0_split_0
I0703 01:28:04.902079 31050 net.cpp:413] out_deconv_final_up8_out_deconv_final_up8_0_split -> out_deconv_final_up8_out_deconv_final_up8_0_split_1
I0703 01:28:04.902082 31050 net.cpp:413] out_deconv_final_up8_out_deconv_final_up8_0_split -> out_deconv_final_up8_out_deconv_final_up8_0_split_2
I0703 01:28:04.902122 31050 net.cpp:148] Setting up out_deconv_final_up8_out_deconv_final_up8_0_split
I0703 01:28:04.902127 31050 net.cpp:155] Top shape: 4 8 640 640 (13107200)
I0703 01:28:04.902128 31050 net.cpp:155] Top shape: 4 8 640 640 (13107200)
I0703 01:28:04.902130 31050 net.cpp:155] Top shape: 4 8 640 640 (13107200)
I0703 01:28:04.902132 31050 net.cpp:163] Memory required for data: 1133772800
I0703 01:28:04.902134 31050 layer_factory.hpp:77] Creating layer loss
I0703 01:28:04.902138 31050 net.cpp:98] Creating Layer loss
I0703 01:28:04.902140 31050 net.cpp:439] loss <- out_deconv_final_up8_out_deconv_final_up8_0_split_0
I0703 01:28:04.902143 31050 net.cpp:439] loss <- label_data_1_split_0
…
