…
I0701 15:16:01.331786  4775 net.cpp:327] The NetState phase (0) differed from the phase (1) specified by a rule in layer accuracy/top5
I0701 15:16:01.331943  4775 net.cpp:56] Initializing net from parameters: 
name: "jacintonet11v2_train"
state {
  phase: TRAIN
}
layer {
  name: "data"
  type: "Data"
  top: "data"
  top: "label"
  transform_param {
    mirror: true
    crop_size: 224
    mean_value: 0
    mean_value: 0
    mean_value: 0
  }
  data_param {
    source: "./data/ilsvrc12_train_lmdb"
    batch_size: 42
    backend: LMDB
    threads: 1
  }
}
layer {
  name: "data/bias"
  type: "Bias"
  bottom: "data"
  top: "data/bias"
  param {
    lr_mult: 0
    decay_mult: 0
  }
  bias_param {
    filler {
      type: "constant"
      value: -128
    }
  }
}
layer {
  name: "conv1a"
  type: "Convolution"
  bottom: "data/bias"
  top: "conv1a"
  param {
    lr_mult: 1
    decay_mult: 1
  }
  param {
    lr_mult: 2
    decay_mult: 0
  }
  convolution_param {
    num_output: 32
    bias_term: true
    pad: 2
    kernel_size: 5
    group: 1
    stride: 2
    weight_filler {
      type: "msra"
    }
    bias_filler {
      type: "constant"
      value: 0
    }
    dilation: 1
  }
}
layer {
  name: "conv1a/bn"
  type: "BatchNorm"
  bottom: "conv1a"
  top: "conv1a/bn"
  param {
    lr_mult: 1
    decay_mult: 1
  }
  param {
    lr_mult: 1
    decay_mult: 1
  }
  param {
    lr_mult: 0
    decay_mult: 0
  }
  param {
    lr_mult: 0
    decay_mult: 0
  }
  batch_norm_param {
    moving_average_fraction: 0.99
    eps: 0.0001
    scale_filler {
      type: "constant"
      value: 1
    }
    bias_filler {
      type: "constant"
      value: 0
    }
  }
}
layer {
  name: "conv1a/relu"
  type: "ReLU"
  bottom: "conv1a/bn"
  top: "conv1a/bn"
}
layer {
  name: "conv1b"
  type: "Convolution"
  bottom: "conv1a/bn"
  top: "conv1b"
  param {
    lr_mult: 1
    decay_mult: 1
  }
  param {
    lr_mult: 2
    decay_mult: 0
  }
  convolution_param {
    num_output: 32
    bias_term: true
    pad: 1
    kernel_size: 3
    group: 4
    stride: 1
    weight_filler {
      type: "msra"
    }
    bias_filler {
      type: "constant"
      value: 0
    }
    dilation: 1
  }
}
layer {
  name: "conv1b/bn"
  type: "BatchNorm"
  bottom: "conv1b"
  top: "conv1b/bn"
  param {
    lr_mult: 1
    decay_mult: 1
  }
  param {
    lr_mult: 1
    decay_mult: 1
  }
  param {
    lr_mult: 0
    decay_mult: 0
  }
  param {
    lr_mult: 0
    decay_mult: 0
  }
  batch_norm_param {
    moving_average_fraction: 0.99
    eps: 0.0001
    scale_filler {
      type: "constant"
      value: 1
    }
    bias_filler {
      type: "constant"
      value: 0
    }
  }
}
layer {
  name: "conv1b/relu"
  type: "ReLU"
  bottom: "conv1b/bn"
  top: "conv1b/bn"
}
layer {
  name: "pool1"
  type: "Pooling"
  bottom: "conv1b/bn"
  top: "pool1"
  pooling_param {
    pool: MAX
    kernel_size: 2
    stride: 2
  }
}
layer {
  name: "res2a_branch2a"
  type: "Convolution"
  bottom: "pool1"
  top: "res2a_branch2a"
  param {
    lr_mult: 1
    decay_mult: 1
  }
  param {
    lr_mult: 2
    decay_mult: 0
  }
  convolution_param {
    num_output: 64
    bias_term: true
    pad: 1
    kernel_size: 3
    group: 1
    stride: 1
    weight_filler {
      type: "msra"
    }
    bias_filler {
      type: "constant"
      value: 0
    }
    dilation: 1
  }
}
layer {
  name: "res2a_branch2a/bn"
  type: "BatchNorm"
  bottom: "res2a_branch2a"
  top: "res2a_branch2a/bn"
  param {
    lr_mult: 1
    decay_mult: 1
  }
  param {
    lr_mult: 1
    decay_mult: 1
  }
  param {
    lr_mult: 0
    decay_mult: 0
  }
  param {
    lr_mult: 0
    decay_mult: 0
  }
  batch_norm_param {
    moving_average_fraction: 0.99
    eps: 0.0001
    scale_filler {
      type: "constant"
      value: 1
    }
    bias_filler {
      type: "constant"
      value: 0
    }
  }
}
layer {
  name: "res2a_branch2a/relu"
  type: "ReLU"
  bottom: "res2a_branch2a/bn"
  top: "res2a_branch2a/bn"
}
layer {
  name: "res2a_branch2b"
  type: "Convolution"
  bottom: "res2a_branch2a/bn"
  top: "res2a_branch2b"
  param {
    lr_mult: 1
    decay_mult: 1
  }
  param {
    lr_mult: 2
    decay_mult: 0
  }
  convolution_param {
    num_output: 64
    bias_term: true
    pad: 1
    kernel_size: 3
    group: 4
    stride: 1
    weight_filler {
      type: "msra"
    }
    bias_filler {
      type: "constant"
      value: 0
    }
    dilation: 1
  }
}
layer {
  name: "res2a_branch2b/bn"
  type: "BatchNorm"
  bottom: "res2a_branch2b"
  top: "res2a_branch2b/bn"
  param {
    lr_mult: 1
    decay_mult: 1
  }
  param {
    lr_mult: 1
    decay_mult: 1
  }
  param {
    lr_mult: 0
    decay_mult: 0
  }
  param {
    lr_mult: 0
    decay_mult: 0
  }
  batch_norm_param {
    moving_average_fraction: 0.99
    eps: 0.0001
    scale_filler {
      type: "constant"
      value: 1
    }
    bias_filler {
      type: "constant"
      value: 0
    }
  }
}
layer {
  name: "res2a_branch2b/relu"
  type: "ReLU"
  bottom: "res2a_branch2b/bn"
  top: "res2a_branch2b/bn"
}
layer {
  name: "pool2"
  type: "Pooling"
  bottom: "res2a_branch2b/bn"
  top: "pool2"
  pooling_param {
    pool: MAX
    kernel_size: 2
    stride: 2
  }
}
layer {
  name: "res3a_branch2a"
  type: "Convolution"
  bottom: "pool2"
  top: "res3a_branch2a"
  param {
    lr_mult: 1
    decay_mult: 1
  }
  param {
    lr_mult: 2
    decay_mult: 0
  }
  convolution_param {
    num_output: 128
    bias_term: true
    pad: 1
    kernel_size: 3
    group: 1
    stride: 1
    weight_filler {
      type: "msra"
    }
    bias_filler {
      type: "constant"
      value: 0
    }
    dilation: 1
  }
}
layer {
  name: "res3a_branch2a/bn"
  type: "BatchNorm"
  bottom: "res3a_branch2a"
  top: "res3a_branch2a/bn"
  param {
    lr_mult: 1
    decay_mult: 1
  }
  param {
    lr_mult: 1
    decay_mult: 1
  }
  param {
    lr_mult: 0
    decay_mult: 0
  }
  param {
    lr_mult: 0
    decay_mult: 0
  }
  batch_norm_param {
    moving_average_fraction: 0.99
    eps: 0.0001
    scale_filler {
      type: "constant"
      value: 1
    }
    bias_filler {
      type: "constant"
      value: 0
    }
  }
}
layer {
  name: "res3a_branch2a/relu"
  type: "ReLU"
  bottom: "res3a_branch2a/bn"
  top: "res3a_branch2a/bn"
}
layer {
  name: "res3a_branch2b"
  type: "Convolution"
  bottom: "res3a_branch2a/bn"
  top: "res3a_branch2b"
  param {
    lr_mult: 1
    decay_mult: 1
  }
  param {
    lr_mult: 2
    decay_mult: 0
  }
  convolution_param {
    num_output: 128
    bias_term: true
    pad: 1
    kernel_size: 3
    group: 4
    stride: 1
    weight_filler {
      type: "msra"
    }
    bias_filler {
      type: "constant"
      value: 0
    }
    dilation: 1
  }
}
layer {
  name: "res3a_branch2b/bn"
  type: "BatchNorm"
  bottom: "res3a_branch2b"
  top: "res3a_branch2b/bn"
  param {
    lr_mult: 1
    decay_mult: 1
  }
  param {
    lr_mult: 1
    decay_mult: 1
  }
  param {
    lr_mult: 0
    decay_mult: 0
  }
  param {
    lr_mult: 0
    decay_mult: 0
  }
  batch_norm_param {
    moving_average_fraction: 0.99
    eps: 0.0001
    scale_filler {
      type: "constant"
      value: 1
    }
    bias_filler {
      type: "constant"
      value: 0
    }
  }
}
layer {
  name: "res3a_branch2b/relu"
  type: "ReLU"
  bottom: "res3a_branch2b/bn"
  top: "res3a_branch2b/bn"
}
layer {
  name: "pool3"
  type: "Pooling"
  bottom: "res3a_branch2b/bn"
  top: "pool3"
  pooling_param {
    pool: MAX
    kernel_size: 2
    stride: 2
  }
}
layer {
  name: "res4a_branch2a"
  type: "Convolution"
  bottom: "pool3"
  top: "res4a_branch2a"
  param {
    lr_mult: 1
    decay_mult: 1
  }
  param {
    lr_mult: 2
    decay_mult: 0
  }
  convolution_param {
    num_output: 256
    bias_term: true
    pad: 1
    kernel_size: 3
    group: 1
    stride: 1
    weight_filler {
      type: "msra"
    }
    bias_filler {
      type: "constant"
      value: 0
    }
    dilation: 1
  }
}
layer {
  name: "res4a_branch2a/bn"
  type: "BatchNorm"
  bottom: "res4a_branch2a"
  top: "res4a_branch2a/bn"
  param {
    lr_mult: 1
    decay_mult: 1
  }
  param {
    lr_mult: 1
    decay_mult: 1
  }
  param {
    lr_mult: 0
    decay_mult: 0
  }
  param {
    lr_mult: 0
    decay_mult: 0
  }
  batch_norm_param {
    moving_average_fraction: 0.99
    eps: 0.0001
    scale_filler {
      type: "constant"
      value: 1
    }
    bias_filler {
      type: "constant"
      value: 0
    }
  }
}
layer {
  name: "res4a_branch2a/relu"
  type: "ReLU"
  bottom: "res4a_branch2a/bn"
  top: "res4a_branch2a/bn"
}
layer {
  name: "res4a_branch2b"
  type: "Convolution"
  bottom: "res4a_branch2a/bn"
  top: "res4a_branch2b"
  param {
    lr_mult: 1
    decay_mult: 1
  }
  param {
    lr_mult: 2
    decay_mult: 0
  }
  convolution_param {
    num_output: 256
    bias_term: true
    pad: 1
    kernel_size: 3
    group: 4
    stride: 1
    weight_filler {
      type: "msra"
    }
    bias_filler {
      type: "constant"
      value: 0
    }
    dilation: 1
  }
}
layer {
  name: "res4a_branch2b/bn"
  type: "BatchNorm"
  bottom: "res4a_branch2b"
  top: "res4a_branch2b/bn"
  param {
    lr_mult: 1
    decay_mult: 1
  }
  param {
    lr_mult: 1
    decay_mult: 1
  }
  param {
    lr_mult: 0
    decay_mult: 0
  }
  param {
    lr_mult: 0
    decay_mult: 0
  }
  batch_norm_param {
    moving_average_fraction: 0.99
    eps: 0.0001
    scale_filler {
      type: "constant"
      value: 1
    }
    bias_filler {
      type: "constant"
      value: 0
    }
  }
}
layer {
  name: "res4a_branch2b/relu"
  type: "ReLU"
  bottom: "res4a_branch2b/bn"
  top: "res4a_branch2b/bn"
}
layer {
  name: "pool4"
  type: "Pooling"
  bottom: "res4a_branch2b/bn"
  top: "pool4"
  pooling_param {
    pool: MAX
    kernel_size: 2
    stride: 2
  }
}
layer {
  name: "res5a_branch2a"
  type: "Convolution"
  bottom: "pool4"
  top: "res5a_branch2a"
  param {
    lr_mult: 1
    decay_mult: 1
  }
  param {
    lr_mult: 2
    decay_mult: 0
  }
  convolution_param {
    num_output: 512
    bias_term: true
    pad: 1
    kernel_size: 3
    group: 1
    stride: 1
    weight_filler {
      type: "msra"
    }
    bias_filler {
      type: "constant"
      value: 0
    }
    dilation: 1
  }
}
layer {
  name: "res5a_branch2a/bn"
  type: "BatchNorm"
  bottom: "res5a_branch2a"
  top: "res5a_branch2a/bn"
  param {
    lr_mult: 1
    decay_mult: 1
  }
  param {
    lr_mult: 1
    decay_mult: 1
  }
  param {
    lr_mult: 0
    decay_mult: 0
  }
  param {
    lr_mult: 0
    decay_mult: 0
  }
  batch_norm_param {
    moving_average_fraction: 0.99
    eps: 0.0001
    scale_filler {
      type: "constant"
      value: 1
    }
    bias_filler {
      type: "constant"
      value: 0
    }
  }
}
layer {
  name: "res5a_branch2a/relu"
  type: "ReLU"
  bottom: "res5a_branch2a/bn"
  top: "res5a_branch2a/bn"
}
layer {
  name: "res5a_branch2b"
  type: "Convolution"
  bottom: "res5a_branch2a/bn"
  top: "res5a_branch2b"
  param {
    lr_mult: 1
    decay_mult: 1
  }
  param {
    lr_mult: 2
    decay_mult: 0
  }
  convolution_param {
    num_output: 512
    bias_term: true
    pad: 1
    kernel_size: 3
    group: 4
    stride: 1
    weight_filler {
      type: "msra"
    }
    bias_filler {
      type: "constant"
      value: 0
    }
    dilation: 1
  }
}
layer {
  name: "res5a_branch2b/bn"
  type: "BatchNorm"
  bottom: "res5a_branch2b"
  top: "res5a_branch2b/bn"
  param {
    lr_mult: 1
    decay_mult: 1
  }
  param {
    lr_mult: 1
    decay_mult: 1
  }
  param {
    lr_mult: 0
    decay_mult: 0
  }
  param {
    lr_mult: 0
    decay_mult: 0
  }
  batch_norm_param {
    moving_average_fraction: 0.99
    eps: 0.0001
    scale_filler {
      type: "constant"
      value: 1
    }
    bias_filler {
      type: "constant"
      value: 0
    }
  }
}
layer {
  name: "res5a_branch2b/relu"
  type: "ReLU"
  bottom: "res5a_branch2b/bn"
  top: "res5a_branch2b/bn"
}
layer {
  name: "pool5"
  type: "Pooling"
  bottom: "res5a_branch2b/bn"
  top: "pool5"
  pooling_param {
    pool: AVE
    global_pooling: true
  }
}
layer {
  name: "fc1000"
  type: "InnerProduct"
  bottom: "pool5"
  top: "fc1000"
  param {
    lr_mult: 1
    decay_mult: 1
  }
  param {
    lr_mult: 2
    decay_mult: 0
  }
  inner_product_param {
    num_output: 1000
    weight_filler {
      type: "msra"
    }
    bias_filler {
      type: "constant"
      value: 0
    }
  }
}
layer {
  name: "loss"
  type: "SoftmaxWithLoss"
  bottom: "fc1000"
  bottom: "label"
  top: "loss"
  propagate_down: true
  propagate_down: false
}
I0701 15:16:01.332027  4775 layer_factory.hpp:77] Creating layer data
I0701 15:16:01.332108  4775 net.cpp:98] Creating Layer data
I0701 15:16:01.332114  4775 net.cpp:413] data -> data
I0701 15:16:01.332141  4775 net.cpp:413] data -> label
I0701 15:16:01.335151  4793 db_lmdb.cpp:35] Opened lmdb ./data/ilsvrc12_train_lmdb
I0701 15:16:01.364117  4775 data_layer.cpp:78] ReshapePrefetch 42, 3, 224, 224
I0701 15:16:01.364194  4775 data_layer.cpp:83] output data size: 42,3,224,224
I0701 15:16:01.389564  4775 net.cpp:148] Setting up data
I0701 15:16:01.389585  4775 net.cpp:155] Top shape: 42 3 224 224 (6322176)
I0701 15:16:01.389588  4775 net.cpp:155] Top shape: 42 (42)
I0701 15:16:01.389590  4775 net.cpp:163] Memory required for data: 25288872
I0701 15:16:01.389597  4775 layer_factory.hpp:77] Creating layer data/bias
I0701 15:16:01.389609  4775 net.cpp:98] Creating Layer data/bias
I0701 15:16:01.389612  4775 net.cpp:439] data/bias <- data
I0701 15:16:01.389622  4775 net.cpp:413] data/bias -> data/bias
I0701 15:16:01.390676  4775 net.cpp:148] Setting up data/bias
I0701 15:16:01.390691  4775 net.cpp:155] Top shape: 42 3 224 224 (6322176)
I0701 15:16:01.390693  4775 net.cpp:163] Memory required for data: 50577576
I0701 15:16:01.390707  4775 layer_factory.hpp:77] Creating layer conv1a
I0701 15:16:01.390723  4775 net.cpp:98] Creating Layer conv1a
I0701 15:16:01.390727  4775 net.cpp:439] conv1a <- data/bias
I0701 15:16:01.390733  4775 net.cpp:413] conv1a -> conv1a
I0701 15:16:01.392954  4775 net.cpp:148] Setting up conv1a
I0701 15:16:01.392966  4775 net.cpp:155] Top shape: 42 32 112 112 (16859136)
I0701 15:16:01.392969  4775 net.cpp:163] Memory required for data: 118014120
I0701 15:16:01.392974  4775 layer_factory.hpp:77] Creating layer conv1a/bn
I0701 15:16:01.392980  4775 net.cpp:98] Creating Layer conv1a/bn
I0701 15:16:01.392982  4775 net.cpp:439] conv1a/bn <- conv1a
I0701 15:16:01.392987  4775 net.cpp:413] conv1a/bn -> conv1a/bn
I0701 15:16:01.394646  4810 blocking_queue.cpp:50] Waiting for data
I0701 15:16:01.395469  4775 net.cpp:148] Setting up conv1a/bn
I0701 15:16:01.395480  4775 net.cpp:155] Top shape: 42 32 112 112 (16859136)
I0701 15:16:01.395483  4775 net.cpp:163] Memory required for data: 185450664
I0701 15:16:01.395491  4775 layer_factory.hpp:77] Creating layer conv1a/relu
I0701 15:16:01.395495  4775 net.cpp:98] Creating Layer conv1a/relu
I0701 15:16:01.395498  4775 net.cpp:439] conv1a/relu <- conv1a/bn
I0701 15:16:01.395501  4775 net.cpp:400] conv1a/relu -> conv1a/bn (in-place)
I0701 15:16:01.395512  4775 net.cpp:148] Setting up conv1a/relu
I0701 15:16:01.395517  4775 net.cpp:155] Top shape: 42 32 112 112 (16859136)
I0701 15:16:01.395521  4775 net.cpp:163] Memory required for data: 252887208
I0701 15:16:01.395525  4775 layer_factory.hpp:77] Creating layer conv1b
I0701 15:16:01.395547  4775 net.cpp:98] Creating Layer conv1b
I0701 15:16:01.395552  4775 net.cpp:439] conv1b <- conv1a/bn
I0701 15:16:01.395557  4775 net.cpp:413] conv1b -> conv1b
I0701 15:16:01.395905  4775 net.cpp:148] Setting up conv1b
I0701 15:16:01.395912  4775 net.cpp:155] Top shape: 42 32 112 112 (16859136)
I0701 15:16:01.395916  4775 net.cpp:163] Memory required for data: 320323752
I0701 15:16:01.395925  4775 layer_factory.hpp:77] Creating layer conv1b/bn
I0701 15:16:01.395931  4775 net.cpp:98] Creating Layer conv1b/bn
I0701 15:16:01.395934  4775 net.cpp:439] conv1b/bn <- conv1b
I0701 15:16:01.395941  4775 net.cpp:413] conv1b/bn -> conv1b/bn
I0701 15:16:01.396626  4775 net.cpp:148] Setting up conv1b/bn
I0701 15:16:01.396634  4775 net.cpp:155] Top shape: 42 32 112 112 (16859136)
I0701 15:16:01.396638  4775 net.cpp:163] Memory required for data: 387760296
I0701 15:16:01.396648  4775 layer_factory.hpp:77] Creating layer conv1b/relu
I0701 15:16:01.396652  4775 net.cpp:98] Creating Layer conv1b/relu
I0701 15:16:01.396656  4775 net.cpp:439] conv1b/relu <- conv1b/bn
I0701 15:16:01.396661  4775 net.cpp:400] conv1b/relu -> conv1b/bn (in-place)
I0701 15:16:01.396667  4775 net.cpp:148] Setting up conv1b/relu
I0701 15:16:01.396672  4775 net.cpp:155] Top shape: 42 32 112 112 (16859136)
I0701 15:16:01.396677  4775 net.cpp:163] Memory required for data: 455196840
I0701 15:16:01.396680  4775 layer_factory.hpp:77] Creating layer pool1
I0701 15:16:01.396688  4775 net.cpp:98] Creating Layer pool1
I0701 15:16:01.396692  4775 net.cpp:439] pool1 <- conv1b/bn
I0701 15:16:01.396697  4775 net.cpp:413] pool1 -> pool1
I0701 15:16:01.396741  4775 net.cpp:148] Setting up pool1
I0701 15:16:01.396746  4775 net.cpp:155] Top shape: 42 32 56 56 (4214784)
I0701 15:16:01.396749  4775 net.cpp:163] Memory required for data: 472055976
I0701 15:16:01.396754  4775 layer_factory.hpp:77] Creating layer res2a_branch2a
I0701 15:16:01.396761  4775 net.cpp:98] Creating Layer res2a_branch2a
I0701 15:16:01.396765  4775 net.cpp:439] res2a_branch2a <- pool1
I0701 15:16:01.396770  4775 net.cpp:413] res2a_branch2a -> res2a_branch2a
I0701 15:16:01.397406  4775 net.cpp:148] Setting up res2a_branch2a
I0701 15:16:01.397413  4775 net.cpp:155] Top shape: 42 64 56 56 (8429568)
I0701 15:16:01.397418  4775 net.cpp:163] Memory required for data: 505774248
I0701 15:16:01.397425  4775 layer_factory.hpp:77] Creating layer res2a_branch2a/bn
I0701 15:16:01.397431  4775 net.cpp:98] Creating Layer res2a_branch2a/bn
I0701 15:16:01.397435  4775 net.cpp:439] res2a_branch2a/bn <- res2a_branch2a
I0701 15:16:01.397441  4775 net.cpp:413] res2a_branch2a/bn -> res2a_branch2a/bn
I0701 15:16:01.398120  4775 net.cpp:148] Setting up res2a_branch2a/bn
I0701 15:16:01.398133  4775 net.cpp:155] Top shape: 42 64 56 56 (8429568)
I0701 15:16:01.398136  4775 net.cpp:163] Memory required for data: 539492520
I0701 15:16:01.398144  4775 layer_factory.hpp:77] Creating layer res2a_branch2a/relu
I0701 15:16:01.398149  4775 net.cpp:98] Creating Layer res2a_branch2a/relu
I0701 15:16:01.398154  4775 net.cpp:439] res2a_branch2a/relu <- res2a_branch2a/bn
I0701 15:16:01.398159  4775 net.cpp:400] res2a_branch2a/relu -> res2a_branch2a/bn (in-place)
I0701 15:16:01.398164  4775 net.cpp:148] Setting up res2a_branch2a/relu
I0701 15:16:01.398169  4775 net.cpp:155] Top shape: 42 64 56 56 (8429568)
I0701 15:16:01.398174  4775 net.cpp:163] Memory required for data: 573210792
I0701 15:16:01.398177  4775 layer_factory.hpp:77] Creating layer res2a_branch2b
I0701 15:16:01.398185  4775 net.cpp:98] Creating Layer res2a_branch2b
I0701 15:16:01.398188  4775 net.cpp:439] res2a_branch2b <- res2a_branch2a/bn
I0701 15:16:01.398193  4775 net.cpp:413] res2a_branch2b -> res2a_branch2b
I0701 15:16:01.398675  4775 net.cpp:148] Setting up res2a_branch2b
I0701 15:16:01.398682  4775 net.cpp:155] Top shape: 42 64 56 56 (8429568)
I0701 15:16:01.398686  4775 net.cpp:163] Memory required for data: 606929064
I0701 15:16:01.398692  4775 layer_factory.hpp:77] Creating layer res2a_branch2b/bn
I0701 15:16:01.398699  4775 net.cpp:98] Creating Layer res2a_branch2b/bn
I0701 15:16:01.398708  4775 net.cpp:439] res2a_branch2b/bn <- res2a_branch2b
I0701 15:16:01.398715  4775 net.cpp:413] res2a_branch2b/bn -> res2a_branch2b/bn
I0701 15:16:01.399406  4775 net.cpp:148] Setting up res2a_branch2b/bn
I0701 15:16:01.399413  4775 net.cpp:155] Top shape: 42 64 56 56 (8429568)
I0701 15:16:01.399416  4775 net.cpp:163] Memory required for data: 640647336
I0701 15:16:01.399425  4775 layer_factory.hpp:77] Creating layer res2a_branch2b/relu
I0701 15:16:01.399430  4775 net.cpp:98] Creating Layer res2a_branch2b/relu
I0701 15:16:01.399435  4775 net.cpp:439] res2a_branch2b/relu <- res2a_branch2b/bn
I0701 15:16:01.399440  4775 net.cpp:400] res2a_branch2b/relu -> res2a_branch2b/bn (in-place)
I0701 15:16:01.399448  4775 net.cpp:148] Setting up res2a_branch2b/relu
I0701 15:16:01.399453  4775 net.cpp:155] Top shape: 42 64 56 56 (8429568)
I0701 15:16:01.399457  4775 net.cpp:163] Memory required for data: 674365608
I0701 15:16:01.399461  4775 layer_factory.hpp:77] Creating layer pool2
I0701 15:16:01.399466  4775 net.cpp:98] Creating Layer pool2
I0701 15:16:01.399471  4775 net.cpp:439] pool2 <- res2a_branch2b/bn
I0701 15:16:01.399476  4775 net.cpp:413] pool2 -> pool2
I0701 15:16:01.399518  4775 net.cpp:148] Setting up pool2
I0701 15:16:01.399523  4775 net.cpp:155] Top shape: 42 64 28 28 (2107392)
I0701 15:16:01.399526  4775 net.cpp:163] Memory required for data: 682795176
I0701 15:16:01.399530  4775 layer_factory.hpp:77] Creating layer res3a_branch2a
I0701 15:16:01.399541  4775 net.cpp:98] Creating Layer res3a_branch2a
I0701 15:16:01.399545  4775 net.cpp:439] res3a_branch2a <- pool2
I0701 15:16:01.399550  4775 net.cpp:413] res3a_branch2a -> res3a_branch2a
I0701 15:16:01.402976  4775 net.cpp:148] Setting up res3a_branch2a
I0701 15:16:01.402986  4775 net.cpp:155] Top shape: 42 128 28 28 (4214784)
I0701 15:16:01.402989  4775 net.cpp:163] Memory required for data: 699654312
I0701 15:16:01.402997  4775 layer_factory.hpp:77] Creating layer res3a_branch2a/bn
I0701 15:16:01.403007  4775 net.cpp:98] Creating Layer res3a_branch2a/bn
I0701 15:16:01.403010  4775 net.cpp:439] res3a_branch2a/bn <- res3a_branch2a
I0701 15:16:01.403017  4775 net.cpp:413] res3a_branch2a/bn -> res3a_branch2a/bn
I0701 15:16:01.403661  4775 net.cpp:148] Setting up res3a_branch2a/bn
I0701 15:16:01.403669  4775 net.cpp:155] Top shape: 42 128 28 28 (4214784)
I0701 15:16:01.403673  4775 net.cpp:163] Memory required for data: 716513448
I0701 15:16:01.403683  4775 layer_factory.hpp:77] Creating layer res3a_branch2a/relu
I0701 15:16:01.403688  4775 net.cpp:98] Creating Layer res3a_branch2a/relu
I0701 15:16:01.403692  4775 net.cpp:439] res3a_branch2a/relu <- res3a_branch2a/bn
I0701 15:16:01.403703  4775 net.cpp:400] res3a_branch2a/relu -> res3a_branch2a/bn (in-place)
I0701 15:16:01.403708  4775 net.cpp:148] Setting up res3a_branch2a/relu
I0701 15:16:01.403713  4775 net.cpp:155] Top shape: 42 128 28 28 (4214784)
I0701 15:16:01.403718  4775 net.cpp:163] Memory required for data: 733372584
I0701 15:16:01.403722  4775 layer_factory.hpp:77] Creating layer res3a_branch2b
I0701 15:16:01.403728  4775 net.cpp:98] Creating Layer res3a_branch2b
I0701 15:16:01.403733  4775 net.cpp:439] res3a_branch2b <- res3a_branch2a/bn
I0701 15:16:01.403739  4775 net.cpp:413] res3a_branch2b -> res3a_branch2b
I0701 15:16:01.404753  4775 net.cpp:148] Setting up res3a_branch2b
I0701 15:16:01.404760  4775 net.cpp:155] Top shape: 42 128 28 28 (4214784)
I0701 15:16:01.404763  4775 net.cpp:163] Memory required for data: 750231720
I0701 15:16:01.404769  4775 layer_factory.hpp:77] Creating layer res3a_branch2b/bn
I0701 15:16:01.404777  4775 net.cpp:98] Creating Layer res3a_branch2b/bn
I0701 15:16:01.404781  4775 net.cpp:439] res3a_branch2b/bn <- res3a_branch2b
I0701 15:16:01.404786  4775 net.cpp:413] res3a_branch2b/bn -> res3a_branch2b/bn
I0701 15:16:01.405431  4775 net.cpp:148] Setting up res3a_branch2b/bn
I0701 15:16:01.405437  4775 net.cpp:155] Top shape: 42 128 28 28 (4214784)
I0701 15:16:01.405441  4775 net.cpp:163] Memory required for data: 767090856
I0701 15:16:01.405457  4775 layer_factory.hpp:77] Creating layer res3a_branch2b/relu
I0701 15:16:01.405462  4775 net.cpp:98] Creating Layer res3a_branch2b/relu
I0701 15:16:01.405465  4775 net.cpp:439] res3a_branch2b/relu <- res3a_branch2b/bn
I0701 15:16:01.405470  4775 net.cpp:400] res3a_branch2b/relu -> res3a_branch2b/bn (in-place)
I0701 15:16:01.405478  4775 net.cpp:148] Setting up res3a_branch2b/relu
I0701 15:16:01.405483  4775 net.cpp:155] Top shape: 42 128 28 28 (4214784)
I0701 15:16:01.405486  4775 net.cpp:163] Memory required for data: 783949992
I0701 15:16:01.405490  4775 layer_factory.hpp:77] Creating layer pool3
I0701 15:16:01.405495  4775 net.cpp:98] Creating Layer pool3
I0701 15:16:01.405500  4775 net.cpp:439] pool3 <- res3a_branch2b/bn
I0701 15:16:01.405505  4775 net.cpp:413] pool3 -> pool3
I0701 15:16:01.405550  4775 net.cpp:148] Setting up pool3
I0701 15:16:01.405555  4775 net.cpp:155] Top shape: 42 128 14 14 (1053696)
I0701 15:16:01.405557  4775 net.cpp:163] Memory required for data: 788164776
I0701 15:16:01.405561  4775 layer_factory.hpp:77] Creating layer res4a_branch2a
I0701 15:16:01.405568  4775 net.cpp:98] Creating Layer res4a_branch2a
I0701 15:16:01.405572  4775 net.cpp:439] res4a_branch2a <- pool3
I0701 15:16:01.405577  4775 net.cpp:413] res4a_branch2a -> res4a_branch2a
I0701 15:16:01.411672  4775 net.cpp:148] Setting up res4a_branch2a
I0701 15:16:01.411679  4775 net.cpp:155] Top shape: 42 256 14 14 (2107392)
I0701 15:16:01.411682  4775 net.cpp:163] Memory required for data: 796594344
I0701 15:16:01.411689  4775 layer_factory.hpp:77] Creating layer res4a_branch2a/bn
I0701 15:16:01.411695  4775 net.cpp:98] Creating Layer res4a_branch2a/bn
I0701 15:16:01.411696  4775 net.cpp:439] res4a_branch2a/bn <- res4a_branch2a
I0701 15:16:01.411700  4775 net.cpp:413] res4a_branch2a/bn -> res4a_branch2a/bn
I0701 15:16:01.412361  4775 net.cpp:148] Setting up res4a_branch2a/bn
I0701 15:16:01.412367  4775 net.cpp:155] Top shape: 42 256 14 14 (2107392)
I0701 15:16:01.412370  4775 net.cpp:163] Memory required for data: 805023912
I0701 15:16:01.412374  4775 layer_factory.hpp:77] Creating layer res4a_branch2a/relu
I0701 15:16:01.412377  4775 net.cpp:98] Creating Layer res4a_branch2a/relu
I0701 15:16:01.412379  4775 net.cpp:439] res4a_branch2a/relu <- res4a_branch2a/bn
I0701 15:16:01.412382  4775 net.cpp:400] res4a_branch2a/relu -> res4a_branch2a/bn (in-place)
I0701 15:16:01.412385  4775 net.cpp:148] Setting up res4a_branch2a/relu
I0701 15:16:01.412389  4775 net.cpp:155] Top shape: 42 256 14 14 (2107392)
I0701 15:16:01.412389  4775 net.cpp:163] Memory required for data: 813453480
I0701 15:16:01.412391  4775 layer_factory.hpp:77] Creating layer res4a_branch2b
I0701 15:16:01.412395  4775 net.cpp:98] Creating Layer res4a_branch2b
I0701 15:16:01.412397  4775 net.cpp:439] res4a_branch2b <- res4a_branch2a/bn
I0701 15:16:01.412401  4775 net.cpp:413] res4a_branch2b -> res4a_branch2b
I0701 15:16:01.415647  4775 net.cpp:148] Setting up res4a_branch2b
I0701 15:16:01.415654  4775 net.cpp:155] Top shape: 42 256 14 14 (2107392)
I0701 15:16:01.415657  4775 net.cpp:163] Memory required for data: 821883048
I0701 15:16:01.415659  4775 layer_factory.hpp:77] Creating layer res4a_branch2b/bn
I0701 15:16:01.415663  4775 net.cpp:98] Creating Layer res4a_branch2b/bn
I0701 15:16:01.415665  4775 net.cpp:439] res4a_branch2b/bn <- res4a_branch2b
I0701 15:16:01.415668  4775 net.cpp:413] res4a_branch2b/bn -> res4a_branch2b/bn
I0701 15:16:01.416319  4775 net.cpp:148] Setting up res4a_branch2b/bn
I0701 15:16:01.416326  4775 net.cpp:155] Top shape: 42 256 14 14 (2107392)
I0701 15:16:01.416327  4775 net.cpp:163] Memory required for data: 830312616
I0701 15:16:01.416332  4775 layer_factory.hpp:77] Creating layer res4a_branch2b/relu
I0701 15:16:01.416335  4775 net.cpp:98] Creating Layer res4a_branch2b/relu
I0701 15:16:01.416337  4775 net.cpp:439] res4a_branch2b/relu <- res4a_branch2b/bn
I0701 15:16:01.416340  4775 net.cpp:400] res4a_branch2b/relu -> res4a_branch2b/bn (in-place)
I0701 15:16:01.416343  4775 net.cpp:148] Setting up res4a_branch2b/relu
I0701 15:16:01.416352  4775 net.cpp:155] Top shape: 42 256 14 14 (2107392)
I0701 15:16:01.416353  4775 net.cpp:163] Memory required for data: 838742184
I0701 15:16:01.416355  4775 layer_factory.hpp:77] Creating layer pool4
I0701 15:16:01.416359  4775 net.cpp:98] Creating Layer pool4
I0701 15:16:01.416364  4775 net.cpp:439] pool4 <- res4a_branch2b/bn
I0701 15:16:01.416369  4775 net.cpp:413] pool4 -> pool4
I0701 15:16:01.416417  4775 net.cpp:148] Setting up pool4
I0701 15:16:01.416422  4775 net.cpp:155] Top shape: 42 256 7 7 (526848)
I0701 15:16:01.416424  4775 net.cpp:163] Memory required for data: 840849576
I0701 15:16:01.416426  4775 layer_factory.hpp:77] Creating layer res5a_branch2a
I0701 15:16:01.416430  4775 net.cpp:98] Creating Layer res5a_branch2a
I0701 15:16:01.416432  4775 net.cpp:439] res5a_branch2a <- pool4
I0701 15:16:01.416435  4775 net.cpp:413] res5a_branch2a -> res5a_branch2a
I0701 15:16:01.441205  4775 net.cpp:148] Setting up res5a_branch2a
I0701 15:16:01.441232  4775 net.cpp:155] Top shape: 42 512 7 7 (1053696)
I0701 15:16:01.441236  4775 net.cpp:163] Memory required for data: 845064360
I0701 15:16:01.441242  4775 layer_factory.hpp:77] Creating layer res5a_branch2a/bn
I0701 15:16:01.441256  4775 net.cpp:98] Creating Layer res5a_branch2a/bn
I0701 15:16:01.441262  4775 net.cpp:439] res5a_branch2a/bn <- res5a_branch2a
I0701 15:16:01.441268  4775 net.cpp:413] res5a_branch2a/bn -> res5a_branch2a/bn
I0701 15:16:01.441983  4775 net.cpp:148] Setting up res5a_branch2a/bn
I0701 15:16:01.441990  4775 net.cpp:155] Top shape: 42 512 7 7 (1053696)
I0701 15:16:01.441992  4775 net.cpp:163] Memory required for data: 849279144
I0701 15:16:01.442000  4775 layer_factory.hpp:77] Creating layer res5a_branch2a/relu
I0701 15:16:01.442008  4775 net.cpp:98] Creating Layer res5a_branch2a/relu
I0701 15:16:01.442013  4775 net.cpp:439] res5a_branch2a/relu <- res5a_branch2a/bn
I0701 15:16:01.442016  4775 net.cpp:400] res5a_branch2a/relu -> res5a_branch2a/bn (in-place)
I0701 15:16:01.442024  4775 net.cpp:148] Setting up res5a_branch2a/relu
I0701 15:16:01.442029  4775 net.cpp:155] Top shape: 42 512 7 7 (1053696)
I0701 15:16:01.442034  4775 net.cpp:163] Memory required for data: 853493928
I0701 15:16:01.442036  4775 layer_factory.hpp:77] Creating layer res5a_branch2b
I0701 15:16:01.442044  4775 net.cpp:98] Creating Layer res5a_branch2b
I0701 15:16:01.442049  4775 net.cpp:439] res5a_branch2b <- res5a_branch2a/bn
I0701 15:16:01.442052  4775 net.cpp:413] res5a_branch2b -> res5a_branch2b
I0701 15:16:01.455540  4775 net.cpp:148] Setting up res5a_branch2b
I0701 15:16:01.455555  4775 net.cpp:155] Top shape: 42 512 7 7 (1053696)
I0701 15:16:01.455559  4775 net.cpp:163] Memory required for data: 857708712
I0701 15:16:01.455574  4775 layer_factory.hpp:77] Creating layer res5a_branch2b/bn
I0701 15:16:01.455581  4775 net.cpp:98] Creating Layer res5a_branch2b/bn
I0701 15:16:01.455585  4775 net.cpp:439] res5a_branch2b/bn <- res5a_branch2b
I0701 15:16:01.455590  4775 net.cpp:413] res5a_branch2b/bn -> res5a_branch2b/bn
I0701 15:16:01.456418  4775 net.cpp:148] Setting up res5a_branch2b/bn
I0701 15:16:01.456428  4775 net.cpp:155] Top shape: 42 512 7 7 (1053696)
I0701 15:16:01.456430  4775 net.cpp:163] Memory required for data: 861923496
I0701 15:16:01.456439  4775 layer_factory.hpp:77] Creating layer res5a_branch2b/relu
I0701 15:16:01.456442  4775 net.cpp:98] Creating Layer res5a_branch2b/relu
I0701 15:16:01.456444  4775 net.cpp:439] res5a_branch2b/relu <- res5a_branch2b/bn
I0701 15:16:01.456447  4775 net.cpp:400] res5a_branch2b/relu -> res5a_branch2b/bn (in-place)
I0701 15:16:01.456451  4775 net.cpp:148] Setting up res5a_branch2b/relu
I0701 15:16:01.456454  4775 net.cpp:155] Top shape: 42 512 7 7 (1053696)
I0701 15:16:01.456455  4775 net.cpp:163] Memory required for data: 866138280
I0701 15:16:01.456457  4775 layer_factory.hpp:77] Creating layer pool5
I0701 15:16:01.456463  4775 net.cpp:98] Creating Layer pool5
I0701 15:16:01.456465  4775 net.cpp:439] pool5 <- res5a_branch2b/bn
I0701 15:16:01.456468  4775 net.cpp:413] pool5 -> pool5
I0701 15:16:01.456507  4775 net.cpp:148] Setting up pool5
I0701 15:16:01.456511  4775 net.cpp:155] Top shape: 42 512 1 1 (21504)
I0701 15:16:01.456514  4775 net.cpp:163] Memory required for data: 866224296
I0701 15:16:01.456516  4775 layer_factory.hpp:77] Creating layer fc1000
I0701 15:16:01.456521  4775 net.cpp:98] Creating Layer fc1000
I0701 15:16:01.456522  4775 net.cpp:439] fc1000 <- pool5
I0701 15:16:01.456526  4775 net.cpp:413] fc1000 -> fc1000
I0701 15:16:01.467541  4775 net.cpp:148] Setting up fc1000
I0701 15:16:01.467551  4775 net.cpp:155] Top shape: 42 1000 (42000)
I0701 15:16:01.467553  4775 net.cpp:163] Memory required for data: 866392296
I0701 15:16:01.467558  4775 layer_factory.hpp:77] Creating layer loss
I0701 15:16:01.467562  4775 net.cpp:98] Creating Layer loss
I0701 15:16:01.467566  4775 net.cpp:439] loss <- fc1000
I0701 15:16:01.467568  4775 net.cpp:439] loss <- label
I0701 15:16:01.467572  4775 net.cpp:413] loss -> loss
I0701 15:16:01.467581  4775 layer_factory.hpp:77] Creating layer loss
…
I0701 15:16:01.468312  4775 solver.cpp:182] Creating test net (#0) specified by test_net file: training/imagenet_jacintonet11v2_2017-07-01_15-15-58/initial/test.prototxt
I0701 15:16:01.468499  4775 net.cpp:56] Initializing net from parameters: 
name: "jacintonet11v2_test"
state {
  phase: TEST
}
layer {
  name: "data"
  type: "Data"
  top: "data"
  top: "label"
  transform_param {
    mirror: false
    crop_size: 224
    mean_value: 0
    mean_value: 0
    mean_value: 0
  }
  data_param {
    source: "./data/ilsvrc12_val_lmdb"
    batch_size: 50
    backend: LMDB
    threads: 1
  }
}
layer {
  name: "data/bias"
  type: "Bias"
  bottom: "data"
  top: "data/bias"
  param {
    lr_mult: 0
    decay_mult: 0
  }
  bias_param {
    filler {
      type: "constant"
      value: -128
    }
  }
}
layer {
  name: "conv1a"
  type: "Convolution"
  bottom: "data/bias"
  top: "conv1a"
  param {
    lr_mult: 1
    decay_mult: 1
  }
  param {
    lr_mult: 2
    decay_mult: 0
  }
  convolution_param {
    num_output: 32
    bias_term: true
    pad: 2
    kernel_size: 5
    group: 1
    stride: 2
    weight_filler {
      type: "msra"
    }
    bias_filler {
      type: "constant"
      value: 0
    }
    dilation: 1
  }
}
layer {
  name: "conv1a/bn"
  type: "BatchNorm"
  bottom: "conv1a"
  top: "conv1a/bn"
  param {
    lr_mult: 1
    decay_mult: 1
  }
  param {
    lr_mult: 1
    decay_mult: 1
  }
  param {
    lr_mult: 0
    decay_mult: 0
  }
  param {
    lr_mult: 0
    decay_mult: 0
  }
  batch_norm_param {
    moving_average_fraction: 0.99
    eps: 0.0001
    scale_filler {
      type: "constant"
      value: 1
    }
    bias_filler {
      type: "constant"
      value: 0
    }
  }
}
layer {
  name: "conv1a/relu"
  type: "ReLU"
  bottom: "conv1a/bn"
  top: "conv1a/bn"
}
layer {
  name: "conv1b"
  type: "Convolution"
  bottom: "conv1a/bn"
  top: "conv1b"
  param {
    lr_mult: 1
    decay_mult: 1
  }
  param {
    lr_mult: 2
    decay_mult: 0
  }
  convolution_param {
    num_output: 32
    bias_term: true
    pad: 1
    kernel_size: 3
    group: 4
    stride: 1
    weight_filler {
      type: "msra"
    }
    bias_filler {
      type: "constant"
      value: 0
    }
    dilation: 1
  }
}
layer {
  name: "conv1b/bn"
  type: "BatchNorm"
  bottom: "conv1b"
  top: "conv1b/bn"
  param {
    lr_mult: 1
    decay_mult: 1
  }
  param {
    lr_mult: 1
    decay_mult: 1
  }
  param {
    lr_mult: 0
    decay_mult: 0
  }
  param {
    lr_mult: 0
    decay_mult: 0
  }
  batch_norm_param {
    moving_average_fraction: 0.99
    eps: 0.0001
    scale_filler {
      type: "constant"
      value: 1
    }
    bias_filler {
      type: "constant"
      value: 0
    }
  }
}
layer {
  name: "conv1b/relu"
  type: "ReLU"
  bottom: "conv1b/bn"
  top: "conv1b/bn"
}
layer {
  name: "pool1"
  type: "Pooling"
  bottom: "conv1b/bn"
  top: "pool1"
  pooling_param {
    pool: MAX
    kernel_size: 2
    stride: 2
  }
}
layer {
  name: "res2a_branch2a"
  type: "Convolution"
  bottom: "pool1"
  top: "res2a_branch2a"
  param {
    lr_mult: 1
    decay_mult: 1
  }
  param {
    lr_mult: 2
    decay_mult: 0
  }
  convolution_param {
    num_output: 64
    bias_term: true
    pad: 1
    kernel_size: 3
    group: 1
    stride: 1
    weight_filler {
      type: "msra"
    }
    bias_filler {
      type: "constant"
      value: 0
    }
    dilation: 1
  }
}
layer {
  name: "res2a_branch2a/bn"
  type: "BatchNorm"
  bottom: "res2a_branch2a"
  top: "res2a_branch2a/bn"
  param {
    lr_mult: 1
    decay_mult: 1
  }
  param {
    lr_mult: 1
    decay_mult: 1
  }
  param {
    lr_mult: 0
    decay_mult: 0
  }
  param {
    lr_mult: 0
    decay_mult: 0
  }
  batch_norm_param {
    moving_average_fraction: 0.99
    eps: 0.0001
    scale_filler {
      type: "constant"
      value: 1
    }
    bias_filler {
      type: "constant"
      value: 0
    }
  }
}
layer {
  name: "res2a_branch2a/relu"
  type: "ReLU"
  bottom: "res2a_branch2a/bn"
  top: "res2a_branch2a/bn"
}
layer {
  name: "res2a_branch2b"
  type: "Convolution"
  bottom: "res2a_branch2a/bn"
  top: "res2a_branch2b"
  param {
    lr_mult: 1
    decay_mult: 1
  }
  param {
    lr_mult: 2
    decay_mult: 0
  }
  convolution_param {
    num_output: 64
    bias_term: true
    pad: 1
    kernel_size: 3
    group: 4
    stride: 1
    weight_filler {
      type: "msra"
    }
    bias_filler {
      type: "constant"
      value: 0
    }
    dilation: 1
  }
}
layer {
  name: "res2a_branch2b/bn"
  type: "BatchNorm"
  bottom: "res2a_branch2b"
  top: "res2a_branch2b/bn"
  param {
    lr_mult: 1
    decay_mult: 1
  }
  param {
    lr_mult: 1
    decay_mult: 1
  }
  param {
    lr_mult: 0
    decay_mult: 0
  }
  param {
    lr_mult: 0
    decay_mult: 0
  }
  batch_norm_param {
    moving_average_fraction: 0.99
    eps: 0.0001
    scale_filler {
      type: "constant"
      value: 1
    }
    bias_filler {
      type: "constant"
      value: 0
    }
  }
}
layer {
  name: "res2a_branch2b/relu"
  type: "ReLU"
  bottom: "res2a_branch2b/bn"
  top: "res2a_branch2b/bn"
}
layer {
  name: "pool2"
  type: "Pooling"
  bottom: "res2a_branch2b/bn"
  top: "pool2"
  pooling_param {
    pool: MAX
    kernel_size: 2
    stride: 2
  }
}
layer {
  name: "res3a_branch2a"
  type: "Convolution"
  bottom: "pool2"
  top: "res3a_branch2a"
  param {
    lr_mult: 1
    decay_mult: 1
  }
  param {
    lr_mult: 2
    decay_mult: 0
  }
  convolution_param {
    num_output: 128
    bias_term: true
    pad: 1
    kernel_size: 3
    group: 1
    stride: 1
    weight_filler {
      type: "msra"
    }
    bias_filler {
      type: "constant"
      value: 0
    }
    dilation: 1
  }
}
layer {
  name: "res3a_branch2a/bn"
  type: "BatchNorm"
  bottom: "res3a_branch2a"
  top: "res3a_branch2a/bn"
  param {
    lr_mult: 1
    decay_mult: 1
  }
  param {
    lr_mult: 1
    decay_mult: 1
  }
  param {
    lr_mult: 0
    decay_mult: 0
  }
  param {
    lr_mult: 0
    decay_mult: 0
  }
  batch_norm_param {
    moving_average_fraction: 0.99
    eps: 0.0001
    scale_filler {
      type: "constant"
      value: 1
    }
    bias_filler {
      type: "constant"
      value: 0
    }
  }
}
layer {
  name: "res3a_branch2a/relu"
  type: "ReLU"
  bottom: "res3a_branch2a/bn"
  top: "res3a_branch2a/bn"
}
layer {
  name: "res3a_branch2b"
  type: "Convolution"
  bottom: "res3a_branch2a/bn"
  top: "res3a_branch2b"
  param {
    lr_mult: 1
    decay_mult: 1
  }
  param {
    lr_mult: 2
    decay_mult: 0
  }
  convolution_param {
    num_output: 128
    bias_term: true
    pad: 1
    kernel_size: 3
    group: 4
    stride: 1
    weight_filler {
      type: "msra"
    }
    bias_filler {
      type: "constant"
      value: 0
    }
    dilation: 1
  }
}
layer {
  name: "res3a_branch2b/bn"
  type: "BatchNorm"
  bottom: "res3a_branch2b"
  top: "res3a_branch2b/bn"
  param {
    lr_mult: 1
    decay_mult: 1
  }
  param {
    lr_mult: 1
    decay_mult: 1
  }
  param {
    lr_mult: 0
    decay_mult: 0
  }
  param {
    lr_mult: 0
    decay_mult: 0
  }
  batch_norm_param {
    moving_average_fraction: 0.99
    eps: 0.0001
    scale_filler {
      type: "constant"
      value: 1
    }
    bias_filler {
      type: "constant"
      value: 0
    }
  }
}
layer {
  name: "res3a_branch2b/relu"
  type: "ReLU"
  bottom: "res3a_branch2b/bn"
  top: "res3a_branch2b/bn"
}
layer {
  name: "pool3"
  type: "Pooling"
  bottom: "res3a_branch2b/bn"
  top: "pool3"
  pooling_param {
    pool: MAX
    kernel_size: 2
    stride: 2
  }
}
layer {
  name: "res4a_branch2a"
  type: "Convolution"
  bottom: "pool3"
  top: "res4a_branch2a"
  param {
    lr_mult: 1
    decay_mult: 1
  }
  param {
    lr_mult: 2
    decay_mult: 0
  }
  convolution_param {
    num_output: 256
    bias_term: true
    pad: 1
    kernel_size: 3
    group: 1
    stride: 1
    weight_filler {
      type: "msra"
    }
    bias_filler {
      type: "constant"
      value: 0
    }
    dilation: 1
  }
}
layer {
  name: "res4a_branch2a/bn"
  type: "BatchNorm"
  bottom: "res4a_branch2a"
  top: "res4a_branch2a/bn"
  param {
    lr_mult: 1
    decay_mult: 1
  }
  param {
    lr_mult: 1
    decay_mult: 1
  }
  param {
    lr_mult: 0
    decay_mult: 0
  }
  param {
    lr_mult: 0
    decay_mult: 0
  }
  batch_norm_param {
    moving_average_fraction: 0.99
    eps: 0.0001
    scale_filler {
      type: "constant"
      value: 1
    }
    bias_filler {
      type: "constant"
      value: 0
    }
  }
}
layer {
  name: "res4a_branch2a/relu"
  type: "ReLU"
  bottom: "res4a_branch2a/bn"
  top: "res4a_branch2a/bn"
}
layer {
  name: "res4a_branch2b"
  type: "Convolution"
  bottom: "res4a_branch2a/bn"
  top: "res4a_branch2b"
  param {
    lr_mult: 1
    decay_mult: 1
  }
  param {
    lr_mult: 2
    decay_mult: 0
  }
  convolution_param {
    num_output: 256
    bias_term: true
    pad: 1
    kernel_size: 3
    group: 4
    stride: 1
    weight_filler {
      type: "msra"
    }
    bias_filler {
      type: "constant"
      value: 0
    }
    dilation: 1
  }
}
layer {
  name: "res4a_branch2b/bn"
  type: "BatchNorm"
  bottom: "res4a_branch2b"
  top: "res4a_branch2b/bn"
  param {
    lr_mult: 1
    decay_mult: 1
  }
  param {
    lr_mult: 1
    decay_mult: 1
  }
  param {
    lr_mult: 0
    decay_mult: 0
  }
  param {
    lr_mult: 0
    decay_mult: 0
  }
  batch_norm_param {
    moving_average_fraction: 0.99
    eps: 0.0001
    scale_filler {
      type: "constant"
      value: 1
    }
    bias_filler {
      type: "constant"
      value: 0
    }
  }
}
layer {
  name: "res4a_branch2b/relu"
  type: "ReLU"
  bottom: "res4a_branch2b/bn"
  top: "res4a_branch2b/bn"
}
layer {
  name: "pool4"
  type: "Pooling"
  bottom: "res4a_branch2b/bn"
  top: "pool4"
  pooling_param {
    pool: MAX
    kernel_size: 2
    stride: 2
  }
}
layer {
  name: "res5a_branch2a"
  type: "Convolution"
  bottom: "pool4"
  top: "res5a_branch2a"
  param {
    lr_mult: 1
    decay_mult: 1
  }
  param {
    lr_mult: 2
    decay_mult: 0
  }
  convolution_param {
    num_output: 512
    bias_term: true
    pad: 1
    kernel_size: 3
    group: 1
    stride: 1
    weight_filler {
      type: "msra"
    }
    bias_filler {
      type: "constant"
      value: 0
    }
    dilation: 1
  }
}
layer {
  name: "res5a_branch2a/bn"
  type: "BatchNorm"
  bottom: "res5a_branch2a"
  top: "res5a_branch2a/bn"
  param {
    lr_mult: 1
    decay_mult: 1
  }
  param {
    lr_mult: 1
    decay_mult: 1
  }
  param {
    lr_mult: 0
    decay_mult: 0
  }
  param {
    lr_mult: 0
    decay_mult: 0
  }
  batch_norm_param {
    moving_average_fraction: 0.99
    eps: 0.0001
    scale_filler {
      type: "constant"
      value: 1
    }
    bias_filler {
      type: "constant"
      value: 0
    }
  }
}
layer {
  name: "res5a_branch2a/relu"
  type: "ReLU"
  bottom: "res5a_branch2a/bn"
  top: "res5a_branch2a/bn"
}
layer {
  name: "res5a_branch2b"
  type: "Convolution"
  bottom: "res5a_branch2a/bn"
  top: "res5a_branch2b"
  param {
    lr_mult: 1
    decay_mult: 1
  }
  param {
    lr_mult: 2
    decay_mult: 0
  }
  convolution_param {
    num_output: 512
    bias_term: true
    pad: 1
    kernel_size: 3
    group: 4
    stride: 1
    weight_filler {
      type: "msra"
    }
    bias_filler {
      type: "constant"
      value: 0
    }
    dilation: 1
  }
}
layer {
  name: "res5a_branch2b/bn"
  type: "BatchNorm"
  bottom: "res5a_branch2b"
  top: "res5a_branch2b/bn"
  param {
    lr_mult: 1
    decay_mult: 1
  }
  param {
    lr_mult: 1
    decay_mult: 1
  }
  param {
    lr_mult: 0
    decay_mult: 0
  }
  param {
    lr_mult: 0
    decay_mult: 0
  }
  batch_norm_param {
    moving_average_fraction: 0.99
    eps: 0.0001
    scale_filler {
      type: "constant"
      value: 1
    }
    bias_filler {
      type: "constant"
      value: 0
    }
  }
}
layer {
  name: "res5a_branch2b/relu"
  type: "ReLU"
  bottom: "res5a_branch2b/bn"
  top: "res5a_branch2b/bn"
}
layer {
  name: "pool5"
  type: "Pooling"
  bottom: "res5a_branch2b/bn"
  top: "pool5"
  pooling_param {
    pool: AVE
    global_pooling: true
  }
}
layer {
  name: "fc1000"
  type: "InnerProduct"
  bottom: "pool5"
  top: "fc1000"
  param {
    lr_mult: 1
    decay_mult: 1
  }
  param {
    lr_mult: 2
    decay_mult: 0
  }
  inner_product_param {
    num_output: 1000
    weight_filler {
      type: "msra"
    }
    bias_filler {
      type: "constant"
      value: 0
    }
  }
}
layer {
  name: "loss"
  type: "SoftmaxWithLoss"
  bottom: "fc1000"
  bottom: "label"
  top: "loss"
  propagate_down: true
  propagate_down: false
}
layer {
  name: "accuracy/top1"
  type: "Accuracy"
  bottom: "fc1000"
  bottom: "label"
  top: "accuracy/top1"
  include {
    phase: TEST
  }
}
layer {
  name: "accuracy/top5"
  type: "Accuracy"
  bottom: "fc1000"
  bottom: "label"
  top: "accuracy/top5"
  include {
    phase: TEST
  }
  accuracy_param {
    top_k: 5
  }
}
I0701 15:16:01.468583  4775 layer_factory.hpp:77] Creating layer data
I0701 15:16:01.468639  4775 net.cpp:98] Creating Layer data
I0701 15:16:01.468644  4775 net.cpp:413] data -> data
I0701 15:16:01.468648  4775 net.cpp:413] data -> label
I0701 15:16:01.472195  4811 db_lmdb.cpp:35] Opened lmdb ./data/ilsvrc12_val_lmdb
I0701 15:16:01.474002  4775 data_layer.cpp:78] ReshapePrefetch 50, 3, 224, 224
I0701 15:16:01.474061  4775 data_layer.cpp:83] output data size: 50,3,224,224
I0701 15:16:01.505424  4775 net.cpp:148] Setting up data
I0701 15:16:01.505444  4775 net.cpp:155] Top shape: 50 3 224 224 (7526400)
I0701 15:16:01.505447  4775 net.cpp:155] Top shape: 50 (50)
I0701 15:16:01.505448  4775 net.cpp:163] Memory required for data: 30105800
I0701 15:16:01.505452  4775 layer_factory.hpp:77] Creating layer label_data_1_split
I0701 15:16:01.505461  4775 net.cpp:98] Creating Layer label_data_1_split
I0701 15:16:01.505465  4775 net.cpp:439] label_data_1_split <- label
I0701 15:16:01.505468  4775 net.cpp:413] label_data_1_split -> label_data_1_split_0
I0701 15:16:01.505473  4775 net.cpp:413] label_data_1_split -> label_data_1_split_1
I0701 15:16:01.505477  4775 net.cpp:413] label_data_1_split -> label_data_1_split_2
I0701 15:16:01.505573  4775 net.cpp:148] Setting up label_data_1_split
I0701 15:16:01.505578  4775 net.cpp:155] Top shape: 50 (50)
I0701 15:16:01.505580  4775 net.cpp:155] Top shape: 50 (50)
I0701 15:16:01.505583  4775 net.cpp:155] Top shape: 50 (50)
I0701 15:16:01.505584  4775 net.cpp:163] Memory required for data: 30106400
I0701 15:16:01.505585  4775 layer_factory.hpp:77] Creating layer data/bias
I0701 15:16:01.505590  4775 net.cpp:98] Creating Layer data/bias
I0701 15:16:01.505592  4775 net.cpp:439] data/bias <- data
I0701 15:16:01.505595  4775 net.cpp:413] data/bias -> data/bias
I0701 15:16:01.505738  4775 net.cpp:148] Setting up data/bias
I0701 15:16:01.505743  4775 net.cpp:155] Top shape: 50 3 224 224 (7526400)
I0701 15:16:01.505744  4775 net.cpp:163] Memory required for data: 60212000
I0701 15:16:01.505748  4775 layer_factory.hpp:77] Creating layer conv1a
I0701 15:16:01.505753  4775 net.cpp:98] Creating Layer conv1a
I0701 15:16:01.505756  4775 net.cpp:439] conv1a <- data/bias
I0701 15:16:01.505759  4775 net.cpp:413] conv1a -> conv1a
I0701 15:16:01.506144  4775 net.cpp:148] Setting up conv1a
I0701 15:16:01.506150  4775 net.cpp:155] Top shape: 50 32 112 112 (20070400)
I0701 15:16:01.506151  4775 net.cpp:163] Memory required for data: 140493600
I0701 15:16:01.506156  4775 layer_factory.hpp:77] Creating layer conv1a/bn
I0701 15:16:01.506160  4775 net.cpp:98] Creating Layer conv1a/bn
I0701 15:16:01.506163  4775 net.cpp:439] conv1a/bn <- conv1a
I0701 15:16:01.506166  4775 net.cpp:413] conv1a/bn -> conv1a/bn
I0701 15:16:01.507108  4775 net.cpp:148] Setting up conv1a/bn
I0701 15:16:01.507115  4775 net.cpp:155] Top shape: 50 32 112 112 (20070400)
I0701 15:16:01.507117  4775 net.cpp:163] Memory required for data: 220775200
I0701 15:16:01.507123  4775 layer_factory.hpp:77] Creating layer conv1a/relu
I0701 15:16:01.507138  4775 net.cpp:98] Creating Layer conv1a/relu
I0701 15:16:01.507140  4775 net.cpp:439] conv1a/relu <- conv1a/bn
I0701 15:16:01.507143  4775 net.cpp:400] conv1a/relu -> conv1a/bn (in-place)
I0701 15:16:01.507148  4775 net.cpp:148] Setting up conv1a/relu
I0701 15:16:01.507149  4775 net.cpp:155] Top shape: 50 32 112 112 (20070400)
I0701 15:16:01.507151  4775 net.cpp:163] Memory required for data: 301056800
I0701 15:16:01.507153  4775 layer_factory.hpp:77] Creating layer conv1b
I0701 15:16:01.507158  4775 net.cpp:98] Creating Layer conv1b
I0701 15:16:01.507160  4775 net.cpp:439] conv1b <- conv1a/bn
I0701 15:16:01.507164  4775 net.cpp:413] conv1b -> conv1b
I0701 15:16:01.509876  4775 net.cpp:148] Setting up conv1b
I0701 15:16:01.509886  4775 net.cpp:155] Top shape: 50 32 112 112 (20070400)
I0701 15:16:01.509888  4775 net.cpp:163] Memory required for data: 381338400
I0701 15:16:01.509894  4775 layer_factory.hpp:77] Creating layer conv1b/bn
I0701 15:16:01.509901  4775 net.cpp:98] Creating Layer conv1b/bn
I0701 15:16:01.509903  4775 net.cpp:439] conv1b/bn <- conv1b
I0701 15:16:01.509907  4775 net.cpp:413] conv1b/bn -> conv1b/bn
I0701 15:16:01.510908  4775 net.cpp:148] Setting up conv1b/bn
I0701 15:16:01.510916  4775 net.cpp:155] Top shape: 50 32 112 112 (20070400)
I0701 15:16:01.510921  4775 net.cpp:163] Memory required for data: 461620000
I0701 15:16:01.510931  4775 layer_factory.hpp:77] Creating layer conv1b/relu
I0701 15:16:01.510936  4775 net.cpp:98] Creating Layer conv1b/relu
I0701 15:16:01.510938  4775 net.cpp:439] conv1b/relu <- conv1b/bn
I0701 15:16:01.510942  4775 net.cpp:400] conv1b/relu -> conv1b/bn (in-place)
I0701 15:16:01.510952  4775 net.cpp:148] Setting up conv1b/relu
I0701 15:16:01.510957  4775 net.cpp:155] Top shape: 50 32 112 112 (20070400)
I0701 15:16:01.510960  4775 net.cpp:163] Memory required for data: 541901600
I0701 15:16:01.510963  4775 layer_factory.hpp:77] Creating layer pool1
I0701 15:16:01.510969  4775 net.cpp:98] Creating Layer pool1
I0701 15:16:01.510973  4775 net.cpp:439] pool1 <- conv1b/bn
I0701 15:16:01.510977  4775 net.cpp:413] pool1 -> pool1
I0701 15:16:01.511026  4775 net.cpp:148] Setting up pool1
I0701 15:16:01.511032  4775 net.cpp:155] Top shape: 50 32 56 56 (5017600)
I0701 15:16:01.511035  4775 net.cpp:163] Memory required for data: 561972000
I0701 15:16:01.511039  4775 layer_factory.hpp:77] Creating layer res2a_branch2a
I0701 15:16:01.511049  4775 net.cpp:98] Creating Layer res2a_branch2a
I0701 15:16:01.511051  4775 net.cpp:439] res2a_branch2a <- pool1
I0701 15:16:01.511056  4775 net.cpp:413] res2a_branch2a -> res2a_branch2a
I0701 15:16:01.511979  4775 net.cpp:148] Setting up res2a_branch2a
I0701 15:16:01.511989  4775 net.cpp:155] Top shape: 50 64 56 56 (10035200)
I0701 15:16:01.511992  4775 net.cpp:163] Memory required for data: 602112800
I0701 15:16:01.512001  4775 layer_factory.hpp:77] Creating layer res2a_branch2a/bn
I0701 15:16:01.512006  4775 net.cpp:98] Creating Layer res2a_branch2a/bn
I0701 15:16:01.512009  4775 net.cpp:439] res2a_branch2a/bn <- res2a_branch2a
I0701 15:16:01.512013  4775 net.cpp:413] res2a_branch2a/bn -> res2a_branch2a/bn
I0701 15:16:01.513027  4775 net.cpp:148] Setting up res2a_branch2a/bn
I0701 15:16:01.513037  4775 net.cpp:155] Top shape: 50 64 56 56 (10035200)
I0701 15:16:01.513041  4775 net.cpp:163] Memory required for data: 642253600
I0701 15:16:01.513048  4775 layer_factory.hpp:77] Creating layer res2a_branch2a/relu
I0701 15:16:01.513053  4775 net.cpp:98] Creating Layer res2a_branch2a/relu
I0701 15:16:01.513056  4775 net.cpp:439] res2a_branch2a/relu <- res2a_branch2a/bn
I0701 15:16:01.513061  4775 net.cpp:400] res2a_branch2a/relu -> res2a_branch2a/bn (in-place)
I0701 15:16:01.513065  4775 net.cpp:148] Setting up res2a_branch2a/relu
I0701 15:16:01.513069  4775 net.cpp:155] Top shape: 50 64 56 56 (10035200)
I0701 15:16:01.513073  4775 net.cpp:163] Memory required for data: 682394400
I0701 15:16:01.513077  4775 layer_factory.hpp:77] Creating layer res2a_branch2b
I0701 15:16:01.513084  4775 net.cpp:98] Creating Layer res2a_branch2b
I0701 15:16:01.513098  4775 net.cpp:439] res2a_branch2b <- res2a_branch2a/bn
I0701 15:16:01.513103  4775 net.cpp:413] res2a_branch2b -> res2a_branch2b
I0701 15:16:01.513954  4775 net.cpp:148] Setting up res2a_branch2b
I0701 15:16:01.513962  4775 net.cpp:155] Top shape: 50 64 56 56 (10035200)
I0701 15:16:01.513963  4775 net.cpp:163] Memory required for data: 722535200
I0701 15:16:01.513967  4775 layer_factory.hpp:77] Creating layer res2a_branch2b/bn
I0701 15:16:01.513972  4775 net.cpp:98] Creating Layer res2a_branch2b/bn
I0701 15:16:01.513974  4775 net.cpp:439] res2a_branch2b/bn <- res2a_branch2b
I0701 15:16:01.513978  4775 net.cpp:413] res2a_branch2b/bn -> res2a_branch2b/bn
I0701 15:16:01.514749  4775 net.cpp:148] Setting up res2a_branch2b/bn
I0701 15:16:01.514755  4775 net.cpp:155] Top shape: 50 64 56 56 (10035200)
I0701 15:16:01.514757  4775 net.cpp:163] Memory required for data: 762676000
I0701 15:16:01.514762  4775 layer_factory.hpp:77] Creating layer res2a_branch2b/relu
I0701 15:16:01.514765  4775 net.cpp:98] Creating Layer res2a_branch2b/relu
I0701 15:16:01.514768  4775 net.cpp:439] res2a_branch2b/relu <- res2a_branch2b/bn
I0701 15:16:01.514770  4775 net.cpp:400] res2a_branch2b/relu -> res2a_branch2b/bn (in-place)
I0701 15:16:01.514775  4775 net.cpp:148] Setting up res2a_branch2b/relu
I0701 15:16:01.514777  4775 net.cpp:155] Top shape: 50 64 56 56 (10035200)
I0701 15:16:01.514780  4775 net.cpp:163] Memory required for data: 802816800
I0701 15:16:01.514782  4775 layer_factory.hpp:77] Creating layer pool2
I0701 15:16:01.514786  4775 net.cpp:98] Creating Layer pool2
I0701 15:16:01.514788  4775 net.cpp:439] pool2 <- res2a_branch2b/bn
I0701 15:16:01.514791  4775 net.cpp:413] pool2 -> pool2
I0701 15:16:01.514833  4775 net.cpp:148] Setting up pool2
I0701 15:16:01.514838  4775 net.cpp:155] Top shape: 50 64 28 28 (2508800)
I0701 15:16:01.514839  4775 net.cpp:163] Memory required for data: 812852000
I0701 15:16:01.514842  4775 layer_factory.hpp:77] Creating layer res3a_branch2a
I0701 15:16:01.514847  4775 net.cpp:98] Creating Layer res3a_branch2a
I0701 15:16:01.514848  4775 net.cpp:439] res3a_branch2a <- pool2
I0701 15:16:01.514853  4775 net.cpp:413] res3a_branch2a -> res3a_branch2a
I0701 15:16:01.517570  4775 net.cpp:148] Setting up res3a_branch2a
I0701 15:16:01.517580  4775 net.cpp:155] Top shape: 50 128 28 28 (5017600)
I0701 15:16:01.517582  4775 net.cpp:163] Memory required for data: 832922400
I0701 15:16:01.517586  4775 layer_factory.hpp:77] Creating layer res3a_branch2a/bn
I0701 15:16:01.517592  4775 net.cpp:98] Creating Layer res3a_branch2a/bn
I0701 15:16:01.517596  4775 net.cpp:439] res3a_branch2a/bn <- res3a_branch2a
I0701 15:16:01.517599  4775 net.cpp:413] res3a_branch2a/bn -> res3a_branch2a/bn
I0701 15:16:01.518313  4775 net.cpp:148] Setting up res3a_branch2a/bn
I0701 15:16:01.518319  4775 net.cpp:155] Top shape: 50 128 28 28 (5017600)
I0701 15:16:01.518321  4775 net.cpp:163] Memory required for data: 852992800
I0701 15:16:01.518327  4775 layer_factory.hpp:77] Creating layer res3a_branch2a/relu
I0701 15:16:01.518334  4775 net.cpp:98] Creating Layer res3a_branch2a/relu
I0701 15:16:01.518337  4775 net.cpp:439] res3a_branch2a/relu <- res3a_branch2a/bn
I0701 15:16:01.518340  4775 net.cpp:400] res3a_branch2a/relu -> res3a_branch2a/bn (in-place)
I0701 15:16:01.518343  4775 net.cpp:148] Setting up res3a_branch2a/relu
I0701 15:16:01.518347  4775 net.cpp:155] Top shape: 50 128 28 28 (5017600)
I0701 15:16:01.518348  4775 net.cpp:163] Memory required for data: 873063200
I0701 15:16:01.518350  4775 layer_factory.hpp:77] Creating layer res3a_branch2b
I0701 15:16:01.518355  4775 net.cpp:98] Creating Layer res3a_branch2b
I0701 15:16:01.518358  4775 net.cpp:439] res3a_branch2b <- res3a_branch2a/bn
I0701 15:16:01.518360  4775 net.cpp:413] res3a_branch2b -> res3a_branch2b
I0701 15:16:01.519407  4775 net.cpp:148] Setting up res3a_branch2b
I0701 15:16:01.519412  4775 net.cpp:155] Top shape: 50 128 28 28 (5017600)
I0701 15:16:01.519414  4775 net.cpp:163] Memory required for data: 893133600
I0701 15:16:01.519426  4775 layer_factory.hpp:77] Creating layer res3a_branch2b/bn
I0701 15:16:01.519430  4775 net.cpp:98] Creating Layer res3a_branch2b/bn
I0701 15:16:01.519433  4775 net.cpp:439] res3a_branch2b/bn <- res3a_branch2b
I0701 15:16:01.519435  4775 net.cpp:413] res3a_branch2b/bn -> res3a_branch2b/bn
I0701 15:16:01.520128  4775 net.cpp:148] Setting up res3a_branch2b/bn
I0701 15:16:01.520133  4775 net.cpp:155] Top shape: 50 128 28 28 (5017600)
I0701 15:16:01.520135  4775 net.cpp:163] Memory required for data: 913204000
I0701 15:16:01.520145  4775 layer_factory.hpp:77] Creating layer res3a_branch2b/relu
I0701 15:16:01.520149  4775 net.cpp:98] Creating Layer res3a_branch2b/relu
I0701 15:16:01.520151  4775 net.cpp:439] res3a_branch2b/relu <- res3a_branch2b/bn
I0701 15:16:01.520154  4775 net.cpp:400] res3a_branch2b/relu -> res3a_branch2b/bn (in-place)
I0701 15:16:01.520159  4775 net.cpp:148] Setting up res3a_branch2b/relu
I0701 15:16:01.520161  4775 net.cpp:155] Top shape: 50 128 28 28 (5017600)
I0701 15:16:01.520164  4775 net.cpp:163] Memory required for data: 933274400
I0701 15:16:01.520165  4775 layer_factory.hpp:77] Creating layer pool3
I0701 15:16:01.520169  4775 net.cpp:98] Creating Layer pool3
I0701 15:16:01.520170  4775 net.cpp:439] pool3 <- res3a_branch2b/bn
I0701 15:16:01.520174  4775 net.cpp:413] pool3 -> pool3
I0701 15:16:01.520215  4775 net.cpp:148] Setting up pool3
I0701 15:16:01.520218  4775 net.cpp:155] Top shape: 50 128 14 14 (1254400)
I0701 15:16:01.520220  4775 net.cpp:163] Memory required for data: 938292000
I0701 15:16:01.520222  4775 layer_factory.hpp:77] Creating layer res4a_branch2a
I0701 15:16:01.520226  4775 net.cpp:98] Creating Layer res4a_branch2a
I0701 15:16:01.520229  4775 net.cpp:439] res4a_branch2a <- pool3
I0701 15:16:01.520232  4775 net.cpp:413] res4a_branch2a -> res4a_branch2a
I0701 15:16:01.526293  4775 net.cpp:148] Setting up res4a_branch2a
I0701 15:16:01.526299  4775 net.cpp:155] Top shape: 50 256 14 14 (2508800)
I0701 15:16:01.526301  4775 net.cpp:163] Memory required for data: 948327200
I0701 15:16:01.526304  4775 layer_factory.hpp:77] Creating layer res4a_branch2a/bn
I0701 15:16:01.526309  4775 net.cpp:98] Creating Layer res4a_branch2a/bn
I0701 15:16:01.526311  4775 net.cpp:439] res4a_branch2a/bn <- res4a_branch2a
I0701 15:16:01.526316  4775 net.cpp:413] res4a_branch2a/bn -> res4a_branch2a/bn
I0701 15:16:01.527052  4775 net.cpp:148] Setting up res4a_branch2a/bn
I0701 15:16:01.527058  4775 net.cpp:155] Top shape: 50 256 14 14 (2508800)
I0701 15:16:01.527061  4775 net.cpp:163] Memory required for data: 958362400
I0701 15:16:01.527066  4775 layer_factory.hpp:77] Creating layer res4a_branch2a/relu
I0701 15:16:01.527070  4775 net.cpp:98] Creating Layer res4a_branch2a/relu
I0701 15:16:01.527072  4775 net.cpp:439] res4a_branch2a/relu <- res4a_branch2a/bn
I0701 15:16:01.527074  4775 net.cpp:400] res4a_branch2a/relu -> res4a_branch2a/bn (in-place)
I0701 15:16:01.527079  4775 net.cpp:148] Setting up res4a_branch2a/relu
I0701 15:16:01.527082  4775 net.cpp:155] Top shape: 50 256 14 14 (2508800)
I0701 15:16:01.527083  4775 net.cpp:163] Memory required for data: 968397600
I0701 15:16:01.527086  4775 layer_factory.hpp:77] Creating layer res4a_branch2b
I0701 15:16:01.527089  4775 net.cpp:98] Creating Layer res4a_branch2b
I0701 15:16:01.527091  4775 net.cpp:439] res4a_branch2b <- res4a_branch2a/bn
I0701 15:16:01.527094  4775 net.cpp:413] res4a_branch2b -> res4a_branch2b
I0701 15:16:01.530280  4775 net.cpp:148] Setting up res4a_branch2b
I0701 15:16:01.530287  4775 net.cpp:155] Top shape: 50 256 14 14 (2508800)
I0701 15:16:01.530288  4775 net.cpp:163] Memory required for data: 978432800
I0701 15:16:01.530292  4775 layer_factory.hpp:77] Creating layer res4a_branch2b/bn
I0701 15:16:01.530295  4775 net.cpp:98] Creating Layer res4a_branch2b/bn
I0701 15:16:01.530297  4775 net.cpp:439] res4a_branch2b/bn <- res4a_branch2b
I0701 15:16:01.530300  4775 net.cpp:413] res4a_branch2b/bn -> res4a_branch2b/bn
I0701 15:16:01.530982  4775 net.cpp:148] Setting up res4a_branch2b/bn
I0701 15:16:01.530987  4775 net.cpp:155] Top shape: 50 256 14 14 (2508800)
I0701 15:16:01.530997  4775 net.cpp:163] Memory required for data: 988468000
I0701 15:16:01.531002  4775 layer_factory.hpp:77] Creating layer res4a_branch2b/relu
I0701 15:16:01.531005  4775 net.cpp:98] Creating Layer res4a_branch2b/relu
I0701 15:16:01.531008  4775 net.cpp:439] res4a_branch2b/relu <- res4a_branch2b/bn
I0701 15:16:01.531010  4775 net.cpp:400] res4a_branch2b/relu -> res4a_branch2b/bn (in-place)
I0701 15:16:01.531014  4775 net.cpp:148] Setting up res4a_branch2b/relu
I0701 15:16:01.531018  4775 net.cpp:155] Top shape: 50 256 14 14 (2508800)
I0701 15:16:01.531019  4775 net.cpp:163] Memory required for data: 998503200
I0701 15:16:01.531021  4775 layer_factory.hpp:77] Creating layer pool4
I0701 15:16:01.531024  4775 net.cpp:98] Creating Layer pool4
I0701 15:16:01.531026  4775 net.cpp:439] pool4 <- res4a_branch2b/bn
I0701 15:16:01.531029  4775 net.cpp:413] pool4 -> pool4
I0701 15:16:01.531071  4775 net.cpp:148] Setting up pool4
I0701 15:16:01.531075  4775 net.cpp:155] Top shape: 50 256 7 7 (627200)
I0701 15:16:01.531076  4775 net.cpp:163] Memory required for data: 1001012000
I0701 15:16:01.531078  4775 layer_factory.hpp:77] Creating layer res5a_branch2a
I0701 15:16:01.531082  4775 net.cpp:98] Creating Layer res5a_branch2a
I0701 15:16:01.531085  4775 net.cpp:439] res5a_branch2a <- pool4
I0701 15:16:01.531087  4775 net.cpp:413] res5a_branch2a -> res5a_branch2a
I0701 15:16:01.555760  4775 net.cpp:148] Setting up res5a_branch2a
I0701 15:16:01.555780  4775 net.cpp:155] Top shape: 50 512 7 7 (1254400)
I0701 15:16:01.555783  4775 net.cpp:163] Memory required for data: 1006029600
I0701 15:16:01.555788  4775 layer_factory.hpp:77] Creating layer res5a_branch2a/bn
I0701 15:16:01.555796  4775 net.cpp:98] Creating Layer res5a_branch2a/bn
I0701 15:16:01.555800  4775 net.cpp:439] res5a_branch2a/bn <- res5a_branch2a
I0701 15:16:01.555804  4775 net.cpp:413] res5a_branch2a/bn -> res5a_branch2a/bn
I0701 15:16:01.556535  4775 net.cpp:148] Setting up res5a_branch2a/bn
I0701 15:16:01.556541  4775 net.cpp:155] Top shape: 50 512 7 7 (1254400)
I0701 15:16:01.556545  4775 net.cpp:163] Memory required for data: 1011047200
I0701 15:16:01.556550  4775 layer_factory.hpp:77] Creating layer res5a_branch2a/relu
I0701 15:16:01.556552  4775 net.cpp:98] Creating Layer res5a_branch2a/relu
I0701 15:16:01.556555  4775 net.cpp:439] res5a_branch2a/relu <- res5a_branch2a/bn
I0701 15:16:01.556558  4775 net.cpp:400] res5a_branch2a/relu -> res5a_branch2a/bn (in-place)
I0701 15:16:01.556562  4775 net.cpp:148] Setting up res5a_branch2a/relu
I0701 15:16:01.556565  4775 net.cpp:155] Top shape: 50 512 7 7 (1254400)
I0701 15:16:01.556567  4775 net.cpp:163] Memory required for data: 1016064800
I0701 15:16:01.556569  4775 layer_factory.hpp:77] Creating layer res5a_branch2b
I0701 15:16:01.556576  4775 net.cpp:98] Creating Layer res5a_branch2b
I0701 15:16:01.556578  4775 net.cpp:439] res5a_branch2b <- res5a_branch2a/bn
I0701 15:16:01.556581  4775 net.cpp:413] res5a_branch2b -> res5a_branch2b
I0701 15:16:01.569463  4775 net.cpp:148] Setting up res5a_branch2b
I0701 15:16:01.569483  4775 net.cpp:155] Top shape: 50 512 7 7 (1254400)
I0701 15:16:01.569484  4775 net.cpp:163] Memory required for data: 1021082400
I0701 15:16:01.569492  4775 layer_factory.hpp:77] Creating layer res5a_branch2b/bn
I0701 15:16:01.569499  4775 net.cpp:98] Creating Layer res5a_branch2b/bn
I0701 15:16:01.569504  4775 net.cpp:439] res5a_branch2b/bn <- res5a_branch2b
I0701 15:16:01.569507  4775 net.cpp:413] res5a_branch2b/bn -> res5a_branch2b/bn
I0701 15:16:01.570245  4775 net.cpp:148] Setting up res5a_branch2b/bn
I0701 15:16:01.570250  4775 net.cpp:155] Top shape: 50 512 7 7 (1254400)
I0701 15:16:01.570253  4775 net.cpp:163] Memory required for data: 1026100000
I0701 15:16:01.570258  4775 layer_factory.hpp:77] Creating layer res5a_branch2b/relu
I0701 15:16:01.570262  4775 net.cpp:98] Creating Layer res5a_branch2b/relu
I0701 15:16:01.570266  4775 net.cpp:439] res5a_branch2b/relu <- res5a_branch2b/bn
I0701 15:16:01.570267  4775 net.cpp:400] res5a_branch2b/relu -> res5a_branch2b/bn (in-place)
I0701 15:16:01.570281  4775 net.cpp:148] Setting up res5a_branch2b/relu
I0701 15:16:01.570286  4775 net.cpp:155] Top shape: 50 512 7 7 (1254400)
I0701 15:16:01.570286  4775 net.cpp:163] Memory required for data: 1031117600
I0701 15:16:01.570289  4775 layer_factory.hpp:77] Creating layer pool5
I0701 15:16:01.570293  4775 net.cpp:98] Creating Layer pool5
I0701 15:16:01.570296  4775 net.cpp:439] pool5 <- res5a_branch2b/bn
I0701 15:16:01.570298  4775 net.cpp:413] pool5 -> pool5
I0701 15:16:01.570323  4775 net.cpp:148] Setting up pool5
I0701 15:16:01.570327  4775 net.cpp:155] Top shape: 50 512 1 1 (25600)
I0701 15:16:01.570329  4775 net.cpp:163] Memory required for data: 1031220000
I0701 15:16:01.570332  4775 layer_factory.hpp:77] Creating layer fc1000
I0701 15:16:01.570335  4775 net.cpp:98] Creating Layer fc1000
I0701 15:16:01.570338  4775 net.cpp:439] fc1000 <- pool5
I0701 15:16:01.570341  4775 net.cpp:413] fc1000 -> fc1000
I0701 15:16:01.581374  4775 net.cpp:148] Setting up fc1000
I0701 15:16:01.581387  4775 net.cpp:155] Top shape: 50 1000 (50000)
I0701 15:16:01.581389  4775 net.cpp:163] Memory required for data: 1031420000
I0701 15:16:01.581393  4775 layer_factory.hpp:77] Creating layer fc1000_fc1000_0_split
I0701 15:16:01.581398  4775 net.cpp:98] Creating Layer fc1000_fc1000_0_split
I0701 15:16:01.581403  4775 net.cpp:439] fc1000_fc1000_0_split <- fc1000
I0701 15:16:01.581405  4775 net.cpp:413] fc1000_fc1000_0_split -> fc1000_fc1000_0_split_0
I0701 15:16:01.581410  4775 net.cpp:413] fc1000_fc1000_0_split -> fc1000_fc1000_0_split_1
I0701 15:16:01.581414  4775 net.cpp:413] fc1000_fc1000_0_split -> fc1000_fc1000_0_split_2
I0701 15:16:01.581476  4775 net.cpp:148] Setting up fc1000_fc1000_0_split
I0701 15:16:01.581480  4775 net.cpp:155] Top shape: 50 1000 (50000)
I0701 15:16:01.581482  4775 net.cpp:155] Top shape: 50 1000 (50000)
I0701 15:16:01.581485  4775 net.cpp:155] Top shape: 50 1000 (50000)
I0701 15:16:01.581486  4775 net.cpp:163] Memory required for data: 1032020000
I0701 15:16:01.581490  4775 layer_factory.hpp:77] Creating layer loss
I0701 15:16:01.581492  4775 net.cpp:98] Creating Layer loss
I0701 15:16:01.581496  4775 net.cpp:439] loss <- fc1000_fc1000_0_split_0
I0701 15:16:01.581498  4775 net.cpp:439] loss <- label_data_1_split_0
I0701 15:16:01.581501  4775 net.cpp:413] loss -> loss
…
