…
I0705 21:32:54.215564  9455 net.cpp:327] The NetState phase (0) differed from the phase (1) specified by a rule in layer accuracy/top5
I0705 21:32:54.215721  9455 net.cpp:56] Initializing net from parameters: 
name: "jacintonet11v2_train"
state {
  phase: TRAIN
}
layer {
  name: "data"
  type: "Data"
  top: "data"
  top: "label"
  transform_param {
    mirror: true
    crop_size: 224
    mean_value: 0
    mean_value: 0
    mean_value: 0
  }
  data_param {
    source: "./data/ilsvrc12_train_lmdb"
    batch_size: 42
    backend: LMDB
    threads: 1
  }
}
layer {
  name: "data/bias"
  type: "Bias"
  bottom: "data"
  top: "data/bias"
  param {
    lr_mult: 0
    decay_mult: 0
  }
  bias_param {
    filler {
      type: "constant"
      value: -128
    }
  }
}
layer {
  name: "conv1a"
  type: "Convolution"
  bottom: "data/bias"
  top: "conv1a"
  param {
    lr_mult: 1
    decay_mult: 1
  }
  param {
    lr_mult: 2
    decay_mult: 0
  }
  convolution_param {
    num_output: 32
    bias_term: true
    pad: 2
    kernel_size: 5
    group: 1
    stride: 2
    weight_filler {
      type: "msra"
    }
    bias_filler {
      type: "constant"
      value: 0
    }
    dilation: 1
  }
}
layer {
  name: "conv1a/bn"
  type: "BatchNorm"
  bottom: "conv1a"
  top: "conv1a/bn"
  param {
    lr_mult: 1
    decay_mult: 1
  }
  param {
    lr_mult: 1
    decay_mult: 1
  }
  param {
    lr_mult: 0
    decay_mult: 0
  }
  param {
    lr_mult: 0
    decay_mult: 0
  }
  batch_norm_param {
    moving_average_fraction: 0.99
    eps: 0.0001
    scale_filler {
      type: "constant"
      value: 1
    }
    bias_filler {
      type: "constant"
      value: 0
    }
  }
}
layer {
  name: "conv1a/relu"
  type: "ReLU"
  bottom: "conv1a/bn"
  top: "conv1a/bn"
}
layer {
  name: "conv1b"
  type: "Convolution"
  bottom: "conv1a/bn"
  top: "conv1b"
  param {
    lr_mult: 1
    decay_mult: 1
  }
  param {
    lr_mult: 2
    decay_mult: 0
  }
  convolution_param {
    num_output: 32
    bias_term: true
    pad: 1
    kernel_size: 3
    group: 4
    stride: 1
    weight_filler {
      type: "msra"
    }
    bias_filler {
      type: "constant"
      value: 0
    }
    dilation: 1
  }
}
layer {
  name: "conv1b/bn"
  type: "BatchNorm"
  bottom: "conv1b"
  top: "conv1b/bn"
  param {
    lr_mult: 1
    decay_mult: 1
  }
  param {
    lr_mult: 1
    decay_mult: 1
  }
  param {
    lr_mult: 0
    decay_mult: 0
  }
  param {
    lr_mult: 0
    decay_mult: 0
  }
  batch_norm_param {
    moving_average_fraction: 0.99
    eps: 0.0001
    scale_filler {
      type: "constant"
      value: 1
    }
    bias_filler {
      type: "constant"
      value: 0
    }
  }
}
layer {
  name: "conv1b/relu"
  type: "ReLU"
  bottom: "conv1b/bn"
  top: "conv1b/bn"
}
layer {
  name: "pool1"
  type: "Pooling"
  bottom: "conv1b/bn"
  top: "pool1"
  pooling_param {
    pool: MAX
    kernel_size: 2
    stride: 2
  }
}
layer {
  name: "res2a_branch2a"
  type: "Convolution"
  bottom: "pool1"
  top: "res2a_branch2a"
  param {
    lr_mult: 1
    decay_mult: 1
  }
  param {
    lr_mult: 2
    decay_mult: 0
  }
  convolution_param {
    num_output: 64
    bias_term: true
    pad: 1
    kernel_size: 3
    group: 1
    stride: 1
    weight_filler {
      type: "msra"
    }
    bias_filler {
      type: "constant"
      value: 0
    }
    dilation: 1
  }
}
layer {
  name: "res2a_branch2a/bn"
  type: "BatchNorm"
  bottom: "res2a_branch2a"
  top: "res2a_branch2a/bn"
  param {
    lr_mult: 1
    decay_mult: 1
  }
  param {
    lr_mult: 1
    decay_mult: 1
  }
  param {
    lr_mult: 0
    decay_mult: 0
  }
  param {
    lr_mult: 0
    decay_mult: 0
  }
  batch_norm_param {
    moving_average_fraction: 0.99
    eps: 0.0001
    scale_filler {
      type: "constant"
      value: 1
    }
    bias_filler {
      type: "constant"
      value: 0
    }
  }
}
layer {
  name: "res2a_branch2a/relu"
  type: "ReLU"
  bottom: "res2a_branch2a/bn"
  top: "res2a_branch2a/bn"
}
layer {
  name: "res2a_branch2b"
  type: "Convolution"
  bottom: "res2a_branch2a/bn"
  top: "res2a_branch2b"
  param {
    lr_mult: 1
    decay_mult: 1
  }
  param {
    lr_mult: 2
    decay_mult: 0
  }
  convolution_param {
    num_output: 64
    bias_term: true
    pad: 1
    kernel_size: 3
    group: 4
    stride: 1
    weight_filler {
      type: "msra"
    }
    bias_filler {
      type: "constant"
      value: 0
    }
    dilation: 1
  }
}
layer {
  name: "res2a_branch2b/bn"
  type: "BatchNorm"
  bottom: "res2a_branch2b"
  top: "res2a_branch2b/bn"
  param {
    lr_mult: 1
    decay_mult: 1
  }
  param {
    lr_mult: 1
    decay_mult: 1
  }
  param {
    lr_mult: 0
    decay_mult: 0
  }
  param {
    lr_mult: 0
    decay_mult: 0
  }
  batch_norm_param {
    moving_average_fraction: 0.99
    eps: 0.0001
    scale_filler {
      type: "constant"
      value: 1
    }
    bias_filler {
      type: "constant"
      value: 0
    }
  }
}
layer {
  name: "res2a_branch2b/relu"
  type: "ReLU"
  bottom: "res2a_branch2b/bn"
  top: "res2a_branch2b/bn"
}
layer {
  name: "pool2"
  type: "Pooling"
  bottom: "res2a_branch2b/bn"
  top: "pool2"
  pooling_param {
    pool: MAX
    kernel_size: 2
    stride: 2
  }
}
layer {
  name: "res3a_branch2a"
  type: "Convolution"
  bottom: "pool2"
  top: "res3a_branch2a"
  param {
    lr_mult: 1
    decay_mult: 1
  }
  param {
    lr_mult: 2
    decay_mult: 0
  }
  convolution_param {
    num_output: 128
    bias_term: true
    pad: 1
    kernel_size: 3
    group: 1
    stride: 1
    weight_filler {
      type: "msra"
    }
    bias_filler {
      type: "constant"
      value: 0
    }
    dilation: 1
  }
}
layer {
  name: "res3a_branch2a/bn"
  type: "BatchNorm"
  bottom: "res3a_branch2a"
  top: "res3a_branch2a/bn"
  param {
    lr_mult: 1
    decay_mult: 1
  }
  param {
    lr_mult: 1
    decay_mult: 1
  }
  param {
    lr_mult: 0
    decay_mult: 0
  }
  param {
    lr_mult: 0
    decay_mult: 0
  }
  batch_norm_param {
    moving_average_fraction: 0.99
    eps: 0.0001
    scale_filler {
      type: "constant"
      value: 1
    }
    bias_filler {
      type: "constant"
      value: 0
    }
  }
}
layer {
  name: "res3a_branch2a/relu"
  type: "ReLU"
  bottom: "res3a_branch2a/bn"
  top: "res3a_branch2a/bn"
}
layer {
  name: "res3a_branch2b"
  type: "Convolution"
  bottom: "res3a_branch2a/bn"
  top: "res3a_branch2b"
  param {
    lr_mult: 1
    decay_mult: 1
  }
  param {
    lr_mult: 2
    decay_mult: 0
  }
  convolution_param {
    num_output: 128
    bias_term: true
    pad: 1
    kernel_size: 3
    group: 4
    stride: 1
    weight_filler {
      type: "msra"
    }
    bias_filler {
      type: "constant"
      value: 0
    }
    dilation: 1
  }
}
layer {
  name: "res3a_branch2b/bn"
  type: "BatchNorm"
  bottom: "res3a_branch2b"
  top: "res3a_branch2b/bn"
  param {
    lr_mult: 1
    decay_mult: 1
  }
  param {
    lr_mult: 1
    decay_mult: 1
  }
  param {
    lr_mult: 0
    decay_mult: 0
  }
  param {
    lr_mult: 0
    decay_mult: 0
  }
  batch_norm_param {
    moving_average_fraction: 0.99
    eps: 0.0001
    scale_filler {
      type: "constant"
      value: 1
    }
    bias_filler {
      type: "constant"
      value: 0
    }
  }
}
layer {
  name: "res3a_branch2b/relu"
  type: "ReLU"
  bottom: "res3a_branch2b/bn"
  top: "res3a_branch2b/bn"
}
layer {
  name: "pool3"
  type: "Pooling"
  bottom: "res3a_branch2b/bn"
  top: "pool3"
  pooling_param {
    pool: MAX
    kernel_size: 2
    stride: 2
  }
}
layer {
  name: "res4a_branch2a"
  type: "Convolution"
  bottom: "pool3"
  top: "res4a_branch2a"
  param {
    lr_mult: 1
    decay_mult: 1
  }
  param {
    lr_mult: 2
    decay_mult: 0
  }
  convolution_param {
    num_output: 256
    bias_term: true
    pad: 1
    kernel_size: 3
    group: 1
    stride: 1
    weight_filler {
      type: "msra"
    }
    bias_filler {
      type: "constant"
      value: 0
    }
    dilation: 1
  }
}
layer {
  name: "res4a_branch2a/bn"
  type: "BatchNorm"
  bottom: "res4a_branch2a"
  top: "res4a_branch2a/bn"
  param {
    lr_mult: 1
    decay_mult: 1
  }
  param {
    lr_mult: 1
    decay_mult: 1
  }
  param {
    lr_mult: 0
    decay_mult: 0
  }
  param {
    lr_mult: 0
    decay_mult: 0
  }
  batch_norm_param {
    moving_average_fraction: 0.99
    eps: 0.0001
    scale_filler {
      type: "constant"
      value: 1
    }
    bias_filler {
      type: "constant"
      value: 0
    }
  }
}
layer {
  name: "res4a_branch2a/relu"
  type: "ReLU"
  bottom: "res4a_branch2a/bn"
  top: "res4a_branch2a/bn"
}
layer {
  name: "res4a_branch2b"
  type: "Convolution"
  bottom: "res4a_branch2a/bn"
  top: "res4a_branch2b"
  param {
    lr_mult: 1
    decay_mult: 1
  }
  param {
    lr_mult: 2
    decay_mult: 0
  }
  convolution_param {
    num_output: 256
    bias_term: true
    pad: 1
    kernel_size: 3
    group: 4
    stride: 1
    weight_filler {
      type: "msra"
    }
    bias_filler {
      type: "constant"
      value: 0
    }
    dilation: 1
  }
}
layer {
  name: "res4a_branch2b/bn"
  type: "BatchNorm"
  bottom: "res4a_branch2b"
  top: "res4a_branch2b/bn"
  param {
    lr_mult: 1
    decay_mult: 1
  }
  param {
    lr_mult: 1
    decay_mult: 1
  }
  param {
    lr_mult: 0
    decay_mult: 0
  }
  param {
    lr_mult: 0
    decay_mult: 0
  }
  batch_norm_param {
    moving_average_fraction: 0.99
    eps: 0.0001
    scale_filler {
      type: "constant"
      value: 1
    }
    bias_filler {
      type: "constant"
      value: 0
    }
  }
}
layer {
  name: "res4a_branch2b/relu"
  type: "ReLU"
  bottom: "res4a_branch2b/bn"
  top: "res4a_branch2b/bn"
}
layer {
  name: "pool4"
  type: "Pooling"
  bottom: "res4a_branch2b/bn"
  top: "pool4"
  pooling_param {
    pool: MAX
    kernel_size: 2
    stride: 2
  }
}
layer {
  name: "res5a_branch2a"
  type: "Convolution"
  bottom: "pool4"
  top: "res5a_branch2a"
  param {
    lr_mult: 1
    decay_mult: 1
  }
  param {
    lr_mult: 2
    decay_mult: 0
  }
  convolution_param {
    num_output: 512
    bias_term: true
    pad: 1
    kernel_size: 3
    group: 1
    stride: 1
    weight_filler {
      type: "msra"
    }
    bias_filler {
      type: "constant"
      value: 0
    }
    dilation: 1
  }
}
layer {
  name: "res5a_branch2a/bn"
  type: "BatchNorm"
  bottom: "res5a_branch2a"
  top: "res5a_branch2a/bn"
  param {
    lr_mult: 1
    decay_mult: 1
  }
  param {
    lr_mult: 1
    decay_mult: 1
  }
  param {
    lr_mult: 0
    decay_mult: 0
  }
  param {
    lr_mult: 0
    decay_mult: 0
  }
  batch_norm_param {
    moving_average_fraction: 0.99
    eps: 0.0001
    scale_filler {
      type: "constant"
      value: 1
    }
    bias_filler {
      type: "constant"
      value: 0
    }
  }
}
layer {
  name: "res5a_branch2a/relu"
  type: "ReLU"
  bottom: "res5a_branch2a/bn"
  top: "res5a_branch2a/bn"
}
layer {
  name: "res5a_branch2b"
  type: "Convolution"
  bottom: "res5a_branch2a/bn"
  top: "res5a_branch2b"
  param {
    lr_mult: 1
    decay_mult: 1
  }
  param {
    lr_mult: 2
    decay_mult: 0
  }
  convolution_param {
    num_output: 512
    bias_term: true
    pad: 1
    kernel_size: 3
    group: 4
    stride: 1
    weight_filler {
      type: "msra"
    }
    bias_filler {
      type: "constant"
      value: 0
    }
    dilation: 1
  }
}
layer {
  name: "res5a_branch2b/bn"
  type: "BatchNorm"
  bottom: "res5a_branch2b"
  top: "res5a_branch2b/bn"
  param {
    lr_mult: 1
    decay_mult: 1
  }
  param {
    lr_mult: 1
    decay_mult: 1
  }
  param {
    lr_mult: 0
    decay_mult: 0
  }
  param {
    lr_mult: 0
    decay_mult: 0
  }
  batch_norm_param {
    moving_average_fraction: 0.99
    eps: 0.0001
    scale_filler {
      type: "constant"
      value: 1
    }
    bias_filler {
      type: "constant"
      value: 0
    }
  }
}
layer {
  name: "res5a_branch2b/relu"
  type: "ReLU"
  bottom: "res5a_branch2b/bn"
  top: "res5a_branch2b/bn"
}
layer {
  name: "pool5"
  type: "Pooling"
  bottom: "res5a_branch2b/bn"
  top: "pool5"
  pooling_param {
    pool: AVE
    global_pooling: true
  }
}
layer {
  name: "fc1000"
  type: "InnerProduct"
  bottom: "pool5"
  top: "fc1000"
  param {
    lr_mult: 1
    decay_mult: 1
  }
  param {
    lr_mult: 2
    decay_mult: 0
  }
  inner_product_param {
    num_output: 1000
    weight_filler {
      type: "msra"
    }
    bias_filler {
      type: "constant"
      value: 0
    }
  }
}
layer {
  name: "loss"
  type: "SoftmaxWithLoss"
  bottom: "fc1000"
  bottom: "label"
  top: "loss"
  propagate_down: true
  propagate_down: false
}
I0705 21:32:54.215813  9455 layer_factory.hpp:77] Creating layer data
I0705 21:32:54.215899  9455 net.cpp:98] Creating Layer data
I0705 21:32:54.215906  9455 net.cpp:413] data -> data
I0705 21:32:54.215936  9455 net.cpp:413] data -> label
I0705 21:32:54.216982  9480 db_lmdb.cpp:35] Opened lmdb ./data/ilsvrc12_train_lmdb
I0705 21:32:54.240156  9455 data_layer.cpp:78] ReshapePrefetch 42, 3, 224, 224
I0705 21:32:54.240219  9455 data_layer.cpp:83] output data size: 42,3,224,224
I0705 21:32:54.266674  9455 net.cpp:148] Setting up data
I0705 21:32:54.266693  9455 net.cpp:155] Top shape: 42 3 224 224 (6322176)
I0705 21:32:54.266697  9455 net.cpp:155] Top shape: 42 (42)
I0705 21:32:54.266700  9455 net.cpp:163] Memory required for data: 25288872
I0705 21:32:54.266705  9455 layer_factory.hpp:77] Creating layer data/bias
I0705 21:32:54.266717  9455 net.cpp:98] Creating Layer data/bias
I0705 21:32:54.266721  9455 net.cpp:439] data/bias <- data
I0705 21:32:54.266728  9455 net.cpp:413] data/bias -> data/bias
I0705 21:32:54.267772  9455 net.cpp:148] Setting up data/bias
I0705 21:32:54.267782  9455 net.cpp:155] Top shape: 42 3 224 224 (6322176)
I0705 21:32:54.267786  9455 net.cpp:163] Memory required for data: 50577576
I0705 21:32:54.267794  9455 layer_factory.hpp:77] Creating layer conv1a
I0705 21:32:54.267805  9455 net.cpp:98] Creating Layer conv1a
I0705 21:32:54.267808  9455 net.cpp:439] conv1a <- data/bias
I0705 21:32:54.267812  9455 net.cpp:413] conv1a -> conv1a
I0705 21:32:54.270689  9482 blocking_queue.cpp:50] Waiting for data
I0705 21:32:54.271997  9455 net.cpp:148] Setting up conv1a
I0705 21:32:54.272008  9455 net.cpp:155] Top shape: 42 32 112 112 (16859136)
I0705 21:32:54.272011  9455 net.cpp:163] Memory required for data: 118014120
I0705 21:32:54.272018  9455 layer_factory.hpp:77] Creating layer conv1a/bn
I0705 21:32:54.272029  9455 net.cpp:98] Creating Layer conv1a/bn
I0705 21:32:54.272035  9455 net.cpp:439] conv1a/bn <- conv1a
I0705 21:32:54.272042  9455 net.cpp:413] conv1a/bn -> conv1a/bn
I0705 21:32:54.272754  9455 net.cpp:148] Setting up conv1a/bn
I0705 21:32:54.272763  9455 net.cpp:155] Top shape: 42 32 112 112 (16859136)
I0705 21:32:54.272766  9455 net.cpp:163] Memory required for data: 185450664
I0705 21:32:54.272778  9455 layer_factory.hpp:77] Creating layer conv1a/relu
I0705 21:32:54.272783  9455 net.cpp:98] Creating Layer conv1a/relu
I0705 21:32:54.272788  9455 net.cpp:439] conv1a/relu <- conv1a/bn
I0705 21:32:54.272792  9455 net.cpp:400] conv1a/relu -> conv1a/bn (in-place)
I0705 21:32:54.272806  9455 net.cpp:148] Setting up conv1a/relu
I0705 21:32:54.272819  9455 net.cpp:155] Top shape: 42 32 112 112 (16859136)
I0705 21:32:54.272821  9455 net.cpp:163] Memory required for data: 252887208
I0705 21:32:54.272825  9455 layer_factory.hpp:77] Creating layer conv1b
I0705 21:32:54.272832  9455 net.cpp:98] Creating Layer conv1b
I0705 21:32:54.272835  9455 net.cpp:439] conv1b <- conv1a/bn
I0705 21:32:54.272840  9455 net.cpp:413] conv1b -> conv1b
I0705 21:32:54.273165  9455 net.cpp:148] Setting up conv1b
I0705 21:32:54.273172  9455 net.cpp:155] Top shape: 42 32 112 112 (16859136)
I0705 21:32:54.273175  9455 net.cpp:163] Memory required for data: 320323752
I0705 21:32:54.273183  9455 layer_factory.hpp:77] Creating layer conv1b/bn
I0705 21:32:54.273188  9455 net.cpp:98] Creating Layer conv1b/bn
I0705 21:32:54.273193  9455 net.cpp:439] conv1b/bn <- conv1b
I0705 21:32:54.273198  9455 net.cpp:413] conv1b/bn -> conv1b/bn
I0705 21:32:54.273861  9455 net.cpp:148] Setting up conv1b/bn
I0705 21:32:54.273869  9455 net.cpp:155] Top shape: 42 32 112 112 (16859136)
I0705 21:32:54.273872  9455 net.cpp:163] Memory required for data: 387760296
I0705 21:32:54.273880  9455 layer_factory.hpp:77] Creating layer conv1b/relu
I0705 21:32:54.273885  9455 net.cpp:98] Creating Layer conv1b/relu
I0705 21:32:54.273890  9455 net.cpp:439] conv1b/relu <- conv1b/bn
I0705 21:32:54.273895  9455 net.cpp:400] conv1b/relu -> conv1b/bn (in-place)
I0705 21:32:54.273901  9455 net.cpp:148] Setting up conv1b/relu
I0705 21:32:54.273905  9455 net.cpp:155] Top shape: 42 32 112 112 (16859136)
I0705 21:32:54.273910  9455 net.cpp:163] Memory required for data: 455196840
I0705 21:32:54.273913  9455 layer_factory.hpp:77] Creating layer pool1
I0705 21:32:54.273921  9455 net.cpp:98] Creating Layer pool1
I0705 21:32:54.273924  9455 net.cpp:439] pool1 <- conv1b/bn
I0705 21:32:54.273928  9455 net.cpp:413] pool1 -> pool1
I0705 21:32:54.273970  9455 net.cpp:148] Setting up pool1
I0705 21:32:54.273975  9455 net.cpp:155] Top shape: 42 32 56 56 (4214784)
I0705 21:32:54.273979  9455 net.cpp:163] Memory required for data: 472055976
I0705 21:32:54.273983  9455 layer_factory.hpp:77] Creating layer res2a_branch2a
I0705 21:32:54.273989  9455 net.cpp:98] Creating Layer res2a_branch2a
I0705 21:32:54.273993  9455 net.cpp:439] res2a_branch2a <- pool1
I0705 21:32:54.273998  9455 net.cpp:413] res2a_branch2a -> res2a_branch2a
I0705 21:32:54.274639  9455 net.cpp:148] Setting up res2a_branch2a
I0705 21:32:54.274646  9455 net.cpp:155] Top shape: 42 64 56 56 (8429568)
I0705 21:32:54.274649  9455 net.cpp:163] Memory required for data: 505774248
I0705 21:32:54.274657  9455 layer_factory.hpp:77] Creating layer res2a_branch2a/bn
I0705 21:32:54.274662  9455 net.cpp:98] Creating Layer res2a_branch2a/bn
I0705 21:32:54.274667  9455 net.cpp:439] res2a_branch2a/bn <- res2a_branch2a
I0705 21:32:54.274675  9455 net.cpp:413] res2a_branch2a/bn -> res2a_branch2a/bn
I0705 21:32:54.275337  9455 net.cpp:148] Setting up res2a_branch2a/bn
I0705 21:32:54.275347  9455 net.cpp:155] Top shape: 42 64 56 56 (8429568)
I0705 21:32:54.275352  9455 net.cpp:163] Memory required for data: 539492520
I0705 21:32:54.275359  9455 layer_factory.hpp:77] Creating layer res2a_branch2a/relu
I0705 21:32:54.275363  9455 net.cpp:98] Creating Layer res2a_branch2a/relu
I0705 21:32:54.275367  9455 net.cpp:439] res2a_branch2a/relu <- res2a_branch2a/bn
I0705 21:32:54.275372  9455 net.cpp:400] res2a_branch2a/relu -> res2a_branch2a/bn (in-place)
I0705 21:32:54.275378  9455 net.cpp:148] Setting up res2a_branch2a/relu
I0705 21:32:54.275382  9455 net.cpp:155] Top shape: 42 64 56 56 (8429568)
I0705 21:32:54.275387  9455 net.cpp:163] Memory required for data: 573210792
I0705 21:32:54.275389  9455 layer_factory.hpp:77] Creating layer res2a_branch2b
I0705 21:32:54.275396  9455 net.cpp:98] Creating Layer res2a_branch2b
I0705 21:32:54.275399  9455 net.cpp:439] res2a_branch2b <- res2a_branch2a/bn
I0705 21:32:54.275403  9455 net.cpp:413] res2a_branch2b -> res2a_branch2b
I0705 21:32:54.275858  9455 net.cpp:148] Setting up res2a_branch2b
I0705 21:32:54.275866  9455 net.cpp:155] Top shape: 42 64 56 56 (8429568)
I0705 21:32:54.275874  9455 net.cpp:163] Memory required for data: 606929064
I0705 21:32:54.275882  9455 layer_factory.hpp:77] Creating layer res2a_branch2b/bn
I0705 21:32:54.275887  9455 net.cpp:98] Creating Layer res2a_branch2b/bn
I0705 21:32:54.275892  9455 net.cpp:439] res2a_branch2b/bn <- res2a_branch2b
I0705 21:32:54.275897  9455 net.cpp:413] res2a_branch2b/bn -> res2a_branch2b/bn
I0705 21:32:54.276559  9455 net.cpp:148] Setting up res2a_branch2b/bn
I0705 21:32:54.276566  9455 net.cpp:155] Top shape: 42 64 56 56 (8429568)
I0705 21:32:54.276569  9455 net.cpp:163] Memory required for data: 640647336
I0705 21:32:54.276577  9455 layer_factory.hpp:77] Creating layer res2a_branch2b/relu
I0705 21:32:54.276582  9455 net.cpp:98] Creating Layer res2a_branch2b/relu
I0705 21:32:54.276587  9455 net.cpp:439] res2a_branch2b/relu <- res2a_branch2b/bn
I0705 21:32:54.276590  9455 net.cpp:400] res2a_branch2b/relu -> res2a_branch2b/bn (in-place)
I0705 21:32:54.276602  9455 net.cpp:148] Setting up res2a_branch2b/relu
I0705 21:32:54.276607  9455 net.cpp:155] Top shape: 42 64 56 56 (8429568)
I0705 21:32:54.276609  9455 net.cpp:163] Memory required for data: 674365608
I0705 21:32:54.276613  9455 layer_factory.hpp:77] Creating layer pool2
I0705 21:32:54.276619  9455 net.cpp:98] Creating Layer pool2
I0705 21:32:54.276623  9455 net.cpp:439] pool2 <- res2a_branch2b/bn
I0705 21:32:54.276628  9455 net.cpp:413] pool2 -> pool2
I0705 21:32:54.276667  9455 net.cpp:148] Setting up pool2
I0705 21:32:54.276672  9455 net.cpp:155] Top shape: 42 64 28 28 (2107392)
I0705 21:32:54.276676  9455 net.cpp:163] Memory required for data: 682795176
I0705 21:32:54.276680  9455 layer_factory.hpp:77] Creating layer res3a_branch2a
I0705 21:32:54.276688  9455 net.cpp:98] Creating Layer res3a_branch2a
I0705 21:32:54.276691  9455 net.cpp:439] res3a_branch2a <- pool2
I0705 21:32:54.276696  9455 net.cpp:413] res3a_branch2a -> res3a_branch2a
I0705 21:32:54.280315  9455 net.cpp:148] Setting up res3a_branch2a
I0705 21:32:54.280339  9455 net.cpp:155] Top shape: 42 128 28 28 (4214784)
I0705 21:32:54.280341  9455 net.cpp:163] Memory required for data: 699654312
I0705 21:32:54.280349  9455 layer_factory.hpp:77] Creating layer res3a_branch2a/bn
I0705 21:32:54.280361  9455 net.cpp:98] Creating Layer res3a_branch2a/bn
I0705 21:32:54.280366  9455 net.cpp:439] res3a_branch2a/bn <- res3a_branch2a
I0705 21:32:54.280375  9455 net.cpp:413] res3a_branch2a/bn -> res3a_branch2a/bn
I0705 21:32:54.281157  9455 net.cpp:148] Setting up res3a_branch2a/bn
I0705 21:32:54.281165  9455 net.cpp:155] Top shape: 42 128 28 28 (4214784)
I0705 21:32:54.281168  9455 net.cpp:163] Memory required for data: 716513448
I0705 21:32:54.281179  9455 layer_factory.hpp:77] Creating layer res3a_branch2a/relu
I0705 21:32:54.281184  9455 net.cpp:98] Creating Layer res3a_branch2a/relu
I0705 21:32:54.281188  9455 net.cpp:439] res3a_branch2a/relu <- res3a_branch2a/bn
I0705 21:32:54.281200  9455 net.cpp:400] res3a_branch2a/relu -> res3a_branch2a/bn (in-place)
I0705 21:32:54.281206  9455 net.cpp:148] Setting up res3a_branch2a/relu
I0705 21:32:54.281211  9455 net.cpp:155] Top shape: 42 128 28 28 (4214784)
I0705 21:32:54.281214  9455 net.cpp:163] Memory required for data: 733372584
I0705 21:32:54.281219  9455 layer_factory.hpp:77] Creating layer res3a_branch2b
I0705 21:32:54.281226  9455 net.cpp:98] Creating Layer res3a_branch2b
I0705 21:32:54.281229  9455 net.cpp:439] res3a_branch2b <- res3a_branch2a/bn
I0705 21:32:54.281234  9455 net.cpp:413] res3a_branch2b -> res3a_branch2b
I0705 21:32:54.282276  9455 net.cpp:148] Setting up res3a_branch2b
I0705 21:32:54.282290  9455 net.cpp:155] Top shape: 42 128 28 28 (4214784)
I0705 21:32:54.282295  9455 net.cpp:163] Memory required for data: 750231720
I0705 21:32:54.282301  9455 layer_factory.hpp:77] Creating layer res3a_branch2b/bn
I0705 21:32:54.282307  9455 net.cpp:98] Creating Layer res3a_branch2b/bn
I0705 21:32:54.282311  9455 net.cpp:439] res3a_branch2b/bn <- res3a_branch2b
I0705 21:32:54.282316  9455 net.cpp:413] res3a_branch2b/bn -> res3a_branch2b/bn
I0705 21:32:54.282968  9455 net.cpp:148] Setting up res3a_branch2b/bn
I0705 21:32:54.282975  9455 net.cpp:155] Top shape: 42 128 28 28 (4214784)
I0705 21:32:54.282979  9455 net.cpp:163] Memory required for data: 767090856
I0705 21:32:54.282987  9455 layer_factory.hpp:77] Creating layer res3a_branch2b/relu
I0705 21:32:54.282991  9455 net.cpp:98] Creating Layer res3a_branch2b/relu
I0705 21:32:54.282995  9455 net.cpp:439] res3a_branch2b/relu <- res3a_branch2b/bn
I0705 21:32:54.283000  9455 net.cpp:400] res3a_branch2b/relu -> res3a_branch2b/bn (in-place)
I0705 21:32:54.283006  9455 net.cpp:148] Setting up res3a_branch2b/relu
I0705 21:32:54.283010  9455 net.cpp:155] Top shape: 42 128 28 28 (4214784)
I0705 21:32:54.283015  9455 net.cpp:163] Memory required for data: 783949992
I0705 21:32:54.283018  9455 layer_factory.hpp:77] Creating layer pool3
I0705 21:32:54.283025  9455 net.cpp:98] Creating Layer pool3
I0705 21:32:54.283027  9455 net.cpp:439] pool3 <- res3a_branch2b/bn
I0705 21:32:54.283032  9455 net.cpp:413] pool3 -> pool3
I0705 21:32:54.283080  9455 net.cpp:148] Setting up pool3
I0705 21:32:54.283087  9455 net.cpp:155] Top shape: 42 128 14 14 (1053696)
I0705 21:32:54.283090  9455 net.cpp:163] Memory required for data: 788164776
I0705 21:32:54.283094  9455 layer_factory.hpp:77] Creating layer res4a_branch2a
I0705 21:32:54.283102  9455 net.cpp:98] Creating Layer res4a_branch2a
I0705 21:32:54.283104  9455 net.cpp:439] res4a_branch2a <- pool3
I0705 21:32:54.283109  9455 net.cpp:413] res4a_branch2a -> res4a_branch2a
I0705 21:32:54.289252  9455 net.cpp:148] Setting up res4a_branch2a
I0705 21:32:54.289261  9455 net.cpp:155] Top shape: 42 256 14 14 (2107392)
I0705 21:32:54.289264  9455 net.cpp:163] Memory required for data: 796594344
I0705 21:32:54.289270  9455 layer_factory.hpp:77] Creating layer res4a_branch2a/bn
I0705 21:32:54.289276  9455 net.cpp:98] Creating Layer res4a_branch2a/bn
I0705 21:32:54.289288  9455 net.cpp:439] res4a_branch2a/bn <- res4a_branch2a
I0705 21:32:54.289293  9455 net.cpp:413] res4a_branch2a/bn -> res4a_branch2a/bn
I0705 21:32:54.289954  9455 net.cpp:148] Setting up res4a_branch2a/bn
I0705 21:32:54.289963  9455 net.cpp:155] Top shape: 42 256 14 14 (2107392)
I0705 21:32:54.289965  9455 net.cpp:163] Memory required for data: 805023912
I0705 21:32:54.289973  9455 layer_factory.hpp:77] Creating layer res4a_branch2a/relu
I0705 21:32:54.289978  9455 net.cpp:98] Creating Layer res4a_branch2a/relu
I0705 21:32:54.289981  9455 net.cpp:439] res4a_branch2a/relu <- res4a_branch2a/bn
I0705 21:32:54.289986  9455 net.cpp:400] res4a_branch2a/relu -> res4a_branch2a/bn (in-place)
I0705 21:32:54.289993  9455 net.cpp:148] Setting up res4a_branch2a/relu
I0705 21:32:54.289997  9455 net.cpp:155] Top shape: 42 256 14 14 (2107392)
I0705 21:32:54.290001  9455 net.cpp:163] Memory required for data: 813453480
I0705 21:32:54.290005  9455 layer_factory.hpp:77] Creating layer res4a_branch2b
I0705 21:32:54.290012  9455 net.cpp:98] Creating Layer res4a_branch2b
I0705 21:32:54.290015  9455 net.cpp:439] res4a_branch2b <- res4a_branch2a/bn
I0705 21:32:54.290020  9455 net.cpp:413] res4a_branch2b -> res4a_branch2b
I0705 21:32:54.293234  9455 net.cpp:148] Setting up res4a_branch2b
I0705 21:32:54.293241  9455 net.cpp:155] Top shape: 42 256 14 14 (2107392)
I0705 21:32:54.293244  9455 net.cpp:163] Memory required for data: 821883048
I0705 21:32:54.293251  9455 layer_factory.hpp:77] Creating layer res4a_branch2b/bn
I0705 21:32:54.293258  9455 net.cpp:98] Creating Layer res4a_branch2b/bn
I0705 21:32:54.293262  9455 net.cpp:439] res4a_branch2b/bn <- res4a_branch2b
I0705 21:32:54.293267  9455 net.cpp:413] res4a_branch2b/bn -> res4a_branch2b/bn
I0705 21:32:54.293920  9455 net.cpp:148] Setting up res4a_branch2b/bn
I0705 21:32:54.293926  9455 net.cpp:155] Top shape: 42 256 14 14 (2107392)
I0705 21:32:54.293929  9455 net.cpp:163] Memory required for data: 830312616
I0705 21:32:54.293938  9455 layer_factory.hpp:77] Creating layer res4a_branch2b/relu
I0705 21:32:54.293943  9455 net.cpp:98] Creating Layer res4a_branch2b/relu
I0705 21:32:54.293947  9455 net.cpp:439] res4a_branch2b/relu <- res4a_branch2b/bn
I0705 21:32:54.293959  9455 net.cpp:400] res4a_branch2b/relu -> res4a_branch2b/bn (in-place)
I0705 21:32:54.293965  9455 net.cpp:148] Setting up res4a_branch2b/relu
I0705 21:32:54.293970  9455 net.cpp:155] Top shape: 42 256 14 14 (2107392)
I0705 21:32:54.293973  9455 net.cpp:163] Memory required for data: 838742184
I0705 21:32:54.293977  9455 layer_factory.hpp:77] Creating layer pool4
I0705 21:32:54.293982  9455 net.cpp:98] Creating Layer pool4
I0705 21:32:54.293987  9455 net.cpp:439] pool4 <- res4a_branch2b/bn
I0705 21:32:54.293990  9455 net.cpp:413] pool4 -> pool4
I0705 21:32:54.294035  9455 net.cpp:148] Setting up pool4
I0705 21:32:54.294040  9455 net.cpp:155] Top shape: 42 256 7 7 (526848)
I0705 21:32:54.294044  9455 net.cpp:163] Memory required for data: 840849576
I0705 21:32:54.294049  9455 layer_factory.hpp:77] Creating layer res5a_branch2a
I0705 21:32:54.294055  9455 net.cpp:98] Creating Layer res5a_branch2a
I0705 21:32:54.294059  9455 net.cpp:439] res5a_branch2a <- pool4
I0705 21:32:54.294064  9455 net.cpp:413] res5a_branch2a -> res5a_branch2a
I0705 21:32:54.319087  9455 net.cpp:148] Setting up res5a_branch2a
I0705 21:32:54.319108  9455 net.cpp:155] Top shape: 42 512 7 7 (1053696)
I0705 21:32:54.319111  9455 net.cpp:163] Memory required for data: 845064360
I0705 21:32:54.319118  9455 layer_factory.hpp:77] Creating layer res5a_branch2a/bn
I0705 21:32:54.319128  9455 net.cpp:98] Creating Layer res5a_branch2a/bn
I0705 21:32:54.319133  9455 net.cpp:439] res5a_branch2a/bn <- res5a_branch2a
I0705 21:32:54.319139  9455 net.cpp:413] res5a_branch2a/bn -> res5a_branch2a/bn
I0705 21:32:54.319839  9455 net.cpp:148] Setting up res5a_branch2a/bn
I0705 21:32:54.319846  9455 net.cpp:155] Top shape: 42 512 7 7 (1053696)
I0705 21:32:54.319849  9455 net.cpp:163] Memory required for data: 849279144
I0705 21:32:54.319859  9455 layer_factory.hpp:77] Creating layer res5a_branch2a/relu
I0705 21:32:54.319865  9455 net.cpp:98] Creating Layer res5a_branch2a/relu
I0705 21:32:54.319869  9455 net.cpp:439] res5a_branch2a/relu <- res5a_branch2a/bn
I0705 21:32:54.319875  9455 net.cpp:400] res5a_branch2a/relu -> res5a_branch2a/bn (in-place)
I0705 21:32:54.319882  9455 net.cpp:148] Setting up res5a_branch2a/relu
I0705 21:32:54.319886  9455 net.cpp:155] Top shape: 42 512 7 7 (1053696)
I0705 21:32:54.319890  9455 net.cpp:163] Memory required for data: 853493928
I0705 21:32:54.319893  9455 layer_factory.hpp:77] Creating layer res5a_branch2b
I0705 21:32:54.319902  9455 net.cpp:98] Creating Layer res5a_branch2b
I0705 21:32:54.319906  9455 net.cpp:439] res5a_branch2b <- res5a_branch2a/bn
I0705 21:32:54.319911  9455 net.cpp:413] res5a_branch2b -> res5a_branch2b
I0705 21:32:54.332945  9455 net.cpp:148] Setting up res5a_branch2b
I0705 21:32:54.332967  9455 net.cpp:155] Top shape: 42 512 7 7 (1053696)
I0705 21:32:54.332970  9455 net.cpp:163] Memory required for data: 857708712
I0705 21:32:54.332985  9455 layer_factory.hpp:77] Creating layer res5a_branch2b/bn
I0705 21:32:54.332995  9455 net.cpp:98] Creating Layer res5a_branch2b/bn
I0705 21:32:54.332999  9455 net.cpp:439] res5a_branch2b/bn <- res5a_branch2b
I0705 21:32:54.333005  9455 net.cpp:413] res5a_branch2b/bn -> res5a_branch2b/bn
I0705 21:32:54.333767  9455 net.cpp:148] Setting up res5a_branch2b/bn
I0705 21:32:54.333776  9455 net.cpp:155] Top shape: 42 512 7 7 (1053696)
I0705 21:32:54.333780  9455 net.cpp:163] Memory required for data: 861923496
I0705 21:32:54.333791  9455 layer_factory.hpp:77] Creating layer res5a_branch2b/relu
I0705 21:32:54.333796  9455 net.cpp:98] Creating Layer res5a_branch2b/relu
I0705 21:32:54.333801  9455 net.cpp:439] res5a_branch2b/relu <- res5a_branch2b/bn
I0705 21:32:54.333806  9455 net.cpp:400] res5a_branch2b/relu -> res5a_branch2b/bn (in-place)
I0705 21:32:54.333812  9455 net.cpp:148] Setting up res5a_branch2b/relu
I0705 21:32:54.333817  9455 net.cpp:155] Top shape: 42 512 7 7 (1053696)
I0705 21:32:54.333820  9455 net.cpp:163] Memory required for data: 866138280
I0705 21:32:54.333824  9455 layer_factory.hpp:77] Creating layer pool5
I0705 21:32:54.333842  9455 net.cpp:98] Creating Layer pool5
I0705 21:32:54.333844  9455 net.cpp:439] pool5 <- res5a_branch2b/bn
I0705 21:32:54.333849  9455 net.cpp:413] pool5 -> pool5
I0705 21:32:54.333880  9455 net.cpp:148] Setting up pool5
I0705 21:32:54.333886  9455 net.cpp:155] Top shape: 42 512 1 1 (21504)
I0705 21:32:54.333890  9455 net.cpp:163] Memory required for data: 866224296
I0705 21:32:54.333894  9455 layer_factory.hpp:77] Creating layer fc1000
I0705 21:32:54.333904  9455 net.cpp:98] Creating Layer fc1000
I0705 21:32:54.333906  9455 net.cpp:439] fc1000 <- pool5
I0705 21:32:54.333911  9455 net.cpp:413] fc1000 -> fc1000
I0705 21:32:54.345093  9455 net.cpp:148] Setting up fc1000
I0705 21:32:54.345106  9455 net.cpp:155] Top shape: 42 1000 (42000)
I0705 21:32:54.345109  9455 net.cpp:163] Memory required for data: 866392296
I0705 21:32:54.345116  9455 layer_factory.hpp:77] Creating layer loss
I0705 21:32:54.345125  9455 net.cpp:98] Creating Layer loss
I0705 21:32:54.345129  9455 net.cpp:439] loss <- fc1000
I0705 21:32:54.345135  9455 net.cpp:439] loss <- label
I0705 21:32:54.345141  9455 net.cpp:413] loss -> loss
I0705 21:32:54.345152  9455 layer_factory.hpp:77] Creating layer loss
…
I0705 21:32:54.345980  9455 solver.cpp:182] Creating test net (#0) specified by test_net file: training/imagenet_jacintonet11v2_2017-07-05_21-31-44/sparse/test.prototxt
I0705 21:32:54.346176  9455 net.cpp:56] Initializing net from parameters: 
name: "jacintonet11v2_test"
state {
  phase: TEST
}
layer {
  name: "data"
  type: "Data"
  top: "data"
  top: "label"
  transform_param {
    mirror: false
    crop_size: 224
    mean_value: 0
    mean_value: 0
    mean_value: 0
  }
  data_param {
    source: "./data/ilsvrc12_val_lmdb"
    batch_size: 50
    backend: LMDB
    threads: 1
  }
}
layer {
  name: "data/bias"
  type: "Bias"
  bottom: "data"
  top: "data/bias"
  param {
    lr_mult: 0
    decay_mult: 0
  }
  bias_param {
    filler {
      type: "constant"
      value: -128
    }
  }
}
layer {
  name: "conv1a"
  type: "Convolution"
  bottom: "data/bias"
  top: "conv1a"
  param {
    lr_mult: 1
    decay_mult: 1
  }
  param {
    lr_mult: 2
    decay_mult: 0
  }
  convolution_param {
    num_output: 32
    bias_term: true
    pad: 2
    kernel_size: 5
    group: 1
    stride: 2
    weight_filler {
      type: "msra"
    }
    bias_filler {
      type: "constant"
      value: 0
    }
    dilation: 1
  }
}
layer {
  name: "conv1a/bn"
  type: "BatchNorm"
  bottom: "conv1a"
  top: "conv1a/bn"
  param {
    lr_mult: 1
    decay_mult: 1
  }
  param {
    lr_mult: 1
    decay_mult: 1
  }
  param {
    lr_mult: 0
    decay_mult: 0
  }
  param {
    lr_mult: 0
    decay_mult: 0
  }
  batch_norm_param {
    moving_average_fraction: 0.99
    eps: 0.0001
    scale_filler {
      type: "constant"
      value: 1
    }
    bias_filler {
      type: "constant"
      value: 0
    }
  }
}
layer {
  name: "conv1a/relu"
  type: "ReLU"
  bottom: "conv1a/bn"
  top: "conv1a/bn"
}
layer {
  name: "conv1b"
  type: "Convolution"
  bottom: "conv1a/bn"
  top: "conv1b"
  param {
    lr_mult: 1
    decay_mult: 1
  }
  param {
    lr_mult: 2
    decay_mult: 0
  }
  convolution_param {
    num_output: 32
    bias_term: true
    pad: 1
    kernel_size: 3
    group: 4
    stride: 1
    weight_filler {
      type: "msra"
    }
    bias_filler {
      type: "constant"
      value: 0
    }
    dilation: 1
  }
}
layer {
  name: "conv1b/bn"
  type: "BatchNorm"
  bottom: "conv1b"
  top: "conv1b/bn"
  param {
    lr_mult: 1
    decay_mult: 1
  }
  param {
    lr_mult: 1
    decay_mult: 1
  }
  param {
    lr_mult: 0
    decay_mult: 0
  }
  param {
    lr_mult: 0
    decay_mult: 0
  }
  batch_norm_param {
    moving_average_fraction: 0.99
    eps: 0.0001
    scale_filler {
      type: "constant"
      value: 1
    }
    bias_filler {
      type: "constant"
      value: 0
    }
  }
}
layer {
  name: "conv1b/relu"
  type: "ReLU"
  bottom: "conv1b/bn"
  top: "conv1b/bn"
}
layer {
  name: "pool1"
  type: "Pooling"
  bottom: "conv1b/bn"
  top: "pool1"
  pooling_param {
    pool: MAX
    kernel_size: 2
    stride: 2
  }
}
layer {
  name: "res2a_branch2a"
  type: "Convolution"
  bottom: "pool1"
  top: "res2a_branch2a"
  param {
    lr_mult: 1
    decay_mult: 1
  }
  param {
    lr_mult: 2
    decay_mult: 0
  }
  convolution_param {
    num_output: 64
    bias_term: true
    pad: 1
    kernel_size: 3
    group: 1
    stride: 1
    weight_filler {
      type: "msra"
    }
    bias_filler {
      type: "constant"
      value: 0
    }
    dilation: 1
  }
}
layer {
  name: "res2a_branch2a/bn"
  type: "BatchNorm"
  bottom: "res2a_branch2a"
  top: "res2a_branch2a/bn"
  param {
    lr_mult: 1
    decay_mult: 1
  }
  param {
    lr_mult: 1
    decay_mult: 1
  }
  param {
    lr_mult: 0
    decay_mult: 0
  }
  param {
    lr_mult: 0
    decay_mult: 0
  }
  batch_norm_param {
    moving_average_fraction: 0.99
    eps: 0.0001
    scale_filler {
      type: "constant"
      value: 1
    }
    bias_filler {
      type: "constant"
      value: 0
    }
  }
}
layer {
  name: "res2a_branch2a/relu"
  type: "ReLU"
  bottom: "res2a_branch2a/bn"
  top: "res2a_branch2a/bn"
}
layer {
  name: "res2a_branch2b"
  type: "Convolution"
  bottom: "res2a_branch2a/bn"
  top: "res2a_branch2b"
  param {
    lr_mult: 1
    decay_mult: 1
  }
  param {
    lr_mult: 2
    decay_mult: 0
  }
  convolution_param {
    num_output: 64
    bias_term: true
    pad: 1
    kernel_size: 3
    group: 4
    stride: 1
    weight_filler {
      type: "msra"
    }
    bias_filler {
      type: "constant"
      value: 0
    }
    dilation: 1
  }
}
layer {
  name: "res2a_branch2b/bn"
  type: "BatchNorm"
  bottom: "res2a_branch2b"
  top: "res2a_branch2b/bn"
  param {
    lr_mult: 1
    decay_mult: 1
  }
  param {
    lr_mult: 1
    decay_mult: 1
  }
  param {
    lr_mult: 0
    decay_mult: 0
  }
  param {
    lr_mult: 0
    decay_mult: 0
  }
  batch_norm_param {
    moving_average_fraction: 0.99
    eps: 0.0001
    scale_filler {
      type: "constant"
      value: 1
    }
    bias_filler {
      type: "constant"
      value: 0
    }
  }
}
layer {
  name: "res2a_branch2b/relu"
  type: "ReLU"
  bottom: "res2a_branch2b/bn"
  top: "res2a_branch2b/bn"
}
layer {
  name: "pool2"
  type: "Pooling"
  bottom: "res2a_branch2b/bn"
  top: "pool2"
  pooling_param {
    pool: MAX
    kernel_size: 2
    stride: 2
  }
}
layer {
  name: "res3a_branch2a"
  type: "Convolution"
  bottom: "pool2"
  top: "res3a_branch2a"
  param {
    lr_mult: 1
    decay_mult: 1
  }
  param {
    lr_mult: 2
    decay_mult: 0
  }
  convolution_param {
    num_output: 128
    bias_term: true
    pad: 1
    kernel_size: 3
    group: 1
    stride: 1
    weight_filler {
      type: "msra"
    }
    bias_filler {
      type: "constant"
      value: 0
    }
    dilation: 1
  }
}
layer {
  name: "res3a_branch2a/bn"
  type: "BatchNorm"
  bottom: "res3a_branch2a"
  top: "res3a_branch2a/bn"
  param {
    lr_mult: 1
    decay_mult: 1
  }
  param {
    lr_mult: 1
    decay_mult: 1
  }
  param {
    lr_mult: 0
    decay_mult: 0
  }
  param {
    lr_mult: 0
    decay_mult: 0
  }
  batch_norm_param {
    moving_average_fraction: 0.99
    eps: 0.0001
    scale_filler {
      type: "constant"
      value: 1
    }
    bias_filler {
      type: "constant"
      value: 0
    }
  }
}
layer {
  name: "res3a_branch2a/relu"
  type: "ReLU"
  bottom: "res3a_branch2a/bn"
  top: "res3a_branch2a/bn"
}
layer {
  name: "res3a_branch2b"
  type: "Convolution"
  bottom: "res3a_branch2a/bn"
  top: "res3a_branch2b"
  param {
    lr_mult: 1
    decay_mult: 1
  }
  param {
    lr_mult: 2
    decay_mult: 0
  }
  convolution_param {
    num_output: 128
    bias_term: true
    pad: 1
    kernel_size: 3
    group: 4
    stride: 1
    weight_filler {
      type: "msra"
    }
    bias_filler {
      type: "constant"
      value: 0
    }
    dilation: 1
  }
}
layer {
  name: "res3a_branch2b/bn"
  type: "BatchNorm"
  bottom: "res3a_branch2b"
  top: "res3a_branch2b/bn"
  param {
    lr_mult: 1
    decay_mult: 1
  }
  param {
    lr_mult: 1
    decay_mult: 1
  }
  param {
    lr_mult: 0
    decay_mult: 0
  }
  param {
    lr_mult: 0
    decay_mult: 0
  }
  batch_norm_param {
    moving_average_fraction: 0.99
    eps: 0.0001
    scale_filler {
      type: "constant"
      value: 1
    }
    bias_filler {
      type: "constant"
      value: 0
    }
  }
}
layer {
  name: "res3a_branch2b/relu"
  type: "ReLU"
  bottom: "res3a_branch2b/bn"
  top: "res3a_branch2b/bn"
}
layer {
  name: "pool3"
  type: "Pooling"
  bottom: "res3a_branch2b/bn"
  top: "pool3"
  pooling_param {
    pool: MAX
    kernel_size: 2
    stride: 2
  }
}
layer {
  name: "res4a_branch2a"
  type: "Convolution"
  bottom: "pool3"
  top: "res4a_branch2a"
  param {
    lr_mult: 1
    decay_mult: 1
  }
  param {
    lr_mult: 2
    decay_mult: 0
  }
  convolution_param {
    num_output: 256
    bias_term: true
    pad: 1
    kernel_size: 3
    group: 1
    stride: 1
    weight_filler {
      type: "msra"
    }
    bias_filler {
      type: "constant"
      value: 0
    }
    dilation: 1
  }
}
layer {
  name: "res4a_branch2a/bn"
  type: "BatchNorm"
  bottom: "res4a_branch2a"
  top: "res4a_branch2a/bn"
  param {
    lr_mult: 1
    decay_mult: 1
  }
  param {
    lr_mult: 1
    decay_mult: 1
  }
  param {
    lr_mult: 0
    decay_mult: 0
  }
  param {
    lr_mult: 0
    decay_mult: 0
  }
  batch_norm_param {
    moving_average_fraction: 0.99
    eps: 0.0001
    scale_filler {
      type: "constant"
      value: 1
    }
    bias_filler {
      type: "constant"
      value: 0
    }
  }
}
layer {
  name: "res4a_branch2a/relu"
  type: "ReLU"
  bottom: "res4a_branch2a/bn"
  top: "res4a_branch2a/bn"
}
layer {
  name: "res4a_branch2b"
  type: "Convolution"
  bottom: "res4a_branch2a/bn"
  top: "res4a_branch2b"
  param {
    lr_mult: 1
    decay_mult: 1
  }
  param {
    lr_mult: 2
    decay_mult: 0
  }
  convolution_param {
    num_output: 256
    bias_term: true
    pad: 1
    kernel_size: 3
    group: 4
    stride: 1
    weight_filler {
      type: "msra"
    }
    bias_filler {
      type: "constant"
      value: 0
    }
    dilation: 1
  }
}
layer {
  name: "res4a_branch2b/bn"
  type: "BatchNorm"
  bottom: "res4a_branch2b"
  top: "res4a_branch2b/bn"
  param {
    lr_mult: 1
    decay_mult: 1
  }
  param {
    lr_mult: 1
    decay_mult: 1
  }
  param {
    lr_mult: 0
    decay_mult: 0
  }
  param {
    lr_mult: 0
    decay_mult: 0
  }
  batch_norm_param {
    moving_average_fraction: 0.99
    eps: 0.0001
    scale_filler {
      type: "constant"
      value: 1
    }
    bias_filler {
      type: "constant"
      value: 0
    }
  }
}
layer {
  name: "res4a_branch2b/relu"
  type: "ReLU"
  bottom: "res4a_branch2b/bn"
  top: "res4a_branch2b/bn"
}
layer {
  name: "pool4"
  type: "Pooling"
  bottom: "res4a_branch2b/bn"
  top: "pool4"
  pooling_param {
    pool: MAX
    kernel_size: 2
    stride: 2
  }
}
layer {
  name: "res5a_branch2a"
  type: "Convolution"
  bottom: "pool4"
  top: "res5a_branch2a"
  param {
    lr_mult: 1
    decay_mult: 1
  }
  param {
    lr_mult: 2
    decay_mult: 0
  }
  convolution_param {
    num_output: 512
    bias_term: true
    pad: 1
    kernel_size: 3
    group: 1
    stride: 1
    weight_filler {
      type: "msra"
    }
    bias_filler {
      type: "constant"
      value: 0
    }
    dilation: 1
  }
}
layer {
  name: "res5a_branch2a/bn"
  type: "BatchNorm"
  bottom: "res5a_branch2a"
  top: "res5a_branch2a/bn"
  param {
    lr_mult: 1
    decay_mult: 1
  }
  param {
    lr_mult: 1
    decay_mult: 1
  }
  param {
    lr_mult: 0
    decay_mult: 0
  }
  param {
    lr_mult: 0
    decay_mult: 0
  }
  batch_norm_param {
    moving_average_fraction: 0.99
    eps: 0.0001
    scale_filler {
      type: "constant"
      value: 1
    }
    bias_filler {
      type: "constant"
      value: 0
    }
  }
}
layer {
  name: "res5a_branch2a/relu"
  type: "ReLU"
  bottom: "res5a_branch2a/bn"
  top: "res5a_branch2a/bn"
}
layer {
  name: "res5a_branch2b"
  type: "Convolution"
  bottom: "res5a_branch2a/bn"
  top: "res5a_branch2b"
  param {
    lr_mult: 1
    decay_mult: 1
  }
  param {
    lr_mult: 2
    decay_mult: 0
  }
  convolution_param {
    num_output: 512
    bias_term: true
    pad: 1
    kernel_size: 3
    group: 4
    stride: 1
    weight_filler {
      type: "msra"
    }
    bias_filler {
      type: "constant"
      value: 0
    }
    dilation: 1
  }
}
layer {
  name: "res5a_branch2b/bn"
  type: "BatchNorm"
  bottom: "res5a_branch2b"
  top: "res5a_branch2b/bn"
  param {
    lr_mult: 1
    decay_mult: 1
  }
  param {
    lr_mult: 1
    decay_mult: 1
  }
  param {
    lr_mult: 0
    decay_mult: 0
  }
  param {
    lr_mult: 0
    decay_mult: 0
  }
  batch_norm_param {
    moving_average_fraction: 0.99
    eps: 0.0001
    scale_filler {
      type: "constant"
      value: 1
    }
    bias_filler {
      type: "constant"
      value: 0
    }
  }
}
layer {
  name: "res5a_branch2b/relu"
  type: "ReLU"
  bottom: "res5a_branch2b/bn"
  top: "res5a_branch2b/bn"
}
layer {
  name: "pool5"
  type: "Pooling"
  bottom: "res5a_branch2b/bn"
  top: "pool5"
  pooling_param {
    pool: AVE
    global_pooling: true
  }
}
layer {
  name: "fc1000"
  type: "InnerProduct"
  bottom: "pool5"
  top: "fc1000"
  param {
    lr_mult: 1
    decay_mult: 1
  }
  param {
    lr_mult: 2
    decay_mult: 0
  }
  inner_product_param {
    num_output: 1000
    weight_filler {
      type: "msra"
    }
    bias_filler {
      type: "constant"
      value: 0
    }
  }
}
layer {
  name: "loss"
  type: "SoftmaxWithLoss"
  bottom: "fc1000"
  bottom: "label"
  top: "loss"
  propagate_down: true
  propagate_down: false
}
layer {
  name: "accuracy/top1"
  type: "Accuracy"
  bottom: "fc1000"
  bottom: "label"
  top: "accuracy/top1"
  include {
    phase: TEST
  }
}
layer {
  name: "accuracy/top5"
  type: "Accuracy"
  bottom: "fc1000"
  bottom: "label"
  top: "accuracy/top5"
  include {
    phase: TEST
  }
  accuracy_param {
    top_k: 5
  }
}
I0705 21:32:54.346271  9455 layer_factory.hpp:77] Creating layer data
I0705 21:32:54.346334  9455 net.cpp:98] Creating Layer data
I0705 21:32:54.346340  9455 net.cpp:413] data -> data
I0705 21:32:54.346346  9455 net.cpp:413] data -> label
I0705 21:32:54.347697  9483 db_lmdb.cpp:35] Opened lmdb ./data/ilsvrc12_val_lmdb
I0705 21:32:54.348775  9455 data_layer.cpp:78] ReshapePrefetch 50, 3, 224, 224
I0705 21:32:54.348845  9455 data_layer.cpp:83] output data size: 50,3,224,224
I0705 21:32:54.380581  9455 net.cpp:148] Setting up data
I0705 21:32:54.380601  9455 net.cpp:155] Top shape: 50 3 224 224 (7526400)
I0705 21:32:54.380606  9455 net.cpp:155] Top shape: 50 (50)
I0705 21:32:54.380609  9455 net.cpp:163] Memory required for data: 30105800
I0705 21:32:54.380614  9455 layer_factory.hpp:77] Creating layer label_data_1_split
I0705 21:32:54.380625  9455 net.cpp:98] Creating Layer label_data_1_split
I0705 21:32:54.380628  9455 net.cpp:439] label_data_1_split <- label
I0705 21:32:54.380635  9455 net.cpp:413] label_data_1_split -> label_data_1_split_0
I0705 21:32:54.380643  9455 net.cpp:413] label_data_1_split -> label_data_1_split_1
I0705 21:32:54.380648  9455 net.cpp:413] label_data_1_split -> label_data_1_split_2
I0705 21:32:54.380776  9455 net.cpp:148] Setting up label_data_1_split
I0705 21:32:54.380782  9455 net.cpp:155] Top shape: 50 (50)
I0705 21:32:54.380786  9455 net.cpp:155] Top shape: 50 (50)
I0705 21:32:54.380790  9455 net.cpp:155] Top shape: 50 (50)
I0705 21:32:54.380795  9455 net.cpp:163] Memory required for data: 30106400
I0705 21:32:54.380798  9455 layer_factory.hpp:77] Creating layer data/bias
I0705 21:32:54.380806  9455 net.cpp:98] Creating Layer data/bias
I0705 21:32:54.380810  9455 net.cpp:439] data/bias <- data
I0705 21:32:54.380815  9455 net.cpp:413] data/bias -> data/bias
I0705 21:32:54.380965  9455 net.cpp:148] Setting up data/bias
I0705 21:32:54.380970  9455 net.cpp:155] Top shape: 50 3 224 224 (7526400)
I0705 21:32:54.380972  9455 net.cpp:163] Memory required for data: 60212000
I0705 21:32:54.380977  9455 layer_factory.hpp:77] Creating layer conv1a
I0705 21:32:54.380982  9455 net.cpp:98] Creating Layer conv1a
I0705 21:32:54.380985  9455 net.cpp:439] conv1a <- data/bias
I0705 21:32:54.380986  9455 net.cpp:413] conv1a -> conv1a
I0705 21:32:54.381379  9455 net.cpp:148] Setting up conv1a
I0705 21:32:54.381386  9455 net.cpp:155] Top shape: 50 32 112 112 (20070400)
I0705 21:32:54.381387  9455 net.cpp:163] Memory required for data: 140493600
I0705 21:32:54.381392  9455 layer_factory.hpp:77] Creating layer conv1a/bn
I0705 21:32:54.381397  9455 net.cpp:98] Creating Layer conv1a/bn
I0705 21:32:54.381398  9455 net.cpp:439] conv1a/bn <- conv1a
I0705 21:32:54.381402  9455 net.cpp:413] conv1a/bn -> conv1a/bn
I0705 21:32:54.384613  9455 net.cpp:148] Setting up conv1a/bn
I0705 21:32:54.384629  9455 net.cpp:155] Top shape: 50 32 112 112 (20070400)
I0705 21:32:54.384634  9455 net.cpp:163] Memory required for data: 220775200
I0705 21:32:54.384646  9455 layer_factory.hpp:77] Creating layer conv1a/relu
I0705 21:32:54.384652  9455 net.cpp:98] Creating Layer conv1a/relu
I0705 21:32:54.384656  9455 net.cpp:439] conv1a/relu <- conv1a/bn
I0705 21:32:54.384660  9455 net.cpp:400] conv1a/relu -> conv1a/bn (in-place)
I0705 21:32:54.384667  9455 net.cpp:148] Setting up conv1a/relu
I0705 21:32:54.384671  9455 net.cpp:155] Top shape: 50 32 112 112 (20070400)
I0705 21:32:54.384675  9455 net.cpp:163] Memory required for data: 301056800
I0705 21:32:54.384677  9455 layer_factory.hpp:77] Creating layer conv1b
I0705 21:32:54.384685  9455 net.cpp:98] Creating Layer conv1b
I0705 21:32:54.384688  9455 net.cpp:439] conv1b <- conv1a/bn
I0705 21:32:54.384693  9455 net.cpp:413] conv1b -> conv1b
I0705 21:32:54.385052  9455 net.cpp:148] Setting up conv1b
I0705 21:32:54.385059  9455 net.cpp:155] Top shape: 50 32 112 112 (20070400)
I0705 21:32:54.385063  9455 net.cpp:163] Memory required for data: 381338400
I0705 21:32:54.385071  9455 layer_factory.hpp:77] Creating layer conv1b/bn
I0705 21:32:54.385078  9455 net.cpp:98] Creating Layer conv1b/bn
I0705 21:32:54.385082  9455 net.cpp:439] conv1b/bn <- conv1b
I0705 21:32:54.385087  9455 net.cpp:413] conv1b/bn -> conv1b/bn
I0705 21:32:54.385809  9455 net.cpp:148] Setting up conv1b/bn
I0705 21:32:54.385817  9455 net.cpp:155] Top shape: 50 32 112 112 (20070400)
I0705 21:32:54.385819  9455 net.cpp:163] Memory required for data: 461620000
I0705 21:32:54.385829  9455 layer_factory.hpp:77] Creating layer conv1b/relu
I0705 21:32:54.385835  9455 net.cpp:98] Creating Layer conv1b/relu
I0705 21:32:54.385839  9455 net.cpp:439] conv1b/relu <- conv1b/bn
I0705 21:32:54.385844  9455 net.cpp:400] conv1b/relu -> conv1b/bn (in-place)
I0705 21:32:54.385850  9455 net.cpp:148] Setting up conv1b/relu
I0705 21:32:54.385854  9455 net.cpp:155] Top shape: 50 32 112 112 (20070400)
I0705 21:32:54.385859  9455 net.cpp:163] Memory required for data: 541901600
I0705 21:32:54.385862  9455 layer_factory.hpp:77] Creating layer pool1
I0705 21:32:54.385869  9455 net.cpp:98] Creating Layer pool1
I0705 21:32:54.385871  9455 net.cpp:439] pool1 <- conv1b/bn
I0705 21:32:54.385875  9455 net.cpp:413] pool1 -> pool1
I0705 21:32:54.385915  9455 net.cpp:148] Setting up pool1
I0705 21:32:54.385920  9455 net.cpp:155] Top shape: 50 32 56 56 (5017600)
I0705 21:32:54.385923  9455 net.cpp:163] Memory required for data: 561972000
I0705 21:32:54.385927  9455 layer_factory.hpp:77] Creating layer res2a_branch2a
I0705 21:32:54.385937  9455 net.cpp:98] Creating Layer res2a_branch2a
I0705 21:32:54.385941  9455 net.cpp:439] res2a_branch2a <- pool1
I0705 21:32:54.385946  9455 net.cpp:413] res2a_branch2a -> res2a_branch2a
I0705 21:32:54.386621  9455 net.cpp:148] Setting up res2a_branch2a
I0705 21:32:54.386628  9455 net.cpp:155] Top shape: 50 64 56 56 (10035200)
I0705 21:32:54.386631  9455 net.cpp:163] Memory required for data: 602112800
I0705 21:32:54.386639  9455 layer_factory.hpp:77] Creating layer res2a_branch2a/bn
I0705 21:32:54.386646  9455 net.cpp:98] Creating Layer res2a_branch2a/bn
I0705 21:32:54.386649  9455 net.cpp:439] res2a_branch2a/bn <- res2a_branch2a
I0705 21:32:54.386654  9455 net.cpp:413] res2a_branch2a/bn -> res2a_branch2a/bn
I0705 21:32:54.387398  9455 net.cpp:148] Setting up res2a_branch2a/bn
I0705 21:32:54.387406  9455 net.cpp:155] Top shape: 50 64 56 56 (10035200)
I0705 21:32:54.387410  9455 net.cpp:163] Memory required for data: 642253600
I0705 21:32:54.387418  9455 layer_factory.hpp:77] Creating layer res2a_branch2a/relu
I0705 21:32:54.387423  9455 net.cpp:98] Creating Layer res2a_branch2a/relu
I0705 21:32:54.387428  9455 net.cpp:439] res2a_branch2a/relu <- res2a_branch2a/bn
I0705 21:32:54.387431  9455 net.cpp:400] res2a_branch2a/relu -> res2a_branch2a/bn (in-place)
I0705 21:32:54.387437  9455 net.cpp:148] Setting up res2a_branch2a/relu
I0705 21:32:54.387442  9455 net.cpp:155] Top shape: 50 64 56 56 (10035200)
I0705 21:32:54.387452  9455 net.cpp:163] Memory required for data: 682394400
I0705 21:32:54.387456  9455 layer_factory.hpp:77] Creating layer res2a_branch2b
I0705 21:32:54.387462  9455 net.cpp:98] Creating Layer res2a_branch2b
I0705 21:32:54.387466  9455 net.cpp:439] res2a_branch2b <- res2a_branch2a/bn
I0705 21:32:54.387471  9455 net.cpp:413] res2a_branch2b -> res2a_branch2b
I0705 21:32:54.387969  9455 net.cpp:148] Setting up res2a_branch2b
I0705 21:32:54.387975  9455 net.cpp:155] Top shape: 50 64 56 56 (10035200)
I0705 21:32:54.387979  9455 net.cpp:163] Memory required for data: 722535200
I0705 21:32:54.387985  9455 layer_factory.hpp:77] Creating layer res2a_branch2b/bn
I0705 21:32:54.387991  9455 net.cpp:98] Creating Layer res2a_branch2b/bn
I0705 21:32:54.387995  9455 net.cpp:439] res2a_branch2b/bn <- res2a_branch2b
I0705 21:32:54.388000  9455 net.cpp:413] res2a_branch2b/bn -> res2a_branch2b/bn
I0705 21:32:54.388741  9455 net.cpp:148] Setting up res2a_branch2b/bn
I0705 21:32:54.388747  9455 net.cpp:155] Top shape: 50 64 56 56 (10035200)
I0705 21:32:54.388752  9455 net.cpp:163] Memory required for data: 762676000
I0705 21:32:54.388761  9455 layer_factory.hpp:77] Creating layer res2a_branch2b/relu
I0705 21:32:54.388766  9455 net.cpp:98] Creating Layer res2a_branch2b/relu
I0705 21:32:54.388769  9455 net.cpp:439] res2a_branch2b/relu <- res2a_branch2b/bn
I0705 21:32:54.388774  9455 net.cpp:400] res2a_branch2b/relu -> res2a_branch2b/bn (in-place)
I0705 21:32:54.388780  9455 net.cpp:148] Setting up res2a_branch2b/relu
I0705 21:32:54.388785  9455 net.cpp:155] Top shape: 50 64 56 56 (10035200)
I0705 21:32:54.388788  9455 net.cpp:163] Memory required for data: 802816800
I0705 21:32:54.388792  9455 layer_factory.hpp:77] Creating layer pool2
I0705 21:32:54.388798  9455 net.cpp:98] Creating Layer pool2
I0705 21:32:54.388803  9455 net.cpp:439] pool2 <- res2a_branch2b/bn
I0705 21:32:54.388806  9455 net.cpp:413] pool2 -> pool2
I0705 21:32:54.388849  9455 net.cpp:148] Setting up pool2
I0705 21:32:54.388855  9455 net.cpp:155] Top shape: 50 64 28 28 (2508800)
I0705 21:32:54.388859  9455 net.cpp:163] Memory required for data: 812852000
I0705 21:32:54.388862  9455 layer_factory.hpp:77] Creating layer res3a_branch2a
I0705 21:32:54.388870  9455 net.cpp:98] Creating Layer res3a_branch2a
I0705 21:32:54.388873  9455 net.cpp:439] res3a_branch2a <- pool2
I0705 21:32:54.388878  9455 net.cpp:413] res3a_branch2a -> res3a_branch2a
I0705 21:32:54.391609  9455 net.cpp:148] Setting up res3a_branch2a
I0705 21:32:54.391620  9455 net.cpp:155] Top shape: 50 128 28 28 (5017600)
I0705 21:32:54.391624  9455 net.cpp:163] Memory required for data: 832922400
I0705 21:32:54.391629  9455 layer_factory.hpp:77] Creating layer res3a_branch2a/bn
I0705 21:32:54.391638  9455 net.cpp:98] Creating Layer res3a_branch2a/bn
I0705 21:32:54.391643  9455 net.cpp:439] res3a_branch2a/bn <- res3a_branch2a
I0705 21:32:54.391647  9455 net.cpp:413] res3a_branch2a/bn -> res3a_branch2a/bn
I0705 21:32:54.392340  9455 net.cpp:148] Setting up res3a_branch2a/bn
I0705 21:32:54.392348  9455 net.cpp:155] Top shape: 50 128 28 28 (5017600)
I0705 21:32:54.392351  9455 net.cpp:163] Memory required for data: 852992800
I0705 21:32:54.392360  9455 layer_factory.hpp:77] Creating layer res3a_branch2a/relu
I0705 21:32:54.392369  9455 net.cpp:98] Creating Layer res3a_branch2a/relu
I0705 21:32:54.392374  9455 net.cpp:439] res3a_branch2a/relu <- res3a_branch2a/bn
I0705 21:32:54.392377  9455 net.cpp:400] res3a_branch2a/relu -> res3a_branch2a/bn (in-place)
I0705 21:32:54.392383  9455 net.cpp:148] Setting up res3a_branch2a/relu
I0705 21:32:54.392388  9455 net.cpp:155] Top shape: 50 128 28 28 (5017600)
I0705 21:32:54.392392  9455 net.cpp:163] Memory required for data: 873063200
I0705 21:32:54.392395  9455 layer_factory.hpp:77] Creating layer res3a_branch2b
I0705 21:32:54.392402  9455 net.cpp:98] Creating Layer res3a_branch2b
I0705 21:32:54.392406  9455 net.cpp:439] res3a_branch2b <- res3a_branch2a/bn
I0705 21:32:54.392410  9455 net.cpp:413] res3a_branch2b -> res3a_branch2b
I0705 21:32:54.393486  9455 net.cpp:148] Setting up res3a_branch2b
I0705 21:32:54.393499  9455 net.cpp:155] Top shape: 50 128 28 28 (5017600)
I0705 21:32:54.393503  9455 net.cpp:163] Memory required for data: 893133600
I0705 21:32:54.393509  9455 layer_factory.hpp:77] Creating layer res3a_branch2b/bn
I0705 21:32:54.393515  9455 net.cpp:98] Creating Layer res3a_branch2b/bn
I0705 21:32:54.393519  9455 net.cpp:439] res3a_branch2b/bn <- res3a_branch2b
I0705 21:32:54.393525  9455 net.cpp:413] res3a_branch2b/bn -> res3a_branch2b/bn
I0705 21:32:54.394210  9455 net.cpp:148] Setting up res3a_branch2b/bn
I0705 21:32:54.394217  9455 net.cpp:155] Top shape: 50 128 28 28 (5017600)
I0705 21:32:54.394222  9455 net.cpp:163] Memory required for data: 913204000
I0705 21:32:54.394234  9455 layer_factory.hpp:77] Creating layer res3a_branch2b/relu
I0705 21:32:54.394239  9455 net.cpp:98] Creating Layer res3a_branch2b/relu
I0705 21:32:54.394243  9455 net.cpp:439] res3a_branch2b/relu <- res3a_branch2b/bn
I0705 21:32:54.394248  9455 net.cpp:400] res3a_branch2b/relu -> res3a_branch2b/bn (in-place)
I0705 21:32:54.394254  9455 net.cpp:148] Setting up res3a_branch2b/relu
I0705 21:32:54.394258  9455 net.cpp:155] Top shape: 50 128 28 28 (5017600)
I0705 21:32:54.394263  9455 net.cpp:163] Memory required for data: 933274400
I0705 21:32:54.394265  9455 layer_factory.hpp:77] Creating layer pool3
I0705 21:32:54.394270  9455 net.cpp:98] Creating Layer pool3
I0705 21:32:54.394274  9455 net.cpp:439] pool3 <- res3a_branch2b/bn
I0705 21:32:54.394279  9455 net.cpp:413] pool3 -> pool3
I0705 21:32:54.394323  9455 net.cpp:148] Setting up pool3
I0705 21:32:54.394328  9455 net.cpp:155] Top shape: 50 128 14 14 (1254400)
I0705 21:32:54.394332  9455 net.cpp:163] Memory required for data: 938292000
I0705 21:32:54.394336  9455 layer_factory.hpp:77] Creating layer res4a_branch2a
I0705 21:32:54.394343  9455 net.cpp:98] Creating Layer res4a_branch2a
I0705 21:32:54.394346  9455 net.cpp:439] res4a_branch2a <- pool3
I0705 21:32:54.394351  9455 net.cpp:413] res4a_branch2a -> res4a_branch2a
I0705 21:32:54.400506  9455 net.cpp:148] Setting up res4a_branch2a
I0705 21:32:54.400514  9455 net.cpp:155] Top shape: 50 256 14 14 (2508800)
I0705 21:32:54.400517  9455 net.cpp:163] Memory required for data: 948327200
I0705 21:32:54.400522  9455 layer_factory.hpp:77] Creating layer res4a_branch2a/bn
I0705 21:32:54.400528  9455 net.cpp:98] Creating Layer res4a_branch2a/bn
I0705 21:32:54.400533  9455 net.cpp:439] res4a_branch2a/bn <- res4a_branch2a
I0705 21:32:54.400540  9455 net.cpp:413] res4a_branch2a/bn -> res4a_branch2a/bn
I0705 21:32:54.401238  9455 net.cpp:148] Setting up res4a_branch2a/bn
I0705 21:32:54.401245  9455 net.cpp:155] Top shape: 50 256 14 14 (2508800)
I0705 21:32:54.401249  9455 net.cpp:163] Memory required for data: 958362400
I0705 21:32:54.401257  9455 layer_factory.hpp:77] Creating layer res4a_branch2a/relu
I0705 21:32:54.401262  9455 net.cpp:98] Creating Layer res4a_branch2a/relu
I0705 21:32:54.401265  9455 net.cpp:439] res4a_branch2a/relu <- res4a_branch2a/bn
I0705 21:32:54.401268  9455 net.cpp:400] res4a_branch2a/relu -> res4a_branch2a/bn (in-place)
I0705 21:32:54.401278  9455 net.cpp:148] Setting up res4a_branch2a/relu
I0705 21:32:54.401281  9455 net.cpp:155] Top shape: 50 256 14 14 (2508800)
I0705 21:32:54.401285  9455 net.cpp:163] Memory required for data: 968397600
I0705 21:32:54.401288  9455 layer_factory.hpp:77] Creating layer res4a_branch2b
I0705 21:32:54.401295  9455 net.cpp:98] Creating Layer res4a_branch2b
I0705 21:32:54.401299  9455 net.cpp:439] res4a_branch2b <- res4a_branch2a/bn
I0705 21:32:54.401304  9455 net.cpp:413] res4a_branch2b -> res4a_branch2b
I0705 21:32:54.404569  9455 net.cpp:148] Setting up res4a_branch2b
I0705 21:32:54.404580  9455 net.cpp:155] Top shape: 50 256 14 14 (2508800)
I0705 21:32:54.404583  9455 net.cpp:163] Memory required for data: 978432800
I0705 21:32:54.404589  9455 layer_factory.hpp:77] Creating layer res4a_branch2b/bn
I0705 21:32:54.404597  9455 net.cpp:98] Creating Layer res4a_branch2b/bn
I0705 21:32:54.404600  9455 net.cpp:439] res4a_branch2b/bn <- res4a_branch2b
I0705 21:32:54.404615  9455 net.cpp:413] res4a_branch2b/bn -> res4a_branch2b/bn
I0705 21:32:54.405318  9455 net.cpp:148] Setting up res4a_branch2b/bn
I0705 21:32:54.405324  9455 net.cpp:155] Top shape: 50 256 14 14 (2508800)
I0705 21:32:54.405328  9455 net.cpp:163] Memory required for data: 988468000
I0705 21:32:54.405336  9455 layer_factory.hpp:77] Creating layer res4a_branch2b/relu
I0705 21:32:54.405341  9455 net.cpp:98] Creating Layer res4a_branch2b/relu
I0705 21:32:54.405345  9455 net.cpp:439] res4a_branch2b/relu <- res4a_branch2b/bn
I0705 21:32:54.405350  9455 net.cpp:400] res4a_branch2b/relu -> res4a_branch2b/bn (in-place)
I0705 21:32:54.405356  9455 net.cpp:148] Setting up res4a_branch2b/relu
I0705 21:32:54.405361  9455 net.cpp:155] Top shape: 50 256 14 14 (2508800)
I0705 21:32:54.405364  9455 net.cpp:163] Memory required for data: 998503200
I0705 21:32:54.405369  9455 layer_factory.hpp:77] Creating layer pool4
I0705 21:32:54.405375  9455 net.cpp:98] Creating Layer pool4
I0705 21:32:54.405377  9455 net.cpp:439] pool4 <- res4a_branch2b/bn
I0705 21:32:54.405382  9455 net.cpp:413] pool4 -> pool4
I0705 21:32:54.405427  9455 net.cpp:148] Setting up pool4
I0705 21:32:54.405432  9455 net.cpp:155] Top shape: 50 256 7 7 (627200)
I0705 21:32:54.405436  9455 net.cpp:163] Memory required for data: 1001012000
I0705 21:32:54.405447  9455 layer_factory.hpp:77] Creating layer res5a_branch2a
I0705 21:32:54.405453  9455 net.cpp:98] Creating Layer res5a_branch2a
I0705 21:32:54.405457  9455 net.cpp:439] res5a_branch2a <- pool4
I0705 21:32:54.405462  9455 net.cpp:413] res5a_branch2a -> res5a_branch2a
I0705 21:32:54.431211  9455 net.cpp:148] Setting up res5a_branch2a
I0705 21:32:54.431232  9455 net.cpp:155] Top shape: 50 512 7 7 (1254400)
I0705 21:32:54.431236  9455 net.cpp:163] Memory required for data: 1006029600
I0705 21:32:54.431242  9455 layer_factory.hpp:77] Creating layer res5a_branch2a/bn
I0705 21:32:54.431252  9455 net.cpp:98] Creating Layer res5a_branch2a/bn
I0705 21:32:54.431257  9455 net.cpp:439] res5a_branch2a/bn <- res5a_branch2a
I0705 21:32:54.431264  9455 net.cpp:413] res5a_branch2a/bn -> res5a_branch2a/bn
I0705 21:32:54.434340  9455 net.cpp:148] Setting up res5a_branch2a/bn
I0705 21:32:54.434347  9455 net.cpp:155] Top shape: 50 512 7 7 (1254400)
I0705 21:32:54.434352  9455 net.cpp:163] Memory required for data: 1011047200
I0705 21:32:54.434362  9455 layer_factory.hpp:77] Creating layer res5a_branch2a/relu
I0705 21:32:54.434367  9455 net.cpp:98] Creating Layer res5a_branch2a/relu
I0705 21:32:54.434371  9455 net.cpp:439] res5a_branch2a/relu <- res5a_branch2a/bn
I0705 21:32:54.434381  9455 net.cpp:400] res5a_branch2a/relu -> res5a_branch2a/bn (in-place)
I0705 21:32:54.434387  9455 net.cpp:148] Setting up res5a_branch2a/relu
I0705 21:32:54.434392  9455 net.cpp:155] Top shape: 50 512 7 7 (1254400)
I0705 21:32:54.434396  9455 net.cpp:163] Memory required for data: 1016064800
I0705 21:32:54.434399  9455 layer_factory.hpp:77] Creating layer res5a_branch2b
I0705 21:32:54.434406  9455 net.cpp:98] Creating Layer res5a_branch2b
I0705 21:32:54.434411  9455 net.cpp:439] res5a_branch2b <- res5a_branch2a/bn
I0705 21:32:54.434415  9455 net.cpp:413] res5a_branch2b -> res5a_branch2b
I0705 21:32:54.449738  9455 net.cpp:148] Setting up res5a_branch2b
I0705 21:32:54.449760  9455 net.cpp:155] Top shape: 50 512 7 7 (1254400)
I0705 21:32:54.449764  9455 net.cpp:163] Memory required for data: 1021082400
I0705 21:32:54.449779  9455 layer_factory.hpp:77] Creating layer res5a_branch2b/bn
I0705 21:32:54.449790  9455 net.cpp:98] Creating Layer res5a_branch2b/bn
I0705 21:32:54.449795  9455 net.cpp:439] res5a_branch2b/bn <- res5a_branch2b
I0705 21:32:54.449800  9455 net.cpp:413] res5a_branch2b/bn -> res5a_branch2b/bn
I0705 21:32:54.450562  9455 net.cpp:148] Setting up res5a_branch2b/bn
I0705 21:32:54.450573  9455 net.cpp:155] Top shape: 50 512 7 7 (1254400)
I0705 21:32:54.450577  9455 net.cpp:163] Memory required for data: 1026100000
I0705 21:32:54.450587  9455 layer_factory.hpp:77] Creating layer res5a_branch2b/relu
I0705 21:32:54.450592  9455 net.cpp:98] Creating Layer res5a_branch2b/relu
I0705 21:32:54.450604  9455 net.cpp:439] res5a_branch2b/relu <- res5a_branch2b/bn
I0705 21:32:54.450609  9455 net.cpp:400] res5a_branch2b/relu -> res5a_branch2b/bn (in-place)
I0705 21:32:54.450616  9455 net.cpp:148] Setting up res5a_branch2b/relu
I0705 21:32:54.450620  9455 net.cpp:155] Top shape: 50 512 7 7 (1254400)
I0705 21:32:54.450624  9455 net.cpp:163] Memory required for data: 1031117600
I0705 21:32:54.450628  9455 layer_factory.hpp:77] Creating layer pool5
I0705 21:32:54.450634  9455 net.cpp:98] Creating Layer pool5
I0705 21:32:54.450637  9455 net.cpp:439] pool5 <- res5a_branch2b/bn
I0705 21:32:54.450644  9455 net.cpp:413] pool5 -> pool5
I0705 21:32:54.450673  9455 net.cpp:148] Setting up pool5
I0705 21:32:54.450678  9455 net.cpp:155] Top shape: 50 512 1 1 (25600)
I0705 21:32:54.450682  9455 net.cpp:163] Memory required for data: 1031220000
I0705 21:32:54.450687  9455 layer_factory.hpp:77] Creating layer fc1000
I0705 21:32:54.450695  9455 net.cpp:98] Creating Layer fc1000
I0705 21:32:54.450697  9455 net.cpp:439] fc1000 <- pool5
I0705 21:32:54.450704  9455 net.cpp:413] fc1000 -> fc1000
I0705 21:32:54.462007  9455 net.cpp:148] Setting up fc1000
I0705 21:32:54.462029  9455 net.cpp:155] Top shape: 50 1000 (50000)
I0705 21:32:54.462033  9455 net.cpp:163] Memory required for data: 1031420000
I0705 21:32:54.462040  9455 layer_factory.hpp:77] Creating layer fc1000_fc1000_0_split
I0705 21:32:54.462050  9455 net.cpp:98] Creating Layer fc1000_fc1000_0_split
I0705 21:32:54.462055  9455 net.cpp:439] fc1000_fc1000_0_split <- fc1000
I0705 21:32:54.462061  9455 net.cpp:413] fc1000_fc1000_0_split -> fc1000_fc1000_0_split_0
I0705 21:32:54.462069  9455 net.cpp:413] fc1000_fc1000_0_split -> fc1000_fc1000_0_split_1
I0705 21:32:54.462074  9455 net.cpp:413] fc1000_fc1000_0_split -> fc1000_fc1000_0_split_2
I0705 21:32:54.462143  9455 net.cpp:148] Setting up fc1000_fc1000_0_split
I0705 21:32:54.462149  9455 net.cpp:155] Top shape: 50 1000 (50000)
I0705 21:32:54.462154  9455 net.cpp:155] Top shape: 50 1000 (50000)
I0705 21:32:54.462158  9455 net.cpp:155] Top shape: 50 1000 (50000)
I0705 21:32:54.462162  9455 net.cpp:163] Memory required for data: 1032020000
I0705 21:32:54.462167  9455 layer_factory.hpp:77] Creating layer loss
I0705 21:32:54.462172  9455 net.cpp:98] Creating Layer loss
I0705 21:32:54.462175  9455 net.cpp:439] loss <- fc1000_fc1000_0_split_0
I0705 21:32:54.462180  9455 net.cpp:439] loss <- label_data_1_split_0
I0705 21:32:54.462185  9455 net.cpp:413] loss -> loss
…
