…
I0701 15:17:16.159104  6647 net.cpp:327] The NetState phase (0) differed from the phase (1) specified by a rule in layer accuracy/top5
I0701 15:17:16.159262  6647 net.cpp:56] Initializing net from parameters: 
name: "jacintonet11v2_train"
state {
  phase: TRAIN
}
layer {
  name: "data"
  type: "Data"
  top: "data"
  top: "label"
  transform_param {
    mirror: true
    crop_size: 224
    mean_value: 0
    mean_value: 0
    mean_value: 0
  }
  data_param {
    source: "./data/ilsvrc12_train_lmdb"
    batch_size: 42
    backend: LMDB
    threads: 1
  }
}
layer {
  name: "data/bias"
  type: "Bias"
  bottom: "data"
  top: "data/bias"
  param {
    lr_mult: 0
    decay_mult: 0
  }
  bias_param {
    filler {
      type: "constant"
      value: -128
    }
  }
}
layer {
  name: "conv1a"
  type: "Convolution"
  bottom: "data/bias"
  top: "conv1a"
  param {
    lr_mult: 1
    decay_mult: 1
  }
  param {
    lr_mult: 2
    decay_mult: 0
  }
  convolution_param {
    num_output: 32
    bias_term: true
    pad: 2
    kernel_size: 5
    group: 1
    stride: 2
    weight_filler {
      type: "msra"
    }
    bias_filler {
      type: "constant"
      value: 0
    }
    dilation: 1
  }
}
layer {
  name: "conv1a/bn"
  type: "BatchNorm"
  bottom: "conv1a"
  top: "conv1a/bn"
  param {
    lr_mult: 1
    decay_mult: 1
  }
  param {
    lr_mult: 1
    decay_mult: 1
  }
  param {
    lr_mult: 0
    decay_mult: 0
  }
  param {
    lr_mult: 0
    decay_mult: 0
  }
  batch_norm_param {
    moving_average_fraction: 0.99
    eps: 0.0001
    scale_filler {
      type: "constant"
      value: 1
    }
    bias_filler {
      type: "constant"
      value: 0
    }
  }
}
layer {
  name: "conv1a/relu"
  type: "ReLU"
  bottom: "conv1a/bn"
  top: "conv1a/bn"
}
layer {
  name: "conv1b"
  type: "Convolution"
  bottom: "conv1a/bn"
  top: "conv1b"
  param {
    lr_mult: 1
    decay_mult: 1
  }
  param {
    lr_mult: 2
    decay_mult: 0
  }
  convolution_param {
    num_output: 32
    bias_term: true
    pad: 1
    kernel_size: 3
    group: 4
    stride: 1
    weight_filler {
      type: "msra"
    }
    bias_filler {
      type: "constant"
      value: 0
    }
    dilation: 1
  }
}
layer {
  name: "conv1b/bn"
  type: "BatchNorm"
  bottom: "conv1b"
  top: "conv1b/bn"
  param {
    lr_mult: 1
    decay_mult: 1
  }
  param {
    lr_mult: 1
    decay_mult: 1
  }
  param {
    lr_mult: 0
    decay_mult: 0
  }
  param {
    lr_mult: 0
    decay_mult: 0
  }
  batch_norm_param {
    moving_average_fraction: 0.99
    eps: 0.0001
    scale_filler {
      type: "constant"
      value: 1
    }
    bias_filler {
      type: "constant"
      value: 0
    }
  }
}
layer {
  name: "conv1b/relu"
  type: "ReLU"
  bottom: "conv1b/bn"
  top: "conv1b/bn"
}
layer {
  name: "pool1"
  type: "Pooling"
  bottom: "conv1b/bn"
  top: "pool1"
  pooling_param {
    pool: MAX
    kernel_size: 2
    stride: 2
  }
}
layer {
  name: "res2a_branch2a"
  type: "Convolution"
  bottom: "pool1"
  top: "res2a_branch2a"
  param {
    lr_mult: 1
    decay_mult: 1
  }
  param {
    lr_mult: 2
    decay_mult: 0
  }
  convolution_param {
    num_output: 64
    bias_term: true
    pad: 1
    kernel_size: 3
    group: 1
    stride: 1
    weight_filler {
      type: "msra"
    }
    bias_filler {
      type: "constant"
      value: 0
    }
    dilation: 1
  }
}
layer {
  name: "res2a_branch2a/bn"
  type: "BatchNorm"
  bottom: "res2a_branch2a"
  top: "res2a_branch2a/bn"
  param {
    lr_mult: 1
    decay_mult: 1
  }
  param {
    lr_mult: 1
    decay_mult: 1
  }
  param {
    lr_mult: 0
    decay_mult: 0
  }
  param {
    lr_mult: 0
    decay_mult: 0
  }
  batch_norm_param {
    moving_average_fraction: 0.99
    eps: 0.0001
    scale_filler {
      type: "constant"
      value: 1
    }
    bias_filler {
      type: "constant"
      value: 0
    }
  }
}
layer {
  name: "res2a_branch2a/relu"
  type: "ReLU"
  bottom: "res2a_branch2a/bn"
  top: "res2a_branch2a/bn"
}
layer {
  name: "res2a_branch2b"
  type: "Convolution"
  bottom: "res2a_branch2a/bn"
  top: "res2a_branch2b"
  param {
    lr_mult: 1
    decay_mult: 1
  }
  param {
    lr_mult: 2
    decay_mult: 0
  }
  convolution_param {
    num_output: 64
    bias_term: true
    pad: 1
    kernel_size: 3
    group: 4
    stride: 1
    weight_filler {
      type: "msra"
    }
    bias_filler {
      type: "constant"
      value: 0
    }
    dilation: 1
  }
}
layer {
  name: "res2a_branch2b/bn"
  type: "BatchNorm"
  bottom: "res2a_branch2b"
  top: "res2a_branch2b/bn"
  param {
    lr_mult: 1
    decay_mult: 1
  }
  param {
    lr_mult: 1
    decay_mult: 1
  }
  param {
    lr_mult: 0
    decay_mult: 0
  }
  param {
    lr_mult: 0
    decay_mult: 0
  }
  batch_norm_param {
    moving_average_fraction: 0.99
    eps: 0.0001
    scale_filler {
      type: "constant"
      value: 1
    }
    bias_filler {
      type: "constant"
      value: 0
    }
  }
}
layer {
  name: "res2a_branch2b/relu"
  type: "ReLU"
  bottom: "res2a_branch2b/bn"
  top: "res2a_branch2b/bn"
}
layer {
  name: "pool2"
  type: "Pooling"
  bottom: "res2a_branch2b/bn"
  top: "pool2"
  pooling_param {
    pool: MAX
    kernel_size: 2
    stride: 2
  }
}
layer {
  name: "res3a_branch2a"
  type: "Convolution"
  bottom: "pool2"
  top: "res3a_branch2a"
  param {
    lr_mult: 1
    decay_mult: 1
  }
  param {
    lr_mult: 2
    decay_mult: 0
  }
  convolution_param {
    num_output: 128
    bias_term: true
    pad: 1
    kernel_size: 3
    group: 1
    stride: 1
    weight_filler {
      type: "msra"
    }
    bias_filler {
      type: "constant"
      value: 0
    }
    dilation: 1
  }
}
layer {
  name: "res3a_branch2a/bn"
  type: "BatchNorm"
  bottom: "res3a_branch2a"
  top: "res3a_branch2a/bn"
  param {
    lr_mult: 1
    decay_mult: 1
  }
  param {
    lr_mult: 1
    decay_mult: 1
  }
  param {
    lr_mult: 0
    decay_mult: 0
  }
  param {
    lr_mult: 0
    decay_mult: 0
  }
  batch_norm_param {
    moving_average_fraction: 0.99
    eps: 0.0001
    scale_filler {
      type: "constant"
      value: 1
    }
    bias_filler {
      type: "constant"
      value: 0
    }
  }
}
layer {
  name: "res3a_branch2a/relu"
  type: "ReLU"
  bottom: "res3a_branch2a/bn"
  top: "res3a_branch2a/bn"
}
layer {
  name: "res3a_branch2b"
  type: "Convolution"
  bottom: "res3a_branch2a/bn"
  top: "res3a_branch2b"
  param {
    lr_mult: 1
    decay_mult: 1
  }
  param {
    lr_mult: 2
    decay_mult: 0
  }
  convolution_param {
    num_output: 128
    bias_term: true
    pad: 1
    kernel_size: 3
    group: 4
    stride: 1
    weight_filler {
      type: "msra"
    }
    bias_filler {
      type: "constant"
      value: 0
    }
    dilation: 1
  }
}
layer {
  name: "res3a_branch2b/bn"
  type: "BatchNorm"
  bottom: "res3a_branch2b"
  top: "res3a_branch2b/bn"
  param {
    lr_mult: 1
    decay_mult: 1
  }
  param {
    lr_mult: 1
    decay_mult: 1
  }
  param {
    lr_mult: 0
    decay_mult: 0
  }
  param {
    lr_mult: 0
    decay_mult: 0
  }
  batch_norm_param {
    moving_average_fraction: 0.99
    eps: 0.0001
    scale_filler {
      type: "constant"
      value: 1
    }
    bias_filler {
      type: "constant"
      value: 0
    }
  }
}
layer {
  name: "res3a_branch2b/relu"
  type: "ReLU"
  bottom: "res3a_branch2b/bn"
  top: "res3a_branch2b/bn"
}
layer {
  name: "pool3"
  type: "Pooling"
  bottom: "res3a_branch2b/bn"
  top: "pool3"
  pooling_param {
    pool: MAX
    kernel_size: 2
    stride: 2
  }
}
layer {
  name: "res4a_branch2a"
  type: "Convolution"
  bottom: "pool3"
  top: "res4a_branch2a"
  param {
    lr_mult: 1
    decay_mult: 1
  }
  param {
    lr_mult: 2
    decay_mult: 0
  }
  convolution_param {
    num_output: 256
    bias_term: true
    pad: 1
    kernel_size: 3
    group: 1
    stride: 1
    weight_filler {
      type: "msra"
    }
    bias_filler {
      type: "constant"
      value: 0
    }
    dilation: 1
  }
}
layer {
  name: "res4a_branch2a/bn"
  type: "BatchNorm"
  bottom: "res4a_branch2a"
  top: "res4a_branch2a/bn"
  param {
    lr_mult: 1
    decay_mult: 1
  }
  param {
    lr_mult: 1
    decay_mult: 1
  }
  param {
    lr_mult: 0
    decay_mult: 0
  }
  param {
    lr_mult: 0
    decay_mult: 0
  }
  batch_norm_param {
    moving_average_fraction: 0.99
    eps: 0.0001
    scale_filler {
      type: "constant"
      value: 1
    }
    bias_filler {
      type: "constant"
      value: 0
    }
  }
}
layer {
  name: "res4a_branch2a/relu"
  type: "ReLU"
  bottom: "res4a_branch2a/bn"
  top: "res4a_branch2a/bn"
}
layer {
  name: "res4a_branch2b"
  type: "Convolution"
  bottom: "res4a_branch2a/bn"
  top: "res4a_branch2b"
  param {
    lr_mult: 1
    decay_mult: 1
  }
  param {
    lr_mult: 2
    decay_mult: 0
  }
  convolution_param {
    num_output: 256
    bias_term: true
    pad: 1
    kernel_size: 3
    group: 4
    stride: 1
    weight_filler {
      type: "msra"
    }
    bias_filler {
      type: "constant"
      value: 0
    }
    dilation: 1
  }
}
layer {
  name: "res4a_branch2b/bn"
  type: "BatchNorm"
  bottom: "res4a_branch2b"
  top: "res4a_branch2b/bn"
  param {
    lr_mult: 1
    decay_mult: 1
  }
  param {
    lr_mult: 1
    decay_mult: 1
  }
  param {
    lr_mult: 0
    decay_mult: 0
  }
  param {
    lr_mult: 0
    decay_mult: 0
  }
  batch_norm_param {
    moving_average_fraction: 0.99
    eps: 0.0001
    scale_filler {
      type: "constant"
      value: 1
    }
    bias_filler {
      type: "constant"
      value: 0
    }
  }
}
layer {
  name: "res4a_branch2b/relu"
  type: "ReLU"
  bottom: "res4a_branch2b/bn"
  top: "res4a_branch2b/bn"
}
layer {
  name: "pool4"
  type: "Pooling"
  bottom: "res4a_branch2b/bn"
  top: "pool4"
  pooling_param {
    pool: MAX
    kernel_size: 2
    stride: 2
  }
}
layer {
  name: "res5a_branch2a"
  type: "Convolution"
  bottom: "pool4"
  top: "res5a_branch2a"
  param {
    lr_mult: 1
    decay_mult: 1
  }
  param {
    lr_mult: 2
    decay_mult: 0
  }
  convolution_param {
    num_output: 512
    bias_term: true
    pad: 1
    kernel_size: 3
    group: 1
    stride: 1
    weight_filler {
      type: "msra"
    }
    bias_filler {
      type: "constant"
      value: 0
    }
    dilation: 1
  }
}
layer {
  name: "res5a_branch2a/bn"
  type: "BatchNorm"
  bottom: "res5a_branch2a"
  top: "res5a_branch2a/bn"
  param {
    lr_mult: 1
    decay_mult: 1
  }
  param {
    lr_mult: 1
    decay_mult: 1
  }
  param {
    lr_mult: 0
    decay_mult: 0
  }
  param {
    lr_mult: 0
    decay_mult: 0
  }
  batch_norm_param {
    moving_average_fraction: 0.99
    eps: 0.0001
    scale_filler {
      type: "constant"
      value: 1
    }
    bias_filler {
      type: "constant"
      value: 0
    }
  }
}
layer {
  name: "res5a_branch2a/relu"
  type: "ReLU"
  bottom: "res5a_branch2a/bn"
  top: "res5a_branch2a/bn"
}
layer {
  name: "res5a_branch2b"
  type: "Convolution"
  bottom: "res5a_branch2a/bn"
  top: "res5a_branch2b"
  param {
    lr_mult: 1
    decay_mult: 1
  }
  param {
    lr_mult: 2
    decay_mult: 0
  }
  convolution_param {
    num_output: 512
    bias_term: true
    pad: 1
    kernel_size: 3
    group: 4
    stride: 1
    weight_filler {
      type: "msra"
    }
    bias_filler {
      type: "constant"
      value: 0
    }
    dilation: 1
  }
}
layer {
  name: "res5a_branch2b/bn"
  type: "BatchNorm"
  bottom: "res5a_branch2b"
  top: "res5a_branch2b/bn"
  param {
    lr_mult: 1
    decay_mult: 1
  }
  param {
    lr_mult: 1
    decay_mult: 1
  }
  param {
    lr_mult: 0
    decay_mult: 0
  }
  param {
    lr_mult: 0
    decay_mult: 0
  }
  batch_norm_param {
    moving_average_fraction: 0.99
    eps: 0.0001
    scale_filler {
      type: "constant"
      value: 1
    }
    bias_filler {
      type: "constant"
      value: 0
    }
  }
}
layer {
  name: "res5a_branch2b/relu"
  type: "ReLU"
  bottom: "res5a_branch2b/bn"
  top: "res5a_branch2b/bn"
}
layer {
  name: "pool5"
  type: "Pooling"
  bottom: "res5a_branch2b/bn"
  top: "pool5"
  pooling_param {
    pool: AVE
    global_pooling: true
  }
}
layer {
  name: "fc1000"
  type: "InnerProduct"
  bottom: "pool5"
  top: "fc1000"
  param {
    lr_mult: 1
    decay_mult: 1
  }
  param {
    lr_mult: 2
    decay_mult: 0
  }
  inner_product_param {
    num_output: 1000
    weight_filler {
      type: "msra"
    }
    bias_filler {
      type: "constant"
      value: 0
    }
  }
}
layer {
  name: "loss"
  type: "SoftmaxWithLoss"
  bottom: "fc1000"
  bottom: "label"
  top: "loss"
  propagate_down: true
  propagate_down: false
}
I0701 15:17:16.159351  6647 layer_factory.hpp:77] Creating layer data
I0701 15:17:16.159432  6647 net.cpp:98] Creating Layer data
I0701 15:17:16.159440  6647 net.cpp:413] data -> data
I0701 15:17:16.159466  6647 net.cpp:413] data -> label
I0701 15:17:16.161046  6679 db_lmdb.cpp:35] Opened lmdb ./data/ilsvrc12_train_lmdb
I0701 15:17:16.175786  6647 data_layer.cpp:78] ReshapePrefetch 42, 3, 224, 224
I0701 15:17:16.175842  6647 data_layer.cpp:83] output data size: 42,3,224,224
I0701 15:17:16.201246  6647 net.cpp:148] Setting up data
I0701 15:17:16.201267  6647 net.cpp:155] Top shape: 42 3 224 224 (6322176)
I0701 15:17:16.201270  6647 net.cpp:155] Top shape: 42 (42)
I0701 15:17:16.201272  6647 net.cpp:163] Memory required for data: 25288872
I0701 15:17:16.201279  6647 layer_factory.hpp:77] Creating layer data/bias
I0701 15:17:16.201292  6647 net.cpp:98] Creating Layer data/bias
I0701 15:17:16.201294  6647 net.cpp:439] data/bias <- data
I0701 15:17:16.201303  6647 net.cpp:413] data/bias -> data/bias
I0701 15:17:16.202267  6647 net.cpp:148] Setting up data/bias
I0701 15:17:16.202275  6647 net.cpp:155] Top shape: 42 3 224 224 (6322176)
I0701 15:17:16.202278  6647 net.cpp:163] Memory required for data: 50577576
I0701 15:17:16.202286  6647 layer_factory.hpp:77] Creating layer conv1a
I0701 15:17:16.202296  6647 net.cpp:98] Creating Layer conv1a
I0701 15:17:16.202298  6647 net.cpp:439] conv1a <- data/bias
I0701 15:17:16.202301  6647 net.cpp:413] conv1a -> conv1a
I0701 15:17:16.204485  6647 net.cpp:148] Setting up conv1a
I0701 15:17:16.204496  6647 net.cpp:155] Top shape: 42 32 112 112 (16859136)
I0701 15:17:16.204499  6647 net.cpp:163] Memory required for data: 118014120
I0701 15:17:16.204504  6647 layer_factory.hpp:77] Creating layer conv1a/bn
I0701 15:17:16.204510  6647 net.cpp:98] Creating Layer conv1a/bn
I0701 15:17:16.204514  6647 net.cpp:439] conv1a/bn <- conv1a
I0701 15:17:16.204516  6647 net.cpp:413] conv1a/bn -> conv1a/bn
I0701 15:17:16.206179  6681 blocking_queue.cpp:50] Waiting for data
I0701 15:17:16.206861  6647 net.cpp:148] Setting up conv1a/bn
I0701 15:17:16.206868  6647 net.cpp:155] Top shape: 42 32 112 112 (16859136)
I0701 15:17:16.206871  6647 net.cpp:163] Memory required for data: 185450664
I0701 15:17:16.206878  6647 layer_factory.hpp:77] Creating layer conv1a/relu
I0701 15:17:16.206882  6647 net.cpp:98] Creating Layer conv1a/relu
I0701 15:17:16.206885  6647 net.cpp:439] conv1a/relu <- conv1a/bn
I0701 15:17:16.206887  6647 net.cpp:400] conv1a/relu -> conv1a/bn (in-place)
I0701 15:17:16.206897  6647 net.cpp:148] Setting up conv1a/relu
I0701 15:17:16.206909  6647 net.cpp:155] Top shape: 42 32 112 112 (16859136)
I0701 15:17:16.206912  6647 net.cpp:163] Memory required for data: 252887208
I0701 15:17:16.206914  6647 layer_factory.hpp:77] Creating layer conv1b
I0701 15:17:16.206918  6647 net.cpp:98] Creating Layer conv1b
I0701 15:17:16.206921  6647 net.cpp:439] conv1b <- conv1a/bn
I0701 15:17:16.206924  6647 net.cpp:413] conv1b -> conv1b
I0701 15:17:16.207262  6647 net.cpp:148] Setting up conv1b
I0701 15:17:16.207268  6647 net.cpp:155] Top shape: 42 32 112 112 (16859136)
I0701 15:17:16.207270  6647 net.cpp:163] Memory required for data: 320323752
I0701 15:17:16.207275  6647 layer_factory.hpp:77] Creating layer conv1b/bn
I0701 15:17:16.207278  6647 net.cpp:98] Creating Layer conv1b/bn
I0701 15:17:16.207280  6647 net.cpp:439] conv1b/bn <- conv1b
I0701 15:17:16.207283  6647 net.cpp:413] conv1b/bn -> conv1b/bn
I0701 15:17:16.207953  6647 net.cpp:148] Setting up conv1b/bn
I0701 15:17:16.207959  6647 net.cpp:155] Top shape: 42 32 112 112 (16859136)
I0701 15:17:16.207962  6647 net.cpp:163] Memory required for data: 387760296
I0701 15:17:16.207967  6647 layer_factory.hpp:77] Creating layer conv1b/relu
I0701 15:17:16.207969  6647 net.cpp:98] Creating Layer conv1b/relu
I0701 15:17:16.207972  6647 net.cpp:439] conv1b/relu <- conv1b/bn
I0701 15:17:16.207974  6647 net.cpp:400] conv1b/relu -> conv1b/bn (in-place)
I0701 15:17:16.207979  6647 net.cpp:148] Setting up conv1b/relu
I0701 15:17:16.207983  6647 net.cpp:155] Top shape: 42 32 112 112 (16859136)
I0701 15:17:16.207983  6647 net.cpp:163] Memory required for data: 455196840
I0701 15:17:16.207986  6647 layer_factory.hpp:77] Creating layer pool1
I0701 15:17:16.207991  6647 net.cpp:98] Creating Layer pool1
I0701 15:17:16.207993  6647 net.cpp:439] pool1 <- conv1b/bn
I0701 15:17:16.207996  6647 net.cpp:413] pool1 -> pool1
I0701 15:17:16.208039  6647 net.cpp:148] Setting up pool1
I0701 15:17:16.208043  6647 net.cpp:155] Top shape: 42 32 56 56 (4214784)
I0701 15:17:16.208045  6647 net.cpp:163] Memory required for data: 472055976
I0701 15:17:16.208047  6647 layer_factory.hpp:77] Creating layer res2a_branch2a
I0701 15:17:16.208051  6647 net.cpp:98] Creating Layer res2a_branch2a
I0701 15:17:16.208053  6647 net.cpp:439] res2a_branch2a <- pool1
I0701 15:17:16.208056  6647 net.cpp:413] res2a_branch2a -> res2a_branch2a
I0701 15:17:16.208678  6647 net.cpp:148] Setting up res2a_branch2a
I0701 15:17:16.208683  6647 net.cpp:155] Top shape: 42 64 56 56 (8429568)
I0701 15:17:16.208685  6647 net.cpp:163] Memory required for data: 505774248
I0701 15:17:16.208689  6647 layer_factory.hpp:77] Creating layer res2a_branch2a/bn
I0701 15:17:16.208693  6647 net.cpp:98] Creating Layer res2a_branch2a/bn
I0701 15:17:16.208695  6647 net.cpp:439] res2a_branch2a/bn <- res2a_branch2a
I0701 15:17:16.208698  6647 net.cpp:413] res2a_branch2a/bn -> res2a_branch2a/bn
I0701 15:17:16.209348  6647 net.cpp:148] Setting up res2a_branch2a/bn
I0701 15:17:16.209357  6647 net.cpp:155] Top shape: 42 64 56 56 (8429568)
I0701 15:17:16.209358  6647 net.cpp:163] Memory required for data: 539492520
I0701 15:17:16.209362  6647 layer_factory.hpp:77] Creating layer res2a_branch2a/relu
I0701 15:17:16.209365  6647 net.cpp:98] Creating Layer res2a_branch2a/relu
I0701 15:17:16.209367  6647 net.cpp:439] res2a_branch2a/relu <- res2a_branch2a/bn
I0701 15:17:16.209370  6647 net.cpp:400] res2a_branch2a/relu -> res2a_branch2a/bn (in-place)
I0701 15:17:16.209373  6647 net.cpp:148] Setting up res2a_branch2a/relu
I0701 15:17:16.209375  6647 net.cpp:155] Top shape: 42 64 56 56 (8429568)
I0701 15:17:16.209378  6647 net.cpp:163] Memory required for data: 573210792
I0701 15:17:16.209379  6647 layer_factory.hpp:77] Creating layer res2a_branch2b
I0701 15:17:16.209383  6647 net.cpp:98] Creating Layer res2a_branch2b
I0701 15:17:16.209385  6647 net.cpp:439] res2a_branch2b <- res2a_branch2a/bn
I0701 15:17:16.209388  6647 net.cpp:413] res2a_branch2b -> res2a_branch2b
I0701 15:17:16.209838  6647 net.cpp:148] Setting up res2a_branch2b
I0701 15:17:16.209843  6647 net.cpp:155] Top shape: 42 64 56 56 (8429568)
I0701 15:17:16.209851  6647 net.cpp:163] Memory required for data: 606929064
I0701 15:17:16.209854  6647 layer_factory.hpp:77] Creating layer res2a_branch2b/bn
I0701 15:17:16.209858  6647 net.cpp:98] Creating Layer res2a_branch2b/bn
I0701 15:17:16.209861  6647 net.cpp:439] res2a_branch2b/bn <- res2a_branch2b
I0701 15:17:16.209863  6647 net.cpp:413] res2a_branch2b/bn -> res2a_branch2b/bn
I0701 15:17:16.210532  6647 net.cpp:148] Setting up res2a_branch2b/bn
I0701 15:17:16.210538  6647 net.cpp:155] Top shape: 42 64 56 56 (8429568)
I0701 15:17:16.210541  6647 net.cpp:163] Memory required for data: 640647336
I0701 15:17:16.210544  6647 layer_factory.hpp:77] Creating layer res2a_branch2b/relu
I0701 15:17:16.210547  6647 net.cpp:98] Creating Layer res2a_branch2b/relu
I0701 15:17:16.210549  6647 net.cpp:439] res2a_branch2b/relu <- res2a_branch2b/bn
I0701 15:17:16.210551  6647 net.cpp:400] res2a_branch2b/relu -> res2a_branch2b/bn (in-place)
I0701 15:17:16.210554  6647 net.cpp:148] Setting up res2a_branch2b/relu
I0701 15:17:16.210557  6647 net.cpp:155] Top shape: 42 64 56 56 (8429568)
I0701 15:17:16.210558  6647 net.cpp:163] Memory required for data: 674365608
I0701 15:17:16.210561  6647 layer_factory.hpp:77] Creating layer pool2
I0701 15:17:16.210563  6647 net.cpp:98] Creating Layer pool2
I0701 15:17:16.210566  6647 net.cpp:439] pool2 <- res2a_branch2b/bn
I0701 15:17:16.210567  6647 net.cpp:413] pool2 -> pool2
I0701 15:17:16.210602  6647 net.cpp:148] Setting up pool2
I0701 15:17:16.210604  6647 net.cpp:155] Top shape: 42 64 28 28 (2107392)
I0701 15:17:16.210606  6647 net.cpp:163] Memory required for data: 682795176
I0701 15:17:16.210608  6647 layer_factory.hpp:77] Creating layer res3a_branch2a
I0701 15:17:16.210613  6647 net.cpp:98] Creating Layer res3a_branch2a
I0701 15:17:16.210615  6647 net.cpp:439] res3a_branch2a <- pool2
I0701 15:17:16.210618  6647 net.cpp:413] res3a_branch2a -> res3a_branch2a
I0701 15:17:16.213968  6647 net.cpp:148] Setting up res3a_branch2a
I0701 15:17:16.213976  6647 net.cpp:155] Top shape: 42 128 28 28 (4214784)
I0701 15:17:16.213979  6647 net.cpp:163] Memory required for data: 699654312
I0701 15:17:16.213982  6647 layer_factory.hpp:77] Creating layer res3a_branch2a/bn
I0701 15:17:16.213989  6647 net.cpp:98] Creating Layer res3a_branch2a/bn
I0701 15:17:16.213990  6647 net.cpp:439] res3a_branch2a/bn <- res3a_branch2a
I0701 15:17:16.213994  6647 net.cpp:413] res3a_branch2a/bn -> res3a_branch2a/bn
I0701 15:17:16.214630  6647 net.cpp:148] Setting up res3a_branch2a/bn
I0701 15:17:16.214637  6647 net.cpp:155] Top shape: 42 128 28 28 (4214784)
I0701 15:17:16.214639  6647 net.cpp:163] Memory required for data: 716513448
I0701 15:17:16.214645  6647 layer_factory.hpp:77] Creating layer res3a_branch2a/relu
I0701 15:17:16.214649  6647 net.cpp:98] Creating Layer res3a_branch2a/relu
I0701 15:17:16.214651  6647 net.cpp:439] res3a_branch2a/relu <- res3a_branch2a/bn
I0701 15:17:16.214656  6647 net.cpp:400] res3a_branch2a/relu -> res3a_branch2a/bn (in-place)
I0701 15:17:16.214660  6647 net.cpp:148] Setting up res3a_branch2a/relu
I0701 15:17:16.214663  6647 net.cpp:155] Top shape: 42 128 28 28 (4214784)
I0701 15:17:16.214664  6647 net.cpp:163] Memory required for data: 733372584
I0701 15:17:16.214666  6647 layer_factory.hpp:77] Creating layer res3a_branch2b
I0701 15:17:16.214670  6647 net.cpp:98] Creating Layer res3a_branch2b
I0701 15:17:16.214673  6647 net.cpp:439] res3a_branch2b <- res3a_branch2a/bn
I0701 15:17:16.214675  6647 net.cpp:413] res3a_branch2b -> res3a_branch2b
I0701 15:17:16.215683  6647 net.cpp:148] Setting up res3a_branch2b
I0701 15:17:16.215689  6647 net.cpp:155] Top shape: 42 128 28 28 (4214784)
I0701 15:17:16.215692  6647 net.cpp:163] Memory required for data: 750231720
I0701 15:17:16.215694  6647 layer_factory.hpp:77] Creating layer res3a_branch2b/bn
I0701 15:17:16.215698  6647 net.cpp:98] Creating Layer res3a_branch2b/bn
I0701 15:17:16.215699  6647 net.cpp:439] res3a_branch2b/bn <- res3a_branch2b
I0701 15:17:16.215703  6647 net.cpp:413] res3a_branch2b/bn -> res3a_branch2b/bn
I0701 15:17:16.216347  6647 net.cpp:148] Setting up res3a_branch2b/bn
I0701 15:17:16.216353  6647 net.cpp:155] Top shape: 42 128 28 28 (4214784)
I0701 15:17:16.216356  6647 net.cpp:163] Memory required for data: 767090856
I0701 15:17:16.216361  6647 layer_factory.hpp:77] Creating layer res3a_branch2b/relu
I0701 15:17:16.216362  6647 net.cpp:98] Creating Layer res3a_branch2b/relu
I0701 15:17:16.216364  6647 net.cpp:439] res3a_branch2b/relu <- res3a_branch2b/bn
I0701 15:17:16.216367  6647 net.cpp:400] res3a_branch2b/relu -> res3a_branch2b/bn (in-place)
I0701 15:17:16.216370  6647 net.cpp:148] Setting up res3a_branch2b/relu
I0701 15:17:16.216372  6647 net.cpp:155] Top shape: 42 128 28 28 (4214784)
I0701 15:17:16.216374  6647 net.cpp:163] Memory required for data: 783949992
I0701 15:17:16.216377  6647 layer_factory.hpp:77] Creating layer pool3
I0701 15:17:16.216379  6647 net.cpp:98] Creating Layer pool3
I0701 15:17:16.216382  6647 net.cpp:439] pool3 <- res3a_branch2b/bn
I0701 15:17:16.216384  6647 net.cpp:413] pool3 -> pool3
I0701 15:17:16.216423  6647 net.cpp:148] Setting up pool3
I0701 15:17:16.216426  6647 net.cpp:155] Top shape: 42 128 14 14 (1053696)
I0701 15:17:16.216428  6647 net.cpp:163] Memory required for data: 788164776
I0701 15:17:16.216430  6647 layer_factory.hpp:77] Creating layer res4a_branch2a
I0701 15:17:16.216434  6647 net.cpp:98] Creating Layer res4a_branch2a
I0701 15:17:16.216437  6647 net.cpp:439] res4a_branch2a <- pool3
I0701 15:17:16.216440  6647 net.cpp:413] res4a_branch2a -> res4a_branch2a
I0701 15:17:16.222544  6647 net.cpp:148] Setting up res4a_branch2a
I0701 15:17:16.222553  6647 net.cpp:155] Top shape: 42 256 14 14 (2107392)
I0701 15:17:16.222555  6647 net.cpp:163] Memory required for data: 796594344
I0701 15:17:16.222559  6647 layer_factory.hpp:77] Creating layer res4a_branch2a/bn
I0701 15:17:16.222563  6647 net.cpp:98] Creating Layer res4a_branch2a/bn
I0701 15:17:16.222566  6647 net.cpp:439] res4a_branch2a/bn <- res4a_branch2a
I0701 15:17:16.222569  6647 net.cpp:413] res4a_branch2a/bn -> res4a_branch2a/bn
I0701 15:17:16.223218  6647 net.cpp:148] Setting up res4a_branch2a/bn
I0701 15:17:16.223224  6647 net.cpp:155] Top shape: 42 256 14 14 (2107392)
I0701 15:17:16.223227  6647 net.cpp:163] Memory required for data: 805023912
I0701 15:17:16.223233  6647 layer_factory.hpp:77] Creating layer res4a_branch2a/relu
I0701 15:17:16.223237  6647 net.cpp:98] Creating Layer res4a_branch2a/relu
I0701 15:17:16.223238  6647 net.cpp:439] res4a_branch2a/relu <- res4a_branch2a/bn
I0701 15:17:16.223242  6647 net.cpp:400] res4a_branch2a/relu -> res4a_branch2a/bn (in-place)
I0701 15:17:16.223245  6647 net.cpp:148] Setting up res4a_branch2a/relu
I0701 15:17:16.223248  6647 net.cpp:155] Top shape: 42 256 14 14 (2107392)
I0701 15:17:16.223250  6647 net.cpp:163] Memory required for data: 813453480
I0701 15:17:16.223253  6647 layer_factory.hpp:77] Creating layer res4a_branch2b
I0701 15:17:16.223256  6647 net.cpp:98] Creating Layer res4a_branch2b
I0701 15:17:16.223259  6647 net.cpp:439] res4a_branch2b <- res4a_branch2a/bn
I0701 15:17:16.223264  6647 net.cpp:413] res4a_branch2b -> res4a_branch2b
I0701 15:17:16.226442  6647 net.cpp:148] Setting up res4a_branch2b
I0701 15:17:16.226449  6647 net.cpp:155] Top shape: 42 256 14 14 (2107392)
I0701 15:17:16.226450  6647 net.cpp:163] Memory required for data: 821883048
I0701 15:17:16.226454  6647 layer_factory.hpp:77] Creating layer res4a_branch2b/bn
I0701 15:17:16.226459  6647 net.cpp:98] Creating Layer res4a_branch2b/bn
I0701 15:17:16.226461  6647 net.cpp:439] res4a_branch2b/bn <- res4a_branch2b
I0701 15:17:16.226465  6647 net.cpp:413] res4a_branch2b/bn -> res4a_branch2b/bn
I0701 15:17:16.227088  6647 net.cpp:148] Setting up res4a_branch2b/bn
I0701 15:17:16.227094  6647 net.cpp:155] Top shape: 42 256 14 14 (2107392)
I0701 15:17:16.227097  6647 net.cpp:163] Memory required for data: 830312616
I0701 15:17:16.227102  6647 layer_factory.hpp:77] Creating layer res4a_branch2b/relu
I0701 15:17:16.227105  6647 net.cpp:98] Creating Layer res4a_branch2b/relu
I0701 15:17:16.227108  6647 net.cpp:439] res4a_branch2b/relu <- res4a_branch2b/bn
I0701 15:17:16.227118  6647 net.cpp:400] res4a_branch2b/relu -> res4a_branch2b/bn (in-place)
I0701 15:17:16.227123  6647 net.cpp:148] Setting up res4a_branch2b/relu
I0701 15:17:16.227125  6647 net.cpp:155] Top shape: 42 256 14 14 (2107392)
I0701 15:17:16.227128  6647 net.cpp:163] Memory required for data: 838742184
I0701 15:17:16.227129  6647 layer_factory.hpp:77] Creating layer pool4
I0701 15:17:16.227133  6647 net.cpp:98] Creating Layer pool4
I0701 15:17:16.227135  6647 net.cpp:439] pool4 <- res4a_branch2b/bn
I0701 15:17:16.227138  6647 net.cpp:413] pool4 -> pool4
I0701 15:17:16.227246  6647 net.cpp:148] Setting up pool4
I0701 15:17:16.227250  6647 net.cpp:155] Top shape: 42 256 7 7 (526848)
I0701 15:17:16.227252  6647 net.cpp:163] Memory required for data: 840849576
I0701 15:17:16.227254  6647 layer_factory.hpp:77] Creating layer res5a_branch2a
I0701 15:17:16.227258  6647 net.cpp:98] Creating Layer res5a_branch2a
I0701 15:17:16.227262  6647 net.cpp:439] res5a_branch2a <- pool4
I0701 15:17:16.227264  6647 net.cpp:413] res5a_branch2a -> res5a_branch2a
I0701 15:17:16.252014  6647 net.cpp:148] Setting up res5a_branch2a
I0701 15:17:16.252038  6647 net.cpp:155] Top shape: 42 512 7 7 (1053696)
I0701 15:17:16.252040  6647 net.cpp:163] Memory required for data: 845064360
I0701 15:17:16.252048  6647 layer_factory.hpp:77] Creating layer res5a_branch2a/bn
I0701 15:17:16.252055  6647 net.cpp:98] Creating Layer res5a_branch2a/bn
I0701 15:17:16.252058  6647 net.cpp:439] res5a_branch2a/bn <- res5a_branch2a
I0701 15:17:16.252063  6647 net.cpp:413] res5a_branch2a/bn -> res5a_branch2a/bn
I0701 15:17:16.252748  6647 net.cpp:148] Setting up res5a_branch2a/bn
I0701 15:17:16.252753  6647 net.cpp:155] Top shape: 42 512 7 7 (1053696)
I0701 15:17:16.252756  6647 net.cpp:163] Memory required for data: 849279144
I0701 15:17:16.252763  6647 layer_factory.hpp:77] Creating layer res5a_branch2a/relu
I0701 15:17:16.252768  6647 net.cpp:98] Creating Layer res5a_branch2a/relu
I0701 15:17:16.252769  6647 net.cpp:439] res5a_branch2a/relu <- res5a_branch2a/bn
I0701 15:17:16.252773  6647 net.cpp:400] res5a_branch2a/relu -> res5a_branch2a/bn (in-place)
I0701 15:17:16.252777  6647 net.cpp:148] Setting up res5a_branch2a/relu
I0701 15:17:16.252780  6647 net.cpp:155] Top shape: 42 512 7 7 (1053696)
I0701 15:17:16.252782  6647 net.cpp:163] Memory required for data: 853493928
I0701 15:17:16.252784  6647 layer_factory.hpp:77] Creating layer res5a_branch2b
I0701 15:17:16.252789  6647 net.cpp:98] Creating Layer res5a_branch2b
I0701 15:17:16.252792  6647 net.cpp:439] res5a_branch2b <- res5a_branch2a/bn
I0701 15:17:16.252794  6647 net.cpp:413] res5a_branch2b -> res5a_branch2b
I0701 15:17:16.265622  6647 net.cpp:148] Setting up res5a_branch2b
I0701 15:17:16.265632  6647 net.cpp:155] Top shape: 42 512 7 7 (1053696)
I0701 15:17:16.265635  6647 net.cpp:163] Memory required for data: 857708712
I0701 15:17:16.265645  6647 layer_factory.hpp:77] Creating layer res5a_branch2b/bn
I0701 15:17:16.265650  6647 net.cpp:98] Creating Layer res5a_branch2b/bn
I0701 15:17:16.265652  6647 net.cpp:439] res5a_branch2b/bn <- res5a_branch2b
I0701 15:17:16.265656  6647 net.cpp:413] res5a_branch2b/bn -> res5a_branch2b/bn
I0701 15:17:16.266319  6647 net.cpp:148] Setting up res5a_branch2b/bn
I0701 15:17:16.266325  6647 net.cpp:155] Top shape: 42 512 7 7 (1053696)
I0701 15:17:16.266327  6647 net.cpp:163] Memory required for data: 861923496
I0701 15:17:16.266333  6647 layer_factory.hpp:77] Creating layer res5a_branch2b/relu
I0701 15:17:16.266337  6647 net.cpp:98] Creating Layer res5a_branch2b/relu
I0701 15:17:16.266340  6647 net.cpp:439] res5a_branch2b/relu <- res5a_branch2b/bn
I0701 15:17:16.266343  6647 net.cpp:400] res5a_branch2b/relu -> res5a_branch2b/bn (in-place)
I0701 15:17:16.266347  6647 net.cpp:148] Setting up res5a_branch2b/relu
I0701 15:17:16.266350  6647 net.cpp:155] Top shape: 42 512 7 7 (1053696)
I0701 15:17:16.266352  6647 net.cpp:163] Memory required for data: 866138280
I0701 15:17:16.266355  6647 layer_factory.hpp:77] Creating layer pool5
I0701 15:17:16.266368  6647 net.cpp:98] Creating Layer pool5
I0701 15:17:16.266371  6647 net.cpp:439] pool5 <- res5a_branch2b/bn
I0701 15:17:16.266374  6647 net.cpp:413] pool5 -> pool5
I0701 15:17:16.266408  6647 net.cpp:148] Setting up pool5
I0701 15:17:16.266412  6647 net.cpp:155] Top shape: 42 512 1 1 (21504)
I0701 15:17:16.266414  6647 net.cpp:163] Memory required for data: 866224296
I0701 15:17:16.266417  6647 layer_factory.hpp:77] Creating layer fc1000
I0701 15:17:16.266420  6647 net.cpp:98] Creating Layer fc1000
I0701 15:17:16.266422  6647 net.cpp:439] fc1000 <- pool5
I0701 15:17:16.266425  6647 net.cpp:413] fc1000 -> fc1000
I0701 15:17:16.277427  6647 net.cpp:148] Setting up fc1000
I0701 15:17:16.277438  6647 net.cpp:155] Top shape: 42 1000 (42000)
I0701 15:17:16.277441  6647 net.cpp:163] Memory required for data: 866392296
I0701 15:17:16.277446  6647 layer_factory.hpp:77] Creating layer loss
I0701 15:17:16.277451  6647 net.cpp:98] Creating Layer loss
I0701 15:17:16.277453  6647 net.cpp:439] loss <- fc1000
I0701 15:17:16.277456  6647 net.cpp:439] loss <- label
I0701 15:17:16.277462  6647 net.cpp:413] loss -> loss
I0701 15:17:16.277472  6647 layer_factory.hpp:77] Creating layer loss
…
I0701 15:17:16.278326  6647 solver.cpp:182] Creating test net (#0) specified by test_net file: training/imagenet_jacintonet11v2_2017-07-01_15-15-58/sparse/test.prototxt
I0701 15:17:16.278522  6647 net.cpp:56] Initializing net from parameters: 
name: "jacintonet11v2_test"
state {
  phase: TEST
}
layer {
  name: "data"
  type: "Data"
  top: "data"
  top: "label"
  transform_param {
    mirror: false
    crop_size: 224
    mean_value: 0
    mean_value: 0
    mean_value: 0
  }
  data_param {
    source: "./data/ilsvrc12_val_lmdb"
    batch_size: 50
    backend: LMDB
    threads: 1
  }
}
layer {
  name: "data/bias"
  type: "Bias"
  bottom: "data"
  top: "data/bias"
  param {
    lr_mult: 0
    decay_mult: 0
  }
  bias_param {
    filler {
      type: "constant"
      value: -128
    }
  }
}
layer {
  name: "conv1a"
  type: "Convolution"
  bottom: "data/bias"
  top: "conv1a"
  param {
    lr_mult: 1
    decay_mult: 1
  }
  param {
    lr_mult: 2
    decay_mult: 0
  }
  convolution_param {
    num_output: 32
    bias_term: true
    pad: 2
    kernel_size: 5
    group: 1
    stride: 2
    weight_filler {
      type: "msra"
    }
    bias_filler {
      type: "constant"
      value: 0
    }
    dilation: 1
  }
}
layer {
  name: "conv1a/bn"
  type: "BatchNorm"
  bottom: "conv1a"
  top: "conv1a/bn"
  param {
    lr_mult: 1
    decay_mult: 1
  }
  param {
    lr_mult: 1
    decay_mult: 1
  }
  param {
    lr_mult: 0
    decay_mult: 0
  }
  param {
    lr_mult: 0
    decay_mult: 0
  }
  batch_norm_param {
    moving_average_fraction: 0.99
    eps: 0.0001
    scale_filler {
      type: "constant"
      value: 1
    }
    bias_filler {
      type: "constant"
      value: 0
    }
  }
}
layer {
  name: "conv1a/relu"
  type: "ReLU"
  bottom: "conv1a/bn"
  top: "conv1a/bn"
}
layer {
  name: "conv1b"
  type: "Convolution"
  bottom: "conv1a/bn"
  top: "conv1b"
  param {
    lr_mult: 1
    decay_mult: 1
  }
  param {
    lr_mult: 2
    decay_mult: 0
  }
  convolution_param {
    num_output: 32
    bias_term: true
    pad: 1
    kernel_size: 3
    group: 4
    stride: 1
    weight_filler {
      type: "msra"
    }
    bias_filler {
      type: "constant"
      value: 0
    }
    dilation: 1
  }
}
layer {
  name: "conv1b/bn"
  type: "BatchNorm"
  bottom: "conv1b"
  top: "conv1b/bn"
  param {
    lr_mult: 1
    decay_mult: 1
  }
  param {
    lr_mult: 1
    decay_mult: 1
  }
  param {
    lr_mult: 0
    decay_mult: 0
  }
  param {
    lr_mult: 0
    decay_mult: 0
  }
  batch_norm_param {
    moving_average_fraction: 0.99
    eps: 0.0001
    scale_filler {
      type: "constant"
      value: 1
    }
    bias_filler {
      type: "constant"
      value: 0
    }
  }
}
layer {
  name: "conv1b/relu"
  type: "ReLU"
  bottom: "conv1b/bn"
  top: "conv1b/bn"
}
layer {
  name: "pool1"
  type: "Pooling"
  bottom: "conv1b/bn"
  top: "pool1"
  pooling_param {
    pool: MAX
    kernel_size: 2
    stride: 2
  }
}
layer {
  name: "res2a_branch2a"
  type: "Convolution"
  bottom: "pool1"
  top: "res2a_branch2a"
  param {
    lr_mult: 1
    decay_mult: 1
  }
  param {
    lr_mult: 2
    decay_mult: 0
  }
  convolution_param {
    num_output: 64
    bias_term: true
    pad: 1
    kernel_size: 3
    group: 1
    stride: 1
    weight_filler {
      type: "msra"
    }
    bias_filler {
      type: "constant"
      value: 0
    }
    dilation: 1
  }
}
layer {
  name: "res2a_branch2a/bn"
  type: "BatchNorm"
  bottom: "res2a_branch2a"
  top: "res2a_branch2a/bn"
  param {
    lr_mult: 1
    decay_mult: 1
  }
  param {
    lr_mult: 1
    decay_mult: 1
  }
  param {
    lr_mult: 0
    decay_mult: 0
  }
  param {
    lr_mult: 0
    decay_mult: 0
  }
  batch_norm_param {
    moving_average_fraction: 0.99
    eps: 0.0001
    scale_filler {
      type: "constant"
      value: 1
    }
    bias_filler {
      type: "constant"
      value: 0
    }
  }
}
layer {
  name: "res2a_branch2a/relu"
  type: "ReLU"
  bottom: "res2a_branch2a/bn"
  top: "res2a_branch2a/bn"
}
layer {
  name: "res2a_branch2b"
  type: "Convolution"
  bottom: "res2a_branch2a/bn"
  top: "res2a_branch2b"
  param {
    lr_mult: 1
    decay_mult: 1
  }
  param {
    lr_mult: 2
    decay_mult: 0
  }
  convolution_param {
    num_output: 64
    bias_term: true
    pad: 1
    kernel_size: 3
    group: 4
    stride: 1
    weight_filler {
      type: "msra"
    }
    bias_filler {
      type: "constant"
      value: 0
    }
    dilation: 1
  }
}
layer {
  name: "res2a_branch2b/bn"
  type: "BatchNorm"
  bottom: "res2a_branch2b"
  top: "res2a_branch2b/bn"
  param {
    lr_mult: 1
    decay_mult: 1
  }
  param {
    lr_mult: 1
    decay_mult: 1
  }
  param {
    lr_mult: 0
    decay_mult: 0
  }
  param {
    lr_mult: 0
    decay_mult: 0
  }
  batch_norm_param {
    moving_average_fraction: 0.99
    eps: 0.0001
    scale_filler {
      type: "constant"
      value: 1
    }
    bias_filler {
      type: "constant"
      value: 0
    }
  }
}
layer {
  name: "res2a_branch2b/relu"
  type: "ReLU"
  bottom: "res2a_branch2b/bn"
  top: "res2a_branch2b/bn"
}
layer {
  name: "pool2"
  type: "Pooling"
  bottom: "res2a_branch2b/bn"
  top: "pool2"
  pooling_param {
    pool: MAX
    kernel_size: 2
    stride: 2
  }
}
layer {
  name: "res3a_branch2a"
  type: "Convolution"
  bottom: "pool2"
  top: "res3a_branch2a"
  param {
    lr_mult: 1
    decay_mult: 1
  }
  param {
    lr_mult: 2
    decay_mult: 0
  }
  convolution_param {
    num_output: 128
    bias_term: true
    pad: 1
    kernel_size: 3
    group: 1
    stride: 1
    weight_filler {
      type: "msra"
    }
    bias_filler {
      type: "constant"
      value: 0
    }
    dilation: 1
  }
}
layer {
  name: "res3a_branch2a/bn"
  type: "BatchNorm"
  bottom: "res3a_branch2a"
  top: "res3a_branch2a/bn"
  param {
    lr_mult: 1
    decay_mult: 1
  }
  param {
    lr_mult: 1
    decay_mult: 1
  }
  param {
    lr_mult: 0
    decay_mult: 0
  }
  param {
    lr_mult: 0
    decay_mult: 0
  }
  batch_norm_param {
    moving_average_fraction: 0.99
    eps: 0.0001
    scale_filler {
      type: "constant"
      value: 1
    }
    bias_filler {
      type: "constant"
      value: 0
    }
  }
}
layer {
  name: "res3a_branch2a/relu"
  type: "ReLU"
  bottom: "res3a_branch2a/bn"
  top: "res3a_branch2a/bn"
}
layer {
  name: "res3a_branch2b"
  type: "Convolution"
  bottom: "res3a_branch2a/bn"
  top: "res3a_branch2b"
  param {
    lr_mult: 1
    decay_mult: 1
  }
  param {
    lr_mult: 2
    decay_mult: 0
  }
  convolution_param {
    num_output: 128
    bias_term: true
    pad: 1
    kernel_size: 3
    group: 4
    stride: 1
    weight_filler {
      type: "msra"
    }
    bias_filler {
      type: "constant"
      value: 0
    }
    dilation: 1
  }
}
layer {
  name: "res3a_branch2b/bn"
  type: "BatchNorm"
  bottom: "res3a_branch2b"
  top: "res3a_branch2b/bn"
  param {
    lr_mult: 1
    decay_mult: 1
  }
  param {
    lr_mult: 1
    decay_mult: 1
  }
  param {
    lr_mult: 0
    decay_mult: 0
  }
  param {
    lr_mult: 0
    decay_mult: 0
  }
  batch_norm_param {
    moving_average_fraction: 0.99
    eps: 0.0001
    scale_filler {
      type: "constant"
      value: 1
    }
    bias_filler {
      type: "constant"
      value: 0
    }
  }
}
layer {
  name: "res3a_branch2b/relu"
  type: "ReLU"
  bottom: "res3a_branch2b/bn"
  top: "res3a_branch2b/bn"
}
layer {
  name: "pool3"
  type: "Pooling"
  bottom: "res3a_branch2b/bn"
  top: "pool3"
  pooling_param {
    pool: MAX
    kernel_size: 2
    stride: 2
  }
}
layer {
  name: "res4a_branch2a"
  type: "Convolution"
  bottom: "pool3"
  top: "res4a_branch2a"
  param {
    lr_mult: 1
    decay_mult: 1
  }
  param {
    lr_mult: 2
    decay_mult: 0
  }
  convolution_param {
    num_output: 256
    bias_term: true
    pad: 1
    kernel_size: 3
    group: 1
    stride: 1
    weight_filler {
      type: "msra"
    }
    bias_filler {
      type: "constant"
      value: 0
    }
    dilation: 1
  }
}
layer {
  name: "res4a_branch2a/bn"
  type: "BatchNorm"
  bottom: "res4a_branch2a"
  top: "res4a_branch2a/bn"
  param {
    lr_mult: 1
    decay_mult: 1
  }
  param {
    lr_mult: 1
    decay_mult: 1
  }
  param {
    lr_mult: 0
    decay_mult: 0
  }
  param {
    lr_mult: 0
    decay_mult: 0
  }
  batch_norm_param {
    moving_average_fraction: 0.99
    eps: 0.0001
    scale_filler {
      type: "constant"
      value: 1
    }
    bias_filler {
      type: "constant"
      value: 0
    }
  }
}
layer {
  name: "res4a_branch2a/relu"
  type: "ReLU"
  bottom: "res4a_branch2a/bn"
  top: "res4a_branch2a/bn"
}
layer {
  name: "res4a_branch2b"
  type: "Convolution"
  bottom: "res4a_branch2a/bn"
  top: "res4a_branch2b"
  param {
    lr_mult: 1
    decay_mult: 1
  }
  param {
    lr_mult: 2
    decay_mult: 0
  }
  convolution_param {
    num_output: 256
    bias_term: true
    pad: 1
    kernel_size: 3
    group: 4
    stride: 1
    weight_filler {
      type: "msra"
    }
    bias_filler {
      type: "constant"
      value: 0
    }
    dilation: 1
  }
}
layer {
  name: "res4a_branch2b/bn"
  type: "BatchNorm"
  bottom: "res4a_branch2b"
  top: "res4a_branch2b/bn"
  param {
    lr_mult: 1
    decay_mult: 1
  }
  param {
    lr_mult: 1
    decay_mult: 1
  }
  param {
    lr_mult: 0
    decay_mult: 0
  }
  param {
    lr_mult: 0
    decay_mult: 0
  }
  batch_norm_param {
    moving_average_fraction: 0.99
    eps: 0.0001
    scale_filler {
      type: "constant"
      value: 1
    }
    bias_filler {
      type: "constant"
      value: 0
    }
  }
}
layer {
  name: "res4a_branch2b/relu"
  type: "ReLU"
  bottom: "res4a_branch2b/bn"
  top: "res4a_branch2b/bn"
}
layer {
  name: "pool4"
  type: "Pooling"
  bottom: "res4a_branch2b/bn"
  top: "pool4"
  pooling_param {
    pool: MAX
    kernel_size: 2
    stride: 2
  }
}
layer {
  name: "res5a_branch2a"
  type: "Convolution"
  bottom: "pool4"
  top: "res5a_branch2a"
  param {
    lr_mult: 1
    decay_mult: 1
  }
  param {
    lr_mult: 2
    decay_mult: 0
  }
  convolution_param {
    num_output: 512
    bias_term: true
    pad: 1
    kernel_size: 3
    group: 1
    stride: 1
    weight_filler {
      type: "msra"
    }
    bias_filler {
      type: "constant"
      value: 0
    }
    dilation: 1
  }
}
layer {
  name: "res5a_branch2a/bn"
  type: "BatchNorm"
  bottom: "res5a_branch2a"
  top: "res5a_branch2a/bn"
  param {
    lr_mult: 1
    decay_mult: 1
  }
  param {
    lr_mult: 1
    decay_mult: 1
  }
  param {
    lr_mult: 0
    decay_mult: 0
  }
  param {
    lr_mult: 0
    decay_mult: 0
  }
  batch_norm_param {
    moving_average_fraction: 0.99
    eps: 0.0001
    scale_filler {
      type: "constant"
      value: 1
    }
    bias_filler {
      type: "constant"
      value: 0
    }
  }
}
layer {
  name: "res5a_branch2a/relu"
  type: "ReLU"
  bottom: "res5a_branch2a/bn"
  top: "res5a_branch2a/bn"
}
layer {
  name: "res5a_branch2b"
  type: "Convolution"
  bottom: "res5a_branch2a/bn"
  top: "res5a_branch2b"
  param {
    lr_mult: 1
    decay_mult: 1
  }
  param {
    lr_mult: 2
    decay_mult: 0
  }
  convolution_param {
    num_output: 512
    bias_term: true
    pad: 1
    kernel_size: 3
    group: 4
    stride: 1
    weight_filler {
      type: "msra"
    }
    bias_filler {
      type: "constant"
      value: 0
    }
    dilation: 1
  }
}
layer {
  name: "res5a_branch2b/bn"
  type: "BatchNorm"
  bottom: "res5a_branch2b"
  top: "res5a_branch2b/bn"
  param {
    lr_mult: 1
    decay_mult: 1
  }
  param {
    lr_mult: 1
    decay_mult: 1
  }
  param {
    lr_mult: 0
    decay_mult: 0
  }
  param {
    lr_mult: 0
    decay_mult: 0
  }
  batch_norm_param {
    moving_average_fraction: 0.99
    eps: 0.0001
    scale_filler {
      type: "constant"
      value: 1
    }
    bias_filler {
      type: "constant"
      value: 0
    }
  }
}
layer {
  name: "res5a_branch2b/relu"
  type: "ReLU"
  bottom: "res5a_branch2b/bn"
  top: "res5a_branch2b/bn"
}
layer {
  name: "pool5"
  type: "Pooling"
  bottom: "res5a_branch2b/bn"
  top: "pool5"
  pooling_param {
    pool: AVE
    global_pooling: true
  }
}
layer {
  name: "fc1000"
  type: "InnerProduct"
  bottom: "pool5"
  top: "fc1000"
  param {
    lr_mult: 1
    decay_mult: 1
  }
  param {
    lr_mult: 2
    decay_mult: 0
  }
  inner_product_param {
    num_output: 1000
    weight_filler {
      type: "msra"
    }
    bias_filler {
      type: "constant"
      value: 0
    }
  }
}
layer {
  name: "loss"
  type: "SoftmaxWithLoss"
  bottom: "fc1000"
  bottom: "label"
  top: "loss"
  propagate_down: true
  propagate_down: false
}
layer {
  name: "accuracy/top1"
  type: "Accuracy"
  bottom: "fc1000"
  bottom: "label"
  top: "accuracy/top1"
  include {
    phase: TEST
  }
}
layer {
  name: "accuracy/top5"
  type: "Accuracy"
  bottom: "fc1000"
  bottom: "label"
  top: "accuracy/top5"
  include {
    phase: TEST
  }
  accuracy_param {
    top_k: 5
  }
}
I0701 15:17:16.278632  6647 layer_factory.hpp:77] Creating layer data
I0701 15:17:16.278707  6647 net.cpp:98] Creating Layer data
I0701 15:17:16.278713  6647 net.cpp:413] data -> data
I0701 15:17:16.278720  6647 net.cpp:413] data -> label
I0701 15:17:16.280913  6682 db_lmdb.cpp:35] Opened lmdb ./data/ilsvrc12_val_lmdb
I0701 15:17:16.281985  6647 data_layer.cpp:78] ReshapePrefetch 50, 3, 224, 224
I0701 15:17:16.282065  6647 data_layer.cpp:83] output data size: 50,3,224,224
I0701 15:17:16.312046  6647 net.cpp:148] Setting up data
I0701 15:17:16.312064  6647 net.cpp:155] Top shape: 50 3 224 224 (7526400)
I0701 15:17:16.312067  6647 net.cpp:155] Top shape: 50 (50)
I0701 15:17:16.312069  6647 net.cpp:163] Memory required for data: 30105800
I0701 15:17:16.312073  6647 layer_factory.hpp:77] Creating layer label_data_1_split
I0701 15:17:16.312083  6647 net.cpp:98] Creating Layer label_data_1_split
I0701 15:17:16.312084  6647 net.cpp:439] label_data_1_split <- label
I0701 15:17:16.312088  6647 net.cpp:413] label_data_1_split -> label_data_1_split_0
I0701 15:17:16.312093  6647 net.cpp:413] label_data_1_split -> label_data_1_split_1
I0701 15:17:16.312096  6647 net.cpp:413] label_data_1_split -> label_data_1_split_2
I0701 15:17:16.312237  6647 net.cpp:148] Setting up label_data_1_split
I0701 15:17:16.312247  6647 net.cpp:155] Top shape: 50 (50)
I0701 15:17:16.312250  6647 net.cpp:155] Top shape: 50 (50)
I0701 15:17:16.312252  6647 net.cpp:155] Top shape: 50 (50)
I0701 15:17:16.312254  6647 net.cpp:163] Memory required for data: 30106400
I0701 15:17:16.312256  6647 layer_factory.hpp:77] Creating layer data/bias
I0701 15:17:16.312261  6647 net.cpp:98] Creating Layer data/bias
I0701 15:17:16.312264  6647 net.cpp:439] data/bias <- data
I0701 15:17:16.312268  6647 net.cpp:413] data/bias -> data/bias
I0701 15:17:16.312415  6647 net.cpp:148] Setting up data/bias
I0701 15:17:16.312422  6647 net.cpp:155] Top shape: 50 3 224 224 (7526400)
I0701 15:17:16.312423  6647 net.cpp:163] Memory required for data: 60212000
I0701 15:17:16.312427  6647 layer_factory.hpp:77] Creating layer conv1a
I0701 15:17:16.312433  6647 net.cpp:98] Creating Layer conv1a
I0701 15:17:16.312438  6647 net.cpp:439] conv1a <- data/bias
I0701 15:17:16.312440  6647 net.cpp:413] conv1a -> conv1a
I0701 15:17:16.312826  6647 net.cpp:148] Setting up conv1a
I0701 15:17:16.312832  6647 net.cpp:155] Top shape: 50 32 112 112 (20070400)
I0701 15:17:16.312834  6647 net.cpp:163] Memory required for data: 140493600
I0701 15:17:16.312839  6647 layer_factory.hpp:77] Creating layer conv1a/bn
I0701 15:17:16.312844  6647 net.cpp:98] Creating Layer conv1a/bn
I0701 15:17:16.312845  6647 net.cpp:439] conv1a/bn <- conv1a
I0701 15:17:16.312849  6647 net.cpp:413] conv1a/bn -> conv1a/bn
I0701 15:17:16.316025  6647 net.cpp:148] Setting up conv1a/bn
I0701 15:17:16.316045  6647 net.cpp:155] Top shape: 50 32 112 112 (20070400)
I0701 15:17:16.316048  6647 net.cpp:163] Memory required for data: 220775200
I0701 15:17:16.316056  6647 layer_factory.hpp:77] Creating layer conv1a/relu
I0701 15:17:16.316062  6647 net.cpp:98] Creating Layer conv1a/relu
I0701 15:17:16.316066  6647 net.cpp:439] conv1a/relu <- conv1a/bn
I0701 15:17:16.316071  6647 net.cpp:400] conv1a/relu -> conv1a/bn (in-place)
I0701 15:17:16.316076  6647 net.cpp:148] Setting up conv1a/relu
I0701 15:17:16.316082  6647 net.cpp:155] Top shape: 50 32 112 112 (20070400)
I0701 15:17:16.316085  6647 net.cpp:163] Memory required for data: 301056800
I0701 15:17:16.316088  6647 layer_factory.hpp:77] Creating layer conv1b
I0701 15:17:16.316097  6647 net.cpp:98] Creating Layer conv1b
I0701 15:17:16.316102  6647 net.cpp:439] conv1b <- conv1a/bn
I0701 15:17:16.316107  6647 net.cpp:413] conv1b -> conv1b
I0701 15:17:16.316465  6647 net.cpp:148] Setting up conv1b
I0701 15:17:16.316473  6647 net.cpp:155] Top shape: 50 32 112 112 (20070400)
I0701 15:17:16.316476  6647 net.cpp:163] Memory required for data: 381338400
I0701 15:17:16.316483  6647 layer_factory.hpp:77] Creating layer conv1b/bn
I0701 15:17:16.316490  6647 net.cpp:98] Creating Layer conv1b/bn
I0701 15:17:16.316494  6647 net.cpp:439] conv1b/bn <- conv1b
I0701 15:17:16.316499  6647 net.cpp:413] conv1b/bn -> conv1b/bn
I0701 15:17:16.317239  6647 net.cpp:148] Setting up conv1b/bn
I0701 15:17:16.317245  6647 net.cpp:155] Top shape: 50 32 112 112 (20070400)
I0701 15:17:16.317248  6647 net.cpp:163] Memory required for data: 461620000
I0701 15:17:16.317260  6647 layer_factory.hpp:77] Creating layer conv1b/relu
I0701 15:17:16.317265  6647 net.cpp:98] Creating Layer conv1b/relu
I0701 15:17:16.317270  6647 net.cpp:439] conv1b/relu <- conv1b/bn
I0701 15:17:16.317275  6647 net.cpp:400] conv1b/relu -> conv1b/bn (in-place)
I0701 15:17:16.317281  6647 net.cpp:148] Setting up conv1b/relu
I0701 15:17:16.317284  6647 net.cpp:155] Top shape: 50 32 112 112 (20070400)
I0701 15:17:16.317288  6647 net.cpp:163] Memory required for data: 541901600
I0701 15:17:16.317291  6647 layer_factory.hpp:77] Creating layer pool1
I0701 15:17:16.317298  6647 net.cpp:98] Creating Layer pool1
I0701 15:17:16.317301  6647 net.cpp:439] pool1 <- conv1b/bn
I0701 15:17:16.317306  6647 net.cpp:413] pool1 -> pool1
I0701 15:17:16.317348  6647 net.cpp:148] Setting up pool1
I0701 15:17:16.317353  6647 net.cpp:155] Top shape: 50 32 56 56 (5017600)
I0701 15:17:16.317356  6647 net.cpp:163] Memory required for data: 561972000
I0701 15:17:16.317360  6647 layer_factory.hpp:77] Creating layer res2a_branch2a
I0701 15:17:16.317373  6647 net.cpp:98] Creating Layer res2a_branch2a
I0701 15:17:16.317376  6647 net.cpp:439] res2a_branch2a <- pool1
I0701 15:17:16.317381  6647 net.cpp:413] res2a_branch2a -> res2a_branch2a
I0701 15:17:16.318083  6647 net.cpp:148] Setting up res2a_branch2a
I0701 15:17:16.318090  6647 net.cpp:155] Top shape: 50 64 56 56 (10035200)
I0701 15:17:16.318094  6647 net.cpp:163] Memory required for data: 602112800
I0701 15:17:16.318101  6647 layer_factory.hpp:77] Creating layer res2a_branch2a/bn
I0701 15:17:16.318107  6647 net.cpp:98] Creating Layer res2a_branch2a/bn
I0701 15:17:16.318111  6647 net.cpp:439] res2a_branch2a/bn <- res2a_branch2a
I0701 15:17:16.318116  6647 net.cpp:413] res2a_branch2a/bn -> res2a_branch2a/bn
I0701 15:17:16.318882  6647 net.cpp:148] Setting up res2a_branch2a/bn
I0701 15:17:16.318891  6647 net.cpp:155] Top shape: 50 64 56 56 (10035200)
I0701 15:17:16.318894  6647 net.cpp:163] Memory required for data: 642253600
I0701 15:17:16.318902  6647 layer_factory.hpp:77] Creating layer res2a_branch2a/relu
I0701 15:17:16.318908  6647 net.cpp:98] Creating Layer res2a_branch2a/relu
I0701 15:17:16.318912  6647 net.cpp:439] res2a_branch2a/relu <- res2a_branch2a/bn
I0701 15:17:16.318917  6647 net.cpp:400] res2a_branch2a/relu -> res2a_branch2a/bn (in-place)
I0701 15:17:16.318923  6647 net.cpp:148] Setting up res2a_branch2a/relu
I0701 15:17:16.318928  6647 net.cpp:155] Top shape: 50 64 56 56 (10035200)
I0701 15:17:16.318939  6647 net.cpp:163] Memory required for data: 682394400
I0701 15:17:16.318943  6647 layer_factory.hpp:77] Creating layer res2a_branch2b
I0701 15:17:16.318950  6647 net.cpp:98] Creating Layer res2a_branch2b
I0701 15:17:16.318954  6647 net.cpp:439] res2a_branch2b <- res2a_branch2a/bn
I0701 15:17:16.318959  6647 net.cpp:413] res2a_branch2b -> res2a_branch2b
I0701 15:17:16.319463  6647 net.cpp:148] Setting up res2a_branch2b
I0701 15:17:16.319470  6647 net.cpp:155] Top shape: 50 64 56 56 (10035200)
I0701 15:17:16.319474  6647 net.cpp:163] Memory required for data: 722535200
I0701 15:17:16.319480  6647 layer_factory.hpp:77] Creating layer res2a_branch2b/bn
I0701 15:17:16.319486  6647 net.cpp:98] Creating Layer res2a_branch2b/bn
I0701 15:17:16.319490  6647 net.cpp:439] res2a_branch2b/bn <- res2a_branch2b
I0701 15:17:16.319495  6647 net.cpp:413] res2a_branch2b/bn -> res2a_branch2b/bn
I0701 15:17:16.320323  6647 net.cpp:148] Setting up res2a_branch2b/bn
I0701 15:17:16.320332  6647 net.cpp:155] Top shape: 50 64 56 56 (10035200)
I0701 15:17:16.320334  6647 net.cpp:163] Memory required for data: 762676000
I0701 15:17:16.320343  6647 layer_factory.hpp:77] Creating layer res2a_branch2b/relu
I0701 15:17:16.320348  6647 net.cpp:98] Creating Layer res2a_branch2b/relu
I0701 15:17:16.320351  6647 net.cpp:439] res2a_branch2b/relu <- res2a_branch2b/bn
I0701 15:17:16.320356  6647 net.cpp:400] res2a_branch2b/relu -> res2a_branch2b/bn (in-place)
I0701 15:17:16.320363  6647 net.cpp:148] Setting up res2a_branch2b/relu
I0701 15:17:16.320366  6647 net.cpp:155] Top shape: 50 64 56 56 (10035200)
I0701 15:17:16.320370  6647 net.cpp:163] Memory required for data: 802816800
I0701 15:17:16.320374  6647 layer_factory.hpp:77] Creating layer pool2
I0701 15:17:16.320379  6647 net.cpp:98] Creating Layer pool2
I0701 15:17:16.320384  6647 net.cpp:439] pool2 <- res2a_branch2b/bn
I0701 15:17:16.320387  6647 net.cpp:413] pool2 -> pool2
I0701 15:17:16.320438  6647 net.cpp:148] Setting up pool2
I0701 15:17:16.320443  6647 net.cpp:155] Top shape: 50 64 28 28 (2508800)
I0701 15:17:16.320447  6647 net.cpp:163] Memory required for data: 812852000
I0701 15:17:16.320451  6647 layer_factory.hpp:77] Creating layer res3a_branch2a
I0701 15:17:16.320458  6647 net.cpp:98] Creating Layer res3a_branch2a
I0701 15:17:16.320461  6647 net.cpp:439] res3a_branch2a <- pool2
I0701 15:17:16.320468  6647 net.cpp:413] res3a_branch2a -> res3a_branch2a
I0701 15:17:16.323181  6647 net.cpp:148] Setting up res3a_branch2a
I0701 15:17:16.323192  6647 net.cpp:155] Top shape: 50 128 28 28 (5017600)
I0701 15:17:16.323195  6647 net.cpp:163] Memory required for data: 832922400
I0701 15:17:16.323201  6647 layer_factory.hpp:77] Creating layer res3a_branch2a/bn
I0701 15:17:16.323209  6647 net.cpp:98] Creating Layer res3a_branch2a/bn
I0701 15:17:16.323213  6647 net.cpp:439] res3a_branch2a/bn <- res3a_branch2a
I0701 15:17:16.323218  6647 net.cpp:413] res3a_branch2a/bn -> res3a_branch2a/bn
I0701 15:17:16.323917  6647 net.cpp:148] Setting up res3a_branch2a/bn
I0701 15:17:16.323925  6647 net.cpp:155] Top shape: 50 128 28 28 (5017600)
I0701 15:17:16.323927  6647 net.cpp:163] Memory required for data: 852992800
I0701 15:17:16.323937  6647 layer_factory.hpp:77] Creating layer res3a_branch2a/relu
I0701 15:17:16.323945  6647 net.cpp:98] Creating Layer res3a_branch2a/relu
I0701 15:17:16.323949  6647 net.cpp:439] res3a_branch2a/relu <- res3a_branch2a/bn
I0701 15:17:16.323954  6647 net.cpp:400] res3a_branch2a/relu -> res3a_branch2a/bn (in-place)
I0701 15:17:16.323961  6647 net.cpp:148] Setting up res3a_branch2a/relu
I0701 15:17:16.323966  6647 net.cpp:155] Top shape: 50 128 28 28 (5017600)
I0701 15:17:16.323969  6647 net.cpp:163] Memory required for data: 873063200
I0701 15:17:16.323972  6647 layer_factory.hpp:77] Creating layer res3a_branch2b
I0701 15:17:16.323979  6647 net.cpp:98] Creating Layer res3a_branch2b
I0701 15:17:16.323982  6647 net.cpp:439] res3a_branch2b <- res3a_branch2a/bn
I0701 15:17:16.323987  6647 net.cpp:413] res3a_branch2b -> res3a_branch2b
I0701 15:17:16.325034  6647 net.cpp:148] Setting up res3a_branch2b
I0701 15:17:16.325049  6647 net.cpp:155] Top shape: 50 128 28 28 (5017600)
I0701 15:17:16.325053  6647 net.cpp:163] Memory required for data: 893133600
I0701 15:17:16.325059  6647 layer_factory.hpp:77] Creating layer res3a_branch2b/bn
I0701 15:17:16.325065  6647 net.cpp:98] Creating Layer res3a_branch2b/bn
I0701 15:17:16.325069  6647 net.cpp:439] res3a_branch2b/bn <- res3a_branch2b
I0701 15:17:16.325074  6647 net.cpp:413] res3a_branch2b/bn -> res3a_branch2b/bn
I0701 15:17:16.325755  6647 net.cpp:148] Setting up res3a_branch2b/bn
I0701 15:17:16.325762  6647 net.cpp:155] Top shape: 50 128 28 28 (5017600)
I0701 15:17:16.325765  6647 net.cpp:163] Memory required for data: 913204000
I0701 15:17:16.325778  6647 layer_factory.hpp:77] Creating layer res3a_branch2b/relu
I0701 15:17:16.325783  6647 net.cpp:98] Creating Layer res3a_branch2b/relu
I0701 15:17:16.325788  6647 net.cpp:439] res3a_branch2b/relu <- res3a_branch2b/bn
I0701 15:17:16.325791  6647 net.cpp:400] res3a_branch2b/relu -> res3a_branch2b/bn (in-place)
I0701 15:17:16.325798  6647 net.cpp:148] Setting up res3a_branch2b/relu
I0701 15:17:16.325803  6647 net.cpp:155] Top shape: 50 128 28 28 (5017600)
I0701 15:17:16.325805  6647 net.cpp:163] Memory required for data: 933274400
I0701 15:17:16.325809  6647 layer_factory.hpp:77] Creating layer pool3
I0701 15:17:16.325814  6647 net.cpp:98] Creating Layer pool3
I0701 15:17:16.325819  6647 net.cpp:439] pool3 <- res3a_branch2b/bn
I0701 15:17:16.325824  6647 net.cpp:413] pool3 -> pool3
I0701 15:17:16.325868  6647 net.cpp:148] Setting up pool3
I0701 15:17:16.325875  6647 net.cpp:155] Top shape: 50 128 14 14 (1254400)
I0701 15:17:16.325877  6647 net.cpp:163] Memory required for data: 938292000
I0701 15:17:16.325881  6647 layer_factory.hpp:77] Creating layer res4a_branch2a
I0701 15:17:16.325891  6647 net.cpp:98] Creating Layer res4a_branch2a
I0701 15:17:16.325893  6647 net.cpp:439] res4a_branch2a <- pool3
I0701 15:17:16.325898  6647 net.cpp:413] res4a_branch2a -> res4a_branch2a
I0701 15:17:16.331984  6647 net.cpp:148] Setting up res4a_branch2a
I0701 15:17:16.331990  6647 net.cpp:155] Top shape: 50 256 14 14 (2508800)
I0701 15:17:16.331993  6647 net.cpp:163] Memory required for data: 948327200
I0701 15:17:16.332000  6647 layer_factory.hpp:77] Creating layer res4a_branch2a/bn
I0701 15:17:16.332005  6647 net.cpp:98] Creating Layer res4a_branch2a/bn
I0701 15:17:16.332010  6647 net.cpp:439] res4a_branch2a/bn <- res4a_branch2a
I0701 15:17:16.332015  6647 net.cpp:413] res4a_branch2a/bn -> res4a_branch2a/bn
I0701 15:17:16.332711  6647 net.cpp:148] Setting up res4a_branch2a/bn
I0701 15:17:16.332720  6647 net.cpp:155] Top shape: 50 256 14 14 (2508800)
I0701 15:17:16.332723  6647 net.cpp:163] Memory required for data: 958362400
I0701 15:17:16.332732  6647 layer_factory.hpp:77] Creating layer res4a_branch2a/relu
I0701 15:17:16.332736  6647 net.cpp:98] Creating Layer res4a_branch2a/relu
I0701 15:17:16.332741  6647 net.cpp:439] res4a_branch2a/relu <- res4a_branch2a/bn
I0701 15:17:16.332746  6647 net.cpp:400] res4a_branch2a/relu -> res4a_branch2a/bn (in-place)
I0701 15:17:16.332751  6647 net.cpp:148] Setting up res4a_branch2a/relu
I0701 15:17:16.332756  6647 net.cpp:155] Top shape: 50 256 14 14 (2508800)
I0701 15:17:16.332758  6647 net.cpp:163] Memory required for data: 968397600
I0701 15:17:16.332763  6647 layer_factory.hpp:77] Creating layer res4a_branch2b
I0701 15:17:16.332769  6647 net.cpp:98] Creating Layer res4a_branch2b
I0701 15:17:16.332773  6647 net.cpp:439] res4a_branch2b <- res4a_branch2a/bn
I0701 15:17:16.332778  6647 net.cpp:413] res4a_branch2b -> res4a_branch2b
I0701 15:17:16.335985  6647 net.cpp:148] Setting up res4a_branch2b
I0701 15:17:16.335992  6647 net.cpp:155] Top shape: 50 256 14 14 (2508800)
I0701 15:17:16.335995  6647 net.cpp:163] Memory required for data: 978432800
I0701 15:17:16.336002  6647 layer_factory.hpp:77] Creating layer res4a_branch2b/bn
I0701 15:17:16.336007  6647 net.cpp:98] Creating Layer res4a_branch2b/bn
I0701 15:17:16.336011  6647 net.cpp:439] res4a_branch2b/bn <- res4a_branch2b
I0701 15:17:16.336022  6647 net.cpp:413] res4a_branch2b/bn -> res4a_branch2b/bn
I0701 15:17:16.336696  6647 net.cpp:148] Setting up res4a_branch2b/bn
I0701 15:17:16.336704  6647 net.cpp:155] Top shape: 50 256 14 14 (2508800)
I0701 15:17:16.336707  6647 net.cpp:163] Memory required for data: 988468000
I0701 15:17:16.336716  6647 layer_factory.hpp:77] Creating layer res4a_branch2b/relu
I0701 15:17:16.336720  6647 net.cpp:98] Creating Layer res4a_branch2b/relu
I0701 15:17:16.336724  6647 net.cpp:439] res4a_branch2b/relu <- res4a_branch2b/bn
I0701 15:17:16.336730  6647 net.cpp:400] res4a_branch2b/relu -> res4a_branch2b/bn (in-place)
I0701 15:17:16.336735  6647 net.cpp:148] Setting up res4a_branch2b/relu
I0701 15:17:16.336740  6647 net.cpp:155] Top shape: 50 256 14 14 (2508800)
I0701 15:17:16.336743  6647 net.cpp:163] Memory required for data: 998503200
I0701 15:17:16.336747  6647 layer_factory.hpp:77] Creating layer pool4
I0701 15:17:16.336752  6647 net.cpp:98] Creating Layer pool4
I0701 15:17:16.336755  6647 net.cpp:439] pool4 <- res4a_branch2b/bn
I0701 15:17:16.336760  6647 net.cpp:413] pool4 -> pool4
I0701 15:17:16.336805  6647 net.cpp:148] Setting up pool4
I0701 15:17:16.336810  6647 net.cpp:155] Top shape: 50 256 7 7 (627200)
I0701 15:17:16.336814  6647 net.cpp:163] Memory required for data: 1001012000
I0701 15:17:16.336818  6647 layer_factory.hpp:77] Creating layer res5a_branch2a
I0701 15:17:16.336824  6647 net.cpp:98] Creating Layer res5a_branch2a
I0701 15:17:16.336828  6647 net.cpp:439] res5a_branch2a <- pool4
I0701 15:17:16.336833  6647 net.cpp:413] res5a_branch2a -> res5a_branch2a
I0701 15:17:16.361691  6647 net.cpp:148] Setting up res5a_branch2a
I0701 15:17:16.361713  6647 net.cpp:155] Top shape: 50 512 7 7 (1254400)
I0701 15:17:16.361717  6647 net.cpp:163] Memory required for data: 1006029600
I0701 15:17:16.361724  6647 layer_factory.hpp:77] Creating layer res5a_branch2a/bn
I0701 15:17:16.361737  6647 net.cpp:98] Creating Layer res5a_branch2a/bn
I0701 15:17:16.361742  6647 net.cpp:439] res5a_branch2a/bn <- res5a_branch2a
I0701 15:17:16.361748  6647 net.cpp:413] res5a_branch2a/bn -> res5a_branch2a/bn
I0701 15:17:16.364807  6647 net.cpp:148] Setting up res5a_branch2a/bn
I0701 15:17:16.364815  6647 net.cpp:155] Top shape: 50 512 7 7 (1254400)
I0701 15:17:16.364819  6647 net.cpp:163] Memory required for data: 1011047200
I0701 15:17:16.364827  6647 layer_factory.hpp:77] Creating layer res5a_branch2a/relu
I0701 15:17:16.364831  6647 net.cpp:98] Creating Layer res5a_branch2a/relu
I0701 15:17:16.364835  6647 net.cpp:439] res5a_branch2a/relu <- res5a_branch2a/bn
I0701 15:17:16.364840  6647 net.cpp:400] res5a_branch2a/relu -> res5a_branch2a/bn (in-place)
I0701 15:17:16.364847  6647 net.cpp:148] Setting up res5a_branch2a/relu
I0701 15:17:16.364851  6647 net.cpp:155] Top shape: 50 512 7 7 (1254400)
I0701 15:17:16.364856  6647 net.cpp:163] Memory required for data: 1016064800
I0701 15:17:16.364859  6647 layer_factory.hpp:77] Creating layer res5a_branch2b
I0701 15:17:16.364866  6647 net.cpp:98] Creating Layer res5a_branch2b
I0701 15:17:16.364871  6647 net.cpp:439] res5a_branch2b <- res5a_branch2a/bn
I0701 15:17:16.364874  6647 net.cpp:413] res5a_branch2b -> res5a_branch2b
I0701 15:17:16.380085  6647 net.cpp:148] Setting up res5a_branch2b
I0701 15:17:16.380100  6647 net.cpp:155] Top shape: 50 512 7 7 (1254400)
I0701 15:17:16.380103  6647 net.cpp:163] Memory required for data: 1021082400
I0701 15:17:16.380113  6647 layer_factory.hpp:77] Creating layer res5a_branch2b/bn
I0701 15:17:16.380122  6647 net.cpp:98] Creating Layer res5a_branch2b/bn
I0701 15:17:16.380126  6647 net.cpp:439] res5a_branch2b/bn <- res5a_branch2b
I0701 15:17:16.380132  6647 net.cpp:413] res5a_branch2b/bn -> res5a_branch2b/bn
I0701 15:17:16.380863  6647 net.cpp:148] Setting up res5a_branch2b/bn
I0701 15:17:16.380870  6647 net.cpp:155] Top shape: 50 512 7 7 (1254400)
I0701 15:17:16.380874  6647 net.cpp:163] Memory required for data: 1026100000
I0701 15:17:16.380882  6647 layer_factory.hpp:77] Creating layer res5a_branch2b/relu
I0701 15:17:16.380887  6647 net.cpp:98] Creating Layer res5a_branch2b/relu
I0701 15:17:16.380903  6647 net.cpp:439] res5a_branch2b/relu <- res5a_branch2b/bn
I0701 15:17:16.380908  6647 net.cpp:400] res5a_branch2b/relu -> res5a_branch2b/bn (in-place)
I0701 15:17:16.380914  6647 net.cpp:148] Setting up res5a_branch2b/relu
I0701 15:17:16.380919  6647 net.cpp:155] Top shape: 50 512 7 7 (1254400)
I0701 15:17:16.380923  6647 net.cpp:163] Memory required for data: 1031117600
I0701 15:17:16.380926  6647 layer_factory.hpp:77] Creating layer pool5
I0701 15:17:16.380933  6647 net.cpp:98] Creating Layer pool5
I0701 15:17:16.380935  6647 net.cpp:439] pool5 <- res5a_branch2b/bn
I0701 15:17:16.380940  6647 net.cpp:413] pool5 -> pool5
I0701 15:17:16.380969  6647 net.cpp:148] Setting up pool5
I0701 15:17:16.380973  6647 net.cpp:155] Top shape: 50 512 1 1 (25600)
I0701 15:17:16.380977  6647 net.cpp:163] Memory required for data: 1031220000
I0701 15:17:16.380981  6647 layer_factory.hpp:77] Creating layer fc1000
I0701 15:17:16.380988  6647 net.cpp:98] Creating Layer fc1000
I0701 15:17:16.380991  6647 net.cpp:439] fc1000 <- pool5
I0701 15:17:16.380996  6647 net.cpp:413] fc1000 -> fc1000
I0701 15:17:16.392060  6647 net.cpp:148] Setting up fc1000
I0701 15:17:16.392074  6647 net.cpp:155] Top shape: 50 1000 (50000)
I0701 15:17:16.392077  6647 net.cpp:163] Memory required for data: 1031420000
I0701 15:17:16.392084  6647 layer_factory.hpp:77] Creating layer fc1000_fc1000_0_split
I0701 15:17:16.392091  6647 net.cpp:98] Creating Layer fc1000_fc1000_0_split
I0701 15:17:16.392096  6647 net.cpp:439] fc1000_fc1000_0_split <- fc1000
I0701 15:17:16.392102  6647 net.cpp:413] fc1000_fc1000_0_split -> fc1000_fc1000_0_split_0
I0701 15:17:16.392109  6647 net.cpp:413] fc1000_fc1000_0_split -> fc1000_fc1000_0_split_1
I0701 15:17:16.392114  6647 net.cpp:413] fc1000_fc1000_0_split -> fc1000_fc1000_0_split_2
I0701 15:17:16.392177  6647 net.cpp:148] Setting up fc1000_fc1000_0_split
I0701 15:17:16.392184  6647 net.cpp:155] Top shape: 50 1000 (50000)
I0701 15:17:16.392187  6647 net.cpp:155] Top shape: 50 1000 (50000)
I0701 15:17:16.392192  6647 net.cpp:155] Top shape: 50 1000 (50000)
I0701 15:17:16.392196  6647 net.cpp:163] Memory required for data: 1032020000
I0701 15:17:16.392200  6647 layer_factory.hpp:77] Creating layer loss
I0701 15:17:16.392205  6647 net.cpp:98] Creating Layer loss
I0701 15:17:16.392210  6647 net.cpp:439] loss <- fc1000_fc1000_0_split_0
I0701 15:17:16.392215  6647 net.cpp:439] loss <- label_data_1_split_0
I0701 15:17:16.392220  6647 net.cpp:413] loss -> loss
…
