…
I0630 19:26:27.698979  5429 net.cpp:327] The NetState phase (0) differed from the phase (1) specified by a rule in layer accuracy/top5
I0630 19:26:27.700279  5429 net.cpp:56] Initializing net from parameters: 
name: "jsegnet21v2_train"
state {
  phase: TRAIN
}
layer {
  name: "data"
  type: "ImageLabelData"
  top: "data"
  top: "label"
  transform_param {
    mirror: true
    crop_size: 640
    mean_value: 0
  }
  image_label_data_param {
    image_list_path: "data/train-image-lmdb"
    label_list_path: "data/train-label-lmdb"
    batch_size: 5
    threads: 4
    backend: LMDB
  }
}
layer {
  name: "data/bias"
  type: "Bias"
  bottom: "data"
  top: "data/bias"
  param {
    lr_mult: 0
    decay_mult: 0
  }
  bias_param {
    filler {
      type: "constant"
      value: -128
    }
  }
}
layer {
  name: "conv1a"
  type: "Convolution"
  bottom: "data/bias"
  top: "conv1a"
  param {
    lr_mult: 1
    decay_mult: 1
  }
  param {
    lr_mult: 2
    decay_mult: 0
  }
  convolution_param {
    num_output: 32
    bias_term: true
    pad: 2
    kernel_size: 5
    group: 1
    stride: 2
    weight_filler {
      type: "msra"
    }
    bias_filler {
      type: "constant"
      value: 0
    }
    dilation: 1
  }
}
layer {
  name: "conv1a/bn"
  type: "BatchNorm"
  bottom: "conv1a"
  top: "conv1a/bn"
  param {
    lr_mult: 1
    decay_mult: 1
  }
  param {
    lr_mult: 1
    decay_mult: 1
  }
  param {
    lr_mult: 0
    decay_mult: 0
  }
  param {
    lr_mult: 0
    decay_mult: 0
  }
  batch_norm_param {
    moving_average_fraction: 0.99
    eps: 0.0001
    scale_filler {
      type: "constant"
      value: 1
    }
    bias_filler {
      type: "constant"
      value: 0
    }
  }
}
layer {
  name: "conv1a/relu"
  type: "ReLU"
  bottom: "conv1a/bn"
  top: "conv1a/bn"
}
layer {
  name: "conv1b"
  type: "Convolution"
  bottom: "conv1a/bn"
  top: "conv1b"
  param {
    lr_mult: 1
    decay_mult: 1
  }
  param {
    lr_mult: 2
    decay_mult: 0
  }
  convolution_param {
    num_output: 32
    bias_term: true
    pad: 1
    kernel_size: 3
    group: 4
    stride: 1
    weight_filler {
      type: "msra"
    }
    bias_filler {
      type: "constant"
      value: 0
    }
    dilation: 1
  }
}
layer {
  name: "conv1b/bn"
  type: "BatchNorm"
  bottom: "conv1b"
  top: "conv1b/bn"
  param {
    lr_mult: 1
    decay_mult: 1
  }
  param {
    lr_mult: 1
    decay_mult: 1
  }
  param {
    lr_mult: 0
    decay_mult: 0
  }
  param {
    lr_mult: 0
    decay_mult: 0
  }
  batch_norm_param {
    moving_average_fraction: 0.99
    eps: 0.0001
    scale_filler {
      type: "constant"
      value: 1
    }
    bias_filler {
      type: "constant"
      value: 0
    }
  }
}
layer {
  name: "conv1b/relu"
  type: "ReLU"
  bottom: "conv1b/bn"
  top: "conv1b/bn"
}
layer {
  name: "pool1"
  type: "Pooling"
  bottom: "conv1b/bn"
  top: "pool1"
  pooling_param {
    pool: MAX
    kernel_size: 2
    stride: 2
  }
}
layer {
  name: "res2a_branch2a"
  type: "Convolution"
  bottom: "pool1"
  top: "res2a_branch2a"
  param {
    lr_mult: 1
    decay_mult: 1
  }
  param {
    lr_mult: 2
    decay_mult: 0
  }
  convolution_param {
    num_output: 64
    bias_term: true
    pad: 1
    kernel_size: 3
    group: 1
    stride: 1
    weight_filler {
      type: "msra"
    }
    bias_filler {
      type: "constant"
      value: 0
    }
    dilation: 1
  }
}
layer {
  name: "res2a_branch2a/bn"
  type: "BatchNorm"
  bottom: "res2a_branch2a"
  top: "res2a_branch2a/bn"
  param {
    lr_mult: 1
    decay_mult: 1
  }
  param {
    lr_mult: 1
    decay_mult: 1
  }
  param {
    lr_mult: 0
    decay_mult: 0
  }
  param {
    lr_mult: 0
    decay_mult: 0
  }
  batch_norm_param {
    moving_average_fraction: 0.99
    eps: 0.0001
    scale_filler {
      type: "constant"
      value: 1
    }
    bias_filler {
      type: "constant"
      value: 0
    }
  }
}
layer {
  name: "res2a_branch2a/relu"
  type: "ReLU"
  bottom: "res2a_branch2a/bn"
  top: "res2a_branch2a/bn"
}
layer {
  name: "res2a_branch2b"
  type: "Convolution"
  bottom: "res2a_branch2a/bn"
  top: "res2a_branch2b"
  param {
    lr_mult: 1
    decay_mult: 1
  }
  param {
    lr_mult: 2
    decay_mult: 0
  }
  convolution_param {
    num_output: 64
    bias_term: true
    pad: 1
    kernel_size: 3
    group: 4
    stride: 1
    weight_filler {
      type: "msra"
    }
    bias_filler {
      type: "constant"
      value: 0
    }
    dilation: 1
  }
}
layer {
  name: "res2a_branch2b/bn"
  type: "BatchNorm"
  bottom: "res2a_branch2b"
  top: "res2a_branch2b/bn"
  param {
    lr_mult: 1
    decay_mult: 1
  }
  param {
    lr_mult: 1
    decay_mult: 1
  }
  param {
    lr_mult: 0
    decay_mult: 0
  }
  param {
    lr_mult: 0
    decay_mult: 0
  }
  batch_norm_param {
    moving_average_fraction: 0.99
    eps: 0.0001
    scale_filler {
      type: "constant"
      value: 1
    }
    bias_filler {
      type: "constant"
      value: 0
    }
  }
}
layer {
  name: "res2a_branch2b/relu"
  type: "ReLU"
  bottom: "res2a_branch2b/bn"
  top: "res2a_branch2b/bn"
}
layer {
  name: "pool2"
  type: "Pooling"
  bottom: "res2a_branch2b/bn"
  top: "pool2"
  pooling_param {
    pool: MAX
    kernel_size: 2
    stride: 2
  }
}
layer {
  name: "res3a_branch2a"
  type: "Convolution"
  bottom: "pool2"
  top: "res3a_branch2a"
  param {
    lr_mult: 1
    decay_mult: 1
  }
  param {
    lr_mult: 2
    decay_mult: 0
  }
  convolution_param {
    num_output: 128
    bias_term: true
    pad: 1
    kernel_size: 3
    group: 1
    stride: 1
    weight_filler {
      type: "msra"
    }
    bias_filler {
      type: "constant"
      value: 0
    }
    dilation: 1
  }
}
layer {
  name: "res3a_branch2a/bn"
  type: "BatchNorm"
  bottom: "res3a_branch2a"
  top: "res3a_branch2a/bn"
  param {
    lr_mult: 1
    decay_mult: 1
  }
  param {
    lr_mult: 1
    decay_mult: 1
  }
  param {
    lr_mult: 0
    decay_mult: 0
  }
  param {
    lr_mult: 0
    decay_mult: 0
  }
  batch_norm_param {
    moving_average_fraction: 0.99
    eps: 0.0001
    scale_filler {
      type: "constant"
      value: 1
    }
    bias_filler {
      type: "constant"
      value: 0
    }
  }
}
layer {
  name: "res3a_branch2a/relu"
  type: "ReLU"
  bottom: "res3a_branch2a/bn"
  top: "res3a_branch2a/bn"
}
layer {
  name: "res3a_branch2b"
  type: "Convolution"
  bottom: "res3a_branch2a/bn"
  top: "res3a_branch2b"
  param {
    lr_mult: 1
    decay_mult: 1
  }
  param {
    lr_mult: 2
    decay_mult: 0
  }
  convolution_param {
    num_output: 128
    bias_term: true
    pad: 1
    kernel_size: 3
    group: 4
    stride: 1
    weight_filler {
      type: "msra"
    }
    bias_filler {
      type: "constant"
      value: 0
    }
    dilation: 1
  }
}
layer {
  name: "res3a_branch2b/bn"
  type: "BatchNorm"
  bottom: "res3a_branch2b"
  top: "res3a_branch2b/bn"
  param {
    lr_mult: 1
    decay_mult: 1
  }
  param {
    lr_mult: 1
    decay_mult: 1
  }
  param {
    lr_mult: 0
    decay_mult: 0
  }
  param {
    lr_mult: 0
    decay_mult: 0
  }
  batch_norm_param {
    moving_average_fraction: 0.99
    eps: 0.0001
    scale_filler {
      type: "constant"
      value: 1
    }
    bias_filler {
      type: "constant"
      value: 0
    }
  }
}
layer {
  name: "res3a_branch2b/relu"
  type: "ReLU"
  bottom: "res3a_branch2b/bn"
  top: "res3a_branch2b/bn"
}
layer {
  name: "pool3"
  type: "Pooling"
  bottom: "res3a_branch2b/bn"
  top: "pool3"
  pooling_param {
    pool: MAX
    kernel_size: 2
    stride: 2
  }
}
layer {
  name: "res4a_branch2a"
  type: "Convolution"
  bottom: "pool3"
  top: "res4a_branch2a"
  param {
    lr_mult: 1
    decay_mult: 1
  }
  param {
    lr_mult: 2
    decay_mult: 0
  }
  convolution_param {
    num_output: 256
    bias_term: true
    pad: 1
    kernel_size: 3
    group: 1
    stride: 1
    weight_filler {
      type: "msra"
    }
    bias_filler {
      type: "constant"
      value: 0
    }
    dilation: 1
  }
}
layer {
  name: "res4a_branch2a/bn"
  type: "BatchNorm"
  bottom: "res4a_branch2a"
  top: "res4a_branch2a/bn"
  param {
    lr_mult: 1
    decay_mult: 1
  }
  param {
    lr_mult: 1
    decay_mult: 1
  }
  param {
    lr_mult: 0
    decay_mult: 0
  }
  param {
    lr_mult: 0
    decay_mult: 0
  }
  batch_norm_param {
    moving_average_fraction: 0.99
    eps: 0.0001
    scale_filler {
      type: "constant"
      value: 1
    }
    bias_filler {
      type: "constant"
      value: 0
    }
  }
}
layer {
  name: "res4a_branch2a/relu"
  type: "ReLU"
  bottom: "res4a_branch2a/bn"
  top: "res4a_branch2a/bn"
}
layer {
  name: "res4a_branch2b"
  type: "Convolution"
  bottom: "res4a_branch2a/bn"
  top: "res4a_branch2b"
  param {
    lr_mult: 1
    decay_mult: 1
  }
  param {
    lr_mult: 2
    decay_mult: 0
  }
  convolution_param {
    num_output: 256
    bias_term: true
    pad: 1
    kernel_size: 3
    group: 4
    stride: 1
    weight_filler {
      type: "msra"
    }
    bias_filler {
      type: "constant"
      value: 0
    }
    dilation: 1
  }
}
layer {
  name: "res4a_branch2b/bn"
  type: "BatchNorm"
  bottom: "res4a_branch2b"
  top: "res4a_branch2b/bn"
  param {
    lr_mult: 1
    decay_mult: 1
  }
  param {
    lr_mult: 1
    decay_mult: 1
  }
  param {
    lr_mult: 0
    decay_mult: 0
  }
  param {
    lr_mult: 0
    decay_mult: 0
  }
  batch_norm_param {
    moving_average_fraction: 0.99
    eps: 0.0001
    scale_filler {
      type: "constant"
      value: 1
    }
    bias_filler {
      type: "constant"
      value: 0
    }
  }
}
layer {
  name: "res4a_branch2b/relu"
  type: "ReLU"
  bottom: "res4a_branch2b/bn"
  top: "res4a_branch2b/bn"
}
layer {
  name: "pool4"
  type: "Pooling"
  bottom: "res4a_branch2b/bn"
  top: "pool4"
  pooling_param {
    pool: MAX
    kernel_size: 1
    stride: 1
  }
}
layer {
  name: "res5a_branch2a"
  type: "Convolution"
  bottom: "pool4"
  top: "res5a_branch2a"
  param {
    lr_mult: 1
    decay_mult: 1
  }
  param {
    lr_mult: 2
    decay_mult: 0
  }
  convolution_param {
    num_output: 512
    bias_term: true
    pad: 2
    kernel_size: 3
    group: 1
    stride: 1
    weight_filler {
      type: "msra"
    }
    bias_filler {
      type: "constant"
      value: 0
    }
    dilation: 2
  }
}
layer {
  name: "res5a_branch2a/bn"
  type: "BatchNorm"
  bottom: "res5a_branch2a"
  top: "res5a_branch2a/bn"
  param {
    lr_mult: 1
    decay_mult: 1
  }
  param {
    lr_mult: 1
    decay_mult: 1
  }
  param {
    lr_mult: 0
    decay_mult: 0
  }
  param {
    lr_mult: 0
    decay_mult: 0
  }
  batch_norm_param {
    moving_average_fraction: 0.99
    eps: 0.0001
    scale_filler {
      type: "constant"
      value: 1
    }
    bias_filler {
      type: "constant"
      value: 0
    }
  }
}
layer {
  name: "res5a_branch2a/relu"
  type: "ReLU"
  bottom: "res5a_branch2a/bn"
  top: "res5a_branch2a/bn"
}
layer {
  name: "res5a_branch2b"
  type: "Convolution"
  bottom: "res5a_branch2a/bn"
  top: "res5a_branch2b"
  param {
    lr_mult: 1
    decay_mult: 1
  }
  param {
    lr_mult: 2
    decay_mult: 0
  }
  convolution_param {
    num_output: 512
    bias_term: true
    pad: 2
    kernel_size: 3
    group: 4
    stride: 1
    weight_filler {
      type: "msra"
    }
    bias_filler {
      type: "constant"
      value: 0
    }
    dilation: 2
  }
}
layer {
  name: "res5a_branch2b/bn"
  type: "BatchNorm"
  bottom: "res5a_branch2b"
  top: "res5a_branch2b/bn"
  param {
    lr_mult: 1
    decay_mult: 1
  }
  param {
    lr_mult: 1
    decay_mult: 1
  }
  param {
    lr_mult: 0
    decay_mult: 0
  }
  param {
    lr_mult: 0
    decay_mult: 0
  }
  batch_norm_param {
    moving_average_fraction: 0.99
    eps: 0.0001
    scale_filler {
      type: "constant"
      value: 1
    }
    bias_filler {
      type: "constant"
      value: 0
    }
  }
}
layer {
  name: "res5a_branch2b/relu"
  type: "ReLU"
  bottom: "res5a_branch2b/bn"
  top: "res5a_branch2b/bn"
}
layer {
  name: "out5a"
  type: "Convolution"
  bottom: "res5a_branch2b/bn"
  top: "out5a"
  param {
    lr_mult: 1
    decay_mult: 1
  }
  param {
    lr_mult: 2
    decay_mult: 0
  }
  convolution_param {
    num_output: 64
    bias_term: true
    pad: 4
    kernel_size: 3
    group: 2
    stride: 1
    weight_filler {
      type: "msra"
    }
    bias_filler {
      type: "constant"
      value: 0
    }
    dilation: 4
  }
}
layer {
  name: "out5a/bn"
  type: "BatchNorm"
  bottom: "out5a"
  top: "out5a/bn"
  param {
    lr_mult: 1
    decay_mult: 1
  }
  param {
    lr_mult: 1
    decay_mult: 1
  }
  param {
    lr_mult: 0
    decay_mult: 0
  }
  param {
    lr_mult: 0
    decay_mult: 0
  }
  batch_norm_param {
    moving_average_fraction: 0.99
    eps: 0.0001
    scale_filler {
      type: "constant"
      value: 1
    }
    bias_filler {
      type: "constant"
      value: 0
    }
  }
}
layer {
  name: "out5a/relu"
  type: "ReLU"
  bottom: "out5a/bn"
  top: "out5a/bn"
}
layer {
  name: "out5a_up2"
  type: "Deconvolution"
  bottom: "out5a/bn"
  top: "out5a_up2"
  param {
    lr_mult: 0
    decay_mult: 0
  }
  convolution_param {
    num_output: 64
    bias_term: false
    pad: 1
    kernel_size: 4
    group: 64
    stride: 2
    weight_filler {
      type: "bilinear"
    }
  }
}
layer {
  name: "out3a"
  type: "Convolution"
  bottom: "res3a_branch2b/bn"
  top: "out3a"
  param {
    lr_mult: 1
    decay_mult: 1
  }
  param {
    lr_mult: 2
    decay_mult: 0
  }
  convolution_param {
    num_output: 64
    bias_term: true
    pad: 1
    kernel_size: 3
    group: 2
    stride: 1
    weight_filler {
      type: "msra"
    }
    bias_filler {
      type: "constant"
      value: 0
    }
    dilation: 1
  }
}
layer {
  name: "out3a/bn"
  type: "BatchNorm"
  bottom: "out3a"
  top: "out3a/bn"
  param {
    lr_mult: 1
    decay_mult: 1
  }
  param {
    lr_mult: 1
    decay_mult: 1
  }
  param {
    lr_mult: 0
    decay_mult: 0
  }
  param {
    lr_mult: 0
    decay_mult: 0
  }
  batch_norm_param {
    moving_average_fraction: 0.99
    eps: 0.0001
    scale_filler {
      type: "constant"
      value: 1
    }
    bias_filler {
      type: "constant"
      value: 0
    }
  }
}
layer {
  name: "out3a/relu"
  type: "ReLU"
  bottom: "out3a/bn"
  top: "out3a/bn"
}
layer {
  name: "out3_out5_combined"
  type: "Eltwise"
  bottom: "out5a_up2"
  bottom: "out3a/bn"
  top: "out3_out5_combined"
}
layer {
  name: "ctx_conv1"
  type: "Convolution"
  bottom: "out3_out5_combined"
  top: "ctx_conv1"
  param {
    lr_mult: 1
    decay_mult: 1
  }
  param {
    lr_mult: 2
    decay_mult: 0
  }
  convolution_param {
    num_output: 64
    bias_term: true
    pad: 1
    kernel_size: 3
    group: 1
    stride: 1
    weight_filler {
      type: "msra"
    }
    bias_filler {
      type: "constant"
      value: 0
    }
    dilation: 1
  }
}
layer {
  name: "ctx_conv1/bn"
  type: "BatchNorm"
  bottom: "ctx_conv1"
  top: "ctx_conv1/bn"
  param {
    lr_mult: 1
    decay_mult: 1
  }
  param {
    lr_mult: 1
    decay_mult: 1
  }
  param {
    lr_mult: 0
    decay_mult: 0
  }
  param {
    lr_mult: 0
    decay_mult: 0
  }
  batch_norm_param {
    moving_average_fraction: 0.99
    eps: 0.0001
    scale_filler {
      type: "constant"
      value: 1
    }
    bias_filler {
      type: "constant"
      value: 0
    }
  }
}
layer {
  name: "ctx_conv1/relu"
  type: "ReLU"
  bottom: "ctx_conv1/bn"
  top: "ctx_conv1/bn"
}
layer {
  name: "ctx_conv2"
  type: "Convolution"
  bottom: "ctx_conv1/bn"
  top: "ctx_conv2"
  param {
    lr_mult: 1
    decay_mult: 1
  }
  param {
    lr_mult: 2
    decay_mult: 0
  }
  convolution_param {
    num_output: 64
    bias_term: true
    pad: 4
    kernel_size: 3
    group: 1
    stride: 1
    weight_filler {
      type: "msra"
    }
    bias_filler {
      type: "constant"
      value: 0
    }
    dilation: 4
  }
}
layer {
  name: "ctx_conv2/bn"
  type: "BatchNorm"
  bottom: "ctx_conv2"
  top: "ctx_conv2/bn"
  param {
    lr_mult: 1
    decay_mult: 1
  }
  param {
    lr_mult: 1
    decay_mult: 1
  }
  param {
    lr_mult: 0
    decay_mult: 0
  }
  param {
    lr_mult: 0
    decay_mult: 0
  }
  batch_norm_param {
    moving_average_fraction: 0.99
    eps: 0.0001
    scale_filler {
      type: "constant"
      value: 1
    }
    bias_filler {
      type: "constant"
      value: 0
    }
  }
}
layer {
  name: "ctx_conv2/relu"
  type: "ReLU"
  bottom: "ctx_conv2/bn"
  top: "ctx_conv2/bn"
}
layer {
  name: "ctx_conv3"
  type: "Convolution"
  bottom: "ctx_conv2/bn"
  top: "ctx_conv3"
  param {
    lr_mult: 1
    decay_mult: 1
  }
  param {
    lr_mult: 2
    decay_mult: 0
  }
  convolution_param {
    num_output: 64
    bias_term: true
    pad: 4
    kernel_size: 3
    group: 1
    stride: 1
    weight_filler {
      type: "msra"
    }
    bias_filler {
      type: "constant"
      value: 0
    }
    dilation: 4
  }
}
layer {
  name: "ctx_conv3/bn"
  type: "BatchNorm"
  bottom: "ctx_conv3"
  top: "ctx_conv3/bn"
  param {
    lr_mult: 1
    decay_mult: 1
  }
  param {
    lr_mult: 1
    decay_mult: 1
  }
  param {
    lr_mult: 0
    decay_mult: 0
  }
  param {
    lr_mult: 0
    decay_mult: 0
  }
  batch_norm_param {
    moving_average_fraction: 0.99
    eps: 0.0001
    scale_filler {
      type: "constant"
      value: 1
    }
    bias_filler {
      type: "constant"
      value: 0
    }
  }
}
layer {
  name: "ctx_conv3/relu"
  type: "ReLU"
  bottom: "ctx_conv3/bn"
  top: "ctx_conv3/bn"
}
layer {
  name: "ctx_conv4"
  type: "Convolution"
  bottom: "ctx_conv3/bn"
  top: "ctx_conv4"
  param {
    lr_mult: 1
    decay_mult: 1
  }
  param {
    lr_mult: 2
    decay_mult: 0
  }
  convolution_param {
    num_output: 64
    bias_term: true
    pad: 4
    kernel_size: 3
    group: 1
    stride: 1
    weight_filler {
      type: "msra"
    }
    bias_filler {
      type: "constant"
      value: 0
    }
    dilation: 4
  }
}
layer {
  name: "ctx_conv4/bn"
  type: "BatchNorm"
  bottom: "ctx_conv4"
  top: "ctx_conv4/bn"
  param {
    lr_mult: 1
    decay_mult: 1
  }
  param {
    lr_mult: 1
    decay_mult: 1
  }
  param {
    lr_mult: 0
    decay_mult: 0
  }
  param {
    lr_mult: 0
    decay_mult: 0
  }
  batch_norm_param {
    moving_average_fraction: 0.99
    eps: 0.0001
    scale_filler {
      type: "constant"
      value: 1
    }
    bias_filler {
      type: "constant"
      value: 0
    }
  }
}
layer {
  name: "ctx_conv4/relu"
  type: "ReLU"
  bottom: "ctx_conv4/bn"
  top: "ctx_conv4/bn"
}
layer {
  name: "ctx_final"
  type: "Convolution"
  bottom: "ctx_conv4/bn"
  top: "ctx_final"
  param {
    lr_mult: 1
    decay_mult: 1
  }
  param {
    lr_mult: 2
    decay_mult: 0
  }
  convolution_param {
    num_output: 20
    bias_term: true
    pad: 1
    kernel_size: 3
    kernel_size: 3
    group: 1
    stride: 1
    weight_filler {
      type: "msra"
    }
    bias_filler {
      type: "constant"
      value: 0
    }
    dilation: 1
  }
}
layer {
  name: "ctx_final/relu"
  type: "ReLU"
  bottom: "ctx_final"
  top: "ctx_final"
}
layer {
  name: "out_deconv_final_up2"
  type: "Deconvolution"
  bottom: "ctx_final"
  top: "out_deconv_final_up2"
  param {
    lr_mult: 0
    decay_mult: 0
  }
  convolution_param {
    num_output: 20
    bias_term: false
    pad: 1
    kernel_size: 4
    group: 20
    stride: 2
    weight_filler {
      type: "bilinear"
    }
  }
}
layer {
  name: "out_deconv_final_up4"
  type: "Deconvolution"
  bottom: "out_deconv_final_up2"
  top: "out_deconv_final_up4"
  param {
    lr_mult: 0
    decay_mult: 0
  }
  convolution_param {
    num_output: 20
    bias_term: false
    pad: 1
    kernel_size: 4
    group: 20
    stride: 2
    weight_filler {
      type: "bilinear"
    }
  }
}
layer {
  name: "out_deconv_final_up8"
  type: "Deconvolution"
  bottom: "out_deconv_final_up4"
  top: "out_deconv_final_up8"
  param {
    lr_mult: 0
    decay_mult: 0
  }
  convolution_param {
    num_output: 20
    bias_term: false
    pad: 1
    kernel_size: 4
    group: 20
    stride: 2
    weight_filler {
      type: "bilinear"
    }
  }
}
layer {
  name: "loss"
  type: "SoftmaxWithLoss"
  bottom: "out_deconv_final_up8"
  bottom: "label"
  top: "loss"
  propagate_down: true
  propagate_down: false
  loss_param {
    ignore_label: 255
    normalization: VALID
  }
}
I0630 19:26:27.701280  5429 layer_factory.hpp:77] Creating layer data
I0630 19:26:27.701793  5429 net.cpp:98] Creating Layer data
I0630 19:26:27.701830  5429 net.cpp:413] data -> data
I0630 19:26:27.701905  5429 net.cpp:413] data -> label
I0630 19:26:27.756829  5505 db_lmdb.cpp:35] Opened lmdb data/train-image-lmdb
I0630 19:26:27.775555  5510 db_lmdb.cpp:35] Opened lmdb data/train-label-lmdb
I0630 19:26:28.232306  5429 data_layer.cpp:78] ReshapePrefetch 5, 3, 640, 640
I0630 19:26:28.232374  5429 data_layer.cpp:83] output data size: 5,3,640,640
I0630 19:26:28.257689  5429 data_layer.cpp:78] ReshapePrefetch 5, 1, 640, 640
I0630 19:26:28.257755  5429 data_layer.cpp:83] output data size: 5,1,640,640
I0630 19:26:28.264848  5518 blocking_queue.cpp:50] Waiting for data
I0630 19:26:28.270660  5429 net.cpp:148] Setting up data
I0630 19:26:28.270680  5429 net.cpp:155] Top shape: 5 3 640 640 (6144000)
I0630 19:26:28.270684  5429 net.cpp:155] Top shape: 5 1 640 640 (2048000)
I0630 19:26:28.270686  5429 net.cpp:163] Memory required for data: 32768000
I0630 19:26:28.270692  5429 layer_factory.hpp:77] Creating layer data/bias
I0630 19:26:28.270704  5429 net.cpp:98] Creating Layer data/bias
I0630 19:26:28.270707  5429 net.cpp:439] data/bias <- data
I0630 19:26:28.270717  5429 net.cpp:413] data/bias -> data/bias
I0630 19:26:28.271883  5429 net.cpp:148] Setting up data/bias
I0630 19:26:28.271893  5429 net.cpp:155] Top shape: 5 3 640 640 (6144000)
I0630 19:26:28.271894  5429 net.cpp:163] Memory required for data: 57344000
I0630 19:26:28.271905  5429 layer_factory.hpp:77] Creating layer conv1a
I0630 19:26:28.271915  5429 net.cpp:98] Creating Layer conv1a
I0630 19:26:28.271917  5429 net.cpp:439] conv1a <- data/bias
I0630 19:26:28.271920  5429 net.cpp:413] conv1a -> conv1a
I0630 19:26:28.274107  5429 net.cpp:148] Setting up conv1a
I0630 19:26:28.274121  5429 net.cpp:155] Top shape: 5 32 320 320 (16384000)
I0630 19:26:28.274122  5429 net.cpp:163] Memory required for data: 122880000
I0630 19:26:28.274128  5429 layer_factory.hpp:77] Creating layer conv1a/bn
I0630 19:26:28.274137  5429 net.cpp:98] Creating Layer conv1a/bn
I0630 19:26:28.274139  5429 net.cpp:439] conv1a/bn <- conv1a
I0630 19:26:28.274143  5429 net.cpp:413] conv1a/bn -> conv1a/bn
I0630 19:26:28.275977  5429 net.cpp:148] Setting up conv1a/bn
I0630 19:26:28.275987  5429 net.cpp:155] Top shape: 5 32 320 320 (16384000)
I0630 19:26:28.275990  5429 net.cpp:163] Memory required for data: 188416000
I0630 19:26:28.275995  5429 layer_factory.hpp:77] Creating layer conv1a/relu
I0630 19:26:28.276000  5429 net.cpp:98] Creating Layer conv1a/relu
I0630 19:26:28.276002  5429 net.cpp:439] conv1a/relu <- conv1a/bn
I0630 19:26:28.276005  5429 net.cpp:400] conv1a/relu -> conv1a/bn (in-place)
I0630 19:26:28.276012  5429 net.cpp:148] Setting up conv1a/relu
I0630 19:26:28.276015  5429 net.cpp:155] Top shape: 5 32 320 320 (16384000)
I0630 19:26:28.276017  5429 net.cpp:163] Memory required for data: 253952000
I0630 19:26:28.276018  5429 layer_factory.hpp:77] Creating layer conv1b
I0630 19:26:28.276023  5429 net.cpp:98] Creating Layer conv1b
I0630 19:26:28.276026  5429 net.cpp:439] conv1b <- conv1a/bn
I0630 19:26:28.276029  5429 net.cpp:413] conv1b -> conv1b
I0630 19:26:28.276399  5429 net.cpp:148] Setting up conv1b
I0630 19:26:28.276406  5429 net.cpp:155] Top shape: 5 32 320 320 (16384000)
I0630 19:26:28.276407  5429 net.cpp:163] Memory required for data: 319488000
I0630 19:26:28.276412  5429 layer_factory.hpp:77] Creating layer conv1b/bn
I0630 19:26:28.276415  5429 net.cpp:98] Creating Layer conv1b/bn
I0630 19:26:28.276417  5429 net.cpp:439] conv1b/bn <- conv1b
I0630 19:26:28.276422  5429 net.cpp:413] conv1b/bn -> conv1b/bn
I0630 19:26:28.277117  5429 net.cpp:148] Setting up conv1b/bn
I0630 19:26:28.277123  5429 net.cpp:155] Top shape: 5 32 320 320 (16384000)
I0630 19:26:28.277125  5429 net.cpp:163] Memory required for data: 385024000
I0630 19:26:28.277130  5429 layer_factory.hpp:77] Creating layer conv1b/relu
I0630 19:26:28.277133  5429 net.cpp:98] Creating Layer conv1b/relu
I0630 19:26:28.277135  5429 net.cpp:439] conv1b/relu <- conv1b/bn
I0630 19:26:28.277137  5429 net.cpp:400] conv1b/relu -> conv1b/bn (in-place)
I0630 19:26:28.277140  5429 net.cpp:148] Setting up conv1b/relu
I0630 19:26:28.277143  5429 net.cpp:155] Top shape: 5 32 320 320 (16384000)
I0630 19:26:28.277144  5429 net.cpp:163] Memory required for data: 450560000
I0630 19:26:28.277146  5429 layer_factory.hpp:77] Creating layer pool1
I0630 19:26:28.277153  5429 net.cpp:98] Creating Layer pool1
I0630 19:26:28.277155  5429 net.cpp:439] pool1 <- conv1b/bn
I0630 19:26:28.277159  5429 net.cpp:413] pool1 -> pool1
I0630 19:26:28.277590  5429 net.cpp:148] Setting up pool1
I0630 19:26:28.277596  5429 net.cpp:155] Top shape: 5 32 160 160 (4096000)
I0630 19:26:28.277598  5429 net.cpp:163] Memory required for data: 466944000
I0630 19:26:28.277601  5429 layer_factory.hpp:77] Creating layer res2a_branch2a
I0630 19:26:28.277606  5429 net.cpp:98] Creating Layer res2a_branch2a
I0630 19:26:28.277607  5429 net.cpp:439] res2a_branch2a <- pool1
I0630 19:26:28.277611  5429 net.cpp:413] res2a_branch2a -> res2a_branch2a
I0630 19:26:28.279110  5429 net.cpp:148] Setting up res2a_branch2a
I0630 19:26:28.279119  5429 net.cpp:155] Top shape: 5 64 160 160 (8192000)
I0630 19:26:28.279121  5429 net.cpp:163] Memory required for data: 499712000
I0630 19:26:28.279126  5429 layer_factory.hpp:77] Creating layer res2a_branch2a/bn
I0630 19:26:28.279130  5429 net.cpp:98] Creating Layer res2a_branch2a/bn
I0630 19:26:28.279132  5429 net.cpp:439] res2a_branch2a/bn <- res2a_branch2a
I0630 19:26:28.279135  5429 net.cpp:413] res2a_branch2a/bn -> res2a_branch2a/bn
I0630 19:26:28.279806  5429 net.cpp:148] Setting up res2a_branch2a/bn
I0630 19:26:28.279813  5429 net.cpp:155] Top shape: 5 64 160 160 (8192000)
I0630 19:26:28.279814  5429 net.cpp:163] Memory required for data: 532480000
I0630 19:26:28.279819  5429 layer_factory.hpp:77] Creating layer res2a_branch2a/relu
I0630 19:26:28.279822  5429 net.cpp:98] Creating Layer res2a_branch2a/relu
I0630 19:26:28.279824  5429 net.cpp:439] res2a_branch2a/relu <- res2a_branch2a/bn
I0630 19:26:28.279826  5429 net.cpp:400] res2a_branch2a/relu -> res2a_branch2a/bn (in-place)
I0630 19:26:28.279830  5429 net.cpp:148] Setting up res2a_branch2a/relu
I0630 19:26:28.279832  5429 net.cpp:155] Top shape: 5 64 160 160 (8192000)
I0630 19:26:28.279834  5429 net.cpp:163] Memory required for data: 565248000
I0630 19:26:28.279835  5429 layer_factory.hpp:77] Creating layer res2a_branch2b
I0630 19:26:28.279839  5429 net.cpp:98] Creating Layer res2a_branch2b
I0630 19:26:28.279841  5429 net.cpp:439] res2a_branch2b <- res2a_branch2a/bn
I0630 19:26:28.279844  5429 net.cpp:413] res2a_branch2b -> res2a_branch2b
I0630 19:26:28.281138  5429 net.cpp:148] Setting up res2a_branch2b
I0630 19:26:28.281147  5429 net.cpp:155] Top shape: 5 64 160 160 (8192000)
I0630 19:26:28.281148  5429 net.cpp:163] Memory required for data: 598016000
I0630 19:26:28.281152  5429 layer_factory.hpp:77] Creating layer res2a_branch2b/bn
I0630 19:26:28.281157  5429 net.cpp:98] Creating Layer res2a_branch2b/bn
I0630 19:26:28.281158  5429 net.cpp:439] res2a_branch2b/bn <- res2a_branch2b
I0630 19:26:28.281162  5429 net.cpp:413] res2a_branch2b/bn -> res2a_branch2b/bn
I0630 19:26:28.281860  5429 net.cpp:148] Setting up res2a_branch2b/bn
I0630 19:26:28.281867  5429 net.cpp:155] Top shape: 5 64 160 160 (8192000)
I0630 19:26:28.281868  5429 net.cpp:163] Memory required for data: 630784000
I0630 19:26:28.281873  5429 layer_factory.hpp:77] Creating layer res2a_branch2b/relu
I0630 19:26:28.281877  5429 net.cpp:98] Creating Layer res2a_branch2b/relu
I0630 19:26:28.281878  5429 net.cpp:439] res2a_branch2b/relu <- res2a_branch2b/bn
I0630 19:26:28.281880  5429 net.cpp:400] res2a_branch2b/relu -> res2a_branch2b/bn (in-place)
I0630 19:26:28.281884  5429 net.cpp:148] Setting up res2a_branch2b/relu
I0630 19:26:28.281886  5429 net.cpp:155] Top shape: 5 64 160 160 (8192000)
I0630 19:26:28.281888  5429 net.cpp:163] Memory required for data: 663552000
I0630 19:26:28.281890  5429 layer_factory.hpp:77] Creating layer pool2
I0630 19:26:28.281893  5429 net.cpp:98] Creating Layer pool2
I0630 19:26:28.281895  5429 net.cpp:439] pool2 <- res2a_branch2b/bn
I0630 19:26:28.281898  5429 net.cpp:413] pool2 -> pool2
I0630 19:26:28.281932  5429 net.cpp:148] Setting up pool2
I0630 19:26:28.281936  5429 net.cpp:155] Top shape: 5 64 80 80 (2048000)
I0630 19:26:28.281939  5429 net.cpp:163] Memory required for data: 671744000
I0630 19:26:28.281940  5429 layer_factory.hpp:77] Creating layer res3a_branch2a
I0630 19:26:28.281944  5429 net.cpp:98] Creating Layer res3a_branch2a
I0630 19:26:28.281946  5429 net.cpp:439] res3a_branch2a <- pool2
I0630 19:26:28.281949  5429 net.cpp:413] res3a_branch2a -> res3a_branch2a
I0630 19:26:28.283677  5429 net.cpp:148] Setting up res3a_branch2a
I0630 19:26:28.283684  5429 net.cpp:155] Top shape: 5 128 80 80 (4096000)
I0630 19:26:28.283686  5429 net.cpp:163] Memory required for data: 688128000
I0630 19:26:28.283689  5429 layer_factory.hpp:77] Creating layer res3a_branch2a/bn
I0630 19:26:28.283694  5429 net.cpp:98] Creating Layer res3a_branch2a/bn
I0630 19:26:28.283695  5429 net.cpp:439] res3a_branch2a/bn <- res3a_branch2a
I0630 19:26:28.283699  5429 net.cpp:413] res3a_branch2a/bn -> res3a_branch2a/bn
I0630 19:26:28.284312  5429 net.cpp:148] Setting up res3a_branch2a/bn
I0630 19:26:28.284317  5429 net.cpp:155] Top shape: 5 128 80 80 (4096000)
I0630 19:26:28.284319  5429 net.cpp:163] Memory required for data: 704512000
I0630 19:26:28.284325  5429 layer_factory.hpp:77] Creating layer res3a_branch2a/relu
I0630 19:26:28.284328  5429 net.cpp:98] Creating Layer res3a_branch2a/relu
I0630 19:26:28.284330  5429 net.cpp:439] res3a_branch2a/relu <- res3a_branch2a/bn
I0630 19:26:28.284332  5429 net.cpp:400] res3a_branch2a/relu -> res3a_branch2a/bn (in-place)
I0630 19:26:28.284335  5429 net.cpp:148] Setting up res3a_branch2a/relu
I0630 19:26:28.284337  5429 net.cpp:155] Top shape: 5 128 80 80 (4096000)
I0630 19:26:28.284339  5429 net.cpp:163] Memory required for data: 720896000
I0630 19:26:28.284342  5429 layer_factory.hpp:77] Creating layer res3a_branch2b
I0630 19:26:28.284345  5429 net.cpp:98] Creating Layer res3a_branch2b
I0630 19:26:28.284348  5429 net.cpp:439] res3a_branch2b <- res3a_branch2a/bn
I0630 19:26:28.284350  5429 net.cpp:413] res3a_branch2b -> res3a_branch2b
I0630 19:26:28.285348  5429 net.cpp:148] Setting up res3a_branch2b
I0630 19:26:28.285354  5429 net.cpp:155] Top shape: 5 128 80 80 (4096000)
I0630 19:26:28.285356  5429 net.cpp:163] Memory required for data: 737280000
I0630 19:26:28.285359  5429 layer_factory.hpp:77] Creating layer res3a_branch2b/bn
I0630 19:26:28.285363  5429 net.cpp:98] Creating Layer res3a_branch2b/bn
I0630 19:26:28.285365  5429 net.cpp:439] res3a_branch2b/bn <- res3a_branch2b
I0630 19:26:28.285367  5429 net.cpp:413] res3a_branch2b/bn -> res3a_branch2b/bn
I0630 19:26:28.285984  5429 net.cpp:148] Setting up res3a_branch2b/bn
I0630 19:26:28.285990  5429 net.cpp:155] Top shape: 5 128 80 80 (4096000)
I0630 19:26:28.285992  5429 net.cpp:163] Memory required for data: 753664000
I0630 19:26:28.285996  5429 layer_factory.hpp:77] Creating layer res3a_branch2b/relu
I0630 19:26:28.286000  5429 net.cpp:98] Creating Layer res3a_branch2b/relu
I0630 19:26:28.286001  5429 net.cpp:439] res3a_branch2b/relu <- res3a_branch2b/bn
I0630 19:26:28.286010  5429 net.cpp:400] res3a_branch2b/relu -> res3a_branch2b/bn (in-place)
I0630 19:26:28.286013  5429 net.cpp:148] Setting up res3a_branch2b/relu
I0630 19:26:28.286015  5429 net.cpp:155] Top shape: 5 128 80 80 (4096000)
I0630 19:26:28.286017  5429 net.cpp:163] Memory required for data: 770048000
I0630 19:26:28.286020  5429 layer_factory.hpp:77] Creating layer res3a_branch2b/bn_res3a_branch2b/relu_0_split
I0630 19:26:28.286022  5429 net.cpp:98] Creating Layer res3a_branch2b/bn_res3a_branch2b/relu_0_split
I0630 19:26:28.286023  5429 net.cpp:439] res3a_branch2b/bn_res3a_branch2b/relu_0_split <- res3a_branch2b/bn
I0630 19:26:28.286026  5429 net.cpp:413] res3a_branch2b/bn_res3a_branch2b/relu_0_split -> res3a_branch2b/bn_res3a_branch2b/relu_0_split_0
I0630 19:26:28.286031  5429 net.cpp:413] res3a_branch2b/bn_res3a_branch2b/relu_0_split -> res3a_branch2b/bn_res3a_branch2b/relu_0_split_1
I0630 19:26:28.286064  5429 net.cpp:148] Setting up res3a_branch2b/bn_res3a_branch2b/relu_0_split
I0630 19:26:28.286069  5429 net.cpp:155] Top shape: 5 128 80 80 (4096000)
I0630 19:26:28.286072  5429 net.cpp:155] Top shape: 5 128 80 80 (4096000)
I0630 19:26:28.286073  5429 net.cpp:163] Memory required for data: 802816000
I0630 19:26:28.286074  5429 layer_factory.hpp:77] Creating layer pool3
I0630 19:26:28.286077  5429 net.cpp:98] Creating Layer pool3
I0630 19:26:28.286079  5429 net.cpp:439] pool3 <- res3a_branch2b/bn_res3a_branch2b/relu_0_split_0
I0630 19:26:28.286082  5429 net.cpp:413] pool3 -> pool3
I0630 19:26:28.286118  5429 net.cpp:148] Setting up pool3
I0630 19:26:28.286121  5429 net.cpp:155] Top shape: 5 128 40 40 (1024000)
I0630 19:26:28.286123  5429 net.cpp:163] Memory required for data: 806912000
I0630 19:26:28.286125  5429 layer_factory.hpp:77] Creating layer res4a_branch2a
I0630 19:26:28.286129  5429 net.cpp:98] Creating Layer res4a_branch2a
I0630 19:26:28.286131  5429 net.cpp:439] res4a_branch2a <- pool3
I0630 19:26:28.286134  5429 net.cpp:413] res4a_branch2a -> res4a_branch2a
I0630 19:26:28.293206  5429 net.cpp:148] Setting up res4a_branch2a
I0630 19:26:28.293226  5429 net.cpp:155] Top shape: 5 256 40 40 (2048000)
I0630 19:26:28.293228  5429 net.cpp:163] Memory required for data: 815104000
I0630 19:26:28.293234  5429 layer_factory.hpp:77] Creating layer res4a_branch2a/bn
I0630 19:26:28.293243  5429 net.cpp:98] Creating Layer res4a_branch2a/bn
I0630 19:26:28.293246  5429 net.cpp:439] res4a_branch2a/bn <- res4a_branch2a
I0630 19:26:28.293251  5429 net.cpp:413] res4a_branch2a/bn -> res4a_branch2a/bn
I0630 19:26:28.293905  5429 net.cpp:148] Setting up res4a_branch2a/bn
I0630 19:26:28.293910  5429 net.cpp:155] Top shape: 5 256 40 40 (2048000)
I0630 19:26:28.293913  5429 net.cpp:163] Memory required for data: 823296000
I0630 19:26:28.293918  5429 layer_factory.hpp:77] Creating layer res4a_branch2a/relu
I0630 19:26:28.293921  5429 net.cpp:98] Creating Layer res4a_branch2a/relu
I0630 19:26:28.293923  5429 net.cpp:439] res4a_branch2a/relu <- res4a_branch2a/bn
I0630 19:26:28.293926  5429 net.cpp:400] res4a_branch2a/relu -> res4a_branch2a/bn (in-place)
I0630 19:26:28.293929  5429 net.cpp:148] Setting up res4a_branch2a/relu
I0630 19:26:28.293932  5429 net.cpp:155] Top shape: 5 256 40 40 (2048000)
I0630 19:26:28.293933  5429 net.cpp:163] Memory required for data: 831488000
I0630 19:26:28.293936  5429 layer_factory.hpp:77] Creating layer res4a_branch2b
I0630 19:26:28.293941  5429 net.cpp:98] Creating Layer res4a_branch2b
I0630 19:26:28.293942  5429 net.cpp:439] res4a_branch2b <- res4a_branch2a/bn
I0630 19:26:28.293946  5429 net.cpp:413] res4a_branch2b -> res4a_branch2b
I0630 19:26:28.297144  5429 net.cpp:148] Setting up res4a_branch2b
I0630 19:26:28.297150  5429 net.cpp:155] Top shape: 5 256 40 40 (2048000)
I0630 19:26:28.297152  5429 net.cpp:163] Memory required for data: 839680000
I0630 19:26:28.297155  5429 layer_factory.hpp:77] Creating layer res4a_branch2b/bn
I0630 19:26:28.297159  5429 net.cpp:98] Creating Layer res4a_branch2b/bn
I0630 19:26:28.297161  5429 net.cpp:439] res4a_branch2b/bn <- res4a_branch2b
I0630 19:26:28.297175  5429 net.cpp:413] res4a_branch2b/bn -> res4a_branch2b/bn
I0630 19:26:28.297802  5429 net.cpp:148] Setting up res4a_branch2b/bn
I0630 19:26:28.297808  5429 net.cpp:155] Top shape: 5 256 40 40 (2048000)
I0630 19:26:28.297811  5429 net.cpp:163] Memory required for data: 847872000
I0630 19:26:28.297814  5429 layer_factory.hpp:77] Creating layer res4a_branch2b/relu
I0630 19:26:28.297817  5429 net.cpp:98] Creating Layer res4a_branch2b/relu
I0630 19:26:28.297819  5429 net.cpp:439] res4a_branch2b/relu <- res4a_branch2b/bn
I0630 19:26:28.297821  5429 net.cpp:400] res4a_branch2b/relu -> res4a_branch2b/bn (in-place)
I0630 19:26:28.297825  5429 net.cpp:148] Setting up res4a_branch2b/relu
I0630 19:26:28.297827  5429 net.cpp:155] Top shape: 5 256 40 40 (2048000)
I0630 19:26:28.297828  5429 net.cpp:163] Memory required for data: 856064000
I0630 19:26:28.297830  5429 layer_factory.hpp:77] Creating layer pool4
I0630 19:26:28.297834  5429 net.cpp:98] Creating Layer pool4
I0630 19:26:28.297837  5429 net.cpp:439] pool4 <- res4a_branch2b/bn
I0630 19:26:28.297839  5429 net.cpp:413] pool4 -> pool4
I0630 19:26:28.297875  5429 net.cpp:148] Setting up pool4
I0630 19:26:28.297879  5429 net.cpp:155] Top shape: 5 256 40 40 (2048000)
I0630 19:26:28.297881  5429 net.cpp:163] Memory required for data: 864256000
I0630 19:26:28.297883  5429 layer_factory.hpp:77] Creating layer res5a_branch2a
I0630 19:26:28.297888  5429 net.cpp:98] Creating Layer res5a_branch2a
I0630 19:26:28.297889  5429 net.cpp:439] res5a_branch2a <- pool4
I0630 19:26:28.297893  5429 net.cpp:413] res5a_branch2a -> res5a_branch2a
I0630 19:26:28.323674  5429 net.cpp:148] Setting up res5a_branch2a
I0630 19:26:28.323693  5429 net.cpp:155] Top shape: 5 512 40 40 (4096000)
I0630 19:26:28.323695  5429 net.cpp:163] Memory required for data: 880640000
I0630 19:26:28.323701  5429 layer_factory.hpp:77] Creating layer res5a_branch2a/bn
I0630 19:26:28.323712  5429 net.cpp:98] Creating Layer res5a_branch2a/bn
I0630 19:26:28.323715  5429 net.cpp:439] res5a_branch2a/bn <- res5a_branch2a
I0630 19:26:28.323719  5429 net.cpp:413] res5a_branch2a/bn -> res5a_branch2a/bn
I0630 19:26:28.324373  5429 net.cpp:148] Setting up res5a_branch2a/bn
I0630 19:26:28.324379  5429 net.cpp:155] Top shape: 5 512 40 40 (4096000)
I0630 19:26:28.324381  5429 net.cpp:163] Memory required for data: 897024000
I0630 19:26:28.324386  5429 layer_factory.hpp:77] Creating layer res5a_branch2a/relu
I0630 19:26:28.324390  5429 net.cpp:98] Creating Layer res5a_branch2a/relu
I0630 19:26:28.324393  5429 net.cpp:439] res5a_branch2a/relu <- res5a_branch2a/bn
I0630 19:26:28.324394  5429 net.cpp:400] res5a_branch2a/relu -> res5a_branch2a/bn (in-place)
I0630 19:26:28.324398  5429 net.cpp:148] Setting up res5a_branch2a/relu
I0630 19:26:28.324401  5429 net.cpp:155] Top shape: 5 512 40 40 (4096000)
I0630 19:26:28.324403  5429 net.cpp:163] Memory required for data: 913408000
I0630 19:26:28.324404  5429 layer_factory.hpp:77] Creating layer res5a_branch2b
I0630 19:26:28.324409  5429 net.cpp:98] Creating Layer res5a_branch2b
I0630 19:26:28.324411  5429 net.cpp:439] res5a_branch2b <- res5a_branch2a/bn
I0630 19:26:28.324414  5429 net.cpp:413] res5a_branch2b -> res5a_branch2b
I0630 19:26:28.337128  5429 net.cpp:148] Setting up res5a_branch2b
I0630 19:26:28.337139  5429 net.cpp:155] Top shape: 5 512 40 40 (4096000)
I0630 19:26:28.337141  5429 net.cpp:163] Memory required for data: 929792000
I0630 19:26:28.337147  5429 layer_factory.hpp:77] Creating layer res5a_branch2b/bn
I0630 19:26:28.337152  5429 net.cpp:98] Creating Layer res5a_branch2b/bn
I0630 19:26:28.337154  5429 net.cpp:439] res5a_branch2b/bn <- res5a_branch2b
I0630 19:26:28.337157  5429 net.cpp:413] res5a_branch2b/bn -> res5a_branch2b/bn
I0630 19:26:28.337800  5429 net.cpp:148] Setting up res5a_branch2b/bn
I0630 19:26:28.337805  5429 net.cpp:155] Top shape: 5 512 40 40 (4096000)
I0630 19:26:28.337806  5429 net.cpp:163] Memory required for data: 946176000
I0630 19:26:28.337811  5429 layer_factory.hpp:77] Creating layer res5a_branch2b/relu
I0630 19:26:28.337815  5429 net.cpp:98] Creating Layer res5a_branch2b/relu
I0630 19:26:28.337824  5429 net.cpp:439] res5a_branch2b/relu <- res5a_branch2b/bn
I0630 19:26:28.337827  5429 net.cpp:400] res5a_branch2b/relu -> res5a_branch2b/bn (in-place)
I0630 19:26:28.337831  5429 net.cpp:148] Setting up res5a_branch2b/relu
I0630 19:26:28.337833  5429 net.cpp:155] Top shape: 5 512 40 40 (4096000)
I0630 19:26:28.337836  5429 net.cpp:163] Memory required for data: 962560000
I0630 19:26:28.337837  5429 layer_factory.hpp:77] Creating layer out5a
I0630 19:26:28.337841  5429 net.cpp:98] Creating Layer out5a
I0630 19:26:28.337843  5429 net.cpp:439] out5a <- res5a_branch2b/bn
I0630 19:26:28.337848  5429 net.cpp:413] out5a -> out5a
I0630 19:26:28.341904  5429 net.cpp:148] Setting up out5a
I0630 19:26:28.341913  5429 net.cpp:155] Top shape: 5 64 40 40 (512000)
I0630 19:26:28.341915  5429 net.cpp:163] Memory required for data: 964608000
I0630 19:26:28.341919  5429 layer_factory.hpp:77] Creating layer out5a/bn
I0630 19:26:28.341923  5429 net.cpp:98] Creating Layer out5a/bn
I0630 19:26:28.341925  5429 net.cpp:439] out5a/bn <- out5a
I0630 19:26:28.341928  5429 net.cpp:413] out5a/bn -> out5a/bn
I0630 19:26:28.342639  5429 net.cpp:148] Setting up out5a/bn
I0630 19:26:28.342645  5429 net.cpp:155] Top shape: 5 64 40 40 (512000)
I0630 19:26:28.342648  5429 net.cpp:163] Memory required for data: 966656000
I0630 19:26:28.342653  5429 layer_factory.hpp:77] Creating layer out5a/relu
I0630 19:26:28.342655  5429 net.cpp:98] Creating Layer out5a/relu
I0630 19:26:28.342658  5429 net.cpp:439] out5a/relu <- out5a/bn
I0630 19:26:28.342659  5429 net.cpp:400] out5a/relu -> out5a/bn (in-place)
I0630 19:26:28.342663  5429 net.cpp:148] Setting up out5a/relu
I0630 19:26:28.342665  5429 net.cpp:155] Top shape: 5 64 40 40 (512000)
I0630 19:26:28.342666  5429 net.cpp:163] Memory required for data: 968704000
I0630 19:26:28.342669  5429 layer_factory.hpp:77] Creating layer out5a_up2
I0630 19:26:28.342672  5429 net.cpp:98] Creating Layer out5a_up2
I0630 19:26:28.342674  5429 net.cpp:439] out5a_up2 <- out5a/bn
I0630 19:26:28.342676  5429 net.cpp:413] out5a_up2 -> out5a_up2
I0630 19:26:28.342924  5429 net.cpp:148] Setting up out5a_up2
I0630 19:26:28.342929  5429 net.cpp:155] Top shape: 5 64 80 80 (2048000)
I0630 19:26:28.342931  5429 net.cpp:163] Memory required for data: 976896000
I0630 19:26:28.342934  5429 layer_factory.hpp:77] Creating layer out3a
I0630 19:26:28.342938  5429 net.cpp:98] Creating Layer out3a
I0630 19:26:28.342941  5429 net.cpp:439] out3a <- res3a_branch2b/bn_res3a_branch2b/relu_0_split_1
I0630 19:26:28.342943  5429 net.cpp:413] out3a -> out3a
I0630 19:26:28.343966  5429 net.cpp:148] Setting up out3a
I0630 19:26:28.343971  5429 net.cpp:155] Top shape: 5 64 80 80 (2048000)
I0630 19:26:28.343973  5429 net.cpp:163] Memory required for data: 985088000
I0630 19:26:28.343976  5429 layer_factory.hpp:77] Creating layer out3a/bn
I0630 19:26:28.343981  5429 net.cpp:98] Creating Layer out3a/bn
I0630 19:26:28.343983  5429 net.cpp:439] out3a/bn <- out3a
I0630 19:26:28.343986  5429 net.cpp:413] out3a/bn -> out3a/bn
I0630 19:26:28.344696  5429 net.cpp:148] Setting up out3a/bn
I0630 19:26:28.344702  5429 net.cpp:155] Top shape: 5 64 80 80 (2048000)
I0630 19:26:28.344703  5429 net.cpp:163] Memory required for data: 993280000
I0630 19:26:28.344707  5429 layer_factory.hpp:77] Creating layer out3a/relu
I0630 19:26:28.344710  5429 net.cpp:98] Creating Layer out3a/relu
I0630 19:26:28.344712  5429 net.cpp:439] out3a/relu <- out3a/bn
I0630 19:26:28.344714  5429 net.cpp:400] out3a/relu -> out3a/bn (in-place)
I0630 19:26:28.344718  5429 net.cpp:148] Setting up out3a/relu
I0630 19:26:28.344720  5429 net.cpp:155] Top shape: 5 64 80 80 (2048000)
I0630 19:26:28.344722  5429 net.cpp:163] Memory required for data: 1001472000
I0630 19:26:28.344723  5429 layer_factory.hpp:77] Creating layer out3_out5_combined
I0630 19:26:28.344729  5429 net.cpp:98] Creating Layer out3_out5_combined
I0630 19:26:28.344732  5429 net.cpp:439] out3_out5_combined <- out5a_up2
I0630 19:26:28.344733  5429 net.cpp:439] out3_out5_combined <- out3a/bn
I0630 19:26:28.344743  5429 net.cpp:413] out3_out5_combined -> out3_out5_combined
I0630 19:26:28.344765  5429 net.cpp:148] Setting up out3_out5_combined
I0630 19:26:28.344769  5429 net.cpp:155] Top shape: 5 64 80 80 (2048000)
I0630 19:26:28.344770  5429 net.cpp:163] Memory required for data: 1009664000
I0630 19:26:28.344772  5429 layer_factory.hpp:77] Creating layer ctx_conv1
I0630 19:26:28.344776  5429 net.cpp:98] Creating Layer ctx_conv1
I0630 19:26:28.344779  5429 net.cpp:439] ctx_conv1 <- out3_out5_combined
I0630 19:26:28.344780  5429 net.cpp:413] ctx_conv1 -> ctx_conv1
I0630 19:26:28.345795  5429 net.cpp:148] Setting up ctx_conv1
I0630 19:26:28.345800  5429 net.cpp:155] Top shape: 5 64 80 80 (2048000)
I0630 19:26:28.345803  5429 net.cpp:163] Memory required for data: 1017856000
I0630 19:26:28.345805  5429 layer_factory.hpp:77] Creating layer ctx_conv1/bn
I0630 19:26:28.345808  5429 net.cpp:98] Creating Layer ctx_conv1/bn
I0630 19:26:28.345810  5429 net.cpp:439] ctx_conv1/bn <- ctx_conv1
I0630 19:26:28.345813  5429 net.cpp:413] ctx_conv1/bn -> ctx_conv1/bn
I0630 19:26:28.346529  5429 net.cpp:148] Setting up ctx_conv1/bn
I0630 19:26:28.346535  5429 net.cpp:155] Top shape: 5 64 80 80 (2048000)
I0630 19:26:28.346537  5429 net.cpp:163] Memory required for data: 1026048000
I0630 19:26:28.346541  5429 layer_factory.hpp:77] Creating layer ctx_conv1/relu
I0630 19:26:28.346544  5429 net.cpp:98] Creating Layer ctx_conv1/relu
I0630 19:26:28.346546  5429 net.cpp:439] ctx_conv1/relu <- ctx_conv1/bn
I0630 19:26:28.346549  5429 net.cpp:400] ctx_conv1/relu -> ctx_conv1/bn (in-place)
I0630 19:26:28.346551  5429 net.cpp:148] Setting up ctx_conv1/relu
I0630 19:26:28.346554  5429 net.cpp:155] Top shape: 5 64 80 80 (2048000)
I0630 19:26:28.346555  5429 net.cpp:163] Memory required for data: 1034240000
I0630 19:26:28.346557  5429 layer_factory.hpp:77] Creating layer ctx_conv2
I0630 19:26:28.346561  5429 net.cpp:98] Creating Layer ctx_conv2
I0630 19:26:28.346563  5429 net.cpp:439] ctx_conv2 <- ctx_conv1/bn
I0630 19:26:28.346566  5429 net.cpp:413] ctx_conv2 -> ctx_conv2
I0630 19:26:28.347579  5429 net.cpp:148] Setting up ctx_conv2
I0630 19:26:28.347584  5429 net.cpp:155] Top shape: 5 64 80 80 (2048000)
I0630 19:26:28.347585  5429 net.cpp:163] Memory required for data: 1042432000
I0630 19:26:28.347589  5429 layer_factory.hpp:77] Creating layer ctx_conv2/bn
I0630 19:26:28.347591  5429 net.cpp:98] Creating Layer ctx_conv2/bn
I0630 19:26:28.347594  5429 net.cpp:439] ctx_conv2/bn <- ctx_conv2
I0630 19:26:28.347595  5429 net.cpp:413] ctx_conv2/bn -> ctx_conv2/bn
I0630 19:26:28.348312  5429 net.cpp:148] Setting up ctx_conv2/bn
I0630 19:26:28.348317  5429 net.cpp:155] Top shape: 5 64 80 80 (2048000)
I0630 19:26:28.348320  5429 net.cpp:163] Memory required for data: 1050624000
I0630 19:26:28.348325  5429 layer_factory.hpp:77] Creating layer ctx_conv2/relu
I0630 19:26:28.348327  5429 net.cpp:98] Creating Layer ctx_conv2/relu
I0630 19:26:28.348330  5429 net.cpp:439] ctx_conv2/relu <- ctx_conv2/bn
I0630 19:26:28.348331  5429 net.cpp:400] ctx_conv2/relu -> ctx_conv2/bn (in-place)
I0630 19:26:28.348335  5429 net.cpp:148] Setting up ctx_conv2/relu
I0630 19:26:28.348337  5429 net.cpp:155] Top shape: 5 64 80 80 (2048000)
I0630 19:26:28.348338  5429 net.cpp:163] Memory required for data: 1058816000
I0630 19:26:28.348340  5429 layer_factory.hpp:77] Creating layer ctx_conv3
I0630 19:26:28.348345  5429 net.cpp:98] Creating Layer ctx_conv3
I0630 19:26:28.348346  5429 net.cpp:439] ctx_conv3 <- ctx_conv2/bn
I0630 19:26:28.348348  5429 net.cpp:413] ctx_conv3 -> ctx_conv3
I0630 19:26:28.349366  5429 net.cpp:148] Setting up ctx_conv3
I0630 19:26:28.349371  5429 net.cpp:155] Top shape: 5 64 80 80 (2048000)
I0630 19:26:28.349373  5429 net.cpp:163] Memory required for data: 1067008000
I0630 19:26:28.349376  5429 layer_factory.hpp:77] Creating layer ctx_conv3/bn
I0630 19:26:28.349380  5429 net.cpp:98] Creating Layer ctx_conv3/bn
I0630 19:26:28.349381  5429 net.cpp:439] ctx_conv3/bn <- ctx_conv3
I0630 19:26:28.349383  5429 net.cpp:413] ctx_conv3/bn -> ctx_conv3/bn
I0630 19:26:28.350175  5429 net.cpp:148] Setting up ctx_conv3/bn
I0630 19:26:28.350186  5429 net.cpp:155] Top shape: 5 64 80 80 (2048000)
I0630 19:26:28.350190  5429 net.cpp:163] Memory required for data: 1075200000
I0630 19:26:28.350198  5429 layer_factory.hpp:77] Creating layer ctx_conv3/relu
I0630 19:26:28.350206  5429 net.cpp:98] Creating Layer ctx_conv3/relu
I0630 19:26:28.350211  5429 net.cpp:439] ctx_conv3/relu <- ctx_conv3/bn
I0630 19:26:28.350219  5429 net.cpp:400] ctx_conv3/relu -> ctx_conv3/bn (in-place)
I0630 19:26:28.350226  5429 net.cpp:148] Setting up ctx_conv3/relu
I0630 19:26:28.350232  5429 net.cpp:155] Top shape: 5 64 80 80 (2048000)
I0630 19:26:28.350235  5429 net.cpp:163] Memory required for data: 1083392000
I0630 19:26:28.350240  5429 layer_factory.hpp:77] Creating layer ctx_conv4
I0630 19:26:28.350247  5429 net.cpp:98] Creating Layer ctx_conv4
I0630 19:26:28.350250  5429 net.cpp:439] ctx_conv4 <- ctx_conv3/bn
I0630 19:26:28.350253  5429 net.cpp:413] ctx_conv4 -> ctx_conv4
I0630 19:26:28.351349  5429 net.cpp:148] Setting up ctx_conv4
I0630 19:26:28.351359  5429 net.cpp:155] Top shape: 5 64 80 80 (2048000)
I0630 19:26:28.351361  5429 net.cpp:163] Memory required for data: 1091584000
I0630 19:26:28.351364  5429 layer_factory.hpp:77] Creating layer ctx_conv4/bn
I0630 19:26:28.351369  5429 net.cpp:98] Creating Layer ctx_conv4/bn
I0630 19:26:28.351372  5429 net.cpp:439] ctx_conv4/bn <- ctx_conv4
I0630 19:26:28.351375  5429 net.cpp:413] ctx_conv4/bn -> ctx_conv4/bn
I0630 19:26:28.352110  5429 net.cpp:148] Setting up ctx_conv4/bn
I0630 19:26:28.352116  5429 net.cpp:155] Top shape: 5 64 80 80 (2048000)
I0630 19:26:28.352118  5429 net.cpp:163] Memory required for data: 1099776000
I0630 19:26:28.352123  5429 layer_factory.hpp:77] Creating layer ctx_conv4/relu
I0630 19:26:28.352128  5429 net.cpp:98] Creating Layer ctx_conv4/relu
I0630 19:26:28.352130  5429 net.cpp:439] ctx_conv4/relu <- ctx_conv4/bn
I0630 19:26:28.352133  5429 net.cpp:400] ctx_conv4/relu -> ctx_conv4/bn (in-place)
I0630 19:26:28.352136  5429 net.cpp:148] Setting up ctx_conv4/relu
I0630 19:26:28.352139  5429 net.cpp:155] Top shape: 5 64 80 80 (2048000)
I0630 19:26:28.352141  5429 net.cpp:163] Memory required for data: 1107968000
I0630 19:26:28.352144  5429 layer_factory.hpp:77] Creating layer ctx_final
I0630 19:26:28.352149  5429 net.cpp:98] Creating Layer ctx_final
I0630 19:26:28.352150  5429 net.cpp:439] ctx_final <- ctx_conv4/bn
I0630 19:26:28.352154  5429 net.cpp:413] ctx_final -> ctx_final
I0630 19:26:28.352687  5429 net.cpp:148] Setting up ctx_final
I0630 19:26:28.352692  5429 net.cpp:155] Top shape: 5 20 80 80 (640000)
I0630 19:26:28.352695  5429 net.cpp:163] Memory required for data: 1110528000
I0630 19:26:28.352699  5429 layer_factory.hpp:77] Creating layer ctx_final/relu
I0630 19:26:28.352701  5429 net.cpp:98] Creating Layer ctx_final/relu
I0630 19:26:28.352705  5429 net.cpp:439] ctx_final/relu <- ctx_final
I0630 19:26:28.352707  5429 net.cpp:400] ctx_final/relu -> ctx_final (in-place)
I0630 19:26:28.352711  5429 net.cpp:148] Setting up ctx_final/relu
I0630 19:26:28.352713  5429 net.cpp:155] Top shape: 5 20 80 80 (640000)
I0630 19:26:28.352716  5429 net.cpp:163] Memory required for data: 1113088000
I0630 19:26:28.352718  5429 layer_factory.hpp:77] Creating layer out_deconv_final_up2
I0630 19:26:28.352721  5429 net.cpp:98] Creating Layer out_deconv_final_up2
I0630 19:26:28.352725  5429 net.cpp:439] out_deconv_final_up2 <- ctx_final
I0630 19:26:28.352728  5429 net.cpp:413] out_deconv_final_up2 -> out_deconv_final_up2
I0630 19:26:28.352967  5429 net.cpp:148] Setting up out_deconv_final_up2
I0630 19:26:28.352972  5429 net.cpp:155] Top shape: 5 20 160 160 (2560000)
I0630 19:26:28.352973  5429 net.cpp:163] Memory required for data: 1123328000
I0630 19:26:28.352977  5429 layer_factory.hpp:77] Creating layer out_deconv_final_up4
I0630 19:26:28.352979  5429 net.cpp:98] Creating Layer out_deconv_final_up4
I0630 19:26:28.352982  5429 net.cpp:439] out_deconv_final_up4 <- out_deconv_final_up2
I0630 19:26:28.352985  5429 net.cpp:413] out_deconv_final_up4 -> out_deconv_final_up4
I0630 19:26:28.353235  5429 net.cpp:148] Setting up out_deconv_final_up4
I0630 19:26:28.353240  5429 net.cpp:155] Top shape: 5 20 320 320 (10240000)
I0630 19:26:28.353243  5429 net.cpp:163] Memory required for data: 1164288000
I0630 19:26:28.353245  5429 layer_factory.hpp:77] Creating layer out_deconv_final_up8
I0630 19:26:28.353250  5429 net.cpp:98] Creating Layer out_deconv_final_up8
I0630 19:26:28.353251  5429 net.cpp:439] out_deconv_final_up8 <- out_deconv_final_up4
I0630 19:26:28.353255  5429 net.cpp:413] out_deconv_final_up8 -> out_deconv_final_up8
I0630 19:26:28.353488  5429 net.cpp:148] Setting up out_deconv_final_up8
I0630 19:26:28.353493  5429 net.cpp:155] Top shape: 5 20 640 640 (40960000)
I0630 19:26:28.353495  5429 net.cpp:163] Memory required for data: 1328128000
I0630 19:26:28.353498  5429 layer_factory.hpp:77] Creating layer loss
I0630 19:26:28.353798  5429 net.cpp:98] Creating Layer loss
I0630 19:26:28.353803  5429 net.cpp:439] loss <- out_deconv_final_up8
I0630 19:26:28.353806  5429 net.cpp:439] loss <- label
I0630 19:26:28.353811  5429 net.cpp:413] loss -> loss
…
I0630 19:26:28.405920  5429 solver.cpp:182] Creating test net (#0) specified by test_net file: training/cityscapes20_jsegnet21v2_2017-06-30_19-26-17/initial/test.prototxt
I0630 19:26:28.406195  5429 net.cpp:56] Initializing net from parameters: 
name: "jsegnet21v2_test"
state {
  phase: TEST
}
layer {
  name: "data"
  type: "ImageLabelData"
  top: "data"
  top: "label"
  transform_param {
    mirror: false
    crop_size: 640
    mean_value: 0
  }
  image_label_data_param {
    image_list_path: "data/val-image-lmdb"
    label_list_path: "data/val-label-lmdb"
    batch_size: 4
    threads: 4
    backend: LMDB
  }
}
layer {
  name: "data/bias"
  type: "Bias"
  bottom: "data"
  top: "data/bias"
  param {
    lr_mult: 0
    decay_mult: 0
  }
  bias_param {
    filler {
      type: "constant"
      value: -128
    }
  }
}
layer {
  name: "conv1a"
  type: "Convolution"
  bottom: "data/bias"
  top: "conv1a"
  param {
    lr_mult: 1
    decay_mult: 1
  }
  param {
    lr_mult: 2
    decay_mult: 0
  }
  convolution_param {
    num_output: 32
    bias_term: true
    pad: 2
    kernel_size: 5
    group: 1
    stride: 2
    weight_filler {
      type: "msra"
    }
    bias_filler {
      type: "constant"
      value: 0
    }
    dilation: 1
  }
}
layer {
  name: "conv1a/bn"
  type: "BatchNorm"
  bottom: "conv1a"
  top: "conv1a/bn"
  param {
    lr_mult: 1
    decay_mult: 1
  }
  param {
    lr_mult: 1
    decay_mult: 1
  }
  param {
    lr_mult: 0
    decay_mult: 0
  }
  param {
    lr_mult: 0
    decay_mult: 0
  }
  batch_norm_param {
    moving_average_fraction: 0.99
    eps: 0.0001
    scale_filler {
      type: "constant"
      value: 1
    }
    bias_filler {
      type: "constant"
      value: 0
    }
  }
}
layer {
  name: "conv1a/relu"
  type: "ReLU"
  bottom: "conv1a/bn"
  top: "conv1a/bn"
}
layer {
  name: "conv1b"
  type: "Convolution"
  bottom: "conv1a/bn"
  top: "conv1b"
  param {
    lr_mult: 1
    decay_mult: 1
  }
  param {
    lr_mult: 2
    decay_mult: 0
  }
  convolution_param {
    num_output: 32
    bias_term: true
    pad: 1
    kernel_size: 3
    group: 4
    stride: 1
    weight_filler {
      type: "msra"
    }
    bias_filler {
      type: "constant"
      value: 0
    }
    dilation: 1
  }
}
layer {
  name: "conv1b/bn"
  type: "BatchNorm"
  bottom: "conv1b"
  top: "conv1b/bn"
  param {
    lr_mult: 1
    decay_mult: 1
  }
  param {
    lr_mult: 1
    decay_mult: 1
  }
  param {
    lr_mult: 0
    decay_mult: 0
  }
  param {
    lr_mult: 0
    decay_mult: 0
  }
  batch_norm_param {
    moving_average_fraction: 0.99
    eps: 0.0001
    scale_filler {
      type: "constant"
      value: 1
    }
    bias_filler {
      type: "constant"
      value: 0
    }
  }
}
layer {
  name: "conv1b/relu"
  type: "ReLU"
  bottom: "conv1b/bn"
  top: "conv1b/bn"
}
layer {
  name: "pool1"
  type: "Pooling"
  bottom: "conv1b/bn"
  top: "pool1"
  pooling_param {
    pool: MAX
    kernel_size: 2
    stride: 2
  }
}
layer {
  name: "res2a_branch2a"
  type: "Convolution"
  bottom: "pool1"
  top: "res2a_branch2a"
  param {
    lr_mult: 1
    decay_mult: 1
  }
  param {
    lr_mult: 2
    decay_mult: 0
  }
  convolution_param {
    num_output: 64
    bias_term: true
    pad: 1
    kernel_size: 3
    group: 1
    stride: 1
    weight_filler {
      type: "msra"
    }
    bias_filler {
      type: "constant"
      value: 0
    }
    dilation: 1
  }
}
layer {
  name: "res2a_branch2a/bn"
  type: "BatchNorm"
  bottom: "res2a_branch2a"
  top: "res2a_branch2a/bn"
  param {
    lr_mult: 1
    decay_mult: 1
  }
  param {
    lr_mult: 1
    decay_mult: 1
  }
  param {
    lr_mult: 0
    decay_mult: 0
  }
  param {
    lr_mult: 0
    decay_mult: 0
  }
  batch_norm_param {
    moving_average_fraction: 0.99
    eps: 0.0001
    scale_filler {
      type: "constant"
      value: 1
    }
    bias_filler {
      type: "constant"
      value: 0
    }
  }
}
layer {
  name: "res2a_branch2a/relu"
  type: "ReLU"
  bottom: "res2a_branch2a/bn"
  top: "res2a_branch2a/bn"
}
layer {
  name: "res2a_branch2b"
  type: "Convolution"
  bottom: "res2a_branch2a/bn"
  top: "res2a_branch2b"
  param {
    lr_mult: 1
    decay_mult: 1
  }
  param {
    lr_mult: 2
    decay_mult: 0
  }
  convolution_param {
    num_output: 64
    bias_term: true
    pad: 1
    kernel_size: 3
    group: 4
    stride: 1
    weight_filler {
      type: "msra"
    }
    bias_filler {
      type: "constant"
      value: 0
    }
    dilation: 1
  }
}
layer {
  name: "res2a_branch2b/bn"
  type: "BatchNorm"
  bottom: "res2a_branch2b"
  top: "res2a_branch2b/bn"
  param {
    lr_mult: 1
    decay_mult: 1
  }
  param {
    lr_mult: 1
    decay_mult: 1
  }
  param {
    lr_mult: 0
    decay_mult: 0
  }
  param {
    lr_mult: 0
    decay_mult: 0
  }
  batch_norm_param {
    moving_average_fraction: 0.99
    eps: 0.0001
    scale_filler {
      type: "constant"
      value: 1
    }
    bias_filler {
      type: "constant"
      value: 0
    }
  }
}
layer {
  name: "res2a_branch2b/relu"
  type: "ReLU"
  bottom: "res2a_branch2b/bn"
  top: "res2a_branch2b/bn"
}
layer {
  name: "pool2"
  type: "Pooling"
  bottom: "res2a_branch2b/bn"
  top: "pool2"
  pooling_param {
    pool: MAX
    kernel_size: 2
    stride: 2
  }
}
layer {
  name: "res3a_branch2a"
  type: "Convolution"
  bottom: "pool2"
  top: "res3a_branch2a"
  param {
    lr_mult: 1
    decay_mult: 1
  }
  param {
    lr_mult: 2
    decay_mult: 0
  }
  convolution_param {
    num_output: 128
    bias_term: true
    pad: 1
    kernel_size: 3
    group: 1
    stride: 1
    weight_filler {
      type: "msra"
    }
    bias_filler {
      type: "constant"
      value: 0
    }
    dilation: 1
  }
}
layer {
  name: "res3a_branch2a/bn"
  type: "BatchNorm"
  bottom: "res3a_branch2a"
  top: "res3a_branch2a/bn"
  param {
    lr_mult: 1
    decay_mult: 1
  }
  param {
    lr_mult: 1
    decay_mult: 1
  }
  param {
    lr_mult: 0
    decay_mult: 0
  }
  param {
    lr_mult: 0
    decay_mult: 0
  }
  batch_norm_param {
    moving_average_fraction: 0.99
    eps: 0.0001
    scale_filler {
      type: "constant"
      value: 1
    }
    bias_filler {
      type: "constant"
      value: 0
    }
  }
}
layer {
  name: "res3a_branch2a/relu"
  type: "ReLU"
  bottom: "res3a_branch2a/bn"
  top: "res3a_branch2a/bn"
}
layer {
  name: "res3a_branch2b"
  type: "Convolution"
  bottom: "res3a_branch2a/bn"
  top: "res3a_branch2b"
  param {
    lr_mult: 1
    decay_mult: 1
  }
  param {
    lr_mult: 2
    decay_mult: 0
  }
  convolution_param {
    num_output: 128
    bias_term: true
    pad: 1
    kernel_size: 3
    group: 4
    stride: 1
    weight_filler {
      type: "msra"
    }
    bias_filler {
      type: "constant"
      value: 0
    }
    dilation: 1
  }
}
layer {
  name: "res3a_branch2b/bn"
  type: "BatchNorm"
  bottom: "res3a_branch2b"
  top: "res3a_branch2b/bn"
  param {
    lr_mult: 1
    decay_mult: 1
  }
  param {
    lr_mult: 1
    decay_mult: 1
  }
  param {
    lr_mult: 0
    decay_mult: 0
  }
  param {
    lr_mult: 0
    decay_mult: 0
  }
  batch_norm_param {
    moving_average_fraction: 0.99
    eps: 0.0001
    scale_filler {
      type: "constant"
      value: 1
    }
    bias_filler {
      type: "constant"
      value: 0
    }
  }
}
layer {
  name: "res3a_branch2b/relu"
  type: "ReLU"
  bottom: "res3a_branch2b/bn"
  top: "res3a_branch2b/bn"
}
layer {
  name: "pool3"
  type: "Pooling"
  bottom: "res3a_branch2b/bn"
  top: "pool3"
  pooling_param {
    pool: MAX
    kernel_size: 2
    stride: 2
  }
}
layer {
  name: "res4a_branch2a"
  type: "Convolution"
  bottom: "pool3"
  top: "res4a_branch2a"
  param {
    lr_mult: 1
    decay_mult: 1
  }
  param {
    lr_mult: 2
    decay_mult: 0
  }
  convolution_param {
    num_output: 256
    bias_term: true
    pad: 1
    kernel_size: 3
    group: 1
    stride: 1
    weight_filler {
      type: "msra"
    }
    bias_filler {
      type: "constant"
      value: 0
    }
    dilation: 1
  }
}
layer {
  name: "res4a_branch2a/bn"
  type: "BatchNorm"
  bottom: "res4a_branch2a"
  top: "res4a_branch2a/bn"
  param {
    lr_mult: 1
    decay_mult: 1
  }
  param {
    lr_mult: 1
    decay_mult: 1
  }
  param {
    lr_mult: 0
    decay_mult: 0
  }
  param {
    lr_mult: 0
    decay_mult: 0
  }
  batch_norm_param {
    moving_average_fraction: 0.99
    eps: 0.0001
    scale_filler {
      type: "constant"
      value: 1
    }
    bias_filler {
      type: "constant"
      value: 0
    }
  }
}
layer {
  name: "res4a_branch2a/relu"
  type: "ReLU"
  bottom: "res4a_branch2a/bn"
  top: "res4a_branch2a/bn"
}
layer {
  name: "res4a_branch2b"
  type: "Convolution"
  bottom: "res4a_branch2a/bn"
  top: "res4a_branch2b"
  param {
    lr_mult: 1
    decay_mult: 1
  }
  param {
    lr_mult: 2
    decay_mult: 0
  }
  convolution_param {
    num_output: 256
    bias_term: true
    pad: 1
    kernel_size: 3
    group: 4
    stride: 1
    weight_filler {
      type: "msra"
    }
    bias_filler {
      type: "constant"
      value: 0
    }
    dilation: 1
  }
}
layer {
  name: "res4a_branch2b/bn"
  type: "BatchNorm"
  bottom: "res4a_branch2b"
  top: "res4a_branch2b/bn"
  param {
    lr_mult: 1
    decay_mult: 1
  }
  param {
    lr_mult: 1
    decay_mult: 1
  }
  param {
    lr_mult: 0
    decay_mult: 0
  }
  param {
    lr_mult: 0
    decay_mult: 0
  }
  batch_norm_param {
    moving_average_fraction: 0.99
    eps: 0.0001
    scale_filler {
      type: "constant"
      value: 1
    }
    bias_filler {
      type: "constant"
      value: 0
    }
  }
}
layer {
  name: "res4a_branch2b/relu"
  type: "ReLU"
  bottom: "res4a_branch2b/bn"
  top: "res4a_branch2b/bn"
}
layer {
  name: "pool4"
  type: "Pooling"
  bottom: "res4a_branch2b/bn"
  top: "pool4"
  pooling_param {
    pool: MAX
    kernel_size: 1
    stride: 1
  }
}
layer {
  name: "res5a_branch2a"
  type: "Convolution"
  bottom: "pool4"
  top: "res5a_branch2a"
  param {
    lr_mult: 1
    decay_mult: 1
  }
  param {
    lr_mult: 2
    decay_mult: 0
  }
  convolution_param {
    num_output: 512
    bias_term: true
    pad: 2
    kernel_size: 3
    group: 1
    stride: 1
    weight_filler {
      type: "msra"
    }
    bias_filler {
      type: "constant"
      value: 0
    }
    dilation: 2
  }
}
layer {
  name: "res5a_branch2a/bn"
  type: "BatchNorm"
  bottom: "res5a_branch2a"
  top: "res5a_branch2a/bn"
  param {
    lr_mult: 1
    decay_mult: 1
  }
  param {
    lr_mult: 1
    decay_mult: 1
  }
  param {
    lr_mult: 0
    decay_mult: 0
  }
  param {
    lr_mult: 0
    decay_mult: 0
  }
  batch_norm_param {
    moving_average_fraction: 0.99
    eps: 0.0001
    scale_filler {
      type: "constant"
      value: 1
    }
    bias_filler {
      type: "constant"
      value: 0
    }
  }
}
layer {
  name: "res5a_branch2a/relu"
  type: "ReLU"
  bottom: "res5a_branch2a/bn"
  top: "res5a_branch2a/bn"
}
layer {
  name: "res5a_branch2b"
  type: "Convolution"
  bottom: "res5a_branch2a/bn"
  top: "res5a_branch2b"
  param {
    lr_mult: 1
    decay_mult: 1
  }
  param {
    lr_mult: 2
    decay_mult: 0
  }
  convolution_param {
    num_output: 512
    bias_term: true
    pad: 2
    kernel_size: 3
    group: 4
    stride: 1
    weight_filler {
      type: "msra"
    }
    bias_filler {
      type: "constant"
      value: 0
    }
    dilation: 2
  }
}
layer {
  name: "res5a_branch2b/bn"
  type: "BatchNorm"
  bottom: "res5a_branch2b"
  top: "res5a_branch2b/bn"
  param {
    lr_mult: 1
    decay_mult: 1
  }
  param {
    lr_mult: 1
    decay_mult: 1
  }
  param {
    lr_mult: 0
    decay_mult: 0
  }
  param {
    lr_mult: 0
    decay_mult: 0
  }
  batch_norm_param {
    moving_average_fraction: 0.99
    eps: 0.0001
    scale_filler {
      type: "constant"
      value: 1
    }
    bias_filler {
      type: "constant"
      value: 0
    }
  }
}
layer {
  name: "res5a_branch2b/relu"
  type: "ReLU"
  bottom: "res5a_branch2b/bn"
  top: "res5a_branch2b/bn"
}
layer {
  name: "out5a"
  type: "Convolution"
  bottom: "res5a_branch2b/bn"
  top: "out5a"
  param {
    lr_mult: 1
    decay_mult: 1
  }
  param {
    lr_mult: 2
    decay_mult: 0
  }
  convolution_param {
    num_output: 64
    bias_term: true
    pad: 4
    kernel_size: 3
    group: 2
    stride: 1
    weight_filler {
      type: "msra"
    }
    bias_filler {
      type: "constant"
      value: 0
    }
    dilation: 4
  }
}
layer {
  name: "out5a/bn"
  type: "BatchNorm"
  bottom: "out5a"
  top: "out5a/bn"
  param {
    lr_mult: 1
    decay_mult: 1
  }
  param {
    lr_mult: 1
    decay_mult: 1
  }
  param {
    lr_mult: 0
    decay_mult: 0
  }
  param {
    lr_mult: 0
    decay_mult: 0
  }
  batch_norm_param {
    moving_average_fraction: 0.99
    eps: 0.0001
    scale_filler {
      type: "constant"
      value: 1
    }
    bias_filler {
      type: "constant"
      value: 0
    }
  }
}
layer {
  name: "out5a/relu"
  type: "ReLU"
  bottom: "out5a/bn"
  top: "out5a/bn"
}
layer {
  name: "out5a_up2"
  type: "Deconvolution"
  bottom: "out5a/bn"
  top: "out5a_up2"
  param {
    lr_mult: 0
    decay_mult: 0
  }
  convolution_param {
    num_output: 64
    bias_term: false
    pad: 1
    kernel_size: 4
    group: 64
    stride: 2
    weight_filler {
      type: "bilinear"
    }
  }
}
layer {
  name: "out3a"
  type: "Convolution"
  bottom: "res3a_branch2b/bn"
  top: "out3a"
  param {
    lr_mult: 1
    decay_mult: 1
  }
  param {
    lr_mult: 2
    decay_mult: 0
  }
  convolution_param {
    num_output: 64
    bias_term: true
    pad: 1
    kernel_size: 3
    group: 2
    stride: 1
    weight_filler {
      type: "msra"
    }
    bias_filler {
      type: "constant"
      value: 0
    }
    dilation: 1
  }
}
layer {
  name: "out3a/bn"
  type: "BatchNorm"
  bottom: "out3a"
  top: "out3a/bn"
  param {
    lr_mult: 1
    decay_mult: 1
  }
  param {
    lr_mult: 1
    decay_mult: 1
  }
  param {
    lr_mult: 0
    decay_mult: 0
  }
  param {
    lr_mult: 0
    decay_mult: 0
  }
  batch_norm_param {
    moving_average_fraction: 0.99
    eps: 0.0001
    scale_filler {
      type: "constant"
      value: 1
    }
    bias_filler {
      type: "constant"
      value: 0
    }
  }
}
layer {
  name: "out3a/relu"
  type: "ReLU"
  bottom: "out3a/bn"
  top: "out3a/bn"
}
layer {
  name: "out3_out5_combined"
  type: "Eltwise"
  bottom: "out5a_up2"
  bottom: "out3a/bn"
  top: "out3_out5_combined"
}
layer {
  name: "ctx_conv1"
  type: "Convolution"
  bottom: "out3_out5_combined"
  top: "ctx_conv1"
  param {
    lr_mult: 1
    decay_mult: 1
  }
  param {
    lr_mult: 2
    decay_mult: 0
  }
  convolution_param {
    num_output: 64
    bias_term: true
    pad: 1
    kernel_size: 3
    group: 1
    stride: 1
    weight_filler {
      type: "msra"
    }
    bias_filler {
      type: "constant"
      value: 0
    }
    dilation: 1
  }
}
layer {
  name: "ctx_conv1/bn"
  type: "BatchNorm"
  bottom: "ctx_conv1"
  top: "ctx_conv1/bn"
  param {
    lr_mult: 1
    decay_mult: 1
  }
  param {
    lr_mult: 1
    decay_mult: 1
  }
  param {
    lr_mult: 0
    decay_mult: 0
  }
  param {
    lr_mult: 0
    decay_mult: 0
  }
  batch_norm_param {
    moving_average_fraction: 0.99
    eps: 0.0001
    scale_filler {
      type: "constant"
      value: 1
    }
    bias_filler {
      type: "constant"
      value: 0
    }
  }
}
layer {
  name: "ctx_conv1/relu"
  type: "ReLU"
  bottom: "ctx_conv1/bn"
  top: "ctx_conv1/bn"
}
layer {
  name: "ctx_conv2"
  type: "Convolution"
  bottom: "ctx_conv1/bn"
  top: "ctx_conv2"
  param {
    lr_mult: 1
    decay_mult: 1
  }
  param {
    lr_mult: 2
    decay_mult: 0
  }
  convolution_param {
    num_output: 64
    bias_term: true
    pad: 4
    kernel_size: 3
    group: 1
    stride: 1
    weight_filler {
      type: "msra"
    }
    bias_filler {
      type: "constant"
      value: 0
    }
    dilation: 4
  }
}
layer {
  name: "ctx_conv2/bn"
  type: "BatchNorm"
  bottom: "ctx_conv2"
  top: "ctx_conv2/bn"
  param {
    lr_mult: 1
    decay_mult: 1
  }
  param {
    lr_mult: 1
    decay_mult: 1
  }
  param {
    lr_mult: 0
    decay_mult: 0
  }
  param {
    lr_mult: 0
    decay_mult: 0
  }
  batch_norm_param {
    moving_average_fraction: 0.99
    eps: 0.0001
    scale_filler {
      type: "constant"
      value: 1
    }
    bias_filler {
      type: "constant"
      value: 0
    }
  }
}
layer {
  name: "ctx_conv2/relu"
  type: "ReLU"
  bottom: "ctx_conv2/bn"
  top: "ctx_conv2/bn"
}
layer {
  name: "ctx_conv3"
  type: "Convolution"
  bottom: "ctx_conv2/bn"
  top: "ctx_conv3"
  param {
    lr_mult: 1
    decay_mult: 1
  }
  param {
    lr_mult: 2
    decay_mult: 0
  }
  convolution_param {
    num_output: 64
    bias_term: true
    pad: 4
    kernel_size: 3
    group: 1
    stride: 1
    weight_filler {
      type: "msra"
    }
    bias_filler {
      type: "constant"
      value: 0
    }
    dilation: 4
  }
}
layer {
  name: "ctx_conv3/bn"
  type: "BatchNorm"
  bottom: "ctx_conv3"
  top: "ctx_conv3/bn"
  param {
    lr_mult: 1
    decay_mult: 1
  }
  param {
    lr_mult: 1
    decay_mult: 1
  }
  param {
    lr_mult: 0
    decay_mult: 0
  }
  param {
    lr_mult: 0
    decay_mult: 0
  }
  batch_norm_param {
    moving_average_fraction: 0.99
    eps: 0.0001
    scale_filler {
      type: "constant"
      value: 1
    }
    bias_filler {
      type: "constant"
      value: 0
    }
  }
}
layer {
  name: "ctx_conv3/relu"
  type: "ReLU"
  bottom: "ctx_conv3/bn"
  top: "ctx_conv3/bn"
}
layer {
  name: "ctx_conv4"
  type: "Convolution"
  bottom: "ctx_conv3/bn"
  top: "ctx_conv4"
  param {
    lr_mult: 1
    decay_mult: 1
  }
  param {
    lr_mult: 2
    decay_mult: 0
  }
  convolution_param {
    num_output: 64
    bias_term: true
    pad: 4
    kernel_size: 3
    group: 1
    stride: 1
    weight_filler {
      type: "msra"
    }
    bias_filler {
      type: "constant"
      value: 0
    }
    dilation: 4
  }
}
layer {
  name: "ctx_conv4/bn"
  type: "BatchNorm"
  bottom: "ctx_conv4"
  top: "ctx_conv4/bn"
  param {
    lr_mult: 1
    decay_mult: 1
  }
  param {
    lr_mult: 1
    decay_mult: 1
  }
  param {
    lr_mult: 0
    decay_mult: 0
  }
  param {
    lr_mult: 0
    decay_mult: 0
  }
  batch_norm_param {
    moving_average_fraction: 0.99
    eps: 0.0001
    scale_filler {
      type: "constant"
      value: 1
    }
    bias_filler {
      type: "constant"
      value: 0
    }
  }
}
layer {
  name: "ctx_conv4/relu"
  type: "ReLU"
  bottom: "ctx_conv4/bn"
  top: "ctx_conv4/bn"
}
layer {
  name: "ctx_final"
  type: "Convolution"
  bottom: "ctx_conv4/bn"
  top: "ctx_final"
  param {
    lr_mult: 1
    decay_mult: 1
  }
  param {
    lr_mult: 2
    decay_mult: 0
  }
  convolution_param {
    num_output: 20
    bias_term: true
    pad: 1
    kernel_size: 3
    kernel_size: 3
    group: 1
    stride: 1
    weight_filler {
      type: "msra"
    }
    bias_filler {
      type: "constant"
      value: 0
    }
    dilation: 1
  }
}
layer {
  name: "ctx_final/relu"
  type: "ReLU"
  bottom: "ctx_final"
  top: "ctx_final"
}
layer {
  name: "out_deconv_final_up2"
  type: "Deconvolution"
  bottom: "ctx_final"
  top: "out_deconv_final_up2"
  param {
    lr_mult: 0
    decay_mult: 0
  }
  convolution_param {
    num_output: 20
    bias_term: false
    pad: 1
    kernel_size: 4
    group: 20
    stride: 2
    weight_filler {
      type: "bilinear"
    }
  }
}
layer {
  name: "out_deconv_final_up4"
  type: "Deconvolution"
  bottom: "out_deconv_final_up2"
  top: "out_deconv_final_up4"
  param {
    lr_mult: 0
    decay_mult: 0
  }
  convolution_param {
    num_output: 20
    bias_term: false
    pad: 1
    kernel_size: 4
    group: 20
    stride: 2
    weight_filler {
      type: "bilinear"
    }
  }
}
layer {
  name: "out_deconv_final_up8"
  type: "Deconvolution"
  bottom: "out_deconv_final_up4"
  top: "out_deconv_final_up8"
  param {
    lr_mult: 0
    decay_mult: 0
  }
  convolution_param {
    num_output: 20
    bias_term: false
    pad: 1
    kernel_size: 4
    group: 20
    stride: 2
    weight_filler {
      type: "bilinear"
    }
  }
}
layer {
  name: "loss"
  type: "SoftmaxWithLoss"
  bottom: "out_deconv_final_up8"
  bottom: "label"
  top: "loss"
  propagate_down: true
  propagate_down: false
  loss_param {
    ignore_label: 255
    normalization: VALID
  }
}
layer {
  name: "accuracy/top1"
  type: "Accuracy"
  bottom: "out_deconv_final_up8"
  bottom: "label"
  top: "accuracy/top1"
  include {
    phase: TEST
  }
  accuracy_param {
    ignore_label: 255
  }
}
layer {
  name: "accuracy/top5"
  type: "Accuracy"
  bottom: "out_deconv_final_up8"
  bottom: "label"
  top: "accuracy/top5"
  include {
    phase: TEST
  }
  accuracy_param {
    top_k: 5
    ignore_label: 255
  }
}
I0630 19:26:28.406316  5429 layer_factory.hpp:77] Creating layer data
I0630 19:26:28.406322  5429 net.cpp:98] Creating Layer data
I0630 19:26:28.406325  5429 net.cpp:413] data -> data
I0630 19:26:28.406330  5429 net.cpp:413] data -> label
I0630 19:26:28.421135  5520 db_lmdb.cpp:35] Opened lmdb data/val-image-lmdb
I0630 19:26:28.439621  5525 db_lmdb.cpp:35] Opened lmdb data/val-label-lmdb
I0630 19:26:28.687757  5429 data_layer.cpp:78] ReshapePrefetch 4, 3, 640, 640
I0630 19:26:28.687839  5429 data_layer.cpp:83] output data size: 4,3,640,640
I0630 19:26:28.711022  5429 data_layer.cpp:78] ReshapePrefetch 4, 1, 640, 640
I0630 19:26:28.711097  5429 data_layer.cpp:83] output data size: 4,1,640,640
I0630 19:26:28.721737  5429 net.cpp:148] Setting up data
I0630 19:26:28.721755  5429 net.cpp:155] Top shape: 4 3 640 640 (4915200)
I0630 19:26:28.721758  5429 net.cpp:155] Top shape: 4 1 640 640 (1638400)
I0630 19:26:28.721760  5429 net.cpp:163] Memory required for data: 26214400
I0630 19:26:28.721765  5429 layer_factory.hpp:77] Creating layer label_data_1_split
I0630 19:26:28.721771  5429 net.cpp:98] Creating Layer label_data_1_split
I0630 19:26:28.721774  5429 net.cpp:439] label_data_1_split <- label
I0630 19:26:28.721792  5429 net.cpp:413] label_data_1_split -> label_data_1_split_0
I0630 19:26:28.721797  5429 net.cpp:413] label_data_1_split -> label_data_1_split_1
I0630 19:26:28.721801  5429 net.cpp:413] label_data_1_split -> label_data_1_split_2
I0630 19:26:28.721948  5429 net.cpp:148] Setting up label_data_1_split
I0630 19:26:28.721959  5429 net.cpp:155] Top shape: 4 1 640 640 (1638400)
I0630 19:26:28.721962  5429 net.cpp:155] Top shape: 4 1 640 640 (1638400)
I0630 19:26:28.721964  5429 net.cpp:155] Top shape: 4 1 640 640 (1638400)
I0630 19:26:28.721966  5429 net.cpp:163] Memory required for data: 45875200
I0630 19:26:28.721971  5429 layer_factory.hpp:77] Creating layer data/bias
I0630 19:26:28.721976  5429 net.cpp:98] Creating Layer data/bias
I0630 19:26:28.721978  5429 net.cpp:439] data/bias <- data
I0630 19:26:28.721982  5429 net.cpp:413] data/bias -> data/bias
I0630 19:26:28.723155  5429 net.cpp:148] Setting up data/bias
I0630 19:26:28.723163  5429 net.cpp:155] Top shape: 4 3 640 640 (4915200)
I0630 19:26:28.723165  5429 net.cpp:163] Memory required for data: 65536000
I0630 19:26:28.723171  5429 layer_factory.hpp:77] Creating layer conv1a
I0630 19:26:28.723181  5429 net.cpp:98] Creating Layer conv1a
I0630 19:26:28.723182  5429 net.cpp:439] conv1a <- data/bias
I0630 19:26:28.723186  5429 net.cpp:413] conv1a -> conv1a
I0630 19:26:28.724521  5429 net.cpp:148] Setting up conv1a
I0630 19:26:28.724540  5429 net.cpp:155] Top shape: 4 32 320 320 (13107200)
I0630 19:26:28.724545  5429 net.cpp:163] Memory required for data: 117964800
I0630 19:26:28.724556  5429 layer_factory.hpp:77] Creating layer conv1a/bn
I0630 19:26:28.724572  5429 net.cpp:98] Creating Layer conv1a/bn
I0630 19:26:28.724578  5429 net.cpp:439] conv1a/bn <- conv1a
I0630 19:26:28.724587  5429 net.cpp:413] conv1a/bn -> conv1a/bn
I0630 19:26:28.725872  5429 net.cpp:148] Setting up conv1a/bn
I0630 19:26:28.725881  5429 net.cpp:155] Top shape: 4 32 320 320 (13107200)
I0630 19:26:28.725884  5429 net.cpp:163] Memory required for data: 170393600
I0630 19:26:28.725893  5429 layer_factory.hpp:77] Creating layer conv1a/relu
I0630 19:26:28.725899  5429 net.cpp:98] Creating Layer conv1a/relu
I0630 19:26:28.725903  5429 net.cpp:439] conv1a/relu <- conv1a/bn
I0630 19:26:28.725905  5429 net.cpp:400] conv1a/relu -> conv1a/bn (in-place)
I0630 19:26:28.725911  5429 net.cpp:148] Setting up conv1a/relu
I0630 19:26:28.725914  5429 net.cpp:155] Top shape: 4 32 320 320 (13107200)
I0630 19:26:28.725927  5429 net.cpp:163] Memory required for data: 222822400
I0630 19:26:28.725931  5429 layer_factory.hpp:77] Creating layer conv1b
I0630 19:26:28.725939  5429 net.cpp:98] Creating Layer conv1b
I0630 19:26:28.725942  5429 net.cpp:439] conv1b <- conv1a/bn
I0630 19:26:28.725946  5429 net.cpp:413] conv1b -> conv1b
I0630 19:26:28.726514  5429 net.cpp:148] Setting up conv1b
I0630 19:26:28.726521  5429 net.cpp:155] Top shape: 4 32 320 320 (13107200)
I0630 19:26:28.726523  5429 net.cpp:163] Memory required for data: 275251200
I0630 19:26:28.726527  5429 layer_factory.hpp:77] Creating layer conv1b/bn
I0630 19:26:28.726531  5429 net.cpp:98] Creating Layer conv1b/bn
I0630 19:26:28.726533  5429 net.cpp:439] conv1b/bn <- conv1b
I0630 19:26:28.726537  5429 net.cpp:413] conv1b/bn -> conv1b/bn
I0630 19:26:28.727335  5429 net.cpp:148] Setting up conv1b/bn
I0630 19:26:28.727341  5429 net.cpp:155] Top shape: 4 32 320 320 (13107200)
I0630 19:26:28.727344  5429 net.cpp:163] Memory required for data: 327680000
I0630 19:26:28.727349  5429 layer_factory.hpp:77] Creating layer conv1b/relu
I0630 19:26:28.727351  5429 net.cpp:98] Creating Layer conv1b/relu
I0630 19:26:28.727354  5429 net.cpp:439] conv1b/relu <- conv1b/bn
I0630 19:26:28.727355  5429 net.cpp:400] conv1b/relu -> conv1b/bn (in-place)
I0630 19:26:28.727358  5429 net.cpp:148] Setting up conv1b/relu
I0630 19:26:28.727361  5429 net.cpp:155] Top shape: 4 32 320 320 (13107200)
I0630 19:26:28.727362  5429 net.cpp:163] Memory required for data: 380108800
I0630 19:26:28.727365  5429 layer_factory.hpp:77] Creating layer pool1
I0630 19:26:28.727378  5429 net.cpp:98] Creating Layer pool1
I0630 19:26:28.727381  5429 net.cpp:439] pool1 <- conv1b/bn
I0630 19:26:28.727383  5429 net.cpp:413] pool1 -> pool1
I0630 19:26:28.727422  5429 net.cpp:148] Setting up pool1
I0630 19:26:28.727427  5429 net.cpp:155] Top shape: 4 32 160 160 (3276800)
I0630 19:26:28.727428  5429 net.cpp:163] Memory required for data: 393216000
I0630 19:26:28.727430  5429 layer_factory.hpp:77] Creating layer res2a_branch2a
I0630 19:26:28.727433  5429 net.cpp:98] Creating Layer res2a_branch2a
I0630 19:26:28.727435  5429 net.cpp:439] res2a_branch2a <- pool1
I0630 19:26:28.727438  5429 net.cpp:413] res2a_branch2a -> res2a_branch2a
I0630 19:26:28.728130  5429 net.cpp:148] Setting up res2a_branch2a
I0630 19:26:28.728135  5429 net.cpp:155] Top shape: 4 64 160 160 (6553600)
I0630 19:26:28.728137  5429 net.cpp:163] Memory required for data: 419430400
I0630 19:26:28.728142  5429 layer_factory.hpp:77] Creating layer res2a_branch2a/bn
I0630 19:26:28.728145  5429 net.cpp:98] Creating Layer res2a_branch2a/bn
I0630 19:26:28.728147  5429 net.cpp:439] res2a_branch2a/bn <- res2a_branch2a
I0630 19:26:28.728149  5429 net.cpp:413] res2a_branch2a/bn -> res2a_branch2a/bn
I0630 19:26:28.728896  5429 net.cpp:148] Setting up res2a_branch2a/bn
I0630 19:26:28.728901  5429 net.cpp:155] Top shape: 4 64 160 160 (6553600)
I0630 19:26:28.728904  5429 net.cpp:163] Memory required for data: 445644800
I0630 19:26:28.728909  5429 layer_factory.hpp:77] Creating layer res2a_branch2a/relu
I0630 19:26:28.728911  5429 net.cpp:98] Creating Layer res2a_branch2a/relu
I0630 19:26:28.728914  5429 net.cpp:439] res2a_branch2a/relu <- res2a_branch2a/bn
I0630 19:26:28.728915  5429 net.cpp:400] res2a_branch2a/relu -> res2a_branch2a/bn (in-place)
I0630 19:26:28.728919  5429 net.cpp:148] Setting up res2a_branch2a/relu
I0630 19:26:28.728920  5429 net.cpp:155] Top shape: 4 64 160 160 (6553600)
I0630 19:26:28.728922  5429 net.cpp:163] Memory required for data: 471859200
I0630 19:26:28.728924  5429 layer_factory.hpp:77] Creating layer res2a_branch2b
I0630 19:26:28.728927  5429 net.cpp:98] Creating Layer res2a_branch2b
I0630 19:26:28.728929  5429 net.cpp:439] res2a_branch2b <- res2a_branch2a/bn
I0630 19:26:28.728932  5429 net.cpp:413] res2a_branch2b -> res2a_branch2b
I0630 19:26:28.729435  5429 net.cpp:148] Setting up res2a_branch2b
I0630 19:26:28.729440  5429 net.cpp:155] Top shape: 4 64 160 160 (6553600)
I0630 19:26:28.729442  5429 net.cpp:163] Memory required for data: 498073600
I0630 19:26:28.729445  5429 layer_factory.hpp:77] Creating layer res2a_branch2b/bn
I0630 19:26:28.729449  5429 net.cpp:98] Creating Layer res2a_branch2b/bn
I0630 19:26:28.729451  5429 net.cpp:439] res2a_branch2b/bn <- res2a_branch2b
I0630 19:26:28.729454  5429 net.cpp:413] res2a_branch2b/bn -> res2a_branch2b/bn
I0630 19:26:28.730197  5429 net.cpp:148] Setting up res2a_branch2b/bn
I0630 19:26:28.730202  5429 net.cpp:155] Top shape: 4 64 160 160 (6553600)
I0630 19:26:28.730204  5429 net.cpp:163] Memory required for data: 524288000
I0630 19:26:28.730209  5429 layer_factory.hpp:77] Creating layer res2a_branch2b/relu
I0630 19:26:28.730212  5429 net.cpp:98] Creating Layer res2a_branch2b/relu
I0630 19:26:28.730214  5429 net.cpp:439] res2a_branch2b/relu <- res2a_branch2b/bn
I0630 19:26:28.730216  5429 net.cpp:400] res2a_branch2b/relu -> res2a_branch2b/bn (in-place)
I0630 19:26:28.730219  5429 net.cpp:148] Setting up res2a_branch2b/relu
I0630 19:26:28.730222  5429 net.cpp:155] Top shape: 4 64 160 160 (6553600)
I0630 19:26:28.730223  5429 net.cpp:163] Memory required for data: 550502400
I0630 19:26:28.730226  5429 layer_factory.hpp:77] Creating layer pool2
I0630 19:26:28.730229  5429 net.cpp:98] Creating Layer pool2
I0630 19:26:28.730231  5429 net.cpp:439] pool2 <- res2a_branch2b/bn
I0630 19:26:28.730233  5429 net.cpp:413] pool2 -> pool2
I0630 19:26:28.730273  5429 net.cpp:148] Setting up pool2
I0630 19:26:28.730276  5429 net.cpp:155] Top shape: 4 64 80 80 (1638400)
I0630 19:26:28.730278  5429 net.cpp:163] Memory required for data: 557056000
I0630 19:26:28.730280  5429 layer_factory.hpp:77] Creating layer res3a_branch2a
I0630 19:26:28.730290  5429 net.cpp:98] Creating Layer res3a_branch2a
I0630 19:26:28.730293  5429 net.cpp:439] res3a_branch2a <- pool2
I0630 19:26:28.730296  5429 net.cpp:413] res3a_branch2a -> res3a_branch2a
I0630 19:26:28.732085  5429 net.cpp:148] Setting up res3a_branch2a
I0630 19:26:28.732095  5429 net.cpp:155] Top shape: 4 128 80 80 (3276800)
I0630 19:26:28.732096  5429 net.cpp:163] Memory required for data: 570163200
I0630 19:26:28.732100  5429 layer_factory.hpp:77] Creating layer res3a_branch2a/bn
I0630 19:26:28.732103  5429 net.cpp:98] Creating Layer res3a_branch2a/bn
I0630 19:26:28.732107  5429 net.cpp:439] res3a_branch2a/bn <- res3a_branch2a
I0630 19:26:28.732111  5429 net.cpp:413] res3a_branch2a/bn -> res3a_branch2a/bn
I0630 19:26:28.732796  5429 net.cpp:148] Setting up res3a_branch2a/bn
I0630 19:26:28.732801  5429 net.cpp:155] Top shape: 4 128 80 80 (3276800)
I0630 19:26:28.732803  5429 net.cpp:163] Memory required for data: 583270400
I0630 19:26:28.732810  5429 layer_factory.hpp:77] Creating layer res3a_branch2a/relu
I0630 19:26:28.732813  5429 net.cpp:98] Creating Layer res3a_branch2a/relu
I0630 19:26:28.732815  5429 net.cpp:439] res3a_branch2a/relu <- res3a_branch2a/bn
I0630 19:26:28.732818  5429 net.cpp:400] res3a_branch2a/relu -> res3a_branch2a/bn (in-place)
I0630 19:26:28.732822  5429 net.cpp:148] Setting up res3a_branch2a/relu
I0630 19:26:28.732825  5429 net.cpp:155] Top shape: 4 128 80 80 (3276800)
I0630 19:26:28.732826  5429 net.cpp:163] Memory required for data: 596377600
I0630 19:26:28.732828  5429 layer_factory.hpp:77] Creating layer res3a_branch2b
I0630 19:26:28.732832  5429 net.cpp:98] Creating Layer res3a_branch2b
I0630 19:26:28.732836  5429 net.cpp:439] res3a_branch2b <- res3a_branch2a/bn
I0630 19:26:28.732838  5429 net.cpp:413] res3a_branch2b -> res3a_branch2b
I0630 19:26:28.733870  5429 net.cpp:148] Setting up res3a_branch2b
I0630 19:26:28.733875  5429 net.cpp:155] Top shape: 4 128 80 80 (3276800)
I0630 19:26:28.733876  5429 net.cpp:163] Memory required for data: 609484800
I0630 19:26:28.733880  5429 layer_factory.hpp:77] Creating layer res3a_branch2b/bn
I0630 19:26:28.733882  5429 net.cpp:98] Creating Layer res3a_branch2b/bn
I0630 19:26:28.733886  5429 net.cpp:439] res3a_branch2b/bn <- res3a_branch2b
I0630 19:26:28.733888  5429 net.cpp:413] res3a_branch2b/bn -> res3a_branch2b/bn
I0630 19:26:28.734571  5429 net.cpp:148] Setting up res3a_branch2b/bn
I0630 19:26:28.734577  5429 net.cpp:155] Top shape: 4 128 80 80 (3276800)
I0630 19:26:28.734580  5429 net.cpp:163] Memory required for data: 622592000
I0630 19:26:28.734585  5429 layer_factory.hpp:77] Creating layer res3a_branch2b/relu
I0630 19:26:28.734587  5429 net.cpp:98] Creating Layer res3a_branch2b/relu
I0630 19:26:28.734589  5429 net.cpp:439] res3a_branch2b/relu <- res3a_branch2b/bn
I0630 19:26:28.734591  5429 net.cpp:400] res3a_branch2b/relu -> res3a_branch2b/bn (in-place)
I0630 19:26:28.734594  5429 net.cpp:148] Setting up res3a_branch2b/relu
I0630 19:26:28.734596  5429 net.cpp:155] Top shape: 4 128 80 80 (3276800)
I0630 19:26:28.734598  5429 net.cpp:163] Memory required for data: 635699200
I0630 19:26:28.734601  5429 layer_factory.hpp:77] Creating layer res3a_branch2b/bn_res3a_branch2b/relu_0_split
I0630 19:26:28.734603  5429 net.cpp:98] Creating Layer res3a_branch2b/bn_res3a_branch2b/relu_0_split
I0630 19:26:28.734606  5429 net.cpp:439] res3a_branch2b/bn_res3a_branch2b/relu_0_split <- res3a_branch2b/bn
I0630 19:26:28.734607  5429 net.cpp:413] res3a_branch2b/bn_res3a_branch2b/relu_0_split -> res3a_branch2b/bn_res3a_branch2b/relu_0_split_0
I0630 19:26:28.734611  5429 net.cpp:413] res3a_branch2b/bn_res3a_branch2b/relu_0_split -> res3a_branch2b/bn_res3a_branch2b/relu_0_split_1
I0630 19:26:28.734647  5429 net.cpp:148] Setting up res3a_branch2b/bn_res3a_branch2b/relu_0_split
I0630 19:26:28.734652  5429 net.cpp:155] Top shape: 4 128 80 80 (3276800)
I0630 19:26:28.734653  5429 net.cpp:155] Top shape: 4 128 80 80 (3276800)
I0630 19:26:28.734655  5429 net.cpp:163] Memory required for data: 661913600
I0630 19:26:28.734664  5429 layer_factory.hpp:77] Creating layer pool3
I0630 19:26:28.734668  5429 net.cpp:98] Creating Layer pool3
I0630 19:26:28.734669  5429 net.cpp:439] pool3 <- res3a_branch2b/bn_res3a_branch2b/relu_0_split_0
I0630 19:26:28.734673  5429 net.cpp:413] pool3 -> pool3
I0630 19:26:28.734714  5429 net.cpp:148] Setting up pool3
I0630 19:26:28.734719  5429 net.cpp:155] Top shape: 4 128 40 40 (819200)
I0630 19:26:28.734720  5429 net.cpp:163] Memory required for data: 665190400
I0630 19:26:28.734722  5429 layer_factory.hpp:77] Creating layer res4a_branch2a
I0630 19:26:28.734726  5429 net.cpp:98] Creating Layer res4a_branch2a
I0630 19:26:28.734728  5429 net.cpp:439] res4a_branch2a <- pool3
I0630 19:26:28.734731  5429 net.cpp:413] res4a_branch2a -> res4a_branch2a
I0630 19:26:28.741770  5429 net.cpp:148] Setting up res4a_branch2a
I0630 19:26:28.741781  5429 net.cpp:155] Top shape: 4 256 40 40 (1638400)
I0630 19:26:28.741783  5429 net.cpp:163] Memory required for data: 671744000
I0630 19:26:28.741787  5429 layer_factory.hpp:77] Creating layer res4a_branch2a/bn
I0630 19:26:28.741791  5429 net.cpp:98] Creating Layer res4a_branch2a/bn
I0630 19:26:28.741793  5429 net.cpp:439] res4a_branch2a/bn <- res4a_branch2a
I0630 19:26:28.741799  5429 net.cpp:413] res4a_branch2a/bn -> res4a_branch2a/bn
I0630 19:26:28.742507  5429 net.cpp:148] Setting up res4a_branch2a/bn
I0630 19:26:28.742513  5429 net.cpp:155] Top shape: 4 256 40 40 (1638400)
I0630 19:26:28.742516  5429 net.cpp:163] Memory required for data: 678297600
I0630 19:26:28.742521  5429 layer_factory.hpp:77] Creating layer res4a_branch2a/relu
I0630 19:26:28.742523  5429 net.cpp:98] Creating Layer res4a_branch2a/relu
I0630 19:26:28.742525  5429 net.cpp:439] res4a_branch2a/relu <- res4a_branch2a/bn
I0630 19:26:28.742527  5429 net.cpp:400] res4a_branch2a/relu -> res4a_branch2a/bn (in-place)
I0630 19:26:28.742530  5429 net.cpp:148] Setting up res4a_branch2a/relu
I0630 19:26:28.742533  5429 net.cpp:155] Top shape: 4 256 40 40 (1638400)
I0630 19:26:28.742535  5429 net.cpp:163] Memory required for data: 684851200
I0630 19:26:28.742537  5429 layer_factory.hpp:77] Creating layer res4a_branch2b
I0630 19:26:28.742540  5429 net.cpp:98] Creating Layer res4a_branch2b
I0630 19:26:28.742542  5429 net.cpp:439] res4a_branch2b <- res4a_branch2a/bn
I0630 19:26:28.742545  5429 net.cpp:413] res4a_branch2b -> res4a_branch2b
I0630 19:26:28.745743  5429 net.cpp:148] Setting up res4a_branch2b
I0630 19:26:28.745748  5429 net.cpp:155] Top shape: 4 256 40 40 (1638400)
I0630 19:26:28.745749  5429 net.cpp:163] Memory required for data: 691404800
I0630 19:26:28.745753  5429 layer_factory.hpp:77] Creating layer res4a_branch2b/bn
I0630 19:26:28.745756  5429 net.cpp:98] Creating Layer res4a_branch2b/bn
I0630 19:26:28.745759  5429 net.cpp:439] res4a_branch2b/bn <- res4a_branch2b
I0630 19:26:28.745760  5429 net.cpp:413] res4a_branch2b/bn -> res4a_branch2b/bn
I0630 19:26:28.746451  5429 net.cpp:148] Setting up res4a_branch2b/bn
I0630 19:26:28.746457  5429 net.cpp:155] Top shape: 4 256 40 40 (1638400)
I0630 19:26:28.746459  5429 net.cpp:163] Memory required for data: 697958400
I0630 19:26:28.746464  5429 layer_factory.hpp:77] Creating layer res4a_branch2b/relu
I0630 19:26:28.746466  5429 net.cpp:98] Creating Layer res4a_branch2b/relu
I0630 19:26:28.746469  5429 net.cpp:439] res4a_branch2b/relu <- res4a_branch2b/bn
I0630 19:26:28.746470  5429 net.cpp:400] res4a_branch2b/relu -> res4a_branch2b/bn (in-place)
I0630 19:26:28.746474  5429 net.cpp:148] Setting up res4a_branch2b/relu
I0630 19:26:28.746476  5429 net.cpp:155] Top shape: 4 256 40 40 (1638400)
I0630 19:26:28.746479  5429 net.cpp:163] Memory required for data: 704512000
I0630 19:26:28.746479  5429 layer_factory.hpp:77] Creating layer pool4
I0630 19:26:28.746482  5429 net.cpp:98] Creating Layer pool4
I0630 19:26:28.746484  5429 net.cpp:439] pool4 <- res4a_branch2b/bn
I0630 19:26:28.746486  5429 net.cpp:413] pool4 -> pool4
I0630 19:26:28.746525  5429 net.cpp:148] Setting up pool4
I0630 19:26:28.746528  5429 net.cpp:155] Top shape: 4 256 40 40 (1638400)
I0630 19:26:28.746537  5429 net.cpp:163] Memory required for data: 711065600
I0630 19:26:28.746539  5429 layer_factory.hpp:77] Creating layer res5a_branch2a
I0630 19:26:28.746544  5429 net.cpp:98] Creating Layer res5a_branch2a
I0630 19:26:28.746546  5429 net.cpp:439] res5a_branch2a <- pool4
I0630 19:26:28.746549  5429 net.cpp:413] res5a_branch2a -> res5a_branch2a
I0630 19:26:28.771392  5429 net.cpp:148] Setting up res5a_branch2a
I0630 19:26:28.771411  5429 net.cpp:155] Top shape: 4 512 40 40 (3276800)
I0630 19:26:28.771414  5429 net.cpp:163] Memory required for data: 724172800
I0630 19:26:28.771420  5429 layer_factory.hpp:77] Creating layer res5a_branch2a/bn
I0630 19:26:28.771426  5429 net.cpp:98] Creating Layer res5a_branch2a/bn
I0630 19:26:28.771430  5429 net.cpp:439] res5a_branch2a/bn <- res5a_branch2a
I0630 19:26:28.771435  5429 net.cpp:413] res5a_branch2a/bn -> res5a_branch2a/bn
I0630 19:26:28.772148  5429 net.cpp:148] Setting up res5a_branch2a/bn
I0630 19:26:28.772155  5429 net.cpp:155] Top shape: 4 512 40 40 (3276800)
I0630 19:26:28.772156  5429 net.cpp:163] Memory required for data: 737280000
I0630 19:26:28.772162  5429 layer_factory.hpp:77] Creating layer res5a_branch2a/relu
I0630 19:26:28.772166  5429 net.cpp:98] Creating Layer res5a_branch2a/relu
I0630 19:26:28.772167  5429 net.cpp:439] res5a_branch2a/relu <- res5a_branch2a/bn
I0630 19:26:28.772171  5429 net.cpp:400] res5a_branch2a/relu -> res5a_branch2a/bn (in-place)
I0630 19:26:28.772173  5429 net.cpp:148] Setting up res5a_branch2a/relu
I0630 19:26:28.772176  5429 net.cpp:155] Top shape: 4 512 40 40 (3276800)
I0630 19:26:28.772177  5429 net.cpp:163] Memory required for data: 750387200
I0630 19:26:28.772179  5429 layer_factory.hpp:77] Creating layer res5a_branch2b
I0630 19:26:28.772184  5429 net.cpp:98] Creating Layer res5a_branch2b
I0630 19:26:28.772186  5429 net.cpp:439] res5a_branch2b <- res5a_branch2a/bn
I0630 19:26:28.772188  5429 net.cpp:413] res5a_branch2b -> res5a_branch2b
I0630 19:26:28.785019  5429 net.cpp:148] Setting up res5a_branch2b
I0630 19:26:28.785028  5429 net.cpp:155] Top shape: 4 512 40 40 (3276800)
I0630 19:26:28.785030  5429 net.cpp:163] Memory required for data: 763494400
I0630 19:26:28.785037  5429 layer_factory.hpp:77] Creating layer res5a_branch2b/bn
I0630 19:26:28.785042  5429 net.cpp:98] Creating Layer res5a_branch2b/bn
I0630 19:26:28.785043  5429 net.cpp:439] res5a_branch2b/bn <- res5a_branch2b
I0630 19:26:28.785046  5429 net.cpp:413] res5a_branch2b/bn -> res5a_branch2b/bn
I0630 19:26:28.785739  5429 net.cpp:148] Setting up res5a_branch2b/bn
I0630 19:26:28.785744  5429 net.cpp:155] Top shape: 4 512 40 40 (3276800)
I0630 19:26:28.785747  5429 net.cpp:163] Memory required for data: 776601600
I0630 19:26:28.785751  5429 layer_factory.hpp:77] Creating layer res5a_branch2b/relu
I0630 19:26:28.785754  5429 net.cpp:98] Creating Layer res5a_branch2b/relu
I0630 19:26:28.785756  5429 net.cpp:439] res5a_branch2b/relu <- res5a_branch2b/bn
I0630 19:26:28.785759  5429 net.cpp:400] res5a_branch2b/relu -> res5a_branch2b/bn (in-place)
I0630 19:26:28.785763  5429 net.cpp:148] Setting up res5a_branch2b/relu
I0630 19:26:28.785764  5429 net.cpp:155] Top shape: 4 512 40 40 (3276800)
I0630 19:26:28.785766  5429 net.cpp:163] Memory required for data: 789708800
I0630 19:26:28.785768  5429 layer_factory.hpp:77] Creating layer out5a
I0630 19:26:28.785771  5429 net.cpp:98] Creating Layer out5a
I0630 19:26:28.785773  5429 net.cpp:439] out5a <- res5a_branch2b/bn
I0630 19:26:28.785776  5429 net.cpp:413] out5a -> out5a
I0630 19:26:28.789860  5429 net.cpp:148] Setting up out5a
I0630 19:26:28.789870  5429 net.cpp:155] Top shape: 4 64 40 40 (409600)
I0630 19:26:28.789872  5429 net.cpp:163] Memory required for data: 791347200
I0630 19:26:28.789876  5429 layer_factory.hpp:77] Creating layer out5a/bn
I0630 19:26:28.789882  5429 net.cpp:98] Creating Layer out5a/bn
I0630 19:26:28.789885  5429 net.cpp:439] out5a/bn <- out5a
I0630 19:26:28.789887  5429 net.cpp:413] out5a/bn -> out5a/bn
I0630 19:26:28.790657  5429 net.cpp:148] Setting up out5a/bn
I0630 19:26:28.790663  5429 net.cpp:155] Top shape: 4 64 40 40 (409600)
I0630 19:26:28.790673  5429 net.cpp:163] Memory required for data: 792985600
I0630 19:26:28.790679  5429 layer_factory.hpp:77] Creating layer out5a/relu
I0630 19:26:28.790683  5429 net.cpp:98] Creating Layer out5a/relu
I0630 19:26:28.790684  5429 net.cpp:439] out5a/relu <- out5a/bn
I0630 19:26:28.790686  5429 net.cpp:400] out5a/relu -> out5a/bn (in-place)
I0630 19:26:28.790690  5429 net.cpp:148] Setting up out5a/relu
I0630 19:26:28.790693  5429 net.cpp:155] Top shape: 4 64 40 40 (409600)
I0630 19:26:28.790694  5429 net.cpp:163] Memory required for data: 794624000
I0630 19:26:28.790696  5429 layer_factory.hpp:77] Creating layer out5a_up2
I0630 19:26:28.790700  5429 net.cpp:98] Creating Layer out5a_up2
I0630 19:26:28.790701  5429 net.cpp:439] out5a_up2 <- out5a/bn
I0630 19:26:28.790705  5429 net.cpp:413] out5a_up2 -> out5a_up2
I0630 19:26:28.790971  5429 net.cpp:148] Setting up out5a_up2
I0630 19:26:28.790977  5429 net.cpp:155] Top shape: 4 64 80 80 (1638400)
I0630 19:26:28.790978  5429 net.cpp:163] Memory required for data: 801177600
I0630 19:26:28.790980  5429 layer_factory.hpp:77] Creating layer out3a
I0630 19:26:28.790984  5429 net.cpp:98] Creating Layer out3a
I0630 19:26:28.790987  5429 net.cpp:439] out3a <- res3a_branch2b/bn_res3a_branch2b/relu_0_split_1
I0630 19:26:28.790990  5429 net.cpp:413] out3a -> out3a
I0630 19:26:28.793148  5429 net.cpp:148] Setting up out3a
I0630 19:26:28.793165  5429 net.cpp:155] Top shape: 4 64 80 80 (1638400)
I0630 19:26:28.793167  5429 net.cpp:163] Memory required for data: 807731200
I0630 19:26:28.793174  5429 layer_factory.hpp:77] Creating layer out3a/bn
I0630 19:26:28.793180  5429 net.cpp:98] Creating Layer out3a/bn
I0630 19:26:28.793185  5429 net.cpp:439] out3a/bn <- out3a
I0630 19:26:28.793190  5429 net.cpp:413] out3a/bn -> out3a/bn
I0630 19:26:28.793987  5429 net.cpp:148] Setting up out3a/bn
I0630 19:26:28.793992  5429 net.cpp:155] Top shape: 4 64 80 80 (1638400)
I0630 19:26:28.793994  5429 net.cpp:163] Memory required for data: 814284800
I0630 19:26:28.793999  5429 layer_factory.hpp:77] Creating layer out3a/relu
I0630 19:26:28.794003  5429 net.cpp:98] Creating Layer out3a/relu
I0630 19:26:28.794005  5429 net.cpp:439] out3a/relu <- out3a/bn
I0630 19:26:28.794008  5429 net.cpp:400] out3a/relu -> out3a/bn (in-place)
I0630 19:26:28.794010  5429 net.cpp:148] Setting up out3a/relu
I0630 19:26:28.794013  5429 net.cpp:155] Top shape: 4 64 80 80 (1638400)
I0630 19:26:28.794014  5429 net.cpp:163] Memory required for data: 820838400
I0630 19:26:28.794016  5429 layer_factory.hpp:77] Creating layer out3_out5_combined
I0630 19:26:28.794019  5429 net.cpp:98] Creating Layer out3_out5_combined
I0630 19:26:28.794021  5429 net.cpp:439] out3_out5_combined <- out5a_up2
I0630 19:26:28.794023  5429 net.cpp:439] out3_out5_combined <- out3a/bn
I0630 19:26:28.794026  5429 net.cpp:413] out3_out5_combined -> out3_out5_combined
I0630 19:26:28.794049  5429 net.cpp:148] Setting up out3_out5_combined
I0630 19:26:28.794052  5429 net.cpp:155] Top shape: 4 64 80 80 (1638400)
I0630 19:26:28.794054  5429 net.cpp:163] Memory required for data: 827392000
I0630 19:26:28.794056  5429 layer_factory.hpp:77] Creating layer ctx_conv1
I0630 19:26:28.794061  5429 net.cpp:98] Creating Layer ctx_conv1
I0630 19:26:28.794064  5429 net.cpp:439] ctx_conv1 <- out3_out5_combined
I0630 19:26:28.794066  5429 net.cpp:413] ctx_conv1 -> ctx_conv1
I0630 19:26:28.795126  5429 net.cpp:148] Setting up ctx_conv1
I0630 19:26:28.795132  5429 net.cpp:155] Top shape: 4 64 80 80 (1638400)
I0630 19:26:28.795135  5429 net.cpp:163] Memory required for data: 833945600
I0630 19:26:28.795137  5429 layer_factory.hpp:77] Creating layer ctx_conv1/bn
I0630 19:26:28.795140  5429 net.cpp:98] Creating Layer ctx_conv1/bn
I0630 19:26:28.795142  5429 net.cpp:439] ctx_conv1/bn <- ctx_conv1
I0630 19:26:28.795145  5429 net.cpp:413] ctx_conv1/bn -> ctx_conv1/bn
I0630 19:26:28.795907  5429 net.cpp:148] Setting up ctx_conv1/bn
I0630 19:26:28.795912  5429 net.cpp:155] Top shape: 4 64 80 80 (1638400)
I0630 19:26:28.795914  5429 net.cpp:163] Memory required for data: 840499200
I0630 19:26:28.795928  5429 layer_factory.hpp:77] Creating layer ctx_conv1/relu
I0630 19:26:28.795930  5429 net.cpp:98] Creating Layer ctx_conv1/relu
I0630 19:26:28.795933  5429 net.cpp:439] ctx_conv1/relu <- ctx_conv1/bn
I0630 19:26:28.795934  5429 net.cpp:400] ctx_conv1/relu -> ctx_conv1/bn (in-place)
I0630 19:26:28.795938  5429 net.cpp:148] Setting up ctx_conv1/relu
I0630 19:26:28.795940  5429 net.cpp:155] Top shape: 4 64 80 80 (1638400)
I0630 19:26:28.795941  5429 net.cpp:163] Memory required for data: 847052800
I0630 19:26:28.795943  5429 layer_factory.hpp:77] Creating layer ctx_conv2
I0630 19:26:28.795951  5429 net.cpp:98] Creating Layer ctx_conv2
I0630 19:26:28.795954  5429 net.cpp:439] ctx_conv2 <- ctx_conv1/bn
I0630 19:26:28.795958  5429 net.cpp:413] ctx_conv2 -> ctx_conv2
I0630 19:26:28.797004  5429 net.cpp:148] Setting up ctx_conv2
I0630 19:26:28.797009  5429 net.cpp:155] Top shape: 4 64 80 80 (1638400)
I0630 19:26:28.797010  5429 net.cpp:163] Memory required for data: 853606400
I0630 19:26:28.797014  5429 layer_factory.hpp:77] Creating layer ctx_conv2/bn
I0630 19:26:28.797018  5429 net.cpp:98] Creating Layer ctx_conv2/bn
I0630 19:26:28.797019  5429 net.cpp:439] ctx_conv2/bn <- ctx_conv2
I0630 19:26:28.797022  5429 net.cpp:413] ctx_conv2/bn -> ctx_conv2/bn
I0630 19:26:28.797790  5429 net.cpp:148] Setting up ctx_conv2/bn
I0630 19:26:28.797794  5429 net.cpp:155] Top shape: 4 64 80 80 (1638400)
I0630 19:26:28.797796  5429 net.cpp:163] Memory required for data: 860160000
I0630 19:26:28.797801  5429 layer_factory.hpp:77] Creating layer ctx_conv2/relu
I0630 19:26:28.797803  5429 net.cpp:98] Creating Layer ctx_conv2/relu
I0630 19:26:28.797806  5429 net.cpp:439] ctx_conv2/relu <- ctx_conv2/bn
I0630 19:26:28.797808  5429 net.cpp:400] ctx_conv2/relu -> ctx_conv2/bn (in-place)
I0630 19:26:28.797811  5429 net.cpp:148] Setting up ctx_conv2/relu
I0630 19:26:28.797813  5429 net.cpp:155] Top shape: 4 64 80 80 (1638400)
I0630 19:26:28.797816  5429 net.cpp:163] Memory required for data: 866713600
I0630 19:26:28.797816  5429 layer_factory.hpp:77] Creating layer ctx_conv3
I0630 19:26:28.797821  5429 net.cpp:98] Creating Layer ctx_conv3
I0630 19:26:28.797823  5429 net.cpp:439] ctx_conv3 <- ctx_conv2/bn
I0630 19:26:28.797825  5429 net.cpp:413] ctx_conv3 -> ctx_conv3
I0630 19:26:28.798889  5429 net.cpp:148] Setting up ctx_conv3
I0630 19:26:28.798895  5429 net.cpp:155] Top shape: 4 64 80 80 (1638400)
I0630 19:26:28.798897  5429 net.cpp:163] Memory required for data: 873267200
I0630 19:26:28.798900  5429 layer_factory.hpp:77] Creating layer ctx_conv3/bn
I0630 19:26:28.798903  5429 net.cpp:98] Creating Layer ctx_conv3/bn
I0630 19:26:28.798905  5429 net.cpp:439] ctx_conv3/bn <- ctx_conv3
I0630 19:26:28.798908  5429 net.cpp:413] ctx_conv3/bn -> ctx_conv3/bn
I0630 19:26:28.799682  5429 net.cpp:148] Setting up ctx_conv3/bn
I0630 19:26:28.799687  5429 net.cpp:155] Top shape: 4 64 80 80 (1638400)
I0630 19:26:28.799690  5429 net.cpp:163] Memory required for data: 879820800
I0630 19:26:28.799695  5429 layer_factory.hpp:77] Creating layer ctx_conv3/relu
I0630 19:26:28.799698  5429 net.cpp:98] Creating Layer ctx_conv3/relu
I0630 19:26:28.799700  5429 net.cpp:439] ctx_conv3/relu <- ctx_conv3/bn
I0630 19:26:28.799703  5429 net.cpp:400] ctx_conv3/relu -> ctx_conv3/bn (in-place)
I0630 19:26:28.799706  5429 net.cpp:148] Setting up ctx_conv3/relu
I0630 19:26:28.799708  5429 net.cpp:155] Top shape: 4 64 80 80 (1638400)
I0630 19:26:28.799710  5429 net.cpp:163] Memory required for data: 886374400
I0630 19:26:28.799712  5429 layer_factory.hpp:77] Creating layer ctx_conv4
I0630 19:26:28.799715  5429 net.cpp:98] Creating Layer ctx_conv4
I0630 19:26:28.799717  5429 net.cpp:439] ctx_conv4 <- ctx_conv3/bn
I0630 19:26:28.799721  5429 net.cpp:413] ctx_conv4 -> ctx_conv4
I0630 19:26:28.800766  5429 net.cpp:148] Setting up ctx_conv4
I0630 19:26:28.800771  5429 net.cpp:155] Top shape: 4 64 80 80 (1638400)
I0630 19:26:28.800773  5429 net.cpp:163] Memory required for data: 892928000
I0630 19:26:28.800776  5429 layer_factory.hpp:77] Creating layer ctx_conv4/bn
I0630 19:26:28.800786  5429 net.cpp:98] Creating Layer ctx_conv4/bn
I0630 19:26:28.800788  5429 net.cpp:439] ctx_conv4/bn <- ctx_conv4
I0630 19:26:28.800791  5429 net.cpp:413] ctx_conv4/bn -> ctx_conv4/bn
I0630 19:26:28.801555  5429 net.cpp:148] Setting up ctx_conv4/bn
I0630 19:26:28.801560  5429 net.cpp:155] Top shape: 4 64 80 80 (1638400)
I0630 19:26:28.801563  5429 net.cpp:163] Memory required for data: 899481600
I0630 19:26:28.801568  5429 layer_factory.hpp:77] Creating layer ctx_conv4/relu
I0630 19:26:28.801569  5429 net.cpp:98] Creating Layer ctx_conv4/relu
I0630 19:26:28.801571  5429 net.cpp:439] ctx_conv4/relu <- ctx_conv4/bn
I0630 19:26:28.801574  5429 net.cpp:400] ctx_conv4/relu -> ctx_conv4/bn (in-place)
I0630 19:26:28.801578  5429 net.cpp:148] Setting up ctx_conv4/relu
I0630 19:26:28.801579  5429 net.cpp:155] Top shape: 4 64 80 80 (1638400)
I0630 19:26:28.801581  5429 net.cpp:163] Memory required for data: 906035200
I0630 19:26:28.801582  5429 layer_factory.hpp:77] Creating layer ctx_final
I0630 19:26:28.801586  5429 net.cpp:98] Creating Layer ctx_final
I0630 19:26:28.801589  5429 net.cpp:439] ctx_final <- ctx_conv4/bn
I0630 19:26:28.801590  5429 net.cpp:413] ctx_final -> ctx_final
I0630 19:26:28.802148  5429 net.cpp:148] Setting up ctx_final
I0630 19:26:28.802153  5429 net.cpp:155] Top shape: 4 20 80 80 (512000)
I0630 19:26:28.802155  5429 net.cpp:163] Memory required for data: 908083200
I0630 19:26:28.802158  5429 layer_factory.hpp:77] Creating layer ctx_final/relu
I0630 19:26:28.802161  5429 net.cpp:98] Creating Layer ctx_final/relu
I0630 19:26:28.802163  5429 net.cpp:439] ctx_final/relu <- ctx_final
I0630 19:26:28.802165  5429 net.cpp:400] ctx_final/relu -> ctx_final (in-place)
I0630 19:26:28.802168  5429 net.cpp:148] Setting up ctx_final/relu
I0630 19:26:28.802170  5429 net.cpp:155] Top shape: 4 20 80 80 (512000)
I0630 19:26:28.802172  5429 net.cpp:163] Memory required for data: 910131200
I0630 19:26:28.802173  5429 layer_factory.hpp:77] Creating layer out_deconv_final_up2
I0630 19:26:28.802177  5429 net.cpp:98] Creating Layer out_deconv_final_up2
I0630 19:26:28.802178  5429 net.cpp:439] out_deconv_final_up2 <- ctx_final
I0630 19:26:28.802181  5429 net.cpp:413] out_deconv_final_up2 -> out_deconv_final_up2
I0630 19:26:28.802443  5429 net.cpp:148] Setting up out_deconv_final_up2
I0630 19:26:28.802448  5429 net.cpp:155] Top shape: 4 20 160 160 (2048000)
I0630 19:26:28.802449  5429 net.cpp:163] Memory required for data: 918323200
I0630 19:26:28.802451  5429 layer_factory.hpp:77] Creating layer out_deconv_final_up4
I0630 19:26:28.802455  5429 net.cpp:98] Creating Layer out_deconv_final_up4
I0630 19:26:28.802458  5429 net.cpp:439] out_deconv_final_up4 <- out_deconv_final_up2
I0630 19:26:28.802459  5429 net.cpp:413] out_deconv_final_up4 -> out_deconv_final_up4
I0630 19:26:28.802714  5429 net.cpp:148] Setting up out_deconv_final_up4
I0630 19:26:28.802718  5429 net.cpp:155] Top shape: 4 20 320 320 (8192000)
I0630 19:26:28.802721  5429 net.cpp:163] Memory required for data: 951091200
I0630 19:26:28.802723  5429 layer_factory.hpp:77] Creating layer out_deconv_final_up8
I0630 19:26:28.802728  5429 net.cpp:98] Creating Layer out_deconv_final_up8
I0630 19:26:28.802731  5429 net.cpp:439] out_deconv_final_up8 <- out_deconv_final_up4
I0630 19:26:28.802733  5429 net.cpp:413] out_deconv_final_up8 -> out_deconv_final_up8
I0630 19:26:28.802985  5429 net.cpp:148] Setting up out_deconv_final_up8
I0630 19:26:28.802989  5429 net.cpp:155] Top shape: 4 20 640 640 (32768000)
I0630 19:26:28.802991  5429 net.cpp:163] Memory required for data: 1082163200
I0630 19:26:28.802994  5429 layer_factory.hpp:77] Creating layer out_deconv_final_up8_out_deconv_final_up8_0_split
I0630 19:26:28.802997  5429 net.cpp:98] Creating Layer out_deconv_final_up8_out_deconv_final_up8_0_split
I0630 19:26:28.802999  5429 net.cpp:439] out_deconv_final_up8_out_deconv_final_up8_0_split <- out_deconv_final_up8
I0630 19:26:28.803001  5429 net.cpp:413] out_deconv_final_up8_out_deconv_final_up8_0_split -> out_deconv_final_up8_out_deconv_final_up8_0_split_0
I0630 19:26:28.803010  5429 net.cpp:413] out_deconv_final_up8_out_deconv_final_up8_0_split -> out_deconv_final_up8_out_deconv_final_up8_0_split_1
I0630 19:26:28.803014  5429 net.cpp:413] out_deconv_final_up8_out_deconv_final_up8_0_split -> out_deconv_final_up8_out_deconv_final_up8_0_split_2
I0630 19:26:28.803068  5429 net.cpp:148] Setting up out_deconv_final_up8_out_deconv_final_up8_0_split
I0630 19:26:28.803072  5429 net.cpp:155] Top shape: 4 20 640 640 (32768000)
I0630 19:26:28.803074  5429 net.cpp:155] Top shape: 4 20 640 640 (32768000)
I0630 19:26:28.803077  5429 net.cpp:155] Top shape: 4 20 640 640 (32768000)
I0630 19:26:28.803078  5429 net.cpp:163] Memory required for data: 1475379200
I0630 19:26:28.803081  5429 layer_factory.hpp:77] Creating layer loss
I0630 19:26:28.803086  5429 net.cpp:98] Creating Layer loss
I0630 19:26:28.803087  5429 net.cpp:439] loss <- out_deconv_final_up8_out_deconv_final_up8_0_split_0
I0630 19:26:28.803089  5429 net.cpp:439] loss <- label_data_1_split_0
…
