…
I0711 23:46:56.812490 18382 caffe.cpp:273] Use GPU with device ID 0
I0711 23:46:56.813412 18382 caffe.cpp:277] GPU device name: GeForce GTX 1080
I0711 23:46:57.762310 18382 net.cpp:56] Initializing net from parameters: 
name: "jsegnet21v2_test"
state {
  phase: TEST
}
layer {
  name: "data"
  type: "ImageLabelData"
  top: "data"
  top: "label"
  transform_param {
    mirror: false
    crop_size: 640
    mean_value: 0
  }
  image_label_data_param {
    image_list_path: "data/val-image-lmdb"
    label_list_path: "data/val-label-lmdb"
    batch_size: 4
    threads: 4
    backend: LMDB
  }
}
layer {
  name: "data/bias"
  type: "Bias"
  bottom: "data"
  top: "data/bias"
  param {
    lr_mult: 0
    decay_mult: 0
  }
  bias_param {
    filler {
      type: "constant"
      value: -128
    }
  }
}
layer {
  name: "conv1a"
  type: "Convolution"
  bottom: "data/bias"
  top: "conv1a"
  param {
    lr_mult: 1
    decay_mult: 1
  }
  param {
    lr_mult: 2
    decay_mult: 0
  }
  convolution_param {
    num_output: 32
    bias_term: true
    pad: 2
    kernel_size: 5
    group: 1
    stride: 2
    weight_filler {
      type: "msra"
    }
    bias_filler {
      type: "constant"
      value: 0
    }
    dilation: 1
  }
}
layer {
  name: "conv1a/bn"
  type: "BatchNorm"
  bottom: "conv1a"
  top: "conv1a/bn"
  param {
    lr_mult: 1
    decay_mult: 1
  }
  param {
    lr_mult: 1
    decay_mult: 1
  }
  param {
    lr_mult: 0
    decay_mult: 0
  }
  param {
    lr_mult: 0
    decay_mult: 0
  }
  batch_norm_param {
    moving_average_fraction: 0.99
    eps: 0.0001
    scale_filler {
      type: "constant"
      value: 1
    }
    bias_filler {
      type: "constant"
      value: 0
    }
  }
}
layer {
  name: "conv1a/relu"
  type: "ReLU"
  bottom: "conv1a/bn"
  top: "conv1a/bn"
}
layer {
  name: "conv1b"
  type: "Convolution"
  bottom: "conv1a/bn"
  top: "conv1b"
  param {
    lr_mult: 1
    decay_mult: 1
  }
  param {
    lr_mult: 2
    decay_mult: 0
  }
  convolution_param {
    num_output: 32
    bias_term: true
    pad: 1
    kernel_size: 3
    group: 4
    stride: 1
    weight_filler {
      type: "msra"
    }
    bias_filler {
      type: "constant"
      value: 0
    }
    dilation: 1
  }
}
layer {
  name: "conv1b/bn"
  type: "BatchNorm"
  bottom: "conv1b"
  top: "conv1b/bn"
  param {
    lr_mult: 1
    decay_mult: 1
  }
  param {
    lr_mult: 1
    decay_mult: 1
  }
  param {
    lr_mult: 0
    decay_mult: 0
  }
  param {
    lr_mult: 0
    decay_mult: 0
  }
  batch_norm_param {
    moving_average_fraction: 0.99
    eps: 0.0001
    scale_filler {
      type: "constant"
      value: 1
    }
    bias_filler {
      type: "constant"
      value: 0
    }
  }
}
layer {
  name: "conv1b/relu"
  type: "ReLU"
  bottom: "conv1b/bn"
  top: "conv1b/bn"
}
layer {
  name: "pool1"
  type: "Pooling"
  bottom: "conv1b/bn"
  top: "pool1"
  pooling_param {
    pool: MAX
    kernel_size: 2
    stride: 2
  }
}
layer {
  name: "res2a_branch2a"
  type: "Convolution"
  bottom: "pool1"
  top: "res2a_branch2a"
  param {
    lr_mult: 1
    decay_mult: 1
  }
  param {
    lr_mult: 2
    decay_mult: 0
  }
  convolution_param {
    num_output: 64
    bias_term: true
    pad: 1
    kernel_size: 3
    group: 1
    stride: 1
    weight_filler {
      type: "msra"
    }
    bias_filler {
      type: "constant"
      value: 0
    }
    dilation: 1
  }
}
layer {
  name: "res2a_branch2a/bn"
  type: "BatchNorm"
  bottom: "res2a_branch2a"
  top: "res2a_branch2a/bn"
  param {
    lr_mult: 1
    decay_mult: 1
  }
  param {
    lr_mult: 1
    decay_mult: 1
  }
  param {
    lr_mult: 0
    decay_mult: 0
  }
  param {
    lr_mult: 0
    decay_mult: 0
  }
  batch_norm_param {
    moving_average_fraction: 0.99
    eps: 0.0001
    scale_filler {
      type: "constant"
      value: 1
    }
    bias_filler {
      type: "constant"
      value: 0
    }
  }
}
layer {
  name: "res2a_branch2a/relu"
  type: "ReLU"
  bottom: "res2a_branch2a/bn"
  top: "res2a_branch2a/bn"
}
layer {
  name: "res2a_branch2b"
  type: "Convolution"
  bottom: "res2a_branch2a/bn"
  top: "res2a_branch2b"
  param {
    lr_mult: 1
    decay_mult: 1
  }
  param {
    lr_mult: 2
    decay_mult: 0
  }
  convolution_param {
    num_output: 64
    bias_term: true
    pad: 1
    kernel_size: 3
    group: 4
    stride: 1
    weight_filler {
      type: "msra"
    }
    bias_filler {
      type: "constant"
      value: 0
    }
    dilation: 1
  }
}
layer {
  name: "res2a_branch2b/bn"
  type: "BatchNorm"
  bottom: "res2a_branch2b"
  top: "res2a_branch2b/bn"
  param {
    lr_mult: 1
    decay_mult: 1
  }
  param {
    lr_mult: 1
    decay_mult: 1
  }
  param {
    lr_mult: 0
    decay_mult: 0
  }
  param {
    lr_mult: 0
    decay_mult: 0
  }
  batch_norm_param {
    moving_average_fraction: 0.99
    eps: 0.0001
    scale_filler {
      type: "constant"
      value: 1
    }
    bias_filler {
      type: "constant"
      value: 0
    }
  }
}
layer {
  name: "res2a_branch2b/relu"
  type: "ReLU"
  bottom: "res2a_branch2b/bn"
  top: "res2a_branch2b/bn"
}
layer {
  name: "pool2"
  type: "Pooling"
  bottom: "res2a_branch2b/bn"
  top: "pool2"
  pooling_param {
    pool: MAX
    kernel_size: 2
    stride: 2
  }
}
layer {
  name: "res3a_branch2a"
  type: "Convolution"
  bottom: "pool2"
  top: "res3a_branch2a"
  param {
    lr_mult: 1
    decay_mult: 1
  }
  param {
    lr_mult: 2
    decay_mult: 0
  }
  convolution_param {
    num_output: 128
    bias_term: true
    pad: 1
    kernel_size: 3
    group: 1
    stride: 1
    weight_filler {
      type: "msra"
    }
    bias_filler {
      type: "constant"
      value: 0
    }
    dilation: 1
  }
}
layer {
  name: "res3a_branch2a/bn"
  type: "BatchNorm"
  bottom: "res3a_branch2a"
  top: "res3a_branch2a/bn"
  param {
    lr_mult: 1
    decay_mult: 1
  }
  param {
    lr_mult: 1
    decay_mult: 1
  }
  param {
    lr_mult: 0
    decay_mult: 0
  }
  param {
    lr_mult: 0
    decay_mult: 0
  }
  batch_norm_param {
    moving_average_fraction: 0.99
    eps: 0.0001
    scale_filler {
      type: "constant"
      value: 1
    }
    bias_filler {
      type: "constant"
      value: 0
    }
  }
}
layer {
  name: "res3a_branch2a/relu"
  type: "ReLU"
  bottom: "res3a_branch2a/bn"
  top: "res3a_branch2a/bn"
}
layer {
  name: "res3a_branch2b"
  type: "Convolution"
  bottom: "res3a_branch2a/bn"
  top: "res3a_branch2b"
  param {
    lr_mult: 1
    decay_mult: 1
  }
  param {
    lr_mult: 2
    decay_mult: 0
  }
  convolution_param {
    num_output: 128
    bias_term: true
    pad: 1
    kernel_size: 3
    group: 4
    stride: 1
    weight_filler {
      type: "msra"
    }
    bias_filler {
      type: "constant"
      value: 0
    }
    dilation: 1
  }
}
layer {
  name: "res3a_branch2b/bn"
  type: "BatchNorm"
  bottom: "res3a_branch2b"
  top: "res3a_branch2b/bn"
  param {
    lr_mult: 1
    decay_mult: 1
  }
  param {
    lr_mult: 1
    decay_mult: 1
  }
  param {
    lr_mult: 0
    decay_mult: 0
  }
  param {
    lr_mult: 0
    decay_mult: 0
  }
  batch_norm_param {
    moving_average_fraction: 0.99
    eps: 0.0001
    scale_filler {
      type: "constant"
      value: 1
    }
    bias_filler {
      type: "constant"
      value: 0
    }
  }
}
layer {
  name: "res3a_branch2b/relu"
  type: "ReLU"
  bottom: "res3a_branch2b/bn"
  top: "res3a_branch2b/bn"
}
layer {
  name: "pool3"
  type: "Pooling"
  bottom: "res3a_branch2b/bn"
  top: "pool3"
  pooling_param {
    pool: MAX
    kernel_size: 2
    stride: 2
  }
}
layer {
  name: "res4a_branch2a"
  type: "Convolution"
  bottom: "pool3"
  top: "res4a_branch2a"
  param {
    lr_mult: 1
    decay_mult: 1
  }
  param {
    lr_mult: 2
    decay_mult: 0
  }
  convolution_param {
    num_output: 256
    bias_term: true
    pad: 1
    kernel_size: 3
    group: 1
    stride: 1
    weight_filler {
      type: "msra"
    }
    bias_filler {
      type: "constant"
      value: 0
    }
    dilation: 1
  }
}
layer {
  name: "res4a_branch2a/bn"
  type: "BatchNorm"
  bottom: "res4a_branch2a"
  top: "res4a_branch2a/bn"
  param {
    lr_mult: 1
    decay_mult: 1
  }
  param {
    lr_mult: 1
    decay_mult: 1
  }
  param {
    lr_mult: 0
    decay_mult: 0
  }
  param {
    lr_mult: 0
    decay_mult: 0
  }
  batch_norm_param {
    moving_average_fraction: 0.99
    eps: 0.0001
    scale_filler {
      type: "constant"
      value: 1
    }
    bias_filler {
      type: "constant"
      value: 0
    }
  }
}
layer {
  name: "res4a_branch2a/relu"
  type: "ReLU"
  bottom: "res4a_branch2a/bn"
  top: "res4a_branch2a/bn"
}
layer {
  name: "res4a_branch2b"
  type: "Convolution"
  bottom: "res4a_branch2a/bn"
  top: "res4a_branch2b"
  param {
    lr_mult: 1
    decay_mult: 1
  }
  param {
    lr_mult: 2
    decay_mult: 0
  }
  convolution_param {
    num_output: 256
    bias_term: true
    pad: 1
    kernel_size: 3
    group: 4
    stride: 1
    weight_filler {
      type: "msra"
    }
    bias_filler {
      type: "constant"
      value: 0
    }
    dilation: 1
  }
}
layer {
  name: "res4a_branch2b/bn"
  type: "BatchNorm"
  bottom: "res4a_branch2b"
  top: "res4a_branch2b/bn"
  param {
    lr_mult: 1
    decay_mult: 1
  }
  param {
    lr_mult: 1
    decay_mult: 1
  }
  param {
    lr_mult: 0
    decay_mult: 0
  }
  param {
    lr_mult: 0
    decay_mult: 0
  }
  batch_norm_param {
    moving_average_fraction: 0.99
    eps: 0.0001
    scale_filler {
      type: "constant"
      value: 1
    }
    bias_filler {
      type: "constant"
      value: 0
    }
  }
}
layer {
  name: "res4a_branch2b/relu"
  type: "ReLU"
  bottom: "res4a_branch2b/bn"
  top: "res4a_branch2b/bn"
}
layer {
  name: "pool4"
  type: "Pooling"
  bottom: "res4a_branch2b/bn"
  top: "pool4"
  pooling_param {
    pool: MAX
    kernel_size: 1
    stride: 1
  }
}
layer {
  name: "res5a_branch2a"
  type: "Convolution"
  bottom: "pool4"
  top: "res5a_branch2a"
  param {
    lr_mult: 1
    decay_mult: 1
  }
  param {
    lr_mult: 2
    decay_mult: 0
  }
  convolution_param {
    num_output: 512
    bias_term: true
    pad: 2
    kernel_size: 3
    group: 1
    stride: 1
    weight_filler {
      type: "msra"
    }
    bias_filler {
      type: "constant"
      value: 0
    }
    dilation: 2
  }
}
layer {
  name: "res5a_branch2a/bn"
  type: "BatchNorm"
  bottom: "res5a_branch2a"
  top: "res5a_branch2a/bn"
  param {
    lr_mult: 1
    decay_mult: 1
  }
  param {
    lr_mult: 1
    decay_mult: 1
  }
  param {
    lr_mult: 0
    decay_mult: 0
  }
  param {
    lr_mult: 0
    decay_mult: 0
  }
  batch_norm_param {
    moving_average_fraction: 0.99
    eps: 0.0001
    scale_filler {
      type: "constant"
      value: 1
    }
    bias_filler {
      type: "constant"
      value: 0
    }
  }
}
layer {
  name: "res5a_branch2a/relu"
  type: "ReLU"
  bottom: "res5a_branch2a/bn"
  top: "res5a_branch2a/bn"
}
layer {
  name: "res5a_branch2b"
  type: "Convolution"
  bottom: "res5a_branch2a/bn"
  top: "res5a_branch2b"
  param {
    lr_mult: 1
    decay_mult: 1
  }
  param {
    lr_mult: 2
    decay_mult: 0
  }
  convolution_param {
    num_output: 512
    bias_term: true
    pad: 2
    kernel_size: 3
    group: 4
    stride: 1
    weight_filler {
      type: "msra"
    }
    bias_filler {
      type: "constant"
      value: 0
    }
    dilation: 2
  }
}
layer {
  name: "res5a_branch2b/bn"
  type: "BatchNorm"
  bottom: "res5a_branch2b"
  top: "res5a_branch2b/bn"
  param {
    lr_mult: 1
    decay_mult: 1
  }
  param {
    lr_mult: 1
    decay_mult: 1
  }
  param {
    lr_mult: 0
    decay_mult: 0
  }
  param {
    lr_mult: 0
    decay_mult: 0
  }
  batch_norm_param {
    moving_average_fraction: 0.99
    eps: 0.0001
    scale_filler {
      type: "constant"
      value: 1
    }
    bias_filler {
      type: "constant"
      value: 0
    }
  }
}
layer {
  name: "res5a_branch2b/relu"
  type: "ReLU"
  bottom: "res5a_branch2b/bn"
  top: "res5a_branch2b/bn"
}
layer {
  name: "out5a"
  type: "Convolution"
  bottom: "res5a_branch2b/bn"
  top: "out5a"
  param {
    lr_mult: 1
    decay_mult: 1
  }
  param {
    lr_mult: 2
    decay_mult: 0
  }
  convolution_param {
    num_output: 64
    bias_term: true
    pad: 4
    kernel_size: 3
    group: 2
    stride: 1
    weight_filler {
      type: "msra"
    }
    bias_filler {
      type: "constant"
      value: 0
    }
    dilation: 4
  }
}
layer {
  name: "out5a/bn"
  type: "BatchNorm"
  bottom: "out5a"
  top: "out5a/bn"
  param {
    lr_mult: 1
    decay_mult: 1
  }
  param {
    lr_mult: 1
    decay_mult: 1
  }
  param {
    lr_mult: 0
    decay_mult: 0
  }
  param {
    lr_mult: 0
    decay_mult: 0
  }
  batch_norm_param {
    moving_average_fraction: 0.99
    eps: 0.0001
    scale_filler {
      type: "constant"
      value: 1
    }
    bias_filler {
      type: "constant"
      value: 0
    }
  }
}
layer {
  name: "out5a/relu"
  type: "ReLU"
  bottom: "out5a/bn"
  top: "out5a/bn"
}
layer {
  name: "out5a_up2"
  type: "Deconvolution"
  bottom: "out5a/bn"
  top: "out5a_up2"
  param {
    lr_mult: 0
    decay_mult: 0
  }
  convolution_param {
    num_output: 64
    bias_term: false
    pad: 1
    kernel_size: 4
    group: 64
    stride: 2
    weight_filler {
      type: "bilinear"
    }
  }
}
layer {
  name: "out3a"
  type: "Convolution"
  bottom: "res3a_branch2b/bn"
  top: "out3a"
  param {
    lr_mult: 1
    decay_mult: 1
  }
  param {
    lr_mult: 2
    decay_mult: 0
  }
  convolution_param {
    num_output: 64
    bias_term: true
    pad: 1
    kernel_size: 3
    group: 2
    stride: 1
    weight_filler {
      type: "msra"
    }
    bias_filler {
      type: "constant"
      value: 0
    }
    dilation: 1
  }
}
layer {
  name: "out3a/bn"
  type: "BatchNorm"
  bottom: "out3a"
  top: "out3a/bn"
  param {
    lr_mult: 1
    decay_mult: 1
  }
  param {
    lr_mult: 1
    decay_mult: 1
  }
  param {
    lr_mult: 0
    decay_mult: 0
  }
  param {
    lr_mult: 0
    decay_mult: 0
  }
  batch_norm_param {
    moving_average_fraction: 0.99
    eps: 0.0001
    scale_filler {
      type: "constant"
      value: 1
    }
    bias_filler {
      type: "constant"
      value: 0
    }
  }
}
layer {
  name: "out3a/relu"
  type: "ReLU"
  bottom: "out3a/bn"
  top: "out3a/bn"
}
layer {
  name: "out3_out5_combined"
  type: "Eltwise"
  bottom: "out5a_up2"
  bottom: "out3a/bn"
  top: "out3_out5_combined"
}
layer {
  name: "ctx_conv1"
  type: "Convolution"
  bottom: "out3_out5_combined"
  top: "ctx_conv1"
  param {
    lr_mult: 1
    decay_mult: 1
  }
  param {
    lr_mult: 2
    decay_mult: 0
  }
  convolution_param {
    num_output: 64
    bias_term: true
    pad: 1
    kernel_size: 3
    group: 1
    stride: 1
    weight_filler {
      type: "msra"
    }
    bias_filler {
      type: "constant"
      value: 0
    }
    dilation: 1
  }
}
layer {
  name: "ctx_conv1/bn"
  type: "BatchNorm"
  bottom: "ctx_conv1"
  top: "ctx_conv1/bn"
  param {
    lr_mult: 1
    decay_mult: 1
  }
  param {
    lr_mult: 1
    decay_mult: 1
  }
  param {
    lr_mult: 0
    decay_mult: 0
  }
  param {
    lr_mult: 0
    decay_mult: 0
  }
  batch_norm_param {
    moving_average_fraction: 0.99
    eps: 0.0001
    scale_filler {
      type: "constant"
      value: 1
    }
    bias_filler {
      type: "constant"
      value: 0
    }
  }
}
layer {
  name: "ctx_conv1/relu"
  type: "ReLU"
  bottom: "ctx_conv1/bn"
  top: "ctx_conv1/bn"
}
layer {
  name: "ctx_conv2"
  type: "Convolution"
  bottom: "ctx_conv1/bn"
  top: "ctx_conv2"
  param {
    lr_mult: 1
    decay_mult: 1
  }
  param {
    lr_mult: 2
    decay_mult: 0
  }
  convolution_param {
    num_output: 64
    bias_term: true
    pad: 4
    kernel_size: 3
    group: 1
    stride: 1
    weight_filler {
      type: "msra"
    }
    bias_filler {
      type: "constant"
      value: 0
    }
    dilation: 4
  }
}
layer {
  name: "ctx_conv2/bn"
  type: "BatchNorm"
  bottom: "ctx_conv2"
  top: "ctx_conv2/bn"
  param {
    lr_mult: 1
    decay_mult: 1
  }
  param {
    lr_mult: 1
    decay_mult: 1
  }
  param {
    lr_mult: 0
    decay_mult: 0
  }
  param {
    lr_mult: 0
    decay_mult: 0
  }
  batch_norm_param {
    moving_average_fraction: 0.99
    eps: 0.0001
    scale_filler {
      type: "constant"
      value: 1
    }
    bias_filler {
      type: "constant"
      value: 0
    }
  }
}
layer {
  name: "ctx_conv2/relu"
  type: "ReLU"
  bottom: "ctx_conv2/bn"
  top: "ctx_conv2/bn"
}
layer {
  name: "ctx_conv3"
  type: "Convolution"
  bottom: "ctx_conv2/bn"
  top: "ctx_conv3"
  param {
    lr_mult: 1
    decay_mult: 1
  }
  param {
    lr_mult: 2
    decay_mult: 0
  }
  convolution_param {
    num_output: 64
    bias_term: true
    pad: 4
    kernel_size: 3
    group: 1
    stride: 1
    weight_filler {
      type: "msra"
    }
    bias_filler {
      type: "constant"
      value: 0
    }
    dilation: 4
  }
}
layer {
  name: "ctx_conv3/bn"
  type: "BatchNorm"
  bottom: "ctx_conv3"
  top: "ctx_conv3/bn"
  param {
    lr_mult: 1
    decay_mult: 1
  }
  param {
    lr_mult: 1
    decay_mult: 1
  }
  param {
    lr_mult: 0
    decay_mult: 0
  }
  param {
    lr_mult: 0
    decay_mult: 0
  }
  batch_norm_param {
    moving_average_fraction: 0.99
    eps: 0.0001
    scale_filler {
      type: "constant"
      value: 1
    }
    bias_filler {
      type: "constant"
      value: 0
    }
  }
}
layer {
  name: "ctx_conv3/relu"
  type: "ReLU"
  bottom: "ctx_conv3/bn"
  top: "ctx_conv3/bn"
}
layer {
  name: "ctx_conv4"
  type: "Convolution"
  bottom: "ctx_conv3/bn"
  top: "ctx_conv4"
  param {
    lr_mult: 1
    decay_mult: 1
  }
  param {
    lr_mult: 2
    decay_mult: 0
  }
  convolution_param {
    num_output: 64
    bias_term: true
    pad: 4
    kernel_size: 3
    group: 1
    stride: 1
    weight_filler {
      type: "msra"
    }
    bias_filler {
      type: "constant"
      value: 0
    }
    dilation: 4
  }
}
layer {
  name: "ctx_conv4/bn"
  type: "BatchNorm"
  bottom: "ctx_conv4"
  top: "ctx_conv4/bn"
  param {
    lr_mult: 1
    decay_mult: 1
  }
  param {
    lr_mult: 1
    decay_mult: 1
  }
  param {
    lr_mult: 0
    decay_mult: 0
  }
  param {
    lr_mult: 0
    decay_mult: 0
  }
  batch_norm_param {
    moving_average_fraction: 0.99
    eps: 0.0001
    scale_filler {
      type: "constant"
      value: 1
    }
    bias_filler {
      type: "constant"
      value: 0
    }
  }
}
layer {
  name: "ctx_conv4/relu"
  type: "ReLU"
  bottom: "ctx_conv4/bn"
  top: "ctx_conv4/bn"
}
layer {
  name: "ctx_final"
  type: "Convolution"
  bottom: "ctx_conv4/bn"
  top: "ctx_final"
  param {
    lr_mult: 1
    decay_mult: 1
  }
  param {
    lr_mult: 2
    decay_mult: 0
  }
  convolution_param {
    num_output: 8
    bias_term: true
    pad: 1
    kernel_size: 3
    kernel_size: 3
    group: 1
    stride: 1
    weight_filler {
      type: "msra"
    }
    bias_filler {
      type: "constant"
      value: 0
    }
    dilation: 1
  }
}
layer {
  name: "ctx_final/relu"
  type: "ReLU"
  bottom: "ctx_final"
  top: "ctx_final"
}
layer {
  name: "out_deconv_final_up2"
  type: "Deconvolution"
  bottom: "ctx_final"
  top: "out_deconv_final_up2"
  param {
    lr_mult: 0
    decay_mult: 0
  }
  convolution_param {
    num_output: 8
    bias_term: false
    pad: 1
    kernel_size: 4
    group: 8
    stride: 2
    weight_filler {
      type: "bilinear"
    }
  }
}
layer {
  name: "out_deconv_final_up4"
  type: "Deconvolution"
  bottom: "out_deconv_final_up2"
  top: "out_deconv_final_up4"
  param {
    lr_mult: 0
    decay_mult: 0
  }
  convolution_param {
    num_output: 8
    bias_term: false
    pad: 1
    kernel_size: 4
    group: 8
    stride: 2
    weight_filler {
      type: "bilinear"
    }
  }
}
layer {
  name: "out_deconv_final_up8"
  type: "Deconvolution"
  bottom: "out_deconv_final_up4"
  top: "out_deconv_final_up8"
  param {
    lr_mult: 0
    decay_mult: 0
  }
  convolution_param {
    num_output: 8
    bias_term: false
    pad: 1
    kernel_size: 4
    group: 8
    stride: 2
    weight_filler {
      type: "bilinear"
    }
  }
}
layer {
  name: "loss"
  type: "SoftmaxWithLoss"
  bottom: "out_deconv_final_up8"
  bottom: "label"
  top: "loss"
  propagate_down: true
  propagate_down: false
  loss_param {
    ignore_label: 255
    normalization: VALID
  }
}
layer {
  name: "accuracy/top1"
  type: "Accuracy"
  bottom: "out_deconv_final_up8"
  bottom: "label"
  top: "accuracy/top1"
  include {
    phase: TEST
  }
  accuracy_param {
    ignore_label: 255
  }
}
layer {
  name: "accuracy/top5"
  type: "Accuracy"
  bottom: "out_deconv_final_up8"
  bottom: "label"
  top: "accuracy/top5"
  include {
    phase: TEST
  }
  accuracy_param {
    top_k: 5
    ignore_label: 255
  }
}
I0711 23:46:57.770180 18382 layer_factory.hpp:77] Creating layer data
I0711 23:46:57.770344 18382 net.cpp:98] Creating Layer data
I0711 23:46:57.770372 18382 net.cpp:413] data -> data
I0711 23:46:57.770453 18382 net.cpp:413] data -> label
I0711 23:46:57.800494 18439 db_lmdb.cpp:35] Opened lmdb data/val-image-lmdb
I0711 23:46:57.804539 18382 data_layer.cpp:78] ReshapePrefetch 4, 3, 640, 640
I0711 23:46:57.804584 18382 data_layer.cpp:83] output data size: 4,3,640,640
I0711 23:46:57.813127 18444 db_lmdb.cpp:35] Opened lmdb data/val-label-lmdb
I0711 23:46:57.829485 18382 data_layer.cpp:78] ReshapePrefetch 4, 1, 640, 640
I0711 23:46:57.829548 18382 data_layer.cpp:83] output data size: 4,1,640,640
I0711 23:46:57.843083 18382 net.cpp:148] Setting up data
I0711 23:46:57.843116 18382 net.cpp:155] Top shape: 4 3 640 640 (4915200)
I0711 23:46:57.843122 18382 net.cpp:155] Top shape: 4 1 640 640 (1638400)
I0711 23:46:57.843124 18382 net.cpp:163] Memory required for data: 26214400
I0711 23:46:57.843137 18382 layer_factory.hpp:77] Creating layer label_data_1_split
I0711 23:46:57.843152 18382 net.cpp:98] Creating Layer label_data_1_split
I0711 23:46:57.843158 18382 net.cpp:439] label_data_1_split <- label
I0711 23:46:57.843178 18382 net.cpp:413] label_data_1_split -> label_data_1_split_0
I0711 23:46:57.843189 18382 net.cpp:413] label_data_1_split -> label_data_1_split_1
I0711 23:46:57.843194 18382 net.cpp:413] label_data_1_split -> label_data_1_split_2
I0711 23:46:57.843272 18382 net.cpp:148] Setting up label_data_1_split
I0711 23:46:57.843303 18382 net.cpp:155] Top shape: 4 1 640 640 (1638400)
I0711 23:46:57.843317 18382 net.cpp:155] Top shape: 4 1 640 640 (1638400)
I0711 23:46:57.843329 18382 net.cpp:155] Top shape: 4 1 640 640 (1638400)
I0711 23:46:57.843339 18382 net.cpp:163] Memory required for data: 45875200
I0711 23:46:57.843351 18382 layer_factory.hpp:77] Creating layer data/bias
I0711 23:46:57.843376 18382 net.cpp:98] Creating Layer data/bias
I0711 23:46:57.843389 18382 net.cpp:439] data/bias <- data
I0711 23:46:57.843401 18382 net.cpp:413] data/bias -> data/bias
I0711 23:46:57.844588 18382 net.cpp:148] Setting up data/bias
I0711 23:46:57.844640 18382 net.cpp:155] Top shape: 4 3 640 640 (4915200)
I0711 23:46:57.844655 18382 net.cpp:163] Memory required for data: 65536000
I0711 23:46:57.844683 18382 layer_factory.hpp:77] Creating layer conv1a
I0711 23:46:57.844712 18382 net.cpp:98] Creating Layer conv1a
I0711 23:46:57.844727 18382 net.cpp:439] conv1a <- data/bias
I0711 23:46:57.844741 18382 net.cpp:413] conv1a -> conv1a
I0711 23:46:57.847559 18382 net.cpp:148] Setting up conv1a
I0711 23:46:57.847666 18382 net.cpp:155] Top shape: 4 32 320 320 (13107200)
I0711 23:46:57.847676 18382 net.cpp:163] Memory required for data: 117964800
I0711 23:46:57.847704 18382 layer_factory.hpp:77] Creating layer conv1a/bn
I0711 23:46:57.847795 18382 net.cpp:98] Creating Layer conv1a/bn
I0711 23:46:57.847815 18382 net.cpp:439] conv1a/bn <- conv1a
I0711 23:46:57.847836 18382 net.cpp:413] conv1a/bn -> conv1a/bn
I0711 23:46:57.851512 18382 net.cpp:148] Setting up conv1a/bn
I0711 23:46:57.851578 18382 net.cpp:155] Top shape: 4 32 320 320 (13107200)
I0711 23:46:57.851589 18382 net.cpp:163] Memory required for data: 170393600
I0711 23:46:57.851614 18382 layer_factory.hpp:77] Creating layer conv1a/relu
I0711 23:46:57.851635 18382 net.cpp:98] Creating Layer conv1a/relu
I0711 23:46:57.851658 18382 net.cpp:439] conv1a/relu <- conv1a/bn
I0711 23:46:57.851675 18382 net.cpp:400] conv1a/relu -> conv1a/bn (in-place)
I0711 23:46:57.851716 18382 net.cpp:148] Setting up conv1a/relu
I0711 23:46:57.851730 18382 net.cpp:155] Top shape: 4 32 320 320 (13107200)
I0711 23:46:57.851742 18382 net.cpp:163] Memory required for data: 222822400
I0711 23:46:57.851752 18382 layer_factory.hpp:77] Creating layer conv1b
I0711 23:46:57.851781 18382 net.cpp:98] Creating Layer conv1b
I0711 23:46:57.851805 18382 net.cpp:439] conv1b <- conv1a/bn
I0711 23:46:57.851840 18382 net.cpp:413] conv1b -> conv1b
I0711 23:46:57.852273 18382 net.cpp:148] Setting up conv1b
I0711 23:46:57.852283 18382 net.cpp:155] Top shape: 4 32 320 320 (13107200)
I0711 23:46:57.852286 18382 net.cpp:163] Memory required for data: 275251200
I0711 23:46:57.852293 18382 layer_factory.hpp:77] Creating layer conv1b/bn
I0711 23:46:57.852301 18382 net.cpp:98] Creating Layer conv1b/bn
I0711 23:46:57.852305 18382 net.cpp:439] conv1b/bn <- conv1b
I0711 23:46:57.852311 18382 net.cpp:413] conv1b/bn -> conv1b/bn
I0711 23:46:57.854918 18382 net.cpp:148] Setting up conv1b/bn
I0711 23:46:57.854938 18382 net.cpp:155] Top shape: 4 32 320 320 (13107200)
I0711 23:46:57.854945 18382 net.cpp:163] Memory required for data: 327680000
I0711 23:46:57.855026 18382 layer_factory.hpp:77] Creating layer conv1b/relu
I0711 23:46:57.855060 18382 net.cpp:98] Creating Layer conv1b/relu
I0711 23:46:57.855088 18382 net.cpp:439] conv1b/relu <- conv1b/bn
I0711 23:46:57.855119 18382 net.cpp:400] conv1b/relu -> conv1b/bn (in-place)
I0711 23:46:57.855151 18382 net.cpp:148] Setting up conv1b/relu
I0711 23:46:57.855181 18382 net.cpp:155] Top shape: 4 32 320 320 (13107200)
I0711 23:46:57.855207 18382 net.cpp:163] Memory required for data: 380108800
I0711 23:46:57.855234 18382 layer_factory.hpp:77] Creating layer pool1
I0711 23:46:57.855284 18382 net.cpp:98] Creating Layer pool1
I0711 23:46:57.855315 18382 net.cpp:439] pool1 <- conv1b/bn
I0711 23:46:57.855348 18382 net.cpp:413] pool1 -> pool1
I0711 23:46:57.855834 18382 net.cpp:148] Setting up pool1
I0711 23:46:57.855865 18382 net.cpp:155] Top shape: 4 32 160 160 (3276800)
I0711 23:46:57.855888 18382 net.cpp:163] Memory required for data: 393216000
I0711 23:46:57.855916 18382 layer_factory.hpp:77] Creating layer res2a_branch2a
I0711 23:46:57.855962 18382 net.cpp:98] Creating Layer res2a_branch2a
I0711 23:46:57.855988 18382 net.cpp:439] res2a_branch2a <- pool1
I0711 23:46:57.856022 18382 net.cpp:413] res2a_branch2a -> res2a_branch2a
I0711 23:46:57.859598 18382 net.cpp:148] Setting up res2a_branch2a
I0711 23:46:57.859673 18382 net.cpp:155] Top shape: 4 64 160 160 (6553600)
I0711 23:46:57.859697 18382 net.cpp:163] Memory required for data: 419430400
I0711 23:46:57.859740 18382 layer_factory.hpp:77] Creating layer res2a_branch2a/bn
I0711 23:46:57.859783 18382 net.cpp:98] Creating Layer res2a_branch2a/bn
I0711 23:46:57.859810 18382 net.cpp:439] res2a_branch2a/bn <- res2a_branch2a
I0711 23:46:57.859830 18382 net.cpp:413] res2a_branch2a/bn -> res2a_branch2a/bn
I0711 23:46:57.860581 18382 net.cpp:148] Setting up res2a_branch2a/bn
I0711 23:46:57.860610 18382 net.cpp:155] Top shape: 4 64 160 160 (6553600)
I0711 23:46:57.860622 18382 net.cpp:163] Memory required for data: 445644800
I0711 23:46:57.860642 18382 layer_factory.hpp:77] Creating layer res2a_branch2a/relu
I0711 23:46:57.860656 18382 net.cpp:98] Creating Layer res2a_branch2a/relu
I0711 23:46:57.860668 18382 net.cpp:439] res2a_branch2a/relu <- res2a_branch2a/bn
I0711 23:46:57.860682 18382 net.cpp:400] res2a_branch2a/relu -> res2a_branch2a/bn (in-place)
I0711 23:46:57.860702 18382 net.cpp:148] Setting up res2a_branch2a/relu
I0711 23:46:57.860716 18382 net.cpp:155] Top shape: 4 64 160 160 (6553600)
I0711 23:46:57.860729 18382 net.cpp:163] Memory required for data: 471859200
I0711 23:46:57.860743 18382 layer_factory.hpp:77] Creating layer res2a_branch2b
I0711 23:46:57.860770 18382 net.cpp:98] Creating Layer res2a_branch2b
I0711 23:46:57.860785 18382 net.cpp:439] res2a_branch2b <- res2a_branch2a/bn
I0711 23:46:57.860803 18382 net.cpp:413] res2a_branch2b -> res2a_branch2b
I0711 23:46:57.862709 18382 net.cpp:148] Setting up res2a_branch2b
I0711 23:46:57.862778 18382 net.cpp:155] Top shape: 4 64 160 160 (6553600)
I0711 23:46:57.862794 18382 net.cpp:163] Memory required for data: 498073600
I0711 23:46:57.862812 18382 layer_factory.hpp:77] Creating layer res2a_branch2b/bn
I0711 23:46:57.862835 18382 net.cpp:98] Creating Layer res2a_branch2b/bn
I0711 23:46:57.862874 18382 net.cpp:439] res2a_branch2b/bn <- res2a_branch2b
I0711 23:46:57.862916 18382 net.cpp:413] res2a_branch2b/bn -> res2a_branch2b/bn
I0711 23:46:57.863487 18382 net.cpp:148] Setting up res2a_branch2b/bn
I0711 23:46:57.863503 18382 net.cpp:155] Top shape: 4 64 160 160 (6553600)
I0711 23:46:57.863512 18382 net.cpp:163] Memory required for data: 524288000
I0711 23:46:57.863526 18382 layer_factory.hpp:77] Creating layer res2a_branch2b/relu
I0711 23:46:57.863538 18382 net.cpp:98] Creating Layer res2a_branch2b/relu
I0711 23:46:57.863545 18382 net.cpp:439] res2a_branch2b/relu <- res2a_branch2b/bn
I0711 23:46:57.863554 18382 net.cpp:400] res2a_branch2b/relu -> res2a_branch2b/bn (in-place)
I0711 23:46:57.863565 18382 net.cpp:148] Setting up res2a_branch2b/relu
I0711 23:46:57.863574 18382 net.cpp:155] Top shape: 4 64 160 160 (6553600)
I0711 23:46:57.863582 18382 net.cpp:163] Memory required for data: 550502400
I0711 23:46:57.863590 18382 layer_factory.hpp:77] Creating layer pool2
I0711 23:46:57.863601 18382 net.cpp:98] Creating Layer pool2
I0711 23:46:57.863610 18382 net.cpp:439] pool2 <- res2a_branch2b/bn
I0711 23:46:57.863618 18382 net.cpp:413] pool2 -> pool2
I0711 23:46:57.863656 18382 net.cpp:148] Setting up pool2
I0711 23:46:57.863667 18382 net.cpp:155] Top shape: 4 64 80 80 (1638400)
I0711 23:46:57.863675 18382 net.cpp:163] Memory required for data: 557056000
I0711 23:46:57.863683 18382 layer_factory.hpp:77] Creating layer res3a_branch2a
I0711 23:46:57.863694 18382 net.cpp:98] Creating Layer res3a_branch2a
I0711 23:46:57.863703 18382 net.cpp:439] res3a_branch2a <- pool2
I0711 23:46:57.863714 18382 net.cpp:413] res3a_branch2a -> res3a_branch2a
I0711 23:46:57.865999 18382 net.cpp:148] Setting up res3a_branch2a
I0711 23:46:57.866024 18382 net.cpp:155] Top shape: 4 128 80 80 (3276800)
I0711 23:46:57.866051 18382 net.cpp:163] Memory required for data: 570163200
I0711 23:46:57.866063 18382 layer_factory.hpp:77] Creating layer res3a_branch2a/bn
I0711 23:46:57.866077 18382 net.cpp:98] Creating Layer res3a_branch2a/bn
I0711 23:46:57.866086 18382 net.cpp:439] res3a_branch2a/bn <- res3a_branch2a
I0711 23:46:57.866096 18382 net.cpp:413] res3a_branch2a/bn -> res3a_branch2a/bn
I0711 23:46:57.866467 18382 net.cpp:148] Setting up res3a_branch2a/bn
I0711 23:46:57.866483 18382 net.cpp:155] Top shape: 4 128 80 80 (3276800)
I0711 23:46:57.866490 18382 net.cpp:163] Memory required for data: 583270400
I0711 23:46:57.866506 18382 layer_factory.hpp:77] Creating layer res3a_branch2a/relu
I0711 23:46:57.866518 18382 net.cpp:98] Creating Layer res3a_branch2a/relu
I0711 23:46:57.866526 18382 net.cpp:439] res3a_branch2a/relu <- res3a_branch2a/bn
I0711 23:46:57.866535 18382 net.cpp:400] res3a_branch2a/relu -> res3a_branch2a/bn (in-place)
I0711 23:46:57.866545 18382 net.cpp:148] Setting up res3a_branch2a/relu
I0711 23:46:57.866554 18382 net.cpp:155] Top shape: 4 128 80 80 (3276800)
I0711 23:46:57.866562 18382 net.cpp:163] Memory required for data: 596377600
I0711 23:46:57.866570 18382 layer_factory.hpp:77] Creating layer res3a_branch2b
I0711 23:46:57.866583 18382 net.cpp:98] Creating Layer res3a_branch2b
I0711 23:46:57.866591 18382 net.cpp:439] res3a_branch2b <- res3a_branch2a/bn
I0711 23:46:57.866600 18382 net.cpp:413] res3a_branch2b -> res3a_branch2b
I0711 23:46:57.868412 18382 net.cpp:148] Setting up res3a_branch2b
I0711 23:46:57.868451 18382 net.cpp:155] Top shape: 4 128 80 80 (3276800)
I0711 23:46:57.868465 18382 net.cpp:163] Memory required for data: 609484800
I0711 23:46:57.868481 18382 layer_factory.hpp:77] Creating layer res3a_branch2b/bn
I0711 23:46:57.868502 18382 net.cpp:98] Creating Layer res3a_branch2b/bn
I0711 23:46:57.868516 18382 net.cpp:439] res3a_branch2b/bn <- res3a_branch2b
I0711 23:46:57.868546 18382 net.cpp:413] res3a_branch2b/bn -> res3a_branch2b/bn
I0711 23:46:57.869007 18382 net.cpp:148] Setting up res3a_branch2b/bn
I0711 23:46:57.869030 18382 net.cpp:155] Top shape: 4 128 80 80 (3276800)
I0711 23:46:57.869043 18382 net.cpp:163] Memory required for data: 622592000
I0711 23:46:57.869062 18382 layer_factory.hpp:77] Creating layer res3a_branch2b/relu
I0711 23:46:57.869094 18382 net.cpp:98] Creating Layer res3a_branch2b/relu
I0711 23:46:57.869132 18382 net.cpp:439] res3a_branch2b/relu <- res3a_branch2b/bn
I0711 23:46:57.869145 18382 net.cpp:400] res3a_branch2b/relu -> res3a_branch2b/bn (in-place)
I0711 23:46:57.869160 18382 net.cpp:148] Setting up res3a_branch2b/relu
I0711 23:46:57.869174 18382 net.cpp:155] Top shape: 4 128 80 80 (3276800)
I0711 23:46:57.869184 18382 net.cpp:163] Memory required for data: 635699200
I0711 23:46:57.869201 18382 layer_factory.hpp:77] Creating layer res3a_branch2b/bn_res3a_branch2b/relu_0_split
I0711 23:46:57.869217 18382 net.cpp:98] Creating Layer res3a_branch2b/bn_res3a_branch2b/relu_0_split
I0711 23:46:57.869230 18382 net.cpp:439] res3a_branch2b/bn_res3a_branch2b/relu_0_split <- res3a_branch2b/bn
I0711 23:46:57.869243 18382 net.cpp:413] res3a_branch2b/bn_res3a_branch2b/relu_0_split -> res3a_branch2b/bn_res3a_branch2b/relu_0_split_0
I0711 23:46:57.869256 18382 net.cpp:413] res3a_branch2b/bn_res3a_branch2b/relu_0_split -> res3a_branch2b/bn_res3a_branch2b/relu_0_split_1
I0711 23:46:57.869304 18382 net.cpp:148] Setting up res3a_branch2b/bn_res3a_branch2b/relu_0_split
I0711 23:46:57.869321 18382 net.cpp:155] Top shape: 4 128 80 80 (3276800)
I0711 23:46:57.869334 18382 net.cpp:155] Top shape: 4 128 80 80 (3276800)
I0711 23:46:57.869345 18382 net.cpp:163] Memory required for data: 661913600
I0711 23:46:57.869357 18382 layer_factory.hpp:77] Creating layer pool3
I0711 23:46:57.869374 18382 net.cpp:98] Creating Layer pool3
I0711 23:46:57.869386 18382 net.cpp:439] pool3 <- res3a_branch2b/bn_res3a_branch2b/relu_0_split_0
I0711 23:46:57.869401 18382 net.cpp:413] pool3 -> pool3
I0711 23:46:57.869448 18382 net.cpp:148] Setting up pool3
I0711 23:46:57.869463 18382 net.cpp:155] Top shape: 4 128 40 40 (819200)
I0711 23:46:57.869475 18382 net.cpp:163] Memory required for data: 665190400
I0711 23:46:57.869488 18382 layer_factory.hpp:77] Creating layer res4a_branch2a
I0711 23:46:57.869506 18382 net.cpp:98] Creating Layer res4a_branch2a
I0711 23:46:57.869519 18382 net.cpp:439] res4a_branch2a <- pool3
I0711 23:46:57.869532 18382 net.cpp:413] res4a_branch2a -> res4a_branch2a
I0711 23:46:57.878399 18382 net.cpp:148] Setting up res4a_branch2a
I0711 23:46:57.878444 18382 net.cpp:155] Top shape: 4 256 40 40 (1638400)
I0711 23:46:57.878454 18382 net.cpp:163] Memory required for data: 671744000
I0711 23:46:57.878473 18382 layer_factory.hpp:77] Creating layer res4a_branch2a/bn
I0711 23:46:57.878500 18382 net.cpp:98] Creating Layer res4a_branch2a/bn
I0711 23:46:57.878535 18382 net.cpp:439] res4a_branch2a/bn <- res4a_branch2a
I0711 23:46:57.878573 18382 net.cpp:413] res4a_branch2a/bn -> res4a_branch2a/bn
I0711 23:46:57.879570 18382 net.cpp:148] Setting up res4a_branch2a/bn
I0711 23:46:57.879585 18382 net.cpp:155] Top shape: 4 256 40 40 (1638400)
I0711 23:46:57.879590 18382 net.cpp:163] Memory required for data: 678297600
I0711 23:46:57.879604 18382 layer_factory.hpp:77] Creating layer res4a_branch2a/relu
I0711 23:46:57.879617 18382 net.cpp:98] Creating Layer res4a_branch2a/relu
I0711 23:46:57.879626 18382 net.cpp:439] res4a_branch2a/relu <- res4a_branch2a/bn
I0711 23:46:57.879634 18382 net.cpp:400] res4a_branch2a/relu -> res4a_branch2a/bn (in-place)
I0711 23:46:57.879647 18382 net.cpp:148] Setting up res4a_branch2a/relu
I0711 23:46:57.879652 18382 net.cpp:155] Top shape: 4 256 40 40 (1638400)
I0711 23:46:57.879655 18382 net.cpp:163] Memory required for data: 684851200
I0711 23:46:57.879659 18382 layer_factory.hpp:77] Creating layer res4a_branch2b
I0711 23:46:57.879675 18382 net.cpp:98] Creating Layer res4a_branch2b
I0711 23:46:57.879679 18382 net.cpp:439] res4a_branch2b <- res4a_branch2a/bn
I0711 23:46:57.879686 18382 net.cpp:413] res4a_branch2b -> res4a_branch2b
I0711 23:46:57.884073 18382 net.cpp:148] Setting up res4a_branch2b
I0711 23:46:57.884141 18382 net.cpp:155] Top shape: 4 256 40 40 (1638400)
I0711 23:46:57.884152 18382 net.cpp:163] Memory required for data: 691404800
I0711 23:46:57.884181 18382 layer_factory.hpp:77] Creating layer res4a_branch2b/bn
I0711 23:46:57.884202 18382 net.cpp:98] Creating Layer res4a_branch2b/bn
I0711 23:46:57.884224 18382 net.cpp:439] res4a_branch2b/bn <- res4a_branch2b
I0711 23:46:57.884235 18382 net.cpp:413] res4a_branch2b/bn -> res4a_branch2b/bn
I0711 23:46:57.884632 18382 net.cpp:148] Setting up res4a_branch2b/bn
I0711 23:46:57.884647 18382 net.cpp:155] Top shape: 4 256 40 40 (1638400)
I0711 23:46:57.884655 18382 net.cpp:163] Memory required for data: 697958400
I0711 23:46:57.884667 18382 layer_factory.hpp:77] Creating layer res4a_branch2b/relu
I0711 23:46:57.884676 18382 net.cpp:98] Creating Layer res4a_branch2b/relu
I0711 23:46:57.884685 18382 net.cpp:439] res4a_branch2b/relu <- res4a_branch2b/bn
I0711 23:46:57.884692 18382 net.cpp:400] res4a_branch2b/relu -> res4a_branch2b/bn (in-place)
I0711 23:46:57.884702 18382 net.cpp:148] Setting up res4a_branch2b/relu
I0711 23:46:57.884711 18382 net.cpp:155] Top shape: 4 256 40 40 (1638400)
I0711 23:46:57.884717 18382 net.cpp:163] Memory required for data: 704512000
I0711 23:46:57.884724 18382 layer_factory.hpp:77] Creating layer pool4
I0711 23:46:57.884735 18382 net.cpp:98] Creating Layer pool4
I0711 23:46:57.884742 18382 net.cpp:439] pool4 <- res4a_branch2b/bn
I0711 23:46:57.884750 18382 net.cpp:413] pool4 -> pool4
I0711 23:46:57.884783 18382 net.cpp:148] Setting up pool4
I0711 23:46:57.884793 18382 net.cpp:155] Top shape: 4 256 40 40 (1638400)
I0711 23:46:57.884799 18382 net.cpp:163] Memory required for data: 711065600
I0711 23:46:57.884807 18382 layer_factory.hpp:77] Creating layer res5a_branch2a
I0711 23:46:57.884827 18382 net.cpp:98] Creating Layer res5a_branch2a
I0711 23:46:57.884836 18382 net.cpp:439] res5a_branch2a <- pool4
I0711 23:46:57.884845 18382 net.cpp:413] res5a_branch2a -> res5a_branch2a
I0711 23:46:57.911284 18382 net.cpp:148] Setting up res5a_branch2a
I0711 23:46:57.911301 18382 net.cpp:155] Top shape: 4 512 40 40 (3276800)
I0711 23:46:57.911303 18382 net.cpp:163] Memory required for data: 724172800
I0711 23:46:57.911309 18382 layer_factory.hpp:77] Creating layer res5a_branch2a/bn
I0711 23:46:57.911317 18382 net.cpp:98] Creating Layer res5a_branch2a/bn
I0711 23:46:57.911320 18382 net.cpp:439] res5a_branch2a/bn <- res5a_branch2a
I0711 23:46:57.911324 18382 net.cpp:413] res5a_branch2a/bn -> res5a_branch2a/bn
I0711 23:46:57.911603 18382 net.cpp:148] Setting up res5a_branch2a/bn
I0711 23:46:57.911608 18382 net.cpp:155] Top shape: 4 512 40 40 (3276800)
I0711 23:46:57.911610 18382 net.cpp:163] Memory required for data: 737280000
I0711 23:46:57.911615 18382 layer_factory.hpp:77] Creating layer res5a_branch2a/relu
I0711 23:46:57.911618 18382 net.cpp:98] Creating Layer res5a_branch2a/relu
I0711 23:46:57.911620 18382 net.cpp:439] res5a_branch2a/relu <- res5a_branch2a/bn
I0711 23:46:57.911623 18382 net.cpp:400] res5a_branch2a/relu -> res5a_branch2a/bn (in-place)
I0711 23:46:57.911628 18382 net.cpp:148] Setting up res5a_branch2a/relu
I0711 23:46:57.911629 18382 net.cpp:155] Top shape: 4 512 40 40 (3276800)
I0711 23:46:57.911631 18382 net.cpp:163] Memory required for data: 750387200
I0711 23:46:57.911633 18382 layer_factory.hpp:77] Creating layer res5a_branch2b
I0711 23:46:57.911638 18382 net.cpp:98] Creating Layer res5a_branch2b
I0711 23:46:57.911640 18382 net.cpp:439] res5a_branch2b <- res5a_branch2a/bn
I0711 23:46:57.911643 18382 net.cpp:413] res5a_branch2b -> res5a_branch2b
I0711 23:46:57.923951 18382 net.cpp:148] Setting up res5a_branch2b
I0711 23:46:57.923971 18382 net.cpp:155] Top shape: 4 512 40 40 (3276800)
I0711 23:46:57.923974 18382 net.cpp:163] Memory required for data: 763494400
I0711 23:46:57.923982 18382 layer_factory.hpp:77] Creating layer res5a_branch2b/bn
I0711 23:46:57.923990 18382 net.cpp:98] Creating Layer res5a_branch2b/bn
I0711 23:46:57.923992 18382 net.cpp:439] res5a_branch2b/bn <- res5a_branch2b
I0711 23:46:57.923997 18382 net.cpp:413] res5a_branch2b/bn -> res5a_branch2b/bn
I0711 23:46:57.924288 18382 net.cpp:148] Setting up res5a_branch2b/bn
I0711 23:46:57.924293 18382 net.cpp:155] Top shape: 4 512 40 40 (3276800)
I0711 23:46:57.924295 18382 net.cpp:163] Memory required for data: 776601600
I0711 23:46:57.924300 18382 layer_factory.hpp:77] Creating layer res5a_branch2b/relu
I0711 23:46:57.924314 18382 net.cpp:98] Creating Layer res5a_branch2b/relu
I0711 23:46:57.924317 18382 net.cpp:439] res5a_branch2b/relu <- res5a_branch2b/bn
I0711 23:46:57.924320 18382 net.cpp:400] res5a_branch2b/relu -> res5a_branch2b/bn (in-place)
I0711 23:46:57.924325 18382 net.cpp:148] Setting up res5a_branch2b/relu
I0711 23:46:57.924329 18382 net.cpp:155] Top shape: 4 512 40 40 (3276800)
I0711 23:46:57.924330 18382 net.cpp:163] Memory required for data: 789708800
I0711 23:46:57.924332 18382 layer_factory.hpp:77] Creating layer out5a
I0711 23:46:57.924337 18382 net.cpp:98] Creating Layer out5a
I0711 23:46:57.924340 18382 net.cpp:439] out5a <- res5a_branch2b/bn
I0711 23:46:57.924342 18382 net.cpp:413] out5a -> out5a
I0711 23:46:57.927986 18382 net.cpp:148] Setting up out5a
I0711 23:46:57.927994 18382 net.cpp:155] Top shape: 4 64 40 40 (409600)
I0711 23:46:57.927997 18382 net.cpp:163] Memory required for data: 791347200
I0711 23:46:57.928000 18382 layer_factory.hpp:77] Creating layer out5a/bn
I0711 23:46:57.928005 18382 net.cpp:98] Creating Layer out5a/bn
I0711 23:46:57.928007 18382 net.cpp:439] out5a/bn <- out5a
I0711 23:46:57.928010 18382 net.cpp:413] out5a/bn -> out5a/bn
I0711 23:46:57.928309 18382 net.cpp:148] Setting up out5a/bn
I0711 23:46:57.928314 18382 net.cpp:155] Top shape: 4 64 40 40 (409600)
I0711 23:46:57.928316 18382 net.cpp:163] Memory required for data: 792985600
I0711 23:46:57.928321 18382 layer_factory.hpp:77] Creating layer out5a/relu
I0711 23:46:57.928323 18382 net.cpp:98] Creating Layer out5a/relu
I0711 23:46:57.928325 18382 net.cpp:439] out5a/relu <- out5a/bn
I0711 23:46:57.928328 18382 net.cpp:400] out5a/relu -> out5a/bn (in-place)
I0711 23:46:57.928331 18382 net.cpp:148] Setting up out5a/relu
I0711 23:46:57.928334 18382 net.cpp:155] Top shape: 4 64 40 40 (409600)
I0711 23:46:57.928335 18382 net.cpp:163] Memory required for data: 794624000
I0711 23:46:57.928338 18382 layer_factory.hpp:77] Creating layer out5a_up2
I0711 23:46:57.928341 18382 net.cpp:98] Creating Layer out5a_up2
I0711 23:46:57.928344 18382 net.cpp:439] out5a_up2 <- out5a/bn
I0711 23:46:57.928345 18382 net.cpp:413] out5a_up2 -> out5a_up2
I0711 23:46:57.928467 18382 net.cpp:148] Setting up out5a_up2
I0711 23:46:57.928472 18382 net.cpp:155] Top shape: 4 64 80 80 (1638400)
I0711 23:46:57.928473 18382 net.cpp:163] Memory required for data: 801177600
I0711 23:46:57.928477 18382 layer_factory.hpp:77] Creating layer out3a
I0711 23:46:57.928480 18382 net.cpp:98] Creating Layer out3a
I0711 23:46:57.928483 18382 net.cpp:439] out3a <- res3a_branch2b/bn_res3a_branch2b/relu_0_split_1
I0711 23:46:57.928485 18382 net.cpp:413] out3a -> out3a
I0711 23:46:57.929353 18382 net.cpp:148] Setting up out3a
I0711 23:46:57.929359 18382 net.cpp:155] Top shape: 4 64 80 80 (1638400)
I0711 23:46:57.929361 18382 net.cpp:163] Memory required for data: 807731200
I0711 23:46:57.929364 18382 layer_factory.hpp:77] Creating layer out3a/bn
I0711 23:46:57.929368 18382 net.cpp:98] Creating Layer out3a/bn
I0711 23:46:57.929370 18382 net.cpp:439] out3a/bn <- out3a
I0711 23:46:57.929373 18382 net.cpp:413] out3a/bn -> out3a/bn
I0711 23:46:57.929674 18382 net.cpp:148] Setting up out3a/bn
I0711 23:46:57.929679 18382 net.cpp:155] Top shape: 4 64 80 80 (1638400)
I0711 23:46:57.929682 18382 net.cpp:163] Memory required for data: 814284800
I0711 23:46:57.929687 18382 layer_factory.hpp:77] Creating layer out3a/relu
I0711 23:46:57.929689 18382 net.cpp:98] Creating Layer out3a/relu
I0711 23:46:57.929692 18382 net.cpp:439] out3a/relu <- out3a/bn
I0711 23:46:57.929694 18382 net.cpp:400] out3a/relu -> out3a/bn (in-place)
I0711 23:46:57.929697 18382 net.cpp:148] Setting up out3a/relu
I0711 23:46:57.929699 18382 net.cpp:155] Top shape: 4 64 80 80 (1638400)
I0711 23:46:57.929702 18382 net.cpp:163] Memory required for data: 820838400
I0711 23:46:57.929703 18382 layer_factory.hpp:77] Creating layer out3_out5_combined
I0711 23:46:57.929709 18382 net.cpp:98] Creating Layer out3_out5_combined
I0711 23:46:57.929711 18382 net.cpp:439] out3_out5_combined <- out5a_up2
I0711 23:46:57.929719 18382 net.cpp:439] out3_out5_combined <- out3a/bn
I0711 23:46:57.929724 18382 net.cpp:413] out3_out5_combined -> out3_out5_combined
I0711 23:46:57.929738 18382 net.cpp:148] Setting up out3_out5_combined
I0711 23:46:57.929741 18382 net.cpp:155] Top shape: 4 64 80 80 (1638400)
I0711 23:46:57.929744 18382 net.cpp:163] Memory required for data: 827392000
I0711 23:46:57.929745 18382 layer_factory.hpp:77] Creating layer ctx_conv1
I0711 23:46:57.929749 18382 net.cpp:98] Creating Layer ctx_conv1
I0711 23:46:57.929750 18382 net.cpp:439] ctx_conv1 <- out3_out5_combined
I0711 23:46:57.929754 18382 net.cpp:413] ctx_conv1 -> ctx_conv1
I0711 23:46:57.930611 18382 net.cpp:148] Setting up ctx_conv1
I0711 23:46:57.930616 18382 net.cpp:155] Top shape: 4 64 80 80 (1638400)
I0711 23:46:57.930619 18382 net.cpp:163] Memory required for data: 833945600
I0711 23:46:57.930621 18382 layer_factory.hpp:77] Creating layer ctx_conv1/bn
I0711 23:46:57.930624 18382 net.cpp:98] Creating Layer ctx_conv1/bn
I0711 23:46:57.930626 18382 net.cpp:439] ctx_conv1/bn <- ctx_conv1
I0711 23:46:57.930629 18382 net.cpp:413] ctx_conv1/bn -> ctx_conv1/bn
I0711 23:46:57.930927 18382 net.cpp:148] Setting up ctx_conv1/bn
I0711 23:46:57.930932 18382 net.cpp:155] Top shape: 4 64 80 80 (1638400)
I0711 23:46:57.930934 18382 net.cpp:163] Memory required for data: 840499200
I0711 23:46:57.930939 18382 layer_factory.hpp:77] Creating layer ctx_conv1/relu
I0711 23:46:57.930941 18382 net.cpp:98] Creating Layer ctx_conv1/relu
I0711 23:46:57.930943 18382 net.cpp:439] ctx_conv1/relu <- ctx_conv1/bn
I0711 23:46:57.930946 18382 net.cpp:400] ctx_conv1/relu -> ctx_conv1/bn (in-place)
I0711 23:46:57.930949 18382 net.cpp:148] Setting up ctx_conv1/relu
I0711 23:46:57.930951 18382 net.cpp:155] Top shape: 4 64 80 80 (1638400)
I0711 23:46:57.930953 18382 net.cpp:163] Memory required for data: 847052800
I0711 23:46:57.930954 18382 layer_factory.hpp:77] Creating layer ctx_conv2
I0711 23:46:57.930958 18382 net.cpp:98] Creating Layer ctx_conv2
I0711 23:46:57.930960 18382 net.cpp:439] ctx_conv2 <- ctx_conv1/bn
I0711 23:46:57.930963 18382 net.cpp:413] ctx_conv2 -> ctx_conv2
I0711 23:46:57.931816 18382 net.cpp:148] Setting up ctx_conv2
I0711 23:46:57.931820 18382 net.cpp:155] Top shape: 4 64 80 80 (1638400)
I0711 23:46:57.931823 18382 net.cpp:163] Memory required for data: 853606400
I0711 23:46:57.931825 18382 layer_factory.hpp:77] Creating layer ctx_conv2/bn
I0711 23:46:57.931828 18382 net.cpp:98] Creating Layer ctx_conv2/bn
I0711 23:46:57.931830 18382 net.cpp:439] ctx_conv2/bn <- ctx_conv2
I0711 23:46:57.931833 18382 net.cpp:413] ctx_conv2/bn -> ctx_conv2/bn
I0711 23:46:57.932132 18382 net.cpp:148] Setting up ctx_conv2/bn
I0711 23:46:57.932137 18382 net.cpp:155] Top shape: 4 64 80 80 (1638400)
I0711 23:46:57.932139 18382 net.cpp:163] Memory required for data: 860160000
I0711 23:46:57.932143 18382 layer_factory.hpp:77] Creating layer ctx_conv2/relu
I0711 23:46:57.932147 18382 net.cpp:98] Creating Layer ctx_conv2/relu
I0711 23:46:57.932148 18382 net.cpp:439] ctx_conv2/relu <- ctx_conv2/bn
I0711 23:46:57.932150 18382 net.cpp:400] ctx_conv2/relu -> ctx_conv2/bn (in-place)
I0711 23:46:57.932153 18382 net.cpp:148] Setting up ctx_conv2/relu
I0711 23:46:57.932157 18382 net.cpp:155] Top shape: 4 64 80 80 (1638400)
I0711 23:46:57.932157 18382 net.cpp:163] Memory required for data: 866713600
I0711 23:46:57.932159 18382 layer_factory.hpp:77] Creating layer ctx_conv3
I0711 23:46:57.932164 18382 net.cpp:98] Creating Layer ctx_conv3
I0711 23:46:57.932166 18382 net.cpp:439] ctx_conv3 <- ctx_conv2/bn
I0711 23:46:57.932168 18382 net.cpp:413] ctx_conv3 -> ctx_conv3
I0711 23:46:57.933027 18382 net.cpp:148] Setting up ctx_conv3
I0711 23:46:57.933032 18382 net.cpp:155] Top shape: 4 64 80 80 (1638400)
I0711 23:46:57.933034 18382 net.cpp:163] Memory required for data: 873267200
I0711 23:46:57.933037 18382 layer_factory.hpp:77] Creating layer ctx_conv3/bn
I0711 23:46:57.933040 18382 net.cpp:98] Creating Layer ctx_conv3/bn
I0711 23:46:57.933043 18382 net.cpp:439] ctx_conv3/bn <- ctx_conv3
I0711 23:46:57.933050 18382 net.cpp:413] ctx_conv3/bn -> ctx_conv3/bn
I0711 23:46:57.933348 18382 net.cpp:148] Setting up ctx_conv3/bn
I0711 23:46:57.933353 18382 net.cpp:155] Top shape: 4 64 80 80 (1638400)
I0711 23:46:57.933356 18382 net.cpp:163] Memory required for data: 879820800
I0711 23:46:57.933360 18382 layer_factory.hpp:77] Creating layer ctx_conv3/relu
I0711 23:46:57.933363 18382 net.cpp:98] Creating Layer ctx_conv3/relu
I0711 23:46:57.933365 18382 net.cpp:439] ctx_conv3/relu <- ctx_conv3/bn
I0711 23:46:57.933367 18382 net.cpp:400] ctx_conv3/relu -> ctx_conv3/bn (in-place)
I0711 23:46:57.933370 18382 net.cpp:148] Setting up ctx_conv3/relu
I0711 23:46:57.933372 18382 net.cpp:155] Top shape: 4 64 80 80 (1638400)
I0711 23:46:57.933374 18382 net.cpp:163] Memory required for data: 886374400
I0711 23:46:57.933377 18382 layer_factory.hpp:77] Creating layer ctx_conv4
I0711 23:46:57.933379 18382 net.cpp:98] Creating Layer ctx_conv4
I0711 23:46:57.933382 18382 net.cpp:439] ctx_conv4 <- ctx_conv3/bn
I0711 23:46:57.933383 18382 net.cpp:413] ctx_conv4 -> ctx_conv4
I0711 23:46:57.934243 18382 net.cpp:148] Setting up ctx_conv4
I0711 23:46:57.934248 18382 net.cpp:155] Top shape: 4 64 80 80 (1638400)
I0711 23:46:57.934250 18382 net.cpp:163] Memory required for data: 892928000
I0711 23:46:57.934253 18382 layer_factory.hpp:77] Creating layer ctx_conv4/bn
I0711 23:46:57.934255 18382 net.cpp:98] Creating Layer ctx_conv4/bn
I0711 23:46:57.934257 18382 net.cpp:439] ctx_conv4/bn <- ctx_conv4
I0711 23:46:57.934260 18382 net.cpp:413] ctx_conv4/bn -> ctx_conv4/bn
I0711 23:46:57.934566 18382 net.cpp:148] Setting up ctx_conv4/bn
I0711 23:46:57.934571 18382 net.cpp:155] Top shape: 4 64 80 80 (1638400)
I0711 23:46:57.934572 18382 net.cpp:163] Memory required for data: 899481600
I0711 23:46:57.934576 18382 layer_factory.hpp:77] Creating layer ctx_conv4/relu
I0711 23:46:57.934579 18382 net.cpp:98] Creating Layer ctx_conv4/relu
I0711 23:46:57.934581 18382 net.cpp:439] ctx_conv4/relu <- ctx_conv4/bn
I0711 23:46:57.934584 18382 net.cpp:400] ctx_conv4/relu -> ctx_conv4/bn (in-place)
I0711 23:46:57.934587 18382 net.cpp:148] Setting up ctx_conv4/relu
I0711 23:46:57.934589 18382 net.cpp:155] Top shape: 4 64 80 80 (1638400)
I0711 23:46:57.934592 18382 net.cpp:163] Memory required for data: 906035200
I0711 23:46:57.934593 18382 layer_factory.hpp:77] Creating layer ctx_final
I0711 23:46:57.934597 18382 net.cpp:98] Creating Layer ctx_final
I0711 23:46:57.934597 18382 net.cpp:439] ctx_final <- ctx_conv4/bn
I0711 23:46:57.934602 18382 net.cpp:413] ctx_final -> ctx_final
I0711 23:46:57.934828 18382 net.cpp:148] Setting up ctx_final
I0711 23:46:57.934833 18382 net.cpp:155] Top shape: 4 8 80 80 (204800)
I0711 23:46:57.934834 18382 net.cpp:163] Memory required for data: 906854400
I0711 23:46:57.934836 18382 layer_factory.hpp:77] Creating layer ctx_final/relu
I0711 23:46:57.934839 18382 net.cpp:98] Creating Layer ctx_final/relu
I0711 23:46:57.934841 18382 net.cpp:439] ctx_final/relu <- ctx_final
I0711 23:46:57.934844 18382 net.cpp:400] ctx_final/relu -> ctx_final (in-place)
I0711 23:46:57.934846 18382 net.cpp:148] Setting up ctx_final/relu
I0711 23:46:57.934849 18382 net.cpp:155] Top shape: 4 8 80 80 (204800)
I0711 23:46:57.934850 18382 net.cpp:163] Memory required for data: 907673600
I0711 23:46:57.934852 18382 layer_factory.hpp:77] Creating layer out_deconv_final_up2
I0711 23:46:57.934855 18382 net.cpp:98] Creating Layer out_deconv_final_up2
I0711 23:46:57.934857 18382 net.cpp:439] out_deconv_final_up2 <- ctx_final
I0711 23:46:57.934860 18382 net.cpp:413] out_deconv_final_up2 -> out_deconv_final_up2
I0711 23:46:57.934960 18382 net.cpp:148] Setting up out_deconv_final_up2
I0711 23:46:57.934964 18382 net.cpp:155] Top shape: 4 8 160 160 (819200)
I0711 23:46:57.934967 18382 net.cpp:163] Memory required for data: 910950400
I0711 23:46:57.934968 18382 layer_factory.hpp:77] Creating layer out_deconv_final_up4
I0711 23:46:57.934972 18382 net.cpp:98] Creating Layer out_deconv_final_up4
I0711 23:46:57.934973 18382 net.cpp:439] out_deconv_final_up4 <- out_deconv_final_up2
I0711 23:46:57.934980 18382 net.cpp:413] out_deconv_final_up4 -> out_deconv_final_up4
I0711 23:46:57.935079 18382 net.cpp:148] Setting up out_deconv_final_up4
I0711 23:46:57.935083 18382 net.cpp:155] Top shape: 4 8 320 320 (3276800)
I0711 23:46:57.935086 18382 net.cpp:163] Memory required for data: 924057600
I0711 23:46:57.935088 18382 layer_factory.hpp:77] Creating layer out_deconv_final_up8
I0711 23:46:57.935091 18382 net.cpp:98] Creating Layer out_deconv_final_up8
I0711 23:46:57.935092 18382 net.cpp:439] out_deconv_final_up8 <- out_deconv_final_up4
I0711 23:46:57.935096 18382 net.cpp:413] out_deconv_final_up8 -> out_deconv_final_up8
I0711 23:46:57.935191 18382 net.cpp:148] Setting up out_deconv_final_up8
I0711 23:46:57.935195 18382 net.cpp:155] Top shape: 4 8 640 640 (13107200)
I0711 23:46:57.935197 18382 net.cpp:163] Memory required for data: 976486400
I0711 23:46:57.935199 18382 layer_factory.hpp:77] Creating layer out_deconv_final_up8_out_deconv_final_up8_0_split
I0711 23:46:57.935202 18382 net.cpp:98] Creating Layer out_deconv_final_up8_out_deconv_final_up8_0_split
I0711 23:46:57.935204 18382 net.cpp:439] out_deconv_final_up8_out_deconv_final_up8_0_split <- out_deconv_final_up8
I0711 23:46:57.935206 18382 net.cpp:413] out_deconv_final_up8_out_deconv_final_up8_0_split -> out_deconv_final_up8_out_deconv_final_up8_0_split_0
I0711 23:46:57.935209 18382 net.cpp:413] out_deconv_final_up8_out_deconv_final_up8_0_split -> out_deconv_final_up8_out_deconv_final_up8_0_split_1
I0711 23:46:57.935212 18382 net.cpp:413] out_deconv_final_up8_out_deconv_final_up8_0_split -> out_deconv_final_up8_out_deconv_final_up8_0_split_2
I0711 23:46:57.935236 18382 net.cpp:148] Setting up out_deconv_final_up8_out_deconv_final_up8_0_split
I0711 23:46:57.935240 18382 net.cpp:155] Top shape: 4 8 640 640 (13107200)
I0711 23:46:57.935241 18382 net.cpp:155] Top shape: 4 8 640 640 (13107200)
I0711 23:46:57.935245 18382 net.cpp:155] Top shape: 4 8 640 640 (13107200)
I0711 23:46:57.935245 18382 net.cpp:163] Memory required for data: 1133772800
I0711 23:46:57.935247 18382 layer_factory.hpp:77] Creating layer loss
I0711 23:46:57.935253 18382 net.cpp:98] Creating Layer loss
I0711 23:46:57.935256 18382 net.cpp:439] loss <- out_deconv_final_up8_out_deconv_final_up8_0_split_0
I0711 23:46:57.935258 18382 net.cpp:439] loss <- label_data_1_split_0
…
