…
I0703 03:50:59.138892 13473 caffe.cpp:273] Use GPU with device ID 0
I0703 03:50:59.139295 13473 caffe.cpp:277] GPU device name: GeForce GTX 1080
I0703 03:51:00.053241 13473 net.cpp:56] Initializing net from parameters: 
name: "jsegnet21v2_test"
state {
  phase: TEST
}
layer {
  name: "data"
  type: "ImageLabelData"
  top: "data"
  top: "label"
  transform_param {
    mirror: false
    crop_size: 640
    mean_value: 0
  }
  image_label_data_param {
    image_list_path: "data/val-image-lmdb"
    label_list_path: "data/val-label-lmdb"
    batch_size: 4
    threads: 4
    backend: LMDB
  }
}
layer {
  name: "data/bias"
  type: "Bias"
  bottom: "data"
  top: "data/bias"
  param {
    lr_mult: 0
    decay_mult: 0
  }
  bias_param {
    filler {
      type: "constant"
      value: -128
    }
  }
}
layer {
  name: "conv1a"
  type: "Convolution"
  bottom: "data/bias"
  top: "conv1a"
  param {
    lr_mult: 1
    decay_mult: 1
  }
  param {
    lr_mult: 2
    decay_mult: 0
  }
  convolution_param {
    num_output: 32
    bias_term: true
    pad: 2
    kernel_size: 5
    group: 1
    stride: 2
    weight_filler {
      type: "msra"
    }
    bias_filler {
      type: "constant"
      value: 0
    }
    dilation: 1
  }
}
layer {
  name: "conv1a/bn"
  type: "BatchNorm"
  bottom: "conv1a"
  top: "conv1a/bn"
  param {
    lr_mult: 1
    decay_mult: 1
  }
  param {
    lr_mult: 1
    decay_mult: 1
  }
  param {
    lr_mult: 0
    decay_mult: 0
  }
  param {
    lr_mult: 0
    decay_mult: 0
  }
  batch_norm_param {
    moving_average_fraction: 0.99
    eps: 0.0001
    scale_filler {
      type: "constant"
      value: 1
    }
    bias_filler {
      type: "constant"
      value: 0
    }
  }
}
layer {
  name: "conv1a/relu"
  type: "ReLU"
  bottom: "conv1a/bn"
  top: "conv1a/bn"
}
layer {
  name: "conv1b"
  type: "Convolution"
  bottom: "conv1a/bn"
  top: "conv1b"
  param {
    lr_mult: 1
    decay_mult: 1
  }
  param {
    lr_mult: 2
    decay_mult: 0
  }
  convolution_param {
    num_output: 32
    bias_term: true
    pad: 1
    kernel_size: 3
    group: 4
    stride: 1
    weight_filler {
      type: "msra"
    }
    bias_filler {
      type: "constant"
      value: 0
    }
    dilation: 1
  }
}
layer {
  name: "conv1b/bn"
  type: "BatchNorm"
  bottom: "conv1b"
  top: "conv1b/bn"
  param {
    lr_mult: 1
    decay_mult: 1
  }
  param {
    lr_mult: 1
    decay_mult: 1
  }
  param {
    lr_mult: 0
    decay_mult: 0
  }
  param {
    lr_mult: 0
    decay_mult: 0
  }
  batch_norm_param {
    moving_average_fraction: 0.99
    eps: 0.0001
    scale_filler {
      type: "constant"
      value: 1
    }
    bias_filler {
      type: "constant"
      value: 0
    }
  }
}
layer {
  name: "conv1b/relu"
  type: "ReLU"
  bottom: "conv1b/bn"
  top: "conv1b/bn"
}
layer {
  name: "pool1"
  type: "Pooling"
  bottom: "conv1b/bn"
  top: "pool1"
  pooling_param {
    pool: MAX
    kernel_size: 2
    stride: 2
  }
}
layer {
  name: "res2a_branch2a"
  type: "Convolution"
  bottom: "pool1"
  top: "res2a_branch2a"
  param {
    lr_mult: 1
    decay_mult: 1
  }
  param {
    lr_mult: 2
    decay_mult: 0
  }
  convolution_param {
    num_output: 64
    bias_term: true
    pad: 1
    kernel_size: 3
    group: 1
    stride: 1
    weight_filler {
      type: "msra"
    }
    bias_filler {
      type: "constant"
      value: 0
    }
    dilation: 1
  }
}
layer {
  name: "res2a_branch2a/bn"
  type: "BatchNorm"
  bottom: "res2a_branch2a"
  top: "res2a_branch2a/bn"
  param {
    lr_mult: 1
    decay_mult: 1
  }
  param {
    lr_mult: 1
    decay_mult: 1
  }
  param {
    lr_mult: 0
    decay_mult: 0
  }
  param {
    lr_mult: 0
    decay_mult: 0
  }
  batch_norm_param {
    moving_average_fraction: 0.99
    eps: 0.0001
    scale_filler {
      type: "constant"
      value: 1
    }
    bias_filler {
      type: "constant"
      value: 0
    }
  }
}
layer {
  name: "res2a_branch2a/relu"
  type: "ReLU"
  bottom: "res2a_branch2a/bn"
  top: "res2a_branch2a/bn"
}
layer {
  name: "res2a_branch2b"
  type: "Convolution"
  bottom: "res2a_branch2a/bn"
  top: "res2a_branch2b"
  param {
    lr_mult: 1
    decay_mult: 1
  }
  param {
    lr_mult: 2
    decay_mult: 0
  }
  convolution_param {
    num_output: 64
    bias_term: true
    pad: 1
    kernel_size: 3
    group: 4
    stride: 1
    weight_filler {
      type: "msra"
    }
    bias_filler {
      type: "constant"
      value: 0
    }
    dilation: 1
  }
}
layer {
  name: "res2a_branch2b/bn"
  type: "BatchNorm"
  bottom: "res2a_branch2b"
  top: "res2a_branch2b/bn"
  param {
    lr_mult: 1
    decay_mult: 1
  }
  param {
    lr_mult: 1
    decay_mult: 1
  }
  param {
    lr_mult: 0
    decay_mult: 0
  }
  param {
    lr_mult: 0
    decay_mult: 0
  }
  batch_norm_param {
    moving_average_fraction: 0.99
    eps: 0.0001
    scale_filler {
      type: "constant"
      value: 1
    }
    bias_filler {
      type: "constant"
      value: 0
    }
  }
}
layer {
  name: "res2a_branch2b/relu"
  type: "ReLU"
  bottom: "res2a_branch2b/bn"
  top: "res2a_branch2b/bn"
}
layer {
  name: "pool2"
  type: "Pooling"
  bottom: "res2a_branch2b/bn"
  top: "pool2"
  pooling_param {
    pool: MAX
    kernel_size: 2
    stride: 2
  }
}
layer {
  name: "res3a_branch2a"
  type: "Convolution"
  bottom: "pool2"
  top: "res3a_branch2a"
  param {
    lr_mult: 1
    decay_mult: 1
  }
  param {
    lr_mult: 2
    decay_mult: 0
  }
  convolution_param {
    num_output: 128
    bias_term: true
    pad: 1
    kernel_size: 3
    group: 1
    stride: 1
    weight_filler {
      type: "msra"
    }
    bias_filler {
      type: "constant"
      value: 0
    }
    dilation: 1
  }
}
layer {
  name: "res3a_branch2a/bn"
  type: "BatchNorm"
  bottom: "res3a_branch2a"
  top: "res3a_branch2a/bn"
  param {
    lr_mult: 1
    decay_mult: 1
  }
  param {
    lr_mult: 1
    decay_mult: 1
  }
  param {
    lr_mult: 0
    decay_mult: 0
  }
  param {
    lr_mult: 0
    decay_mult: 0
  }
  batch_norm_param {
    moving_average_fraction: 0.99
    eps: 0.0001
    scale_filler {
      type: "constant"
      value: 1
    }
    bias_filler {
      type: "constant"
      value: 0
    }
  }
}
layer {
  name: "res3a_branch2a/relu"
  type: "ReLU"
  bottom: "res3a_branch2a/bn"
  top: "res3a_branch2a/bn"
}
layer {
  name: "res3a_branch2b"
  type: "Convolution"
  bottom: "res3a_branch2a/bn"
  top: "res3a_branch2b"
  param {
    lr_mult: 1
    decay_mult: 1
  }
  param {
    lr_mult: 2
    decay_mult: 0
  }
  convolution_param {
    num_output: 128
    bias_term: true
    pad: 1
    kernel_size: 3
    group: 4
    stride: 1
    weight_filler {
      type: "msra"
    }
    bias_filler {
      type: "constant"
      value: 0
    }
    dilation: 1
  }
}
layer {
  name: "res3a_branch2b/bn"
  type: "BatchNorm"
  bottom: "res3a_branch2b"
  top: "res3a_branch2b/bn"
  param {
    lr_mult: 1
    decay_mult: 1
  }
  param {
    lr_mult: 1
    decay_mult: 1
  }
  param {
    lr_mult: 0
    decay_mult: 0
  }
  param {
    lr_mult: 0
    decay_mult: 0
  }
  batch_norm_param {
    moving_average_fraction: 0.99
    eps: 0.0001
    scale_filler {
      type: "constant"
      value: 1
    }
    bias_filler {
      type: "constant"
      value: 0
    }
  }
}
layer {
  name: "res3a_branch2b/relu"
  type: "ReLU"
  bottom: "res3a_branch2b/bn"
  top: "res3a_branch2b/bn"
}
layer {
  name: "pool3"
  type: "Pooling"
  bottom: "res3a_branch2b/bn"
  top: "pool3"
  pooling_param {
    pool: MAX
    kernel_size: 2
    stride: 2
  }
}
layer {
  name: "res4a_branch2a"
  type: "Convolution"
  bottom: "pool3"
  top: "res4a_branch2a"
  param {
    lr_mult: 1
    decay_mult: 1
  }
  param {
    lr_mult: 2
    decay_mult: 0
  }
  convolution_param {
    num_output: 256
    bias_term: true
    pad: 1
    kernel_size: 3
    group: 1
    stride: 1
    weight_filler {
      type: "msra"
    }
    bias_filler {
      type: "constant"
      value: 0
    }
    dilation: 1
  }
}
layer {
  name: "res4a_branch2a/bn"
  type: "BatchNorm"
  bottom: "res4a_branch2a"
  top: "res4a_branch2a/bn"
  param {
    lr_mult: 1
    decay_mult: 1
  }
  param {
    lr_mult: 1
    decay_mult: 1
  }
  param {
    lr_mult: 0
    decay_mult: 0
  }
  param {
    lr_mult: 0
    decay_mult: 0
  }
  batch_norm_param {
    moving_average_fraction: 0.99
    eps: 0.0001
    scale_filler {
      type: "constant"
      value: 1
    }
    bias_filler {
      type: "constant"
      value: 0
    }
  }
}
layer {
  name: "res4a_branch2a/relu"
  type: "ReLU"
  bottom: "res4a_branch2a/bn"
  top: "res4a_branch2a/bn"
}
layer {
  name: "res4a_branch2b"
  type: "Convolution"
  bottom: "res4a_branch2a/bn"
  top: "res4a_branch2b"
  param {
    lr_mult: 1
    decay_mult: 1
  }
  param {
    lr_mult: 2
    decay_mult: 0
  }
  convolution_param {
    num_output: 256
    bias_term: true
    pad: 1
    kernel_size: 3
    group: 4
    stride: 1
    weight_filler {
      type: "msra"
    }
    bias_filler {
      type: "constant"
      value: 0
    }
    dilation: 1
  }
}
layer {
  name: "res4a_branch2b/bn"
  type: "BatchNorm"
  bottom: "res4a_branch2b"
  top: "res4a_branch2b/bn"
  param {
    lr_mult: 1
    decay_mult: 1
  }
  param {
    lr_mult: 1
    decay_mult: 1
  }
  param {
    lr_mult: 0
    decay_mult: 0
  }
  param {
    lr_mult: 0
    decay_mult: 0
  }
  batch_norm_param {
    moving_average_fraction: 0.99
    eps: 0.0001
    scale_filler {
      type: "constant"
      value: 1
    }
    bias_filler {
      type: "constant"
      value: 0
    }
  }
}
layer {
  name: "res4a_branch2b/relu"
  type: "ReLU"
  bottom: "res4a_branch2b/bn"
  top: "res4a_branch2b/bn"
}
layer {
  name: "pool4"
  type: "Pooling"
  bottom: "res4a_branch2b/bn"
  top: "pool4"
  pooling_param {
    pool: MAX
    kernel_size: 1
    stride: 1
  }
}
layer {
  name: "res5a_branch2a"
  type: "Convolution"
  bottom: "pool4"
  top: "res5a_branch2a"
  param {
    lr_mult: 1
    decay_mult: 1
  }
  param {
    lr_mult: 2
    decay_mult: 0
  }
  convolution_param {
    num_output: 512
    bias_term: true
    pad: 2
    kernel_size: 3
    group: 1
    stride: 1
    weight_filler {
      type: "msra"
    }
    bias_filler {
      type: "constant"
      value: 0
    }
    dilation: 2
  }
}
layer {
  name: "res5a_branch2a/bn"
  type: "BatchNorm"
  bottom: "res5a_branch2a"
  top: "res5a_branch2a/bn"
  param {
    lr_mult: 1
    decay_mult: 1
  }
  param {
    lr_mult: 1
    decay_mult: 1
  }
  param {
    lr_mult: 0
    decay_mult: 0
  }
  param {
    lr_mult: 0
    decay_mult: 0
  }
  batch_norm_param {
    moving_average_fraction: 0.99
    eps: 0.0001
    scale_filler {
      type: "constant"
      value: 1
    }
    bias_filler {
      type: "constant"
      value: 0
    }
  }
}
layer {
  name: "res5a_branch2a/relu"
  type: "ReLU"
  bottom: "res5a_branch2a/bn"
  top: "res5a_branch2a/bn"
}
layer {
  name: "res5a_branch2b"
  type: "Convolution"
  bottom: "res5a_branch2a/bn"
  top: "res5a_branch2b"
  param {
    lr_mult: 1
    decay_mult: 1
  }
  param {
    lr_mult: 2
    decay_mult: 0
  }
  convolution_param {
    num_output: 512
    bias_term: true
    pad: 2
    kernel_size: 3
    group: 4
    stride: 1
    weight_filler {
      type: "msra"
    }
    bias_filler {
      type: "constant"
      value: 0
    }
    dilation: 2
  }
}
layer {
  name: "res5a_branch2b/bn"
  type: "BatchNorm"
  bottom: "res5a_branch2b"
  top: "res5a_branch2b/bn"
  param {
    lr_mult: 1
    decay_mult: 1
  }
  param {
    lr_mult: 1
    decay_mult: 1
  }
  param {
    lr_mult: 0
    decay_mult: 0
  }
  param {
    lr_mult: 0
    decay_mult: 0
  }
  batch_norm_param {
    moving_average_fraction: 0.99
    eps: 0.0001
    scale_filler {
      type: "constant"
      value: 1
    }
    bias_filler {
      type: "constant"
      value: 0
    }
  }
}
layer {
  name: "res5a_branch2b/relu"
  type: "ReLU"
  bottom: "res5a_branch2b/bn"
  top: "res5a_branch2b/bn"
}
layer {
  name: "out5a"
  type: "Convolution"
  bottom: "res5a_branch2b/bn"
  top: "out5a"
  param {
    lr_mult: 1
    decay_mult: 1
  }
  param {
    lr_mult: 2
    decay_mult: 0
  }
  convolution_param {
    num_output: 64
    bias_term: true
    pad: 4
    kernel_size: 3
    group: 2
    stride: 1
    weight_filler {
      type: "msra"
    }
    bias_filler {
      type: "constant"
      value: 0
    }
    dilation: 4
  }
}
layer {
  name: "out5a/bn"
  type: "BatchNorm"
  bottom: "out5a"
  top: "out5a/bn"
  param {
    lr_mult: 1
    decay_mult: 1
  }
  param {
    lr_mult: 1
    decay_mult: 1
  }
  param {
    lr_mult: 0
    decay_mult: 0
  }
  param {
    lr_mult: 0
    decay_mult: 0
  }
  batch_norm_param {
    moving_average_fraction: 0.99
    eps: 0.0001
    scale_filler {
      type: "constant"
      value: 1
    }
    bias_filler {
      type: "constant"
      value: 0
    }
  }
}
layer {
  name: "out5a/relu"
  type: "ReLU"
  bottom: "out5a/bn"
  top: "out5a/bn"
}
layer {
  name: "out5a_up2"
  type: "Deconvolution"
  bottom: "out5a/bn"
  top: "out5a_up2"
  param {
    lr_mult: 0
    decay_mult: 0
  }
  convolution_param {
    num_output: 64
    bias_term: false
    pad: 1
    kernel_size: 4
    group: 64
    stride: 2
    weight_filler {
      type: "bilinear"
    }
  }
}
layer {
  name: "out3a"
  type: "Convolution"
  bottom: "res3a_branch2b/bn"
  top: "out3a"
  param {
    lr_mult: 1
    decay_mult: 1
  }
  param {
    lr_mult: 2
    decay_mult: 0
  }
  convolution_param {
    num_output: 64
    bias_term: true
    pad: 1
    kernel_size: 3
    group: 2
    stride: 1
    weight_filler {
      type: "msra"
    }
    bias_filler {
      type: "constant"
      value: 0
    }
    dilation: 1
  }
}
layer {
  name: "out3a/bn"
  type: "BatchNorm"
  bottom: "out3a"
  top: "out3a/bn"
  param {
    lr_mult: 1
    decay_mult: 1
  }
  param {
    lr_mult: 1
    decay_mult: 1
  }
  param {
    lr_mult: 0
    decay_mult: 0
  }
  param {
    lr_mult: 0
    decay_mult: 0
  }
  batch_norm_param {
    moving_average_fraction: 0.99
    eps: 0.0001
    scale_filler {
      type: "constant"
      value: 1
    }
    bias_filler {
      type: "constant"
      value: 0
    }
  }
}
layer {
  name: "out3a/relu"
  type: "ReLU"
  bottom: "out3a/bn"
  top: "out3a/bn"
}
layer {
  name: "out3_out5_combined"
  type: "Eltwise"
  bottom: "out5a_up2"
  bottom: "out3a/bn"
  top: "out3_out5_combined"
}
layer {
  name: "ctx_conv1"
  type: "Convolution"
  bottom: "out3_out5_combined"
  top: "ctx_conv1"
  param {
    lr_mult: 1
    decay_mult: 1
  }
  param {
    lr_mult: 2
    decay_mult: 0
  }
  convolution_param {
    num_output: 64
    bias_term: true
    pad: 1
    kernel_size: 3
    group: 1
    stride: 1
    weight_filler {
      type: "msra"
    }
    bias_filler {
      type: "constant"
      value: 0
    }
    dilation: 1
  }
}
layer {
  name: "ctx_conv1/bn"
  type: "BatchNorm"
  bottom: "ctx_conv1"
  top: "ctx_conv1/bn"
  param {
    lr_mult: 1
    decay_mult: 1
  }
  param {
    lr_mult: 1
    decay_mult: 1
  }
  param {
    lr_mult: 0
    decay_mult: 0
  }
  param {
    lr_mult: 0
    decay_mult: 0
  }
  batch_norm_param {
    moving_average_fraction: 0.99
    eps: 0.0001
    scale_filler {
      type: "constant"
      value: 1
    }
    bias_filler {
      type: "constant"
      value: 0
    }
  }
}
layer {
  name: "ctx_conv1/relu"
  type: "ReLU"
  bottom: "ctx_conv1/bn"
  top: "ctx_conv1/bn"
}
layer {
  name: "ctx_conv2"
  type: "Convolution"
  bottom: "ctx_conv1/bn"
  top: "ctx_conv2"
  param {
    lr_mult: 1
    decay_mult: 1
  }
  param {
    lr_mult: 2
    decay_mult: 0
  }
  convolution_param {
    num_output: 64
    bias_term: true
    pad: 4
    kernel_size: 3
    group: 1
    stride: 1
    weight_filler {
      type: "msra"
    }
    bias_filler {
      type: "constant"
      value: 0
    }
    dilation: 4
  }
}
layer {
  name: "ctx_conv2/bn"
  type: "BatchNorm"
  bottom: "ctx_conv2"
  top: "ctx_conv2/bn"
  param {
    lr_mult: 1
    decay_mult: 1
  }
  param {
    lr_mult: 1
    decay_mult: 1
  }
  param {
    lr_mult: 0
    decay_mult: 0
  }
  param {
    lr_mult: 0
    decay_mult: 0
  }
  batch_norm_param {
    moving_average_fraction: 0.99
    eps: 0.0001
    scale_filler {
      type: "constant"
      value: 1
    }
    bias_filler {
      type: "constant"
      value: 0
    }
  }
}
layer {
  name: "ctx_conv2/relu"
  type: "ReLU"
  bottom: "ctx_conv2/bn"
  top: "ctx_conv2/bn"
}
layer {
  name: "ctx_conv3"
  type: "Convolution"
  bottom: "ctx_conv2/bn"
  top: "ctx_conv3"
  param {
    lr_mult: 1
    decay_mult: 1
  }
  param {
    lr_mult: 2
    decay_mult: 0
  }
  convolution_param {
    num_output: 64
    bias_term: true
    pad: 4
    kernel_size: 3
    group: 1
    stride: 1
    weight_filler {
      type: "msra"
    }
    bias_filler {
      type: "constant"
      value: 0
    }
    dilation: 4
  }
}
layer {
  name: "ctx_conv3/bn"
  type: "BatchNorm"
  bottom: "ctx_conv3"
  top: "ctx_conv3/bn"
  param {
    lr_mult: 1
    decay_mult: 1
  }
  param {
    lr_mult: 1
    decay_mult: 1
  }
  param {
    lr_mult: 0
    decay_mult: 0
  }
  param {
    lr_mult: 0
    decay_mult: 0
  }
  batch_norm_param {
    moving_average_fraction: 0.99
    eps: 0.0001
    scale_filler {
      type: "constant"
      value: 1
    }
    bias_filler {
      type: "constant"
      value: 0
    }
  }
}
layer {
  name: "ctx_conv3/relu"
  type: "ReLU"
  bottom: "ctx_conv3/bn"
  top: "ctx_conv3/bn"
}
layer {
  name: "ctx_conv4"
  type: "Convolution"
  bottom: "ctx_conv3/bn"
  top: "ctx_conv4"
  param {
    lr_mult: 1
    decay_mult: 1
  }
  param {
    lr_mult: 2
    decay_mult: 0
  }
  convolution_param {
    num_output: 64
    bias_term: true
    pad: 4
    kernel_size: 3
    group: 1
    stride: 1
    weight_filler {
      type: "msra"
    }
    bias_filler {
      type: "constant"
      value: 0
    }
    dilation: 4
  }
}
layer {
  name: "ctx_conv4/bn"
  type: "BatchNorm"
  bottom: "ctx_conv4"
  top: "ctx_conv4/bn"
  param {
    lr_mult: 1
    decay_mult: 1
  }
  param {
    lr_mult: 1
    decay_mult: 1
  }
  param {
    lr_mult: 0
    decay_mult: 0
  }
  param {
    lr_mult: 0
    decay_mult: 0
  }
  batch_norm_param {
    moving_average_fraction: 0.99
    eps: 0.0001
    scale_filler {
      type: "constant"
      value: 1
    }
    bias_filler {
      type: "constant"
      value: 0
    }
  }
}
layer {
  name: "ctx_conv4/relu"
  type: "ReLU"
  bottom: "ctx_conv4/bn"
  top: "ctx_conv4/bn"
}
layer {
  name: "ctx_final"
  type: "Convolution"
  bottom: "ctx_conv4/bn"
  top: "ctx_final"
  param {
    lr_mult: 1
    decay_mult: 1
  }
  param {
    lr_mult: 2
    decay_mult: 0
  }
  convolution_param {
    num_output: 8
    bias_term: true
    pad: 1
    kernel_size: 3
    kernel_size: 3
    group: 1
    stride: 1
    weight_filler {
      type: "msra"
    }
    bias_filler {
      type: "constant"
      value: 0
    }
    dilation: 1
  }
}
layer {
  name: "ctx_final/relu"
  type: "ReLU"
  bottom: "ctx_final"
  top: "ctx_final"
}
layer {
  name: "out_deconv_final_up2"
  type: "Deconvolution"
  bottom: "ctx_final"
  top: "out_deconv_final_up2"
  param {
    lr_mult: 0
    decay_mult: 0
  }
  convolution_param {
    num_output: 8
    bias_term: false
    pad: 1
    kernel_size: 4
    group: 8
    stride: 2
    weight_filler {
      type: "bilinear"
    }
  }
}
layer {
  name: "out_deconv_final_up4"
  type: "Deconvolution"
  bottom: "out_deconv_final_up2"
  top: "out_deconv_final_up4"
  param {
    lr_mult: 0
    decay_mult: 0
  }
  convolution_param {
    num_output: 8
    bias_term: false
    pad: 1
    kernel_size: 4
    group: 8
    stride: 2
    weight_filler {
      type: "bilinear"
    }
  }
}
layer {
  name: "out_deconv_final_up8"
  type: "Deconvolution"
  bottom: "out_deconv_final_up4"
  top: "out_deconv_final_up8"
  param {
    lr_mult: 0
    decay_mult: 0
  }
  convolution_param {
    num_output: 8
    bias_term: false
    pad: 1
    kernel_size: 4
    group: 8
    stride: 2
    weight_filler {
      type: "bilinear"
    }
  }
}
layer {
  name: "loss"
  type: "SoftmaxWithLoss"
  bottom: "out_deconv_final_up8"
  bottom: "label"
  top: "loss"
  propagate_down: true
  propagate_down: false
  loss_param {
    ignore_label: 255
    normalization: VALID
  }
}
layer {
  name: "accuracy/top1"
  type: "Accuracy"
  bottom: "out_deconv_final_up8"
  bottom: "label"
  top: "accuracy/top1"
  include {
    phase: TEST
  }
  accuracy_param {
    ignore_label: 255
  }
}
layer {
  name: "accuracy/top5"
  type: "Accuracy"
  bottom: "out_deconv_final_up8"
  bottom: "label"
  top: "accuracy/top5"
  include {
    phase: TEST
  }
  accuracy_param {
    top_k: 5
    ignore_label: 255
  }
}
I0703 03:51:00.149360 13473 layer_factory.hpp:77] Creating layer data
I0703 03:51:00.149436 13473 net.cpp:98] Creating Layer data
I0703 03:51:00.149461 13473 net.cpp:413] data -> data
I0703 03:51:00.149519 13473 net.cpp:413] data -> label
I0703 03:51:00.194471 13540 db_lmdb.cpp:35] Opened lmdb data/val-label-lmdb
I0703 03:51:00.211949 13535 db_lmdb.cpp:35] Opened lmdb data/val-image-lmdb
I0703 03:51:00.223580 13473 data_layer.cpp:78] ReshapePrefetch 4, 3, 640, 640
I0703 03:51:00.223628 13473 data_layer.cpp:83] output data size: 4,3,640,640
I0703 03:51:00.246518 13473 data_layer.cpp:78] ReshapePrefetch 4, 1, 640, 640
I0703 03:51:00.246562 13473 data_layer.cpp:83] output data size: 4,1,640,640
I0703 03:51:00.258579 13473 net.cpp:148] Setting up data
I0703 03:51:00.258683 13473 net.cpp:155] Top shape: 4 3 640 640 (4915200)
I0703 03:51:00.258710 13473 net.cpp:155] Top shape: 4 1 640 640 (1638400)
I0703 03:51:00.258721 13473 net.cpp:163] Memory required for data: 26214400
I0703 03:51:00.258751 13473 layer_factory.hpp:77] Creating layer label_data_1_split
I0703 03:51:00.258774 13473 net.cpp:98] Creating Layer label_data_1_split
I0703 03:51:00.258785 13473 net.cpp:439] label_data_1_split <- label
I0703 03:51:00.258805 13473 net.cpp:413] label_data_1_split -> label_data_1_split_0
I0703 03:51:00.258819 13473 net.cpp:413] label_data_1_split -> label_data_1_split_1
I0703 03:51:00.258829 13473 net.cpp:413] label_data_1_split -> label_data_1_split_2
I0703 03:51:00.258895 13473 net.cpp:148] Setting up label_data_1_split
I0703 03:51:00.258908 13473 net.cpp:155] Top shape: 4 1 640 640 (1638400)
I0703 03:51:00.258915 13473 net.cpp:155] Top shape: 4 1 640 640 (1638400)
I0703 03:51:00.258924 13473 net.cpp:155] Top shape: 4 1 640 640 (1638400)
I0703 03:51:00.258930 13473 net.cpp:163] Memory required for data: 45875200
I0703 03:51:00.258937 13473 layer_factory.hpp:77] Creating layer data/bias
I0703 03:51:00.258955 13473 net.cpp:98] Creating Layer data/bias
I0703 03:51:00.258963 13473 net.cpp:439] data/bias <- data
I0703 03:51:00.258971 13473 net.cpp:413] data/bias -> data/bias
I0703 03:51:00.260449 13473 net.cpp:148] Setting up data/bias
I0703 03:51:00.262441 13473 net.cpp:155] Top shape: 4 3 640 640 (4915200)
I0703 03:51:00.262456 13473 net.cpp:163] Memory required for data: 65536000
I0703 03:51:00.262491 13473 layer_factory.hpp:77] Creating layer conv1a
I0703 03:51:00.262637 13473 net.cpp:98] Creating Layer conv1a
I0703 03:51:00.262645 13473 net.cpp:439] conv1a <- data/bias
I0703 03:51:00.262657 13473 net.cpp:413] conv1a -> conv1a
I0703 03:51:00.264344 13473 net.cpp:148] Setting up conv1a
I0703 03:51:00.264364 13473 net.cpp:155] Top shape: 4 32 320 320 (13107200)
I0703 03:51:00.264369 13473 net.cpp:163] Memory required for data: 117964800
I0703 03:51:00.264379 13473 layer_factory.hpp:77] Creating layer conv1a/bn
I0703 03:51:00.264394 13473 net.cpp:98] Creating Layer conv1a/bn
I0703 03:51:00.264400 13473 net.cpp:439] conv1a/bn <- conv1a
I0703 03:51:00.264406 13473 net.cpp:413] conv1a/bn -> conv1a/bn
I0703 03:51:00.265760 13473 net.cpp:148] Setting up conv1a/bn
I0703 03:51:00.265777 13473 net.cpp:155] Top shape: 4 32 320 320 (13107200)
I0703 03:51:00.265781 13473 net.cpp:163] Memory required for data: 170393600
I0703 03:51:00.265794 13473 layer_factory.hpp:77] Creating layer conv1a/relu
I0703 03:51:00.265805 13473 net.cpp:98] Creating Layer conv1a/relu
I0703 03:51:00.265810 13473 net.cpp:439] conv1a/relu <- conv1a/bn
I0703 03:51:00.265816 13473 net.cpp:400] conv1a/relu -> conv1a/bn (in-place)
I0703 03:51:00.265836 13473 net.cpp:148] Setting up conv1a/relu
I0703 03:51:00.265841 13473 net.cpp:155] Top shape: 4 32 320 320 (13107200)
I0703 03:51:00.265843 13473 net.cpp:163] Memory required for data: 222822400
I0703 03:51:00.265846 13473 layer_factory.hpp:77] Creating layer conv1b
I0703 03:51:00.265858 13473 net.cpp:98] Creating Layer conv1b
I0703 03:51:00.265863 13473 net.cpp:439] conv1b <- conv1a/bn
I0703 03:51:00.265869 13473 net.cpp:413] conv1b -> conv1b
I0703 03:51:00.266203 13473 net.cpp:148] Setting up conv1b
I0703 03:51:00.266211 13473 net.cpp:155] Top shape: 4 32 320 320 (13107200)
I0703 03:51:00.266216 13473 net.cpp:163] Memory required for data: 275251200
I0703 03:51:00.266223 13473 layer_factory.hpp:77] Creating layer conv1b/bn
I0703 03:51:00.266232 13473 net.cpp:98] Creating Layer conv1b/bn
I0703 03:51:00.266235 13473 net.cpp:439] conv1b/bn <- conv1b
I0703 03:51:00.266242 13473 net.cpp:413] conv1b/bn -> conv1b/bn
I0703 03:51:00.266664 13473 net.cpp:148] Setting up conv1b/bn
I0703 03:51:00.266674 13473 net.cpp:155] Top shape: 4 32 320 320 (13107200)
I0703 03:51:00.266676 13473 net.cpp:163] Memory required for data: 327680000
I0703 03:51:00.266685 13473 layer_factory.hpp:77] Creating layer conv1b/relu
I0703 03:51:00.266691 13473 net.cpp:98] Creating Layer conv1b/relu
I0703 03:51:00.266695 13473 net.cpp:439] conv1b/relu <- conv1b/bn
I0703 03:51:00.266701 13473 net.cpp:400] conv1b/relu -> conv1b/bn (in-place)
I0703 03:51:00.266707 13473 net.cpp:148] Setting up conv1b/relu
I0703 03:51:00.266712 13473 net.cpp:155] Top shape: 4 32 320 320 (13107200)
I0703 03:51:00.266716 13473 net.cpp:163] Memory required for data: 380108800
I0703 03:51:00.266721 13473 layer_factory.hpp:77] Creating layer pool1
I0703 03:51:00.266729 13473 net.cpp:98] Creating Layer pool1
I0703 03:51:00.266734 13473 net.cpp:439] pool1 <- conv1b/bn
I0703 03:51:00.266739 13473 net.cpp:413] pool1 -> pool1
I0703 03:51:00.267161 13473 net.cpp:148] Setting up pool1
I0703 03:51:00.267179 13473 net.cpp:155] Top shape: 4 32 160 160 (3276800)
I0703 03:51:00.267185 13473 net.cpp:163] Memory required for data: 393216000
I0703 03:51:00.267191 13473 layer_factory.hpp:77] Creating layer res2a_branch2a
I0703 03:51:00.267201 13473 net.cpp:98] Creating Layer res2a_branch2a
I0703 03:51:00.267207 13473 net.cpp:439] res2a_branch2a <- pool1
I0703 03:51:00.267215 13473 net.cpp:413] res2a_branch2a -> res2a_branch2a
I0703 03:51:00.270045 13473 net.cpp:148] Setting up res2a_branch2a
I0703 03:51:00.270056 13473 net.cpp:155] Top shape: 4 64 160 160 (6553600)
I0703 03:51:00.270058 13473 net.cpp:163] Memory required for data: 419430400
I0703 03:51:00.270064 13473 layer_factory.hpp:77] Creating layer res2a_branch2a/bn
I0703 03:51:00.270071 13473 net.cpp:98] Creating Layer res2a_branch2a/bn
I0703 03:51:00.270072 13473 net.cpp:439] res2a_branch2a/bn <- res2a_branch2a
I0703 03:51:00.270076 13473 net.cpp:413] res2a_branch2a/bn -> res2a_branch2a/bn
I0703 03:51:00.271061 13473 net.cpp:148] Setting up res2a_branch2a/bn
I0703 03:51:00.271086 13473 net.cpp:155] Top shape: 4 64 160 160 (6553600)
I0703 03:51:00.271096 13473 net.cpp:163] Memory required for data: 445644800
I0703 03:51:00.271119 13473 layer_factory.hpp:77] Creating layer res2a_branch2a/relu
I0703 03:51:00.271136 13473 net.cpp:98] Creating Layer res2a_branch2a/relu
I0703 03:51:00.271143 13473 net.cpp:439] res2a_branch2a/relu <- res2a_branch2a/bn
I0703 03:51:00.271154 13473 net.cpp:400] res2a_branch2a/relu -> res2a_branch2a/bn (in-place)
I0703 03:51:00.271169 13473 net.cpp:148] Setting up res2a_branch2a/relu
I0703 03:51:00.271179 13473 net.cpp:155] Top shape: 4 64 160 160 (6553600)
I0703 03:51:00.271188 13473 net.cpp:163] Memory required for data: 471859200
I0703 03:51:00.271195 13473 layer_factory.hpp:77] Creating layer res2a_branch2b
I0703 03:51:00.271222 13473 net.cpp:98] Creating Layer res2a_branch2b
I0703 03:51:00.271231 13473 net.cpp:439] res2a_branch2b <- res2a_branch2a/bn
I0703 03:51:00.271244 13473 net.cpp:413] res2a_branch2b -> res2a_branch2b
I0703 03:51:00.275645 13473 net.cpp:148] Setting up res2a_branch2b
I0703 03:51:00.275749 13473 net.cpp:155] Top shape: 4 64 160 160 (6553600)
I0703 03:51:00.275777 13473 net.cpp:163] Memory required for data: 498073600
I0703 03:51:00.275810 13473 layer_factory.hpp:77] Creating layer res2a_branch2b/bn
I0703 03:51:00.275854 13473 net.cpp:98] Creating Layer res2a_branch2b/bn
I0703 03:51:00.275880 13473 net.cpp:439] res2a_branch2b/bn <- res2a_branch2b
I0703 03:51:00.275931 13473 net.cpp:413] res2a_branch2b/bn -> res2a_branch2b/bn
I0703 03:51:00.276547 13473 net.cpp:148] Setting up res2a_branch2b/bn
I0703 03:51:00.276563 13473 net.cpp:155] Top shape: 4 64 160 160 (6553600)
I0703 03:51:00.276572 13473 net.cpp:163] Memory required for data: 524288000
I0703 03:51:00.276587 13473 layer_factory.hpp:77] Creating layer res2a_branch2b/relu
I0703 03:51:00.276598 13473 net.cpp:98] Creating Layer res2a_branch2b/relu
I0703 03:51:00.276607 13473 net.cpp:439] res2a_branch2b/relu <- res2a_branch2b/bn
I0703 03:51:00.276617 13473 net.cpp:400] res2a_branch2b/relu -> res2a_branch2b/bn (in-place)
I0703 03:51:00.276629 13473 net.cpp:148] Setting up res2a_branch2b/relu
I0703 03:51:00.276639 13473 net.cpp:155] Top shape: 4 64 160 160 (6553600)
I0703 03:51:00.276664 13473 net.cpp:163] Memory required for data: 550502400
I0703 03:51:00.276680 13473 layer_factory.hpp:77] Creating layer pool2
I0703 03:51:00.276700 13473 net.cpp:98] Creating Layer pool2
I0703 03:51:00.276707 13473 net.cpp:439] pool2 <- res2a_branch2b/bn
I0703 03:51:00.276721 13473 net.cpp:413] pool2 -> pool2
I0703 03:51:00.276768 13473 net.cpp:148] Setting up pool2
I0703 03:51:00.276779 13473 net.cpp:155] Top shape: 4 64 80 80 (1638400)
I0703 03:51:00.276787 13473 net.cpp:163] Memory required for data: 557056000
I0703 03:51:00.276796 13473 layer_factory.hpp:77] Creating layer res3a_branch2a
I0703 03:51:00.276813 13473 net.cpp:98] Creating Layer res3a_branch2a
I0703 03:51:00.276820 13473 net.cpp:439] res3a_branch2a <- pool2
I0703 03:51:00.276830 13473 net.cpp:413] res3a_branch2a -> res3a_branch2a
I0703 03:51:00.286577 13473 net.cpp:148] Setting up res3a_branch2a
I0703 03:51:00.286682 13473 net.cpp:155] Top shape: 4 128 80 80 (3276800)
I0703 03:51:00.286695 13473 net.cpp:163] Memory required for data: 570163200
I0703 03:51:00.286715 13473 layer_factory.hpp:77] Creating layer res3a_branch2a/bn
I0703 03:51:00.286741 13473 net.cpp:98] Creating Layer res3a_branch2a/bn
I0703 03:51:00.286753 13473 net.cpp:439] res3a_branch2a/bn <- res3a_branch2a
I0703 03:51:00.286768 13473 net.cpp:413] res3a_branch2a/bn -> res3a_branch2a/bn
I0703 03:51:00.287569 13473 net.cpp:148] Setting up res3a_branch2a/bn
I0703 03:51:00.287578 13473 net.cpp:155] Top shape: 4 128 80 80 (3276800)
I0703 03:51:00.287581 13473 net.cpp:163] Memory required for data: 583270400
I0703 03:51:00.287592 13473 layer_factory.hpp:77] Creating layer res3a_branch2a/relu
I0703 03:51:00.287598 13473 net.cpp:98] Creating Layer res3a_branch2a/relu
I0703 03:51:00.287602 13473 net.cpp:439] res3a_branch2a/relu <- res3a_branch2a/bn
I0703 03:51:00.287607 13473 net.cpp:400] res3a_branch2a/relu -> res3a_branch2a/bn (in-place)
I0703 03:51:00.287621 13473 net.cpp:148] Setting up res3a_branch2a/relu
I0703 03:51:00.287624 13473 net.cpp:155] Top shape: 4 128 80 80 (3276800)
I0703 03:51:00.287627 13473 net.cpp:163] Memory required for data: 596377600
I0703 03:51:00.287631 13473 layer_factory.hpp:77] Creating layer res3a_branch2b
I0703 03:51:00.287639 13473 net.cpp:98] Creating Layer res3a_branch2b
I0703 03:51:00.287643 13473 net.cpp:439] res3a_branch2b <- res3a_branch2a/bn
I0703 03:51:00.287647 13473 net.cpp:413] res3a_branch2b -> res3a_branch2b
I0703 03:51:00.288902 13473 net.cpp:148] Setting up res3a_branch2b
I0703 03:51:00.288915 13473 net.cpp:155] Top shape: 4 128 80 80 (3276800)
I0703 03:51:00.288920 13473 net.cpp:163] Memory required for data: 609484800
I0703 03:51:00.288926 13473 layer_factory.hpp:77] Creating layer res3a_branch2b/bn
I0703 03:51:00.288938 13473 net.cpp:98] Creating Layer res3a_branch2b/bn
I0703 03:51:00.288941 13473 net.cpp:439] res3a_branch2b/bn <- res3a_branch2b
I0703 03:51:00.288956 13473 net.cpp:413] res3a_branch2b/bn -> res3a_branch2b/bn
I0703 03:51:00.290772 13473 net.cpp:148] Setting up res3a_branch2b/bn
I0703 03:51:00.290779 13473 net.cpp:155] Top shape: 4 128 80 80 (3276800)
I0703 03:51:00.290781 13473 net.cpp:163] Memory required for data: 622592000
I0703 03:51:00.290787 13473 layer_factory.hpp:77] Creating layer res3a_branch2b/relu
I0703 03:51:00.290791 13473 net.cpp:98] Creating Layer res3a_branch2b/relu
I0703 03:51:00.290792 13473 net.cpp:439] res3a_branch2b/relu <- res3a_branch2b/bn
I0703 03:51:00.290807 13473 net.cpp:400] res3a_branch2b/relu -> res3a_branch2b/bn (in-place)
I0703 03:51:00.290810 13473 net.cpp:148] Setting up res3a_branch2b/relu
I0703 03:51:00.290812 13473 net.cpp:155] Top shape: 4 128 80 80 (3276800)
I0703 03:51:00.290814 13473 net.cpp:163] Memory required for data: 635699200
I0703 03:51:00.290817 13473 layer_factory.hpp:77] Creating layer res3a_branch2b/bn_res3a_branch2b/relu_0_split
I0703 03:51:00.290822 13473 net.cpp:98] Creating Layer res3a_branch2b/bn_res3a_branch2b/relu_0_split
I0703 03:51:00.290824 13473 net.cpp:439] res3a_branch2b/bn_res3a_branch2b/relu_0_split <- res3a_branch2b/bn
I0703 03:51:00.290827 13473 net.cpp:413] res3a_branch2b/bn_res3a_branch2b/relu_0_split -> res3a_branch2b/bn_res3a_branch2b/relu_0_split_0
I0703 03:51:00.290830 13473 net.cpp:413] res3a_branch2b/bn_res3a_branch2b/relu_0_split -> res3a_branch2b/bn_res3a_branch2b/relu_0_split_1
I0703 03:51:00.290849 13473 net.cpp:148] Setting up res3a_branch2b/bn_res3a_branch2b/relu_0_split
I0703 03:51:00.290853 13473 net.cpp:155] Top shape: 4 128 80 80 (3276800)
I0703 03:51:00.290855 13473 net.cpp:155] Top shape: 4 128 80 80 (3276800)
I0703 03:51:00.290858 13473 net.cpp:163] Memory required for data: 661913600
I0703 03:51:00.290859 13473 layer_factory.hpp:77] Creating layer pool3
I0703 03:51:00.290864 13473 net.cpp:98] Creating Layer pool3
I0703 03:51:00.290866 13473 net.cpp:439] pool3 <- res3a_branch2b/bn_res3a_branch2b/relu_0_split_0
I0703 03:51:00.290869 13473 net.cpp:413] pool3 -> pool3
I0703 03:51:00.290889 13473 net.cpp:148] Setting up pool3
I0703 03:51:00.290892 13473 net.cpp:155] Top shape: 4 128 40 40 (819200)
I0703 03:51:00.290894 13473 net.cpp:163] Memory required for data: 665190400
I0703 03:51:00.290896 13473 layer_factory.hpp:77] Creating layer res4a_branch2a
I0703 03:51:00.290901 13473 net.cpp:98] Creating Layer res4a_branch2a
I0703 03:51:00.290904 13473 net.cpp:439] res4a_branch2a <- pool3
I0703 03:51:00.290907 13473 net.cpp:413] res4a_branch2a -> res4a_branch2a
I0703 03:51:00.299072 13473 net.cpp:148] Setting up res4a_branch2a
I0703 03:51:00.299098 13473 net.cpp:155] Top shape: 4 256 40 40 (1638400)
I0703 03:51:00.299100 13473 net.cpp:163] Memory required for data: 671744000
I0703 03:51:00.299109 13473 layer_factory.hpp:77] Creating layer res4a_branch2a/bn
I0703 03:51:00.299121 13473 net.cpp:98] Creating Layer res4a_branch2a/bn
I0703 03:51:00.299132 13473 net.cpp:439] res4a_branch2a/bn <- res4a_branch2a
I0703 03:51:00.299141 13473 net.cpp:413] res4a_branch2a/bn -> res4a_branch2a/bn
I0703 03:51:00.299533 13473 net.cpp:148] Setting up res4a_branch2a/bn
I0703 03:51:00.299541 13473 net.cpp:155] Top shape: 4 256 40 40 (1638400)
I0703 03:51:00.299545 13473 net.cpp:163] Memory required for data: 678297600
I0703 03:51:00.299551 13473 layer_factory.hpp:77] Creating layer res4a_branch2a/relu
I0703 03:51:00.299557 13473 net.cpp:98] Creating Layer res4a_branch2a/relu
I0703 03:51:00.299561 13473 net.cpp:439] res4a_branch2a/relu <- res4a_branch2a/bn
I0703 03:51:00.299564 13473 net.cpp:400] res4a_branch2a/relu -> res4a_branch2a/bn (in-place)
I0703 03:51:00.299571 13473 net.cpp:148] Setting up res4a_branch2a/relu
I0703 03:51:00.299574 13473 net.cpp:155] Top shape: 4 256 40 40 (1638400)
I0703 03:51:00.299578 13473 net.cpp:163] Memory required for data: 684851200
I0703 03:51:00.299582 13473 layer_factory.hpp:77] Creating layer res4a_branch2b
I0703 03:51:00.299589 13473 net.cpp:98] Creating Layer res4a_branch2b
I0703 03:51:00.299592 13473 net.cpp:439] res4a_branch2b <- res4a_branch2a/bn
I0703 03:51:00.299598 13473 net.cpp:413] res4a_branch2b -> res4a_branch2b
I0703 03:51:00.303418 13473 net.cpp:148] Setting up res4a_branch2b
I0703 03:51:00.303428 13473 net.cpp:155] Top shape: 4 256 40 40 (1638400)
I0703 03:51:00.303431 13473 net.cpp:163] Memory required for data: 691404800
I0703 03:51:00.303434 13473 layer_factory.hpp:77] Creating layer res4a_branch2b/bn
I0703 03:51:00.303439 13473 net.cpp:98] Creating Layer res4a_branch2b/bn
I0703 03:51:00.303442 13473 net.cpp:439] res4a_branch2b/bn <- res4a_branch2b
I0703 03:51:00.303453 13473 net.cpp:413] res4a_branch2b/bn -> res4a_branch2b/bn
I0703 03:51:00.303745 13473 net.cpp:148] Setting up res4a_branch2b/bn
I0703 03:51:00.303752 13473 net.cpp:155] Top shape: 4 256 40 40 (1638400)
I0703 03:51:00.303755 13473 net.cpp:163] Memory required for data: 697958400
I0703 03:51:00.303761 13473 layer_factory.hpp:77] Creating layer res4a_branch2b/relu
I0703 03:51:00.303764 13473 net.cpp:98] Creating Layer res4a_branch2b/relu
I0703 03:51:00.303767 13473 net.cpp:439] res4a_branch2b/relu <- res4a_branch2b/bn
I0703 03:51:00.303771 13473 net.cpp:400] res4a_branch2b/relu -> res4a_branch2b/bn (in-place)
I0703 03:51:00.303774 13473 net.cpp:148] Setting up res4a_branch2b/relu
I0703 03:51:00.303777 13473 net.cpp:155] Top shape: 4 256 40 40 (1638400)
I0703 03:51:00.303781 13473 net.cpp:163] Memory required for data: 704512000
I0703 03:51:00.303791 13473 layer_factory.hpp:77] Creating layer pool4
I0703 03:51:00.303795 13473 net.cpp:98] Creating Layer pool4
I0703 03:51:00.303798 13473 net.cpp:439] pool4 <- res4a_branch2b/bn
I0703 03:51:00.303800 13473 net.cpp:413] pool4 -> pool4
I0703 03:51:00.303820 13473 net.cpp:148] Setting up pool4
I0703 03:51:00.303824 13473 net.cpp:155] Top shape: 4 256 40 40 (1638400)
I0703 03:51:00.303827 13473 net.cpp:163] Memory required for data: 711065600
I0703 03:51:00.303828 13473 layer_factory.hpp:77] Creating layer res5a_branch2a
I0703 03:51:00.303834 13473 net.cpp:98] Creating Layer res5a_branch2a
I0703 03:51:00.303838 13473 net.cpp:439] res5a_branch2a <- pool4
I0703 03:51:00.303841 13473 net.cpp:413] res5a_branch2a -> res5a_branch2a
I0703 03:51:00.331609 13473 net.cpp:148] Setting up res5a_branch2a
I0703 03:51:00.331629 13473 net.cpp:155] Top shape: 4 512 40 40 (3276800)
I0703 03:51:00.331634 13473 net.cpp:163] Memory required for data: 724172800
I0703 03:51:00.331641 13473 layer_factory.hpp:77] Creating layer res5a_branch2a/bn
I0703 03:51:00.331652 13473 net.cpp:98] Creating Layer res5a_branch2a/bn
I0703 03:51:00.331658 13473 net.cpp:439] res5a_branch2a/bn <- res5a_branch2a
I0703 03:51:00.331665 13473 net.cpp:413] res5a_branch2a/bn -> res5a_branch2a/bn
I0703 03:51:00.332065 13473 net.cpp:148] Setting up res5a_branch2a/bn
I0703 03:51:00.332073 13473 net.cpp:155] Top shape: 4 512 40 40 (3276800)
I0703 03:51:00.332077 13473 net.cpp:163] Memory required for data: 737280000
I0703 03:51:00.332084 13473 layer_factory.hpp:77] Creating layer res5a_branch2a/relu
I0703 03:51:00.332089 13473 net.cpp:98] Creating Layer res5a_branch2a/relu
I0703 03:51:00.332094 13473 net.cpp:439] res5a_branch2a/relu <- res5a_branch2a/bn
I0703 03:51:00.332098 13473 net.cpp:400] res5a_branch2a/relu -> res5a_branch2a/bn (in-place)
I0703 03:51:00.332105 13473 net.cpp:148] Setting up res5a_branch2a/relu
I0703 03:51:00.332110 13473 net.cpp:155] Top shape: 4 512 40 40 (3276800)
I0703 03:51:00.332113 13473 net.cpp:163] Memory required for data: 750387200
I0703 03:51:00.332118 13473 layer_factory.hpp:77] Creating layer res5a_branch2b
I0703 03:51:00.332129 13473 net.cpp:98] Creating Layer res5a_branch2b
I0703 03:51:00.332132 13473 net.cpp:439] res5a_branch2b <- res5a_branch2a/bn
I0703 03:51:00.332139 13473 net.cpp:413] res5a_branch2b -> res5a_branch2b
I0703 03:51:00.345060 13473 net.cpp:148] Setting up res5a_branch2b
I0703 03:51:00.345089 13473 net.cpp:155] Top shape: 4 512 40 40 (3276800)
I0703 03:51:00.345093 13473 net.cpp:163] Memory required for data: 763494400
I0703 03:51:00.345103 13473 layer_factory.hpp:77] Creating layer res5a_branch2b/bn
I0703 03:51:00.345113 13473 net.cpp:98] Creating Layer res5a_branch2b/bn
I0703 03:51:00.345116 13473 net.cpp:439] res5a_branch2b/bn <- res5a_branch2b
I0703 03:51:00.345120 13473 net.cpp:413] res5a_branch2b/bn -> res5a_branch2b/bn
I0703 03:51:00.345451 13473 net.cpp:148] Setting up res5a_branch2b/bn
I0703 03:51:00.345459 13473 net.cpp:155] Top shape: 4 512 40 40 (3276800)
I0703 03:51:00.345463 13473 net.cpp:163] Memory required for data: 776601600
I0703 03:51:00.345470 13473 layer_factory.hpp:77] Creating layer res5a_branch2b/relu
I0703 03:51:00.345475 13473 net.cpp:98] Creating Layer res5a_branch2b/relu
I0703 03:51:00.345491 13473 net.cpp:439] res5a_branch2b/relu <- res5a_branch2b/bn
I0703 03:51:00.345499 13473 net.cpp:400] res5a_branch2b/relu -> res5a_branch2b/bn (in-place)
I0703 03:51:00.345510 13473 net.cpp:148] Setting up res5a_branch2b/relu
I0703 03:51:00.345515 13473 net.cpp:155] Top shape: 4 512 40 40 (3276800)
I0703 03:51:00.345520 13473 net.cpp:163] Memory required for data: 789708800
I0703 03:51:00.345525 13473 layer_factory.hpp:77] Creating layer out5a
I0703 03:51:00.345536 13473 net.cpp:98] Creating Layer out5a
I0703 03:51:00.345542 13473 net.cpp:439] out5a <- res5a_branch2b/bn
I0703 03:51:00.345549 13473 net.cpp:413] out5a -> out5a
I0703 03:51:00.350811 13473 net.cpp:148] Setting up out5a
I0703 03:51:00.350837 13473 net.cpp:155] Top shape: 4 64 40 40 (409600)
I0703 03:51:00.350841 13473 net.cpp:163] Memory required for data: 791347200
I0703 03:51:00.350849 13473 layer_factory.hpp:77] Creating layer out5a/bn
I0703 03:51:00.350859 13473 net.cpp:98] Creating Layer out5a/bn
I0703 03:51:00.350864 13473 net.cpp:439] out5a/bn <- out5a
I0703 03:51:00.350870 13473 net.cpp:413] out5a/bn -> out5a/bn
I0703 03:51:00.351330 13473 net.cpp:148] Setting up out5a/bn
I0703 03:51:00.351338 13473 net.cpp:155] Top shape: 4 64 40 40 (409600)
I0703 03:51:00.351341 13473 net.cpp:163] Memory required for data: 792985600
I0703 03:51:00.351351 13473 layer_factory.hpp:77] Creating layer out5a/relu
I0703 03:51:00.351356 13473 net.cpp:98] Creating Layer out5a/relu
I0703 03:51:00.351358 13473 net.cpp:439] out5a/relu <- out5a/bn
I0703 03:51:00.351362 13473 net.cpp:400] out5a/relu -> out5a/bn (in-place)
I0703 03:51:00.351368 13473 net.cpp:148] Setting up out5a/relu
I0703 03:51:00.351373 13473 net.cpp:155] Top shape: 4 64 40 40 (409600)
I0703 03:51:00.351377 13473 net.cpp:163] Memory required for data: 794624000
I0703 03:51:00.351379 13473 layer_factory.hpp:77] Creating layer out5a_up2
I0703 03:51:00.351385 13473 net.cpp:98] Creating Layer out5a_up2
I0703 03:51:00.351388 13473 net.cpp:439] out5a_up2 <- out5a/bn
I0703 03:51:00.351393 13473 net.cpp:413] out5a_up2 -> out5a_up2
I0703 03:51:00.351578 13473 net.cpp:148] Setting up out5a_up2
I0703 03:51:00.351585 13473 net.cpp:155] Top shape: 4 64 80 80 (1638400)
I0703 03:51:00.351588 13473 net.cpp:163] Memory required for data: 801177600
I0703 03:51:00.351593 13473 layer_factory.hpp:77] Creating layer out3a
I0703 03:51:00.351598 13473 net.cpp:98] Creating Layer out3a
I0703 03:51:00.351603 13473 net.cpp:439] out3a <- res3a_branch2b/bn_res3a_branch2b/relu_0_split_1
I0703 03:51:00.351606 13473 net.cpp:413] out3a -> out3a
I0703 03:51:00.352761 13473 net.cpp:148] Setting up out3a
I0703 03:51:00.352768 13473 net.cpp:155] Top shape: 4 64 80 80 (1638400)
I0703 03:51:00.352771 13473 net.cpp:163] Memory required for data: 807731200
I0703 03:51:00.352774 13473 layer_factory.hpp:77] Creating layer out3a/bn
I0703 03:51:00.352778 13473 net.cpp:98] Creating Layer out3a/bn
I0703 03:51:00.352782 13473 net.cpp:439] out3a/bn <- out3a
I0703 03:51:00.352784 13473 net.cpp:413] out3a/bn -> out3a/bn
I0703 03:51:00.353082 13473 net.cpp:148] Setting up out3a/bn
I0703 03:51:00.353087 13473 net.cpp:155] Top shape: 4 64 80 80 (1638400)
I0703 03:51:00.353090 13473 net.cpp:163] Memory required for data: 814284800
I0703 03:51:00.353094 13473 layer_factory.hpp:77] Creating layer out3a/relu
I0703 03:51:00.353097 13473 net.cpp:98] Creating Layer out3a/relu
I0703 03:51:00.353101 13473 net.cpp:439] out3a/relu <- out3a/bn
I0703 03:51:00.353102 13473 net.cpp:400] out3a/relu -> out3a/bn (in-place)
I0703 03:51:00.353106 13473 net.cpp:148] Setting up out3a/relu
I0703 03:51:00.353108 13473 net.cpp:155] Top shape: 4 64 80 80 (1638400)
I0703 03:51:00.353109 13473 net.cpp:163] Memory required for data: 820838400
I0703 03:51:00.353111 13473 layer_factory.hpp:77] Creating layer out3_out5_combined
I0703 03:51:00.353119 13473 net.cpp:98] Creating Layer out3_out5_combined
I0703 03:51:00.353122 13473 net.cpp:439] out3_out5_combined <- out5a_up2
I0703 03:51:00.353126 13473 net.cpp:439] out3_out5_combined <- out3a/bn
I0703 03:51:00.353137 13473 net.cpp:413] out3_out5_combined -> out3_out5_combined
I0703 03:51:00.353149 13473 net.cpp:148] Setting up out3_out5_combined
I0703 03:51:00.353152 13473 net.cpp:155] Top shape: 4 64 80 80 (1638400)
I0703 03:51:00.353154 13473 net.cpp:163] Memory required for data: 827392000
I0703 03:51:00.353157 13473 layer_factory.hpp:77] Creating layer ctx_conv1
I0703 03:51:00.353160 13473 net.cpp:98] Creating Layer ctx_conv1
I0703 03:51:00.353163 13473 net.cpp:439] ctx_conv1 <- out3_out5_combined
I0703 03:51:00.353165 13473 net.cpp:413] ctx_conv1 -> ctx_conv1
I0703 03:51:00.354020 13473 net.cpp:148] Setting up ctx_conv1
I0703 03:51:00.354025 13473 net.cpp:155] Top shape: 4 64 80 80 (1638400)
I0703 03:51:00.354027 13473 net.cpp:163] Memory required for data: 833945600
I0703 03:51:00.354030 13473 layer_factory.hpp:77] Creating layer ctx_conv1/bn
I0703 03:51:00.354034 13473 net.cpp:98] Creating Layer ctx_conv1/bn
I0703 03:51:00.354037 13473 net.cpp:439] ctx_conv1/bn <- ctx_conv1
I0703 03:51:00.354041 13473 net.cpp:413] ctx_conv1/bn -> ctx_conv1/bn
I0703 03:51:00.354333 13473 net.cpp:148] Setting up ctx_conv1/bn
I0703 03:51:00.354338 13473 net.cpp:155] Top shape: 4 64 80 80 (1638400)
I0703 03:51:00.354341 13473 net.cpp:163] Memory required for data: 840499200
I0703 03:51:00.354346 13473 layer_factory.hpp:77] Creating layer ctx_conv1/relu
I0703 03:51:00.354349 13473 net.cpp:98] Creating Layer ctx_conv1/relu
I0703 03:51:00.354352 13473 net.cpp:439] ctx_conv1/relu <- ctx_conv1/bn
I0703 03:51:00.354356 13473 net.cpp:400] ctx_conv1/relu -> ctx_conv1/bn (in-place)
I0703 03:51:00.354359 13473 net.cpp:148] Setting up ctx_conv1/relu
I0703 03:51:00.354362 13473 net.cpp:155] Top shape: 4 64 80 80 (1638400)
I0703 03:51:00.354364 13473 net.cpp:163] Memory required for data: 847052800
I0703 03:51:00.354367 13473 layer_factory.hpp:77] Creating layer ctx_conv2
I0703 03:51:00.354370 13473 net.cpp:98] Creating Layer ctx_conv2
I0703 03:51:00.354372 13473 net.cpp:439] ctx_conv2 <- ctx_conv1/bn
I0703 03:51:00.354375 13473 net.cpp:413] ctx_conv2 -> ctx_conv2
I0703 03:51:00.355245 13473 net.cpp:148] Setting up ctx_conv2
I0703 03:51:00.355250 13473 net.cpp:155] Top shape: 4 64 80 80 (1638400)
I0703 03:51:00.355252 13473 net.cpp:163] Memory required for data: 853606400
I0703 03:51:00.355257 13473 layer_factory.hpp:77] Creating layer ctx_conv2/bn
I0703 03:51:00.355260 13473 net.cpp:98] Creating Layer ctx_conv2/bn
I0703 03:51:00.355263 13473 net.cpp:439] ctx_conv2/bn <- ctx_conv2
I0703 03:51:00.355267 13473 net.cpp:413] ctx_conv2/bn -> ctx_conv2/bn
I0703 03:51:00.355556 13473 net.cpp:148] Setting up ctx_conv2/bn
I0703 03:51:00.355561 13473 net.cpp:155] Top shape: 4 64 80 80 (1638400)
I0703 03:51:00.355564 13473 net.cpp:163] Memory required for data: 860160000
I0703 03:51:00.355569 13473 layer_factory.hpp:77] Creating layer ctx_conv2/relu
I0703 03:51:00.355572 13473 net.cpp:98] Creating Layer ctx_conv2/relu
I0703 03:51:00.355576 13473 net.cpp:439] ctx_conv2/relu <- ctx_conv2/bn
I0703 03:51:00.355578 13473 net.cpp:400] ctx_conv2/relu -> ctx_conv2/bn (in-place)
I0703 03:51:00.355581 13473 net.cpp:148] Setting up ctx_conv2/relu
I0703 03:51:00.355584 13473 net.cpp:155] Top shape: 4 64 80 80 (1638400)
I0703 03:51:00.355587 13473 net.cpp:163] Memory required for data: 866713600
I0703 03:51:00.355589 13473 layer_factory.hpp:77] Creating layer ctx_conv3
I0703 03:51:00.355595 13473 net.cpp:98] Creating Layer ctx_conv3
I0703 03:51:00.355597 13473 net.cpp:439] ctx_conv3 <- ctx_conv2/bn
I0703 03:51:00.355600 13473 net.cpp:413] ctx_conv3 -> ctx_conv3
I0703 03:51:00.356457 13473 net.cpp:148] Setting up ctx_conv3
I0703 03:51:00.356462 13473 net.cpp:155] Top shape: 4 64 80 80 (1638400)
I0703 03:51:00.356464 13473 net.cpp:163] Memory required for data: 873267200
I0703 03:51:00.356468 13473 layer_factory.hpp:77] Creating layer ctx_conv3/bn
I0703 03:51:00.356472 13473 net.cpp:98] Creating Layer ctx_conv3/bn
I0703 03:51:00.356474 13473 net.cpp:439] ctx_conv3/bn <- ctx_conv3
I0703 03:51:00.356477 13473 net.cpp:413] ctx_conv3/bn -> ctx_conv3/bn
I0703 03:51:00.356775 13473 net.cpp:148] Setting up ctx_conv3/bn
I0703 03:51:00.356779 13473 net.cpp:155] Top shape: 4 64 80 80 (1638400)
I0703 03:51:00.356781 13473 net.cpp:163] Memory required for data: 879820800
I0703 03:51:00.356786 13473 layer_factory.hpp:77] Creating layer ctx_conv3/relu
I0703 03:51:00.356789 13473 net.cpp:98] Creating Layer ctx_conv3/relu
I0703 03:51:00.356792 13473 net.cpp:439] ctx_conv3/relu <- ctx_conv3/bn
I0703 03:51:00.356796 13473 net.cpp:400] ctx_conv3/relu -> ctx_conv3/bn (in-place)
I0703 03:51:00.356798 13473 net.cpp:148] Setting up ctx_conv3/relu
I0703 03:51:00.356801 13473 net.cpp:155] Top shape: 4 64 80 80 (1638400)
I0703 03:51:00.356804 13473 net.cpp:163] Memory required for data: 886374400
I0703 03:51:00.356806 13473 layer_factory.hpp:77] Creating layer ctx_conv4
I0703 03:51:00.356811 13473 net.cpp:98] Creating Layer ctx_conv4
I0703 03:51:00.356812 13473 net.cpp:439] ctx_conv4 <- ctx_conv3/bn
I0703 03:51:00.356817 13473 net.cpp:413] ctx_conv4 -> ctx_conv4
I0703 03:51:00.357671 13473 net.cpp:148] Setting up ctx_conv4
I0703 03:51:00.357676 13473 net.cpp:155] Top shape: 4 64 80 80 (1638400)
I0703 03:51:00.357678 13473 net.cpp:163] Memory required for data: 892928000
I0703 03:51:00.357681 13473 layer_factory.hpp:77] Creating layer ctx_conv4/bn
I0703 03:51:00.357686 13473 net.cpp:98] Creating Layer ctx_conv4/bn
I0703 03:51:00.357688 13473 net.cpp:439] ctx_conv4/bn <- ctx_conv4
I0703 03:51:00.357692 13473 net.cpp:413] ctx_conv4/bn -> ctx_conv4/bn
I0703 03:51:00.357988 13473 net.cpp:148] Setting up ctx_conv4/bn
I0703 03:51:00.357993 13473 net.cpp:155] Top shape: 4 64 80 80 (1638400)
I0703 03:51:00.357996 13473 net.cpp:163] Memory required for data: 899481600
I0703 03:51:00.358001 13473 layer_factory.hpp:77] Creating layer ctx_conv4/relu
I0703 03:51:00.358005 13473 net.cpp:98] Creating Layer ctx_conv4/relu
I0703 03:51:00.358007 13473 net.cpp:439] ctx_conv4/relu <- ctx_conv4/bn
I0703 03:51:00.358011 13473 net.cpp:400] ctx_conv4/relu -> ctx_conv4/bn (in-place)
I0703 03:51:00.358013 13473 net.cpp:148] Setting up ctx_conv4/relu
I0703 03:51:00.358016 13473 net.cpp:155] Top shape: 4 64 80 80 (1638400)
I0703 03:51:00.358018 13473 net.cpp:163] Memory required for data: 906035200
I0703 03:51:00.358021 13473 layer_factory.hpp:77] Creating layer ctx_final
I0703 03:51:00.358024 13473 net.cpp:98] Creating Layer ctx_final
I0703 03:51:00.358027 13473 net.cpp:439] ctx_final <- ctx_conv4/bn
I0703 03:51:00.358031 13473 net.cpp:413] ctx_final -> ctx_final
I0703 03:51:00.358258 13473 net.cpp:148] Setting up ctx_final
I0703 03:51:00.358263 13473 net.cpp:155] Top shape: 4 8 80 80 (204800)
I0703 03:51:00.358264 13473 net.cpp:163] Memory required for data: 906854400
I0703 03:51:00.358268 13473 layer_factory.hpp:77] Creating layer ctx_final/relu
I0703 03:51:00.358270 13473 net.cpp:98] Creating Layer ctx_final/relu
I0703 03:51:00.358273 13473 net.cpp:439] ctx_final/relu <- ctx_final
I0703 03:51:00.358276 13473 net.cpp:400] ctx_final/relu -> ctx_final (in-place)
I0703 03:51:00.358279 13473 net.cpp:148] Setting up ctx_final/relu
I0703 03:51:00.358283 13473 net.cpp:155] Top shape: 4 8 80 80 (204800)
I0703 03:51:00.358284 13473 net.cpp:163] Memory required for data: 907673600
I0703 03:51:00.358288 13473 layer_factory.hpp:77] Creating layer out_deconv_final_up2
I0703 03:51:00.358291 13473 net.cpp:98] Creating Layer out_deconv_final_up2
I0703 03:51:00.358294 13473 net.cpp:439] out_deconv_final_up2 <- ctx_final
I0703 03:51:00.358296 13473 net.cpp:413] out_deconv_final_up2 -> out_deconv_final_up2
I0703 03:51:00.358397 13473 net.cpp:148] Setting up out_deconv_final_up2
I0703 03:51:00.358402 13473 net.cpp:155] Top shape: 4 8 160 160 (819200)
I0703 03:51:00.358403 13473 net.cpp:163] Memory required for data: 910950400
I0703 03:51:00.358407 13473 layer_factory.hpp:77] Creating layer out_deconv_final_up4
I0703 03:51:00.358410 13473 net.cpp:98] Creating Layer out_deconv_final_up4
I0703 03:51:00.358413 13473 net.cpp:439] out_deconv_final_up4 <- out_deconv_final_up2
I0703 03:51:00.358417 13473 net.cpp:413] out_deconv_final_up4 -> out_deconv_final_up4
I0703 03:51:00.358517 13473 net.cpp:148] Setting up out_deconv_final_up4
I0703 03:51:00.358521 13473 net.cpp:155] Top shape: 4 8 320 320 (3276800)
I0703 03:51:00.358525 13473 net.cpp:163] Memory required for data: 924057600
I0703 03:51:00.358527 13473 layer_factory.hpp:77] Creating layer out_deconv_final_up8
I0703 03:51:00.358530 13473 net.cpp:98] Creating Layer out_deconv_final_up8
I0703 03:51:00.358533 13473 net.cpp:439] out_deconv_final_up8 <- out_deconv_final_up4
I0703 03:51:00.358536 13473 net.cpp:413] out_deconv_final_up8 -> out_deconv_final_up8
I0703 03:51:00.358629 13473 net.cpp:148] Setting up out_deconv_final_up8
I0703 03:51:00.358633 13473 net.cpp:155] Top shape: 4 8 640 640 (13107200)
I0703 03:51:00.358635 13473 net.cpp:163] Memory required for data: 976486400
I0703 03:51:00.358639 13473 layer_factory.hpp:77] Creating layer out_deconv_final_up8_out_deconv_final_up8_0_split
I0703 03:51:00.358641 13473 net.cpp:98] Creating Layer out_deconv_final_up8_out_deconv_final_up8_0_split
I0703 03:51:00.358644 13473 net.cpp:439] out_deconv_final_up8_out_deconv_final_up8_0_split <- out_deconv_final_up8
I0703 03:51:00.358647 13473 net.cpp:413] out_deconv_final_up8_out_deconv_final_up8_0_split -> out_deconv_final_up8_out_deconv_final_up8_0_split_0
I0703 03:51:00.358650 13473 net.cpp:413] out_deconv_final_up8_out_deconv_final_up8_0_split -> out_deconv_final_up8_out_deconv_final_up8_0_split_1
I0703 03:51:00.358654 13473 net.cpp:413] out_deconv_final_up8_out_deconv_final_up8_0_split -> out_deconv_final_up8_out_deconv_final_up8_0_split_2
I0703 03:51:00.358677 13473 net.cpp:148] Setting up out_deconv_final_up8_out_deconv_final_up8_0_split
I0703 03:51:00.358681 13473 net.cpp:155] Top shape: 4 8 640 640 (13107200)
I0703 03:51:00.358683 13473 net.cpp:155] Top shape: 4 8 640 640 (13107200)
I0703 03:51:00.358686 13473 net.cpp:155] Top shape: 4 8 640 640 (13107200)
I0703 03:51:00.358688 13473 net.cpp:163] Memory required for data: 1133772800
I0703 03:51:00.358690 13473 layer_factory.hpp:77] Creating layer loss
I0703 03:51:00.358698 13473 net.cpp:98] Creating Layer loss
I0703 03:51:00.358701 13473 net.cpp:439] loss <- out_deconv_final_up8_out_deconv_final_up8_0_split_0
I0703 03:51:00.358705 13473 net.cpp:439] loss <- label_data_1_split_0
…
