…
I0701 14:51:50.732460  1052 net.cpp:327] The NetState phase (0) differed from the phase (1) specified by a rule in layer accuracy/top1
I0701 14:51:50.732466  1052 net.cpp:327] The NetState phase (0) differed from the phase (1) specified by a rule in layer accuracy/top5
I0701 14:51:50.732677  1052 net.cpp:56] Initializing net from parameters: 
name: "jacintonet11v2_train"
state {
  phase: TRAIN
}
layer {
  name: "data"
  type: "Data"
  top: "data"
  top: "label"
  transform_param {
    mirror: true
    crop_size: 32
    mean_value: 0
    mean_value: 0
    mean_value: 0
  }
  data_param {
    source: "./data/cifar10_train_lmdb"
    batch_size: 21
    backend: LMDB
    threads: 1
  }
}
layer {
  name: "data/bias"
  type: "Bias"
  bottom: "data"
  top: "data/bias"
  param {
    lr_mult: 0
    decay_mult: 0
  }
  bias_param {
    filler {
      type: "constant"
      value: -128
    }
  }
}
layer {
  name: "conv1a"
  type: "Convolution"
  bottom: "data/bias"
  top: "conv1a"
  param {
    lr_mult: 1
    decay_mult: 1
  }
  param {
    lr_mult: 2
    decay_mult: 0
  }
  convolution_param {
    num_output: 32
    bias_term: true
    pad: 2
    kernel_size: 5
    group: 1
    stride: 1
    weight_filler {
      type: "msra"
    }
    bias_filler {
      type: "constant"
      value: 0
    }
    dilation: 1
  }
}
layer {
  name: "conv1a/bn"
  type: "BatchNorm"
  bottom: "conv1a"
  top: "conv1a/bn"
  param {
    lr_mult: 1
    decay_mult: 1
  }
  param {
    lr_mult: 1
    decay_mult: 1
  }
  param {
    lr_mult: 0
    decay_mult: 0
  }
  param {
    lr_mult: 0
    decay_mult: 0
  }
  batch_norm_param {
    moving_average_fraction: 0.99
    eps: 0.0001
    scale_filler {
      type: "constant"
      value: 1
    }
    bias_filler {
      type: "constant"
      value: 0
    }
  }
}
layer {
  name: "conv1a/relu"
  type: "ReLU"
  bottom: "conv1a/bn"
  top: "conv1a/bn"
}
layer {
  name: "conv1b"
  type: "Convolution"
  bottom: "conv1a/bn"
  top: "conv1b"
  param {
    lr_mult: 1
    decay_mult: 1
  }
  param {
    lr_mult: 2
    decay_mult: 0
  }
  convolution_param {
    num_output: 32
    bias_term: true
    pad: 1
    kernel_size: 3
    group: 4
    stride: 1
    weight_filler {
      type: "msra"
    }
    bias_filler {
      type: "constant"
      value: 0
    }
    dilation: 1
  }
}
layer {
  name: "conv1b/bn"
  type: "BatchNorm"
  bottom: "conv1b"
  top: "conv1b/bn"
  param {
    lr_mult: 1
    decay_mult: 1
  }
  param {
    lr_mult: 1
    decay_mult: 1
  }
  param {
    lr_mult: 0
    decay_mult: 0
  }
  param {
    lr_mult: 0
    decay_mult: 0
  }
  batch_norm_param {
    moving_average_fraction: 0.99
    eps: 0.0001
    scale_filler {
      type: "constant"
      value: 1
    }
    bias_filler {
      type: "constant"
      value: 0
    }
  }
}
layer {
  name: "conv1b/relu"
  type: "ReLU"
  bottom: "conv1b/bn"
  top: "conv1b/bn"
}
layer {
  name: "pool1"
  type: "Pooling"
  bottom: "conv1b/bn"
  top: "pool1"
  pooling_param {
    pool: MAX
    kernel_size: 1
    stride: 1
  }
}
layer {
  name: "res2a_branch2a"
  type: "Convolution"
  bottom: "pool1"
  top: "res2a_branch2a"
  param {
    lr_mult: 1
    decay_mult: 1
  }
  param {
    lr_mult: 2
    decay_mult: 0
  }
  convolution_param {
    num_output: 64
    bias_term: true
    pad: 1
    kernel_size: 3
    group: 1
    stride: 1
    weight_filler {
      type: "msra"
    }
    bias_filler {
      type: "constant"
      value: 0
    }
    dilation: 1
  }
}
layer {
  name: "res2a_branch2a/bn"
  type: "BatchNorm"
  bottom: "res2a_branch2a"
  top: "res2a_branch2a/bn"
  param {
    lr_mult: 1
    decay_mult: 1
  }
  param {
    lr_mult: 1
    decay_mult: 1
  }
  param {
    lr_mult: 0
    decay_mult: 0
  }
  param {
    lr_mult: 0
    decay_mult: 0
  }
  batch_norm_param {
    moving_average_fraction: 0.99
    eps: 0.0001
    scale_filler {
      type: "constant"
      value: 1
    }
    bias_filler {
      type: "constant"
      value: 0
    }
  }
}
layer {
  name: "res2a_branch2a/relu"
  type: "ReLU"
  bottom: "res2a_branch2a/bn"
  top: "res2a_branch2a/bn"
}
layer {
  name: "res2a_branch2b"
  type: "Convolution"
  bottom: "res2a_branch2a/bn"
  top: "res2a_branch2b"
  param {
    lr_mult: 1
    decay_mult: 1
  }
  param {
    lr_mult: 2
    decay_mult: 0
  }
  convolution_param {
    num_output: 64
    bias_term: true
    pad: 1
    kernel_size: 3
    group: 4
    stride: 1
    weight_filler {
      type: "msra"
    }
    bias_filler {
      type: "constant"
      value: 0
    }
    dilation: 1
  }
}
layer {
  name: "res2a_branch2b/bn"
  type: "BatchNorm"
  bottom: "res2a_branch2b"
  top: "res2a_branch2b/bn"
  param {
    lr_mult: 1
    decay_mult: 1
  }
  param {
    lr_mult: 1
    decay_mult: 1
  }
  param {
    lr_mult: 0
    decay_mult: 0
  }
  param {
    lr_mult: 0
    decay_mult: 0
  }
  batch_norm_param {
    moving_average_fraction: 0.99
    eps: 0.0001
    scale_filler {
      type: "constant"
      value: 1
    }
    bias_filler {
      type: "constant"
      value: 0
    }
  }
}
layer {
  name: "res2a_branch2b/relu"
  type: "ReLU"
  bottom: "res2a_branch2b/bn"
  top: "res2a_branch2b/bn"
}
layer {
  name: "pool2"
  type: "Pooling"
  bottom: "res2a_branch2b/bn"
  top: "pool2"
  pooling_param {
    pool: MAX
    kernel_size: 2
    stride: 2
  }
}
layer {
  name: "res3a_branch2a"
  type: "Convolution"
  bottom: "pool2"
  top: "res3a_branch2a"
  param {
    lr_mult: 1
    decay_mult: 1
  }
  param {
    lr_mult: 2
    decay_mult: 0
  }
  convolution_param {
    num_output: 128
    bias_term: true
    pad: 1
    kernel_size: 3
    group: 1
    stride: 1
    weight_filler {
      type: "msra"
    }
    bias_filler {
      type: "constant"
      value: 0
    }
    dilation: 1
  }
}
layer {
  name: "res3a_branch2a/bn"
  type: "BatchNorm"
  bottom: "res3a_branch2a"
  top: "res3a_branch2a/bn"
  param {
    lr_mult: 1
    decay_mult: 1
  }
  param {
    lr_mult: 1
    decay_mult: 1
  }
  param {
    lr_mult: 0
    decay_mult: 0
  }
  param {
    lr_mult: 0
    decay_mult: 0
  }
  batch_norm_param {
    moving_average_fraction: 0.99
    eps: 0.0001
    scale_filler {
      type: "constant"
      value: 1
    }
    bias_filler {
      type: "constant"
      value: 0
    }
  }
}
layer {
  name: "res3a_branch2a/relu"
  type: "ReLU"
  bottom: "res3a_branch2a/bn"
  top: "res3a_branch2a/bn"
}
layer {
  name: "res3a_branch2b"
  type: "Convolution"
  bottom: "res3a_branch2a/bn"
  top: "res3a_branch2b"
  param {
    lr_mult: 1
    decay_mult: 1
  }
  param {
    lr_mult: 2
    decay_mult: 0
  }
  convolution_param {
    num_output: 128
    bias_term: true
    pad: 1
    kernel_size: 3
    group: 4
    stride: 1
    weight_filler {
      type: "msra"
    }
    bias_filler {
      type: "constant"
      value: 0
    }
    dilation: 1
  }
}
layer {
  name: "res3a_branch2b/bn"
  type: "BatchNorm"
  bottom: "res3a_branch2b"
  top: "res3a_branch2b/bn"
  param {
    lr_mult: 1
    decay_mult: 1
  }
  param {
    lr_mult: 1
    decay_mult: 1
  }
  param {
    lr_mult: 0
    decay_mult: 0
  }
  param {
    lr_mult: 0
    decay_mult: 0
  }
  batch_norm_param {
    moving_average_fraction: 0.99
    eps: 0.0001
    scale_filler {
      type: "constant"
      value: 1
    }
    bias_filler {
      type: "constant"
      value: 0
    }
  }
}
layer {
  name: "res3a_branch2b/relu"
  type: "ReLU"
  bottom: "res3a_branch2b/bn"
  top: "res3a_branch2b/bn"
}
layer {
  name: "pool3"
  type: "Pooling"
  bottom: "res3a_branch2b/bn"
  top: "pool3"
  pooling_param {
    pool: MAX
    kernel_size: 1
    stride: 1
  }
}
layer {
  name: "res4a_branch2a"
  type: "Convolution"
  bottom: "pool3"
  top: "res4a_branch2a"
  param {
    lr_mult: 1
    decay_mult: 1
  }
  param {
    lr_mult: 2
    decay_mult: 0
  }
  convolution_param {
    num_output: 256
    bias_term: true
    pad: 1
    kernel_size: 3
    group: 1
    stride: 1
    weight_filler {
      type: "msra"
    }
    bias_filler {
      type: "constant"
      value: 0
    }
    dilation: 1
  }
}
layer {
  name: "res4a_branch2a/bn"
  type: "BatchNorm"
  bottom: "res4a_branch2a"
  top: "res4a_branch2a/bn"
  param {
    lr_mult: 1
    decay_mult: 1
  }
  param {
    lr_mult: 1
    decay_mult: 1
  }
  param {
    lr_mult: 0
    decay_mult: 0
  }
  param {
    lr_mult: 0
    decay_mult: 0
  }
  batch_norm_param {
    moving_average_fraction: 0.99
    eps: 0.0001
    scale_filler {
      type: "constant"
      value: 1
    }
    bias_filler {
      type: "constant"
      value: 0
    }
  }
}
layer {
  name: "res4a_branch2a/relu"
  type: "ReLU"
  bottom: "res4a_branch2a/bn"
  top: "res4a_branch2a/bn"
}
layer {
  name: "res4a_branch2b"
  type: "Convolution"
  bottom: "res4a_branch2a/bn"
  top: "res4a_branch2b"
  param {
    lr_mult: 1
    decay_mult: 1
  }
  param {
    lr_mult: 2
    decay_mult: 0
  }
  convolution_param {
    num_output: 256
    bias_term: true
    pad: 1
    kernel_size: 3
    group: 4
    stride: 1
    weight_filler {
      type: "msra"
    }
    bias_filler {
      type: "constant"
      value: 0
    }
    dilation: 1
  }
}
layer {
  name: "res4a_branch2b/bn"
  type: "BatchNorm"
  bottom: "res4a_branch2b"
  top: "res4a_branch2b/bn"
  param {
    lr_mult: 1
    decay_mult: 1
  }
  param {
    lr_mult: 1
    decay_mult: 1
  }
  param {
    lr_mult: 0
    decay_mult: 0
  }
  param {
    lr_mult: 0
    decay_mult: 0
  }
  batch_norm_param {
    moving_average_fraction: 0.99
    eps: 0.0001
    scale_filler {
      type: "constant"
      value: 1
    }
    bias_filler {
      type: "constant"
      value: 0
    }
  }
}
layer {
  name: "res4a_branch2b/relu"
  type: "ReLU"
  bottom: "res4a_branch2b/bn"
  top: "res4a_branch2b/bn"
}
layer {
  name: "pool4"
  type: "Pooling"
  bottom: "res4a_branch2b/bn"
  top: "pool4"
  pooling_param {
    pool: MAX
    kernel_size: 2
    stride: 2
  }
}
layer {
  name: "res5a_branch2a"
  type: "Convolution"
  bottom: "pool4"
  top: "res5a_branch2a"
  param {
    lr_mult: 1
    decay_mult: 1
  }
  param {
    lr_mult: 2
    decay_mult: 0
  }
  convolution_param {
    num_output: 512
    bias_term: true
    pad: 1
    kernel_size: 3
    group: 1
    stride: 1
    weight_filler {
      type: "msra"
    }
    bias_filler {
      type: "constant"
      value: 0
    }
    dilation: 1
  }
}
layer {
  name: "res5a_branch2a/bn"
  type: "BatchNorm"
  bottom: "res5a_branch2a"
  top: "res5a_branch2a/bn"
  param {
    lr_mult: 1
    decay_mult: 1
  }
  param {
    lr_mult: 1
    decay_mult: 1
  }
  param {
    lr_mult: 0
    decay_mult: 0
  }
  param {
    lr_mult: 0
    decay_mult: 0
  }
  batch_norm_param {
    moving_average_fraction: 0.99
    eps: 0.0001
    scale_filler {
      type: "constant"
      value: 1
    }
    bias_filler {
      type: "constant"
      value: 0
    }
  }
}
layer {
  name: "res5a_branch2a/relu"
  type: "ReLU"
  bottom: "res5a_branch2a/bn"
  top: "res5a_branch2a/bn"
}
layer {
  name: "res5a_branch2b"
  type: "Convolution"
  bottom: "res5a_branch2a/bn"
  top: "res5a_branch2b"
  param {
    lr_mult: 1
    decay_mult: 1
  }
  param {
    lr_mult: 2
    decay_mult: 0
  }
  convolution_param {
    num_output: 512
    bias_term: true
    pad: 1
    kernel_size: 3
    group: 4
    stride: 1
    weight_filler {
      type: "msra"
    }
    bias_filler {
      type: "constant"
      value: 0
    }
    dilation: 1
  }
}
layer {
  name: "res5a_branch2b/bn"
  type: "BatchNorm"
  bottom: "res5a_branch2b"
  top: "res5a_branch2b/bn"
  param {
    lr_mult: 1
    decay_mult: 1
  }
  param {
    lr_mult: 1
    decay_mult: 1
  }
  param {
    lr_mult: 0
    decay_mult: 0
  }
  param {
    lr_mult: 0
    decay_mult: 0
  }
  batch_norm_param {
    moving_average_fraction: 0.99
    eps: 0.0001
    scale_filler {
      type: "constant"
      value: 1
    }
    bias_filler {
      type: "constant"
      value: 0
    }
  }
}
layer {
  name: "res5a_branch2b/relu"
  type: "ReLU"
  bottom: "res5a_branch2b/bn"
  top: "res5a_branch2b/bn"
}
layer {
  name: "pool5"
  type: "Pooling"
  bottom: "res5a_branch2b/bn"
  top: "pool5"
  pooling_param {
    pool: AVE
    global_pooling: true
  }
}
layer {
  name: "fc10"
  type: "InnerProduct"
  bottom: "pool5"
  top: "fc10"
  param {
    lr_mult: 1
    decay_mult: 1
  }
  param {
    lr_mult: 2
    decay_mult: 0
  }
  inner_product_param {
    num_output: 10
    weight_filler {
      type: "msra"
    }
    bias_filler {
      type: "constant"
      value: 0
    }
  }
}
layer {
  name: "loss"
  type: "SoftmaxWithLoss"
  bottom: "fc10"
  bottom: "label"
  top: "loss"
  propagate_down: true
  propagate_down: false
}
I0701 14:51:50.732796  1052 layer_factory.hpp:77] Creating layer data
I0701 14:51:50.732899  1052 net.cpp:98] Creating Layer data
I0701 14:51:50.732908  1052 net.cpp:413] data -> data
I0701 14:51:50.732928  1052 net.cpp:413] data -> label
I0701 14:51:50.733999  1083 db_lmdb.cpp:35] Opened lmdb ./data/cifar10_train_lmdb
I0701 14:51:50.747509  1052 data_layer.cpp:78] ReshapePrefetch 21, 3, 32, 32
I0701 14:51:50.747568  1052 data_layer.cpp:83] output data size: 21,3,32,32
I0701 14:51:50.749172  1052 net.cpp:148] Setting up data
I0701 14:51:50.749184  1052 net.cpp:155] Top shape: 21 3 32 32 (64512)
I0701 14:51:50.749187  1052 net.cpp:155] Top shape: 21 (21)
I0701 14:51:50.749189  1052 net.cpp:163] Memory required for data: 258132
I0701 14:51:50.749197  1052 layer_factory.hpp:77] Creating layer data/bias
I0701 14:51:50.749207  1052 net.cpp:98] Creating Layer data/bias
I0701 14:51:50.749210  1052 net.cpp:439] data/bias <- data
I0701 14:51:50.749217  1052 net.cpp:413] data/bias -> data/bias
I0701 14:51:50.750185  1052 net.cpp:148] Setting up data/bias
I0701 14:51:50.750195  1052 net.cpp:155] Top shape: 21 3 32 32 (64512)
I0701 14:51:50.750198  1052 net.cpp:163] Memory required for data: 516180
I0701 14:51:50.750206  1052 layer_factory.hpp:77] Creating layer conv1a
I0701 14:51:50.750214  1052 net.cpp:98] Creating Layer conv1a
I0701 14:51:50.750217  1052 net.cpp:439] conv1a <- data/bias
I0701 14:51:50.750221  1052 net.cpp:413] conv1a -> conv1a
I0701 14:51:50.750473  1085 blocking_queue.cpp:50] Waiting for data
I0701 14:51:50.751502  1052 net.cpp:148] Setting up conv1a
I0701 14:51:50.751512  1052 net.cpp:155] Top shape: 21 32 32 32 (688128)
I0701 14:51:50.751514  1052 net.cpp:163] Memory required for data: 3268692
I0701 14:51:50.751518  1052 layer_factory.hpp:77] Creating layer conv1a/bn
I0701 14:51:50.751525  1052 net.cpp:98] Creating Layer conv1a/bn
I0701 14:51:50.751528  1052 net.cpp:439] conv1a/bn <- conv1a
I0701 14:51:50.751530  1052 net.cpp:413] conv1a/bn -> conv1a/bn
I0701 14:51:50.752204  1052 net.cpp:148] Setting up conv1a/bn
I0701 14:51:50.752210  1052 net.cpp:155] Top shape: 21 32 32 32 (688128)
I0701 14:51:50.752213  1052 net.cpp:163] Memory required for data: 6021204
I0701 14:51:50.752218  1052 layer_factory.hpp:77] Creating layer conv1a/relu
I0701 14:51:50.752223  1052 net.cpp:98] Creating Layer conv1a/relu
I0701 14:51:50.752225  1052 net.cpp:439] conv1a/relu <- conv1a/bn
I0701 14:51:50.752228  1052 net.cpp:400] conv1a/relu -> conv1a/bn (in-place)
I0701 14:51:50.752236  1052 net.cpp:148] Setting up conv1a/relu
I0701 14:51:50.752239  1052 net.cpp:155] Top shape: 21 32 32 32 (688128)
I0701 14:51:50.752249  1052 net.cpp:163] Memory required for data: 8773716
I0701 14:51:50.752252  1052 layer_factory.hpp:77] Creating layer conv1b
I0701 14:51:50.752256  1052 net.cpp:98] Creating Layer conv1b
I0701 14:51:50.752259  1052 net.cpp:439] conv1b <- conv1a/bn
I0701 14:51:50.752261  1052 net.cpp:413] conv1b -> conv1b
I0701 14:51:50.752581  1052 net.cpp:148] Setting up conv1b
I0701 14:51:50.752586  1052 net.cpp:155] Top shape: 21 32 32 32 (688128)
I0701 14:51:50.752588  1052 net.cpp:163] Memory required for data: 11526228
I0701 14:51:50.752593  1052 layer_factory.hpp:77] Creating layer conv1b/bn
I0701 14:51:50.752596  1052 net.cpp:98] Creating Layer conv1b/bn
I0701 14:51:50.752599  1052 net.cpp:439] conv1b/bn <- conv1b
I0701 14:51:50.752600  1052 net.cpp:413] conv1b/bn -> conv1b/bn
I0701 14:51:50.753248  1052 net.cpp:148] Setting up conv1b/bn
I0701 14:51:50.753253  1052 net.cpp:155] Top shape: 21 32 32 32 (688128)
I0701 14:51:50.753255  1052 net.cpp:163] Memory required for data: 14278740
I0701 14:51:50.753260  1052 layer_factory.hpp:77] Creating layer conv1b/relu
I0701 14:51:50.753263  1052 net.cpp:98] Creating Layer conv1b/relu
I0701 14:51:50.753265  1052 net.cpp:439] conv1b/relu <- conv1b/bn
I0701 14:51:50.753268  1052 net.cpp:400] conv1b/relu -> conv1b/bn (in-place)
I0701 14:51:50.753271  1052 net.cpp:148] Setting up conv1b/relu
I0701 14:51:50.753274  1052 net.cpp:155] Top shape: 21 32 32 32 (688128)
I0701 14:51:50.753276  1052 net.cpp:163] Memory required for data: 17031252
I0701 14:51:50.753278  1052 layer_factory.hpp:77] Creating layer pool1
I0701 14:51:50.753283  1052 net.cpp:98] Creating Layer pool1
I0701 14:51:50.753285  1052 net.cpp:439] pool1 <- conv1b/bn
I0701 14:51:50.753288  1052 net.cpp:413] pool1 -> pool1
I0701 14:51:50.753329  1052 net.cpp:148] Setting up pool1
I0701 14:51:50.753334  1052 net.cpp:155] Top shape: 21 32 32 32 (688128)
I0701 14:51:50.753334  1052 net.cpp:163] Memory required for data: 19783764
I0701 14:51:50.753336  1052 layer_factory.hpp:77] Creating layer res2a_branch2a
I0701 14:51:50.753340  1052 net.cpp:98] Creating Layer res2a_branch2a
I0701 14:51:50.753342  1052 net.cpp:439] res2a_branch2a <- pool1
I0701 14:51:50.753345  1052 net.cpp:413] res2a_branch2a -> res2a_branch2a
I0701 14:51:50.753983  1052 net.cpp:148] Setting up res2a_branch2a
I0701 14:51:50.753988  1052 net.cpp:155] Top shape: 21 64 32 32 (1376256)
I0701 14:51:50.753990  1052 net.cpp:163] Memory required for data: 25288788
I0701 14:51:50.753995  1052 layer_factory.hpp:77] Creating layer res2a_branch2a/bn
I0701 14:51:50.753998  1052 net.cpp:98] Creating Layer res2a_branch2a/bn
I0701 14:51:50.754000  1052 net.cpp:439] res2a_branch2a/bn <- res2a_branch2a
I0701 14:51:50.754004  1052 net.cpp:413] res2a_branch2a/bn -> res2a_branch2a/bn
I0701 14:51:50.754672  1052 net.cpp:148] Setting up res2a_branch2a/bn
I0701 14:51:50.754679  1052 net.cpp:155] Top shape: 21 64 32 32 (1376256)
I0701 14:51:50.754681  1052 net.cpp:163] Memory required for data: 30793812
I0701 14:51:50.754686  1052 layer_factory.hpp:77] Creating layer res2a_branch2a/relu
I0701 14:51:50.754690  1052 net.cpp:98] Creating Layer res2a_branch2a/relu
I0701 14:51:50.754693  1052 net.cpp:439] res2a_branch2a/relu <- res2a_branch2a/bn
I0701 14:51:50.754695  1052 net.cpp:400] res2a_branch2a/relu -> res2a_branch2a/bn (in-place)
I0701 14:51:50.754700  1052 net.cpp:148] Setting up res2a_branch2a/relu
I0701 14:51:50.754703  1052 net.cpp:155] Top shape: 21 64 32 32 (1376256)
I0701 14:51:50.754705  1052 net.cpp:163] Memory required for data: 36298836
I0701 14:51:50.754707  1052 layer_factory.hpp:77] Creating layer res2a_branch2b
I0701 14:51:50.754712  1052 net.cpp:98] Creating Layer res2a_branch2b
I0701 14:51:50.754715  1052 net.cpp:439] res2a_branch2b <- res2a_branch2a/bn
I0701 14:51:50.754721  1052 net.cpp:413] res2a_branch2b -> res2a_branch2b
I0701 14:51:50.756182  1052 net.cpp:148] Setting up res2a_branch2b
I0701 14:51:50.756202  1052 net.cpp:155] Top shape: 21 64 32 32 (1376256)
I0701 14:51:50.756204  1052 net.cpp:163] Memory required for data: 41803860
I0701 14:51:50.756223  1052 layer_factory.hpp:77] Creating layer res2a_branch2b/bn
I0701 14:51:50.756232  1052 net.cpp:98] Creating Layer res2a_branch2b/bn
I0701 14:51:50.756235  1052 net.cpp:439] res2a_branch2b/bn <- res2a_branch2b
I0701 14:51:50.756240  1052 net.cpp:413] res2a_branch2b/bn -> res2a_branch2b/bn
I0701 14:51:50.756942  1052 net.cpp:148] Setting up res2a_branch2b/bn
I0701 14:51:50.756950  1052 net.cpp:155] Top shape: 21 64 32 32 (1376256)
I0701 14:51:50.756953  1052 net.cpp:163] Memory required for data: 47308884
I0701 14:51:50.756958  1052 layer_factory.hpp:77] Creating layer res2a_branch2b/relu
I0701 14:51:50.756961  1052 net.cpp:98] Creating Layer res2a_branch2b/relu
I0701 14:51:50.756963  1052 net.cpp:439] res2a_branch2b/relu <- res2a_branch2b/bn
I0701 14:51:50.756966  1052 net.cpp:400] res2a_branch2b/relu -> res2a_branch2b/bn (in-place)
I0701 14:51:50.756973  1052 net.cpp:148] Setting up res2a_branch2b/relu
I0701 14:51:50.756976  1052 net.cpp:155] Top shape: 21 64 32 32 (1376256)
I0701 14:51:50.756978  1052 net.cpp:163] Memory required for data: 52813908
I0701 14:51:50.756980  1052 layer_factory.hpp:77] Creating layer pool2
I0701 14:51:50.756984  1052 net.cpp:98] Creating Layer pool2
I0701 14:51:50.756986  1052 net.cpp:439] pool2 <- res2a_branch2b/bn
I0701 14:51:50.756989  1052 net.cpp:413] pool2 -> pool2
I0701 14:51:50.757030  1052 net.cpp:148] Setting up pool2
I0701 14:51:50.757035  1052 net.cpp:155] Top shape: 21 64 16 16 (344064)
I0701 14:51:50.757037  1052 net.cpp:163] Memory required for data: 54190164
I0701 14:51:50.757040  1052 layer_factory.hpp:77] Creating layer res3a_branch2a
I0701 14:51:50.757050  1052 net.cpp:98] Creating Layer res3a_branch2a
I0701 14:51:50.757052  1052 net.cpp:439] res3a_branch2a <- pool2
I0701 14:51:50.757055  1052 net.cpp:413] res3a_branch2a -> res3a_branch2a
I0701 14:51:50.759904  1052 net.cpp:148] Setting up res3a_branch2a
I0701 14:51:50.759914  1052 net.cpp:155] Top shape: 21 128 16 16 (688128)
I0701 14:51:50.759917  1052 net.cpp:163] Memory required for data: 56942676
I0701 14:51:50.759922  1052 layer_factory.hpp:77] Creating layer res3a_branch2a/bn
I0701 14:51:50.759927  1052 net.cpp:98] Creating Layer res3a_branch2a/bn
I0701 14:51:50.759929  1052 net.cpp:439] res3a_branch2a/bn <- res3a_branch2a
I0701 14:51:50.759933  1052 net.cpp:413] res3a_branch2a/bn -> res3a_branch2a/bn
I0701 14:51:50.760543  1052 net.cpp:148] Setting up res3a_branch2a/bn
I0701 14:51:50.760550  1052 net.cpp:155] Top shape: 21 128 16 16 (688128)
I0701 14:51:50.760551  1052 net.cpp:163] Memory required for data: 59695188
I0701 14:51:50.760561  1052 layer_factory.hpp:77] Creating layer res3a_branch2a/relu
I0701 14:51:50.760565  1052 net.cpp:98] Creating Layer res3a_branch2a/relu
I0701 14:51:50.760566  1052 net.cpp:439] res3a_branch2a/relu <- res3a_branch2a/bn
I0701 14:51:50.760568  1052 net.cpp:400] res3a_branch2a/relu -> res3a_branch2a/bn (in-place)
I0701 14:51:50.760572  1052 net.cpp:148] Setting up res3a_branch2a/relu
I0701 14:51:50.760574  1052 net.cpp:155] Top shape: 21 128 16 16 (688128)
I0701 14:51:50.760576  1052 net.cpp:163] Memory required for data: 62447700
I0701 14:51:50.760578  1052 layer_factory.hpp:77] Creating layer res3a_branch2b
I0701 14:51:50.760582  1052 net.cpp:98] Creating Layer res3a_branch2b
I0701 14:51:50.760584  1052 net.cpp:439] res3a_branch2b <- res3a_branch2a/bn
I0701 14:51:50.760587  1052 net.cpp:413] res3a_branch2b -> res3a_branch2b
I0701 14:51:50.761595  1052 net.cpp:148] Setting up res3a_branch2b
I0701 14:51:50.761600  1052 net.cpp:155] Top shape: 21 128 16 16 (688128)
I0701 14:51:50.761602  1052 net.cpp:163] Memory required for data: 65200212
I0701 14:51:50.761605  1052 layer_factory.hpp:77] Creating layer res3a_branch2b/bn
I0701 14:51:50.761610  1052 net.cpp:98] Creating Layer res3a_branch2b/bn
I0701 14:51:50.761612  1052 net.cpp:439] res3a_branch2b/bn <- res3a_branch2b
I0701 14:51:50.761615  1052 net.cpp:413] res3a_branch2b/bn -> res3a_branch2b/bn
I0701 14:51:50.762214  1052 net.cpp:148] Setting up res3a_branch2b/bn
I0701 14:51:50.762220  1052 net.cpp:155] Top shape: 21 128 16 16 (688128)
I0701 14:51:50.762229  1052 net.cpp:163] Memory required for data: 67952724
I0701 14:51:50.762234  1052 layer_factory.hpp:77] Creating layer res3a_branch2b/relu
I0701 14:51:50.762238  1052 net.cpp:98] Creating Layer res3a_branch2b/relu
I0701 14:51:50.762239  1052 net.cpp:439] res3a_branch2b/relu <- res3a_branch2b/bn
I0701 14:51:50.762241  1052 net.cpp:400] res3a_branch2b/relu -> res3a_branch2b/bn (in-place)
I0701 14:51:50.762245  1052 net.cpp:148] Setting up res3a_branch2b/relu
I0701 14:51:50.762248  1052 net.cpp:155] Top shape: 21 128 16 16 (688128)
I0701 14:51:50.762249  1052 net.cpp:163] Memory required for data: 70705236
I0701 14:51:50.762251  1052 layer_factory.hpp:77] Creating layer pool3
I0701 14:51:50.762254  1052 net.cpp:98] Creating Layer pool3
I0701 14:51:50.762257  1052 net.cpp:439] pool3 <- res3a_branch2b/bn
I0701 14:51:50.762260  1052 net.cpp:413] pool3 -> pool3
I0701 14:51:50.762298  1052 net.cpp:148] Setting up pool3
I0701 14:51:50.762303  1052 net.cpp:155] Top shape: 21 128 16 16 (688128)
I0701 14:51:50.762305  1052 net.cpp:163] Memory required for data: 73457748
I0701 14:51:50.762310  1052 layer_factory.hpp:77] Creating layer res4a_branch2a
I0701 14:51:50.762315  1052 net.cpp:98] Creating Layer res4a_branch2a
I0701 14:51:50.762320  1052 net.cpp:439] res4a_branch2a <- pool3
I0701 14:51:50.762323  1052 net.cpp:413] res4a_branch2a -> res4a_branch2a
I0701 14:51:50.768401  1052 net.cpp:148] Setting up res4a_branch2a
I0701 14:51:50.768409  1052 net.cpp:155] Top shape: 21 256 16 16 (1376256)
I0701 14:51:50.768410  1052 net.cpp:163] Memory required for data: 78962772
I0701 14:51:50.768414  1052 layer_factory.hpp:77] Creating layer res4a_branch2a/bn
I0701 14:51:50.768417  1052 net.cpp:98] Creating Layer res4a_branch2a/bn
I0701 14:51:50.768419  1052 net.cpp:439] res4a_branch2a/bn <- res4a_branch2a
I0701 14:51:50.768422  1052 net.cpp:413] res4a_branch2a/bn -> res4a_branch2a/bn
I0701 14:51:50.769026  1052 net.cpp:148] Setting up res4a_branch2a/bn
I0701 14:51:50.769032  1052 net.cpp:155] Top shape: 21 256 16 16 (1376256)
I0701 14:51:50.769033  1052 net.cpp:163] Memory required for data: 84467796
I0701 14:51:50.769037  1052 layer_factory.hpp:77] Creating layer res4a_branch2a/relu
I0701 14:51:50.769040  1052 net.cpp:98] Creating Layer res4a_branch2a/relu
I0701 14:51:50.769043  1052 net.cpp:439] res4a_branch2a/relu <- res4a_branch2a/bn
I0701 14:51:50.769045  1052 net.cpp:400] res4a_branch2a/relu -> res4a_branch2a/bn (in-place)
I0701 14:51:50.769048  1052 net.cpp:148] Setting up res4a_branch2a/relu
I0701 14:51:50.769050  1052 net.cpp:155] Top shape: 21 256 16 16 (1376256)
I0701 14:51:50.769052  1052 net.cpp:163] Memory required for data: 89972820
I0701 14:51:50.769054  1052 layer_factory.hpp:77] Creating layer res4a_branch2b
I0701 14:51:50.769057  1052 net.cpp:98] Creating Layer res4a_branch2b
I0701 14:51:50.769059  1052 net.cpp:439] res4a_branch2b <- res4a_branch2a/bn
I0701 14:51:50.769062  1052 net.cpp:413] res4a_branch2b -> res4a_branch2b
I0701 14:51:50.772238  1052 net.cpp:148] Setting up res4a_branch2b
I0701 14:51:50.772244  1052 net.cpp:155] Top shape: 21 256 16 16 (1376256)
I0701 14:51:50.772246  1052 net.cpp:163] Memory required for data: 95477844
I0701 14:51:50.772249  1052 layer_factory.hpp:77] Creating layer res4a_branch2b/bn
I0701 14:51:50.772253  1052 net.cpp:98] Creating Layer res4a_branch2b/bn
I0701 14:51:50.772256  1052 net.cpp:439] res4a_branch2b/bn <- res4a_branch2b
I0701 14:51:50.772260  1052 net.cpp:413] res4a_branch2b/bn -> res4a_branch2b/bn
I0701 14:51:50.772850  1052 net.cpp:148] Setting up res4a_branch2b/bn
I0701 14:51:50.772855  1052 net.cpp:155] Top shape: 21 256 16 16 (1376256)
I0701 14:51:50.772857  1052 net.cpp:163] Memory required for data: 100982868
I0701 14:51:50.772861  1052 layer_factory.hpp:77] Creating layer res4a_branch2b/relu
I0701 14:51:50.772864  1052 net.cpp:98] Creating Layer res4a_branch2b/relu
I0701 14:51:50.772866  1052 net.cpp:439] res4a_branch2b/relu <- res4a_branch2b/bn
I0701 14:51:50.772868  1052 net.cpp:400] res4a_branch2b/relu -> res4a_branch2b/bn (in-place)
I0701 14:51:50.772879  1052 net.cpp:148] Setting up res4a_branch2b/relu
I0701 14:51:50.772882  1052 net.cpp:155] Top shape: 21 256 16 16 (1376256)
I0701 14:51:50.772883  1052 net.cpp:163] Memory required for data: 106487892
I0701 14:51:50.772886  1052 layer_factory.hpp:77] Creating layer pool4
I0701 14:51:50.772888  1052 net.cpp:98] Creating Layer pool4
I0701 14:51:50.772891  1052 net.cpp:439] pool4 <- res4a_branch2b/bn
I0701 14:51:50.772894  1052 net.cpp:413] pool4 -> pool4
I0701 14:51:50.772928  1052 net.cpp:148] Setting up pool4
I0701 14:51:50.772933  1052 net.cpp:155] Top shape: 21 256 8 8 (344064)
I0701 14:51:50.772934  1052 net.cpp:163] Memory required for data: 107864148
I0701 14:51:50.772936  1052 layer_factory.hpp:77] Creating layer res5a_branch2a
I0701 14:51:50.772939  1052 net.cpp:98] Creating Layer res5a_branch2a
I0701 14:51:50.772943  1052 net.cpp:439] res5a_branch2a <- pool4
I0701 14:51:50.772944  1052 net.cpp:413] res5a_branch2a -> res5a_branch2a
I0701 14:51:50.801746  1052 net.cpp:148] Setting up res5a_branch2a
I0701 14:51:50.801767  1052 net.cpp:155] Top shape: 21 512 8 8 (688128)
I0701 14:51:50.801770  1052 net.cpp:163] Memory required for data: 110616660
I0701 14:51:50.801776  1052 layer_factory.hpp:77] Creating layer res5a_branch2a/bn
I0701 14:51:50.801784  1052 net.cpp:98] Creating Layer res5a_branch2a/bn
I0701 14:51:50.801786  1052 net.cpp:439] res5a_branch2a/bn <- res5a_branch2a
I0701 14:51:50.801790  1052 net.cpp:413] res5a_branch2a/bn -> res5a_branch2a/bn
I0701 14:51:50.802461  1052 net.cpp:148] Setting up res5a_branch2a/bn
I0701 14:51:50.802467  1052 net.cpp:155] Top shape: 21 512 8 8 (688128)
I0701 14:51:50.802469  1052 net.cpp:163] Memory required for data: 113369172
I0701 14:51:50.802474  1052 layer_factory.hpp:77] Creating layer res5a_branch2a/relu
I0701 14:51:50.802479  1052 net.cpp:98] Creating Layer res5a_branch2a/relu
I0701 14:51:50.802481  1052 net.cpp:439] res5a_branch2a/relu <- res5a_branch2a/bn
I0701 14:51:50.802484  1052 net.cpp:400] res5a_branch2a/relu -> res5a_branch2a/bn (in-place)
I0701 14:51:50.802489  1052 net.cpp:148] Setting up res5a_branch2a/relu
I0701 14:51:50.802490  1052 net.cpp:155] Top shape: 21 512 8 8 (688128)
I0701 14:51:50.802492  1052 net.cpp:163] Memory required for data: 116121684
I0701 14:51:50.802495  1052 layer_factory.hpp:77] Creating layer res5a_branch2b
I0701 14:51:50.802502  1052 net.cpp:98] Creating Layer res5a_branch2b
I0701 14:51:50.802505  1052 net.cpp:439] res5a_branch2b <- res5a_branch2a/bn
I0701 14:51:50.802508  1052 net.cpp:413] res5a_branch2b -> res5a_branch2b
I0701 14:51:50.815462  1052 net.cpp:148] Setting up res5a_branch2b
I0701 14:51:50.815482  1052 net.cpp:155] Top shape: 21 512 8 8 (688128)
I0701 14:51:50.815485  1052 net.cpp:163] Memory required for data: 118874196
I0701 14:51:50.815495  1052 layer_factory.hpp:77] Creating layer res5a_branch2b/bn
I0701 14:51:50.815501  1052 net.cpp:98] Creating Layer res5a_branch2b/bn
I0701 14:51:50.815505  1052 net.cpp:439] res5a_branch2b/bn <- res5a_branch2b
I0701 14:51:50.815508  1052 net.cpp:413] res5a_branch2b/bn -> res5a_branch2b/bn
I0701 14:51:50.816200  1052 net.cpp:148] Setting up res5a_branch2b/bn
I0701 14:51:50.816207  1052 net.cpp:155] Top shape: 21 512 8 8 (688128)
I0701 14:51:50.816210  1052 net.cpp:163] Memory required for data: 121626708
I0701 14:51:50.816215  1052 layer_factory.hpp:77] Creating layer res5a_branch2b/relu
I0701 14:51:50.816218  1052 net.cpp:98] Creating Layer res5a_branch2b/relu
I0701 14:51:50.816220  1052 net.cpp:439] res5a_branch2b/relu <- res5a_branch2b/bn
I0701 14:51:50.816222  1052 net.cpp:400] res5a_branch2b/relu -> res5a_branch2b/bn (in-place)
I0701 14:51:50.816227  1052 net.cpp:148] Setting up res5a_branch2b/relu
I0701 14:51:50.816229  1052 net.cpp:155] Top shape: 21 512 8 8 (688128)
I0701 14:51:50.816231  1052 net.cpp:163] Memory required for data: 124379220
I0701 14:51:50.816232  1052 layer_factory.hpp:77] Creating layer pool5
I0701 14:51:50.816238  1052 net.cpp:98] Creating Layer pool5
I0701 14:51:50.816239  1052 net.cpp:439] pool5 <- res5a_branch2b/bn
I0701 14:51:50.816252  1052 net.cpp:413] pool5 -> pool5
I0701 14:51:50.816283  1052 net.cpp:148] Setting up pool5
I0701 14:51:50.816287  1052 net.cpp:155] Top shape: 21 512 1 1 (10752)
I0701 14:51:50.816289  1052 net.cpp:163] Memory required for data: 124422228
I0701 14:51:50.816292  1052 layer_factory.hpp:77] Creating layer fc10
I0701 14:51:50.816295  1052 net.cpp:98] Creating Layer fc10
I0701 14:51:50.816298  1052 net.cpp:439] fc10 <- pool5
I0701 14:51:50.816300  1052 net.cpp:413] fc10 -> fc10
I0701 14:51:50.816535  1052 net.cpp:148] Setting up fc10
I0701 14:51:50.816540  1052 net.cpp:155] Top shape: 21 10 (210)
I0701 14:51:50.816542  1052 net.cpp:163] Memory required for data: 124423068
I0701 14:51:50.816545  1052 layer_factory.hpp:77] Creating layer loss
I0701 14:51:50.816550  1052 net.cpp:98] Creating Layer loss
I0701 14:51:50.816551  1052 net.cpp:439] loss <- fc10
I0701 14:51:50.816553  1052 net.cpp:439] loss <- label
I0701 14:51:50.816557  1052 net.cpp:413] loss -> loss
I0701 14:51:50.816565  1052 layer_factory.hpp:77] Creating layer loss
…
I0701 14:51:50.817245  1052 solver.cpp:182] Creating test net (#0) specified by test_net file: training/cifar10_jacintonet11v2_2017-07-01_14-28-09/sparse/test.prototxt
I0701 14:51:50.817436  1052 net.cpp:56] Initializing net from parameters: 
name: "jacintonet11v2_test"
state {
  phase: TEST
}
layer {
  name: "data"
  type: "Data"
  top: "data"
  top: "label"
  transform_param {
    mirror: false
    crop_size: 32
    mean_value: 0
    mean_value: 0
    mean_value: 0
  }
  data_param {
    source: "./data/cifar10_test_lmdb"
    batch_size: 50
    backend: LMDB
    threads: 1
  }
}
layer {
  name: "data/bias"
  type: "Bias"
  bottom: "data"
  top: "data/bias"
  param {
    lr_mult: 0
    decay_mult: 0
  }
  bias_param {
    filler {
      type: "constant"
      value: -128
    }
  }
}
layer {
  name: "conv1a"
  type: "Convolution"
  bottom: "data/bias"
  top: "conv1a"
  param {
    lr_mult: 1
    decay_mult: 1
  }
  param {
    lr_mult: 2
    decay_mult: 0
  }
  convolution_param {
    num_output: 32
    bias_term: true
    pad: 2
    kernel_size: 5
    group: 1
    stride: 1
    weight_filler {
      type: "msra"
    }
    bias_filler {
      type: "constant"
      value: 0
    }
    dilation: 1
  }
}
layer {
  name: "conv1a/bn"
  type: "BatchNorm"
  bottom: "conv1a"
  top: "conv1a/bn"
  param {
    lr_mult: 1
    decay_mult: 1
  }
  param {
    lr_mult: 1
    decay_mult: 1
  }
  param {
    lr_mult: 0
    decay_mult: 0
  }
  param {
    lr_mult: 0
    decay_mult: 0
  }
  batch_norm_param {
    moving_average_fraction: 0.99
    eps: 0.0001
    scale_filler {
      type: "constant"
      value: 1
    }
    bias_filler {
      type: "constant"
      value: 0
    }
  }
}
layer {
  name: "conv1a/relu"
  type: "ReLU"
  bottom: "conv1a/bn"
  top: "conv1a/bn"
}
layer {
  name: "conv1b"
  type: "Convolution"
  bottom: "conv1a/bn"
  top: "conv1b"
  param {
    lr_mult: 1
    decay_mult: 1
  }
  param {
    lr_mult: 2
    decay_mult: 0
  }
  convolution_param {
    num_output: 32
    bias_term: true
    pad: 1
    kernel_size: 3
    group: 4
    stride: 1
    weight_filler {
      type: "msra"
    }
    bias_filler {
      type: "constant"
      value: 0
    }
    dilation: 1
  }
}
layer {
  name: "conv1b/bn"
  type: "BatchNorm"
  bottom: "conv1b"
  top: "conv1b/bn"
  param {
    lr_mult: 1
    decay_mult: 1
  }
  param {
    lr_mult: 1
    decay_mult: 1
  }
  param {
    lr_mult: 0
    decay_mult: 0
  }
  param {
    lr_mult: 0
    decay_mult: 0
  }
  batch_norm_param {
    moving_average_fraction: 0.99
    eps: 0.0001
    scale_filler {
      type: "constant"
      value: 1
    }
    bias_filler {
      type: "constant"
      value: 0
    }
  }
}
layer {
  name: "conv1b/relu"
  type: "ReLU"
  bottom: "conv1b/bn"
  top: "conv1b/bn"
}
layer {
  name: "pool1"
  type: "Pooling"
  bottom: "conv1b/bn"
  top: "pool1"
  pooling_param {
    pool: MAX
    kernel_size: 1
    stride: 1
  }
}
layer {
  name: "res2a_branch2a"
  type: "Convolution"
  bottom: "pool1"
  top: "res2a_branch2a"
  param {
    lr_mult: 1
    decay_mult: 1
  }
  param {
    lr_mult: 2
    decay_mult: 0
  }
  convolution_param {
    num_output: 64
    bias_term: true
    pad: 1
    kernel_size: 3
    group: 1
    stride: 1
    weight_filler {
      type: "msra"
    }
    bias_filler {
      type: "constant"
      value: 0
    }
    dilation: 1
  }
}
layer {
  name: "res2a_branch2a/bn"
  type: "BatchNorm"
  bottom: "res2a_branch2a"
  top: "res2a_branch2a/bn"
  param {
    lr_mult: 1
    decay_mult: 1
  }
  param {
    lr_mult: 1
    decay_mult: 1
  }
  param {
    lr_mult: 0
    decay_mult: 0
  }
  param {
    lr_mult: 0
    decay_mult: 0
  }
  batch_norm_param {
    moving_average_fraction: 0.99
    eps: 0.0001
    scale_filler {
      type: "constant"
      value: 1
    }
    bias_filler {
      type: "constant"
      value: 0
    }
  }
}
layer {
  name: "res2a_branch2a/relu"
  type: "ReLU"
  bottom: "res2a_branch2a/bn"
  top: "res2a_branch2a/bn"
}
layer {
  name: "res2a_branch2b"
  type: "Convolution"
  bottom: "res2a_branch2a/bn"
  top: "res2a_branch2b"
  param {
    lr_mult: 1
    decay_mult: 1
  }
  param {
    lr_mult: 2
    decay_mult: 0
  }
  convolution_param {
    num_output: 64
    bias_term: true
    pad: 1
    kernel_size: 3
    group: 4
    stride: 1
    weight_filler {
      type: "msra"
    }
    bias_filler {
      type: "constant"
      value: 0
    }
    dilation: 1
  }
}
layer {
  name: "res2a_branch2b/bn"
  type: "BatchNorm"
  bottom: "res2a_branch2b"
  top: "res2a_branch2b/bn"
  param {
    lr_mult: 1
    decay_mult: 1
  }
  param {
    lr_mult: 1
    decay_mult: 1
  }
  param {
    lr_mult: 0
    decay_mult: 0
  }
  param {
    lr_mult: 0
    decay_mult: 0
  }
  batch_norm_param {
    moving_average_fraction: 0.99
    eps: 0.0001
    scale_filler {
      type: "constant"
      value: 1
    }
    bias_filler {
      type: "constant"
      value: 0
    }
  }
}
layer {
  name: "res2a_branch2b/relu"
  type: "ReLU"
  bottom: "res2a_branch2b/bn"
  top: "res2a_branch2b/bn"
}
layer {
  name: "pool2"
  type: "Pooling"
  bottom: "res2a_branch2b/bn"
  top: "pool2"
  pooling_param {
    pool: MAX
    kernel_size: 2
    stride: 2
  }
}
layer {
  name: "res3a_branch2a"
  type: "Convolution"
  bottom: "pool2"
  top: "res3a_branch2a"
  param {
    lr_mult: 1
    decay_mult: 1
  }
  param {
    lr_mult: 2
    decay_mult: 0
  }
  convolution_param {
    num_output: 128
    bias_term: true
    pad: 1
    kernel_size: 3
    group: 1
    stride: 1
    weight_filler {
      type: "msra"
    }
    bias_filler {
      type: "constant"
      value: 0
    }
    dilation: 1
  }
}
layer {
  name: "res3a_branch2a/bn"
  type: "BatchNorm"
  bottom: "res3a_branch2a"
  top: "res3a_branch2a/bn"
  param {
    lr_mult: 1
    decay_mult: 1
  }
  param {
    lr_mult: 1
    decay_mult: 1
  }
  param {
    lr_mult: 0
    decay_mult: 0
  }
  param {
    lr_mult: 0
    decay_mult: 0
  }
  batch_norm_param {
    moving_average_fraction: 0.99
    eps: 0.0001
    scale_filler {
      type: "constant"
      value: 1
    }
    bias_filler {
      type: "constant"
      value: 0
    }
  }
}
layer {
  name: "res3a_branch2a/relu"
  type: "ReLU"
  bottom: "res3a_branch2a/bn"
  top: "res3a_branch2a/bn"
}
layer {
  name: "res3a_branch2b"
  type: "Convolution"
  bottom: "res3a_branch2a/bn"
  top: "res3a_branch2b"
  param {
    lr_mult: 1
    decay_mult: 1
  }
  param {
    lr_mult: 2
    decay_mult: 0
  }
  convolution_param {
    num_output: 128
    bias_term: true
    pad: 1
    kernel_size: 3
    group: 4
    stride: 1
    weight_filler {
      type: "msra"
    }
    bias_filler {
      type: "constant"
      value: 0
    }
    dilation: 1
  }
}
layer {
  name: "res3a_branch2b/bn"
  type: "BatchNorm"
  bottom: "res3a_branch2b"
  top: "res3a_branch2b/bn"
  param {
    lr_mult: 1
    decay_mult: 1
  }
  param {
    lr_mult: 1
    decay_mult: 1
  }
  param {
    lr_mult: 0
    decay_mult: 0
  }
  param {
    lr_mult: 0
    decay_mult: 0
  }
  batch_norm_param {
    moving_average_fraction: 0.99
    eps: 0.0001
    scale_filler {
      type: "constant"
      value: 1
    }
    bias_filler {
      type: "constant"
      value: 0
    }
  }
}
layer {
  name: "res3a_branch2b/relu"
  type: "ReLU"
  bottom: "res3a_branch2b/bn"
  top: "res3a_branch2b/bn"
}
layer {
  name: "pool3"
  type: "Pooling"
  bottom: "res3a_branch2b/bn"
  top: "pool3"
  pooling_param {
    pool: MAX
    kernel_size: 1
    stride: 1
  }
}
layer {
  name: "res4a_branch2a"
  type: "Convolution"
  bottom: "pool3"
  top: "res4a_branch2a"
  param {
    lr_mult: 1
    decay_mult: 1
  }
  param {
    lr_mult: 2
    decay_mult: 0
  }
  convolution_param {
    num_output: 256
    bias_term: true
    pad: 1
    kernel_size: 3
    group: 1
    stride: 1
    weight_filler {
      type: "msra"
    }
    bias_filler {
      type: "constant"
      value: 0
    }
    dilation: 1
  }
}
layer {
  name: "res4a_branch2a/bn"
  type: "BatchNorm"
  bottom: "res4a_branch2a"
  top: "res4a_branch2a/bn"
  param {
    lr_mult: 1
    decay_mult: 1
  }
  param {
    lr_mult: 1
    decay_mult: 1
  }
  param {
    lr_mult: 0
    decay_mult: 0
  }
  param {
    lr_mult: 0
    decay_mult: 0
  }
  batch_norm_param {
    moving_average_fraction: 0.99
    eps: 0.0001
    scale_filler {
      type: "constant"
      value: 1
    }
    bias_filler {
      type: "constant"
      value: 0
    }
  }
}
layer {
  name: "res4a_branch2a/relu"
  type: "ReLU"
  bottom: "res4a_branch2a/bn"
  top: "res4a_branch2a/bn"
}
layer {
  name: "res4a_branch2b"
  type: "Convolution"
  bottom: "res4a_branch2a/bn"
  top: "res4a_branch2b"
  param {
    lr_mult: 1
    decay_mult: 1
  }
  param {
    lr_mult: 2
    decay_mult: 0
  }
  convolution_param {
    num_output: 256
    bias_term: true
    pad: 1
    kernel_size: 3
    group: 4
    stride: 1
    weight_filler {
      type: "msra"
    }
    bias_filler {
      type: "constant"
      value: 0
    }
    dilation: 1
  }
}
layer {
  name: "res4a_branch2b/bn"
  type: "BatchNorm"
  bottom: "res4a_branch2b"
  top: "res4a_branch2b/bn"
  param {
    lr_mult: 1
    decay_mult: 1
  }
  param {
    lr_mult: 1
    decay_mult: 1
  }
  param {
    lr_mult: 0
    decay_mult: 0
  }
  param {
    lr_mult: 0
    decay_mult: 0
  }
  batch_norm_param {
    moving_average_fraction: 0.99
    eps: 0.0001
    scale_filler {
      type: "constant"
      value: 1
    }
    bias_filler {
      type: "constant"
      value: 0
    }
  }
}
layer {
  name: "res4a_branch2b/relu"
  type: "ReLU"
  bottom: "res4a_branch2b/bn"
  top: "res4a_branch2b/bn"
}
layer {
  name: "pool4"
  type: "Pooling"
  bottom: "res4a_branch2b/bn"
  top: "pool4"
  pooling_param {
    pool: MAX
    kernel_size: 2
    stride: 2
  }
}
layer {
  name: "res5a_branch2a"
  type: "Convolution"
  bottom: "pool4"
  top: "res5a_branch2a"
  param {
    lr_mult: 1
    decay_mult: 1
  }
  param {
    lr_mult: 2
    decay_mult: 0
  }
  convolution_param {
    num_output: 512
    bias_term: true
    pad: 1
    kernel_size: 3
    group: 1
    stride: 1
    weight_filler {
      type: "msra"
    }
    bias_filler {
      type: "constant"
      value: 0
    }
    dilation: 1
  }
}
layer {
  name: "res5a_branch2a/bn"
  type: "BatchNorm"
  bottom: "res5a_branch2a"
  top: "res5a_branch2a/bn"
  param {
    lr_mult: 1
    decay_mult: 1
  }
  param {
    lr_mult: 1
    decay_mult: 1
  }
  param {
    lr_mult: 0
    decay_mult: 0
  }
  param {
    lr_mult: 0
    decay_mult: 0
  }
  batch_norm_param {
    moving_average_fraction: 0.99
    eps: 0.0001
    scale_filler {
      type: "constant"
      value: 1
    }
    bias_filler {
      type: "constant"
      value: 0
    }
  }
}
layer {
  name: "res5a_branch2a/relu"
  type: "ReLU"
  bottom: "res5a_branch2a/bn"
  top: "res5a_branch2a/bn"
}
layer {
  name: "res5a_branch2b"
  type: "Convolution"
  bottom: "res5a_branch2a/bn"
  top: "res5a_branch2b"
  param {
    lr_mult: 1
    decay_mult: 1
  }
  param {
    lr_mult: 2
    decay_mult: 0
  }
  convolution_param {
    num_output: 512
    bias_term: true
    pad: 1
    kernel_size: 3
    group: 4
    stride: 1
    weight_filler {
      type: "msra"
    }
    bias_filler {
      type: "constant"
      value: 0
    }
    dilation: 1
  }
}
layer {
  name: "res5a_branch2b/bn"
  type: "BatchNorm"
  bottom: "res5a_branch2b"
  top: "res5a_branch2b/bn"
  param {
    lr_mult: 1
    decay_mult: 1
  }
  param {
    lr_mult: 1
    decay_mult: 1
  }
  param {
    lr_mult: 0
    decay_mult: 0
  }
  param {
    lr_mult: 0
    decay_mult: 0
  }
  batch_norm_param {
    moving_average_fraction: 0.99
    eps: 0.0001
    scale_filler {
      type: "constant"
      value: 1
    }
    bias_filler {
      type: "constant"
      value: 0
    }
  }
}
layer {
  name: "res5a_branch2b/relu"
  type: "ReLU"
  bottom: "res5a_branch2b/bn"
  top: "res5a_branch2b/bn"
}
layer {
  name: "pool5"
  type: "Pooling"
  bottom: "res5a_branch2b/bn"
  top: "pool5"
  pooling_param {
    pool: AVE
    global_pooling: true
  }
}
layer {
  name: "fc10"
  type: "InnerProduct"
  bottom: "pool5"
  top: "fc10"
  param {
    lr_mult: 1
    decay_mult: 1
  }
  param {
    lr_mult: 2
    decay_mult: 0
  }
  inner_product_param {
    num_output: 10
    weight_filler {
      type: "msra"
    }
    bias_filler {
      type: "constant"
      value: 0
    }
  }
}
layer {
  name: "loss"
  type: "SoftmaxWithLoss"
  bottom: "fc10"
  bottom: "label"
  top: "loss"
  propagate_down: true
  propagate_down: false
}
layer {
  name: "accuracy/top1"
  type: "Accuracy"
  bottom: "fc10"
  bottom: "label"
  top: "accuracy/top1"
  include {
    phase: TEST
  }
}
layer {
  name: "accuracy/top5"
  type: "Accuracy"
  bottom: "fc10"
  bottom: "label"
  top: "accuracy/top5"
  include {
    phase: TEST
  }
  accuracy_param {
    top_k: 5
  }
}
I0701 14:51:50.817544  1052 layer_factory.hpp:77] Creating layer data
I0701 14:51:50.817617  1052 net.cpp:98] Creating Layer data
I0701 14:51:50.817625  1052 net.cpp:413] data -> data
I0701 14:51:50.817632  1052 net.cpp:413] data -> label
I0701 14:51:50.819277  1095 db_lmdb.cpp:35] Opened lmdb ./data/cifar10_test_lmdb
I0701 14:51:50.819423  1052 data_layer.cpp:78] ReshapePrefetch 50, 3, 32, 32
I0701 14:51:50.819483  1052 data_layer.cpp:83] output data size: 50,3,32,32
I0701 14:51:50.821696  1052 net.cpp:148] Setting up data
I0701 14:51:50.821709  1052 net.cpp:155] Top shape: 50 3 32 32 (153600)
I0701 14:51:50.821712  1052 net.cpp:155] Top shape: 50 (50)
I0701 14:51:50.821714  1052 net.cpp:163] Memory required for data: 614600
I0701 14:51:50.821718  1052 layer_factory.hpp:77] Creating layer label_data_1_split
I0701 14:51:50.821729  1052 net.cpp:98] Creating Layer label_data_1_split
I0701 14:51:50.821733  1052 net.cpp:439] label_data_1_split <- label
I0701 14:51:50.821738  1052 net.cpp:413] label_data_1_split -> label_data_1_split_0
I0701 14:51:50.821754  1052 net.cpp:413] label_data_1_split -> label_data_1_split_1
I0701 14:51:50.821760  1052 net.cpp:413] label_data_1_split -> label_data_1_split_2
I0701 14:51:50.821868  1052 net.cpp:148] Setting up label_data_1_split
I0701 14:51:50.821874  1052 net.cpp:155] Top shape: 50 (50)
I0701 14:51:50.821878  1052 net.cpp:155] Top shape: 50 (50)
I0701 14:51:50.821883  1052 net.cpp:155] Top shape: 50 (50)
I0701 14:51:50.821887  1052 net.cpp:163] Memory required for data: 615200
I0701 14:51:50.821890  1052 layer_factory.hpp:77] Creating layer data/bias
I0701 14:51:50.821897  1052 net.cpp:98] Creating Layer data/bias
I0701 14:51:50.821900  1052 net.cpp:439] data/bias <- data
I0701 14:51:50.821905  1052 net.cpp:413] data/bias -> data/bias
I0701 14:51:50.822015  1052 net.cpp:148] Setting up data/bias
I0701 14:51:50.822019  1052 net.cpp:155] Top shape: 50 3 32 32 (153600)
I0701 14:51:50.822023  1052 net.cpp:163] Memory required for data: 1229600
I0701 14:51:50.822031  1052 layer_factory.hpp:77] Creating layer conv1a
I0701 14:51:50.822037  1052 net.cpp:98] Creating Layer conv1a
I0701 14:51:50.822041  1052 net.cpp:439] conv1a <- data/bias
I0701 14:51:50.822046  1052 net.cpp:413] conv1a -> conv1a
I0701 14:51:50.822420  1052 net.cpp:148] Setting up conv1a
I0701 14:51:50.822428  1052 net.cpp:155] Top shape: 50 32 32 32 (1638400)
I0701 14:51:50.822432  1052 net.cpp:163] Memory required for data: 7783200
I0701 14:51:50.822439  1052 layer_factory.hpp:77] Creating layer conv1a/bn
I0701 14:51:50.822446  1052 net.cpp:98] Creating Layer conv1a/bn
I0701 14:51:50.822449  1052 net.cpp:439] conv1a/bn <- conv1a
I0701 14:51:50.822455  1052 net.cpp:413] conv1a/bn -> conv1a/bn
I0701 14:51:50.823333  1052 net.cpp:148] Setting up conv1a/bn
I0701 14:51:50.823344  1052 net.cpp:155] Top shape: 50 32 32 32 (1638400)
I0701 14:51:50.823348  1052 net.cpp:163] Memory required for data: 14336800
I0701 14:51:50.823370  1052 layer_factory.hpp:77] Creating layer conv1a/relu
I0701 14:51:50.823377  1052 net.cpp:98] Creating Layer conv1a/relu
I0701 14:51:50.823381  1052 net.cpp:439] conv1a/relu <- conv1a/bn
I0701 14:51:50.823386  1052 net.cpp:400] conv1a/relu -> conv1a/bn (in-place)
I0701 14:51:50.823393  1052 net.cpp:148] Setting up conv1a/relu
I0701 14:51:50.823397  1052 net.cpp:155] Top shape: 50 32 32 32 (1638400)
I0701 14:51:50.823401  1052 net.cpp:163] Memory required for data: 20890400
I0701 14:51:50.823405  1052 layer_factory.hpp:77] Creating layer conv1b
I0701 14:51:50.823413  1052 net.cpp:98] Creating Layer conv1b
I0701 14:51:50.823416  1052 net.cpp:439] conv1b <- conv1a/bn
I0701 14:51:50.823421  1052 net.cpp:413] conv1b -> conv1b
I0701 14:51:50.823798  1052 net.cpp:148] Setting up conv1b
I0701 14:51:50.823807  1052 net.cpp:155] Top shape: 50 32 32 32 (1638400)
I0701 14:51:50.823809  1052 net.cpp:163] Memory required for data: 27444000
I0701 14:51:50.823817  1052 layer_factory.hpp:77] Creating layer conv1b/bn
I0701 14:51:50.823824  1052 net.cpp:98] Creating Layer conv1b/bn
I0701 14:51:50.823827  1052 net.cpp:439] conv1b/bn <- conv1b
I0701 14:51:50.823833  1052 net.cpp:413] conv1b/bn -> conv1b/bn
I0701 14:51:50.824563  1052 net.cpp:148] Setting up conv1b/bn
I0701 14:51:50.824571  1052 net.cpp:155] Top shape: 50 32 32 32 (1638400)
I0701 14:51:50.824574  1052 net.cpp:163] Memory required for data: 33997600
I0701 14:51:50.824584  1052 layer_factory.hpp:77] Creating layer conv1b/relu
I0701 14:51:50.824589  1052 net.cpp:98] Creating Layer conv1b/relu
I0701 14:51:50.824594  1052 net.cpp:439] conv1b/relu <- conv1b/bn
I0701 14:51:50.824599  1052 net.cpp:400] conv1b/relu -> conv1b/bn (in-place)
I0701 14:51:50.824604  1052 net.cpp:148] Setting up conv1b/relu
I0701 14:51:50.824609  1052 net.cpp:155] Top shape: 50 32 32 32 (1638400)
I0701 14:51:50.824612  1052 net.cpp:163] Memory required for data: 40551200
I0701 14:51:50.824615  1052 layer_factory.hpp:77] Creating layer pool1
I0701 14:51:50.824622  1052 net.cpp:98] Creating Layer pool1
I0701 14:51:50.824625  1052 net.cpp:439] pool1 <- conv1b/bn
I0701 14:51:50.824630  1052 net.cpp:413] pool1 -> pool1
I0701 14:51:50.824669  1052 net.cpp:148] Setting up pool1
I0701 14:51:50.824674  1052 net.cpp:155] Top shape: 50 32 32 32 (1638400)
I0701 14:51:50.824677  1052 net.cpp:163] Memory required for data: 47104800
I0701 14:51:50.824681  1052 layer_factory.hpp:77] Creating layer res2a_branch2a
I0701 14:51:50.824689  1052 net.cpp:98] Creating Layer res2a_branch2a
I0701 14:51:50.824693  1052 net.cpp:439] res2a_branch2a <- pool1
I0701 14:51:50.824697  1052 net.cpp:413] res2a_branch2a -> res2a_branch2a
I0701 14:51:50.825384  1052 net.cpp:148] Setting up res2a_branch2a
I0701 14:51:50.825390  1052 net.cpp:155] Top shape: 50 64 32 32 (3276800)
I0701 14:51:50.825393  1052 net.cpp:163] Memory required for data: 60212000
I0701 14:51:50.825402  1052 layer_factory.hpp:77] Creating layer res2a_branch2a/bn
I0701 14:51:50.825407  1052 net.cpp:98] Creating Layer res2a_branch2a/bn
I0701 14:51:50.825410  1052 net.cpp:439] res2a_branch2a/bn <- res2a_branch2a
I0701 14:51:50.825415  1052 net.cpp:413] res2a_branch2a/bn -> res2a_branch2a/bn
I0701 14:51:50.826113  1052 net.cpp:148] Setting up res2a_branch2a/bn
I0701 14:51:50.826120  1052 net.cpp:155] Top shape: 50 64 32 32 (3276800)
I0701 14:51:50.826123  1052 net.cpp:163] Memory required for data: 73319200
I0701 14:51:50.826131  1052 layer_factory.hpp:77] Creating layer res2a_branch2a/relu
I0701 14:51:50.826135  1052 net.cpp:98] Creating Layer res2a_branch2a/relu
I0701 14:51:50.826139  1052 net.cpp:439] res2a_branch2a/relu <- res2a_branch2a/bn
I0701 14:51:50.826143  1052 net.cpp:400] res2a_branch2a/relu -> res2a_branch2a/bn (in-place)
I0701 14:51:50.826149  1052 net.cpp:148] Setting up res2a_branch2a/relu
I0701 14:51:50.826153  1052 net.cpp:155] Top shape: 50 64 32 32 (3276800)
I0701 14:51:50.826158  1052 net.cpp:163] Memory required for data: 86426400
I0701 14:51:50.826160  1052 layer_factory.hpp:77] Creating layer res2a_branch2b
I0701 14:51:50.826167  1052 net.cpp:98] Creating Layer res2a_branch2b
I0701 14:51:50.826181  1052 net.cpp:439] res2a_branch2b <- res2a_branch2a/bn
I0701 14:51:50.826186  1052 net.cpp:413] res2a_branch2b -> res2a_branch2b
I0701 14:51:50.826684  1052 net.cpp:148] Setting up res2a_branch2b
I0701 14:51:50.826691  1052 net.cpp:155] Top shape: 50 64 32 32 (3276800)
I0701 14:51:50.826695  1052 net.cpp:163] Memory required for data: 99533600
I0701 14:51:50.826701  1052 layer_factory.hpp:77] Creating layer res2a_branch2b/bn
I0701 14:51:50.826707  1052 net.cpp:98] Creating Layer res2a_branch2b/bn
I0701 14:51:50.826711  1052 net.cpp:439] res2a_branch2b/bn <- res2a_branch2b
I0701 14:51:50.826716  1052 net.cpp:413] res2a_branch2b/bn -> res2a_branch2b/bn
I0701 14:51:50.827405  1052 net.cpp:148] Setting up res2a_branch2b/bn
I0701 14:51:50.827411  1052 net.cpp:155] Top shape: 50 64 32 32 (3276800)
I0701 14:51:50.827415  1052 net.cpp:163] Memory required for data: 112640800
I0701 14:51:50.827425  1052 layer_factory.hpp:77] Creating layer res2a_branch2b/relu
I0701 14:51:50.827428  1052 net.cpp:98] Creating Layer res2a_branch2b/relu
I0701 14:51:50.827432  1052 net.cpp:439] res2a_branch2b/relu <- res2a_branch2b/bn
I0701 14:51:50.827436  1052 net.cpp:400] res2a_branch2b/relu -> res2a_branch2b/bn (in-place)
I0701 14:51:50.827442  1052 net.cpp:148] Setting up res2a_branch2b/relu
I0701 14:51:50.827447  1052 net.cpp:155] Top shape: 50 64 32 32 (3276800)
I0701 14:51:50.827450  1052 net.cpp:163] Memory required for data: 125748000
I0701 14:51:50.827455  1052 layer_factory.hpp:77] Creating layer pool2
I0701 14:51:50.827460  1052 net.cpp:98] Creating Layer pool2
I0701 14:51:50.827462  1052 net.cpp:439] pool2 <- res2a_branch2b/bn
I0701 14:51:50.827466  1052 net.cpp:413] pool2 -> pool2
I0701 14:51:50.827507  1052 net.cpp:148] Setting up pool2
I0701 14:51:50.827512  1052 net.cpp:155] Top shape: 50 64 16 16 (819200)
I0701 14:51:50.827517  1052 net.cpp:163] Memory required for data: 129024800
I0701 14:51:50.827520  1052 layer_factory.hpp:77] Creating layer res3a_branch2a
I0701 14:51:50.827527  1052 net.cpp:98] Creating Layer res3a_branch2a
I0701 14:51:50.827530  1052 net.cpp:439] res3a_branch2a <- pool2
I0701 14:51:50.827535  1052 net.cpp:413] res3a_branch2a -> res3a_branch2a
I0701 14:51:50.830276  1052 net.cpp:148] Setting up res3a_branch2a
I0701 14:51:50.830291  1052 net.cpp:155] Top shape: 50 128 16 16 (1638400)
I0701 14:51:50.830294  1052 net.cpp:163] Memory required for data: 135578400
I0701 14:51:50.830302  1052 layer_factory.hpp:77] Creating layer res3a_branch2a/bn
I0701 14:51:50.830310  1052 net.cpp:98] Creating Layer res3a_branch2a/bn
I0701 14:51:50.830314  1052 net.cpp:439] res3a_branch2a/bn <- res3a_branch2a
I0701 14:51:50.830322  1052 net.cpp:413] res3a_branch2a/bn -> res3a_branch2a/bn
I0701 14:51:50.831073  1052 net.cpp:148] Setting up res3a_branch2a/bn
I0701 14:51:50.831080  1052 net.cpp:155] Top shape: 50 128 16 16 (1638400)
I0701 14:51:50.831084  1052 net.cpp:163] Memory required for data: 142132000
I0701 14:51:50.831094  1052 layer_factory.hpp:77] Creating layer res3a_branch2a/relu
I0701 14:51:50.831104  1052 net.cpp:98] Creating Layer res3a_branch2a/relu
I0701 14:51:50.831107  1052 net.cpp:439] res3a_branch2a/relu <- res3a_branch2a/bn
I0701 14:51:50.831112  1052 net.cpp:400] res3a_branch2a/relu -> res3a_branch2a/bn (in-place)
I0701 14:51:50.831120  1052 net.cpp:148] Setting up res3a_branch2a/relu
I0701 14:51:50.831123  1052 net.cpp:155] Top shape: 50 128 16 16 (1638400)
I0701 14:51:50.831127  1052 net.cpp:163] Memory required for data: 148685600
I0701 14:51:50.831131  1052 layer_factory.hpp:77] Creating layer res3a_branch2b
I0701 14:51:50.831138  1052 net.cpp:98] Creating Layer res3a_branch2b
I0701 14:51:50.831142  1052 net.cpp:439] res3a_branch2b <- res3a_branch2a/bn
I0701 14:51:50.831146  1052 net.cpp:413] res3a_branch2b -> res3a_branch2b
I0701 14:51:50.832196  1052 net.cpp:148] Setting up res3a_branch2b
I0701 14:51:50.832203  1052 net.cpp:155] Top shape: 50 128 16 16 (1638400)
I0701 14:51:50.832206  1052 net.cpp:163] Memory required for data: 155239200
I0701 14:51:50.832219  1052 layer_factory.hpp:77] Creating layer res3a_branch2b/bn
I0701 14:51:50.832226  1052 net.cpp:98] Creating Layer res3a_branch2b/bn
I0701 14:51:50.832231  1052 net.cpp:439] res3a_branch2b/bn <- res3a_branch2b
I0701 14:51:50.832235  1052 net.cpp:413] res3a_branch2b/bn -> res3a_branch2b/bn
I0701 14:51:50.832881  1052 net.cpp:148] Setting up res3a_branch2b/bn
I0701 14:51:50.832888  1052 net.cpp:155] Top shape: 50 128 16 16 (1638400)
I0701 14:51:50.832892  1052 net.cpp:163] Memory required for data: 161792800
I0701 14:51:50.832901  1052 layer_factory.hpp:77] Creating layer res3a_branch2b/relu
I0701 14:51:50.832906  1052 net.cpp:98] Creating Layer res3a_branch2b/relu
I0701 14:51:50.832909  1052 net.cpp:439] res3a_branch2b/relu <- res3a_branch2b/bn
I0701 14:51:50.832913  1052 net.cpp:400] res3a_branch2b/relu -> res3a_branch2b/bn (in-place)
I0701 14:51:50.832919  1052 net.cpp:148] Setting up res3a_branch2b/relu
I0701 14:51:50.832924  1052 net.cpp:155] Top shape: 50 128 16 16 (1638400)
I0701 14:51:50.832927  1052 net.cpp:163] Memory required for data: 168346400
I0701 14:51:50.832931  1052 layer_factory.hpp:77] Creating layer pool3
I0701 14:51:50.832937  1052 net.cpp:98] Creating Layer pool3
I0701 14:51:50.832940  1052 net.cpp:439] pool3 <- res3a_branch2b/bn
I0701 14:51:50.832945  1052 net.cpp:413] pool3 -> pool3
I0701 14:51:50.832988  1052 net.cpp:148] Setting up pool3
I0701 14:51:50.832993  1052 net.cpp:155] Top shape: 50 128 16 16 (1638400)
I0701 14:51:50.832998  1052 net.cpp:163] Memory required for data: 174900000
I0701 14:51:50.833000  1052 layer_factory.hpp:77] Creating layer res4a_branch2a
I0701 14:51:50.833008  1052 net.cpp:98] Creating Layer res4a_branch2a
I0701 14:51:50.833010  1052 net.cpp:439] res4a_branch2a <- pool3
I0701 14:51:50.833015  1052 net.cpp:413] res4a_branch2a -> res4a_branch2a
I0701 14:51:50.839099  1052 net.cpp:148] Setting up res4a_branch2a
I0701 14:51:50.839107  1052 net.cpp:155] Top shape: 50 256 16 16 (3276800)
I0701 14:51:50.839109  1052 net.cpp:163] Memory required for data: 188007200
I0701 14:51:50.839117  1052 layer_factory.hpp:77] Creating layer res4a_branch2a/bn
I0701 14:51:50.839121  1052 net.cpp:98] Creating Layer res4a_branch2a/bn
I0701 14:51:50.839126  1052 net.cpp:439] res4a_branch2a/bn <- res4a_branch2a
I0701 14:51:50.839131  1052 net.cpp:413] res4a_branch2a/bn -> res4a_branch2a/bn
I0701 14:51:50.839771  1052 net.cpp:148] Setting up res4a_branch2a/bn
I0701 14:51:50.839777  1052 net.cpp:155] Top shape: 50 256 16 16 (3276800)
I0701 14:51:50.839782  1052 net.cpp:163] Memory required for data: 201114400
I0701 14:51:50.839790  1052 layer_factory.hpp:77] Creating layer res4a_branch2a/relu
I0701 14:51:50.839794  1052 net.cpp:98] Creating Layer res4a_branch2a/relu
I0701 14:51:50.839798  1052 net.cpp:439] res4a_branch2a/relu <- res4a_branch2a/bn
I0701 14:51:50.839803  1052 net.cpp:400] res4a_branch2a/relu -> res4a_branch2a/bn (in-place)
I0701 14:51:50.839809  1052 net.cpp:148] Setting up res4a_branch2a/relu
I0701 14:51:50.839813  1052 net.cpp:155] Top shape: 50 256 16 16 (3276800)
I0701 14:51:50.839818  1052 net.cpp:163] Memory required for data: 214221600
I0701 14:51:50.839820  1052 layer_factory.hpp:77] Creating layer res4a_branch2b
I0701 14:51:50.839826  1052 net.cpp:98] Creating Layer res4a_branch2b
I0701 14:51:50.839830  1052 net.cpp:439] res4a_branch2b <- res4a_branch2a/bn
I0701 14:51:50.839835  1052 net.cpp:413] res4a_branch2b -> res4a_branch2b
I0701 14:51:50.843037  1052 net.cpp:148] Setting up res4a_branch2b
I0701 14:51:50.843044  1052 net.cpp:155] Top shape: 50 256 16 16 (3276800)
I0701 14:51:50.843047  1052 net.cpp:163] Memory required for data: 227328800
I0701 14:51:50.843053  1052 layer_factory.hpp:77] Creating layer res4a_branch2b/bn
I0701 14:51:50.843058  1052 net.cpp:98] Creating Layer res4a_branch2b/bn
I0701 14:51:50.843062  1052 net.cpp:439] res4a_branch2b/bn <- res4a_branch2b
I0701 14:51:50.843072  1052 net.cpp:413] res4a_branch2b/bn -> res4a_branch2b/bn
I0701 14:51:50.843719  1052 net.cpp:148] Setting up res4a_branch2b/bn
I0701 14:51:50.843725  1052 net.cpp:155] Top shape: 50 256 16 16 (3276800)
I0701 14:51:50.843737  1052 net.cpp:163] Memory required for data: 240436000
I0701 14:51:50.843746  1052 layer_factory.hpp:77] Creating layer res4a_branch2b/relu
I0701 14:51:50.843751  1052 net.cpp:98] Creating Layer res4a_branch2b/relu
I0701 14:51:50.843755  1052 net.cpp:439] res4a_branch2b/relu <- res4a_branch2b/bn
I0701 14:51:50.843760  1052 net.cpp:400] res4a_branch2b/relu -> res4a_branch2b/bn (in-place)
I0701 14:51:50.843766  1052 net.cpp:148] Setting up res4a_branch2b/relu
I0701 14:51:50.843770  1052 net.cpp:155] Top shape: 50 256 16 16 (3276800)
I0701 14:51:50.843775  1052 net.cpp:163] Memory required for data: 253543200
I0701 14:51:50.843777  1052 layer_factory.hpp:77] Creating layer pool4
I0701 14:51:50.843783  1052 net.cpp:98] Creating Layer pool4
I0701 14:51:50.843787  1052 net.cpp:439] pool4 <- res4a_branch2b/bn
I0701 14:51:50.843792  1052 net.cpp:413] pool4 -> pool4
I0701 14:51:50.843839  1052 net.cpp:148] Setting up pool4
I0701 14:51:50.843844  1052 net.cpp:155] Top shape: 50 256 8 8 (819200)
I0701 14:51:50.843848  1052 net.cpp:163] Memory required for data: 256820000
I0701 14:51:50.843852  1052 layer_factory.hpp:77] Creating layer res5a_branch2a
I0701 14:51:50.843859  1052 net.cpp:98] Creating Layer res5a_branch2a
I0701 14:51:50.843863  1052 net.cpp:439] res5a_branch2a <- pool4
I0701 14:51:50.843868  1052 net.cpp:413] res5a_branch2a -> res5a_branch2a
I0701 14:51:50.868707  1052 net.cpp:148] Setting up res5a_branch2a
I0701 14:51:50.868726  1052 net.cpp:155] Top shape: 50 512 8 8 (1638400)
I0701 14:51:50.868729  1052 net.cpp:163] Memory required for data: 263373600
I0701 14:51:50.868736  1052 layer_factory.hpp:77] Creating layer res5a_branch2a/bn
I0701 14:51:50.868747  1052 net.cpp:98] Creating Layer res5a_branch2a/bn
I0701 14:51:50.868752  1052 net.cpp:439] res5a_branch2a/bn <- res5a_branch2a
I0701 14:51:50.868758  1052 net.cpp:413] res5a_branch2a/bn -> res5a_branch2a/bn
I0701 14:51:50.869464  1052 net.cpp:148] Setting up res5a_branch2a/bn
I0701 14:51:50.869477  1052 net.cpp:155] Top shape: 50 512 8 8 (1638400)
I0701 14:51:50.869482  1052 net.cpp:163] Memory required for data: 269927200
I0701 14:51:50.869489  1052 layer_factory.hpp:77] Creating layer res5a_branch2a/relu
I0701 14:51:50.869494  1052 net.cpp:98] Creating Layer res5a_branch2a/relu
I0701 14:51:50.869498  1052 net.cpp:439] res5a_branch2a/relu <- res5a_branch2a/bn
I0701 14:51:50.869503  1052 net.cpp:400] res5a_branch2a/relu -> res5a_branch2a/bn (in-place)
I0701 14:51:50.869509  1052 net.cpp:148] Setting up res5a_branch2a/relu
I0701 14:51:50.869514  1052 net.cpp:155] Top shape: 50 512 8 8 (1638400)
I0701 14:51:50.869518  1052 net.cpp:163] Memory required for data: 276480800
I0701 14:51:50.869523  1052 layer_factory.hpp:77] Creating layer res5a_branch2b
I0701 14:51:50.869529  1052 net.cpp:98] Creating Layer res5a_branch2b
I0701 14:51:50.869532  1052 net.cpp:439] res5a_branch2b <- res5a_branch2a/bn
I0701 14:51:50.869537  1052 net.cpp:413] res5a_branch2b -> res5a_branch2b
I0701 14:51:50.882344  1052 net.cpp:148] Setting up res5a_branch2b
I0701 14:51:50.882354  1052 net.cpp:155] Top shape: 50 512 8 8 (1638400)
I0701 14:51:50.882356  1052 net.cpp:163] Memory required for data: 283034400
I0701 14:51:50.882369  1052 layer_factory.hpp:77] Creating layer res5a_branch2b/bn
I0701 14:51:50.882376  1052 net.cpp:98] Creating Layer res5a_branch2b/bn
I0701 14:51:50.882380  1052 net.cpp:439] res5a_branch2b/bn <- res5a_branch2b
I0701 14:51:50.882388  1052 net.cpp:413] res5a_branch2b/bn -> res5a_branch2b/bn
I0701 14:51:50.883157  1052 net.cpp:148] Setting up res5a_branch2b/bn
I0701 14:51:50.883164  1052 net.cpp:155] Top shape: 50 512 8 8 (1638400)
I0701 14:51:50.883168  1052 net.cpp:163] Memory required for data: 289588000
I0701 14:51:50.883177  1052 layer_factory.hpp:77] Creating layer res5a_branch2b/relu
I0701 14:51:50.883182  1052 net.cpp:98] Creating Layer res5a_branch2b/relu
I0701 14:51:50.883185  1052 net.cpp:439] res5a_branch2b/relu <- res5a_branch2b/bn
I0701 14:51:50.883190  1052 net.cpp:400] res5a_branch2b/relu -> res5a_branch2b/bn (in-place)
I0701 14:51:50.883204  1052 net.cpp:148] Setting up res5a_branch2b/relu
I0701 14:51:50.883209  1052 net.cpp:155] Top shape: 50 512 8 8 (1638400)
I0701 14:51:50.883213  1052 net.cpp:163] Memory required for data: 296141600
I0701 14:51:50.883216  1052 layer_factory.hpp:77] Creating layer pool5
I0701 14:51:50.883222  1052 net.cpp:98] Creating Layer pool5
I0701 14:51:50.883225  1052 net.cpp:439] pool5 <- res5a_branch2b/bn
I0701 14:51:50.883230  1052 net.cpp:413] pool5 -> pool5
I0701 14:51:50.883258  1052 net.cpp:148] Setting up pool5
I0701 14:51:50.883263  1052 net.cpp:155] Top shape: 50 512 1 1 (25600)
I0701 14:51:50.883267  1052 net.cpp:163] Memory required for data: 296244000
I0701 14:51:50.883271  1052 layer_factory.hpp:77] Creating layer fc10
I0701 14:51:50.883283  1052 net.cpp:98] Creating Layer fc10
I0701 14:51:50.883287  1052 net.cpp:439] fc10 <- pool5
I0701 14:51:50.883293  1052 net.cpp:413] fc10 -> fc10
I0701 14:51:50.883548  1052 net.cpp:148] Setting up fc10
I0701 14:51:50.883554  1052 net.cpp:155] Top shape: 50 10 (500)
I0701 14:51:50.883558  1052 net.cpp:163] Memory required for data: 296246000
I0701 14:51:50.883564  1052 layer_factory.hpp:77] Creating layer fc10_fc10_0_split
I0701 14:51:50.883570  1052 net.cpp:98] Creating Layer fc10_fc10_0_split
I0701 14:51:50.883574  1052 net.cpp:439] fc10_fc10_0_split <- fc10
I0701 14:51:50.883579  1052 net.cpp:413] fc10_fc10_0_split -> fc10_fc10_0_split_0
I0701 14:51:50.883584  1052 net.cpp:413] fc10_fc10_0_split -> fc10_fc10_0_split_1
I0701 14:51:50.883589  1052 net.cpp:413] fc10_fc10_0_split -> fc10_fc10_0_split_2
I0701 14:51:50.883656  1052 net.cpp:148] Setting up fc10_fc10_0_split
I0701 14:51:50.883661  1052 net.cpp:155] Top shape: 50 10 (500)
I0701 14:51:50.883666  1052 net.cpp:155] Top shape: 50 10 (500)
I0701 14:51:50.883671  1052 net.cpp:155] Top shape: 50 10 (500)
I0701 14:51:50.883674  1052 net.cpp:163] Memory required for data: 296252000
I0701 14:51:50.883678  1052 layer_factory.hpp:77] Creating layer loss
I0701 14:51:50.883684  1052 net.cpp:98] Creating Layer loss
I0701 14:51:50.883688  1052 net.cpp:439] loss <- fc10_fc10_0_split_0
I0701 14:51:50.883692  1052 net.cpp:439] loss <- label_data_1_split_0
I0701 14:51:50.883697  1052 net.cpp:413] loss -> loss
…
