…
I0704 07:43:18.814389 25348 net.cpp:327] The NetState phase (0) differed from the phase (1) specified by a rule in layer accuracy/top1
I0704 07:43:18.814395 25348 net.cpp:327] The NetState phase (0) differed from the phase (1) specified by a rule in layer accuracy/top5
I0704 07:43:18.814551 25348 net.cpp:56] Initializing net from parameters: 
name: "jacintonet11v2_train"
state {
  phase: TRAIN
}
layer {
  name: "data"
  type: "Data"
  top: "data"
  top: "label"
  transform_param {
    mirror: true
    crop_size: 32
    mean_value: 0
    mean_value: 0
    mean_value: 0
  }
  data_param {
    source: "./data/cifar10_train_lmdb"
    batch_size: 21
    backend: LMDB
    threads: 1
  }
}
layer {
  name: "data/bias"
  type: "Bias"
  bottom: "data"
  top: "data/bias"
  param {
    lr_mult: 0
    decay_mult: 0
  }
  bias_param {
    filler {
      type: "constant"
      value: -128
    }
  }
}
layer {
  name: "conv1a"
  type: "Convolution"
  bottom: "data/bias"
  top: "conv1a"
  param {
    lr_mult: 1
    decay_mult: 1
  }
  param {
    lr_mult: 2
    decay_mult: 0
  }
  convolution_param {
    num_output: 32
    bias_term: true
    pad: 2
    kernel_size: 5
    group: 1
    stride: 1
    weight_filler {
      type: "msra"
    }
    bias_filler {
      type: "constant"
      value: 0
    }
    dilation: 1
  }
}
layer {
  name: "conv1a/bn"
  type: "BatchNorm"
  bottom: "conv1a"
  top: "conv1a/bn"
  param {
    lr_mult: 1
    decay_mult: 1
  }
  param {
    lr_mult: 1
    decay_mult: 1
  }
  param {
    lr_mult: 0
    decay_mult: 0
  }
  param {
    lr_mult: 0
    decay_mult: 0
  }
  batch_norm_param {
    moving_average_fraction: 0.99
    eps: 0.0001
    scale_filler {
      type: "constant"
      value: 1
    }
    bias_filler {
      type: "constant"
      value: 0
    }
  }
}
layer {
  name: "conv1a/relu"
  type: "ReLU"
  bottom: "conv1a/bn"
  top: "conv1a/bn"
}
layer {
  name: "conv1b"
  type: "Convolution"
  bottom: "conv1a/bn"
  top: "conv1b"
  param {
    lr_mult: 1
    decay_mult: 1
  }
  param {
    lr_mult: 2
    decay_mult: 0
  }
  convolution_param {
    num_output: 32
    bias_term: true
    pad: 1
    kernel_size: 3
    group: 4
    stride: 1
    weight_filler {
      type: "msra"
    }
    bias_filler {
      type: "constant"
      value: 0
    }
    dilation: 1
  }
}
layer {
  name: "conv1b/bn"
  type: "BatchNorm"
  bottom: "conv1b"
  top: "conv1b/bn"
  param {
    lr_mult: 1
    decay_mult: 1
  }
  param {
    lr_mult: 1
    decay_mult: 1
  }
  param {
    lr_mult: 0
    decay_mult: 0
  }
  param {
    lr_mult: 0
    decay_mult: 0
  }
  batch_norm_param {
    moving_average_fraction: 0.99
    eps: 0.0001
    scale_filler {
      type: "constant"
      value: 1
    }
    bias_filler {
      type: "constant"
      value: 0
    }
  }
}
layer {
  name: "conv1b/relu"
  type: "ReLU"
  bottom: "conv1b/bn"
  top: "conv1b/bn"
}
layer {
  name: "pool1"
  type: "Pooling"
  bottom: "conv1b/bn"
  top: "pool1"
  pooling_param {
    pool: MAX
    kernel_size: 1
    stride: 1
  }
}
layer {
  name: "res2a_branch2a"
  type: "Convolution"
  bottom: "pool1"
  top: "res2a_branch2a"
  param {
    lr_mult: 1
    decay_mult: 1
  }
  param {
    lr_mult: 2
    decay_mult: 0
  }
  convolution_param {
    num_output: 64
    bias_term: true
    pad: 1
    kernel_size: 3
    group: 1
    stride: 1
    weight_filler {
      type: "msra"
    }
    bias_filler {
      type: "constant"
      value: 0
    }
    dilation: 1
  }
}
layer {
  name: "res2a_branch2a/bn"
  type: "BatchNorm"
  bottom: "res2a_branch2a"
  top: "res2a_branch2a/bn"
  param {
    lr_mult: 1
    decay_mult: 1
  }
  param {
    lr_mult: 1
    decay_mult: 1
  }
  param {
    lr_mult: 0
    decay_mult: 0
  }
  param {
    lr_mult: 0
    decay_mult: 0
  }
  batch_norm_param {
    moving_average_fraction: 0.99
    eps: 0.0001
    scale_filler {
      type: "constant"
      value: 1
    }
    bias_filler {
      type: "constant"
      value: 0
    }
  }
}
layer {
  name: "res2a_branch2a/relu"
  type: "ReLU"
  bottom: "res2a_branch2a/bn"
  top: "res2a_branch2a/bn"
}
layer {
  name: "res2a_branch2b"
  type: "Convolution"
  bottom: "res2a_branch2a/bn"
  top: "res2a_branch2b"
  param {
    lr_mult: 1
    decay_mult: 1
  }
  param {
    lr_mult: 2
    decay_mult: 0
  }
  convolution_param {
    num_output: 64
    bias_term: true
    pad: 1
    kernel_size: 3
    group: 4
    stride: 1
    weight_filler {
      type: "msra"
    }
    bias_filler {
      type: "constant"
      value: 0
    }
    dilation: 1
  }
}
layer {
  name: "res2a_branch2b/bn"
  type: "BatchNorm"
  bottom: "res2a_branch2b"
  top: "res2a_branch2b/bn"
  param {
    lr_mult: 1
    decay_mult: 1
  }
  param {
    lr_mult: 1
    decay_mult: 1
  }
  param {
    lr_mult: 0
    decay_mult: 0
  }
  param {
    lr_mult: 0
    decay_mult: 0
  }
  batch_norm_param {
    moving_average_fraction: 0.99
    eps: 0.0001
    scale_filler {
      type: "constant"
      value: 1
    }
    bias_filler {
      type: "constant"
      value: 0
    }
  }
}
layer {
  name: "res2a_branch2b/relu"
  type: "ReLU"
  bottom: "res2a_branch2b/bn"
  top: "res2a_branch2b/bn"
}
layer {
  name: "pool2"
  type: "Pooling"
  bottom: "res2a_branch2b/bn"
  top: "pool2"
  pooling_param {
    pool: MAX
    kernel_size: 2
    stride: 2
  }
}
layer {
  name: "res3a_branch2a"
  type: "Convolution"
  bottom: "pool2"
  top: "res3a_branch2a"
  param {
    lr_mult: 1
    decay_mult: 1
  }
  param {
    lr_mult: 2
    decay_mult: 0
  }
  convolution_param {
    num_output: 128
    bias_term: true
    pad: 1
    kernel_size: 3
    group: 1
    stride: 1
    weight_filler {
      type: "msra"
    }
    bias_filler {
      type: "constant"
      value: 0
    }
    dilation: 1
  }
}
layer {
  name: "res3a_branch2a/bn"
  type: "BatchNorm"
  bottom: "res3a_branch2a"
  top: "res3a_branch2a/bn"
  param {
    lr_mult: 1
    decay_mult: 1
  }
  param {
    lr_mult: 1
    decay_mult: 1
  }
  param {
    lr_mult: 0
    decay_mult: 0
  }
  param {
    lr_mult: 0
    decay_mult: 0
  }
  batch_norm_param {
    moving_average_fraction: 0.99
    eps: 0.0001
    scale_filler {
      type: "constant"
      value: 1
    }
    bias_filler {
      type: "constant"
      value: 0
    }
  }
}
layer {
  name: "res3a_branch2a/relu"
  type: "ReLU"
  bottom: "res3a_branch2a/bn"
  top: "res3a_branch2a/bn"
}
layer {
  name: "res3a_branch2b"
  type: "Convolution"
  bottom: "res3a_branch2a/bn"
  top: "res3a_branch2b"
  param {
    lr_mult: 1
    decay_mult: 1
  }
  param {
    lr_mult: 2
    decay_mult: 0
  }
  convolution_param {
    num_output: 128
    bias_term: true
    pad: 1
    kernel_size: 3
    group: 4
    stride: 1
    weight_filler {
      type: "msra"
    }
    bias_filler {
      type: "constant"
      value: 0
    }
    dilation: 1
  }
}
layer {
  name: "res3a_branch2b/bn"
  type: "BatchNorm"
  bottom: "res3a_branch2b"
  top: "res3a_branch2b/bn"
  param {
    lr_mult: 1
    decay_mult: 1
  }
  param {
    lr_mult: 1
    decay_mult: 1
  }
  param {
    lr_mult: 0
    decay_mult: 0
  }
  param {
    lr_mult: 0
    decay_mult: 0
  }
  batch_norm_param {
    moving_average_fraction: 0.99
    eps: 0.0001
    scale_filler {
      type: "constant"
      value: 1
    }
    bias_filler {
      type: "constant"
      value: 0
    }
  }
}
layer {
  name: "res3a_branch2b/relu"
  type: "ReLU"
  bottom: "res3a_branch2b/bn"
  top: "res3a_branch2b/bn"
}
layer {
  name: "pool3"
  type: "Pooling"
  bottom: "res3a_branch2b/bn"
  top: "pool3"
  pooling_param {
    pool: MAX
    kernel_size: 1
    stride: 1
  }
}
layer {
  name: "res4a_branch2a"
  type: "Convolution"
  bottom: "pool3"
  top: "res4a_branch2a"
  param {
    lr_mult: 1
    decay_mult: 1
  }
  param {
    lr_mult: 2
    decay_mult: 0
  }
  convolution_param {
    num_output: 256
    bias_term: true
    pad: 1
    kernel_size: 3
    group: 1
    stride: 1
    weight_filler {
      type: "msra"
    }
    bias_filler {
      type: "constant"
      value: 0
    }
    dilation: 1
  }
}
layer {
  name: "res4a_branch2a/bn"
  type: "BatchNorm"
  bottom: "res4a_branch2a"
  top: "res4a_branch2a/bn"
  param {
    lr_mult: 1
    decay_mult: 1
  }
  param {
    lr_mult: 1
    decay_mult: 1
  }
  param {
    lr_mult: 0
    decay_mult: 0
  }
  param {
    lr_mult: 0
    decay_mult: 0
  }
  batch_norm_param {
    moving_average_fraction: 0.99
    eps: 0.0001
    scale_filler {
      type: "constant"
      value: 1
    }
    bias_filler {
      type: "constant"
      value: 0
    }
  }
}
layer {
  name: "res4a_branch2a/relu"
  type: "ReLU"
  bottom: "res4a_branch2a/bn"
  top: "res4a_branch2a/bn"
}
layer {
  name: "res4a_branch2b"
  type: "Convolution"
  bottom: "res4a_branch2a/bn"
  top: "res4a_branch2b"
  param {
    lr_mult: 1
    decay_mult: 1
  }
  param {
    lr_mult: 2
    decay_mult: 0
  }
  convolution_param {
    num_output: 256
    bias_term: true
    pad: 1
    kernel_size: 3
    group: 4
    stride: 1
    weight_filler {
      type: "msra"
    }
    bias_filler {
      type: "constant"
      value: 0
    }
    dilation: 1
  }
}
layer {
  name: "res4a_branch2b/bn"
  type: "BatchNorm"
  bottom: "res4a_branch2b"
  top: "res4a_branch2b/bn"
  param {
    lr_mult: 1
    decay_mult: 1
  }
  param {
    lr_mult: 1
    decay_mult: 1
  }
  param {
    lr_mult: 0
    decay_mult: 0
  }
  param {
    lr_mult: 0
    decay_mult: 0
  }
  batch_norm_param {
    moving_average_fraction: 0.99
    eps: 0.0001
    scale_filler {
      type: "constant"
      value: 1
    }
    bias_filler {
      type: "constant"
      value: 0
    }
  }
}
layer {
  name: "res4a_branch2b/relu"
  type: "ReLU"
  bottom: "res4a_branch2b/bn"
  top: "res4a_branch2b/bn"
}
layer {
  name: "pool4"
  type: "Pooling"
  bottom: "res4a_branch2b/bn"
  top: "pool4"
  pooling_param {
    pool: MAX
    kernel_size: 2
    stride: 2
  }
}
layer {
  name: "res5a_branch2a"
  type: "Convolution"
  bottom: "pool4"
  top: "res5a_branch2a"
  param {
    lr_mult: 1
    decay_mult: 1
  }
  param {
    lr_mult: 2
    decay_mult: 0
  }
  convolution_param {
    num_output: 512
    bias_term: true
    pad: 1
    kernel_size: 3
    group: 1
    stride: 1
    weight_filler {
      type: "msra"
    }
    bias_filler {
      type: "constant"
      value: 0
    }
    dilation: 1
  }
}
layer {
  name: "res5a_branch2a/bn"
  type: "BatchNorm"
  bottom: "res5a_branch2a"
  top: "res5a_branch2a/bn"
  param {
    lr_mult: 1
    decay_mult: 1
  }
  param {
    lr_mult: 1
    decay_mult: 1
  }
  param {
    lr_mult: 0
    decay_mult: 0
  }
  param {
    lr_mult: 0
    decay_mult: 0
  }
  batch_norm_param {
    moving_average_fraction: 0.99
    eps: 0.0001
    scale_filler {
      type: "constant"
      value: 1
    }
    bias_filler {
      type: "constant"
      value: 0
    }
  }
}
layer {
  name: "res5a_branch2a/relu"
  type: "ReLU"
  bottom: "res5a_branch2a/bn"
  top: "res5a_branch2a/bn"
}
layer {
  name: "res5a_branch2b"
  type: "Convolution"
  bottom: "res5a_branch2a/bn"
  top: "res5a_branch2b"
  param {
    lr_mult: 1
    decay_mult: 1
  }
  param {
    lr_mult: 2
    decay_mult: 0
  }
  convolution_param {
    num_output: 512
    bias_term: true
    pad: 1
    kernel_size: 3
    group: 4
    stride: 1
    weight_filler {
      type: "msra"
    }
    bias_filler {
      type: "constant"
      value: 0
    }
    dilation: 1
  }
}
layer {
  name: "res5a_branch2b/bn"
  type: "BatchNorm"
  bottom: "res5a_branch2b"
  top: "res5a_branch2b/bn"
  param {
    lr_mult: 1
    decay_mult: 1
  }
  param {
    lr_mult: 1
    decay_mult: 1
  }
  param {
    lr_mult: 0
    decay_mult: 0
  }
  param {
    lr_mult: 0
    decay_mult: 0
  }
  batch_norm_param {
    moving_average_fraction: 0.99
    eps: 0.0001
    scale_filler {
      type: "constant"
      value: 1
    }
    bias_filler {
      type: "constant"
      value: 0
    }
  }
}
layer {
  name: "res5a_branch2b/relu"
  type: "ReLU"
  bottom: "res5a_branch2b/bn"
  top: "res5a_branch2b/bn"
}
layer {
  name: "pool5"
  type: "Pooling"
  bottom: "res5a_branch2b/bn"
  top: "pool5"
  pooling_param {
    pool: AVE
    global_pooling: true
  }
}
layer {
  name: "fc10"
  type: "InnerProduct"
  bottom: "pool5"
  top: "fc10"
  param {
    lr_mult: 1
    decay_mult: 1
  }
  param {
    lr_mult: 2
    decay_mult: 0
  }
  inner_product_param {
    num_output: 10
    weight_filler {
      type: "msra"
    }
    bias_filler {
      type: "constant"
      value: 0
    }
  }
}
layer {
  name: "loss"
  type: "SoftmaxWithLoss"
  bottom: "fc10"
  bottom: "label"
  top: "loss"
  propagate_down: true
  propagate_down: false
}
I0704 07:43:18.814636 25348 layer_factory.hpp:77] Creating layer data
I0704 07:43:18.814719 25348 net.cpp:98] Creating Layer data
I0704 07:43:18.814725 25348 net.cpp:413] data -> data
I0704 07:43:18.814741 25348 net.cpp:413] data -> label
I0704 07:43:18.815533 25377 db_lmdb.cpp:35] Opened lmdb ./data/cifar10_train_lmdb
I0704 07:43:18.831476 25348 data_layer.cpp:78] ReshapePrefetch 21, 3, 32, 32
I0704 07:43:18.831531 25348 data_layer.cpp:83] output data size: 21,3,32,32
I0704 07:43:18.833170 25348 net.cpp:148] Setting up data
I0704 07:43:18.833183 25348 net.cpp:155] Top shape: 21 3 32 32 (64512)
I0704 07:43:18.833185 25348 net.cpp:155] Top shape: 21 (21)
I0704 07:43:18.833187 25348 net.cpp:163] Memory required for data: 258132
I0704 07:43:18.833192 25348 layer_factory.hpp:77] Creating layer data/bias
I0704 07:43:18.833199 25348 net.cpp:98] Creating Layer data/bias
I0704 07:43:18.833202 25348 net.cpp:439] data/bias <- data
I0704 07:43:18.833209 25348 net.cpp:413] data/bias -> data/bias
I0704 07:43:18.834234 25348 net.cpp:148] Setting up data/bias
I0704 07:43:18.834244 25348 net.cpp:155] Top shape: 21 3 32 32 (64512)
I0704 07:43:18.834246 25348 net.cpp:163] Memory required for data: 516180
I0704 07:43:18.834254 25348 layer_factory.hpp:77] Creating layer conv1a
I0704 07:43:18.834262 25348 net.cpp:98] Creating Layer conv1a
I0704 07:43:18.834264 25348 net.cpp:439] conv1a <- data/bias
I0704 07:43:18.834267 25348 net.cpp:413] conv1a -> conv1a
I0704 07:43:18.834519 25379 blocking_queue.cpp:50] Waiting for data
I0704 07:43:18.835582 25348 net.cpp:148] Setting up conv1a
I0704 07:43:18.835590 25348 net.cpp:155] Top shape: 21 32 32 32 (688128)
I0704 07:43:18.835592 25348 net.cpp:163] Memory required for data: 3268692
I0704 07:43:18.835597 25348 layer_factory.hpp:77] Creating layer conv1a/bn
I0704 07:43:18.835603 25348 net.cpp:98] Creating Layer conv1a/bn
I0704 07:43:18.835605 25348 net.cpp:439] conv1a/bn <- conv1a
I0704 07:43:18.835608 25348 net.cpp:413] conv1a/bn -> conv1a/bn
I0704 07:43:18.836293 25348 net.cpp:148] Setting up conv1a/bn
I0704 07:43:18.836299 25348 net.cpp:155] Top shape: 21 32 32 32 (688128)
I0704 07:43:18.836302 25348 net.cpp:163] Memory required for data: 6021204
I0704 07:43:18.836308 25348 layer_factory.hpp:77] Creating layer conv1a/relu
I0704 07:43:18.836311 25348 net.cpp:98] Creating Layer conv1a/relu
I0704 07:43:18.836313 25348 net.cpp:439] conv1a/relu <- conv1a/bn
I0704 07:43:18.836316 25348 net.cpp:400] conv1a/relu -> conv1a/bn (in-place)
I0704 07:43:18.836328 25348 net.cpp:148] Setting up conv1a/relu
I0704 07:43:18.836330 25348 net.cpp:155] Top shape: 21 32 32 32 (688128)
I0704 07:43:18.836341 25348 net.cpp:163] Memory required for data: 8773716
I0704 07:43:18.836344 25348 layer_factory.hpp:77] Creating layer conv1b
I0704 07:43:18.836347 25348 net.cpp:98] Creating Layer conv1b
I0704 07:43:18.836350 25348 net.cpp:439] conv1b <- conv1a/bn
I0704 07:43:18.836352 25348 net.cpp:413] conv1b -> conv1b
I0704 07:43:18.836679 25348 net.cpp:148] Setting up conv1b
I0704 07:43:18.836685 25348 net.cpp:155] Top shape: 21 32 32 32 (688128)
I0704 07:43:18.836688 25348 net.cpp:163] Memory required for data: 11526228
I0704 07:43:18.836693 25348 layer_factory.hpp:77] Creating layer conv1b/bn
I0704 07:43:18.836695 25348 net.cpp:98] Creating Layer conv1b/bn
I0704 07:43:18.836699 25348 net.cpp:439] conv1b/bn <- conv1b
I0704 07:43:18.836700 25348 net.cpp:413] conv1b/bn -> conv1b/bn
I0704 07:43:18.837368 25348 net.cpp:148] Setting up conv1b/bn
I0704 07:43:18.837373 25348 net.cpp:155] Top shape: 21 32 32 32 (688128)
I0704 07:43:18.837375 25348 net.cpp:163] Memory required for data: 14278740
I0704 07:43:18.837380 25348 layer_factory.hpp:77] Creating layer conv1b/relu
I0704 07:43:18.837384 25348 net.cpp:98] Creating Layer conv1b/relu
I0704 07:43:18.837386 25348 net.cpp:439] conv1b/relu <- conv1b/bn
I0704 07:43:18.837388 25348 net.cpp:400] conv1b/relu -> conv1b/bn (in-place)
I0704 07:43:18.837393 25348 net.cpp:148] Setting up conv1b/relu
I0704 07:43:18.837395 25348 net.cpp:155] Top shape: 21 32 32 32 (688128)
I0704 07:43:18.837397 25348 net.cpp:163] Memory required for data: 17031252
I0704 07:43:18.837399 25348 layer_factory.hpp:77] Creating layer pool1
I0704 07:43:18.837405 25348 net.cpp:98] Creating Layer pool1
I0704 07:43:18.837407 25348 net.cpp:439] pool1 <- conv1b/bn
I0704 07:43:18.837410 25348 net.cpp:413] pool1 -> pool1
I0704 07:43:18.837458 25348 net.cpp:148] Setting up pool1
I0704 07:43:18.837463 25348 net.cpp:155] Top shape: 21 32 32 32 (688128)
I0704 07:43:18.837466 25348 net.cpp:163] Memory required for data: 19783764
I0704 07:43:18.837467 25348 layer_factory.hpp:77] Creating layer res2a_branch2a
I0704 07:43:18.837471 25348 net.cpp:98] Creating Layer res2a_branch2a
I0704 07:43:18.837474 25348 net.cpp:439] res2a_branch2a <- pool1
I0704 07:43:18.837477 25348 net.cpp:413] res2a_branch2a -> res2a_branch2a
I0704 07:43:18.838111 25348 net.cpp:148] Setting up res2a_branch2a
I0704 07:43:18.838117 25348 net.cpp:155] Top shape: 21 64 32 32 (1376256)
I0704 07:43:18.838119 25348 net.cpp:163] Memory required for data: 25288788
I0704 07:43:18.838124 25348 layer_factory.hpp:77] Creating layer res2a_branch2a/bn
I0704 07:43:18.838127 25348 net.cpp:98] Creating Layer res2a_branch2a/bn
I0704 07:43:18.838130 25348 net.cpp:439] res2a_branch2a/bn <- res2a_branch2a
I0704 07:43:18.838132 25348 net.cpp:413] res2a_branch2a/bn -> res2a_branch2a/bn
I0704 07:43:18.838798 25348 net.cpp:148] Setting up res2a_branch2a/bn
I0704 07:43:18.838805 25348 net.cpp:155] Top shape: 21 64 32 32 (1376256)
I0704 07:43:18.838807 25348 net.cpp:163] Memory required for data: 30793812
I0704 07:43:18.838812 25348 layer_factory.hpp:77] Creating layer res2a_branch2a/relu
I0704 07:43:18.838815 25348 net.cpp:98] Creating Layer res2a_branch2a/relu
I0704 07:43:18.838819 25348 net.cpp:439] res2a_branch2a/relu <- res2a_branch2a/bn
I0704 07:43:18.838821 25348 net.cpp:400] res2a_branch2a/relu -> res2a_branch2a/bn (in-place)
I0704 07:43:18.838825 25348 net.cpp:148] Setting up res2a_branch2a/relu
I0704 07:43:18.838829 25348 net.cpp:155] Top shape: 21 64 32 32 (1376256)
I0704 07:43:18.838830 25348 net.cpp:163] Memory required for data: 36298836
I0704 07:43:18.838832 25348 layer_factory.hpp:77] Creating layer res2a_branch2b
I0704 07:43:18.838836 25348 net.cpp:98] Creating Layer res2a_branch2b
I0704 07:43:18.838840 25348 net.cpp:439] res2a_branch2b <- res2a_branch2a/bn
I0704 07:43:18.838845 25348 net.cpp:413] res2a_branch2b -> res2a_branch2b
I0704 07:43:18.840179 25348 net.cpp:148] Setting up res2a_branch2b
I0704 07:43:18.840188 25348 net.cpp:155] Top shape: 21 64 32 32 (1376256)
I0704 07:43:18.840190 25348 net.cpp:163] Memory required for data: 41803860
I0704 07:43:18.840203 25348 layer_factory.hpp:77] Creating layer res2a_branch2b/bn
I0704 07:43:18.840206 25348 net.cpp:98] Creating Layer res2a_branch2b/bn
I0704 07:43:18.840209 25348 net.cpp:439] res2a_branch2b/bn <- res2a_branch2b
I0704 07:43:18.840214 25348 net.cpp:413] res2a_branch2b/bn -> res2a_branch2b/bn
I0704 07:43:18.840867 25348 net.cpp:148] Setting up res2a_branch2b/bn
I0704 07:43:18.840873 25348 net.cpp:155] Top shape: 21 64 32 32 (1376256)
I0704 07:43:18.840874 25348 net.cpp:163] Memory required for data: 47308884
I0704 07:43:18.840881 25348 layer_factory.hpp:77] Creating layer res2a_branch2b/relu
I0704 07:43:18.840886 25348 net.cpp:98] Creating Layer res2a_branch2b/relu
I0704 07:43:18.840891 25348 net.cpp:439] res2a_branch2b/relu <- res2a_branch2b/bn
I0704 07:43:18.840895 25348 net.cpp:400] res2a_branch2b/relu -> res2a_branch2b/bn (in-place)
I0704 07:43:18.840903 25348 net.cpp:148] Setting up res2a_branch2b/relu
I0704 07:43:18.840905 25348 net.cpp:155] Top shape: 21 64 32 32 (1376256)
I0704 07:43:18.840908 25348 net.cpp:163] Memory required for data: 52813908
I0704 07:43:18.840909 25348 layer_factory.hpp:77] Creating layer pool2
I0704 07:43:18.840912 25348 net.cpp:98] Creating Layer pool2
I0704 07:43:18.840914 25348 net.cpp:439] pool2 <- res2a_branch2b/bn
I0704 07:43:18.840916 25348 net.cpp:413] pool2 -> pool2
I0704 07:43:18.840952 25348 net.cpp:148] Setting up pool2
I0704 07:43:18.840956 25348 net.cpp:155] Top shape: 21 64 16 16 (344064)
I0704 07:43:18.840958 25348 net.cpp:163] Memory required for data: 54190164
I0704 07:43:18.840960 25348 layer_factory.hpp:77] Creating layer res3a_branch2a
I0704 07:43:18.840965 25348 net.cpp:98] Creating Layer res3a_branch2a
I0704 07:43:18.840967 25348 net.cpp:439] res3a_branch2a <- pool2
I0704 07:43:18.840970 25348 net.cpp:413] res3a_branch2a -> res3a_branch2a
I0704 07:43:18.843564 25348 net.cpp:148] Setting up res3a_branch2a
I0704 07:43:18.843574 25348 net.cpp:155] Top shape: 21 128 16 16 (688128)
I0704 07:43:18.843576 25348 net.cpp:163] Memory required for data: 56942676
I0704 07:43:18.843580 25348 layer_factory.hpp:77] Creating layer res3a_branch2a/bn
I0704 07:43:18.843585 25348 net.cpp:98] Creating Layer res3a_branch2a/bn
I0704 07:43:18.843588 25348 net.cpp:439] res3a_branch2a/bn <- res3a_branch2a
I0704 07:43:18.843591 25348 net.cpp:413] res3a_branch2a/bn -> res3a_branch2a/bn
I0704 07:43:18.844173 25348 net.cpp:148] Setting up res3a_branch2a/bn
I0704 07:43:18.844179 25348 net.cpp:155] Top shape: 21 128 16 16 (688128)
I0704 07:43:18.844182 25348 net.cpp:163] Memory required for data: 59695188
I0704 07:43:18.844192 25348 layer_factory.hpp:77] Creating layer res3a_branch2a/relu
I0704 07:43:18.844195 25348 net.cpp:98] Creating Layer res3a_branch2a/relu
I0704 07:43:18.844197 25348 net.cpp:439] res3a_branch2a/relu <- res3a_branch2a/bn
I0704 07:43:18.844199 25348 net.cpp:400] res3a_branch2a/relu -> res3a_branch2a/bn (in-place)
I0704 07:43:18.844203 25348 net.cpp:148] Setting up res3a_branch2a/relu
I0704 07:43:18.844208 25348 net.cpp:155] Top shape: 21 128 16 16 (688128)
I0704 07:43:18.844208 25348 net.cpp:163] Memory required for data: 62447700
I0704 07:43:18.844210 25348 layer_factory.hpp:77] Creating layer res3a_branch2b
I0704 07:43:18.844214 25348 net.cpp:98] Creating Layer res3a_branch2b
I0704 07:43:18.844216 25348 net.cpp:439] res3a_branch2b <- res3a_branch2a/bn
I0704 07:43:18.844219 25348 net.cpp:413] res3a_branch2b -> res3a_branch2b
I0704 07:43:18.845216 25348 net.cpp:148] Setting up res3a_branch2b
I0704 07:43:18.845221 25348 net.cpp:155] Top shape: 21 128 16 16 (688128)
I0704 07:43:18.845223 25348 net.cpp:163] Memory required for data: 65200212
I0704 07:43:18.845227 25348 layer_factory.hpp:77] Creating layer res3a_branch2b/bn
I0704 07:43:18.845232 25348 net.cpp:98] Creating Layer res3a_branch2b/bn
I0704 07:43:18.845234 25348 net.cpp:439] res3a_branch2b/bn <- res3a_branch2b
I0704 07:43:18.845237 25348 net.cpp:413] res3a_branch2b/bn -> res3a_branch2b/bn
I0704 07:43:18.845834 25348 net.cpp:148] Setting up res3a_branch2b/bn
I0704 07:43:18.845839 25348 net.cpp:155] Top shape: 21 128 16 16 (688128)
I0704 07:43:18.845850 25348 net.cpp:163] Memory required for data: 67952724
I0704 07:43:18.845856 25348 layer_factory.hpp:77] Creating layer res3a_branch2b/relu
I0704 07:43:18.845860 25348 net.cpp:98] Creating Layer res3a_branch2b/relu
I0704 07:43:18.845863 25348 net.cpp:439] res3a_branch2b/relu <- res3a_branch2b/bn
I0704 07:43:18.845865 25348 net.cpp:400] res3a_branch2b/relu -> res3a_branch2b/bn (in-place)
I0704 07:43:18.845870 25348 net.cpp:148] Setting up res3a_branch2b/relu
I0704 07:43:18.845873 25348 net.cpp:155] Top shape: 21 128 16 16 (688128)
I0704 07:43:18.845875 25348 net.cpp:163] Memory required for data: 70705236
I0704 07:43:18.845877 25348 layer_factory.hpp:77] Creating layer pool3
I0704 07:43:18.845880 25348 net.cpp:98] Creating Layer pool3
I0704 07:43:18.845883 25348 net.cpp:439] pool3 <- res3a_branch2b/bn
I0704 07:43:18.845888 25348 net.cpp:413] pool3 -> pool3
I0704 07:43:18.845933 25348 net.cpp:148] Setting up pool3
I0704 07:43:18.845939 25348 net.cpp:155] Top shape: 21 128 16 16 (688128)
I0704 07:43:18.845942 25348 net.cpp:163] Memory required for data: 73457748
I0704 07:43:18.845943 25348 layer_factory.hpp:77] Creating layer res4a_branch2a
I0704 07:43:18.845948 25348 net.cpp:98] Creating Layer res4a_branch2a
I0704 07:43:18.845952 25348 net.cpp:439] res4a_branch2a <- pool3
I0704 07:43:18.845954 25348 net.cpp:413] res4a_branch2a -> res4a_branch2a
I0704 07:43:18.852285 25348 net.cpp:148] Setting up res4a_branch2a
I0704 07:43:18.852298 25348 net.cpp:155] Top shape: 21 256 16 16 (1376256)
I0704 07:43:18.852300 25348 net.cpp:163] Memory required for data: 78962772
I0704 07:43:18.852305 25348 layer_factory.hpp:77] Creating layer res4a_branch2a/bn
I0704 07:43:18.852311 25348 net.cpp:98] Creating Layer res4a_branch2a/bn
I0704 07:43:18.852313 25348 net.cpp:439] res4a_branch2a/bn <- res4a_branch2a
I0704 07:43:18.852318 25348 net.cpp:413] res4a_branch2a/bn -> res4a_branch2a/bn
I0704 07:43:18.852974 25348 net.cpp:148] Setting up res4a_branch2a/bn
I0704 07:43:18.852982 25348 net.cpp:155] Top shape: 21 256 16 16 (1376256)
I0704 07:43:18.852984 25348 net.cpp:163] Memory required for data: 84467796
I0704 07:43:18.852990 25348 layer_factory.hpp:77] Creating layer res4a_branch2a/relu
I0704 07:43:18.852994 25348 net.cpp:98] Creating Layer res4a_branch2a/relu
I0704 07:43:18.852998 25348 net.cpp:439] res4a_branch2a/relu <- res4a_branch2a/bn
I0704 07:43:18.853000 25348 net.cpp:400] res4a_branch2a/relu -> res4a_branch2a/bn (in-place)
I0704 07:43:18.853004 25348 net.cpp:148] Setting up res4a_branch2a/relu
I0704 07:43:18.853008 25348 net.cpp:155] Top shape: 21 256 16 16 (1376256)
I0704 07:43:18.853009 25348 net.cpp:163] Memory required for data: 89972820
I0704 07:43:18.853011 25348 layer_factory.hpp:77] Creating layer res4a_branch2b
I0704 07:43:18.853016 25348 net.cpp:98] Creating Layer res4a_branch2b
I0704 07:43:18.853018 25348 net.cpp:439] res4a_branch2b <- res4a_branch2a/bn
I0704 07:43:18.853021 25348 net.cpp:413] res4a_branch2b -> res4a_branch2b
I0704 07:43:18.856284 25348 net.cpp:148] Setting up res4a_branch2b
I0704 07:43:18.856292 25348 net.cpp:155] Top shape: 21 256 16 16 (1376256)
I0704 07:43:18.856294 25348 net.cpp:163] Memory required for data: 95477844
I0704 07:43:18.856297 25348 layer_factory.hpp:77] Creating layer res4a_branch2b/bn
I0704 07:43:18.856302 25348 net.cpp:98] Creating Layer res4a_branch2b/bn
I0704 07:43:18.856304 25348 net.cpp:439] res4a_branch2b/bn <- res4a_branch2b
I0704 07:43:18.856308 25348 net.cpp:413] res4a_branch2b/bn -> res4a_branch2b/bn
I0704 07:43:18.856950 25348 net.cpp:148] Setting up res4a_branch2b/bn
I0704 07:43:18.856957 25348 net.cpp:155] Top shape: 21 256 16 16 (1376256)
I0704 07:43:18.856959 25348 net.cpp:163] Memory required for data: 100982868
I0704 07:43:18.856966 25348 layer_factory.hpp:77] Creating layer res4a_branch2b/relu
I0704 07:43:18.856968 25348 net.cpp:98] Creating Layer res4a_branch2b/relu
I0704 07:43:18.856971 25348 net.cpp:439] res4a_branch2b/relu <- res4a_branch2b/bn
I0704 07:43:18.856974 25348 net.cpp:400] res4a_branch2b/relu -> res4a_branch2b/bn (in-place)
I0704 07:43:18.856986 25348 net.cpp:148] Setting up res4a_branch2b/relu
I0704 07:43:18.856990 25348 net.cpp:155] Top shape: 21 256 16 16 (1376256)
I0704 07:43:18.856992 25348 net.cpp:163] Memory required for data: 106487892
I0704 07:43:18.856994 25348 layer_factory.hpp:77] Creating layer pool4
I0704 07:43:18.856998 25348 net.cpp:98] Creating Layer pool4
I0704 07:43:18.857000 25348 net.cpp:439] pool4 <- res4a_branch2b/bn
I0704 07:43:18.857003 25348 net.cpp:413] pool4 -> pool4
I0704 07:43:18.857046 25348 net.cpp:148] Setting up pool4
I0704 07:43:18.857053 25348 net.cpp:155] Top shape: 21 256 8 8 (344064)
I0704 07:43:18.857056 25348 net.cpp:163] Memory required for data: 107864148
I0704 07:43:18.857060 25348 layer_factory.hpp:77] Creating layer res5a_branch2a
I0704 07:43:18.857067 25348 net.cpp:98] Creating Layer res5a_branch2a
I0704 07:43:18.857071 25348 net.cpp:439] res5a_branch2a <- pool4
I0704 07:43:18.857076 25348 net.cpp:413] res5a_branch2a -> res5a_branch2a
I0704 07:43:18.882076 25348 net.cpp:148] Setting up res5a_branch2a
I0704 07:43:18.882092 25348 net.cpp:155] Top shape: 21 512 8 8 (688128)
I0704 07:43:18.882094 25348 net.cpp:163] Memory required for data: 110616660
I0704 07:43:18.882099 25348 layer_factory.hpp:77] Creating layer res5a_branch2a/bn
I0704 07:43:18.882105 25348 net.cpp:98] Creating Layer res5a_branch2a/bn
I0704 07:43:18.882108 25348 net.cpp:439] res5a_branch2a/bn <- res5a_branch2a
I0704 07:43:18.882112 25348 net.cpp:413] res5a_branch2a/bn -> res5a_branch2a/bn
I0704 07:43:18.882800 25348 net.cpp:148] Setting up res5a_branch2a/bn
I0704 07:43:18.882808 25348 net.cpp:155] Top shape: 21 512 8 8 (688128)
I0704 07:43:18.882810 25348 net.cpp:163] Memory required for data: 113369172
I0704 07:43:18.882815 25348 layer_factory.hpp:77] Creating layer res5a_branch2a/relu
I0704 07:43:18.882819 25348 net.cpp:98] Creating Layer res5a_branch2a/relu
I0704 07:43:18.882822 25348 net.cpp:439] res5a_branch2a/relu <- res5a_branch2a/bn
I0704 07:43:18.882825 25348 net.cpp:400] res5a_branch2a/relu -> res5a_branch2a/bn (in-place)
I0704 07:43:18.882829 25348 net.cpp:148] Setting up res5a_branch2a/relu
I0704 07:43:18.882832 25348 net.cpp:155] Top shape: 21 512 8 8 (688128)
I0704 07:43:18.882833 25348 net.cpp:163] Memory required for data: 116121684
I0704 07:43:18.882835 25348 layer_factory.hpp:77] Creating layer res5a_branch2b
I0704 07:43:18.882843 25348 net.cpp:98] Creating Layer res5a_branch2b
I0704 07:43:18.882846 25348 net.cpp:439] res5a_branch2b <- res5a_branch2a/bn
I0704 07:43:18.882849 25348 net.cpp:413] res5a_branch2b -> res5a_branch2b
I0704 07:43:18.895859 25348 net.cpp:148] Setting up res5a_branch2b
I0704 07:43:18.895879 25348 net.cpp:155] Top shape: 21 512 8 8 (688128)
I0704 07:43:18.895881 25348 net.cpp:163] Memory required for data: 118874196
I0704 07:43:18.895889 25348 layer_factory.hpp:77] Creating layer res5a_branch2b/bn
I0704 07:43:18.895896 25348 net.cpp:98] Creating Layer res5a_branch2b/bn
I0704 07:43:18.895900 25348 net.cpp:439] res5a_branch2b/bn <- res5a_branch2b
I0704 07:43:18.895903 25348 net.cpp:413] res5a_branch2b/bn -> res5a_branch2b/bn
I0704 07:43:18.896600 25348 net.cpp:148] Setting up res5a_branch2b/bn
I0704 07:43:18.896608 25348 net.cpp:155] Top shape: 21 512 8 8 (688128)
I0704 07:43:18.896610 25348 net.cpp:163] Memory required for data: 121626708
I0704 07:43:18.896616 25348 layer_factory.hpp:77] Creating layer res5a_branch2b/relu
I0704 07:43:18.896620 25348 net.cpp:98] Creating Layer res5a_branch2b/relu
I0704 07:43:18.896622 25348 net.cpp:439] res5a_branch2b/relu <- res5a_branch2b/bn
I0704 07:43:18.896625 25348 net.cpp:400] res5a_branch2b/relu -> res5a_branch2b/bn (in-place)
I0704 07:43:18.896628 25348 net.cpp:148] Setting up res5a_branch2b/relu
I0704 07:43:18.896631 25348 net.cpp:155] Top shape: 21 512 8 8 (688128)
I0704 07:43:18.896632 25348 net.cpp:163] Memory required for data: 124379220
I0704 07:43:18.896636 25348 layer_factory.hpp:77] Creating layer pool5
I0704 07:43:18.896641 25348 net.cpp:98] Creating Layer pool5
I0704 07:43:18.896643 25348 net.cpp:439] pool5 <- res5a_branch2b/bn
I0704 07:43:18.896656 25348 net.cpp:413] pool5 -> pool5
I0704 07:43:18.896687 25348 net.cpp:148] Setting up pool5
I0704 07:43:18.896693 25348 net.cpp:155] Top shape: 21 512 1 1 (10752)
I0704 07:43:18.896697 25348 net.cpp:163] Memory required for data: 124422228
I0704 07:43:18.896699 25348 layer_factory.hpp:77] Creating layer fc10
I0704 07:43:18.896703 25348 net.cpp:98] Creating Layer fc10
I0704 07:43:18.896704 25348 net.cpp:439] fc10 <- pool5
I0704 07:43:18.896708 25348 net.cpp:413] fc10 -> fc10
I0704 07:43:18.896934 25348 net.cpp:148] Setting up fc10
I0704 07:43:18.896939 25348 net.cpp:155] Top shape: 21 10 (210)
I0704 07:43:18.896940 25348 net.cpp:163] Memory required for data: 124423068
I0704 07:43:18.896944 25348 layer_factory.hpp:77] Creating layer loss
I0704 07:43:18.896952 25348 net.cpp:98] Creating Layer loss
I0704 07:43:18.896955 25348 net.cpp:439] loss <- fc10
I0704 07:43:18.896956 25348 net.cpp:439] loss <- label
I0704 07:43:18.896960 25348 net.cpp:413] loss -> loss
I0704 07:43:18.896966 25348 layer_factory.hpp:77] Creating layer loss
…
I0704 07:43:18.897649 25348 solver.cpp:182] Creating test net (#0) specified by test_net file: training/cifar10_jacintonet11v2_2017-07-04_07-19-29/sparse/test.prototxt
I0704 07:43:18.897832 25348 net.cpp:56] Initializing net from parameters: 
name: "jacintonet11v2_test"
state {
  phase: TEST
}
layer {
  name: "data"
  type: "Data"
  top: "data"
  top: "label"
  transform_param {
    mirror: false
    crop_size: 32
    mean_value: 0
    mean_value: 0
    mean_value: 0
  }
  data_param {
    source: "./data/cifar10_test_lmdb"
    batch_size: 50
    backend: LMDB
    threads: 1
  }
}
layer {
  name: "data/bias"
  type: "Bias"
  bottom: "data"
  top: "data/bias"
  param {
    lr_mult: 0
    decay_mult: 0
  }
  bias_param {
    filler {
      type: "constant"
      value: -128
    }
  }
}
layer {
  name: "conv1a"
  type: "Convolution"
  bottom: "data/bias"
  top: "conv1a"
  param {
    lr_mult: 1
    decay_mult: 1
  }
  param {
    lr_mult: 2
    decay_mult: 0
  }
  convolution_param {
    num_output: 32
    bias_term: true
    pad: 2
    kernel_size: 5
    group: 1
    stride: 1
    weight_filler {
      type: "msra"
    }
    bias_filler {
      type: "constant"
      value: 0
    }
    dilation: 1
  }
}
layer {
  name: "conv1a/bn"
  type: "BatchNorm"
  bottom: "conv1a"
  top: "conv1a/bn"
  param {
    lr_mult: 1
    decay_mult: 1
  }
  param {
    lr_mult: 1
    decay_mult: 1
  }
  param {
    lr_mult: 0
    decay_mult: 0
  }
  param {
    lr_mult: 0
    decay_mult: 0
  }
  batch_norm_param {
    moving_average_fraction: 0.99
    eps: 0.0001
    scale_filler {
      type: "constant"
      value: 1
    }
    bias_filler {
      type: "constant"
      value: 0
    }
  }
}
layer {
  name: "conv1a/relu"
  type: "ReLU"
  bottom: "conv1a/bn"
  top: "conv1a/bn"
}
layer {
  name: "conv1b"
  type: "Convolution"
  bottom: "conv1a/bn"
  top: "conv1b"
  param {
    lr_mult: 1
    decay_mult: 1
  }
  param {
    lr_mult: 2
    decay_mult: 0
  }
  convolution_param {
    num_output: 32
    bias_term: true
    pad: 1
    kernel_size: 3
    group: 4
    stride: 1
    weight_filler {
      type: "msra"
    }
    bias_filler {
      type: "constant"
      value: 0
    }
    dilation: 1
  }
}
layer {
  name: "conv1b/bn"
  type: "BatchNorm"
  bottom: "conv1b"
  top: "conv1b/bn"
  param {
    lr_mult: 1
    decay_mult: 1
  }
  param {
    lr_mult: 1
    decay_mult: 1
  }
  param {
    lr_mult: 0
    decay_mult: 0
  }
  param {
    lr_mult: 0
    decay_mult: 0
  }
  batch_norm_param {
    moving_average_fraction: 0.99
    eps: 0.0001
    scale_filler {
      type: "constant"
      value: 1
    }
    bias_filler {
      type: "constant"
      value: 0
    }
  }
}
layer {
  name: "conv1b/relu"
  type: "ReLU"
  bottom: "conv1b/bn"
  top: "conv1b/bn"
}
layer {
  name: "pool1"
  type: "Pooling"
  bottom: "conv1b/bn"
  top: "pool1"
  pooling_param {
    pool: MAX
    kernel_size: 1
    stride: 1
  }
}
layer {
  name: "res2a_branch2a"
  type: "Convolution"
  bottom: "pool1"
  top: "res2a_branch2a"
  param {
    lr_mult: 1
    decay_mult: 1
  }
  param {
    lr_mult: 2
    decay_mult: 0
  }
  convolution_param {
    num_output: 64
    bias_term: true
    pad: 1
    kernel_size: 3
    group: 1
    stride: 1
    weight_filler {
      type: "msra"
    }
    bias_filler {
      type: "constant"
      value: 0
    }
    dilation: 1
  }
}
layer {
  name: "res2a_branch2a/bn"
  type: "BatchNorm"
  bottom: "res2a_branch2a"
  top: "res2a_branch2a/bn"
  param {
    lr_mult: 1
    decay_mult: 1
  }
  param {
    lr_mult: 1
    decay_mult: 1
  }
  param {
    lr_mult: 0
    decay_mult: 0
  }
  param {
    lr_mult: 0
    decay_mult: 0
  }
  batch_norm_param {
    moving_average_fraction: 0.99
    eps: 0.0001
    scale_filler {
      type: "constant"
      value: 1
    }
    bias_filler {
      type: "constant"
      value: 0
    }
  }
}
layer {
  name: "res2a_branch2a/relu"
  type: "ReLU"
  bottom: "res2a_branch2a/bn"
  top: "res2a_branch2a/bn"
}
layer {
  name: "res2a_branch2b"
  type: "Convolution"
  bottom: "res2a_branch2a/bn"
  top: "res2a_branch2b"
  param {
    lr_mult: 1
    decay_mult: 1
  }
  param {
    lr_mult: 2
    decay_mult: 0
  }
  convolution_param {
    num_output: 64
    bias_term: true
    pad: 1
    kernel_size: 3
    group: 4
    stride: 1
    weight_filler {
      type: "msra"
    }
    bias_filler {
      type: "constant"
      value: 0
    }
    dilation: 1
  }
}
layer {
  name: "res2a_branch2b/bn"
  type: "BatchNorm"
  bottom: "res2a_branch2b"
  top: "res2a_branch2b/bn"
  param {
    lr_mult: 1
    decay_mult: 1
  }
  param {
    lr_mult: 1
    decay_mult: 1
  }
  param {
    lr_mult: 0
    decay_mult: 0
  }
  param {
    lr_mult: 0
    decay_mult: 0
  }
  batch_norm_param {
    moving_average_fraction: 0.99
    eps: 0.0001
    scale_filler {
      type: "constant"
      value: 1
    }
    bias_filler {
      type: "constant"
      value: 0
    }
  }
}
layer {
  name: "res2a_branch2b/relu"
  type: "ReLU"
  bottom: "res2a_branch2b/bn"
  top: "res2a_branch2b/bn"
}
layer {
  name: "pool2"
  type: "Pooling"
  bottom: "res2a_branch2b/bn"
  top: "pool2"
  pooling_param {
    pool: MAX
    kernel_size: 2
    stride: 2
  }
}
layer {
  name: "res3a_branch2a"
  type: "Convolution"
  bottom: "pool2"
  top: "res3a_branch2a"
  param {
    lr_mult: 1
    decay_mult: 1
  }
  param {
    lr_mult: 2
    decay_mult: 0
  }
  convolution_param {
    num_output: 128
    bias_term: true
    pad: 1
    kernel_size: 3
    group: 1
    stride: 1
    weight_filler {
      type: "msra"
    }
    bias_filler {
      type: "constant"
      value: 0
    }
    dilation: 1
  }
}
layer {
  name: "res3a_branch2a/bn"
  type: "BatchNorm"
  bottom: "res3a_branch2a"
  top: "res3a_branch2a/bn"
  param {
    lr_mult: 1
    decay_mult: 1
  }
  param {
    lr_mult: 1
    decay_mult: 1
  }
  param {
    lr_mult: 0
    decay_mult: 0
  }
  param {
    lr_mult: 0
    decay_mult: 0
  }
  batch_norm_param {
    moving_average_fraction: 0.99
    eps: 0.0001
    scale_filler {
      type: "constant"
      value: 1
    }
    bias_filler {
      type: "constant"
      value: 0
    }
  }
}
layer {
  name: "res3a_branch2a/relu"
  type: "ReLU"
  bottom: "res3a_branch2a/bn"
  top: "res3a_branch2a/bn"
}
layer {
  name: "res3a_branch2b"
  type: "Convolution"
  bottom: "res3a_branch2a/bn"
  top: "res3a_branch2b"
  param {
    lr_mult: 1
    decay_mult: 1
  }
  param {
    lr_mult: 2
    decay_mult: 0
  }
  convolution_param {
    num_output: 128
    bias_term: true
    pad: 1
    kernel_size: 3
    group: 4
    stride: 1
    weight_filler {
      type: "msra"
    }
    bias_filler {
      type: "constant"
      value: 0
    }
    dilation: 1
  }
}
layer {
  name: "res3a_branch2b/bn"
  type: "BatchNorm"
  bottom: "res3a_branch2b"
  top: "res3a_branch2b/bn"
  param {
    lr_mult: 1
    decay_mult: 1
  }
  param {
    lr_mult: 1
    decay_mult: 1
  }
  param {
    lr_mult: 0
    decay_mult: 0
  }
  param {
    lr_mult: 0
    decay_mult: 0
  }
  batch_norm_param {
    moving_average_fraction: 0.99
    eps: 0.0001
    scale_filler {
      type: "constant"
      value: 1
    }
    bias_filler {
      type: "constant"
      value: 0
    }
  }
}
layer {
  name: "res3a_branch2b/relu"
  type: "ReLU"
  bottom: "res3a_branch2b/bn"
  top: "res3a_branch2b/bn"
}
layer {
  name: "pool3"
  type: "Pooling"
  bottom: "res3a_branch2b/bn"
  top: "pool3"
  pooling_param {
    pool: MAX
    kernel_size: 1
    stride: 1
  }
}
layer {
  name: "res4a_branch2a"
  type: "Convolution"
  bottom: "pool3"
  top: "res4a_branch2a"
  param {
    lr_mult: 1
    decay_mult: 1
  }
  param {
    lr_mult: 2
    decay_mult: 0
  }
  convolution_param {
    num_output: 256
    bias_term: true
    pad: 1
    kernel_size: 3
    group: 1
    stride: 1
    weight_filler {
      type: "msra"
    }
    bias_filler {
      type: "constant"
      value: 0
    }
    dilation: 1
  }
}
layer {
  name: "res4a_branch2a/bn"
  type: "BatchNorm"
  bottom: "res4a_branch2a"
  top: "res4a_branch2a/bn"
  param {
    lr_mult: 1
    decay_mult: 1
  }
  param {
    lr_mult: 1
    decay_mult: 1
  }
  param {
    lr_mult: 0
    decay_mult: 0
  }
  param {
    lr_mult: 0
    decay_mult: 0
  }
  batch_norm_param {
    moving_average_fraction: 0.99
    eps: 0.0001
    scale_filler {
      type: "constant"
      value: 1
    }
    bias_filler {
      type: "constant"
      value: 0
    }
  }
}
layer {
  name: "res4a_branch2a/relu"
  type: "ReLU"
  bottom: "res4a_branch2a/bn"
  top: "res4a_branch2a/bn"
}
layer {
  name: "res4a_branch2b"
  type: "Convolution"
  bottom: "res4a_branch2a/bn"
  top: "res4a_branch2b"
  param {
    lr_mult: 1
    decay_mult: 1
  }
  param {
    lr_mult: 2
    decay_mult: 0
  }
  convolution_param {
    num_output: 256
    bias_term: true
    pad: 1
    kernel_size: 3
    group: 4
    stride: 1
    weight_filler {
      type: "msra"
    }
    bias_filler {
      type: "constant"
      value: 0
    }
    dilation: 1
  }
}
layer {
  name: "res4a_branch2b/bn"
  type: "BatchNorm"
  bottom: "res4a_branch2b"
  top: "res4a_branch2b/bn"
  param {
    lr_mult: 1
    decay_mult: 1
  }
  param {
    lr_mult: 1
    decay_mult: 1
  }
  param {
    lr_mult: 0
    decay_mult: 0
  }
  param {
    lr_mult: 0
    decay_mult: 0
  }
  batch_norm_param {
    moving_average_fraction: 0.99
    eps: 0.0001
    scale_filler {
      type: "constant"
      value: 1
    }
    bias_filler {
      type: "constant"
      value: 0
    }
  }
}
layer {
  name: "res4a_branch2b/relu"
  type: "ReLU"
  bottom: "res4a_branch2b/bn"
  top: "res4a_branch2b/bn"
}
layer {
  name: "pool4"
  type: "Pooling"
  bottom: "res4a_branch2b/bn"
  top: "pool4"
  pooling_param {
    pool: MAX
    kernel_size: 2
    stride: 2
  }
}
layer {
  name: "res5a_branch2a"
  type: "Convolution"
  bottom: "pool4"
  top: "res5a_branch2a"
  param {
    lr_mult: 1
    decay_mult: 1
  }
  param {
    lr_mult: 2
    decay_mult: 0
  }
  convolution_param {
    num_output: 512
    bias_term: true
    pad: 1
    kernel_size: 3
    group: 1
    stride: 1
    weight_filler {
      type: "msra"
    }
    bias_filler {
      type: "constant"
      value: 0
    }
    dilation: 1
  }
}
layer {
  name: "res5a_branch2a/bn"
  type: "BatchNorm"
  bottom: "res5a_branch2a"
  top: "res5a_branch2a/bn"
  param {
    lr_mult: 1
    decay_mult: 1
  }
  param {
    lr_mult: 1
    decay_mult: 1
  }
  param {
    lr_mult: 0
    decay_mult: 0
  }
  param {
    lr_mult: 0
    decay_mult: 0
  }
  batch_norm_param {
    moving_average_fraction: 0.99
    eps: 0.0001
    scale_filler {
      type: "constant"
      value: 1
    }
    bias_filler {
      type: "constant"
      value: 0
    }
  }
}
layer {
  name: "res5a_branch2a/relu"
  type: "ReLU"
  bottom: "res5a_branch2a/bn"
  top: "res5a_branch2a/bn"
}
layer {
  name: "res5a_branch2b"
  type: "Convolution"
  bottom: "res5a_branch2a/bn"
  top: "res5a_branch2b"
  param {
    lr_mult: 1
    decay_mult: 1
  }
  param {
    lr_mult: 2
    decay_mult: 0
  }
  convolution_param {
    num_output: 512
    bias_term: true
    pad: 1
    kernel_size: 3
    group: 4
    stride: 1
    weight_filler {
      type: "msra"
    }
    bias_filler {
      type: "constant"
      value: 0
    }
    dilation: 1
  }
}
layer {
  name: "res5a_branch2b/bn"
  type: "BatchNorm"
  bottom: "res5a_branch2b"
  top: "res5a_branch2b/bn"
  param {
    lr_mult: 1
    decay_mult: 1
  }
  param {
    lr_mult: 1
    decay_mult: 1
  }
  param {
    lr_mult: 0
    decay_mult: 0
  }
  param {
    lr_mult: 0
    decay_mult: 0
  }
  batch_norm_param {
    moving_average_fraction: 0.99
    eps: 0.0001
    scale_filler {
      type: "constant"
      value: 1
    }
    bias_filler {
      type: "constant"
      value: 0
    }
  }
}
layer {
  name: "res5a_branch2b/relu"
  type: "ReLU"
  bottom: "res5a_branch2b/bn"
  top: "res5a_branch2b/bn"
}
layer {
  name: "pool5"
  type: "Pooling"
  bottom: "res5a_branch2b/bn"
  top: "pool5"
  pooling_param {
    pool: AVE
    global_pooling: true
  }
}
layer {
  name: "fc10"
  type: "InnerProduct"
  bottom: "pool5"
  top: "fc10"
  param {
    lr_mult: 1
    decay_mult: 1
  }
  param {
    lr_mult: 2
    decay_mult: 0
  }
  inner_product_param {
    num_output: 10
    weight_filler {
      type: "msra"
    }
    bias_filler {
      type: "constant"
      value: 0
    }
  }
}
layer {
  name: "loss"
  type: "SoftmaxWithLoss"
  bottom: "fc10"
  bottom: "label"
  top: "loss"
  propagate_down: true
  propagate_down: false
}
layer {
  name: "accuracy/top1"
  type: "Accuracy"
  bottom: "fc10"
  bottom: "label"
  top: "accuracy/top1"
  include {
    phase: TEST
  }
}
layer {
  name: "accuracy/top5"
  type: "Accuracy"
  bottom: "fc10"
  bottom: "label"
  top: "accuracy/top5"
  include {
    phase: TEST
  }
  accuracy_param {
    top_k: 5
  }
}
I0704 07:43:18.897933 25348 layer_factory.hpp:77] Creating layer data
I0704 07:43:18.898000 25348 net.cpp:98] Creating Layer data
I0704 07:43:18.898006 25348 net.cpp:413] data -> data
I0704 07:43:18.898012 25348 net.cpp:413] data -> label
I0704 07:43:18.899343 25380 db_lmdb.cpp:35] Opened lmdb ./data/cifar10_test_lmdb
I0704 07:43:18.899446 25348 data_layer.cpp:78] ReshapePrefetch 50, 3, 32, 32
I0704 07:43:18.899503 25348 data_layer.cpp:83] output data size: 50,3,32,32
I0704 07:43:18.901779 25348 net.cpp:148] Setting up data
I0704 07:43:18.901787 25348 net.cpp:155] Top shape: 50 3 32 32 (153600)
I0704 07:43:18.901790 25348 net.cpp:155] Top shape: 50 (50)
I0704 07:43:18.901793 25348 net.cpp:163] Memory required for data: 614600
I0704 07:43:18.901795 25348 layer_factory.hpp:77] Creating layer label_data_1_split
I0704 07:43:18.901799 25348 net.cpp:98] Creating Layer label_data_1_split
I0704 07:43:18.901801 25348 net.cpp:439] label_data_1_split <- label
I0704 07:43:18.901804 25348 net.cpp:413] label_data_1_split -> label_data_1_split_0
I0704 07:43:18.901808 25348 net.cpp:413] label_data_1_split -> label_data_1_split_1
I0704 07:43:18.901811 25348 net.cpp:413] label_data_1_split -> label_data_1_split_2
I0704 07:43:18.901940 25348 net.cpp:148] Setting up label_data_1_split
I0704 07:43:18.901952 25348 net.cpp:155] Top shape: 50 (50)
I0704 07:43:18.901957 25348 net.cpp:155] Top shape: 50 (50)
I0704 07:43:18.901960 25348 net.cpp:155] Top shape: 50 (50)
I0704 07:43:18.901963 25348 net.cpp:163] Memory required for data: 615200
I0704 07:43:18.901968 25348 layer_factory.hpp:77] Creating layer data/bias
I0704 07:43:18.901973 25348 net.cpp:98] Creating Layer data/bias
I0704 07:43:18.901978 25348 net.cpp:439] data/bias <- data
I0704 07:43:18.901981 25348 net.cpp:413] data/bias -> data/bias
I0704 07:43:18.902103 25348 net.cpp:148] Setting up data/bias
I0704 07:43:18.902110 25348 net.cpp:155] Top shape: 50 3 32 32 (153600)
I0704 07:43:18.902113 25348 net.cpp:163] Memory required for data: 1229600
I0704 07:43:18.902119 25348 layer_factory.hpp:77] Creating layer conv1a
I0704 07:43:18.902125 25348 net.cpp:98] Creating Layer conv1a
I0704 07:43:18.902129 25348 net.cpp:439] conv1a <- data/bias
I0704 07:43:18.902133 25348 net.cpp:413] conv1a -> conv1a
I0704 07:43:18.902578 25348 net.cpp:148] Setting up conv1a
I0704 07:43:18.902585 25348 net.cpp:155] Top shape: 50 32 32 32 (1638400)
I0704 07:43:18.902588 25348 net.cpp:163] Memory required for data: 7783200
I0704 07:43:18.902592 25348 layer_factory.hpp:77] Creating layer conv1a/bn
I0704 07:43:18.902596 25348 net.cpp:98] Creating Layer conv1a/bn
I0704 07:43:18.902598 25348 net.cpp:439] conv1a/bn <- conv1a
I0704 07:43:18.902601 25348 net.cpp:413] conv1a/bn -> conv1a/bn
I0704 07:43:18.903496 25348 net.cpp:148] Setting up conv1a/bn
I0704 07:43:18.903506 25348 net.cpp:155] Top shape: 50 32 32 32 (1638400)
I0704 07:43:18.903508 25348 net.cpp:163] Memory required for data: 14336800
I0704 07:43:18.903514 25348 layer_factory.hpp:77] Creating layer conv1a/relu
I0704 07:43:18.903529 25348 net.cpp:98] Creating Layer conv1a/relu
I0704 07:43:18.903535 25348 net.cpp:439] conv1a/relu <- conv1a/bn
I0704 07:43:18.903540 25348 net.cpp:400] conv1a/relu -> conv1a/bn (in-place)
I0704 07:43:18.903548 25348 net.cpp:148] Setting up conv1a/relu
I0704 07:43:18.903553 25348 net.cpp:155] Top shape: 50 32 32 32 (1638400)
I0704 07:43:18.903558 25348 net.cpp:163] Memory required for data: 20890400
I0704 07:43:18.903560 25348 layer_factory.hpp:77] Creating layer conv1b
I0704 07:43:18.903568 25348 net.cpp:98] Creating Layer conv1b
I0704 07:43:18.903571 25348 net.cpp:439] conv1b <- conv1a/bn
I0704 07:43:18.903578 25348 net.cpp:413] conv1b -> conv1b
I0704 07:43:18.904013 25348 net.cpp:148] Setting up conv1b
I0704 07:43:18.904021 25348 net.cpp:155] Top shape: 50 32 32 32 (1638400)
I0704 07:43:18.904023 25348 net.cpp:163] Memory required for data: 27444000
I0704 07:43:18.904028 25348 layer_factory.hpp:77] Creating layer conv1b/bn
I0704 07:43:18.904036 25348 net.cpp:98] Creating Layer conv1b/bn
I0704 07:43:18.904040 25348 net.cpp:439] conv1b/bn <- conv1b
I0704 07:43:18.904045 25348 net.cpp:413] conv1b/bn -> conv1b/bn
I0704 07:43:18.904844 25348 net.cpp:148] Setting up conv1b/bn
I0704 07:43:18.904851 25348 net.cpp:155] Top shape: 50 32 32 32 (1638400)
I0704 07:43:18.904855 25348 net.cpp:163] Memory required for data: 33997600
I0704 07:43:18.904861 25348 layer_factory.hpp:77] Creating layer conv1b/relu
I0704 07:43:18.904867 25348 net.cpp:98] Creating Layer conv1b/relu
I0704 07:43:18.904871 25348 net.cpp:439] conv1b/relu <- conv1b/bn
I0704 07:43:18.904876 25348 net.cpp:400] conv1b/relu -> conv1b/bn (in-place)
I0704 07:43:18.904882 25348 net.cpp:148] Setting up conv1b/relu
I0704 07:43:18.904887 25348 net.cpp:155] Top shape: 50 32 32 32 (1638400)
I0704 07:43:18.904891 25348 net.cpp:163] Memory required for data: 40551200
I0704 07:43:18.904896 25348 layer_factory.hpp:77] Creating layer pool1
I0704 07:43:18.904901 25348 net.cpp:98] Creating Layer pool1
I0704 07:43:18.904904 25348 net.cpp:439] pool1 <- conv1b/bn
I0704 07:43:18.904908 25348 net.cpp:413] pool1 -> pool1
I0704 07:43:18.904959 25348 net.cpp:148] Setting up pool1
I0704 07:43:18.904966 25348 net.cpp:155] Top shape: 50 32 32 32 (1638400)
I0704 07:43:18.904969 25348 net.cpp:163] Memory required for data: 47104800
I0704 07:43:18.904973 25348 layer_factory.hpp:77] Creating layer res2a_branch2a
I0704 07:43:18.904980 25348 net.cpp:98] Creating Layer res2a_branch2a
I0704 07:43:18.904985 25348 net.cpp:439] res2a_branch2a <- pool1
I0704 07:43:18.904990 25348 net.cpp:413] res2a_branch2a -> res2a_branch2a
I0704 07:43:18.905736 25348 net.cpp:148] Setting up res2a_branch2a
I0704 07:43:18.905742 25348 net.cpp:155] Top shape: 50 64 32 32 (3276800)
I0704 07:43:18.905745 25348 net.cpp:163] Memory required for data: 60212000
I0704 07:43:18.905751 25348 layer_factory.hpp:77] Creating layer res2a_branch2a/bn
I0704 07:43:18.905757 25348 net.cpp:98] Creating Layer res2a_branch2a/bn
I0704 07:43:18.905761 25348 net.cpp:439] res2a_branch2a/bn <- res2a_branch2a
I0704 07:43:18.905766 25348 net.cpp:413] res2a_branch2a/bn -> res2a_branch2a/bn
I0704 07:43:18.906514 25348 net.cpp:148] Setting up res2a_branch2a/bn
I0704 07:43:18.906522 25348 net.cpp:155] Top shape: 50 64 32 32 (3276800)
I0704 07:43:18.906524 25348 net.cpp:163] Memory required for data: 73319200
I0704 07:43:18.906533 25348 layer_factory.hpp:77] Creating layer res2a_branch2a/relu
I0704 07:43:18.906538 25348 net.cpp:98] Creating Layer res2a_branch2a/relu
I0704 07:43:18.906543 25348 net.cpp:439] res2a_branch2a/relu <- res2a_branch2a/bn
I0704 07:43:18.906548 25348 net.cpp:400] res2a_branch2a/relu -> res2a_branch2a/bn (in-place)
I0704 07:43:18.906553 25348 net.cpp:148] Setting up res2a_branch2a/relu
I0704 07:43:18.906558 25348 net.cpp:155] Top shape: 50 64 32 32 (3276800)
I0704 07:43:18.906561 25348 net.cpp:163] Memory required for data: 86426400
I0704 07:43:18.906565 25348 layer_factory.hpp:77] Creating layer res2a_branch2b
I0704 07:43:18.906572 25348 net.cpp:98] Creating Layer res2a_branch2b
I0704 07:43:18.906584 25348 net.cpp:439] res2a_branch2b <- res2a_branch2a/bn
I0704 07:43:18.906589 25348 net.cpp:413] res2a_branch2b -> res2a_branch2b
I0704 07:43:18.907138 25348 net.cpp:148] Setting up res2a_branch2b
I0704 07:43:18.907145 25348 net.cpp:155] Top shape: 50 64 32 32 (3276800)
I0704 07:43:18.907148 25348 net.cpp:163] Memory required for data: 99533600
I0704 07:43:18.907153 25348 layer_factory.hpp:77] Creating layer res2a_branch2b/bn
I0704 07:43:18.907158 25348 net.cpp:98] Creating Layer res2a_branch2b/bn
I0704 07:43:18.907163 25348 net.cpp:439] res2a_branch2b/bn <- res2a_branch2b
I0704 07:43:18.907168 25348 net.cpp:413] res2a_branch2b/bn -> res2a_branch2b/bn
I0704 07:43:18.907902 25348 net.cpp:148] Setting up res2a_branch2b/bn
I0704 07:43:18.907908 25348 net.cpp:155] Top shape: 50 64 32 32 (3276800)
I0704 07:43:18.907912 25348 net.cpp:163] Memory required for data: 112640800
I0704 07:43:18.907918 25348 layer_factory.hpp:77] Creating layer res2a_branch2b/relu
I0704 07:43:18.907923 25348 net.cpp:98] Creating Layer res2a_branch2b/relu
I0704 07:43:18.907927 25348 net.cpp:439] res2a_branch2b/relu <- res2a_branch2b/bn
I0704 07:43:18.907932 25348 net.cpp:400] res2a_branch2b/relu -> res2a_branch2b/bn (in-place)
I0704 07:43:18.907938 25348 net.cpp:148] Setting up res2a_branch2b/relu
I0704 07:43:18.907943 25348 net.cpp:155] Top shape: 50 64 32 32 (3276800)
I0704 07:43:18.907948 25348 net.cpp:163] Memory required for data: 125748000
I0704 07:43:18.907950 25348 layer_factory.hpp:77] Creating layer pool2
I0704 07:43:18.907956 25348 net.cpp:98] Creating Layer pool2
I0704 07:43:18.907960 25348 net.cpp:439] pool2 <- res2a_branch2b/bn
I0704 07:43:18.907964 25348 net.cpp:413] pool2 -> pool2
I0704 07:43:18.908015 25348 net.cpp:148] Setting up pool2
I0704 07:43:18.908021 25348 net.cpp:155] Top shape: 50 64 16 16 (819200)
I0704 07:43:18.908025 25348 net.cpp:163] Memory required for data: 129024800
I0704 07:43:18.908030 25348 layer_factory.hpp:77] Creating layer res3a_branch2a
I0704 07:43:18.908035 25348 net.cpp:98] Creating Layer res3a_branch2a
I0704 07:43:18.908041 25348 net.cpp:439] res3a_branch2a <- pool2
I0704 07:43:18.908046 25348 net.cpp:413] res3a_branch2a -> res3a_branch2a
I0704 07:43:18.910835 25348 net.cpp:148] Setting up res3a_branch2a
I0704 07:43:18.910845 25348 net.cpp:155] Top shape: 50 128 16 16 (1638400)
I0704 07:43:18.910847 25348 net.cpp:163] Memory required for data: 135578400
I0704 07:43:18.910853 25348 layer_factory.hpp:77] Creating layer res3a_branch2a/bn
I0704 07:43:18.910859 25348 net.cpp:98] Creating Layer res3a_branch2a/bn
I0704 07:43:18.910864 25348 net.cpp:439] res3a_branch2a/bn <- res3a_branch2a
I0704 07:43:18.910871 25348 net.cpp:413] res3a_branch2a/bn -> res3a_branch2a/bn
I0704 07:43:18.911497 25348 net.cpp:148] Setting up res3a_branch2a/bn
I0704 07:43:18.911505 25348 net.cpp:155] Top shape: 50 128 16 16 (1638400)
I0704 07:43:18.911507 25348 net.cpp:163] Memory required for data: 142132000
I0704 07:43:18.911516 25348 layer_factory.hpp:77] Creating layer res3a_branch2a/relu
I0704 07:43:18.911523 25348 net.cpp:98] Creating Layer res3a_branch2a/relu
I0704 07:43:18.911527 25348 net.cpp:439] res3a_branch2a/relu <- res3a_branch2a/bn
I0704 07:43:18.911532 25348 net.cpp:400] res3a_branch2a/relu -> res3a_branch2a/bn (in-place)
I0704 07:43:18.911538 25348 net.cpp:148] Setting up res3a_branch2a/relu
I0704 07:43:18.911543 25348 net.cpp:155] Top shape: 50 128 16 16 (1638400)
I0704 07:43:18.911547 25348 net.cpp:163] Memory required for data: 148685600
I0704 07:43:18.911551 25348 layer_factory.hpp:77] Creating layer res3a_branch2b
I0704 07:43:18.911558 25348 net.cpp:98] Creating Layer res3a_branch2b
I0704 07:43:18.911562 25348 net.cpp:439] res3a_branch2b <- res3a_branch2a/bn
I0704 07:43:18.911567 25348 net.cpp:413] res3a_branch2b -> res3a_branch2b
I0704 07:43:18.912601 25348 net.cpp:148] Setting up res3a_branch2b
I0704 07:43:18.912608 25348 net.cpp:155] Top shape: 50 128 16 16 (1638400)
I0704 07:43:18.912611 25348 net.cpp:163] Memory required for data: 155239200
I0704 07:43:18.912616 25348 layer_factory.hpp:77] Creating layer res3a_branch2b/bn
I0704 07:43:18.912631 25348 net.cpp:98] Creating Layer res3a_branch2b/bn
I0704 07:43:18.912634 25348 net.cpp:439] res3a_branch2b/bn <- res3a_branch2b
I0704 07:43:18.912641 25348 net.cpp:413] res3a_branch2b/bn -> res3a_branch2b/bn
I0704 07:43:18.913298 25348 net.cpp:148] Setting up res3a_branch2b/bn
I0704 07:43:18.913305 25348 net.cpp:155] Top shape: 50 128 16 16 (1638400)
I0704 07:43:18.913308 25348 net.cpp:163] Memory required for data: 161792800
I0704 07:43:18.913314 25348 layer_factory.hpp:77] Creating layer res3a_branch2b/relu
I0704 07:43:18.913321 25348 net.cpp:98] Creating Layer res3a_branch2b/relu
I0704 07:43:18.913324 25348 net.cpp:439] res3a_branch2b/relu <- res3a_branch2b/bn
I0704 07:43:18.913328 25348 net.cpp:400] res3a_branch2b/relu -> res3a_branch2b/bn (in-place)
I0704 07:43:18.913336 25348 net.cpp:148] Setting up res3a_branch2b/relu
I0704 07:43:18.913341 25348 net.cpp:155] Top shape: 50 128 16 16 (1638400)
I0704 07:43:18.913343 25348 net.cpp:163] Memory required for data: 168346400
I0704 07:43:18.913347 25348 layer_factory.hpp:77] Creating layer pool3
I0704 07:43:18.913352 25348 net.cpp:98] Creating Layer pool3
I0704 07:43:18.913357 25348 net.cpp:439] pool3 <- res3a_branch2b/bn
I0704 07:43:18.913360 25348 net.cpp:413] pool3 -> pool3
I0704 07:43:18.913413 25348 net.cpp:148] Setting up pool3
I0704 07:43:18.913419 25348 net.cpp:155] Top shape: 50 128 16 16 (1638400)
I0704 07:43:18.913422 25348 net.cpp:163] Memory required for data: 174900000
I0704 07:43:18.913426 25348 layer_factory.hpp:77] Creating layer res4a_branch2a
I0704 07:43:18.913434 25348 net.cpp:98] Creating Layer res4a_branch2a
I0704 07:43:18.913437 25348 net.cpp:439] res4a_branch2a <- pool3
I0704 07:43:18.913442 25348 net.cpp:413] res4a_branch2a -> res4a_branch2a
I0704 07:43:18.919603 25348 net.cpp:148] Setting up res4a_branch2a
I0704 07:43:18.919611 25348 net.cpp:155] Top shape: 50 256 16 16 (3276800)
I0704 07:43:18.919613 25348 net.cpp:163] Memory required for data: 188007200
I0704 07:43:18.919617 25348 layer_factory.hpp:77] Creating layer res4a_branch2a/bn
I0704 07:43:18.919622 25348 net.cpp:98] Creating Layer res4a_branch2a/bn
I0704 07:43:18.919625 25348 net.cpp:439] res4a_branch2a/bn <- res4a_branch2a
I0704 07:43:18.919627 25348 net.cpp:413] res4a_branch2a/bn -> res4a_branch2a/bn
I0704 07:43:18.920300 25348 net.cpp:148] Setting up res4a_branch2a/bn
I0704 07:43:18.920306 25348 net.cpp:155] Top shape: 50 256 16 16 (3276800)
I0704 07:43:18.920308 25348 net.cpp:163] Memory required for data: 201114400
I0704 07:43:18.920313 25348 layer_factory.hpp:77] Creating layer res4a_branch2a/relu
I0704 07:43:18.920317 25348 net.cpp:98] Creating Layer res4a_branch2a/relu
I0704 07:43:18.920320 25348 net.cpp:439] res4a_branch2a/relu <- res4a_branch2a/bn
I0704 07:43:18.920322 25348 net.cpp:400] res4a_branch2a/relu -> res4a_branch2a/bn (in-place)
I0704 07:43:18.920326 25348 net.cpp:148] Setting up res4a_branch2a/relu
I0704 07:43:18.920328 25348 net.cpp:155] Top shape: 50 256 16 16 (3276800)
I0704 07:43:18.920331 25348 net.cpp:163] Memory required for data: 214221600
I0704 07:43:18.920333 25348 layer_factory.hpp:77] Creating layer res4a_branch2b
I0704 07:43:18.920336 25348 net.cpp:98] Creating Layer res4a_branch2b
I0704 07:43:18.920341 25348 net.cpp:439] res4a_branch2b <- res4a_branch2a/bn
I0704 07:43:18.920346 25348 net.cpp:413] res4a_branch2b -> res4a_branch2b
I0704 07:43:18.923609 25348 net.cpp:148] Setting up res4a_branch2b
I0704 07:43:18.923616 25348 net.cpp:155] Top shape: 50 256 16 16 (3276800)
I0704 07:43:18.923619 25348 net.cpp:163] Memory required for data: 227328800
I0704 07:43:18.923624 25348 layer_factory.hpp:77] Creating layer res4a_branch2b/bn
I0704 07:43:18.923629 25348 net.cpp:98] Creating Layer res4a_branch2b/bn
I0704 07:43:18.923633 25348 net.cpp:439] res4a_branch2b/bn <- res4a_branch2b
I0704 07:43:18.923641 25348 net.cpp:413] res4a_branch2b/bn -> res4a_branch2b/bn
I0704 07:43:18.924309 25348 net.cpp:148] Setting up res4a_branch2b/bn
I0704 07:43:18.924314 25348 net.cpp:155] Top shape: 50 256 16 16 (3276800)
I0704 07:43:18.924324 25348 net.cpp:163] Memory required for data: 240436000
I0704 07:43:18.924329 25348 layer_factory.hpp:77] Creating layer res4a_branch2b/relu
I0704 07:43:18.924332 25348 net.cpp:98] Creating Layer res4a_branch2b/relu
I0704 07:43:18.924335 25348 net.cpp:439] res4a_branch2b/relu <- res4a_branch2b/bn
I0704 07:43:18.924338 25348 net.cpp:400] res4a_branch2b/relu -> res4a_branch2b/bn (in-place)
I0704 07:43:18.924342 25348 net.cpp:148] Setting up res4a_branch2b/relu
I0704 07:43:18.924345 25348 net.cpp:155] Top shape: 50 256 16 16 (3276800)
I0704 07:43:18.924346 25348 net.cpp:163] Memory required for data: 253543200
I0704 07:43:18.924350 25348 layer_factory.hpp:77] Creating layer pool4
I0704 07:43:18.924355 25348 net.cpp:98] Creating Layer pool4
I0704 07:43:18.924358 25348 net.cpp:439] pool4 <- res4a_branch2b/bn
I0704 07:43:18.924363 25348 net.cpp:413] pool4 -> pool4
I0704 07:43:18.924415 25348 net.cpp:148] Setting up pool4
I0704 07:43:18.924422 25348 net.cpp:155] Top shape: 50 256 8 8 (819200)
I0704 07:43:18.924425 25348 net.cpp:163] Memory required for data: 256820000
I0704 07:43:18.924429 25348 layer_factory.hpp:77] Creating layer res5a_branch2a
I0704 07:43:18.924435 25348 net.cpp:98] Creating Layer res5a_branch2a
I0704 07:43:18.924439 25348 net.cpp:439] res5a_branch2a <- pool4
I0704 07:43:18.924444 25348 net.cpp:413] res5a_branch2a -> res5a_branch2a
I0704 07:43:18.949861 25348 net.cpp:148] Setting up res5a_branch2a
I0704 07:43:18.949882 25348 net.cpp:155] Top shape: 50 512 8 8 (1638400)
I0704 07:43:18.949884 25348 net.cpp:163] Memory required for data: 263373600
I0704 07:43:18.949892 25348 layer_factory.hpp:77] Creating layer res5a_branch2a/bn
I0704 07:43:18.949911 25348 net.cpp:98] Creating Layer res5a_branch2a/bn
I0704 07:43:18.949916 25348 net.cpp:439] res5a_branch2a/bn <- res5a_branch2a
I0704 07:43:18.949923 25348 net.cpp:413] res5a_branch2a/bn -> res5a_branch2a/bn
I0704 07:43:18.950729 25348 net.cpp:148] Setting up res5a_branch2a/bn
I0704 07:43:18.950743 25348 net.cpp:155] Top shape: 50 512 8 8 (1638400)
I0704 07:43:18.950747 25348 net.cpp:163] Memory required for data: 269927200
I0704 07:43:18.950754 25348 layer_factory.hpp:77] Creating layer res5a_branch2a/relu
I0704 07:43:18.950762 25348 net.cpp:98] Creating Layer res5a_branch2a/relu
I0704 07:43:18.950767 25348 net.cpp:439] res5a_branch2a/relu <- res5a_branch2a/bn
I0704 07:43:18.950772 25348 net.cpp:400] res5a_branch2a/relu -> res5a_branch2a/bn (in-place)
I0704 07:43:18.950778 25348 net.cpp:148] Setting up res5a_branch2a/relu
I0704 07:43:18.950783 25348 net.cpp:155] Top shape: 50 512 8 8 (1638400)
I0704 07:43:18.950788 25348 net.cpp:163] Memory required for data: 276480800
I0704 07:43:18.950791 25348 layer_factory.hpp:77] Creating layer res5a_branch2b
I0704 07:43:18.950799 25348 net.cpp:98] Creating Layer res5a_branch2b
I0704 07:43:18.950803 25348 net.cpp:439] res5a_branch2b <- res5a_branch2a/bn
I0704 07:43:18.950809 25348 net.cpp:413] res5a_branch2b -> res5a_branch2b
I0704 07:43:18.964371 25348 net.cpp:148] Setting up res5a_branch2b
I0704 07:43:18.964390 25348 net.cpp:155] Top shape: 50 512 8 8 (1638400)
I0704 07:43:18.964392 25348 net.cpp:163] Memory required for data: 283034400
I0704 07:43:18.964401 25348 layer_factory.hpp:77] Creating layer res5a_branch2b/bn
I0704 07:43:18.964409 25348 net.cpp:98] Creating Layer res5a_branch2b/bn
I0704 07:43:18.964412 25348 net.cpp:439] res5a_branch2b/bn <- res5a_branch2b
I0704 07:43:18.964416 25348 net.cpp:413] res5a_branch2b/bn -> res5a_branch2b/bn
I0704 07:43:18.965201 25348 net.cpp:148] Setting up res5a_branch2b/bn
I0704 07:43:18.965210 25348 net.cpp:155] Top shape: 50 512 8 8 (1638400)
I0704 07:43:18.965212 25348 net.cpp:163] Memory required for data: 289588000
I0704 07:43:18.965217 25348 layer_factory.hpp:77] Creating layer res5a_branch2b/relu
I0704 07:43:18.965221 25348 net.cpp:98] Creating Layer res5a_branch2b/relu
I0704 07:43:18.965224 25348 net.cpp:439] res5a_branch2b/relu <- res5a_branch2b/bn
I0704 07:43:18.965226 25348 net.cpp:400] res5a_branch2b/relu -> res5a_branch2b/bn (in-place)
I0704 07:43:18.965240 25348 net.cpp:148] Setting up res5a_branch2b/relu
I0704 07:43:18.965242 25348 net.cpp:155] Top shape: 50 512 8 8 (1638400)
I0704 07:43:18.965245 25348 net.cpp:163] Memory required for data: 296141600
I0704 07:43:18.965246 25348 layer_factory.hpp:77] Creating layer pool5
I0704 07:43:18.965250 25348 net.cpp:98] Creating Layer pool5
I0704 07:43:18.965252 25348 net.cpp:439] pool5 <- res5a_branch2b/bn
I0704 07:43:18.965255 25348 net.cpp:413] pool5 -> pool5
I0704 07:43:18.965282 25348 net.cpp:148] Setting up pool5
I0704 07:43:18.965288 25348 net.cpp:155] Top shape: 50 512 1 1 (25600)
I0704 07:43:18.965293 25348 net.cpp:163] Memory required for data: 296244000
I0704 07:43:18.965297 25348 layer_factory.hpp:77] Creating layer fc10
I0704 07:43:18.965307 25348 net.cpp:98] Creating Layer fc10
I0704 07:43:18.965312 25348 net.cpp:439] fc10 <- pool5
I0704 07:43:18.965317 25348 net.cpp:413] fc10 -> fc10
I0704 07:43:18.965646 25348 net.cpp:148] Setting up fc10
I0704 07:43:18.965653 25348 net.cpp:155] Top shape: 50 10 (500)
I0704 07:43:18.965657 25348 net.cpp:163] Memory required for data: 296246000
I0704 07:43:18.965663 25348 layer_factory.hpp:77] Creating layer fc10_fc10_0_split
I0704 07:43:18.965669 25348 net.cpp:98] Creating Layer fc10_fc10_0_split
I0704 07:43:18.965673 25348 net.cpp:439] fc10_fc10_0_split <- fc10
I0704 07:43:18.965678 25348 net.cpp:413] fc10_fc10_0_split -> fc10_fc10_0_split_0
I0704 07:43:18.965684 25348 net.cpp:413] fc10_fc10_0_split -> fc10_fc10_0_split_1
I0704 07:43:18.965690 25348 net.cpp:413] fc10_fc10_0_split -> fc10_fc10_0_split_2
I0704 07:43:18.965768 25348 net.cpp:148] Setting up fc10_fc10_0_split
I0704 07:43:18.965775 25348 net.cpp:155] Top shape: 50 10 (500)
I0704 07:43:18.965780 25348 net.cpp:155] Top shape: 50 10 (500)
I0704 07:43:18.965783 25348 net.cpp:155] Top shape: 50 10 (500)
I0704 07:43:18.965787 25348 net.cpp:163] Memory required for data: 296252000
I0704 07:43:18.965791 25348 layer_factory.hpp:77] Creating layer loss
I0704 07:43:18.965796 25348 net.cpp:98] Creating Layer loss
I0704 07:43:18.965801 25348 net.cpp:439] loss <- fc10_fc10_0_split_0
I0704 07:43:18.965806 25348 net.cpp:439] loss <- label_data_1_split_0
I0704 07:43:18.965811 25348 net.cpp:413] loss -> loss
…
