…
I0630 01:43:37.353327 29015 net.cpp:327] The NetState phase (0) differed from the phase (1) specified by a rule in layer accuracy/top1
I0630 01:43:37.353333 29015 net.cpp:327] The NetState phase (0) differed from the phase (1) specified by a rule in layer accuracy/top5
I0630 01:43:37.353543 29015 net.cpp:56] Initializing net from parameters: 
name: "jacintonet11v2_train"
state {
  phase: TRAIN
}
layer {
  name: "data"
  type: "Data"
  top: "data"
  top: "label"
  transform_param {
    mirror: true
    crop_size: 32
    mean_value: 0
    mean_value: 0
    mean_value: 0
  }
  data_param {
    source: "./data/cifar10_train_lmdb"
    batch_size: 21
    backend: LMDB
    threads: 1
  }
}
layer {
  name: "data/bias"
  type: "Bias"
  bottom: "data"
  top: "data/bias"
  param {
    lr_mult: 0
    decay_mult: 0
  }
  bias_param {
    filler {
      type: "constant"
      value: -128
    }
  }
}
layer {
  name: "conv1a"
  type: "Convolution"
  bottom: "data/bias"
  top: "conv1a"
  param {
    lr_mult: 1
    decay_mult: 1
  }
  param {
    lr_mult: 2
    decay_mult: 0
  }
  convolution_param {
    num_output: 32
    bias_term: true
    pad: 2
    kernel_size: 5
    group: 1
    stride: 1
    weight_filler {
      type: "msra"
    }
    bias_filler {
      type: "constant"
      value: 0
    }
    dilation: 1
  }
}
layer {
  name: "conv1a/bn"
  type: "BatchNorm"
  bottom: "conv1a"
  top: "conv1a/bn"
  param {
    lr_mult: 1
    decay_mult: 1
  }
  param {
    lr_mult: 1
    decay_mult: 1
  }
  param {
    lr_mult: 0
    decay_mult: 0
  }
  param {
    lr_mult: 0
    decay_mult: 0
  }
  batch_norm_param {
    moving_average_fraction: 0.99
    eps: 0.0001
    scale_filler {
      type: "constant"
      value: 1
    }
    bias_filler {
      type: "constant"
      value: 0
    }
  }
}
layer {
  name: "conv1a/relu"
  type: "ReLU"
  bottom: "conv1a/bn"
  top: "conv1a/bn"
}
layer {
  name: "conv1b"
  type: "Convolution"
  bottom: "conv1a/bn"
  top: "conv1b"
  param {
    lr_mult: 1
    decay_mult: 1
  }
  param {
    lr_mult: 2
    decay_mult: 0
  }
  convolution_param {
    num_output: 32
    bias_term: true
    pad: 1
    kernel_size: 3
    group: 4
    stride: 1
    weight_filler {
      type: "msra"
    }
    bias_filler {
      type: "constant"
      value: 0
    }
    dilation: 1
  }
}
layer {
  name: "conv1b/bn"
  type: "BatchNorm"
  bottom: "conv1b"
  top: "conv1b/bn"
  param {
    lr_mult: 1
    decay_mult: 1
  }
  param {
    lr_mult: 1
    decay_mult: 1
  }
  param {
    lr_mult: 0
    decay_mult: 0
  }
  param {
    lr_mult: 0
    decay_mult: 0
  }
  batch_norm_param {
    moving_average_fraction: 0.99
    eps: 0.0001
    scale_filler {
      type: "constant"
      value: 1
    }
    bias_filler {
      type: "constant"
      value: 0
    }
  }
}
layer {
  name: "conv1b/relu"
  type: "ReLU"
  bottom: "conv1b/bn"
  top: "conv1b/bn"
}
layer {
  name: "pool1"
  type: "Pooling"
  bottom: "conv1b/bn"
  top: "pool1"
  pooling_param {
    pool: MAX
    kernel_size: 1
    stride: 1
  }
}
layer {
  name: "res2a_branch2a"
  type: "Convolution"
  bottom: "pool1"
  top: "res2a_branch2a"
  param {
    lr_mult: 1
    decay_mult: 1
  }
  param {
    lr_mult: 2
    decay_mult: 0
  }
  convolution_param {
    num_output: 64
    bias_term: true
    pad: 1
    kernel_size: 3
    group: 1
    stride: 1
    weight_filler {
      type: "msra"
    }
    bias_filler {
      type: "constant"
      value: 0
    }
    dilation: 1
  }
}
layer {
  name: "res2a_branch2a/bn"
  type: "BatchNorm"
  bottom: "res2a_branch2a"
  top: "res2a_branch2a/bn"
  param {
    lr_mult: 1
    decay_mult: 1
  }
  param {
    lr_mult: 1
    decay_mult: 1
  }
  param {
    lr_mult: 0
    decay_mult: 0
  }
  param {
    lr_mult: 0
    decay_mult: 0
  }
  batch_norm_param {
    moving_average_fraction: 0.99
    eps: 0.0001
    scale_filler {
      type: "constant"
      value: 1
    }
    bias_filler {
      type: "constant"
      value: 0
    }
  }
}
layer {
  name: "res2a_branch2a/relu"
  type: "ReLU"
  bottom: "res2a_branch2a/bn"
  top: "res2a_branch2a/bn"
}
layer {
  name: "res2a_branch2b"
  type: "Convolution"
  bottom: "res2a_branch2a/bn"
  top: "res2a_branch2b"
  param {
    lr_mult: 1
    decay_mult: 1
  }
  param {
    lr_mult: 2
    decay_mult: 0
  }
  convolution_param {
    num_output: 64
    bias_term: true
    pad: 1
    kernel_size: 3
    group: 4
    stride: 1
    weight_filler {
      type: "msra"
    }
    bias_filler {
      type: "constant"
      value: 0
    }
    dilation: 1
  }
}
layer {
  name: "res2a_branch2b/bn"
  type: "BatchNorm"
  bottom: "res2a_branch2b"
  top: "res2a_branch2b/bn"
  param {
    lr_mult: 1
    decay_mult: 1
  }
  param {
    lr_mult: 1
    decay_mult: 1
  }
  param {
    lr_mult: 0
    decay_mult: 0
  }
  param {
    lr_mult: 0
    decay_mult: 0
  }
  batch_norm_param {
    moving_average_fraction: 0.99
    eps: 0.0001
    scale_filler {
      type: "constant"
      value: 1
    }
    bias_filler {
      type: "constant"
      value: 0
    }
  }
}
layer {
  name: "res2a_branch2b/relu"
  type: "ReLU"
  bottom: "res2a_branch2b/bn"
  top: "res2a_branch2b/bn"
}
layer {
  name: "pool2"
  type: "Pooling"
  bottom: "res2a_branch2b/bn"
  top: "pool2"
  pooling_param {
    pool: MAX
    kernel_size: 2
    stride: 2
  }
}
layer {
  name: "res3a_branch2a"
  type: "Convolution"
  bottom: "pool2"
  top: "res3a_branch2a"
  param {
    lr_mult: 1
    decay_mult: 1
  }
  param {
    lr_mult: 2
    decay_mult: 0
  }
  convolution_param {
    num_output: 128
    bias_term: true
    pad: 1
    kernel_size: 3
    group: 1
    stride: 1
    weight_filler {
      type: "msra"
    }
    bias_filler {
      type: "constant"
      value: 0
    }
    dilation: 1
  }
}
layer {
  name: "res3a_branch2a/bn"
  type: "BatchNorm"
  bottom: "res3a_branch2a"
  top: "res3a_branch2a/bn"
  param {
    lr_mult: 1
    decay_mult: 1
  }
  param {
    lr_mult: 1
    decay_mult: 1
  }
  param {
    lr_mult: 0
    decay_mult: 0
  }
  param {
    lr_mult: 0
    decay_mult: 0
  }
  batch_norm_param {
    moving_average_fraction: 0.99
    eps: 0.0001
    scale_filler {
      type: "constant"
      value: 1
    }
    bias_filler {
      type: "constant"
      value: 0
    }
  }
}
layer {
  name: "res3a_branch2a/relu"
  type: "ReLU"
  bottom: "res3a_branch2a/bn"
  top: "res3a_branch2a/bn"
}
layer {
  name: "res3a_branch2b"
  type: "Convolution"
  bottom: "res3a_branch2a/bn"
  top: "res3a_branch2b"
  param {
    lr_mult: 1
    decay_mult: 1
  }
  param {
    lr_mult: 2
    decay_mult: 0
  }
  convolution_param {
    num_output: 128
    bias_term: true
    pad: 1
    kernel_size: 3
    group: 4
    stride: 1
    weight_filler {
      type: "msra"
    }
    bias_filler {
      type: "constant"
      value: 0
    }
    dilation: 1
  }
}
layer {
  name: "res3a_branch2b/bn"
  type: "BatchNorm"
  bottom: "res3a_branch2b"
  top: "res3a_branch2b/bn"
  param {
    lr_mult: 1
    decay_mult: 1
  }
  param {
    lr_mult: 1
    decay_mult: 1
  }
  param {
    lr_mult: 0
    decay_mult: 0
  }
  param {
    lr_mult: 0
    decay_mult: 0
  }
  batch_norm_param {
    moving_average_fraction: 0.99
    eps: 0.0001
    scale_filler {
      type: "constant"
      value: 1
    }
    bias_filler {
      type: "constant"
      value: 0
    }
  }
}
layer {
  name: "res3a_branch2b/relu"
  type: "ReLU"
  bottom: "res3a_branch2b/bn"
  top: "res3a_branch2b/bn"
}
layer {
  name: "pool3"
  type: "Pooling"
  bottom: "res3a_branch2b/bn"
  top: "pool3"
  pooling_param {
    pool: MAX
    kernel_size: 1
    stride: 1
  }
}
layer {
  name: "res4a_branch2a"
  type: "Convolution"
  bottom: "pool3"
  top: "res4a_branch2a"
  param {
    lr_mult: 1
    decay_mult: 1
  }
  param {
    lr_mult: 2
    decay_mult: 0
  }
  convolution_param {
    num_output: 256
    bias_term: true
    pad: 1
    kernel_size: 3
    group: 1
    stride: 1
    weight_filler {
      type: "msra"
    }
    bias_filler {
      type: "constant"
      value: 0
    }
    dilation: 1
  }
}
layer {
  name: "res4a_branch2a/bn"
  type: "BatchNorm"
  bottom: "res4a_branch2a"
  top: "res4a_branch2a/bn"
  param {
    lr_mult: 1
    decay_mult: 1
  }
  param {
    lr_mult: 1
    decay_mult: 1
  }
  param {
    lr_mult: 0
    decay_mult: 0
  }
  param {
    lr_mult: 0
    decay_mult: 0
  }
  batch_norm_param {
    moving_average_fraction: 0.99
    eps: 0.0001
    scale_filler {
      type: "constant"
      value: 1
    }
    bias_filler {
      type: "constant"
      value: 0
    }
  }
}
layer {
  name: "res4a_branch2a/relu"
  type: "ReLU"
  bottom: "res4a_branch2a/bn"
  top: "res4a_branch2a/bn"
}
layer {
  name: "res4a_branch2b"
  type: "Convolution"
  bottom: "res4a_branch2a/bn"
  top: "res4a_branch2b"
  param {
    lr_mult: 1
    decay_mult: 1
  }
  param {
    lr_mult: 2
    decay_mult: 0
  }
  convolution_param {
    num_output: 256
    bias_term: true
    pad: 1
    kernel_size: 3
    group: 4
    stride: 1
    weight_filler {
      type: "msra"
    }
    bias_filler {
      type: "constant"
      value: 0
    }
    dilation: 1
  }
}
layer {
  name: "res4a_branch2b/bn"
  type: "BatchNorm"
  bottom: "res4a_branch2b"
  top: "res4a_branch2b/bn"
  param {
    lr_mult: 1
    decay_mult: 1
  }
  param {
    lr_mult: 1
    decay_mult: 1
  }
  param {
    lr_mult: 0
    decay_mult: 0
  }
  param {
    lr_mult: 0
    decay_mult: 0
  }
  batch_norm_param {
    moving_average_fraction: 0.99
    eps: 0.0001
    scale_filler {
      type: "constant"
      value: 1
    }
    bias_filler {
      type: "constant"
      value: 0
    }
  }
}
layer {
  name: "res4a_branch2b/relu"
  type: "ReLU"
  bottom: "res4a_branch2b/bn"
  top: "res4a_branch2b/bn"
}
layer {
  name: "pool4"
  type: "Pooling"
  bottom: "res4a_branch2b/bn"
  top: "pool4"
  pooling_param {
    pool: MAX
    kernel_size: 2
    stride: 2
  }
}
layer {
  name: "res5a_branch2a"
  type: "Convolution"
  bottom: "pool4"
  top: "res5a_branch2a"
  param {
    lr_mult: 1
    decay_mult: 1
  }
  param {
    lr_mult: 2
    decay_mult: 0
  }
  convolution_param {
    num_output: 512
    bias_term: true
    pad: 1
    kernel_size: 3
    group: 1
    stride: 1
    weight_filler {
      type: "msra"
    }
    bias_filler {
      type: "constant"
      value: 0
    }
    dilation: 1
  }
}
layer {
  name: "res5a_branch2a/bn"
  type: "BatchNorm"
  bottom: "res5a_branch2a"
  top: "res5a_branch2a/bn"
  param {
    lr_mult: 1
    decay_mult: 1
  }
  param {
    lr_mult: 1
    decay_mult: 1
  }
  param {
    lr_mult: 0
    decay_mult: 0
  }
  param {
    lr_mult: 0
    decay_mult: 0
  }
  batch_norm_param {
    moving_average_fraction: 0.99
    eps: 0.0001
    scale_filler {
      type: "constant"
      value: 1
    }
    bias_filler {
      type: "constant"
      value: 0
    }
  }
}
layer {
  name: "res5a_branch2a/relu"
  type: "ReLU"
  bottom: "res5a_branch2a/bn"
  top: "res5a_branch2a/bn"
}
layer {
  name: "res5a_branch2b"
  type: "Convolution"
  bottom: "res5a_branch2a/bn"
  top: "res5a_branch2b"
  param {
    lr_mult: 1
    decay_mult: 1
  }
  param {
    lr_mult: 2
    decay_mult: 0
  }
  convolution_param {
    num_output: 512
    bias_term: true
    pad: 1
    kernel_size: 3
    group: 4
    stride: 1
    weight_filler {
      type: "msra"
    }
    bias_filler {
      type: "constant"
      value: 0
    }
    dilation: 1
  }
}
layer {
  name: "res5a_branch2b/bn"
  type: "BatchNorm"
  bottom: "res5a_branch2b"
  top: "res5a_branch2b/bn"
  param {
    lr_mult: 1
    decay_mult: 1
  }
  param {
    lr_mult: 1
    decay_mult: 1
  }
  param {
    lr_mult: 0
    decay_mult: 0
  }
  param {
    lr_mult: 0
    decay_mult: 0
  }
  batch_norm_param {
    moving_average_fraction: 0.99
    eps: 0.0001
    scale_filler {
      type: "constant"
      value: 1
    }
    bias_filler {
      type: "constant"
      value: 0
    }
  }
}
layer {
  name: "res5a_branch2b/relu"
  type: "ReLU"
  bottom: "res5a_branch2b/bn"
  top: "res5a_branch2b/bn"
}
layer {
  name: "pool5"
  type: "Pooling"
  bottom: "res5a_branch2b/bn"
  top: "pool5"
  pooling_param {
    pool: AVE
    global_pooling: true
  }
}
layer {
  name: "fc10"
  type: "InnerProduct"
  bottom: "pool5"
  top: "fc10"
  param {
    lr_mult: 1
    decay_mult: 1
  }
  param {
    lr_mult: 2
    decay_mult: 0
  }
  inner_product_param {
    num_output: 10
    weight_filler {
      type: "msra"
    }
    bias_filler {
      type: "constant"
      value: 0
    }
  }
}
layer {
  name: "loss"
  type: "SoftmaxWithLoss"
  bottom: "fc10"
  bottom: "label"
  top: "loss"
  propagate_down: true
  propagate_down: false
}
I0630 01:43:37.353634 29015 layer_factory.hpp:77] Creating layer data
I0630 01:43:37.353730 29015 net.cpp:98] Creating Layer data
I0630 01:43:37.353739 29015 net.cpp:413] data -> data
I0630 01:43:37.353757 29015 net.cpp:413] data -> label
I0630 01:43:37.354579 29042 db_lmdb.cpp:35] Opened lmdb ./data/cifar10_train_lmdb
I0630 01:43:37.355602 29015 data_layer.cpp:78] ReshapePrefetch 21, 3, 32, 32
I0630 01:43:37.355654 29015 data_layer.cpp:83] output data size: 21,3,32,32
I0630 01:43:37.357301 29015 net.cpp:148] Setting up data
I0630 01:43:37.357312 29015 net.cpp:155] Top shape: 21 3 32 32 (64512)
I0630 01:43:37.357316 29015 net.cpp:155] Top shape: 21 (21)
I0630 01:43:37.357317 29015 net.cpp:163] Memory required for data: 258132
I0630 01:43:37.357323 29015 layer_factory.hpp:77] Creating layer data/bias
I0630 01:43:37.357331 29015 net.cpp:98] Creating Layer data/bias
I0630 01:43:37.357336 29015 net.cpp:439] data/bias <- data
I0630 01:43:37.357342 29015 net.cpp:413] data/bias -> data/bias
I0630 01:43:37.358391 29015 net.cpp:148] Setting up data/bias
I0630 01:43:37.358399 29015 net.cpp:155] Top shape: 21 3 32 32 (64512)
I0630 01:43:37.358402 29015 net.cpp:163] Memory required for data: 516180
I0630 01:43:37.358410 29015 layer_factory.hpp:77] Creating layer conv1a
I0630 01:43:37.358419 29015 net.cpp:98] Creating Layer conv1a
I0630 01:43:37.358422 29015 net.cpp:439] conv1a <- data/bias
I0630 01:43:37.358424 29015 net.cpp:413] conv1a -> conv1a
I0630 01:43:37.359338 29044 blocking_queue.cpp:50] Waiting for data
I0630 01:43:37.359760 29015 net.cpp:148] Setting up conv1a
I0630 01:43:37.359769 29015 net.cpp:155] Top shape: 21 32 32 32 (688128)
I0630 01:43:37.359771 29015 net.cpp:163] Memory required for data: 3268692
I0630 01:43:37.359776 29015 layer_factory.hpp:77] Creating layer conv1a/bn
I0630 01:43:37.359783 29015 net.cpp:98] Creating Layer conv1a/bn
I0630 01:43:37.359786 29015 net.cpp:439] conv1a/bn <- conv1a
I0630 01:43:37.359788 29015 net.cpp:413] conv1a/bn -> conv1a/bn
I0630 01:43:37.360522 29015 net.cpp:148] Setting up conv1a/bn
I0630 01:43:37.360532 29015 net.cpp:155] Top shape: 21 32 32 32 (688128)
I0630 01:43:37.360534 29015 net.cpp:163] Memory required for data: 6021204
I0630 01:43:37.360541 29015 layer_factory.hpp:77] Creating layer conv1a/relu
I0630 01:43:37.360545 29015 net.cpp:98] Creating Layer conv1a/relu
I0630 01:43:37.360548 29015 net.cpp:439] conv1a/relu <- conv1a/bn
I0630 01:43:37.360550 29015 net.cpp:400] conv1a/relu -> conv1a/bn (in-place)
I0630 01:43:37.360559 29015 net.cpp:148] Setting up conv1a/relu
I0630 01:43:37.360563 29015 net.cpp:155] Top shape: 21 32 32 32 (688128)
I0630 01:43:37.360572 29015 net.cpp:163] Memory required for data: 8773716
I0630 01:43:37.360575 29015 layer_factory.hpp:77] Creating layer conv1b
I0630 01:43:37.360579 29015 net.cpp:98] Creating Layer conv1b
I0630 01:43:37.360582 29015 net.cpp:439] conv1b <- conv1a/bn
I0630 01:43:37.360585 29015 net.cpp:413] conv1b -> conv1b
I0630 01:43:37.361001 29015 net.cpp:148] Setting up conv1b
I0630 01:43:37.361007 29015 net.cpp:155] Top shape: 21 32 32 32 (688128)
I0630 01:43:37.361009 29015 net.cpp:163] Memory required for data: 11526228
I0630 01:43:37.361013 29015 layer_factory.hpp:77] Creating layer conv1b/bn
I0630 01:43:37.361017 29015 net.cpp:98] Creating Layer conv1b/bn
I0630 01:43:37.361019 29015 net.cpp:439] conv1b/bn <- conv1b
I0630 01:43:37.361022 29015 net.cpp:413] conv1b/bn -> conv1b/bn
I0630 01:43:37.361739 29015 net.cpp:148] Setting up conv1b/bn
I0630 01:43:37.361747 29015 net.cpp:155] Top shape: 21 32 32 32 (688128)
I0630 01:43:37.361749 29015 net.cpp:163] Memory required for data: 14278740
I0630 01:43:37.361754 29015 layer_factory.hpp:77] Creating layer conv1b/relu
I0630 01:43:37.361757 29015 net.cpp:98] Creating Layer conv1b/relu
I0630 01:43:37.361759 29015 net.cpp:439] conv1b/relu <- conv1b/bn
I0630 01:43:37.361762 29015 net.cpp:400] conv1b/relu -> conv1b/bn (in-place)
I0630 01:43:37.361765 29015 net.cpp:148] Setting up conv1b/relu
I0630 01:43:37.361768 29015 net.cpp:155] Top shape: 21 32 32 32 (688128)
I0630 01:43:37.361769 29015 net.cpp:163] Memory required for data: 17031252
I0630 01:43:37.361771 29015 layer_factory.hpp:77] Creating layer pool1
I0630 01:43:37.361776 29015 net.cpp:98] Creating Layer pool1
I0630 01:43:37.361778 29015 net.cpp:439] pool1 <- conv1b/bn
I0630 01:43:37.361780 29015 net.cpp:413] pool1 -> pool1
I0630 01:43:37.361825 29015 net.cpp:148] Setting up pool1
I0630 01:43:37.361829 29015 net.cpp:155] Top shape: 21 32 32 32 (688128)
I0630 01:43:37.361831 29015 net.cpp:163] Memory required for data: 19783764
I0630 01:43:37.361835 29015 layer_factory.hpp:77] Creating layer res2a_branch2a
I0630 01:43:37.361840 29015 net.cpp:98] Creating Layer res2a_branch2a
I0630 01:43:37.361845 29015 net.cpp:439] res2a_branch2a <- pool1
I0630 01:43:37.361850 29015 net.cpp:413] res2a_branch2a -> res2a_branch2a
I0630 01:43:37.362607 29015 net.cpp:148] Setting up res2a_branch2a
I0630 01:43:37.362614 29015 net.cpp:155] Top shape: 21 64 32 32 (1376256)
I0630 01:43:37.362617 29015 net.cpp:163] Memory required for data: 25288788
I0630 01:43:37.362620 29015 layer_factory.hpp:77] Creating layer res2a_branch2a/bn
I0630 01:43:37.362624 29015 net.cpp:98] Creating Layer res2a_branch2a/bn
I0630 01:43:37.362627 29015 net.cpp:439] res2a_branch2a/bn <- res2a_branch2a
I0630 01:43:37.362629 29015 net.cpp:413] res2a_branch2a/bn -> res2a_branch2a/bn
I0630 01:43:37.363348 29015 net.cpp:148] Setting up res2a_branch2a/bn
I0630 01:43:37.363354 29015 net.cpp:155] Top shape: 21 64 32 32 (1376256)
I0630 01:43:37.363356 29015 net.cpp:163] Memory required for data: 30793812
I0630 01:43:37.363361 29015 layer_factory.hpp:77] Creating layer res2a_branch2a/relu
I0630 01:43:37.363364 29015 net.cpp:98] Creating Layer res2a_branch2a/relu
I0630 01:43:37.363366 29015 net.cpp:439] res2a_branch2a/relu <- res2a_branch2a/bn
I0630 01:43:37.363369 29015 net.cpp:400] res2a_branch2a/relu -> res2a_branch2a/bn (in-place)
I0630 01:43:37.363373 29015 net.cpp:148] Setting up res2a_branch2a/relu
I0630 01:43:37.363375 29015 net.cpp:155] Top shape: 21 64 32 32 (1376256)
I0630 01:43:37.363378 29015 net.cpp:163] Memory required for data: 36298836
I0630 01:43:37.363379 29015 layer_factory.hpp:77] Creating layer res2a_branch2b
I0630 01:43:37.363384 29015 net.cpp:98] Creating Layer res2a_branch2b
I0630 01:43:37.363385 29015 net.cpp:439] res2a_branch2b <- res2a_branch2a/bn
I0630 01:43:37.363387 29015 net.cpp:413] res2a_branch2b -> res2a_branch2b
I0630 01:43:37.364852 29015 net.cpp:148] Setting up res2a_branch2b
I0630 01:43:37.364861 29015 net.cpp:155] Top shape: 21 64 32 32 (1376256)
I0630 01:43:37.364863 29015 net.cpp:163] Memory required for data: 41803860
I0630 01:43:37.364873 29015 layer_factory.hpp:77] Creating layer res2a_branch2b/bn
I0630 01:43:37.364878 29015 net.cpp:98] Creating Layer res2a_branch2b/bn
I0630 01:43:37.364881 29015 net.cpp:439] res2a_branch2b/bn <- res2a_branch2b
I0630 01:43:37.364883 29015 net.cpp:413] res2a_branch2b/bn -> res2a_branch2b/bn
I0630 01:43:37.365602 29015 net.cpp:148] Setting up res2a_branch2b/bn
I0630 01:43:37.365610 29015 net.cpp:155] Top shape: 21 64 32 32 (1376256)
I0630 01:43:37.365612 29015 net.cpp:163] Memory required for data: 47308884
I0630 01:43:37.365617 29015 layer_factory.hpp:77] Creating layer res2a_branch2b/relu
I0630 01:43:37.365622 29015 net.cpp:98] Creating Layer res2a_branch2b/relu
I0630 01:43:37.365623 29015 net.cpp:439] res2a_branch2b/relu <- res2a_branch2b/bn
I0630 01:43:37.365627 29015 net.cpp:400] res2a_branch2b/relu -> res2a_branch2b/bn (in-place)
I0630 01:43:37.365633 29015 net.cpp:148] Setting up res2a_branch2b/relu
I0630 01:43:37.365635 29015 net.cpp:155] Top shape: 21 64 32 32 (1376256)
I0630 01:43:37.365638 29015 net.cpp:163] Memory required for data: 52813908
I0630 01:43:37.365639 29015 layer_factory.hpp:77] Creating layer pool2
I0630 01:43:37.365643 29015 net.cpp:98] Creating Layer pool2
I0630 01:43:37.365644 29015 net.cpp:439] pool2 <- res2a_branch2b/bn
I0630 01:43:37.365646 29015 net.cpp:413] pool2 -> pool2
I0630 01:43:37.365687 29015 net.cpp:148] Setting up pool2
I0630 01:43:37.365694 29015 net.cpp:155] Top shape: 21 64 16 16 (344064)
I0630 01:43:37.365697 29015 net.cpp:163] Memory required for data: 54190164
I0630 01:43:37.365700 29015 layer_factory.hpp:77] Creating layer res3a_branch2a
I0630 01:43:37.365710 29015 net.cpp:98] Creating Layer res3a_branch2a
I0630 01:43:37.365713 29015 net.cpp:439] res3a_branch2a <- pool2
I0630 01:43:37.365718 29015 net.cpp:413] res3a_branch2a -> res3a_branch2a
I0630 01:43:37.368469 29015 net.cpp:148] Setting up res3a_branch2a
I0630 01:43:37.368479 29015 net.cpp:155] Top shape: 21 128 16 16 (688128)
I0630 01:43:37.368481 29015 net.cpp:163] Memory required for data: 56942676
I0630 01:43:37.368485 29015 layer_factory.hpp:77] Creating layer res3a_branch2a/bn
I0630 01:43:37.368489 29015 net.cpp:98] Creating Layer res3a_branch2a/bn
I0630 01:43:37.368491 29015 net.cpp:439] res3a_branch2a/bn <- res3a_branch2a
I0630 01:43:37.368495 29015 net.cpp:413] res3a_branch2a/bn -> res3a_branch2a/bn
I0630 01:43:37.369231 29015 net.cpp:148] Setting up res3a_branch2a/bn
I0630 01:43:37.369240 29015 net.cpp:155] Top shape: 21 128 16 16 (688128)
I0630 01:43:37.369241 29015 net.cpp:163] Memory required for data: 59695188
I0630 01:43:37.369252 29015 layer_factory.hpp:77] Creating layer res3a_branch2a/relu
I0630 01:43:37.369256 29015 net.cpp:98] Creating Layer res3a_branch2a/relu
I0630 01:43:37.369258 29015 net.cpp:439] res3a_branch2a/relu <- res3a_branch2a/bn
I0630 01:43:37.369261 29015 net.cpp:400] res3a_branch2a/relu -> res3a_branch2a/bn (in-place)
I0630 01:43:37.369264 29015 net.cpp:148] Setting up res3a_branch2a/relu
I0630 01:43:37.369267 29015 net.cpp:155] Top shape: 21 128 16 16 (688128)
I0630 01:43:37.369268 29015 net.cpp:163] Memory required for data: 62447700
I0630 01:43:37.369271 29015 layer_factory.hpp:77] Creating layer res3a_branch2b
I0630 01:43:37.369277 29015 net.cpp:98] Creating Layer res3a_branch2b
I0630 01:43:37.369278 29015 net.cpp:439] res3a_branch2b <- res3a_branch2a/bn
I0630 01:43:37.369282 29015 net.cpp:413] res3a_branch2b -> res3a_branch2b
I0630 01:43:37.370342 29015 net.cpp:148] Setting up res3a_branch2b
I0630 01:43:37.370349 29015 net.cpp:155] Top shape: 21 128 16 16 (688128)
I0630 01:43:37.370352 29015 net.cpp:163] Memory required for data: 65200212
I0630 01:43:37.370355 29015 layer_factory.hpp:77] Creating layer res3a_branch2b/bn
I0630 01:43:37.370360 29015 net.cpp:98] Creating Layer res3a_branch2b/bn
I0630 01:43:37.370363 29015 net.cpp:439] res3a_branch2b/bn <- res3a_branch2b
I0630 01:43:37.370367 29015 net.cpp:413] res3a_branch2b/bn -> res3a_branch2b/bn
I0630 01:43:37.371006 29015 net.cpp:148] Setting up res3a_branch2b/bn
I0630 01:43:37.371012 29015 net.cpp:155] Top shape: 21 128 16 16 (688128)
I0630 01:43:37.371021 29015 net.cpp:163] Memory required for data: 67952724
I0630 01:43:37.371026 29015 layer_factory.hpp:77] Creating layer res3a_branch2b/relu
I0630 01:43:37.371028 29015 net.cpp:98] Creating Layer res3a_branch2b/relu
I0630 01:43:37.371031 29015 net.cpp:439] res3a_branch2b/relu <- res3a_branch2b/bn
I0630 01:43:37.371033 29015 net.cpp:400] res3a_branch2b/relu -> res3a_branch2b/bn (in-place)
I0630 01:43:37.371037 29015 net.cpp:148] Setting up res3a_branch2b/relu
I0630 01:43:37.371039 29015 net.cpp:155] Top shape: 21 128 16 16 (688128)
I0630 01:43:37.371042 29015 net.cpp:163] Memory required for data: 70705236
I0630 01:43:37.371043 29015 layer_factory.hpp:77] Creating layer pool3
I0630 01:43:37.371047 29015 net.cpp:98] Creating Layer pool3
I0630 01:43:37.371048 29015 net.cpp:439] pool3 <- res3a_branch2b/bn
I0630 01:43:37.371052 29015 net.cpp:413] pool3 -> pool3
I0630 01:43:37.371085 29015 net.cpp:148] Setting up pool3
I0630 01:43:37.371089 29015 net.cpp:155] Top shape: 21 128 16 16 (688128)
I0630 01:43:37.371090 29015 net.cpp:163] Memory required for data: 73457748
I0630 01:43:37.371093 29015 layer_factory.hpp:77] Creating layer res4a_branch2a
I0630 01:43:37.371096 29015 net.cpp:98] Creating Layer res4a_branch2a
I0630 01:43:37.371098 29015 net.cpp:439] res4a_branch2a <- pool3
I0630 01:43:37.371101 29015 net.cpp:413] res4a_branch2a -> res4a_branch2a
I0630 01:43:37.377280 29015 net.cpp:148] Setting up res4a_branch2a
I0630 01:43:37.377288 29015 net.cpp:155] Top shape: 21 256 16 16 (1376256)
I0630 01:43:37.377290 29015 net.cpp:163] Memory required for data: 78962772
I0630 01:43:37.377293 29015 layer_factory.hpp:77] Creating layer res4a_branch2a/bn
I0630 01:43:37.377297 29015 net.cpp:98] Creating Layer res4a_branch2a/bn
I0630 01:43:37.377300 29015 net.cpp:439] res4a_branch2a/bn <- res4a_branch2a
I0630 01:43:37.377302 29015 net.cpp:413] res4a_branch2a/bn -> res4a_branch2a/bn
I0630 01:43:37.377969 29015 net.cpp:148] Setting up res4a_branch2a/bn
I0630 01:43:37.377976 29015 net.cpp:155] Top shape: 21 256 16 16 (1376256)
I0630 01:43:37.377979 29015 net.cpp:163] Memory required for data: 84467796
I0630 01:43:37.377984 29015 layer_factory.hpp:77] Creating layer res4a_branch2a/relu
I0630 01:43:37.377986 29015 net.cpp:98] Creating Layer res4a_branch2a/relu
I0630 01:43:37.377990 29015 net.cpp:439] res4a_branch2a/relu <- res4a_branch2a/bn
I0630 01:43:37.377991 29015 net.cpp:400] res4a_branch2a/relu -> res4a_branch2a/bn (in-place)
I0630 01:43:37.377995 29015 net.cpp:148] Setting up res4a_branch2a/relu
I0630 01:43:37.377997 29015 net.cpp:155] Top shape: 21 256 16 16 (1376256)
I0630 01:43:37.378000 29015 net.cpp:163] Memory required for data: 89972820
I0630 01:43:37.378001 29015 layer_factory.hpp:77] Creating layer res4a_branch2b
I0630 01:43:37.378005 29015 net.cpp:98] Creating Layer res4a_branch2b
I0630 01:43:37.378006 29015 net.cpp:439] res4a_branch2b <- res4a_branch2a/bn
I0630 01:43:37.378010 29015 net.cpp:413] res4a_branch2b -> res4a_branch2b
I0630 01:43:37.381299 29015 net.cpp:148] Setting up res4a_branch2b
I0630 01:43:37.381307 29015 net.cpp:155] Top shape: 21 256 16 16 (1376256)
I0630 01:43:37.381309 29015 net.cpp:163] Memory required for data: 95477844
I0630 01:43:37.381312 29015 layer_factory.hpp:77] Creating layer res4a_branch2b/bn
I0630 01:43:37.381316 29015 net.cpp:98] Creating Layer res4a_branch2b/bn
I0630 01:43:37.381319 29015 net.cpp:439] res4a_branch2b/bn <- res4a_branch2b
I0630 01:43:37.381321 29015 net.cpp:413] res4a_branch2b/bn -> res4a_branch2b/bn
I0630 01:43:37.381984 29015 net.cpp:148] Setting up res4a_branch2b/bn
I0630 01:43:37.381991 29015 net.cpp:155] Top shape: 21 256 16 16 (1376256)
I0630 01:43:37.381994 29015 net.cpp:163] Memory required for data: 100982868
I0630 01:43:37.381999 29015 layer_factory.hpp:77] Creating layer res4a_branch2b/relu
I0630 01:43:37.382000 29015 net.cpp:98] Creating Layer res4a_branch2b/relu
I0630 01:43:37.382004 29015 net.cpp:439] res4a_branch2b/relu <- res4a_branch2b/bn
I0630 01:43:37.382005 29015 net.cpp:400] res4a_branch2b/relu -> res4a_branch2b/bn (in-place)
I0630 01:43:37.382015 29015 net.cpp:148] Setting up res4a_branch2b/relu
I0630 01:43:37.382019 29015 net.cpp:155] Top shape: 21 256 16 16 (1376256)
I0630 01:43:37.382020 29015 net.cpp:163] Memory required for data: 106487892
I0630 01:43:37.382021 29015 layer_factory.hpp:77] Creating layer pool4
I0630 01:43:37.382025 29015 net.cpp:98] Creating Layer pool4
I0630 01:43:37.382027 29015 net.cpp:439] pool4 <- res4a_branch2b/bn
I0630 01:43:37.382030 29015 net.cpp:413] pool4 -> pool4
I0630 01:43:37.382064 29015 net.cpp:148] Setting up pool4
I0630 01:43:37.382068 29015 net.cpp:155] Top shape: 21 256 8 8 (344064)
I0630 01:43:37.382071 29015 net.cpp:163] Memory required for data: 107864148
I0630 01:43:37.382072 29015 layer_factory.hpp:77] Creating layer res5a_branch2a
I0630 01:43:37.382076 29015 net.cpp:98] Creating Layer res5a_branch2a
I0630 01:43:37.382078 29015 net.cpp:439] res5a_branch2a <- pool4
I0630 01:43:37.382081 29015 net.cpp:413] res5a_branch2a -> res5a_branch2a
I0630 01:43:37.407178 29015 net.cpp:148] Setting up res5a_branch2a
I0630 01:43:37.407196 29015 net.cpp:155] Top shape: 21 512 8 8 (688128)
I0630 01:43:37.407199 29015 net.cpp:163] Memory required for data: 110616660
I0630 01:43:37.407205 29015 layer_factory.hpp:77] Creating layer res5a_branch2a/bn
I0630 01:43:37.407212 29015 net.cpp:98] Creating Layer res5a_branch2a/bn
I0630 01:43:37.407215 29015 net.cpp:439] res5a_branch2a/bn <- res5a_branch2a
I0630 01:43:37.407219 29015 net.cpp:413] res5a_branch2a/bn -> res5a_branch2a/bn
I0630 01:43:37.407946 29015 net.cpp:148] Setting up res5a_branch2a/bn
I0630 01:43:37.407953 29015 net.cpp:155] Top shape: 21 512 8 8 (688128)
I0630 01:43:37.407955 29015 net.cpp:163] Memory required for data: 113369172
I0630 01:43:37.407961 29015 layer_factory.hpp:77] Creating layer res5a_branch2a/relu
I0630 01:43:37.407965 29015 net.cpp:98] Creating Layer res5a_branch2a/relu
I0630 01:43:37.407968 29015 net.cpp:439] res5a_branch2a/relu <- res5a_branch2a/bn
I0630 01:43:37.407970 29015 net.cpp:400] res5a_branch2a/relu -> res5a_branch2a/bn (in-place)
I0630 01:43:37.407974 29015 net.cpp:148] Setting up res5a_branch2a/relu
I0630 01:43:37.407977 29015 net.cpp:155] Top shape: 21 512 8 8 (688128)
I0630 01:43:37.407979 29015 net.cpp:163] Memory required for data: 116121684
I0630 01:43:37.407980 29015 layer_factory.hpp:77] Creating layer res5a_branch2b
I0630 01:43:37.407992 29015 net.cpp:98] Creating Layer res5a_branch2b
I0630 01:43:37.407995 29015 net.cpp:439] res5a_branch2b <- res5a_branch2a/bn
I0630 01:43:37.407999 29015 net.cpp:413] res5a_branch2b -> res5a_branch2b
I0630 01:43:37.421036 29015 net.cpp:148] Setting up res5a_branch2b
I0630 01:43:37.421057 29015 net.cpp:155] Top shape: 21 512 8 8 (688128)
I0630 01:43:37.421059 29015 net.cpp:163] Memory required for data: 118874196
I0630 01:43:37.421072 29015 layer_factory.hpp:77] Creating layer res5a_branch2b/bn
I0630 01:43:37.421079 29015 net.cpp:98] Creating Layer res5a_branch2b/bn
I0630 01:43:37.421083 29015 net.cpp:439] res5a_branch2b/bn <- res5a_branch2b
I0630 01:43:37.421087 29015 net.cpp:413] res5a_branch2b/bn -> res5a_branch2b/bn
I0630 01:43:37.421905 29015 net.cpp:148] Setting up res5a_branch2b/bn
I0630 01:43:37.421913 29015 net.cpp:155] Top shape: 21 512 8 8 (688128)
I0630 01:43:37.421916 29015 net.cpp:163] Memory required for data: 121626708
I0630 01:43:37.421921 29015 layer_factory.hpp:77] Creating layer res5a_branch2b/relu
I0630 01:43:37.421926 29015 net.cpp:98] Creating Layer res5a_branch2b/relu
I0630 01:43:37.421927 29015 net.cpp:439] res5a_branch2b/relu <- res5a_branch2b/bn
I0630 01:43:37.421931 29015 net.cpp:400] res5a_branch2b/relu -> res5a_branch2b/bn (in-place)
I0630 01:43:37.421934 29015 net.cpp:148] Setting up res5a_branch2b/relu
I0630 01:43:37.421937 29015 net.cpp:155] Top shape: 21 512 8 8 (688128)
I0630 01:43:37.421938 29015 net.cpp:163] Memory required for data: 124379220
I0630 01:43:37.421941 29015 layer_factory.hpp:77] Creating layer pool5
I0630 01:43:37.421947 29015 net.cpp:98] Creating Layer pool5
I0630 01:43:37.421948 29015 net.cpp:439] pool5 <- res5a_branch2b/bn
I0630 01:43:37.421962 29015 net.cpp:413] pool5 -> pool5
I0630 01:43:37.421998 29015 net.cpp:148] Setting up pool5
I0630 01:43:37.422004 29015 net.cpp:155] Top shape: 21 512 1 1 (10752)
I0630 01:43:37.422008 29015 net.cpp:163] Memory required for data: 124422228
I0630 01:43:37.422011 29015 layer_factory.hpp:77] Creating layer fc10
I0630 01:43:37.422026 29015 net.cpp:98] Creating Layer fc10
I0630 01:43:37.422030 29015 net.cpp:439] fc10 <- pool5
I0630 01:43:37.422035 29015 net.cpp:413] fc10 -> fc10
I0630 01:43:37.422368 29015 net.cpp:148] Setting up fc10
I0630 01:43:37.422375 29015 net.cpp:155] Top shape: 21 10 (210)
I0630 01:43:37.422379 29015 net.cpp:163] Memory required for data: 124423068
I0630 01:43:37.422385 29015 layer_factory.hpp:77] Creating layer loss
I0630 01:43:37.422391 29015 net.cpp:98] Creating Layer loss
I0630 01:43:37.422395 29015 net.cpp:439] loss <- fc10
I0630 01:43:37.422399 29015 net.cpp:439] loss <- label
I0630 01:43:37.422405 29015 net.cpp:413] loss -> loss
I0630 01:43:37.422426 29015 layer_factory.hpp:77] Creating layer loss
…
I0630 01:43:37.423477 29015 solver.cpp:182] Creating test net (#0) specified by test_net file: training/cifar10_jacintonet11v2_2017-06-30_01-13-02/sparse/test.prototxt
I0630 01:43:37.423676 29015 net.cpp:56] Initializing net from parameters: 
name: "jacintonet11v2_test"
state {
  phase: TEST
}
layer {
  name: "data"
  type: "Data"
  top: "data"
  top: "label"
  transform_param {
    mirror: false
    crop_size: 32
    mean_value: 0
    mean_value: 0
    mean_value: 0
  }
  data_param {
    source: "./data/cifar10_test_lmdb"
    batch_size: 50
    backend: LMDB
    threads: 1
  }
}
layer {
  name: "data/bias"
  type: "Bias"
  bottom: "data"
  top: "data/bias"
  param {
    lr_mult: 0
    decay_mult: 0
  }
  bias_param {
    filler {
      type: "constant"
      value: -128
    }
  }
}
layer {
  name: "conv1a"
  type: "Convolution"
  bottom: "data/bias"
  top: "conv1a"
  param {
    lr_mult: 1
    decay_mult: 1
  }
  param {
    lr_mult: 2
    decay_mult: 0
  }
  convolution_param {
    num_output: 32
    bias_term: true
    pad: 2
    kernel_size: 5
    group: 1
    stride: 1
    weight_filler {
      type: "msra"
    }
    bias_filler {
      type: "constant"
      value: 0
    }
    dilation: 1
  }
}
layer {
  name: "conv1a/bn"
  type: "BatchNorm"
  bottom: "conv1a"
  top: "conv1a/bn"
  param {
    lr_mult: 1
    decay_mult: 1
  }
  param {
    lr_mult: 1
    decay_mult: 1
  }
  param {
    lr_mult: 0
    decay_mult: 0
  }
  param {
    lr_mult: 0
    decay_mult: 0
  }
  batch_norm_param {
    moving_average_fraction: 0.99
    eps: 0.0001
    scale_filler {
      type: "constant"
      value: 1
    }
    bias_filler {
      type: "constant"
      value: 0
    }
  }
}
layer {
  name: "conv1a/relu"
  type: "ReLU"
  bottom: "conv1a/bn"
  top: "conv1a/bn"
}
layer {
  name: "conv1b"
  type: "Convolution"
  bottom: "conv1a/bn"
  top: "conv1b"
  param {
    lr_mult: 1
    decay_mult: 1
  }
  param {
    lr_mult: 2
    decay_mult: 0
  }
  convolution_param {
    num_output: 32
    bias_term: true
    pad: 1
    kernel_size: 3
    group: 4
    stride: 1
    weight_filler {
      type: "msra"
    }
    bias_filler {
      type: "constant"
      value: 0
    }
    dilation: 1
  }
}
layer {
  name: "conv1b/bn"
  type: "BatchNorm"
  bottom: "conv1b"
  top: "conv1b/bn"
  param {
    lr_mult: 1
    decay_mult: 1
  }
  param {
    lr_mult: 1
    decay_mult: 1
  }
  param {
    lr_mult: 0
    decay_mult: 0
  }
  param {
    lr_mult: 0
    decay_mult: 0
  }
  batch_norm_param {
    moving_average_fraction: 0.99
    eps: 0.0001
    scale_filler {
      type: "constant"
      value: 1
    }
    bias_filler {
      type: "constant"
      value: 0
    }
  }
}
layer {
  name: "conv1b/relu"
  type: "ReLU"
  bottom: "conv1b/bn"
  top: "conv1b/bn"
}
layer {
  name: "pool1"
  type: "Pooling"
  bottom: "conv1b/bn"
  top: "pool1"
  pooling_param {
    pool: MAX
    kernel_size: 1
    stride: 1
  }
}
layer {
  name: "res2a_branch2a"
  type: "Convolution"
  bottom: "pool1"
  top: "res2a_branch2a"
  param {
    lr_mult: 1
    decay_mult: 1
  }
  param {
    lr_mult: 2
    decay_mult: 0
  }
  convolution_param {
    num_output: 64
    bias_term: true
    pad: 1
    kernel_size: 3
    group: 1
    stride: 1
    weight_filler {
      type: "msra"
    }
    bias_filler {
      type: "constant"
      value: 0
    }
    dilation: 1
  }
}
layer {
  name: "res2a_branch2a/bn"
  type: "BatchNorm"
  bottom: "res2a_branch2a"
  top: "res2a_branch2a/bn"
  param {
    lr_mult: 1
    decay_mult: 1
  }
  param {
    lr_mult: 1
    decay_mult: 1
  }
  param {
    lr_mult: 0
    decay_mult: 0
  }
  param {
    lr_mult: 0
    decay_mult: 0
  }
  batch_norm_param {
    moving_average_fraction: 0.99
    eps: 0.0001
    scale_filler {
      type: "constant"
      value: 1
    }
    bias_filler {
      type: "constant"
      value: 0
    }
  }
}
layer {
  name: "res2a_branch2a/relu"
  type: "ReLU"
  bottom: "res2a_branch2a/bn"
  top: "res2a_branch2a/bn"
}
layer {
  name: "res2a_branch2b"
  type: "Convolution"
  bottom: "res2a_branch2a/bn"
  top: "res2a_branch2b"
  param {
    lr_mult: 1
    decay_mult: 1
  }
  param {
    lr_mult: 2
    decay_mult: 0
  }
  convolution_param {
    num_output: 64
    bias_term: true
    pad: 1
    kernel_size: 3
    group: 4
    stride: 1
    weight_filler {
      type: "msra"
    }
    bias_filler {
      type: "constant"
      value: 0
    }
    dilation: 1
  }
}
layer {
  name: "res2a_branch2b/bn"
  type: "BatchNorm"
  bottom: "res2a_branch2b"
  top: "res2a_branch2b/bn"
  param {
    lr_mult: 1
    decay_mult: 1
  }
  param {
    lr_mult: 1
    decay_mult: 1
  }
  param {
    lr_mult: 0
    decay_mult: 0
  }
  param {
    lr_mult: 0
    decay_mult: 0
  }
  batch_norm_param {
    moving_average_fraction: 0.99
    eps: 0.0001
    scale_filler {
      type: "constant"
      value: 1
    }
    bias_filler {
      type: "constant"
      value: 0
    }
  }
}
layer {
  name: "res2a_branch2b/relu"
  type: "ReLU"
  bottom: "res2a_branch2b/bn"
  top: "res2a_branch2b/bn"
}
layer {
  name: "pool2"
  type: "Pooling"
  bottom: "res2a_branch2b/bn"
  top: "pool2"
  pooling_param {
    pool: MAX
    kernel_size: 2
    stride: 2
  }
}
layer {
  name: "res3a_branch2a"
  type: "Convolution"
  bottom: "pool2"
  top: "res3a_branch2a"
  param {
    lr_mult: 1
    decay_mult: 1
  }
  param {
    lr_mult: 2
    decay_mult: 0
  }
  convolution_param {
    num_output: 128
    bias_term: true
    pad: 1
    kernel_size: 3
    group: 1
    stride: 1
    weight_filler {
      type: "msra"
    }
    bias_filler {
      type: "constant"
      value: 0
    }
    dilation: 1
  }
}
layer {
  name: "res3a_branch2a/bn"
  type: "BatchNorm"
  bottom: "res3a_branch2a"
  top: "res3a_branch2a/bn"
  param {
    lr_mult: 1
    decay_mult: 1
  }
  param {
    lr_mult: 1
    decay_mult: 1
  }
  param {
    lr_mult: 0
    decay_mult: 0
  }
  param {
    lr_mult: 0
    decay_mult: 0
  }
  batch_norm_param {
    moving_average_fraction: 0.99
    eps: 0.0001
    scale_filler {
      type: "constant"
      value: 1
    }
    bias_filler {
      type: "constant"
      value: 0
    }
  }
}
layer {
  name: "res3a_branch2a/relu"
  type: "ReLU"
  bottom: "res3a_branch2a/bn"
  top: "res3a_branch2a/bn"
}
layer {
  name: "res3a_branch2b"
  type: "Convolution"
  bottom: "res3a_branch2a/bn"
  top: "res3a_branch2b"
  param {
    lr_mult: 1
    decay_mult: 1
  }
  param {
    lr_mult: 2
    decay_mult: 0
  }
  convolution_param {
    num_output: 128
    bias_term: true
    pad: 1
    kernel_size: 3
    group: 4
    stride: 1
    weight_filler {
      type: "msra"
    }
    bias_filler {
      type: "constant"
      value: 0
    }
    dilation: 1
  }
}
layer {
  name: "res3a_branch2b/bn"
  type: "BatchNorm"
  bottom: "res3a_branch2b"
  top: "res3a_branch2b/bn"
  param {
    lr_mult: 1
    decay_mult: 1
  }
  param {
    lr_mult: 1
    decay_mult: 1
  }
  param {
    lr_mult: 0
    decay_mult: 0
  }
  param {
    lr_mult: 0
    decay_mult: 0
  }
  batch_norm_param {
    moving_average_fraction: 0.99
    eps: 0.0001
    scale_filler {
      type: "constant"
      value: 1
    }
    bias_filler {
      type: "constant"
      value: 0
    }
  }
}
layer {
  name: "res3a_branch2b/relu"
  type: "ReLU"
  bottom: "res3a_branch2b/bn"
  top: "res3a_branch2b/bn"
}
layer {
  name: "pool3"
  type: "Pooling"
  bottom: "res3a_branch2b/bn"
  top: "pool3"
  pooling_param {
    pool: MAX
    kernel_size: 1
    stride: 1
  }
}
layer {
  name: "res4a_branch2a"
  type: "Convolution"
  bottom: "pool3"
  top: "res4a_branch2a"
  param {
    lr_mult: 1
    decay_mult: 1
  }
  param {
    lr_mult: 2
    decay_mult: 0
  }
  convolution_param {
    num_output: 256
    bias_term: true
    pad: 1
    kernel_size: 3
    group: 1
    stride: 1
    weight_filler {
      type: "msra"
    }
    bias_filler {
      type: "constant"
      value: 0
    }
    dilation: 1
  }
}
layer {
  name: "res4a_branch2a/bn"
  type: "BatchNorm"
  bottom: "res4a_branch2a"
  top: "res4a_branch2a/bn"
  param {
    lr_mult: 1
    decay_mult: 1
  }
  param {
    lr_mult: 1
    decay_mult: 1
  }
  param {
    lr_mult: 0
    decay_mult: 0
  }
  param {
    lr_mult: 0
    decay_mult: 0
  }
  batch_norm_param {
    moving_average_fraction: 0.99
    eps: 0.0001
    scale_filler {
      type: "constant"
      value: 1
    }
    bias_filler {
      type: "constant"
      value: 0
    }
  }
}
layer {
  name: "res4a_branch2a/relu"
  type: "ReLU"
  bottom: "res4a_branch2a/bn"
  top: "res4a_branch2a/bn"
}
layer {
  name: "res4a_branch2b"
  type: "Convolution"
  bottom: "res4a_branch2a/bn"
  top: "res4a_branch2b"
  param {
    lr_mult: 1
    decay_mult: 1
  }
  param {
    lr_mult: 2
    decay_mult: 0
  }
  convolution_param {
    num_output: 256
    bias_term: true
    pad: 1
    kernel_size: 3
    group: 4
    stride: 1
    weight_filler {
      type: "msra"
    }
    bias_filler {
      type: "constant"
      value: 0
    }
    dilation: 1
  }
}
layer {
  name: "res4a_branch2b/bn"
  type: "BatchNorm"
  bottom: "res4a_branch2b"
  top: "res4a_branch2b/bn"
  param {
    lr_mult: 1
    decay_mult: 1
  }
  param {
    lr_mult: 1
    decay_mult: 1
  }
  param {
    lr_mult: 0
    decay_mult: 0
  }
  param {
    lr_mult: 0
    decay_mult: 0
  }
  batch_norm_param {
    moving_average_fraction: 0.99
    eps: 0.0001
    scale_filler {
      type: "constant"
      value: 1
    }
    bias_filler {
      type: "constant"
      value: 0
    }
  }
}
layer {
  name: "res4a_branch2b/relu"
  type: "ReLU"
  bottom: "res4a_branch2b/bn"
  top: "res4a_branch2b/bn"
}
layer {
  name: "pool4"
  type: "Pooling"
  bottom: "res4a_branch2b/bn"
  top: "pool4"
  pooling_param {
    pool: MAX
    kernel_size: 2
    stride: 2
  }
}
layer {
  name: "res5a_branch2a"
  type: "Convolution"
  bottom: "pool4"
  top: "res5a_branch2a"
  param {
    lr_mult: 1
    decay_mult: 1
  }
  param {
    lr_mult: 2
    decay_mult: 0
  }
  convolution_param {
    num_output: 512
    bias_term: true
    pad: 1
    kernel_size: 3
    group: 1
    stride: 1
    weight_filler {
      type: "msra"
    }
    bias_filler {
      type: "constant"
      value: 0
    }
    dilation: 1
  }
}
layer {
  name: "res5a_branch2a/bn"
  type: "BatchNorm"
  bottom: "res5a_branch2a"
  top: "res5a_branch2a/bn"
  param {
    lr_mult: 1
    decay_mult: 1
  }
  param {
    lr_mult: 1
    decay_mult: 1
  }
  param {
    lr_mult: 0
    decay_mult: 0
  }
  param {
    lr_mult: 0
    decay_mult: 0
  }
  batch_norm_param {
    moving_average_fraction: 0.99
    eps: 0.0001
    scale_filler {
      type: "constant"
      value: 1
    }
    bias_filler {
      type: "constant"
      value: 0
    }
  }
}
layer {
  name: "res5a_branch2a/relu"
  type: "ReLU"
  bottom: "res5a_branch2a/bn"
  top: "res5a_branch2a/bn"
}
layer {
  name: "res5a_branch2b"
  type: "Convolution"
  bottom: "res5a_branch2a/bn"
  top: "res5a_branch2b"
  param {
    lr_mult: 1
    decay_mult: 1
  }
  param {
    lr_mult: 2
    decay_mult: 0
  }
  convolution_param {
    num_output: 512
    bias_term: true
    pad: 1
    kernel_size: 3
    group: 4
    stride: 1
    weight_filler {
      type: "msra"
    }
    bias_filler {
      type: "constant"
      value: 0
    }
    dilation: 1
  }
}
layer {
  name: "res5a_branch2b/bn"
  type: "BatchNorm"
  bottom: "res5a_branch2b"
  top: "res5a_branch2b/bn"
  param {
    lr_mult: 1
    decay_mult: 1
  }
  param {
    lr_mult: 1
    decay_mult: 1
  }
  param {
    lr_mult: 0
    decay_mult: 0
  }
  param {
    lr_mult: 0
    decay_mult: 0
  }
  batch_norm_param {
    moving_average_fraction: 0.99
    eps: 0.0001
    scale_filler {
      type: "constant"
      value: 1
    }
    bias_filler {
      type: "constant"
      value: 0
    }
  }
}
layer {
  name: "res5a_branch2b/relu"
  type: "ReLU"
  bottom: "res5a_branch2b/bn"
  top: "res5a_branch2b/bn"
}
layer {
  name: "pool5"
  type: "Pooling"
  bottom: "res5a_branch2b/bn"
  top: "pool5"
  pooling_param {
    pool: AVE
    global_pooling: true
  }
}
layer {
  name: "fc10"
  type: "InnerProduct"
  bottom: "pool5"
  top: "fc10"
  param {
    lr_mult: 1
    decay_mult: 1
  }
  param {
    lr_mult: 2
    decay_mult: 0
  }
  inner_product_param {
    num_output: 10
    weight_filler {
      type: "msra"
    }
    bias_filler {
      type: "constant"
      value: 0
    }
  }
}
layer {
  name: "loss"
  type: "SoftmaxWithLoss"
  bottom: "fc10"
  bottom: "label"
  top: "loss"
  propagate_down: true
  propagate_down: false
}
layer {
  name: "accuracy/top1"
  type: "Accuracy"
  bottom: "fc10"
  bottom: "label"
  top: "accuracy/top1"
  include {
    phase: TEST
  }
}
layer {
  name: "accuracy/top5"
  type: "Accuracy"
  bottom: "fc10"
  bottom: "label"
  top: "accuracy/top5"
  include {
    phase: TEST
  }
  accuracy_param {
    top_k: 5
  }
}
I0630 01:43:37.423799 29015 layer_factory.hpp:77] Creating layer data
I0630 01:43:37.423871 29015 net.cpp:98] Creating Layer data
I0630 01:43:37.423877 29015 net.cpp:413] data -> data
I0630 01:43:37.423883 29015 net.cpp:413] data -> label
I0630 01:43:37.438899 29045 db_lmdb.cpp:35] Opened lmdb ./data/cifar10_test_lmdb
I0630 01:43:37.439009 29015 data_layer.cpp:78] ReshapePrefetch 50, 3, 32, 32
I0630 01:43:37.439069 29015 data_layer.cpp:83] output data size: 50,3,32,32
I0630 01:43:37.441308 29015 net.cpp:148] Setting up data
I0630 01:43:37.441316 29015 net.cpp:155] Top shape: 50 3 32 32 (153600)
I0630 01:43:37.441319 29015 net.cpp:155] Top shape: 50 (50)
I0630 01:43:37.441321 29015 net.cpp:163] Memory required for data: 614600
I0630 01:43:37.441323 29015 layer_factory.hpp:77] Creating layer label_data_1_split
I0630 01:43:37.441329 29015 net.cpp:98] Creating Layer label_data_1_split
I0630 01:43:37.441331 29015 net.cpp:439] label_data_1_split <- label
I0630 01:43:37.441334 29015 net.cpp:413] label_data_1_split -> label_data_1_split_0
I0630 01:43:37.441339 29015 net.cpp:413] label_data_1_split -> label_data_1_split_1
I0630 01:43:37.441341 29015 net.cpp:413] label_data_1_split -> label_data_1_split_2
I0630 01:43:37.441479 29015 net.cpp:148] Setting up label_data_1_split
I0630 01:43:37.441491 29015 net.cpp:155] Top shape: 50 (50)
I0630 01:43:37.441496 29015 net.cpp:155] Top shape: 50 (50)
I0630 01:43:37.441500 29015 net.cpp:155] Top shape: 50 (50)
I0630 01:43:37.441504 29015 net.cpp:163] Memory required for data: 615200
I0630 01:43:37.441506 29015 layer_factory.hpp:77] Creating layer data/bias
I0630 01:43:37.441514 29015 net.cpp:98] Creating Layer data/bias
I0630 01:43:37.441517 29015 net.cpp:439] data/bias <- data
I0630 01:43:37.441522 29015 net.cpp:413] data/bias -> data/bias
I0630 01:43:37.441653 29015 net.cpp:148] Setting up data/bias
I0630 01:43:37.441659 29015 net.cpp:155] Top shape: 50 3 32 32 (153600)
I0630 01:43:37.441663 29015 net.cpp:163] Memory required for data: 1229600
I0630 01:43:37.441669 29015 layer_factory.hpp:77] Creating layer conv1a
I0630 01:43:37.441675 29015 net.cpp:98] Creating Layer conv1a
I0630 01:43:37.441679 29015 net.cpp:439] conv1a <- data/bias
I0630 01:43:37.441684 29015 net.cpp:413] conv1a -> conv1a
I0630 01:43:37.442312 29015 net.cpp:148] Setting up conv1a
I0630 01:43:37.442320 29015 net.cpp:155] Top shape: 50 32 32 32 (1638400)
I0630 01:43:37.442322 29015 net.cpp:163] Memory required for data: 7783200
I0630 01:43:37.442327 29015 layer_factory.hpp:77] Creating layer conv1a/bn
I0630 01:43:37.442330 29015 net.cpp:98] Creating Layer conv1a/bn
I0630 01:43:37.442333 29015 net.cpp:439] conv1a/bn <- conv1a
I0630 01:43:37.442337 29015 net.cpp:413] conv1a/bn -> conv1a/bn
I0630 01:43:37.443209 29015 net.cpp:148] Setting up conv1a/bn
I0630 01:43:37.443217 29015 net.cpp:155] Top shape: 50 32 32 32 (1638400)
I0630 01:43:37.443219 29015 net.cpp:163] Memory required for data: 14336800
I0630 01:43:37.443225 29015 layer_factory.hpp:77] Creating layer conv1a/relu
I0630 01:43:37.443236 29015 net.cpp:98] Creating Layer conv1a/relu
I0630 01:43:37.443238 29015 net.cpp:439] conv1a/relu <- conv1a/bn
I0630 01:43:37.443241 29015 net.cpp:400] conv1a/relu -> conv1a/bn (in-place)
I0630 01:43:37.443245 29015 net.cpp:148] Setting up conv1a/relu
I0630 01:43:37.443248 29015 net.cpp:155] Top shape: 50 32 32 32 (1638400)
I0630 01:43:37.443251 29015 net.cpp:163] Memory required for data: 20890400
I0630 01:43:37.443255 29015 layer_factory.hpp:77] Creating layer conv1b
I0630 01:43:37.443262 29015 net.cpp:98] Creating Layer conv1b
I0630 01:43:37.443267 29015 net.cpp:439] conv1b <- conv1a/bn
I0630 01:43:37.443272 29015 net.cpp:413] conv1b -> conv1b
I0630 01:43:37.443768 29015 net.cpp:148] Setting up conv1b
I0630 01:43:37.443775 29015 net.cpp:155] Top shape: 50 32 32 32 (1638400)
I0630 01:43:37.443778 29015 net.cpp:163] Memory required for data: 27444000
I0630 01:43:37.443781 29015 layer_factory.hpp:77] Creating layer conv1b/bn
I0630 01:43:37.443789 29015 net.cpp:98] Creating Layer conv1b/bn
I0630 01:43:37.443791 29015 net.cpp:439] conv1b/bn <- conv1b
I0630 01:43:37.443794 29015 net.cpp:413] conv1b/bn -> conv1b/bn
I0630 01:43:37.444612 29015 net.cpp:148] Setting up conv1b/bn
I0630 01:43:37.444619 29015 net.cpp:155] Top shape: 50 32 32 32 (1638400)
I0630 01:43:37.444622 29015 net.cpp:163] Memory required for data: 33997600
I0630 01:43:37.444628 29015 layer_factory.hpp:77] Creating layer conv1b/relu
I0630 01:43:37.444630 29015 net.cpp:98] Creating Layer conv1b/relu
I0630 01:43:37.444633 29015 net.cpp:439] conv1b/relu <- conv1b/bn
I0630 01:43:37.444635 29015 net.cpp:400] conv1b/relu -> conv1b/bn (in-place)
I0630 01:43:37.444638 29015 net.cpp:148] Setting up conv1b/relu
I0630 01:43:37.444640 29015 net.cpp:155] Top shape: 50 32 32 32 (1638400)
I0630 01:43:37.444643 29015 net.cpp:163] Memory required for data: 40551200
I0630 01:43:37.444644 29015 layer_factory.hpp:77] Creating layer pool1
I0630 01:43:37.444648 29015 net.cpp:98] Creating Layer pool1
I0630 01:43:37.444649 29015 net.cpp:439] pool1 <- conv1b/bn
I0630 01:43:37.444651 29015 net.cpp:413] pool1 -> pool1
I0630 01:43:37.444701 29015 net.cpp:148] Setting up pool1
I0630 01:43:37.444708 29015 net.cpp:155] Top shape: 50 32 32 32 (1638400)
I0630 01:43:37.444711 29015 net.cpp:163] Memory required for data: 47104800
I0630 01:43:37.444715 29015 layer_factory.hpp:77] Creating layer res2a_branch2a
I0630 01:43:37.444725 29015 net.cpp:98] Creating Layer res2a_branch2a
I0630 01:43:37.444728 29015 net.cpp:439] res2a_branch2a <- pool1
I0630 01:43:37.444735 29015 net.cpp:413] res2a_branch2a -> res2a_branch2a
I0630 01:43:37.445516 29015 net.cpp:148] Setting up res2a_branch2a
I0630 01:43:37.445523 29015 net.cpp:155] Top shape: 50 64 32 32 (3276800)
I0630 01:43:37.445525 29015 net.cpp:163] Memory required for data: 60212000
I0630 01:43:37.445529 29015 layer_factory.hpp:77] Creating layer res2a_branch2a/bn
I0630 01:43:37.445533 29015 net.cpp:98] Creating Layer res2a_branch2a/bn
I0630 01:43:37.445535 29015 net.cpp:439] res2a_branch2a/bn <- res2a_branch2a
I0630 01:43:37.445538 29015 net.cpp:413] res2a_branch2a/bn -> res2a_branch2a/bn
I0630 01:43:37.446315 29015 net.cpp:148] Setting up res2a_branch2a/bn
I0630 01:43:37.446321 29015 net.cpp:155] Top shape: 50 64 32 32 (3276800)
I0630 01:43:37.446323 29015 net.cpp:163] Memory required for data: 73319200
I0630 01:43:37.446328 29015 layer_factory.hpp:77] Creating layer res2a_branch2a/relu
I0630 01:43:37.446331 29015 net.cpp:98] Creating Layer res2a_branch2a/relu
I0630 01:43:37.446333 29015 net.cpp:439] res2a_branch2a/relu <- res2a_branch2a/bn
I0630 01:43:37.446336 29015 net.cpp:400] res2a_branch2a/relu -> res2a_branch2a/bn (in-place)
I0630 01:43:37.446338 29015 net.cpp:148] Setting up res2a_branch2a/relu
I0630 01:43:37.446341 29015 net.cpp:155] Top shape: 50 64 32 32 (3276800)
I0630 01:43:37.446342 29015 net.cpp:163] Memory required for data: 86426400
I0630 01:43:37.446344 29015 layer_factory.hpp:77] Creating layer res2a_branch2b
I0630 01:43:37.446348 29015 net.cpp:98] Creating Layer res2a_branch2b
I0630 01:43:37.446355 29015 net.cpp:439] res2a_branch2b <- res2a_branch2a/bn
I0630 01:43:37.446362 29015 net.cpp:413] res2a_branch2b -> res2a_branch2b
I0630 01:43:37.446949 29015 net.cpp:148] Setting up res2a_branch2b
I0630 01:43:37.446955 29015 net.cpp:155] Top shape: 50 64 32 32 (3276800)
I0630 01:43:37.446957 29015 net.cpp:163] Memory required for data: 99533600
I0630 01:43:37.446960 29015 layer_factory.hpp:77] Creating layer res2a_branch2b/bn
I0630 01:43:37.446964 29015 net.cpp:98] Creating Layer res2a_branch2b/bn
I0630 01:43:37.446966 29015 net.cpp:439] res2a_branch2b/bn <- res2a_branch2b
I0630 01:43:37.446969 29015 net.cpp:413] res2a_branch2b/bn -> res2a_branch2b/bn
I0630 01:43:37.447753 29015 net.cpp:148] Setting up res2a_branch2b/bn
I0630 01:43:37.447760 29015 net.cpp:155] Top shape: 50 64 32 32 (3276800)
I0630 01:43:37.447762 29015 net.cpp:163] Memory required for data: 112640800
I0630 01:43:37.447767 29015 layer_factory.hpp:77] Creating layer res2a_branch2b/relu
I0630 01:43:37.447770 29015 net.cpp:98] Creating Layer res2a_branch2b/relu
I0630 01:43:37.447772 29015 net.cpp:439] res2a_branch2b/relu <- res2a_branch2b/bn
I0630 01:43:37.447774 29015 net.cpp:400] res2a_branch2b/relu -> res2a_branch2b/bn (in-place)
I0630 01:43:37.447778 29015 net.cpp:148] Setting up res2a_branch2b/relu
I0630 01:43:37.447780 29015 net.cpp:155] Top shape: 50 64 32 32 (3276800)
I0630 01:43:37.447782 29015 net.cpp:163] Memory required for data: 125748000
I0630 01:43:37.447784 29015 layer_factory.hpp:77] Creating layer pool2
I0630 01:43:37.447788 29015 net.cpp:98] Creating Layer pool2
I0630 01:43:37.447789 29015 net.cpp:439] pool2 <- res2a_branch2b/bn
I0630 01:43:37.447791 29015 net.cpp:413] pool2 -> pool2
I0630 01:43:37.447829 29015 net.cpp:148] Setting up pool2
I0630 01:43:37.447835 29015 net.cpp:155] Top shape: 50 64 16 16 (819200)
I0630 01:43:37.447839 29015 net.cpp:163] Memory required for data: 129024800
I0630 01:43:37.447841 29015 layer_factory.hpp:77] Creating layer res3a_branch2a
I0630 01:43:37.447847 29015 net.cpp:98] Creating Layer res3a_branch2a
I0630 01:43:37.447851 29015 net.cpp:439] res3a_branch2a <- pool2
I0630 01:43:37.447855 29015 net.cpp:413] res3a_branch2a -> res3a_branch2a
I0630 01:43:37.450871 29015 net.cpp:148] Setting up res3a_branch2a
I0630 01:43:37.450891 29015 net.cpp:155] Top shape: 50 128 16 16 (1638400)
I0630 01:43:37.450894 29015 net.cpp:163] Memory required for data: 135578400
I0630 01:43:37.450899 29015 layer_factory.hpp:77] Creating layer res3a_branch2a/bn
I0630 01:43:37.450906 29015 net.cpp:98] Creating Layer res3a_branch2a/bn
I0630 01:43:37.450908 29015 net.cpp:439] res3a_branch2a/bn <- res3a_branch2a
I0630 01:43:37.450912 29015 net.cpp:413] res3a_branch2a/bn -> res3a_branch2a/bn
I0630 01:43:37.451638 29015 net.cpp:148] Setting up res3a_branch2a/bn
I0630 01:43:37.451645 29015 net.cpp:155] Top shape: 50 128 16 16 (1638400)
I0630 01:43:37.451647 29015 net.cpp:163] Memory required for data: 142132000
I0630 01:43:37.451655 29015 layer_factory.hpp:77] Creating layer res3a_branch2a/relu
I0630 01:43:37.451663 29015 net.cpp:98] Creating Layer res3a_branch2a/relu
I0630 01:43:37.451665 29015 net.cpp:439] res3a_branch2a/relu <- res3a_branch2a/bn
I0630 01:43:37.451668 29015 net.cpp:400] res3a_branch2a/relu -> res3a_branch2a/bn (in-place)
I0630 01:43:37.451673 29015 net.cpp:148] Setting up res3a_branch2a/relu
I0630 01:43:37.451674 29015 net.cpp:155] Top shape: 50 128 16 16 (1638400)
I0630 01:43:37.451676 29015 net.cpp:163] Memory required for data: 148685600
I0630 01:43:37.451678 29015 layer_factory.hpp:77] Creating layer res3a_branch2b
I0630 01:43:37.451684 29015 net.cpp:98] Creating Layer res3a_branch2b
I0630 01:43:37.451688 29015 net.cpp:439] res3a_branch2b <- res3a_branch2a/bn
I0630 01:43:37.451690 29015 net.cpp:413] res3a_branch2b -> res3a_branch2b
I0630 01:43:37.452738 29015 net.cpp:148] Setting up res3a_branch2b
I0630 01:43:37.452744 29015 net.cpp:155] Top shape: 50 128 16 16 (1638400)
I0630 01:43:37.452745 29015 net.cpp:163] Memory required for data: 155239200
I0630 01:43:37.452749 29015 layer_factory.hpp:77] Creating layer res3a_branch2b/bn
I0630 01:43:37.452764 29015 net.cpp:98] Creating Layer res3a_branch2b/bn
I0630 01:43:37.452766 29015 net.cpp:439] res3a_branch2b/bn <- res3a_branch2b
I0630 01:43:37.452769 29015 net.cpp:413] res3a_branch2b/bn -> res3a_branch2b/bn
I0630 01:43:37.453426 29015 net.cpp:148] Setting up res3a_branch2b/bn
I0630 01:43:37.453433 29015 net.cpp:155] Top shape: 50 128 16 16 (1638400)
I0630 01:43:37.453435 29015 net.cpp:163] Memory required for data: 161792800
I0630 01:43:37.453440 29015 layer_factory.hpp:77] Creating layer res3a_branch2b/relu
I0630 01:43:37.453444 29015 net.cpp:98] Creating Layer res3a_branch2b/relu
I0630 01:43:37.453447 29015 net.cpp:439] res3a_branch2b/relu <- res3a_branch2b/bn
I0630 01:43:37.453449 29015 net.cpp:400] res3a_branch2b/relu -> res3a_branch2b/bn (in-place)
I0630 01:43:37.453454 29015 net.cpp:148] Setting up res3a_branch2b/relu
I0630 01:43:37.453457 29015 net.cpp:155] Top shape: 50 128 16 16 (1638400)
I0630 01:43:37.453459 29015 net.cpp:163] Memory required for data: 168346400
I0630 01:43:37.453461 29015 layer_factory.hpp:77] Creating layer pool3
I0630 01:43:37.453465 29015 net.cpp:98] Creating Layer pool3
I0630 01:43:37.453469 29015 net.cpp:439] pool3 <- res3a_branch2b/bn
I0630 01:43:37.453470 29015 net.cpp:413] pool3 -> pool3
I0630 01:43:37.453510 29015 net.cpp:148] Setting up pool3
I0630 01:43:37.453514 29015 net.cpp:155] Top shape: 50 128 16 16 (1638400)
I0630 01:43:37.453517 29015 net.cpp:163] Memory required for data: 174900000
I0630 01:43:37.453519 29015 layer_factory.hpp:77] Creating layer res4a_branch2a
I0630 01:43:37.453524 29015 net.cpp:98] Creating Layer res4a_branch2a
I0630 01:43:37.453526 29015 net.cpp:439] res4a_branch2a <- pool3
I0630 01:43:37.453529 29015 net.cpp:413] res4a_branch2a -> res4a_branch2a
I0630 01:43:37.459630 29015 net.cpp:148] Setting up res4a_branch2a
I0630 01:43:37.459636 29015 net.cpp:155] Top shape: 50 256 16 16 (3276800)
I0630 01:43:37.459638 29015 net.cpp:163] Memory required for data: 188007200
I0630 01:43:37.459642 29015 layer_factory.hpp:77] Creating layer res4a_branch2a/bn
I0630 01:43:37.459647 29015 net.cpp:98] Creating Layer res4a_branch2a/bn
I0630 01:43:37.459650 29015 net.cpp:439] res4a_branch2a/bn <- res4a_branch2a
I0630 01:43:37.459653 29015 net.cpp:413] res4a_branch2a/bn -> res4a_branch2a/bn
I0630 01:43:37.460295 29015 net.cpp:148] Setting up res4a_branch2a/bn
I0630 01:43:37.460301 29015 net.cpp:155] Top shape: 50 256 16 16 (3276800)
I0630 01:43:37.460304 29015 net.cpp:163] Memory required for data: 201114400
I0630 01:43:37.460309 29015 layer_factory.hpp:77] Creating layer res4a_branch2a/relu
I0630 01:43:37.460312 29015 net.cpp:98] Creating Layer res4a_branch2a/relu
I0630 01:43:37.460315 29015 net.cpp:439] res4a_branch2a/relu <- res4a_branch2a/bn
I0630 01:43:37.460319 29015 net.cpp:400] res4a_branch2a/relu -> res4a_branch2a/bn (in-place)
I0630 01:43:37.460322 29015 net.cpp:148] Setting up res4a_branch2a/relu
I0630 01:43:37.460325 29015 net.cpp:155] Top shape: 50 256 16 16 (3276800)
I0630 01:43:37.460327 29015 net.cpp:163] Memory required for data: 214221600
I0630 01:43:37.460330 29015 layer_factory.hpp:77] Creating layer res4a_branch2b
I0630 01:43:37.460333 29015 net.cpp:98] Creating Layer res4a_branch2b
I0630 01:43:37.460336 29015 net.cpp:439] res4a_branch2b <- res4a_branch2a/bn
I0630 01:43:37.460338 29015 net.cpp:413] res4a_branch2b -> res4a_branch2b
I0630 01:43:37.463541 29015 net.cpp:148] Setting up res4a_branch2b
I0630 01:43:37.463547 29015 net.cpp:155] Top shape: 50 256 16 16 (3276800)
I0630 01:43:37.463549 29015 net.cpp:163] Memory required for data: 227328800
I0630 01:43:37.463552 29015 layer_factory.hpp:77] Creating layer res4a_branch2b/bn
I0630 01:43:37.463557 29015 net.cpp:98] Creating Layer res4a_branch2b/bn
I0630 01:43:37.463559 29015 net.cpp:439] res4a_branch2b/bn <- res4a_branch2b
I0630 01:43:37.463565 29015 net.cpp:413] res4a_branch2b/bn -> res4a_branch2b/bn
I0630 01:43:37.464203 29015 net.cpp:148] Setting up res4a_branch2b/bn
I0630 01:43:37.464208 29015 net.cpp:155] Top shape: 50 256 16 16 (3276800)
I0630 01:43:37.464216 29015 net.cpp:163] Memory required for data: 240436000
I0630 01:43:37.464222 29015 layer_factory.hpp:77] Creating layer res4a_branch2b/relu
I0630 01:43:37.464224 29015 net.cpp:98] Creating Layer res4a_branch2b/relu
I0630 01:43:37.464226 29015 net.cpp:439] res4a_branch2b/relu <- res4a_branch2b/bn
I0630 01:43:37.464229 29015 net.cpp:400] res4a_branch2b/relu -> res4a_branch2b/bn (in-place)
I0630 01:43:37.464232 29015 net.cpp:148] Setting up res4a_branch2b/relu
I0630 01:43:37.464234 29015 net.cpp:155] Top shape: 50 256 16 16 (3276800)
I0630 01:43:37.464236 29015 net.cpp:163] Memory required for data: 253543200
I0630 01:43:37.464238 29015 layer_factory.hpp:77] Creating layer pool4
I0630 01:43:37.464243 29015 net.cpp:98] Creating Layer pool4
I0630 01:43:37.464246 29015 net.cpp:439] pool4 <- res4a_branch2b/bn
I0630 01:43:37.464248 29015 net.cpp:413] pool4 -> pool4
I0630 01:43:37.464288 29015 net.cpp:148] Setting up pool4
I0630 01:43:37.464293 29015 net.cpp:155] Top shape: 50 256 8 8 (819200)
I0630 01:43:37.464293 29015 net.cpp:163] Memory required for data: 256820000
I0630 01:43:37.464295 29015 layer_factory.hpp:77] Creating layer res5a_branch2a
I0630 01:43:37.464303 29015 net.cpp:98] Creating Layer res5a_branch2a
I0630 01:43:37.464305 29015 net.cpp:439] res5a_branch2a <- pool4
I0630 01:43:37.464308 29015 net.cpp:413] res5a_branch2a -> res5a_branch2a
I0630 01:43:37.489150 29015 net.cpp:148] Setting up res5a_branch2a
I0630 01:43:37.489171 29015 net.cpp:155] Top shape: 50 512 8 8 (1638400)
I0630 01:43:37.489172 29015 net.cpp:163] Memory required for data: 263373600
I0630 01:43:37.489178 29015 layer_factory.hpp:77] Creating layer res5a_branch2a/bn
I0630 01:43:37.489187 29015 net.cpp:98] Creating Layer res5a_branch2a/bn
I0630 01:43:37.489190 29015 net.cpp:439] res5a_branch2a/bn <- res5a_branch2a
I0630 01:43:37.489194 29015 net.cpp:413] res5a_branch2a/bn -> res5a_branch2a/bn
I0630 01:43:37.489903 29015 net.cpp:148] Setting up res5a_branch2a/bn
I0630 01:43:37.489909 29015 net.cpp:155] Top shape: 50 512 8 8 (1638400)
I0630 01:43:37.489912 29015 net.cpp:163] Memory required for data: 269927200
I0630 01:43:37.489917 29015 layer_factory.hpp:77] Creating layer res5a_branch2a/relu
I0630 01:43:37.489920 29015 net.cpp:98] Creating Layer res5a_branch2a/relu
I0630 01:43:37.489923 29015 net.cpp:439] res5a_branch2a/relu <- res5a_branch2a/bn
I0630 01:43:37.489925 29015 net.cpp:400] res5a_branch2a/relu -> res5a_branch2a/bn (in-place)
I0630 01:43:37.489930 29015 net.cpp:148] Setting up res5a_branch2a/relu
I0630 01:43:37.489933 29015 net.cpp:155] Top shape: 50 512 8 8 (1638400)
I0630 01:43:37.489934 29015 net.cpp:163] Memory required for data: 276480800
I0630 01:43:37.489936 29015 layer_factory.hpp:77] Creating layer res5a_branch2b
I0630 01:43:37.489945 29015 net.cpp:98] Creating Layer res5a_branch2b
I0630 01:43:37.489948 29015 net.cpp:439] res5a_branch2b <- res5a_branch2a/bn
I0630 01:43:37.489951 29015 net.cpp:413] res5a_branch2b -> res5a_branch2b
I0630 01:43:37.502794 29015 net.cpp:148] Setting up res5a_branch2b
I0630 01:43:37.502802 29015 net.cpp:155] Top shape: 50 512 8 8 (1638400)
I0630 01:43:37.502805 29015 net.cpp:163] Memory required for data: 283034400
I0630 01:43:37.502815 29015 layer_factory.hpp:77] Creating layer res5a_branch2b/bn
I0630 01:43:37.502820 29015 net.cpp:98] Creating Layer res5a_branch2b/bn
I0630 01:43:37.502821 29015 net.cpp:439] res5a_branch2b/bn <- res5a_branch2b
I0630 01:43:37.502825 29015 net.cpp:413] res5a_branch2b/bn -> res5a_branch2b/bn
I0630 01:43:37.503551 29015 net.cpp:148] Setting up res5a_branch2b/bn
I0630 01:43:37.503557 29015 net.cpp:155] Top shape: 50 512 8 8 (1638400)
I0630 01:43:37.503559 29015 net.cpp:163] Memory required for data: 289588000
I0630 01:43:37.503564 29015 layer_factory.hpp:77] Creating layer res5a_branch2b/relu
I0630 01:43:37.503568 29015 net.cpp:98] Creating Layer res5a_branch2b/relu
I0630 01:43:37.503571 29015 net.cpp:439] res5a_branch2b/relu <- res5a_branch2b/bn
I0630 01:43:37.503572 29015 net.cpp:400] res5a_branch2b/relu -> res5a_branch2b/bn (in-place)
I0630 01:43:37.503587 29015 net.cpp:148] Setting up res5a_branch2b/relu
I0630 01:43:37.503589 29015 net.cpp:155] Top shape: 50 512 8 8 (1638400)
I0630 01:43:37.503592 29015 net.cpp:163] Memory required for data: 296141600
I0630 01:43:37.503593 29015 layer_factory.hpp:77] Creating layer pool5
I0630 01:43:37.503597 29015 net.cpp:98] Creating Layer pool5
I0630 01:43:37.503599 29015 net.cpp:439] pool5 <- res5a_branch2b/bn
I0630 01:43:37.503602 29015 net.cpp:413] pool5 -> pool5
I0630 01:43:37.503626 29015 net.cpp:148] Setting up pool5
I0630 01:43:37.503629 29015 net.cpp:155] Top shape: 50 512 1 1 (25600)
I0630 01:43:37.503631 29015 net.cpp:163] Memory required for data: 296244000
I0630 01:43:37.503633 29015 layer_factory.hpp:77] Creating layer fc10
I0630 01:43:37.503643 29015 net.cpp:98] Creating Layer fc10
I0630 01:43:37.503644 29015 net.cpp:439] fc10 <- pool5
I0630 01:43:37.503648 29015 net.cpp:413] fc10 -> fc10
I0630 01:43:37.503885 29015 net.cpp:148] Setting up fc10
I0630 01:43:37.503890 29015 net.cpp:155] Top shape: 50 10 (500)
I0630 01:43:37.503891 29015 net.cpp:163] Memory required for data: 296246000
I0630 01:43:37.503895 29015 layer_factory.hpp:77] Creating layer fc10_fc10_0_split
I0630 01:43:37.503897 29015 net.cpp:98] Creating Layer fc10_fc10_0_split
I0630 01:43:37.503900 29015 net.cpp:439] fc10_fc10_0_split <- fc10
I0630 01:43:37.503901 29015 net.cpp:413] fc10_fc10_0_split -> fc10_fc10_0_split_0
I0630 01:43:37.503906 29015 net.cpp:413] fc10_fc10_0_split -> fc10_fc10_0_split_1
I0630 01:43:37.503908 29015 net.cpp:413] fc10_fc10_0_split -> fc10_fc10_0_split_2
I0630 01:43:37.503969 29015 net.cpp:148] Setting up fc10_fc10_0_split
I0630 01:43:37.503973 29015 net.cpp:155] Top shape: 50 10 (500)
I0630 01:43:37.503976 29015 net.cpp:155] Top shape: 50 10 (500)
I0630 01:43:37.503978 29015 net.cpp:155] Top shape: 50 10 (500)
I0630 01:43:37.503979 29015 net.cpp:163] Memory required for data: 296252000
I0630 01:43:37.503981 29015 layer_factory.hpp:77] Creating layer loss
I0630 01:43:37.503984 29015 net.cpp:98] Creating Layer loss
I0630 01:43:37.503986 29015 net.cpp:439] loss <- fc10_fc10_0_split_0
I0630 01:43:37.503989 29015 net.cpp:439] loss <- label_data_1_split_0
I0630 01:43:37.503991 29015 net.cpp:413] loss -> loss
…
