…
I0701 15:15:56.573829  4639 caffe.cpp:273] Use GPU with device ID 0
I0701 15:15:56.574179  4639 caffe.cpp:277] GPU device name: GeForce GTX 1080
I0701 15:15:56.960472  4639 net.cpp:56] Initializing net from parameters: 
name: "jacintonet11v2_test"
state {
  phase: TEST
}
layer {
  name: "data"
  type: "Data"
  top: "data"
  top: "label"
  transform_param {
    mirror: false
    crop_size: 32
    mean_value: 0
    mean_value: 0
    mean_value: 0
  }
  data_param {
    source: "./data/cifar10_test_lmdb"
    batch_size: 50
    backend: LMDB
    threads: 1
  }
}
layer {
  name: "data/bias"
  type: "Bias"
  bottom: "data"
  top: "data/bias"
  param {
    lr_mult: 0
    decay_mult: 0
  }
  bias_param {
    filler {
      type: "constant"
      value: -128
    }
  }
}
layer {
  name: "conv1a"
  type: "Convolution"
  bottom: "data/bias"
  top: "conv1a"
  param {
    lr_mult: 1
    decay_mult: 1
  }
  param {
    lr_mult: 2
    decay_mult: 0
  }
  convolution_param {
    num_output: 32
    bias_term: true
    pad: 2
    kernel_size: 5
    group: 1
    stride: 1
    weight_filler {
      type: "msra"
    }
    bias_filler {
      type: "constant"
      value: 0
    }
    dilation: 1
  }
}
layer {
  name: "conv1a/bn"
  type: "BatchNorm"
  bottom: "conv1a"
  top: "conv1a/bn"
  param {
    lr_mult: 1
    decay_mult: 1
  }
  param {
    lr_mult: 1
    decay_mult: 1
  }
  param {
    lr_mult: 0
    decay_mult: 0
  }
  param {
    lr_mult: 0
    decay_mult: 0
  }
  batch_norm_param {
    moving_average_fraction: 0.99
    eps: 0.0001
    scale_filler {
      type: "constant"
      value: 1
    }
    bias_filler {
      type: "constant"
      value: 0
    }
  }
}
layer {
  name: "conv1a/relu"
  type: "ReLU"
  bottom: "conv1a/bn"
  top: "conv1a/bn"
}
layer {
  name: "conv1b"
  type: "Convolution"
  bottom: "conv1a/bn"
  top: "conv1b"
  param {
    lr_mult: 1
    decay_mult: 1
  }
  param {
    lr_mult: 2
    decay_mult: 0
  }
  convolution_param {
    num_output: 32
    bias_term: true
    pad: 1
    kernel_size: 3
    group: 4
    stride: 1
    weight_filler {
      type: "msra"
    }
    bias_filler {
      type: "constant"
      value: 0
    }
    dilation: 1
  }
}
layer {
  name: "conv1b/bn"
  type: "BatchNorm"
  bottom: "conv1b"
  top: "conv1b/bn"
  param {
    lr_mult: 1
    decay_mult: 1
  }
  param {
    lr_mult: 1
    decay_mult: 1
  }
  param {
    lr_mult: 0
    decay_mult: 0
  }
  param {
    lr_mult: 0
    decay_mult: 0
  }
  batch_norm_param {
    moving_average_fraction: 0.99
    eps: 0.0001
    scale_filler {
      type: "constant"
      value: 1
    }
    bias_filler {
      type: "constant"
      value: 0
    }
  }
}
layer {
  name: "conv1b/relu"
  type: "ReLU"
  bottom: "conv1b/bn"
  top: "conv1b/bn"
}
layer {
  name: "pool1"
  type: "Pooling"
  bottom: "conv1b/bn"
  top: "pool1"
  pooling_param {
    pool: MAX
    kernel_size: 1
    stride: 1
  }
}
layer {
  name: "res2a_branch2a"
  type: "Convolution"
  bottom: "pool1"
  top: "res2a_branch2a"
  param {
    lr_mult: 1
    decay_mult: 1
  }
  param {
    lr_mult: 2
    decay_mult: 0
  }
  convolution_param {
    num_output: 64
    bias_term: true
    pad: 1
    kernel_size: 3
    group: 1
    stride: 1
    weight_filler {
      type: "msra"
    }
    bias_filler {
      type: "constant"
      value: 0
    }
    dilation: 1
  }
}
layer {
  name: "res2a_branch2a/bn"
  type: "BatchNorm"
  bottom: "res2a_branch2a"
  top: "res2a_branch2a/bn"
  param {
    lr_mult: 1
    decay_mult: 1
  }
  param {
    lr_mult: 1
    decay_mult: 1
  }
  param {
    lr_mult: 0
    decay_mult: 0
  }
  param {
    lr_mult: 0
    decay_mult: 0
  }
  batch_norm_param {
    moving_average_fraction: 0.99
    eps: 0.0001
    scale_filler {
      type: "constant"
      value: 1
    }
    bias_filler {
      type: "constant"
      value: 0
    }
  }
}
layer {
  name: "res2a_branch2a/relu"
  type: "ReLU"
  bottom: "res2a_branch2a/bn"
  top: "res2a_branch2a/bn"
}
layer {
  name: "res2a_branch2b"
  type: "Convolution"
  bottom: "res2a_branch2a/bn"
  top: "res2a_branch2b"
  param {
    lr_mult: 1
    decay_mult: 1
  }
  param {
    lr_mult: 2
    decay_mult: 0
  }
  convolution_param {
    num_output: 64
    bias_term: true
    pad: 1
    kernel_size: 3
    group: 4
    stride: 1
    weight_filler {
      type: "msra"
    }
    bias_filler {
      type: "constant"
      value: 0
    }
    dilation: 1
  }
}
layer {
  name: "res2a_branch2b/bn"
  type: "BatchNorm"
  bottom: "res2a_branch2b"
  top: "res2a_branch2b/bn"
  param {
    lr_mult: 1
    decay_mult: 1
  }
  param {
    lr_mult: 1
    decay_mult: 1
  }
  param {
    lr_mult: 0
    decay_mult: 0
  }
  param {
    lr_mult: 0
    decay_mult: 0
  }
  batch_norm_param {
    moving_average_fraction: 0.99
    eps: 0.0001
    scale_filler {
      type: "constant"
      value: 1
    }
    bias_filler {
      type: "constant"
      value: 0
    }
  }
}
layer {
  name: "res2a_branch2b/relu"
  type: "ReLU"
  bottom: "res2a_branch2b/bn"
  top: "res2a_branch2b/bn"
}
layer {
  name: "pool2"
  type: "Pooling"
  bottom: "res2a_branch2b/bn"
  top: "pool2"
  pooling_param {
    pool: MAX
    kernel_size: 2
    stride: 2
  }
}
layer {
  name: "res3a_branch2a"
  type: "Convolution"
  bottom: "pool2"
  top: "res3a_branch2a"
  param {
    lr_mult: 1
    decay_mult: 1
  }
  param {
    lr_mult: 2
    decay_mult: 0
  }
  convolution_param {
    num_output: 128
    bias_term: true
    pad: 1
    kernel_size: 3
    group: 1
    stride: 1
    weight_filler {
      type: "msra"
    }
    bias_filler {
      type: "constant"
      value: 0
    }
    dilation: 1
  }
}
layer {
  name: "res3a_branch2a/bn"
  type: "BatchNorm"
  bottom: "res3a_branch2a"
  top: "res3a_branch2a/bn"
  param {
    lr_mult: 1
    decay_mult: 1
  }
  param {
    lr_mult: 1
    decay_mult: 1
  }
  param {
    lr_mult: 0
    decay_mult: 0
  }
  param {
    lr_mult: 0
    decay_mult: 0
  }
  batch_norm_param {
    moving_average_fraction: 0.99
    eps: 0.0001
    scale_filler {
      type: "constant"
      value: 1
    }
    bias_filler {
      type: "constant"
      value: 0
    }
  }
}
layer {
  name: "res3a_branch2a/relu"
  type: "ReLU"
  bottom: "res3a_branch2a/bn"
  top: "res3a_branch2a/bn"
}
layer {
  name: "res3a_branch2b"
  type: "Convolution"
  bottom: "res3a_branch2a/bn"
  top: "res3a_branch2b"
  param {
    lr_mult: 1
    decay_mult: 1
  }
  param {
    lr_mult: 2
    decay_mult: 0
  }
  convolution_param {
    num_output: 128
    bias_term: true
    pad: 1
    kernel_size: 3
    group: 4
    stride: 1
    weight_filler {
      type: "msra"
    }
    bias_filler {
      type: "constant"
      value: 0
    }
    dilation: 1
  }
}
layer {
  name: "res3a_branch2b/bn"
  type: "BatchNorm"
  bottom: "res3a_branch2b"
  top: "res3a_branch2b/bn"
  param {
    lr_mult: 1
    decay_mult: 1
  }
  param {
    lr_mult: 1
    decay_mult: 1
  }
  param {
    lr_mult: 0
    decay_mult: 0
  }
  param {
    lr_mult: 0
    decay_mult: 0
  }
  batch_norm_param {
    moving_average_fraction: 0.99
    eps: 0.0001
    scale_filler {
      type: "constant"
      value: 1
    }
    bias_filler {
      type: "constant"
      value: 0
    }
  }
}
layer {
  name: "res3a_branch2b/relu"
  type: "ReLU"
  bottom: "res3a_branch2b/bn"
  top: "res3a_branch2b/bn"
}
layer {
  name: "pool3"
  type: "Pooling"
  bottom: "res3a_branch2b/bn"
  top: "pool3"
  pooling_param {
    pool: MAX
    kernel_size: 1
    stride: 1
  }
}
layer {
  name: "res4a_branch2a"
  type: "Convolution"
  bottom: "pool3"
  top: "res4a_branch2a"
  param {
    lr_mult: 1
    decay_mult: 1
  }
  param {
    lr_mult: 2
    decay_mult: 0
  }
  convolution_param {
    num_output: 256
    bias_term: true
    pad: 1
    kernel_size: 3
    group: 1
    stride: 1
    weight_filler {
      type: "msra"
    }
    bias_filler {
      type: "constant"
      value: 0
    }
    dilation: 1
  }
}
layer {
  name: "res4a_branch2a/bn"
  type: "BatchNorm"
  bottom: "res4a_branch2a"
  top: "res4a_branch2a/bn"
  param {
    lr_mult: 1
    decay_mult: 1
  }
  param {
    lr_mult: 1
    decay_mult: 1
  }
  param {
    lr_mult: 0
    decay_mult: 0
  }
  param {
    lr_mult: 0
    decay_mult: 0
  }
  batch_norm_param {
    moving_average_fraction: 0.99
    eps: 0.0001
    scale_filler {
      type: "constant"
      value: 1
    }
    bias_filler {
      type: "constant"
      value: 0
    }
  }
}
layer {
  name: "res4a_branch2a/relu"
  type: "ReLU"
  bottom: "res4a_branch2a/bn"
  top: "res4a_branch2a/bn"
}
layer {
  name: "res4a_branch2b"
  type: "Convolution"
  bottom: "res4a_branch2a/bn"
  top: "res4a_branch2b"
  param {
    lr_mult: 1
    decay_mult: 1
  }
  param {
    lr_mult: 2
    decay_mult: 0
  }
  convolution_param {
    num_output: 256
    bias_term: true
    pad: 1
    kernel_size: 3
    group: 4
    stride: 1
    weight_filler {
      type: "msra"
    }
    bias_filler {
      type: "constant"
      value: 0
    }
    dilation: 1
  }
}
layer {
  name: "res4a_branch2b/bn"
  type: "BatchNorm"
  bottom: "res4a_branch2b"
  top: "res4a_branch2b/bn"
  param {
    lr_mult: 1
    decay_mult: 1
  }
  param {
    lr_mult: 1
    decay_mult: 1
  }
  param {
    lr_mult: 0
    decay_mult: 0
  }
  param {
    lr_mult: 0
    decay_mult: 0
  }
  batch_norm_param {
    moving_average_fraction: 0.99
    eps: 0.0001
    scale_filler {
      type: "constant"
      value: 1
    }
    bias_filler {
      type: "constant"
      value: 0
    }
  }
}
layer {
  name: "res4a_branch2b/relu"
  type: "ReLU"
  bottom: "res4a_branch2b/bn"
  top: "res4a_branch2b/bn"
}
layer {
  name: "pool4"
  type: "Pooling"
  bottom: "res4a_branch2b/bn"
  top: "pool4"
  pooling_param {
    pool: MAX
    kernel_size: 2
    stride: 2
  }
}
layer {
  name: "res5a_branch2a"
  type: "Convolution"
  bottom: "pool4"
  top: "res5a_branch2a"
  param {
    lr_mult: 1
    decay_mult: 1
  }
  param {
    lr_mult: 2
    decay_mult: 0
  }
  convolution_param {
    num_output: 512
    bias_term: true
    pad: 1
    kernel_size: 3
    group: 1
    stride: 1
    weight_filler {
      type: "msra"
    }
    bias_filler {
      type: "constant"
      value: 0
    }
    dilation: 1
  }
}
layer {
  name: "res5a_branch2a/bn"
  type: "BatchNorm"
  bottom: "res5a_branch2a"
  top: "res5a_branch2a/bn"
  param {
    lr_mult: 1
    decay_mult: 1
  }
  param {
    lr_mult: 1
    decay_mult: 1
  }
  param {
    lr_mult: 0
    decay_mult: 0
  }
  param {
    lr_mult: 0
    decay_mult: 0
  }
  batch_norm_param {
    moving_average_fraction: 0.99
    eps: 0.0001
    scale_filler {
      type: "constant"
      value: 1
    }
    bias_filler {
      type: "constant"
      value: 0
    }
  }
}
layer {
  name: "res5a_branch2a/relu"
  type: "ReLU"
  bottom: "res5a_branch2a/bn"
  top: "res5a_branch2a/bn"
}
layer {
  name: "res5a_branch2b"
  type: "Convolution"
  bottom: "res5a_branch2a/bn"
  top: "res5a_branch2b"
  param {
    lr_mult: 1
    decay_mult: 1
  }
  param {
    lr_mult: 2
    decay_mult: 0
  }
  convolution_param {
    num_output: 512
    bias_term: true
    pad: 1
    kernel_size: 3
    group: 4
    stride: 1
    weight_filler {
      type: "msra"
    }
    bias_filler {
      type: "constant"
      value: 0
    }
    dilation: 1
  }
}
layer {
  name: "res5a_branch2b/bn"
  type: "BatchNorm"
  bottom: "res5a_branch2b"
  top: "res5a_branch2b/bn"
  param {
    lr_mult: 1
    decay_mult: 1
  }
  param {
    lr_mult: 1
    decay_mult: 1
  }
  param {
    lr_mult: 0
    decay_mult: 0
  }
  param {
    lr_mult: 0
    decay_mult: 0
  }
  batch_norm_param {
    moving_average_fraction: 0.99
    eps: 0.0001
    scale_filler {
      type: "constant"
      value: 1
    }
    bias_filler {
      type: "constant"
      value: 0
    }
  }
}
layer {
  name: "res5a_branch2b/relu"
  type: "ReLU"
  bottom: "res5a_branch2b/bn"
  top: "res5a_branch2b/bn"
}
layer {
  name: "pool5"
  type: "Pooling"
  bottom: "res5a_branch2b/bn"
  top: "pool5"
  pooling_param {
    pool: AVE
    global_pooling: true
  }
}
layer {
  name: "fc10"
  type: "InnerProduct"
  bottom: "pool5"
  top: "fc10"
  param {
    lr_mult: 1
    decay_mult: 1
  }
  param {
    lr_mult: 2
    decay_mult: 0
  }
  inner_product_param {
    num_output: 10
    weight_filler {
      type: "msra"
    }
    bias_filler {
      type: "constant"
      value: 0
    }
  }
}
layer {
  name: "loss"
  type: "SoftmaxWithLoss"
  bottom: "fc10"
  bottom: "label"
  top: "loss"
  propagate_down: true
  propagate_down: false
}
layer {
  name: "accuracy/top1"
  type: "Accuracy"
  bottom: "fc10"
  bottom: "label"
  top: "accuracy/top1"
  include {
    phase: TEST
  }
}
layer {
  name: "accuracy/top5"
  type: "Accuracy"
  bottom: "fc10"
  bottom: "label"
  top: "accuracy/top5"
  include {
    phase: TEST
  }
  accuracy_param {
    top_k: 5
  }
}
I0701 15:15:56.960614  4639 layer_factory.hpp:77] Creating layer data
I0701 15:15:56.960996  4639 net.cpp:98] Creating Layer data
I0701 15:15:56.961005  4639 net.cpp:413] data -> data
I0701 15:15:56.961028  4639 net.cpp:413] data -> label
I0701 15:15:56.962054  4656 db_lmdb.cpp:35] Opened lmdb ./data/cifar10_test_lmdb
I0701 15:15:56.962885  4639 data_layer.cpp:78] ReshapePrefetch 50, 3, 32, 32
I0701 15:15:56.962929  4639 data_layer.cpp:83] output data size: 50,3,32,32
I0701 15:15:56.965003  4639 net.cpp:148] Setting up data
I0701 15:15:56.965024  4639 net.cpp:155] Top shape: 50 3 32 32 (153600)
I0701 15:15:56.965029  4639 net.cpp:155] Top shape: 50 (50)
I0701 15:15:56.965032  4639 net.cpp:163] Memory required for data: 614600
I0701 15:15:56.965042  4639 layer_factory.hpp:77] Creating layer label_data_1_split
I0701 15:15:56.965055  4639 net.cpp:98] Creating Layer label_data_1_split
I0701 15:15:56.965061  4639 net.cpp:439] label_data_1_split <- label
I0701 15:15:56.965070  4639 net.cpp:413] label_data_1_split -> label_data_1_split_0
I0701 15:15:56.965080  4639 net.cpp:413] label_data_1_split -> label_data_1_split_1
I0701 15:15:56.965083  4639 net.cpp:413] label_data_1_split -> label_data_1_split_2
I0701 15:15:56.965124  4639 net.cpp:148] Setting up label_data_1_split
I0701 15:15:56.965129  4639 net.cpp:155] Top shape: 50 (50)
I0701 15:15:56.965132  4639 net.cpp:155] Top shape: 50 (50)
I0701 15:15:56.965137  4639 net.cpp:155] Top shape: 50 (50)
I0701 15:15:56.965139  4639 net.cpp:163] Memory required for data: 615200
I0701 15:15:56.965142  4639 layer_factory.hpp:77] Creating layer data/bias
I0701 15:15:56.965152  4639 net.cpp:98] Creating Layer data/bias
I0701 15:15:56.965155  4639 net.cpp:439] data/bias <- data
I0701 15:15:56.965159  4639 net.cpp:413] data/bias -> data/bias
I0701 15:15:56.965898  4639 net.cpp:148] Setting up data/bias
I0701 15:15:56.965909  4639 net.cpp:155] Top shape: 50 3 32 32 (153600)
I0701 15:15:56.965912  4639 net.cpp:163] Memory required for data: 1229600
I0701 15:15:56.965924  4639 layer_factory.hpp:77] Creating layer conv1a
I0701 15:15:56.965936  4639 net.cpp:98] Creating Layer conv1a
I0701 15:15:56.965940  4639 net.cpp:439] conv1a <- data/bias
I0701 15:15:56.965945  4639 net.cpp:413] conv1a -> conv1a
I0701 15:15:56.967720  4639 net.cpp:148] Setting up conv1a
I0701 15:15:56.967770  4639 net.cpp:155] Top shape: 50 32 32 32 (1638400)
I0701 15:15:56.967787  4639 net.cpp:163] Memory required for data: 7783200
I0701 15:15:56.967804  4639 layer_factory.hpp:77] Creating layer conv1a/bn
I0701 15:15:56.967823  4639 net.cpp:98] Creating Layer conv1a/bn
I0701 15:15:56.967834  4639 net.cpp:439] conv1a/bn <- conv1a
I0701 15:15:56.967849  4639 net.cpp:413] conv1a/bn -> conv1a/bn
I0701 15:15:56.968281  4639 net.cpp:148] Setting up conv1a/bn
I0701 15:15:56.968303  4639 net.cpp:155] Top shape: 50 32 32 32 (1638400)
I0701 15:15:56.968318  4639 net.cpp:163] Memory required for data: 14336800
I0701 15:15:56.968338  4639 layer_factory.hpp:77] Creating layer conv1a/relu
I0701 15:15:56.968354  4639 net.cpp:98] Creating Layer conv1a/relu
I0701 15:15:56.968367  4639 net.cpp:439] conv1a/relu <- conv1a/bn
I0701 15:15:56.968380  4639 net.cpp:400] conv1a/relu -> conv1a/bn (in-place)
I0701 15:15:56.968401  4639 net.cpp:148] Setting up conv1a/relu
I0701 15:15:56.968416  4639 net.cpp:155] Top shape: 50 32 32 32 (1638400)
I0701 15:15:56.968427  4639 net.cpp:163] Memory required for data: 20890400
I0701 15:15:56.968442  4639 layer_factory.hpp:77] Creating layer conv1b
I0701 15:15:56.968459  4639 net.cpp:98] Creating Layer conv1b
I0701 15:15:56.968482  4639 net.cpp:439] conv1b <- conv1a/bn
I0701 15:15:56.968497  4639 net.cpp:413] conv1b -> conv1b
I0701 15:15:56.968752  4639 net.cpp:148] Setting up conv1b
I0701 15:15:56.968773  4639 net.cpp:155] Top shape: 50 32 32 32 (1638400)
I0701 15:15:56.968787  4639 net.cpp:163] Memory required for data: 27444000
I0701 15:15:56.968804  4639 layer_factory.hpp:77] Creating layer conv1b/bn
I0701 15:15:56.968821  4639 net.cpp:98] Creating Layer conv1b/bn
I0701 15:15:56.968832  4639 net.cpp:439] conv1b/bn <- conv1b
I0701 15:15:56.968847  4639 net.cpp:413] conv1b/bn -> conv1b/bn
I0701 15:15:56.969247  4639 net.cpp:148] Setting up conv1b/bn
I0701 15:15:56.969269  4639 net.cpp:155] Top shape: 50 32 32 32 (1638400)
I0701 15:15:56.969282  4639 net.cpp:163] Memory required for data: 33997600
I0701 15:15:56.969300  4639 layer_factory.hpp:77] Creating layer conv1b/relu
I0701 15:15:56.969316  4639 net.cpp:98] Creating Layer conv1b/relu
I0701 15:15:56.969328  4639 net.cpp:439] conv1b/relu <- conv1b/bn
I0701 15:15:56.969341  4639 net.cpp:400] conv1b/relu -> conv1b/bn (in-place)
I0701 15:15:56.969357  4639 net.cpp:148] Setting up conv1b/relu
I0701 15:15:56.969372  4639 net.cpp:155] Top shape: 50 32 32 32 (1638400)
I0701 15:15:56.969383  4639 net.cpp:163] Memory required for data: 40551200
I0701 15:15:56.969394  4639 layer_factory.hpp:77] Creating layer pool1
I0701 15:15:56.969410  4639 net.cpp:98] Creating Layer pool1
I0701 15:15:56.969422  4639 net.cpp:439] pool1 <- conv1b/bn
I0701 15:15:56.969434  4639 net.cpp:413] pool1 -> pool1
I0701 15:15:56.969480  4639 net.cpp:148] Setting up pool1
I0701 15:15:56.969498  4639 net.cpp:155] Top shape: 50 32 32 32 (1638400)
I0701 15:15:56.969509  4639 net.cpp:163] Memory required for data: 47104800
I0701 15:15:56.969521  4639 layer_factory.hpp:77] Creating layer res2a_branch2a
I0701 15:15:56.969537  4639 net.cpp:98] Creating Layer res2a_branch2a
I0701 15:15:56.969549  4639 net.cpp:439] res2a_branch2a <- pool1
I0701 15:15:56.969563  4639 net.cpp:413] res2a_branch2a -> res2a_branch2a
I0701 15:15:56.970973  4639 net.cpp:148] Setting up res2a_branch2a
I0701 15:15:56.971249  4639 net.cpp:155] Top shape: 50 64 32 32 (3276800)
I0701 15:15:56.971263  4639 net.cpp:163] Memory required for data: 60212000
I0701 15:15:56.971282  4639 layer_factory.hpp:77] Creating layer res2a_branch2a/bn
I0701 15:15:56.971299  4639 net.cpp:98] Creating Layer res2a_branch2a/bn
I0701 15:15:56.971313  4639 net.cpp:439] res2a_branch2a/bn <- res2a_branch2a
I0701 15:15:56.971326  4639 net.cpp:413] res2a_branch2a/bn -> res2a_branch2a/bn
I0701 15:15:56.971748  4639 net.cpp:148] Setting up res2a_branch2a/bn
I0701 15:15:56.971770  4639 net.cpp:155] Top shape: 50 64 32 32 (3276800)
I0701 15:15:56.971782  4639 net.cpp:163] Memory required for data: 73319200
I0701 15:15:56.971799  4639 layer_factory.hpp:77] Creating layer res2a_branch2a/relu
I0701 15:15:56.971820  4639 net.cpp:98] Creating Layer res2a_branch2a/relu
I0701 15:15:56.971833  4639 net.cpp:439] res2a_branch2a/relu <- res2a_branch2a/bn
I0701 15:15:56.971845  4639 net.cpp:400] res2a_branch2a/relu -> res2a_branch2a/bn (in-place)
I0701 15:15:56.971861  4639 net.cpp:148] Setting up res2a_branch2a/relu
I0701 15:15:56.971876  4639 net.cpp:155] Top shape: 50 64 32 32 (3276800)
I0701 15:15:56.971887  4639 net.cpp:163] Memory required for data: 86426400
I0701 15:15:56.971899  4639 layer_factory.hpp:77] Creating layer res2a_branch2b
I0701 15:15:56.971913  4639 net.cpp:98] Creating Layer res2a_branch2b
I0701 15:15:56.971925  4639 net.cpp:439] res2a_branch2b <- res2a_branch2a/bn
I0701 15:15:56.971937  4639 net.cpp:413] res2a_branch2b -> res2a_branch2b
I0701 15:15:56.973083  4639 net.cpp:148] Setting up res2a_branch2b
I0701 15:15:56.973109  4639 net.cpp:155] Top shape: 50 64 32 32 (3276800)
I0701 15:15:56.973122  4639 net.cpp:163] Memory required for data: 99533600
I0701 15:15:56.973137  4639 layer_factory.hpp:77] Creating layer res2a_branch2b/bn
I0701 15:15:56.973157  4639 net.cpp:98] Creating Layer res2a_branch2b/bn
I0701 15:15:56.973170  4639 net.cpp:439] res2a_branch2b/bn <- res2a_branch2b
I0701 15:15:56.973192  4639 net.cpp:413] res2a_branch2b/bn -> res2a_branch2b/bn
I0701 15:15:56.973615  4639 net.cpp:148] Setting up res2a_branch2b/bn
I0701 15:15:56.973636  4639 net.cpp:155] Top shape: 50 64 32 32 (3276800)
I0701 15:15:56.973650  4639 net.cpp:163] Memory required for data: 112640800
I0701 15:15:56.973666  4639 layer_factory.hpp:77] Creating layer res2a_branch2b/relu
I0701 15:15:56.973682  4639 net.cpp:98] Creating Layer res2a_branch2b/relu
I0701 15:15:56.973695  4639 net.cpp:439] res2a_branch2b/relu <- res2a_branch2b/bn
I0701 15:15:56.973707  4639 net.cpp:400] res2a_branch2b/relu -> res2a_branch2b/bn (in-place)
I0701 15:15:56.973721  4639 net.cpp:148] Setting up res2a_branch2b/relu
I0701 15:15:56.973737  4639 net.cpp:155] Top shape: 50 64 32 32 (3276800)
I0701 15:15:56.973748  4639 net.cpp:163] Memory required for data: 125748000
I0701 15:15:56.973759  4639 layer_factory.hpp:77] Creating layer pool2
I0701 15:15:56.973773  4639 net.cpp:98] Creating Layer pool2
I0701 15:15:56.973784  4639 net.cpp:439] pool2 <- res2a_branch2b/bn
I0701 15:15:56.973796  4639 net.cpp:413] pool2 -> pool2
I0701 15:15:56.973832  4639 net.cpp:148] Setting up pool2
I0701 15:15:56.973848  4639 net.cpp:155] Top shape: 50 64 16 16 (819200)
I0701 15:15:56.973860  4639 net.cpp:163] Memory required for data: 129024800
I0701 15:15:56.973870  4639 layer_factory.hpp:77] Creating layer res3a_branch2a
I0701 15:15:56.973889  4639 net.cpp:98] Creating Layer res3a_branch2a
I0701 15:15:56.973901  4639 net.cpp:439] res3a_branch2a <- pool2
I0701 15:15:56.973914  4639 net.cpp:413] res3a_branch2a -> res3a_branch2a
I0701 15:15:56.976910  4639 net.cpp:148] Setting up res3a_branch2a
I0701 15:15:56.976943  4639 net.cpp:155] Top shape: 50 128 16 16 (1638400)
I0701 15:15:56.976958  4639 net.cpp:163] Memory required for data: 135578400
I0701 15:15:56.976972  4639 layer_factory.hpp:77] Creating layer res3a_branch2a/bn
I0701 15:15:56.976995  4639 net.cpp:98] Creating Layer res3a_branch2a/bn
I0701 15:15:56.977010  4639 net.cpp:439] res3a_branch2a/bn <- res3a_branch2a
I0701 15:15:56.977023  4639 net.cpp:413] res3a_branch2a/bn -> res3a_branch2a/bn
I0701 15:15:56.977519  4639 net.cpp:148] Setting up res3a_branch2a/bn
I0701 15:15:56.977541  4639 net.cpp:155] Top shape: 50 128 16 16 (1638400)
I0701 15:15:56.977555  4639 net.cpp:163] Memory required for data: 142132000
I0701 15:15:56.977574  4639 layer_factory.hpp:77] Creating layer res3a_branch2a/relu
I0701 15:15:56.977591  4639 net.cpp:98] Creating Layer res3a_branch2a/relu
I0701 15:15:56.977603  4639 net.cpp:439] res3a_branch2a/relu <- res3a_branch2a/bn
I0701 15:15:56.977617  4639 net.cpp:400] res3a_branch2a/relu -> res3a_branch2a/bn (in-place)
I0701 15:15:56.977632  4639 net.cpp:148] Setting up res3a_branch2a/relu
I0701 15:15:56.977646  4639 net.cpp:155] Top shape: 50 128 16 16 (1638400)
I0701 15:15:56.977663  4639 net.cpp:163] Memory required for data: 148685600
I0701 15:15:56.977674  4639 layer_factory.hpp:77] Creating layer res3a_branch2b
I0701 15:15:56.977689  4639 net.cpp:98] Creating Layer res3a_branch2b
I0701 15:15:56.977700  4639 net.cpp:439] res3a_branch2b <- res3a_branch2a/bn
I0701 15:15:56.977713  4639 net.cpp:413] res3a_branch2b -> res3a_branch2b
I0701 15:15:56.978870  4639 net.cpp:148] Setting up res3a_branch2b
I0701 15:15:56.978880  4639 net.cpp:155] Top shape: 50 128 16 16 (1638400)
I0701 15:15:56.978883  4639 net.cpp:163] Memory required for data: 155239200
I0701 15:15:56.978889  4639 layer_factory.hpp:77] Creating layer res3a_branch2b/bn
I0701 15:15:56.978895  4639 net.cpp:98] Creating Layer res3a_branch2b/bn
I0701 15:15:56.978899  4639 net.cpp:439] res3a_branch2b/bn <- res3a_branch2b
I0701 15:15:56.978904  4639 net.cpp:413] res3a_branch2b/bn -> res3a_branch2b/bn
I0701 15:15:56.979192  4639 net.cpp:148] Setting up res3a_branch2b/bn
I0701 15:15:56.979198  4639 net.cpp:155] Top shape: 50 128 16 16 (1638400)
I0701 15:15:56.979200  4639 net.cpp:163] Memory required for data: 161792800
I0701 15:15:56.979205  4639 layer_factory.hpp:77] Creating layer res3a_branch2b/relu
I0701 15:15:56.979216  4639 net.cpp:98] Creating Layer res3a_branch2b/relu
I0701 15:15:56.979218  4639 net.cpp:439] res3a_branch2b/relu <- res3a_branch2b/bn
I0701 15:15:56.979221  4639 net.cpp:400] res3a_branch2b/relu -> res3a_branch2b/bn (in-place)
I0701 15:15:56.979226  4639 net.cpp:148] Setting up res3a_branch2b/relu
I0701 15:15:56.979229  4639 net.cpp:155] Top shape: 50 128 16 16 (1638400)
I0701 15:15:56.979231  4639 net.cpp:163] Memory required for data: 168346400
I0701 15:15:56.979233  4639 layer_factory.hpp:77] Creating layer pool3
I0701 15:15:56.979236  4639 net.cpp:98] Creating Layer pool3
I0701 15:15:56.979238  4639 net.cpp:439] pool3 <- res3a_branch2b/bn
I0701 15:15:56.979241  4639 net.cpp:413] pool3 -> pool3
I0701 15:15:56.979261  4639 net.cpp:148] Setting up pool3
I0701 15:15:56.979267  4639 net.cpp:155] Top shape: 50 128 16 16 (1638400)
I0701 15:15:56.979270  4639 net.cpp:163] Memory required for data: 174900000
I0701 15:15:56.979274  4639 layer_factory.hpp:77] Creating layer res4a_branch2a
I0701 15:15:56.979279  4639 net.cpp:98] Creating Layer res4a_branch2a
I0701 15:15:56.979281  4639 net.cpp:439] res4a_branch2a <- pool3
I0701 15:15:56.979285  4639 net.cpp:413] res4a_branch2a -> res4a_branch2a
I0701 15:15:56.987092  4639 net.cpp:148] Setting up res4a_branch2a
I0701 15:15:56.987114  4639 net.cpp:155] Top shape: 50 256 16 16 (3276800)
I0701 15:15:56.987118  4639 net.cpp:163] Memory required for data: 188007200
I0701 15:15:56.987126  4639 layer_factory.hpp:77] Creating layer res4a_branch2a/bn
I0701 15:15:56.987136  4639 net.cpp:98] Creating Layer res4a_branch2a/bn
I0701 15:15:56.987140  4639 net.cpp:439] res4a_branch2a/bn <- res4a_branch2a
I0701 15:15:56.987146  4639 net.cpp:413] res4a_branch2a/bn -> res4a_branch2a/bn
I0701 15:15:56.987510  4639 net.cpp:148] Setting up res4a_branch2a/bn
I0701 15:15:56.987519  4639 net.cpp:155] Top shape: 50 256 16 16 (3276800)
I0701 15:15:56.987521  4639 net.cpp:163] Memory required for data: 201114400
I0701 15:15:56.987529  4639 layer_factory.hpp:77] Creating layer res4a_branch2a/relu
I0701 15:15:56.987534  4639 net.cpp:98] Creating Layer res4a_branch2a/relu
I0701 15:15:56.987537  4639 net.cpp:439] res4a_branch2a/relu <- res4a_branch2a/bn
I0701 15:15:56.987540  4639 net.cpp:400] res4a_branch2a/relu -> res4a_branch2a/bn (in-place)
I0701 15:15:56.987546  4639 net.cpp:148] Setting up res4a_branch2a/relu
I0701 15:15:56.987550  4639 net.cpp:155] Top shape: 50 256 16 16 (3276800)
I0701 15:15:56.987553  4639 net.cpp:163] Memory required for data: 214221600
I0701 15:15:56.987557  4639 layer_factory.hpp:77] Creating layer res4a_branch2b
I0701 15:15:56.987565  4639 net.cpp:98] Creating Layer res4a_branch2b
I0701 15:15:56.987570  4639 net.cpp:439] res4a_branch2b <- res4a_branch2a/bn
I0701 15:15:56.987573  4639 net.cpp:413] res4a_branch2b -> res4a_branch2b
I0701 15:15:56.991560  4639 net.cpp:148] Setting up res4a_branch2b
I0701 15:15:56.991585  4639 net.cpp:155] Top shape: 50 256 16 16 (3276800)
I0701 15:15:56.991587  4639 net.cpp:163] Memory required for data: 227328800
I0701 15:15:56.991595  4639 layer_factory.hpp:77] Creating layer res4a_branch2b/bn
I0701 15:15:56.991602  4639 net.cpp:98] Creating Layer res4a_branch2b/bn
I0701 15:15:56.991606  4639 net.cpp:439] res4a_branch2b/bn <- res4a_branch2b
I0701 15:15:56.991614  4639 net.cpp:413] res4a_branch2b/bn -> res4a_branch2b/bn
I0701 15:15:56.991989  4639 net.cpp:148] Setting up res4a_branch2b/bn
I0701 15:15:56.991997  4639 net.cpp:155] Top shape: 50 256 16 16 (3276800)
I0701 15:15:56.991999  4639 net.cpp:163] Memory required for data: 240436000
I0701 15:15:56.992007  4639 layer_factory.hpp:77] Creating layer res4a_branch2b/relu
I0701 15:15:56.992012  4639 net.cpp:98] Creating Layer res4a_branch2b/relu
I0701 15:15:56.992014  4639 net.cpp:439] res4a_branch2b/relu <- res4a_branch2b/bn
I0701 15:15:56.992017  4639 net.cpp:400] res4a_branch2b/relu -> res4a_branch2b/bn (in-place)
I0701 15:15:56.992023  4639 net.cpp:148] Setting up res4a_branch2b/relu
I0701 15:15:56.992027  4639 net.cpp:155] Top shape: 50 256 16 16 (3276800)
I0701 15:15:56.992039  4639 net.cpp:163] Memory required for data: 253543200
I0701 15:15:56.992043  4639 layer_factory.hpp:77] Creating layer pool4
I0701 15:15:56.992048  4639 net.cpp:98] Creating Layer pool4
I0701 15:15:56.992053  4639 net.cpp:439] pool4 <- res4a_branch2b/bn
I0701 15:15:56.992056  4639 net.cpp:413] pool4 -> pool4
I0701 15:15:56.992082  4639 net.cpp:148] Setting up pool4
I0701 15:15:56.992087  4639 net.cpp:155] Top shape: 50 256 8 8 (819200)
I0701 15:15:56.992090  4639 net.cpp:163] Memory required for data: 256820000
I0701 15:15:56.992094  4639 layer_factory.hpp:77] Creating layer res5a_branch2a
I0701 15:15:56.992101  4639 net.cpp:98] Creating Layer res5a_branch2a
I0701 15:15:56.992105  4639 net.cpp:439] res5a_branch2a <- pool4
I0701 15:15:56.992110  4639 net.cpp:413] res5a_branch2a -> res5a_branch2a
I0701 15:15:57.024737  4639 net.cpp:148] Setting up res5a_branch2a
I0701 15:15:57.024761  4639 net.cpp:155] Top shape: 50 512 8 8 (1638400)
I0701 15:15:57.024765  4639 net.cpp:163] Memory required for data: 263373600
I0701 15:15:57.024773  4639 layer_factory.hpp:77] Creating layer res5a_branch2a/bn
I0701 15:15:57.024785  4639 net.cpp:98] Creating Layer res5a_branch2a/bn
I0701 15:15:57.024791  4639 net.cpp:439] res5a_branch2a/bn <- res5a_branch2a
I0701 15:15:57.024797  4639 net.cpp:413] res5a_branch2a/bn -> res5a_branch2a/bn
I0701 15:15:57.025182  4639 net.cpp:148] Setting up res5a_branch2a/bn
I0701 15:15:57.025189  4639 net.cpp:155] Top shape: 50 512 8 8 (1638400)
I0701 15:15:57.025192  4639 net.cpp:163] Memory required for data: 269927200
I0701 15:15:57.025202  4639 layer_factory.hpp:77] Creating layer res5a_branch2a/relu
I0701 15:15:57.025215  4639 net.cpp:98] Creating Layer res5a_branch2a/relu
I0701 15:15:57.025219  4639 net.cpp:439] res5a_branch2a/relu <- res5a_branch2a/bn
I0701 15:15:57.025224  4639 net.cpp:400] res5a_branch2a/relu -> res5a_branch2a/bn (in-place)
I0701 15:15:57.025235  4639 net.cpp:148] Setting up res5a_branch2a/relu
I0701 15:15:57.025240  4639 net.cpp:155] Top shape: 50 512 8 8 (1638400)
I0701 15:15:57.025243  4639 net.cpp:163] Memory required for data: 276480800
I0701 15:15:57.025251  4639 layer_factory.hpp:77] Creating layer res5a_branch2b
I0701 15:15:57.025259  4639 net.cpp:98] Creating Layer res5a_branch2b
I0701 15:15:57.025269  4639 net.cpp:439] res5a_branch2b <- res5a_branch2a/bn
I0701 15:15:57.025275  4639 net.cpp:413] res5a_branch2b -> res5a_branch2b
I0701 15:15:57.038326  4639 net.cpp:148] Setting up res5a_branch2b
I0701 15:15:57.038344  4639 net.cpp:155] Top shape: 50 512 8 8 (1638400)
I0701 15:15:57.038347  4639 net.cpp:163] Memory required for data: 283034400
I0701 15:15:57.038354  4639 layer_factory.hpp:77] Creating layer res5a_branch2b/bn
I0701 15:15:57.038362  4639 net.cpp:98] Creating Layer res5a_branch2b/bn
I0701 15:15:57.038364  4639 net.cpp:439] res5a_branch2b/bn <- res5a_branch2b
I0701 15:15:57.038367  4639 net.cpp:413] res5a_branch2b/bn -> res5a_branch2b/bn
I0701 15:15:57.038681  4639 net.cpp:148] Setting up res5a_branch2b/bn
I0701 15:15:57.038688  4639 net.cpp:155] Top shape: 50 512 8 8 (1638400)
I0701 15:15:57.038691  4639 net.cpp:163] Memory required for data: 289588000
I0701 15:15:57.038696  4639 layer_factory.hpp:77] Creating layer res5a_branch2b/relu
I0701 15:15:57.038699  4639 net.cpp:98] Creating Layer res5a_branch2b/relu
I0701 15:15:57.038702  4639 net.cpp:439] res5a_branch2b/relu <- res5a_branch2b/bn
I0701 15:15:57.038703  4639 net.cpp:400] res5a_branch2b/relu -> res5a_branch2b/bn (in-place)
I0701 15:15:57.038707  4639 net.cpp:148] Setting up res5a_branch2b/relu
I0701 15:15:57.038709  4639 net.cpp:155] Top shape: 50 512 8 8 (1638400)
I0701 15:15:57.038712  4639 net.cpp:163] Memory required for data: 296141600
I0701 15:15:57.038713  4639 layer_factory.hpp:77] Creating layer pool5
I0701 15:15:57.038718  4639 net.cpp:98] Creating Layer pool5
I0701 15:15:57.038722  4639 net.cpp:439] pool5 <- res5a_branch2b/bn
I0701 15:15:57.038727  4639 net.cpp:413] pool5 -> pool5
I0701 15:15:57.038749  4639 net.cpp:148] Setting up pool5
I0701 15:15:57.038754  4639 net.cpp:155] Top shape: 50 512 1 1 (25600)
I0701 15:15:57.038763  4639 net.cpp:163] Memory required for data: 296244000
I0701 15:15:57.038765  4639 layer_factory.hpp:77] Creating layer fc10
I0701 15:15:57.038772  4639 net.cpp:98] Creating Layer fc10
I0701 15:15:57.038775  4639 net.cpp:439] fc10 <- pool5
I0701 15:15:57.038777  4639 net.cpp:413] fc10 -> fc10
I0701 15:15:57.038942  4639 net.cpp:148] Setting up fc10
I0701 15:15:57.038947  4639 net.cpp:155] Top shape: 50 10 (500)
I0701 15:15:57.038951  4639 net.cpp:163] Memory required for data: 296246000
I0701 15:15:57.038957  4639 layer_factory.hpp:77] Creating layer fc10_fc10_0_split
I0701 15:15:57.038964  4639 net.cpp:98] Creating Layer fc10_fc10_0_split
I0701 15:15:57.038967  4639 net.cpp:439] fc10_fc10_0_split <- fc10
I0701 15:15:57.038974  4639 net.cpp:413] fc10_fc10_0_split -> fc10_fc10_0_split_0
I0701 15:15:57.038980  4639 net.cpp:413] fc10_fc10_0_split -> fc10_fc10_0_split_1
I0701 15:15:57.038985  4639 net.cpp:413] fc10_fc10_0_split -> fc10_fc10_0_split_2
I0701 15:15:57.039018  4639 net.cpp:148] Setting up fc10_fc10_0_split
I0701 15:15:57.039023  4639 net.cpp:155] Top shape: 50 10 (500)
I0701 15:15:57.039027  4639 net.cpp:155] Top shape: 50 10 (500)
I0701 15:15:57.039041  4639 net.cpp:155] Top shape: 50 10 (500)
I0701 15:15:57.039044  4639 net.cpp:163] Memory required for data: 296252000
I0701 15:15:57.039047  4639 layer_factory.hpp:77] Creating layer loss
I0701 15:15:57.039049  4639 net.cpp:98] Creating Layer loss
I0701 15:15:57.039052  4639 net.cpp:439] loss <- fc10_fc10_0_split_0
I0701 15:15:57.039054  4639 net.cpp:439] loss <- label_data_1_split_0
I0701 15:15:57.039057  4639 net.cpp:413] loss -> loss
…
