…
I0630 02:07:45.161372 27297 caffe.cpp:273] Use GPU with device ID 0
I0630 02:07:45.161731 27297 caffe.cpp:277] GPU device name: GeForce GTX 1080
I0630 02:07:45.560605 27297 net.cpp:56] Initializing net from parameters: 
name: "jacintonet11v2_test"
state {
  phase: TEST
}
layer {
  name: "data"
  type: "Data"
  top: "data"
  top: "label"
  transform_param {
    mirror: false
    crop_size: 32
    mean_value: 0
    mean_value: 0
    mean_value: 0
  }
  data_param {
    source: "./data/cifar10_test_lmdb"
    batch_size: 50
    backend: LMDB
    threads: 1
  }
}
layer {
  name: "data/bias"
  type: "Bias"
  bottom: "data"
  top: "data/bias"
  param {
    lr_mult: 0
    decay_mult: 0
  }
  bias_param {
    filler {
      type: "constant"
      value: -128
    }
  }
}
layer {
  name: "conv1a"
  type: "Convolution"
  bottom: "data/bias"
  top: "conv1a"
  param {
    lr_mult: 1
    decay_mult: 1
  }
  param {
    lr_mult: 2
    decay_mult: 0
  }
  convolution_param {
    num_output: 32
    bias_term: true
    pad: 2
    kernel_size: 5
    group: 1
    stride: 1
    weight_filler {
      type: "msra"
    }
    bias_filler {
      type: "constant"
      value: 0
    }
    dilation: 1
  }
}
layer {
  name: "conv1a/bn"
  type: "BatchNorm"
  bottom: "conv1a"
  top: "conv1a/bn"
  param {
    lr_mult: 1
    decay_mult: 1
  }
  param {
    lr_mult: 1
    decay_mult: 1
  }
  param {
    lr_mult: 0
    decay_mult: 0
  }
  param {
    lr_mult: 0
    decay_mult: 0
  }
  batch_norm_param {
    moving_average_fraction: 0.99
    eps: 0.0001
    scale_filler {
      type: "constant"
      value: 1
    }
    bias_filler {
      type: "constant"
      value: 0
    }
  }
}
layer {
  name: "conv1a/relu"
  type: "ReLU"
  bottom: "conv1a/bn"
  top: "conv1a/bn"
}
layer {
  name: "conv1b"
  type: "Convolution"
  bottom: "conv1a/bn"
  top: "conv1b"
  param {
    lr_mult: 1
    decay_mult: 1
  }
  param {
    lr_mult: 2
    decay_mult: 0
  }
  convolution_param {
    num_output: 32
    bias_term: true
    pad: 1
    kernel_size: 3
    group: 4
    stride: 1
    weight_filler {
      type: "msra"
    }
    bias_filler {
      type: "constant"
      value: 0
    }
    dilation: 1
  }
}
layer {
  name: "conv1b/bn"
  type: "BatchNorm"
  bottom: "conv1b"
  top: "conv1b/bn"
  param {
    lr_mult: 1
    decay_mult: 1
  }
  param {
    lr_mult: 1
    decay_mult: 1
  }
  param {
    lr_mult: 0
    decay_mult: 0
  }
  param {
    lr_mult: 0
    decay_mult: 0
  }
  batch_norm_param {
    moving_average_fraction: 0.99
    eps: 0.0001
    scale_filler {
      type: "constant"
      value: 1
    }
    bias_filler {
      type: "constant"
      value: 0
    }
  }
}
layer {
  name: "conv1b/relu"
  type: "ReLU"
  bottom: "conv1b/bn"
  top: "conv1b/bn"
}
layer {
  name: "pool1"
  type: "Pooling"
  bottom: "conv1b/bn"
  top: "pool1"
  pooling_param {
    pool: MAX
    kernel_size: 1
    stride: 1
  }
}
layer {
  name: "res2a_branch2a"
  type: "Convolution"
  bottom: "pool1"
  top: "res2a_branch2a"
  param {
    lr_mult: 1
    decay_mult: 1
  }
  param {
    lr_mult: 2
    decay_mult: 0
  }
  convolution_param {
    num_output: 64
    bias_term: true
    pad: 1
    kernel_size: 3
    group: 1
    stride: 1
    weight_filler {
      type: "msra"
    }
    bias_filler {
      type: "constant"
      value: 0
    }
    dilation: 1
  }
}
layer {
  name: "res2a_branch2a/bn"
  type: "BatchNorm"
  bottom: "res2a_branch2a"
  top: "res2a_branch2a/bn"
  param {
    lr_mult: 1
    decay_mult: 1
  }
  param {
    lr_mult: 1
    decay_mult: 1
  }
  param {
    lr_mult: 0
    decay_mult: 0
  }
  param {
    lr_mult: 0
    decay_mult: 0
  }
  batch_norm_param {
    moving_average_fraction: 0.99
    eps: 0.0001
    scale_filler {
      type: "constant"
      value: 1
    }
    bias_filler {
      type: "constant"
      value: 0
    }
  }
}
layer {
  name: "res2a_branch2a/relu"
  type: "ReLU"
  bottom: "res2a_branch2a/bn"
  top: "res2a_branch2a/bn"
}
layer {
  name: "res2a_branch2b"
  type: "Convolution"
  bottom: "res2a_branch2a/bn"
  top: "res2a_branch2b"
  param {
    lr_mult: 1
    decay_mult: 1
  }
  param {
    lr_mult: 2
    decay_mult: 0
  }
  convolution_param {
    num_output: 64
    bias_term: true
    pad: 1
    kernel_size: 3
    group: 4
    stride: 1
    weight_filler {
      type: "msra"
    }
    bias_filler {
      type: "constant"
      value: 0
    }
    dilation: 1
  }
}
layer {
  name: "res2a_branch2b/bn"
  type: "BatchNorm"
  bottom: "res2a_branch2b"
  top: "res2a_branch2b/bn"
  param {
    lr_mult: 1
    decay_mult: 1
  }
  param {
    lr_mult: 1
    decay_mult: 1
  }
  param {
    lr_mult: 0
    decay_mult: 0
  }
  param {
    lr_mult: 0
    decay_mult: 0
  }
  batch_norm_param {
    moving_average_fraction: 0.99
    eps: 0.0001
    scale_filler {
      type: "constant"
      value: 1
    }
    bias_filler {
      type: "constant"
      value: 0
    }
  }
}
layer {
  name: "res2a_branch2b/relu"
  type: "ReLU"
  bottom: "res2a_branch2b/bn"
  top: "res2a_branch2b/bn"
}
layer {
  name: "pool2"
  type: "Pooling"
  bottom: "res2a_branch2b/bn"
  top: "pool2"
  pooling_param {
    pool: MAX
    kernel_size: 2
    stride: 2
  }
}
layer {
  name: "res3a_branch2a"
  type: "Convolution"
  bottom: "pool2"
  top: "res3a_branch2a"
  param {
    lr_mult: 1
    decay_mult: 1
  }
  param {
    lr_mult: 2
    decay_mult: 0
  }
  convolution_param {
    num_output: 128
    bias_term: true
    pad: 1
    kernel_size: 3
    group: 1
    stride: 1
    weight_filler {
      type: "msra"
    }
    bias_filler {
      type: "constant"
      value: 0
    }
    dilation: 1
  }
}
layer {
  name: "res3a_branch2a/bn"
  type: "BatchNorm"
  bottom: "res3a_branch2a"
  top: "res3a_branch2a/bn"
  param {
    lr_mult: 1
    decay_mult: 1
  }
  param {
    lr_mult: 1
    decay_mult: 1
  }
  param {
    lr_mult: 0
    decay_mult: 0
  }
  param {
    lr_mult: 0
    decay_mult: 0
  }
  batch_norm_param {
    moving_average_fraction: 0.99
    eps: 0.0001
    scale_filler {
      type: "constant"
      value: 1
    }
    bias_filler {
      type: "constant"
      value: 0
    }
  }
}
layer {
  name: "res3a_branch2a/relu"
  type: "ReLU"
  bottom: "res3a_branch2a/bn"
  top: "res3a_branch2a/bn"
}
layer {
  name: "res3a_branch2b"
  type: "Convolution"
  bottom: "res3a_branch2a/bn"
  top: "res3a_branch2b"
  param {
    lr_mult: 1
    decay_mult: 1
  }
  param {
    lr_mult: 2
    decay_mult: 0
  }
  convolution_param {
    num_output: 128
    bias_term: true
    pad: 1
    kernel_size: 3
    group: 4
    stride: 1
    weight_filler {
      type: "msra"
    }
    bias_filler {
      type: "constant"
      value: 0
    }
    dilation: 1
  }
}
layer {
  name: "res3a_branch2b/bn"
  type: "BatchNorm"
  bottom: "res3a_branch2b"
  top: "res3a_branch2b/bn"
  param {
    lr_mult: 1
    decay_mult: 1
  }
  param {
    lr_mult: 1
    decay_mult: 1
  }
  param {
    lr_mult: 0
    decay_mult: 0
  }
  param {
    lr_mult: 0
    decay_mult: 0
  }
  batch_norm_param {
    moving_average_fraction: 0.99
    eps: 0.0001
    scale_filler {
      type: "constant"
      value: 1
    }
    bias_filler {
      type: "constant"
      value: 0
    }
  }
}
layer {
  name: "res3a_branch2b/relu"
  type: "ReLU"
  bottom: "res3a_branch2b/bn"
  top: "res3a_branch2b/bn"
}
layer {
  name: "pool3"
  type: "Pooling"
  bottom: "res3a_branch2b/bn"
  top: "pool3"
  pooling_param {
    pool: MAX
    kernel_size: 1
    stride: 1
  }
}
layer {
  name: "res4a_branch2a"
  type: "Convolution"
  bottom: "pool3"
  top: "res4a_branch2a"
  param {
    lr_mult: 1
    decay_mult: 1
  }
  param {
    lr_mult: 2
    decay_mult: 0
  }
  convolution_param {
    num_output: 256
    bias_term: true
    pad: 1
    kernel_size: 3
    group: 1
    stride: 1
    weight_filler {
      type: "msra"
    }
    bias_filler {
      type: "constant"
      value: 0
    }
    dilation: 1
  }
}
layer {
  name: "res4a_branch2a/bn"
  type: "BatchNorm"
  bottom: "res4a_branch2a"
  top: "res4a_branch2a/bn"
  param {
    lr_mult: 1
    decay_mult: 1
  }
  param {
    lr_mult: 1
    decay_mult: 1
  }
  param {
    lr_mult: 0
    decay_mult: 0
  }
  param {
    lr_mult: 0
    decay_mult: 0
  }
  batch_norm_param {
    moving_average_fraction: 0.99
    eps: 0.0001
    scale_filler {
      type: "constant"
      value: 1
    }
    bias_filler {
      type: "constant"
      value: 0
    }
  }
}
layer {
  name: "res4a_branch2a/relu"
  type: "ReLU"
  bottom: "res4a_branch2a/bn"
  top: "res4a_branch2a/bn"
}
layer {
  name: "res4a_branch2b"
  type: "Convolution"
  bottom: "res4a_branch2a/bn"
  top: "res4a_branch2b"
  param {
    lr_mult: 1
    decay_mult: 1
  }
  param {
    lr_mult: 2
    decay_mult: 0
  }
  convolution_param {
    num_output: 256
    bias_term: true
    pad: 1
    kernel_size: 3
    group: 4
    stride: 1
    weight_filler {
      type: "msra"
    }
    bias_filler {
      type: "constant"
      value: 0
    }
    dilation: 1
  }
}
layer {
  name: "res4a_branch2b/bn"
  type: "BatchNorm"
  bottom: "res4a_branch2b"
  top: "res4a_branch2b/bn"
  param {
    lr_mult: 1
    decay_mult: 1
  }
  param {
    lr_mult: 1
    decay_mult: 1
  }
  param {
    lr_mult: 0
    decay_mult: 0
  }
  param {
    lr_mult: 0
    decay_mult: 0
  }
  batch_norm_param {
    moving_average_fraction: 0.99
    eps: 0.0001
    scale_filler {
      type: "constant"
      value: 1
    }
    bias_filler {
      type: "constant"
      value: 0
    }
  }
}
layer {
  name: "res4a_branch2b/relu"
  type: "ReLU"
  bottom: "res4a_branch2b/bn"
  top: "res4a_branch2b/bn"
}
layer {
  name: "pool4"
  type: "Pooling"
  bottom: "res4a_branch2b/bn"
  top: "pool4"
  pooling_param {
    pool: MAX
    kernel_size: 2
    stride: 2
  }
}
layer {
  name: "res5a_branch2a"
  type: "Convolution"
  bottom: "pool4"
  top: "res5a_branch2a"
  param {
    lr_mult: 1
    decay_mult: 1
  }
  param {
    lr_mult: 2
    decay_mult: 0
  }
  convolution_param {
    num_output: 512
    bias_term: true
    pad: 1
    kernel_size: 3
    group: 1
    stride: 1
    weight_filler {
      type: "msra"
    }
    bias_filler {
      type: "constant"
      value: 0
    }
    dilation: 1
  }
}
layer {
  name: "res5a_branch2a/bn"
  type: "BatchNorm"
  bottom: "res5a_branch2a"
  top: "res5a_branch2a/bn"
  param {
    lr_mult: 1
    decay_mult: 1
  }
  param {
    lr_mult: 1
    decay_mult: 1
  }
  param {
    lr_mult: 0
    decay_mult: 0
  }
  param {
    lr_mult: 0
    decay_mult: 0
  }
  batch_norm_param {
    moving_average_fraction: 0.99
    eps: 0.0001
    scale_filler {
      type: "constant"
      value: 1
    }
    bias_filler {
      type: "constant"
      value: 0
    }
  }
}
layer {
  name: "res5a_branch2a/relu"
  type: "ReLU"
  bottom: "res5a_branch2a/bn"
  top: "res5a_branch2a/bn"
}
layer {
  name: "res5a_branch2b"
  type: "Convolution"
  bottom: "res5a_branch2a/bn"
  top: "res5a_branch2b"
  param {
    lr_mult: 1
    decay_mult: 1
  }
  param {
    lr_mult: 2
    decay_mult: 0
  }
  convolution_param {
    num_output: 512
    bias_term: true
    pad: 1
    kernel_size: 3
    group: 4
    stride: 1
    weight_filler {
      type: "msra"
    }
    bias_filler {
      type: "constant"
      value: 0
    }
    dilation: 1
  }
}
layer {
  name: "res5a_branch2b/bn"
  type: "BatchNorm"
  bottom: "res5a_branch2b"
  top: "res5a_branch2b/bn"
  param {
    lr_mult: 1
    decay_mult: 1
  }
  param {
    lr_mult: 1
    decay_mult: 1
  }
  param {
    lr_mult: 0
    decay_mult: 0
  }
  param {
    lr_mult: 0
    decay_mult: 0
  }
  batch_norm_param {
    moving_average_fraction: 0.99
    eps: 0.0001
    scale_filler {
      type: "constant"
      value: 1
    }
    bias_filler {
      type: "constant"
      value: 0
    }
  }
}
layer {
  name: "res5a_branch2b/relu"
  type: "ReLU"
  bottom: "res5a_branch2b/bn"
  top: "res5a_branch2b/bn"
}
layer {
  name: "pool5"
  type: "Pooling"
  bottom: "res5a_branch2b/bn"
  top: "pool5"
  pooling_param {
    pool: AVE
    global_pooling: true
  }
}
layer {
  name: "fc10"
  type: "InnerProduct"
  bottom: "pool5"
  top: "fc10"
  param {
    lr_mult: 1
    decay_mult: 1
  }
  param {
    lr_mult: 2
    decay_mult: 0
  }
  inner_product_param {
    num_output: 10
    weight_filler {
      type: "msra"
    }
    bias_filler {
      type: "constant"
      value: 0
    }
  }
}
layer {
  name: "loss"
  type: "SoftmaxWithLoss"
  bottom: "fc10"
  bottom: "label"
  top: "loss"
  propagate_down: true
  propagate_down: false
}
layer {
  name: "accuracy/top1"
  type: "Accuracy"
  bottom: "fc10"
  bottom: "label"
  top: "accuracy/top1"
  include {
    phase: TEST
  }
}
layer {
  name: "accuracy/top5"
  type: "Accuracy"
  bottom: "fc10"
  bottom: "label"
  top: "accuracy/top5"
  include {
    phase: TEST
  }
  accuracy_param {
    top_k: 5
  }
}
I0630 02:07:45.560739 27297 layer_factory.hpp:77] Creating layer data
I0630 02:07:45.561100 27297 net.cpp:98] Creating Layer data
I0630 02:07:45.561110 27297 net.cpp:413] data -> data
I0630 02:07:45.561131 27297 net.cpp:413] data -> label
I0630 02:07:45.561998 27327 db_lmdb.cpp:35] Opened lmdb ./data/cifar10_test_lmdb
I0630 02:07:45.562799 27297 data_layer.cpp:78] ReshapePrefetch 50, 3, 32, 32
I0630 02:07:45.562844 27297 data_layer.cpp:83] output data size: 50,3,32,32
I0630 02:07:45.564374 27297 net.cpp:148] Setting up data
I0630 02:07:45.564386 27297 net.cpp:155] Top shape: 50 3 32 32 (153600)
I0630 02:07:45.564393 27297 net.cpp:155] Top shape: 50 (50)
I0630 02:07:45.564396 27297 net.cpp:163] Memory required for data: 614600
I0630 02:07:45.564404 27297 layer_factory.hpp:77] Creating layer label_data_1_split
I0630 02:07:45.564415 27297 net.cpp:98] Creating Layer label_data_1_split
I0630 02:07:45.564420 27297 net.cpp:439] label_data_1_split <- label
I0630 02:07:45.564430 27297 net.cpp:413] label_data_1_split -> label_data_1_split_0
I0630 02:07:45.564437 27297 net.cpp:413] label_data_1_split -> label_data_1_split_1
I0630 02:07:45.564443 27297 net.cpp:413] label_data_1_split -> label_data_1_split_2
I0630 02:07:45.564505 27297 net.cpp:148] Setting up label_data_1_split
I0630 02:07:45.564510 27297 net.cpp:155] Top shape: 50 (50)
I0630 02:07:45.564515 27297 net.cpp:155] Top shape: 50 (50)
I0630 02:07:45.564520 27297 net.cpp:155] Top shape: 50 (50)
I0630 02:07:45.564523 27297 net.cpp:163] Memory required for data: 615200
I0630 02:07:45.564527 27297 layer_factory.hpp:77] Creating layer data/bias
I0630 02:07:45.564538 27297 net.cpp:98] Creating Layer data/bias
I0630 02:07:45.564541 27297 net.cpp:439] data/bias <- data
I0630 02:07:45.564546 27297 net.cpp:413] data/bias -> data/bias
I0630 02:07:45.565104 27297 net.cpp:148] Setting up data/bias
I0630 02:07:45.565112 27297 net.cpp:155] Top shape: 50 3 32 32 (153600)
I0630 02:07:45.565115 27297 net.cpp:163] Memory required for data: 1229600
I0630 02:07:45.565127 27297 layer_factory.hpp:77] Creating layer conv1a
I0630 02:07:45.565137 27297 net.cpp:98] Creating Layer conv1a
I0630 02:07:45.565141 27297 net.cpp:439] conv1a <- data/bias
I0630 02:07:45.565147 27297 net.cpp:413] conv1a -> conv1a
I0630 02:07:45.565878 27297 net.cpp:148] Setting up conv1a
I0630 02:07:45.565886 27297 net.cpp:155] Top shape: 50 32 32 32 (1638400)
I0630 02:07:45.565891 27297 net.cpp:163] Memory required for data: 7783200
I0630 02:07:45.565897 27297 layer_factory.hpp:77] Creating layer conv1a/bn
I0630 02:07:45.565906 27297 net.cpp:98] Creating Layer conv1a/bn
I0630 02:07:45.565908 27297 net.cpp:439] conv1a/bn <- conv1a
I0630 02:07:45.565913 27297 net.cpp:413] conv1a/bn -> conv1a/bn
I0630 02:07:45.566277 27297 net.cpp:148] Setting up conv1a/bn
I0630 02:07:45.566283 27297 net.cpp:155] Top shape: 50 32 32 32 (1638400)
I0630 02:07:45.566287 27297 net.cpp:163] Memory required for data: 14336800
I0630 02:07:45.566296 27297 layer_factory.hpp:77] Creating layer conv1a/relu
I0630 02:07:45.566303 27297 net.cpp:98] Creating Layer conv1a/relu
I0630 02:07:45.566306 27297 net.cpp:439] conv1a/relu <- conv1a/bn
I0630 02:07:45.566310 27297 net.cpp:400] conv1a/relu -> conv1a/bn (in-place)
I0630 02:07:45.566321 27297 net.cpp:148] Setting up conv1a/relu
I0630 02:07:45.566326 27297 net.cpp:155] Top shape: 50 32 32 32 (1638400)
I0630 02:07:45.566330 27297 net.cpp:163] Memory required for data: 20890400
I0630 02:07:45.566334 27297 layer_factory.hpp:77] Creating layer conv1b
I0630 02:07:45.566342 27297 net.cpp:98] Creating Layer conv1b
I0630 02:07:45.566352 27297 net.cpp:439] conv1b <- conv1a/bn
I0630 02:07:45.566359 27297 net.cpp:413] conv1b -> conv1b
I0630 02:07:45.566659 27297 net.cpp:148] Setting up conv1b
I0630 02:07:45.566666 27297 net.cpp:155] Top shape: 50 32 32 32 (1638400)
I0630 02:07:45.566670 27297 net.cpp:163] Memory required for data: 27444000
I0630 02:07:45.566678 27297 layer_factory.hpp:77] Creating layer conv1b/bn
I0630 02:07:45.566684 27297 net.cpp:98] Creating Layer conv1b/bn
I0630 02:07:45.566687 27297 net.cpp:439] conv1b/bn <- conv1b
I0630 02:07:45.566692 27297 net.cpp:413] conv1b/bn -> conv1b/bn
I0630 02:07:45.567000 27297 net.cpp:148] Setting up conv1b/bn
I0630 02:07:45.567008 27297 net.cpp:155] Top shape: 50 32 32 32 (1638400)
I0630 02:07:45.567010 27297 net.cpp:163] Memory required for data: 33997600
I0630 02:07:45.567019 27297 layer_factory.hpp:77] Creating layer conv1b/relu
I0630 02:07:45.567024 27297 net.cpp:98] Creating Layer conv1b/relu
I0630 02:07:45.567028 27297 net.cpp:439] conv1b/relu <- conv1b/bn
I0630 02:07:45.567034 27297 net.cpp:400] conv1b/relu -> conv1b/bn (in-place)
I0630 02:07:45.567039 27297 net.cpp:148] Setting up conv1b/relu
I0630 02:07:45.567044 27297 net.cpp:155] Top shape: 50 32 32 32 (1638400)
I0630 02:07:45.567049 27297 net.cpp:163] Memory required for data: 40551200
I0630 02:07:45.567051 27297 layer_factory.hpp:77] Creating layer pool1
I0630 02:07:45.567059 27297 net.cpp:98] Creating Layer pool1
I0630 02:07:45.567061 27297 net.cpp:439] pool1 <- conv1b/bn
I0630 02:07:45.567066 27297 net.cpp:413] pool1 -> pool1
I0630 02:07:45.567092 27297 net.cpp:148] Setting up pool1
I0630 02:07:45.567097 27297 net.cpp:155] Top shape: 50 32 32 32 (1638400)
I0630 02:07:45.567101 27297 net.cpp:163] Memory required for data: 47104800
I0630 02:07:45.567104 27297 layer_factory.hpp:77] Creating layer res2a_branch2a
I0630 02:07:45.567112 27297 net.cpp:98] Creating Layer res2a_branch2a
I0630 02:07:45.567116 27297 net.cpp:439] res2a_branch2a <- pool1
I0630 02:07:45.567121 27297 net.cpp:413] res2a_branch2a -> res2a_branch2a
I0630 02:07:45.568189 27297 net.cpp:148] Setting up res2a_branch2a
I0630 02:07:45.568198 27297 net.cpp:155] Top shape: 50 64 32 32 (3276800)
I0630 02:07:45.568202 27297 net.cpp:163] Memory required for data: 60212000
I0630 02:07:45.568209 27297 layer_factory.hpp:77] Creating layer res2a_branch2a/bn
I0630 02:07:45.568215 27297 net.cpp:98] Creating Layer res2a_branch2a/bn
I0630 02:07:45.568220 27297 net.cpp:439] res2a_branch2a/bn <- res2a_branch2a
I0630 02:07:45.568225 27297 net.cpp:413] res2a_branch2a/bn -> res2a_branch2a/bn
I0630 02:07:45.568526 27297 net.cpp:148] Setting up res2a_branch2a/bn
I0630 02:07:45.568532 27297 net.cpp:155] Top shape: 50 64 32 32 (3276800)
I0630 02:07:45.568536 27297 net.cpp:163] Memory required for data: 73319200
I0630 02:07:45.568544 27297 layer_factory.hpp:77] Creating layer res2a_branch2a/relu
I0630 02:07:45.568549 27297 net.cpp:98] Creating Layer res2a_branch2a/relu
I0630 02:07:45.568553 27297 net.cpp:439] res2a_branch2a/relu <- res2a_branch2a/bn
I0630 02:07:45.568557 27297 net.cpp:400] res2a_branch2a/relu -> res2a_branch2a/bn (in-place)
I0630 02:07:45.568564 27297 net.cpp:148] Setting up res2a_branch2a/relu
I0630 02:07:45.568568 27297 net.cpp:155] Top shape: 50 64 32 32 (3276800)
I0630 02:07:45.568572 27297 net.cpp:163] Memory required for data: 86426400
I0630 02:07:45.568575 27297 layer_factory.hpp:77] Creating layer res2a_branch2b
I0630 02:07:45.568583 27297 net.cpp:98] Creating Layer res2a_branch2b
I0630 02:07:45.568585 27297 net.cpp:439] res2a_branch2b <- res2a_branch2a/bn
I0630 02:07:45.568590 27297 net.cpp:413] res2a_branch2b -> res2a_branch2b
I0630 02:07:45.569409 27297 net.cpp:148] Setting up res2a_branch2b
I0630 02:07:45.569418 27297 net.cpp:155] Top shape: 50 64 32 32 (3276800)
I0630 02:07:45.569422 27297 net.cpp:163] Memory required for data: 99533600
I0630 02:07:45.569427 27297 layer_factory.hpp:77] Creating layer res2a_branch2b/bn
I0630 02:07:45.569434 27297 net.cpp:98] Creating Layer res2a_branch2b/bn
I0630 02:07:45.569439 27297 net.cpp:439] res2a_branch2b/bn <- res2a_branch2b
I0630 02:07:45.569452 27297 net.cpp:413] res2a_branch2b/bn -> res2a_branch2b/bn
I0630 02:07:45.569748 27297 net.cpp:148] Setting up res2a_branch2b/bn
I0630 02:07:45.569756 27297 net.cpp:155] Top shape: 50 64 32 32 (3276800)
I0630 02:07:45.569758 27297 net.cpp:163] Memory required for data: 112640800
I0630 02:07:45.569767 27297 layer_factory.hpp:77] Creating layer res2a_branch2b/relu
I0630 02:07:45.569772 27297 net.cpp:98] Creating Layer res2a_branch2b/relu
I0630 02:07:45.569777 27297 net.cpp:439] res2a_branch2b/relu <- res2a_branch2b/bn
I0630 02:07:45.569782 27297 net.cpp:400] res2a_branch2b/relu -> res2a_branch2b/bn (in-place)
I0630 02:07:45.569787 27297 net.cpp:148] Setting up res2a_branch2b/relu
I0630 02:07:45.569792 27297 net.cpp:155] Top shape: 50 64 32 32 (3276800)
I0630 02:07:45.569795 27297 net.cpp:163] Memory required for data: 125748000
I0630 02:07:45.569798 27297 layer_factory.hpp:77] Creating layer pool2
I0630 02:07:45.569804 27297 net.cpp:98] Creating Layer pool2
I0630 02:07:45.569808 27297 net.cpp:439] pool2 <- res2a_branch2b/bn
I0630 02:07:45.569813 27297 net.cpp:413] pool2 -> pool2
I0630 02:07:45.569833 27297 net.cpp:148] Setting up pool2
I0630 02:07:45.569836 27297 net.cpp:155] Top shape: 50 64 16 16 (819200)
I0630 02:07:45.569840 27297 net.cpp:163] Memory required for data: 129024800
I0630 02:07:45.569844 27297 layer_factory.hpp:77] Creating layer res3a_branch2a
I0630 02:07:45.569854 27297 net.cpp:98] Creating Layer res3a_branch2a
I0630 02:07:45.569859 27297 net.cpp:439] res3a_branch2a <- pool2
I0630 02:07:45.569864 27297 net.cpp:413] res3a_branch2a -> res3a_branch2a
I0630 02:07:45.571950 27297 net.cpp:148] Setting up res3a_branch2a
I0630 02:07:45.571960 27297 net.cpp:155] Top shape: 50 128 16 16 (1638400)
I0630 02:07:45.571964 27297 net.cpp:163] Memory required for data: 135578400
I0630 02:07:45.571970 27297 layer_factory.hpp:77] Creating layer res3a_branch2a/bn
I0630 02:07:45.571980 27297 net.cpp:98] Creating Layer res3a_branch2a/bn
I0630 02:07:45.571985 27297 net.cpp:439] res3a_branch2a/bn <- res3a_branch2a
I0630 02:07:45.571990 27297 net.cpp:413] res3a_branch2a/bn -> res3a_branch2a/bn
I0630 02:07:45.572249 27297 net.cpp:148] Setting up res3a_branch2a/bn
I0630 02:07:45.572255 27297 net.cpp:155] Top shape: 50 128 16 16 (1638400)
I0630 02:07:45.572259 27297 net.cpp:163] Memory required for data: 142132000
I0630 02:07:45.572268 27297 layer_factory.hpp:77] Creating layer res3a_branch2a/relu
I0630 02:07:45.572274 27297 net.cpp:98] Creating Layer res3a_branch2a/relu
I0630 02:07:45.572278 27297 net.cpp:439] res3a_branch2a/relu <- res3a_branch2a/bn
I0630 02:07:45.572283 27297 net.cpp:400] res3a_branch2a/relu -> res3a_branch2a/bn (in-place)
I0630 02:07:45.572289 27297 net.cpp:148] Setting up res3a_branch2a/relu
I0630 02:07:45.572293 27297 net.cpp:155] Top shape: 50 128 16 16 (1638400)
I0630 02:07:45.572298 27297 net.cpp:163] Memory required for data: 148685600
I0630 02:07:45.572300 27297 layer_factory.hpp:77] Creating layer res3a_branch2b
I0630 02:07:45.572307 27297 net.cpp:98] Creating Layer res3a_branch2b
I0630 02:07:45.572311 27297 net.cpp:439] res3a_branch2b <- res3a_branch2a/bn
I0630 02:07:45.572315 27297 net.cpp:413] res3a_branch2b -> res3a_branch2b
I0630 02:07:45.573201 27297 net.cpp:148] Setting up res3a_branch2b
I0630 02:07:45.573210 27297 net.cpp:155] Top shape: 50 128 16 16 (1638400)
I0630 02:07:45.573212 27297 net.cpp:163] Memory required for data: 155239200
I0630 02:07:45.573220 27297 layer_factory.hpp:77] Creating layer res3a_branch2b/bn
I0630 02:07:45.573225 27297 net.cpp:98] Creating Layer res3a_branch2b/bn
I0630 02:07:45.573230 27297 net.cpp:439] res3a_branch2b/bn <- res3a_branch2b
I0630 02:07:45.573235 27297 net.cpp:413] res3a_branch2b/bn -> res3a_branch2b/bn
I0630 02:07:45.573500 27297 net.cpp:148] Setting up res3a_branch2b/bn
I0630 02:07:45.573508 27297 net.cpp:155] Top shape: 50 128 16 16 (1638400)
I0630 02:07:45.573510 27297 net.cpp:163] Memory required for data: 161792800
I0630 02:07:45.573518 27297 layer_factory.hpp:77] Creating layer res3a_branch2b/relu
I0630 02:07:45.573529 27297 net.cpp:98] Creating Layer res3a_branch2b/relu
I0630 02:07:45.573532 27297 net.cpp:439] res3a_branch2b/relu <- res3a_branch2b/bn
I0630 02:07:45.573537 27297 net.cpp:400] res3a_branch2b/relu -> res3a_branch2b/bn (in-place)
I0630 02:07:45.573544 27297 net.cpp:148] Setting up res3a_branch2b/relu
I0630 02:07:45.573547 27297 net.cpp:155] Top shape: 50 128 16 16 (1638400)
I0630 02:07:45.573551 27297 net.cpp:163] Memory required for data: 168346400
I0630 02:07:45.573555 27297 layer_factory.hpp:77] Creating layer pool3
I0630 02:07:45.573560 27297 net.cpp:98] Creating Layer pool3
I0630 02:07:45.573565 27297 net.cpp:439] pool3 <- res3a_branch2b/bn
I0630 02:07:45.573568 27297 net.cpp:413] pool3 -> pool3
I0630 02:07:45.573590 27297 net.cpp:148] Setting up pool3
I0630 02:07:45.573593 27297 net.cpp:155] Top shape: 50 128 16 16 (1638400)
I0630 02:07:45.573597 27297 net.cpp:163] Memory required for data: 174900000
I0630 02:07:45.573601 27297 layer_factory.hpp:77] Creating layer res4a_branch2a
I0630 02:07:45.573608 27297 net.cpp:98] Creating Layer res4a_branch2a
I0630 02:07:45.573611 27297 net.cpp:439] res4a_branch2a <- pool3
I0630 02:07:45.573616 27297 net.cpp:413] res4a_branch2a -> res4a_branch2a
I0630 02:07:45.579524 27297 net.cpp:148] Setting up res4a_branch2a
I0630 02:07:45.579531 27297 net.cpp:155] Top shape: 50 256 16 16 (3276800)
I0630 02:07:45.579535 27297 net.cpp:163] Memory required for data: 188007200
I0630 02:07:45.579540 27297 layer_factory.hpp:77] Creating layer res4a_branch2a/bn
I0630 02:07:45.579546 27297 net.cpp:98] Creating Layer res4a_branch2a/bn
I0630 02:07:45.579550 27297 net.cpp:439] res4a_branch2a/bn <- res4a_branch2a
I0630 02:07:45.579555 27297 net.cpp:413] res4a_branch2a/bn -> res4a_branch2a/bn
I0630 02:07:45.579812 27297 net.cpp:148] Setting up res4a_branch2a/bn
I0630 02:07:45.579818 27297 net.cpp:155] Top shape: 50 256 16 16 (3276800)
I0630 02:07:45.579823 27297 net.cpp:163] Memory required for data: 201114400
I0630 02:07:45.579830 27297 layer_factory.hpp:77] Creating layer res4a_branch2a/relu
I0630 02:07:45.579834 27297 net.cpp:98] Creating Layer res4a_branch2a/relu
I0630 02:07:45.579838 27297 net.cpp:439] res4a_branch2a/relu <- res4a_branch2a/bn
I0630 02:07:45.579843 27297 net.cpp:400] res4a_branch2a/relu -> res4a_branch2a/bn (in-place)
I0630 02:07:45.579849 27297 net.cpp:148] Setting up res4a_branch2a/relu
I0630 02:07:45.579854 27297 net.cpp:155] Top shape: 50 256 16 16 (3276800)
I0630 02:07:45.579856 27297 net.cpp:163] Memory required for data: 214221600
I0630 02:07:45.579860 27297 layer_factory.hpp:77] Creating layer res4a_branch2b
I0630 02:07:45.579866 27297 net.cpp:98] Creating Layer res4a_branch2b
I0630 02:07:45.579870 27297 net.cpp:439] res4a_branch2b <- res4a_branch2a/bn
I0630 02:07:45.579875 27297 net.cpp:413] res4a_branch2b -> res4a_branch2b
I0630 02:07:45.582893 27297 net.cpp:148] Setting up res4a_branch2b
I0630 02:07:45.582900 27297 net.cpp:155] Top shape: 50 256 16 16 (3276800)
I0630 02:07:45.582902 27297 net.cpp:163] Memory required for data: 227328800
I0630 02:07:45.582908 27297 layer_factory.hpp:77] Creating layer res4a_branch2b/bn
I0630 02:07:45.582914 27297 net.cpp:98] Creating Layer res4a_branch2b/bn
I0630 02:07:45.582918 27297 net.cpp:439] res4a_branch2b/bn <- res4a_branch2b
I0630 02:07:45.582924 27297 net.cpp:413] res4a_branch2b/bn -> res4a_branch2b/bn
I0630 02:07:45.583183 27297 net.cpp:148] Setting up res4a_branch2b/bn
I0630 02:07:45.583189 27297 net.cpp:155] Top shape: 50 256 16 16 (3276800)
I0630 02:07:45.583191 27297 net.cpp:163] Memory required for data: 240436000
I0630 02:07:45.583199 27297 layer_factory.hpp:77] Creating layer res4a_branch2b/relu
I0630 02:07:45.583204 27297 net.cpp:98] Creating Layer res4a_branch2b/relu
I0630 02:07:45.583209 27297 net.cpp:439] res4a_branch2b/relu <- res4a_branch2b/bn
I0630 02:07:45.583212 27297 net.cpp:400] res4a_branch2b/relu -> res4a_branch2b/bn (in-place)
I0630 02:07:45.583219 27297 net.cpp:148] Setting up res4a_branch2b/relu
I0630 02:07:45.583222 27297 net.cpp:155] Top shape: 50 256 16 16 (3276800)
I0630 02:07:45.583231 27297 net.cpp:163] Memory required for data: 253543200
I0630 02:07:45.583235 27297 layer_factory.hpp:77] Creating layer pool4
I0630 02:07:45.583240 27297 net.cpp:98] Creating Layer pool4
I0630 02:07:45.583245 27297 net.cpp:439] pool4 <- res4a_branch2b/bn
I0630 02:07:45.583250 27297 net.cpp:413] pool4 -> pool4
I0630 02:07:45.583271 27297 net.cpp:148] Setting up pool4
I0630 02:07:45.583276 27297 net.cpp:155] Top shape: 50 256 8 8 (819200)
I0630 02:07:45.583279 27297 net.cpp:163] Memory required for data: 256820000
I0630 02:07:45.583282 27297 layer_factory.hpp:77] Creating layer res5a_branch2a
I0630 02:07:45.583289 27297 net.cpp:98] Creating Layer res5a_branch2a
I0630 02:07:45.583293 27297 net.cpp:439] res5a_branch2a <- pool4
I0630 02:07:45.583298 27297 net.cpp:413] res5a_branch2a -> res5a_branch2a
I0630 02:07:45.607550 27297 net.cpp:148] Setting up res5a_branch2a
I0630 02:07:45.607573 27297 net.cpp:155] Top shape: 50 512 8 8 (1638400)
I0630 02:07:45.607576 27297 net.cpp:163] Memory required for data: 263373600
I0630 02:07:45.607583 27297 layer_factory.hpp:77] Creating layer res5a_branch2a/bn
I0630 02:07:45.607594 27297 net.cpp:98] Creating Layer res5a_branch2a/bn
I0630 02:07:45.607599 27297 net.cpp:439] res5a_branch2a/bn <- res5a_branch2a
I0630 02:07:45.607605 27297 net.cpp:413] res5a_branch2a/bn -> res5a_branch2a/bn
I0630 02:07:45.607903 27297 net.cpp:148] Setting up res5a_branch2a/bn
I0630 02:07:45.607909 27297 net.cpp:155] Top shape: 50 512 8 8 (1638400)
I0630 02:07:45.607914 27297 net.cpp:163] Memory required for data: 269927200
I0630 02:07:45.607923 27297 layer_factory.hpp:77] Creating layer res5a_branch2a/relu
I0630 02:07:45.607928 27297 net.cpp:98] Creating Layer res5a_branch2a/relu
I0630 02:07:45.607931 27297 net.cpp:439] res5a_branch2a/relu <- res5a_branch2a/bn
I0630 02:07:45.607936 27297 net.cpp:400] res5a_branch2a/relu -> res5a_branch2a/bn (in-place)
I0630 02:07:45.607944 27297 net.cpp:148] Setting up res5a_branch2a/relu
I0630 02:07:45.607947 27297 net.cpp:155] Top shape: 50 512 8 8 (1638400)
I0630 02:07:45.607951 27297 net.cpp:163] Memory required for data: 276480800
I0630 02:07:45.607954 27297 layer_factory.hpp:77] Creating layer res5a_branch2b
I0630 02:07:45.607962 27297 net.cpp:98] Creating Layer res5a_branch2b
I0630 02:07:45.607965 27297 net.cpp:439] res5a_branch2b <- res5a_branch2a/bn
I0630 02:07:45.607970 27297 net.cpp:413] res5a_branch2b -> res5a_branch2b
I0630 02:07:45.620391 27297 net.cpp:148] Setting up res5a_branch2b
I0630 02:07:45.620415 27297 net.cpp:155] Top shape: 50 512 8 8 (1638400)
I0630 02:07:45.620419 27297 net.cpp:163] Memory required for data: 283034400
I0630 02:07:45.620434 27297 layer_factory.hpp:77] Creating layer res5a_branch2b/bn
I0630 02:07:45.620445 27297 net.cpp:98] Creating Layer res5a_branch2b/bn
I0630 02:07:45.620451 27297 net.cpp:439] res5a_branch2b/bn <- res5a_branch2b
I0630 02:07:45.620460 27297 net.cpp:413] res5a_branch2b/bn -> res5a_branch2b/bn
I0630 02:07:45.620774 27297 net.cpp:148] Setting up res5a_branch2b/bn
I0630 02:07:45.620780 27297 net.cpp:155] Top shape: 50 512 8 8 (1638400)
I0630 02:07:45.620784 27297 net.cpp:163] Memory required for data: 289588000
I0630 02:07:45.620793 27297 layer_factory.hpp:77] Creating layer res5a_branch2b/relu
I0630 02:07:45.620797 27297 net.cpp:98] Creating Layer res5a_branch2b/relu
I0630 02:07:45.620802 27297 net.cpp:439] res5a_branch2b/relu <- res5a_branch2b/bn
I0630 02:07:45.620806 27297 net.cpp:400] res5a_branch2b/relu -> res5a_branch2b/bn (in-place)
I0630 02:07:45.620813 27297 net.cpp:148] Setting up res5a_branch2b/relu
I0630 02:07:45.620817 27297 net.cpp:155] Top shape: 50 512 8 8 (1638400)
I0630 02:07:45.620820 27297 net.cpp:163] Memory required for data: 296141600
I0630 02:07:45.620824 27297 layer_factory.hpp:77] Creating layer pool5
I0630 02:07:45.620832 27297 net.cpp:98] Creating Layer pool5
I0630 02:07:45.620837 27297 net.cpp:439] pool5 <- res5a_branch2b/bn
I0630 02:07:45.620841 27297 net.cpp:413] pool5 -> pool5
I0630 02:07:45.620864 27297 net.cpp:148] Setting up pool5
I0630 02:07:45.620869 27297 net.cpp:155] Top shape: 50 512 1 1 (25600)
I0630 02:07:45.620880 27297 net.cpp:163] Memory required for data: 296244000
I0630 02:07:45.620884 27297 layer_factory.hpp:77] Creating layer fc10
I0630 02:07:45.620892 27297 net.cpp:98] Creating Layer fc10
I0630 02:07:45.620894 27297 net.cpp:439] fc10 <- pool5
I0630 02:07:45.620899 27297 net.cpp:413] fc10 -> fc10
I0630 02:07:45.621070 27297 net.cpp:148] Setting up fc10
I0630 02:07:45.621075 27297 net.cpp:155] Top shape: 50 10 (500)
I0630 02:07:45.621079 27297 net.cpp:163] Memory required for data: 296246000
I0630 02:07:45.621084 27297 layer_factory.hpp:77] Creating layer fc10_fc10_0_split
I0630 02:07:45.621090 27297 net.cpp:98] Creating Layer fc10_fc10_0_split
I0630 02:07:45.621094 27297 net.cpp:439] fc10_fc10_0_split <- fc10
I0630 02:07:45.621100 27297 net.cpp:413] fc10_fc10_0_split -> fc10_fc10_0_split_0
I0630 02:07:45.621106 27297 net.cpp:413] fc10_fc10_0_split -> fc10_fc10_0_split_1
I0630 02:07:45.621111 27297 net.cpp:413] fc10_fc10_0_split -> fc10_fc10_0_split_2
I0630 02:07:45.621139 27297 net.cpp:148] Setting up fc10_fc10_0_split
I0630 02:07:45.621143 27297 net.cpp:155] Top shape: 50 10 (500)
I0630 02:07:45.621148 27297 net.cpp:155] Top shape: 50 10 (500)
I0630 02:07:45.621152 27297 net.cpp:155] Top shape: 50 10 (500)
I0630 02:07:45.621156 27297 net.cpp:163] Memory required for data: 296252000
I0630 02:07:45.621160 27297 layer_factory.hpp:77] Creating layer loss
I0630 02:07:45.621165 27297 net.cpp:98] Creating Layer loss
I0630 02:07:45.621168 27297 net.cpp:439] loss <- fc10_fc10_0_split_0
I0630 02:07:45.621173 27297 net.cpp:439] loss <- label_data_1_split_0
I0630 02:07:45.621178 27297 net.cpp:413] loss -> loss
…
