…
I0704 08:07:47.415587 27993 caffe.cpp:273] Use GPU with device ID 0
I0704 08:07:47.415944 27993 caffe.cpp:277] GPU device name: GeForce GTX 1080
I0704 08:07:47.808641 27993 net.cpp:56] Initializing net from parameters: 
name: "jacintonet11v2_test"
state {
  phase: TEST
}
layer {
  name: "data"
  type: "Data"
  top: "data"
  top: "label"
  transform_param {
    mirror: false
    crop_size: 32
    mean_value: 0
    mean_value: 0
    mean_value: 0
  }
  data_param {
    source: "./data/cifar10_test_lmdb"
    batch_size: 50
    backend: LMDB
    threads: 1
  }
}
layer {
  name: "data/bias"
  type: "Bias"
  bottom: "data"
  top: "data/bias"
  param {
    lr_mult: 0
    decay_mult: 0
  }
  bias_param {
    filler {
      type: "constant"
      value: -128
    }
  }
}
layer {
  name: "conv1a"
  type: "Convolution"
  bottom: "data/bias"
  top: "conv1a"
  param {
    lr_mult: 1
    decay_mult: 1
  }
  param {
    lr_mult: 2
    decay_mult: 0
  }
  convolution_param {
    num_output: 32
    bias_term: true
    pad: 2
    kernel_size: 5
    group: 1
    stride: 1
    weight_filler {
      type: "msra"
    }
    bias_filler {
      type: "constant"
      value: 0
    }
    dilation: 1
  }
}
layer {
  name: "conv1a/bn"
  type: "BatchNorm"
  bottom: "conv1a"
  top: "conv1a/bn"
  param {
    lr_mult: 1
    decay_mult: 1
  }
  param {
    lr_mult: 1
    decay_mult: 1
  }
  param {
    lr_mult: 0
    decay_mult: 0
  }
  param {
    lr_mult: 0
    decay_mult: 0
  }
  batch_norm_param {
    moving_average_fraction: 0.99
    eps: 0.0001
    scale_filler {
      type: "constant"
      value: 1
    }
    bias_filler {
      type: "constant"
      value: 0
    }
  }
}
layer {
  name: "conv1a/relu"
  type: "ReLU"
  bottom: "conv1a/bn"
  top: "conv1a/bn"
}
layer {
  name: "conv1b"
  type: "Convolution"
  bottom: "conv1a/bn"
  top: "conv1b"
  param {
    lr_mult: 1
    decay_mult: 1
  }
  param {
    lr_mult: 2
    decay_mult: 0
  }
  convolution_param {
    num_output: 32
    bias_term: true
    pad: 1
    kernel_size: 3
    group: 4
    stride: 1
    weight_filler {
      type: "msra"
    }
    bias_filler {
      type: "constant"
      value: 0
    }
    dilation: 1
  }
}
layer {
  name: "conv1b/bn"
  type: "BatchNorm"
  bottom: "conv1b"
  top: "conv1b/bn"
  param {
    lr_mult: 1
    decay_mult: 1
  }
  param {
    lr_mult: 1
    decay_mult: 1
  }
  param {
    lr_mult: 0
    decay_mult: 0
  }
  param {
    lr_mult: 0
    decay_mult: 0
  }
  batch_norm_param {
    moving_average_fraction: 0.99
    eps: 0.0001
    scale_filler {
      type: "constant"
      value: 1
    }
    bias_filler {
      type: "constant"
      value: 0
    }
  }
}
layer {
  name: "conv1b/relu"
  type: "ReLU"
  bottom: "conv1b/bn"
  top: "conv1b/bn"
}
layer {
  name: "pool1"
  type: "Pooling"
  bottom: "conv1b/bn"
  top: "pool1"
  pooling_param {
    pool: MAX
    kernel_size: 1
    stride: 1
  }
}
layer {
  name: "res2a_branch2a"
  type: "Convolution"
  bottom: "pool1"
  top: "res2a_branch2a"
  param {
    lr_mult: 1
    decay_mult: 1
  }
  param {
    lr_mult: 2
    decay_mult: 0
  }
  convolution_param {
    num_output: 64
    bias_term: true
    pad: 1
    kernel_size: 3
    group: 1
    stride: 1
    weight_filler {
      type: "msra"
    }
    bias_filler {
      type: "constant"
      value: 0
    }
    dilation: 1
  }
}
layer {
  name: "res2a_branch2a/bn"
  type: "BatchNorm"
  bottom: "res2a_branch2a"
  top: "res2a_branch2a/bn"
  param {
    lr_mult: 1
    decay_mult: 1
  }
  param {
    lr_mult: 1
    decay_mult: 1
  }
  param {
    lr_mult: 0
    decay_mult: 0
  }
  param {
    lr_mult: 0
    decay_mult: 0
  }
  batch_norm_param {
    moving_average_fraction: 0.99
    eps: 0.0001
    scale_filler {
      type: "constant"
      value: 1
    }
    bias_filler {
      type: "constant"
      value: 0
    }
  }
}
layer {
  name: "res2a_branch2a/relu"
  type: "ReLU"
  bottom: "res2a_branch2a/bn"
  top: "res2a_branch2a/bn"
}
layer {
  name: "res2a_branch2b"
  type: "Convolution"
  bottom: "res2a_branch2a/bn"
  top: "res2a_branch2b"
  param {
    lr_mult: 1
    decay_mult: 1
  }
  param {
    lr_mult: 2
    decay_mult: 0
  }
  convolution_param {
    num_output: 64
    bias_term: true
    pad: 1
    kernel_size: 3
    group: 4
    stride: 1
    weight_filler {
      type: "msra"
    }
    bias_filler {
      type: "constant"
      value: 0
    }
    dilation: 1
  }
}
layer {
  name: "res2a_branch2b/bn"
  type: "BatchNorm"
  bottom: "res2a_branch2b"
  top: "res2a_branch2b/bn"
  param {
    lr_mult: 1
    decay_mult: 1
  }
  param {
    lr_mult: 1
    decay_mult: 1
  }
  param {
    lr_mult: 0
    decay_mult: 0
  }
  param {
    lr_mult: 0
    decay_mult: 0
  }
  batch_norm_param {
    moving_average_fraction: 0.99
    eps: 0.0001
    scale_filler {
      type: "constant"
      value: 1
    }
    bias_filler {
      type: "constant"
      value: 0
    }
  }
}
layer {
  name: "res2a_branch2b/relu"
  type: "ReLU"
  bottom: "res2a_branch2b/bn"
  top: "res2a_branch2b/bn"
}
layer {
  name: "pool2"
  type: "Pooling"
  bottom: "res2a_branch2b/bn"
  top: "pool2"
  pooling_param {
    pool: MAX
    kernel_size: 2
    stride: 2
  }
}
layer {
  name: "res3a_branch2a"
  type: "Convolution"
  bottom: "pool2"
  top: "res3a_branch2a"
  param {
    lr_mult: 1
    decay_mult: 1
  }
  param {
    lr_mult: 2
    decay_mult: 0
  }
  convolution_param {
    num_output: 128
    bias_term: true
    pad: 1
    kernel_size: 3
    group: 1
    stride: 1
    weight_filler {
      type: "msra"
    }
    bias_filler {
      type: "constant"
      value: 0
    }
    dilation: 1
  }
}
layer {
  name: "res3a_branch2a/bn"
  type: "BatchNorm"
  bottom: "res3a_branch2a"
  top: "res3a_branch2a/bn"
  param {
    lr_mult: 1
    decay_mult: 1
  }
  param {
    lr_mult: 1
    decay_mult: 1
  }
  param {
    lr_mult: 0
    decay_mult: 0
  }
  param {
    lr_mult: 0
    decay_mult: 0
  }
  batch_norm_param {
    moving_average_fraction: 0.99
    eps: 0.0001
    scale_filler {
      type: "constant"
      value: 1
    }
    bias_filler {
      type: "constant"
      value: 0
    }
  }
}
layer {
  name: "res3a_branch2a/relu"
  type: "ReLU"
  bottom: "res3a_branch2a/bn"
  top: "res3a_branch2a/bn"
}
layer {
  name: "res3a_branch2b"
  type: "Convolution"
  bottom: "res3a_branch2a/bn"
  top: "res3a_branch2b"
  param {
    lr_mult: 1
    decay_mult: 1
  }
  param {
    lr_mult: 2
    decay_mult: 0
  }
  convolution_param {
    num_output: 128
    bias_term: true
    pad: 1
    kernel_size: 3
    group: 4
    stride: 1
    weight_filler {
      type: "msra"
    }
    bias_filler {
      type: "constant"
      value: 0
    }
    dilation: 1
  }
}
layer {
  name: "res3a_branch2b/bn"
  type: "BatchNorm"
  bottom: "res3a_branch2b"
  top: "res3a_branch2b/bn"
  param {
    lr_mult: 1
    decay_mult: 1
  }
  param {
    lr_mult: 1
    decay_mult: 1
  }
  param {
    lr_mult: 0
    decay_mult: 0
  }
  param {
    lr_mult: 0
    decay_mult: 0
  }
  batch_norm_param {
    moving_average_fraction: 0.99
    eps: 0.0001
    scale_filler {
      type: "constant"
      value: 1
    }
    bias_filler {
      type: "constant"
      value: 0
    }
  }
}
layer {
  name: "res3a_branch2b/relu"
  type: "ReLU"
  bottom: "res3a_branch2b/bn"
  top: "res3a_branch2b/bn"
}
layer {
  name: "pool3"
  type: "Pooling"
  bottom: "res3a_branch2b/bn"
  top: "pool3"
  pooling_param {
    pool: MAX
    kernel_size: 1
    stride: 1
  }
}
layer {
  name: "res4a_branch2a"
  type: "Convolution"
  bottom: "pool3"
  top: "res4a_branch2a"
  param {
    lr_mult: 1
    decay_mult: 1
  }
  param {
    lr_mult: 2
    decay_mult: 0
  }
  convolution_param {
    num_output: 256
    bias_term: true
    pad: 1
    kernel_size: 3
    group: 1
    stride: 1
    weight_filler {
      type: "msra"
    }
    bias_filler {
      type: "constant"
      value: 0
    }
    dilation: 1
  }
}
layer {
  name: "res4a_branch2a/bn"
  type: "BatchNorm"
  bottom: "res4a_branch2a"
  top: "res4a_branch2a/bn"
  param {
    lr_mult: 1
    decay_mult: 1
  }
  param {
    lr_mult: 1
    decay_mult: 1
  }
  param {
    lr_mult: 0
    decay_mult: 0
  }
  param {
    lr_mult: 0
    decay_mult: 0
  }
  batch_norm_param {
    moving_average_fraction: 0.99
    eps: 0.0001
    scale_filler {
      type: "constant"
      value: 1
    }
    bias_filler {
      type: "constant"
      value: 0
    }
  }
}
layer {
  name: "res4a_branch2a/relu"
  type: "ReLU"
  bottom: "res4a_branch2a/bn"
  top: "res4a_branch2a/bn"
}
layer {
  name: "res4a_branch2b"
  type: "Convolution"
  bottom: "res4a_branch2a/bn"
  top: "res4a_branch2b"
  param {
    lr_mult: 1
    decay_mult: 1
  }
  param {
    lr_mult: 2
    decay_mult: 0
  }
  convolution_param {
    num_output: 256
    bias_term: true
    pad: 1
    kernel_size: 3
    group: 4
    stride: 1
    weight_filler {
      type: "msra"
    }
    bias_filler {
      type: "constant"
      value: 0
    }
    dilation: 1
  }
}
layer {
  name: "res4a_branch2b/bn"
  type: "BatchNorm"
  bottom: "res4a_branch2b"
  top: "res4a_branch2b/bn"
  param {
    lr_mult: 1
    decay_mult: 1
  }
  param {
    lr_mult: 1
    decay_mult: 1
  }
  param {
    lr_mult: 0
    decay_mult: 0
  }
  param {
    lr_mult: 0
    decay_mult: 0
  }
  batch_norm_param {
    moving_average_fraction: 0.99
    eps: 0.0001
    scale_filler {
      type: "constant"
      value: 1
    }
    bias_filler {
      type: "constant"
      value: 0
    }
  }
}
layer {
  name: "res4a_branch2b/relu"
  type: "ReLU"
  bottom: "res4a_branch2b/bn"
  top: "res4a_branch2b/bn"
}
layer {
  name: "pool4"
  type: "Pooling"
  bottom: "res4a_branch2b/bn"
  top: "pool4"
  pooling_param {
    pool: MAX
    kernel_size: 2
    stride: 2
  }
}
layer {
  name: "res5a_branch2a"
  type: "Convolution"
  bottom: "pool4"
  top: "res5a_branch2a"
  param {
    lr_mult: 1
    decay_mult: 1
  }
  param {
    lr_mult: 2
    decay_mult: 0
  }
  convolution_param {
    num_output: 512
    bias_term: true
    pad: 1
    kernel_size: 3
    group: 1
    stride: 1
    weight_filler {
      type: "msra"
    }
    bias_filler {
      type: "constant"
      value: 0
    }
    dilation: 1
  }
}
layer {
  name: "res5a_branch2a/bn"
  type: "BatchNorm"
  bottom: "res5a_branch2a"
  top: "res5a_branch2a/bn"
  param {
    lr_mult: 1
    decay_mult: 1
  }
  param {
    lr_mult: 1
    decay_mult: 1
  }
  param {
    lr_mult: 0
    decay_mult: 0
  }
  param {
    lr_mult: 0
    decay_mult: 0
  }
  batch_norm_param {
    moving_average_fraction: 0.99
    eps: 0.0001
    scale_filler {
      type: "constant"
      value: 1
    }
    bias_filler {
      type: "constant"
      value: 0
    }
  }
}
layer {
  name: "res5a_branch2a/relu"
  type: "ReLU"
  bottom: "res5a_branch2a/bn"
  top: "res5a_branch2a/bn"
}
layer {
  name: "res5a_branch2b"
  type: "Convolution"
  bottom: "res5a_branch2a/bn"
  top: "res5a_branch2b"
  param {
    lr_mult: 1
    decay_mult: 1
  }
  param {
    lr_mult: 2
    decay_mult: 0
  }
  convolution_param {
    num_output: 512
    bias_term: true
    pad: 1
    kernel_size: 3
    group: 4
    stride: 1
    weight_filler {
      type: "msra"
    }
    bias_filler {
      type: "constant"
      value: 0
    }
    dilation: 1
  }
}
layer {
  name: "res5a_branch2b/bn"
  type: "BatchNorm"
  bottom: "res5a_branch2b"
  top: "res5a_branch2b/bn"
  param {
    lr_mult: 1
    decay_mult: 1
  }
  param {
    lr_mult: 1
    decay_mult: 1
  }
  param {
    lr_mult: 0
    decay_mult: 0
  }
  param {
    lr_mult: 0
    decay_mult: 0
  }
  batch_norm_param {
    moving_average_fraction: 0.99
    eps: 0.0001
    scale_filler {
      type: "constant"
      value: 1
    }
    bias_filler {
      type: "constant"
      value: 0
    }
  }
}
layer {
  name: "res5a_branch2b/relu"
  type: "ReLU"
  bottom: "res5a_branch2b/bn"
  top: "res5a_branch2b/bn"
}
layer {
  name: "pool5"
  type: "Pooling"
  bottom: "res5a_branch2b/bn"
  top: "pool5"
  pooling_param {
    pool: AVE
    global_pooling: true
  }
}
layer {
  name: "fc10"
  type: "InnerProduct"
  bottom: "pool5"
  top: "fc10"
  param {
    lr_mult: 1
    decay_mult: 1
  }
  param {
    lr_mult: 2
    decay_mult: 0
  }
  inner_product_param {
    num_output: 10
    weight_filler {
      type: "msra"
    }
    bias_filler {
      type: "constant"
      value: 0
    }
  }
}
layer {
  name: "loss"
  type: "SoftmaxWithLoss"
  bottom: "fc10"
  bottom: "label"
  top: "loss"
  propagate_down: true
  propagate_down: false
}
layer {
  name: "accuracy/top1"
  type: "Accuracy"
  bottom: "fc10"
  bottom: "label"
  top: "accuracy/top1"
  include {
    phase: TEST
  }
}
layer {
  name: "accuracy/top5"
  type: "Accuracy"
  bottom: "fc10"
  bottom: "label"
  top: "accuracy/top5"
  include {
    phase: TEST
  }
  accuracy_param {
    top_k: 5
  }
}
I0704 08:07:47.808768 27993 layer_factory.hpp:77] Creating layer data
I0704 08:07:47.809132 27993 net.cpp:98] Creating Layer data
I0704 08:07:47.809140 27993 net.cpp:413] data -> data
I0704 08:07:47.809157 27993 net.cpp:413] data -> label
I0704 08:07:47.809940 28013 db_lmdb.cpp:35] Opened lmdb ./data/cifar10_test_lmdb
I0704 08:07:47.810580 27993 data_layer.cpp:78] ReshapePrefetch 50, 3, 32, 32
I0704 08:07:47.810611 27993 data_layer.cpp:83] output data size: 50,3,32,32
I0704 08:07:47.812201 27993 net.cpp:148] Setting up data
I0704 08:07:47.812211 27993 net.cpp:155] Top shape: 50 3 32 32 (153600)
I0704 08:07:47.812216 27993 net.cpp:155] Top shape: 50 (50)
I0704 08:07:47.812217 27993 net.cpp:163] Memory required for data: 614600
I0704 08:07:47.812222 27993 layer_factory.hpp:77] Creating layer label_data_1_split
I0704 08:07:47.812232 27993 net.cpp:98] Creating Layer label_data_1_split
I0704 08:07:47.812234 27993 net.cpp:439] label_data_1_split <- label
I0704 08:07:47.812242 27993 net.cpp:413] label_data_1_split -> label_data_1_split_0
I0704 08:07:47.812245 27993 net.cpp:413] label_data_1_split -> label_data_1_split_1
I0704 08:07:47.812248 27993 net.cpp:413] label_data_1_split -> label_data_1_split_2
I0704 08:07:47.812327 27993 net.cpp:148] Setting up label_data_1_split
I0704 08:07:47.812337 27993 net.cpp:155] Top shape: 50 (50)
I0704 08:07:47.812340 27993 net.cpp:155] Top shape: 50 (50)
I0704 08:07:47.812342 27993 net.cpp:155] Top shape: 50 (50)
I0704 08:07:47.812345 27993 net.cpp:163] Memory required for data: 615200
I0704 08:07:47.812348 27993 layer_factory.hpp:77] Creating layer data/bias
I0704 08:07:47.812356 27993 net.cpp:98] Creating Layer data/bias
I0704 08:07:47.812360 27993 net.cpp:439] data/bias <- data
I0704 08:07:47.812362 27993 net.cpp:413] data/bias -> data/bias
I0704 08:07:47.812966 27993 net.cpp:148] Setting up data/bias
I0704 08:07:47.812974 27993 net.cpp:155] Top shape: 50 3 32 32 (153600)
I0704 08:07:47.812976 27993 net.cpp:163] Memory required for data: 1229600
I0704 08:07:47.812985 27993 layer_factory.hpp:77] Creating layer conv1a
I0704 08:07:47.812994 27993 net.cpp:98] Creating Layer conv1a
I0704 08:07:47.812996 27993 net.cpp:439] conv1a <- data/bias
I0704 08:07:47.812999 27993 net.cpp:413] conv1a -> conv1a
I0704 08:07:47.813902 27993 net.cpp:148] Setting up conv1a
I0704 08:07:47.813911 27993 net.cpp:155] Top shape: 50 32 32 32 (1638400)
I0704 08:07:47.813915 27993 net.cpp:163] Memory required for data: 7783200
I0704 08:07:47.813918 27993 layer_factory.hpp:77] Creating layer conv1a/bn
I0704 08:07:47.813925 27993 net.cpp:98] Creating Layer conv1a/bn
I0704 08:07:47.813926 27993 net.cpp:439] conv1a/bn <- conv1a
I0704 08:07:47.813930 27993 net.cpp:413] conv1a/bn -> conv1a/bn
I0704 08:07:47.814249 27993 net.cpp:148] Setting up conv1a/bn
I0704 08:07:47.814256 27993 net.cpp:155] Top shape: 50 32 32 32 (1638400)
I0704 08:07:47.814258 27993 net.cpp:163] Memory required for data: 14336800
I0704 08:07:47.814265 27993 layer_factory.hpp:77] Creating layer conv1a/relu
I0704 08:07:47.814267 27993 net.cpp:98] Creating Layer conv1a/relu
I0704 08:07:47.814270 27993 net.cpp:439] conv1a/relu <- conv1a/bn
I0704 08:07:47.814272 27993 net.cpp:400] conv1a/relu -> conv1a/bn (in-place)
I0704 08:07:47.814280 27993 net.cpp:148] Setting up conv1a/relu
I0704 08:07:47.814283 27993 net.cpp:155] Top shape: 50 32 32 32 (1638400)
I0704 08:07:47.814285 27993 net.cpp:163] Memory required for data: 20890400
I0704 08:07:47.814287 27993 layer_factory.hpp:77] Creating layer conv1b
I0704 08:07:47.814291 27993 net.cpp:98] Creating Layer conv1b
I0704 08:07:47.814307 27993 net.cpp:439] conv1b <- conv1a/bn
I0704 08:07:47.814311 27993 net.cpp:413] conv1b -> conv1b
I0704 08:07:47.814503 27993 net.cpp:148] Setting up conv1b
I0704 08:07:47.814509 27993 net.cpp:155] Top shape: 50 32 32 32 (1638400)
I0704 08:07:47.814512 27993 net.cpp:163] Memory required for data: 27444000
I0704 08:07:47.814515 27993 layer_factory.hpp:77] Creating layer conv1b/bn
I0704 08:07:47.814519 27993 net.cpp:98] Creating Layer conv1b/bn
I0704 08:07:47.814522 27993 net.cpp:439] conv1b/bn <- conv1b
I0704 08:07:47.814523 27993 net.cpp:413] conv1b/bn -> conv1b/bn
I0704 08:07:47.814816 27993 net.cpp:148] Setting up conv1b/bn
I0704 08:07:47.814821 27993 net.cpp:155] Top shape: 50 32 32 32 (1638400)
I0704 08:07:47.814823 27993 net.cpp:163] Memory required for data: 33997600
I0704 08:07:47.814828 27993 layer_factory.hpp:77] Creating layer conv1b/relu
I0704 08:07:47.814831 27993 net.cpp:98] Creating Layer conv1b/relu
I0704 08:07:47.814833 27993 net.cpp:439] conv1b/relu <- conv1b/bn
I0704 08:07:47.814836 27993 net.cpp:400] conv1b/relu -> conv1b/bn (in-place)
I0704 08:07:47.814839 27993 net.cpp:148] Setting up conv1b/relu
I0704 08:07:47.814841 27993 net.cpp:155] Top shape: 50 32 32 32 (1638400)
I0704 08:07:47.814843 27993 net.cpp:163] Memory required for data: 40551200
I0704 08:07:47.814844 27993 layer_factory.hpp:77] Creating layer pool1
I0704 08:07:47.814849 27993 net.cpp:98] Creating Layer pool1
I0704 08:07:47.814851 27993 net.cpp:439] pool1 <- conv1b/bn
I0704 08:07:47.814854 27993 net.cpp:413] pool1 -> pool1
I0704 08:07:47.814882 27993 net.cpp:148] Setting up pool1
I0704 08:07:47.814885 27993 net.cpp:155] Top shape: 50 32 32 32 (1638400)
I0704 08:07:47.814888 27993 net.cpp:163] Memory required for data: 47104800
I0704 08:07:47.814889 27993 layer_factory.hpp:77] Creating layer res2a_branch2a
I0704 08:07:47.814900 27993 net.cpp:98] Creating Layer res2a_branch2a
I0704 08:07:47.814903 27993 net.cpp:439] res2a_branch2a <- pool1
I0704 08:07:47.814905 27993 net.cpp:413] res2a_branch2a -> res2a_branch2a
I0704 08:07:47.816004 27993 net.cpp:148] Setting up res2a_branch2a
I0704 08:07:47.816012 27993 net.cpp:155] Top shape: 50 64 32 32 (3276800)
I0704 08:07:47.816015 27993 net.cpp:163] Memory required for data: 60212000
I0704 08:07:47.816020 27993 layer_factory.hpp:77] Creating layer res2a_branch2a/bn
I0704 08:07:47.816023 27993 net.cpp:98] Creating Layer res2a_branch2a/bn
I0704 08:07:47.816025 27993 net.cpp:439] res2a_branch2a/bn <- res2a_branch2a
I0704 08:07:47.816028 27993 net.cpp:413] res2a_branch2a/bn -> res2a_branch2a/bn
I0704 08:07:47.816316 27993 net.cpp:148] Setting up res2a_branch2a/bn
I0704 08:07:47.816323 27993 net.cpp:155] Top shape: 50 64 32 32 (3276800)
I0704 08:07:47.816324 27993 net.cpp:163] Memory required for data: 73319200
I0704 08:07:47.816329 27993 layer_factory.hpp:77] Creating layer res2a_branch2a/relu
I0704 08:07:47.816331 27993 net.cpp:98] Creating Layer res2a_branch2a/relu
I0704 08:07:47.816334 27993 net.cpp:439] res2a_branch2a/relu <- res2a_branch2a/bn
I0704 08:07:47.816336 27993 net.cpp:400] res2a_branch2a/relu -> res2a_branch2a/bn (in-place)
I0704 08:07:47.816339 27993 net.cpp:148] Setting up res2a_branch2a/relu
I0704 08:07:47.816342 27993 net.cpp:155] Top shape: 50 64 32 32 (3276800)
I0704 08:07:47.816344 27993 net.cpp:163] Memory required for data: 86426400
I0704 08:07:47.816345 27993 layer_factory.hpp:77] Creating layer res2a_branch2b
I0704 08:07:47.816349 27993 net.cpp:98] Creating Layer res2a_branch2b
I0704 08:07:47.816351 27993 net.cpp:439] res2a_branch2b <- res2a_branch2a/bn
I0704 08:07:47.816354 27993 net.cpp:413] res2a_branch2b -> res2a_branch2b
I0704 08:07:47.817205 27993 net.cpp:148] Setting up res2a_branch2b
I0704 08:07:47.817214 27993 net.cpp:155] Top shape: 50 64 32 32 (3276800)
I0704 08:07:47.817215 27993 net.cpp:163] Memory required for data: 99533600
I0704 08:07:47.817219 27993 layer_factory.hpp:77] Creating layer res2a_branch2b/bn
I0704 08:07:47.817224 27993 net.cpp:98] Creating Layer res2a_branch2b/bn
I0704 08:07:47.817226 27993 net.cpp:439] res2a_branch2b/bn <- res2a_branch2b
I0704 08:07:47.817235 27993 net.cpp:413] res2a_branch2b/bn -> res2a_branch2b/bn
I0704 08:07:47.817610 27993 net.cpp:148] Setting up res2a_branch2b/bn
I0704 08:07:47.817617 27993 net.cpp:155] Top shape: 50 64 32 32 (3276800)
I0704 08:07:47.817620 27993 net.cpp:163] Memory required for data: 112640800
I0704 08:07:47.817625 27993 layer_factory.hpp:77] Creating layer res2a_branch2b/relu
I0704 08:07:47.817627 27993 net.cpp:98] Creating Layer res2a_branch2b/relu
I0704 08:07:47.817629 27993 net.cpp:439] res2a_branch2b/relu <- res2a_branch2b/bn
I0704 08:07:47.817632 27993 net.cpp:400] res2a_branch2b/relu -> res2a_branch2b/bn (in-place)
I0704 08:07:47.817636 27993 net.cpp:148] Setting up res2a_branch2b/relu
I0704 08:07:47.817638 27993 net.cpp:155] Top shape: 50 64 32 32 (3276800)
I0704 08:07:47.817639 27993 net.cpp:163] Memory required for data: 125748000
I0704 08:07:47.817641 27993 layer_factory.hpp:77] Creating layer pool2
I0704 08:07:47.817646 27993 net.cpp:98] Creating Layer pool2
I0704 08:07:47.817647 27993 net.cpp:439] pool2 <- res2a_branch2b/bn
I0704 08:07:47.817651 27993 net.cpp:413] pool2 -> pool2
I0704 08:07:47.817667 27993 net.cpp:148] Setting up pool2
I0704 08:07:47.817672 27993 net.cpp:155] Top shape: 50 64 16 16 (819200)
I0704 08:07:47.817673 27993 net.cpp:163] Memory required for data: 129024800
I0704 08:07:47.817675 27993 layer_factory.hpp:77] Creating layer res3a_branch2a
I0704 08:07:47.817682 27993 net.cpp:98] Creating Layer res3a_branch2a
I0704 08:07:47.817684 27993 net.cpp:439] res3a_branch2a <- pool2
I0704 08:07:47.817687 27993 net.cpp:413] res3a_branch2a -> res3a_branch2a
I0704 08:07:47.819794 27993 net.cpp:148] Setting up res3a_branch2a
I0704 08:07:47.819803 27993 net.cpp:155] Top shape: 50 128 16 16 (1638400)
I0704 08:07:47.819805 27993 net.cpp:163] Memory required for data: 135578400
I0704 08:07:47.819809 27993 layer_factory.hpp:77] Creating layer res3a_branch2a/bn
I0704 08:07:47.819818 27993 net.cpp:98] Creating Layer res3a_branch2a/bn
I0704 08:07:47.819819 27993 net.cpp:439] res3a_branch2a/bn <- res3a_branch2a
I0704 08:07:47.819823 27993 net.cpp:413] res3a_branch2a/bn -> res3a_branch2a/bn
I0704 08:07:47.820077 27993 net.cpp:148] Setting up res3a_branch2a/bn
I0704 08:07:47.820082 27993 net.cpp:155] Top shape: 50 128 16 16 (1638400)
I0704 08:07:47.820085 27993 net.cpp:163] Memory required for data: 142132000
I0704 08:07:47.820091 27993 layer_factory.hpp:77] Creating layer res3a_branch2a/relu
I0704 08:07:47.820094 27993 net.cpp:98] Creating Layer res3a_branch2a/relu
I0704 08:07:47.820097 27993 net.cpp:439] res3a_branch2a/relu <- res3a_branch2a/bn
I0704 08:07:47.820099 27993 net.cpp:400] res3a_branch2a/relu -> res3a_branch2a/bn (in-place)
I0704 08:07:47.820102 27993 net.cpp:148] Setting up res3a_branch2a/relu
I0704 08:07:47.820106 27993 net.cpp:155] Top shape: 50 128 16 16 (1638400)
I0704 08:07:47.820106 27993 net.cpp:163] Memory required for data: 148685600
I0704 08:07:47.820108 27993 layer_factory.hpp:77] Creating layer res3a_branch2b
I0704 08:07:47.820112 27993 net.cpp:98] Creating Layer res3a_branch2b
I0704 08:07:47.820116 27993 net.cpp:439] res3a_branch2b <- res3a_branch2a/bn
I0704 08:07:47.820118 27993 net.cpp:413] res3a_branch2b -> res3a_branch2b
I0704 08:07:47.820969 27993 net.cpp:148] Setting up res3a_branch2b
I0704 08:07:47.820976 27993 net.cpp:155] Top shape: 50 128 16 16 (1638400)
I0704 08:07:47.820977 27993 net.cpp:163] Memory required for data: 155239200
I0704 08:07:47.820981 27993 layer_factory.hpp:77] Creating layer res3a_branch2b/bn
I0704 08:07:47.820984 27993 net.cpp:98] Creating Layer res3a_branch2b/bn
I0704 08:07:47.820987 27993 net.cpp:439] res3a_branch2b/bn <- res3a_branch2b
I0704 08:07:47.820989 27993 net.cpp:413] res3a_branch2b/bn -> res3a_branch2b/bn
I0704 08:07:47.821244 27993 net.cpp:148] Setting up res3a_branch2b/bn
I0704 08:07:47.821249 27993 net.cpp:155] Top shape: 50 128 16 16 (1638400)
I0704 08:07:47.821250 27993 net.cpp:163] Memory required for data: 161792800
I0704 08:07:47.821254 27993 layer_factory.hpp:77] Creating layer res3a_branch2b/relu
I0704 08:07:47.821264 27993 net.cpp:98] Creating Layer res3a_branch2b/relu
I0704 08:07:47.821267 27993 net.cpp:439] res3a_branch2b/relu <- res3a_branch2b/bn
I0704 08:07:47.821269 27993 net.cpp:400] res3a_branch2b/relu -> res3a_branch2b/bn (in-place)
I0704 08:07:47.821274 27993 net.cpp:148] Setting up res3a_branch2b/relu
I0704 08:07:47.821276 27993 net.cpp:155] Top shape: 50 128 16 16 (1638400)
I0704 08:07:47.821279 27993 net.cpp:163] Memory required for data: 168346400
I0704 08:07:47.821280 27993 layer_factory.hpp:77] Creating layer pool3
I0704 08:07:47.821285 27993 net.cpp:98] Creating Layer pool3
I0704 08:07:47.821286 27993 net.cpp:439] pool3 <- res3a_branch2b/bn
I0704 08:07:47.821288 27993 net.cpp:413] pool3 -> pool3
I0704 08:07:47.821310 27993 net.cpp:148] Setting up pool3
I0704 08:07:47.821315 27993 net.cpp:155] Top shape: 50 128 16 16 (1638400)
I0704 08:07:47.821316 27993 net.cpp:163] Memory required for data: 174900000
I0704 08:07:47.821318 27993 layer_factory.hpp:77] Creating layer res4a_branch2a
I0704 08:07:47.821322 27993 net.cpp:98] Creating Layer res4a_branch2a
I0704 08:07:47.821324 27993 net.cpp:439] res4a_branch2a <- pool3
I0704 08:07:47.821327 27993 net.cpp:413] res4a_branch2a -> res4a_branch2a
I0704 08:07:47.827198 27993 net.cpp:148] Setting up res4a_branch2a
I0704 08:07:47.827204 27993 net.cpp:155] Top shape: 50 256 16 16 (3276800)
I0704 08:07:47.827206 27993 net.cpp:163] Memory required for data: 188007200
I0704 08:07:47.827209 27993 layer_factory.hpp:77] Creating layer res4a_branch2a/bn
I0704 08:07:47.827214 27993 net.cpp:98] Creating Layer res4a_branch2a/bn
I0704 08:07:47.827216 27993 net.cpp:439] res4a_branch2a/bn <- res4a_branch2a
I0704 08:07:47.827219 27993 net.cpp:413] res4a_branch2a/bn -> res4a_branch2a/bn
I0704 08:07:47.827472 27993 net.cpp:148] Setting up res4a_branch2a/bn
I0704 08:07:47.827477 27993 net.cpp:155] Top shape: 50 256 16 16 (3276800)
I0704 08:07:47.827479 27993 net.cpp:163] Memory required for data: 201114400
I0704 08:07:47.827486 27993 layer_factory.hpp:77] Creating layer res4a_branch2a/relu
I0704 08:07:47.827488 27993 net.cpp:98] Creating Layer res4a_branch2a/relu
I0704 08:07:47.827491 27993 net.cpp:439] res4a_branch2a/relu <- res4a_branch2a/bn
I0704 08:07:47.827494 27993 net.cpp:400] res4a_branch2a/relu -> res4a_branch2a/bn (in-place)
I0704 08:07:47.827498 27993 net.cpp:148] Setting up res4a_branch2a/relu
I0704 08:07:47.827502 27993 net.cpp:155] Top shape: 50 256 16 16 (3276800)
I0704 08:07:47.827503 27993 net.cpp:163] Memory required for data: 214221600
I0704 08:07:47.827505 27993 layer_factory.hpp:77] Creating layer res4a_branch2b
I0704 08:07:47.827510 27993 net.cpp:98] Creating Layer res4a_branch2b
I0704 08:07:47.827512 27993 net.cpp:439] res4a_branch2b <- res4a_branch2a/bn
I0704 08:07:47.827515 27993 net.cpp:413] res4a_branch2b -> res4a_branch2b
I0704 08:07:47.830515 27993 net.cpp:148] Setting up res4a_branch2b
I0704 08:07:47.830520 27993 net.cpp:155] Top shape: 50 256 16 16 (3276800)
I0704 08:07:47.830523 27993 net.cpp:163] Memory required for data: 227328800
I0704 08:07:47.830526 27993 layer_factory.hpp:77] Creating layer res4a_branch2b/bn
I0704 08:07:47.830530 27993 net.cpp:98] Creating Layer res4a_branch2b/bn
I0704 08:07:47.830533 27993 net.cpp:439] res4a_branch2b/bn <- res4a_branch2b
I0704 08:07:47.830538 27993 net.cpp:413] res4a_branch2b/bn -> res4a_branch2b/bn
I0704 08:07:47.830788 27993 net.cpp:148] Setting up res4a_branch2b/bn
I0704 08:07:47.830792 27993 net.cpp:155] Top shape: 50 256 16 16 (3276800)
I0704 08:07:47.830796 27993 net.cpp:163] Memory required for data: 240436000
I0704 08:07:47.830801 27993 layer_factory.hpp:77] Creating layer res4a_branch2b/relu
I0704 08:07:47.830803 27993 net.cpp:98] Creating Layer res4a_branch2b/relu
I0704 08:07:47.830806 27993 net.cpp:439] res4a_branch2b/relu <- res4a_branch2b/bn
I0704 08:07:47.830809 27993 net.cpp:400] res4a_branch2b/relu -> res4a_branch2b/bn (in-place)
I0704 08:07:47.830813 27993 net.cpp:148] Setting up res4a_branch2b/relu
I0704 08:07:47.830816 27993 net.cpp:155] Top shape: 50 256 16 16 (3276800)
I0704 08:07:47.830823 27993 net.cpp:163] Memory required for data: 253543200
I0704 08:07:47.830826 27993 layer_factory.hpp:77] Creating layer pool4
I0704 08:07:47.830831 27993 net.cpp:98] Creating Layer pool4
I0704 08:07:47.830833 27993 net.cpp:439] pool4 <- res4a_branch2b/bn
I0704 08:07:47.830835 27993 net.cpp:413] pool4 -> pool4
I0704 08:07:47.830853 27993 net.cpp:148] Setting up pool4
I0704 08:07:47.830857 27993 net.cpp:155] Top shape: 50 256 8 8 (819200)
I0704 08:07:47.830859 27993 net.cpp:163] Memory required for data: 256820000
I0704 08:07:47.830862 27993 layer_factory.hpp:77] Creating layer res5a_branch2a
I0704 08:07:47.830865 27993 net.cpp:98] Creating Layer res5a_branch2a
I0704 08:07:47.830868 27993 net.cpp:439] res5a_branch2a <- pool4
I0704 08:07:47.830871 27993 net.cpp:413] res5a_branch2a -> res5a_branch2a
I0704 08:07:47.854976 27993 net.cpp:148] Setting up res5a_branch2a
I0704 08:07:47.854991 27993 net.cpp:155] Top shape: 50 512 8 8 (1638400)
I0704 08:07:47.854995 27993 net.cpp:163] Memory required for data: 263373600
I0704 08:07:47.855000 27993 layer_factory.hpp:77] Creating layer res5a_branch2a/bn
I0704 08:07:47.855006 27993 net.cpp:98] Creating Layer res5a_branch2a/bn
I0704 08:07:47.855010 27993 net.cpp:439] res5a_branch2a/bn <- res5a_branch2a
I0704 08:07:47.855013 27993 net.cpp:413] res5a_branch2a/bn -> res5a_branch2a/bn
I0704 08:07:47.855293 27993 net.cpp:148] Setting up res5a_branch2a/bn
I0704 08:07:47.855298 27993 net.cpp:155] Top shape: 50 512 8 8 (1638400)
I0704 08:07:47.855300 27993 net.cpp:163] Memory required for data: 269927200
I0704 08:07:47.855305 27993 layer_factory.hpp:77] Creating layer res5a_branch2a/relu
I0704 08:07:47.855309 27993 net.cpp:98] Creating Layer res5a_branch2a/relu
I0704 08:07:47.855310 27993 net.cpp:439] res5a_branch2a/relu <- res5a_branch2a/bn
I0704 08:07:47.855314 27993 net.cpp:400] res5a_branch2a/relu -> res5a_branch2a/bn (in-place)
I0704 08:07:47.855316 27993 net.cpp:148] Setting up res5a_branch2a/relu
I0704 08:07:47.855319 27993 net.cpp:155] Top shape: 50 512 8 8 (1638400)
I0704 08:07:47.855320 27993 net.cpp:163] Memory required for data: 276480800
I0704 08:07:47.855322 27993 layer_factory.hpp:77] Creating layer res5a_branch2b
I0704 08:07:47.855326 27993 net.cpp:98] Creating Layer res5a_branch2b
I0704 08:07:47.855329 27993 net.cpp:439] res5a_branch2b <- res5a_branch2a/bn
I0704 08:07:47.855331 27993 net.cpp:413] res5a_branch2b -> res5a_branch2b
I0704 08:07:47.867575 27993 net.cpp:148] Setting up res5a_branch2b
I0704 08:07:47.867584 27993 net.cpp:155] Top shape: 50 512 8 8 (1638400)
I0704 08:07:47.867588 27993 net.cpp:163] Memory required for data: 283034400
I0704 08:07:47.867594 27993 layer_factory.hpp:77] Creating layer res5a_branch2b/bn
I0704 08:07:47.867599 27993 net.cpp:98] Creating Layer res5a_branch2b/bn
I0704 08:07:47.867602 27993 net.cpp:439] res5a_branch2b/bn <- res5a_branch2b
I0704 08:07:47.867605 27993 net.cpp:413] res5a_branch2b/bn -> res5a_branch2b/bn
I0704 08:07:47.867892 27993 net.cpp:148] Setting up res5a_branch2b/bn
I0704 08:07:47.867897 27993 net.cpp:155] Top shape: 50 512 8 8 (1638400)
I0704 08:07:47.867899 27993 net.cpp:163] Memory required for data: 289588000
I0704 08:07:47.867904 27993 layer_factory.hpp:77] Creating layer res5a_branch2b/relu
I0704 08:07:47.867908 27993 net.cpp:98] Creating Layer res5a_branch2b/relu
I0704 08:07:47.867910 27993 net.cpp:439] res5a_branch2b/relu <- res5a_branch2b/bn
I0704 08:07:47.867913 27993 net.cpp:400] res5a_branch2b/relu -> res5a_branch2b/bn (in-place)
I0704 08:07:47.867916 27993 net.cpp:148] Setting up res5a_branch2b/relu
I0704 08:07:47.867918 27993 net.cpp:155] Top shape: 50 512 8 8 (1638400)
I0704 08:07:47.867920 27993 net.cpp:163] Memory required for data: 296141600
I0704 08:07:47.867921 27993 layer_factory.hpp:77] Creating layer pool5
I0704 08:07:47.867928 27993 net.cpp:98] Creating Layer pool5
I0704 08:07:47.867929 27993 net.cpp:439] pool5 <- res5a_branch2b/bn
I0704 08:07:47.867931 27993 net.cpp:413] pool5 -> pool5
I0704 08:07:47.867949 27993 net.cpp:148] Setting up pool5
I0704 08:07:47.867954 27993 net.cpp:155] Top shape: 50 512 1 1 (25600)
I0704 08:07:47.867962 27993 net.cpp:163] Memory required for data: 296244000
I0704 08:07:47.867964 27993 layer_factory.hpp:77] Creating layer fc10
I0704 08:07:47.867972 27993 net.cpp:98] Creating Layer fc10
I0704 08:07:47.867974 27993 net.cpp:439] fc10 <- pool5
I0704 08:07:47.867977 27993 net.cpp:413] fc10 -> fc10
I0704 08:07:47.868134 27993 net.cpp:148] Setting up fc10
I0704 08:07:47.868139 27993 net.cpp:155] Top shape: 50 10 (500)
I0704 08:07:47.868140 27993 net.cpp:163] Memory required for data: 296246000
I0704 08:07:47.868144 27993 layer_factory.hpp:77] Creating layer fc10_fc10_0_split
I0704 08:07:47.868147 27993 net.cpp:98] Creating Layer fc10_fc10_0_split
I0704 08:07:47.868149 27993 net.cpp:439] fc10_fc10_0_split <- fc10
I0704 08:07:47.868152 27993 net.cpp:413] fc10_fc10_0_split -> fc10_fc10_0_split_0
I0704 08:07:47.868155 27993 net.cpp:413] fc10_fc10_0_split -> fc10_fc10_0_split_1
I0704 08:07:47.868158 27993 net.cpp:413] fc10_fc10_0_split -> fc10_fc10_0_split_2
I0704 08:07:47.868188 27993 net.cpp:148] Setting up fc10_fc10_0_split
I0704 08:07:47.868192 27993 net.cpp:155] Top shape: 50 10 (500)
I0704 08:07:47.868194 27993 net.cpp:155] Top shape: 50 10 (500)
I0704 08:07:47.868196 27993 net.cpp:155] Top shape: 50 10 (500)
I0704 08:07:47.868198 27993 net.cpp:163] Memory required for data: 296252000
I0704 08:07:47.868201 27993 layer_factory.hpp:77] Creating layer loss
I0704 08:07:47.868206 27993 net.cpp:98] Creating Layer loss
I0704 08:07:47.868207 27993 net.cpp:439] loss <- fc10_fc10_0_split_0
I0704 08:07:47.868211 27993 net.cpp:439] loss <- label_data_1_split_0
I0704 08:07:47.868212 27993 net.cpp:413] loss -> loss
…
