…
I0702 08:21:35.869652 28838 caffe.cpp:273] Use GPU with device ID 0
I0702 08:21:35.870306 28838 caffe.cpp:277] GPU device name: GeForce GTX 1080
I0702 08:21:36.320430 28838 net.cpp:56] Initializing net from parameters: 
name: "jacintonet11v2_test"
state {
  phase: TEST
}
layer {
  name: "data"
  type: "Data"
  top: "data"
  top: "label"
  transform_param {
    mirror: false
    crop_size: 224
    mean_value: 0
    mean_value: 0
    mean_value: 0
  }
  data_param {
    source: "./data/ilsvrc12_val_lmdb"
    batch_size: 50
    backend: LMDB
    threads: 1
  }
}
layer {
  name: "data/bias"
  type: "Bias"
  bottom: "data"
  top: "data/bias"
  param {
    lr_mult: 0
    decay_mult: 0
  }
  bias_param {
    filler {
      type: "constant"
      value: -128
    }
  }
}
layer {
  name: "conv1a"
  type: "Convolution"
  bottom: "data/bias"
  top: "conv1a"
  param {
    lr_mult: 1
    decay_mult: 1
  }
  param {
    lr_mult: 2
    decay_mult: 0
  }
  convolution_param {
    num_output: 32
    bias_term: true
    pad: 2
    kernel_size: 5
    group: 1
    stride: 2
    weight_filler {
      type: "msra"
    }
    bias_filler {
      type: "constant"
      value: 0
    }
    dilation: 1
  }
}
layer {
  name: "conv1a/bn"
  type: "BatchNorm"
  bottom: "conv1a"
  top: "conv1a/bn"
  param {
    lr_mult: 1
    decay_mult: 1
  }
  param {
    lr_mult: 1
    decay_mult: 1
  }
  param {
    lr_mult: 0
    decay_mult: 0
  }
  param {
    lr_mult: 0
    decay_mult: 0
  }
  batch_norm_param {
    moving_average_fraction: 0.99
    eps: 0.0001
    scale_filler {
      type: "constant"
      value: 1
    }
    bias_filler {
      type: "constant"
      value: 0
    }
  }
}
layer {
  name: "conv1a/relu"
  type: "ReLU"
  bottom: "conv1a/bn"
  top: "conv1a/bn"
}
layer {
  name: "conv1b"
  type: "Convolution"
  bottom: "conv1a/bn"
  top: "conv1b"
  param {
    lr_mult: 1
    decay_mult: 1
  }
  param {
    lr_mult: 2
    decay_mult: 0
  }
  convolution_param {
    num_output: 32
    bias_term: true
    pad: 1
    kernel_size: 3
    group: 4
    stride: 1
    weight_filler {
      type: "msra"
    }
    bias_filler {
      type: "constant"
      value: 0
    }
    dilation: 1
  }
}
layer {
  name: "conv1b/bn"
  type: "BatchNorm"
  bottom: "conv1b"
  top: "conv1b/bn"
  param {
    lr_mult: 1
    decay_mult: 1
  }
  param {
    lr_mult: 1
    decay_mult: 1
  }
  param {
    lr_mult: 0
    decay_mult: 0
  }
  param {
    lr_mult: 0
    decay_mult: 0
  }
  batch_norm_param {
    moving_average_fraction: 0.99
    eps: 0.0001
    scale_filler {
      type: "constant"
      value: 1
    }
    bias_filler {
      type: "constant"
      value: 0
    }
  }
}
layer {
  name: "conv1b/relu"
  type: "ReLU"
  bottom: "conv1b/bn"
  top: "conv1b/bn"
}
layer {
  name: "pool1"
  type: "Pooling"
  bottom: "conv1b/bn"
  top: "pool1"
  pooling_param {
    pool: MAX
    kernel_size: 2
    stride: 2
  }
}
layer {
  name: "res2a_branch2a"
  type: "Convolution"
  bottom: "pool1"
  top: "res2a_branch2a"
  param {
    lr_mult: 1
    decay_mult: 1
  }
  param {
    lr_mult: 2
    decay_mult: 0
  }
  convolution_param {
    num_output: 64
    bias_term: true
    pad: 1
    kernel_size: 3
    group: 1
    stride: 1
    weight_filler {
      type: "msra"
    }
    bias_filler {
      type: "constant"
      value: 0
    }
    dilation: 1
  }
}
layer {
  name: "res2a_branch2a/bn"
  type: "BatchNorm"
  bottom: "res2a_branch2a"
  top: "res2a_branch2a/bn"
  param {
    lr_mult: 1
    decay_mult: 1
  }
  param {
    lr_mult: 1
    decay_mult: 1
  }
  param {
    lr_mult: 0
    decay_mult: 0
  }
  param {
    lr_mult: 0
    decay_mult: 0
  }
  batch_norm_param {
    moving_average_fraction: 0.99
    eps: 0.0001
    scale_filler {
      type: "constant"
      value: 1
    }
    bias_filler {
      type: "constant"
      value: 0
    }
  }
}
layer {
  name: "res2a_branch2a/relu"
  type: "ReLU"
  bottom: "res2a_branch2a/bn"
  top: "res2a_branch2a/bn"
}
layer {
  name: "res2a_branch2b"
  type: "Convolution"
  bottom: "res2a_branch2a/bn"
  top: "res2a_branch2b"
  param {
    lr_mult: 1
    decay_mult: 1
  }
  param {
    lr_mult: 2
    decay_mult: 0
  }
  convolution_param {
    num_output: 64
    bias_term: true
    pad: 1
    kernel_size: 3
    group: 4
    stride: 1
    weight_filler {
      type: "msra"
    }
    bias_filler {
      type: "constant"
      value: 0
    }
    dilation: 1
  }
}
layer {
  name: "res2a_branch2b/bn"
  type: "BatchNorm"
  bottom: "res2a_branch2b"
  top: "res2a_branch2b/bn"
  param {
    lr_mult: 1
    decay_mult: 1
  }
  param {
    lr_mult: 1
    decay_mult: 1
  }
  param {
    lr_mult: 0
    decay_mult: 0
  }
  param {
    lr_mult: 0
    decay_mult: 0
  }
  batch_norm_param {
    moving_average_fraction: 0.99
    eps: 0.0001
    scale_filler {
      type: "constant"
      value: 1
    }
    bias_filler {
      type: "constant"
      value: 0
    }
  }
}
layer {
  name: "res2a_branch2b/relu"
  type: "ReLU"
  bottom: "res2a_branch2b/bn"
  top: "res2a_branch2b/bn"
}
layer {
  name: "pool2"
  type: "Pooling"
  bottom: "res2a_branch2b/bn"
  top: "pool2"
  pooling_param {
    pool: MAX
    kernel_size: 2
    stride: 2
  }
}
layer {
  name: "res3a_branch2a"
  type: "Convolution"
  bottom: "pool2"
  top: "res3a_branch2a"
  param {
    lr_mult: 1
    decay_mult: 1
  }
  param {
    lr_mult: 2
    decay_mult: 0
  }
  convolution_param {
    num_output: 128
    bias_term: true
    pad: 1
    kernel_size: 3
    group: 1
    stride: 1
    weight_filler {
      type: "msra"
    }
    bias_filler {
      type: "constant"
      value: 0
    }
    dilation: 1
  }
}
layer {
  name: "res3a_branch2a/bn"
  type: "BatchNorm"
  bottom: "res3a_branch2a"
  top: "res3a_branch2a/bn"
  param {
    lr_mult: 1
    decay_mult: 1
  }
  param {
    lr_mult: 1
    decay_mult: 1
  }
  param {
    lr_mult: 0
    decay_mult: 0
  }
  param {
    lr_mult: 0
    decay_mult: 0
  }
  batch_norm_param {
    moving_average_fraction: 0.99
    eps: 0.0001
    scale_filler {
      type: "constant"
      value: 1
    }
    bias_filler {
      type: "constant"
      value: 0
    }
  }
}
layer {
  name: "res3a_branch2a/relu"
  type: "ReLU"
  bottom: "res3a_branch2a/bn"
  top: "res3a_branch2a/bn"
}
layer {
  name: "res3a_branch2b"
  type: "Convolution"
  bottom: "res3a_branch2a/bn"
  top: "res3a_branch2b"
  param {
    lr_mult: 1
    decay_mult: 1
  }
  param {
    lr_mult: 2
    decay_mult: 0
  }
  convolution_param {
    num_output: 128
    bias_term: true
    pad: 1
    kernel_size: 3
    group: 4
    stride: 1
    weight_filler {
      type: "msra"
    }
    bias_filler {
      type: "constant"
      value: 0
    }
    dilation: 1
  }
}
layer {
  name: "res3a_branch2b/bn"
  type: "BatchNorm"
  bottom: "res3a_branch2b"
  top: "res3a_branch2b/bn"
  param {
    lr_mult: 1
    decay_mult: 1
  }
  param {
    lr_mult: 1
    decay_mult: 1
  }
  param {
    lr_mult: 0
    decay_mult: 0
  }
  param {
    lr_mult: 0
    decay_mult: 0
  }
  batch_norm_param {
    moving_average_fraction: 0.99
    eps: 0.0001
    scale_filler {
      type: "constant"
      value: 1
    }
    bias_filler {
      type: "constant"
      value: 0
    }
  }
}
layer {
  name: "res3a_branch2b/relu"
  type: "ReLU"
  bottom: "res3a_branch2b/bn"
  top: "res3a_branch2b/bn"
}
layer {
  name: "pool3"
  type: "Pooling"
  bottom: "res3a_branch2b/bn"
  top: "pool3"
  pooling_param {
    pool: MAX
    kernel_size: 2
    stride: 2
  }
}
layer {
  name: "res4a_branch2a"
  type: "Convolution"
  bottom: "pool3"
  top: "res4a_branch2a"
  param {
    lr_mult: 1
    decay_mult: 1
  }
  param {
    lr_mult: 2
    decay_mult: 0
  }
  convolution_param {
    num_output: 256
    bias_term: true
    pad: 1
    kernel_size: 3
    group: 1
    stride: 1
    weight_filler {
      type: "msra"
    }
    bias_filler {
      type: "constant"
      value: 0
    }
    dilation: 1
  }
}
layer {
  name: "res4a_branch2a/bn"
  type: "BatchNorm"
  bottom: "res4a_branch2a"
  top: "res4a_branch2a/bn"
  param {
    lr_mult: 1
    decay_mult: 1
  }
  param {
    lr_mult: 1
    decay_mult: 1
  }
  param {
    lr_mult: 0
    decay_mult: 0
  }
  param {
    lr_mult: 0
    decay_mult: 0
  }
  batch_norm_param {
    moving_average_fraction: 0.99
    eps: 0.0001
    scale_filler {
      type: "constant"
      value: 1
    }
    bias_filler {
      type: "constant"
      value: 0
    }
  }
}
layer {
  name: "res4a_branch2a/relu"
  type: "ReLU"
  bottom: "res4a_branch2a/bn"
  top: "res4a_branch2a/bn"
}
layer {
  name: "res4a_branch2b"
  type: "Convolution"
  bottom: "res4a_branch2a/bn"
  top: "res4a_branch2b"
  param {
    lr_mult: 1
    decay_mult: 1
  }
  param {
    lr_mult: 2
    decay_mult: 0
  }
  convolution_param {
    num_output: 256
    bias_term: true
    pad: 1
    kernel_size: 3
    group: 4
    stride: 1
    weight_filler {
      type: "msra"
    }
    bias_filler {
      type: "constant"
      value: 0
    }
    dilation: 1
  }
}
layer {
  name: "res4a_branch2b/bn"
  type: "BatchNorm"
  bottom: "res4a_branch2b"
  top: "res4a_branch2b/bn"
  param {
    lr_mult: 1
    decay_mult: 1
  }
  param {
    lr_mult: 1
    decay_mult: 1
  }
  param {
    lr_mult: 0
    decay_mult: 0
  }
  param {
    lr_mult: 0
    decay_mult: 0
  }
  batch_norm_param {
    moving_average_fraction: 0.99
    eps: 0.0001
    scale_filler {
      type: "constant"
      value: 1
    }
    bias_filler {
      type: "constant"
      value: 0
    }
  }
}
layer {
  name: "res4a_branch2b/relu"
  type: "ReLU"
  bottom: "res4a_branch2b/bn"
  top: "res4a_branch2b/bn"
}
layer {
  name: "pool4"
  type: "Pooling"
  bottom: "res4a_branch2b/bn"
  top: "pool4"
  pooling_param {
    pool: MAX
    kernel_size: 2
    stride: 2
  }
}
layer {
  name: "res5a_branch2a"
  type: "Convolution"
  bottom: "pool4"
  top: "res5a_branch2a"
  param {
    lr_mult: 1
    decay_mult: 1
  }
  param {
    lr_mult: 2
    decay_mult: 0
  }
  convolution_param {
    num_output: 512
    bias_term: true
    pad: 1
    kernel_size: 3
    group: 1
    stride: 1
    weight_filler {
      type: "msra"
    }
    bias_filler {
      type: "constant"
      value: 0
    }
    dilation: 1
  }
}
layer {
  name: "res5a_branch2a/bn"
  type: "BatchNorm"
  bottom: "res5a_branch2a"
  top: "res5a_branch2a/bn"
  param {
    lr_mult: 1
    decay_mult: 1
  }
  param {
    lr_mult: 1
    decay_mult: 1
  }
  param {
    lr_mult: 0
    decay_mult: 0
  }
  param {
    lr_mult: 0
    decay_mult: 0
  }
  batch_norm_param {
    moving_average_fraction: 0.99
    eps: 0.0001
    scale_filler {
      type: "constant"
      value: 1
    }
    bias_filler {
      type: "constant"
      value: 0
    }
  }
}
layer {
  name: "res5a_branch2a/relu"
  type: "ReLU"
  bottom: "res5a_branch2a/bn"
  top: "res5a_branch2a/bn"
}
layer {
  name: "res5a_branch2b"
  type: "Convolution"
  bottom: "res5a_branch2a/bn"
  top: "res5a_branch2b"
  param {
    lr_mult: 1
    decay_mult: 1
  }
  param {
    lr_mult: 2
    decay_mult: 0
  }
  convolution_param {
    num_output: 512
    bias_term: true
    pad: 1
    kernel_size: 3
    group: 4
    stride: 1
    weight_filler {
      type: "msra"
    }
    bias_filler {
      type: "constant"
      value: 0
    }
    dilation: 1
  }
}
layer {
  name: "res5a_branch2b/bn"
  type: "BatchNorm"
  bottom: "res5a_branch2b"
  top: "res5a_branch2b/bn"
  param {
    lr_mult: 1
    decay_mult: 1
  }
  param {
    lr_mult: 1
    decay_mult: 1
  }
  param {
    lr_mult: 0
    decay_mult: 0
  }
  param {
    lr_mult: 0
    decay_mult: 0
  }
  batch_norm_param {
    moving_average_fraction: 0.99
    eps: 0.0001
    scale_filler {
      type: "constant"
      value: 1
    }
    bias_filler {
      type: "constant"
      value: 0
    }
  }
}
layer {
  name: "res5a_branch2b/relu"
  type: "ReLU"
  bottom: "res5a_branch2b/bn"
  top: "res5a_branch2b/bn"
}
layer {
  name: "pool5"
  type: "Pooling"
  bottom: "res5a_branch2b/bn"
  top: "pool5"
  pooling_param {
    pool: AVE
    global_pooling: true
  }
}
layer {
  name: "fc1000"
  type: "InnerProduct"
  bottom: "pool5"
  top: "fc1000"
  param {
    lr_mult: 1
    decay_mult: 1
  }
  param {
    lr_mult: 2
    decay_mult: 0
  }
  inner_product_param {
    num_output: 1000
    weight_filler {
      type: "msra"
    }
    bias_filler {
      type: "constant"
      value: 0
    }
  }
}
layer {
  name: "loss"
  type: "SoftmaxWithLoss"
  bottom: "fc1000"
  bottom: "label"
  top: "loss"
  propagate_down: true
  propagate_down: false
}
layer {
  name: "accuracy/top1"
  type: "Accuracy"
  bottom: "fc1000"
  bottom: "label"
  top: "accuracy/top1"
  include {
    phase: TEST
  }
}
layer {
  name: "accuracy/top5"
  type: "Accuracy"
  bottom: "fc1000"
  bottom: "label"
  top: "accuracy/top5"
  include {
    phase: TEST
  }
  accuracy_param {
    top_k: 5
  }
}
I0702 08:21:36.320564 28838 layer_factory.hpp:77] Creating layer data
I0702 08:21:36.320940 28838 net.cpp:98] Creating Layer data
I0702 08:21:36.320950 28838 net.cpp:413] data -> data
I0702 08:21:36.320966 28838 net.cpp:413] data -> label
I0702 08:21:36.321777 28864 db_lmdb.cpp:35] Opened lmdb ./data/ilsvrc12_val_lmdb
I0702 08:21:36.323740 28838 data_layer.cpp:78] ReshapePrefetch 50, 3, 224, 224
I0702 08:21:36.323783 28838 data_layer.cpp:83] output data size: 50,3,224,224
I0702 08:21:36.350539 28838 net.cpp:148] Setting up data
I0702 08:21:36.350558 28838 net.cpp:155] Top shape: 50 3 224 224 (7526400)
I0702 08:21:36.350563 28838 net.cpp:155] Top shape: 50 (50)
I0702 08:21:36.350564 28838 net.cpp:163] Memory required for data: 30105800
I0702 08:21:36.350572 28838 layer_factory.hpp:77] Creating layer label_data_1_split
I0702 08:21:36.350582 28838 net.cpp:98] Creating Layer label_data_1_split
I0702 08:21:36.350586 28838 net.cpp:439] label_data_1_split <- label
I0702 08:21:36.350594 28838 net.cpp:413] label_data_1_split -> label_data_1_split_0
I0702 08:21:36.350600 28838 net.cpp:413] label_data_1_split -> label_data_1_split_1
I0702 08:21:36.350603 28838 net.cpp:413] label_data_1_split -> label_data_1_split_2
I0702 08:21:36.350685 28838 net.cpp:148] Setting up label_data_1_split
I0702 08:21:36.350695 28838 net.cpp:155] Top shape: 50 (50)
I0702 08:21:36.350697 28838 net.cpp:155] Top shape: 50 (50)
I0702 08:21:36.350700 28838 net.cpp:155] Top shape: 50 (50)
I0702 08:21:36.350703 28838 net.cpp:163] Memory required for data: 30106400
I0702 08:21:36.350705 28838 layer_factory.hpp:77] Creating layer data/bias
I0702 08:21:36.350714 28838 net.cpp:98] Creating Layer data/bias
I0702 08:21:36.350718 28838 net.cpp:439] data/bias <- data
I0702 08:21:36.350720 28838 net.cpp:413] data/bias -> data/bias
I0702 08:21:36.351302 28838 net.cpp:148] Setting up data/bias
I0702 08:21:36.351310 28838 net.cpp:155] Top shape: 50 3 224 224 (7526400)
I0702 08:21:36.351313 28838 net.cpp:163] Memory required for data: 60212000
I0702 08:21:36.351322 28838 layer_factory.hpp:77] Creating layer conv1a
I0702 08:21:36.351330 28838 net.cpp:98] Creating Layer conv1a
I0702 08:21:36.351333 28838 net.cpp:439] conv1a <- data/bias
I0702 08:21:36.351336 28838 net.cpp:413] conv1a -> conv1a
I0702 08:21:36.352578 28838 net.cpp:148] Setting up conv1a
I0702 08:21:36.352588 28838 net.cpp:155] Top shape: 50 32 112 112 (20070400)
I0702 08:21:36.352591 28838 net.cpp:163] Memory required for data: 140493600
I0702 08:21:36.352597 28838 layer_factory.hpp:77] Creating layer conv1a/bn
I0702 08:21:36.352608 28838 net.cpp:98] Creating Layer conv1a/bn
I0702 08:21:36.352612 28838 net.cpp:439] conv1a/bn <- conv1a
I0702 08:21:36.352615 28838 net.cpp:413] conv1a/bn -> conv1a/bn
I0702 08:21:36.353088 28838 net.cpp:148] Setting up conv1a/bn
I0702 08:21:36.353094 28838 net.cpp:155] Top shape: 50 32 112 112 (20070400)
I0702 08:21:36.353096 28838 net.cpp:163] Memory required for data: 220775200
I0702 08:21:36.353103 28838 layer_factory.hpp:77] Creating layer conv1a/relu
I0702 08:21:36.353109 28838 net.cpp:98] Creating Layer conv1a/relu
I0702 08:21:36.353112 28838 net.cpp:439] conv1a/relu <- conv1a/bn
I0702 08:21:36.353116 28838 net.cpp:400] conv1a/relu -> conv1a/bn (in-place)
I0702 08:21:36.353127 28838 net.cpp:148] Setting up conv1a/relu
I0702 08:21:36.353129 28838 net.cpp:155] Top shape: 50 32 112 112 (20070400)
I0702 08:21:36.353132 28838 net.cpp:163] Memory required for data: 301056800
I0702 08:21:36.353133 28838 layer_factory.hpp:77] Creating layer conv1b
I0702 08:21:36.353155 28838 net.cpp:98] Creating Layer conv1b
I0702 08:21:36.353159 28838 net.cpp:439] conv1b <- conv1a/bn
I0702 08:21:36.353163 28838 net.cpp:413] conv1b -> conv1b
I0702 08:21:36.353364 28838 net.cpp:148] Setting up conv1b
I0702 08:21:36.353370 28838 net.cpp:155] Top shape: 50 32 112 112 (20070400)
I0702 08:21:36.353373 28838 net.cpp:163] Memory required for data: 381338400
I0702 08:21:36.353376 28838 layer_factory.hpp:77] Creating layer conv1b/bn
I0702 08:21:36.353381 28838 net.cpp:98] Creating Layer conv1b/bn
I0702 08:21:36.353384 28838 net.cpp:439] conv1b/bn <- conv1b
I0702 08:21:36.353386 28838 net.cpp:413] conv1b/bn -> conv1b/bn
I0702 08:21:36.353680 28838 net.cpp:148] Setting up conv1b/bn
I0702 08:21:36.353687 28838 net.cpp:155] Top shape: 50 32 112 112 (20070400)
I0702 08:21:36.353688 28838 net.cpp:163] Memory required for data: 461620000
I0702 08:21:36.353693 28838 layer_factory.hpp:77] Creating layer conv1b/relu
I0702 08:21:36.353698 28838 net.cpp:98] Creating Layer conv1b/relu
I0702 08:21:36.353699 28838 net.cpp:439] conv1b/relu <- conv1b/bn
I0702 08:21:36.353703 28838 net.cpp:400] conv1b/relu -> conv1b/bn (in-place)
I0702 08:21:36.353706 28838 net.cpp:148] Setting up conv1b/relu
I0702 08:21:36.353708 28838 net.cpp:155] Top shape: 50 32 112 112 (20070400)
I0702 08:21:36.353710 28838 net.cpp:163] Memory required for data: 541901600
I0702 08:21:36.353713 28838 layer_factory.hpp:77] Creating layer pool1
I0702 08:21:36.353718 28838 net.cpp:98] Creating Layer pool1
I0702 08:21:36.353720 28838 net.cpp:439] pool1 <- conv1b/bn
I0702 08:21:36.353723 28838 net.cpp:413] pool1 -> pool1
I0702 08:21:36.353755 28838 net.cpp:148] Setting up pool1
I0702 08:21:36.353761 28838 net.cpp:155] Top shape: 50 32 56 56 (5017600)
I0702 08:21:36.353765 28838 net.cpp:163] Memory required for data: 561972000
I0702 08:21:36.353768 28838 layer_factory.hpp:77] Creating layer res2a_branch2a
I0702 08:21:36.353777 28838 net.cpp:98] Creating Layer res2a_branch2a
I0702 08:21:36.353781 28838 net.cpp:439] res2a_branch2a <- pool1
I0702 08:21:36.353786 28838 net.cpp:413] res2a_branch2a -> res2a_branch2a
I0702 08:21:36.356580 28838 net.cpp:148] Setting up res2a_branch2a
I0702 08:21:36.356590 28838 net.cpp:155] Top shape: 50 64 56 56 (10035200)
I0702 08:21:36.356592 28838 net.cpp:163] Memory required for data: 602112800
I0702 08:21:36.356600 28838 layer_factory.hpp:77] Creating layer res2a_branch2a/bn
I0702 08:21:36.356606 28838 net.cpp:98] Creating Layer res2a_branch2a/bn
I0702 08:21:36.356609 28838 net.cpp:439] res2a_branch2a/bn <- res2a_branch2a
I0702 08:21:36.356616 28838 net.cpp:413] res2a_branch2a/bn -> res2a_branch2a/bn
I0702 08:21:36.356904 28838 net.cpp:148] Setting up res2a_branch2a/bn
I0702 08:21:36.356910 28838 net.cpp:155] Top shape: 50 64 56 56 (10035200)
I0702 08:21:36.356914 28838 net.cpp:163] Memory required for data: 642253600
I0702 08:21:36.356923 28838 layer_factory.hpp:77] Creating layer res2a_branch2a/relu
I0702 08:21:36.356927 28838 net.cpp:98] Creating Layer res2a_branch2a/relu
I0702 08:21:36.356931 28838 net.cpp:439] res2a_branch2a/relu <- res2a_branch2a/bn
I0702 08:21:36.356935 28838 net.cpp:400] res2a_branch2a/relu -> res2a_branch2a/bn (in-place)
I0702 08:21:36.356941 28838 net.cpp:148] Setting up res2a_branch2a/relu
I0702 08:21:36.356945 28838 net.cpp:155] Top shape: 50 64 56 56 (10035200)
I0702 08:21:36.356950 28838 net.cpp:163] Memory required for data: 682394400
I0702 08:21:36.356953 28838 layer_factory.hpp:77] Creating layer res2a_branch2b
I0702 08:21:36.356959 28838 net.cpp:98] Creating Layer res2a_branch2b
I0702 08:21:36.356963 28838 net.cpp:439] res2a_branch2b <- res2a_branch2a/bn
I0702 08:21:36.356967 28838 net.cpp:413] res2a_branch2b -> res2a_branch2b
I0702 08:21:36.357270 28838 net.cpp:148] Setting up res2a_branch2b
I0702 08:21:36.357276 28838 net.cpp:155] Top shape: 50 64 56 56 (10035200)
I0702 08:21:36.357280 28838 net.cpp:163] Memory required for data: 722535200
I0702 08:21:36.357286 28838 layer_factory.hpp:77] Creating layer res2a_branch2b/bn
I0702 08:21:36.357292 28838 net.cpp:98] Creating Layer res2a_branch2b/bn
I0702 08:21:36.357301 28838 net.cpp:439] res2a_branch2b/bn <- res2a_branch2b
I0702 08:21:36.357307 28838 net.cpp:413] res2a_branch2b/bn -> res2a_branch2b/bn
I0702 08:21:36.357605 28838 net.cpp:148] Setting up res2a_branch2b/bn
I0702 08:21:36.357612 28838 net.cpp:155] Top shape: 50 64 56 56 (10035200)
I0702 08:21:36.357616 28838 net.cpp:163] Memory required for data: 762676000
I0702 08:21:36.357625 28838 layer_factory.hpp:77] Creating layer res2a_branch2b/relu
I0702 08:21:36.357630 28838 net.cpp:98] Creating Layer res2a_branch2b/relu
I0702 08:21:36.357633 28838 net.cpp:439] res2a_branch2b/relu <- res2a_branch2b/bn
I0702 08:21:36.357637 28838 net.cpp:400] res2a_branch2b/relu -> res2a_branch2b/bn (in-place)
I0702 08:21:36.357643 28838 net.cpp:148] Setting up res2a_branch2b/relu
I0702 08:21:36.357648 28838 net.cpp:155] Top shape: 50 64 56 56 (10035200)
I0702 08:21:36.357651 28838 net.cpp:163] Memory required for data: 802816800
I0702 08:21:36.357656 28838 layer_factory.hpp:77] Creating layer pool2
I0702 08:21:36.357661 28838 net.cpp:98] Creating Layer pool2
I0702 08:21:36.357666 28838 net.cpp:439] pool2 <- res2a_branch2b/bn
I0702 08:21:36.357669 28838 net.cpp:413] pool2 -> pool2
I0702 08:21:36.357689 28838 net.cpp:148] Setting up pool2
I0702 08:21:36.357694 28838 net.cpp:155] Top shape: 50 64 28 28 (2508800)
I0702 08:21:36.357698 28838 net.cpp:163] Memory required for data: 812852000
I0702 08:21:36.357702 28838 layer_factory.hpp:77] Creating layer res3a_branch2a
I0702 08:21:36.357712 28838 net.cpp:98] Creating Layer res3a_branch2a
I0702 08:21:36.357717 28838 net.cpp:439] res3a_branch2a <- pool2
I0702 08:21:36.357722 28838 net.cpp:413] res3a_branch2a -> res3a_branch2a
I0702 08:21:36.360360 28838 net.cpp:148] Setting up res3a_branch2a
I0702 08:21:36.360371 28838 net.cpp:155] Top shape: 50 128 28 28 (5017600)
I0702 08:21:36.360374 28838 net.cpp:163] Memory required for data: 832922400
I0702 08:21:36.360381 28838 layer_factory.hpp:77] Creating layer res3a_branch2a/bn
I0702 08:21:36.360388 28838 net.cpp:98] Creating Layer res3a_branch2a/bn
I0702 08:21:36.360391 28838 net.cpp:439] res3a_branch2a/bn <- res3a_branch2a
I0702 08:21:36.360397 28838 net.cpp:413] res3a_branch2a/bn -> res3a_branch2a/bn
I0702 08:21:36.360671 28838 net.cpp:148] Setting up res3a_branch2a/bn
I0702 08:21:36.360677 28838 net.cpp:155] Top shape: 50 128 28 28 (5017600)
I0702 08:21:36.360682 28838 net.cpp:163] Memory required for data: 852992800
I0702 08:21:36.360690 28838 layer_factory.hpp:77] Creating layer res3a_branch2a/relu
I0702 08:21:36.360695 28838 net.cpp:98] Creating Layer res3a_branch2a/relu
I0702 08:21:36.360699 28838 net.cpp:439] res3a_branch2a/relu <- res3a_branch2a/bn
I0702 08:21:36.360704 28838 net.cpp:400] res3a_branch2a/relu -> res3a_branch2a/bn (in-place)
I0702 08:21:36.360710 28838 net.cpp:148] Setting up res3a_branch2a/relu
I0702 08:21:36.360714 28838 net.cpp:155] Top shape: 50 128 28 28 (5017600)
I0702 08:21:36.360718 28838 net.cpp:163] Memory required for data: 873063200
I0702 08:21:36.360723 28838 layer_factory.hpp:77] Creating layer res3a_branch2b
I0702 08:21:36.360729 28838 net.cpp:98] Creating Layer res3a_branch2b
I0702 08:21:36.360733 28838 net.cpp:439] res3a_branch2b <- res3a_branch2a/bn
I0702 08:21:36.360738 28838 net.cpp:413] res3a_branch2b -> res3a_branch2b
I0702 08:21:36.361604 28838 net.cpp:148] Setting up res3a_branch2b
I0702 08:21:36.361610 28838 net.cpp:155] Top shape: 50 128 28 28 (5017600)
I0702 08:21:36.361615 28838 net.cpp:163] Memory required for data: 893133600
I0702 08:21:36.361621 28838 layer_factory.hpp:77] Creating layer res3a_branch2b/bn
I0702 08:21:36.361629 28838 net.cpp:98] Creating Layer res3a_branch2b/bn
I0702 08:21:36.361632 28838 net.cpp:439] res3a_branch2b/bn <- res3a_branch2b
I0702 08:21:36.361637 28838 net.cpp:413] res3a_branch2b/bn -> res3a_branch2b/bn
I0702 08:21:36.361915 28838 net.cpp:148] Setting up res3a_branch2b/bn
I0702 08:21:36.361922 28838 net.cpp:155] Top shape: 50 128 28 28 (5017600)
I0702 08:21:36.361927 28838 net.cpp:163] Memory required for data: 913204000
I0702 08:21:36.361943 28838 layer_factory.hpp:77] Creating layer res3a_branch2b/relu
I0702 08:21:36.361948 28838 net.cpp:98] Creating Layer res3a_branch2b/relu
I0702 08:21:36.361951 28838 net.cpp:439] res3a_branch2b/relu <- res3a_branch2b/bn
I0702 08:21:36.361955 28838 net.cpp:400] res3a_branch2b/relu -> res3a_branch2b/bn (in-place)
I0702 08:21:36.361961 28838 net.cpp:148] Setting up res3a_branch2b/relu
I0702 08:21:36.361966 28838 net.cpp:155] Top shape: 50 128 28 28 (5017600)
I0702 08:21:36.361970 28838 net.cpp:163] Memory required for data: 933274400
I0702 08:21:36.361974 28838 layer_factory.hpp:77] Creating layer pool3
I0702 08:21:36.361979 28838 net.cpp:98] Creating Layer pool3
I0702 08:21:36.361982 28838 net.cpp:439] pool3 <- res3a_branch2b/bn
I0702 08:21:36.361987 28838 net.cpp:413] pool3 -> pool3
I0702 08:21:36.362009 28838 net.cpp:148] Setting up pool3
I0702 08:21:36.362013 28838 net.cpp:155] Top shape: 50 128 14 14 (1254400)
I0702 08:21:36.362016 28838 net.cpp:163] Memory required for data: 938292000
I0702 08:21:36.362020 28838 layer_factory.hpp:77] Creating layer res4a_branch2a
I0702 08:21:36.362027 28838 net.cpp:98] Creating Layer res4a_branch2a
I0702 08:21:36.362031 28838 net.cpp:439] res4a_branch2a <- pool3
I0702 08:21:36.362036 28838 net.cpp:413] res4a_branch2a -> res4a_branch2a
I0702 08:21:36.367960 28838 net.cpp:148] Setting up res4a_branch2a
I0702 08:21:36.367967 28838 net.cpp:155] Top shape: 50 256 14 14 (2508800)
I0702 08:21:36.367971 28838 net.cpp:163] Memory required for data: 948327200
I0702 08:21:36.367977 28838 layer_factory.hpp:77] Creating layer res4a_branch2a/bn
I0702 08:21:36.367983 28838 net.cpp:98] Creating Layer res4a_branch2a/bn
I0702 08:21:36.367987 28838 net.cpp:439] res4a_branch2a/bn <- res4a_branch2a
I0702 08:21:36.367992 28838 net.cpp:413] res4a_branch2a/bn -> res4a_branch2a/bn
I0702 08:21:36.368271 28838 net.cpp:148] Setting up res4a_branch2a/bn
I0702 08:21:36.368278 28838 net.cpp:155] Top shape: 50 256 14 14 (2508800)
I0702 08:21:36.368280 28838 net.cpp:163] Memory required for data: 958362400
I0702 08:21:36.368288 28838 layer_factory.hpp:77] Creating layer res4a_branch2a/relu
I0702 08:21:36.368293 28838 net.cpp:98] Creating Layer res4a_branch2a/relu
I0702 08:21:36.368297 28838 net.cpp:439] res4a_branch2a/relu <- res4a_branch2a/bn
I0702 08:21:36.368301 28838 net.cpp:400] res4a_branch2a/relu -> res4a_branch2a/bn (in-place)
I0702 08:21:36.368307 28838 net.cpp:148] Setting up res4a_branch2a/relu
I0702 08:21:36.368312 28838 net.cpp:155] Top shape: 50 256 14 14 (2508800)
I0702 08:21:36.368315 28838 net.cpp:163] Memory required for data: 968397600
I0702 08:21:36.368319 28838 layer_factory.hpp:77] Creating layer res4a_branch2b
I0702 08:21:36.368326 28838 net.cpp:98] Creating Layer res4a_branch2b
I0702 08:21:36.368330 28838 net.cpp:439] res4a_branch2b <- res4a_branch2a/bn
I0702 08:21:36.368335 28838 net.cpp:413] res4a_branch2b -> res4a_branch2b
I0702 08:21:36.371374 28838 net.cpp:148] Setting up res4a_branch2b
I0702 08:21:36.371381 28838 net.cpp:155] Top shape: 50 256 14 14 (2508800)
I0702 08:21:36.371386 28838 net.cpp:163] Memory required for data: 978432800
I0702 08:21:36.371392 28838 layer_factory.hpp:77] Creating layer res4a_branch2b/bn
I0702 08:21:36.371397 28838 net.cpp:98] Creating Layer res4a_branch2b/bn
I0702 08:21:36.371400 28838 net.cpp:439] res4a_branch2b/bn <- res4a_branch2b
I0702 08:21:36.371407 28838 net.cpp:413] res4a_branch2b/bn -> res4a_branch2b/bn
I0702 08:21:36.371763 28838 net.cpp:148] Setting up res4a_branch2b/bn
I0702 08:21:36.371770 28838 net.cpp:155] Top shape: 50 256 14 14 (2508800)
I0702 08:21:36.371774 28838 net.cpp:163] Memory required for data: 988468000
I0702 08:21:36.371784 28838 layer_factory.hpp:77] Creating layer res4a_branch2b/relu
I0702 08:21:36.371788 28838 net.cpp:98] Creating Layer res4a_branch2b/relu
I0702 08:21:36.371793 28838 net.cpp:439] res4a_branch2b/relu <- res4a_branch2b/bn
I0702 08:21:36.371798 28838 net.cpp:400] res4a_branch2b/relu -> res4a_branch2b/bn (in-place)
I0702 08:21:36.371803 28838 net.cpp:148] Setting up res4a_branch2b/relu
I0702 08:21:36.371814 28838 net.cpp:155] Top shape: 50 256 14 14 (2508800)
I0702 08:21:36.371817 28838 net.cpp:163] Memory required for data: 998503200
I0702 08:21:36.371821 28838 layer_factory.hpp:77] Creating layer pool4
I0702 08:21:36.371826 28838 net.cpp:98] Creating Layer pool4
I0702 08:21:36.371830 28838 net.cpp:439] pool4 <- res4a_branch2b/bn
I0702 08:21:36.371835 28838 net.cpp:413] pool4 -> pool4
I0702 08:21:36.371857 28838 net.cpp:148] Setting up pool4
I0702 08:21:36.371862 28838 net.cpp:155] Top shape: 50 256 7 7 (627200)
I0702 08:21:36.371865 28838 net.cpp:163] Memory required for data: 1001012000
I0702 08:21:36.371870 28838 layer_factory.hpp:77] Creating layer res5a_branch2a
I0702 08:21:36.371876 28838 net.cpp:98] Creating Layer res5a_branch2a
I0702 08:21:36.371879 28838 net.cpp:439] res5a_branch2a <- pool4
I0702 08:21:36.371884 28838 net.cpp:413] res5a_branch2a -> res5a_branch2a
I0702 08:21:36.396350 28838 net.cpp:148] Setting up res5a_branch2a
I0702 08:21:36.396371 28838 net.cpp:155] Top shape: 50 512 7 7 (1254400)
I0702 08:21:36.396374 28838 net.cpp:163] Memory required for data: 1006029600
I0702 08:21:36.396381 28838 layer_factory.hpp:77] Creating layer res5a_branch2a/bn
I0702 08:21:36.396392 28838 net.cpp:98] Creating Layer res5a_branch2a/bn
I0702 08:21:36.396396 28838 net.cpp:439] res5a_branch2a/bn <- res5a_branch2a
I0702 08:21:36.396404 28838 net.cpp:413] res5a_branch2a/bn -> res5a_branch2a/bn
I0702 08:21:36.396700 28838 net.cpp:148] Setting up res5a_branch2a/bn
I0702 08:21:36.396708 28838 net.cpp:155] Top shape: 50 512 7 7 (1254400)
I0702 08:21:36.396710 28838 net.cpp:163] Memory required for data: 1011047200
I0702 08:21:36.396719 28838 layer_factory.hpp:77] Creating layer res5a_branch2a/relu
I0702 08:21:36.396724 28838 net.cpp:98] Creating Layer res5a_branch2a/relu
I0702 08:21:36.396728 28838 net.cpp:439] res5a_branch2a/relu <- res5a_branch2a/bn
I0702 08:21:36.396733 28838 net.cpp:400] res5a_branch2a/relu -> res5a_branch2a/bn (in-place)
I0702 08:21:36.396740 28838 net.cpp:148] Setting up res5a_branch2a/relu
I0702 08:21:36.396744 28838 net.cpp:155] Top shape: 50 512 7 7 (1254400)
I0702 08:21:36.396749 28838 net.cpp:163] Memory required for data: 1016064800
I0702 08:21:36.396752 28838 layer_factory.hpp:77] Creating layer res5a_branch2b
I0702 08:21:36.396759 28838 net.cpp:98] Creating Layer res5a_branch2b
I0702 08:21:36.396764 28838 net.cpp:439] res5a_branch2b <- res5a_branch2a/bn
I0702 08:21:36.396769 28838 net.cpp:413] res5a_branch2b -> res5a_branch2b
I0702 08:21:36.409106 28838 net.cpp:148] Setting up res5a_branch2b
I0702 08:21:36.409124 28838 net.cpp:155] Top shape: 50 512 7 7 (1254400)
I0702 08:21:36.409127 28838 net.cpp:163] Memory required for data: 1021082400
I0702 08:21:36.409137 28838 layer_factory.hpp:77] Creating layer res5a_branch2b/bn
I0702 08:21:36.409147 28838 net.cpp:98] Creating Layer res5a_branch2b/bn
I0702 08:21:36.409152 28838 net.cpp:439] res5a_branch2b/bn <- res5a_branch2b
I0702 08:21:36.409157 28838 net.cpp:413] res5a_branch2b/bn -> res5a_branch2b/bn
I0702 08:21:36.409446 28838 net.cpp:148] Setting up res5a_branch2b/bn
I0702 08:21:36.409453 28838 net.cpp:155] Top shape: 50 512 7 7 (1254400)
I0702 08:21:36.409457 28838 net.cpp:163] Memory required for data: 1026100000
I0702 08:21:36.409466 28838 layer_factory.hpp:77] Creating layer res5a_branch2b/relu
I0702 08:21:36.409471 28838 net.cpp:98] Creating Layer res5a_branch2b/relu
I0702 08:21:36.409476 28838 net.cpp:439] res5a_branch2b/relu <- res5a_branch2b/bn
I0702 08:21:36.409481 28838 net.cpp:400] res5a_branch2b/relu -> res5a_branch2b/bn (in-place)
I0702 08:21:36.409487 28838 net.cpp:148] Setting up res5a_branch2b/relu
I0702 08:21:36.409492 28838 net.cpp:155] Top shape: 50 512 7 7 (1254400)
I0702 08:21:36.409495 28838 net.cpp:163] Memory required for data: 1031117600
I0702 08:21:36.409498 28838 layer_factory.hpp:77] Creating layer pool5
I0702 08:21:36.409505 28838 net.cpp:98] Creating Layer pool5
I0702 08:21:36.409509 28838 net.cpp:439] pool5 <- res5a_branch2b/bn
I0702 08:21:36.409515 28838 net.cpp:413] pool5 -> pool5
I0702 08:21:36.409546 28838 net.cpp:148] Setting up pool5
I0702 08:21:36.409553 28838 net.cpp:155] Top shape: 50 512 1 1 (25600)
I0702 08:21:36.409555 28838 net.cpp:163] Memory required for data: 1031220000
I0702 08:21:36.409560 28838 layer_factory.hpp:77] Creating layer fc1000
I0702 08:21:36.409566 28838 net.cpp:98] Creating Layer fc1000
I0702 08:21:36.409569 28838 net.cpp:439] fc1000 <- pool5
I0702 08:21:36.409575 28838 net.cpp:413] fc1000 -> fc1000
I0702 08:21:36.420663 28838 net.cpp:148] Setting up fc1000
I0702 08:21:36.420678 28838 net.cpp:155] Top shape: 50 1000 (50000)
I0702 08:21:36.420682 28838 net.cpp:163] Memory required for data: 1031420000
I0702 08:21:36.420688 28838 layer_factory.hpp:77] Creating layer fc1000_fc1000_0_split
I0702 08:21:36.420696 28838 net.cpp:98] Creating Layer fc1000_fc1000_0_split
I0702 08:21:36.420701 28838 net.cpp:439] fc1000_fc1000_0_split <- fc1000
I0702 08:21:36.420707 28838 net.cpp:413] fc1000_fc1000_0_split -> fc1000_fc1000_0_split_0
I0702 08:21:36.420714 28838 net.cpp:413] fc1000_fc1000_0_split -> fc1000_fc1000_0_split_1
I0702 08:21:36.420720 28838 net.cpp:413] fc1000_fc1000_0_split -> fc1000_fc1000_0_split_2
I0702 08:21:36.420753 28838 net.cpp:148] Setting up fc1000_fc1000_0_split
I0702 08:21:36.420758 28838 net.cpp:155] Top shape: 50 1000 (50000)
I0702 08:21:36.420763 28838 net.cpp:155] Top shape: 50 1000 (50000)
I0702 08:21:36.420768 28838 net.cpp:155] Top shape: 50 1000 (50000)
I0702 08:21:36.420770 28838 net.cpp:163] Memory required for data: 1032020000
I0702 08:21:36.420775 28838 layer_factory.hpp:77] Creating layer loss
I0702 08:21:36.420780 28838 net.cpp:98] Creating Layer loss
I0702 08:21:36.420784 28838 net.cpp:439] loss <- fc1000_fc1000_0_split_0
I0702 08:21:36.420789 28838 net.cpp:439] loss <- label_data_1_split_0
I0702 08:21:36.420794 28838 net.cpp:413] loss -> loss
…
