…
I0630 19:08:39.596110 17469 caffe.cpp:273] Use GPU with device ID 0
I0630 19:08:39.596468 17469 caffe.cpp:277] GPU device name: GeForce GTX 1080
I0630 19:08:40.088613 17469 net.cpp:56] Initializing net from parameters: 
name: "jacintonet11v2_test"
state {
  phase: TEST
}
layer {
  name: "data"
  type: "Data"
  top: "data"
  top: "label"
  transform_param {
    mirror: false
    crop_size: 224
    mean_value: 0
    mean_value: 0
    mean_value: 0
  }
  data_param {
    source: "./data/ilsvrc12_val_lmdb"
    batch_size: 50
    backend: LMDB
    threads: 1
  }
}
layer {
  name: "data/bias"
  type: "Bias"
  bottom: "data"
  top: "data/bias"
  param {
    lr_mult: 0
    decay_mult: 0
  }
  bias_param {
    filler {
      type: "constant"
      value: -128
    }
  }
}
layer {
  name: "conv1a"
  type: "Convolution"
  bottom: "data/bias"
  top: "conv1a"
  param {
    lr_mult: 1
    decay_mult: 1
  }
  param {
    lr_mult: 2
    decay_mult: 0
  }
  convolution_param {
    num_output: 32
    bias_term: true
    pad: 2
    kernel_size: 5
    group: 1
    stride: 2
    weight_filler {
      type: "msra"
    }
    bias_filler {
      type: "constant"
      value: 0
    }
    dilation: 1
  }
}
layer {
  name: "conv1a/bn"
  type: "BatchNorm"
  bottom: "conv1a"
  top: "conv1a/bn"
  param {
    lr_mult: 1
    decay_mult: 1
  }
  param {
    lr_mult: 1
    decay_mult: 1
  }
  param {
    lr_mult: 0
    decay_mult: 0
  }
  param {
    lr_mult: 0
    decay_mult: 0
  }
  batch_norm_param {
    moving_average_fraction: 0.99
    eps: 0.0001
    scale_filler {
      type: "constant"
      value: 1
    }
    bias_filler {
      type: "constant"
      value: 0
    }
  }
}
layer {
  name: "conv1a/relu"
  type: "ReLU"
  bottom: "conv1a/bn"
  top: "conv1a/bn"
}
layer {
  name: "conv1b"
  type: "Convolution"
  bottom: "conv1a/bn"
  top: "conv1b"
  param {
    lr_mult: 1
    decay_mult: 1
  }
  param {
    lr_mult: 2
    decay_mult: 0
  }
  convolution_param {
    num_output: 32
    bias_term: true
    pad: 1
    kernel_size: 3
    group: 4
    stride: 1
    weight_filler {
      type: "msra"
    }
    bias_filler {
      type: "constant"
      value: 0
    }
    dilation: 1
  }
}
layer {
  name: "conv1b/bn"
  type: "BatchNorm"
  bottom: "conv1b"
  top: "conv1b/bn"
  param {
    lr_mult: 1
    decay_mult: 1
  }
  param {
    lr_mult: 1
    decay_mult: 1
  }
  param {
    lr_mult: 0
    decay_mult: 0
  }
  param {
    lr_mult: 0
    decay_mult: 0
  }
  batch_norm_param {
    moving_average_fraction: 0.99
    eps: 0.0001
    scale_filler {
      type: "constant"
      value: 1
    }
    bias_filler {
      type: "constant"
      value: 0
    }
  }
}
layer {
  name: "conv1b/relu"
  type: "ReLU"
  bottom: "conv1b/bn"
  top: "conv1b/bn"
}
layer {
  name: "pool1"
  type: "Pooling"
  bottom: "conv1b/bn"
  top: "pool1"
  pooling_param {
    pool: MAX
    kernel_size: 2
    stride: 2
  }
}
layer {
  name: "res2a_branch2a"
  type: "Convolution"
  bottom: "pool1"
  top: "res2a_branch2a"
  param {
    lr_mult: 1
    decay_mult: 1
  }
  param {
    lr_mult: 2
    decay_mult: 0
  }
  convolution_param {
    num_output: 64
    bias_term: true
    pad: 1
    kernel_size: 3
    group: 1
    stride: 1
    weight_filler {
      type: "msra"
    }
    bias_filler {
      type: "constant"
      value: 0
    }
    dilation: 1
  }
}
layer {
  name: "res2a_branch2a/bn"
  type: "BatchNorm"
  bottom: "res2a_branch2a"
  top: "res2a_branch2a/bn"
  param {
    lr_mult: 1
    decay_mult: 1
  }
  param {
    lr_mult: 1
    decay_mult: 1
  }
  param {
    lr_mult: 0
    decay_mult: 0
  }
  param {
    lr_mult: 0
    decay_mult: 0
  }
  batch_norm_param {
    moving_average_fraction: 0.99
    eps: 0.0001
    scale_filler {
      type: "constant"
      value: 1
    }
    bias_filler {
      type: "constant"
      value: 0
    }
  }
}
layer {
  name: "res2a_branch2a/relu"
  type: "ReLU"
  bottom: "res2a_branch2a/bn"
  top: "res2a_branch2a/bn"
}
layer {
  name: "res2a_branch2b"
  type: "Convolution"
  bottom: "res2a_branch2a/bn"
  top: "res2a_branch2b"
  param {
    lr_mult: 1
    decay_mult: 1
  }
  param {
    lr_mult: 2
    decay_mult: 0
  }
  convolution_param {
    num_output: 64
    bias_term: true
    pad: 1
    kernel_size: 3
    group: 4
    stride: 1
    weight_filler {
      type: "msra"
    }
    bias_filler {
      type: "constant"
      value: 0
    }
    dilation: 1
  }
}
layer {
  name: "res2a_branch2b/bn"
  type: "BatchNorm"
  bottom: "res2a_branch2b"
  top: "res2a_branch2b/bn"
  param {
    lr_mult: 1
    decay_mult: 1
  }
  param {
    lr_mult: 1
    decay_mult: 1
  }
  param {
    lr_mult: 0
    decay_mult: 0
  }
  param {
    lr_mult: 0
    decay_mult: 0
  }
  batch_norm_param {
    moving_average_fraction: 0.99
    eps: 0.0001
    scale_filler {
      type: "constant"
      value: 1
    }
    bias_filler {
      type: "constant"
      value: 0
    }
  }
}
layer {
  name: "res2a_branch2b/relu"
  type: "ReLU"
  bottom: "res2a_branch2b/bn"
  top: "res2a_branch2b/bn"
}
layer {
  name: "pool2"
  type: "Pooling"
  bottom: "res2a_branch2b/bn"
  top: "pool2"
  pooling_param {
    pool: MAX
    kernel_size: 2
    stride: 2
  }
}
layer {
  name: "res3a_branch2a"
  type: "Convolution"
  bottom: "pool2"
  top: "res3a_branch2a"
  param {
    lr_mult: 1
    decay_mult: 1
  }
  param {
    lr_mult: 2
    decay_mult: 0
  }
  convolution_param {
    num_output: 128
    bias_term: true
    pad: 1
    kernel_size: 3
    group: 1
    stride: 1
    weight_filler {
      type: "msra"
    }
    bias_filler {
      type: "constant"
      value: 0
    }
    dilation: 1
  }
}
layer {
  name: "res3a_branch2a/bn"
  type: "BatchNorm"
  bottom: "res3a_branch2a"
  top: "res3a_branch2a/bn"
  param {
    lr_mult: 1
    decay_mult: 1
  }
  param {
    lr_mult: 1
    decay_mult: 1
  }
  param {
    lr_mult: 0
    decay_mult: 0
  }
  param {
    lr_mult: 0
    decay_mult: 0
  }
  batch_norm_param {
    moving_average_fraction: 0.99
    eps: 0.0001
    scale_filler {
      type: "constant"
      value: 1
    }
    bias_filler {
      type: "constant"
      value: 0
    }
  }
}
layer {
  name: "res3a_branch2a/relu"
  type: "ReLU"
  bottom: "res3a_branch2a/bn"
  top: "res3a_branch2a/bn"
}
layer {
  name: "res3a_branch2b"
  type: "Convolution"
  bottom: "res3a_branch2a/bn"
  top: "res3a_branch2b"
  param {
    lr_mult: 1
    decay_mult: 1
  }
  param {
    lr_mult: 2
    decay_mult: 0
  }
  convolution_param {
    num_output: 128
    bias_term: true
    pad: 1
    kernel_size: 3
    group: 4
    stride: 1
    weight_filler {
      type: "msra"
    }
    bias_filler {
      type: "constant"
      value: 0
    }
    dilation: 1
  }
}
layer {
  name: "res3a_branch2b/bn"
  type: "BatchNorm"
  bottom: "res3a_branch2b"
  top: "res3a_branch2b/bn"
  param {
    lr_mult: 1
    decay_mult: 1
  }
  param {
    lr_mult: 1
    decay_mult: 1
  }
  param {
    lr_mult: 0
    decay_mult: 0
  }
  param {
    lr_mult: 0
    decay_mult: 0
  }
  batch_norm_param {
    moving_average_fraction: 0.99
    eps: 0.0001
    scale_filler {
      type: "constant"
      value: 1
    }
    bias_filler {
      type: "constant"
      value: 0
    }
  }
}
layer {
  name: "res3a_branch2b/relu"
  type: "ReLU"
  bottom: "res3a_branch2b/bn"
  top: "res3a_branch2b/bn"
}
layer {
  name: "pool3"
  type: "Pooling"
  bottom: "res3a_branch2b/bn"
  top: "pool3"
  pooling_param {
    pool: MAX
    kernel_size: 2
    stride: 2
  }
}
layer {
  name: "res4a_branch2a"
  type: "Convolution"
  bottom: "pool3"
  top: "res4a_branch2a"
  param {
    lr_mult: 1
    decay_mult: 1
  }
  param {
    lr_mult: 2
    decay_mult: 0
  }
  convolution_param {
    num_output: 256
    bias_term: true
    pad: 1
    kernel_size: 3
    group: 1
    stride: 1
    weight_filler {
      type: "msra"
    }
    bias_filler {
      type: "constant"
      value: 0
    }
    dilation: 1
  }
}
layer {
  name: "res4a_branch2a/bn"
  type: "BatchNorm"
  bottom: "res4a_branch2a"
  top: "res4a_branch2a/bn"
  param {
    lr_mult: 1
    decay_mult: 1
  }
  param {
    lr_mult: 1
    decay_mult: 1
  }
  param {
    lr_mult: 0
    decay_mult: 0
  }
  param {
    lr_mult: 0
    decay_mult: 0
  }
  batch_norm_param {
    moving_average_fraction: 0.99
    eps: 0.0001
    scale_filler {
      type: "constant"
      value: 1
    }
    bias_filler {
      type: "constant"
      value: 0
    }
  }
}
layer {
  name: "res4a_branch2a/relu"
  type: "ReLU"
  bottom: "res4a_branch2a/bn"
  top: "res4a_branch2a/bn"
}
layer {
  name: "res4a_branch2b"
  type: "Convolution"
  bottom: "res4a_branch2a/bn"
  top: "res4a_branch2b"
  param {
    lr_mult: 1
    decay_mult: 1
  }
  param {
    lr_mult: 2
    decay_mult: 0
  }
  convolution_param {
    num_output: 256
    bias_term: true
    pad: 1
    kernel_size: 3
    group: 4
    stride: 1
    weight_filler {
      type: "msra"
    }
    bias_filler {
      type: "constant"
      value: 0
    }
    dilation: 1
  }
}
layer {
  name: "res4a_branch2b/bn"
  type: "BatchNorm"
  bottom: "res4a_branch2b"
  top: "res4a_branch2b/bn"
  param {
    lr_mult: 1
    decay_mult: 1
  }
  param {
    lr_mult: 1
    decay_mult: 1
  }
  param {
    lr_mult: 0
    decay_mult: 0
  }
  param {
    lr_mult: 0
    decay_mult: 0
  }
  batch_norm_param {
    moving_average_fraction: 0.99
    eps: 0.0001
    scale_filler {
      type: "constant"
      value: 1
    }
    bias_filler {
      type: "constant"
      value: 0
    }
  }
}
layer {
  name: "res4a_branch2b/relu"
  type: "ReLU"
  bottom: "res4a_branch2b/bn"
  top: "res4a_branch2b/bn"
}
layer {
  name: "pool4"
  type: "Pooling"
  bottom: "res4a_branch2b/bn"
  top: "pool4"
  pooling_param {
    pool: MAX
    kernel_size: 2
    stride: 2
  }
}
layer {
  name: "res5a_branch2a"
  type: "Convolution"
  bottom: "pool4"
  top: "res5a_branch2a"
  param {
    lr_mult: 1
    decay_mult: 1
  }
  param {
    lr_mult: 2
    decay_mult: 0
  }
  convolution_param {
    num_output: 512
    bias_term: true
    pad: 1
    kernel_size: 3
    group: 1
    stride: 1
    weight_filler {
      type: "msra"
    }
    bias_filler {
      type: "constant"
      value: 0
    }
    dilation: 1
  }
}
layer {
  name: "res5a_branch2a/bn"
  type: "BatchNorm"
  bottom: "res5a_branch2a"
  top: "res5a_branch2a/bn"
  param {
    lr_mult: 1
    decay_mult: 1
  }
  param {
    lr_mult: 1
    decay_mult: 1
  }
  param {
    lr_mult: 0
    decay_mult: 0
  }
  param {
    lr_mult: 0
    decay_mult: 0
  }
  batch_norm_param {
    moving_average_fraction: 0.99
    eps: 0.0001
    scale_filler {
      type: "constant"
      value: 1
    }
    bias_filler {
      type: "constant"
      value: 0
    }
  }
}
layer {
  name: "res5a_branch2a/relu"
  type: "ReLU"
  bottom: "res5a_branch2a/bn"
  top: "res5a_branch2a/bn"
}
layer {
  name: "res5a_branch2b"
  type: "Convolution"
  bottom: "res5a_branch2a/bn"
  top: "res5a_branch2b"
  param {
    lr_mult: 1
    decay_mult: 1
  }
  param {
    lr_mult: 2
    decay_mult: 0
  }
  convolution_param {
    num_output: 512
    bias_term: true
    pad: 1
    kernel_size: 3
    group: 4
    stride: 1
    weight_filler {
      type: "msra"
    }
    bias_filler {
      type: "constant"
      value: 0
    }
    dilation: 1
  }
}
layer {
  name: "res5a_branch2b/bn"
  type: "BatchNorm"
  bottom: "res5a_branch2b"
  top: "res5a_branch2b/bn"
  param {
    lr_mult: 1
    decay_mult: 1
  }
  param {
    lr_mult: 1
    decay_mult: 1
  }
  param {
    lr_mult: 0
    decay_mult: 0
  }
  param {
    lr_mult: 0
    decay_mult: 0
  }
  batch_norm_param {
    moving_average_fraction: 0.99
    eps: 0.0001
    scale_filler {
      type: "constant"
      value: 1
    }
    bias_filler {
      type: "constant"
      value: 0
    }
  }
}
layer {
  name: "res5a_branch2b/relu"
  type: "ReLU"
  bottom: "res5a_branch2b/bn"
  top: "res5a_branch2b/bn"
}
layer {
  name: "pool5"
  type: "Pooling"
  bottom: "res5a_branch2b/bn"
  top: "pool5"
  pooling_param {
    pool: AVE
    global_pooling: true
  }
}
layer {
  name: "fc1000"
  type: "InnerProduct"
  bottom: "pool5"
  top: "fc1000"
  param {
    lr_mult: 1
    decay_mult: 1
  }
  param {
    lr_mult: 2
    decay_mult: 0
  }
  inner_product_param {
    num_output: 1000
    weight_filler {
      type: "msra"
    }
    bias_filler {
      type: "constant"
      value: 0
    }
  }
}
layer {
  name: "loss"
  type: "SoftmaxWithLoss"
  bottom: "fc1000"
  bottom: "label"
  top: "loss"
  propagate_down: true
  propagate_down: false
}
layer {
  name: "accuracy/top1"
  type: "Accuracy"
  bottom: "fc1000"
  bottom: "label"
  top: "accuracy/top1"
  include {
    phase: TEST
  }
}
layer {
  name: "accuracy/top5"
  type: "Accuracy"
  bottom: "fc1000"
  bottom: "label"
  top: "accuracy/top5"
  include {
    phase: TEST
  }
  accuracy_param {
    top_k: 5
  }
}
I0630 19:08:40.088737 17469 layer_factory.hpp:77] Creating layer data
I0630 19:08:40.089100 17469 net.cpp:98] Creating Layer data
I0630 19:08:40.089108 17469 net.cpp:413] data -> data
I0630 19:08:40.089125 17469 net.cpp:413] data -> label
I0630 19:08:40.089931 17508 db_lmdb.cpp:35] Opened lmdb ./data/ilsvrc12_val_lmdb
I0630 19:08:40.091754 17469 data_layer.cpp:78] ReshapePrefetch 50, 3, 224, 224
I0630 19:08:40.091794 17469 data_layer.cpp:83] output data size: 50,3,224,224
I0630 19:08:40.119148 17469 net.cpp:148] Setting up data
I0630 19:08:40.119174 17469 net.cpp:155] Top shape: 50 3 224 224 (7526400)
I0630 19:08:40.119179 17469 net.cpp:155] Top shape: 50 (50)
I0630 19:08:40.119182 17469 net.cpp:163] Memory required for data: 30105800
I0630 19:08:40.119192 17469 layer_factory.hpp:77] Creating layer label_data_1_split
I0630 19:08:40.119202 17469 net.cpp:98] Creating Layer label_data_1_split
I0630 19:08:40.119209 17469 net.cpp:439] label_data_1_split <- label
I0630 19:08:40.119218 17469 net.cpp:413] label_data_1_split -> label_data_1_split_0
I0630 19:08:40.119227 17469 net.cpp:413] label_data_1_split -> label_data_1_split_1
I0630 19:08:40.119233 17469 net.cpp:413] label_data_1_split -> label_data_1_split_2
I0630 19:08:40.119280 17469 net.cpp:148] Setting up label_data_1_split
I0630 19:08:40.119287 17469 net.cpp:155] Top shape: 50 (50)
I0630 19:08:40.119290 17469 net.cpp:155] Top shape: 50 (50)
I0630 19:08:40.119294 17469 net.cpp:155] Top shape: 50 (50)
I0630 19:08:40.119297 17469 net.cpp:163] Memory required for data: 30106400
I0630 19:08:40.119300 17469 layer_factory.hpp:77] Creating layer data/bias
I0630 19:08:40.119307 17469 net.cpp:98] Creating Layer data/bias
I0630 19:08:40.119310 17469 net.cpp:439] data/bias <- data
I0630 19:08:40.119315 17469 net.cpp:413] data/bias -> data/bias
I0630 19:08:40.120271 17469 net.cpp:148] Setting up data/bias
I0630 19:08:40.120285 17469 net.cpp:155] Top shape: 50 3 224 224 (7526400)
I0630 19:08:40.120288 17469 net.cpp:163] Memory required for data: 60212000
I0630 19:08:40.120308 17469 layer_factory.hpp:77] Creating layer conv1a
I0630 19:08:40.120324 17469 net.cpp:98] Creating Layer conv1a
I0630 19:08:40.120329 17469 net.cpp:439] conv1a <- data/bias
I0630 19:08:40.120333 17469 net.cpp:413] conv1a -> conv1a
I0630 19:08:40.121731 17469 net.cpp:148] Setting up conv1a
I0630 19:08:40.121740 17469 net.cpp:155] Top shape: 50 32 112 112 (20070400)
I0630 19:08:40.121743 17469 net.cpp:163] Memory required for data: 140493600
I0630 19:08:40.121748 17469 layer_factory.hpp:77] Creating layer conv1a/bn
I0630 19:08:40.121755 17469 net.cpp:98] Creating Layer conv1a/bn
I0630 19:08:40.121758 17469 net.cpp:439] conv1a/bn <- conv1a
I0630 19:08:40.121762 17469 net.cpp:413] conv1a/bn -> conv1a/bn
I0630 19:08:40.122120 17469 net.cpp:148] Setting up conv1a/bn
I0630 19:08:40.122126 17469 net.cpp:155] Top shape: 50 32 112 112 (20070400)
I0630 19:08:40.122128 17469 net.cpp:163] Memory required for data: 220775200
I0630 19:08:40.122134 17469 layer_factory.hpp:77] Creating layer conv1a/relu
I0630 19:08:40.122138 17469 net.cpp:98] Creating Layer conv1a/relu
I0630 19:08:40.122140 17469 net.cpp:439] conv1a/relu <- conv1a/bn
I0630 19:08:40.122143 17469 net.cpp:400] conv1a/relu -> conv1a/bn (in-place)
I0630 19:08:40.122153 17469 net.cpp:148] Setting up conv1a/relu
I0630 19:08:40.122155 17469 net.cpp:155] Top shape: 50 32 112 112 (20070400)
I0630 19:08:40.122158 17469 net.cpp:163] Memory required for data: 301056800
I0630 19:08:40.122159 17469 layer_factory.hpp:77] Creating layer conv1b
I0630 19:08:40.122174 17469 net.cpp:98] Creating Layer conv1b
I0630 19:08:40.122176 17469 net.cpp:439] conv1b <- conv1a/bn
I0630 19:08:40.122179 17469 net.cpp:413] conv1b -> conv1b
I0630 19:08:40.122357 17469 net.cpp:148] Setting up conv1b
I0630 19:08:40.122362 17469 net.cpp:155] Top shape: 50 32 112 112 (20070400)
I0630 19:08:40.122364 17469 net.cpp:163] Memory required for data: 381338400
I0630 19:08:40.122369 17469 layer_factory.hpp:77] Creating layer conv1b/bn
I0630 19:08:40.122372 17469 net.cpp:98] Creating Layer conv1b/bn
I0630 19:08:40.122375 17469 net.cpp:439] conv1b/bn <- conv1b
I0630 19:08:40.122377 17469 net.cpp:413] conv1b/bn -> conv1b/bn
I0630 19:08:40.124981 17469 net.cpp:148] Setting up conv1b/bn
I0630 19:08:40.124989 17469 net.cpp:155] Top shape: 50 32 112 112 (20070400)
I0630 19:08:40.124992 17469 net.cpp:163] Memory required for data: 461620000
I0630 19:08:40.125002 17469 layer_factory.hpp:77] Creating layer conv1b/relu
I0630 19:08:40.125008 17469 net.cpp:98] Creating Layer conv1b/relu
I0630 19:08:40.125011 17469 net.cpp:439] conv1b/relu <- conv1b/bn
I0630 19:08:40.125015 17469 net.cpp:400] conv1b/relu -> conv1b/bn (in-place)
I0630 19:08:40.125020 17469 net.cpp:148] Setting up conv1b/relu
I0630 19:08:40.125025 17469 net.cpp:155] Top shape: 50 32 112 112 (20070400)
I0630 19:08:40.125028 17469 net.cpp:163] Memory required for data: 541901600
I0630 19:08:40.125036 17469 layer_factory.hpp:77] Creating layer pool1
I0630 19:08:40.125043 17469 net.cpp:98] Creating Layer pool1
I0630 19:08:40.125047 17469 net.cpp:439] pool1 <- conv1b/bn
I0630 19:08:40.125057 17469 net.cpp:413] pool1 -> pool1
I0630 19:08:40.125084 17469 net.cpp:148] Setting up pool1
I0630 19:08:40.125089 17469 net.cpp:155] Top shape: 50 32 56 56 (5017600)
I0630 19:08:40.125092 17469 net.cpp:163] Memory required for data: 561972000
I0630 19:08:40.125097 17469 layer_factory.hpp:77] Creating layer res2a_branch2a
I0630 19:08:40.125103 17469 net.cpp:98] Creating Layer res2a_branch2a
I0630 19:08:40.125108 17469 net.cpp:439] res2a_branch2a <- pool1
I0630 19:08:40.125113 17469 net.cpp:413] res2a_branch2a -> res2a_branch2a
I0630 19:08:40.125603 17469 net.cpp:148] Setting up res2a_branch2a
I0630 19:08:40.125609 17469 net.cpp:155] Top shape: 50 64 56 56 (10035200)
I0630 19:08:40.125612 17469 net.cpp:163] Memory required for data: 602112800
I0630 19:08:40.125620 17469 layer_factory.hpp:77] Creating layer res2a_branch2a/bn
I0630 19:08:40.125625 17469 net.cpp:98] Creating Layer res2a_branch2a/bn
I0630 19:08:40.125629 17469 net.cpp:439] res2a_branch2a/bn <- res2a_branch2a
I0630 19:08:40.125635 17469 net.cpp:413] res2a_branch2a/bn -> res2a_branch2a/bn
I0630 19:08:40.125926 17469 net.cpp:148] Setting up res2a_branch2a/bn
I0630 19:08:40.125931 17469 net.cpp:155] Top shape: 50 64 56 56 (10035200)
I0630 19:08:40.125936 17469 net.cpp:163] Memory required for data: 642253600
I0630 19:08:40.125943 17469 layer_factory.hpp:77] Creating layer res2a_branch2a/relu
I0630 19:08:40.125947 17469 net.cpp:98] Creating Layer res2a_branch2a/relu
I0630 19:08:40.125952 17469 net.cpp:439] res2a_branch2a/relu <- res2a_branch2a/bn
I0630 19:08:40.125957 17469 net.cpp:400] res2a_branch2a/relu -> res2a_branch2a/bn (in-place)
I0630 19:08:40.125962 17469 net.cpp:148] Setting up res2a_branch2a/relu
I0630 19:08:40.125967 17469 net.cpp:155] Top shape: 50 64 56 56 (10035200)
I0630 19:08:40.125969 17469 net.cpp:163] Memory required for data: 682394400
I0630 19:08:40.125973 17469 layer_factory.hpp:77] Creating layer res2a_branch2b
I0630 19:08:40.125980 17469 net.cpp:98] Creating Layer res2a_branch2b
I0630 19:08:40.125984 17469 net.cpp:439] res2a_branch2b <- res2a_branch2a/bn
I0630 19:08:40.125988 17469 net.cpp:413] res2a_branch2b -> res2a_branch2b
I0630 19:08:40.126296 17469 net.cpp:148] Setting up res2a_branch2b
I0630 19:08:40.126302 17469 net.cpp:155] Top shape: 50 64 56 56 (10035200)
I0630 19:08:40.126305 17469 net.cpp:163] Memory required for data: 722535200
I0630 19:08:40.126310 17469 layer_factory.hpp:77] Creating layer res2a_branch2b/bn
I0630 19:08:40.126317 17469 net.cpp:98] Creating Layer res2a_branch2b/bn
I0630 19:08:40.126325 17469 net.cpp:439] res2a_branch2b/bn <- res2a_branch2b
I0630 19:08:40.126332 17469 net.cpp:413] res2a_branch2b/bn -> res2a_branch2b/bn
I0630 19:08:40.126633 17469 net.cpp:148] Setting up res2a_branch2b/bn
I0630 19:08:40.126639 17469 net.cpp:155] Top shape: 50 64 56 56 (10035200)
I0630 19:08:40.126642 17469 net.cpp:163] Memory required for data: 762676000
I0630 19:08:40.126652 17469 layer_factory.hpp:77] Creating layer res2a_branch2b/relu
I0630 19:08:40.126655 17469 net.cpp:98] Creating Layer res2a_branch2b/relu
I0630 19:08:40.126659 17469 net.cpp:439] res2a_branch2b/relu <- res2a_branch2b/bn
I0630 19:08:40.126664 17469 net.cpp:400] res2a_branch2b/relu -> res2a_branch2b/bn (in-place)
I0630 19:08:40.126670 17469 net.cpp:148] Setting up res2a_branch2b/relu
I0630 19:08:40.126674 17469 net.cpp:155] Top shape: 50 64 56 56 (10035200)
I0630 19:08:40.126677 17469 net.cpp:163] Memory required for data: 802816800
I0630 19:08:40.126682 17469 layer_factory.hpp:77] Creating layer pool2
I0630 19:08:40.126687 17469 net.cpp:98] Creating Layer pool2
I0630 19:08:40.126690 17469 net.cpp:439] pool2 <- res2a_branch2b/bn
I0630 19:08:40.126695 17469 net.cpp:413] pool2 -> pool2
I0630 19:08:40.126715 17469 net.cpp:148] Setting up pool2
I0630 19:08:40.126720 17469 net.cpp:155] Top shape: 50 64 28 28 (2508800)
I0630 19:08:40.126724 17469 net.cpp:163] Memory required for data: 812852000
I0630 19:08:40.126727 17469 layer_factory.hpp:77] Creating layer res3a_branch2a
I0630 19:08:40.126739 17469 net.cpp:98] Creating Layer res3a_branch2a
I0630 19:08:40.126741 17469 net.cpp:439] res3a_branch2a <- pool2
I0630 19:08:40.126746 17469 net.cpp:413] res3a_branch2a -> res3a_branch2a
I0630 19:08:40.129357 17469 net.cpp:148] Setting up res3a_branch2a
I0630 19:08:40.129369 17469 net.cpp:155] Top shape: 50 128 28 28 (5017600)
I0630 19:08:40.129371 17469 net.cpp:163] Memory required for data: 832922400
I0630 19:08:40.129377 17469 layer_factory.hpp:77] Creating layer res3a_branch2a/bn
I0630 19:08:40.129384 17469 net.cpp:98] Creating Layer res3a_branch2a/bn
I0630 19:08:40.129389 17469 net.cpp:439] res3a_branch2a/bn <- res3a_branch2a
I0630 19:08:40.129395 17469 net.cpp:413] res3a_branch2a/bn -> res3a_branch2a/bn
I0630 19:08:40.129670 17469 net.cpp:148] Setting up res3a_branch2a/bn
I0630 19:08:40.129676 17469 net.cpp:155] Top shape: 50 128 28 28 (5017600)
I0630 19:08:40.129680 17469 net.cpp:163] Memory required for data: 852992800
I0630 19:08:40.129689 17469 layer_factory.hpp:77] Creating layer res3a_branch2a/relu
I0630 19:08:40.129694 17469 net.cpp:98] Creating Layer res3a_branch2a/relu
I0630 19:08:40.129698 17469 net.cpp:439] res3a_branch2a/relu <- res3a_branch2a/bn
I0630 19:08:40.129704 17469 net.cpp:400] res3a_branch2a/relu -> res3a_branch2a/bn (in-place)
I0630 19:08:40.129710 17469 net.cpp:148] Setting up res3a_branch2a/relu
I0630 19:08:40.129714 17469 net.cpp:155] Top shape: 50 128 28 28 (5017600)
I0630 19:08:40.129719 17469 net.cpp:163] Memory required for data: 873063200
I0630 19:08:40.129722 17469 layer_factory.hpp:77] Creating layer res3a_branch2b
I0630 19:08:40.129729 17469 net.cpp:98] Creating Layer res3a_branch2b
I0630 19:08:40.129732 17469 net.cpp:439] res3a_branch2b <- res3a_branch2a/bn
I0630 19:08:40.129737 17469 net.cpp:413] res3a_branch2b -> res3a_branch2b
I0630 19:08:40.130600 17469 net.cpp:148] Setting up res3a_branch2b
I0630 19:08:40.130606 17469 net.cpp:155] Top shape: 50 128 28 28 (5017600)
I0630 19:08:40.130609 17469 net.cpp:163] Memory required for data: 893133600
I0630 19:08:40.130615 17469 layer_factory.hpp:77] Creating layer res3a_branch2b/bn
I0630 19:08:40.130622 17469 net.cpp:98] Creating Layer res3a_branch2b/bn
I0630 19:08:40.130626 17469 net.cpp:439] res3a_branch2b/bn <- res3a_branch2b
I0630 19:08:40.130631 17469 net.cpp:413] res3a_branch2b/bn -> res3a_branch2b/bn
I0630 19:08:40.130915 17469 net.cpp:148] Setting up res3a_branch2b/bn
I0630 19:08:40.130923 17469 net.cpp:155] Top shape: 50 128 28 28 (5017600)
I0630 19:08:40.130925 17469 net.cpp:163] Memory required for data: 913204000
I0630 19:08:40.130942 17469 layer_factory.hpp:77] Creating layer res3a_branch2b/relu
I0630 19:08:40.130946 17469 net.cpp:98] Creating Layer res3a_branch2b/relu
I0630 19:08:40.130951 17469 net.cpp:439] res3a_branch2b/relu <- res3a_branch2b/bn
I0630 19:08:40.130956 17469 net.cpp:400] res3a_branch2b/relu -> res3a_branch2b/bn (in-place)
I0630 19:08:40.130962 17469 net.cpp:148] Setting up res3a_branch2b/relu
I0630 19:08:40.130966 17469 net.cpp:155] Top shape: 50 128 28 28 (5017600)
I0630 19:08:40.130970 17469 net.cpp:163] Memory required for data: 933274400
I0630 19:08:40.130973 17469 layer_factory.hpp:77] Creating layer pool3
I0630 19:08:40.130978 17469 net.cpp:98] Creating Layer pool3
I0630 19:08:40.130982 17469 net.cpp:439] pool3 <- res3a_branch2b/bn
I0630 19:08:40.130986 17469 net.cpp:413] pool3 -> pool3
I0630 19:08:40.131008 17469 net.cpp:148] Setting up pool3
I0630 19:08:40.131012 17469 net.cpp:155] Top shape: 50 128 14 14 (1254400)
I0630 19:08:40.131016 17469 net.cpp:163] Memory required for data: 938292000
I0630 19:08:40.131021 17469 layer_factory.hpp:77] Creating layer res4a_branch2a
I0630 19:08:40.131026 17469 net.cpp:98] Creating Layer res4a_branch2a
I0630 19:08:40.131029 17469 net.cpp:439] res4a_branch2a <- pool3
I0630 19:08:40.131034 17469 net.cpp:413] res4a_branch2a -> res4a_branch2a
I0630 19:08:40.136967 17469 net.cpp:148] Setting up res4a_branch2a
I0630 19:08:40.136975 17469 net.cpp:155] Top shape: 50 256 14 14 (2508800)
I0630 19:08:40.136977 17469 net.cpp:163] Memory required for data: 948327200
I0630 19:08:40.136983 17469 layer_factory.hpp:77] Creating layer res4a_branch2a/bn
I0630 19:08:40.136988 17469 net.cpp:98] Creating Layer res4a_branch2a/bn
I0630 19:08:40.136992 17469 net.cpp:439] res4a_branch2a/bn <- res4a_branch2a
I0630 19:08:40.136997 17469 net.cpp:413] res4a_branch2a/bn -> res4a_branch2a/bn
I0630 19:08:40.137275 17469 net.cpp:148] Setting up res4a_branch2a/bn
I0630 19:08:40.137286 17469 net.cpp:155] Top shape: 50 256 14 14 (2508800)
I0630 19:08:40.137290 17469 net.cpp:163] Memory required for data: 958362400
I0630 19:08:40.137297 17469 layer_factory.hpp:77] Creating layer res4a_branch2a/relu
I0630 19:08:40.137301 17469 net.cpp:98] Creating Layer res4a_branch2a/relu
I0630 19:08:40.137305 17469 net.cpp:439] res4a_branch2a/relu <- res4a_branch2a/bn
I0630 19:08:40.137310 17469 net.cpp:400] res4a_branch2a/relu -> res4a_branch2a/bn (in-place)
I0630 19:08:40.137315 17469 net.cpp:148] Setting up res4a_branch2a/relu
I0630 19:08:40.137318 17469 net.cpp:155] Top shape: 50 256 14 14 (2508800)
I0630 19:08:40.137321 17469 net.cpp:163] Memory required for data: 968397600
I0630 19:08:40.137326 17469 layer_factory.hpp:77] Creating layer res4a_branch2b
I0630 19:08:40.137332 17469 net.cpp:98] Creating Layer res4a_branch2b
I0630 19:08:40.137336 17469 net.cpp:439] res4a_branch2b <- res4a_branch2a/bn
I0630 19:08:40.137341 17469 net.cpp:413] res4a_branch2b -> res4a_branch2b
I0630 19:08:40.140383 17469 net.cpp:148] Setting up res4a_branch2b
I0630 19:08:40.140390 17469 net.cpp:155] Top shape: 50 256 14 14 (2508800)
I0630 19:08:40.140394 17469 net.cpp:163] Memory required for data: 978432800
I0630 19:08:40.140400 17469 layer_factory.hpp:77] Creating layer res4a_branch2b/bn
I0630 19:08:40.140405 17469 net.cpp:98] Creating Layer res4a_branch2b/bn
I0630 19:08:40.140410 17469 net.cpp:439] res4a_branch2b/bn <- res4a_branch2b
I0630 19:08:40.140415 17469 net.cpp:413] res4a_branch2b/bn -> res4a_branch2b/bn
I0630 19:08:40.140694 17469 net.cpp:148] Setting up res4a_branch2b/bn
I0630 19:08:40.140700 17469 net.cpp:155] Top shape: 50 256 14 14 (2508800)
I0630 19:08:40.140704 17469 net.cpp:163] Memory required for data: 988468000
I0630 19:08:40.140712 17469 layer_factory.hpp:77] Creating layer res4a_branch2b/relu
I0630 19:08:40.140717 17469 net.cpp:98] Creating Layer res4a_branch2b/relu
I0630 19:08:40.140720 17469 net.cpp:439] res4a_branch2b/relu <- res4a_branch2b/bn
I0630 19:08:40.140724 17469 net.cpp:400] res4a_branch2b/relu -> res4a_branch2b/bn (in-place)
I0630 19:08:40.140730 17469 net.cpp:148] Setting up res4a_branch2b/relu
I0630 19:08:40.140740 17469 net.cpp:155] Top shape: 50 256 14 14 (2508800)
I0630 19:08:40.140743 17469 net.cpp:163] Memory required for data: 998503200
I0630 19:08:40.140748 17469 layer_factory.hpp:77] Creating layer pool4
I0630 19:08:40.140753 17469 net.cpp:98] Creating Layer pool4
I0630 19:08:40.140755 17469 net.cpp:439] pool4 <- res4a_branch2b/bn
I0630 19:08:40.140759 17469 net.cpp:413] pool4 -> pool4
I0630 19:08:40.140785 17469 net.cpp:148] Setting up pool4
I0630 19:08:40.140790 17469 net.cpp:155] Top shape: 50 256 7 7 (627200)
I0630 19:08:40.140794 17469 net.cpp:163] Memory required for data: 1001012000
I0630 19:08:40.140797 17469 layer_factory.hpp:77] Creating layer res5a_branch2a
I0630 19:08:40.140805 17469 net.cpp:98] Creating Layer res5a_branch2a
I0630 19:08:40.140807 17469 net.cpp:439] res5a_branch2a <- pool4
I0630 19:08:40.140812 17469 net.cpp:413] res5a_branch2a -> res5a_branch2a
I0630 19:08:40.165145 17469 net.cpp:148] Setting up res5a_branch2a
I0630 19:08:40.165168 17469 net.cpp:155] Top shape: 50 512 7 7 (1254400)
I0630 19:08:40.165171 17469 net.cpp:163] Memory required for data: 1006029600
I0630 19:08:40.165179 17469 layer_factory.hpp:77] Creating layer res5a_branch2a/bn
I0630 19:08:40.165187 17469 net.cpp:98] Creating Layer res5a_branch2a/bn
I0630 19:08:40.165192 17469 net.cpp:439] res5a_branch2a/bn <- res5a_branch2a
I0630 19:08:40.165199 17469 net.cpp:413] res5a_branch2a/bn -> res5a_branch2a/bn
I0630 19:08:40.165496 17469 net.cpp:148] Setting up res5a_branch2a/bn
I0630 19:08:40.165503 17469 net.cpp:155] Top shape: 50 512 7 7 (1254400)
I0630 19:08:40.165508 17469 net.cpp:163] Memory required for data: 1011047200
I0630 19:08:40.165515 17469 layer_factory.hpp:77] Creating layer res5a_branch2a/relu
I0630 19:08:40.165520 17469 net.cpp:98] Creating Layer res5a_branch2a/relu
I0630 19:08:40.165524 17469 net.cpp:439] res5a_branch2a/relu <- res5a_branch2a/bn
I0630 19:08:40.165529 17469 net.cpp:400] res5a_branch2a/relu -> res5a_branch2a/bn (in-place)
I0630 19:08:40.165536 17469 net.cpp:148] Setting up res5a_branch2a/relu
I0630 19:08:40.165541 17469 net.cpp:155] Top shape: 50 512 7 7 (1254400)
I0630 19:08:40.165544 17469 net.cpp:163] Memory required for data: 1016064800
I0630 19:08:40.165549 17469 layer_factory.hpp:77] Creating layer res5a_branch2b
I0630 19:08:40.165555 17469 net.cpp:98] Creating Layer res5a_branch2b
I0630 19:08:40.165558 17469 net.cpp:439] res5a_branch2b <- res5a_branch2a/bn
I0630 19:08:40.165563 17469 net.cpp:413] res5a_branch2b -> res5a_branch2b
I0630 19:08:40.177917 17469 net.cpp:148] Setting up res5a_branch2b
I0630 19:08:40.177932 17469 net.cpp:155] Top shape: 50 512 7 7 (1254400)
I0630 19:08:40.177937 17469 net.cpp:163] Memory required for data: 1021082400
I0630 19:08:40.177945 17469 layer_factory.hpp:77] Creating layer res5a_branch2b/bn
I0630 19:08:40.177954 17469 net.cpp:98] Creating Layer res5a_branch2b/bn
I0630 19:08:40.177960 17469 net.cpp:439] res5a_branch2b/bn <- res5a_branch2b
I0630 19:08:40.177968 17469 net.cpp:413] res5a_branch2b/bn -> res5a_branch2b/bn
I0630 19:08:40.178350 17469 net.cpp:148] Setting up res5a_branch2b/bn
I0630 19:08:40.178359 17469 net.cpp:155] Top shape: 50 512 7 7 (1254400)
I0630 19:08:40.178361 17469 net.cpp:163] Memory required for data: 1026100000
I0630 19:08:40.178366 17469 layer_factory.hpp:77] Creating layer res5a_branch2b/relu
I0630 19:08:40.178371 17469 net.cpp:98] Creating Layer res5a_branch2b/relu
I0630 19:08:40.178375 17469 net.cpp:439] res5a_branch2b/relu <- res5a_branch2b/bn
I0630 19:08:40.178376 17469 net.cpp:400] res5a_branch2b/relu -> res5a_branch2b/bn (in-place)
I0630 19:08:40.178381 17469 net.cpp:148] Setting up res5a_branch2b/relu
I0630 19:08:40.178383 17469 net.cpp:155] Top shape: 50 512 7 7 (1254400)
I0630 19:08:40.178385 17469 net.cpp:163] Memory required for data: 1031117600
I0630 19:08:40.178387 17469 layer_factory.hpp:77] Creating layer pool5
I0630 19:08:40.178393 17469 net.cpp:98] Creating Layer pool5
I0630 19:08:40.178395 17469 net.cpp:439] pool5 <- res5a_branch2b/bn
I0630 19:08:40.178398 17469 net.cpp:413] pool5 -> pool5
I0630 19:08:40.178436 17469 net.cpp:148] Setting up pool5
I0630 19:08:40.178441 17469 net.cpp:155] Top shape: 50 512 1 1 (25600)
I0630 19:08:40.178442 17469 net.cpp:163] Memory required for data: 1031220000
I0630 19:08:40.178444 17469 layer_factory.hpp:77] Creating layer fc1000
I0630 19:08:40.178449 17469 net.cpp:98] Creating Layer fc1000
I0630 19:08:40.178452 17469 net.cpp:439] fc1000 <- pool5
I0630 19:08:40.178454 17469 net.cpp:413] fc1000 -> fc1000
I0630 19:08:40.189321 17469 net.cpp:148] Setting up fc1000
I0630 19:08:40.189339 17469 net.cpp:155] Top shape: 50 1000 (50000)
I0630 19:08:40.189342 17469 net.cpp:163] Memory required for data: 1031420000
I0630 19:08:40.189347 17469 layer_factory.hpp:77] Creating layer fc1000_fc1000_0_split
I0630 19:08:40.189352 17469 net.cpp:98] Creating Layer fc1000_fc1000_0_split
I0630 19:08:40.189354 17469 net.cpp:439] fc1000_fc1000_0_split <- fc1000
I0630 19:08:40.189359 17469 net.cpp:413] fc1000_fc1000_0_split -> fc1000_fc1000_0_split_0
I0630 19:08:40.189368 17469 net.cpp:413] fc1000_fc1000_0_split -> fc1000_fc1000_0_split_1
I0630 19:08:40.189373 17469 net.cpp:413] fc1000_fc1000_0_split -> fc1000_fc1000_0_split_2
I0630 19:08:40.189407 17469 net.cpp:148] Setting up fc1000_fc1000_0_split
I0630 19:08:40.189411 17469 net.cpp:155] Top shape: 50 1000 (50000)
I0630 19:08:40.189414 17469 net.cpp:155] Top shape: 50 1000 (50000)
I0630 19:08:40.189415 17469 net.cpp:155] Top shape: 50 1000 (50000)
I0630 19:08:40.189417 17469 net.cpp:163] Memory required for data: 1032020000
I0630 19:08:40.189419 17469 layer_factory.hpp:77] Creating layer loss
I0630 19:08:40.189427 17469 net.cpp:98] Creating Layer loss
I0630 19:08:40.189429 17469 net.cpp:439] loss <- fc1000_fc1000_0_split_0
I0630 19:08:40.189431 17469 net.cpp:439] loss <- label_data_1_split_0
I0630 19:08:40.189435 17469 net.cpp:413] loss -> loss
…
