…
I0706 06:26:07.946147  9011 caffe.cpp:273] Use GPU with device ID 0
I0706 06:26:07.946661  9011 caffe.cpp:277] GPU device name: GeForce GTX 1080
I0706 06:26:08.951197  9011 net.cpp:56] Initializing net from parameters: 
name: "jacintonet11v2_test"
state {
  phase: TEST
}
layer {
  name: "data"
  type: "Data"
  top: "data"
  top: "label"
  transform_param {
    mirror: false
    crop_size: 224
    mean_value: 0
    mean_value: 0
    mean_value: 0
  }
  data_param {
    source: "./data/ilsvrc12_val_lmdb"
    batch_size: 50
    backend: LMDB
    threads: 1
  }
}
layer {
  name: "data/bias"
  type: "Bias"
  bottom: "data"
  top: "data/bias"
  param {
    lr_mult: 0
    decay_mult: 0
  }
  bias_param {
    filler {
      type: "constant"
      value: -128
    }
  }
}
layer {
  name: "conv1a"
  type: "Convolution"
  bottom: "data/bias"
  top: "conv1a"
  param {
    lr_mult: 1
    decay_mult: 1
  }
  param {
    lr_mult: 2
    decay_mult: 0
  }
  convolution_param {
    num_output: 32
    bias_term: true
    pad: 2
    kernel_size: 5
    group: 1
    stride: 2
    weight_filler {
      type: "msra"
    }
    bias_filler {
      type: "constant"
      value: 0
    }
    dilation: 1
  }
}
layer {
  name: "conv1a/bn"
  type: "BatchNorm"
  bottom: "conv1a"
  top: "conv1a/bn"
  param {
    lr_mult: 1
    decay_mult: 1
  }
  param {
    lr_mult: 1
    decay_mult: 1
  }
  param {
    lr_mult: 0
    decay_mult: 0
  }
  param {
    lr_mult: 0
    decay_mult: 0
  }
  batch_norm_param {
    moving_average_fraction: 0.99
    eps: 0.0001
    scale_filler {
      type: "constant"
      value: 1
    }
    bias_filler {
      type: "constant"
      value: 0
    }
  }
}
layer {
  name: "conv1a/relu"
  type: "ReLU"
  bottom: "conv1a/bn"
  top: "conv1a/bn"
}
layer {
  name: "conv1b"
  type: "Convolution"
  bottom: "conv1a/bn"
  top: "conv1b"
  param {
    lr_mult: 1
    decay_mult: 1
  }
  param {
    lr_mult: 2
    decay_mult: 0
  }
  convolution_param {
    num_output: 32
    bias_term: true
    pad: 1
    kernel_size: 3
    group: 4
    stride: 1
    weight_filler {
      type: "msra"
    }
    bias_filler {
      type: "constant"
      value: 0
    }
    dilation: 1
  }
}
layer {
  name: "conv1b/bn"
  type: "BatchNorm"
  bottom: "conv1b"
  top: "conv1b/bn"
  param {
    lr_mult: 1
    decay_mult: 1
  }
  param {
    lr_mult: 1
    decay_mult: 1
  }
  param {
    lr_mult: 0
    decay_mult: 0
  }
  param {
    lr_mult: 0
    decay_mult: 0
  }
  batch_norm_param {
    moving_average_fraction: 0.99
    eps: 0.0001
    scale_filler {
      type: "constant"
      value: 1
    }
    bias_filler {
      type: "constant"
      value: 0
    }
  }
}
layer {
  name: "conv1b/relu"
  type: "ReLU"
  bottom: "conv1b/bn"
  top: "conv1b/bn"
}
layer {
  name: "pool1"
  type: "Pooling"
  bottom: "conv1b/bn"
  top: "pool1"
  pooling_param {
    pool: MAX
    kernel_size: 2
    stride: 2
  }
}
layer {
  name: "res2a_branch2a"
  type: "Convolution"
  bottom: "pool1"
  top: "res2a_branch2a"
  param {
    lr_mult: 1
    decay_mult: 1
  }
  param {
    lr_mult: 2
    decay_mult: 0
  }
  convolution_param {
    num_output: 64
    bias_term: true
    pad: 1
    kernel_size: 3
    group: 1
    stride: 1
    weight_filler {
      type: "msra"
    }
    bias_filler {
      type: "constant"
      value: 0
    }
    dilation: 1
  }
}
layer {
  name: "res2a_branch2a/bn"
  type: "BatchNorm"
  bottom: "res2a_branch2a"
  top: "res2a_branch2a/bn"
  param {
    lr_mult: 1
    decay_mult: 1
  }
  param {
    lr_mult: 1
    decay_mult: 1
  }
  param {
    lr_mult: 0
    decay_mult: 0
  }
  param {
    lr_mult: 0
    decay_mult: 0
  }
  batch_norm_param {
    moving_average_fraction: 0.99
    eps: 0.0001
    scale_filler {
      type: "constant"
      value: 1
    }
    bias_filler {
      type: "constant"
      value: 0
    }
  }
}
layer {
  name: "res2a_branch2a/relu"
  type: "ReLU"
  bottom: "res2a_branch2a/bn"
  top: "res2a_branch2a/bn"
}
layer {
  name: "res2a_branch2b"
  type: "Convolution"
  bottom: "res2a_branch2a/bn"
  top: "res2a_branch2b"
  param {
    lr_mult: 1
    decay_mult: 1
  }
  param {
    lr_mult: 2
    decay_mult: 0
  }
  convolution_param {
    num_output: 64
    bias_term: true
    pad: 1
    kernel_size: 3
    group: 4
    stride: 1
    weight_filler {
      type: "msra"
    }
    bias_filler {
      type: "constant"
      value: 0
    }
    dilation: 1
  }
}
layer {
  name: "res2a_branch2b/bn"
  type: "BatchNorm"
  bottom: "res2a_branch2b"
  top: "res2a_branch2b/bn"
  param {
    lr_mult: 1
    decay_mult: 1
  }
  param {
    lr_mult: 1
    decay_mult: 1
  }
  param {
    lr_mult: 0
    decay_mult: 0
  }
  param {
    lr_mult: 0
    decay_mult: 0
  }
  batch_norm_param {
    moving_average_fraction: 0.99
    eps: 0.0001
    scale_filler {
      type: "constant"
      value: 1
    }
    bias_filler {
      type: "constant"
      value: 0
    }
  }
}
layer {
  name: "res2a_branch2b/relu"
  type: "ReLU"
  bottom: "res2a_branch2b/bn"
  top: "res2a_branch2b/bn"
}
layer {
  name: "pool2"
  type: "Pooling"
  bottom: "res2a_branch2b/bn"
  top: "pool2"
  pooling_param {
    pool: MAX
    kernel_size: 2
    stride: 2
  }
}
layer {
  name: "res3a_branch2a"
  type: "Convolution"
  bottom: "pool2"
  top: "res3a_branch2a"
  param {
    lr_mult: 1
    decay_mult: 1
  }
  param {
    lr_mult: 2
    decay_mult: 0
  }
  convolution_param {
    num_output: 128
    bias_term: true
    pad: 1
    kernel_size: 3
    group: 1
    stride: 1
    weight_filler {
      type: "msra"
    }
    bias_filler {
      type: "constant"
      value: 0
    }
    dilation: 1
  }
}
layer {
  name: "res3a_branch2a/bn"
  type: "BatchNorm"
  bottom: "res3a_branch2a"
  top: "res3a_branch2a/bn"
  param {
    lr_mult: 1
    decay_mult: 1
  }
  param {
    lr_mult: 1
    decay_mult: 1
  }
  param {
    lr_mult: 0
    decay_mult: 0
  }
  param {
    lr_mult: 0
    decay_mult: 0
  }
  batch_norm_param {
    moving_average_fraction: 0.99
    eps: 0.0001
    scale_filler {
      type: "constant"
      value: 1
    }
    bias_filler {
      type: "constant"
      value: 0
    }
  }
}
layer {
  name: "res3a_branch2a/relu"
  type: "ReLU"
  bottom: "res3a_branch2a/bn"
  top: "res3a_branch2a/bn"
}
layer {
  name: "res3a_branch2b"
  type: "Convolution"
  bottom: "res3a_branch2a/bn"
  top: "res3a_branch2b"
  param {
    lr_mult: 1
    decay_mult: 1
  }
  param {
    lr_mult: 2
    decay_mult: 0
  }
  convolution_param {
    num_output: 128
    bias_term: true
    pad: 1
    kernel_size: 3
    group: 4
    stride: 1
    weight_filler {
      type: "msra"
    }
    bias_filler {
      type: "constant"
      value: 0
    }
    dilation: 1
  }
}
layer {
  name: "res3a_branch2b/bn"
  type: "BatchNorm"
  bottom: "res3a_branch2b"
  top: "res3a_branch2b/bn"
  param {
    lr_mult: 1
    decay_mult: 1
  }
  param {
    lr_mult: 1
    decay_mult: 1
  }
  param {
    lr_mult: 0
    decay_mult: 0
  }
  param {
    lr_mult: 0
    decay_mult: 0
  }
  batch_norm_param {
    moving_average_fraction: 0.99
    eps: 0.0001
    scale_filler {
      type: "constant"
      value: 1
    }
    bias_filler {
      type: "constant"
      value: 0
    }
  }
}
layer {
  name: "res3a_branch2b/relu"
  type: "ReLU"
  bottom: "res3a_branch2b/bn"
  top: "res3a_branch2b/bn"
}
layer {
  name: "pool3"
  type: "Pooling"
  bottom: "res3a_branch2b/bn"
  top: "pool3"
  pooling_param {
    pool: MAX
    kernel_size: 2
    stride: 2
  }
}
layer {
  name: "res4a_branch2a"
  type: "Convolution"
  bottom: "pool3"
  top: "res4a_branch2a"
  param {
    lr_mult: 1
    decay_mult: 1
  }
  param {
    lr_mult: 2
    decay_mult: 0
  }
  convolution_param {
    num_output: 256
    bias_term: true
    pad: 1
    kernel_size: 3
    group: 1
    stride: 1
    weight_filler {
      type: "msra"
    }
    bias_filler {
      type: "constant"
      value: 0
    }
    dilation: 1
  }
}
layer {
  name: "res4a_branch2a/bn"
  type: "BatchNorm"
  bottom: "res4a_branch2a"
  top: "res4a_branch2a/bn"
  param {
    lr_mult: 1
    decay_mult: 1
  }
  param {
    lr_mult: 1
    decay_mult: 1
  }
  param {
    lr_mult: 0
    decay_mult: 0
  }
  param {
    lr_mult: 0
    decay_mult: 0
  }
  batch_norm_param {
    moving_average_fraction: 0.99
    eps: 0.0001
    scale_filler {
      type: "constant"
      value: 1
    }
    bias_filler {
      type: "constant"
      value: 0
    }
  }
}
layer {
  name: "res4a_branch2a/relu"
  type: "ReLU"
  bottom: "res4a_branch2a/bn"
  top: "res4a_branch2a/bn"
}
layer {
  name: "res4a_branch2b"
  type: "Convolution"
  bottom: "res4a_branch2a/bn"
  top: "res4a_branch2b"
  param {
    lr_mult: 1
    decay_mult: 1
  }
  param {
    lr_mult: 2
    decay_mult: 0
  }
  convolution_param {
    num_output: 256
    bias_term: true
    pad: 1
    kernel_size: 3
    group: 4
    stride: 1
    weight_filler {
      type: "msra"
    }
    bias_filler {
      type: "constant"
      value: 0
    }
    dilation: 1
  }
}
layer {
  name: "res4a_branch2b/bn"
  type: "BatchNorm"
  bottom: "res4a_branch2b"
  top: "res4a_branch2b/bn"
  param {
    lr_mult: 1
    decay_mult: 1
  }
  param {
    lr_mult: 1
    decay_mult: 1
  }
  param {
    lr_mult: 0
    decay_mult: 0
  }
  param {
    lr_mult: 0
    decay_mult: 0
  }
  batch_norm_param {
    moving_average_fraction: 0.99
    eps: 0.0001
    scale_filler {
      type: "constant"
      value: 1
    }
    bias_filler {
      type: "constant"
      value: 0
    }
  }
}
layer {
  name: "res4a_branch2b/relu"
  type: "ReLU"
  bottom: "res4a_branch2b/bn"
  top: "res4a_branch2b/bn"
}
layer {
  name: "pool4"
  type: "Pooling"
  bottom: "res4a_branch2b/bn"
  top: "pool4"
  pooling_param {
    pool: MAX
    kernel_size: 2
    stride: 2
  }
}
layer {
  name: "res5a_branch2a"
  type: "Convolution"
  bottom: "pool4"
  top: "res5a_branch2a"
  param {
    lr_mult: 1
    decay_mult: 1
  }
  param {
    lr_mult: 2
    decay_mult: 0
  }
  convolution_param {
    num_output: 512
    bias_term: true
    pad: 1
    kernel_size: 3
    group: 1
    stride: 1
    weight_filler {
      type: "msra"
    }
    bias_filler {
      type: "constant"
      value: 0
    }
    dilation: 1
  }
}
layer {
  name: "res5a_branch2a/bn"
  type: "BatchNorm"
  bottom: "res5a_branch2a"
  top: "res5a_branch2a/bn"
  param {
    lr_mult: 1
    decay_mult: 1
  }
  param {
    lr_mult: 1
    decay_mult: 1
  }
  param {
    lr_mult: 0
    decay_mult: 0
  }
  param {
    lr_mult: 0
    decay_mult: 0
  }
  batch_norm_param {
    moving_average_fraction: 0.99
    eps: 0.0001
    scale_filler {
      type: "constant"
      value: 1
    }
    bias_filler {
      type: "constant"
      value: 0
    }
  }
}
layer {
  name: "res5a_branch2a/relu"
  type: "ReLU"
  bottom: "res5a_branch2a/bn"
  top: "res5a_branch2a/bn"
}
layer {
  name: "res5a_branch2b"
  type: "Convolution"
  bottom: "res5a_branch2a/bn"
  top: "res5a_branch2b"
  param {
    lr_mult: 1
    decay_mult: 1
  }
  param {
    lr_mult: 2
    decay_mult: 0
  }
  convolution_param {
    num_output: 512
    bias_term: true
    pad: 1
    kernel_size: 3
    group: 4
    stride: 1
    weight_filler {
      type: "msra"
    }
    bias_filler {
      type: "constant"
      value: 0
    }
    dilation: 1
  }
}
layer {
  name: "res5a_branch2b/bn"
  type: "BatchNorm"
  bottom: "res5a_branch2b"
  top: "res5a_branch2b/bn"
  param {
    lr_mult: 1
    decay_mult: 1
  }
  param {
    lr_mult: 1
    decay_mult: 1
  }
  param {
    lr_mult: 0
    decay_mult: 0
  }
  param {
    lr_mult: 0
    decay_mult: 0
  }
  batch_norm_param {
    moving_average_fraction: 0.99
    eps: 0.0001
    scale_filler {
      type: "constant"
      value: 1
    }
    bias_filler {
      type: "constant"
      value: 0
    }
  }
}
layer {
  name: "res5a_branch2b/relu"
  type: "ReLU"
  bottom: "res5a_branch2b/bn"
  top: "res5a_branch2b/bn"
}
layer {
  name: "pool5"
  type: "Pooling"
  bottom: "res5a_branch2b/bn"
  top: "pool5"
  pooling_param {
    pool: AVE
    global_pooling: true
  }
}
layer {
  name: "fc1000"
  type: "InnerProduct"
  bottom: "pool5"
  top: "fc1000"
  param {
    lr_mult: 1
    decay_mult: 1
  }
  param {
    lr_mult: 2
    decay_mult: 0
  }
  inner_product_param {
    num_output: 1000
    weight_filler {
      type: "msra"
    }
    bias_filler {
      type: "constant"
      value: 0
    }
  }
}
layer {
  name: "loss"
  type: "SoftmaxWithLoss"
  bottom: "fc1000"
  bottom: "label"
  top: "loss"
  propagate_down: true
  propagate_down: false
}
layer {
  name: "accuracy/top1"
  type: "Accuracy"
  bottom: "fc1000"
  bottom: "label"
  top: "accuracy/top1"
  include {
    phase: TEST
  }
}
layer {
  name: "accuracy/top5"
  type: "Accuracy"
  bottom: "fc1000"
  bottom: "label"
  top: "accuracy/top5"
  include {
    phase: TEST
  }
  accuracy_param {
    top_k: 5
  }
}
I0706 06:26:08.952549  9011 layer_factory.hpp:77] Creating layer data
I0706 06:26:08.954138  9011 net.cpp:98] Creating Layer data
I0706 06:26:08.954177  9011 net.cpp:413] data -> data
I0706 06:26:08.954236  9011 net.cpp:413] data -> label
I0706 06:26:08.957336  9073 db_lmdb.cpp:35] Opened lmdb ./data/ilsvrc12_val_lmdb
I0706 06:26:08.961202  9011 data_layer.cpp:78] ReshapePrefetch 50, 3, 224, 224
I0706 06:26:08.961257  9011 data_layer.cpp:83] output data size: 50,3,224,224
I0706 06:26:08.989244  9011 net.cpp:148] Setting up data
I0706 06:26:08.989265  9011 net.cpp:155] Top shape: 50 3 224 224 (7526400)
I0706 06:26:08.989270  9011 net.cpp:155] Top shape: 50 (50)
I0706 06:26:08.989272  9011 net.cpp:163] Memory required for data: 30105800
I0706 06:26:08.989279  9011 layer_factory.hpp:77] Creating layer label_data_1_split
I0706 06:26:08.989292  9011 net.cpp:98] Creating Layer label_data_1_split
I0706 06:26:08.989296  9011 net.cpp:439] label_data_1_split <- label
I0706 06:26:08.989307  9011 net.cpp:413] label_data_1_split -> label_data_1_split_0
I0706 06:26:08.989315  9011 net.cpp:413] label_data_1_split -> label_data_1_split_1
I0706 06:26:08.989317  9011 net.cpp:413] label_data_1_split -> label_data_1_split_2
I0706 06:26:08.989406  9011 net.cpp:148] Setting up label_data_1_split
I0706 06:26:08.989416  9011 net.cpp:155] Top shape: 50 (50)
I0706 06:26:08.989419  9011 net.cpp:155] Top shape: 50 (50)
I0706 06:26:08.989421  9011 net.cpp:155] Top shape: 50 (50)
I0706 06:26:08.989423  9011 net.cpp:163] Memory required for data: 30106400
I0706 06:26:08.989426  9011 layer_factory.hpp:77] Creating layer data/bias
I0706 06:26:08.989434  9011 net.cpp:98] Creating Layer data/bias
I0706 06:26:08.989437  9011 net.cpp:439] data/bias <- data
I0706 06:26:08.989440  9011 net.cpp:413] data/bias -> data/bias
I0706 06:26:08.990051  9011 net.cpp:148] Setting up data/bias
I0706 06:26:08.990058  9011 net.cpp:155] Top shape: 50 3 224 224 (7526400)
I0706 06:26:08.990061  9011 net.cpp:163] Memory required for data: 60212000
I0706 06:26:08.990070  9011 layer_factory.hpp:77] Creating layer conv1a
I0706 06:26:08.990077  9011 net.cpp:98] Creating Layer conv1a
I0706 06:26:08.990080  9011 net.cpp:439] conv1a <- data/bias
I0706 06:26:08.990083  9011 net.cpp:413] conv1a -> conv1a
I0706 06:26:08.993876  9011 net.cpp:148] Setting up conv1a
I0706 06:26:08.993885  9011 net.cpp:155] Top shape: 50 32 112 112 (20070400)
I0706 06:26:08.993888  9011 net.cpp:163] Memory required for data: 140493600
I0706 06:26:08.993893  9011 layer_factory.hpp:77] Creating layer conv1a/bn
I0706 06:26:08.993921  9011 net.cpp:98] Creating Layer conv1a/bn
I0706 06:26:08.993927  9011 net.cpp:439] conv1a/bn <- conv1a
I0706 06:26:08.993932  9011 net.cpp:413] conv1a/bn -> conv1a/bn
I0706 06:26:08.994271  9011 net.cpp:148] Setting up conv1a/bn
I0706 06:26:08.994277  9011 net.cpp:155] Top shape: 50 32 112 112 (20070400)
I0706 06:26:08.994279  9011 net.cpp:163] Memory required for data: 220775200
I0706 06:26:08.994285  9011 layer_factory.hpp:77] Creating layer conv1a/relu
I0706 06:26:08.994289  9011 net.cpp:98] Creating Layer conv1a/relu
I0706 06:26:08.994292  9011 net.cpp:439] conv1a/relu <- conv1a/bn
I0706 06:26:08.994293  9011 net.cpp:400] conv1a/relu -> conv1a/bn (in-place)
I0706 06:26:08.994300  9011 net.cpp:148] Setting up conv1a/relu
I0706 06:26:08.994303  9011 net.cpp:155] Top shape: 50 32 112 112 (20070400)
I0706 06:26:08.994305  9011 net.cpp:163] Memory required for data: 301056800
I0706 06:26:08.994307  9011 layer_factory.hpp:77] Creating layer conv1b
I0706 06:26:08.994321  9011 net.cpp:98] Creating Layer conv1b
I0706 06:26:08.994324  9011 net.cpp:439] conv1b <- conv1a/bn
I0706 06:26:08.994328  9011 net.cpp:413] conv1b -> conv1b
I0706 06:26:08.994503  9011 net.cpp:148] Setting up conv1b
I0706 06:26:08.994508  9011 net.cpp:155] Top shape: 50 32 112 112 (20070400)
I0706 06:26:08.994510  9011 net.cpp:163] Memory required for data: 381338400
I0706 06:26:08.994514  9011 layer_factory.hpp:77] Creating layer conv1b/bn
I0706 06:26:08.994518  9011 net.cpp:98] Creating Layer conv1b/bn
I0706 06:26:08.994519  9011 net.cpp:439] conv1b/bn <- conv1b
I0706 06:26:08.994523  9011 net.cpp:413] conv1b/bn -> conv1b/bn
I0706 06:26:08.994827  9011 net.cpp:148] Setting up conv1b/bn
I0706 06:26:08.994833  9011 net.cpp:155] Top shape: 50 32 112 112 (20070400)
I0706 06:26:08.994835  9011 net.cpp:163] Memory required for data: 461620000
I0706 06:26:08.994840  9011 layer_factory.hpp:77] Creating layer conv1b/relu
I0706 06:26:08.994843  9011 net.cpp:98] Creating Layer conv1b/relu
I0706 06:26:08.994845  9011 net.cpp:439] conv1b/relu <- conv1b/bn
I0706 06:26:08.994848  9011 net.cpp:400] conv1b/relu -> conv1b/bn (in-place)
I0706 06:26:08.994851  9011 net.cpp:148] Setting up conv1b/relu
I0706 06:26:08.994854  9011 net.cpp:155] Top shape: 50 32 112 112 (20070400)
I0706 06:26:08.994856  9011 net.cpp:163] Memory required for data: 541901600
I0706 06:26:08.994858  9011 layer_factory.hpp:77] Creating layer pool1
I0706 06:26:08.994863  9011 net.cpp:98] Creating Layer pool1
I0706 06:26:08.994865  9011 net.cpp:439] pool1 <- conv1b/bn
I0706 06:26:08.994868  9011 net.cpp:413] pool1 -> pool1
I0706 06:26:08.994892  9011 net.cpp:148] Setting up pool1
I0706 06:26:08.994897  9011 net.cpp:155] Top shape: 50 32 56 56 (5017600)
I0706 06:26:08.994899  9011 net.cpp:163] Memory required for data: 561972000
I0706 06:26:08.994901  9011 layer_factory.hpp:77] Creating layer res2a_branch2a
I0706 06:26:08.994907  9011 net.cpp:98] Creating Layer res2a_branch2a
I0706 06:26:08.994910  9011 net.cpp:439] res2a_branch2a <- pool1
I0706 06:26:08.994912  9011 net.cpp:413] res2a_branch2a -> res2a_branch2a
I0706 06:26:08.995410  9011 net.cpp:148] Setting up res2a_branch2a
I0706 06:26:08.995416  9011 net.cpp:155] Top shape: 50 64 56 56 (10035200)
I0706 06:26:08.995419  9011 net.cpp:163] Memory required for data: 602112800
I0706 06:26:08.995424  9011 layer_factory.hpp:77] Creating layer res2a_branch2a/bn
I0706 06:26:08.995427  9011 net.cpp:98] Creating Layer res2a_branch2a/bn
I0706 06:26:08.995429  9011 net.cpp:439] res2a_branch2a/bn <- res2a_branch2a
I0706 06:26:08.995431  9011 net.cpp:413] res2a_branch2a/bn -> res2a_branch2a/bn
I0706 06:26:08.995724  9011 net.cpp:148] Setting up res2a_branch2a/bn
I0706 06:26:08.995730  9011 net.cpp:155] Top shape: 50 64 56 56 (10035200)
I0706 06:26:08.995733  9011 net.cpp:163] Memory required for data: 642253600
I0706 06:26:08.995736  9011 layer_factory.hpp:77] Creating layer res2a_branch2a/relu
I0706 06:26:08.995739  9011 net.cpp:98] Creating Layer res2a_branch2a/relu
I0706 06:26:08.995741  9011 net.cpp:439] res2a_branch2a/relu <- res2a_branch2a/bn
I0706 06:26:08.995744  9011 net.cpp:400] res2a_branch2a/relu -> res2a_branch2a/bn (in-place)
I0706 06:26:08.995748  9011 net.cpp:148] Setting up res2a_branch2a/relu
I0706 06:26:08.995749  9011 net.cpp:155] Top shape: 50 64 56 56 (10035200)
I0706 06:26:08.995751  9011 net.cpp:163] Memory required for data: 682394400
I0706 06:26:08.995754  9011 layer_factory.hpp:77] Creating layer res2a_branch2b
I0706 06:26:08.995756  9011 net.cpp:98] Creating Layer res2a_branch2b
I0706 06:26:08.995759  9011 net.cpp:439] res2a_branch2b <- res2a_branch2a/bn
I0706 06:26:08.995761  9011 net.cpp:413] res2a_branch2b -> res2a_branch2b
I0706 06:26:08.996064  9011 net.cpp:148] Setting up res2a_branch2b
I0706 06:26:08.996070  9011 net.cpp:155] Top shape: 50 64 56 56 (10035200)
I0706 06:26:08.996073  9011 net.cpp:163] Memory required for data: 722535200
I0706 06:26:08.996075  9011 layer_factory.hpp:77] Creating layer res2a_branch2b/bn
I0706 06:26:08.996078  9011 net.cpp:98] Creating Layer res2a_branch2b/bn
I0706 06:26:08.996086  9011 net.cpp:439] res2a_branch2b/bn <- res2a_branch2b
I0706 06:26:08.996089  9011 net.cpp:413] res2a_branch2b/bn -> res2a_branch2b/bn
I0706 06:26:08.996386  9011 net.cpp:148] Setting up res2a_branch2b/bn
I0706 06:26:08.996392  9011 net.cpp:155] Top shape: 50 64 56 56 (10035200)
I0706 06:26:08.996394  9011 net.cpp:163] Memory required for data: 762676000
I0706 06:26:08.996398  9011 layer_factory.hpp:77] Creating layer res2a_branch2b/relu
I0706 06:26:08.996402  9011 net.cpp:98] Creating Layer res2a_branch2b/relu
I0706 06:26:08.996403  9011 net.cpp:439] res2a_branch2b/relu <- res2a_branch2b/bn
I0706 06:26:08.996405  9011 net.cpp:400] res2a_branch2b/relu -> res2a_branch2b/bn (in-place)
I0706 06:26:08.996409  9011 net.cpp:148] Setting up res2a_branch2b/relu
I0706 06:26:08.996412  9011 net.cpp:155] Top shape: 50 64 56 56 (10035200)
I0706 06:26:08.996413  9011 net.cpp:163] Memory required for data: 802816800
I0706 06:26:08.996415  9011 layer_factory.hpp:77] Creating layer pool2
I0706 06:26:08.996418  9011 net.cpp:98] Creating Layer pool2
I0706 06:26:08.996420  9011 net.cpp:439] pool2 <- res2a_branch2b/bn
I0706 06:26:08.996423  9011 net.cpp:413] pool2 -> pool2
I0706 06:26:08.996439  9011 net.cpp:148] Setting up pool2
I0706 06:26:08.996443  9011 net.cpp:155] Top shape: 50 64 28 28 (2508800)
I0706 06:26:08.996445  9011 net.cpp:163] Memory required for data: 812852000
I0706 06:26:08.996448  9011 layer_factory.hpp:77] Creating layer res3a_branch2a
I0706 06:26:08.996451  9011 net.cpp:98] Creating Layer res3a_branch2a
I0706 06:26:08.996454  9011 net.cpp:439] res3a_branch2a <- pool2
I0706 06:26:08.996456  9011 net.cpp:413] res3a_branch2a -> res3a_branch2a
I0706 06:26:08.999059  9011 net.cpp:148] Setting up res3a_branch2a
I0706 06:26:08.999068  9011 net.cpp:155] Top shape: 50 128 28 28 (5017600)
I0706 06:26:08.999070  9011 net.cpp:163] Memory required for data: 832922400
I0706 06:26:08.999076  9011 layer_factory.hpp:77] Creating layer res3a_branch2a/bn
I0706 06:26:08.999084  9011 net.cpp:98] Creating Layer res3a_branch2a/bn
I0706 06:26:08.999088  9011 net.cpp:439] res3a_branch2a/bn <- res3a_branch2a
I0706 06:26:08.999091  9011 net.cpp:413] res3a_branch2a/bn -> res3a_branch2a/bn
I0706 06:26:08.999370  9011 net.cpp:148] Setting up res3a_branch2a/bn
I0706 06:26:08.999377  9011 net.cpp:155] Top shape: 50 128 28 28 (5017600)
I0706 06:26:08.999378  9011 net.cpp:163] Memory required for data: 852992800
I0706 06:26:08.999385  9011 layer_factory.hpp:77] Creating layer res3a_branch2a/relu
I0706 06:26:08.999389  9011 net.cpp:98] Creating Layer res3a_branch2a/relu
I0706 06:26:08.999392  9011 net.cpp:439] res3a_branch2a/relu <- res3a_branch2a/bn
I0706 06:26:08.999393  9011 net.cpp:400] res3a_branch2a/relu -> res3a_branch2a/bn (in-place)
I0706 06:26:08.999397  9011 net.cpp:148] Setting up res3a_branch2a/relu
I0706 06:26:08.999399  9011 net.cpp:155] Top shape: 50 128 28 28 (5017600)
I0706 06:26:08.999402  9011 net.cpp:163] Memory required for data: 873063200
I0706 06:26:08.999403  9011 layer_factory.hpp:77] Creating layer res3a_branch2b
I0706 06:26:08.999408  9011 net.cpp:98] Creating Layer res3a_branch2b
I0706 06:26:08.999409  9011 net.cpp:439] res3a_branch2b <- res3a_branch2a/bn
I0706 06:26:08.999413  9011 net.cpp:413] res3a_branch2b -> res3a_branch2b
I0706 06:26:09.000272  9011 net.cpp:148] Setting up res3a_branch2b
I0706 06:26:09.000277  9011 net.cpp:155] Top shape: 50 128 28 28 (5017600)
I0706 06:26:09.000279  9011 net.cpp:163] Memory required for data: 893133600
I0706 06:26:09.000283  9011 layer_factory.hpp:77] Creating layer res3a_branch2b/bn
I0706 06:26:09.000288  9011 net.cpp:98] Creating Layer res3a_branch2b/bn
I0706 06:26:09.000293  9011 net.cpp:439] res3a_branch2b/bn <- res3a_branch2b
I0706 06:26:09.000296  9011 net.cpp:413] res3a_branch2b/bn -> res3a_branch2b/bn
I0706 06:26:09.000573  9011 net.cpp:148] Setting up res3a_branch2b/bn
I0706 06:26:09.000579  9011 net.cpp:155] Top shape: 50 128 28 28 (5017600)
I0706 06:26:09.000581  9011 net.cpp:163] Memory required for data: 913204000
I0706 06:26:09.000592  9011 layer_factory.hpp:77] Creating layer res3a_branch2b/relu
I0706 06:26:09.000597  9011 net.cpp:98] Creating Layer res3a_branch2b/relu
I0706 06:26:09.000598  9011 net.cpp:439] res3a_branch2b/relu <- res3a_branch2b/bn
I0706 06:26:09.000600  9011 net.cpp:400] res3a_branch2b/relu -> res3a_branch2b/bn (in-place)
I0706 06:26:09.000604  9011 net.cpp:148] Setting up res3a_branch2b/relu
I0706 06:26:09.000607  9011 net.cpp:155] Top shape: 50 128 28 28 (5017600)
I0706 06:26:09.000608  9011 net.cpp:163] Memory required for data: 933274400
I0706 06:26:09.000610  9011 layer_factory.hpp:77] Creating layer pool3
I0706 06:26:09.000613  9011 net.cpp:98] Creating Layer pool3
I0706 06:26:09.000614  9011 net.cpp:439] pool3 <- res3a_branch2b/bn
I0706 06:26:09.000617  9011 net.cpp:413] pool3 -> pool3
I0706 06:26:09.000636  9011 net.cpp:148] Setting up pool3
I0706 06:26:09.000640  9011 net.cpp:155] Top shape: 50 128 14 14 (1254400)
I0706 06:26:09.000643  9011 net.cpp:163] Memory required for data: 938292000
I0706 06:26:09.000644  9011 layer_factory.hpp:77] Creating layer res4a_branch2a
I0706 06:26:09.000648  9011 net.cpp:98] Creating Layer res4a_branch2a
I0706 06:26:09.000650  9011 net.cpp:439] res4a_branch2a <- pool3
I0706 06:26:09.000653  9011 net.cpp:413] res4a_branch2a -> res4a_branch2a
I0706 06:26:09.006599  9011 net.cpp:148] Setting up res4a_branch2a
I0706 06:26:09.006608  9011 net.cpp:155] Top shape: 50 256 14 14 (2508800)
I0706 06:26:09.006610  9011 net.cpp:163] Memory required for data: 948327200
I0706 06:26:09.006614  9011 layer_factory.hpp:77] Creating layer res4a_branch2a/bn
I0706 06:26:09.006618  9011 net.cpp:98] Creating Layer res4a_branch2a/bn
I0706 06:26:09.006620  9011 net.cpp:439] res4a_branch2a/bn <- res4a_branch2a
I0706 06:26:09.006624  9011 net.cpp:413] res4a_branch2a/bn -> res4a_branch2a/bn
I0706 06:26:09.006913  9011 net.cpp:148] Setting up res4a_branch2a/bn
I0706 06:26:09.006922  9011 net.cpp:155] Top shape: 50 256 14 14 (2508800)
I0706 06:26:09.006923  9011 net.cpp:163] Memory required for data: 958362400
I0706 06:26:09.006928  9011 layer_factory.hpp:77] Creating layer res4a_branch2a/relu
I0706 06:26:09.006932  9011 net.cpp:98] Creating Layer res4a_branch2a/relu
I0706 06:26:09.006934  9011 net.cpp:439] res4a_branch2a/relu <- res4a_branch2a/bn
I0706 06:26:09.006937  9011 net.cpp:400] res4a_branch2a/relu -> res4a_branch2a/bn (in-place)
I0706 06:26:09.006940  9011 net.cpp:148] Setting up res4a_branch2a/relu
I0706 06:26:09.006942  9011 net.cpp:155] Top shape: 50 256 14 14 (2508800)
I0706 06:26:09.006944  9011 net.cpp:163] Memory required for data: 968397600
I0706 06:26:09.006947  9011 layer_factory.hpp:77] Creating layer res4a_branch2b
I0706 06:26:09.006949  9011 net.cpp:98] Creating Layer res4a_branch2b
I0706 06:26:09.006952  9011 net.cpp:439] res4a_branch2b <- res4a_branch2a/bn
I0706 06:26:09.006954  9011 net.cpp:413] res4a_branch2b -> res4a_branch2b
I0706 06:26:09.010004  9011 net.cpp:148] Setting up res4a_branch2b
I0706 06:26:09.010011  9011 net.cpp:155] Top shape: 50 256 14 14 (2508800)
I0706 06:26:09.010013  9011 net.cpp:163] Memory required for data: 978432800
I0706 06:26:09.010017  9011 layer_factory.hpp:77] Creating layer res4a_branch2b/bn
I0706 06:26:09.010021  9011 net.cpp:98] Creating Layer res4a_branch2b/bn
I0706 06:26:09.010032  9011 net.cpp:439] res4a_branch2b/bn <- res4a_branch2b
I0706 06:26:09.010038  9011 net.cpp:413] res4a_branch2b/bn -> res4a_branch2b/bn
I0706 06:26:09.010355  9011 net.cpp:148] Setting up res4a_branch2b/bn
I0706 06:26:09.010363  9011 net.cpp:155] Top shape: 50 256 14 14 (2508800)
I0706 06:26:09.010366  9011 net.cpp:163] Memory required for data: 988468000
I0706 06:26:09.010375  9011 layer_factory.hpp:77] Creating layer res4a_branch2b/relu
I0706 06:26:09.010380  9011 net.cpp:98] Creating Layer res4a_branch2b/relu
I0706 06:26:09.010385  9011 net.cpp:439] res4a_branch2b/relu <- res4a_branch2b/bn
I0706 06:26:09.010390  9011 net.cpp:400] res4a_branch2b/relu -> res4a_branch2b/bn (in-place)
I0706 06:26:09.010396  9011 net.cpp:148] Setting up res4a_branch2b/relu
I0706 06:26:09.010408  9011 net.cpp:155] Top shape: 50 256 14 14 (2508800)
I0706 06:26:09.010412  9011 net.cpp:163] Memory required for data: 998503200
I0706 06:26:09.010416  9011 layer_factory.hpp:77] Creating layer pool4
I0706 06:26:09.010421  9011 net.cpp:98] Creating Layer pool4
I0706 06:26:09.010426  9011 net.cpp:439] pool4 <- res4a_branch2b/bn
I0706 06:26:09.010431  9011 net.cpp:413] pool4 -> pool4
I0706 06:26:09.010457  9011 net.cpp:148] Setting up pool4
I0706 06:26:09.010463  9011 net.cpp:155] Top shape: 50 256 7 7 (627200)
I0706 06:26:09.010468  9011 net.cpp:163] Memory required for data: 1001012000
I0706 06:26:09.010471  9011 layer_factory.hpp:77] Creating layer res5a_branch2a
I0706 06:26:09.010478  9011 net.cpp:98] Creating Layer res5a_branch2a
I0706 06:26:09.010483  9011 net.cpp:439] res5a_branch2a <- pool4
I0706 06:26:09.010488  9011 net.cpp:413] res5a_branch2a -> res5a_branch2a
I0706 06:26:09.034971  9011 net.cpp:148] Setting up res5a_branch2a
I0706 06:26:09.034992  9011 net.cpp:155] Top shape: 50 512 7 7 (1254400)
I0706 06:26:09.034996  9011 net.cpp:163] Memory required for data: 1006029600
I0706 06:26:09.035003  9011 layer_factory.hpp:77] Creating layer res5a_branch2a/bn
I0706 06:26:09.035015  9011 net.cpp:98] Creating Layer res5a_branch2a/bn
I0706 06:26:09.035020  9011 net.cpp:439] res5a_branch2a/bn <- res5a_branch2a
I0706 06:26:09.035027  9011 net.cpp:413] res5a_branch2a/bn -> res5a_branch2a/bn
I0706 06:26:09.035329  9011 net.cpp:148] Setting up res5a_branch2a/bn
I0706 06:26:09.035336  9011 net.cpp:155] Top shape: 50 512 7 7 (1254400)
I0706 06:26:09.035341  9011 net.cpp:163] Memory required for data: 1011047200
I0706 06:26:09.035351  9011 layer_factory.hpp:77] Creating layer res5a_branch2a/relu
I0706 06:26:09.035356  9011 net.cpp:98] Creating Layer res5a_branch2a/relu
I0706 06:26:09.035359  9011 net.cpp:439] res5a_branch2a/relu <- res5a_branch2a/bn
I0706 06:26:09.035364  9011 net.cpp:400] res5a_branch2a/relu -> res5a_branch2a/bn (in-place)
I0706 06:26:09.035370  9011 net.cpp:148] Setting up res5a_branch2a/relu
I0706 06:26:09.035375  9011 net.cpp:155] Top shape: 50 512 7 7 (1254400)
I0706 06:26:09.035378  9011 net.cpp:163] Memory required for data: 1016064800
I0706 06:26:09.035383  9011 layer_factory.hpp:77] Creating layer res5a_branch2b
I0706 06:26:09.035390  9011 net.cpp:98] Creating Layer res5a_branch2b
I0706 06:26:09.035394  9011 net.cpp:439] res5a_branch2b <- res5a_branch2a/bn
I0706 06:26:09.035399  9011 net.cpp:413] res5a_branch2b -> res5a_branch2b
I0706 06:26:09.048848  9011 net.cpp:148] Setting up res5a_branch2b
I0706 06:26:09.048867  9011 net.cpp:155] Top shape: 50 512 7 7 (1254400)
I0706 06:26:09.048871  9011 net.cpp:163] Memory required for data: 1021082400
I0706 06:26:09.048882  9011 layer_factory.hpp:77] Creating layer res5a_branch2b/bn
I0706 06:26:09.048893  9011 net.cpp:98] Creating Layer res5a_branch2b/bn
I0706 06:26:09.048897  9011 net.cpp:439] res5a_branch2b/bn <- res5a_branch2b
I0706 06:26:09.048903  9011 net.cpp:413] res5a_branch2b/bn -> res5a_branch2b/bn
I0706 06:26:09.049201  9011 net.cpp:148] Setting up res5a_branch2b/bn
I0706 06:26:09.049207  9011 net.cpp:155] Top shape: 50 512 7 7 (1254400)
I0706 06:26:09.049211  9011 net.cpp:163] Memory required for data: 1026100000
I0706 06:26:09.049219  9011 layer_factory.hpp:77] Creating layer res5a_branch2b/relu
I0706 06:26:09.049224  9011 net.cpp:98] Creating Layer res5a_branch2b/relu
I0706 06:26:09.049229  9011 net.cpp:439] res5a_branch2b/relu <- res5a_branch2b/bn
I0706 06:26:09.049233  9011 net.cpp:400] res5a_branch2b/relu -> res5a_branch2b/bn (in-place)
I0706 06:26:09.049240  9011 net.cpp:148] Setting up res5a_branch2b/relu
I0706 06:26:09.049244  9011 net.cpp:155] Top shape: 50 512 7 7 (1254400)
I0706 06:26:09.049247  9011 net.cpp:163] Memory required for data: 1031117600
I0706 06:26:09.049252  9011 layer_factory.hpp:77] Creating layer pool5
I0706 06:26:09.049259  9011 net.cpp:98] Creating Layer pool5
I0706 06:26:09.049263  9011 net.cpp:439] pool5 <- res5a_branch2b/bn
I0706 06:26:09.049268  9011 net.cpp:413] pool5 -> pool5
I0706 06:26:09.049299  9011 net.cpp:148] Setting up pool5
I0706 06:26:09.049305  9011 net.cpp:155] Top shape: 50 512 1 1 (25600)
I0706 06:26:09.049309  9011 net.cpp:163] Memory required for data: 1031220000
I0706 06:26:09.049314  9011 layer_factory.hpp:77] Creating layer fc1000
I0706 06:26:09.049324  9011 net.cpp:98] Creating Layer fc1000
I0706 06:26:09.049327  9011 net.cpp:439] fc1000 <- pool5
I0706 06:26:09.049332  9011 net.cpp:413] fc1000 -> fc1000
I0706 06:26:09.060247  9011 net.cpp:148] Setting up fc1000
I0706 06:26:09.060263  9011 net.cpp:155] Top shape: 50 1000 (50000)
I0706 06:26:09.060266  9011 net.cpp:163] Memory required for data: 1031420000
I0706 06:26:09.060274  9011 layer_factory.hpp:77] Creating layer fc1000_fc1000_0_split
I0706 06:26:09.060282  9011 net.cpp:98] Creating Layer fc1000_fc1000_0_split
I0706 06:26:09.060287  9011 net.cpp:439] fc1000_fc1000_0_split <- fc1000
I0706 06:26:09.060295  9011 net.cpp:413] fc1000_fc1000_0_split -> fc1000_fc1000_0_split_0
I0706 06:26:09.060303  9011 net.cpp:413] fc1000_fc1000_0_split -> fc1000_fc1000_0_split_1
I0706 06:26:09.060308  9011 net.cpp:413] fc1000_fc1000_0_split -> fc1000_fc1000_0_split_2
I0706 06:26:09.060343  9011 net.cpp:148] Setting up fc1000_fc1000_0_split
I0706 06:26:09.060348  9011 net.cpp:155] Top shape: 50 1000 (50000)
I0706 06:26:09.060353  9011 net.cpp:155] Top shape: 50 1000 (50000)
I0706 06:26:09.060358  9011 net.cpp:155] Top shape: 50 1000 (50000)
I0706 06:26:09.060361  9011 net.cpp:163] Memory required for data: 1032020000
I0706 06:26:09.060365  9011 layer_factory.hpp:77] Creating layer loss
I0706 06:26:09.060374  9011 net.cpp:98] Creating Layer loss
I0706 06:26:09.060379  9011 net.cpp:439] loss <- fc1000_fc1000_0_split_0
I0706 06:26:09.060384  9011 net.cpp:439] loss <- label_data_1_split_0
I0706 06:26:09.060389  9011 net.cpp:413] loss -> loss
…
