…
I0630 01:13:03.599740 21943 net.cpp:327] The NetState phase (0) differed from the phase (1) specified by a rule in layer accuracy/top1
I0630 01:13:03.599746 21943 net.cpp:327] The NetState phase (0) differed from the phase (1) specified by a rule in layer accuracy/top5
I0630 01:13:03.599903 21943 net.cpp:56] Initializing net from parameters: 
name: "jacintonet11v2_train"
state {
  phase: TRAIN
}
layer {
  name: "data"
  type: "Data"
  top: "data"
  top: "label"
  transform_param {
    mirror: true
    crop_size: 32
    mean_value: 0
    mean_value: 0
    mean_value: 0
  }
  data_param {
    source: "./data/cifar10_train_lmdb"
    batch_size: 21
    backend: LMDB
    threads: 1
  }
}
layer {
  name: "data/bias"
  type: "Bias"
  bottom: "data"
  top: "data/bias"
  param {
    lr_mult: 0
    decay_mult: 0
  }
  bias_param {
    filler {
      type: "constant"
      value: -128
    }
  }
}
layer {
  name: "conv1a"
  type: "Convolution"
  bottom: "data/bias"
  top: "conv1a"
  param {
    lr_mult: 1
    decay_mult: 1
  }
  param {
    lr_mult: 2
    decay_mult: 0
  }
  convolution_param {
    num_output: 32
    bias_term: true
    pad: 2
    kernel_size: 5
    group: 1
    stride: 1
    weight_filler {
      type: "msra"
    }
    bias_filler {
      type: "constant"
      value: 0
    }
    dilation: 1
  }
}
layer {
  name: "conv1a/bn"
  type: "BatchNorm"
  bottom: "conv1a"
  top: "conv1a/bn"
  param {
    lr_mult: 1
    decay_mult: 1
  }
  param {
    lr_mult: 1
    decay_mult: 1
  }
  param {
    lr_mult: 0
    decay_mult: 0
  }
  param {
    lr_mult: 0
    decay_mult: 0
  }
  batch_norm_param {
    moving_average_fraction: 0.99
    eps: 0.0001
    scale_filler {
      type: "constant"
      value: 1
    }
    bias_filler {
      type: "constant"
      value: 0
    }
  }
}
layer {
  name: "conv1a/relu"
  type: "ReLU"
  bottom: "conv1a/bn"
  top: "conv1a/bn"
}
layer {
  name: "conv1b"
  type: "Convolution"
  bottom: "conv1a/bn"
  top: "conv1b"
  param {
    lr_mult: 1
    decay_mult: 1
  }
  param {
    lr_mult: 2
    decay_mult: 0
  }
  convolution_param {
    num_output: 32
    bias_term: true
    pad: 1
    kernel_size: 3
    group: 4
    stride: 1
    weight_filler {
      type: "msra"
    }
    bias_filler {
      type: "constant"
      value: 0
    }
    dilation: 1
  }
}
layer {
  name: "conv1b/bn"
  type: "BatchNorm"
  bottom: "conv1b"
  top: "conv1b/bn"
  param {
    lr_mult: 1
    decay_mult: 1
  }
  param {
    lr_mult: 1
    decay_mult: 1
  }
  param {
    lr_mult: 0
    decay_mult: 0
  }
  param {
    lr_mult: 0
    decay_mult: 0
  }
  batch_norm_param {
    moving_average_fraction: 0.99
    eps: 0.0001
    scale_filler {
      type: "constant"
      value: 1
    }
    bias_filler {
      type: "constant"
      value: 0
    }
  }
}
layer {
  name: "conv1b/relu"
  type: "ReLU"
  bottom: "conv1b/bn"
  top: "conv1b/bn"
}
layer {
  name: "pool1"
  type: "Pooling"
  bottom: "conv1b/bn"
  top: "pool1"
  pooling_param {
    pool: MAX
    kernel_size: 1
    stride: 1
  }
}
layer {
  name: "res2a_branch2a"
  type: "Convolution"
  bottom: "pool1"
  top: "res2a_branch2a"
  param {
    lr_mult: 1
    decay_mult: 1
  }
  param {
    lr_mult: 2
    decay_mult: 0
  }
  convolution_param {
    num_output: 64
    bias_term: true
    pad: 1
    kernel_size: 3
    group: 1
    stride: 1
    weight_filler {
      type: "msra"
    }
    bias_filler {
      type: "constant"
      value: 0
    }
    dilation: 1
  }
}
layer {
  name: "res2a_branch2a/bn"
  type: "BatchNorm"
  bottom: "res2a_branch2a"
  top: "res2a_branch2a/bn"
  param {
    lr_mult: 1
    decay_mult: 1
  }
  param {
    lr_mult: 1
    decay_mult: 1
  }
  param {
    lr_mult: 0
    decay_mult: 0
  }
  param {
    lr_mult: 0
    decay_mult: 0
  }
  batch_norm_param {
    moving_average_fraction: 0.99
    eps: 0.0001
    scale_filler {
      type: "constant"
      value: 1
    }
    bias_filler {
      type: "constant"
      value: 0
    }
  }
}
layer {
  name: "res2a_branch2a/relu"
  type: "ReLU"
  bottom: "res2a_branch2a/bn"
  top: "res2a_branch2a/bn"
}
layer {
  name: "res2a_branch2b"
  type: "Convolution"
  bottom: "res2a_branch2a/bn"
  top: "res2a_branch2b"
  param {
    lr_mult: 1
    decay_mult: 1
  }
  param {
    lr_mult: 2
    decay_mult: 0
  }
  convolution_param {
    num_output: 64
    bias_term: true
    pad: 1
    kernel_size: 3
    group: 4
    stride: 1
    weight_filler {
      type: "msra"
    }
    bias_filler {
      type: "constant"
      value: 0
    }
    dilation: 1
  }
}
layer {
  name: "res2a_branch2b/bn"
  type: "BatchNorm"
  bottom: "res2a_branch2b"
  top: "res2a_branch2b/bn"
  param {
    lr_mult: 1
    decay_mult: 1
  }
  param {
    lr_mult: 1
    decay_mult: 1
  }
  param {
    lr_mult: 0
    decay_mult: 0
  }
  param {
    lr_mult: 0
    decay_mult: 0
  }
  batch_norm_param {
    moving_average_fraction: 0.99
    eps: 0.0001
    scale_filler {
      type: "constant"
      value: 1
    }
    bias_filler {
      type: "constant"
      value: 0
    }
  }
}
layer {
  name: "res2a_branch2b/relu"
  type: "ReLU"
  bottom: "res2a_branch2b/bn"
  top: "res2a_branch2b/bn"
}
layer {
  name: "pool2"
  type: "Pooling"
  bottom: "res2a_branch2b/bn"
  top: "pool2"
  pooling_param {
    pool: MAX
    kernel_size: 2
    stride: 2
  }
}
layer {
  name: "res3a_branch2a"
  type: "Convolution"
  bottom: "pool2"
  top: "res3a_branch2a"
  param {
    lr_mult: 1
    decay_mult: 1
  }
  param {
    lr_mult: 2
    decay_mult: 0
  }
  convolution_param {
    num_output: 128
    bias_term: true
    pad: 1
    kernel_size: 3
    group: 1
    stride: 1
    weight_filler {
      type: "msra"
    }
    bias_filler {
      type: "constant"
      value: 0
    }
    dilation: 1
  }
}
layer {
  name: "res3a_branch2a/bn"
  type: "BatchNorm"
  bottom: "res3a_branch2a"
  top: "res3a_branch2a/bn"
  param {
    lr_mult: 1
    decay_mult: 1
  }
  param {
    lr_mult: 1
    decay_mult: 1
  }
  param {
    lr_mult: 0
    decay_mult: 0
  }
  param {
    lr_mult: 0
    decay_mult: 0
  }
  batch_norm_param {
    moving_average_fraction: 0.99
    eps: 0.0001
    scale_filler {
      type: "constant"
      value: 1
    }
    bias_filler {
      type: "constant"
      value: 0
    }
  }
}
layer {
  name: "res3a_branch2a/relu"
  type: "ReLU"
  bottom: "res3a_branch2a/bn"
  top: "res3a_branch2a/bn"
}
layer {
  name: "res3a_branch2b"
  type: "Convolution"
  bottom: "res3a_branch2a/bn"
  top: "res3a_branch2b"
  param {
    lr_mult: 1
    decay_mult: 1
  }
  param {
    lr_mult: 2
    decay_mult: 0
  }
  convolution_param {
    num_output: 128
    bias_term: true
    pad: 1
    kernel_size: 3
    group: 4
    stride: 1
    weight_filler {
      type: "msra"
    }
    bias_filler {
      type: "constant"
      value: 0
    }
    dilation: 1
  }
}
layer {
  name: "res3a_branch2b/bn"
  type: "BatchNorm"
  bottom: "res3a_branch2b"
  top: "res3a_branch2b/bn"
  param {
    lr_mult: 1
    decay_mult: 1
  }
  param {
    lr_mult: 1
    decay_mult: 1
  }
  param {
    lr_mult: 0
    decay_mult: 0
  }
  param {
    lr_mult: 0
    decay_mult: 0
  }
  batch_norm_param {
    moving_average_fraction: 0.99
    eps: 0.0001
    scale_filler {
      type: "constant"
      value: 1
    }
    bias_filler {
      type: "constant"
      value: 0
    }
  }
}
layer {
  name: "res3a_branch2b/relu"
  type: "ReLU"
  bottom: "res3a_branch2b/bn"
  top: "res3a_branch2b/bn"
}
layer {
  name: "pool3"
  type: "Pooling"
  bottom: "res3a_branch2b/bn"
  top: "pool3"
  pooling_param {
    pool: MAX
    kernel_size: 1
    stride: 1
  }
}
layer {
  name: "res4a_branch2a"
  type: "Convolution"
  bottom: "pool3"
  top: "res4a_branch2a"
  param {
    lr_mult: 1
    decay_mult: 1
  }
  param {
    lr_mult: 2
    decay_mult: 0
  }
  convolution_param {
    num_output: 256
    bias_term: true
    pad: 1
    kernel_size: 3
    group: 1
    stride: 1
    weight_filler {
      type: "msra"
    }
    bias_filler {
      type: "constant"
      value: 0
    }
    dilation: 1
  }
}
layer {
  name: "res4a_branch2a/bn"
  type: "BatchNorm"
  bottom: "res4a_branch2a"
  top: "res4a_branch2a/bn"
  param {
    lr_mult: 1
    decay_mult: 1
  }
  param {
    lr_mult: 1
    decay_mult: 1
  }
  param {
    lr_mult: 0
    decay_mult: 0
  }
  param {
    lr_mult: 0
    decay_mult: 0
  }
  batch_norm_param {
    moving_average_fraction: 0.99
    eps: 0.0001
    scale_filler {
      type: "constant"
      value: 1
    }
    bias_filler {
      type: "constant"
      value: 0
    }
  }
}
layer {
  name: "res4a_branch2a/relu"
  type: "ReLU"
  bottom: "res4a_branch2a/bn"
  top: "res4a_branch2a/bn"
}
layer {
  name: "res4a_branch2b"
  type: "Convolution"
  bottom: "res4a_branch2a/bn"
  top: "res4a_branch2b"
  param {
    lr_mult: 1
    decay_mult: 1
  }
  param {
    lr_mult: 2
    decay_mult: 0
  }
  convolution_param {
    num_output: 256
    bias_term: true
    pad: 1
    kernel_size: 3
    group: 4
    stride: 1
    weight_filler {
      type: "msra"
    }
    bias_filler {
      type: "constant"
      value: 0
    }
    dilation: 1
  }
}
layer {
  name: "res4a_branch2b/bn"
  type: "BatchNorm"
  bottom: "res4a_branch2b"
  top: "res4a_branch2b/bn"
  param {
    lr_mult: 1
    decay_mult: 1
  }
  param {
    lr_mult: 1
    decay_mult: 1
  }
  param {
    lr_mult: 0
    decay_mult: 0
  }
  param {
    lr_mult: 0
    decay_mult: 0
  }
  batch_norm_param {
    moving_average_fraction: 0.99
    eps: 0.0001
    scale_filler {
      type: "constant"
      value: 1
    }
    bias_filler {
      type: "constant"
      value: 0
    }
  }
}
layer {
  name: "res4a_branch2b/relu"
  type: "ReLU"
  bottom: "res4a_branch2b/bn"
  top: "res4a_branch2b/bn"
}
layer {
  name: "pool4"
  type: "Pooling"
  bottom: "res4a_branch2b/bn"
  top: "pool4"
  pooling_param {
    pool: MAX
    kernel_size: 2
    stride: 2
  }
}
layer {
  name: "res5a_branch2a"
  type: "Convolution"
  bottom: "pool4"
  top: "res5a_branch2a"
  param {
    lr_mult: 1
    decay_mult: 1
  }
  param {
    lr_mult: 2
    decay_mult: 0
  }
  convolution_param {
    num_output: 512
    bias_term: true
    pad: 1
    kernel_size: 3
    group: 1
    stride: 1
    weight_filler {
      type: "msra"
    }
    bias_filler {
      type: "constant"
      value: 0
    }
    dilation: 1
  }
}
layer {
  name: "res5a_branch2a/bn"
  type: "BatchNorm"
  bottom: "res5a_branch2a"
  top: "res5a_branch2a/bn"
  param {
    lr_mult: 1
    decay_mult: 1
  }
  param {
    lr_mult: 1
    decay_mult: 1
  }
  param {
    lr_mult: 0
    decay_mult: 0
  }
  param {
    lr_mult: 0
    decay_mult: 0
  }
  batch_norm_param {
    moving_average_fraction: 0.99
    eps: 0.0001
    scale_filler {
      type: "constant"
      value: 1
    }
    bias_filler {
      type: "constant"
      value: 0
    }
  }
}
layer {
  name: "res5a_branch2a/relu"
  type: "ReLU"
  bottom: "res5a_branch2a/bn"
  top: "res5a_branch2a/bn"
}
layer {
  name: "res5a_branch2b"
  type: "Convolution"
  bottom: "res5a_branch2a/bn"
  top: "res5a_branch2b"
  param {
    lr_mult: 1
    decay_mult: 1
  }
  param {
    lr_mult: 2
    decay_mult: 0
  }
  convolution_param {
    num_output: 512
    bias_term: true
    pad: 1
    kernel_size: 3
    group: 4
    stride: 1
    weight_filler {
      type: "msra"
    }
    bias_filler {
      type: "constant"
      value: 0
    }
    dilation: 1
  }
}
layer {
  name: "res5a_branch2b/bn"
  type: "BatchNorm"
  bottom: "res5a_branch2b"
  top: "res5a_branch2b/bn"
  param {
    lr_mult: 1
    decay_mult: 1
  }
  param {
    lr_mult: 1
    decay_mult: 1
  }
  param {
    lr_mult: 0
    decay_mult: 0
  }
  param {
    lr_mult: 0
    decay_mult: 0
  }
  batch_norm_param {
    moving_average_fraction: 0.99
    eps: 0.0001
    scale_filler {
      type: "constant"
      value: 1
    }
    bias_filler {
      type: "constant"
      value: 0
    }
  }
}
layer {
  name: "res5a_branch2b/relu"
  type: "ReLU"
  bottom: "res5a_branch2b/bn"
  top: "res5a_branch2b/bn"
}
layer {
  name: "pool5"
  type: "Pooling"
  bottom: "res5a_branch2b/bn"
  top: "pool5"
  pooling_param {
    pool: AVE
    global_pooling: true
  }
}
layer {
  name: "fc10"
  type: "InnerProduct"
  bottom: "pool5"
  top: "fc10"
  param {
    lr_mult: 1
    decay_mult: 1
  }
  param {
    lr_mult: 2
    decay_mult: 0
  }
  inner_product_param {
    num_output: 10
    weight_filler {
      type: "msra"
    }
    bias_filler {
      type: "constant"
      value: 0
    }
  }
}
layer {
  name: "loss"
  type: "SoftmaxWithLoss"
  bottom: "fc10"
  bottom: "label"
  top: "loss"
  propagate_down: true
  propagate_down: false
}
I0630 01:13:03.599998 21943 layer_factory.hpp:77] Creating layer data
I0630 01:13:03.600078 21943 net.cpp:98] Creating Layer data
I0630 01:13:03.600085 21943 net.cpp:413] data -> data
I0630 01:13:03.600100 21943 net.cpp:413] data -> label
I0630 01:13:03.674168 21975 db_lmdb.cpp:35] Opened lmdb ./data/cifar10_train_lmdb
I0630 01:13:03.692245 21943 data_layer.cpp:78] ReshapePrefetch 21, 3, 32, 32
I0630 01:13:03.692515 21943 data_layer.cpp:83] output data size: 21,3,32,32
I0630 01:13:03.698848 21943 net.cpp:148] Setting up data
I0630 01:13:03.698901 21943 net.cpp:155] Top shape: 21 3 32 32 (64512)
I0630 01:13:03.698917 21943 net.cpp:155] Top shape: 21 (21)
I0630 01:13:03.698927 21943 net.cpp:163] Memory required for data: 258132
I0630 01:13:03.698949 21943 layer_factory.hpp:77] Creating layer data/bias
I0630 01:13:03.698987 21943 net.cpp:98] Creating Layer data/bias
I0630 01:13:03.699004 21943 net.cpp:439] data/bias <- data
I0630 01:13:03.699033 21943 net.cpp:413] data/bias -> data/bias
I0630 01:13:03.703682 21943 net.cpp:148] Setting up data/bias
I0630 01:13:03.703744 21943 net.cpp:155] Top shape: 21 3 32 32 (64512)
I0630 01:13:03.703758 21943 net.cpp:163] Memory required for data: 516180
I0630 01:13:03.703793 21943 layer_factory.hpp:77] Creating layer conv1a
I0630 01:13:03.703835 21943 net.cpp:98] Creating Layer conv1a
I0630 01:13:03.703850 21943 net.cpp:439] conv1a <- data/bias
I0630 01:13:03.703867 21943 net.cpp:413] conv1a -> conv1a
I0630 01:13:03.716235 21977 blocking_queue.cpp:50] Waiting for data
I0630 01:13:03.716251 21943 net.cpp:148] Setting up conv1a
I0630 01:13:03.716261 21943 net.cpp:155] Top shape: 21 32 32 32 (688128)
I0630 01:13:03.716264 21943 net.cpp:163] Memory required for data: 3268692
I0630 01:13:03.716270 21943 layer_factory.hpp:77] Creating layer conv1a/bn
I0630 01:13:03.716277 21943 net.cpp:98] Creating Layer conv1a/bn
I0630 01:13:03.716280 21943 net.cpp:439] conv1a/bn <- conv1a
I0630 01:13:03.716284 21943 net.cpp:413] conv1a/bn -> conv1a/bn
I0630 01:13:03.717001 21943 net.cpp:148] Setting up conv1a/bn
I0630 01:13:03.717010 21943 net.cpp:155] Top shape: 21 32 32 32 (688128)
I0630 01:13:03.717013 21943 net.cpp:163] Memory required for data: 6021204
I0630 01:13:03.717020 21943 layer_factory.hpp:77] Creating layer conv1a/relu
I0630 01:13:03.717025 21943 net.cpp:98] Creating Layer conv1a/relu
I0630 01:13:03.717026 21943 net.cpp:439] conv1a/relu <- conv1a/bn
I0630 01:13:03.717030 21943 net.cpp:400] conv1a/relu -> conv1a/bn (in-place)
I0630 01:13:03.717038 21943 net.cpp:148] Setting up conv1a/relu
I0630 01:13:03.717043 21943 net.cpp:155] Top shape: 21 32 32 32 (688128)
I0630 01:13:03.717046 21943 net.cpp:163] Memory required for data: 8773716
I0630 01:13:03.717047 21943 layer_factory.hpp:77] Creating layer conv1b
I0630 01:13:03.717061 21943 net.cpp:98] Creating Layer conv1b
I0630 01:13:03.717064 21943 net.cpp:439] conv1b <- conv1a/bn
I0630 01:13:03.717067 21943 net.cpp:413] conv1b -> conv1b
I0630 01:13:03.717510 21943 net.cpp:148] Setting up conv1b
I0630 01:13:03.717517 21943 net.cpp:155] Top shape: 21 32 32 32 (688128)
I0630 01:13:03.717519 21943 net.cpp:163] Memory required for data: 11526228
I0630 01:13:03.717525 21943 layer_factory.hpp:77] Creating layer conv1b/bn
I0630 01:13:03.717528 21943 net.cpp:98] Creating Layer conv1b/bn
I0630 01:13:03.717530 21943 net.cpp:439] conv1b/bn <- conv1b
I0630 01:13:03.717533 21943 net.cpp:413] conv1b/bn -> conv1b/bn
I0630 01:13:03.718238 21943 net.cpp:148] Setting up conv1b/bn
I0630 01:13:03.718243 21943 net.cpp:155] Top shape: 21 32 32 32 (688128)
I0630 01:13:03.718246 21943 net.cpp:163] Memory required for data: 14278740
I0630 01:13:03.718251 21943 layer_factory.hpp:77] Creating layer conv1b/relu
I0630 01:13:03.718255 21943 net.cpp:98] Creating Layer conv1b/relu
I0630 01:13:03.718256 21943 net.cpp:439] conv1b/relu <- conv1b/bn
I0630 01:13:03.718260 21943 net.cpp:400] conv1b/relu -> conv1b/bn (in-place)
I0630 01:13:03.718262 21943 net.cpp:148] Setting up conv1b/relu
I0630 01:13:03.718266 21943 net.cpp:155] Top shape: 21 32 32 32 (688128)
I0630 01:13:03.718267 21943 net.cpp:163] Memory required for data: 17031252
I0630 01:13:03.718268 21943 layer_factory.hpp:77] Creating layer pool1
I0630 01:13:03.718274 21943 net.cpp:98] Creating Layer pool1
I0630 01:13:03.718276 21943 net.cpp:439] pool1 <- conv1b/bn
I0630 01:13:03.718281 21943 net.cpp:413] pool1 -> pool1
I0630 01:13:03.718328 21943 net.cpp:148] Setting up pool1
I0630 01:13:03.718333 21943 net.cpp:155] Top shape: 21 32 32 32 (688128)
I0630 01:13:03.718334 21943 net.cpp:163] Memory required for data: 19783764
I0630 01:13:03.718336 21943 layer_factory.hpp:77] Creating layer res2a_branch2a
I0630 01:13:03.718340 21943 net.cpp:98] Creating Layer res2a_branch2a
I0630 01:13:03.718343 21943 net.cpp:439] res2a_branch2a <- pool1
I0630 01:13:03.718345 21943 net.cpp:413] res2a_branch2a -> res2a_branch2a
I0630 01:13:03.719028 21943 net.cpp:148] Setting up res2a_branch2a
I0630 01:13:03.719035 21943 net.cpp:155] Top shape: 21 64 32 32 (1376256)
I0630 01:13:03.719038 21943 net.cpp:163] Memory required for data: 25288788
I0630 01:13:03.719043 21943 layer_factory.hpp:77] Creating layer res2a_branch2a/bn
I0630 01:13:03.719045 21943 net.cpp:98] Creating Layer res2a_branch2a/bn
I0630 01:13:03.719048 21943 net.cpp:439] res2a_branch2a/bn <- res2a_branch2a
I0630 01:13:03.719050 21943 net.cpp:413] res2a_branch2a/bn -> res2a_branch2a/bn
I0630 01:13:03.719749 21943 net.cpp:148] Setting up res2a_branch2a/bn
I0630 01:13:03.719755 21943 net.cpp:155] Top shape: 21 64 32 32 (1376256)
I0630 01:13:03.719758 21943 net.cpp:163] Memory required for data: 30793812
I0630 01:13:03.719763 21943 layer_factory.hpp:77] Creating layer res2a_branch2a/relu
I0630 01:13:03.719765 21943 net.cpp:98] Creating Layer res2a_branch2a/relu
I0630 01:13:03.719768 21943 net.cpp:439] res2a_branch2a/relu <- res2a_branch2a/bn
I0630 01:13:03.719770 21943 net.cpp:400] res2a_branch2a/relu -> res2a_branch2a/bn (in-place)
I0630 01:13:03.719774 21943 net.cpp:148] Setting up res2a_branch2a/relu
I0630 01:13:03.719777 21943 net.cpp:155] Top shape: 21 64 32 32 (1376256)
I0630 01:13:03.719779 21943 net.cpp:163] Memory required for data: 36298836
I0630 01:13:03.719780 21943 layer_factory.hpp:77] Creating layer res2a_branch2b
I0630 01:13:03.719784 21943 net.cpp:98] Creating Layer res2a_branch2b
I0630 01:13:03.719786 21943 net.cpp:439] res2a_branch2b <- res2a_branch2a/bn
I0630 01:13:03.719789 21943 net.cpp:413] res2a_branch2b -> res2a_branch2b
I0630 01:13:03.721204 21943 net.cpp:148] Setting up res2a_branch2b
I0630 01:13:03.721212 21943 net.cpp:155] Top shape: 21 64 32 32 (1376256)
I0630 01:13:03.721215 21943 net.cpp:163] Memory required for data: 41803860
I0630 01:13:03.721218 21943 layer_factory.hpp:77] Creating layer res2a_branch2b/bn
I0630 01:13:03.721222 21943 net.cpp:98] Creating Layer res2a_branch2b/bn
I0630 01:13:03.721225 21943 net.cpp:439] res2a_branch2b/bn <- res2a_branch2b
I0630 01:13:03.721235 21943 net.cpp:413] res2a_branch2b/bn -> res2a_branch2b/bn
I0630 01:13:03.721947 21943 net.cpp:148] Setting up res2a_branch2b/bn
I0630 01:13:03.721953 21943 net.cpp:155] Top shape: 21 64 32 32 (1376256)
I0630 01:13:03.721956 21943 net.cpp:163] Memory required for data: 47308884
I0630 01:13:03.721961 21943 layer_factory.hpp:77] Creating layer res2a_branch2b/relu
I0630 01:13:03.721964 21943 net.cpp:98] Creating Layer res2a_branch2b/relu
I0630 01:13:03.721966 21943 net.cpp:439] res2a_branch2b/relu <- res2a_branch2b/bn
I0630 01:13:03.721969 21943 net.cpp:400] res2a_branch2b/relu -> res2a_branch2b/bn (in-place)
I0630 01:13:03.721976 21943 net.cpp:148] Setting up res2a_branch2b/relu
I0630 01:13:03.721977 21943 net.cpp:155] Top shape: 21 64 32 32 (1376256)
I0630 01:13:03.721979 21943 net.cpp:163] Memory required for data: 52813908
I0630 01:13:03.721982 21943 layer_factory.hpp:77] Creating layer pool2
I0630 01:13:03.721984 21943 net.cpp:98] Creating Layer pool2
I0630 01:13:03.721987 21943 net.cpp:439] pool2 <- res2a_branch2b/bn
I0630 01:13:03.721990 21943 net.cpp:413] pool2 -> pool2
I0630 01:13:03.722033 21943 net.cpp:148] Setting up pool2
I0630 01:13:03.722038 21943 net.cpp:155] Top shape: 21 64 16 16 (344064)
I0630 01:13:03.722039 21943 net.cpp:163] Memory required for data: 54190164
I0630 01:13:03.722041 21943 layer_factory.hpp:77] Creating layer res3a_branch2a
I0630 01:13:03.722051 21943 net.cpp:98] Creating Layer res3a_branch2a
I0630 01:13:03.722054 21943 net.cpp:439] res3a_branch2a <- pool2
I0630 01:13:03.722056 21943 net.cpp:413] res3a_branch2a -> res3a_branch2a
I0630 01:13:03.724781 21943 net.cpp:148] Setting up res3a_branch2a
I0630 01:13:03.724789 21943 net.cpp:155] Top shape: 21 128 16 16 (688128)
I0630 01:13:03.724792 21943 net.cpp:163] Memory required for data: 56942676
I0630 01:13:03.724797 21943 layer_factory.hpp:77] Creating layer res3a_branch2a/bn
I0630 01:13:03.724800 21943 net.cpp:98] Creating Layer res3a_branch2a/bn
I0630 01:13:03.724802 21943 net.cpp:439] res3a_branch2a/bn <- res3a_branch2a
I0630 01:13:03.724807 21943 net.cpp:413] res3a_branch2a/bn -> res3a_branch2a/bn
I0630 01:13:03.725437 21943 net.cpp:148] Setting up res3a_branch2a/bn
I0630 01:13:03.725443 21943 net.cpp:155] Top shape: 21 128 16 16 (688128)
I0630 01:13:03.725445 21943 net.cpp:163] Memory required for data: 59695188
I0630 01:13:03.725458 21943 layer_factory.hpp:77] Creating layer res3a_branch2a/relu
I0630 01:13:03.725461 21943 net.cpp:98] Creating Layer res3a_branch2a/relu
I0630 01:13:03.725464 21943 net.cpp:439] res3a_branch2a/relu <- res3a_branch2a/bn
I0630 01:13:03.725466 21943 net.cpp:400] res3a_branch2a/relu -> res3a_branch2a/bn (in-place)
I0630 01:13:03.725471 21943 net.cpp:148] Setting up res3a_branch2a/relu
I0630 01:13:03.725472 21943 net.cpp:155] Top shape: 21 128 16 16 (688128)
I0630 01:13:03.725474 21943 net.cpp:163] Memory required for data: 62447700
I0630 01:13:03.725476 21943 layer_factory.hpp:77] Creating layer res3a_branch2b
I0630 01:13:03.725482 21943 net.cpp:98] Creating Layer res3a_branch2b
I0630 01:13:03.725486 21943 net.cpp:439] res3a_branch2b <- res3a_branch2a/bn
I0630 01:13:03.725488 21943 net.cpp:413] res3a_branch2b -> res3a_branch2b
I0630 01:13:03.726562 21943 net.cpp:148] Setting up res3a_branch2b
I0630 01:13:03.726567 21943 net.cpp:155] Top shape: 21 128 16 16 (688128)
I0630 01:13:03.726569 21943 net.cpp:163] Memory required for data: 65200212
I0630 01:13:03.726572 21943 layer_factory.hpp:77] Creating layer res3a_branch2b/bn
I0630 01:13:03.726577 21943 net.cpp:98] Creating Layer res3a_branch2b/bn
I0630 01:13:03.726579 21943 net.cpp:439] res3a_branch2b/bn <- res3a_branch2b
I0630 01:13:03.726583 21943 net.cpp:413] res3a_branch2b/bn -> res3a_branch2b/bn
I0630 01:13:03.727228 21943 net.cpp:148] Setting up res3a_branch2b/bn
I0630 01:13:03.727234 21943 net.cpp:155] Top shape: 21 128 16 16 (688128)
I0630 01:13:03.727237 21943 net.cpp:163] Memory required for data: 67952724
I0630 01:13:03.727242 21943 layer_factory.hpp:77] Creating layer res3a_branch2b/relu
I0630 01:13:03.727252 21943 net.cpp:98] Creating Layer res3a_branch2b/relu
I0630 01:13:03.727254 21943 net.cpp:439] res3a_branch2b/relu <- res3a_branch2b/bn
I0630 01:13:03.727257 21943 net.cpp:400] res3a_branch2b/relu -> res3a_branch2b/bn (in-place)
I0630 01:13:03.727260 21943 net.cpp:148] Setting up res3a_branch2b/relu
I0630 01:13:03.727263 21943 net.cpp:155] Top shape: 21 128 16 16 (688128)
I0630 01:13:03.727265 21943 net.cpp:163] Memory required for data: 70705236
I0630 01:13:03.727267 21943 layer_factory.hpp:77] Creating layer pool3
I0630 01:13:03.727270 21943 net.cpp:98] Creating Layer pool3
I0630 01:13:03.727274 21943 net.cpp:439] pool3 <- res3a_branch2b/bn
I0630 01:13:03.727277 21943 net.cpp:413] pool3 -> pool3
I0630 01:13:03.727313 21943 net.cpp:148] Setting up pool3
I0630 01:13:03.727318 21943 net.cpp:155] Top shape: 21 128 16 16 (688128)
I0630 01:13:03.727319 21943 net.cpp:163] Memory required for data: 73457748
I0630 01:13:03.727320 21943 layer_factory.hpp:77] Creating layer res4a_branch2a
I0630 01:13:03.727325 21943 net.cpp:98] Creating Layer res4a_branch2a
I0630 01:13:03.727327 21943 net.cpp:439] res4a_branch2a <- pool3
I0630 01:13:03.727330 21943 net.cpp:413] res4a_branch2a -> res4a_branch2a
I0630 01:13:03.733817 21943 net.cpp:148] Setting up res4a_branch2a
I0630 01:13:03.733824 21943 net.cpp:155] Top shape: 21 256 16 16 (1376256)
I0630 01:13:03.733825 21943 net.cpp:163] Memory required for data: 78962772
I0630 01:13:03.733829 21943 layer_factory.hpp:77] Creating layer res4a_branch2a/bn
I0630 01:13:03.733832 21943 net.cpp:98] Creating Layer res4a_branch2a/bn
I0630 01:13:03.733836 21943 net.cpp:439] res4a_branch2a/bn <- res4a_branch2a
I0630 01:13:03.733839 21943 net.cpp:413] res4a_branch2a/bn -> res4a_branch2a/bn
I0630 01:13:03.734557 21943 net.cpp:148] Setting up res4a_branch2a/bn
I0630 01:13:03.734565 21943 net.cpp:155] Top shape: 21 256 16 16 (1376256)
I0630 01:13:03.734566 21943 net.cpp:163] Memory required for data: 84467796
I0630 01:13:03.734572 21943 layer_factory.hpp:77] Creating layer res4a_branch2a/relu
I0630 01:13:03.734576 21943 net.cpp:98] Creating Layer res4a_branch2a/relu
I0630 01:13:03.734578 21943 net.cpp:439] res4a_branch2a/relu <- res4a_branch2a/bn
I0630 01:13:03.734581 21943 net.cpp:400] res4a_branch2a/relu -> res4a_branch2a/bn (in-place)
I0630 01:13:03.734586 21943 net.cpp:148] Setting up res4a_branch2a/relu
I0630 01:13:03.734588 21943 net.cpp:155] Top shape: 21 256 16 16 (1376256)
I0630 01:13:03.734589 21943 net.cpp:163] Memory required for data: 89972820
I0630 01:13:03.734591 21943 layer_factory.hpp:77] Creating layer res4a_branch2b
I0630 01:13:03.734597 21943 net.cpp:98] Creating Layer res4a_branch2b
I0630 01:13:03.734601 21943 net.cpp:439] res4a_branch2b <- res4a_branch2a/bn
I0630 01:13:03.734603 21943 net.cpp:413] res4a_branch2b -> res4a_branch2b
I0630 01:13:03.738062 21943 net.cpp:148] Setting up res4a_branch2b
I0630 01:13:03.738071 21943 net.cpp:155] Top shape: 21 256 16 16 (1376256)
I0630 01:13:03.738073 21943 net.cpp:163] Memory required for data: 95477844
I0630 01:13:03.738077 21943 layer_factory.hpp:77] Creating layer res4a_branch2b/bn
I0630 01:13:03.738083 21943 net.cpp:98] Creating Layer res4a_branch2b/bn
I0630 01:13:03.738085 21943 net.cpp:439] res4a_branch2b/bn <- res4a_branch2b
I0630 01:13:03.738090 21943 net.cpp:413] res4a_branch2b/bn -> res4a_branch2b/bn
I0630 01:13:03.738742 21943 net.cpp:148] Setting up res4a_branch2b/bn
I0630 01:13:03.738749 21943 net.cpp:155] Top shape: 21 256 16 16 (1376256)
I0630 01:13:03.738751 21943 net.cpp:163] Memory required for data: 100982868
I0630 01:13:03.738756 21943 layer_factory.hpp:77] Creating layer res4a_branch2b/relu
I0630 01:13:03.738760 21943 net.cpp:98] Creating Layer res4a_branch2b/relu
I0630 01:13:03.738764 21943 net.cpp:439] res4a_branch2b/relu <- res4a_branch2b/bn
I0630 01:13:03.738766 21943 net.cpp:400] res4a_branch2b/relu -> res4a_branch2b/bn (in-place)
I0630 01:13:03.738770 21943 net.cpp:148] Setting up res4a_branch2b/relu
I0630 01:13:03.738773 21943 net.cpp:155] Top shape: 21 256 16 16 (1376256)
I0630 01:13:03.738783 21943 net.cpp:163] Memory required for data: 106487892
I0630 01:13:03.738785 21943 layer_factory.hpp:77] Creating layer pool4
I0630 01:13:03.738790 21943 net.cpp:98] Creating Layer pool4
I0630 01:13:03.738793 21943 net.cpp:439] pool4 <- res4a_branch2b/bn
I0630 01:13:03.738796 21943 net.cpp:413] pool4 -> pool4
I0630 01:13:03.738837 21943 net.cpp:148] Setting up pool4
I0630 01:13:03.738842 21943 net.cpp:155] Top shape: 21 256 8 8 (344064)
I0630 01:13:03.738844 21943 net.cpp:163] Memory required for data: 107864148
I0630 01:13:03.738847 21943 layer_factory.hpp:77] Creating layer res5a_branch2a
I0630 01:13:03.738852 21943 net.cpp:98] Creating Layer res5a_branch2a
I0630 01:13:03.738855 21943 net.cpp:439] res5a_branch2a <- pool4
I0630 01:13:03.738858 21943 net.cpp:413] res5a_branch2a -> res5a_branch2a
I0630 01:13:03.764006 21943 net.cpp:148] Setting up res5a_branch2a
I0630 01:13:03.764034 21943 net.cpp:155] Top shape: 21 512 8 8 (688128)
I0630 01:13:03.764037 21943 net.cpp:163] Memory required for data: 110616660
I0630 01:13:03.764045 21943 layer_factory.hpp:77] Creating layer res5a_branch2a/bn
I0630 01:13:03.764053 21943 net.cpp:98] Creating Layer res5a_branch2a/bn
I0630 01:13:03.764057 21943 net.cpp:439] res5a_branch2a/bn <- res5a_branch2a
I0630 01:13:03.764062 21943 net.cpp:413] res5a_branch2a/bn -> res5a_branch2a/bn
I0630 01:13:03.764752 21943 net.cpp:148] Setting up res5a_branch2a/bn
I0630 01:13:03.764760 21943 net.cpp:155] Top shape: 21 512 8 8 (688128)
I0630 01:13:03.764761 21943 net.cpp:163] Memory required for data: 113369172
I0630 01:13:03.764766 21943 layer_factory.hpp:77] Creating layer res5a_branch2a/relu
I0630 01:13:03.764770 21943 net.cpp:98] Creating Layer res5a_branch2a/relu
I0630 01:13:03.764772 21943 net.cpp:439] res5a_branch2a/relu <- res5a_branch2a/bn
I0630 01:13:03.764775 21943 net.cpp:400] res5a_branch2a/relu -> res5a_branch2a/bn (in-place)
I0630 01:13:03.764780 21943 net.cpp:148] Setting up res5a_branch2a/relu
I0630 01:13:03.764781 21943 net.cpp:155] Top shape: 21 512 8 8 (688128)
I0630 01:13:03.764783 21943 net.cpp:163] Memory required for data: 116121684
I0630 01:13:03.764786 21943 layer_factory.hpp:77] Creating layer res5a_branch2b
I0630 01:13:03.764796 21943 net.cpp:98] Creating Layer res5a_branch2b
I0630 01:13:03.764799 21943 net.cpp:439] res5a_branch2b <- res5a_branch2a/bn
I0630 01:13:03.764803 21943 net.cpp:413] res5a_branch2b -> res5a_branch2b
I0630 01:13:03.777714 21943 net.cpp:148] Setting up res5a_branch2b
I0630 01:13:03.777727 21943 net.cpp:155] Top shape: 21 512 8 8 (688128)
I0630 01:13:03.777729 21943 net.cpp:163] Memory required for data: 118874196
I0630 01:13:03.777740 21943 layer_factory.hpp:77] Creating layer res5a_branch2b/bn
I0630 01:13:03.777746 21943 net.cpp:98] Creating Layer res5a_branch2b/bn
I0630 01:13:03.777750 21943 net.cpp:439] res5a_branch2b/bn <- res5a_branch2b
I0630 01:13:03.777752 21943 net.cpp:413] res5a_branch2b/bn -> res5a_branch2b/bn
I0630 01:13:03.778417 21943 net.cpp:148] Setting up res5a_branch2b/bn
I0630 01:13:03.778424 21943 net.cpp:155] Top shape: 21 512 8 8 (688128)
I0630 01:13:03.778425 21943 net.cpp:163] Memory required for data: 121626708
I0630 01:13:03.778430 21943 layer_factory.hpp:77] Creating layer res5a_branch2b/relu
I0630 01:13:03.778434 21943 net.cpp:98] Creating Layer res5a_branch2b/relu
I0630 01:13:03.778436 21943 net.cpp:439] res5a_branch2b/relu <- res5a_branch2b/bn
I0630 01:13:03.778439 21943 net.cpp:400] res5a_branch2b/relu -> res5a_branch2b/bn (in-place)
I0630 01:13:03.778441 21943 net.cpp:148] Setting up res5a_branch2b/relu
I0630 01:13:03.778445 21943 net.cpp:155] Top shape: 21 512 8 8 (688128)
I0630 01:13:03.778446 21943 net.cpp:163] Memory required for data: 124379220
I0630 01:13:03.778447 21943 layer_factory.hpp:77] Creating layer pool5
I0630 01:13:03.778453 21943 net.cpp:98] Creating Layer pool5
I0630 01:13:03.778455 21943 net.cpp:439] pool5 <- res5a_branch2b/bn
I0630 01:13:03.778457 21943 net.cpp:413] pool5 -> pool5
I0630 01:13:03.778484 21943 net.cpp:148] Setting up pool5
I0630 01:13:03.778488 21943 net.cpp:155] Top shape: 21 512 1 1 (10752)
I0630 01:13:03.778498 21943 net.cpp:163] Memory required for data: 124422228
I0630 01:13:03.778501 21943 layer_factory.hpp:77] Creating layer fc10
I0630 01:13:03.778509 21943 net.cpp:98] Creating Layer fc10
I0630 01:13:03.778512 21943 net.cpp:439] fc10 <- pool5
I0630 01:13:03.778514 21943 net.cpp:413] fc10 -> fc10
I0630 01:13:03.778743 21943 net.cpp:148] Setting up fc10
I0630 01:13:03.778748 21943 net.cpp:155] Top shape: 21 10 (210)
I0630 01:13:03.778750 21943 net.cpp:163] Memory required for data: 124423068
I0630 01:13:03.778753 21943 layer_factory.hpp:77] Creating layer loss
I0630 01:13:03.778759 21943 net.cpp:98] Creating Layer loss
I0630 01:13:03.778761 21943 net.cpp:439] loss <- fc10
I0630 01:13:03.778764 21943 net.cpp:439] loss <- label
I0630 01:13:03.778767 21943 net.cpp:413] loss -> loss
I0630 01:13:03.778775 21943 layer_factory.hpp:77] Creating layer loss
…
I0630 01:13:03.779448 21943 solver.cpp:182] Creating test net (#0) specified by test_net file: training/cifar10_jacintonet11v2_2017-06-30_01-13-02/initial/test.prototxt
I0630 01:13:03.779629 21943 net.cpp:56] Initializing net from parameters: 
name: "jacintonet11v2_test"
state {
  phase: TEST
}
layer {
  name: "data"
  type: "Data"
  top: "data"
  top: "label"
  transform_param {
    mirror: false
    crop_size: 32
    mean_value: 0
    mean_value: 0
    mean_value: 0
  }
  data_param {
    source: "./data/cifar10_test_lmdb"
    batch_size: 50
    backend: LMDB
    threads: 1
  }
}
layer {
  name: "data/bias"
  type: "Bias"
  bottom: "data"
  top: "data/bias"
  param {
    lr_mult: 0
    decay_mult: 0
  }
  bias_param {
    filler {
      type: "constant"
      value: -128
    }
  }
}
layer {
  name: "conv1a"
  type: "Convolution"
  bottom: "data/bias"
  top: "conv1a"
  param {
    lr_mult: 1
    decay_mult: 1
  }
  param {
    lr_mult: 2
    decay_mult: 0
  }
  convolution_param {
    num_output: 32
    bias_term: true
    pad: 2
    kernel_size: 5
    group: 1
    stride: 1
    weight_filler {
      type: "msra"
    }
    bias_filler {
      type: "constant"
      value: 0
    }
    dilation: 1
  }
}
layer {
  name: "conv1a/bn"
  type: "BatchNorm"
  bottom: "conv1a"
  top: "conv1a/bn"
  param {
    lr_mult: 1
    decay_mult: 1
  }
  param {
    lr_mult: 1
    decay_mult: 1
  }
  param {
    lr_mult: 0
    decay_mult: 0
  }
  param {
    lr_mult: 0
    decay_mult: 0
  }
  batch_norm_param {
    moving_average_fraction: 0.99
    eps: 0.0001
    scale_filler {
      type: "constant"
      value: 1
    }
    bias_filler {
      type: "constant"
      value: 0
    }
  }
}
layer {
  name: "conv1a/relu"
  type: "ReLU"
  bottom: "conv1a/bn"
  top: "conv1a/bn"
}
layer {
  name: "conv1b"
  type: "Convolution"
  bottom: "conv1a/bn"
  top: "conv1b"
  param {
    lr_mult: 1
    decay_mult: 1
  }
  param {
    lr_mult: 2
    decay_mult: 0
  }
  convolution_param {
    num_output: 32
    bias_term: true
    pad: 1
    kernel_size: 3
    group: 4
    stride: 1
    weight_filler {
      type: "msra"
    }
    bias_filler {
      type: "constant"
      value: 0
    }
    dilation: 1
  }
}
layer {
  name: "conv1b/bn"
  type: "BatchNorm"
  bottom: "conv1b"
  top: "conv1b/bn"
  param {
    lr_mult: 1
    decay_mult: 1
  }
  param {
    lr_mult: 1
    decay_mult: 1
  }
  param {
    lr_mult: 0
    decay_mult: 0
  }
  param {
    lr_mult: 0
    decay_mult: 0
  }
  batch_norm_param {
    moving_average_fraction: 0.99
    eps: 0.0001
    scale_filler {
      type: "constant"
      value: 1
    }
    bias_filler {
      type: "constant"
      value: 0
    }
  }
}
layer {
  name: "conv1b/relu"
  type: "ReLU"
  bottom: "conv1b/bn"
  top: "conv1b/bn"
}
layer {
  name: "pool1"
  type: "Pooling"
  bottom: "conv1b/bn"
  top: "pool1"
  pooling_param {
    pool: MAX
    kernel_size: 1
    stride: 1
  }
}
layer {
  name: "res2a_branch2a"
  type: "Convolution"
  bottom: "pool1"
  top: "res2a_branch2a"
  param {
    lr_mult: 1
    decay_mult: 1
  }
  param {
    lr_mult: 2
    decay_mult: 0
  }
  convolution_param {
    num_output: 64
    bias_term: true
    pad: 1
    kernel_size: 3
    group: 1
    stride: 1
    weight_filler {
      type: "msra"
    }
    bias_filler {
      type: "constant"
      value: 0
    }
    dilation: 1
  }
}
layer {
  name: "res2a_branch2a/bn"
  type: "BatchNorm"
  bottom: "res2a_branch2a"
  top: "res2a_branch2a/bn"
  param {
    lr_mult: 1
    decay_mult: 1
  }
  param {
    lr_mult: 1
    decay_mult: 1
  }
  param {
    lr_mult: 0
    decay_mult: 0
  }
  param {
    lr_mult: 0
    decay_mult: 0
  }
  batch_norm_param {
    moving_average_fraction: 0.99
    eps: 0.0001
    scale_filler {
      type: "constant"
      value: 1
    }
    bias_filler {
      type: "constant"
      value: 0
    }
  }
}
layer {
  name: "res2a_branch2a/relu"
  type: "ReLU"
  bottom: "res2a_branch2a/bn"
  top: "res2a_branch2a/bn"
}
layer {
  name: "res2a_branch2b"
  type: "Convolution"
  bottom: "res2a_branch2a/bn"
  top: "res2a_branch2b"
  param {
    lr_mult: 1
    decay_mult: 1
  }
  param {
    lr_mult: 2
    decay_mult: 0
  }
  convolution_param {
    num_output: 64
    bias_term: true
    pad: 1
    kernel_size: 3
    group: 4
    stride: 1
    weight_filler {
      type: "msra"
    }
    bias_filler {
      type: "constant"
      value: 0
    }
    dilation: 1
  }
}
layer {
  name: "res2a_branch2b/bn"
  type: "BatchNorm"
  bottom: "res2a_branch2b"
  top: "res2a_branch2b/bn"
  param {
    lr_mult: 1
    decay_mult: 1
  }
  param {
    lr_mult: 1
    decay_mult: 1
  }
  param {
    lr_mult: 0
    decay_mult: 0
  }
  param {
    lr_mult: 0
    decay_mult: 0
  }
  batch_norm_param {
    moving_average_fraction: 0.99
    eps: 0.0001
    scale_filler {
      type: "constant"
      value: 1
    }
    bias_filler {
      type: "constant"
      value: 0
    }
  }
}
layer {
  name: "res2a_branch2b/relu"
  type: "ReLU"
  bottom: "res2a_branch2b/bn"
  top: "res2a_branch2b/bn"
}
layer {
  name: "pool2"
  type: "Pooling"
  bottom: "res2a_branch2b/bn"
  top: "pool2"
  pooling_param {
    pool: MAX
    kernel_size: 2
    stride: 2
  }
}
layer {
  name: "res3a_branch2a"
  type: "Convolution"
  bottom: "pool2"
  top: "res3a_branch2a"
  param {
    lr_mult: 1
    decay_mult: 1
  }
  param {
    lr_mult: 2
    decay_mult: 0
  }
  convolution_param {
    num_output: 128
    bias_term: true
    pad: 1
    kernel_size: 3
    group: 1
    stride: 1
    weight_filler {
      type: "msra"
    }
    bias_filler {
      type: "constant"
      value: 0
    }
    dilation: 1
  }
}
layer {
  name: "res3a_branch2a/bn"
  type: "BatchNorm"
  bottom: "res3a_branch2a"
  top: "res3a_branch2a/bn"
  param {
    lr_mult: 1
    decay_mult: 1
  }
  param {
    lr_mult: 1
    decay_mult: 1
  }
  param {
    lr_mult: 0
    decay_mult: 0
  }
  param {
    lr_mult: 0
    decay_mult: 0
  }
  batch_norm_param {
    moving_average_fraction: 0.99
    eps: 0.0001
    scale_filler {
      type: "constant"
      value: 1
    }
    bias_filler {
      type: "constant"
      value: 0
    }
  }
}
layer {
  name: "res3a_branch2a/relu"
  type: "ReLU"
  bottom: "res3a_branch2a/bn"
  top: "res3a_branch2a/bn"
}
layer {
  name: "res3a_branch2b"
  type: "Convolution"
  bottom: "res3a_branch2a/bn"
  top: "res3a_branch2b"
  param {
    lr_mult: 1
    decay_mult: 1
  }
  param {
    lr_mult: 2
    decay_mult: 0
  }
  convolution_param {
    num_output: 128
    bias_term: true
    pad: 1
    kernel_size: 3
    group: 4
    stride: 1
    weight_filler {
      type: "msra"
    }
    bias_filler {
      type: "constant"
      value: 0
    }
    dilation: 1
  }
}
layer {
  name: "res3a_branch2b/bn"
  type: "BatchNorm"
  bottom: "res3a_branch2b"
  top: "res3a_branch2b/bn"
  param {
    lr_mult: 1
    decay_mult: 1
  }
  param {
    lr_mult: 1
    decay_mult: 1
  }
  param {
    lr_mult: 0
    decay_mult: 0
  }
  param {
    lr_mult: 0
    decay_mult: 0
  }
  batch_norm_param {
    moving_average_fraction: 0.99
    eps: 0.0001
    scale_filler {
      type: "constant"
      value: 1
    }
    bias_filler {
      type: "constant"
      value: 0
    }
  }
}
layer {
  name: "res3a_branch2b/relu"
  type: "ReLU"
  bottom: "res3a_branch2b/bn"
  top: "res3a_branch2b/bn"
}
layer {
  name: "pool3"
  type: "Pooling"
  bottom: "res3a_branch2b/bn"
  top: "pool3"
  pooling_param {
    pool: MAX
    kernel_size: 1
    stride: 1
  }
}
layer {
  name: "res4a_branch2a"
  type: "Convolution"
  bottom: "pool3"
  top: "res4a_branch2a"
  param {
    lr_mult: 1
    decay_mult: 1
  }
  param {
    lr_mult: 2
    decay_mult: 0
  }
  convolution_param {
    num_output: 256
    bias_term: true
    pad: 1
    kernel_size: 3
    group: 1
    stride: 1
    weight_filler {
      type: "msra"
    }
    bias_filler {
      type: "constant"
      value: 0
    }
    dilation: 1
  }
}
layer {
  name: "res4a_branch2a/bn"
  type: "BatchNorm"
  bottom: "res4a_branch2a"
  top: "res4a_branch2a/bn"
  param {
    lr_mult: 1
    decay_mult: 1
  }
  param {
    lr_mult: 1
    decay_mult: 1
  }
  param {
    lr_mult: 0
    decay_mult: 0
  }
  param {
    lr_mult: 0
    decay_mult: 0
  }
  batch_norm_param {
    moving_average_fraction: 0.99
    eps: 0.0001
    scale_filler {
      type: "constant"
      value: 1
    }
    bias_filler {
      type: "constant"
      value: 0
    }
  }
}
layer {
  name: "res4a_branch2a/relu"
  type: "ReLU"
  bottom: "res4a_branch2a/bn"
  top: "res4a_branch2a/bn"
}
layer {
  name: "res4a_branch2b"
  type: "Convolution"
  bottom: "res4a_branch2a/bn"
  top: "res4a_branch2b"
  param {
    lr_mult: 1
    decay_mult: 1
  }
  param {
    lr_mult: 2
    decay_mult: 0
  }
  convolution_param {
    num_output: 256
    bias_term: true
    pad: 1
    kernel_size: 3
    group: 4
    stride: 1
    weight_filler {
      type: "msra"
    }
    bias_filler {
      type: "constant"
      value: 0
    }
    dilation: 1
  }
}
layer {
  name: "res4a_branch2b/bn"
  type: "BatchNorm"
  bottom: "res4a_branch2b"
  top: "res4a_branch2b/bn"
  param {
    lr_mult: 1
    decay_mult: 1
  }
  param {
    lr_mult: 1
    decay_mult: 1
  }
  param {
    lr_mult: 0
    decay_mult: 0
  }
  param {
    lr_mult: 0
    decay_mult: 0
  }
  batch_norm_param {
    moving_average_fraction: 0.99
    eps: 0.0001
    scale_filler {
      type: "constant"
      value: 1
    }
    bias_filler {
      type: "constant"
      value: 0
    }
  }
}
layer {
  name: "res4a_branch2b/relu"
  type: "ReLU"
  bottom: "res4a_branch2b/bn"
  top: "res4a_branch2b/bn"
}
layer {
  name: "pool4"
  type: "Pooling"
  bottom: "res4a_branch2b/bn"
  top: "pool4"
  pooling_param {
    pool: MAX
    kernel_size: 2
    stride: 2
  }
}
layer {
  name: "res5a_branch2a"
  type: "Convolution"
  bottom: "pool4"
  top: "res5a_branch2a"
  param {
    lr_mult: 1
    decay_mult: 1
  }
  param {
    lr_mult: 2
    decay_mult: 0
  }
  convolution_param {
    num_output: 512
    bias_term: true
    pad: 1
    kernel_size: 3
    group: 1
    stride: 1
    weight_filler {
      type: "msra"
    }
    bias_filler {
      type: "constant"
      value: 0
    }
    dilation: 1
  }
}
layer {
  name: "res5a_branch2a/bn"
  type: "BatchNorm"
  bottom: "res5a_branch2a"
  top: "res5a_branch2a/bn"
  param {
    lr_mult: 1
    decay_mult: 1
  }
  param {
    lr_mult: 1
    decay_mult: 1
  }
  param {
    lr_mult: 0
    decay_mult: 0
  }
  param {
    lr_mult: 0
    decay_mult: 0
  }
  batch_norm_param {
    moving_average_fraction: 0.99
    eps: 0.0001
    scale_filler {
      type: "constant"
      value: 1
    }
    bias_filler {
      type: "constant"
      value: 0
    }
  }
}
layer {
  name: "res5a_branch2a/relu"
  type: "ReLU"
  bottom: "res5a_branch2a/bn"
  top: "res5a_branch2a/bn"
}
layer {
  name: "res5a_branch2b"
  type: "Convolution"
  bottom: "res5a_branch2a/bn"
  top: "res5a_branch2b"
  param {
    lr_mult: 1
    decay_mult: 1
  }
  param {
    lr_mult: 2
    decay_mult: 0
  }
  convolution_param {
    num_output: 512
    bias_term: true
    pad: 1
    kernel_size: 3
    group: 4
    stride: 1
    weight_filler {
      type: "msra"
    }
    bias_filler {
      type: "constant"
      value: 0
    }
    dilation: 1
  }
}
layer {
  name: "res5a_branch2b/bn"
  type: "BatchNorm"
  bottom: "res5a_branch2b"
  top: "res5a_branch2b/bn"
  param {
    lr_mult: 1
    decay_mult: 1
  }
  param {
    lr_mult: 1
    decay_mult: 1
  }
  param {
    lr_mult: 0
    decay_mult: 0
  }
  param {
    lr_mult: 0
    decay_mult: 0
  }
  batch_norm_param {
    moving_average_fraction: 0.99
    eps: 0.0001
    scale_filler {
      type: "constant"
      value: 1
    }
    bias_filler {
      type: "constant"
      value: 0
    }
  }
}
layer {
  name: "res5a_branch2b/relu"
  type: "ReLU"
  bottom: "res5a_branch2b/bn"
  top: "res5a_branch2b/bn"
}
layer {
  name: "pool5"
  type: "Pooling"
  bottom: "res5a_branch2b/bn"
  top: "pool5"
  pooling_param {
    pool: AVE
    global_pooling: true
  }
}
layer {
  name: "fc10"
  type: "InnerProduct"
  bottom: "pool5"
  top: "fc10"
  param {
    lr_mult: 1
    decay_mult: 1
  }
  param {
    lr_mult: 2
    decay_mult: 0
  }
  inner_product_param {
    num_output: 10
    weight_filler {
      type: "msra"
    }
    bias_filler {
      type: "constant"
      value: 0
    }
  }
}
layer {
  name: "loss"
  type: "SoftmaxWithLoss"
  bottom: "fc10"
  bottom: "label"
  top: "loss"
  propagate_down: true
  propagate_down: false
}
layer {
  name: "accuracy/top1"
  type: "Accuracy"
  bottom: "fc10"
  bottom: "label"
  top: "accuracy/top1"
  include {
    phase: TEST
  }
}
layer {
  name: "accuracy/top5"
  type: "Accuracy"
  bottom: "fc10"
  bottom: "label"
  top: "accuracy/top5"
  include {
    phase: TEST
  }
  accuracy_param {
    top_k: 5
  }
}
I0630 01:13:03.779721 21943 layer_factory.hpp:77] Creating layer data
I0630 01:13:03.779780 21943 net.cpp:98] Creating Layer data
I0630 01:13:03.779784 21943 net.cpp:413] data -> data
I0630 01:13:03.779789 21943 net.cpp:413] data -> label
I0630 01:13:03.792845 21978 db_lmdb.cpp:35] Opened lmdb ./data/cifar10_test_lmdb
I0630 01:13:03.796630 21943 data_layer.cpp:78] ReshapePrefetch 50, 3, 32, 32
I0630 01:13:03.796696 21943 data_layer.cpp:83] output data size: 50,3,32,32
I0630 01:13:03.799067 21943 net.cpp:148] Setting up data
I0630 01:13:03.799078 21943 net.cpp:155] Top shape: 50 3 32 32 (153600)
I0630 01:13:03.799082 21943 net.cpp:155] Top shape: 50 (50)
I0630 01:13:03.799083 21943 net.cpp:163] Memory required for data: 614600
I0630 01:13:03.799088 21943 layer_factory.hpp:77] Creating layer label_data_1_split
I0630 01:13:03.799094 21943 net.cpp:98] Creating Layer label_data_1_split
I0630 01:13:03.799098 21943 net.cpp:439] label_data_1_split <- label
I0630 01:13:03.799100 21943 net.cpp:413] label_data_1_split -> label_data_1_split_0
I0630 01:13:03.799106 21943 net.cpp:413] label_data_1_split -> label_data_1_split_1
I0630 01:13:03.799109 21943 net.cpp:413] label_data_1_split -> label_data_1_split_2
I0630 01:13:03.799233 21943 net.cpp:148] Setting up label_data_1_split
I0630 01:13:03.799243 21943 net.cpp:155] Top shape: 50 (50)
I0630 01:13:03.799247 21943 net.cpp:155] Top shape: 50 (50)
I0630 01:13:03.799248 21943 net.cpp:155] Top shape: 50 (50)
I0630 01:13:03.799250 21943 net.cpp:163] Memory required for data: 615200
I0630 01:13:03.799252 21943 layer_factory.hpp:77] Creating layer data/bias
I0630 01:13:03.799258 21943 net.cpp:98] Creating Layer data/bias
I0630 01:13:03.799262 21943 net.cpp:439] data/bias <- data
I0630 01:13:03.799264 21943 net.cpp:413] data/bias -> data/bias
I0630 01:13:03.799367 21943 net.cpp:148] Setting up data/bias
I0630 01:13:03.799372 21943 net.cpp:155] Top shape: 50 3 32 32 (153600)
I0630 01:13:03.799374 21943 net.cpp:163] Memory required for data: 1229600
I0630 01:13:03.799378 21943 layer_factory.hpp:77] Creating layer conv1a
I0630 01:13:03.799384 21943 net.cpp:98] Creating Layer conv1a
I0630 01:13:03.799386 21943 net.cpp:439] conv1a <- data/bias
I0630 01:13:03.799389 21943 net.cpp:413] conv1a -> conv1a
I0630 01:13:03.799756 21943 net.cpp:148] Setting up conv1a
I0630 01:13:03.799760 21943 net.cpp:155] Top shape: 50 32 32 32 (1638400)
I0630 01:13:03.799762 21943 net.cpp:163] Memory required for data: 7783200
I0630 01:13:03.799767 21943 layer_factory.hpp:77] Creating layer conv1a/bn
I0630 01:13:03.799772 21943 net.cpp:98] Creating Layer conv1a/bn
I0630 01:13:03.799773 21943 net.cpp:439] conv1a/bn <- conv1a
I0630 01:13:03.799777 21943 net.cpp:413] conv1a/bn -> conv1a/bn
I0630 01:13:03.800767 21943 net.cpp:148] Setting up conv1a/bn
I0630 01:13:03.800776 21943 net.cpp:155] Top shape: 50 32 32 32 (1638400)
I0630 01:13:03.800779 21943 net.cpp:163] Memory required for data: 14336800
I0630 01:13:03.800786 21943 layer_factory.hpp:77] Creating layer conv1a/relu
I0630 01:13:03.800789 21943 net.cpp:98] Creating Layer conv1a/relu
I0630 01:13:03.800791 21943 net.cpp:439] conv1a/relu <- conv1a/bn
I0630 01:13:03.800804 21943 net.cpp:400] conv1a/relu -> conv1a/bn (in-place)
I0630 01:13:03.800809 21943 net.cpp:148] Setting up conv1a/relu
I0630 01:13:03.800812 21943 net.cpp:155] Top shape: 50 32 32 32 (1638400)
I0630 01:13:03.800814 21943 net.cpp:163] Memory required for data: 20890400
I0630 01:13:03.800817 21943 layer_factory.hpp:77] Creating layer conv1b
I0630 01:13:03.800822 21943 net.cpp:98] Creating Layer conv1b
I0630 01:13:03.800823 21943 net.cpp:439] conv1b <- conv1a/bn
I0630 01:13:03.800827 21943 net.cpp:413] conv1b -> conv1b
I0630 01:13:03.801229 21943 net.cpp:148] Setting up conv1b
I0630 01:13:03.801235 21943 net.cpp:155] Top shape: 50 32 32 32 (1638400)
I0630 01:13:03.801237 21943 net.cpp:163] Memory required for data: 27444000
I0630 01:13:03.801241 21943 layer_factory.hpp:77] Creating layer conv1b/bn
I0630 01:13:03.801250 21943 net.cpp:98] Creating Layer conv1b/bn
I0630 01:13:03.801252 21943 net.cpp:439] conv1b/bn <- conv1b
I0630 01:13:03.801255 21943 net.cpp:413] conv1b/bn -> conv1b/bn
I0630 01:13:03.802085 21943 net.cpp:148] Setting up conv1b/bn
I0630 01:13:03.802091 21943 net.cpp:155] Top shape: 50 32 32 32 (1638400)
I0630 01:13:03.802093 21943 net.cpp:163] Memory required for data: 33997600
I0630 01:13:03.802098 21943 layer_factory.hpp:77] Creating layer conv1b/relu
I0630 01:13:03.802103 21943 net.cpp:98] Creating Layer conv1b/relu
I0630 01:13:03.802104 21943 net.cpp:439] conv1b/relu <- conv1b/bn
I0630 01:13:03.802106 21943 net.cpp:400] conv1b/relu -> conv1b/bn (in-place)
I0630 01:13:03.802109 21943 net.cpp:148] Setting up conv1b/relu
I0630 01:13:03.802112 21943 net.cpp:155] Top shape: 50 32 32 32 (1638400)
I0630 01:13:03.802114 21943 net.cpp:163] Memory required for data: 40551200
I0630 01:13:03.802116 21943 layer_factory.hpp:77] Creating layer pool1
I0630 01:13:03.802119 21943 net.cpp:98] Creating Layer pool1
I0630 01:13:03.802121 21943 net.cpp:439] pool1 <- conv1b/bn
I0630 01:13:03.802125 21943 net.cpp:413] pool1 -> pool1
I0630 01:13:03.802160 21943 net.cpp:148] Setting up pool1
I0630 01:13:03.802165 21943 net.cpp:155] Top shape: 50 32 32 32 (1638400)
I0630 01:13:03.802166 21943 net.cpp:163] Memory required for data: 47104800
I0630 01:13:03.802168 21943 layer_factory.hpp:77] Creating layer res2a_branch2a
I0630 01:13:03.802177 21943 net.cpp:98] Creating Layer res2a_branch2a
I0630 01:13:03.802181 21943 net.cpp:439] res2a_branch2a <- pool1
I0630 01:13:03.802183 21943 net.cpp:413] res2a_branch2a -> res2a_branch2a
I0630 01:13:03.802865 21943 net.cpp:148] Setting up res2a_branch2a
I0630 01:13:03.802870 21943 net.cpp:155] Top shape: 50 64 32 32 (3276800)
I0630 01:13:03.802873 21943 net.cpp:163] Memory required for data: 60212000
I0630 01:13:03.802877 21943 layer_factory.hpp:77] Creating layer res2a_branch2a/bn
I0630 01:13:03.802881 21943 net.cpp:98] Creating Layer res2a_branch2a/bn
I0630 01:13:03.802883 21943 net.cpp:439] res2a_branch2a/bn <- res2a_branch2a
I0630 01:13:03.802886 21943 net.cpp:413] res2a_branch2a/bn -> res2a_branch2a/bn
I0630 01:13:03.803598 21943 net.cpp:148] Setting up res2a_branch2a/bn
I0630 01:13:03.803604 21943 net.cpp:155] Top shape: 50 64 32 32 (3276800)
I0630 01:13:03.803606 21943 net.cpp:163] Memory required for data: 73319200
I0630 01:13:03.803611 21943 layer_factory.hpp:77] Creating layer res2a_branch2a/relu
I0630 01:13:03.803613 21943 net.cpp:98] Creating Layer res2a_branch2a/relu
I0630 01:13:03.803616 21943 net.cpp:439] res2a_branch2a/relu <- res2a_branch2a/bn
I0630 01:13:03.803618 21943 net.cpp:400] res2a_branch2a/relu -> res2a_branch2a/bn (in-place)
I0630 01:13:03.803622 21943 net.cpp:148] Setting up res2a_branch2a/relu
I0630 01:13:03.803623 21943 net.cpp:155] Top shape: 50 64 32 32 (3276800)
I0630 01:13:03.803625 21943 net.cpp:163] Memory required for data: 86426400
I0630 01:13:03.803627 21943 layer_factory.hpp:77] Creating layer res2a_branch2b
I0630 01:13:03.803632 21943 net.cpp:98] Creating Layer res2a_branch2b
I0630 01:13:03.803633 21943 net.cpp:439] res2a_branch2b <- res2a_branch2a/bn
I0630 01:13:03.803635 21943 net.cpp:413] res2a_branch2b -> res2a_branch2b
I0630 01:13:03.804118 21943 net.cpp:148] Setting up res2a_branch2b
I0630 01:13:03.804124 21943 net.cpp:155] Top shape: 50 64 32 32 (3276800)
I0630 01:13:03.804126 21943 net.cpp:163] Memory required for data: 99533600
I0630 01:13:03.804129 21943 layer_factory.hpp:77] Creating layer res2a_branch2b/bn
I0630 01:13:03.804132 21943 net.cpp:98] Creating Layer res2a_branch2b/bn
I0630 01:13:03.804134 21943 net.cpp:439] res2a_branch2b/bn <- res2a_branch2b
I0630 01:13:03.804137 21943 net.cpp:413] res2a_branch2b/bn -> res2a_branch2b/bn
I0630 01:13:03.804857 21943 net.cpp:148] Setting up res2a_branch2b/bn
I0630 01:13:03.804862 21943 net.cpp:155] Top shape: 50 64 32 32 (3276800)
I0630 01:13:03.804863 21943 net.cpp:163] Memory required for data: 112640800
I0630 01:13:03.804868 21943 layer_factory.hpp:77] Creating layer res2a_branch2b/relu
I0630 01:13:03.804870 21943 net.cpp:98] Creating Layer res2a_branch2b/relu
I0630 01:13:03.804872 21943 net.cpp:439] res2a_branch2b/relu <- res2a_branch2b/bn
I0630 01:13:03.804875 21943 net.cpp:400] res2a_branch2b/relu -> res2a_branch2b/bn (in-place)
I0630 01:13:03.804878 21943 net.cpp:148] Setting up res2a_branch2b/relu
I0630 01:13:03.804880 21943 net.cpp:155] Top shape: 50 64 32 32 (3276800)
I0630 01:13:03.804883 21943 net.cpp:163] Memory required for data: 125748000
I0630 01:13:03.804884 21943 layer_factory.hpp:77] Creating layer pool2
I0630 01:13:03.804888 21943 net.cpp:98] Creating Layer pool2
I0630 01:13:03.804889 21943 net.cpp:439] pool2 <- res2a_branch2b/bn
I0630 01:13:03.804891 21943 net.cpp:413] pool2 -> pool2
I0630 01:13:03.804927 21943 net.cpp:148] Setting up pool2
I0630 01:13:03.804930 21943 net.cpp:155] Top shape: 50 64 16 16 (819200)
I0630 01:13:03.804932 21943 net.cpp:163] Memory required for data: 129024800
I0630 01:13:03.804934 21943 layer_factory.hpp:77] Creating layer res3a_branch2a
I0630 01:13:03.804939 21943 net.cpp:98] Creating Layer res3a_branch2a
I0630 01:13:03.804940 21943 net.cpp:439] res3a_branch2a <- pool2
I0630 01:13:03.804944 21943 net.cpp:413] res3a_branch2a -> res3a_branch2a
I0630 01:13:03.807574 21943 net.cpp:148] Setting up res3a_branch2a
I0630 01:13:03.807584 21943 net.cpp:155] Top shape: 50 128 16 16 (1638400)
I0630 01:13:03.807585 21943 net.cpp:163] Memory required for data: 135578400
I0630 01:13:03.807590 21943 layer_factory.hpp:77] Creating layer res3a_branch2a/bn
I0630 01:13:03.807593 21943 net.cpp:98] Creating Layer res3a_branch2a/bn
I0630 01:13:03.807595 21943 net.cpp:439] res3a_branch2a/bn <- res3a_branch2a
I0630 01:13:03.807600 21943 net.cpp:413] res3a_branch2a/bn -> res3a_branch2a/bn
I0630 01:13:03.808230 21943 net.cpp:148] Setting up res3a_branch2a/bn
I0630 01:13:03.808235 21943 net.cpp:155] Top shape: 50 128 16 16 (1638400)
I0630 01:13:03.808238 21943 net.cpp:163] Memory required for data: 142132000
I0630 01:13:03.808244 21943 layer_factory.hpp:77] Creating layer res3a_branch2a/relu
I0630 01:13:03.808251 21943 net.cpp:98] Creating Layer res3a_branch2a/relu
I0630 01:13:03.808254 21943 net.cpp:439] res3a_branch2a/relu <- res3a_branch2a/bn
I0630 01:13:03.808256 21943 net.cpp:400] res3a_branch2a/relu -> res3a_branch2a/bn (in-place)
I0630 01:13:03.808260 21943 net.cpp:148] Setting up res3a_branch2a/relu
I0630 01:13:03.808262 21943 net.cpp:155] Top shape: 50 128 16 16 (1638400)
I0630 01:13:03.808264 21943 net.cpp:163] Memory required for data: 148685600
I0630 01:13:03.808266 21943 layer_factory.hpp:77] Creating layer res3a_branch2b
I0630 01:13:03.808270 21943 net.cpp:98] Creating Layer res3a_branch2b
I0630 01:13:03.808272 21943 net.cpp:439] res3a_branch2b <- res3a_branch2a/bn
I0630 01:13:03.808275 21943 net.cpp:413] res3a_branch2b -> res3a_branch2b
I0630 01:13:03.809301 21943 net.cpp:148] Setting up res3a_branch2b
I0630 01:13:03.809307 21943 net.cpp:155] Top shape: 50 128 16 16 (1638400)
I0630 01:13:03.809309 21943 net.cpp:163] Memory required for data: 155239200
I0630 01:13:03.809312 21943 layer_factory.hpp:77] Creating layer res3a_branch2b/bn
I0630 01:13:03.809315 21943 net.cpp:98] Creating Layer res3a_branch2b/bn
I0630 01:13:03.809317 21943 net.cpp:439] res3a_branch2b/bn <- res3a_branch2b
I0630 01:13:03.809326 21943 net.cpp:413] res3a_branch2b/bn -> res3a_branch2b/bn
I0630 01:13:03.809963 21943 net.cpp:148] Setting up res3a_branch2b/bn
I0630 01:13:03.809969 21943 net.cpp:155] Top shape: 50 128 16 16 (1638400)
I0630 01:13:03.809972 21943 net.cpp:163] Memory required for data: 161792800
I0630 01:13:03.809976 21943 layer_factory.hpp:77] Creating layer res3a_branch2b/relu
I0630 01:13:03.809978 21943 net.cpp:98] Creating Layer res3a_branch2b/relu
I0630 01:13:03.809981 21943 net.cpp:439] res3a_branch2b/relu <- res3a_branch2b/bn
I0630 01:13:03.809983 21943 net.cpp:400] res3a_branch2b/relu -> res3a_branch2b/bn (in-place)
I0630 01:13:03.809986 21943 net.cpp:148] Setting up res3a_branch2b/relu
I0630 01:13:03.809988 21943 net.cpp:155] Top shape: 50 128 16 16 (1638400)
I0630 01:13:03.809990 21943 net.cpp:163] Memory required for data: 168346400
I0630 01:13:03.809993 21943 layer_factory.hpp:77] Creating layer pool3
I0630 01:13:03.809995 21943 net.cpp:98] Creating Layer pool3
I0630 01:13:03.809998 21943 net.cpp:439] pool3 <- res3a_branch2b/bn
I0630 01:13:03.809999 21943 net.cpp:413] pool3 -> pool3
I0630 01:13:03.810039 21943 net.cpp:148] Setting up pool3
I0630 01:13:03.810042 21943 net.cpp:155] Top shape: 50 128 16 16 (1638400)
I0630 01:13:03.810045 21943 net.cpp:163] Memory required for data: 174900000
I0630 01:13:03.810046 21943 layer_factory.hpp:77] Creating layer res4a_branch2a
I0630 01:13:03.810051 21943 net.cpp:98] Creating Layer res4a_branch2a
I0630 01:13:03.810053 21943 net.cpp:439] res4a_branch2a <- pool3
I0630 01:13:03.810056 21943 net.cpp:413] res4a_branch2a -> res4a_branch2a
I0630 01:13:03.816105 21943 net.cpp:148] Setting up res4a_branch2a
I0630 01:13:03.816112 21943 net.cpp:155] Top shape: 50 256 16 16 (3276800)
I0630 01:13:03.816113 21943 net.cpp:163] Memory required for data: 188007200
I0630 01:13:03.816117 21943 layer_factory.hpp:77] Creating layer res4a_branch2a/bn
I0630 01:13:03.816120 21943 net.cpp:98] Creating Layer res4a_branch2a/bn
I0630 01:13:03.816123 21943 net.cpp:439] res4a_branch2a/bn <- res4a_branch2a
I0630 01:13:03.816124 21943 net.cpp:413] res4a_branch2a/bn -> res4a_branch2a/bn
I0630 01:13:03.816779 21943 net.cpp:148] Setting up res4a_branch2a/bn
I0630 01:13:03.816786 21943 net.cpp:155] Top shape: 50 256 16 16 (3276800)
I0630 01:13:03.816787 21943 net.cpp:163] Memory required for data: 201114400
I0630 01:13:03.816792 21943 layer_factory.hpp:77] Creating layer res4a_branch2a/relu
I0630 01:13:03.816795 21943 net.cpp:98] Creating Layer res4a_branch2a/relu
I0630 01:13:03.816797 21943 net.cpp:439] res4a_branch2a/relu <- res4a_branch2a/bn
I0630 01:13:03.816799 21943 net.cpp:400] res4a_branch2a/relu -> res4a_branch2a/bn (in-place)
I0630 01:13:03.816802 21943 net.cpp:148] Setting up res4a_branch2a/relu
I0630 01:13:03.816805 21943 net.cpp:155] Top shape: 50 256 16 16 (3276800)
I0630 01:13:03.816807 21943 net.cpp:163] Memory required for data: 214221600
I0630 01:13:03.816808 21943 layer_factory.hpp:77] Creating layer res4a_branch2b
I0630 01:13:03.816812 21943 net.cpp:98] Creating Layer res4a_branch2b
I0630 01:13:03.816814 21943 net.cpp:439] res4a_branch2b <- res4a_branch2a/bn
I0630 01:13:03.816817 21943 net.cpp:413] res4a_branch2b -> res4a_branch2b
I0630 01:13:03.819984 21943 net.cpp:148] Setting up res4a_branch2b
I0630 01:13:03.819990 21943 net.cpp:155] Top shape: 50 256 16 16 (3276800)
I0630 01:13:03.819993 21943 net.cpp:163] Memory required for data: 227328800
I0630 01:13:03.819995 21943 layer_factory.hpp:77] Creating layer res4a_branch2b/bn
I0630 01:13:03.819999 21943 net.cpp:98] Creating Layer res4a_branch2b/bn
I0630 01:13:03.820001 21943 net.cpp:439] res4a_branch2b/bn <- res4a_branch2b
I0630 01:13:03.820008 21943 net.cpp:413] res4a_branch2b/bn -> res4a_branch2b/bn
I0630 01:13:03.820643 21943 net.cpp:148] Setting up res4a_branch2b/bn
I0630 01:13:03.820648 21943 net.cpp:155] Top shape: 50 256 16 16 (3276800)
I0630 01:13:03.820650 21943 net.cpp:163] Memory required for data: 240436000
I0630 01:13:03.820655 21943 layer_factory.hpp:77] Creating layer res4a_branch2b/relu
I0630 01:13:03.820663 21943 net.cpp:98] Creating Layer res4a_branch2b/relu
I0630 01:13:03.820667 21943 net.cpp:439] res4a_branch2b/relu <- res4a_branch2b/bn
I0630 01:13:03.820668 21943 net.cpp:400] res4a_branch2b/relu -> res4a_branch2b/bn (in-place)
I0630 01:13:03.820672 21943 net.cpp:148] Setting up res4a_branch2b/relu
I0630 01:13:03.820674 21943 net.cpp:155] Top shape: 50 256 16 16 (3276800)
I0630 01:13:03.820677 21943 net.cpp:163] Memory required for data: 253543200
I0630 01:13:03.820677 21943 layer_factory.hpp:77] Creating layer pool4
I0630 01:13:03.820680 21943 net.cpp:98] Creating Layer pool4
I0630 01:13:03.820683 21943 net.cpp:439] pool4 <- res4a_branch2b/bn
I0630 01:13:03.820684 21943 net.cpp:413] pool4 -> pool4
I0630 01:13:03.820725 21943 net.cpp:148] Setting up pool4
I0630 01:13:03.820729 21943 net.cpp:155] Top shape: 50 256 8 8 (819200)
I0630 01:13:03.820731 21943 net.cpp:163] Memory required for data: 256820000
I0630 01:13:03.820734 21943 layer_factory.hpp:77] Creating layer res5a_branch2a
I0630 01:13:03.820740 21943 net.cpp:98] Creating Layer res5a_branch2a
I0630 01:13:03.820742 21943 net.cpp:439] res5a_branch2a <- pool4
I0630 01:13:03.820745 21943 net.cpp:413] res5a_branch2a -> res5a_branch2a
I0630 01:13:03.845532 21943 net.cpp:148] Setting up res5a_branch2a
I0630 01:13:03.845554 21943 net.cpp:155] Top shape: 50 512 8 8 (1638400)
I0630 01:13:03.845556 21943 net.cpp:163] Memory required for data: 263373600
I0630 01:13:03.845562 21943 layer_factory.hpp:77] Creating layer res5a_branch2a/bn
I0630 01:13:03.845571 21943 net.cpp:98] Creating Layer res5a_branch2a/bn
I0630 01:13:03.845576 21943 net.cpp:439] res5a_branch2a/bn <- res5a_branch2a
I0630 01:13:03.845579 21943 net.cpp:413] res5a_branch2a/bn -> res5a_branch2a/bn
I0630 01:13:03.846284 21943 net.cpp:148] Setting up res5a_branch2a/bn
I0630 01:13:03.846289 21943 net.cpp:155] Top shape: 50 512 8 8 (1638400)
I0630 01:13:03.846292 21943 net.cpp:163] Memory required for data: 269927200
I0630 01:13:03.846297 21943 layer_factory.hpp:77] Creating layer res5a_branch2a/relu
I0630 01:13:03.846300 21943 net.cpp:98] Creating Layer res5a_branch2a/relu
I0630 01:13:03.846302 21943 net.cpp:439] res5a_branch2a/relu <- res5a_branch2a/bn
I0630 01:13:03.846305 21943 net.cpp:400] res5a_branch2a/relu -> res5a_branch2a/bn (in-place)
I0630 01:13:03.846309 21943 net.cpp:148] Setting up res5a_branch2a/relu
I0630 01:13:03.846312 21943 net.cpp:155] Top shape: 50 512 8 8 (1638400)
I0630 01:13:03.846313 21943 net.cpp:163] Memory required for data: 276480800
I0630 01:13:03.846315 21943 layer_factory.hpp:77] Creating layer res5a_branch2b
I0630 01:13:03.846324 21943 net.cpp:98] Creating Layer res5a_branch2b
I0630 01:13:03.846326 21943 net.cpp:439] res5a_branch2b <- res5a_branch2a/bn
I0630 01:13:03.846329 21943 net.cpp:413] res5a_branch2b -> res5a_branch2b
I0630 01:13:03.859257 21943 net.cpp:148] Setting up res5a_branch2b
I0630 01:13:03.859277 21943 net.cpp:155] Top shape: 50 512 8 8 (1638400)
I0630 01:13:03.859280 21943 net.cpp:163] Memory required for data: 283034400
I0630 01:13:03.859293 21943 layer_factory.hpp:77] Creating layer res5a_branch2b/bn
I0630 01:13:03.859302 21943 net.cpp:98] Creating Layer res5a_branch2b/bn
I0630 01:13:03.859305 21943 net.cpp:439] res5a_branch2b/bn <- res5a_branch2b
I0630 01:13:03.859309 21943 net.cpp:413] res5a_branch2b/bn -> res5a_branch2b/bn
I0630 01:13:03.860020 21943 net.cpp:148] Setting up res5a_branch2b/bn
I0630 01:13:03.860026 21943 net.cpp:155] Top shape: 50 512 8 8 (1638400)
I0630 01:13:03.860028 21943 net.cpp:163] Memory required for data: 289588000
I0630 01:13:03.860033 21943 layer_factory.hpp:77] Creating layer res5a_branch2b/relu
I0630 01:13:03.860036 21943 net.cpp:98] Creating Layer res5a_branch2b/relu
I0630 01:13:03.860038 21943 net.cpp:439] res5a_branch2b/relu <- res5a_branch2b/bn
I0630 01:13:03.860041 21943 net.cpp:400] res5a_branch2b/relu -> res5a_branch2b/bn (in-place)
I0630 01:13:03.860045 21943 net.cpp:148] Setting up res5a_branch2b/relu
I0630 01:13:03.860047 21943 net.cpp:155] Top shape: 50 512 8 8 (1638400)
I0630 01:13:03.860049 21943 net.cpp:163] Memory required for data: 296141600
I0630 01:13:03.860061 21943 layer_factory.hpp:77] Creating layer pool5
I0630 01:13:03.860065 21943 net.cpp:98] Creating Layer pool5
I0630 01:13:03.860069 21943 net.cpp:439] pool5 <- res5a_branch2b/bn
I0630 01:13:03.860071 21943 net.cpp:413] pool5 -> pool5
I0630 01:13:03.860095 21943 net.cpp:148] Setting up pool5
I0630 01:13:03.860100 21943 net.cpp:155] Top shape: 50 512 1 1 (25600)
I0630 01:13:03.860101 21943 net.cpp:163] Memory required for data: 296244000
I0630 01:13:03.860103 21943 layer_factory.hpp:77] Creating layer fc10
I0630 01:13:03.860111 21943 net.cpp:98] Creating Layer fc10
I0630 01:13:03.860115 21943 net.cpp:439] fc10 <- pool5
I0630 01:13:03.860117 21943 net.cpp:413] fc10 -> fc10
I0630 01:13:03.860378 21943 net.cpp:148] Setting up fc10
I0630 01:13:03.860383 21943 net.cpp:155] Top shape: 50 10 (500)
I0630 01:13:03.860384 21943 net.cpp:163] Memory required for data: 296246000
I0630 01:13:03.860388 21943 layer_factory.hpp:77] Creating layer fc10_fc10_0_split
I0630 01:13:03.860391 21943 net.cpp:98] Creating Layer fc10_fc10_0_split
I0630 01:13:03.860394 21943 net.cpp:439] fc10_fc10_0_split <- fc10
I0630 01:13:03.860396 21943 net.cpp:413] fc10_fc10_0_split -> fc10_fc10_0_split_0
I0630 01:13:03.860400 21943 net.cpp:413] fc10_fc10_0_split -> fc10_fc10_0_split_1
I0630 01:13:03.860404 21943 net.cpp:413] fc10_fc10_0_split -> fc10_fc10_0_split_2
I0630 01:13:03.860468 21943 net.cpp:148] Setting up fc10_fc10_0_split
I0630 01:13:03.860472 21943 net.cpp:155] Top shape: 50 10 (500)
I0630 01:13:03.860474 21943 net.cpp:155] Top shape: 50 10 (500)
I0630 01:13:03.860476 21943 net.cpp:155] Top shape: 50 10 (500)
I0630 01:13:03.860478 21943 net.cpp:163] Memory required for data: 296252000
I0630 01:13:03.860481 21943 layer_factory.hpp:77] Creating layer loss
I0630 01:13:03.860484 21943 net.cpp:98] Creating Layer loss
I0630 01:13:03.860486 21943 net.cpp:439] loss <- fc10_fc10_0_split_0
I0630 01:13:03.860488 21943 net.cpp:439] loss <- label_data_1_split_0
I0630 01:13:03.860491 21943 net.cpp:413] loss -> loss
…
