…
I0711 20:08:12.635584 25943 net.cpp:327] The NetState phase (0) differed from the phase (1) specified by a rule in layer accuracy/top5
I0711 20:08:12.635821 25943 net.cpp:56] Initializing net from parameters: 
name: "jsegnet21v2_train"
state {
  phase: TRAIN
}
layer {
  name: "data"
  type: "ImageLabelData"
  top: "data"
  top: "label"
  transform_param {
    mirror: true
    crop_size: 640
    mean_value: 0
  }
  image_label_data_param {
    image_list_path: "data/train-image-lmdb"
    label_list_path: "data/train-label-lmdb"
    batch_size: 5
    shuffle: false
    threads: 4
    backend: LMDB
  }
}
layer {
  name: "data/bias"
  type: "Bias"
  bottom: "data"
  top: "data/bias"
  param {
    lr_mult: 0
    decay_mult: 0
  }
  bias_param {
    filler {
      type: "constant"
      value: -128
    }
  }
}
layer {
  name: "conv1a"
  type: "Convolution"
  bottom: "data/bias"
  top: "conv1a"
  param {
    lr_mult: 1
    decay_mult: 1
  }
  param {
    lr_mult: 2
    decay_mult: 0
  }
  convolution_param {
    num_output: 32
    bias_term: true
    pad: 2
    kernel_size: 5
    group: 1
    stride: 2
    weight_filler {
      type: "msra"
    }
    bias_filler {
      type: "constant"
      value: 0
    }
    dilation: 1
  }
}
layer {
  name: "conv1a/bn"
  type: "BatchNorm"
  bottom: "conv1a"
  top: "conv1a/bn"
  param {
    lr_mult: 1
    decay_mult: 1
  }
  param {
    lr_mult: 1
    decay_mult: 1
  }
  param {
    lr_mult: 0
    decay_mult: 0
  }
  param {
    lr_mult: 0
    decay_mult: 0
  }
  batch_norm_param {
    moving_average_fraction: 0.99
    eps: 0.0001
    scale_filler {
      type: "constant"
      value: 1
    }
    bias_filler {
      type: "constant"
      value: 0
    }
  }
}
layer {
  name: "conv1a/relu"
  type: "ReLU"
  bottom: "conv1a/bn"
  top: "conv1a/bn"
}
layer {
  name: "conv1b"
  type: "Convolution"
  bottom: "conv1a/bn"
  top: "conv1b"
  param {
    lr_mult: 1
    decay_mult: 1
  }
  param {
    lr_mult: 2
    decay_mult: 0
  }
  convolution_param {
    num_output: 32
    bias_term: true
    pad: 1
    kernel_size: 3
    group: 4
    stride: 1
    weight_filler {
      type: "msra"
    }
    bias_filler {
      type: "constant"
      value: 0
    }
    dilation: 1
  }
}
layer {
  name: "conv1b/bn"
  type: "BatchNorm"
  bottom: "conv1b"
  top: "conv1b/bn"
  param {
    lr_mult: 1
    decay_mult: 1
  }
  param {
    lr_mult: 1
    decay_mult: 1
  }
  param {
    lr_mult: 0
    decay_mult: 0
  }
  param {
    lr_mult: 0
    decay_mult: 0
  }
  batch_norm_param {
    moving_average_fraction: 0.99
    eps: 0.0001
    scale_filler {
      type: "constant"
      value: 1
    }
    bias_filler {
      type: "constant"
      value: 0
    }
  }
}
layer {
  name: "conv1b/relu"
  type: "ReLU"
  bottom: "conv1b/bn"
  top: "conv1b/bn"
}
layer {
  name: "pool1"
  type: "Pooling"
  bottom: "conv1b/bn"
  top: "pool1"
  pooling_param {
    pool: MAX
    kernel_size: 2
    stride: 2
  }
}
layer {
  name: "res2a_branch2a"
  type: "Convolution"
  bottom: "pool1"
  top: "res2a_branch2a"
  param {
    lr_mult: 1
    decay_mult: 1
  }
  param {
    lr_mult: 2
    decay_mult: 0
  }
  convolution_param {
    num_output: 64
    bias_term: true
    pad: 1
    kernel_size: 3
    group: 1
    stride: 1
    weight_filler {
      type: "msra"
    }
    bias_filler {
      type: "constant"
      value: 0
    }
    dilation: 1
  }
}
layer {
  name: "res2a_branch2a/bn"
  type: "BatchNorm"
  bottom: "res2a_branch2a"
  top: "res2a_branch2a/bn"
  param {
    lr_mult: 1
    decay_mult: 1
  }
  param {
    lr_mult: 1
    decay_mult: 1
  }
  param {
    lr_mult: 0
    decay_mult: 0
  }
  param {
    lr_mult: 0
    decay_mult: 0
  }
  batch_norm_param {
    moving_average_fraction: 0.99
    eps: 0.0001
    scale_filler {
      type: "constant"
      value: 1
    }
    bias_filler {
      type: "constant"
      value: 0
    }
  }
}
layer {
  name: "res2a_branch2a/relu"
  type: "ReLU"
  bottom: "res2a_branch2a/bn"
  top: "res2a_branch2a/bn"
}
layer {
  name: "res2a_branch2b"
  type: "Convolution"
  bottom: "res2a_branch2a/bn"
  top: "res2a_branch2b"
  param {
    lr_mult: 1
    decay_mult: 1
  }
  param {
    lr_mult: 2
    decay_mult: 0
  }
  convolution_param {
    num_output: 64
    bias_term: true
    pad: 1
    kernel_size: 3
    group: 4
    stride: 1
    weight_filler {
      type: "msra"
    }
    bias_filler {
      type: "constant"
      value: 0
    }
    dilation: 1
  }
}
layer {
  name: "res2a_branch2b/bn"
  type: "BatchNorm"
  bottom: "res2a_branch2b"
  top: "res2a_branch2b/bn"
  param {
    lr_mult: 1
    decay_mult: 1
  }
  param {
    lr_mult: 1
    decay_mult: 1
  }
  param {
    lr_mult: 0
    decay_mult: 0
  }
  param {
    lr_mult: 0
    decay_mult: 0
  }
  batch_norm_param {
    moving_average_fraction: 0.99
    eps: 0.0001
    scale_filler {
      type: "constant"
      value: 1
    }
    bias_filler {
      type: "constant"
      value: 0
    }
  }
}
layer {
  name: "res2a_branch2b/relu"
  type: "ReLU"
  bottom: "res2a_branch2b/bn"
  top: "res2a_branch2b/bn"
}
layer {
  name: "pool2"
  type: "Pooling"
  bottom: "res2a_branch2b/bn"
  top: "pool2"
  pooling_param {
    pool: MAX
    kernel_size: 2
    stride: 2
  }
}
layer {
  name: "res3a_branch2a"
  type: "Convolution"
  bottom: "pool2"
  top: "res3a_branch2a"
  param {
    lr_mult: 1
    decay_mult: 1
  }
  param {
    lr_mult: 2
    decay_mult: 0
  }
  convolution_param {
    num_output: 128
    bias_term: true
    pad: 1
    kernel_size: 3
    group: 1
    stride: 1
    weight_filler {
      type: "msra"
    }
    bias_filler {
      type: "constant"
      value: 0
    }
    dilation: 1
  }
}
layer {
  name: "res3a_branch2a/bn"
  type: "BatchNorm"
  bottom: "res3a_branch2a"
  top: "res3a_branch2a/bn"
  param {
    lr_mult: 1
    decay_mult: 1
  }
  param {
    lr_mult: 1
    decay_mult: 1
  }
  param {
    lr_mult: 0
    decay_mult: 0
  }
  param {
    lr_mult: 0
    decay_mult: 0
  }
  batch_norm_param {
    moving_average_fraction: 0.99
    eps: 0.0001
    scale_filler {
      type: "constant"
      value: 1
    }
    bias_filler {
      type: "constant"
      value: 0
    }
  }
}
layer {
  name: "res3a_branch2a/relu"
  type: "ReLU"
  bottom: "res3a_branch2a/bn"
  top: "res3a_branch2a/bn"
}
layer {
  name: "res3a_branch2b"
  type: "Convolution"
  bottom: "res3a_branch2a/bn"
  top: "res3a_branch2b"
  param {
    lr_mult: 1
    decay_mult: 1
  }
  param {
    lr_mult: 2
    decay_mult: 0
  }
  convolution_param {
    num_output: 128
    bias_term: true
    pad: 1
    kernel_size: 3
    group: 4
    stride: 1
    weight_filler {
      type: "msra"
    }
    bias_filler {
      type: "constant"
      value: 0
    }
    dilation: 1
  }
}
layer {
  name: "res3a_branch2b/bn"
  type: "BatchNorm"
  bottom: "res3a_branch2b"
  top: "res3a_branch2b/bn"
  param {
    lr_mult: 1
    decay_mult: 1
  }
  param {
    lr_mult: 1
    decay_mult: 1
  }
  param {
    lr_mult: 0
    decay_mult: 0
  }
  param {
    lr_mult: 0
    decay_mult: 0
  }
  batch_norm_param {
    moving_average_fraction: 0.99
    eps: 0.0001
    scale_filler {
      type: "constant"
      value: 1
    }
    bias_filler {
      type: "constant"
      value: 0
    }
  }
}
layer {
  name: "res3a_branch2b/relu"
  type: "ReLU"
  bottom: "res3a_branch2b/bn"
  top: "res3a_branch2b/bn"
}
layer {
  name: "pool3"
  type: "Pooling"
  bottom: "res3a_branch2b/bn"
  top: "pool3"
  pooling_param {
    pool: MAX
    kernel_size: 2
    stride: 2
  }
}
layer {
  name: "res4a_branch2a"
  type: "Convolution"
  bottom: "pool3"
  top: "res4a_branch2a"
  param {
    lr_mult: 1
    decay_mult: 1
  }
  param {
    lr_mult: 2
    decay_mult: 0
  }
  convolution_param {
    num_output: 256
    bias_term: true
    pad: 1
    kernel_size: 3
    group: 1
    stride: 1
    weight_filler {
      type: "msra"
    }
    bias_filler {
      type: "constant"
      value: 0
    }
    dilation: 1
  }
}
layer {
  name: "res4a_branch2a/bn"
  type: "BatchNorm"
  bottom: "res4a_branch2a"
  top: "res4a_branch2a/bn"
  param {
    lr_mult: 1
    decay_mult: 1
  }
  param {
    lr_mult: 1
    decay_mult: 1
  }
  param {
    lr_mult: 0
    decay_mult: 0
  }
  param {
    lr_mult: 0
    decay_mult: 0
  }
  batch_norm_param {
    moving_average_fraction: 0.99
    eps: 0.0001
    scale_filler {
      type: "constant"
      value: 1
    }
    bias_filler {
      type: "constant"
      value: 0
    }
  }
}
layer {
  name: "res4a_branch2a/relu"
  type: "ReLU"
  bottom: "res4a_branch2a/bn"
  top: "res4a_branch2a/bn"
}
layer {
  name: "res4a_branch2b"
  type: "Convolution"
  bottom: "res4a_branch2a/bn"
  top: "res4a_branch2b"
  param {
    lr_mult: 1
    decay_mult: 1
  }
  param {
    lr_mult: 2
    decay_mult: 0
  }
  convolution_param {
    num_output: 256
    bias_term: true
    pad: 1
    kernel_size: 3
    group: 4
    stride: 1
    weight_filler {
      type: "msra"
    }
    bias_filler {
      type: "constant"
      value: 0
    }
    dilation: 1
  }
}
layer {
  name: "res4a_branch2b/bn"
  type: "BatchNorm"
  bottom: "res4a_branch2b"
  top: "res4a_branch2b/bn"
  param {
    lr_mult: 1
    decay_mult: 1
  }
  param {
    lr_mult: 1
    decay_mult: 1
  }
  param {
    lr_mult: 0
    decay_mult: 0
  }
  param {
    lr_mult: 0
    decay_mult: 0
  }
  batch_norm_param {
    moving_average_fraction: 0.99
    eps: 0.0001
    scale_filler {
      type: "constant"
      value: 1
    }
    bias_filler {
      type: "constant"
      value: 0
    }
  }
}
layer {
  name: "res4a_branch2b/relu"
  type: "ReLU"
  bottom: "res4a_branch2b/bn"
  top: "res4a_branch2b/bn"
}
layer {
  name: "pool4"
  type: "Pooling"
  bottom: "res4a_branch2b/bn"
  top: "pool4"
  pooling_param {
    pool: MAX
    kernel_size: 1
    stride: 1
  }
}
layer {
  name: "res5a_branch2a"
  type: "Convolution"
  bottom: "pool4"
  top: "res5a_branch2a"
  param {
    lr_mult: 1
    decay_mult: 1
  }
  param {
    lr_mult: 2
    decay_mult: 0
  }
  convolution_param {
    num_output: 512
    bias_term: true
    pad: 2
    kernel_size: 3
    group: 1
    stride: 1
    weight_filler {
      type: "msra"
    }
    bias_filler {
      type: "constant"
      value: 0
    }
    dilation: 2
  }
}
layer {
  name: "res5a_branch2a/bn"
  type: "BatchNorm"
  bottom: "res5a_branch2a"
  top: "res5a_branch2a/bn"
  param {
    lr_mult: 1
    decay_mult: 1
  }
  param {
    lr_mult: 1
    decay_mult: 1
  }
  param {
    lr_mult: 0
    decay_mult: 0
  }
  param {
    lr_mult: 0
    decay_mult: 0
  }
  batch_norm_param {
    moving_average_fraction: 0.99
    eps: 0.0001
    scale_filler {
      type: "constant"
      value: 1
    }
    bias_filler {
      type: "constant"
      value: 0
    }
  }
}
layer {
  name: "res5a_branch2a/relu"
  type: "ReLU"
  bottom: "res5a_branch2a/bn"
  top: "res5a_branch2a/bn"
}
layer {
  name: "res5a_branch2b"
  type: "Convolution"
  bottom: "res5a_branch2a/bn"
  top: "res5a_branch2b"
  param {
    lr_mult: 1
    decay_mult: 1
  }
  param {
    lr_mult: 2
    decay_mult: 0
  }
  convolution_param {
    num_output: 512
    bias_term: true
    pad: 2
    kernel_size: 3
    group: 4
    stride: 1
    weight_filler {
      type: "msra"
    }
    bias_filler {
      type: "constant"
      value: 0
    }
    dilation: 2
  }
}
layer {
  name: "res5a_branch2b/bn"
  type: "BatchNorm"
  bottom: "res5a_branch2b"
  top: "res5a_branch2b/bn"
  param {
    lr_mult: 1
    decay_mult: 1
  }
  param {
    lr_mult: 1
    decay_mult: 1
  }
  param {
    lr_mult: 0
    decay_mult: 0
  }
  param {
    lr_mult: 0
    decay_mult: 0
  }
  batch_norm_param {
    moving_average_fraction: 0.99
    eps: 0.0001
    scale_filler {
      type: "constant"
      value: 1
    }
    bias_filler {
      type: "constant"
      value: 0
    }
  }
}
layer {
  name: "res5a_branch2b/relu"
  type: "ReLU"
  bottom: "res5a_branch2b/bn"
  top: "res5a_branch2b/bn"
}
layer {
  name: "out5a"
  type: "Convolution"
  bottom: "res5a_branch2b/bn"
  top: "out5a"
  param {
    lr_mult: 1
    decay_mult: 1
  }
  param {
    lr_mult: 2
    decay_mult: 0
  }
  convolution_param {
    num_output: 64
    bias_term: true
    pad: 4
    kernel_size: 3
    group: 2
    stride: 1
    weight_filler {
      type: "msra"
    }
    bias_filler {
      type: "constant"
      value: 0
    }
    dilation: 4
  }
}
layer {
  name: "out5a/bn"
  type: "BatchNorm"
  bottom: "out5a"
  top: "out5a/bn"
  param {
    lr_mult: 1
    decay_mult: 1
  }
  param {
    lr_mult: 1
    decay_mult: 1
  }
  param {
    lr_mult: 0
    decay_mult: 0
  }
  param {
    lr_mult: 0
    decay_mult: 0
  }
  batch_norm_param {
    moving_average_fraction: 0.99
    eps: 0.0001
    scale_filler {
      type: "constant"
      value: 1
    }
    bias_filler {
      type: "constant"
      value: 0
    }
  }
}
layer {
  name: "out5a/relu"
  type: "ReLU"
  bottom: "out5a/bn"
  top: "out5a/bn"
}
layer {
  name: "out5a_up2"
  type: "Deconvolution"
  bottom: "out5a/bn"
  top: "out5a_up2"
  param {
    lr_mult: 0
    decay_mult: 0
  }
  convolution_param {
    num_output: 64
    bias_term: false
    pad: 1
    kernel_size: 4
    group: 64
    stride: 2
    weight_filler {
      type: "bilinear"
    }
  }
}
layer {
  name: "out3a"
  type: "Convolution"
  bottom: "res3a_branch2b/bn"
  top: "out3a"
  param {
    lr_mult: 1
    decay_mult: 1
  }
  param {
    lr_mult: 2
    decay_mult: 0
  }
  convolution_param {
    num_output: 64
    bias_term: true
    pad: 1
    kernel_size: 3
    group: 2
    stride: 1
    weight_filler {
      type: "msra"
    }
    bias_filler {
      type: "constant"
      value: 0
    }
    dilation: 1
  }
}
layer {
  name: "out3a/bn"
  type: "BatchNorm"
  bottom: "out3a"
  top: "out3a/bn"
  param {
    lr_mult: 1
    decay_mult: 1
  }
  param {
    lr_mult: 1
    decay_mult: 1
  }
  param {
    lr_mult: 0
    decay_mult: 0
  }
  param {
    lr_mult: 0
    decay_mult: 0
  }
  batch_norm_param {
    moving_average_fraction: 0.99
    eps: 0.0001
    scale_filler {
      type: "constant"
      value: 1
    }
    bias_filler {
      type: "constant"
      value: 0
    }
  }
}
layer {
  name: "out3a/relu"
  type: "ReLU"
  bottom: "out3a/bn"
  top: "out3a/bn"
}
layer {
  name: "out3_out5_combined"
  type: "Eltwise"
  bottom: "out5a_up2"
  bottom: "out3a/bn"
  top: "out3_out5_combined"
}
layer {
  name: "ctx_conv1"
  type: "Convolution"
  bottom: "out3_out5_combined"
  top: "ctx_conv1"
  param {
    lr_mult: 1
    decay_mult: 1
  }
  param {
    lr_mult: 2
    decay_mult: 0
  }
  convolution_param {
    num_output: 64
    bias_term: true
    pad: 1
    kernel_size: 3
    group: 1
    stride: 1
    weight_filler {
      type: "msra"
    }
    bias_filler {
      type: "constant"
      value: 0
    }
    dilation: 1
  }
}
layer {
  name: "ctx_conv1/bn"
  type: "BatchNorm"
  bottom: "ctx_conv1"
  top: "ctx_conv1/bn"
  param {
    lr_mult: 1
    decay_mult: 1
  }
  param {
    lr_mult: 1
    decay_mult: 1
  }
  param {
    lr_mult: 0
    decay_mult: 0
  }
  param {
    lr_mult: 0
    decay_mult: 0
  }
  batch_norm_param {
    moving_average_fraction: 0.99
    eps: 0.0001
    scale_filler {
      type: "constant"
      value: 1
    }
    bias_filler {
      type: "constant"
      value: 0
    }
  }
}
layer {
  name: "ctx_conv1/relu"
  type: "ReLU"
  bottom: "ctx_conv1/bn"
  top: "ctx_conv1/bn"
}
layer {
  name: "ctx_conv2"
  type: "Convolution"
  bottom: "ctx_conv1/bn"
  top: "ctx_conv2"
  param {
    lr_mult: 1
    decay_mult: 1
  }
  param {
    lr_mult: 2
    decay_mult: 0
  }
  convolution_param {
    num_output: 64
    bias_term: true
    pad: 4
    kernel_size: 3
    group: 1
    stride: 1
    weight_filler {
      type: "msra"
    }
    bias_filler {
      type: "constant"
      value: 0
    }
    dilation: 4
  }
}
layer {
  name: "ctx_conv2/bn"
  type: "BatchNorm"
  bottom: "ctx_conv2"
  top: "ctx_conv2/bn"
  param {
    lr_mult: 1
    decay_mult: 1
  }
  param {
    lr_mult: 1
    decay_mult: 1
  }
  param {
    lr_mult: 0
    decay_mult: 0
  }
  param {
    lr_mult: 0
    decay_mult: 0
  }
  batch_norm_param {
    moving_average_fraction: 0.99
    eps: 0.0001
    scale_filler {
      type: "constant"
      value: 1
    }
    bias_filler {
      type: "constant"
      value: 0
    }
  }
}
layer {
  name: "ctx_conv2/relu"
  type: "ReLU"
  bottom: "ctx_conv2/bn"
  top: "ctx_conv2/bn"
}
layer {
  name: "ctx_conv3"
  type: "Convolution"
  bottom: "ctx_conv2/bn"
  top: "ctx_conv3"
  param {
    lr_mult: 1
    decay_mult: 1
  }
  param {
    lr_mult: 2
    decay_mult: 0
  }
  convolution_param {
    num_output: 64
    bias_term: true
    pad: 4
    kernel_size: 3
    group: 1
    stride: 1
    weight_filler {
      type: "msra"
    }
    bias_filler {
      type: "constant"
      value: 0
    }
    dilation: 4
  }
}
layer {
  name: "ctx_conv3/bn"
  type: "BatchNorm"
  bottom: "ctx_conv3"
  top: "ctx_conv3/bn"
  param {
    lr_mult: 1
    decay_mult: 1
  }
  param {
    lr_mult: 1
    decay_mult: 1
  }
  param {
    lr_mult: 0
    decay_mult: 0
  }
  param {
    lr_mult: 0
    decay_mult: 0
  }
  batch_norm_param {
    moving_average_fraction: 0.99
    eps: 0.0001
    scale_filler {
      type: "constant"
      value: 1
    }
    bias_filler {
      type: "constant"
      value: 0
    }
  }
}
layer {
  name: "ctx_conv3/relu"
  type: "ReLU"
  bottom: "ctx_conv3/bn"
  top: "ctx_conv3/bn"
}
layer {
  name: "ctx_conv4"
  type: "Convolution"
  bottom: "ctx_conv3/bn"
  top: "ctx_conv4"
  param {
    lr_mult: 1
    decay_mult: 1
  }
  param {
    lr_mult: 2
    decay_mult: 0
  }
  convolution_param {
    num_output: 64
    bias_term: true
    pad: 4
    kernel_size: 3
    group: 1
    stride: 1
    weight_filler {
      type: "msra"
    }
    bias_filler {
      type: "constant"
      value: 0
    }
    dilation: 4
  }
}
layer {
  name: "ctx_conv4/bn"
  type: "BatchNorm"
  bottom: "ctx_conv4"
  top: "ctx_conv4/bn"
  param {
    lr_mult: 1
    decay_mult: 1
  }
  param {
    lr_mult: 1
    decay_mult: 1
  }
  param {
    lr_mult: 0
    decay_mult: 0
  }
  param {
    lr_mult: 0
    decay_mult: 0
  }
  batch_norm_param {
    moving_average_fraction: 0.99
    eps: 0.0001
    scale_filler {
      type: "constant"
      value: 1
    }
    bias_filler {
      type: "constant"
      value: 0
    }
  }
}
layer {
  name: "ctx_conv4/relu"
  type: "ReLU"
  bottom: "ctx_conv4/bn"
  top: "ctx_conv4/bn"
}
layer {
  name: "ctx_final"
  type: "Convolution"
  bottom: "ctx_conv4/bn"
  top: "ctx_final"
  param {
    lr_mult: 1
    decay_mult: 1
  }
  param {
    lr_mult: 2
    decay_mult: 0
  }
  convolution_param {
    num_output: 8
    bias_term: true
    pad: 1
    kernel_size: 3
    kernel_size: 3
    group: 1
    stride: 1
    weight_filler {
      type: "msra"
    }
    bias_filler {
      type: "constant"
      value: 0
    }
    dilation: 1
  }
}
layer {
  name: "ctx_final/relu"
  type: "ReLU"
  bottom: "ctx_final"
  top: "ctx_final"
}
layer {
  name: "out_deconv_final_up2"
  type: "Deconvolution"
  bottom: "ctx_final"
  top: "out_deconv_final_up2"
  param {
    lr_mult: 0
    decay_mult: 0
  }
  convolution_param {
    num_output: 8
    bias_term: false
    pad: 1
    kernel_size: 4
    group: 8
    stride: 2
    weight_filler {
      type: "bilinear"
    }
  }
}
layer {
  name: "out_deconv_final_up4"
  type: "Deconvolution"
  bottom: "out_deconv_final_up2"
  top: "out_deconv_final_up4"
  param {
    lr_mult: 0
    decay_mult: 0
  }
  convolution_param {
    num_output: 8
    bias_term: false
    pad: 1
    kernel_size: 4
    group: 8
    stride: 2
    weight_filler {
      type: "bilinear"
    }
  }
}
layer {
  name: "out_deconv_final_up8"
  type: "Deconvolution"
  bottom: "out_deconv_final_up4"
  top: "out_deconv_final_up8"
  param {
    lr_mult: 0
    decay_mult: 0
  }
  convolution_param {
    num_output: 8
    bias_term: false
    pad: 1
    kernel_size: 4
    group: 8
    stride: 2
    weight_filler {
      type: "bilinear"
    }
  }
}
layer {
  name: "loss"
  type: "SoftmaxWithLoss"
  bottom: "out_deconv_final_up8"
  bottom: "label"
  top: "loss"
  propagate_down: true
  propagate_down: false
  loss_param {
    ignore_label: 255
    normalization: VALID
  }
}
I0711 20:08:12.636162 25943 layer_factory.hpp:77] Creating layer data
I0711 20:08:12.636183 25943 net.cpp:98] Creating Layer data
I0711 20:08:12.636188 25943 net.cpp:413] data -> data
I0711 20:08:12.636207 25943 net.cpp:413] data -> label
I0711 20:08:12.663363 26012 db_lmdb.cpp:35] Opened lmdb data/train-image-lmdb
I0711 20:08:12.663627 26017 db_lmdb.cpp:35] Opened lmdb data/train-label-lmdb
I0711 20:08:12.668056 25943 data_layer.cpp:78] ReshapePrefetch 5, 3, 640, 640
I0711 20:08:12.668126 25943 data_layer.cpp:83] output data size: 5,3,640,640
I0711 20:08:12.696697 25943 data_layer.cpp:78] ReshapePrefetch 5, 1, 640, 640
I0711 20:08:12.696758 25943 data_layer.cpp:83] output data size: 5,1,640,640
I0711 20:08:12.705622 26022 blocking_queue.cpp:50] Waiting for data
I0711 20:08:12.709240 25943 net.cpp:148] Setting up data
I0711 20:08:12.709262 25943 net.cpp:155] Top shape: 5 3 640 640 (6144000)
I0711 20:08:12.709265 25943 net.cpp:155] Top shape: 5 1 640 640 (2048000)
I0711 20:08:12.709267 25943 net.cpp:163] Memory required for data: 32768000
I0711 20:08:12.709275 25943 layer_factory.hpp:77] Creating layer data/bias
I0711 20:08:12.709282 25943 net.cpp:98] Creating Layer data/bias
I0711 20:08:12.709285 25943 net.cpp:439] data/bias <- data
I0711 20:08:12.709295 25943 net.cpp:413] data/bias -> data/bias
I0711 20:08:12.710577 25943 net.cpp:148] Setting up data/bias
I0711 20:08:12.710587 25943 net.cpp:155] Top shape: 5 3 640 640 (6144000)
I0711 20:08:12.710590 25943 net.cpp:163] Memory required for data: 57344000
I0711 20:08:12.710599 25943 layer_factory.hpp:77] Creating layer conv1a
I0711 20:08:12.710609 25943 net.cpp:98] Creating Layer conv1a
I0711 20:08:12.710611 25943 net.cpp:439] conv1a <- data/bias
I0711 20:08:12.710615 25943 net.cpp:413] conv1a -> conv1a
I0711 20:08:12.712355 25943 net.cpp:148] Setting up conv1a
I0711 20:08:12.712370 25943 net.cpp:155] Top shape: 5 32 320 320 (16384000)
I0711 20:08:12.712373 25943 net.cpp:163] Memory required for data: 122880000
I0711 20:08:12.712379 25943 layer_factory.hpp:77] Creating layer conv1a/bn
I0711 20:08:12.712390 25943 net.cpp:98] Creating Layer conv1a/bn
I0711 20:08:12.712393 25943 net.cpp:439] conv1a/bn <- conv1a
I0711 20:08:12.712399 25943 net.cpp:413] conv1a/bn -> conv1a/bn
I0711 20:08:12.714072 25943 net.cpp:148] Setting up conv1a/bn
I0711 20:08:12.714082 25943 net.cpp:155] Top shape: 5 32 320 320 (16384000)
I0711 20:08:12.714085 25943 net.cpp:163] Memory required for data: 188416000
I0711 20:08:12.714092 25943 layer_factory.hpp:77] Creating layer conv1a/relu
I0711 20:08:12.714097 25943 net.cpp:98] Creating Layer conv1a/relu
I0711 20:08:12.714098 25943 net.cpp:439] conv1a/relu <- conv1a/bn
I0711 20:08:12.714102 25943 net.cpp:400] conv1a/relu -> conv1a/bn (in-place)
I0711 20:08:12.714109 25943 net.cpp:148] Setting up conv1a/relu
I0711 20:08:12.714112 25943 net.cpp:155] Top shape: 5 32 320 320 (16384000)
I0711 20:08:12.714113 25943 net.cpp:163] Memory required for data: 253952000
I0711 20:08:12.714115 25943 layer_factory.hpp:77] Creating layer conv1b
I0711 20:08:12.714120 25943 net.cpp:98] Creating Layer conv1b
I0711 20:08:12.714123 25943 net.cpp:439] conv1b <- conv1a/bn
I0711 20:08:12.714125 25943 net.cpp:413] conv1b -> conv1b
I0711 20:08:12.714498 25943 net.cpp:148] Setting up conv1b
I0711 20:08:12.714504 25943 net.cpp:155] Top shape: 5 32 320 320 (16384000)
I0711 20:08:12.714505 25943 net.cpp:163] Memory required for data: 319488000
I0711 20:08:12.714509 25943 layer_factory.hpp:77] Creating layer conv1b/bn
I0711 20:08:12.714514 25943 net.cpp:98] Creating Layer conv1b/bn
I0711 20:08:12.714515 25943 net.cpp:439] conv1b/bn <- conv1b
I0711 20:08:12.714519 25943 net.cpp:413] conv1b/bn -> conv1b/bn
I0711 20:08:12.715205 25943 net.cpp:148] Setting up conv1b/bn
I0711 20:08:12.715211 25943 net.cpp:155] Top shape: 5 32 320 320 (16384000)
I0711 20:08:12.715214 25943 net.cpp:163] Memory required for data: 385024000
I0711 20:08:12.715219 25943 layer_factory.hpp:77] Creating layer conv1b/relu
I0711 20:08:12.715221 25943 net.cpp:98] Creating Layer conv1b/relu
I0711 20:08:12.715224 25943 net.cpp:439] conv1b/relu <- conv1b/bn
I0711 20:08:12.715225 25943 net.cpp:400] conv1b/relu -> conv1b/bn (in-place)
I0711 20:08:12.715229 25943 net.cpp:148] Setting up conv1b/relu
I0711 20:08:12.715231 25943 net.cpp:155] Top shape: 5 32 320 320 (16384000)
I0711 20:08:12.715232 25943 net.cpp:163] Memory required for data: 450560000
I0711 20:08:12.715234 25943 layer_factory.hpp:77] Creating layer pool1
I0711 20:08:12.715240 25943 net.cpp:98] Creating Layer pool1
I0711 20:08:12.715241 25943 net.cpp:439] pool1 <- conv1b/bn
I0711 20:08:12.715243 25943 net.cpp:413] pool1 -> pool1
I0711 20:08:12.729033 25943 net.cpp:148] Setting up pool1
I0711 20:08:12.729044 25943 net.cpp:155] Top shape: 5 32 160 160 (4096000)
I0711 20:08:12.729046 25943 net.cpp:163] Memory required for data: 466944000
I0711 20:08:12.729049 25943 layer_factory.hpp:77] Creating layer res2a_branch2a
I0711 20:08:12.729054 25943 net.cpp:98] Creating Layer res2a_branch2a
I0711 20:08:12.729058 25943 net.cpp:439] res2a_branch2a <- pool1
I0711 20:08:12.729060 25943 net.cpp:413] res2a_branch2a -> res2a_branch2a
I0711 20:08:12.730670 25943 net.cpp:148] Setting up res2a_branch2a
I0711 20:08:12.730679 25943 net.cpp:155] Top shape: 5 64 160 160 (8192000)
I0711 20:08:12.730681 25943 net.cpp:163] Memory required for data: 499712000
I0711 20:08:12.730686 25943 layer_factory.hpp:77] Creating layer res2a_branch2a/bn
I0711 20:08:12.730691 25943 net.cpp:98] Creating Layer res2a_branch2a/bn
I0711 20:08:12.730695 25943 net.cpp:439] res2a_branch2a/bn <- res2a_branch2a
I0711 20:08:12.730696 25943 net.cpp:413] res2a_branch2a/bn -> res2a_branch2a/bn
I0711 20:08:12.731365 25943 net.cpp:148] Setting up res2a_branch2a/bn
I0711 20:08:12.731371 25943 net.cpp:155] Top shape: 5 64 160 160 (8192000)
I0711 20:08:12.731374 25943 net.cpp:163] Memory required for data: 532480000
I0711 20:08:12.731379 25943 layer_factory.hpp:77] Creating layer res2a_branch2a/relu
I0711 20:08:12.731381 25943 net.cpp:98] Creating Layer res2a_branch2a/relu
I0711 20:08:12.731384 25943 net.cpp:439] res2a_branch2a/relu <- res2a_branch2a/bn
I0711 20:08:12.731385 25943 net.cpp:400] res2a_branch2a/relu -> res2a_branch2a/bn (in-place)
I0711 20:08:12.731389 25943 net.cpp:148] Setting up res2a_branch2a/relu
I0711 20:08:12.731392 25943 net.cpp:155] Top shape: 5 64 160 160 (8192000)
I0711 20:08:12.731393 25943 net.cpp:163] Memory required for data: 565248000
I0711 20:08:12.731395 25943 layer_factory.hpp:77] Creating layer res2a_branch2b
I0711 20:08:12.731400 25943 net.cpp:98] Creating Layer res2a_branch2b
I0711 20:08:12.731401 25943 net.cpp:439] res2a_branch2b <- res2a_branch2a/bn
I0711 20:08:12.731403 25943 net.cpp:413] res2a_branch2b -> res2a_branch2b
I0711 20:08:12.732748 25943 net.cpp:148] Setting up res2a_branch2b
I0711 20:08:12.732756 25943 net.cpp:155] Top shape: 5 64 160 160 (8192000)
I0711 20:08:12.732758 25943 net.cpp:163] Memory required for data: 598016000
I0711 20:08:12.732762 25943 layer_factory.hpp:77] Creating layer res2a_branch2b/bn
I0711 20:08:12.732766 25943 net.cpp:98] Creating Layer res2a_branch2b/bn
I0711 20:08:12.732769 25943 net.cpp:439] res2a_branch2b/bn <- res2a_branch2b
I0711 20:08:12.732771 25943 net.cpp:413] res2a_branch2b/bn -> res2a_branch2b/bn
I0711 20:08:12.733477 25943 net.cpp:148] Setting up res2a_branch2b/bn
I0711 20:08:12.733484 25943 net.cpp:155] Top shape: 5 64 160 160 (8192000)
I0711 20:08:12.733485 25943 net.cpp:163] Memory required for data: 630784000
I0711 20:08:12.733490 25943 layer_factory.hpp:77] Creating layer res2a_branch2b/relu
I0711 20:08:12.733494 25943 net.cpp:98] Creating Layer res2a_branch2b/relu
I0711 20:08:12.733495 25943 net.cpp:439] res2a_branch2b/relu <- res2a_branch2b/bn
I0711 20:08:12.733499 25943 net.cpp:400] res2a_branch2b/relu -> res2a_branch2b/bn (in-place)
I0711 20:08:12.733503 25943 net.cpp:148] Setting up res2a_branch2b/relu
I0711 20:08:12.733506 25943 net.cpp:155] Top shape: 5 64 160 160 (8192000)
I0711 20:08:12.733507 25943 net.cpp:163] Memory required for data: 663552000
I0711 20:08:12.733510 25943 layer_factory.hpp:77] Creating layer pool2
I0711 20:08:12.733513 25943 net.cpp:98] Creating Layer pool2
I0711 20:08:12.733515 25943 net.cpp:439] pool2 <- res2a_branch2b/bn
I0711 20:08:12.733517 25943 net.cpp:413] pool2 -> pool2
I0711 20:08:12.733553 25943 net.cpp:148] Setting up pool2
I0711 20:08:12.733557 25943 net.cpp:155] Top shape: 5 64 80 80 (2048000)
I0711 20:08:12.733559 25943 net.cpp:163] Memory required for data: 671744000
I0711 20:08:12.733561 25943 layer_factory.hpp:77] Creating layer res3a_branch2a
I0711 20:08:12.733566 25943 net.cpp:98] Creating Layer res3a_branch2a
I0711 20:08:12.733568 25943 net.cpp:439] res3a_branch2a <- pool2
I0711 20:08:12.733570 25943 net.cpp:413] res3a_branch2a -> res3a_branch2a
I0711 20:08:12.735291 25943 net.cpp:148] Setting up res3a_branch2a
I0711 20:08:12.735296 25943 net.cpp:155] Top shape: 5 128 80 80 (4096000)
I0711 20:08:12.735298 25943 net.cpp:163] Memory required for data: 688128000
I0711 20:08:12.735302 25943 layer_factory.hpp:77] Creating layer res3a_branch2a/bn
I0711 20:08:12.735306 25943 net.cpp:98] Creating Layer res3a_branch2a/bn
I0711 20:08:12.735307 25943 net.cpp:439] res3a_branch2a/bn <- res3a_branch2a
I0711 20:08:12.735309 25943 net.cpp:413] res3a_branch2a/bn -> res3a_branch2a/bn
I0711 20:08:12.735908 25943 net.cpp:148] Setting up res3a_branch2a/bn
I0711 20:08:12.735914 25943 net.cpp:155] Top shape: 5 128 80 80 (4096000)
I0711 20:08:12.735916 25943 net.cpp:163] Memory required for data: 704512000
I0711 20:08:12.735921 25943 layer_factory.hpp:77] Creating layer res3a_branch2a/relu
I0711 20:08:12.735924 25943 net.cpp:98] Creating Layer res3a_branch2a/relu
I0711 20:08:12.735926 25943 net.cpp:439] res3a_branch2a/relu <- res3a_branch2a/bn
I0711 20:08:12.735929 25943 net.cpp:400] res3a_branch2a/relu -> res3a_branch2a/bn (in-place)
I0711 20:08:12.735931 25943 net.cpp:148] Setting up res3a_branch2a/relu
I0711 20:08:12.735934 25943 net.cpp:155] Top shape: 5 128 80 80 (4096000)
I0711 20:08:12.735935 25943 net.cpp:163] Memory required for data: 720896000
I0711 20:08:12.735937 25943 layer_factory.hpp:77] Creating layer res3a_branch2b
I0711 20:08:12.735941 25943 net.cpp:98] Creating Layer res3a_branch2b
I0711 20:08:12.735944 25943 net.cpp:439] res3a_branch2b <- res3a_branch2a/bn
I0711 20:08:12.735946 25943 net.cpp:413] res3a_branch2b -> res3a_branch2b
I0711 20:08:12.736943 25943 net.cpp:148] Setting up res3a_branch2b
I0711 20:08:12.736948 25943 net.cpp:155] Top shape: 5 128 80 80 (4096000)
I0711 20:08:12.736949 25943 net.cpp:163] Memory required for data: 737280000
I0711 20:08:12.736953 25943 layer_factory.hpp:77] Creating layer res3a_branch2b/bn
I0711 20:08:12.736956 25943 net.cpp:98] Creating Layer res3a_branch2b/bn
I0711 20:08:12.736958 25943 net.cpp:439] res3a_branch2b/bn <- res3a_branch2b
I0711 20:08:12.736961 25943 net.cpp:413] res3a_branch2b/bn -> res3a_branch2b/bn
I0711 20:08:12.737566 25943 net.cpp:148] Setting up res3a_branch2b/bn
I0711 20:08:12.737572 25943 net.cpp:155] Top shape: 5 128 80 80 (4096000)
I0711 20:08:12.737574 25943 net.cpp:163] Memory required for data: 753664000
I0711 20:08:12.737578 25943 layer_factory.hpp:77] Creating layer res3a_branch2b/relu
I0711 20:08:12.737581 25943 net.cpp:98] Creating Layer res3a_branch2b/relu
I0711 20:08:12.737583 25943 net.cpp:439] res3a_branch2b/relu <- res3a_branch2b/bn
I0711 20:08:12.737592 25943 net.cpp:400] res3a_branch2b/relu -> res3a_branch2b/bn (in-place)
I0711 20:08:12.737596 25943 net.cpp:148] Setting up res3a_branch2b/relu
I0711 20:08:12.737598 25943 net.cpp:155] Top shape: 5 128 80 80 (4096000)
I0711 20:08:12.737599 25943 net.cpp:163] Memory required for data: 770048000
I0711 20:08:12.737601 25943 layer_factory.hpp:77] Creating layer res3a_branch2b/bn_res3a_branch2b/relu_0_split
I0711 20:08:12.737604 25943 net.cpp:98] Creating Layer res3a_branch2b/bn_res3a_branch2b/relu_0_split
I0711 20:08:12.737607 25943 net.cpp:439] res3a_branch2b/bn_res3a_branch2b/relu_0_split <- res3a_branch2b/bn
I0711 20:08:12.737608 25943 net.cpp:413] res3a_branch2b/bn_res3a_branch2b/relu_0_split -> res3a_branch2b/bn_res3a_branch2b/relu_0_split_0
I0711 20:08:12.737612 25943 net.cpp:413] res3a_branch2b/bn_res3a_branch2b/relu_0_split -> res3a_branch2b/bn_res3a_branch2b/relu_0_split_1
I0711 20:08:12.737650 25943 net.cpp:148] Setting up res3a_branch2b/bn_res3a_branch2b/relu_0_split
I0711 20:08:12.737658 25943 net.cpp:155] Top shape: 5 128 80 80 (4096000)
I0711 20:08:12.737659 25943 net.cpp:155] Top shape: 5 128 80 80 (4096000)
I0711 20:08:12.737661 25943 net.cpp:163] Memory required for data: 802816000
I0711 20:08:12.737663 25943 layer_factory.hpp:77] Creating layer pool3
I0711 20:08:12.737666 25943 net.cpp:98] Creating Layer pool3
I0711 20:08:12.737668 25943 net.cpp:439] pool3 <- res3a_branch2b/bn_res3a_branch2b/relu_0_split_0
I0711 20:08:12.737670 25943 net.cpp:413] pool3 -> pool3
I0711 20:08:12.737709 25943 net.cpp:148] Setting up pool3
I0711 20:08:12.737713 25943 net.cpp:155] Top shape: 5 128 40 40 (1024000)
I0711 20:08:12.737715 25943 net.cpp:163] Memory required for data: 806912000
I0711 20:08:12.737717 25943 layer_factory.hpp:77] Creating layer res4a_branch2a
I0711 20:08:12.737720 25943 net.cpp:98] Creating Layer res4a_branch2a
I0711 20:08:12.737723 25943 net.cpp:439] res4a_branch2a <- pool3
I0711 20:08:12.737725 25943 net.cpp:413] res4a_branch2a -> res4a_branch2a
I0711 20:08:12.744794 25943 net.cpp:148] Setting up res4a_branch2a
I0711 20:08:12.744804 25943 net.cpp:155] Top shape: 5 256 40 40 (2048000)
I0711 20:08:12.744807 25943 net.cpp:163] Memory required for data: 815104000
I0711 20:08:12.744810 25943 layer_factory.hpp:77] Creating layer res4a_branch2a/bn
I0711 20:08:12.744818 25943 net.cpp:98] Creating Layer res4a_branch2a/bn
I0711 20:08:12.744822 25943 net.cpp:439] res4a_branch2a/bn <- res4a_branch2a
I0711 20:08:12.744824 25943 net.cpp:413] res4a_branch2a/bn -> res4a_branch2a/bn
I0711 20:08:12.745501 25943 net.cpp:148] Setting up res4a_branch2a/bn
I0711 20:08:12.745509 25943 net.cpp:155] Top shape: 5 256 40 40 (2048000)
I0711 20:08:12.745512 25943 net.cpp:163] Memory required for data: 823296000
I0711 20:08:12.745517 25943 layer_factory.hpp:77] Creating layer res4a_branch2a/relu
I0711 20:08:12.745519 25943 net.cpp:98] Creating Layer res4a_branch2a/relu
I0711 20:08:12.745522 25943 net.cpp:439] res4a_branch2a/relu <- res4a_branch2a/bn
I0711 20:08:12.745523 25943 net.cpp:400] res4a_branch2a/relu -> res4a_branch2a/bn (in-place)
I0711 20:08:12.745527 25943 net.cpp:148] Setting up res4a_branch2a/relu
I0711 20:08:12.745529 25943 net.cpp:155] Top shape: 5 256 40 40 (2048000)
I0711 20:08:12.745532 25943 net.cpp:163] Memory required for data: 831488000
I0711 20:08:12.745533 25943 layer_factory.hpp:77] Creating layer res4a_branch2b
I0711 20:08:12.745537 25943 net.cpp:98] Creating Layer res4a_branch2b
I0711 20:08:12.745540 25943 net.cpp:439] res4a_branch2b <- res4a_branch2a/bn
I0711 20:08:12.745543 25943 net.cpp:413] res4a_branch2b -> res4a_branch2b
I0711 20:08:12.748811 25943 net.cpp:148] Setting up res4a_branch2b
I0711 20:08:12.748821 25943 net.cpp:155] Top shape: 5 256 40 40 (2048000)
I0711 20:08:12.748822 25943 net.cpp:163] Memory required for data: 839680000
I0711 20:08:12.748826 25943 layer_factory.hpp:77] Creating layer res4a_branch2b/bn
I0711 20:08:12.748829 25943 net.cpp:98] Creating Layer res4a_branch2b/bn
I0711 20:08:12.748831 25943 net.cpp:439] res4a_branch2b/bn <- res4a_branch2b
I0711 20:08:12.748842 25943 net.cpp:413] res4a_branch2b/bn -> res4a_branch2b/bn
I0711 20:08:12.749518 25943 net.cpp:148] Setting up res4a_branch2b/bn
I0711 20:08:12.749526 25943 net.cpp:155] Top shape: 5 256 40 40 (2048000)
I0711 20:08:12.749527 25943 net.cpp:163] Memory required for data: 847872000
I0711 20:08:12.749532 25943 layer_factory.hpp:77] Creating layer res4a_branch2b/relu
I0711 20:08:12.749536 25943 net.cpp:98] Creating Layer res4a_branch2b/relu
I0711 20:08:12.749537 25943 net.cpp:439] res4a_branch2b/relu <- res4a_branch2b/bn
I0711 20:08:12.749539 25943 net.cpp:400] res4a_branch2b/relu -> res4a_branch2b/bn (in-place)
I0711 20:08:12.749543 25943 net.cpp:148] Setting up res4a_branch2b/relu
I0711 20:08:12.749546 25943 net.cpp:155] Top shape: 5 256 40 40 (2048000)
I0711 20:08:12.749547 25943 net.cpp:163] Memory required for data: 856064000
I0711 20:08:12.749549 25943 layer_factory.hpp:77] Creating layer pool4
I0711 20:08:12.749552 25943 net.cpp:98] Creating Layer pool4
I0711 20:08:12.749554 25943 net.cpp:439] pool4 <- res4a_branch2b/bn
I0711 20:08:12.749557 25943 net.cpp:413] pool4 -> pool4
I0711 20:08:12.749593 25943 net.cpp:148] Setting up pool4
I0711 20:08:12.749598 25943 net.cpp:155] Top shape: 5 256 40 40 (2048000)
I0711 20:08:12.749599 25943 net.cpp:163] Memory required for data: 864256000
I0711 20:08:12.749601 25943 layer_factory.hpp:77] Creating layer res5a_branch2a
I0711 20:08:12.749605 25943 net.cpp:98] Creating Layer res5a_branch2a
I0711 20:08:12.749608 25943 net.cpp:439] res5a_branch2a <- pool4
I0711 20:08:12.749613 25943 net.cpp:413] res5a_branch2a -> res5a_branch2a
I0711 20:08:12.780974 25943 net.cpp:148] Setting up res5a_branch2a
I0711 20:08:12.780992 25943 net.cpp:155] Top shape: 5 512 40 40 (4096000)
I0711 20:08:12.780994 25943 net.cpp:163] Memory required for data: 880640000
I0711 20:08:12.781000 25943 layer_factory.hpp:77] Creating layer res5a_branch2a/bn
I0711 20:08:12.781010 25943 net.cpp:98] Creating Layer res5a_branch2a/bn
I0711 20:08:12.781013 25943 net.cpp:439] res5a_branch2a/bn <- res5a_branch2a
I0711 20:08:12.781018 25943 net.cpp:413] res5a_branch2a/bn -> res5a_branch2a/bn
I0711 20:08:12.781738 25943 net.cpp:148] Setting up res5a_branch2a/bn
I0711 20:08:12.781745 25943 net.cpp:155] Top shape: 5 512 40 40 (4096000)
I0711 20:08:12.781747 25943 net.cpp:163] Memory required for data: 897024000
I0711 20:08:12.781752 25943 layer_factory.hpp:77] Creating layer res5a_branch2a/relu
I0711 20:08:12.781756 25943 net.cpp:98] Creating Layer res5a_branch2a/relu
I0711 20:08:12.781759 25943 net.cpp:439] res5a_branch2a/relu <- res5a_branch2a/bn
I0711 20:08:12.781761 25943 net.cpp:400] res5a_branch2a/relu -> res5a_branch2a/bn (in-place)
I0711 20:08:12.781765 25943 net.cpp:148] Setting up res5a_branch2a/relu
I0711 20:08:12.781767 25943 net.cpp:155] Top shape: 5 512 40 40 (4096000)
I0711 20:08:12.781769 25943 net.cpp:163] Memory required for data: 913408000
I0711 20:08:12.781771 25943 layer_factory.hpp:77] Creating layer res5a_branch2b
I0711 20:08:12.781776 25943 net.cpp:98] Creating Layer res5a_branch2b
I0711 20:08:12.781777 25943 net.cpp:439] res5a_branch2b <- res5a_branch2a/bn
I0711 20:08:12.781780 25943 net.cpp:413] res5a_branch2b -> res5a_branch2b
I0711 20:08:12.799232 25943 net.cpp:148] Setting up res5a_branch2b
I0711 20:08:12.799249 25943 net.cpp:155] Top shape: 5 512 40 40 (4096000)
I0711 20:08:12.799252 25943 net.cpp:163] Memory required for data: 929792000
I0711 20:08:12.799260 25943 layer_factory.hpp:77] Creating layer res5a_branch2b/bn
I0711 20:08:12.799268 25943 net.cpp:98] Creating Layer res5a_branch2b/bn
I0711 20:08:12.799270 25943 net.cpp:439] res5a_branch2b/bn <- res5a_branch2b
I0711 20:08:12.799273 25943 net.cpp:413] res5a_branch2b/bn -> res5a_branch2b/bn
I0711 20:08:12.799937 25943 net.cpp:148] Setting up res5a_branch2b/bn
I0711 20:08:12.799942 25943 net.cpp:155] Top shape: 5 512 40 40 (4096000)
I0711 20:08:12.799944 25943 net.cpp:163] Memory required for data: 946176000
I0711 20:08:12.799949 25943 layer_factory.hpp:77] Creating layer res5a_branch2b/relu
I0711 20:08:12.799962 25943 net.cpp:98] Creating Layer res5a_branch2b/relu
I0711 20:08:12.799965 25943 net.cpp:439] res5a_branch2b/relu <- res5a_branch2b/bn
I0711 20:08:12.799968 25943 net.cpp:400] res5a_branch2b/relu -> res5a_branch2b/bn (in-place)
I0711 20:08:12.799973 25943 net.cpp:148] Setting up res5a_branch2b/relu
I0711 20:08:12.799974 25943 net.cpp:155] Top shape: 5 512 40 40 (4096000)
I0711 20:08:12.799976 25943 net.cpp:163] Memory required for data: 962560000
I0711 20:08:12.799978 25943 layer_factory.hpp:77] Creating layer out5a
I0711 20:08:12.799983 25943 net.cpp:98] Creating Layer out5a
I0711 20:08:12.799985 25943 net.cpp:439] out5a <- res5a_branch2b/bn
I0711 20:08:12.799991 25943 net.cpp:413] out5a -> out5a
I0711 20:08:12.804133 25943 net.cpp:148] Setting up out5a
I0711 20:08:12.804142 25943 net.cpp:155] Top shape: 5 64 40 40 (512000)
I0711 20:08:12.804145 25943 net.cpp:163] Memory required for data: 964608000
I0711 20:08:12.804148 25943 layer_factory.hpp:77] Creating layer out5a/bn
I0711 20:08:12.804152 25943 net.cpp:98] Creating Layer out5a/bn
I0711 20:08:12.804154 25943 net.cpp:439] out5a/bn <- out5a
I0711 20:08:12.804157 25943 net.cpp:413] out5a/bn -> out5a/bn
I0711 20:08:12.804870 25943 net.cpp:148] Setting up out5a/bn
I0711 20:08:12.804877 25943 net.cpp:155] Top shape: 5 64 40 40 (512000)
I0711 20:08:12.804879 25943 net.cpp:163] Memory required for data: 966656000
I0711 20:08:12.804884 25943 layer_factory.hpp:77] Creating layer out5a/relu
I0711 20:08:12.804888 25943 net.cpp:98] Creating Layer out5a/relu
I0711 20:08:12.804889 25943 net.cpp:439] out5a/relu <- out5a/bn
I0711 20:08:12.804891 25943 net.cpp:400] out5a/relu -> out5a/bn (in-place)
I0711 20:08:12.804895 25943 net.cpp:148] Setting up out5a/relu
I0711 20:08:12.804898 25943 net.cpp:155] Top shape: 5 64 40 40 (512000)
I0711 20:08:12.804899 25943 net.cpp:163] Memory required for data: 968704000
I0711 20:08:12.804901 25943 layer_factory.hpp:77] Creating layer out5a_up2
I0711 20:08:12.804909 25943 net.cpp:98] Creating Layer out5a_up2
I0711 20:08:12.804913 25943 net.cpp:439] out5a_up2 <- out5a/bn
I0711 20:08:12.804915 25943 net.cpp:413] out5a_up2 -> out5a_up2
I0711 20:08:12.805163 25943 net.cpp:148] Setting up out5a_up2
I0711 20:08:12.805168 25943 net.cpp:155] Top shape: 5 64 80 80 (2048000)
I0711 20:08:12.805169 25943 net.cpp:163] Memory required for data: 976896000
I0711 20:08:12.805172 25943 layer_factory.hpp:77] Creating layer out3a
I0711 20:08:12.805176 25943 net.cpp:98] Creating Layer out3a
I0711 20:08:12.805178 25943 net.cpp:439] out3a <- res3a_branch2b/bn_res3a_branch2b/relu_0_split_1
I0711 20:08:12.805181 25943 net.cpp:413] out3a -> out3a
I0711 20:08:12.806435 25943 net.cpp:148] Setting up out3a
I0711 20:08:12.806447 25943 net.cpp:155] Top shape: 5 64 80 80 (2048000)
I0711 20:08:12.806450 25943 net.cpp:163] Memory required for data: 985088000
I0711 20:08:12.806455 25943 layer_factory.hpp:77] Creating layer out3a/bn
I0711 20:08:12.806464 25943 net.cpp:98] Creating Layer out3a/bn
I0711 20:08:12.806468 25943 net.cpp:439] out3a/bn <- out3a
I0711 20:08:12.806473 25943 net.cpp:413] out3a/bn -> out3a/bn
I0711 20:08:12.807474 25943 net.cpp:148] Setting up out3a/bn
I0711 20:08:12.807482 25943 net.cpp:155] Top shape: 5 64 80 80 (2048000)
I0711 20:08:12.807485 25943 net.cpp:163] Memory required for data: 993280000
I0711 20:08:12.807492 25943 layer_factory.hpp:77] Creating layer out3a/relu
I0711 20:08:12.807497 25943 net.cpp:98] Creating Layer out3a/relu
I0711 20:08:12.807500 25943 net.cpp:439] out3a/relu <- out3a/bn
I0711 20:08:12.807503 25943 net.cpp:400] out3a/relu -> out3a/bn (in-place)
I0711 20:08:12.807509 25943 net.cpp:148] Setting up out3a/relu
I0711 20:08:12.807512 25943 net.cpp:155] Top shape: 5 64 80 80 (2048000)
I0711 20:08:12.807516 25943 net.cpp:163] Memory required for data: 1001472000
I0711 20:08:12.807520 25943 layer_factory.hpp:77] Creating layer out3_out5_combined
I0711 20:08:12.807525 25943 net.cpp:98] Creating Layer out3_out5_combined
I0711 20:08:12.807529 25943 net.cpp:439] out3_out5_combined <- out5a_up2
I0711 20:08:12.807533 25943 net.cpp:439] out3_out5_combined <- out3a/bn
I0711 20:08:12.807549 25943 net.cpp:413] out3_out5_combined -> out3_out5_combined
I0711 20:08:12.807585 25943 net.cpp:148] Setting up out3_out5_combined
I0711 20:08:12.807590 25943 net.cpp:155] Top shape: 5 64 80 80 (2048000)
I0711 20:08:12.807592 25943 net.cpp:163] Memory required for data: 1009664000
I0711 20:08:12.807596 25943 layer_factory.hpp:77] Creating layer ctx_conv1
I0711 20:08:12.807601 25943 net.cpp:98] Creating Layer ctx_conv1
I0711 20:08:12.807605 25943 net.cpp:439] ctx_conv1 <- out3_out5_combined
I0711 20:08:12.807610 25943 net.cpp:413] ctx_conv1 -> ctx_conv1
I0711 20:08:12.809015 25943 net.cpp:148] Setting up ctx_conv1
I0711 20:08:12.809025 25943 net.cpp:155] Top shape: 5 64 80 80 (2048000)
I0711 20:08:12.809027 25943 net.cpp:163] Memory required for data: 1017856000
I0711 20:08:12.809032 25943 layer_factory.hpp:77] Creating layer ctx_conv1/bn
I0711 20:08:12.809037 25943 net.cpp:98] Creating Layer ctx_conv1/bn
I0711 20:08:12.809041 25943 net.cpp:439] ctx_conv1/bn <- ctx_conv1
I0711 20:08:12.809044 25943 net.cpp:413] ctx_conv1/bn -> ctx_conv1/bn
I0711 20:08:12.810044 25943 net.cpp:148] Setting up ctx_conv1/bn
I0711 20:08:12.810051 25943 net.cpp:155] Top shape: 5 64 80 80 (2048000)
I0711 20:08:12.810055 25943 net.cpp:163] Memory required for data: 1026048000
I0711 20:08:12.810061 25943 layer_factory.hpp:77] Creating layer ctx_conv1/relu
I0711 20:08:12.810065 25943 net.cpp:98] Creating Layer ctx_conv1/relu
I0711 20:08:12.810070 25943 net.cpp:439] ctx_conv1/relu <- ctx_conv1/bn
I0711 20:08:12.810072 25943 net.cpp:400] ctx_conv1/relu -> ctx_conv1/bn (in-place)
I0711 20:08:12.810077 25943 net.cpp:148] Setting up ctx_conv1/relu
I0711 20:08:12.810081 25943 net.cpp:155] Top shape: 5 64 80 80 (2048000)
I0711 20:08:12.810083 25943 net.cpp:163] Memory required for data: 1034240000
I0711 20:08:12.810087 25943 layer_factory.hpp:77] Creating layer ctx_conv2
I0711 20:08:12.810096 25943 net.cpp:98] Creating Layer ctx_conv2
I0711 20:08:12.810098 25943 net.cpp:439] ctx_conv2 <- ctx_conv1/bn
I0711 20:08:12.810102 25943 net.cpp:413] ctx_conv2 -> ctx_conv2
I0711 20:08:12.811172 25943 net.cpp:148] Setting up ctx_conv2
I0711 20:08:12.811179 25943 net.cpp:155] Top shape: 5 64 80 80 (2048000)
I0711 20:08:12.811182 25943 net.cpp:163] Memory required for data: 1042432000
I0711 20:08:12.811184 25943 layer_factory.hpp:77] Creating layer ctx_conv2/bn
I0711 20:08:12.811188 25943 net.cpp:98] Creating Layer ctx_conv2/bn
I0711 20:08:12.811190 25943 net.cpp:439] ctx_conv2/bn <- ctx_conv2
I0711 20:08:12.811192 25943 net.cpp:413] ctx_conv2/bn -> ctx_conv2/bn
I0711 20:08:12.811923 25943 net.cpp:148] Setting up ctx_conv2/bn
I0711 20:08:12.811930 25943 net.cpp:155] Top shape: 5 64 80 80 (2048000)
I0711 20:08:12.811933 25943 net.cpp:163] Memory required for data: 1050624000
I0711 20:08:12.811938 25943 layer_factory.hpp:77] Creating layer ctx_conv2/relu
I0711 20:08:12.811941 25943 net.cpp:98] Creating Layer ctx_conv2/relu
I0711 20:08:12.811944 25943 net.cpp:439] ctx_conv2/relu <- ctx_conv2/bn
I0711 20:08:12.811946 25943 net.cpp:400] ctx_conv2/relu -> ctx_conv2/bn (in-place)
I0711 20:08:12.811949 25943 net.cpp:148] Setting up ctx_conv2/relu
I0711 20:08:12.811952 25943 net.cpp:155] Top shape: 5 64 80 80 (2048000)
I0711 20:08:12.811954 25943 net.cpp:163] Memory required for data: 1058816000
I0711 20:08:12.811955 25943 layer_factory.hpp:77] Creating layer ctx_conv3
I0711 20:08:12.811959 25943 net.cpp:98] Creating Layer ctx_conv3
I0711 20:08:12.811961 25943 net.cpp:439] ctx_conv3 <- ctx_conv2/bn
I0711 20:08:12.811964 25943 net.cpp:413] ctx_conv3 -> ctx_conv3
I0711 20:08:12.813072 25943 net.cpp:148] Setting up ctx_conv3
I0711 20:08:12.813079 25943 net.cpp:155] Top shape: 5 64 80 80 (2048000)
I0711 20:08:12.813081 25943 net.cpp:163] Memory required for data: 1067008000
I0711 20:08:12.813084 25943 layer_factory.hpp:77] Creating layer ctx_conv3/bn
I0711 20:08:12.813087 25943 net.cpp:98] Creating Layer ctx_conv3/bn
I0711 20:08:12.813091 25943 net.cpp:439] ctx_conv3/bn <- ctx_conv3
I0711 20:08:12.813092 25943 net.cpp:413] ctx_conv3/bn -> ctx_conv3/bn
I0711 20:08:12.813861 25943 net.cpp:148] Setting up ctx_conv3/bn
I0711 20:08:12.813869 25943 net.cpp:155] Top shape: 5 64 80 80 (2048000)
I0711 20:08:12.813871 25943 net.cpp:163] Memory required for data: 1075200000
I0711 20:08:12.813876 25943 layer_factory.hpp:77] Creating layer ctx_conv3/relu
I0711 20:08:12.813879 25943 net.cpp:98] Creating Layer ctx_conv3/relu
I0711 20:08:12.813881 25943 net.cpp:439] ctx_conv3/relu <- ctx_conv3/bn
I0711 20:08:12.813884 25943 net.cpp:400] ctx_conv3/relu -> ctx_conv3/bn (in-place)
I0711 20:08:12.813887 25943 net.cpp:148] Setting up ctx_conv3/relu
I0711 20:08:12.813890 25943 net.cpp:155] Top shape: 5 64 80 80 (2048000)
I0711 20:08:12.813891 25943 net.cpp:163] Memory required for data: 1083392000
I0711 20:08:12.813894 25943 layer_factory.hpp:77] Creating layer ctx_conv4
I0711 20:08:12.813897 25943 net.cpp:98] Creating Layer ctx_conv4
I0711 20:08:12.813899 25943 net.cpp:439] ctx_conv4 <- ctx_conv3/bn
I0711 20:08:12.813901 25943 net.cpp:413] ctx_conv4 -> ctx_conv4
I0711 20:08:12.815003 25943 net.cpp:148] Setting up ctx_conv4
I0711 20:08:12.815011 25943 net.cpp:155] Top shape: 5 64 80 80 (2048000)
I0711 20:08:12.815012 25943 net.cpp:163] Memory required for data: 1091584000
I0711 20:08:12.815016 25943 layer_factory.hpp:77] Creating layer ctx_conv4/bn
I0711 20:08:12.815019 25943 net.cpp:98] Creating Layer ctx_conv4/bn
I0711 20:08:12.815021 25943 net.cpp:439] ctx_conv4/bn <- ctx_conv4
I0711 20:08:12.815023 25943 net.cpp:413] ctx_conv4/bn -> ctx_conv4/bn
I0711 20:08:12.815778 25943 net.cpp:148] Setting up ctx_conv4/bn
I0711 20:08:12.815784 25943 net.cpp:155] Top shape: 5 64 80 80 (2048000)
I0711 20:08:12.815786 25943 net.cpp:163] Memory required for data: 1099776000
I0711 20:08:12.815791 25943 layer_factory.hpp:77] Creating layer ctx_conv4/relu
I0711 20:08:12.815794 25943 net.cpp:98] Creating Layer ctx_conv4/relu
I0711 20:08:12.815796 25943 net.cpp:439] ctx_conv4/relu <- ctx_conv4/bn
I0711 20:08:12.815798 25943 net.cpp:400] ctx_conv4/relu -> ctx_conv4/bn (in-place)
I0711 20:08:12.815801 25943 net.cpp:148] Setting up ctx_conv4/relu
I0711 20:08:12.815804 25943 net.cpp:155] Top shape: 5 64 80 80 (2048000)
I0711 20:08:12.815805 25943 net.cpp:163] Memory required for data: 1107968000
I0711 20:08:12.815807 25943 layer_factory.hpp:77] Creating layer ctx_final
I0711 20:08:12.815811 25943 net.cpp:98] Creating Layer ctx_final
I0711 20:08:12.815814 25943 net.cpp:439] ctx_final <- ctx_conv4/bn
I0711 20:08:12.815815 25943 net.cpp:413] ctx_final -> ctx_final
I0711 20:08:12.816287 25943 net.cpp:148] Setting up ctx_final
I0711 20:08:12.816293 25943 net.cpp:155] Top shape: 5 8 80 80 (256000)
I0711 20:08:12.816295 25943 net.cpp:163] Memory required for data: 1108992000
I0711 20:08:12.816299 25943 layer_factory.hpp:77] Creating layer ctx_final/relu
I0711 20:08:12.816301 25943 net.cpp:98] Creating Layer ctx_final/relu
I0711 20:08:12.816303 25943 net.cpp:439] ctx_final/relu <- ctx_final
I0711 20:08:12.816306 25943 net.cpp:400] ctx_final/relu -> ctx_final (in-place)
I0711 20:08:12.816309 25943 net.cpp:148] Setting up ctx_final/relu
I0711 20:08:12.816313 25943 net.cpp:155] Top shape: 5 8 80 80 (256000)
I0711 20:08:12.816313 25943 net.cpp:163] Memory required for data: 1110016000
I0711 20:08:12.816315 25943 layer_factory.hpp:77] Creating layer out_deconv_final_up2
I0711 20:08:12.816319 25943 net.cpp:98] Creating Layer out_deconv_final_up2
I0711 20:08:12.816321 25943 net.cpp:439] out_deconv_final_up2 <- ctx_final
I0711 20:08:12.816323 25943 net.cpp:413] out_deconv_final_up2 -> out_deconv_final_up2
I0711 20:08:12.816617 25943 net.cpp:148] Setting up out_deconv_final_up2
I0711 20:08:12.816625 25943 net.cpp:155] Top shape: 5 8 160 160 (1024000)
I0711 20:08:12.816628 25943 net.cpp:163] Memory required for data: 1114112000
I0711 20:08:12.816633 25943 layer_factory.hpp:77] Creating layer out_deconv_final_up4
I0711 20:08:12.816638 25943 net.cpp:98] Creating Layer out_deconv_final_up4
I0711 20:08:12.816642 25943 net.cpp:439] out_deconv_final_up4 <- out_deconv_final_up2
I0711 20:08:12.816646 25943 net.cpp:413] out_deconv_final_up4 -> out_deconv_final_up4
I0711 20:08:12.816958 25943 net.cpp:148] Setting up out_deconv_final_up4
I0711 20:08:12.816964 25943 net.cpp:155] Top shape: 5 8 320 320 (4096000)
I0711 20:08:12.816967 25943 net.cpp:163] Memory required for data: 1130496000
I0711 20:08:12.816969 25943 layer_factory.hpp:77] Creating layer out_deconv_final_up8
I0711 20:08:12.816972 25943 net.cpp:98] Creating Layer out_deconv_final_up8
I0711 20:08:12.816974 25943 net.cpp:439] out_deconv_final_up8 <- out_deconv_final_up4
I0711 20:08:12.816977 25943 net.cpp:413] out_deconv_final_up8 -> out_deconv_final_up8
I0711 20:08:12.817252 25943 net.cpp:148] Setting up out_deconv_final_up8
I0711 20:08:12.817258 25943 net.cpp:155] Top shape: 5 8 640 640 (16384000)
I0711 20:08:12.817260 25943 net.cpp:163] Memory required for data: 1196032000
I0711 20:08:12.817263 25943 layer_factory.hpp:77] Creating layer loss
I0711 20:08:12.817270 25943 net.cpp:98] Creating Layer loss
I0711 20:08:12.817272 25943 net.cpp:439] loss <- out_deconv_final_up8
I0711 20:08:12.817275 25943 net.cpp:439] loss <- label
I0711 20:08:12.817278 25943 net.cpp:413] loss -> loss
…
I0711 20:08:12.839880 25943 solver.cpp:182] Creating test net (#0) specified by test_net file: training/cityscapes5_jsegnet21v2_2017-07-11_18-09-28/l1reg/test.prototxt
I0711 20:08:12.840175 25943 net.cpp:56] Initializing net from parameters: 
name: "jsegnet21v2_test"
state {
  phase: TEST
}
layer {
  name: "data"
  type: "ImageLabelData"
  top: "data"
  top: "label"
  transform_param {
    mirror: false
    crop_size: 640
    mean_value: 0
  }
  image_label_data_param {
    image_list_path: "data/val-image-lmdb"
    label_list_path: "data/val-label-lmdb"
    batch_size: 4
    threads: 4
    backend: LMDB
  }
}
layer {
  name: "data/bias"
  type: "Bias"
  bottom: "data"
  top: "data/bias"
  param {
    lr_mult: 0
    decay_mult: 0
  }
  bias_param {
    filler {
      type: "constant"
      value: -128
    }
  }
}
layer {
  name: "conv1a"
  type: "Convolution"
  bottom: "data/bias"
  top: "conv1a"
  param {
    lr_mult: 1
    decay_mult: 1
  }
  param {
    lr_mult: 2
    decay_mult: 0
  }
  convolution_param {
    num_output: 32
    bias_term: true
    pad: 2
    kernel_size: 5
    group: 1
    stride: 2
    weight_filler {
      type: "msra"
    }
    bias_filler {
      type: "constant"
      value: 0
    }
    dilation: 1
  }
}
layer {
  name: "conv1a/bn"
  type: "BatchNorm"
  bottom: "conv1a"
  top: "conv1a/bn"
  param {
    lr_mult: 1
    decay_mult: 1
  }
  param {
    lr_mult: 1
    decay_mult: 1
  }
  param {
    lr_mult: 0
    decay_mult: 0
  }
  param {
    lr_mult: 0
    decay_mult: 0
  }
  batch_norm_param {
    moving_average_fraction: 0.99
    eps: 0.0001
    scale_filler {
      type: "constant"
      value: 1
    }
    bias_filler {
      type: "constant"
      value: 0
    }
  }
}
layer {
  name: "conv1a/relu"
  type: "ReLU"
  bottom: "conv1a/bn"
  top: "conv1a/bn"
}
layer {
  name: "conv1b"
  type: "Convolution"
  bottom: "conv1a/bn"
  top: "conv1b"
  param {
    lr_mult: 1
    decay_mult: 1
  }
  param {
    lr_mult: 2
    decay_mult: 0
  }
  convolution_param {
    num_output: 32
    bias_term: true
    pad: 1
    kernel_size: 3
    group: 4
    stride: 1
    weight_filler {
      type: "msra"
    }
    bias_filler {
      type: "constant"
      value: 0
    }
    dilation: 1
  }
}
layer {
  name: "conv1b/bn"
  type: "BatchNorm"
  bottom: "conv1b"
  top: "conv1b/bn"
  param {
    lr_mult: 1
    decay_mult: 1
  }
  param {
    lr_mult: 1
    decay_mult: 1
  }
  param {
    lr_mult: 0
    decay_mult: 0
  }
  param {
    lr_mult: 0
    decay_mult: 0
  }
  batch_norm_param {
    moving_average_fraction: 0.99
    eps: 0.0001
    scale_filler {
      type: "constant"
      value: 1
    }
    bias_filler {
      type: "constant"
      value: 0
    }
  }
}
layer {
  name: "conv1b/relu"
  type: "ReLU"
  bottom: "conv1b/bn"
  top: "conv1b/bn"
}
layer {
  name: "pool1"
  type: "Pooling"
  bottom: "conv1b/bn"
  top: "pool1"
  pooling_param {
    pool: MAX
    kernel_size: 2
    stride: 2
  }
}
layer {
  name: "res2a_branch2a"
  type: "Convolution"
  bottom: "pool1"
  top: "res2a_branch2a"
  param {
    lr_mult: 1
    decay_mult: 1
  }
  param {
    lr_mult: 2
    decay_mult: 0
  }
  convolution_param {
    num_output: 64
    bias_term: true
    pad: 1
    kernel_size: 3
    group: 1
    stride: 1
    weight_filler {
      type: "msra"
    }
    bias_filler {
      type: "constant"
      value: 0
    }
    dilation: 1
  }
}
layer {
  name: "res2a_branch2a/bn"
  type: "BatchNorm"
  bottom: "res2a_branch2a"
  top: "res2a_branch2a/bn"
  param {
    lr_mult: 1
    decay_mult: 1
  }
  param {
    lr_mult: 1
    decay_mult: 1
  }
  param {
    lr_mult: 0
    decay_mult: 0
  }
  param {
    lr_mult: 0
    decay_mult: 0
  }
  batch_norm_param {
    moving_average_fraction: 0.99
    eps: 0.0001
    scale_filler {
      type: "constant"
      value: 1
    }
    bias_filler {
      type: "constant"
      value: 0
    }
  }
}
layer {
  name: "res2a_branch2a/relu"
  type: "ReLU"
  bottom: "res2a_branch2a/bn"
  top: "res2a_branch2a/bn"
}
layer {
  name: "res2a_branch2b"
  type: "Convolution"
  bottom: "res2a_branch2a/bn"
  top: "res2a_branch2b"
  param {
    lr_mult: 1
    decay_mult: 1
  }
  param {
    lr_mult: 2
    decay_mult: 0
  }
  convolution_param {
    num_output: 64
    bias_term: true
    pad: 1
    kernel_size: 3
    group: 4
    stride: 1
    weight_filler {
      type: "msra"
    }
    bias_filler {
      type: "constant"
      value: 0
    }
    dilation: 1
  }
}
layer {
  name: "res2a_branch2b/bn"
  type: "BatchNorm"
  bottom: "res2a_branch2b"
  top: "res2a_branch2b/bn"
  param {
    lr_mult: 1
    decay_mult: 1
  }
  param {
    lr_mult: 1
    decay_mult: 1
  }
  param {
    lr_mult: 0
    decay_mult: 0
  }
  param {
    lr_mult: 0
    decay_mult: 0
  }
  batch_norm_param {
    moving_average_fraction: 0.99
    eps: 0.0001
    scale_filler {
      type: "constant"
      value: 1
    }
    bias_filler {
      type: "constant"
      value: 0
    }
  }
}
layer {
  name: "res2a_branch2b/relu"
  type: "ReLU"
  bottom: "res2a_branch2b/bn"
  top: "res2a_branch2b/bn"
}
layer {
  name: "pool2"
  type: "Pooling"
  bottom: "res2a_branch2b/bn"
  top: "pool2"
  pooling_param {
    pool: MAX
    kernel_size: 2
    stride: 2
  }
}
layer {
  name: "res3a_branch2a"
  type: "Convolution"
  bottom: "pool2"
  top: "res3a_branch2a"
  param {
    lr_mult: 1
    decay_mult: 1
  }
  param {
    lr_mult: 2
    decay_mult: 0
  }
  convolution_param {
    num_output: 128
    bias_term: true
    pad: 1
    kernel_size: 3
    group: 1
    stride: 1
    weight_filler {
      type: "msra"
    }
    bias_filler {
      type: "constant"
      value: 0
    }
    dilation: 1
  }
}
layer {
  name: "res3a_branch2a/bn"
  type: "BatchNorm"
  bottom: "res3a_branch2a"
  top: "res3a_branch2a/bn"
  param {
    lr_mult: 1
    decay_mult: 1
  }
  param {
    lr_mult: 1
    decay_mult: 1
  }
  param {
    lr_mult: 0
    decay_mult: 0
  }
  param {
    lr_mult: 0
    decay_mult: 0
  }
  batch_norm_param {
    moving_average_fraction: 0.99
    eps: 0.0001
    scale_filler {
      type: "constant"
      value: 1
    }
    bias_filler {
      type: "constant"
      value: 0
    }
  }
}
layer {
  name: "res3a_branch2a/relu"
  type: "ReLU"
  bottom: "res3a_branch2a/bn"
  top: "res3a_branch2a/bn"
}
layer {
  name: "res3a_branch2b"
  type: "Convolution"
  bottom: "res3a_branch2a/bn"
  top: "res3a_branch2b"
  param {
    lr_mult: 1
    decay_mult: 1
  }
  param {
    lr_mult: 2
    decay_mult: 0
  }
  convolution_param {
    num_output: 128
    bias_term: true
    pad: 1
    kernel_size: 3
    group: 4
    stride: 1
    weight_filler {
      type: "msra"
    }
    bias_filler {
      type: "constant"
      value: 0
    }
    dilation: 1
  }
}
layer {
  name: "res3a_branch2b/bn"
  type: "BatchNorm"
  bottom: "res3a_branch2b"
  top: "res3a_branch2b/bn"
  param {
    lr_mult: 1
    decay_mult: 1
  }
  param {
    lr_mult: 1
    decay_mult: 1
  }
  param {
    lr_mult: 0
    decay_mult: 0
  }
  param {
    lr_mult: 0
    decay_mult: 0
  }
  batch_norm_param {
    moving_average_fraction: 0.99
    eps: 0.0001
    scale_filler {
      type: "constant"
      value: 1
    }
    bias_filler {
      type: "constant"
      value: 0
    }
  }
}
layer {
  name: "res3a_branch2b/relu"
  type: "ReLU"
  bottom: "res3a_branch2b/bn"
  top: "res3a_branch2b/bn"
}
layer {
  name: "pool3"
  type: "Pooling"
  bottom: "res3a_branch2b/bn"
  top: "pool3"
  pooling_param {
    pool: MAX
    kernel_size: 2
    stride: 2
  }
}
layer {
  name: "res4a_branch2a"
  type: "Convolution"
  bottom: "pool3"
  top: "res4a_branch2a"
  param {
    lr_mult: 1
    decay_mult: 1
  }
  param {
    lr_mult: 2
    decay_mult: 0
  }
  convolution_param {
    num_output: 256
    bias_term: true
    pad: 1
    kernel_size: 3
    group: 1
    stride: 1
    weight_filler {
      type: "msra"
    }
    bias_filler {
      type: "constant"
      value: 0
    }
    dilation: 1
  }
}
layer {
  name: "res4a_branch2a/bn"
  type: "BatchNorm"
  bottom: "res4a_branch2a"
  top: "res4a_branch2a/bn"
  param {
    lr_mult: 1
    decay_mult: 1
  }
  param {
    lr_mult: 1
    decay_mult: 1
  }
  param {
    lr_mult: 0
    decay_mult: 0
  }
  param {
    lr_mult: 0
    decay_mult: 0
  }
  batch_norm_param {
    moving_average_fraction: 0.99
    eps: 0.0001
    scale_filler {
      type: "constant"
      value: 1
    }
    bias_filler {
      type: "constant"
      value: 0
    }
  }
}
layer {
  name: "res4a_branch2a/relu"
  type: "ReLU"
  bottom: "res4a_branch2a/bn"
  top: "res4a_branch2a/bn"
}
layer {
  name: "res4a_branch2b"
  type: "Convolution"
  bottom: "res4a_branch2a/bn"
  top: "res4a_branch2b"
  param {
    lr_mult: 1
    decay_mult: 1
  }
  param {
    lr_mult: 2
    decay_mult: 0
  }
  convolution_param {
    num_output: 256
    bias_term: true
    pad: 1
    kernel_size: 3
    group: 4
    stride: 1
    weight_filler {
      type: "msra"
    }
    bias_filler {
      type: "constant"
      value: 0
    }
    dilation: 1
  }
}
layer {
  name: "res4a_branch2b/bn"
  type: "BatchNorm"
  bottom: "res4a_branch2b"
  top: "res4a_branch2b/bn"
  param {
    lr_mult: 1
    decay_mult: 1
  }
  param {
    lr_mult: 1
    decay_mult: 1
  }
  param {
    lr_mult: 0
    decay_mult: 0
  }
  param {
    lr_mult: 0
    decay_mult: 0
  }
  batch_norm_param {
    moving_average_fraction: 0.99
    eps: 0.0001
    scale_filler {
      type: "constant"
      value: 1
    }
    bias_filler {
      type: "constant"
      value: 0
    }
  }
}
layer {
  name: "res4a_branch2b/relu"
  type: "ReLU"
  bottom: "res4a_branch2b/bn"
  top: "res4a_branch2b/bn"
}
layer {
  name: "pool4"
  type: "Pooling"
  bottom: "res4a_branch2b/bn"
  top: "pool4"
  pooling_param {
    pool: MAX
    kernel_size: 1
    stride: 1
  }
}
layer {
  name: "res5a_branch2a"
  type: "Convolution"
  bottom: "pool4"
  top: "res5a_branch2a"
  param {
    lr_mult: 1
    decay_mult: 1
  }
  param {
    lr_mult: 2
    decay_mult: 0
  }
  convolution_param {
    num_output: 512
    bias_term: true
    pad: 2
    kernel_size: 3
    group: 1
    stride: 1
    weight_filler {
      type: "msra"
    }
    bias_filler {
      type: "constant"
      value: 0
    }
    dilation: 2
  }
}
layer {
  name: "res5a_branch2a/bn"
  type: "BatchNorm"
  bottom: "res5a_branch2a"
  top: "res5a_branch2a/bn"
  param {
    lr_mult: 1
    decay_mult: 1
  }
  param {
    lr_mult: 1
    decay_mult: 1
  }
  param {
    lr_mult: 0
    decay_mult: 0
  }
  param {
    lr_mult: 0
    decay_mult: 0
  }
  batch_norm_param {
    moving_average_fraction: 0.99
    eps: 0.0001
    scale_filler {
      type: "constant"
      value: 1
    }
    bias_filler {
      type: "constant"
      value: 0
    }
  }
}
layer {
  name: "res5a_branch2a/relu"
  type: "ReLU"
  bottom: "res5a_branch2a/bn"
  top: "res5a_branch2a/bn"
}
layer {
  name: "res5a_branch2b"
  type: "Convolution"
  bottom: "res5a_branch2a/bn"
  top: "res5a_branch2b"
  param {
    lr_mult: 1
    decay_mult: 1
  }
  param {
    lr_mult: 2
    decay_mult: 0
  }
  convolution_param {
    num_output: 512
    bias_term: true
    pad: 2
    kernel_size: 3
    group: 4
    stride: 1
    weight_filler {
      type: "msra"
    }
    bias_filler {
      type: "constant"
      value: 0
    }
    dilation: 2
  }
}
layer {
  name: "res5a_branch2b/bn"
  type: "BatchNorm"
  bottom: "res5a_branch2b"
  top: "res5a_branch2b/bn"
  param {
    lr_mult: 1
    decay_mult: 1
  }
  param {
    lr_mult: 1
    decay_mult: 1
  }
  param {
    lr_mult: 0
    decay_mult: 0
  }
  param {
    lr_mult: 0
    decay_mult: 0
  }
  batch_norm_param {
    moving_average_fraction: 0.99
    eps: 0.0001
    scale_filler {
      type: "constant"
      value: 1
    }
    bias_filler {
      type: "constant"
      value: 0
    }
  }
}
layer {
  name: "res5a_branch2b/relu"
  type: "ReLU"
  bottom: "res5a_branch2b/bn"
  top: "res5a_branch2b/bn"
}
layer {
  name: "out5a"
  type: "Convolution"
  bottom: "res5a_branch2b/bn"
  top: "out5a"
  param {
    lr_mult: 1
    decay_mult: 1
  }
  param {
    lr_mult: 2
    decay_mult: 0
  }
  convolution_param {
    num_output: 64
    bias_term: true
    pad: 4
    kernel_size: 3
    group: 2
    stride: 1
    weight_filler {
      type: "msra"
    }
    bias_filler {
      type: "constant"
      value: 0
    }
    dilation: 4
  }
}
layer {
  name: "out5a/bn"
  type: "BatchNorm"
  bottom: "out5a"
  top: "out5a/bn"
  param {
    lr_mult: 1
    decay_mult: 1
  }
  param {
    lr_mult: 1
    decay_mult: 1
  }
  param {
    lr_mult: 0
    decay_mult: 0
  }
  param {
    lr_mult: 0
    decay_mult: 0
  }
  batch_norm_param {
    moving_average_fraction: 0.99
    eps: 0.0001
    scale_filler {
      type: "constant"
      value: 1
    }
    bias_filler {
      type: "constant"
      value: 0
    }
  }
}
layer {
  name: "out5a/relu"
  type: "ReLU"
  bottom: "out5a/bn"
  top: "out5a/bn"
}
layer {
  name: "out5a_up2"
  type: "Deconvolution"
  bottom: "out5a/bn"
  top: "out5a_up2"
  param {
    lr_mult: 0
    decay_mult: 0
  }
  convolution_param {
    num_output: 64
    bias_term: false
    pad: 1
    kernel_size: 4
    group: 64
    stride: 2
    weight_filler {
      type: "bilinear"
    }
  }
}
layer {
  name: "out3a"
  type: "Convolution"
  bottom: "res3a_branch2b/bn"
  top: "out3a"
  param {
    lr_mult: 1
    decay_mult: 1
  }
  param {
    lr_mult: 2
    decay_mult: 0
  }
  convolution_param {
    num_output: 64
    bias_term: true
    pad: 1
    kernel_size: 3
    group: 2
    stride: 1
    weight_filler {
      type: "msra"
    }
    bias_filler {
      type: "constant"
      value: 0
    }
    dilation: 1
  }
}
layer {
  name: "out3a/bn"
  type: "BatchNorm"
  bottom: "out3a"
  top: "out3a/bn"
  param {
    lr_mult: 1
    decay_mult: 1
  }
  param {
    lr_mult: 1
    decay_mult: 1
  }
  param {
    lr_mult: 0
    decay_mult: 0
  }
  param {
    lr_mult: 0
    decay_mult: 0
  }
  batch_norm_param {
    moving_average_fraction: 0.99
    eps: 0.0001
    scale_filler {
      type: "constant"
      value: 1
    }
    bias_filler {
      type: "constant"
      value: 0
    }
  }
}
layer {
  name: "out3a/relu"
  type: "ReLU"
  bottom: "out3a/bn"
  top: "out3a/bn"
}
layer {
  name: "out3_out5_combined"
  type: "Eltwise"
  bottom: "out5a_up2"
  bottom: "out3a/bn"
  top: "out3_out5_combined"
}
layer {
  name: "ctx_conv1"
  type: "Convolution"
  bottom: "out3_out5_combined"
  top: "ctx_conv1"
  param {
    lr_mult: 1
    decay_mult: 1
  }
  param {
    lr_mult: 2
    decay_mult: 0
  }
  convolution_param {
    num_output: 64
    bias_term: true
    pad: 1
    kernel_size: 3
    group: 1
    stride: 1
    weight_filler {
      type: "msra"
    }
    bias_filler {
      type: "constant"
      value: 0
    }
    dilation: 1
  }
}
layer {
  name: "ctx_conv1/bn"
  type: "BatchNorm"
  bottom: "ctx_conv1"
  top: "ctx_conv1/bn"
  param {
    lr_mult: 1
    decay_mult: 1
  }
  param {
    lr_mult: 1
    decay_mult: 1
  }
  param {
    lr_mult: 0
    decay_mult: 0
  }
  param {
    lr_mult: 0
    decay_mult: 0
  }
  batch_norm_param {
    moving_average_fraction: 0.99
    eps: 0.0001
    scale_filler {
      type: "constant"
      value: 1
    }
    bias_filler {
      type: "constant"
      value: 0
    }
  }
}
layer {
  name: "ctx_conv1/relu"
  type: "ReLU"
  bottom: "ctx_conv1/bn"
  top: "ctx_conv1/bn"
}
layer {
  name: "ctx_conv2"
  type: "Convolution"
  bottom: "ctx_conv1/bn"
  top: "ctx_conv2"
  param {
    lr_mult: 1
    decay_mult: 1
  }
  param {
    lr_mult: 2
    decay_mult: 0
  }
  convolution_param {
    num_output: 64
    bias_term: true
    pad: 4
    kernel_size: 3
    group: 1
    stride: 1
    weight_filler {
      type: "msra"
    }
    bias_filler {
      type: "constant"
      value: 0
    }
    dilation: 4
  }
}
layer {
  name: "ctx_conv2/bn"
  type: "BatchNorm"
  bottom: "ctx_conv2"
  top: "ctx_conv2/bn"
  param {
    lr_mult: 1
    decay_mult: 1
  }
  param {
    lr_mult: 1
    decay_mult: 1
  }
  param {
    lr_mult: 0
    decay_mult: 0
  }
  param {
    lr_mult: 0
    decay_mult: 0
  }
  batch_norm_param {
    moving_average_fraction: 0.99
    eps: 0.0001
    scale_filler {
      type: "constant"
      value: 1
    }
    bias_filler {
      type: "constant"
      value: 0
    }
  }
}
layer {
  name: "ctx_conv2/relu"
  type: "ReLU"
  bottom: "ctx_conv2/bn"
  top: "ctx_conv2/bn"
}
layer {
  name: "ctx_conv3"
  type: "Convolution"
  bottom: "ctx_conv2/bn"
  top: "ctx_conv3"
  param {
    lr_mult: 1
    decay_mult: 1
  }
  param {
    lr_mult: 2
    decay_mult: 0
  }
  convolution_param {
    num_output: 64
    bias_term: true
    pad: 4
    kernel_size: 3
    group: 1
    stride: 1
    weight_filler {
      type: "msra"
    }
    bias_filler {
      type: "constant"
      value: 0
    }
    dilation: 4
  }
}
layer {
  name: "ctx_conv3/bn"
  type: "BatchNorm"
  bottom: "ctx_conv3"
  top: "ctx_conv3/bn"
  param {
    lr_mult: 1
    decay_mult: 1
  }
  param {
    lr_mult: 1
    decay_mult: 1
  }
  param {
    lr_mult: 0
    decay_mult: 0
  }
  param {
    lr_mult: 0
    decay_mult: 0
  }
  batch_norm_param {
    moving_average_fraction: 0.99
    eps: 0.0001
    scale_filler {
      type: "constant"
      value: 1
    }
    bias_filler {
      type: "constant"
      value: 0
    }
  }
}
layer {
  name: "ctx_conv3/relu"
  type: "ReLU"
  bottom: "ctx_conv3/bn"
  top: "ctx_conv3/bn"
}
layer {
  name: "ctx_conv4"
  type: "Convolution"
  bottom: "ctx_conv3/bn"
  top: "ctx_conv4"
  param {
    lr_mult: 1
    decay_mult: 1
  }
  param {
    lr_mult: 2
    decay_mult: 0
  }
  convolution_param {
    num_output: 64
    bias_term: true
    pad: 4
    kernel_size: 3
    group: 1
    stride: 1
    weight_filler {
      type: "msra"
    }
    bias_filler {
      type: "constant"
      value: 0
    }
    dilation: 4
  }
}
layer {
  name: "ctx_conv4/bn"
  type: "BatchNorm"
  bottom: "ctx_conv4"
  top: "ctx_conv4/bn"
  param {
    lr_mult: 1
    decay_mult: 1
  }
  param {
    lr_mult: 1
    decay_mult: 1
  }
  param {
    lr_mult: 0
    decay_mult: 0
  }
  param {
    lr_mult: 0
    decay_mult: 0
  }
  batch_norm_param {
    moving_average_fraction: 0.99
    eps: 0.0001
    scale_filler {
      type: "constant"
      value: 1
    }
    bias_filler {
      type: "constant"
      value: 0
    }
  }
}
layer {
  name: "ctx_conv4/relu"
  type: "ReLU"
  bottom: "ctx_conv4/bn"
  top: "ctx_conv4/bn"
}
layer {
  name: "ctx_final"
  type: "Convolution"
  bottom: "ctx_conv4/bn"
  top: "ctx_final"
  param {
    lr_mult: 1
    decay_mult: 1
  }
  param {
    lr_mult: 2
    decay_mult: 0
  }
  convolution_param {
    num_output: 8
    bias_term: true
    pad: 1
    kernel_size: 3
    kernel_size: 3
    group: 1
    stride: 1
    weight_filler {
      type: "msra"
    }
    bias_filler {
      type: "constant"
      value: 0
    }
    dilation: 1
  }
}
layer {
  name: "ctx_final/relu"
  type: "ReLU"
  bottom: "ctx_final"
  top: "ctx_final"
}
layer {
  name: "out_deconv_final_up2"
  type: "Deconvolution"
  bottom: "ctx_final"
  top: "out_deconv_final_up2"
  param {
    lr_mult: 0
    decay_mult: 0
  }
  convolution_param {
    num_output: 8
    bias_term: false
    pad: 1
    kernel_size: 4
    group: 8
    stride: 2
    weight_filler {
      type: "bilinear"
    }
  }
}
layer {
  name: "out_deconv_final_up4"
  type: "Deconvolution"
  bottom: "out_deconv_final_up2"
  top: "out_deconv_final_up4"
  param {
    lr_mult: 0
    decay_mult: 0
  }
  convolution_param {
    num_output: 8
    bias_term: false
    pad: 1
    kernel_size: 4
    group: 8
    stride: 2
    weight_filler {
      type: "bilinear"
    }
  }
}
layer {
  name: "out_deconv_final_up8"
  type: "Deconvolution"
  bottom: "out_deconv_final_up4"
  top: "out_deconv_final_up8"
  param {
    lr_mult: 0
    decay_mult: 0
  }
  convolution_param {
    num_output: 8
    bias_term: false
    pad: 1
    kernel_size: 4
    group: 8
    stride: 2
    weight_filler {
      type: "bilinear"
    }
  }
}
layer {
  name: "loss"
  type: "SoftmaxWithLoss"
  bottom: "out_deconv_final_up8"
  bottom: "label"
  top: "loss"
  propagate_down: true
  propagate_down: false
  loss_param {
    ignore_label: 255
    normalization: VALID
  }
}
layer {
  name: "accuracy/top1"
  type: "Accuracy"
  bottom: "out_deconv_final_up8"
  bottom: "label"
  top: "accuracy/top1"
  include {
    phase: TEST
  }
  accuracy_param {
    ignore_label: 255
  }
}
layer {
  name: "accuracy/top5"
  type: "Accuracy"
  bottom: "out_deconv_final_up8"
  bottom: "label"
  top: "accuracy/top5"
  include {
    phase: TEST
  }
  accuracy_param {
    top_k: 5
    ignore_label: 255
  }
}
I0711 20:08:12.840304 25943 layer_factory.hpp:77] Creating layer data
I0711 20:08:12.840314 25943 net.cpp:98] Creating Layer data
I0711 20:08:12.840319 25943 net.cpp:413] data -> data
I0711 20:08:12.840327 25943 net.cpp:413] data -> label
I0711 20:08:12.855726 26027 db_lmdb.cpp:35] Opened lmdb data/val-image-lmdb
I0711 20:08:12.859331 25943 data_layer.cpp:78] ReshapePrefetch 4, 3, 640, 640
I0711 20:08:12.859444 25943 data_layer.cpp:83] output data size: 4,3,640,640
I0711 20:08:12.869568 26032 db_lmdb.cpp:35] Opened lmdb data/val-label-lmdb
I0711 20:08:12.886693 25943 data_layer.cpp:78] ReshapePrefetch 4, 1, 640, 640
I0711 20:08:12.886765 25943 data_layer.cpp:83] output data size: 4,1,640,640
I0711 20:08:12.903172 25943 net.cpp:148] Setting up data
I0711 20:08:12.903203 25943 net.cpp:155] Top shape: 4 3 640 640 (4915200)
I0711 20:08:12.903208 25943 net.cpp:155] Top shape: 4 1 640 640 (1638400)
I0711 20:08:12.903209 25943 net.cpp:163] Memory required for data: 26214400
I0711 20:08:12.903214 25943 layer_factory.hpp:77] Creating layer label_data_1_split
I0711 20:08:12.903228 25943 net.cpp:98] Creating Layer label_data_1_split
I0711 20:08:12.903230 25943 net.cpp:439] label_data_1_split <- label
I0711 20:08:12.903275 25943 net.cpp:413] label_data_1_split -> label_data_1_split_0
I0711 20:08:12.903296 25943 net.cpp:413] label_data_1_split -> label_data_1_split_1
I0711 20:08:12.903301 25943 net.cpp:413] label_data_1_split -> label_data_1_split_2
I0711 20:08:12.904938 25943 net.cpp:148] Setting up label_data_1_split
I0711 20:08:12.904945 25943 net.cpp:155] Top shape: 4 1 640 640 (1638400)
I0711 20:08:12.904948 25943 net.cpp:155] Top shape: 4 1 640 640 (1638400)
I0711 20:08:12.904950 25943 net.cpp:155] Top shape: 4 1 640 640 (1638400)
I0711 20:08:12.904953 25943 net.cpp:163] Memory required for data: 45875200
I0711 20:08:12.904954 25943 layer_factory.hpp:77] Creating layer data/bias
I0711 20:08:12.904960 25943 net.cpp:98] Creating Layer data/bias
I0711 20:08:12.904963 25943 net.cpp:439] data/bias <- data
I0711 20:08:12.904965 25943 net.cpp:413] data/bias -> data/bias
I0711 20:08:12.906335 25943 net.cpp:148] Setting up data/bias
I0711 20:08:12.906345 25943 net.cpp:155] Top shape: 4 3 640 640 (4915200)
I0711 20:08:12.906347 25943 net.cpp:163] Memory required for data: 65536000
I0711 20:08:12.906353 25943 layer_factory.hpp:77] Creating layer conv1a
I0711 20:08:12.906360 25943 net.cpp:98] Creating Layer conv1a
I0711 20:08:12.906363 25943 net.cpp:439] conv1a <- data/bias
I0711 20:08:12.906366 25943 net.cpp:413] conv1a -> conv1a
I0711 20:08:12.908598 25943 net.cpp:148] Setting up conv1a
I0711 20:08:12.908608 25943 net.cpp:155] Top shape: 4 32 320 320 (13107200)
I0711 20:08:12.908612 25943 net.cpp:163] Memory required for data: 117964800
I0711 20:08:12.908617 25943 layer_factory.hpp:77] Creating layer conv1a/bn
I0711 20:08:12.908627 25943 net.cpp:98] Creating Layer conv1a/bn
I0711 20:08:12.908629 25943 net.cpp:439] conv1a/bn <- conv1a
I0711 20:08:12.908633 25943 net.cpp:413] conv1a/bn -> conv1a/bn
I0711 20:08:12.916867 25943 net.cpp:148] Setting up conv1a/bn
I0711 20:08:12.916929 25943 net.cpp:155] Top shape: 4 32 320 320 (13107200)
I0711 20:08:12.916931 25943 net.cpp:163] Memory required for data: 170393600
I0711 20:08:12.916957 25943 layer_factory.hpp:77] Creating layer conv1a/relu
I0711 20:08:12.916973 25943 net.cpp:98] Creating Layer conv1a/relu
I0711 20:08:12.916981 25943 net.cpp:439] conv1a/relu <- conv1a/bn
I0711 20:08:12.916988 25943 net.cpp:400] conv1a/relu -> conv1a/bn (in-place)
I0711 20:08:12.917217 25943 net.cpp:148] Setting up conv1a/relu
I0711 20:08:12.917227 25943 net.cpp:155] Top shape: 4 32 320 320 (13107200)
I0711 20:08:12.917230 25943 net.cpp:163] Memory required for data: 222822400
I0711 20:08:12.917235 25943 layer_factory.hpp:77] Creating layer conv1b
I0711 20:08:12.917251 25943 net.cpp:98] Creating Layer conv1b
I0711 20:08:12.917256 25943 net.cpp:439] conv1b <- conv1a/bn
I0711 20:08:12.917263 25943 net.cpp:413] conv1b -> conv1b
I0711 20:08:12.918009 25943 net.cpp:148] Setting up conv1b
I0711 20:08:12.918020 25943 net.cpp:155] Top shape: 4 32 320 320 (13107200)
I0711 20:08:12.918021 25943 net.cpp:163] Memory required for data: 275251200
I0711 20:08:12.918027 25943 layer_factory.hpp:77] Creating layer conv1b/bn
I0711 20:08:12.918040 25943 net.cpp:98] Creating Layer conv1b/bn
I0711 20:08:12.918046 25943 net.cpp:439] conv1b/bn <- conv1b
I0711 20:08:12.918053 25943 net.cpp:413] conv1b/bn -> conv1b/bn
I0711 20:08:12.921620 25943 net.cpp:148] Setting up conv1b/bn
I0711 20:08:12.921747 25943 net.cpp:155] Top shape: 4 32 320 320 (13107200)
I0711 20:08:12.921761 25943 net.cpp:163] Memory required for data: 327680000
I0711 20:08:12.921864 25943 layer_factory.hpp:77] Creating layer conv1b/relu
I0711 20:08:12.921875 25943 net.cpp:98] Creating Layer conv1b/relu
I0711 20:08:12.921880 25943 net.cpp:439] conv1b/relu <- conv1b/bn
I0711 20:08:12.921886 25943 net.cpp:400] conv1b/relu -> conv1b/bn (in-place)
I0711 20:08:12.921984 25943 net.cpp:148] Setting up conv1b/relu
I0711 20:08:12.921993 25943 net.cpp:155] Top shape: 4 32 320 320 (13107200)
I0711 20:08:12.921995 25943 net.cpp:163] Memory required for data: 380108800
I0711 20:08:12.921999 25943 layer_factory.hpp:77] Creating layer pool1
I0711 20:08:12.922127 25943 net.cpp:98] Creating Layer pool1
I0711 20:08:12.922135 25943 net.cpp:439] pool1 <- conv1b/bn
I0711 20:08:12.922142 25943 net.cpp:413] pool1 -> pool1
I0711 20:08:12.922281 25943 net.cpp:148] Setting up pool1
I0711 20:08:12.922289 25943 net.cpp:155] Top shape: 4 32 160 160 (3276800)
I0711 20:08:12.922293 25943 net.cpp:163] Memory required for data: 393216000
I0711 20:08:12.922353 25943 layer_factory.hpp:77] Creating layer res2a_branch2a
I0711 20:08:12.922410 25943 net.cpp:98] Creating Layer res2a_branch2a
I0711 20:08:12.922449 25943 net.cpp:439] res2a_branch2a <- pool1
I0711 20:08:12.922489 25943 net.cpp:413] res2a_branch2a -> res2a_branch2a
I0711 20:08:12.923413 25943 net.cpp:148] Setting up res2a_branch2a
I0711 20:08:12.923421 25943 net.cpp:155] Top shape: 4 64 160 160 (6553600)
I0711 20:08:12.923424 25943 net.cpp:163] Memory required for data: 419430400
I0711 20:08:12.923434 25943 layer_factory.hpp:77] Creating layer res2a_branch2a/bn
I0711 20:08:12.923549 25943 net.cpp:98] Creating Layer res2a_branch2a/bn
I0711 20:08:12.923555 25943 net.cpp:439] res2a_branch2a/bn <- res2a_branch2a
I0711 20:08:12.923560 25943 net.cpp:413] res2a_branch2a/bn -> res2a_branch2a/bn
I0711 20:08:12.926616 25943 net.cpp:148] Setting up res2a_branch2a/bn
I0711 20:08:12.926628 25943 net.cpp:155] Top shape: 4 64 160 160 (6553600)
I0711 20:08:12.926630 25943 net.cpp:163] Memory required for data: 445644800
I0711 20:08:12.926636 25943 layer_factory.hpp:77] Creating layer res2a_branch2a/relu
I0711 20:08:12.926641 25943 net.cpp:98] Creating Layer res2a_branch2a/relu
I0711 20:08:12.926643 25943 net.cpp:439] res2a_branch2a/relu <- res2a_branch2a/bn
I0711 20:08:12.926646 25943 net.cpp:400] res2a_branch2a/relu -> res2a_branch2a/bn (in-place)
I0711 20:08:12.926651 25943 net.cpp:148] Setting up res2a_branch2a/relu
I0711 20:08:12.926653 25943 net.cpp:155] Top shape: 4 64 160 160 (6553600)
I0711 20:08:12.926656 25943 net.cpp:163] Memory required for data: 471859200
I0711 20:08:12.926657 25943 layer_factory.hpp:77] Creating layer res2a_branch2b
I0711 20:08:12.926664 25943 net.cpp:98] Creating Layer res2a_branch2b
I0711 20:08:12.926857 25943 net.cpp:439] res2a_branch2b <- res2a_branch2a/bn
I0711 20:08:12.926865 25943 net.cpp:413] res2a_branch2b -> res2a_branch2b
I0711 20:08:12.928807 25943 net.cpp:148] Setting up res2a_branch2b
I0711 20:08:12.928860 25943 net.cpp:155] Top shape: 4 64 160 160 (6553600)
I0711 20:08:12.928872 25943 net.cpp:163] Memory required for data: 498073600
I0711 20:08:12.928889 25943 layer_factory.hpp:77] Creating layer res2a_branch2b/bn
I0711 20:08:12.928910 25943 net.cpp:98] Creating Layer res2a_branch2b/bn
I0711 20:08:12.928923 25943 net.cpp:439] res2a_branch2b/bn <- res2a_branch2b
I0711 20:08:12.928938 25943 net.cpp:413] res2a_branch2b/bn -> res2a_branch2b/bn
I0711 20:08:12.933954 25943 net.cpp:148] Setting up res2a_branch2b/bn
I0711 20:08:12.933986 25943 net.cpp:155] Top shape: 4 64 160 160 (6553600)
I0711 20:08:12.933990 25943 net.cpp:163] Memory required for data: 524288000
I0711 20:08:12.934002 25943 layer_factory.hpp:77] Creating layer res2a_branch2b/relu
I0711 20:08:12.934015 25943 net.cpp:98] Creating Layer res2a_branch2b/relu
I0711 20:08:12.934023 25943 net.cpp:439] res2a_branch2b/relu <- res2a_branch2b/bn
I0711 20:08:12.934029 25943 net.cpp:400] res2a_branch2b/relu -> res2a_branch2b/bn (in-place)
I0711 20:08:12.934042 25943 net.cpp:148] Setting up res2a_branch2b/relu
I0711 20:08:12.934048 25943 net.cpp:155] Top shape: 4 64 160 160 (6553600)
I0711 20:08:12.934051 25943 net.cpp:163] Memory required for data: 550502400
I0711 20:08:12.934056 25943 layer_factory.hpp:77] Creating layer pool2
I0711 20:08:12.934067 25943 net.cpp:98] Creating Layer pool2
I0711 20:08:12.934072 25943 net.cpp:439] pool2 <- res2a_branch2b/bn
I0711 20:08:12.934077 25943 net.cpp:413] pool2 -> pool2
I0711 20:08:12.934150 25943 net.cpp:148] Setting up pool2
I0711 20:08:12.934156 25943 net.cpp:155] Top shape: 4 64 80 80 (1638400)
I0711 20:08:12.934159 25943 net.cpp:163] Memory required for data: 557056000
I0711 20:08:12.934164 25943 layer_factory.hpp:77] Creating layer res3a_branch2a
I0711 20:08:12.934202 25943 net.cpp:98] Creating Layer res3a_branch2a
I0711 20:08:12.934207 25943 net.cpp:439] res3a_branch2a <- pool2
I0711 20:08:12.934213 25943 net.cpp:413] res3a_branch2a -> res3a_branch2a
I0711 20:08:12.936187 25943 net.cpp:148] Setting up res3a_branch2a
I0711 20:08:12.936197 25943 net.cpp:155] Top shape: 4 128 80 80 (3276800)
I0711 20:08:12.936200 25943 net.cpp:163] Memory required for data: 570163200
I0711 20:08:12.936205 25943 layer_factory.hpp:77] Creating layer res3a_branch2a/bn
I0711 20:08:12.936218 25943 net.cpp:98] Creating Layer res3a_branch2a/bn
I0711 20:08:12.936223 25943 net.cpp:439] res3a_branch2a/bn <- res3a_branch2a
I0711 20:08:12.936228 25943 net.cpp:413] res3a_branch2a/bn -> res3a_branch2a/bn
I0711 20:08:12.937463 25943 net.cpp:148] Setting up res3a_branch2a/bn
I0711 20:08:12.937477 25943 net.cpp:155] Top shape: 4 128 80 80 (3276800)
I0711 20:08:12.937480 25943 net.cpp:163] Memory required for data: 583270400
I0711 20:08:12.937496 25943 layer_factory.hpp:77] Creating layer res3a_branch2a/relu
I0711 20:08:12.937503 25943 net.cpp:98] Creating Layer res3a_branch2a/relu
I0711 20:08:12.937506 25943 net.cpp:439] res3a_branch2a/relu <- res3a_branch2a/bn
I0711 20:08:12.937511 25943 net.cpp:400] res3a_branch2a/relu -> res3a_branch2a/bn (in-place)
I0711 20:08:12.937517 25943 net.cpp:148] Setting up res3a_branch2a/relu
I0711 20:08:12.937521 25943 net.cpp:155] Top shape: 4 128 80 80 (3276800)
I0711 20:08:12.937525 25943 net.cpp:163] Memory required for data: 596377600
I0711 20:08:12.937527 25943 layer_factory.hpp:77] Creating layer res3a_branch2b
I0711 20:08:12.937535 25943 net.cpp:98] Creating Layer res3a_branch2b
I0711 20:08:12.937537 25943 net.cpp:439] res3a_branch2b <- res3a_branch2a/bn
I0711 20:08:12.937542 25943 net.cpp:413] res3a_branch2b -> res3a_branch2b
I0711 20:08:12.939002 25943 net.cpp:148] Setting up res3a_branch2b
I0711 20:08:12.939015 25943 net.cpp:155] Top shape: 4 128 80 80 (3276800)
I0711 20:08:12.939018 25943 net.cpp:163] Memory required for data: 609484800
I0711 20:08:12.939026 25943 layer_factory.hpp:77] Creating layer res3a_branch2b/bn
I0711 20:08:12.939033 25943 net.cpp:98] Creating Layer res3a_branch2b/bn
I0711 20:08:12.939038 25943 net.cpp:439] res3a_branch2b/bn <- res3a_branch2b
I0711 20:08:12.939043 25943 net.cpp:413] res3a_branch2b/bn -> res3a_branch2b/bn
I0711 20:08:12.940212 25943 net.cpp:148] Setting up res3a_branch2b/bn
I0711 20:08:12.940225 25943 net.cpp:155] Top shape: 4 128 80 80 (3276800)
I0711 20:08:12.940229 25943 net.cpp:163] Memory required for data: 622592000
I0711 20:08:12.940238 25943 layer_factory.hpp:77] Creating layer res3a_branch2b/relu
I0711 20:08:12.940244 25943 net.cpp:98] Creating Layer res3a_branch2b/relu
I0711 20:08:12.940248 25943 net.cpp:439] res3a_branch2b/relu <- res3a_branch2b/bn
I0711 20:08:12.940253 25943 net.cpp:400] res3a_branch2b/relu -> res3a_branch2b/bn (in-place)
I0711 20:08:12.940258 25943 net.cpp:148] Setting up res3a_branch2b/relu
I0711 20:08:12.940263 25943 net.cpp:155] Top shape: 4 128 80 80 (3276800)
I0711 20:08:12.940279 25943 net.cpp:163] Memory required for data: 635699200
I0711 20:08:12.940282 25943 layer_factory.hpp:77] Creating layer res3a_branch2b/bn_res3a_branch2b/relu_0_split
I0711 20:08:12.940291 25943 net.cpp:98] Creating Layer res3a_branch2b/bn_res3a_branch2b/relu_0_split
I0711 20:08:12.940295 25943 net.cpp:439] res3a_branch2b/bn_res3a_branch2b/relu_0_split <- res3a_branch2b/bn
I0711 20:08:12.940299 25943 net.cpp:413] res3a_branch2b/bn_res3a_branch2b/relu_0_split -> res3a_branch2b/bn_res3a_branch2b/relu_0_split_0
I0711 20:08:12.940307 25943 net.cpp:413] res3a_branch2b/bn_res3a_branch2b/relu_0_split -> res3a_branch2b/bn_res3a_branch2b/relu_0_split_1
I0711 20:08:12.940373 25943 net.cpp:148] Setting up res3a_branch2b/bn_res3a_branch2b/relu_0_split
I0711 20:08:12.940381 25943 net.cpp:155] Top shape: 4 128 80 80 (3276800)
I0711 20:08:12.940385 25943 net.cpp:155] Top shape: 4 128 80 80 (3276800)
I0711 20:08:12.940388 25943 net.cpp:163] Memory required for data: 661913600
I0711 20:08:12.940409 25943 layer_factory.hpp:77] Creating layer pool3
I0711 20:08:12.940415 25943 net.cpp:98] Creating Layer pool3
I0711 20:08:12.940420 25943 net.cpp:439] pool3 <- res3a_branch2b/bn_res3a_branch2b/relu_0_split_0
I0711 20:08:12.940425 25943 net.cpp:413] pool3 -> pool3
I0711 20:08:12.940500 25943 net.cpp:148] Setting up pool3
I0711 20:08:12.940505 25943 net.cpp:155] Top shape: 4 128 40 40 (819200)
I0711 20:08:12.940510 25943 net.cpp:163] Memory required for data: 665190400
I0711 20:08:12.940513 25943 layer_factory.hpp:77] Creating layer res4a_branch2a
I0711 20:08:12.940522 25943 net.cpp:98] Creating Layer res4a_branch2a
I0711 20:08:12.940526 25943 net.cpp:439] res4a_branch2a <- pool3
I0711 20:08:12.940532 25943 net.cpp:413] res4a_branch2a -> res4a_branch2a
I0711 20:08:12.948571 25943 net.cpp:148] Setting up res4a_branch2a
I0711 20:08:12.948582 25943 net.cpp:155] Top shape: 4 256 40 40 (1638400)
I0711 20:08:12.948585 25943 net.cpp:163] Memory required for data: 671744000
I0711 20:08:12.948588 25943 layer_factory.hpp:77] Creating layer res4a_branch2a/bn
I0711 20:08:12.948595 25943 net.cpp:98] Creating Layer res4a_branch2a/bn
I0711 20:08:12.948597 25943 net.cpp:439] res4a_branch2a/bn <- res4a_branch2a
I0711 20:08:12.948602 25943 net.cpp:413] res4a_branch2a/bn -> res4a_branch2a/bn
I0711 20:08:12.949304 25943 net.cpp:148] Setting up res4a_branch2a/bn
I0711 20:08:12.949311 25943 net.cpp:155] Top shape: 4 256 40 40 (1638400)
I0711 20:08:12.949312 25943 net.cpp:163] Memory required for data: 678297600
I0711 20:08:12.949317 25943 layer_factory.hpp:77] Creating layer res4a_branch2a/relu
I0711 20:08:12.949321 25943 net.cpp:98] Creating Layer res4a_branch2a/relu
I0711 20:08:12.949323 25943 net.cpp:439] res4a_branch2a/relu <- res4a_branch2a/bn
I0711 20:08:12.949326 25943 net.cpp:400] res4a_branch2a/relu -> res4a_branch2a/bn (in-place)
I0711 20:08:12.949331 25943 net.cpp:148] Setting up res4a_branch2a/relu
I0711 20:08:12.949334 25943 net.cpp:155] Top shape: 4 256 40 40 (1638400)
I0711 20:08:12.949337 25943 net.cpp:163] Memory required for data: 684851200
I0711 20:08:12.949338 25943 layer_factory.hpp:77] Creating layer res4a_branch2b
I0711 20:08:12.949342 25943 net.cpp:98] Creating Layer res4a_branch2b
I0711 20:08:12.949345 25943 net.cpp:439] res4a_branch2b <- res4a_branch2a/bn
I0711 20:08:12.949348 25943 net.cpp:413] res4a_branch2b -> res4a_branch2b
I0711 20:08:12.952553 25943 net.cpp:148] Setting up res4a_branch2b
I0711 20:08:12.952558 25943 net.cpp:155] Top shape: 4 256 40 40 (1638400)
I0711 20:08:12.952560 25943 net.cpp:163] Memory required for data: 691404800
I0711 20:08:12.952564 25943 layer_factory.hpp:77] Creating layer res4a_branch2b/bn
I0711 20:08:12.952567 25943 net.cpp:98] Creating Layer res4a_branch2b/bn
I0711 20:08:12.952570 25943 net.cpp:439] res4a_branch2b/bn <- res4a_branch2b
I0711 20:08:12.952574 25943 net.cpp:413] res4a_branch2b/bn -> res4a_branch2b/bn
I0711 20:08:12.953260 25943 net.cpp:148] Setting up res4a_branch2b/bn
I0711 20:08:12.953265 25943 net.cpp:155] Top shape: 4 256 40 40 (1638400)
I0711 20:08:12.953268 25943 net.cpp:163] Memory required for data: 697958400
I0711 20:08:12.953272 25943 layer_factory.hpp:77] Creating layer res4a_branch2b/relu
I0711 20:08:12.953275 25943 net.cpp:98] Creating Layer res4a_branch2b/relu
I0711 20:08:12.953277 25943 net.cpp:439] res4a_branch2b/relu <- res4a_branch2b/bn
I0711 20:08:12.953279 25943 net.cpp:400] res4a_branch2b/relu -> res4a_branch2b/bn (in-place)
I0711 20:08:12.953284 25943 net.cpp:148] Setting up res4a_branch2b/relu
I0711 20:08:12.953285 25943 net.cpp:155] Top shape: 4 256 40 40 (1638400)
I0711 20:08:12.953286 25943 net.cpp:163] Memory required for data: 704512000
I0711 20:08:12.953289 25943 layer_factory.hpp:77] Creating layer pool4
I0711 20:08:12.953292 25943 net.cpp:98] Creating Layer pool4
I0711 20:08:12.953294 25943 net.cpp:439] pool4 <- res4a_branch2b/bn
I0711 20:08:12.953295 25943 net.cpp:413] pool4 -> pool4
I0711 20:08:12.953336 25943 net.cpp:148] Setting up pool4
I0711 20:08:12.953339 25943 net.cpp:155] Top shape: 4 256 40 40 (1638400)
I0711 20:08:12.953349 25943 net.cpp:163] Memory required for data: 711065600
I0711 20:08:12.953351 25943 layer_factory.hpp:77] Creating layer res5a_branch2a
I0711 20:08:12.953356 25943 net.cpp:98] Creating Layer res5a_branch2a
I0711 20:08:12.953358 25943 net.cpp:439] res5a_branch2a <- pool4
I0711 20:08:12.953361 25943 net.cpp:413] res5a_branch2a -> res5a_branch2a
I0711 20:08:12.978256 25943 net.cpp:148] Setting up res5a_branch2a
I0711 20:08:12.978272 25943 net.cpp:155] Top shape: 4 512 40 40 (3276800)
I0711 20:08:12.978274 25943 net.cpp:163] Memory required for data: 724172800
I0711 20:08:12.978279 25943 layer_factory.hpp:77] Creating layer res5a_branch2a/bn
I0711 20:08:12.978288 25943 net.cpp:98] Creating Layer res5a_branch2a/bn
I0711 20:08:12.978291 25943 net.cpp:439] res5a_branch2a/bn <- res5a_branch2a
I0711 20:08:12.978294 25943 net.cpp:413] res5a_branch2a/bn -> res5a_branch2a/bn
I0711 20:08:12.978998 25943 net.cpp:148] Setting up res5a_branch2a/bn
I0711 20:08:12.979004 25943 net.cpp:155] Top shape: 4 512 40 40 (3276800)
I0711 20:08:12.979007 25943 net.cpp:163] Memory required for data: 737280000
I0711 20:08:12.979012 25943 layer_factory.hpp:77] Creating layer res5a_branch2a/relu
I0711 20:08:12.979014 25943 net.cpp:98] Creating Layer res5a_branch2a/relu
I0711 20:08:12.979017 25943 net.cpp:439] res5a_branch2a/relu <- res5a_branch2a/bn
I0711 20:08:12.979019 25943 net.cpp:400] res5a_branch2a/relu -> res5a_branch2a/bn (in-place)
I0711 20:08:12.979023 25943 net.cpp:148] Setting up res5a_branch2a/relu
I0711 20:08:12.979025 25943 net.cpp:155] Top shape: 4 512 40 40 (3276800)
I0711 20:08:12.979027 25943 net.cpp:163] Memory required for data: 750387200
I0711 20:08:12.979029 25943 layer_factory.hpp:77] Creating layer res5a_branch2b
I0711 20:08:12.979033 25943 net.cpp:98] Creating Layer res5a_branch2b
I0711 20:08:12.979035 25943 net.cpp:439] res5a_branch2b <- res5a_branch2a/bn
I0711 20:08:12.979038 25943 net.cpp:413] res5a_branch2b -> res5a_branch2b
I0711 20:08:12.992012 25943 net.cpp:148] Setting up res5a_branch2b
I0711 20:08:12.992033 25943 net.cpp:155] Top shape: 4 512 40 40 (3276800)
I0711 20:08:12.992034 25943 net.cpp:163] Memory required for data: 763494400
I0711 20:08:12.992043 25943 layer_factory.hpp:77] Creating layer res5a_branch2b/bn
I0711 20:08:12.992049 25943 net.cpp:98] Creating Layer res5a_branch2b/bn
I0711 20:08:12.992053 25943 net.cpp:439] res5a_branch2b/bn <- res5a_branch2b
I0711 20:08:12.992058 25943 net.cpp:413] res5a_branch2b/bn -> res5a_branch2b/bn
I0711 20:08:12.992774 25943 net.cpp:148] Setting up res5a_branch2b/bn
I0711 20:08:12.992780 25943 net.cpp:155] Top shape: 4 512 40 40 (3276800)
I0711 20:08:12.992782 25943 net.cpp:163] Memory required for data: 776601600
I0711 20:08:12.992787 25943 layer_factory.hpp:77] Creating layer res5a_branch2b/relu
I0711 20:08:12.992790 25943 net.cpp:98] Creating Layer res5a_branch2b/relu
I0711 20:08:12.992794 25943 net.cpp:439] res5a_branch2b/relu <- res5a_branch2b/bn
I0711 20:08:12.992795 25943 net.cpp:400] res5a_branch2b/relu -> res5a_branch2b/bn (in-place)
I0711 20:08:12.992799 25943 net.cpp:148] Setting up res5a_branch2b/relu
I0711 20:08:12.992801 25943 net.cpp:155] Top shape: 4 512 40 40 (3276800)
I0711 20:08:12.992804 25943 net.cpp:163] Memory required for data: 789708800
I0711 20:08:12.992805 25943 layer_factory.hpp:77] Creating layer out5a
I0711 20:08:12.992810 25943 net.cpp:98] Creating Layer out5a
I0711 20:08:12.992812 25943 net.cpp:439] out5a <- res5a_branch2b/bn
I0711 20:08:12.992818 25943 net.cpp:413] out5a -> out5a
I0711 20:08:12.997078 25943 net.cpp:148] Setting up out5a
I0711 20:08:12.997087 25943 net.cpp:155] Top shape: 4 64 40 40 (409600)
I0711 20:08:12.997089 25943 net.cpp:163] Memory required for data: 791347200
I0711 20:08:12.997093 25943 layer_factory.hpp:77] Creating layer out5a/bn
I0711 20:08:12.997098 25943 net.cpp:98] Creating Layer out5a/bn
I0711 20:08:12.997100 25943 net.cpp:439] out5a/bn <- out5a
I0711 20:08:12.997103 25943 net.cpp:413] out5a/bn -> out5a/bn
I0711 20:08:12.997874 25943 net.cpp:148] Setting up out5a/bn
I0711 20:08:12.997880 25943 net.cpp:155] Top shape: 4 64 40 40 (409600)
I0711 20:08:12.997890 25943 net.cpp:163] Memory required for data: 792985600
I0711 20:08:12.997895 25943 layer_factory.hpp:77] Creating layer out5a/relu
I0711 20:08:12.997900 25943 net.cpp:98] Creating Layer out5a/relu
I0711 20:08:12.997901 25943 net.cpp:439] out5a/relu <- out5a/bn
I0711 20:08:12.997903 25943 net.cpp:400] out5a/relu -> out5a/bn (in-place)
I0711 20:08:12.997907 25943 net.cpp:148] Setting up out5a/relu
I0711 20:08:12.997910 25943 net.cpp:155] Top shape: 4 64 40 40 (409600)
I0711 20:08:12.997911 25943 net.cpp:163] Memory required for data: 794624000
I0711 20:08:12.997913 25943 layer_factory.hpp:77] Creating layer out5a_up2
I0711 20:08:12.997917 25943 net.cpp:98] Creating Layer out5a_up2
I0711 20:08:12.997920 25943 net.cpp:439] out5a_up2 <- out5a/bn
I0711 20:08:12.997922 25943 net.cpp:413] out5a_up2 -> out5a_up2
I0711 20:08:12.998190 25943 net.cpp:148] Setting up out5a_up2
I0711 20:08:12.998195 25943 net.cpp:155] Top shape: 4 64 80 80 (1638400)
I0711 20:08:12.998196 25943 net.cpp:163] Memory required for data: 801177600
I0711 20:08:12.998199 25943 layer_factory.hpp:77] Creating layer out3a
I0711 20:08:12.998203 25943 net.cpp:98] Creating Layer out3a
I0711 20:08:12.998205 25943 net.cpp:439] out3a <- res3a_branch2b/bn_res3a_branch2b/relu_0_split_1
I0711 20:08:12.998209 25943 net.cpp:413] out3a -> out3a
I0711 20:08:13.000190 25943 net.cpp:148] Setting up out3a
I0711 20:08:13.000197 25943 net.cpp:155] Top shape: 4 64 80 80 (1638400)
I0711 20:08:13.000200 25943 net.cpp:163] Memory required for data: 807731200
I0711 20:08:13.000203 25943 layer_factory.hpp:77] Creating layer out3a/bn
I0711 20:08:13.000207 25943 net.cpp:98] Creating Layer out3a/bn
I0711 20:08:13.000210 25943 net.cpp:439] out3a/bn <- out3a
I0711 20:08:13.000212 25943 net.cpp:413] out3a/bn -> out3a/bn
I0711 20:08:13.001003 25943 net.cpp:148] Setting up out3a/bn
I0711 20:08:13.001009 25943 net.cpp:155] Top shape: 4 64 80 80 (1638400)
I0711 20:08:13.001011 25943 net.cpp:163] Memory required for data: 814284800
I0711 20:08:13.001016 25943 layer_factory.hpp:77] Creating layer out3a/relu
I0711 20:08:13.001019 25943 net.cpp:98] Creating Layer out3a/relu
I0711 20:08:13.001021 25943 net.cpp:439] out3a/relu <- out3a/bn
I0711 20:08:13.001024 25943 net.cpp:400] out3a/relu -> out3a/bn (in-place)
I0711 20:08:13.001027 25943 net.cpp:148] Setting up out3a/relu
I0711 20:08:13.001029 25943 net.cpp:155] Top shape: 4 64 80 80 (1638400)
I0711 20:08:13.001030 25943 net.cpp:163] Memory required for data: 820838400
I0711 20:08:13.001032 25943 layer_factory.hpp:77] Creating layer out3_out5_combined
I0711 20:08:13.001035 25943 net.cpp:98] Creating Layer out3_out5_combined
I0711 20:08:13.001037 25943 net.cpp:439] out3_out5_combined <- out5a_up2
I0711 20:08:13.001039 25943 net.cpp:439] out3_out5_combined <- out3a/bn
I0711 20:08:13.001042 25943 net.cpp:413] out3_out5_combined -> out3_out5_combined
I0711 20:08:13.001066 25943 net.cpp:148] Setting up out3_out5_combined
I0711 20:08:13.001070 25943 net.cpp:155] Top shape: 4 64 80 80 (1638400)
I0711 20:08:13.001071 25943 net.cpp:163] Memory required for data: 827392000
I0711 20:08:13.001073 25943 layer_factory.hpp:77] Creating layer ctx_conv1
I0711 20:08:13.001077 25943 net.cpp:98] Creating Layer ctx_conv1
I0711 20:08:13.001080 25943 net.cpp:439] ctx_conv1 <- out3_out5_combined
I0711 20:08:13.001082 25943 net.cpp:413] ctx_conv1 -> ctx_conv1
I0711 20:08:13.002125 25943 net.cpp:148] Setting up ctx_conv1
I0711 20:08:13.002130 25943 net.cpp:155] Top shape: 4 64 80 80 (1638400)
I0711 20:08:13.002131 25943 net.cpp:163] Memory required for data: 833945600
I0711 20:08:13.002135 25943 layer_factory.hpp:77] Creating layer ctx_conv1/bn
I0711 20:08:13.002137 25943 net.cpp:98] Creating Layer ctx_conv1/bn
I0711 20:08:13.002140 25943 net.cpp:439] ctx_conv1/bn <- ctx_conv1
I0711 20:08:13.002142 25943 net.cpp:413] ctx_conv1/bn -> ctx_conv1/bn
I0711 20:08:13.002915 25943 net.cpp:148] Setting up ctx_conv1/bn
I0711 20:08:13.002920 25943 net.cpp:155] Top shape: 4 64 80 80 (1638400)
I0711 20:08:13.002923 25943 net.cpp:163] Memory required for data: 840499200
I0711 20:08:13.002934 25943 layer_factory.hpp:77] Creating layer ctx_conv1/relu
I0711 20:08:13.002938 25943 net.cpp:98] Creating Layer ctx_conv1/relu
I0711 20:08:13.002939 25943 net.cpp:439] ctx_conv1/relu <- ctx_conv1/bn
I0711 20:08:13.002941 25943 net.cpp:400] ctx_conv1/relu -> ctx_conv1/bn (in-place)
I0711 20:08:13.002945 25943 net.cpp:148] Setting up ctx_conv1/relu
I0711 20:08:13.002948 25943 net.cpp:155] Top shape: 4 64 80 80 (1638400)
I0711 20:08:13.002949 25943 net.cpp:163] Memory required for data: 847052800
I0711 20:08:13.002951 25943 layer_factory.hpp:77] Creating layer ctx_conv2
I0711 20:08:13.002956 25943 net.cpp:98] Creating Layer ctx_conv2
I0711 20:08:13.002959 25943 net.cpp:439] ctx_conv2 <- ctx_conv1/bn
I0711 20:08:13.002961 25943 net.cpp:413] ctx_conv2 -> ctx_conv2
I0711 20:08:13.004005 25943 net.cpp:148] Setting up ctx_conv2
I0711 20:08:13.004010 25943 net.cpp:155] Top shape: 4 64 80 80 (1638400)
I0711 20:08:13.004012 25943 net.cpp:163] Memory required for data: 853606400
I0711 20:08:13.004015 25943 layer_factory.hpp:77] Creating layer ctx_conv2/bn
I0711 20:08:13.004019 25943 net.cpp:98] Creating Layer ctx_conv2/bn
I0711 20:08:13.004020 25943 net.cpp:439] ctx_conv2/bn <- ctx_conv2
I0711 20:08:13.004024 25943 net.cpp:413] ctx_conv2/bn -> ctx_conv2/bn
I0711 20:08:13.004806 25943 net.cpp:148] Setting up ctx_conv2/bn
I0711 20:08:13.004811 25943 net.cpp:155] Top shape: 4 64 80 80 (1638400)
I0711 20:08:13.004812 25943 net.cpp:163] Memory required for data: 860160000
I0711 20:08:13.004820 25943 layer_factory.hpp:77] Creating layer ctx_conv2/relu
I0711 20:08:13.004823 25943 net.cpp:98] Creating Layer ctx_conv2/relu
I0711 20:08:13.004827 25943 net.cpp:439] ctx_conv2/relu <- ctx_conv2/bn
I0711 20:08:13.004828 25943 net.cpp:400] ctx_conv2/relu -> ctx_conv2/bn (in-place)
I0711 20:08:13.004832 25943 net.cpp:148] Setting up ctx_conv2/relu
I0711 20:08:13.004834 25943 net.cpp:155] Top shape: 4 64 80 80 (1638400)
I0711 20:08:13.004835 25943 net.cpp:163] Memory required for data: 866713600
I0711 20:08:13.004837 25943 layer_factory.hpp:77] Creating layer ctx_conv3
I0711 20:08:13.004842 25943 net.cpp:98] Creating Layer ctx_conv3
I0711 20:08:13.004843 25943 net.cpp:439] ctx_conv3 <- ctx_conv2/bn
I0711 20:08:13.004847 25943 net.cpp:413] ctx_conv3 -> ctx_conv3
I0711 20:08:13.005889 25943 net.cpp:148] Setting up ctx_conv3
I0711 20:08:13.005894 25943 net.cpp:155] Top shape: 4 64 80 80 (1638400)
I0711 20:08:13.005895 25943 net.cpp:163] Memory required for data: 873267200
I0711 20:08:13.005898 25943 layer_factory.hpp:77] Creating layer ctx_conv3/bn
I0711 20:08:13.005903 25943 net.cpp:98] Creating Layer ctx_conv3/bn
I0711 20:08:13.005904 25943 net.cpp:439] ctx_conv3/bn <- ctx_conv3
I0711 20:08:13.005908 25943 net.cpp:413] ctx_conv3/bn -> ctx_conv3/bn
I0711 20:08:13.006677 25943 net.cpp:148] Setting up ctx_conv3/bn
I0711 20:08:13.006682 25943 net.cpp:155] Top shape: 4 64 80 80 (1638400)
I0711 20:08:13.006685 25943 net.cpp:163] Memory required for data: 879820800
I0711 20:08:13.006690 25943 layer_factory.hpp:77] Creating layer ctx_conv3/relu
I0711 20:08:13.006692 25943 net.cpp:98] Creating Layer ctx_conv3/relu
I0711 20:08:13.006695 25943 net.cpp:439] ctx_conv3/relu <- ctx_conv3/bn
I0711 20:08:13.006696 25943 net.cpp:400] ctx_conv3/relu -> ctx_conv3/bn (in-place)
I0711 20:08:13.006700 25943 net.cpp:148] Setting up ctx_conv3/relu
I0711 20:08:13.006702 25943 net.cpp:155] Top shape: 4 64 80 80 (1638400)
I0711 20:08:13.006703 25943 net.cpp:163] Memory required for data: 886374400
I0711 20:08:13.006705 25943 layer_factory.hpp:77] Creating layer ctx_conv4
I0711 20:08:13.006709 25943 net.cpp:98] Creating Layer ctx_conv4
I0711 20:08:13.006711 25943 net.cpp:439] ctx_conv4 <- ctx_conv3/bn
I0711 20:08:13.006713 25943 net.cpp:413] ctx_conv4 -> ctx_conv4
I0711 20:08:13.007755 25943 net.cpp:148] Setting up ctx_conv4
I0711 20:08:13.007760 25943 net.cpp:155] Top shape: 4 64 80 80 (1638400)
I0711 20:08:13.007761 25943 net.cpp:163] Memory required for data: 892928000
I0711 20:08:13.007764 25943 layer_factory.hpp:77] Creating layer ctx_conv4/bn
I0711 20:08:13.007772 25943 net.cpp:98] Creating Layer ctx_conv4/bn
I0711 20:08:13.007774 25943 net.cpp:439] ctx_conv4/bn <- ctx_conv4
I0711 20:08:13.007777 25943 net.cpp:413] ctx_conv4/bn -> ctx_conv4/bn
I0711 20:08:13.008548 25943 net.cpp:148] Setting up ctx_conv4/bn
I0711 20:08:13.008553 25943 net.cpp:155] Top shape: 4 64 80 80 (1638400)
I0711 20:08:13.008555 25943 net.cpp:163] Memory required for data: 899481600
I0711 20:08:13.008559 25943 layer_factory.hpp:77] Creating layer ctx_conv4/relu
I0711 20:08:13.008563 25943 net.cpp:98] Creating Layer ctx_conv4/relu
I0711 20:08:13.008564 25943 net.cpp:439] ctx_conv4/relu <- ctx_conv4/bn
I0711 20:08:13.008566 25943 net.cpp:400] ctx_conv4/relu -> ctx_conv4/bn (in-place)
I0711 20:08:13.008569 25943 net.cpp:148] Setting up ctx_conv4/relu
I0711 20:08:13.008572 25943 net.cpp:155] Top shape: 4 64 80 80 (1638400)
I0711 20:08:13.008574 25943 net.cpp:163] Memory required for data: 906035200
I0711 20:08:13.008575 25943 layer_factory.hpp:77] Creating layer ctx_final
I0711 20:08:13.008579 25943 net.cpp:98] Creating Layer ctx_final
I0711 20:08:13.008580 25943 net.cpp:439] ctx_final <- ctx_conv4/bn
I0711 20:08:13.008582 25943 net.cpp:413] ctx_final -> ctx_final
I0711 20:08:13.008999 25943 net.cpp:148] Setting up ctx_final
I0711 20:08:13.009006 25943 net.cpp:155] Top shape: 4 8 80 80 (204800)
I0711 20:08:13.009007 25943 net.cpp:163] Memory required for data: 906854400
I0711 20:08:13.009011 25943 layer_factory.hpp:77] Creating layer ctx_final/relu
I0711 20:08:13.009012 25943 net.cpp:98] Creating Layer ctx_final/relu
I0711 20:08:13.009014 25943 net.cpp:439] ctx_final/relu <- ctx_final
I0711 20:08:13.009016 25943 net.cpp:400] ctx_final/relu -> ctx_final (in-place)
I0711 20:08:13.009019 25943 net.cpp:148] Setting up ctx_final/relu
I0711 20:08:13.009022 25943 net.cpp:155] Top shape: 4 8 80 80 (204800)
I0711 20:08:13.009023 25943 net.cpp:163] Memory required for data: 907673600
I0711 20:08:13.009026 25943 layer_factory.hpp:77] Creating layer out_deconv_final_up2
I0711 20:08:13.009028 25943 net.cpp:98] Creating Layer out_deconv_final_up2
I0711 20:08:13.009030 25943 net.cpp:439] out_deconv_final_up2 <- ctx_final
I0711 20:08:13.009032 25943 net.cpp:413] out_deconv_final_up2 -> out_deconv_final_up2
I0711 20:08:13.009279 25943 net.cpp:148] Setting up out_deconv_final_up2
I0711 20:08:13.009284 25943 net.cpp:155] Top shape: 4 8 160 160 (819200)
I0711 20:08:13.009285 25943 net.cpp:163] Memory required for data: 910950400
I0711 20:08:13.009287 25943 layer_factory.hpp:77] Creating layer out_deconv_final_up4
I0711 20:08:13.009290 25943 net.cpp:98] Creating Layer out_deconv_final_up4
I0711 20:08:13.009292 25943 net.cpp:439] out_deconv_final_up4 <- out_deconv_final_up2
I0711 20:08:13.009295 25943 net.cpp:413] out_deconv_final_up4 -> out_deconv_final_up4
I0711 20:08:13.009536 25943 net.cpp:148] Setting up out_deconv_final_up4
I0711 20:08:13.009541 25943 net.cpp:155] Top shape: 4 8 320 320 (3276800)
I0711 20:08:13.009542 25943 net.cpp:163] Memory required for data: 924057600
I0711 20:08:13.009546 25943 layer_factory.hpp:77] Creating layer out_deconv_final_up8
I0711 20:08:13.009547 25943 net.cpp:98] Creating Layer out_deconv_final_up8
I0711 20:08:13.009549 25943 net.cpp:439] out_deconv_final_up8 <- out_deconv_final_up4
I0711 20:08:13.009552 25943 net.cpp:413] out_deconv_final_up8 -> out_deconv_final_up8
I0711 20:08:13.009790 25943 net.cpp:148] Setting up out_deconv_final_up8
I0711 20:08:13.009794 25943 net.cpp:155] Top shape: 4 8 640 640 (13107200)
I0711 20:08:13.009796 25943 net.cpp:163] Memory required for data: 976486400
I0711 20:08:13.009799 25943 layer_factory.hpp:77] Creating layer out_deconv_final_up8_out_deconv_final_up8_0_split
I0711 20:08:13.009802 25943 net.cpp:98] Creating Layer out_deconv_final_up8_out_deconv_final_up8_0_split
I0711 20:08:13.009804 25943 net.cpp:439] out_deconv_final_up8_out_deconv_final_up8_0_split <- out_deconv_final_up8
I0711 20:08:13.009806 25943 net.cpp:413] out_deconv_final_up8_out_deconv_final_up8_0_split -> out_deconv_final_up8_out_deconv_final_up8_0_split_0
I0711 20:08:13.009814 25943 net.cpp:413] out_deconv_final_up8_out_deconv_final_up8_0_split -> out_deconv_final_up8_out_deconv_final_up8_0_split_1
I0711 20:08:13.009817 25943 net.cpp:413] out_deconv_final_up8_out_deconv_final_up8_0_split -> out_deconv_final_up8_out_deconv_final_up8_0_split_2
I0711 20:08:13.009876 25943 net.cpp:148] Setting up out_deconv_final_up8_out_deconv_final_up8_0_split
I0711 20:08:13.009881 25943 net.cpp:155] Top shape: 4 8 640 640 (13107200)
I0711 20:08:13.009882 25943 net.cpp:155] Top shape: 4 8 640 640 (13107200)
I0711 20:08:13.009884 25943 net.cpp:155] Top shape: 4 8 640 640 (13107200)
I0711 20:08:13.009886 25943 net.cpp:163] Memory required for data: 1133772800
I0711 20:08:13.009888 25943 layer_factory.hpp:77] Creating layer loss
I0711 20:08:13.009891 25943 net.cpp:98] Creating Layer loss
I0711 20:08:13.009894 25943 net.cpp:439] loss <- out_deconv_final_up8_out_deconv_final_up8_0_split_0
I0711 20:08:13.009896 25943 net.cpp:439] loss <- label_data_1_split_0
…
