…
I0710 16:41:51.893823 10618 upgrade_proto.cpp:66] Attempting to upgrade input file specified using deprecated input fields: ../trained/image_segmentation/cityscapes5_jsegnet21v2/initial/deploy.prototxt
I0710 16:41:51.893847 10618 upgrade_proto.cpp:69] Successfully upgraded file specified using deprecated input fields.
W0710 16:41:51.893849 10618 upgrade_proto.cpp:71] Note that future Caffe releases will only support input layers and not input fields.
I0710 16:41:51.894114 10618 net.cpp:56] Initializing net from parameters: 
name: "jsegnet21v2_deploy"
state {
  phase: TEST
}
layer {
  name: "input"
  type: "Input"
  top: "data"
  input_param {
    shape {
      dim: 1
      dim: 3
      dim: 512
      dim: 1024
    }
  }
}
layer {
  name: "data/bias"
  type: "Bias"
  bottom: "data"
  top: "data/bias"
  param {
    lr_mult: 0
    decay_mult: 0
  }
  bias_param {
    filler {
      type: "constant"
      value: -128
    }
  }
}
layer {
  name: "conv1a"
  type: "Convolution"
  bottom: "data/bias"
  top: "conv1a"
  param {
    lr_mult: 1
    decay_mult: 1
  }
  param {
    lr_mult: 2
    decay_mult: 0
  }
  convolution_param {
    num_output: 32
    bias_term: true
    pad: 2
    kernel_size: 5
    group: 1
    stride: 2
    weight_filler {
      type: "msra"
    }
    bias_filler {
      type: "constant"
      value: 0
    }
    dilation: 1
  }
}
layer {
  name: "conv1a/bn"
  type: "BatchNorm"
  bottom: "conv1a"
  top: "conv1a/bn"
  param {
    lr_mult: 1
    decay_mult: 1
  }
  param {
    lr_mult: 1
    decay_mult: 1
  }
  param {
    lr_mult: 0
    decay_mult: 0
  }
  param {
    lr_mult: 0
    decay_mult: 0
  }
  batch_norm_param {
    moving_average_fraction: 0.99
    eps: 0.0001
    scale_filler {
      type: "constant"
      value: 1
    }
    bias_filler {
      type: "constant"
      value: 0
    }
  }
}
layer {
  name: "conv1a/relu"
  type: "ReLU"
  bottom: "conv1a/bn"
  top: "conv1a/bn"
}
layer {
  name: "conv1b"
  type: "Convolution"
  bottom: "conv1a/bn"
  top: "conv1b"
  param {
    lr_mult: 1
    decay_mult: 1
  }
  param {
    lr_mult: 2
    decay_mult: 0
  }
  convolution_param {
    num_output: 32
    bias_term: true
    pad: 1
    kernel_size: 3
    group: 4
    stride: 1
    weight_filler {
      type: "msra"
    }
    bias_filler {
      type: "constant"
      value: 0
    }
    dilation: 1
  }
}
layer {
  name: "conv1b/bn"
  type: "BatchNorm"
  bottom: "conv1b"
  top: "conv1b/bn"
  param {
    lr_mult: 1
    decay_mult: 1
  }
  param {
    lr_mult: 1
    decay_mult: 1
  }
  param {
    lr_mult: 0
    decay_mult: 0
  }
  param {
    lr_mult: 0
    decay_mult: 0
  }
  batch_norm_param {
    moving_average_fraction: 0.99
    eps: 0.0001
    scale_filler {
      type: "constant"
      value: 1
    }
    bias_filler {
      type: "constant"
      value: 0
    }
  }
}
layer {
  name: "conv1b/relu"
  type: "ReLU"
  bottom: "conv1b/bn"
  top: "conv1b/bn"
}
layer {
  name: "pool1"
  type: "Pooling"
  bottom: "conv1b/bn"
  top: "pool1"
  pooling_param {
    pool: MAX
    kernel_size: 2
    stride: 2
  }
}
layer {
  name: "res2a_branch2a"
  type: "Convolution"
  bottom: "pool1"
  top: "res2a_branch2a"
  param {
    lr_mult: 1
    decay_mult: 1
  }
  param {
    lr_mult: 2
    decay_mult: 0
  }
  convolution_param {
    num_output: 64
    bias_term: true
    pad: 1
    kernel_size: 3
    group: 1
    stride: 1
    weight_filler {
      type: "msra"
    }
    bias_filler {
      type: "constant"
      value: 0
    }
    dilation: 1
  }
}
layer {
  name: "res2a_branch2a/bn"
  type: "BatchNorm"
  bottom: "res2a_branch2a"
  top: "res2a_branch2a/bn"
  param {
    lr_mult: 1
    decay_mult: 1
  }
  param {
    lr_mult: 1
    decay_mult: 1
  }
  param {
    lr_mult: 0
    decay_mult: 0
  }
  param {
    lr_mult: 0
    decay_mult: 0
  }
  batch_norm_param {
    moving_average_fraction: 0.99
    eps: 0.0001
    scale_filler {
      type: "constant"
      value: 1
    }
    bias_filler {
      type: "constant"
      value: 0
    }
  }
}
layer {
  name: "res2a_branch2a/relu"
  type: "ReLU"
  bottom: "res2a_branch2a/bn"
  top: "res2a_branch2a/bn"
}
layer {
  name: "res2a_branch2b"
  type: "Convolution"
  bottom: "res2a_branch2a/bn"
  top: "res2a_branch2b"
  param {
    lr_mult: 1
    decay_mult: 1
  }
  param {
    lr_mult: 2
    decay_mult: 0
  }
  convolution_param {
    num_output: 64
    bias_term: true
    pad: 1
    kernel_size: 3
    group: 4
    stride: 1
    weight_filler {
      type: "msra"
    }
    bias_filler {
      type: "constant"
      value: 0
    }
    dilation: 1
  }
}
layer {
  name: "res2a_branch2b/bn"
  type: "BatchNorm"
  bottom: "res2a_branch2b"
  top: "res2a_branch2b/bn"
  param {
    lr_mult: 1
    decay_mult: 1
  }
  param {
    lr_mult: 1
    decay_mult: 1
  }
  param {
    lr_mult: 0
    decay_mult: 0
  }
  param {
    lr_mult: 0
    decay_mult: 0
  }
  batch_norm_param {
    moving_average_fraction: 0.99
    eps: 0.0001
    scale_filler {
      type: "constant"
      value: 1
    }
    bias_filler {
      type: "constant"
      value: 0
    }
  }
}
layer {
  name: "res2a_branch2b/relu"
  type: "ReLU"
  bottom: "res2a_branch2b/bn"
  top: "res2a_branch2b/bn"
}
layer {
  name: "pool2"
  type: "Pooling"
  bottom: "res2a_branch2b/bn"
  top: "pool2"
  pooling_param {
    pool: MAX
    kernel_size: 2
    stride: 2
  }
}
layer {
  name: "res3a_branch2a"
  type: "Convolution"
  bottom: "pool2"
  top: "res3a_branch2a"
  param {
    lr_mult: 1
    decay_mult: 1
  }
  param {
    lr_mult: 2
    decay_mult: 0
  }
  convolution_param {
    num_output: 128
    bias_term: true
    pad: 1
    kernel_size: 3
    group: 1
    stride: 1
    weight_filler {
      type: "msra"
    }
    bias_filler {
      type: "constant"
      value: 0
    }
    dilation: 1
  }
}
layer {
  name: "res3a_branch2a/bn"
  type: "BatchNorm"
  bottom: "res3a_branch2a"
  top: "res3a_branch2a/bn"
  param {
    lr_mult: 1
    decay_mult: 1
  }
  param {
    lr_mult: 1
    decay_mult: 1
  }
  param {
    lr_mult: 0
    decay_mult: 0
  }
  param {
    lr_mult: 0
    decay_mult: 0
  }
  batch_norm_param {
    moving_average_fraction: 0.99
    eps: 0.0001
    scale_filler {
      type: "constant"
      value: 1
    }
    bias_filler {
      type: "constant"
      value: 0
    }
  }
}
layer {
  name: "res3a_branch2a/relu"
  type: "ReLU"
  bottom: "res3a_branch2a/bn"
  top: "res3a_branch2a/bn"
}
layer {
  name: "res3a_branch2b"
  type: "Convolution"
  bottom: "res3a_branch2a/bn"
  top: "res3a_branch2b"
  param {
    lr_mult: 1
    decay_mult: 1
  }
  param {
    lr_mult: 2
    decay_mult: 0
  }
  convolution_param {
    num_output: 128
    bias_term: true
    pad: 1
    kernel_size: 3
    group: 4
    stride: 1
    weight_filler {
      type: "msra"
    }
    bias_filler {
      type: "constant"
      value: 0
    }
    dilation: 1
  }
}
layer {
  name: "res3a_branch2b/bn"
  type: "BatchNorm"
  bottom: "res3a_branch2b"
  top: "res3a_branch2b/bn"
  param {
    lr_mult: 1
    decay_mult: 1
  }
  param {
    lr_mult: 1
    decay_mult: 1
  }
  param {
    lr_mult: 0
    decay_mult: 0
  }
  param {
    lr_mult: 0
    decay_mult: 0
  }
  batch_norm_param {
    moving_average_fraction: 0.99
    eps: 0.0001
    scale_filler {
      type: "constant"
      value: 1
    }
    bias_filler {
      type: "constant"
      value: 0
    }
  }
}
layer {
  name: "res3a_branch2b/relu"
  type: "ReLU"
  bottom: "res3a_branch2b/bn"
  top: "res3a_branch2b/bn"
}
layer {
  name: "pool3"
  type: "Pooling"
  bottom: "res3a_branch2b/bn"
  top: "pool3"
  pooling_param {
    pool: MAX
    kernel_size: 2
    stride: 2
  }
}
layer {
  name: "res4a_branch2a"
  type: "Convolution"
  bottom: "pool3"
  top: "res4a_branch2a"
  param {
    lr_mult: 1
    decay_mult: 1
  }
  param {
    lr_mult: 2
    decay_mult: 0
  }
  convolution_param {
    num_output: 256
    bias_term: true
    pad: 1
    kernel_size: 3
    group: 1
    stride: 1
    weight_filler {
      type: "msra"
    }
    bias_filler {
      type: "constant"
      value: 0
    }
    dilation: 1
  }
}
layer {
  name: "res4a_branch2a/bn"
  type: "BatchNorm"
  bottom: "res4a_branch2a"
  top: "res4a_branch2a/bn"
  param {
    lr_mult: 1
    decay_mult: 1
  }
  param {
    lr_mult: 1
    decay_mult: 1
  }
  param {
    lr_mult: 0
    decay_mult: 0
  }
  param {
    lr_mult: 0
    decay_mult: 0
  }
  batch_norm_param {
    moving_average_fraction: 0.99
    eps: 0.0001
    scale_filler {
      type: "constant"
      value: 1
    }
    bias_filler {
      type: "constant"
      value: 0
    }
  }
}
layer {
  name: "res4a_branch2a/relu"
  type: "ReLU"
  bottom: "res4a_branch2a/bn"
  top: "res4a_branch2a/bn"
}
layer {
  name: "res4a_branch2b"
  type: "Convolution"
  bottom: "res4a_branch2a/bn"
  top: "res4a_branch2b"
  param {
    lr_mult: 1
    decay_mult: 1
  }
  param {
    lr_mult: 2
    decay_mult: 0
  }
  convolution_param {
    num_output: 256
    bias_term: true
    pad: 1
    kernel_size: 3
    group: 4
    stride: 1
    weight_filler {
      type: "msra"
    }
    bias_filler {
      type: "constant"
      value: 0
    }
    dilation: 1
  }
}
layer {
  name: "res4a_branch2b/bn"
  type: "BatchNorm"
  bottom: "res4a_branch2b"
  top: "res4a_branch2b/bn"
  param {
    lr_mult: 1
    decay_mult: 1
  }
  param {
    lr_mult: 1
    decay_mult: 1
  }
  param {
    lr_mult: 0
    decay_mult: 0
  }
  param {
    lr_mult: 0
    decay_mult: 0
  }
  batch_norm_param {
    moving_average_fraction: 0.99
    eps: 0.0001
    scale_filler {
      type: "constant"
      value: 1
    }
    bias_filler {
      type: "constant"
      value: 0
    }
  }
}
layer {
  name: "res4a_branch2b/relu"
  type: "ReLU"
  bottom: "res4a_branch2b/bn"
  top: "res4a_branch2b/bn"
}
layer {
  name: "pool4"
  type: "Pooling"
  bottom: "res4a_branch2b/bn"
  top: "pool4"
  pooling_param {
    pool: MAX
    kernel_size: 1
    stride: 1
  }
}
layer {
  name: "res5a_branch2a"
  type: "Convolution"
  bottom: "pool4"
  top: "res5a_branch2a"
  param {
    lr_mult: 1
    decay_mult: 1
  }
  param {
    lr_mult: 2
    decay_mult: 0
  }
  convolution_param {
    num_output: 512
    bias_term: true
    pad: 2
    kernel_size: 3
    group: 1
    stride: 1
    weight_filler {
      type: "msra"
    }
    bias_filler {
      type: "constant"
      value: 0
    }
    dilation: 2
  }
}
layer {
  name: "res5a_branch2a/bn"
  type: "BatchNorm"
  bottom: "res5a_branch2a"
  top: "res5a_branch2a/bn"
  param {
    lr_mult: 1
    decay_mult: 1
  }
  param {
    lr_mult: 1
    decay_mult: 1
  }
  param {
    lr_mult: 0
    decay_mult: 0
  }
  param {
    lr_mult: 0
    decay_mult: 0
  }
  batch_norm_param {
    moving_average_fraction: 0.99
    eps: 0.0001
    scale_filler {
      type: "constant"
      value: 1
    }
    bias_filler {
      type: "constant"
      value: 0
    }
  }
}
layer {
  name: "res5a_branch2a/relu"
  type: "ReLU"
  bottom: "res5a_branch2a/bn"
  top: "res5a_branch2a/bn"
}
layer {
  name: "res5a_branch2b"
  type: "Convolution"
  bottom: "res5a_branch2a/bn"
  top: "res5a_branch2b"
  param {
    lr_mult: 1
    decay_mult: 1
  }
  param {
    lr_mult: 2
    decay_mult: 0
  }
  convolution_param {
    num_output: 512
    bias_term: true
    pad: 2
    kernel_size: 3
    group: 4
    stride: 1
    weight_filler {
      type: "msra"
    }
    bias_filler {
      type: "constant"
      value: 0
    }
    dilation: 2
  }
}
layer {
  name: "res5a_branch2b/bn"
  type: "BatchNorm"
  bottom: "res5a_branch2b"
  top: "res5a_branch2b/bn"
  param {
    lr_mult: 1
    decay_mult: 1
  }
  param {
    lr_mult: 1
    decay_mult: 1
  }
  param {
    lr_mult: 0
    decay_mult: 0
  }
  param {
    lr_mult: 0
    decay_mult: 0
  }
  batch_norm_param {
    moving_average_fraction: 0.99
    eps: 0.0001
    scale_filler {
      type: "constant"
      value: 1
    }
    bias_filler {
      type: "constant"
      value: 0
    }
  }
}
layer {
  name: "res5a_branch2b/relu"
  type: "ReLU"
  bottom: "res5a_branch2b/bn"
  top: "res5a_branch2b/bn"
}
layer {
  name: "out5a"
  type: "Convolution"
  bottom: "res5a_branch2b/bn"
  top: "out5a"
  param {
    lr_mult: 1
    decay_mult: 1
  }
  param {
    lr_mult: 2
    decay_mult: 0
  }
  convolution_param {
    num_output: 64
    bias_term: true
    pad: 4
    kernel_size: 3
    group: 2
    stride: 1
    weight_filler {
      type: "msra"
    }
    bias_filler {
      type: "constant"
      value: 0
    }
    dilation: 4
  }
}
layer {
  name: "out5a/bn"
  type: "BatchNorm"
  bottom: "out5a"
  top: "out5a/bn"
  param {
    lr_mult: 1
    decay_mult: 1
  }
  param {
    lr_mult: 1
    decay_mult: 1
  }
  param {
    lr_mult: 0
    decay_mult: 0
  }
  param {
    lr_mult: 0
    decay_mult: 0
  }
  batch_norm_param {
    moving_average_fraction: 0.99
    eps: 0.0001
    scale_filler {
      type: "constant"
      value: 1
    }
    bias_filler {
      type: "constant"
      value: 0
    }
  }
}
layer {
  name: "out5a/relu"
  type: "ReLU"
  bottom: "out5a/bn"
  top: "out5a/bn"
}
layer {
  name: "out5a_up2"
  type: "Deconvolution"
  bottom: "out5a/bn"
  top: "out5a_up2"
  param {
    lr_mult: 0
    decay_mult: 0
  }
  convolution_param {
    num_output: 64
    bias_term: false
    pad: 1
    kernel_size: 4
    group: 64
    stride: 2
    weight_filler {
      type: "bilinear"
    }
  }
}
layer {
  name: "out3a"
  type: "Convolution"
  bottom: "res3a_branch2b/bn"
  top: "out3a"
  param {
    lr_mult: 1
    decay_mult: 1
  }
  param {
    lr_mult: 2
    decay_mult: 0
  }
  convolution_param {
    num_output: 64
    bias_term: true
    pad: 1
    kernel_size: 3
    group: 2
    stride: 1
    weight_filler {
      type: "msra"
    }
    bias_filler {
      type: "constant"
      value: 0
    }
    dilation: 1
  }
}
layer {
  name: "out3a/bn"
  type: "BatchNorm"
  bottom: "out3a"
  top: "out3a/bn"
  param {
    lr_mult: 1
    decay_mult: 1
  }
  param {
    lr_mult: 1
    decay_mult: 1
  }
  param {
    lr_mult: 0
    decay_mult: 0
  }
  param {
    lr_mult: 0
    decay_mult: 0
  }
  batch_norm_param {
    moving_average_fraction: 0.99
    eps: 0.0001
    scale_filler {
      type: "constant"
      value: 1
    }
    bias_filler {
      type: "constant"
      value: 0
    }
  }
}
layer {
  name: "out3a/relu"
  type: "ReLU"
  bottom: "out3a/bn"
  top: "out3a/bn"
}
layer {
  name: "out3_out5_combined"
  type: "Eltwise"
  bottom: "out5a_up2"
  bottom: "out3a/bn"
  top: "out3_out5_combined"
}
layer {
  name: "ctx_conv1"
  type: "Convolution"
  bottom: "out3_out5_combined"
  top: "ctx_conv1"
  param {
    lr_mult: 1
    decay_mult: 1
  }
  param {
    lr_mult: 2
    decay_mult: 0
  }
  convolution_param {
    num_output: 64
    bias_term: true
    pad: 1
    kernel_size: 3
    group: 1
    stride: 1
    weight_filler {
      type: "msra"
    }
    bias_filler {
      type: "constant"
      value: 0
    }
    dilation: 1
  }
}
layer {
  name: "ctx_conv1/bn"
  type: "BatchNorm"
  bottom: "ctx_conv1"
  top: "ctx_conv1/bn"
  param {
    lr_mult: 1
    decay_mult: 1
  }
  param {
    lr_mult: 1
    decay_mult: 1
  }
  param {
    lr_mult: 0
    decay_mult: 0
  }
  param {
    lr_mult: 0
    decay_mult: 0
  }
  batch_norm_param {
    moving_average_fraction: 0.99
    eps: 0.0001
    scale_filler {
      type: "constant"
      value: 1
    }
    bias_filler {
      type: "constant"
      value: 0
    }
  }
}
layer {
  name: "ctx_conv1/relu"
  type: "ReLU"
  bottom: "ctx_conv1/bn"
  top: "ctx_conv1/bn"
}
layer {
  name: "ctx_conv2"
  type: "Convolution"
  bottom: "ctx_conv1/bn"
  top: "ctx_conv2"
  param {
    lr_mult: 1
    decay_mult: 1
  }
  param {
    lr_mult: 2
    decay_mult: 0
  }
  convolution_param {
    num_output: 64
    bias_term: true
    pad: 4
    kernel_size: 3
    group: 1
    stride: 1
    weight_filler {
      type: "msra"
    }
    bias_filler {
      type: "constant"
      value: 0
    }
    dilation: 4
  }
}
layer {
  name: "ctx_conv2/bn"
  type: "BatchNorm"
  bottom: "ctx_conv2"
  top: "ctx_conv2/bn"
  param {
    lr_mult: 1
    decay_mult: 1
  }
  param {
    lr_mult: 1
    decay_mult: 1
  }
  param {
    lr_mult: 0
    decay_mult: 0
  }
  param {
    lr_mult: 0
    decay_mult: 0
  }
  batch_norm_param {
    moving_average_fraction: 0.99
    eps: 0.0001
    scale_filler {
      type: "constant"
      value: 1
    }
    bias_filler {
      type: "constant"
      value: 0
    }
  }
}
layer {
  name: "ctx_conv2/relu"
  type: "ReLU"
  bottom: "ctx_conv2/bn"
  top: "ctx_conv2/bn"
}
layer {
  name: "ctx_conv3"
  type: "Convolution"
  bottom: "ctx_conv2/bn"
  top: "ctx_conv3"
  param {
    lr_mult: 1
    decay_mult: 1
  }
  param {
    lr_mult: 2
    decay_mult: 0
  }
  convolution_param {
    num_output: 64
    bias_term: true
    pad: 4
    kernel_size: 3
    group: 1
    stride: 1
    weight_filler {
      type: "msra"
    }
    bias_filler {
      type: "constant"
      value: 0
    }
    dilation: 4
  }
}
layer {
  name: "ctx_conv3/bn"
  type: "BatchNorm"
  bottom: "ctx_conv3"
  top: "ctx_conv3/bn"
  param {
    lr_mult: 1
    decay_mult: 1
  }
  param {
    lr_mult: 1
    decay_mult: 1
  }
  param {
    lr_mult: 0
    decay_mult: 0
  }
  param {
    lr_mult: 0
    decay_mult: 0
  }
  batch_norm_param {
    moving_average_fraction: 0.99
    eps: 0.0001
    scale_filler {
      type: "constant"
      value: 1
    }
    bias_filler {
      type: "constant"
      value: 0
    }
  }
}
layer {
  name: "ctx_conv3/relu"
  type: "ReLU"
  bottom: "ctx_conv3/bn"
  top: "ctx_conv3/bn"
}
layer {
  name: "ctx_conv4"
  type: "Convolution"
  bottom: "ctx_conv3/bn"
  top: "ctx_conv4"
  param {
    lr_mult: 1
    decay_mult: 1
  }
  param {
    lr_mult: 2
    decay_mult: 0
  }
  convolution_param {
    num_output: 64
    bias_term: true
    pad: 4
    kernel_size: 3
    group: 1
    stride: 1
    weight_filler {
      type: "msra"
    }
    bias_filler {
      type: "constant"
      value: 0
    }
    dilation: 4
  }
}
layer {
  name: "ctx_conv4/bn"
  type: "BatchNorm"
  bottom: "ctx_conv4"
  top: "ctx_conv4/bn"
  param {
    lr_mult: 1
    decay_mult: 1
  }
  param {
    lr_mult: 1
    decay_mult: 1
  }
  param {
    lr_mult: 0
    decay_mult: 0
  }
  param {
    lr_mult: 0
    decay_mult: 0
  }
  batch_norm_param {
    moving_average_fraction: 0.99
    eps: 0.0001
    scale_filler {
      type: "constant"
      value: 1
    }
    bias_filler {
      type: "constant"
      value: 0
    }
  }
}
layer {
  name: "ctx_conv4/relu"
  type: "ReLU"
  bottom: "ctx_conv4/bn"
  top: "ctx_conv4/bn"
}
layer {
  name: "ctx_final"
  type: "Convolution"
  bottom: "ctx_conv4/bn"
  top: "ctx_final"
  param {
    lr_mult: 1
    decay_mult: 1
  }
  param {
    lr_mult: 2
    decay_mult: 0
  }
  convolution_param {
    num_output: 8
    bias_term: true
    pad: 1
    kernel_size: 3
    kernel_size: 3
    group: 1
    stride: 1
    weight_filler {
      type: "msra"
    }
    bias_filler {
      type: "constant"
      value: 0
    }
    dilation: 1
  }
}
layer {
  name: "ctx_final/relu"
  type: "ReLU"
  bottom: "ctx_final"
  top: "ctx_final"
}
layer {
  name: "out_deconv_final_up2"
  type: "Deconvolution"
  bottom: "ctx_final"
  top: "out_deconv_final_up2"
  param {
    lr_mult: 0
    decay_mult: 0
  }
  convolution_param {
    num_output: 8
    bias_term: false
    pad: 1
    kernel_size: 4
    group: 8
    stride: 2
    weight_filler {
      type: "bilinear"
    }
  }
}
layer {
  name: "out_deconv_final_up4"
  type: "Deconvolution"
  bottom: "out_deconv_final_up2"
  top: "out_deconv_final_up4"
  param {
    lr_mult: 0
    decay_mult: 0
  }
  convolution_param {
    num_output: 8
    bias_term: false
    pad: 1
    kernel_size: 4
    group: 8
    stride: 2
    weight_filler {
      type: "bilinear"
    }
  }
}
layer {
  name: "out_deconv_final_up8"
  type: "Deconvolution"
  bottom: "out_deconv_final_up4"
  top: "out_deconv_final_up8"
  param {
    lr_mult: 0
    decay_mult: 0
  }
  convolution_param {
    num_output: 8
    bias_term: false
    pad: 1
    kernel_size: 4
    group: 8
    stride: 2
    weight_filler {
      type: "bilinear"
    }
  }
}
layer {
  name: "prob"
  type: "Softmax"
  bottom: "out_deconv_final_up8"
  top: "prob"
}
I0710 16:41:51.894214 10618 layer_factory.hpp:77] Creating layer input
I0710 16:41:51.894223 10618 net.cpp:98] Creating Layer input
I0710 16:41:51.894225 10618 net.cpp:413] input -> data
I0710 16:41:51.895153 10618 net.cpp:148] Setting up input
I0710 16:41:51.895164 10618 net.cpp:155] Top shape: 1 3 512 1024 (1572864)
I0710 16:41:51.895167 10618 net.cpp:163] Memory required for data: 6291456
I0710 16:41:51.895169 10618 layer_factory.hpp:77] Creating layer data/bias
I0710 16:41:51.895177 10618 net.cpp:98] Creating Layer data/bias
I0710 16:41:51.895180 10618 net.cpp:439] data/bias <- data
I0710 16:41:51.895184 10618 net.cpp:413] data/bias -> data/bias
I0710 16:41:51.896297 10618 net.cpp:148] Setting up data/bias
I0710 16:41:51.896306 10618 net.cpp:155] Top shape: 1 3 512 1024 (1572864)
I0710 16:41:51.896308 10618 net.cpp:163] Memory required for data: 12582912
I0710 16:41:51.896315 10618 layer_factory.hpp:77] Creating layer conv1a
I0710 16:41:51.896322 10618 net.cpp:98] Creating Layer conv1a
I0710 16:41:51.896325 10618 net.cpp:439] conv1a <- data/bias
I0710 16:41:51.896328 10618 net.cpp:413] conv1a -> conv1a
I0710 16:41:51.898619 10618 net.cpp:148] Setting up conv1a
I0710 16:41:51.898633 10618 net.cpp:155] Top shape: 1 32 256 512 (4194304)
I0710 16:41:51.898634 10618 net.cpp:163] Memory required for data: 29360128
I0710 16:41:51.898641 10618 layer_factory.hpp:77] Creating layer conv1a/bn
I0710 16:41:51.898648 10618 net.cpp:98] Creating Layer conv1a/bn
I0710 16:41:51.898650 10618 net.cpp:439] conv1a/bn <- conv1a
I0710 16:41:51.898653 10618 net.cpp:413] conv1a/bn -> conv1a/bn
I0710 16:41:51.899380 10618 net.cpp:148] Setting up conv1a/bn
I0710 16:41:51.899386 10618 net.cpp:155] Top shape: 1 32 256 512 (4194304)
I0710 16:41:51.899387 10618 net.cpp:163] Memory required for data: 46137344
I0710 16:41:51.899394 10618 layer_factory.hpp:77] Creating layer conv1a/relu
I0710 16:41:51.899397 10618 net.cpp:98] Creating Layer conv1a/relu
I0710 16:41:51.899399 10618 net.cpp:439] conv1a/relu <- conv1a/bn
I0710 16:41:51.899401 10618 net.cpp:400] conv1a/relu -> conv1a/bn (in-place)
I0710 16:41:51.899410 10618 net.cpp:148] Setting up conv1a/relu
I0710 16:41:51.899412 10618 net.cpp:155] Top shape: 1 32 256 512 (4194304)
I0710 16:41:51.899415 10618 net.cpp:163] Memory required for data: 62914560
I0710 16:41:51.899415 10618 layer_factory.hpp:77] Creating layer conv1b
I0710 16:41:51.899420 10618 net.cpp:98] Creating Layer conv1b
I0710 16:41:51.899421 10618 net.cpp:439] conv1b <- conv1a/bn
I0710 16:41:51.899425 10618 net.cpp:413] conv1b -> conv1b
I0710 16:41:51.899786 10618 net.cpp:148] Setting up conv1b
I0710 16:41:51.899791 10618 net.cpp:155] Top shape: 1 32 256 512 (4194304)
I0710 16:41:51.899793 10618 net.cpp:163] Memory required for data: 79691776
I0710 16:41:51.899797 10618 layer_factory.hpp:77] Creating layer conv1b/bn
I0710 16:41:51.899801 10618 net.cpp:98] Creating Layer conv1b/bn
I0710 16:41:51.899802 10618 net.cpp:439] conv1b/bn <- conv1b
I0710 16:41:51.899807 10618 net.cpp:413] conv1b/bn -> conv1b/bn
I0710 16:41:51.900498 10618 net.cpp:148] Setting up conv1b/bn
I0710 16:41:51.900503 10618 net.cpp:155] Top shape: 1 32 256 512 (4194304)
I0710 16:41:51.900506 10618 net.cpp:163] Memory required for data: 96468992
I0710 16:41:51.900511 10618 layer_factory.hpp:77] Creating layer conv1b/relu
I0710 16:41:51.900513 10618 net.cpp:98] Creating Layer conv1b/relu
I0710 16:41:51.900516 10618 net.cpp:439] conv1b/relu <- conv1b/bn
I0710 16:41:51.900517 10618 net.cpp:400] conv1b/relu -> conv1b/bn (in-place)
I0710 16:41:51.900521 10618 net.cpp:148] Setting up conv1b/relu
I0710 16:41:51.900522 10618 net.cpp:155] Top shape: 1 32 256 512 (4194304)
I0710 16:41:51.900524 10618 net.cpp:163] Memory required for data: 113246208
I0710 16:41:51.900526 10618 layer_factory.hpp:77] Creating layer pool1
I0710 16:41:51.900529 10618 net.cpp:98] Creating Layer pool1
I0710 16:41:51.900530 10618 net.cpp:439] pool1 <- conv1b/bn
I0710 16:41:51.900532 10618 net.cpp:413] pool1 -> pool1
I0710 16:41:51.900566 10618 net.cpp:148] Setting up pool1
I0710 16:41:51.900570 10618 net.cpp:155] Top shape: 1 32 128 256 (1048576)
I0710 16:41:51.900571 10618 net.cpp:163] Memory required for data: 117440512
I0710 16:41:51.900573 10618 layer_factory.hpp:77] Creating layer res2a_branch2a
I0710 16:41:51.900578 10618 net.cpp:98] Creating Layer res2a_branch2a
I0710 16:41:51.900578 10618 net.cpp:439] res2a_branch2a <- pool1
I0710 16:41:51.900581 10618 net.cpp:413] res2a_branch2a -> res2a_branch2a
I0710 16:41:51.902070 10618 net.cpp:148] Setting up res2a_branch2a
I0710 16:41:51.902078 10618 net.cpp:155] Top shape: 1 64 128 256 (2097152)
I0710 16:41:51.902081 10618 net.cpp:163] Memory required for data: 125829120
I0710 16:41:51.902086 10618 layer_factory.hpp:77] Creating layer res2a_branch2a/bn
I0710 16:41:51.902089 10618 net.cpp:98] Creating Layer res2a_branch2a/bn
I0710 16:41:51.902091 10618 net.cpp:439] res2a_branch2a/bn <- res2a_branch2a
I0710 16:41:51.902093 10618 net.cpp:413] res2a_branch2a/bn -> res2a_branch2a/bn
I0710 16:41:51.902756 10618 net.cpp:148] Setting up res2a_branch2a/bn
I0710 16:41:51.902761 10618 net.cpp:155] Top shape: 1 64 128 256 (2097152)
I0710 16:41:51.902763 10618 net.cpp:163] Memory required for data: 134217728
I0710 16:41:51.902768 10618 layer_factory.hpp:77] Creating layer res2a_branch2a/relu
I0710 16:41:51.902771 10618 net.cpp:98] Creating Layer res2a_branch2a/relu
I0710 16:41:51.902772 10618 net.cpp:439] res2a_branch2a/relu <- res2a_branch2a/bn
I0710 16:41:51.902776 10618 net.cpp:400] res2a_branch2a/relu -> res2a_branch2a/bn (in-place)
I0710 16:41:51.902778 10618 net.cpp:148] Setting up res2a_branch2a/relu
I0710 16:41:51.902781 10618 net.cpp:155] Top shape: 1 64 128 256 (2097152)
I0710 16:41:51.902782 10618 net.cpp:163] Memory required for data: 142606336
I0710 16:41:51.902783 10618 layer_factory.hpp:77] Creating layer res2a_branch2b
I0710 16:41:51.902787 10618 net.cpp:98] Creating Layer res2a_branch2b
I0710 16:41:51.902789 10618 net.cpp:439] res2a_branch2b <- res2a_branch2a/bn
I0710 16:41:51.902791 10618 net.cpp:413] res2a_branch2b -> res2a_branch2b
I0710 16:41:51.904117 10618 net.cpp:148] Setting up res2a_branch2b
I0710 16:41:51.904125 10618 net.cpp:155] Top shape: 1 64 128 256 (2097152)
I0710 16:41:51.904127 10618 net.cpp:163] Memory required for data: 150994944
I0710 16:41:51.904130 10618 layer_factory.hpp:77] Creating layer res2a_branch2b/bn
I0710 16:41:51.904135 10618 net.cpp:98] Creating Layer res2a_branch2b/bn
I0710 16:41:51.904137 10618 net.cpp:439] res2a_branch2b/bn <- res2a_branch2b
I0710 16:41:51.904141 10618 net.cpp:413] res2a_branch2b/bn -> res2a_branch2b/bn
I0710 16:41:51.904826 10618 net.cpp:148] Setting up res2a_branch2b/bn
I0710 16:41:51.904835 10618 net.cpp:155] Top shape: 1 64 128 256 (2097152)
I0710 16:41:51.904837 10618 net.cpp:163] Memory required for data: 159383552
I0710 16:41:51.904842 10618 layer_factory.hpp:77] Creating layer res2a_branch2b/relu
I0710 16:41:51.904845 10618 net.cpp:98] Creating Layer res2a_branch2b/relu
I0710 16:41:51.904847 10618 net.cpp:439] res2a_branch2b/relu <- res2a_branch2b/bn
I0710 16:41:51.904850 10618 net.cpp:400] res2a_branch2b/relu -> res2a_branch2b/bn (in-place)
I0710 16:41:51.904852 10618 net.cpp:148] Setting up res2a_branch2b/relu
I0710 16:41:51.904856 10618 net.cpp:155] Top shape: 1 64 128 256 (2097152)
I0710 16:41:51.904858 10618 net.cpp:163] Memory required for data: 167772160
I0710 16:41:51.904860 10618 layer_factory.hpp:77] Creating layer pool2
I0710 16:41:51.904863 10618 net.cpp:98] Creating Layer pool2
I0710 16:41:51.904865 10618 net.cpp:439] pool2 <- res2a_branch2b/bn
I0710 16:41:51.904866 10618 net.cpp:413] pool2 -> pool2
I0710 16:41:51.904899 10618 net.cpp:148] Setting up pool2
I0710 16:41:51.904902 10618 net.cpp:155] Top shape: 1 64 64 128 (524288)
I0710 16:41:51.904904 10618 net.cpp:163] Memory required for data: 169869312
I0710 16:41:51.904906 10618 layer_factory.hpp:77] Creating layer res3a_branch2a
I0710 16:41:51.904911 10618 net.cpp:98] Creating Layer res3a_branch2a
I0710 16:41:51.904912 10618 net.cpp:439] res3a_branch2a <- pool2
I0710 16:41:51.904916 10618 net.cpp:413] res3a_branch2a -> res3a_branch2a
I0710 16:41:51.907542 10618 net.cpp:148] Setting up res3a_branch2a
I0710 16:41:51.907553 10618 net.cpp:155] Top shape: 1 128 64 128 (1048576)
I0710 16:41:51.907557 10618 net.cpp:163] Memory required for data: 174063616
I0710 16:41:51.907560 10618 layer_factory.hpp:77] Creating layer res3a_branch2a/bn
I0710 16:41:51.907565 10618 net.cpp:98] Creating Layer res3a_branch2a/bn
I0710 16:41:51.907567 10618 net.cpp:439] res3a_branch2a/bn <- res3a_branch2a
I0710 16:41:51.907572 10618 net.cpp:413] res3a_branch2a/bn -> res3a_branch2a/bn
I0710 16:41:51.908186 10618 net.cpp:148] Setting up res3a_branch2a/bn
I0710 16:41:51.908192 10618 net.cpp:155] Top shape: 1 128 64 128 (1048576)
I0710 16:41:51.908195 10618 net.cpp:163] Memory required for data: 178257920
I0710 16:41:51.908200 10618 layer_factory.hpp:77] Creating layer res3a_branch2a/relu
I0710 16:41:51.908203 10618 net.cpp:98] Creating Layer res3a_branch2a/relu
I0710 16:41:51.908205 10618 net.cpp:439] res3a_branch2a/relu <- res3a_branch2a/bn
I0710 16:41:51.908207 10618 net.cpp:400] res3a_branch2a/relu -> res3a_branch2a/bn (in-place)
I0710 16:41:51.908213 10618 net.cpp:148] Setting up res3a_branch2a/relu
I0710 16:41:51.908215 10618 net.cpp:155] Top shape: 1 128 64 128 (1048576)
I0710 16:41:51.908217 10618 net.cpp:163] Memory required for data: 182452224
I0710 16:41:51.908218 10618 layer_factory.hpp:77] Creating layer res3a_branch2b
I0710 16:41:51.908222 10618 net.cpp:98] Creating Layer res3a_branch2b
I0710 16:41:51.908224 10618 net.cpp:439] res3a_branch2b <- res3a_branch2a/bn
I0710 16:41:51.908226 10618 net.cpp:413] res3a_branch2b -> res3a_branch2b
I0710 16:41:51.909235 10618 net.cpp:148] Setting up res3a_branch2b
I0710 16:41:51.909240 10618 net.cpp:155] Top shape: 1 128 64 128 (1048576)
I0710 16:41:51.909242 10618 net.cpp:163] Memory required for data: 186646528
I0710 16:41:51.909245 10618 layer_factory.hpp:77] Creating layer res3a_branch2b/bn
I0710 16:41:51.909248 10618 net.cpp:98] Creating Layer res3a_branch2b/bn
I0710 16:41:51.909250 10618 net.cpp:439] res3a_branch2b/bn <- res3a_branch2b
I0710 16:41:51.909252 10618 net.cpp:413] res3a_branch2b/bn -> res3a_branch2b/bn
I0710 16:41:51.909864 10618 net.cpp:148] Setting up res3a_branch2b/bn
I0710 16:41:51.909868 10618 net.cpp:155] Top shape: 1 128 64 128 (1048576)
I0710 16:41:51.909870 10618 net.cpp:163] Memory required for data: 190840832
I0710 16:41:51.909875 10618 layer_factory.hpp:77] Creating layer res3a_branch2b/relu
I0710 16:41:51.909878 10618 net.cpp:98] Creating Layer res3a_branch2b/relu
I0710 16:41:51.909879 10618 net.cpp:439] res3a_branch2b/relu <- res3a_branch2b/bn
I0710 16:41:51.909881 10618 net.cpp:400] res3a_branch2b/relu -> res3a_branch2b/bn (in-place)
I0710 16:41:51.909884 10618 net.cpp:148] Setting up res3a_branch2b/relu
I0710 16:41:51.909886 10618 net.cpp:155] Top shape: 1 128 64 128 (1048576)
I0710 16:41:51.909888 10618 net.cpp:163] Memory required for data: 195035136
I0710 16:41:51.909890 10618 layer_factory.hpp:77] Creating layer res3a_branch2b/bn_res3a_branch2b/relu_0_split
I0710 16:41:51.909893 10618 net.cpp:98] Creating Layer res3a_branch2b/bn_res3a_branch2b/relu_0_split
I0710 16:41:51.909894 10618 net.cpp:439] res3a_branch2b/bn_res3a_branch2b/relu_0_split <- res3a_branch2b/bn
I0710 16:41:51.909896 10618 net.cpp:413] res3a_branch2b/bn_res3a_branch2b/relu_0_split -> res3a_branch2b/bn_res3a_branch2b/relu_0_split_0
I0710 16:41:51.909899 10618 net.cpp:413] res3a_branch2b/bn_res3a_branch2b/relu_0_split -> res3a_branch2b/bn_res3a_branch2b/relu_0_split_1
I0710 16:41:51.909932 10618 net.cpp:148] Setting up res3a_branch2b/bn_res3a_branch2b/relu_0_split
I0710 16:41:51.909935 10618 net.cpp:155] Top shape: 1 128 64 128 (1048576)
I0710 16:41:51.909937 10618 net.cpp:155] Top shape: 1 128 64 128 (1048576)
I0710 16:41:51.909940 10618 net.cpp:163] Memory required for data: 203423744
I0710 16:41:51.909940 10618 layer_factory.hpp:77] Creating layer pool3
I0710 16:41:51.909945 10618 net.cpp:98] Creating Layer pool3
I0710 16:41:51.909946 10618 net.cpp:439] pool3 <- res3a_branch2b/bn_res3a_branch2b/relu_0_split_0
I0710 16:41:51.909950 10618 net.cpp:413] pool3 -> pool3
I0710 16:41:51.909982 10618 net.cpp:148] Setting up pool3
I0710 16:41:51.909986 10618 net.cpp:155] Top shape: 1 128 32 64 (262144)
I0710 16:41:51.909987 10618 net.cpp:163] Memory required for data: 204472320
I0710 16:41:51.909989 10618 layer_factory.hpp:77] Creating layer res4a_branch2a
I0710 16:41:51.909992 10618 net.cpp:98] Creating Layer res4a_branch2a
I0710 16:41:51.909994 10618 net.cpp:439] res4a_branch2a <- pool3
I0710 16:41:51.909997 10618 net.cpp:413] res4a_branch2a -> res4a_branch2a
I0710 16:41:51.916091 10618 net.cpp:148] Setting up res4a_branch2a
I0710 16:41:51.916100 10618 net.cpp:155] Top shape: 1 256 32 64 (524288)
I0710 16:41:51.916102 10618 net.cpp:163] Memory required for data: 206569472
I0710 16:41:51.916105 10618 layer_factory.hpp:77] Creating layer res4a_branch2a/bn
I0710 16:41:51.916110 10618 net.cpp:98] Creating Layer res4a_branch2a/bn
I0710 16:41:51.916111 10618 net.cpp:439] res4a_branch2a/bn <- res4a_branch2a
I0710 16:41:51.916115 10618 net.cpp:413] res4a_branch2a/bn -> res4a_branch2a/bn
I0710 16:41:51.916723 10618 net.cpp:148] Setting up res4a_branch2a/bn
I0710 16:41:51.916728 10618 net.cpp:155] Top shape: 1 256 32 64 (524288)
I0710 16:41:51.916730 10618 net.cpp:163] Memory required for data: 208666624
I0710 16:41:51.916735 10618 layer_factory.hpp:77] Creating layer res4a_branch2a/relu
I0710 16:41:51.916738 10618 net.cpp:98] Creating Layer res4a_branch2a/relu
I0710 16:41:51.916739 10618 net.cpp:439] res4a_branch2a/relu <- res4a_branch2a/bn
I0710 16:41:51.916743 10618 net.cpp:400] res4a_branch2a/relu -> res4a_branch2a/bn (in-place)
I0710 16:41:51.916745 10618 net.cpp:148] Setting up res4a_branch2a/relu
I0710 16:41:51.916748 10618 net.cpp:155] Top shape: 1 256 32 64 (524288)
I0710 16:41:51.916749 10618 net.cpp:163] Memory required for data: 210763776
I0710 16:41:51.916750 10618 layer_factory.hpp:77] Creating layer res4a_branch2b
I0710 16:41:51.916755 10618 net.cpp:98] Creating Layer res4a_branch2b
I0710 16:41:51.916757 10618 net.cpp:439] res4a_branch2b <- res4a_branch2a/bn
I0710 16:41:51.916759 10618 net.cpp:413] res4a_branch2b -> res4a_branch2b
I0710 16:41:51.919983 10618 net.cpp:148] Setting up res4a_branch2b
I0710 16:41:51.919993 10618 net.cpp:155] Top shape: 1 256 32 64 (524288)
I0710 16:41:51.919996 10618 net.cpp:163] Memory required for data: 212860928
I0710 16:41:51.919999 10618 layer_factory.hpp:77] Creating layer res4a_branch2b/bn
I0710 16:41:51.920004 10618 net.cpp:98] Creating Layer res4a_branch2b/bn
I0710 16:41:51.920006 10618 net.cpp:439] res4a_branch2b/bn <- res4a_branch2b
I0710 16:41:51.920009 10618 net.cpp:413] res4a_branch2b/bn -> res4a_branch2b/bn
I0710 16:41:51.920637 10618 net.cpp:148] Setting up res4a_branch2b/bn
I0710 16:41:51.920644 10618 net.cpp:155] Top shape: 1 256 32 64 (524288)
I0710 16:41:51.920644 10618 net.cpp:163] Memory required for data: 214958080
I0710 16:41:51.920650 10618 layer_factory.hpp:77] Creating layer res4a_branch2b/relu
I0710 16:41:51.920653 10618 net.cpp:98] Creating Layer res4a_branch2b/relu
I0710 16:41:51.920655 10618 net.cpp:439] res4a_branch2b/relu <- res4a_branch2b/bn
I0710 16:41:51.920657 10618 net.cpp:400] res4a_branch2b/relu -> res4a_branch2b/bn (in-place)
I0710 16:41:51.920660 10618 net.cpp:148] Setting up res4a_branch2b/relu
I0710 16:41:51.920663 10618 net.cpp:155] Top shape: 1 256 32 64 (524288)
I0710 16:41:51.920665 10618 net.cpp:163] Memory required for data: 217055232
I0710 16:41:51.920666 10618 layer_factory.hpp:77] Creating layer pool4
I0710 16:41:51.920670 10618 net.cpp:98] Creating Layer pool4
I0710 16:41:51.920671 10618 net.cpp:439] pool4 <- res4a_branch2b/bn
I0710 16:41:51.920673 10618 net.cpp:413] pool4 -> pool4
I0710 16:41:51.920708 10618 net.cpp:148] Setting up pool4
I0710 16:41:51.920711 10618 net.cpp:155] Top shape: 1 256 32 64 (524288)
I0710 16:41:51.920713 10618 net.cpp:163] Memory required for data: 219152384
I0710 16:41:51.920714 10618 layer_factory.hpp:77] Creating layer res5a_branch2a
I0710 16:41:51.920722 10618 net.cpp:98] Creating Layer res5a_branch2a
I0710 16:41:51.920723 10618 net.cpp:439] res5a_branch2a <- pool4
I0710 16:41:51.920728 10618 net.cpp:413] res5a_branch2a -> res5a_branch2a
I0710 16:41:51.946746 10618 net.cpp:148] Setting up res5a_branch2a
I0710 16:41:51.946763 10618 net.cpp:155] Top shape: 1 512 32 64 (1048576)
I0710 16:41:51.946766 10618 net.cpp:163] Memory required for data: 223346688
I0710 16:41:51.946772 10618 layer_factory.hpp:77] Creating layer res5a_branch2a/bn
I0710 16:41:51.946781 10618 net.cpp:98] Creating Layer res5a_branch2a/bn
I0710 16:41:51.946785 10618 net.cpp:439] res5a_branch2a/bn <- res5a_branch2a
I0710 16:41:51.946789 10618 net.cpp:413] res5a_branch2a/bn -> res5a_branch2a/bn
I0710 16:41:51.947433 10618 net.cpp:148] Setting up res5a_branch2a/bn
I0710 16:41:51.947438 10618 net.cpp:155] Top shape: 1 512 32 64 (1048576)
I0710 16:41:51.947440 10618 net.cpp:163] Memory required for data: 227540992
I0710 16:41:51.947445 10618 layer_factory.hpp:77] Creating layer res5a_branch2a/relu
I0710 16:41:51.947448 10618 net.cpp:98] Creating Layer res5a_branch2a/relu
I0710 16:41:51.947450 10618 net.cpp:439] res5a_branch2a/relu <- res5a_branch2a/bn
I0710 16:41:51.947453 10618 net.cpp:400] res5a_branch2a/relu -> res5a_branch2a/bn (in-place)
I0710 16:41:51.947456 10618 net.cpp:148] Setting up res5a_branch2a/relu
I0710 16:41:51.947458 10618 net.cpp:155] Top shape: 1 512 32 64 (1048576)
I0710 16:41:51.947459 10618 net.cpp:163] Memory required for data: 231735296
I0710 16:41:51.947461 10618 layer_factory.hpp:77] Creating layer res5a_branch2b
I0710 16:41:51.947466 10618 net.cpp:98] Creating Layer res5a_branch2b
I0710 16:41:51.947468 10618 net.cpp:439] res5a_branch2b <- res5a_branch2a/bn
I0710 16:41:51.947470 10618 net.cpp:413] res5a_branch2b -> res5a_branch2b
I0710 16:41:51.960273 10618 net.cpp:148] Setting up res5a_branch2b
I0710 16:41:51.960294 10618 net.cpp:155] Top shape: 1 512 32 64 (1048576)
I0710 16:41:51.960296 10618 net.cpp:163] Memory required for data: 235929600
I0710 16:41:51.960304 10618 layer_factory.hpp:77] Creating layer res5a_branch2b/bn
I0710 16:41:51.960311 10618 net.cpp:98] Creating Layer res5a_branch2b/bn
I0710 16:41:51.960314 10618 net.cpp:439] res5a_branch2b/bn <- res5a_branch2b
I0710 16:41:51.960319 10618 net.cpp:413] res5a_branch2b/bn -> res5a_branch2b/bn
I0710 16:41:51.960973 10618 net.cpp:148] Setting up res5a_branch2b/bn
I0710 16:41:51.960979 10618 net.cpp:155] Top shape: 1 512 32 64 (1048576)
I0710 16:41:51.960980 10618 net.cpp:163] Memory required for data: 240123904
I0710 16:41:51.960985 10618 layer_factory.hpp:77] Creating layer res5a_branch2b/relu
I0710 16:41:51.960989 10618 net.cpp:98] Creating Layer res5a_branch2b/relu
I0710 16:41:51.960991 10618 net.cpp:439] res5a_branch2b/relu <- res5a_branch2b/bn
I0710 16:41:51.960994 10618 net.cpp:400] res5a_branch2b/relu -> res5a_branch2b/bn (in-place)
I0710 16:41:51.960997 10618 net.cpp:148] Setting up res5a_branch2b/relu
I0710 16:41:51.960999 10618 net.cpp:155] Top shape: 1 512 32 64 (1048576)
I0710 16:41:51.961001 10618 net.cpp:163] Memory required for data: 244318208
I0710 16:41:51.961002 10618 layer_factory.hpp:77] Creating layer out5a
I0710 16:41:51.961009 10618 net.cpp:98] Creating Layer out5a
I0710 16:41:51.961009 10618 net.cpp:439] out5a <- res5a_branch2b/bn
I0710 16:41:51.961012 10618 net.cpp:413] out5a -> out5a
I0710 16:41:51.965137 10618 net.cpp:148] Setting up out5a
I0710 16:41:51.965145 10618 net.cpp:155] Top shape: 1 64 32 64 (131072)
I0710 16:41:51.965147 10618 net.cpp:163] Memory required for data: 244842496
I0710 16:41:51.965150 10618 layer_factory.hpp:77] Creating layer out5a/bn
I0710 16:41:51.965155 10618 net.cpp:98] Creating Layer out5a/bn
I0710 16:41:51.965158 10618 net.cpp:439] out5a/bn <- out5a
I0710 16:41:51.965160 10618 net.cpp:413] out5a/bn -> out5a/bn
I0710 16:41:51.965862 10618 net.cpp:148] Setting up out5a/bn
I0710 16:41:51.965867 10618 net.cpp:155] Top shape: 1 64 32 64 (131072)
I0710 16:41:51.965869 10618 net.cpp:163] Memory required for data: 245366784
I0710 16:41:51.965874 10618 layer_factory.hpp:77] Creating layer out5a/relu
I0710 16:41:51.965878 10618 net.cpp:98] Creating Layer out5a/relu
I0710 16:41:51.965879 10618 net.cpp:439] out5a/relu <- out5a/bn
I0710 16:41:51.965881 10618 net.cpp:400] out5a/relu -> out5a/bn (in-place)
I0710 16:41:51.965884 10618 net.cpp:148] Setting up out5a/relu
I0710 16:41:51.965886 10618 net.cpp:155] Top shape: 1 64 32 64 (131072)
I0710 16:41:51.965888 10618 net.cpp:163] Memory required for data: 245891072
I0710 16:41:51.965889 10618 layer_factory.hpp:77] Creating layer out5a_up2
I0710 16:41:51.965898 10618 net.cpp:98] Creating Layer out5a_up2
I0710 16:41:51.965900 10618 net.cpp:439] out5a_up2 <- out5a/bn
I0710 16:41:51.965903 10618 net.cpp:413] out5a_up2 -> out5a_up2
I0710 16:41:51.966141 10618 net.cpp:148] Setting up out5a_up2
I0710 16:41:51.966146 10618 net.cpp:155] Top shape: 1 64 64 128 (524288)
I0710 16:41:51.966147 10618 net.cpp:163] Memory required for data: 247988224
I0710 16:41:51.966150 10618 layer_factory.hpp:77] Creating layer out3a
I0710 16:41:51.966154 10618 net.cpp:98] Creating Layer out3a
I0710 16:41:51.966156 10618 net.cpp:439] out3a <- res3a_branch2b/bn_res3a_branch2b/relu_0_split_1
I0710 16:41:51.966159 10618 net.cpp:413] out3a -> out3a
I0710 16:41:51.967180 10618 net.cpp:148] Setting up out3a
I0710 16:41:51.967185 10618 net.cpp:155] Top shape: 1 64 64 128 (524288)
I0710 16:41:51.967187 10618 net.cpp:163] Memory required for data: 250085376
I0710 16:41:51.967190 10618 layer_factory.hpp:77] Creating layer out3a/bn
I0710 16:41:51.967193 10618 net.cpp:98] Creating Layer out3a/bn
I0710 16:41:51.967195 10618 net.cpp:439] out3a/bn <- out3a
I0710 16:41:51.967197 10618 net.cpp:413] out3a/bn -> out3a/bn
I0710 16:41:51.967901 10618 net.cpp:148] Setting up out3a/bn
I0710 16:41:51.967906 10618 net.cpp:155] Top shape: 1 64 64 128 (524288)
I0710 16:41:51.967908 10618 net.cpp:163] Memory required for data: 252182528
I0710 16:41:51.967916 10618 layer_factory.hpp:77] Creating layer out3a/relu
I0710 16:41:51.967918 10618 net.cpp:98] Creating Layer out3a/relu
I0710 16:41:51.967921 10618 net.cpp:439] out3a/relu <- out3a/bn
I0710 16:41:51.967922 10618 net.cpp:400] out3a/relu -> out3a/bn (in-place)
I0710 16:41:51.967926 10618 net.cpp:148] Setting up out3a/relu
I0710 16:41:51.967928 10618 net.cpp:155] Top shape: 1 64 64 128 (524288)
I0710 16:41:51.967929 10618 net.cpp:163] Memory required for data: 254279680
I0710 16:41:51.967931 10618 layer_factory.hpp:77] Creating layer out3_out5_combined
I0710 16:41:51.967936 10618 net.cpp:98] Creating Layer out3_out5_combined
I0710 16:41:51.967938 10618 net.cpp:439] out3_out5_combined <- out5a_up2
I0710 16:41:51.967941 10618 net.cpp:439] out3_out5_combined <- out3a/bn
I0710 16:41:51.967942 10618 net.cpp:413] out3_out5_combined -> out3_out5_combined
I0710 16:41:51.967964 10618 net.cpp:148] Setting up out3_out5_combined
I0710 16:41:51.967968 10618 net.cpp:155] Top shape: 1 64 64 128 (524288)
I0710 16:41:51.967969 10618 net.cpp:163] Memory required for data: 256376832
I0710 16:41:51.967972 10618 layer_factory.hpp:77] Creating layer ctx_conv1
I0710 16:41:51.967975 10618 net.cpp:98] Creating Layer ctx_conv1
I0710 16:41:51.967977 10618 net.cpp:439] ctx_conv1 <- out3_out5_combined
I0710 16:41:51.967979 10618 net.cpp:413] ctx_conv1 -> ctx_conv1
I0710 16:41:51.969002 10618 net.cpp:148] Setting up ctx_conv1
I0710 16:41:51.969007 10618 net.cpp:155] Top shape: 1 64 64 128 (524288)
I0710 16:41:51.969009 10618 net.cpp:163] Memory required for data: 258473984
I0710 16:41:51.969012 10618 layer_factory.hpp:77] Creating layer ctx_conv1/bn
I0710 16:41:51.969015 10618 net.cpp:98] Creating Layer ctx_conv1/bn
I0710 16:41:51.969017 10618 net.cpp:439] ctx_conv1/bn <- ctx_conv1
I0710 16:41:51.969022 10618 net.cpp:413] ctx_conv1/bn -> ctx_conv1/bn
I0710 16:41:51.969724 10618 net.cpp:148] Setting up ctx_conv1/bn
I0710 16:41:51.969729 10618 net.cpp:155] Top shape: 1 64 64 128 (524288)
I0710 16:41:51.969730 10618 net.cpp:163] Memory required for data: 260571136
I0710 16:41:51.969735 10618 layer_factory.hpp:77] Creating layer ctx_conv1/relu
I0710 16:41:51.969738 10618 net.cpp:98] Creating Layer ctx_conv1/relu
I0710 16:41:51.969739 10618 net.cpp:439] ctx_conv1/relu <- ctx_conv1/bn
I0710 16:41:51.969741 10618 net.cpp:400] ctx_conv1/relu -> ctx_conv1/bn (in-place)
I0710 16:41:51.969744 10618 net.cpp:148] Setting up ctx_conv1/relu
I0710 16:41:51.969746 10618 net.cpp:155] Top shape: 1 64 64 128 (524288)
I0710 16:41:51.969748 10618 net.cpp:163] Memory required for data: 262668288
I0710 16:41:51.969750 10618 layer_factory.hpp:77] Creating layer ctx_conv2
I0710 16:41:51.969753 10618 net.cpp:98] Creating Layer ctx_conv2
I0710 16:41:51.969755 10618 net.cpp:439] ctx_conv2 <- ctx_conv1/bn
I0710 16:41:51.969758 10618 net.cpp:413] ctx_conv2 -> ctx_conv2
I0710 16:41:51.970777 10618 net.cpp:148] Setting up ctx_conv2
I0710 16:41:51.970780 10618 net.cpp:155] Top shape: 1 64 64 128 (524288)
I0710 16:41:51.970782 10618 net.cpp:163] Memory required for data: 264765440
I0710 16:41:51.970785 10618 layer_factory.hpp:77] Creating layer ctx_conv2/bn
I0710 16:41:51.970789 10618 net.cpp:98] Creating Layer ctx_conv2/bn
I0710 16:41:51.970790 10618 net.cpp:439] ctx_conv2/bn <- ctx_conv2
I0710 16:41:51.970793 10618 net.cpp:413] ctx_conv2/bn -> ctx_conv2/bn
I0710 16:41:51.971504 10618 net.cpp:148] Setting up ctx_conv2/bn
I0710 16:41:51.971509 10618 net.cpp:155] Top shape: 1 64 64 128 (524288)
I0710 16:41:51.971510 10618 net.cpp:163] Memory required for data: 266862592
I0710 16:41:51.971515 10618 layer_factory.hpp:77] Creating layer ctx_conv2/relu
I0710 16:41:51.971518 10618 net.cpp:98] Creating Layer ctx_conv2/relu
I0710 16:41:51.971519 10618 net.cpp:439] ctx_conv2/relu <- ctx_conv2/bn
I0710 16:41:51.971521 10618 net.cpp:400] ctx_conv2/relu -> ctx_conv2/bn (in-place)
I0710 16:41:51.971524 10618 net.cpp:148] Setting up ctx_conv2/relu
I0710 16:41:51.971526 10618 net.cpp:155] Top shape: 1 64 64 128 (524288)
I0710 16:41:51.971527 10618 net.cpp:163] Memory required for data: 268959744
I0710 16:41:51.971529 10618 layer_factory.hpp:77] Creating layer ctx_conv3
I0710 16:41:51.971534 10618 net.cpp:98] Creating Layer ctx_conv3
I0710 16:41:51.971534 10618 net.cpp:439] ctx_conv3 <- ctx_conv2/bn
I0710 16:41:51.971537 10618 net.cpp:413] ctx_conv3 -> ctx_conv3
I0710 16:41:51.972555 10618 net.cpp:148] Setting up ctx_conv3
I0710 16:41:51.972559 10618 net.cpp:155] Top shape: 1 64 64 128 (524288)
I0710 16:41:51.972561 10618 net.cpp:163] Memory required for data: 271056896
I0710 16:41:51.972564 10618 layer_factory.hpp:77] Creating layer ctx_conv3/bn
I0710 16:41:51.972568 10618 net.cpp:98] Creating Layer ctx_conv3/bn
I0710 16:41:51.972568 10618 net.cpp:439] ctx_conv3/bn <- ctx_conv3
I0710 16:41:51.972571 10618 net.cpp:413] ctx_conv3/bn -> ctx_conv3/bn
I0710 16:41:51.973284 10618 net.cpp:148] Setting up ctx_conv3/bn
I0710 16:41:51.973289 10618 net.cpp:155] Top shape: 1 64 64 128 (524288)
I0710 16:41:51.973290 10618 net.cpp:163] Memory required for data: 273154048
I0710 16:41:51.973295 10618 layer_factory.hpp:77] Creating layer ctx_conv3/relu
I0710 16:41:51.973297 10618 net.cpp:98] Creating Layer ctx_conv3/relu
I0710 16:41:51.973299 10618 net.cpp:439] ctx_conv3/relu <- ctx_conv3/bn
I0710 16:41:51.973301 10618 net.cpp:400] ctx_conv3/relu -> ctx_conv3/bn (in-place)
I0710 16:41:51.973304 10618 net.cpp:148] Setting up ctx_conv3/relu
I0710 16:41:51.973306 10618 net.cpp:155] Top shape: 1 64 64 128 (524288)
I0710 16:41:51.973309 10618 net.cpp:163] Memory required for data: 275251200
I0710 16:41:51.973309 10618 layer_factory.hpp:77] Creating layer ctx_conv4
I0710 16:41:51.973314 10618 net.cpp:98] Creating Layer ctx_conv4
I0710 16:41:51.973315 10618 net.cpp:439] ctx_conv4 <- ctx_conv3/bn
I0710 16:41:51.973317 10618 net.cpp:413] ctx_conv4 -> ctx_conv4
I0710 16:41:51.974329 10618 net.cpp:148] Setting up ctx_conv4
I0710 16:41:51.974334 10618 net.cpp:155] Top shape: 1 64 64 128 (524288)
I0710 16:41:51.974335 10618 net.cpp:163] Memory required for data: 277348352
I0710 16:41:51.974339 10618 layer_factory.hpp:77] Creating layer ctx_conv4/bn
I0710 16:41:51.974341 10618 net.cpp:98] Creating Layer ctx_conv4/bn
I0710 16:41:51.974344 10618 net.cpp:439] ctx_conv4/bn <- ctx_conv4
I0710 16:41:51.974345 10618 net.cpp:413] ctx_conv4/bn -> ctx_conv4/bn
I0710 16:41:51.975037 10618 net.cpp:148] Setting up ctx_conv4/bn
I0710 16:41:51.975041 10618 net.cpp:155] Top shape: 1 64 64 128 (524288)
I0710 16:41:51.975044 10618 net.cpp:163] Memory required for data: 279445504
I0710 16:41:51.975049 10618 layer_factory.hpp:77] Creating layer ctx_conv4/relu
I0710 16:41:51.975050 10618 net.cpp:98] Creating Layer ctx_conv4/relu
I0710 16:41:51.975052 10618 net.cpp:439] ctx_conv4/relu <- ctx_conv4/bn
I0710 16:41:51.975054 10618 net.cpp:400] ctx_conv4/relu -> ctx_conv4/bn (in-place)
I0710 16:41:51.975057 10618 net.cpp:148] Setting up ctx_conv4/relu
I0710 16:41:51.975059 10618 net.cpp:155] Top shape: 1 64 64 128 (524288)
I0710 16:41:51.975060 10618 net.cpp:163] Memory required for data: 281542656
I0710 16:41:51.975062 10618 layer_factory.hpp:77] Creating layer ctx_final
I0710 16:41:51.975065 10618 net.cpp:98] Creating Layer ctx_final
I0710 16:41:51.975067 10618 net.cpp:439] ctx_final <- ctx_conv4/bn
I0710 16:41:51.975069 10618 net.cpp:413] ctx_final -> ctx_final
I0710 16:41:51.975448 10618 net.cpp:148] Setting up ctx_final
I0710 16:41:51.975453 10618 net.cpp:155] Top shape: 1 8 64 128 (65536)
I0710 16:41:51.975455 10618 net.cpp:163] Memory required for data: 281804800
I0710 16:41:51.975457 10618 layer_factory.hpp:77] Creating layer ctx_final/relu
I0710 16:41:51.975461 10618 net.cpp:98] Creating Layer ctx_final/relu
I0710 16:41:51.975462 10618 net.cpp:439] ctx_final/relu <- ctx_final
I0710 16:41:51.975464 10618 net.cpp:400] ctx_final/relu -> ctx_final (in-place)
I0710 16:41:51.975467 10618 net.cpp:148] Setting up ctx_final/relu
I0710 16:41:51.975469 10618 net.cpp:155] Top shape: 1 8 64 128 (65536)
I0710 16:41:51.975471 10618 net.cpp:163] Memory required for data: 282066944
I0710 16:41:51.975472 10618 layer_factory.hpp:77] Creating layer out_deconv_final_up2
I0710 16:41:51.975474 10618 net.cpp:98] Creating Layer out_deconv_final_up2
I0710 16:41:51.975476 10618 net.cpp:439] out_deconv_final_up2 <- ctx_final
I0710 16:41:51.975478 10618 net.cpp:413] out_deconv_final_up2 -> out_deconv_final_up2
I0710 16:41:51.975697 10618 net.cpp:148] Setting up out_deconv_final_up2
I0710 16:41:51.975702 10618 net.cpp:155] Top shape: 1 8 128 256 (262144)
I0710 16:41:51.975703 10618 net.cpp:163] Memory required for data: 283115520
I0710 16:41:51.975705 10618 layer_factory.hpp:77] Creating layer out_deconv_final_up4
I0710 16:41:51.975708 10618 net.cpp:98] Creating Layer out_deconv_final_up4
I0710 16:41:51.975710 10618 net.cpp:439] out_deconv_final_up4 <- out_deconv_final_up2
I0710 16:41:51.975713 10618 net.cpp:413] out_deconv_final_up4 -> out_deconv_final_up4
I0710 16:41:51.975926 10618 net.cpp:148] Setting up out_deconv_final_up4
I0710 16:41:51.975930 10618 net.cpp:155] Top shape: 1 8 256 512 (1048576)
I0710 16:41:51.975931 10618 net.cpp:163] Memory required for data: 287309824
I0710 16:41:51.975934 10618 layer_factory.hpp:77] Creating layer out_deconv_final_up8
I0710 16:41:51.975936 10618 net.cpp:98] Creating Layer out_deconv_final_up8
I0710 16:41:51.975939 10618 net.cpp:439] out_deconv_final_up8 <- out_deconv_final_up4
I0710 16:41:51.975941 10618 net.cpp:413] out_deconv_final_up8 -> out_deconv_final_up8
I0710 16:41:51.976158 10618 net.cpp:148] Setting up out_deconv_final_up8
I0710 16:41:51.976162 10618 net.cpp:155] Top shape: 1 8 512 1024 (4194304)
I0710 16:41:51.976164 10618 net.cpp:163] Memory required for data: 304087040
I0710 16:41:51.976166 10618 layer_factory.hpp:77] Creating layer prob
I0710 16:41:51.976169 10618 net.cpp:98] Creating Layer prob
I0710 16:41:51.976171 10618 net.cpp:439] prob <- out_deconv_final_up8
I0710 16:41:51.976173 10618 net.cpp:413] prob -> prob
I0710 16:41:51.976243 10618 net.cpp:148] Setting up prob
I0710 16:41:51.976246 10618 net.cpp:155] Top shape: 1 8 512 1024 (4194304)
I0710 16:41:51.976248 10618 net.cpp:163] Memory required for data: 320864256
I0710 16:41:51.976250 10618 net.cpp:226] prob does not need backward computation.
I0710 16:41:51.976251 10618 net.cpp:226] out_deconv_final_up8 does not need backward computation.
I0710 16:41:51.976253 10618 net.cpp:226] out_deconv_final_up4 does not need backward computation.
I0710 16:41:51.976255 10618 net.cpp:226] out_deconv_final_up2 does not need backward computation.
…
