…
I0712 00:18:02.515935 25741 upgrade_proto.cpp:66] Attempting to upgrade input file specified using deprecated input fields: ../trained/image_segmentation/cityscapes5_jsegnet21v2/initial/deploy.prototxt
I0712 00:18:02.515961 25741 upgrade_proto.cpp:69] Successfully upgraded file specified using deprecated input fields.
W0712 00:18:02.515964 25741 upgrade_proto.cpp:71] Note that future Caffe releases will only support input layers and not input fields.
I0712 00:18:02.516237 25741 net.cpp:56] Initializing net from parameters: 
name: "jsegnet21v2_deploy"
state {
  phase: TEST
}
layer {
  name: "input"
  type: "Input"
  top: "data"
  input_param {
    shape {
      dim: 1
      dim: 3
      dim: 512
      dim: 1024
    }
  }
}
layer {
  name: "data/bias"
  type: "Bias"
  bottom: "data"
  top: "data/bias"
  param {
    lr_mult: 0
    decay_mult: 0
  }
  bias_param {
    filler {
      type: "constant"
      value: -128
    }
  }
}
layer {
  name: "conv1a"
  type: "Convolution"
  bottom: "data/bias"
  top: "conv1a"
  param {
    lr_mult: 1
    decay_mult: 1
  }
  param {
    lr_mult: 2
    decay_mult: 0
  }
  convolution_param {
    num_output: 32
    bias_term: true
    pad: 2
    kernel_size: 5
    group: 1
    stride: 2
    weight_filler {
      type: "msra"
    }
    bias_filler {
      type: "constant"
      value: 0
    }
    dilation: 1
  }
}
layer {
  name: "conv1a/bn"
  type: "BatchNorm"
  bottom: "conv1a"
  top: "conv1a/bn"
  param {
    lr_mult: 1
    decay_mult: 1
  }
  param {
    lr_mult: 1
    decay_mult: 1
  }
  param {
    lr_mult: 0
    decay_mult: 0
  }
  param {
    lr_mult: 0
    decay_mult: 0
  }
  batch_norm_param {
    moving_average_fraction: 0.99
    eps: 0.0001
    scale_filler {
      type: "constant"
      value: 1
    }
    bias_filler {
      type: "constant"
      value: 0
    }
  }
}
layer {
  name: "conv1a/relu"
  type: "ReLU"
  bottom: "conv1a/bn"
  top: "conv1a/bn"
}
layer {
  name: "conv1b"
  type: "Convolution"
  bottom: "conv1a/bn"
  top: "conv1b"
  param {
    lr_mult: 1
    decay_mult: 1
  }
  param {
    lr_mult: 2
    decay_mult: 0
  }
  convolution_param {
    num_output: 32
    bias_term: true
    pad: 1
    kernel_size: 3
    group: 4
    stride: 1
    weight_filler {
      type: "msra"
    }
    bias_filler {
      type: "constant"
      value: 0
    }
    dilation: 1
  }
}
layer {
  name: "conv1b/bn"
  type: "BatchNorm"
  bottom: "conv1b"
  top: "conv1b/bn"
  param {
    lr_mult: 1
    decay_mult: 1
  }
  param {
    lr_mult: 1
    decay_mult: 1
  }
  param {
    lr_mult: 0
    decay_mult: 0
  }
  param {
    lr_mult: 0
    decay_mult: 0
  }
  batch_norm_param {
    moving_average_fraction: 0.99
    eps: 0.0001
    scale_filler {
      type: "constant"
      value: 1
    }
    bias_filler {
      type: "constant"
      value: 0
    }
  }
}
layer {
  name: "conv1b/relu"
  type: "ReLU"
  bottom: "conv1b/bn"
  top: "conv1b/bn"
}
layer {
  name: "pool1"
  type: "Pooling"
  bottom: "conv1b/bn"
  top: "pool1"
  pooling_param {
    pool: MAX
    kernel_size: 2
    stride: 2
  }
}
layer {
  name: "res2a_branch2a"
  type: "Convolution"
  bottom: "pool1"
  top: "res2a_branch2a"
  param {
    lr_mult: 1
    decay_mult: 1
  }
  param {
    lr_mult: 2
    decay_mult: 0
  }
  convolution_param {
    num_output: 64
    bias_term: true
    pad: 1
    kernel_size: 3
    group: 1
    stride: 1
    weight_filler {
      type: "msra"
    }
    bias_filler {
      type: "constant"
      value: 0
    }
    dilation: 1
  }
}
layer {
  name: "res2a_branch2a/bn"
  type: "BatchNorm"
  bottom: "res2a_branch2a"
  top: "res2a_branch2a/bn"
  param {
    lr_mult: 1
    decay_mult: 1
  }
  param {
    lr_mult: 1
    decay_mult: 1
  }
  param {
    lr_mult: 0
    decay_mult: 0
  }
  param {
    lr_mult: 0
    decay_mult: 0
  }
  batch_norm_param {
    moving_average_fraction: 0.99
    eps: 0.0001
    scale_filler {
      type: "constant"
      value: 1
    }
    bias_filler {
      type: "constant"
      value: 0
    }
  }
}
layer {
  name: "res2a_branch2a/relu"
  type: "ReLU"
  bottom: "res2a_branch2a/bn"
  top: "res2a_branch2a/bn"
}
layer {
  name: "res2a_branch2b"
  type: "Convolution"
  bottom: "res2a_branch2a/bn"
  top: "res2a_branch2b"
  param {
    lr_mult: 1
    decay_mult: 1
  }
  param {
    lr_mult: 2
    decay_mult: 0
  }
  convolution_param {
    num_output: 64
    bias_term: true
    pad: 1
    kernel_size: 3
    group: 4
    stride: 1
    weight_filler {
      type: "msra"
    }
    bias_filler {
      type: "constant"
      value: 0
    }
    dilation: 1
  }
}
layer {
  name: "res2a_branch2b/bn"
  type: "BatchNorm"
  bottom: "res2a_branch2b"
  top: "res2a_branch2b/bn"
  param {
    lr_mult: 1
    decay_mult: 1
  }
  param {
    lr_mult: 1
    decay_mult: 1
  }
  param {
    lr_mult: 0
    decay_mult: 0
  }
  param {
    lr_mult: 0
    decay_mult: 0
  }
  batch_norm_param {
    moving_average_fraction: 0.99
    eps: 0.0001
    scale_filler {
      type: "constant"
      value: 1
    }
    bias_filler {
      type: "constant"
      value: 0
    }
  }
}
layer {
  name: "res2a_branch2b/relu"
  type: "ReLU"
  bottom: "res2a_branch2b/bn"
  top: "res2a_branch2b/bn"
}
layer {
  name: "pool2"
  type: "Pooling"
  bottom: "res2a_branch2b/bn"
  top: "pool2"
  pooling_param {
    pool: MAX
    kernel_size: 2
    stride: 2
  }
}
layer {
  name: "res3a_branch2a"
  type: "Convolution"
  bottom: "pool2"
  top: "res3a_branch2a"
  param {
    lr_mult: 1
    decay_mult: 1
  }
  param {
    lr_mult: 2
    decay_mult: 0
  }
  convolution_param {
    num_output: 128
    bias_term: true
    pad: 1
    kernel_size: 3
    group: 1
    stride: 1
    weight_filler {
      type: "msra"
    }
    bias_filler {
      type: "constant"
      value: 0
    }
    dilation: 1
  }
}
layer {
  name: "res3a_branch2a/bn"
  type: "BatchNorm"
  bottom: "res3a_branch2a"
  top: "res3a_branch2a/bn"
  param {
    lr_mult: 1
    decay_mult: 1
  }
  param {
    lr_mult: 1
    decay_mult: 1
  }
  param {
    lr_mult: 0
    decay_mult: 0
  }
  param {
    lr_mult: 0
    decay_mult: 0
  }
  batch_norm_param {
    moving_average_fraction: 0.99
    eps: 0.0001
    scale_filler {
      type: "constant"
      value: 1
    }
    bias_filler {
      type: "constant"
      value: 0
    }
  }
}
layer {
  name: "res3a_branch2a/relu"
  type: "ReLU"
  bottom: "res3a_branch2a/bn"
  top: "res3a_branch2a/bn"
}
layer {
  name: "res3a_branch2b"
  type: "Convolution"
  bottom: "res3a_branch2a/bn"
  top: "res3a_branch2b"
  param {
    lr_mult: 1
    decay_mult: 1
  }
  param {
    lr_mult: 2
    decay_mult: 0
  }
  convolution_param {
    num_output: 128
    bias_term: true
    pad: 1
    kernel_size: 3
    group: 4
    stride: 1
    weight_filler {
      type: "msra"
    }
    bias_filler {
      type: "constant"
      value: 0
    }
    dilation: 1
  }
}
layer {
  name: "res3a_branch2b/bn"
  type: "BatchNorm"
  bottom: "res3a_branch2b"
  top: "res3a_branch2b/bn"
  param {
    lr_mult: 1
    decay_mult: 1
  }
  param {
    lr_mult: 1
    decay_mult: 1
  }
  param {
    lr_mult: 0
    decay_mult: 0
  }
  param {
    lr_mult: 0
    decay_mult: 0
  }
  batch_norm_param {
    moving_average_fraction: 0.99
    eps: 0.0001
    scale_filler {
      type: "constant"
      value: 1
    }
    bias_filler {
      type: "constant"
      value: 0
    }
  }
}
layer {
  name: "res3a_branch2b/relu"
  type: "ReLU"
  bottom: "res3a_branch2b/bn"
  top: "res3a_branch2b/bn"
}
layer {
  name: "pool3"
  type: "Pooling"
  bottom: "res3a_branch2b/bn"
  top: "pool3"
  pooling_param {
    pool: MAX
    kernel_size: 2
    stride: 2
  }
}
layer {
  name: "res4a_branch2a"
  type: "Convolution"
  bottom: "pool3"
  top: "res4a_branch2a"
  param {
    lr_mult: 1
    decay_mult: 1
  }
  param {
    lr_mult: 2
    decay_mult: 0
  }
  convolution_param {
    num_output: 256
    bias_term: true
    pad: 1
    kernel_size: 3
    group: 1
    stride: 1
    weight_filler {
      type: "msra"
    }
    bias_filler {
      type: "constant"
      value: 0
    }
    dilation: 1
  }
}
layer {
  name: "res4a_branch2a/bn"
  type: "BatchNorm"
  bottom: "res4a_branch2a"
  top: "res4a_branch2a/bn"
  param {
    lr_mult: 1
    decay_mult: 1
  }
  param {
    lr_mult: 1
    decay_mult: 1
  }
  param {
    lr_mult: 0
    decay_mult: 0
  }
  param {
    lr_mult: 0
    decay_mult: 0
  }
  batch_norm_param {
    moving_average_fraction: 0.99
    eps: 0.0001
    scale_filler {
      type: "constant"
      value: 1
    }
    bias_filler {
      type: "constant"
      value: 0
    }
  }
}
layer {
  name: "res4a_branch2a/relu"
  type: "ReLU"
  bottom: "res4a_branch2a/bn"
  top: "res4a_branch2a/bn"
}
layer {
  name: "res4a_branch2b"
  type: "Convolution"
  bottom: "res4a_branch2a/bn"
  top: "res4a_branch2b"
  param {
    lr_mult: 1
    decay_mult: 1
  }
  param {
    lr_mult: 2
    decay_mult: 0
  }
  convolution_param {
    num_output: 256
    bias_term: true
    pad: 1
    kernel_size: 3
    group: 4
    stride: 1
    weight_filler {
      type: "msra"
    }
    bias_filler {
      type: "constant"
      value: 0
    }
    dilation: 1
  }
}
layer {
  name: "res4a_branch2b/bn"
  type: "BatchNorm"
  bottom: "res4a_branch2b"
  top: "res4a_branch2b/bn"
  param {
    lr_mult: 1
    decay_mult: 1
  }
  param {
    lr_mult: 1
    decay_mult: 1
  }
  param {
    lr_mult: 0
    decay_mult: 0
  }
  param {
    lr_mult: 0
    decay_mult: 0
  }
  batch_norm_param {
    moving_average_fraction: 0.99
    eps: 0.0001
    scale_filler {
      type: "constant"
      value: 1
    }
    bias_filler {
      type: "constant"
      value: 0
    }
  }
}
layer {
  name: "res4a_branch2b/relu"
  type: "ReLU"
  bottom: "res4a_branch2b/bn"
  top: "res4a_branch2b/bn"
}
layer {
  name: "pool4"
  type: "Pooling"
  bottom: "res4a_branch2b/bn"
  top: "pool4"
  pooling_param {
    pool: MAX
    kernel_size: 1
    stride: 1
  }
}
layer {
  name: "res5a_branch2a"
  type: "Convolution"
  bottom: "pool4"
  top: "res5a_branch2a"
  param {
    lr_mult: 1
    decay_mult: 1
  }
  param {
    lr_mult: 2
    decay_mult: 0
  }
  convolution_param {
    num_output: 512
    bias_term: true
    pad: 2
    kernel_size: 3
    group: 1
    stride: 1
    weight_filler {
      type: "msra"
    }
    bias_filler {
      type: "constant"
      value: 0
    }
    dilation: 2
  }
}
layer {
  name: "res5a_branch2a/bn"
  type: "BatchNorm"
  bottom: "res5a_branch2a"
  top: "res5a_branch2a/bn"
  param {
    lr_mult: 1
    decay_mult: 1
  }
  param {
    lr_mult: 1
    decay_mult: 1
  }
  param {
    lr_mult: 0
    decay_mult: 0
  }
  param {
    lr_mult: 0
    decay_mult: 0
  }
  batch_norm_param {
    moving_average_fraction: 0.99
    eps: 0.0001
    scale_filler {
      type: "constant"
      value: 1
    }
    bias_filler {
      type: "constant"
      value: 0
    }
  }
}
layer {
  name: "res5a_branch2a/relu"
  type: "ReLU"
  bottom: "res5a_branch2a/bn"
  top: "res5a_branch2a/bn"
}
layer {
  name: "res5a_branch2b"
  type: "Convolution"
  bottom: "res5a_branch2a/bn"
  top: "res5a_branch2b"
  param {
    lr_mult: 1
    decay_mult: 1
  }
  param {
    lr_mult: 2
    decay_mult: 0
  }
  convolution_param {
    num_output: 512
    bias_term: true
    pad: 2
    kernel_size: 3
    group: 4
    stride: 1
    weight_filler {
      type: "msra"
    }
    bias_filler {
      type: "constant"
      value: 0
    }
    dilation: 2
  }
}
layer {
  name: "res5a_branch2b/bn"
  type: "BatchNorm"
  bottom: "res5a_branch2b"
  top: "res5a_branch2b/bn"
  param {
    lr_mult: 1
    decay_mult: 1
  }
  param {
    lr_mult: 1
    decay_mult: 1
  }
  param {
    lr_mult: 0
    decay_mult: 0
  }
  param {
    lr_mult: 0
    decay_mult: 0
  }
  batch_norm_param {
    moving_average_fraction: 0.99
    eps: 0.0001
    scale_filler {
      type: "constant"
      value: 1
    }
    bias_filler {
      type: "constant"
      value: 0
    }
  }
}
layer {
  name: "res5a_branch2b/relu"
  type: "ReLU"
  bottom: "res5a_branch2b/bn"
  top: "res5a_branch2b/bn"
}
layer {
  name: "out5a"
  type: "Convolution"
  bottom: "res5a_branch2b/bn"
  top: "out5a"
  param {
    lr_mult: 1
    decay_mult: 1
  }
  param {
    lr_mult: 2
    decay_mult: 0
  }
  convolution_param {
    num_output: 64
    bias_term: true
    pad: 4
    kernel_size: 3
    group: 2
    stride: 1
    weight_filler {
      type: "msra"
    }
    bias_filler {
      type: "constant"
      value: 0
    }
    dilation: 4
  }
}
layer {
  name: "out5a/bn"
  type: "BatchNorm"
  bottom: "out5a"
  top: "out5a/bn"
  param {
    lr_mult: 1
    decay_mult: 1
  }
  param {
    lr_mult: 1
    decay_mult: 1
  }
  param {
    lr_mult: 0
    decay_mult: 0
  }
  param {
    lr_mult: 0
    decay_mult: 0
  }
  batch_norm_param {
    moving_average_fraction: 0.99
    eps: 0.0001
    scale_filler {
      type: "constant"
      value: 1
    }
    bias_filler {
      type: "constant"
      value: 0
    }
  }
}
layer {
  name: "out5a/relu"
  type: "ReLU"
  bottom: "out5a/bn"
  top: "out5a/bn"
}
layer {
  name: "out5a_up2"
  type: "Deconvolution"
  bottom: "out5a/bn"
  top: "out5a_up2"
  param {
    lr_mult: 0
    decay_mult: 0
  }
  convolution_param {
    num_output: 64
    bias_term: false
    pad: 1
    kernel_size: 4
    group: 64
    stride: 2
    weight_filler {
      type: "bilinear"
    }
  }
}
layer {
  name: "out3a"
  type: "Convolution"
  bottom: "res3a_branch2b/bn"
  top: "out3a"
  param {
    lr_mult: 1
    decay_mult: 1
  }
  param {
    lr_mult: 2
    decay_mult: 0
  }
  convolution_param {
    num_output: 64
    bias_term: true
    pad: 1
    kernel_size: 3
    group: 2
    stride: 1
    weight_filler {
      type: "msra"
    }
    bias_filler {
      type: "constant"
      value: 0
    }
    dilation: 1
  }
}
layer {
  name: "out3a/bn"
  type: "BatchNorm"
  bottom: "out3a"
  top: "out3a/bn"
  param {
    lr_mult: 1
    decay_mult: 1
  }
  param {
    lr_mult: 1
    decay_mult: 1
  }
  param {
    lr_mult: 0
    decay_mult: 0
  }
  param {
    lr_mult: 0
    decay_mult: 0
  }
  batch_norm_param {
    moving_average_fraction: 0.99
    eps: 0.0001
    scale_filler {
      type: "constant"
      value: 1
    }
    bias_filler {
      type: "constant"
      value: 0
    }
  }
}
layer {
  name: "out3a/relu"
  type: "ReLU"
  bottom: "out3a/bn"
  top: "out3a/bn"
}
layer {
  name: "out3_out5_combined"
  type: "Eltwise"
  bottom: "out5a_up2"
  bottom: "out3a/bn"
  top: "out3_out5_combined"
}
layer {
  name: "ctx_conv1"
  type: "Convolution"
  bottom: "out3_out5_combined"
  top: "ctx_conv1"
  param {
    lr_mult: 1
    decay_mult: 1
  }
  param {
    lr_mult: 2
    decay_mult: 0
  }
  convolution_param {
    num_output: 64
    bias_term: true
    pad: 1
    kernel_size: 3
    group: 1
    stride: 1
    weight_filler {
      type: "msra"
    }
    bias_filler {
      type: "constant"
      value: 0
    }
    dilation: 1
  }
}
layer {
  name: "ctx_conv1/bn"
  type: "BatchNorm"
  bottom: "ctx_conv1"
  top: "ctx_conv1/bn"
  param {
    lr_mult: 1
    decay_mult: 1
  }
  param {
    lr_mult: 1
    decay_mult: 1
  }
  param {
    lr_mult: 0
    decay_mult: 0
  }
  param {
    lr_mult: 0
    decay_mult: 0
  }
  batch_norm_param {
    moving_average_fraction: 0.99
    eps: 0.0001
    scale_filler {
      type: "constant"
      value: 1
    }
    bias_filler {
      type: "constant"
      value: 0
    }
  }
}
layer {
  name: "ctx_conv1/relu"
  type: "ReLU"
  bottom: "ctx_conv1/bn"
  top: "ctx_conv1/bn"
}
layer {
  name: "ctx_conv2"
  type: "Convolution"
  bottom: "ctx_conv1/bn"
  top: "ctx_conv2"
  param {
    lr_mult: 1
    decay_mult: 1
  }
  param {
    lr_mult: 2
    decay_mult: 0
  }
  convolution_param {
    num_output: 64
    bias_term: true
    pad: 4
    kernel_size: 3
    group: 1
    stride: 1
    weight_filler {
      type: "msra"
    }
    bias_filler {
      type: "constant"
      value: 0
    }
    dilation: 4
  }
}
layer {
  name: "ctx_conv2/bn"
  type: "BatchNorm"
  bottom: "ctx_conv2"
  top: "ctx_conv2/bn"
  param {
    lr_mult: 1
    decay_mult: 1
  }
  param {
    lr_mult: 1
    decay_mult: 1
  }
  param {
    lr_mult: 0
    decay_mult: 0
  }
  param {
    lr_mult: 0
    decay_mult: 0
  }
  batch_norm_param {
    moving_average_fraction: 0.99
    eps: 0.0001
    scale_filler {
      type: "constant"
      value: 1
    }
    bias_filler {
      type: "constant"
      value: 0
    }
  }
}
layer {
  name: "ctx_conv2/relu"
  type: "ReLU"
  bottom: "ctx_conv2/bn"
  top: "ctx_conv2/bn"
}
layer {
  name: "ctx_conv3"
  type: "Convolution"
  bottom: "ctx_conv2/bn"
  top: "ctx_conv3"
  param {
    lr_mult: 1
    decay_mult: 1
  }
  param {
    lr_mult: 2
    decay_mult: 0
  }
  convolution_param {
    num_output: 64
    bias_term: true
    pad: 4
    kernel_size: 3
    group: 1
    stride: 1
    weight_filler {
      type: "msra"
    }
    bias_filler {
      type: "constant"
      value: 0
    }
    dilation: 4
  }
}
layer {
  name: "ctx_conv3/bn"
  type: "BatchNorm"
  bottom: "ctx_conv3"
  top: "ctx_conv3/bn"
  param {
    lr_mult: 1
    decay_mult: 1
  }
  param {
    lr_mult: 1
    decay_mult: 1
  }
  param {
    lr_mult: 0
    decay_mult: 0
  }
  param {
    lr_mult: 0
    decay_mult: 0
  }
  batch_norm_param {
    moving_average_fraction: 0.99
    eps: 0.0001
    scale_filler {
      type: "constant"
      value: 1
    }
    bias_filler {
      type: "constant"
      value: 0
    }
  }
}
layer {
  name: "ctx_conv3/relu"
  type: "ReLU"
  bottom: "ctx_conv3/bn"
  top: "ctx_conv3/bn"
}
layer {
  name: "ctx_conv4"
  type: "Convolution"
  bottom: "ctx_conv3/bn"
  top: "ctx_conv4"
  param {
    lr_mult: 1
    decay_mult: 1
  }
  param {
    lr_mult: 2
    decay_mult: 0
  }
  convolution_param {
    num_output: 64
    bias_term: true
    pad: 4
    kernel_size: 3
    group: 1
    stride: 1
    weight_filler {
      type: "msra"
    }
    bias_filler {
      type: "constant"
      value: 0
    }
    dilation: 4
  }
}
layer {
  name: "ctx_conv4/bn"
  type: "BatchNorm"
  bottom: "ctx_conv4"
  top: "ctx_conv4/bn"
  param {
    lr_mult: 1
    decay_mult: 1
  }
  param {
    lr_mult: 1
    decay_mult: 1
  }
  param {
    lr_mult: 0
    decay_mult: 0
  }
  param {
    lr_mult: 0
    decay_mult: 0
  }
  batch_norm_param {
    moving_average_fraction: 0.99
    eps: 0.0001
    scale_filler {
      type: "constant"
      value: 1
    }
    bias_filler {
      type: "constant"
      value: 0
    }
  }
}
layer {
  name: "ctx_conv4/relu"
  type: "ReLU"
  bottom: "ctx_conv4/bn"
  top: "ctx_conv4/bn"
}
layer {
  name: "ctx_final"
  type: "Convolution"
  bottom: "ctx_conv4/bn"
  top: "ctx_final"
  param {
    lr_mult: 1
    decay_mult: 1
  }
  param {
    lr_mult: 2
    decay_mult: 0
  }
  convolution_param {
    num_output: 8
    bias_term: true
    pad: 1
    kernel_size: 3
    kernel_size: 3
    group: 1
    stride: 1
    weight_filler {
      type: "msra"
    }
    bias_filler {
      type: "constant"
      value: 0
    }
    dilation: 1
  }
}
layer {
  name: "ctx_final/relu"
  type: "ReLU"
  bottom: "ctx_final"
  top: "ctx_final"
}
layer {
  name: "out_deconv_final_up2"
  type: "Deconvolution"
  bottom: "ctx_final"
  top: "out_deconv_final_up2"
  param {
    lr_mult: 0
    decay_mult: 0
  }
  convolution_param {
    num_output: 8
    bias_term: false
    pad: 1
    kernel_size: 4
    group: 8
    stride: 2
    weight_filler {
      type: "bilinear"
    }
  }
}
layer {
  name: "out_deconv_final_up4"
  type: "Deconvolution"
  bottom: "out_deconv_final_up2"
  top: "out_deconv_final_up4"
  param {
    lr_mult: 0
    decay_mult: 0
  }
  convolution_param {
    num_output: 8
    bias_term: false
    pad: 1
    kernel_size: 4
    group: 8
    stride: 2
    weight_filler {
      type: "bilinear"
    }
  }
}
layer {
  name: "out_deconv_final_up8"
  type: "Deconvolution"
  bottom: "out_deconv_final_up4"
  top: "out_deconv_final_up8"
  param {
    lr_mult: 0
    decay_mult: 0
  }
  convolution_param {
    num_output: 8
    bias_term: false
    pad: 1
    kernel_size: 4
    group: 8
    stride: 2
    weight_filler {
      type: "bilinear"
    }
  }
}
layer {
  name: "prob"
  type: "Softmax"
  bottom: "out_deconv_final_up8"
  top: "prob"
}
I0712 00:18:02.516366 25741 layer_factory.hpp:77] Creating layer input
I0712 00:18:02.516376 25741 net.cpp:98] Creating Layer input
I0712 00:18:02.516379 25741 net.cpp:413] input -> data
I0712 00:18:02.517448 25741 net.cpp:148] Setting up input
I0712 00:18:02.517457 25741 net.cpp:155] Top shape: 1 3 512 1024 (1572864)
I0712 00:18:02.517459 25741 net.cpp:163] Memory required for data: 6291456
I0712 00:18:02.517462 25741 layer_factory.hpp:77] Creating layer data/bias
I0712 00:18:02.517472 25741 net.cpp:98] Creating Layer data/bias
I0712 00:18:02.517477 25741 net.cpp:439] data/bias <- data
I0712 00:18:02.517479 25741 net.cpp:413] data/bias -> data/bias
I0712 00:18:02.518617 25741 net.cpp:148] Setting up data/bias
I0712 00:18:02.518626 25741 net.cpp:155] Top shape: 1 3 512 1024 (1572864)
I0712 00:18:02.518628 25741 net.cpp:163] Memory required for data: 12582912
I0712 00:18:02.518635 25741 layer_factory.hpp:77] Creating layer conv1a
I0712 00:18:02.518641 25741 net.cpp:98] Creating Layer conv1a
I0712 00:18:02.518643 25741 net.cpp:439] conv1a <- data/bias
I0712 00:18:02.518646 25741 net.cpp:413] conv1a -> conv1a
I0712 00:18:02.521000 25741 net.cpp:148] Setting up conv1a
I0712 00:18:02.521010 25741 net.cpp:155] Top shape: 1 32 256 512 (4194304)
I0712 00:18:02.521013 25741 net.cpp:163] Memory required for data: 29360128
I0712 00:18:02.521018 25741 layer_factory.hpp:77] Creating layer conv1a/bn
I0712 00:18:02.521023 25741 net.cpp:98] Creating Layer conv1a/bn
I0712 00:18:02.521025 25741 net.cpp:439] conv1a/bn <- conv1a
I0712 00:18:02.521029 25741 net.cpp:413] conv1a/bn -> conv1a/bn
I0712 00:18:02.521740 25741 net.cpp:148] Setting up conv1a/bn
I0712 00:18:02.521747 25741 net.cpp:155] Top shape: 1 32 256 512 (4194304)
I0712 00:18:02.521749 25741 net.cpp:163] Memory required for data: 46137344
I0712 00:18:02.521755 25741 layer_factory.hpp:77] Creating layer conv1a/relu
I0712 00:18:02.521759 25741 net.cpp:98] Creating Layer conv1a/relu
I0712 00:18:02.521760 25741 net.cpp:439] conv1a/relu <- conv1a/bn
I0712 00:18:02.521762 25741 net.cpp:400] conv1a/relu -> conv1a/bn (in-place)
I0712 00:18:02.521771 25741 net.cpp:148] Setting up conv1a/relu
I0712 00:18:02.521775 25741 net.cpp:155] Top shape: 1 32 256 512 (4194304)
I0712 00:18:02.521776 25741 net.cpp:163] Memory required for data: 62914560
I0712 00:18:02.521778 25741 layer_factory.hpp:77] Creating layer conv1b
I0712 00:18:02.521785 25741 net.cpp:98] Creating Layer conv1b
I0712 00:18:02.521788 25741 net.cpp:439] conv1b <- conv1a/bn
I0712 00:18:02.521791 25741 net.cpp:413] conv1b -> conv1b
I0712 00:18:02.522153 25741 net.cpp:148] Setting up conv1b
I0712 00:18:02.522158 25741 net.cpp:155] Top shape: 1 32 256 512 (4194304)
I0712 00:18:02.522161 25741 net.cpp:163] Memory required for data: 79691776
I0712 00:18:02.522164 25741 layer_factory.hpp:77] Creating layer conv1b/bn
I0712 00:18:02.522167 25741 net.cpp:98] Creating Layer conv1b/bn
I0712 00:18:02.522169 25741 net.cpp:439] conv1b/bn <- conv1b
I0712 00:18:02.522173 25741 net.cpp:413] conv1b/bn -> conv1b/bn
I0712 00:18:02.522861 25741 net.cpp:148] Setting up conv1b/bn
I0712 00:18:02.522867 25741 net.cpp:155] Top shape: 1 32 256 512 (4194304)
I0712 00:18:02.522869 25741 net.cpp:163] Memory required for data: 96468992
I0712 00:18:02.522873 25741 layer_factory.hpp:77] Creating layer conv1b/relu
I0712 00:18:02.522876 25741 net.cpp:98] Creating Layer conv1b/relu
I0712 00:18:02.522878 25741 net.cpp:439] conv1b/relu <- conv1b/bn
I0712 00:18:02.522881 25741 net.cpp:400] conv1b/relu -> conv1b/bn (in-place)
I0712 00:18:02.522883 25741 net.cpp:148] Setting up conv1b/relu
I0712 00:18:02.522886 25741 net.cpp:155] Top shape: 1 32 256 512 (4194304)
I0712 00:18:02.522886 25741 net.cpp:163] Memory required for data: 113246208
I0712 00:18:02.522888 25741 layer_factory.hpp:77] Creating layer pool1
I0712 00:18:02.522891 25741 net.cpp:98] Creating Layer pool1
I0712 00:18:02.522894 25741 net.cpp:439] pool1 <- conv1b/bn
I0712 00:18:02.522897 25741 net.cpp:413] pool1 -> pool1
I0712 00:18:02.522933 25741 net.cpp:148] Setting up pool1
I0712 00:18:02.522938 25741 net.cpp:155] Top shape: 1 32 128 256 (1048576)
I0712 00:18:02.522938 25741 net.cpp:163] Memory required for data: 117440512
I0712 00:18:02.522940 25741 layer_factory.hpp:77] Creating layer res2a_branch2a
I0712 00:18:02.522944 25741 net.cpp:98] Creating Layer res2a_branch2a
I0712 00:18:02.522946 25741 net.cpp:439] res2a_branch2a <- pool1
I0712 00:18:02.522948 25741 net.cpp:413] res2a_branch2a -> res2a_branch2a
I0712 00:18:02.524451 25741 net.cpp:148] Setting up res2a_branch2a
I0712 00:18:02.524461 25741 net.cpp:155] Top shape: 1 64 128 256 (2097152)
I0712 00:18:02.524462 25741 net.cpp:163] Memory required for data: 125829120
I0712 00:18:02.524466 25741 layer_factory.hpp:77] Creating layer res2a_branch2a/bn
I0712 00:18:02.524469 25741 net.cpp:98] Creating Layer res2a_branch2a/bn
I0712 00:18:02.524471 25741 net.cpp:439] res2a_branch2a/bn <- res2a_branch2a
I0712 00:18:02.524474 25741 net.cpp:413] res2a_branch2a/bn -> res2a_branch2a/bn
I0712 00:18:02.525127 25741 net.cpp:148] Setting up res2a_branch2a/bn
I0712 00:18:02.525133 25741 net.cpp:155] Top shape: 1 64 128 256 (2097152)
I0712 00:18:02.525135 25741 net.cpp:163] Memory required for data: 134217728
I0712 00:18:02.525141 25741 layer_factory.hpp:77] Creating layer res2a_branch2a/relu
I0712 00:18:02.525143 25741 net.cpp:98] Creating Layer res2a_branch2a/relu
I0712 00:18:02.525146 25741 net.cpp:439] res2a_branch2a/relu <- res2a_branch2a/bn
I0712 00:18:02.525147 25741 net.cpp:400] res2a_branch2a/relu -> res2a_branch2a/bn (in-place)
I0712 00:18:02.525151 25741 net.cpp:148] Setting up res2a_branch2a/relu
I0712 00:18:02.525152 25741 net.cpp:155] Top shape: 1 64 128 256 (2097152)
I0712 00:18:02.525154 25741 net.cpp:163] Memory required for data: 142606336
I0712 00:18:02.525156 25741 layer_factory.hpp:77] Creating layer res2a_branch2b
I0712 00:18:02.525159 25741 net.cpp:98] Creating Layer res2a_branch2b
I0712 00:18:02.525161 25741 net.cpp:439] res2a_branch2b <- res2a_branch2a/bn
I0712 00:18:02.525163 25741 net.cpp:413] res2a_branch2b -> res2a_branch2b
I0712 00:18:02.526484 25741 net.cpp:148] Setting up res2a_branch2b
I0712 00:18:02.526492 25741 net.cpp:155] Top shape: 1 64 128 256 (2097152)
I0712 00:18:02.526494 25741 net.cpp:163] Memory required for data: 150994944
I0712 00:18:02.526497 25741 layer_factory.hpp:77] Creating layer res2a_branch2b/bn
I0712 00:18:02.526501 25741 net.cpp:98] Creating Layer res2a_branch2b/bn
I0712 00:18:02.526504 25741 net.cpp:439] res2a_branch2b/bn <- res2a_branch2b
I0712 00:18:02.526507 25741 net.cpp:413] res2a_branch2b/bn -> res2a_branch2b/bn
I0712 00:18:02.527168 25741 net.cpp:148] Setting up res2a_branch2b/bn
I0712 00:18:02.527174 25741 net.cpp:155] Top shape: 1 64 128 256 (2097152)
I0712 00:18:02.527176 25741 net.cpp:163] Memory required for data: 159383552
I0712 00:18:02.527182 25741 layer_factory.hpp:77] Creating layer res2a_branch2b/relu
I0712 00:18:02.527186 25741 net.cpp:98] Creating Layer res2a_branch2b/relu
I0712 00:18:02.527189 25741 net.cpp:439] res2a_branch2b/relu <- res2a_branch2b/bn
I0712 00:18:02.527192 25741 net.cpp:400] res2a_branch2b/relu -> res2a_branch2b/bn (in-place)
I0712 00:18:02.527199 25741 net.cpp:148] Setting up res2a_branch2b/relu
I0712 00:18:02.527204 25741 net.cpp:155] Top shape: 1 64 128 256 (2097152)
I0712 00:18:02.527206 25741 net.cpp:163] Memory required for data: 167772160
I0712 00:18:02.527209 25741 layer_factory.hpp:77] Creating layer pool2
I0712 00:18:02.527214 25741 net.cpp:98] Creating Layer pool2
I0712 00:18:02.527217 25741 net.cpp:439] pool2 <- res2a_branch2b/bn
I0712 00:18:02.527220 25741 net.cpp:413] pool2 -> pool2
I0712 00:18:02.527253 25741 net.cpp:148] Setting up pool2
I0712 00:18:02.527257 25741 net.cpp:155] Top shape: 1 64 64 128 (524288)
I0712 00:18:02.527259 25741 net.cpp:163] Memory required for data: 169869312
I0712 00:18:02.527261 25741 layer_factory.hpp:77] Creating layer res3a_branch2a
I0712 00:18:02.527267 25741 net.cpp:98] Creating Layer res3a_branch2a
I0712 00:18:02.527271 25741 net.cpp:439] res3a_branch2a <- pool2
I0712 00:18:02.527273 25741 net.cpp:413] res3a_branch2a -> res3a_branch2a
I0712 00:18:02.529917 25741 net.cpp:148] Setting up res3a_branch2a
I0712 00:18:02.529928 25741 net.cpp:155] Top shape: 1 128 64 128 (1048576)
I0712 00:18:02.529930 25741 net.cpp:163] Memory required for data: 174063616
I0712 00:18:02.529934 25741 layer_factory.hpp:77] Creating layer res3a_branch2a/bn
I0712 00:18:02.529938 25741 net.cpp:98] Creating Layer res3a_branch2a/bn
I0712 00:18:02.529940 25741 net.cpp:439] res3a_branch2a/bn <- res3a_branch2a
I0712 00:18:02.529943 25741 net.cpp:413] res3a_branch2a/bn -> res3a_branch2a/bn
I0712 00:18:02.530536 25741 net.cpp:148] Setting up res3a_branch2a/bn
I0712 00:18:02.530542 25741 net.cpp:155] Top shape: 1 128 64 128 (1048576)
I0712 00:18:02.530544 25741 net.cpp:163] Memory required for data: 178257920
I0712 00:18:02.530550 25741 layer_factory.hpp:77] Creating layer res3a_branch2a/relu
I0712 00:18:02.530553 25741 net.cpp:98] Creating Layer res3a_branch2a/relu
I0712 00:18:02.530555 25741 net.cpp:439] res3a_branch2a/relu <- res3a_branch2a/bn
I0712 00:18:02.530557 25741 net.cpp:400] res3a_branch2a/relu -> res3a_branch2a/bn (in-place)
I0712 00:18:02.530562 25741 net.cpp:148] Setting up res3a_branch2a/relu
I0712 00:18:02.530565 25741 net.cpp:155] Top shape: 1 128 64 128 (1048576)
I0712 00:18:02.530566 25741 net.cpp:163] Memory required for data: 182452224
I0712 00:18:02.530568 25741 layer_factory.hpp:77] Creating layer res3a_branch2b
I0712 00:18:02.530572 25741 net.cpp:98] Creating Layer res3a_branch2b
I0712 00:18:02.530575 25741 net.cpp:439] res3a_branch2b <- res3a_branch2a/bn
I0712 00:18:02.530580 25741 net.cpp:413] res3a_branch2b -> res3a_branch2b
I0712 00:18:02.531566 25741 net.cpp:148] Setting up res3a_branch2b
I0712 00:18:02.531571 25741 net.cpp:155] Top shape: 1 128 64 128 (1048576)
I0712 00:18:02.531574 25741 net.cpp:163] Memory required for data: 186646528
I0712 00:18:02.531576 25741 layer_factory.hpp:77] Creating layer res3a_branch2b/bn
I0712 00:18:02.531579 25741 net.cpp:98] Creating Layer res3a_branch2b/bn
I0712 00:18:02.531581 25741 net.cpp:439] res3a_branch2b/bn <- res3a_branch2b
I0712 00:18:02.531584 25741 net.cpp:413] res3a_branch2b/bn -> res3a_branch2b/bn
I0712 00:18:02.532176 25741 net.cpp:148] Setting up res3a_branch2b/bn
I0712 00:18:02.532181 25741 net.cpp:155] Top shape: 1 128 64 128 (1048576)
I0712 00:18:02.532183 25741 net.cpp:163] Memory required for data: 190840832
I0712 00:18:02.532187 25741 layer_factory.hpp:77] Creating layer res3a_branch2b/relu
I0712 00:18:02.532191 25741 net.cpp:98] Creating Layer res3a_branch2b/relu
I0712 00:18:02.532192 25741 net.cpp:439] res3a_branch2b/relu <- res3a_branch2b/bn
I0712 00:18:02.532194 25741 net.cpp:400] res3a_branch2b/relu -> res3a_branch2b/bn (in-place)
I0712 00:18:02.532197 25741 net.cpp:148] Setting up res3a_branch2b/relu
I0712 00:18:02.532199 25741 net.cpp:155] Top shape: 1 128 64 128 (1048576)
I0712 00:18:02.532200 25741 net.cpp:163] Memory required for data: 195035136
I0712 00:18:02.532202 25741 layer_factory.hpp:77] Creating layer res3a_branch2b/bn_res3a_branch2b/relu_0_split
I0712 00:18:02.532205 25741 net.cpp:98] Creating Layer res3a_branch2b/bn_res3a_branch2b/relu_0_split
I0712 00:18:02.532207 25741 net.cpp:439] res3a_branch2b/bn_res3a_branch2b/relu_0_split <- res3a_branch2b/bn
I0712 00:18:02.532209 25741 net.cpp:413] res3a_branch2b/bn_res3a_branch2b/relu_0_split -> res3a_branch2b/bn_res3a_branch2b/relu_0_split_0
I0712 00:18:02.532212 25741 net.cpp:413] res3a_branch2b/bn_res3a_branch2b/relu_0_split -> res3a_branch2b/bn_res3a_branch2b/relu_0_split_1
I0712 00:18:02.532248 25741 net.cpp:148] Setting up res3a_branch2b/bn_res3a_branch2b/relu_0_split
I0712 00:18:02.532251 25741 net.cpp:155] Top shape: 1 128 64 128 (1048576)
I0712 00:18:02.532254 25741 net.cpp:155] Top shape: 1 128 64 128 (1048576)
I0712 00:18:02.532255 25741 net.cpp:163] Memory required for data: 203423744
I0712 00:18:02.532258 25741 layer_factory.hpp:77] Creating layer pool3
I0712 00:18:02.532260 25741 net.cpp:98] Creating Layer pool3
I0712 00:18:02.532263 25741 net.cpp:439] pool3 <- res3a_branch2b/bn_res3a_branch2b/relu_0_split_0
I0712 00:18:02.532265 25741 net.cpp:413] pool3 -> pool3
I0712 00:18:02.532300 25741 net.cpp:148] Setting up pool3
I0712 00:18:02.532305 25741 net.cpp:155] Top shape: 1 128 32 64 (262144)
I0712 00:18:02.532306 25741 net.cpp:163] Memory required for data: 204472320
I0712 00:18:02.532307 25741 layer_factory.hpp:77] Creating layer res4a_branch2a
I0712 00:18:02.532311 25741 net.cpp:98] Creating Layer res4a_branch2a
I0712 00:18:02.532313 25741 net.cpp:439] res4a_branch2a <- pool3
I0712 00:18:02.532315 25741 net.cpp:413] res4a_branch2a -> res4a_branch2a
I0712 00:18:02.538372 25741 net.cpp:148] Setting up res4a_branch2a
I0712 00:18:02.538377 25741 net.cpp:155] Top shape: 1 256 32 64 (524288)
I0712 00:18:02.538378 25741 net.cpp:163] Memory required for data: 206569472
I0712 00:18:02.538381 25741 layer_factory.hpp:77] Creating layer res4a_branch2a/bn
I0712 00:18:02.538385 25741 net.cpp:98] Creating Layer res4a_branch2a/bn
I0712 00:18:02.538388 25741 net.cpp:439] res4a_branch2a/bn <- res4a_branch2a
I0712 00:18:02.538389 25741 net.cpp:413] res4a_branch2a/bn -> res4a_branch2a/bn
I0712 00:18:02.539101 25741 net.cpp:148] Setting up res4a_branch2a/bn
I0712 00:18:02.539108 25741 net.cpp:155] Top shape: 1 256 32 64 (524288)
I0712 00:18:02.539110 25741 net.cpp:163] Memory required for data: 208666624
I0712 00:18:02.539115 25741 layer_factory.hpp:77] Creating layer res4a_branch2a/relu
I0712 00:18:02.539117 25741 net.cpp:98] Creating Layer res4a_branch2a/relu
I0712 00:18:02.539119 25741 net.cpp:439] res4a_branch2a/relu <- res4a_branch2a/bn
I0712 00:18:02.539122 25741 net.cpp:400] res4a_branch2a/relu -> res4a_branch2a/bn (in-place)
I0712 00:18:02.539125 25741 net.cpp:148] Setting up res4a_branch2a/relu
I0712 00:18:02.539127 25741 net.cpp:155] Top shape: 1 256 32 64 (524288)
I0712 00:18:02.539129 25741 net.cpp:163] Memory required for data: 210763776
I0712 00:18:02.539130 25741 layer_factory.hpp:77] Creating layer res4a_branch2b
I0712 00:18:02.539139 25741 net.cpp:98] Creating Layer res4a_branch2b
I0712 00:18:02.539141 25741 net.cpp:439] res4a_branch2b <- res4a_branch2a/bn
I0712 00:18:02.539145 25741 net.cpp:413] res4a_branch2b -> res4a_branch2b
I0712 00:18:02.542315 25741 net.cpp:148] Setting up res4a_branch2b
I0712 00:18:02.542322 25741 net.cpp:155] Top shape: 1 256 32 64 (524288)
I0712 00:18:02.542325 25741 net.cpp:163] Memory required for data: 212860928
I0712 00:18:02.542327 25741 layer_factory.hpp:77] Creating layer res4a_branch2b/bn
I0712 00:18:02.542332 25741 net.cpp:98] Creating Layer res4a_branch2b/bn
I0712 00:18:02.542335 25741 net.cpp:439] res4a_branch2b/bn <- res4a_branch2b
I0712 00:18:02.542340 25741 net.cpp:413] res4a_branch2b/bn -> res4a_branch2b/bn
I0712 00:18:02.542964 25741 net.cpp:148] Setting up res4a_branch2b/bn
I0712 00:18:02.542970 25741 net.cpp:155] Top shape: 1 256 32 64 (524288)
I0712 00:18:02.542973 25741 net.cpp:163] Memory required for data: 214958080
I0712 00:18:02.542978 25741 layer_factory.hpp:77] Creating layer res4a_branch2b/relu
I0712 00:18:02.542985 25741 net.cpp:98] Creating Layer res4a_branch2b/relu
I0712 00:18:02.542999 25741 net.cpp:439] res4a_branch2b/relu <- res4a_branch2b/bn
I0712 00:18:02.543005 25741 net.cpp:400] res4a_branch2b/relu -> res4a_branch2b/bn (in-place)
I0712 00:18:02.543014 25741 net.cpp:148] Setting up res4a_branch2b/relu
I0712 00:18:02.543018 25741 net.cpp:155] Top shape: 1 256 32 64 (524288)
I0712 00:18:02.543021 25741 net.cpp:163] Memory required for data: 217055232
I0712 00:18:02.543025 25741 layer_factory.hpp:77] Creating layer pool4
I0712 00:18:02.543030 25741 net.cpp:98] Creating Layer pool4
I0712 00:18:02.543033 25741 net.cpp:439] pool4 <- res4a_branch2b/bn
I0712 00:18:02.543037 25741 net.cpp:413] pool4 -> pool4
I0712 00:18:02.543088 25741 net.cpp:148] Setting up pool4
I0712 00:18:02.543094 25741 net.cpp:155] Top shape: 1 256 32 64 (524288)
I0712 00:18:02.543097 25741 net.cpp:163] Memory required for data: 219152384
I0712 00:18:02.543102 25741 layer_factory.hpp:77] Creating layer res5a_branch2a
I0712 00:18:02.543113 25741 net.cpp:98] Creating Layer res5a_branch2a
I0712 00:18:02.543118 25741 net.cpp:439] res5a_branch2a <- pool4
I0712 00:18:02.543129 25741 net.cpp:413] res5a_branch2a -> res5a_branch2a
I0712 00:18:02.569193 25741 net.cpp:148] Setting up res5a_branch2a
I0712 00:18:02.569209 25741 net.cpp:155] Top shape: 1 512 32 64 (1048576)
I0712 00:18:02.569212 25741 net.cpp:163] Memory required for data: 223346688
I0712 00:18:02.569217 25741 layer_factory.hpp:77] Creating layer res5a_branch2a/bn
I0712 00:18:02.569226 25741 net.cpp:98] Creating Layer res5a_branch2a/bn
I0712 00:18:02.569229 25741 net.cpp:439] res5a_branch2a/bn <- res5a_branch2a
I0712 00:18:02.569233 25741 net.cpp:413] res5a_branch2a/bn -> res5a_branch2a/bn
I0712 00:18:02.569947 25741 net.cpp:148] Setting up res5a_branch2a/bn
I0712 00:18:02.569954 25741 net.cpp:155] Top shape: 1 512 32 64 (1048576)
I0712 00:18:02.569957 25741 net.cpp:163] Memory required for data: 227540992
I0712 00:18:02.569962 25741 layer_factory.hpp:77] Creating layer res5a_branch2a/relu
I0712 00:18:02.569967 25741 net.cpp:98] Creating Layer res5a_branch2a/relu
I0712 00:18:02.569968 25741 net.cpp:439] res5a_branch2a/relu <- res5a_branch2a/bn
I0712 00:18:02.569970 25741 net.cpp:400] res5a_branch2a/relu -> res5a_branch2a/bn (in-place)
I0712 00:18:02.569974 25741 net.cpp:148] Setting up res5a_branch2a/relu
I0712 00:18:02.569977 25741 net.cpp:155] Top shape: 1 512 32 64 (1048576)
I0712 00:18:02.569978 25741 net.cpp:163] Memory required for data: 231735296
I0712 00:18:02.569980 25741 layer_factory.hpp:77] Creating layer res5a_branch2b
I0712 00:18:02.569985 25741 net.cpp:98] Creating Layer res5a_branch2b
I0712 00:18:02.569986 25741 net.cpp:439] res5a_branch2b <- res5a_branch2a/bn
I0712 00:18:02.569989 25741 net.cpp:413] res5a_branch2b -> res5a_branch2b
I0712 00:18:02.582939 25741 net.cpp:148] Setting up res5a_branch2b
I0712 00:18:02.582959 25741 net.cpp:155] Top shape: 1 512 32 64 (1048576)
I0712 00:18:02.582962 25741 net.cpp:163] Memory required for data: 235929600
I0712 00:18:02.582969 25741 layer_factory.hpp:77] Creating layer res5a_branch2b/bn
I0712 00:18:02.582978 25741 net.cpp:98] Creating Layer res5a_branch2b/bn
I0712 00:18:02.582979 25741 net.cpp:439] res5a_branch2b/bn <- res5a_branch2b
I0712 00:18:02.582983 25741 net.cpp:413] res5a_branch2b/bn -> res5a_branch2b/bn
I0712 00:18:02.583704 25741 net.cpp:148] Setting up res5a_branch2b/bn
I0712 00:18:02.583712 25741 net.cpp:155] Top shape: 1 512 32 64 (1048576)
I0712 00:18:02.583714 25741 net.cpp:163] Memory required for data: 240123904
I0712 00:18:02.583719 25741 layer_factory.hpp:77] Creating layer res5a_branch2b/relu
I0712 00:18:02.583722 25741 net.cpp:98] Creating Layer res5a_branch2b/relu
I0712 00:18:02.583724 25741 net.cpp:439] res5a_branch2b/relu <- res5a_branch2b/bn
I0712 00:18:02.583726 25741 net.cpp:400] res5a_branch2b/relu -> res5a_branch2b/bn (in-place)
I0712 00:18:02.583730 25741 net.cpp:148] Setting up res5a_branch2b/relu
I0712 00:18:02.583734 25741 net.cpp:155] Top shape: 1 512 32 64 (1048576)
I0712 00:18:02.583734 25741 net.cpp:163] Memory required for data: 244318208
I0712 00:18:02.583736 25741 layer_factory.hpp:77] Creating layer out5a
I0712 00:18:02.583740 25741 net.cpp:98] Creating Layer out5a
I0712 00:18:02.583742 25741 net.cpp:439] out5a <- res5a_branch2b/bn
I0712 00:18:02.583745 25741 net.cpp:413] out5a -> out5a
I0712 00:18:02.587994 25741 net.cpp:148] Setting up out5a
I0712 00:18:02.588003 25741 net.cpp:155] Top shape: 1 64 32 64 (131072)
I0712 00:18:02.588006 25741 net.cpp:163] Memory required for data: 244842496
I0712 00:18:02.588008 25741 layer_factory.hpp:77] Creating layer out5a/bn
I0712 00:18:02.588016 25741 net.cpp:98] Creating Layer out5a/bn
I0712 00:18:02.588018 25741 net.cpp:439] out5a/bn <- out5a
I0712 00:18:02.588021 25741 net.cpp:413] out5a/bn -> out5a/bn
I0712 00:18:02.588774 25741 net.cpp:148] Setting up out5a/bn
I0712 00:18:02.588781 25741 net.cpp:155] Top shape: 1 64 32 64 (131072)
I0712 00:18:02.588783 25741 net.cpp:163] Memory required for data: 245366784
I0712 00:18:02.588788 25741 layer_factory.hpp:77] Creating layer out5a/relu
I0712 00:18:02.588790 25741 net.cpp:98] Creating Layer out5a/relu
I0712 00:18:02.588793 25741 net.cpp:439] out5a/relu <- out5a/bn
I0712 00:18:02.588795 25741 net.cpp:400] out5a/relu -> out5a/bn (in-place)
I0712 00:18:02.588798 25741 net.cpp:148] Setting up out5a/relu
I0712 00:18:02.588800 25741 net.cpp:155] Top shape: 1 64 32 64 (131072)
I0712 00:18:02.588802 25741 net.cpp:163] Memory required for data: 245891072
I0712 00:18:02.588804 25741 layer_factory.hpp:77] Creating layer out5a_up2
I0712 00:18:02.588811 25741 net.cpp:98] Creating Layer out5a_up2
I0712 00:18:02.588814 25741 net.cpp:439] out5a_up2 <- out5a/bn
I0712 00:18:02.588821 25741 net.cpp:413] out5a_up2 -> out5a_up2
I0712 00:18:02.589164 25741 net.cpp:148] Setting up out5a_up2
I0712 00:18:02.589170 25741 net.cpp:155] Top shape: 1 64 64 128 (524288)
I0712 00:18:02.589172 25741 net.cpp:163] Memory required for data: 247988224
I0712 00:18:02.589174 25741 layer_factory.hpp:77] Creating layer out3a
I0712 00:18:02.589179 25741 net.cpp:98] Creating Layer out3a
I0712 00:18:02.589181 25741 net.cpp:439] out3a <- res3a_branch2b/bn_res3a_branch2b/relu_0_split_1
I0712 00:18:02.589184 25741 net.cpp:413] out3a -> out3a
I0712 00:18:02.590265 25741 net.cpp:148] Setting up out3a
I0712 00:18:02.590271 25741 net.cpp:155] Top shape: 1 64 64 128 (524288)
I0712 00:18:02.590273 25741 net.cpp:163] Memory required for data: 250085376
I0712 00:18:02.590277 25741 layer_factory.hpp:77] Creating layer out3a/bn
I0712 00:18:02.590281 25741 net.cpp:98] Creating Layer out3a/bn
I0712 00:18:02.590282 25741 net.cpp:439] out3a/bn <- out3a
I0712 00:18:02.590286 25741 net.cpp:413] out3a/bn -> out3a/bn
I0712 00:18:02.591130 25741 net.cpp:148] Setting up out3a/bn
I0712 00:18:02.591138 25741 net.cpp:155] Top shape: 1 64 64 128 (524288)
I0712 00:18:02.591140 25741 net.cpp:163] Memory required for data: 252182528
I0712 00:18:02.591150 25741 layer_factory.hpp:77] Creating layer out3a/relu
I0712 00:18:02.591152 25741 net.cpp:98] Creating Layer out3a/relu
I0712 00:18:02.591154 25741 net.cpp:439] out3a/relu <- out3a/bn
I0712 00:18:02.591157 25741 net.cpp:400] out3a/relu -> out3a/bn (in-place)
I0712 00:18:02.591161 25741 net.cpp:148] Setting up out3a/relu
I0712 00:18:02.591163 25741 net.cpp:155] Top shape: 1 64 64 128 (524288)
I0712 00:18:02.591164 25741 net.cpp:163] Memory required for data: 254279680
I0712 00:18:02.591166 25741 layer_factory.hpp:77] Creating layer out3_out5_combined
I0712 00:18:02.591172 25741 net.cpp:98] Creating Layer out3_out5_combined
I0712 00:18:02.591174 25741 net.cpp:439] out3_out5_combined <- out5a_up2
I0712 00:18:02.591176 25741 net.cpp:439] out3_out5_combined <- out3a/bn
I0712 00:18:02.591178 25741 net.cpp:413] out3_out5_combined -> out3_out5_combined
I0712 00:18:02.591208 25741 net.cpp:148] Setting up out3_out5_combined
I0712 00:18:02.591214 25741 net.cpp:155] Top shape: 1 64 64 128 (524288)
I0712 00:18:02.591217 25741 net.cpp:163] Memory required for data: 256376832
I0712 00:18:02.591220 25741 layer_factory.hpp:77] Creating layer ctx_conv1
I0712 00:18:02.591226 25741 net.cpp:98] Creating Layer ctx_conv1
I0712 00:18:02.591229 25741 net.cpp:439] ctx_conv1 <- out3_out5_combined
I0712 00:18:02.591233 25741 net.cpp:413] ctx_conv1 -> ctx_conv1
I0712 00:18:02.592295 25741 net.cpp:148] Setting up ctx_conv1
I0712 00:18:02.592301 25741 net.cpp:155] Top shape: 1 64 64 128 (524288)
I0712 00:18:02.592303 25741 net.cpp:163] Memory required for data: 258473984
I0712 00:18:02.592306 25741 layer_factory.hpp:77] Creating layer ctx_conv1/bn
I0712 00:18:02.592309 25741 net.cpp:98] Creating Layer ctx_conv1/bn
I0712 00:18:02.592311 25741 net.cpp:439] ctx_conv1/bn <- ctx_conv1
I0712 00:18:02.592319 25741 net.cpp:413] ctx_conv1/bn -> ctx_conv1/bn
I0712 00:18:02.593152 25741 net.cpp:148] Setting up ctx_conv1/bn
I0712 00:18:02.593159 25741 net.cpp:155] Top shape: 1 64 64 128 (524288)
I0712 00:18:02.593161 25741 net.cpp:163] Memory required for data: 260571136
I0712 00:18:02.593165 25741 layer_factory.hpp:77] Creating layer ctx_conv1/relu
I0712 00:18:02.593168 25741 net.cpp:98] Creating Layer ctx_conv1/relu
I0712 00:18:02.593170 25741 net.cpp:439] ctx_conv1/relu <- ctx_conv1/bn
I0712 00:18:02.593173 25741 net.cpp:400] ctx_conv1/relu -> ctx_conv1/bn (in-place)
I0712 00:18:02.593176 25741 net.cpp:148] Setting up ctx_conv1/relu
I0712 00:18:02.593178 25741 net.cpp:155] Top shape: 1 64 64 128 (524288)
I0712 00:18:02.593179 25741 net.cpp:163] Memory required for data: 262668288
I0712 00:18:02.593181 25741 layer_factory.hpp:77] Creating layer ctx_conv2
I0712 00:18:02.593185 25741 net.cpp:98] Creating Layer ctx_conv2
I0712 00:18:02.593188 25741 net.cpp:439] ctx_conv2 <- ctx_conv1/bn
I0712 00:18:02.593189 25741 net.cpp:413] ctx_conv2 -> ctx_conv2
I0712 00:18:02.594305 25741 net.cpp:148] Setting up ctx_conv2
I0712 00:18:02.594312 25741 net.cpp:155] Top shape: 1 64 64 128 (524288)
I0712 00:18:02.594314 25741 net.cpp:163] Memory required for data: 264765440
I0712 00:18:02.594317 25741 layer_factory.hpp:77] Creating layer ctx_conv2/bn
I0712 00:18:02.594321 25741 net.cpp:98] Creating Layer ctx_conv2/bn
I0712 00:18:02.594323 25741 net.cpp:439] ctx_conv2/bn <- ctx_conv2
I0712 00:18:02.594326 25741 net.cpp:413] ctx_conv2/bn -> ctx_conv2/bn
I0712 00:18:02.595101 25741 net.cpp:148] Setting up ctx_conv2/bn
I0712 00:18:02.595108 25741 net.cpp:155] Top shape: 1 64 64 128 (524288)
I0712 00:18:02.595110 25741 net.cpp:163] Memory required for data: 266862592
I0712 00:18:02.595114 25741 layer_factory.hpp:77] Creating layer ctx_conv2/relu
I0712 00:18:02.595118 25741 net.cpp:98] Creating Layer ctx_conv2/relu
I0712 00:18:02.595119 25741 net.cpp:439] ctx_conv2/relu <- ctx_conv2/bn
I0712 00:18:02.595121 25741 net.cpp:400] ctx_conv2/relu -> ctx_conv2/bn (in-place)
I0712 00:18:02.595124 25741 net.cpp:148] Setting up ctx_conv2/relu
I0712 00:18:02.595127 25741 net.cpp:155] Top shape: 1 64 64 128 (524288)
I0712 00:18:02.595129 25741 net.cpp:163] Memory required for data: 268959744
I0712 00:18:02.595130 25741 layer_factory.hpp:77] Creating layer ctx_conv3
I0712 00:18:02.595134 25741 net.cpp:98] Creating Layer ctx_conv3
I0712 00:18:02.595135 25741 net.cpp:439] ctx_conv3 <- ctx_conv2/bn
I0712 00:18:02.595139 25741 net.cpp:413] ctx_conv3 -> ctx_conv3
I0712 00:18:02.596252 25741 net.cpp:148] Setting up ctx_conv3
I0712 00:18:02.596258 25741 net.cpp:155] Top shape: 1 64 64 128 (524288)
I0712 00:18:02.596261 25741 net.cpp:163] Memory required for data: 271056896
I0712 00:18:02.596263 25741 layer_factory.hpp:77] Creating layer ctx_conv3/bn
I0712 00:18:02.596267 25741 net.cpp:98] Creating Layer ctx_conv3/bn
I0712 00:18:02.596268 25741 net.cpp:439] ctx_conv3/bn <- ctx_conv3
I0712 00:18:02.596271 25741 net.cpp:413] ctx_conv3/bn -> ctx_conv3/bn
I0712 00:18:02.597056 25741 net.cpp:148] Setting up ctx_conv3/bn
I0712 00:18:02.597064 25741 net.cpp:155] Top shape: 1 64 64 128 (524288)
I0712 00:18:02.597065 25741 net.cpp:163] Memory required for data: 273154048
I0712 00:18:02.597069 25741 layer_factory.hpp:77] Creating layer ctx_conv3/relu
I0712 00:18:02.597072 25741 net.cpp:98] Creating Layer ctx_conv3/relu
I0712 00:18:02.597074 25741 net.cpp:439] ctx_conv3/relu <- ctx_conv3/bn
I0712 00:18:02.597076 25741 net.cpp:400] ctx_conv3/relu -> ctx_conv3/bn (in-place)
I0712 00:18:02.597080 25741 net.cpp:148] Setting up ctx_conv3/relu
I0712 00:18:02.597082 25741 net.cpp:155] Top shape: 1 64 64 128 (524288)
I0712 00:18:02.597084 25741 net.cpp:163] Memory required for data: 275251200
I0712 00:18:02.597085 25741 layer_factory.hpp:77] Creating layer ctx_conv4
I0712 00:18:02.597091 25741 net.cpp:98] Creating Layer ctx_conv4
I0712 00:18:02.597093 25741 net.cpp:439] ctx_conv4 <- ctx_conv3/bn
I0712 00:18:02.597096 25741 net.cpp:413] ctx_conv4 -> ctx_conv4
I0712 00:18:02.598207 25741 net.cpp:148] Setting up ctx_conv4
I0712 00:18:02.598213 25741 net.cpp:155] Top shape: 1 64 64 128 (524288)
I0712 00:18:02.598215 25741 net.cpp:163] Memory required for data: 277348352
I0712 00:18:02.598218 25741 layer_factory.hpp:77] Creating layer ctx_conv4/bn
I0712 00:18:02.598222 25741 net.cpp:98] Creating Layer ctx_conv4/bn
I0712 00:18:02.598224 25741 net.cpp:439] ctx_conv4/bn <- ctx_conv4
I0712 00:18:02.598227 25741 net.cpp:413] ctx_conv4/bn -> ctx_conv4/bn
I0712 00:18:02.599000 25741 net.cpp:148] Setting up ctx_conv4/bn
I0712 00:18:02.599006 25741 net.cpp:155] Top shape: 1 64 64 128 (524288)
I0712 00:18:02.599009 25741 net.cpp:163] Memory required for data: 279445504
I0712 00:18:02.599014 25741 layer_factory.hpp:77] Creating layer ctx_conv4/relu
I0712 00:18:02.599015 25741 net.cpp:98] Creating Layer ctx_conv4/relu
I0712 00:18:02.599017 25741 net.cpp:439] ctx_conv4/relu <- ctx_conv4/bn
I0712 00:18:02.599020 25741 net.cpp:400] ctx_conv4/relu -> ctx_conv4/bn (in-place)
I0712 00:18:02.599023 25741 net.cpp:148] Setting up ctx_conv4/relu
I0712 00:18:02.599025 25741 net.cpp:155] Top shape: 1 64 64 128 (524288)
I0712 00:18:02.599026 25741 net.cpp:163] Memory required for data: 281542656
I0712 00:18:02.599028 25741 layer_factory.hpp:77] Creating layer ctx_final
I0712 00:18:02.599032 25741 net.cpp:98] Creating Layer ctx_final
I0712 00:18:02.599035 25741 net.cpp:439] ctx_final <- ctx_conv4/bn
I0712 00:18:02.599036 25741 net.cpp:413] ctx_final -> ctx_final
I0712 00:18:02.599525 25741 net.cpp:148] Setting up ctx_final
I0712 00:18:02.599531 25741 net.cpp:155] Top shape: 1 8 64 128 (65536)
I0712 00:18:02.599534 25741 net.cpp:163] Memory required for data: 281804800
I0712 00:18:02.599536 25741 layer_factory.hpp:77] Creating layer ctx_final/relu
I0712 00:18:02.599539 25741 net.cpp:98] Creating Layer ctx_final/relu
I0712 00:18:02.599541 25741 net.cpp:439] ctx_final/relu <- ctx_final
I0712 00:18:02.599544 25741 net.cpp:400] ctx_final/relu -> ctx_final (in-place)
I0712 00:18:02.599546 25741 net.cpp:148] Setting up ctx_final/relu
I0712 00:18:02.599548 25741 net.cpp:155] Top shape: 1 8 64 128 (65536)
I0712 00:18:02.599550 25741 net.cpp:163] Memory required for data: 282066944
I0712 00:18:02.599551 25741 layer_factory.hpp:77] Creating layer out_deconv_final_up2
I0712 00:18:02.599555 25741 net.cpp:98] Creating Layer out_deconv_final_up2
I0712 00:18:02.599556 25741 net.cpp:439] out_deconv_final_up2 <- ctx_final
I0712 00:18:02.599558 25741 net.cpp:413] out_deconv_final_up2 -> out_deconv_final_up2
I0712 00:18:02.599870 25741 net.cpp:148] Setting up out_deconv_final_up2
I0712 00:18:02.599879 25741 net.cpp:155] Top shape: 1 8 128 256 (262144)
I0712 00:18:02.599881 25741 net.cpp:163] Memory required for data: 283115520
I0712 00:18:02.599885 25741 layer_factory.hpp:77] Creating layer out_deconv_final_up4
I0712 00:18:02.599889 25741 net.cpp:98] Creating Layer out_deconv_final_up4
I0712 00:18:02.599894 25741 net.cpp:439] out_deconv_final_up4 <- out_deconv_final_up2
I0712 00:18:02.599897 25741 net.cpp:413] out_deconv_final_up4 -> out_deconv_final_up4
I0712 00:18:02.600244 25741 net.cpp:148] Setting up out_deconv_final_up4
I0712 00:18:02.600250 25741 net.cpp:155] Top shape: 1 8 256 512 (1048576)
I0712 00:18:02.600252 25741 net.cpp:163] Memory required for data: 287309824
I0712 00:18:02.600255 25741 layer_factory.hpp:77] Creating layer out_deconv_final_up8
I0712 00:18:02.600257 25741 net.cpp:98] Creating Layer out_deconv_final_up8
I0712 00:18:02.600260 25741 net.cpp:439] out_deconv_final_up8 <- out_deconv_final_up4
I0712 00:18:02.600262 25741 net.cpp:413] out_deconv_final_up8 -> out_deconv_final_up8
I0712 00:18:02.600556 25741 net.cpp:148] Setting up out_deconv_final_up8
I0712 00:18:02.600563 25741 net.cpp:155] Top shape: 1 8 512 1024 (4194304)
I0712 00:18:02.600564 25741 net.cpp:163] Memory required for data: 304087040
I0712 00:18:02.600566 25741 layer_factory.hpp:77] Creating layer prob
I0712 00:18:02.600569 25741 net.cpp:98] Creating Layer prob
I0712 00:18:02.600571 25741 net.cpp:439] prob <- out_deconv_final_up8
I0712 00:18:02.600574 25741 net.cpp:413] prob -> prob
I0712 00:18:02.600661 25741 net.cpp:148] Setting up prob
I0712 00:18:02.600667 25741 net.cpp:155] Top shape: 1 8 512 1024 (4194304)
I0712 00:18:02.600670 25741 net.cpp:163] Memory required for data: 320864256
I0712 00:18:02.600673 25741 net.cpp:226] prob does not need backward computation.
I0712 00:18:02.600677 25741 net.cpp:226] out_deconv_final_up8 does not need backward computation.
I0712 00:18:02.600679 25741 net.cpp:226] out_deconv_final_up4 does not need backward computation.
I0712 00:18:02.600682 25741 net.cpp:226] out_deconv_final_up2 does not need backward computation.
…
