…
I0710 16:34:55.392668  1259 upgrade_proto.cpp:66] Attempting to upgrade input file specified using deprecated input fields: ../trained/image_segmentation/cityscapes5_jsegnet21v2/initial/deploy.prototxt
I0710 16:34:55.392694  1259 upgrade_proto.cpp:69] Successfully upgraded file specified using deprecated input fields.
W0710 16:34:55.392698  1259 upgrade_proto.cpp:71] Note that future Caffe releases will only support input layers and not input fields.
I0710 16:34:55.392976  1259 net.cpp:56] Initializing net from parameters: 
name: "jsegnet21v2_deploy"
state {
  phase: TEST
}
layer {
  name: "input"
  type: "Input"
  top: "data"
  input_param {
    shape {
      dim: 1
      dim: 3
      dim: 1024
      dim: 2048
    }
  }
}
layer {
  name: "data/bias"
  type: "Bias"
  bottom: "data"
  top: "data/bias"
  param {
    lr_mult: 0
    decay_mult: 0
  }
  bias_param {
    filler {
      type: "constant"
      value: -128
    }
  }
}
layer {
  name: "conv1a"
  type: "Convolution"
  bottom: "data/bias"
  top: "conv1a"
  param {
    lr_mult: 1
    decay_mult: 1
  }
  param {
    lr_mult: 2
    decay_mult: 0
  }
  convolution_param {
    num_output: 32
    bias_term: true
    pad: 2
    kernel_size: 5
    group: 1
    stride: 2
    weight_filler {
      type: "msra"
    }
    bias_filler {
      type: "constant"
      value: 0
    }
    dilation: 1
  }
}
layer {
  name: "conv1a/bn"
  type: "BatchNorm"
  bottom: "conv1a"
  top: "conv1a/bn"
  param {
    lr_mult: 1
    decay_mult: 1
  }
  param {
    lr_mult: 1
    decay_mult: 1
  }
  param {
    lr_mult: 0
    decay_mult: 0
  }
  param {
    lr_mult: 0
    decay_mult: 0
  }
  batch_norm_param {
    moving_average_fraction: 0.99
    eps: 0.0001
    scale_filler {
      type: "constant"
      value: 1
    }
    bias_filler {
      type: "constant"
      value: 0
    }
  }
}
layer {
  name: "conv1a/relu"
  type: "ReLU"
  bottom: "conv1a/bn"
  top: "conv1a/bn"
}
layer {
  name: "conv1b"
  type: "Convolution"
  bottom: "conv1a/bn"
  top: "conv1b"
  param {
    lr_mult: 1
    decay_mult: 1
  }
  param {
    lr_mult: 2
    decay_mult: 0
  }
  convolution_param {
    num_output: 32
    bias_term: true
    pad: 1
    kernel_size: 3
    group: 4
    stride: 1
    weight_filler {
      type: "msra"
    }
    bias_filler {
      type: "constant"
      value: 0
    }
    dilation: 1
  }
}
layer {
  name: "conv1b/bn"
  type: "BatchNorm"
  bottom: "conv1b"
  top: "conv1b/bn"
  param {
    lr_mult: 1
    decay_mult: 1
  }
  param {
    lr_mult: 1
    decay_mult: 1
  }
  param {
    lr_mult: 0
    decay_mult: 0
  }
  param {
    lr_mult: 0
    decay_mult: 0
  }
  batch_norm_param {
    moving_average_fraction: 0.99
    eps: 0.0001
    scale_filler {
      type: "constant"
      value: 1
    }
    bias_filler {
      type: "constant"
      value: 0
    }
  }
}
layer {
  name: "conv1b/relu"
  type: "ReLU"
  bottom: "conv1b/bn"
  top: "conv1b/bn"
}
layer {
  name: "pool1"
  type: "Pooling"
  bottom: "conv1b/bn"
  top: "pool1"
  pooling_param {
    pool: MAX
    kernel_size: 2
    stride: 2
  }
}
layer {
  name: "res2a_branch2a"
  type: "Convolution"
  bottom: "pool1"
  top: "res2a_branch2a"
  param {
    lr_mult: 1
    decay_mult: 1
  }
  param {
    lr_mult: 2
    decay_mult: 0
  }
  convolution_param {
    num_output: 64
    bias_term: true
    pad: 1
    kernel_size: 3
    group: 1
    stride: 1
    weight_filler {
      type: "msra"
    }
    bias_filler {
      type: "constant"
      value: 0
    }
    dilation: 1
  }
}
layer {
  name: "res2a_branch2a/bn"
  type: "BatchNorm"
  bottom: "res2a_branch2a"
  top: "res2a_branch2a/bn"
  param {
    lr_mult: 1
    decay_mult: 1
  }
  param {
    lr_mult: 1
    decay_mult: 1
  }
  param {
    lr_mult: 0
    decay_mult: 0
  }
  param {
    lr_mult: 0
    decay_mult: 0
  }
  batch_norm_param {
    moving_average_fraction: 0.99
    eps: 0.0001
    scale_filler {
      type: "constant"
      value: 1
    }
    bias_filler {
      type: "constant"
      value: 0
    }
  }
}
layer {
  name: "res2a_branch2a/relu"
  type: "ReLU"
  bottom: "res2a_branch2a/bn"
  top: "res2a_branch2a/bn"
}
layer {
  name: "res2a_branch2b"
  type: "Convolution"
  bottom: "res2a_branch2a/bn"
  top: "res2a_branch2b"
  param {
    lr_mult: 1
    decay_mult: 1
  }
  param {
    lr_mult: 2
    decay_mult: 0
  }
  convolution_param {
    num_output: 64
    bias_term: true
    pad: 1
    kernel_size: 3
    group: 4
    stride: 1
    weight_filler {
      type: "msra"
    }
    bias_filler {
      type: "constant"
      value: 0
    }
    dilation: 1
  }
}
layer {
  name: "res2a_branch2b/bn"
  type: "BatchNorm"
  bottom: "res2a_branch2b"
  top: "res2a_branch2b/bn"
  param {
    lr_mult: 1
    decay_mult: 1
  }
  param {
    lr_mult: 1
    decay_mult: 1
  }
  param {
    lr_mult: 0
    decay_mult: 0
  }
  param {
    lr_mult: 0
    decay_mult: 0
  }
  batch_norm_param {
    moving_average_fraction: 0.99
    eps: 0.0001
    scale_filler {
      type: "constant"
      value: 1
    }
    bias_filler {
      type: "constant"
      value: 0
    }
  }
}
layer {
  name: "res2a_branch2b/relu"
  type: "ReLU"
  bottom: "res2a_branch2b/bn"
  top: "res2a_branch2b/bn"
}
layer {
  name: "pool2"
  type: "Pooling"
  bottom: "res2a_branch2b/bn"
  top: "pool2"
  pooling_param {
    pool: MAX
    kernel_size: 2
    stride: 2
  }
}
layer {
  name: "res3a_branch2a"
  type: "Convolution"
  bottom: "pool2"
  top: "res3a_branch2a"
  param {
    lr_mult: 1
    decay_mult: 1
  }
  param {
    lr_mult: 2
    decay_mult: 0
  }
  convolution_param {
    num_output: 128
    bias_term: true
    pad: 1
    kernel_size: 3
    group: 1
    stride: 1
    weight_filler {
      type: "msra"
    }
    bias_filler {
      type: "constant"
      value: 0
    }
    dilation: 1
  }
}
layer {
  name: "res3a_branch2a/bn"
  type: "BatchNorm"
  bottom: "res3a_branch2a"
  top: "res3a_branch2a/bn"
  param {
    lr_mult: 1
    decay_mult: 1
  }
  param {
    lr_mult: 1
    decay_mult: 1
  }
  param {
    lr_mult: 0
    decay_mult: 0
  }
  param {
    lr_mult: 0
    decay_mult: 0
  }
  batch_norm_param {
    moving_average_fraction: 0.99
    eps: 0.0001
    scale_filler {
      type: "constant"
      value: 1
    }
    bias_filler {
      type: "constant"
      value: 0
    }
  }
}
layer {
  name: "res3a_branch2a/relu"
  type: "ReLU"
  bottom: "res3a_branch2a/bn"
  top: "res3a_branch2a/bn"
}
layer {
  name: "res3a_branch2b"
  type: "Convolution"
  bottom: "res3a_branch2a/bn"
  top: "res3a_branch2b"
  param {
    lr_mult: 1
    decay_mult: 1
  }
  param {
    lr_mult: 2
    decay_mult: 0
  }
  convolution_param {
    num_output: 128
    bias_term: true
    pad: 1
    kernel_size: 3
    group: 4
    stride: 1
    weight_filler {
      type: "msra"
    }
    bias_filler {
      type: "constant"
      value: 0
    }
    dilation: 1
  }
}
layer {
  name: "res3a_branch2b/bn"
  type: "BatchNorm"
  bottom: "res3a_branch2b"
  top: "res3a_branch2b/bn"
  param {
    lr_mult: 1
    decay_mult: 1
  }
  param {
    lr_mult: 1
    decay_mult: 1
  }
  param {
    lr_mult: 0
    decay_mult: 0
  }
  param {
    lr_mult: 0
    decay_mult: 0
  }
  batch_norm_param {
    moving_average_fraction: 0.99
    eps: 0.0001
    scale_filler {
      type: "constant"
      value: 1
    }
    bias_filler {
      type: "constant"
      value: 0
    }
  }
}
layer {
  name: "res3a_branch2b/relu"
  type: "ReLU"
  bottom: "res3a_branch2b/bn"
  top: "res3a_branch2b/bn"
}
layer {
  name: "pool3"
  type: "Pooling"
  bottom: "res3a_branch2b/bn"
  top: "pool3"
  pooling_param {
    pool: MAX
    kernel_size: 2
    stride: 2
  }
}
layer {
  name: "res4a_branch2a"
  type: "Convolution"
  bottom: "pool3"
  top: "res4a_branch2a"
  param {
    lr_mult: 1
    decay_mult: 1
  }
  param {
    lr_mult: 2
    decay_mult: 0
  }
  convolution_param {
    num_output: 256
    bias_term: true
    pad: 1
    kernel_size: 3
    group: 1
    stride: 1
    weight_filler {
      type: "msra"
    }
    bias_filler {
      type: "constant"
      value: 0
    }
    dilation: 1
  }
}
layer {
  name: "res4a_branch2a/bn"
  type: "BatchNorm"
  bottom: "res4a_branch2a"
  top: "res4a_branch2a/bn"
  param {
    lr_mult: 1
    decay_mult: 1
  }
  param {
    lr_mult: 1
    decay_mult: 1
  }
  param {
    lr_mult: 0
    decay_mult: 0
  }
  param {
    lr_mult: 0
    decay_mult: 0
  }
  batch_norm_param {
    moving_average_fraction: 0.99
    eps: 0.0001
    scale_filler {
      type: "constant"
      value: 1
    }
    bias_filler {
      type: "constant"
      value: 0
    }
  }
}
layer {
  name: "res4a_branch2a/relu"
  type: "ReLU"
  bottom: "res4a_branch2a/bn"
  top: "res4a_branch2a/bn"
}
layer {
  name: "res4a_branch2b"
  type: "Convolution"
  bottom: "res4a_branch2a/bn"
  top: "res4a_branch2b"
  param {
    lr_mult: 1
    decay_mult: 1
  }
  param {
    lr_mult: 2
    decay_mult: 0
  }
  convolution_param {
    num_output: 256
    bias_term: true
    pad: 1
    kernel_size: 3
    group: 4
    stride: 1
    weight_filler {
      type: "msra"
    }
    bias_filler {
      type: "constant"
      value: 0
    }
    dilation: 1
  }
}
layer {
  name: "res4a_branch2b/bn"
  type: "BatchNorm"
  bottom: "res4a_branch2b"
  top: "res4a_branch2b/bn"
  param {
    lr_mult: 1
    decay_mult: 1
  }
  param {
    lr_mult: 1
    decay_mult: 1
  }
  param {
    lr_mult: 0
    decay_mult: 0
  }
  param {
    lr_mult: 0
    decay_mult: 0
  }
  batch_norm_param {
    moving_average_fraction: 0.99
    eps: 0.0001
    scale_filler {
      type: "constant"
      value: 1
    }
    bias_filler {
      type: "constant"
      value: 0
    }
  }
}
layer {
  name: "res4a_branch2b/relu"
  type: "ReLU"
  bottom: "res4a_branch2b/bn"
  top: "res4a_branch2b/bn"
}
layer {
  name: "pool4"
  type: "Pooling"
  bottom: "res4a_branch2b/bn"
  top: "pool4"
  pooling_param {
    pool: MAX
    kernel_size: 1
    stride: 1
  }
}
layer {
  name: "res5a_branch2a"
  type: "Convolution"
  bottom: "pool4"
  top: "res5a_branch2a"
  param {
    lr_mult: 1
    decay_mult: 1
  }
  param {
    lr_mult: 2
    decay_mult: 0
  }
  convolution_param {
    num_output: 512
    bias_term: true
    pad: 2
    kernel_size: 3
    group: 1
    stride: 1
    weight_filler {
      type: "msra"
    }
    bias_filler {
      type: "constant"
      value: 0
    }
    dilation: 2
  }
}
layer {
  name: "res5a_branch2a/bn"
  type: "BatchNorm"
  bottom: "res5a_branch2a"
  top: "res5a_branch2a/bn"
  param {
    lr_mult: 1
    decay_mult: 1
  }
  param {
    lr_mult: 1
    decay_mult: 1
  }
  param {
    lr_mult: 0
    decay_mult: 0
  }
  param {
    lr_mult: 0
    decay_mult: 0
  }
  batch_norm_param {
    moving_average_fraction: 0.99
    eps: 0.0001
    scale_filler {
      type: "constant"
      value: 1
    }
    bias_filler {
      type: "constant"
      value: 0
    }
  }
}
layer {
  name: "res5a_branch2a/relu"
  type: "ReLU"
  bottom: "res5a_branch2a/bn"
  top: "res5a_branch2a/bn"
}
layer {
  name: "res5a_branch2b"
  type: "Convolution"
  bottom: "res5a_branch2a/bn"
  top: "res5a_branch2b"
  param {
    lr_mult: 1
    decay_mult: 1
  }
  param {
    lr_mult: 2
    decay_mult: 0
  }
  convolution_param {
    num_output: 512
    bias_term: true
    pad: 2
    kernel_size: 3
    group: 4
    stride: 1
    weight_filler {
      type: "msra"
    }
    bias_filler {
      type: "constant"
      value: 0
    }
    dilation: 2
  }
}
layer {
  name: "res5a_branch2b/bn"
  type: "BatchNorm"
  bottom: "res5a_branch2b"
  top: "res5a_branch2b/bn"
  param {
    lr_mult: 1
    decay_mult: 1
  }
  param {
    lr_mult: 1
    decay_mult: 1
  }
  param {
    lr_mult: 0
    decay_mult: 0
  }
  param {
    lr_mult: 0
    decay_mult: 0
  }
  batch_norm_param {
    moving_average_fraction: 0.99
    eps: 0.0001
    scale_filler {
      type: "constant"
      value: 1
    }
    bias_filler {
      type: "constant"
      value: 0
    }
  }
}
layer {
  name: "res5a_branch2b/relu"
  type: "ReLU"
  bottom: "res5a_branch2b/bn"
  top: "res5a_branch2b/bn"
}
layer {
  name: "out5a"
  type: "Convolution"
  bottom: "res5a_branch2b/bn"
  top: "out5a"
  param {
    lr_mult: 1
    decay_mult: 1
  }
  param {
    lr_mult: 2
    decay_mult: 0
  }
  convolution_param {
    num_output: 64
    bias_term: true
    pad: 4
    kernel_size: 3
    group: 2
    stride: 1
    weight_filler {
      type: "msra"
    }
    bias_filler {
      type: "constant"
      value: 0
    }
    dilation: 4
  }
}
layer {
  name: "out5a/bn"
  type: "BatchNorm"
  bottom: "out5a"
  top: "out5a/bn"
  param {
    lr_mult: 1
    decay_mult: 1
  }
  param {
    lr_mult: 1
    decay_mult: 1
  }
  param {
    lr_mult: 0
    decay_mult: 0
  }
  param {
    lr_mult: 0
    decay_mult: 0
  }
  batch_norm_param {
    moving_average_fraction: 0.99
    eps: 0.0001
    scale_filler {
      type: "constant"
      value: 1
    }
    bias_filler {
      type: "constant"
      value: 0
    }
  }
}
layer {
  name: "out5a/relu"
  type: "ReLU"
  bottom: "out5a/bn"
  top: "out5a/bn"
}
layer {
  name: "out5a_up2"
  type: "Deconvolution"
  bottom: "out5a/bn"
  top: "out5a_up2"
  param {
    lr_mult: 0
    decay_mult: 0
  }
  convolution_param {
    num_output: 64
    bias_term: false
    pad: 1
    kernel_size: 4
    group: 64
    stride: 2
    weight_filler {
      type: "bilinear"
    }
  }
}
layer {
  name: "out3a"
  type: "Convolution"
  bottom: "res3a_branch2b/bn"
  top: "out3a"
  param {
    lr_mult: 1
    decay_mult: 1
  }
  param {
    lr_mult: 2
    decay_mult: 0
  }
  convolution_param {
    num_output: 64
    bias_term: true
    pad: 1
    kernel_size: 3
    group: 2
    stride: 1
    weight_filler {
      type: "msra"
    }
    bias_filler {
      type: "constant"
      value: 0
    }
    dilation: 1
  }
}
layer {
  name: "out3a/bn"
  type: "BatchNorm"
  bottom: "out3a"
  top: "out3a/bn"
  param {
    lr_mult: 1
    decay_mult: 1
  }
  param {
    lr_mult: 1
    decay_mult: 1
  }
  param {
    lr_mult: 0
    decay_mult: 0
  }
  param {
    lr_mult: 0
    decay_mult: 0
  }
  batch_norm_param {
    moving_average_fraction: 0.99
    eps: 0.0001
    scale_filler {
      type: "constant"
      value: 1
    }
    bias_filler {
      type: "constant"
      value: 0
    }
  }
}
layer {
  name: "out3a/relu"
  type: "ReLU"
  bottom: "out3a/bn"
  top: "out3a/bn"
}
layer {
  name: "out3_out5_combined"
  type: "Eltwise"
  bottom: "out5a_up2"
  bottom: "out3a/bn"
  top: "out3_out5_combined"
}
layer {
  name: "ctx_conv1"
  type: "Convolution"
  bottom: "out3_out5_combined"
  top: "ctx_conv1"
  param {
    lr_mult: 1
    decay_mult: 1
  }
  param {
    lr_mult: 2
    decay_mult: 0
  }
  convolution_param {
    num_output: 64
    bias_term: true
    pad: 1
    kernel_size: 3
    group: 1
    stride: 1
    weight_filler {
      type: "msra"
    }
    bias_filler {
      type: "constant"
      value: 0
    }
    dilation: 1
  }
}
layer {
  name: "ctx_conv1/bn"
  type: "BatchNorm"
  bottom: "ctx_conv1"
  top: "ctx_conv1/bn"
  param {
    lr_mult: 1
    decay_mult: 1
  }
  param {
    lr_mult: 1
    decay_mult: 1
  }
  param {
    lr_mult: 0
    decay_mult: 0
  }
  param {
    lr_mult: 0
    decay_mult: 0
  }
  batch_norm_param {
    moving_average_fraction: 0.99
    eps: 0.0001
    scale_filler {
      type: "constant"
      value: 1
    }
    bias_filler {
      type: "constant"
      value: 0
    }
  }
}
layer {
  name: "ctx_conv1/relu"
  type: "ReLU"
  bottom: "ctx_conv1/bn"
  top: "ctx_conv1/bn"
}
layer {
  name: "ctx_conv2"
  type: "Convolution"
  bottom: "ctx_conv1/bn"
  top: "ctx_conv2"
  param {
    lr_mult: 1
    decay_mult: 1
  }
  param {
    lr_mult: 2
    decay_mult: 0
  }
  convolution_param {
    num_output: 64
    bias_term: true
    pad: 4
    kernel_size: 3
    group: 1
    stride: 1
    weight_filler {
      type: "msra"
    }
    bias_filler {
      type: "constant"
      value: 0
    }
    dilation: 4
  }
}
layer {
  name: "ctx_conv2/bn"
  type: "BatchNorm"
  bottom: "ctx_conv2"
  top: "ctx_conv2/bn"
  param {
    lr_mult: 1
    decay_mult: 1
  }
  param {
    lr_mult: 1
    decay_mult: 1
  }
  param {
    lr_mult: 0
    decay_mult: 0
  }
  param {
    lr_mult: 0
    decay_mult: 0
  }
  batch_norm_param {
    moving_average_fraction: 0.99
    eps: 0.0001
    scale_filler {
      type: "constant"
      value: 1
    }
    bias_filler {
      type: "constant"
      value: 0
    }
  }
}
layer {
  name: "ctx_conv2/relu"
  type: "ReLU"
  bottom: "ctx_conv2/bn"
  top: "ctx_conv2/bn"
}
layer {
  name: "ctx_conv3"
  type: "Convolution"
  bottom: "ctx_conv2/bn"
  top: "ctx_conv3"
  param {
    lr_mult: 1
    decay_mult: 1
  }
  param {
    lr_mult: 2
    decay_mult: 0
  }
  convolution_param {
    num_output: 64
    bias_term: true
    pad: 4
    kernel_size: 3
    group: 1
    stride: 1
    weight_filler {
      type: "msra"
    }
    bias_filler {
      type: "constant"
      value: 0
    }
    dilation: 4
  }
}
layer {
  name: "ctx_conv3/bn"
  type: "BatchNorm"
  bottom: "ctx_conv3"
  top: "ctx_conv3/bn"
  param {
    lr_mult: 1
    decay_mult: 1
  }
  param {
    lr_mult: 1
    decay_mult: 1
  }
  param {
    lr_mult: 0
    decay_mult: 0
  }
  param {
    lr_mult: 0
    decay_mult: 0
  }
  batch_norm_param {
    moving_average_fraction: 0.99
    eps: 0.0001
    scale_filler {
      type: "constant"
      value: 1
    }
    bias_filler {
      type: "constant"
      value: 0
    }
  }
}
layer {
  name: "ctx_conv3/relu"
  type: "ReLU"
  bottom: "ctx_conv3/bn"
  top: "ctx_conv3/bn"
}
layer {
  name: "ctx_conv4"
  type: "Convolution"
  bottom: "ctx_conv3/bn"
  top: "ctx_conv4"
  param {
    lr_mult: 1
    decay_mult: 1
  }
  param {
    lr_mult: 2
    decay_mult: 0
  }
  convolution_param {
    num_output: 64
    bias_term: true
    pad: 4
    kernel_size: 3
    group: 1
    stride: 1
    weight_filler {
      type: "msra"
    }
    bias_filler {
      type: "constant"
      value: 0
    }
    dilation: 4
  }
}
layer {
  name: "ctx_conv4/bn"
  type: "BatchNorm"
  bottom: "ctx_conv4"
  top: "ctx_conv4/bn"
  param {
    lr_mult: 1
    decay_mult: 1
  }
  param {
    lr_mult: 1
    decay_mult: 1
  }
  param {
    lr_mult: 0
    decay_mult: 0
  }
  param {
    lr_mult: 0
    decay_mult: 0
  }
  batch_norm_param {
    moving_average_fraction: 0.99
    eps: 0.0001
    scale_filler {
      type: "constant"
      value: 1
    }
    bias_filler {
      type: "constant"
      value: 0
    }
  }
}
layer {
  name: "ctx_conv4/relu"
  type: "ReLU"
  bottom: "ctx_conv4/bn"
  top: "ctx_conv4/bn"
}
layer {
  name: "ctx_final"
  type: "Convolution"
  bottom: "ctx_conv4/bn"
  top: "ctx_final"
  param {
    lr_mult: 1
    decay_mult: 1
  }
  param {
    lr_mult: 2
    decay_mult: 0
  }
  convolution_param {
    num_output: 8
    bias_term: true
    pad: 1
    kernel_size: 3
    kernel_size: 3
    group: 1
    stride: 1
    weight_filler {
      type: "msra"
    }
    bias_filler {
      type: "constant"
      value: 0
    }
    dilation: 1
  }
}
layer {
  name: "ctx_final/relu"
  type: "ReLU"
  bottom: "ctx_final"
  top: "ctx_final"
}
layer {
  name: "out_deconv_final_up2"
  type: "Deconvolution"
  bottom: "ctx_final"
  top: "out_deconv_final_up2"
  param {
    lr_mult: 0
    decay_mult: 0
  }
  convolution_param {
    num_output: 8
    bias_term: false
    pad: 1
    kernel_size: 4
    group: 8
    stride: 2
    weight_filler {
      type: "bilinear"
    }
  }
}
layer {
  name: "out_deconv_final_up4"
  type: "Deconvolution"
  bottom: "out_deconv_final_up2"
  top: "out_deconv_final_up4"
  param {
    lr_mult: 0
    decay_mult: 0
  }
  convolution_param {
    num_output: 8
    bias_term: false
    pad: 1
    kernel_size: 4
    group: 8
    stride: 2
    weight_filler {
      type: "bilinear"
    }
  }
}
layer {
  name: "out_deconv_final_up8"
  type: "Deconvolution"
  bottom: "out_deconv_final_up4"
  top: "out_deconv_final_up8"
  param {
    lr_mult: 0
    decay_mult: 0
  }
  convolution_param {
    num_output: 8
    bias_term: false
    pad: 1
    kernel_size: 4
    group: 8
    stride: 2
    weight_filler {
      type: "bilinear"
    }
  }
}
layer {
  name: "prob"
  type: "Softmax"
  bottom: "out_deconv_final_up8"
  top: "prob"
}
I0710 16:34:55.393093  1259 layer_factory.hpp:77] Creating layer input
I0710 16:34:55.393103  1259 net.cpp:98] Creating Layer input
I0710 16:34:55.393106  1259 net.cpp:413] input -> data
I0710 16:34:55.394173  1259 net.cpp:148] Setting up input
I0710 16:34:55.394182  1259 net.cpp:155] Top shape: 1 3 1024 2048 (6291456)
I0710 16:34:55.394186  1259 net.cpp:163] Memory required for data: 25165824
I0710 16:34:55.394187  1259 layer_factory.hpp:77] Creating layer data/bias
I0710 16:34:55.394196  1259 net.cpp:98] Creating Layer data/bias
I0710 16:34:55.394198  1259 net.cpp:439] data/bias <- data
I0710 16:34:55.394201  1259 net.cpp:413] data/bias -> data/bias
I0710 16:34:55.397069  1259 net.cpp:148] Setting up data/bias
I0710 16:34:55.397089  1259 net.cpp:155] Top shape: 1 3 1024 2048 (6291456)
I0710 16:34:55.397090  1259 net.cpp:163] Memory required for data: 50331648
I0710 16:34:55.397100  1259 layer_factory.hpp:77] Creating layer conv1a
I0710 16:34:55.397109  1259 net.cpp:98] Creating Layer conv1a
I0710 16:34:55.397111  1259 net.cpp:439] conv1a <- data/bias
I0710 16:34:55.397114  1259 net.cpp:413] conv1a -> conv1a
I0710 16:34:55.399615  1259 net.cpp:148] Setting up conv1a
I0710 16:34:55.399624  1259 net.cpp:155] Top shape: 1 32 512 1024 (16777216)
I0710 16:34:55.399626  1259 net.cpp:163] Memory required for data: 117440512
I0710 16:34:55.399632  1259 layer_factory.hpp:77] Creating layer conv1a/bn
I0710 16:34:55.399637  1259 net.cpp:98] Creating Layer conv1a/bn
I0710 16:34:55.399639  1259 net.cpp:439] conv1a/bn <- conv1a
I0710 16:34:55.399642  1259 net.cpp:413] conv1a/bn -> conv1a/bn
I0710 16:34:55.401329  1259 net.cpp:148] Setting up conv1a/bn
I0710 16:34:55.401337  1259 net.cpp:155] Top shape: 1 32 512 1024 (16777216)
I0710 16:34:55.401340  1259 net.cpp:163] Memory required for data: 184549376
I0710 16:34:55.401345  1259 layer_factory.hpp:77] Creating layer conv1a/relu
I0710 16:34:55.401350  1259 net.cpp:98] Creating Layer conv1a/relu
I0710 16:34:55.401351  1259 net.cpp:439] conv1a/relu <- conv1a/bn
I0710 16:34:55.401353  1259 net.cpp:400] conv1a/relu -> conv1a/bn (in-place)
I0710 16:34:55.401363  1259 net.cpp:148] Setting up conv1a/relu
I0710 16:34:55.401366  1259 net.cpp:155] Top shape: 1 32 512 1024 (16777216)
I0710 16:34:55.401368  1259 net.cpp:163] Memory required for data: 251658240
I0710 16:34:55.401371  1259 layer_factory.hpp:77] Creating layer conv1b
I0710 16:34:55.401376  1259 net.cpp:98] Creating Layer conv1b
I0710 16:34:55.401381  1259 net.cpp:439] conv1b <- conv1a/bn
I0710 16:34:55.401386  1259 net.cpp:413] conv1b -> conv1b
I0710 16:34:55.402715  1259 net.cpp:148] Setting up conv1b
I0710 16:34:55.402724  1259 net.cpp:155] Top shape: 1 32 512 1024 (16777216)
I0710 16:34:55.402725  1259 net.cpp:163] Memory required for data: 318767104
I0710 16:34:55.402730  1259 layer_factory.hpp:77] Creating layer conv1b/bn
I0710 16:34:55.402736  1259 net.cpp:98] Creating Layer conv1b/bn
I0710 16:34:55.402740  1259 net.cpp:439] conv1b/bn <- conv1b
I0710 16:34:55.402741  1259 net.cpp:413] conv1b/bn -> conv1b/bn
I0710 16:34:55.404466  1259 net.cpp:148] Setting up conv1b/bn
I0710 16:34:55.404477  1259 net.cpp:155] Top shape: 1 32 512 1024 (16777216)
I0710 16:34:55.404479  1259 net.cpp:163] Memory required for data: 385875968
I0710 16:34:55.404484  1259 layer_factory.hpp:77] Creating layer conv1b/relu
I0710 16:34:55.404489  1259 net.cpp:98] Creating Layer conv1b/relu
I0710 16:34:55.404490  1259 net.cpp:439] conv1b/relu <- conv1b/bn
I0710 16:34:55.404494  1259 net.cpp:400] conv1b/relu -> conv1b/bn (in-place)
I0710 16:34:55.404497  1259 net.cpp:148] Setting up conv1b/relu
I0710 16:34:55.404500  1259 net.cpp:155] Top shape: 1 32 512 1024 (16777216)
I0710 16:34:55.404501  1259 net.cpp:163] Memory required for data: 452984832
I0710 16:34:55.404503  1259 layer_factory.hpp:77] Creating layer pool1
I0710 16:34:55.404507  1259 net.cpp:98] Creating Layer pool1
I0710 16:34:55.404510  1259 net.cpp:439] pool1 <- conv1b/bn
I0710 16:34:55.404512  1259 net.cpp:413] pool1 -> pool1
I0710 16:34:55.404551  1259 net.cpp:148] Setting up pool1
I0710 16:34:55.404556  1259 net.cpp:155] Top shape: 1 32 256 512 (4194304)
I0710 16:34:55.404557  1259 net.cpp:163] Memory required for data: 469762048
I0710 16:34:55.404559  1259 layer_factory.hpp:77] Creating layer res2a_branch2a
I0710 16:34:55.404564  1259 net.cpp:98] Creating Layer res2a_branch2a
I0710 16:34:55.404567  1259 net.cpp:439] res2a_branch2a <- pool1
I0710 16:34:55.404568  1259 net.cpp:413] res2a_branch2a -> res2a_branch2a
I0710 16:34:55.406884  1259 net.cpp:148] Setting up res2a_branch2a
I0710 16:34:55.406893  1259 net.cpp:155] Top shape: 1 64 256 512 (8388608)
I0710 16:34:55.406895  1259 net.cpp:163] Memory required for data: 503316480
I0710 16:34:55.406900  1259 layer_factory.hpp:77] Creating layer res2a_branch2a/bn
I0710 16:34:55.406906  1259 net.cpp:98] Creating Layer res2a_branch2a/bn
I0710 16:34:55.406908  1259 net.cpp:439] res2a_branch2a/bn <- res2a_branch2a
I0710 16:34:55.406910  1259 net.cpp:413] res2a_branch2a/bn -> res2a_branch2a/bn
I0710 16:34:55.407631  1259 net.cpp:148] Setting up res2a_branch2a/bn
I0710 16:34:55.407639  1259 net.cpp:155] Top shape: 1 64 256 512 (8388608)
I0710 16:34:55.407639  1259 net.cpp:163] Memory required for data: 536870912
I0710 16:34:55.407644  1259 layer_factory.hpp:77] Creating layer res2a_branch2a/relu
I0710 16:34:55.407647  1259 net.cpp:98] Creating Layer res2a_branch2a/relu
I0710 16:34:55.407649  1259 net.cpp:439] res2a_branch2a/relu <- res2a_branch2a/bn
I0710 16:34:55.407651  1259 net.cpp:400] res2a_branch2a/relu -> res2a_branch2a/bn (in-place)
I0710 16:34:55.407655  1259 net.cpp:148] Setting up res2a_branch2a/relu
I0710 16:34:55.407657  1259 net.cpp:155] Top shape: 1 64 256 512 (8388608)
I0710 16:34:55.407660  1259 net.cpp:163] Memory required for data: 570425344
I0710 16:34:55.407660  1259 layer_factory.hpp:77] Creating layer res2a_branch2b
I0710 16:34:55.407665  1259 net.cpp:98] Creating Layer res2a_branch2b
I0710 16:34:55.407666  1259 net.cpp:439] res2a_branch2b <- res2a_branch2a/bn
I0710 16:34:55.407670  1259 net.cpp:413] res2a_branch2b -> res2a_branch2b
I0710 16:34:55.408999  1259 net.cpp:148] Setting up res2a_branch2b
I0710 16:34:55.409008  1259 net.cpp:155] Top shape: 1 64 256 512 (8388608)
I0710 16:34:55.409009  1259 net.cpp:163] Memory required for data: 603979776
I0710 16:34:55.409013  1259 layer_factory.hpp:77] Creating layer res2a_branch2b/bn
I0710 16:34:55.409018  1259 net.cpp:98] Creating Layer res2a_branch2b/bn
I0710 16:34:55.409019  1259 net.cpp:439] res2a_branch2b/bn <- res2a_branch2b
I0710 16:34:55.409023  1259 net.cpp:413] res2a_branch2b/bn -> res2a_branch2b/bn
I0710 16:34:55.409718  1259 net.cpp:148] Setting up res2a_branch2b/bn
I0710 16:34:55.409723  1259 net.cpp:155] Top shape: 1 64 256 512 (8388608)
I0710 16:34:55.409725  1259 net.cpp:163] Memory required for data: 637534208
I0710 16:34:55.409730  1259 layer_factory.hpp:77] Creating layer res2a_branch2b/relu
I0710 16:34:55.409732  1259 net.cpp:98] Creating Layer res2a_branch2b/relu
I0710 16:34:55.409734  1259 net.cpp:439] res2a_branch2b/relu <- res2a_branch2b/bn
I0710 16:34:55.409736  1259 net.cpp:400] res2a_branch2b/relu -> res2a_branch2b/bn (in-place)
I0710 16:34:55.409739  1259 net.cpp:148] Setting up res2a_branch2b/relu
I0710 16:34:55.409742  1259 net.cpp:155] Top shape: 1 64 256 512 (8388608)
I0710 16:34:55.409744  1259 net.cpp:163] Memory required for data: 671088640
I0710 16:34:55.409745  1259 layer_factory.hpp:77] Creating layer pool2
I0710 16:34:55.409749  1259 net.cpp:98] Creating Layer pool2
I0710 16:34:55.409750  1259 net.cpp:439] pool2 <- res2a_branch2b/bn
I0710 16:34:55.409752  1259 net.cpp:413] pool2 -> pool2
I0710 16:34:55.409783  1259 net.cpp:148] Setting up pool2
I0710 16:34:55.409787  1259 net.cpp:155] Top shape: 1 64 128 256 (2097152)
I0710 16:34:55.409788  1259 net.cpp:163] Memory required for data: 679477248
I0710 16:34:55.409790  1259 layer_factory.hpp:77] Creating layer res3a_branch2a
I0710 16:34:55.409795  1259 net.cpp:98] Creating Layer res3a_branch2a
I0710 16:34:55.409796  1259 net.cpp:439] res3a_branch2a <- pool2
I0710 16:34:55.409798  1259 net.cpp:413] res3a_branch2a -> res3a_branch2a
I0710 16:34:55.412328  1259 net.cpp:148] Setting up res3a_branch2a
I0710 16:34:55.412336  1259 net.cpp:155] Top shape: 1 128 128 256 (4194304)
I0710 16:34:55.412338  1259 net.cpp:163] Memory required for data: 696254464
I0710 16:34:55.412341  1259 layer_factory.hpp:77] Creating layer res3a_branch2a/bn
I0710 16:34:55.412345  1259 net.cpp:98] Creating Layer res3a_branch2a/bn
I0710 16:34:55.412348  1259 net.cpp:439] res3a_branch2a/bn <- res3a_branch2a
I0710 16:34:55.412350  1259 net.cpp:413] res3a_branch2a/bn -> res3a_branch2a/bn
I0710 16:34:55.412959  1259 net.cpp:148] Setting up res3a_branch2a/bn
I0710 16:34:55.412966  1259 net.cpp:155] Top shape: 1 128 128 256 (4194304)
I0710 16:34:55.412967  1259 net.cpp:163] Memory required for data: 713031680
I0710 16:34:55.412973  1259 layer_factory.hpp:77] Creating layer res3a_branch2a/relu
I0710 16:34:55.412976  1259 net.cpp:98] Creating Layer res3a_branch2a/relu
I0710 16:34:55.412978  1259 net.cpp:439] res3a_branch2a/relu <- res3a_branch2a/bn
I0710 16:34:55.412981  1259 net.cpp:400] res3a_branch2a/relu -> res3a_branch2a/bn (in-place)
I0710 16:34:55.412984  1259 net.cpp:148] Setting up res3a_branch2a/relu
I0710 16:34:55.412987  1259 net.cpp:155] Top shape: 1 128 128 256 (4194304)
I0710 16:34:55.412988  1259 net.cpp:163] Memory required for data: 729808896
I0710 16:34:55.412991  1259 layer_factory.hpp:77] Creating layer res3a_branch2b
I0710 16:34:55.412994  1259 net.cpp:98] Creating Layer res3a_branch2b
I0710 16:34:55.412997  1259 net.cpp:439] res3a_branch2b <- res3a_branch2a/bn
I0710 16:34:55.412999  1259 net.cpp:413] res3a_branch2b -> res3a_branch2b
I0710 16:34:55.413998  1259 net.cpp:148] Setting up res3a_branch2b
I0710 16:34:55.414003  1259 net.cpp:155] Top shape: 1 128 128 256 (4194304)
I0710 16:34:55.414005  1259 net.cpp:163] Memory required for data: 746586112
I0710 16:34:55.414008  1259 layer_factory.hpp:77] Creating layer res3a_branch2b/bn
I0710 16:34:55.414011  1259 net.cpp:98] Creating Layer res3a_branch2b/bn
I0710 16:34:55.414013  1259 net.cpp:439] res3a_branch2b/bn <- res3a_branch2b
I0710 16:34:55.414016  1259 net.cpp:413] res3a_branch2b/bn -> res3a_branch2b/bn
I0710 16:34:55.414633  1259 net.cpp:148] Setting up res3a_branch2b/bn
I0710 16:34:55.414639  1259 net.cpp:155] Top shape: 1 128 128 256 (4194304)
I0710 16:34:55.414640  1259 net.cpp:163] Memory required for data: 763363328
I0710 16:34:55.414645  1259 layer_factory.hpp:77] Creating layer res3a_branch2b/relu
I0710 16:34:55.414647  1259 net.cpp:98] Creating Layer res3a_branch2b/relu
I0710 16:34:55.414649  1259 net.cpp:439] res3a_branch2b/relu <- res3a_branch2b/bn
I0710 16:34:55.414651  1259 net.cpp:400] res3a_branch2b/relu -> res3a_branch2b/bn (in-place)
I0710 16:34:55.414654  1259 net.cpp:148] Setting up res3a_branch2b/relu
I0710 16:34:55.414657  1259 net.cpp:155] Top shape: 1 128 128 256 (4194304)
I0710 16:34:55.414659  1259 net.cpp:163] Memory required for data: 780140544
I0710 16:34:55.414660  1259 layer_factory.hpp:77] Creating layer res3a_branch2b/bn_res3a_branch2b/relu_0_split
I0710 16:34:55.414664  1259 net.cpp:98] Creating Layer res3a_branch2b/bn_res3a_branch2b/relu_0_split
I0710 16:34:55.414665  1259 net.cpp:439] res3a_branch2b/bn_res3a_branch2b/relu_0_split <- res3a_branch2b/bn
I0710 16:34:55.414667  1259 net.cpp:413] res3a_branch2b/bn_res3a_branch2b/relu_0_split -> res3a_branch2b/bn_res3a_branch2b/relu_0_split_0
I0710 16:34:55.414669  1259 net.cpp:413] res3a_branch2b/bn_res3a_branch2b/relu_0_split -> res3a_branch2b/bn_res3a_branch2b/relu_0_split_1
I0710 16:34:55.414701  1259 net.cpp:148] Setting up res3a_branch2b/bn_res3a_branch2b/relu_0_split
I0710 16:34:55.414705  1259 net.cpp:155] Top shape: 1 128 128 256 (4194304)
I0710 16:34:55.414707  1259 net.cpp:155] Top shape: 1 128 128 256 (4194304)
I0710 16:34:55.414708  1259 net.cpp:163] Memory required for data: 813694976
I0710 16:34:55.414710  1259 layer_factory.hpp:77] Creating layer pool3
I0710 16:34:55.414713  1259 net.cpp:98] Creating Layer pool3
I0710 16:34:55.414716  1259 net.cpp:439] pool3 <- res3a_branch2b/bn_res3a_branch2b/relu_0_split_0
I0710 16:34:55.414718  1259 net.cpp:413] pool3 -> pool3
I0710 16:34:55.414753  1259 net.cpp:148] Setting up pool3
I0710 16:34:55.414757  1259 net.cpp:155] Top shape: 1 128 64 128 (1048576)
I0710 16:34:55.414759  1259 net.cpp:163] Memory required for data: 817889280
I0710 16:34:55.414760  1259 layer_factory.hpp:77] Creating layer res4a_branch2a
I0710 16:34:55.414767  1259 net.cpp:98] Creating Layer res4a_branch2a
I0710 16:34:55.414768  1259 net.cpp:439] res4a_branch2a <- pool3
I0710 16:34:55.414772  1259 net.cpp:413] res4a_branch2a -> res4a_branch2a
I0710 16:34:55.421147  1259 net.cpp:148] Setting up res4a_branch2a
I0710 16:34:55.421164  1259 net.cpp:155] Top shape: 1 256 64 128 (2097152)
I0710 16:34:55.421167  1259 net.cpp:163] Memory required for data: 826277888
I0710 16:34:55.421175  1259 layer_factory.hpp:77] Creating layer res4a_branch2a/bn
I0710 16:34:55.421185  1259 net.cpp:98] Creating Layer res4a_branch2a/bn
I0710 16:34:55.421190  1259 net.cpp:439] res4a_branch2a/bn <- res4a_branch2a
I0710 16:34:55.421195  1259 net.cpp:413] res4a_branch2a/bn -> res4a_branch2a/bn
I0710 16:34:55.422111  1259 net.cpp:148] Setting up res4a_branch2a/bn
I0710 16:34:55.422118  1259 net.cpp:155] Top shape: 1 256 64 128 (2097152)
I0710 16:34:55.422122  1259 net.cpp:163] Memory required for data: 834666496
I0710 16:34:55.422128  1259 layer_factory.hpp:77] Creating layer res4a_branch2a/relu
I0710 16:34:55.422132  1259 net.cpp:98] Creating Layer res4a_branch2a/relu
I0710 16:34:55.422135  1259 net.cpp:439] res4a_branch2a/relu <- res4a_branch2a/bn
I0710 16:34:55.422139  1259 net.cpp:400] res4a_branch2a/relu -> res4a_branch2a/bn (in-place)
I0710 16:34:55.422144  1259 net.cpp:148] Setting up res4a_branch2a/relu
I0710 16:34:55.422147  1259 net.cpp:155] Top shape: 1 256 64 128 (2097152)
I0710 16:34:55.422150  1259 net.cpp:163] Memory required for data: 843055104
I0710 16:34:55.422152  1259 layer_factory.hpp:77] Creating layer res4a_branch2b
I0710 16:34:55.422161  1259 net.cpp:98] Creating Layer res4a_branch2b
I0710 16:34:55.422164  1259 net.cpp:439] res4a_branch2b <- res4a_branch2a/bn
I0710 16:34:55.422168  1259 net.cpp:413] res4a_branch2b -> res4a_branch2b
I0710 16:34:55.426455  1259 net.cpp:148] Setting up res4a_branch2b
I0710 16:34:55.426463  1259 net.cpp:155] Top shape: 1 256 64 128 (2097152)
I0710 16:34:55.426466  1259 net.cpp:163] Memory required for data: 851443712
I0710 16:34:55.426471  1259 layer_factory.hpp:77] Creating layer res4a_branch2b/bn
I0710 16:34:55.426477  1259 net.cpp:98] Creating Layer res4a_branch2b/bn
I0710 16:34:55.426481  1259 net.cpp:439] res4a_branch2b/bn <- res4a_branch2b
I0710 16:34:55.426484  1259 net.cpp:413] res4a_branch2b/bn -> res4a_branch2b/bn
I0710 16:34:55.427331  1259 net.cpp:148] Setting up res4a_branch2b/bn
I0710 16:34:55.427338  1259 net.cpp:155] Top shape: 1 256 64 128 (2097152)
I0710 16:34:55.427341  1259 net.cpp:163] Memory required for data: 859832320
I0710 16:34:55.427351  1259 layer_factory.hpp:77] Creating layer res4a_branch2b/relu
I0710 16:34:55.427356  1259 net.cpp:98] Creating Layer res4a_branch2b/relu
I0710 16:34:55.427359  1259 net.cpp:439] res4a_branch2b/relu <- res4a_branch2b/bn
I0710 16:34:55.427362  1259 net.cpp:400] res4a_branch2b/relu -> res4a_branch2b/bn (in-place)
I0710 16:34:55.427367  1259 net.cpp:148] Setting up res4a_branch2b/relu
I0710 16:34:55.427371  1259 net.cpp:155] Top shape: 1 256 64 128 (2097152)
I0710 16:34:55.427373  1259 net.cpp:163] Memory required for data: 868220928
I0710 16:34:55.427376  1259 layer_factory.hpp:77] Creating layer pool4
I0710 16:34:55.427382  1259 net.cpp:98] Creating Layer pool4
I0710 16:34:55.427386  1259 net.cpp:439] pool4 <- res4a_branch2b/bn
I0710 16:34:55.427390  1259 net.cpp:413] pool4 -> pool4
I0710 16:34:55.427439  1259 net.cpp:148] Setting up pool4
I0710 16:34:55.427445  1259 net.cpp:155] Top shape: 1 256 64 128 (2097152)
I0710 16:34:55.427448  1259 net.cpp:163] Memory required for data: 876609536
I0710 16:34:55.427451  1259 layer_factory.hpp:77] Creating layer res5a_branch2a
I0710 16:34:55.427458  1259 net.cpp:98] Creating Layer res5a_branch2a
I0710 16:34:55.427460  1259 net.cpp:439] res5a_branch2a <- pool4
I0710 16:34:55.427464  1259 net.cpp:413] res5a_branch2a -> res5a_branch2a
I0710 16:34:55.454896  1259 net.cpp:148] Setting up res5a_branch2a
I0710 16:34:55.454918  1259 net.cpp:155] Top shape: 1 512 64 128 (4194304)
I0710 16:34:55.454922  1259 net.cpp:163] Memory required for data: 893386752
I0710 16:34:55.454931  1259 layer_factory.hpp:77] Creating layer res5a_branch2a/bn
I0710 16:34:55.454942  1259 net.cpp:98] Creating Layer res5a_branch2a/bn
I0710 16:34:55.454946  1259 net.cpp:439] res5a_branch2a/bn <- res5a_branch2a
I0710 16:34:55.454952  1259 net.cpp:413] res5a_branch2a/bn -> res5a_branch2a/bn
I0710 16:34:55.455842  1259 net.cpp:148] Setting up res5a_branch2a/bn
I0710 16:34:55.455849  1259 net.cpp:155] Top shape: 1 512 64 128 (4194304)
I0710 16:34:55.455853  1259 net.cpp:163] Memory required for data: 910163968
I0710 16:34:55.455860  1259 layer_factory.hpp:77] Creating layer res5a_branch2a/relu
I0710 16:34:55.455865  1259 net.cpp:98] Creating Layer res5a_branch2a/relu
I0710 16:34:55.455868  1259 net.cpp:439] res5a_branch2a/relu <- res5a_branch2a/bn
I0710 16:34:55.455873  1259 net.cpp:400] res5a_branch2a/relu -> res5a_branch2a/bn (in-place)
I0710 16:34:55.455878  1259 net.cpp:148] Setting up res5a_branch2a/relu
I0710 16:34:55.455881  1259 net.cpp:155] Top shape: 1 512 64 128 (4194304)
I0710 16:34:55.455884  1259 net.cpp:163] Memory required for data: 926941184
I0710 16:34:55.455888  1259 layer_factory.hpp:77] Creating layer res5a_branch2b
I0710 16:34:55.455895  1259 net.cpp:98] Creating Layer res5a_branch2b
I0710 16:34:55.455899  1259 net.cpp:439] res5a_branch2b <- res5a_branch2a/bn
I0710 16:34:55.455902  1259 net.cpp:413] res5a_branch2b -> res5a_branch2b
I0710 16:34:55.470043  1259 net.cpp:148] Setting up res5a_branch2b
I0710 16:34:55.470055  1259 net.cpp:155] Top shape: 1 512 64 128 (4194304)
I0710 16:34:55.470058  1259 net.cpp:163] Memory required for data: 943718400
I0710 16:34:55.470065  1259 layer_factory.hpp:77] Creating layer res5a_branch2b/bn
I0710 16:34:55.470070  1259 net.cpp:98] Creating Layer res5a_branch2b/bn
I0710 16:34:55.470072  1259 net.cpp:439] res5a_branch2b/bn <- res5a_branch2b
I0710 16:34:55.470075  1259 net.cpp:413] res5a_branch2b/bn -> res5a_branch2b/bn
I0710 16:34:55.470705  1259 net.cpp:148] Setting up res5a_branch2b/bn
I0710 16:34:55.470710  1259 net.cpp:155] Top shape: 1 512 64 128 (4194304)
I0710 16:34:55.470712  1259 net.cpp:163] Memory required for data: 960495616
I0710 16:34:55.470716  1259 layer_factory.hpp:77] Creating layer res5a_branch2b/relu
I0710 16:34:55.470719  1259 net.cpp:98] Creating Layer res5a_branch2b/relu
I0710 16:34:55.470721  1259 net.cpp:439] res5a_branch2b/relu <- res5a_branch2b/bn
I0710 16:34:55.470723  1259 net.cpp:400] res5a_branch2b/relu -> res5a_branch2b/bn (in-place)
I0710 16:34:55.470727  1259 net.cpp:148] Setting up res5a_branch2b/relu
I0710 16:34:55.470731  1259 net.cpp:155] Top shape: 1 512 64 128 (4194304)
I0710 16:34:55.470732  1259 net.cpp:163] Memory required for data: 977272832
I0710 16:34:55.470733  1259 layer_factory.hpp:77] Creating layer out5a
I0710 16:34:55.470738  1259 net.cpp:98] Creating Layer out5a
I0710 16:34:55.470739  1259 net.cpp:439] out5a <- res5a_branch2b/bn
I0710 16:34:55.470742  1259 net.cpp:413] out5a -> out5a
I0710 16:34:55.474818  1259 net.cpp:148] Setting up out5a
I0710 16:34:55.474828  1259 net.cpp:155] Top shape: 1 64 64 128 (524288)
I0710 16:34:55.474830  1259 net.cpp:163] Memory required for data: 979369984
I0710 16:34:55.474834  1259 layer_factory.hpp:77] Creating layer out5a/bn
I0710 16:34:55.474838  1259 net.cpp:98] Creating Layer out5a/bn
I0710 16:34:55.474840  1259 net.cpp:439] out5a/bn <- out5a
I0710 16:34:55.474845  1259 net.cpp:413] out5a/bn -> out5a/bn
I0710 16:34:55.475541  1259 net.cpp:148] Setting up out5a/bn
I0710 16:34:55.475546  1259 net.cpp:155] Top shape: 1 64 64 128 (524288)
I0710 16:34:55.475548  1259 net.cpp:163] Memory required for data: 981467136
I0710 16:34:55.475553  1259 layer_factory.hpp:77] Creating layer out5a/relu
I0710 16:34:55.475555  1259 net.cpp:98] Creating Layer out5a/relu
I0710 16:34:55.475558  1259 net.cpp:439] out5a/relu <- out5a/bn
I0710 16:34:55.475560  1259 net.cpp:400] out5a/relu -> out5a/bn (in-place)
I0710 16:34:55.475564  1259 net.cpp:148] Setting up out5a/relu
I0710 16:34:55.475565  1259 net.cpp:155] Top shape: 1 64 64 128 (524288)
I0710 16:34:55.475566  1259 net.cpp:163] Memory required for data: 983564288
I0710 16:34:55.475569  1259 layer_factory.hpp:77] Creating layer out5a_up2
I0710 16:34:55.475577  1259 net.cpp:98] Creating Layer out5a_up2
I0710 16:34:55.475579  1259 net.cpp:439] out5a_up2 <- out5a/bn
I0710 16:34:55.475582  1259 net.cpp:413] out5a_up2 -> out5a_up2
I0710 16:34:55.475818  1259 net.cpp:148] Setting up out5a_up2
I0710 16:34:55.475822  1259 net.cpp:155] Top shape: 1 64 128 256 (2097152)
I0710 16:34:55.475824  1259 net.cpp:163] Memory required for data: 991952896
I0710 16:34:55.475826  1259 layer_factory.hpp:77] Creating layer out3a
I0710 16:34:55.475831  1259 net.cpp:98] Creating Layer out3a
I0710 16:34:55.475832  1259 net.cpp:439] out3a <- res3a_branch2b/bn_res3a_branch2b/relu_0_split_1
I0710 16:34:55.475836  1259 net.cpp:413] out3a -> out3a
I0710 16:34:55.476867  1259 net.cpp:148] Setting up out3a
I0710 16:34:55.476872  1259 net.cpp:155] Top shape: 1 64 128 256 (2097152)
I0710 16:34:55.476874  1259 net.cpp:163] Memory required for data: 1000341504
I0710 16:34:55.476877  1259 layer_factory.hpp:77] Creating layer out3a/bn
I0710 16:34:55.476881  1259 net.cpp:98] Creating Layer out3a/bn
I0710 16:34:55.476883  1259 net.cpp:439] out3a/bn <- out3a
I0710 16:34:55.476886  1259 net.cpp:413] out3a/bn -> out3a/bn
I0710 16:34:55.477584  1259 net.cpp:148] Setting up out3a/bn
I0710 16:34:55.477591  1259 net.cpp:155] Top shape: 1 64 128 256 (2097152)
I0710 16:34:55.477591  1259 net.cpp:163] Memory required for data: 1008730112
I0710 16:34:55.477599  1259 layer_factory.hpp:77] Creating layer out3a/relu
I0710 16:34:55.477602  1259 net.cpp:98] Creating Layer out3a/relu
I0710 16:34:55.477604  1259 net.cpp:439] out3a/relu <- out3a/bn
I0710 16:34:55.477607  1259 net.cpp:400] out3a/relu -> out3a/bn (in-place)
I0710 16:34:55.477609  1259 net.cpp:148] Setting up out3a/relu
I0710 16:34:55.477612  1259 net.cpp:155] Top shape: 1 64 128 256 (2097152)
I0710 16:34:55.477613  1259 net.cpp:163] Memory required for data: 1017118720
I0710 16:34:55.477614  1259 layer_factory.hpp:77] Creating layer out3_out5_combined
I0710 16:34:55.477620  1259 net.cpp:98] Creating Layer out3_out5_combined
I0710 16:34:55.477622  1259 net.cpp:439] out3_out5_combined <- out5a_up2
I0710 16:34:55.477624  1259 net.cpp:439] out3_out5_combined <- out3a/bn
I0710 16:34:55.477627  1259 net.cpp:413] out3_out5_combined -> out3_out5_combined
I0710 16:34:55.477649  1259 net.cpp:148] Setting up out3_out5_combined
I0710 16:34:55.477653  1259 net.cpp:155] Top shape: 1 64 128 256 (2097152)
I0710 16:34:55.477655  1259 net.cpp:163] Memory required for data: 1025507328
I0710 16:34:55.477658  1259 layer_factory.hpp:77] Creating layer ctx_conv1
I0710 16:34:55.477660  1259 net.cpp:98] Creating Layer ctx_conv1
I0710 16:34:55.477663  1259 net.cpp:439] ctx_conv1 <- out3_out5_combined
I0710 16:34:55.477665  1259 net.cpp:413] ctx_conv1 -> ctx_conv1
I0710 16:34:55.478703  1259 net.cpp:148] Setting up ctx_conv1
I0710 16:34:55.478709  1259 net.cpp:155] Top shape: 1 64 128 256 (2097152)
I0710 16:34:55.478711  1259 net.cpp:163] Memory required for data: 1033895936
I0710 16:34:55.478715  1259 layer_factory.hpp:77] Creating layer ctx_conv1/bn
I0710 16:34:55.478718  1259 net.cpp:98] Creating Layer ctx_conv1/bn
I0710 16:34:55.478720  1259 net.cpp:439] ctx_conv1/bn <- ctx_conv1
I0710 16:34:55.478724  1259 net.cpp:413] ctx_conv1/bn -> ctx_conv1/bn
I0710 16:34:55.479434  1259 net.cpp:148] Setting up ctx_conv1/bn
I0710 16:34:55.479439  1259 net.cpp:155] Top shape: 1 64 128 256 (2097152)
I0710 16:34:55.479440  1259 net.cpp:163] Memory required for data: 1042284544
I0710 16:34:55.479444  1259 layer_factory.hpp:77] Creating layer ctx_conv1/relu
I0710 16:34:55.479447  1259 net.cpp:98] Creating Layer ctx_conv1/relu
I0710 16:34:55.479449  1259 net.cpp:439] ctx_conv1/relu <- ctx_conv1/bn
I0710 16:34:55.479451  1259 net.cpp:400] ctx_conv1/relu -> ctx_conv1/bn (in-place)
I0710 16:34:55.479454  1259 net.cpp:148] Setting up ctx_conv1/relu
I0710 16:34:55.479456  1259 net.cpp:155] Top shape: 1 64 128 256 (2097152)
I0710 16:34:55.479459  1259 net.cpp:163] Memory required for data: 1050673152
I0710 16:34:55.479460  1259 layer_factory.hpp:77] Creating layer ctx_conv2
I0710 16:34:55.479463  1259 net.cpp:98] Creating Layer ctx_conv2
I0710 16:34:55.479465  1259 net.cpp:439] ctx_conv2 <- ctx_conv1/bn
I0710 16:34:55.479467  1259 net.cpp:413] ctx_conv2 -> ctx_conv2
I0710 16:34:55.480487  1259 net.cpp:148] Setting up ctx_conv2
I0710 16:34:55.480491  1259 net.cpp:155] Top shape: 1 64 128 256 (2097152)
I0710 16:34:55.480494  1259 net.cpp:163] Memory required for data: 1059061760
I0710 16:34:55.480496  1259 layer_factory.hpp:77] Creating layer ctx_conv2/bn
I0710 16:34:55.480499  1259 net.cpp:98] Creating Layer ctx_conv2/bn
I0710 16:34:55.480501  1259 net.cpp:439] ctx_conv2/bn <- ctx_conv2
I0710 16:34:55.480504  1259 net.cpp:413] ctx_conv2/bn -> ctx_conv2/bn
I0710 16:34:55.481221  1259 net.cpp:148] Setting up ctx_conv2/bn
I0710 16:34:55.481227  1259 net.cpp:155] Top shape: 1 64 128 256 (2097152)
I0710 16:34:55.481230  1259 net.cpp:163] Memory required for data: 1067450368
I0710 16:34:55.481233  1259 layer_factory.hpp:77] Creating layer ctx_conv2/relu
I0710 16:34:55.481236  1259 net.cpp:98] Creating Layer ctx_conv2/relu
I0710 16:34:55.481238  1259 net.cpp:439] ctx_conv2/relu <- ctx_conv2/bn
I0710 16:34:55.481240  1259 net.cpp:400] ctx_conv2/relu -> ctx_conv2/bn (in-place)
I0710 16:34:55.481243  1259 net.cpp:148] Setting up ctx_conv2/relu
I0710 16:34:55.481245  1259 net.cpp:155] Top shape: 1 64 128 256 (2097152)
I0710 16:34:55.481247  1259 net.cpp:163] Memory required for data: 1075838976
I0710 16:34:55.481248  1259 layer_factory.hpp:77] Creating layer ctx_conv3
I0710 16:34:55.481252  1259 net.cpp:98] Creating Layer ctx_conv3
I0710 16:34:55.481254  1259 net.cpp:439] ctx_conv3 <- ctx_conv2/bn
I0710 16:34:55.481257  1259 net.cpp:413] ctx_conv3 -> ctx_conv3
I0710 16:34:55.483718  1259 net.cpp:148] Setting up ctx_conv3
I0710 16:34:55.483741  1259 net.cpp:155] Top shape: 1 64 128 256 (2097152)
I0710 16:34:55.483744  1259 net.cpp:163] Memory required for data: 1084227584
I0710 16:34:55.483752  1259 layer_factory.hpp:77] Creating layer ctx_conv3/bn
I0710 16:34:55.483760  1259 net.cpp:98] Creating Layer ctx_conv3/bn
I0710 16:34:55.483764  1259 net.cpp:439] ctx_conv3/bn <- ctx_conv3
I0710 16:34:55.483769  1259 net.cpp:413] ctx_conv3/bn -> ctx_conv3/bn
I0710 16:34:55.484807  1259 net.cpp:148] Setting up ctx_conv3/bn
I0710 16:34:55.484820  1259 net.cpp:155] Top shape: 1 64 128 256 (2097152)
I0710 16:34:55.484824  1259 net.cpp:163] Memory required for data: 1092616192
I0710 16:34:55.484833  1259 layer_factory.hpp:77] Creating layer ctx_conv3/relu
I0710 16:34:55.484838  1259 net.cpp:98] Creating Layer ctx_conv3/relu
I0710 16:34:55.484840  1259 net.cpp:439] ctx_conv3/relu <- ctx_conv3/bn
I0710 16:34:55.484843  1259 net.cpp:400] ctx_conv3/relu -> ctx_conv3/bn (in-place)
I0710 16:34:55.484849  1259 net.cpp:148] Setting up ctx_conv3/relu
I0710 16:34:55.484854  1259 net.cpp:155] Top shape: 1 64 128 256 (2097152)
I0710 16:34:55.484858  1259 net.cpp:163] Memory required for data: 1101004800
I0710 16:34:55.484860  1259 layer_factory.hpp:77] Creating layer ctx_conv4
I0710 16:34:55.484869  1259 net.cpp:98] Creating Layer ctx_conv4
I0710 16:34:55.484874  1259 net.cpp:439] ctx_conv4 <- ctx_conv3/bn
I0710 16:34:55.484876  1259 net.cpp:413] ctx_conv4 -> ctx_conv4
I0710 16:34:55.486294  1259 net.cpp:148] Setting up ctx_conv4
I0710 16:34:55.486302  1259 net.cpp:155] Top shape: 1 64 128 256 (2097152)
I0710 16:34:55.486305  1259 net.cpp:163] Memory required for data: 1109393408
I0710 16:34:55.486310  1259 layer_factory.hpp:77] Creating layer ctx_conv4/bn
I0710 16:34:55.486315  1259 net.cpp:98] Creating Layer ctx_conv4/bn
I0710 16:34:55.486317  1259 net.cpp:439] ctx_conv4/bn <- ctx_conv4
I0710 16:34:55.486321  1259 net.cpp:413] ctx_conv4/bn -> ctx_conv4/bn
I0710 16:34:55.487323  1259 net.cpp:148] Setting up ctx_conv4/bn
I0710 16:34:55.487330  1259 net.cpp:155] Top shape: 1 64 128 256 (2097152)
I0710 16:34:55.487334  1259 net.cpp:163] Memory required for data: 1117782016
I0710 16:34:55.487340  1259 layer_factory.hpp:77] Creating layer ctx_conv4/relu
I0710 16:34:55.487344  1259 net.cpp:98] Creating Layer ctx_conv4/relu
I0710 16:34:55.487347  1259 net.cpp:439] ctx_conv4/relu <- ctx_conv4/bn
I0710 16:34:55.487350  1259 net.cpp:400] ctx_conv4/relu -> ctx_conv4/bn (in-place)
I0710 16:34:55.487354  1259 net.cpp:148] Setting up ctx_conv4/relu
I0710 16:34:55.487359  1259 net.cpp:155] Top shape: 1 64 128 256 (2097152)
I0710 16:34:55.487361  1259 net.cpp:163] Memory required for data: 1126170624
I0710 16:34:55.487363  1259 layer_factory.hpp:77] Creating layer ctx_final
I0710 16:34:55.487368  1259 net.cpp:98] Creating Layer ctx_final
I0710 16:34:55.487371  1259 net.cpp:439] ctx_final <- ctx_conv4/bn
I0710 16:34:55.487375  1259 net.cpp:413] ctx_final -> ctx_final
I0710 16:34:55.487937  1259 net.cpp:148] Setting up ctx_final
I0710 16:34:55.487944  1259 net.cpp:155] Top shape: 1 8 128 256 (262144)
I0710 16:34:55.487947  1259 net.cpp:163] Memory required for data: 1127219200
I0710 16:34:55.487952  1259 layer_factory.hpp:77] Creating layer ctx_final/relu
I0710 16:34:55.487957  1259 net.cpp:98] Creating Layer ctx_final/relu
I0710 16:34:55.487959  1259 net.cpp:439] ctx_final/relu <- ctx_final
I0710 16:34:55.487962  1259 net.cpp:400] ctx_final/relu -> ctx_final (in-place)
I0710 16:34:55.487967  1259 net.cpp:148] Setting up ctx_final/relu
I0710 16:34:55.487970  1259 net.cpp:155] Top shape: 1 8 128 256 (262144)
I0710 16:34:55.487972  1259 net.cpp:163] Memory required for data: 1128267776
I0710 16:34:55.487975  1259 layer_factory.hpp:77] Creating layer out_deconv_final_up2
I0710 16:34:55.487980  1259 net.cpp:98] Creating Layer out_deconv_final_up2
I0710 16:34:55.487984  1259 net.cpp:439] out_deconv_final_up2 <- ctx_final
I0710 16:34:55.487988  1259 net.cpp:413] out_deconv_final_up2 -> out_deconv_final_up2
I0710 16:34:55.488309  1259 net.cpp:148] Setting up out_deconv_final_up2
I0710 16:34:55.488317  1259 net.cpp:155] Top shape: 1 8 256 512 (1048576)
I0710 16:34:55.488319  1259 net.cpp:163] Memory required for data: 1132462080
I0710 16:34:55.488322  1259 layer_factory.hpp:77] Creating layer out_deconv_final_up4
I0710 16:34:55.488327  1259 net.cpp:98] Creating Layer out_deconv_final_up4
I0710 16:34:55.488330  1259 net.cpp:439] out_deconv_final_up4 <- out_deconv_final_up2
I0710 16:34:55.488333  1259 net.cpp:413] out_deconv_final_up4 -> out_deconv_final_up4
I0710 16:34:55.488647  1259 net.cpp:148] Setting up out_deconv_final_up4
I0710 16:34:55.488653  1259 net.cpp:155] Top shape: 1 8 512 1024 (4194304)
I0710 16:34:55.488656  1259 net.cpp:163] Memory required for data: 1149239296
I0710 16:34:55.488659  1259 layer_factory.hpp:77] Creating layer out_deconv_final_up8
I0710 16:34:55.488664  1259 net.cpp:98] Creating Layer out_deconv_final_up8
I0710 16:34:55.488667  1259 net.cpp:439] out_deconv_final_up8 <- out_deconv_final_up4
I0710 16:34:55.488670  1259 net.cpp:413] out_deconv_final_up8 -> out_deconv_final_up8
I0710 16:34:55.488991  1259 net.cpp:148] Setting up out_deconv_final_up8
I0710 16:34:55.488997  1259 net.cpp:155] Top shape: 1 8 1024 2048 (16777216)
I0710 16:34:55.489001  1259 net.cpp:163] Memory required for data: 1216348160
I0710 16:34:55.489004  1259 layer_factory.hpp:77] Creating layer prob
I0710 16:34:55.489008  1259 net.cpp:98] Creating Layer prob
I0710 16:34:55.489012  1259 net.cpp:439] prob <- out_deconv_final_up8
I0710 16:34:55.489015  1259 net.cpp:413] prob -> prob
I0710 16:34:55.489112  1259 net.cpp:148] Setting up prob
I0710 16:34:55.489117  1259 net.cpp:155] Top shape: 1 8 1024 2048 (16777216)
I0710 16:34:55.489120  1259 net.cpp:163] Memory required for data: 1283457024
I0710 16:34:55.489123  1259 net.cpp:226] prob does not need backward computation.
I0710 16:34:55.489126  1259 net.cpp:226] out_deconv_final_up8 does not need backward computation.
I0710 16:34:55.489130  1259 net.cpp:226] out_deconv_final_up4 does not need backward computation.
I0710 16:34:55.489132  1259 net.cpp:226] out_deconv_final_up2 does not need backward computation.
…
