…
I0712 00:08:32.692294 13823 upgrade_proto.cpp:66] Attempting to upgrade input file specified using deprecated input fields: ../trained/image_segmentation/cityscapes5_jsegnet21v2/initial/deploy.prototxt
I0712 00:08:32.692322 13823 upgrade_proto.cpp:69] Successfully upgraded file specified using deprecated input fields.
W0712 00:08:32.692324 13823 upgrade_proto.cpp:71] Note that future Caffe releases will only support input layers and not input fields.
I0712 00:08:32.692587 13823 net.cpp:56] Initializing net from parameters: 
name: "jsegnet21v2_deploy"
state {
  phase: TEST
}
layer {
  name: "input"
  type: "Input"
  top: "data"
  input_param {
    shape {
      dim: 1
      dim: 3
      dim: 1024
      dim: 2048
    }
  }
}
layer {
  name: "data/bias"
  type: "Bias"
  bottom: "data"
  top: "data/bias"
  param {
    lr_mult: 0
    decay_mult: 0
  }
  bias_param {
    filler {
      type: "constant"
      value: -128
    }
  }
}
layer {
  name: "conv1a"
  type: "Convolution"
  bottom: "data/bias"
  top: "conv1a"
  param {
    lr_mult: 1
    decay_mult: 1
  }
  param {
    lr_mult: 2
    decay_mult: 0
  }
  convolution_param {
    num_output: 32
    bias_term: true
    pad: 2
    kernel_size: 5
    group: 1
    stride: 2
    weight_filler {
      type: "msra"
    }
    bias_filler {
      type: "constant"
      value: 0
    }
    dilation: 1
  }
}
layer {
  name: "conv1a/bn"
  type: "BatchNorm"
  bottom: "conv1a"
  top: "conv1a/bn"
  param {
    lr_mult: 1
    decay_mult: 1
  }
  param {
    lr_mult: 1
    decay_mult: 1
  }
  param {
    lr_mult: 0
    decay_mult: 0
  }
  param {
    lr_mult: 0
    decay_mult: 0
  }
  batch_norm_param {
    moving_average_fraction: 0.99
    eps: 0.0001
    scale_filler {
      type: "constant"
      value: 1
    }
    bias_filler {
      type: "constant"
      value: 0
    }
  }
}
layer {
  name: "conv1a/relu"
  type: "ReLU"
  bottom: "conv1a/bn"
  top: "conv1a/bn"
}
layer {
  name: "conv1b"
  type: "Convolution"
  bottom: "conv1a/bn"
  top: "conv1b"
  param {
    lr_mult: 1
    decay_mult: 1
  }
  param {
    lr_mult: 2
    decay_mult: 0
  }
  convolution_param {
    num_output: 32
    bias_term: true
    pad: 1
    kernel_size: 3
    group: 4
    stride: 1
    weight_filler {
      type: "msra"
    }
    bias_filler {
      type: "constant"
      value: 0
    }
    dilation: 1
  }
}
layer {
  name: "conv1b/bn"
  type: "BatchNorm"
  bottom: "conv1b"
  top: "conv1b/bn"
  param {
    lr_mult: 1
    decay_mult: 1
  }
  param {
    lr_mult: 1
    decay_mult: 1
  }
  param {
    lr_mult: 0
    decay_mult: 0
  }
  param {
    lr_mult: 0
    decay_mult: 0
  }
  batch_norm_param {
    moving_average_fraction: 0.99
    eps: 0.0001
    scale_filler {
      type: "constant"
      value: 1
    }
    bias_filler {
      type: "constant"
      value: 0
    }
  }
}
layer {
  name: "conv1b/relu"
  type: "ReLU"
  bottom: "conv1b/bn"
  top: "conv1b/bn"
}
layer {
  name: "pool1"
  type: "Pooling"
  bottom: "conv1b/bn"
  top: "pool1"
  pooling_param {
    pool: MAX
    kernel_size: 2
    stride: 2
  }
}
layer {
  name: "res2a_branch2a"
  type: "Convolution"
  bottom: "pool1"
  top: "res2a_branch2a"
  param {
    lr_mult: 1
    decay_mult: 1
  }
  param {
    lr_mult: 2
    decay_mult: 0
  }
  convolution_param {
    num_output: 64
    bias_term: true
    pad: 1
    kernel_size: 3
    group: 1
    stride: 1
    weight_filler {
      type: "msra"
    }
    bias_filler {
      type: "constant"
      value: 0
    }
    dilation: 1
  }
}
layer {
  name: "res2a_branch2a/bn"
  type: "BatchNorm"
  bottom: "res2a_branch2a"
  top: "res2a_branch2a/bn"
  param {
    lr_mult: 1
    decay_mult: 1
  }
  param {
    lr_mult: 1
    decay_mult: 1
  }
  param {
    lr_mult: 0
    decay_mult: 0
  }
  param {
    lr_mult: 0
    decay_mult: 0
  }
  batch_norm_param {
    moving_average_fraction: 0.99
    eps: 0.0001
    scale_filler {
      type: "constant"
      value: 1
    }
    bias_filler {
      type: "constant"
      value: 0
    }
  }
}
layer {
  name: "res2a_branch2a/relu"
  type: "ReLU"
  bottom: "res2a_branch2a/bn"
  top: "res2a_branch2a/bn"
}
layer {
  name: "res2a_branch2b"
  type: "Convolution"
  bottom: "res2a_branch2a/bn"
  top: "res2a_branch2b"
  param {
    lr_mult: 1
    decay_mult: 1
  }
  param {
    lr_mult: 2
    decay_mult: 0
  }
  convolution_param {
    num_output: 64
    bias_term: true
    pad: 1
    kernel_size: 3
    group: 4
    stride: 1
    weight_filler {
      type: "msra"
    }
    bias_filler {
      type: "constant"
      value: 0
    }
    dilation: 1
  }
}
layer {
  name: "res2a_branch2b/bn"
  type: "BatchNorm"
  bottom: "res2a_branch2b"
  top: "res2a_branch2b/bn"
  param {
    lr_mult: 1
    decay_mult: 1
  }
  param {
    lr_mult: 1
    decay_mult: 1
  }
  param {
    lr_mult: 0
    decay_mult: 0
  }
  param {
    lr_mult: 0
    decay_mult: 0
  }
  batch_norm_param {
    moving_average_fraction: 0.99
    eps: 0.0001
    scale_filler {
      type: "constant"
      value: 1
    }
    bias_filler {
      type: "constant"
      value: 0
    }
  }
}
layer {
  name: "res2a_branch2b/relu"
  type: "ReLU"
  bottom: "res2a_branch2b/bn"
  top: "res2a_branch2b/bn"
}
layer {
  name: "pool2"
  type: "Pooling"
  bottom: "res2a_branch2b/bn"
  top: "pool2"
  pooling_param {
    pool: MAX
    kernel_size: 2
    stride: 2
  }
}
layer {
  name: "res3a_branch2a"
  type: "Convolution"
  bottom: "pool2"
  top: "res3a_branch2a"
  param {
    lr_mult: 1
    decay_mult: 1
  }
  param {
    lr_mult: 2
    decay_mult: 0
  }
  convolution_param {
    num_output: 128
    bias_term: true
    pad: 1
    kernel_size: 3
    group: 1
    stride: 1
    weight_filler {
      type: "msra"
    }
    bias_filler {
      type: "constant"
      value: 0
    }
    dilation: 1
  }
}
layer {
  name: "res3a_branch2a/bn"
  type: "BatchNorm"
  bottom: "res3a_branch2a"
  top: "res3a_branch2a/bn"
  param {
    lr_mult: 1
    decay_mult: 1
  }
  param {
    lr_mult: 1
    decay_mult: 1
  }
  param {
    lr_mult: 0
    decay_mult: 0
  }
  param {
    lr_mult: 0
    decay_mult: 0
  }
  batch_norm_param {
    moving_average_fraction: 0.99
    eps: 0.0001
    scale_filler {
      type: "constant"
      value: 1
    }
    bias_filler {
      type: "constant"
      value: 0
    }
  }
}
layer {
  name: "res3a_branch2a/relu"
  type: "ReLU"
  bottom: "res3a_branch2a/bn"
  top: "res3a_branch2a/bn"
}
layer {
  name: "res3a_branch2b"
  type: "Convolution"
  bottom: "res3a_branch2a/bn"
  top: "res3a_branch2b"
  param {
    lr_mult: 1
    decay_mult: 1
  }
  param {
    lr_mult: 2
    decay_mult: 0
  }
  convolution_param {
    num_output: 128
    bias_term: true
    pad: 1
    kernel_size: 3
    group: 4
    stride: 1
    weight_filler {
      type: "msra"
    }
    bias_filler {
      type: "constant"
      value: 0
    }
    dilation: 1
  }
}
layer {
  name: "res3a_branch2b/bn"
  type: "BatchNorm"
  bottom: "res3a_branch2b"
  top: "res3a_branch2b/bn"
  param {
    lr_mult: 1
    decay_mult: 1
  }
  param {
    lr_mult: 1
    decay_mult: 1
  }
  param {
    lr_mult: 0
    decay_mult: 0
  }
  param {
    lr_mult: 0
    decay_mult: 0
  }
  batch_norm_param {
    moving_average_fraction: 0.99
    eps: 0.0001
    scale_filler {
      type: "constant"
      value: 1
    }
    bias_filler {
      type: "constant"
      value: 0
    }
  }
}
layer {
  name: "res3a_branch2b/relu"
  type: "ReLU"
  bottom: "res3a_branch2b/bn"
  top: "res3a_branch2b/bn"
}
layer {
  name: "pool3"
  type: "Pooling"
  bottom: "res3a_branch2b/bn"
  top: "pool3"
  pooling_param {
    pool: MAX
    kernel_size: 2
    stride: 2
  }
}
layer {
  name: "res4a_branch2a"
  type: "Convolution"
  bottom: "pool3"
  top: "res4a_branch2a"
  param {
    lr_mult: 1
    decay_mult: 1
  }
  param {
    lr_mult: 2
    decay_mult: 0
  }
  convolution_param {
    num_output: 256
    bias_term: true
    pad: 1
    kernel_size: 3
    group: 1
    stride: 1
    weight_filler {
      type: "msra"
    }
    bias_filler {
      type: "constant"
      value: 0
    }
    dilation: 1
  }
}
layer {
  name: "res4a_branch2a/bn"
  type: "BatchNorm"
  bottom: "res4a_branch2a"
  top: "res4a_branch2a/bn"
  param {
    lr_mult: 1
    decay_mult: 1
  }
  param {
    lr_mult: 1
    decay_mult: 1
  }
  param {
    lr_mult: 0
    decay_mult: 0
  }
  param {
    lr_mult: 0
    decay_mult: 0
  }
  batch_norm_param {
    moving_average_fraction: 0.99
    eps: 0.0001
    scale_filler {
      type: "constant"
      value: 1
    }
    bias_filler {
      type: "constant"
      value: 0
    }
  }
}
layer {
  name: "res4a_branch2a/relu"
  type: "ReLU"
  bottom: "res4a_branch2a/bn"
  top: "res4a_branch2a/bn"
}
layer {
  name: "res4a_branch2b"
  type: "Convolution"
  bottom: "res4a_branch2a/bn"
  top: "res4a_branch2b"
  param {
    lr_mult: 1
    decay_mult: 1
  }
  param {
    lr_mult: 2
    decay_mult: 0
  }
  convolution_param {
    num_output: 256
    bias_term: true
    pad: 1
    kernel_size: 3
    group: 4
    stride: 1
    weight_filler {
      type: "msra"
    }
    bias_filler {
      type: "constant"
      value: 0
    }
    dilation: 1
  }
}
layer {
  name: "res4a_branch2b/bn"
  type: "BatchNorm"
  bottom: "res4a_branch2b"
  top: "res4a_branch2b/bn"
  param {
    lr_mult: 1
    decay_mult: 1
  }
  param {
    lr_mult: 1
    decay_mult: 1
  }
  param {
    lr_mult: 0
    decay_mult: 0
  }
  param {
    lr_mult: 0
    decay_mult: 0
  }
  batch_norm_param {
    moving_average_fraction: 0.99
    eps: 0.0001
    scale_filler {
      type: "constant"
      value: 1
    }
    bias_filler {
      type: "constant"
      value: 0
    }
  }
}
layer {
  name: "res4a_branch2b/relu"
  type: "ReLU"
  bottom: "res4a_branch2b/bn"
  top: "res4a_branch2b/bn"
}
layer {
  name: "pool4"
  type: "Pooling"
  bottom: "res4a_branch2b/bn"
  top: "pool4"
  pooling_param {
    pool: MAX
    kernel_size: 1
    stride: 1
  }
}
layer {
  name: "res5a_branch2a"
  type: "Convolution"
  bottom: "pool4"
  top: "res5a_branch2a"
  param {
    lr_mult: 1
    decay_mult: 1
  }
  param {
    lr_mult: 2
    decay_mult: 0
  }
  convolution_param {
    num_output: 512
    bias_term: true
    pad: 2
    kernel_size: 3
    group: 1
    stride: 1
    weight_filler {
      type: "msra"
    }
    bias_filler {
      type: "constant"
      value: 0
    }
    dilation: 2
  }
}
layer {
  name: "res5a_branch2a/bn"
  type: "BatchNorm"
  bottom: "res5a_branch2a"
  top: "res5a_branch2a/bn"
  param {
    lr_mult: 1
    decay_mult: 1
  }
  param {
    lr_mult: 1
    decay_mult: 1
  }
  param {
    lr_mult: 0
    decay_mult: 0
  }
  param {
    lr_mult: 0
    decay_mult: 0
  }
  batch_norm_param {
    moving_average_fraction: 0.99
    eps: 0.0001
    scale_filler {
      type: "constant"
      value: 1
    }
    bias_filler {
      type: "constant"
      value: 0
    }
  }
}
layer {
  name: "res5a_branch2a/relu"
  type: "ReLU"
  bottom: "res5a_branch2a/bn"
  top: "res5a_branch2a/bn"
}
layer {
  name: "res5a_branch2b"
  type: "Convolution"
  bottom: "res5a_branch2a/bn"
  top: "res5a_branch2b"
  param {
    lr_mult: 1
    decay_mult: 1
  }
  param {
    lr_mult: 2
    decay_mult: 0
  }
  convolution_param {
    num_output: 512
    bias_term: true
    pad: 2
    kernel_size: 3
    group: 4
    stride: 1
    weight_filler {
      type: "msra"
    }
    bias_filler {
      type: "constant"
      value: 0
    }
    dilation: 2
  }
}
layer {
  name: "res5a_branch2b/bn"
  type: "BatchNorm"
  bottom: "res5a_branch2b"
  top: "res5a_branch2b/bn"
  param {
    lr_mult: 1
    decay_mult: 1
  }
  param {
    lr_mult: 1
    decay_mult: 1
  }
  param {
    lr_mult: 0
    decay_mult: 0
  }
  param {
    lr_mult: 0
    decay_mult: 0
  }
  batch_norm_param {
    moving_average_fraction: 0.99
    eps: 0.0001
    scale_filler {
      type: "constant"
      value: 1
    }
    bias_filler {
      type: "constant"
      value: 0
    }
  }
}
layer {
  name: "res5a_branch2b/relu"
  type: "ReLU"
  bottom: "res5a_branch2b/bn"
  top: "res5a_branch2b/bn"
}
layer {
  name: "out5a"
  type: "Convolution"
  bottom: "res5a_branch2b/bn"
  top: "out5a"
  param {
    lr_mult: 1
    decay_mult: 1
  }
  param {
    lr_mult: 2
    decay_mult: 0
  }
  convolution_param {
    num_output: 64
    bias_term: true
    pad: 4
    kernel_size: 3
    group: 2
    stride: 1
    weight_filler {
      type: "msra"
    }
    bias_filler {
      type: "constant"
      value: 0
    }
    dilation: 4
  }
}
layer {
  name: "out5a/bn"
  type: "BatchNorm"
  bottom: "out5a"
  top: "out5a/bn"
  param {
    lr_mult: 1
    decay_mult: 1
  }
  param {
    lr_mult: 1
    decay_mult: 1
  }
  param {
    lr_mult: 0
    decay_mult: 0
  }
  param {
    lr_mult: 0
    decay_mult: 0
  }
  batch_norm_param {
    moving_average_fraction: 0.99
    eps: 0.0001
    scale_filler {
      type: "constant"
      value: 1
    }
    bias_filler {
      type: "constant"
      value: 0
    }
  }
}
layer {
  name: "out5a/relu"
  type: "ReLU"
  bottom: "out5a/bn"
  top: "out5a/bn"
}
layer {
  name: "out5a_up2"
  type: "Deconvolution"
  bottom: "out5a/bn"
  top: "out5a_up2"
  param {
    lr_mult: 0
    decay_mult: 0
  }
  convolution_param {
    num_output: 64
    bias_term: false
    pad: 1
    kernel_size: 4
    group: 64
    stride: 2
    weight_filler {
      type: "bilinear"
    }
  }
}
layer {
  name: "out3a"
  type: "Convolution"
  bottom: "res3a_branch2b/bn"
  top: "out3a"
  param {
    lr_mult: 1
    decay_mult: 1
  }
  param {
    lr_mult: 2
    decay_mult: 0
  }
  convolution_param {
    num_output: 64
    bias_term: true
    pad: 1
    kernel_size: 3
    group: 2
    stride: 1
    weight_filler {
      type: "msra"
    }
    bias_filler {
      type: "constant"
      value: 0
    }
    dilation: 1
  }
}
layer {
  name: "out3a/bn"
  type: "BatchNorm"
  bottom: "out3a"
  top: "out3a/bn"
  param {
    lr_mult: 1
    decay_mult: 1
  }
  param {
    lr_mult: 1
    decay_mult: 1
  }
  param {
    lr_mult: 0
    decay_mult: 0
  }
  param {
    lr_mult: 0
    decay_mult: 0
  }
  batch_norm_param {
    moving_average_fraction: 0.99
    eps: 0.0001
    scale_filler {
      type: "constant"
      value: 1
    }
    bias_filler {
      type: "constant"
      value: 0
    }
  }
}
layer {
  name: "out3a/relu"
  type: "ReLU"
  bottom: "out3a/bn"
  top: "out3a/bn"
}
layer {
  name: "out3_out5_combined"
  type: "Eltwise"
  bottom: "out5a_up2"
  bottom: "out3a/bn"
  top: "out3_out5_combined"
}
layer {
  name: "ctx_conv1"
  type: "Convolution"
  bottom: "out3_out5_combined"
  top: "ctx_conv1"
  param {
    lr_mult: 1
    decay_mult: 1
  }
  param {
    lr_mult: 2
    decay_mult: 0
  }
  convolution_param {
    num_output: 64
    bias_term: true
    pad: 1
    kernel_size: 3
    group: 1
    stride: 1
    weight_filler {
      type: "msra"
    }
    bias_filler {
      type: "constant"
      value: 0
    }
    dilation: 1
  }
}
layer {
  name: "ctx_conv1/bn"
  type: "BatchNorm"
  bottom: "ctx_conv1"
  top: "ctx_conv1/bn"
  param {
    lr_mult: 1
    decay_mult: 1
  }
  param {
    lr_mult: 1
    decay_mult: 1
  }
  param {
    lr_mult: 0
    decay_mult: 0
  }
  param {
    lr_mult: 0
    decay_mult: 0
  }
  batch_norm_param {
    moving_average_fraction: 0.99
    eps: 0.0001
    scale_filler {
      type: "constant"
      value: 1
    }
    bias_filler {
      type: "constant"
      value: 0
    }
  }
}
layer {
  name: "ctx_conv1/relu"
  type: "ReLU"
  bottom: "ctx_conv1/bn"
  top: "ctx_conv1/bn"
}
layer {
  name: "ctx_conv2"
  type: "Convolution"
  bottom: "ctx_conv1/bn"
  top: "ctx_conv2"
  param {
    lr_mult: 1
    decay_mult: 1
  }
  param {
    lr_mult: 2
    decay_mult: 0
  }
  convolution_param {
    num_output: 64
    bias_term: true
    pad: 4
    kernel_size: 3
    group: 1
    stride: 1
    weight_filler {
      type: "msra"
    }
    bias_filler {
      type: "constant"
      value: 0
    }
    dilation: 4
  }
}
layer {
  name: "ctx_conv2/bn"
  type: "BatchNorm"
  bottom: "ctx_conv2"
  top: "ctx_conv2/bn"
  param {
    lr_mult: 1
    decay_mult: 1
  }
  param {
    lr_mult: 1
    decay_mult: 1
  }
  param {
    lr_mult: 0
    decay_mult: 0
  }
  param {
    lr_mult: 0
    decay_mult: 0
  }
  batch_norm_param {
    moving_average_fraction: 0.99
    eps: 0.0001
    scale_filler {
      type: "constant"
      value: 1
    }
    bias_filler {
      type: "constant"
      value: 0
    }
  }
}
layer {
  name: "ctx_conv2/relu"
  type: "ReLU"
  bottom: "ctx_conv2/bn"
  top: "ctx_conv2/bn"
}
layer {
  name: "ctx_conv3"
  type: "Convolution"
  bottom: "ctx_conv2/bn"
  top: "ctx_conv3"
  param {
    lr_mult: 1
    decay_mult: 1
  }
  param {
    lr_mult: 2
    decay_mult: 0
  }
  convolution_param {
    num_output: 64
    bias_term: true
    pad: 4
    kernel_size: 3
    group: 1
    stride: 1
    weight_filler {
      type: "msra"
    }
    bias_filler {
      type: "constant"
      value: 0
    }
    dilation: 4
  }
}
layer {
  name: "ctx_conv3/bn"
  type: "BatchNorm"
  bottom: "ctx_conv3"
  top: "ctx_conv3/bn"
  param {
    lr_mult: 1
    decay_mult: 1
  }
  param {
    lr_mult: 1
    decay_mult: 1
  }
  param {
    lr_mult: 0
    decay_mult: 0
  }
  param {
    lr_mult: 0
    decay_mult: 0
  }
  batch_norm_param {
    moving_average_fraction: 0.99
    eps: 0.0001
    scale_filler {
      type: "constant"
      value: 1
    }
    bias_filler {
      type: "constant"
      value: 0
    }
  }
}
layer {
  name: "ctx_conv3/relu"
  type: "ReLU"
  bottom: "ctx_conv3/bn"
  top: "ctx_conv3/bn"
}
layer {
  name: "ctx_conv4"
  type: "Convolution"
  bottom: "ctx_conv3/bn"
  top: "ctx_conv4"
  param {
    lr_mult: 1
    decay_mult: 1
  }
  param {
    lr_mult: 2
    decay_mult: 0
  }
  convolution_param {
    num_output: 64
    bias_term: true
    pad: 4
    kernel_size: 3
    group: 1
    stride: 1
    weight_filler {
      type: "msra"
    }
    bias_filler {
      type: "constant"
      value: 0
    }
    dilation: 4
  }
}
layer {
  name: "ctx_conv4/bn"
  type: "BatchNorm"
  bottom: "ctx_conv4"
  top: "ctx_conv4/bn"
  param {
    lr_mult: 1
    decay_mult: 1
  }
  param {
    lr_mult: 1
    decay_mult: 1
  }
  param {
    lr_mult: 0
    decay_mult: 0
  }
  param {
    lr_mult: 0
    decay_mult: 0
  }
  batch_norm_param {
    moving_average_fraction: 0.99
    eps: 0.0001
    scale_filler {
      type: "constant"
      value: 1
    }
    bias_filler {
      type: "constant"
      value: 0
    }
  }
}
layer {
  name: "ctx_conv4/relu"
  type: "ReLU"
  bottom: "ctx_conv4/bn"
  top: "ctx_conv4/bn"
}
layer {
  name: "ctx_final"
  type: "Convolution"
  bottom: "ctx_conv4/bn"
  top: "ctx_final"
  param {
    lr_mult: 1
    decay_mult: 1
  }
  param {
    lr_mult: 2
    decay_mult: 0
  }
  convolution_param {
    num_output: 8
    bias_term: true
    pad: 1
    kernel_size: 3
    kernel_size: 3
    group: 1
    stride: 1
    weight_filler {
      type: "msra"
    }
    bias_filler {
      type: "constant"
      value: 0
    }
    dilation: 1
  }
}
layer {
  name: "ctx_final/relu"
  type: "ReLU"
  bottom: "ctx_final"
  top: "ctx_final"
}
layer {
  name: "out_deconv_final_up2"
  type: "Deconvolution"
  bottom: "ctx_final"
  top: "out_deconv_final_up2"
  param {
    lr_mult: 0
    decay_mult: 0
  }
  convolution_param {
    num_output: 8
    bias_term: false
    pad: 1
    kernel_size: 4
    group: 8
    stride: 2
    weight_filler {
      type: "bilinear"
    }
  }
}
layer {
  name: "out_deconv_final_up4"
  type: "Deconvolution"
  bottom: "out_deconv_final_up2"
  top: "out_deconv_final_up4"
  param {
    lr_mult: 0
    decay_mult: 0
  }
  convolution_param {
    num_output: 8
    bias_term: false
    pad: 1
    kernel_size: 4
    group: 8
    stride: 2
    weight_filler {
      type: "bilinear"
    }
  }
}
layer {
  name: "out_deconv_final_up8"
  type: "Deconvolution"
  bottom: "out_deconv_final_up4"
  top: "out_deconv_final_up8"
  param {
    lr_mult: 0
    decay_mult: 0
  }
  convolution_param {
    num_output: 8
    bias_term: false
    pad: 1
    kernel_size: 4
    group: 8
    stride: 2
    weight_filler {
      type: "bilinear"
    }
  }
}
layer {
  name: "prob"
  type: "Softmax"
  bottom: "out_deconv_final_up8"
  top: "prob"
}
I0712 00:08:32.692685 13823 layer_factory.hpp:77] Creating layer input
I0712 00:08:32.692694 13823 net.cpp:98] Creating Layer input
I0712 00:08:32.692697 13823 net.cpp:413] input -> data
I0712 00:08:32.693696 13823 net.cpp:148] Setting up input
I0712 00:08:32.693706 13823 net.cpp:155] Top shape: 1 3 1024 2048 (6291456)
I0712 00:08:32.693707 13823 net.cpp:163] Memory required for data: 25165824
I0712 00:08:32.693711 13823 layer_factory.hpp:77] Creating layer data/bias
I0712 00:08:32.693719 13823 net.cpp:98] Creating Layer data/bias
I0712 00:08:32.693722 13823 net.cpp:439] data/bias <- data
I0712 00:08:32.693724 13823 net.cpp:413] data/bias -> data/bias
I0712 00:08:32.696777 13823 net.cpp:148] Setting up data/bias
I0712 00:08:32.696799 13823 net.cpp:155] Top shape: 1 3 1024 2048 (6291456)
I0712 00:08:32.696801 13823 net.cpp:163] Memory required for data: 50331648
I0712 00:08:32.696812 13823 layer_factory.hpp:77] Creating layer conv1a
I0712 00:08:32.696836 13823 net.cpp:98] Creating Layer conv1a
I0712 00:08:32.696841 13823 net.cpp:439] conv1a <- data/bias
I0712 00:08:32.696843 13823 net.cpp:413] conv1a -> conv1a
I0712 00:08:32.699414 13823 net.cpp:148] Setting up conv1a
I0712 00:08:32.699424 13823 net.cpp:155] Top shape: 1 32 512 1024 (16777216)
I0712 00:08:32.699426 13823 net.cpp:163] Memory required for data: 117440512
I0712 00:08:32.699432 13823 layer_factory.hpp:77] Creating layer conv1a/bn
I0712 00:08:32.699437 13823 net.cpp:98] Creating Layer conv1a/bn
I0712 00:08:32.699440 13823 net.cpp:439] conv1a/bn <- conv1a
I0712 00:08:32.699442 13823 net.cpp:413] conv1a/bn -> conv1a/bn
I0712 00:08:32.701151 13823 net.cpp:148] Setting up conv1a/bn
I0712 00:08:32.701161 13823 net.cpp:155] Top shape: 1 32 512 1024 (16777216)
I0712 00:08:32.701164 13823 net.cpp:163] Memory required for data: 184549376
I0712 00:08:32.701169 13823 layer_factory.hpp:77] Creating layer conv1a/relu
I0712 00:08:32.701174 13823 net.cpp:98] Creating Layer conv1a/relu
I0712 00:08:32.701176 13823 net.cpp:439] conv1a/relu <- conv1a/bn
I0712 00:08:32.701179 13823 net.cpp:400] conv1a/relu -> conv1a/bn (in-place)
I0712 00:08:32.701189 13823 net.cpp:148] Setting up conv1a/relu
I0712 00:08:32.701190 13823 net.cpp:155] Top shape: 1 32 512 1024 (16777216)
I0712 00:08:32.701192 13823 net.cpp:163] Memory required for data: 251658240
I0712 00:08:32.701195 13823 layer_factory.hpp:77] Creating layer conv1b
I0712 00:08:32.701198 13823 net.cpp:98] Creating Layer conv1b
I0712 00:08:32.701201 13823 net.cpp:439] conv1b <- conv1a/bn
I0712 00:08:32.701205 13823 net.cpp:413] conv1b -> conv1b
I0712 00:08:32.702553 13823 net.cpp:148] Setting up conv1b
I0712 00:08:32.702563 13823 net.cpp:155] Top shape: 1 32 512 1024 (16777216)
I0712 00:08:32.702564 13823 net.cpp:163] Memory required for data: 318767104
I0712 00:08:32.702569 13823 layer_factory.hpp:77] Creating layer conv1b/bn
I0712 00:08:32.702576 13823 net.cpp:98] Creating Layer conv1b/bn
I0712 00:08:32.702579 13823 net.cpp:439] conv1b/bn <- conv1b
I0712 00:08:32.702580 13823 net.cpp:413] conv1b/bn -> conv1b/bn
I0712 00:08:32.704340 13823 net.cpp:148] Setting up conv1b/bn
I0712 00:08:32.704351 13823 net.cpp:155] Top shape: 1 32 512 1024 (16777216)
I0712 00:08:32.704354 13823 net.cpp:163] Memory required for data: 385875968
I0712 00:08:32.704360 13823 layer_factory.hpp:77] Creating layer conv1b/relu
I0712 00:08:32.704365 13823 net.cpp:98] Creating Layer conv1b/relu
I0712 00:08:32.704366 13823 net.cpp:439] conv1b/relu <- conv1b/bn
I0712 00:08:32.704370 13823 net.cpp:400] conv1b/relu -> conv1b/bn (in-place)
I0712 00:08:32.704373 13823 net.cpp:148] Setting up conv1b/relu
I0712 00:08:32.704375 13823 net.cpp:155] Top shape: 1 32 512 1024 (16777216)
I0712 00:08:32.704377 13823 net.cpp:163] Memory required for data: 452984832
I0712 00:08:32.704380 13823 layer_factory.hpp:77] Creating layer pool1
I0712 00:08:32.704383 13823 net.cpp:98] Creating Layer pool1
I0712 00:08:32.704385 13823 net.cpp:439] pool1 <- conv1b/bn
I0712 00:08:32.704386 13823 net.cpp:413] pool1 -> pool1
I0712 00:08:32.704426 13823 net.cpp:148] Setting up pool1
I0712 00:08:32.704430 13823 net.cpp:155] Top shape: 1 32 256 512 (4194304)
I0712 00:08:32.704432 13823 net.cpp:163] Memory required for data: 469762048
I0712 00:08:32.704433 13823 layer_factory.hpp:77] Creating layer res2a_branch2a
I0712 00:08:32.704438 13823 net.cpp:98] Creating Layer res2a_branch2a
I0712 00:08:32.704440 13823 net.cpp:439] res2a_branch2a <- pool1
I0712 00:08:32.704442 13823 net.cpp:413] res2a_branch2a -> res2a_branch2a
I0712 00:08:32.706820 13823 net.cpp:148] Setting up res2a_branch2a
I0712 00:08:32.706830 13823 net.cpp:155] Top shape: 1 64 256 512 (8388608)
I0712 00:08:32.706832 13823 net.cpp:163] Memory required for data: 503316480
I0712 00:08:32.706837 13823 layer_factory.hpp:77] Creating layer res2a_branch2a/bn
I0712 00:08:32.706843 13823 net.cpp:98] Creating Layer res2a_branch2a/bn
I0712 00:08:32.706846 13823 net.cpp:439] res2a_branch2a/bn <- res2a_branch2a
I0712 00:08:32.706849 13823 net.cpp:413] res2a_branch2a/bn -> res2a_branch2a/bn
I0712 00:08:32.707564 13823 net.cpp:148] Setting up res2a_branch2a/bn
I0712 00:08:32.707571 13823 net.cpp:155] Top shape: 1 64 256 512 (8388608)
I0712 00:08:32.707572 13823 net.cpp:163] Memory required for data: 536870912
I0712 00:08:32.707577 13823 layer_factory.hpp:77] Creating layer res2a_branch2a/relu
I0712 00:08:32.707581 13823 net.cpp:98] Creating Layer res2a_branch2a/relu
I0712 00:08:32.707582 13823 net.cpp:439] res2a_branch2a/relu <- res2a_branch2a/bn
I0712 00:08:32.707584 13823 net.cpp:400] res2a_branch2a/relu -> res2a_branch2a/bn (in-place)
I0712 00:08:32.707588 13823 net.cpp:148] Setting up res2a_branch2a/relu
I0712 00:08:32.707590 13823 net.cpp:155] Top shape: 1 64 256 512 (8388608)
I0712 00:08:32.707592 13823 net.cpp:163] Memory required for data: 570425344
I0712 00:08:32.707593 13823 layer_factory.hpp:77] Creating layer res2a_branch2b
I0712 00:08:32.707597 13823 net.cpp:98] Creating Layer res2a_branch2b
I0712 00:08:32.707599 13823 net.cpp:439] res2a_branch2b <- res2a_branch2a/bn
I0712 00:08:32.707602 13823 net.cpp:413] res2a_branch2b -> res2a_branch2b
I0712 00:08:32.708981 13823 net.cpp:148] Setting up res2a_branch2b
I0712 00:08:32.708991 13823 net.cpp:155] Top shape: 1 64 256 512 (8388608)
I0712 00:08:32.708992 13823 net.cpp:163] Memory required for data: 603979776
I0712 00:08:32.708995 13823 layer_factory.hpp:77] Creating layer res2a_branch2b/bn
I0712 00:08:32.709000 13823 net.cpp:98] Creating Layer res2a_branch2b/bn
I0712 00:08:32.709002 13823 net.cpp:439] res2a_branch2b/bn <- res2a_branch2b
I0712 00:08:32.709005 13823 net.cpp:413] res2a_branch2b/bn -> res2a_branch2b/bn
I0712 00:08:32.709714 13823 net.cpp:148] Setting up res2a_branch2b/bn
I0712 00:08:32.709720 13823 net.cpp:155] Top shape: 1 64 256 512 (8388608)
I0712 00:08:32.709722 13823 net.cpp:163] Memory required for data: 637534208
I0712 00:08:32.709728 13823 layer_factory.hpp:77] Creating layer res2a_branch2b/relu
I0712 00:08:32.709730 13823 net.cpp:98] Creating Layer res2a_branch2b/relu
I0712 00:08:32.709733 13823 net.cpp:439] res2a_branch2b/relu <- res2a_branch2b/bn
I0712 00:08:32.709734 13823 net.cpp:400] res2a_branch2b/relu -> res2a_branch2b/bn (in-place)
I0712 00:08:32.709738 13823 net.cpp:148] Setting up res2a_branch2b/relu
I0712 00:08:32.709739 13823 net.cpp:155] Top shape: 1 64 256 512 (8388608)
I0712 00:08:32.709741 13823 net.cpp:163] Memory required for data: 671088640
I0712 00:08:32.709743 13823 layer_factory.hpp:77] Creating layer pool2
I0712 00:08:32.709746 13823 net.cpp:98] Creating Layer pool2
I0712 00:08:32.709748 13823 net.cpp:439] pool2 <- res2a_branch2b/bn
I0712 00:08:32.709749 13823 net.cpp:413] pool2 -> pool2
I0712 00:08:32.709781 13823 net.cpp:148] Setting up pool2
I0712 00:08:32.709785 13823 net.cpp:155] Top shape: 1 64 128 256 (2097152)
I0712 00:08:32.709787 13823 net.cpp:163] Memory required for data: 679477248
I0712 00:08:32.709789 13823 layer_factory.hpp:77] Creating layer res3a_branch2a
I0712 00:08:32.709794 13823 net.cpp:98] Creating Layer res3a_branch2a
I0712 00:08:32.709795 13823 net.cpp:439] res3a_branch2a <- pool2
I0712 00:08:32.709797 13823 net.cpp:413] res3a_branch2a -> res3a_branch2a
I0712 00:08:32.712378 13823 net.cpp:148] Setting up res3a_branch2a
I0712 00:08:32.712385 13823 net.cpp:155] Top shape: 1 128 128 256 (4194304)
I0712 00:08:32.712388 13823 net.cpp:163] Memory required for data: 696254464
I0712 00:08:32.712391 13823 layer_factory.hpp:77] Creating layer res3a_branch2a/bn
I0712 00:08:32.712395 13823 net.cpp:98] Creating Layer res3a_branch2a/bn
I0712 00:08:32.712397 13823 net.cpp:439] res3a_branch2a/bn <- res3a_branch2a
I0712 00:08:32.712399 13823 net.cpp:413] res3a_branch2a/bn -> res3a_branch2a/bn
I0712 00:08:32.713037 13823 net.cpp:148] Setting up res3a_branch2a/bn
I0712 00:08:32.713043 13823 net.cpp:155] Top shape: 1 128 128 256 (4194304)
I0712 00:08:32.713045 13823 net.cpp:163] Memory required for data: 713031680
I0712 00:08:32.713052 13823 layer_factory.hpp:77] Creating layer res3a_branch2a/relu
I0712 00:08:32.713054 13823 net.cpp:98] Creating Layer res3a_branch2a/relu
I0712 00:08:32.713057 13823 net.cpp:439] res3a_branch2a/relu <- res3a_branch2a/bn
I0712 00:08:32.713058 13823 net.cpp:400] res3a_branch2a/relu -> res3a_branch2a/bn (in-place)
I0712 00:08:32.713063 13823 net.cpp:148] Setting up res3a_branch2a/relu
I0712 00:08:32.713065 13823 net.cpp:155] Top shape: 1 128 128 256 (4194304)
I0712 00:08:32.713068 13823 net.cpp:163] Memory required for data: 729808896
I0712 00:08:32.713069 13823 layer_factory.hpp:77] Creating layer res3a_branch2b
I0712 00:08:32.713073 13823 net.cpp:98] Creating Layer res3a_branch2b
I0712 00:08:32.713074 13823 net.cpp:439] res3a_branch2b <- res3a_branch2a/bn
I0712 00:08:32.713078 13823 net.cpp:413] res3a_branch2b -> res3a_branch2b
I0712 00:08:32.714081 13823 net.cpp:148] Setting up res3a_branch2b
I0712 00:08:32.714085 13823 net.cpp:155] Top shape: 1 128 128 256 (4194304)
I0712 00:08:32.714087 13823 net.cpp:163] Memory required for data: 746586112
I0712 00:08:32.714090 13823 layer_factory.hpp:77] Creating layer res3a_branch2b/bn
I0712 00:08:32.714093 13823 net.cpp:98] Creating Layer res3a_branch2b/bn
I0712 00:08:32.714095 13823 net.cpp:439] res3a_branch2b/bn <- res3a_branch2b
I0712 00:08:32.714097 13823 net.cpp:413] res3a_branch2b/bn -> res3a_branch2b/bn
I0712 00:08:32.714714 13823 net.cpp:148] Setting up res3a_branch2b/bn
I0712 00:08:32.714718 13823 net.cpp:155] Top shape: 1 128 128 256 (4194304)
I0712 00:08:32.714720 13823 net.cpp:163] Memory required for data: 763363328
I0712 00:08:32.714725 13823 layer_factory.hpp:77] Creating layer res3a_branch2b/relu
I0712 00:08:32.714727 13823 net.cpp:98] Creating Layer res3a_branch2b/relu
I0712 00:08:32.714730 13823 net.cpp:439] res3a_branch2b/relu <- res3a_branch2b/bn
I0712 00:08:32.714731 13823 net.cpp:400] res3a_branch2b/relu -> res3a_branch2b/bn (in-place)
I0712 00:08:32.714735 13823 net.cpp:148] Setting up res3a_branch2b/relu
I0712 00:08:32.714736 13823 net.cpp:155] Top shape: 1 128 128 256 (4194304)
I0712 00:08:32.714738 13823 net.cpp:163] Memory required for data: 780140544
I0712 00:08:32.714740 13823 layer_factory.hpp:77] Creating layer res3a_branch2b/bn_res3a_branch2b/relu_0_split
I0712 00:08:32.714742 13823 net.cpp:98] Creating Layer res3a_branch2b/bn_res3a_branch2b/relu_0_split
I0712 00:08:32.714745 13823 net.cpp:439] res3a_branch2b/bn_res3a_branch2b/relu_0_split <- res3a_branch2b/bn
I0712 00:08:32.714746 13823 net.cpp:413] res3a_branch2b/bn_res3a_branch2b/relu_0_split -> res3a_branch2b/bn_res3a_branch2b/relu_0_split_0
I0712 00:08:32.714749 13823 net.cpp:413] res3a_branch2b/bn_res3a_branch2b/relu_0_split -> res3a_branch2b/bn_res3a_branch2b/relu_0_split_1
I0712 00:08:32.714781 13823 net.cpp:148] Setting up res3a_branch2b/bn_res3a_branch2b/relu_0_split
I0712 00:08:32.714787 13823 net.cpp:155] Top shape: 1 128 128 256 (4194304)
I0712 00:08:32.714788 13823 net.cpp:155] Top shape: 1 128 128 256 (4194304)
I0712 00:08:32.714789 13823 net.cpp:163] Memory required for data: 813694976
I0712 00:08:32.714792 13823 layer_factory.hpp:77] Creating layer pool3
I0712 00:08:32.714794 13823 net.cpp:98] Creating Layer pool3
I0712 00:08:32.714797 13823 net.cpp:439] pool3 <- res3a_branch2b/bn_res3a_branch2b/relu_0_split_0
I0712 00:08:32.714799 13823 net.cpp:413] pool3 -> pool3
I0712 00:08:32.714833 13823 net.cpp:148] Setting up pool3
I0712 00:08:32.714838 13823 net.cpp:155] Top shape: 1 128 64 128 (1048576)
I0712 00:08:32.714838 13823 net.cpp:163] Memory required for data: 817889280
I0712 00:08:32.714840 13823 layer_factory.hpp:77] Creating layer res4a_branch2a
I0712 00:08:32.714845 13823 net.cpp:98] Creating Layer res4a_branch2a
I0712 00:08:32.714848 13823 net.cpp:439] res4a_branch2a <- pool3
I0712 00:08:32.714850 13823 net.cpp:413] res4a_branch2a -> res4a_branch2a
I0712 00:08:32.720993 13823 net.cpp:148] Setting up res4a_branch2a
I0712 00:08:32.721012 13823 net.cpp:155] Top shape: 1 256 64 128 (2097152)
I0712 00:08:32.721014 13823 net.cpp:163] Memory required for data: 826277888
I0712 00:08:32.721020 13823 layer_factory.hpp:77] Creating layer res4a_branch2a/bn
I0712 00:08:32.721027 13823 net.cpp:98] Creating Layer res4a_branch2a/bn
I0712 00:08:32.721029 13823 net.cpp:439] res4a_branch2a/bn <- res4a_branch2a
I0712 00:08:32.721034 13823 net.cpp:413] res4a_branch2a/bn -> res4a_branch2a/bn
I0712 00:08:32.721700 13823 net.cpp:148] Setting up res4a_branch2a/bn
I0712 00:08:32.721709 13823 net.cpp:155] Top shape: 1 256 64 128 (2097152)
I0712 00:08:32.721711 13823 net.cpp:163] Memory required for data: 834666496
I0712 00:08:32.721716 13823 layer_factory.hpp:77] Creating layer res4a_branch2a/relu
I0712 00:08:32.721719 13823 net.cpp:98] Creating Layer res4a_branch2a/relu
I0712 00:08:32.721721 13823 net.cpp:439] res4a_branch2a/relu <- res4a_branch2a/bn
I0712 00:08:32.721724 13823 net.cpp:400] res4a_branch2a/relu -> res4a_branch2a/bn (in-place)
I0712 00:08:32.721727 13823 net.cpp:148] Setting up res4a_branch2a/relu
I0712 00:08:32.721730 13823 net.cpp:155] Top shape: 1 256 64 128 (2097152)
I0712 00:08:32.721731 13823 net.cpp:163] Memory required for data: 843055104
I0712 00:08:32.721734 13823 layer_factory.hpp:77] Creating layer res4a_branch2b
I0712 00:08:32.721738 13823 net.cpp:98] Creating Layer res4a_branch2b
I0712 00:08:32.721740 13823 net.cpp:439] res4a_branch2b <- res4a_branch2a/bn
I0712 00:08:32.721742 13823 net.cpp:413] res4a_branch2b -> res4a_branch2b
I0712 00:08:32.724938 13823 net.cpp:148] Setting up res4a_branch2b
I0712 00:08:32.724946 13823 net.cpp:155] Top shape: 1 256 64 128 (2097152)
I0712 00:08:32.724947 13823 net.cpp:163] Memory required for data: 851443712
I0712 00:08:32.724951 13823 layer_factory.hpp:77] Creating layer res4a_branch2b/bn
I0712 00:08:32.724956 13823 net.cpp:98] Creating Layer res4a_branch2b/bn
I0712 00:08:32.724957 13823 net.cpp:439] res4a_branch2b/bn <- res4a_branch2b
I0712 00:08:32.724959 13823 net.cpp:413] res4a_branch2b/bn -> res4a_branch2b/bn
I0712 00:08:32.725581 13823 net.cpp:148] Setting up res4a_branch2b/bn
I0712 00:08:32.725586 13823 net.cpp:155] Top shape: 1 256 64 128 (2097152)
I0712 00:08:32.725589 13823 net.cpp:163] Memory required for data: 859832320
I0712 00:08:32.725595 13823 layer_factory.hpp:77] Creating layer res4a_branch2b/relu
I0712 00:08:32.725600 13823 net.cpp:98] Creating Layer res4a_branch2b/relu
I0712 00:08:32.725601 13823 net.cpp:439] res4a_branch2b/relu <- res4a_branch2b/bn
I0712 00:08:32.725603 13823 net.cpp:400] res4a_branch2b/relu -> res4a_branch2b/bn (in-place)
I0712 00:08:32.725606 13823 net.cpp:148] Setting up res4a_branch2b/relu
I0712 00:08:32.725608 13823 net.cpp:155] Top shape: 1 256 64 128 (2097152)
I0712 00:08:32.725610 13823 net.cpp:163] Memory required for data: 868220928
I0712 00:08:32.725612 13823 layer_factory.hpp:77] Creating layer pool4
I0712 00:08:32.725615 13823 net.cpp:98] Creating Layer pool4
I0712 00:08:32.725616 13823 net.cpp:439] pool4 <- res4a_branch2b/bn
I0712 00:08:32.725618 13823 net.cpp:413] pool4 -> pool4
I0712 00:08:32.725654 13823 net.cpp:148] Setting up pool4
I0712 00:08:32.725658 13823 net.cpp:155] Top shape: 1 256 64 128 (2097152)
I0712 00:08:32.725659 13823 net.cpp:163] Memory required for data: 876609536
I0712 00:08:32.725661 13823 layer_factory.hpp:77] Creating layer res5a_branch2a
I0712 00:08:32.725666 13823 net.cpp:98] Creating Layer res5a_branch2a
I0712 00:08:32.725667 13823 net.cpp:439] res5a_branch2a <- pool4
I0712 00:08:32.725669 13823 net.cpp:413] res5a_branch2a -> res5a_branch2a
I0712 00:08:32.751713 13823 net.cpp:148] Setting up res5a_branch2a
I0712 00:08:32.751729 13823 net.cpp:155] Top shape: 1 512 64 128 (4194304)
I0712 00:08:32.751732 13823 net.cpp:163] Memory required for data: 893386752
I0712 00:08:32.751737 13823 layer_factory.hpp:77] Creating layer res5a_branch2a/bn
I0712 00:08:32.751746 13823 net.cpp:98] Creating Layer res5a_branch2a/bn
I0712 00:08:32.751749 13823 net.cpp:439] res5a_branch2a/bn <- res5a_branch2a
I0712 00:08:32.751752 13823 net.cpp:413] res5a_branch2a/bn -> res5a_branch2a/bn
I0712 00:08:32.752403 13823 net.cpp:148] Setting up res5a_branch2a/bn
I0712 00:08:32.752408 13823 net.cpp:155] Top shape: 1 512 64 128 (4194304)
I0712 00:08:32.752410 13823 net.cpp:163] Memory required for data: 910163968
I0712 00:08:32.752415 13823 layer_factory.hpp:77] Creating layer res5a_branch2a/relu
I0712 00:08:32.752418 13823 net.cpp:98] Creating Layer res5a_branch2a/relu
I0712 00:08:32.752420 13823 net.cpp:439] res5a_branch2a/relu <- res5a_branch2a/bn
I0712 00:08:32.752423 13823 net.cpp:400] res5a_branch2a/relu -> res5a_branch2a/bn (in-place)
I0712 00:08:32.752426 13823 net.cpp:148] Setting up res5a_branch2a/relu
I0712 00:08:32.752429 13823 net.cpp:155] Top shape: 1 512 64 128 (4194304)
I0712 00:08:32.752430 13823 net.cpp:163] Memory required for data: 926941184
I0712 00:08:32.752431 13823 layer_factory.hpp:77] Creating layer res5a_branch2b
I0712 00:08:32.752436 13823 net.cpp:98] Creating Layer res5a_branch2b
I0712 00:08:32.752439 13823 net.cpp:439] res5a_branch2b <- res5a_branch2a/bn
I0712 00:08:32.752440 13823 net.cpp:413] res5a_branch2b -> res5a_branch2b
I0712 00:08:32.765353 13823 net.cpp:148] Setting up res5a_branch2b
I0712 00:08:32.765374 13823 net.cpp:155] Top shape: 1 512 64 128 (4194304)
I0712 00:08:32.765377 13823 net.cpp:163] Memory required for data: 943718400
I0712 00:08:32.765385 13823 layer_factory.hpp:77] Creating layer res5a_branch2b/bn
I0712 00:08:32.765393 13823 net.cpp:98] Creating Layer res5a_branch2b/bn
I0712 00:08:32.765395 13823 net.cpp:439] res5a_branch2b/bn <- res5a_branch2b
I0712 00:08:32.765399 13823 net.cpp:413] res5a_branch2b/bn -> res5a_branch2b/bn
I0712 00:08:32.766080 13823 net.cpp:148] Setting up res5a_branch2b/bn
I0712 00:08:32.766088 13823 net.cpp:155] Top shape: 1 512 64 128 (4194304)
I0712 00:08:32.766090 13823 net.cpp:163] Memory required for data: 960495616
I0712 00:08:32.766095 13823 layer_factory.hpp:77] Creating layer res5a_branch2b/relu
I0712 00:08:32.766099 13823 net.cpp:98] Creating Layer res5a_branch2b/relu
I0712 00:08:32.766101 13823 net.cpp:439] res5a_branch2b/relu <- res5a_branch2b/bn
I0712 00:08:32.766103 13823 net.cpp:400] res5a_branch2b/relu -> res5a_branch2b/bn (in-place)
I0712 00:08:32.766108 13823 net.cpp:148] Setting up res5a_branch2b/relu
I0712 00:08:32.766111 13823 net.cpp:155] Top shape: 1 512 64 128 (4194304)
I0712 00:08:32.766113 13823 net.cpp:163] Memory required for data: 977272832
I0712 00:08:32.766114 13823 layer_factory.hpp:77] Creating layer out5a
I0712 00:08:32.766119 13823 net.cpp:98] Creating Layer out5a
I0712 00:08:32.766121 13823 net.cpp:439] out5a <- res5a_branch2b/bn
I0712 00:08:32.766124 13823 net.cpp:413] out5a -> out5a
I0712 00:08:32.770324 13823 net.cpp:148] Setting up out5a
I0712 00:08:32.770336 13823 net.cpp:155] Top shape: 1 64 64 128 (524288)
I0712 00:08:32.770339 13823 net.cpp:163] Memory required for data: 979369984
I0712 00:08:32.770344 13823 layer_factory.hpp:77] Creating layer out5a/bn
I0712 00:08:32.770350 13823 net.cpp:98] Creating Layer out5a/bn
I0712 00:08:32.770354 13823 net.cpp:439] out5a/bn <- out5a
I0712 00:08:32.770359 13823 net.cpp:413] out5a/bn -> out5a/bn
I0712 00:08:32.771096 13823 net.cpp:148] Setting up out5a/bn
I0712 00:08:32.771105 13823 net.cpp:155] Top shape: 1 64 64 128 (524288)
I0712 00:08:32.771106 13823 net.cpp:163] Memory required for data: 981467136
I0712 00:08:32.771111 13823 layer_factory.hpp:77] Creating layer out5a/relu
I0712 00:08:32.771113 13823 net.cpp:98] Creating Layer out5a/relu
I0712 00:08:32.771116 13823 net.cpp:439] out5a/relu <- out5a/bn
I0712 00:08:32.771118 13823 net.cpp:400] out5a/relu -> out5a/bn (in-place)
I0712 00:08:32.771121 13823 net.cpp:148] Setting up out5a/relu
I0712 00:08:32.771124 13823 net.cpp:155] Top shape: 1 64 64 128 (524288)
I0712 00:08:32.771126 13823 net.cpp:163] Memory required for data: 983564288
I0712 00:08:32.771127 13823 layer_factory.hpp:77] Creating layer out5a_up2
I0712 00:08:32.771137 13823 net.cpp:98] Creating Layer out5a_up2
I0712 00:08:32.771139 13823 net.cpp:439] out5a_up2 <- out5a/bn
I0712 00:08:32.771142 13823 net.cpp:413] out5a_up2 -> out5a_up2
I0712 00:08:32.771384 13823 net.cpp:148] Setting up out5a_up2
I0712 00:08:32.771389 13823 net.cpp:155] Top shape: 1 64 128 256 (2097152)
I0712 00:08:32.771389 13823 net.cpp:163] Memory required for data: 991952896
I0712 00:08:32.771392 13823 layer_factory.hpp:77] Creating layer out3a
I0712 00:08:32.771396 13823 net.cpp:98] Creating Layer out3a
I0712 00:08:32.771399 13823 net.cpp:439] out3a <- res3a_branch2b/bn_res3a_branch2b/relu_0_split_1
I0712 00:08:32.771401 13823 net.cpp:413] out3a -> out3a
I0712 00:08:32.772430 13823 net.cpp:148] Setting up out3a
I0712 00:08:32.772435 13823 net.cpp:155] Top shape: 1 64 128 256 (2097152)
I0712 00:08:32.772438 13823 net.cpp:163] Memory required for data: 1000341504
I0712 00:08:32.772440 13823 layer_factory.hpp:77] Creating layer out3a/bn
I0712 00:08:32.772444 13823 net.cpp:98] Creating Layer out3a/bn
I0712 00:08:32.772445 13823 net.cpp:439] out3a/bn <- out3a
I0712 00:08:32.772449 13823 net.cpp:413] out3a/bn -> out3a/bn
I0712 00:08:32.773167 13823 net.cpp:148] Setting up out3a/bn
I0712 00:08:32.773174 13823 net.cpp:155] Top shape: 1 64 128 256 (2097152)
I0712 00:08:32.773175 13823 net.cpp:163] Memory required for data: 1008730112
I0712 00:08:32.773182 13823 layer_factory.hpp:77] Creating layer out3a/relu
I0712 00:08:32.773185 13823 net.cpp:98] Creating Layer out3a/relu
I0712 00:08:32.773187 13823 net.cpp:439] out3a/relu <- out3a/bn
I0712 00:08:32.773190 13823 net.cpp:400] out3a/relu -> out3a/bn (in-place)
I0712 00:08:32.773192 13823 net.cpp:148] Setting up out3a/relu
I0712 00:08:32.773195 13823 net.cpp:155] Top shape: 1 64 128 256 (2097152)
I0712 00:08:32.773196 13823 net.cpp:163] Memory required for data: 1017118720
I0712 00:08:32.773198 13823 layer_factory.hpp:77] Creating layer out3_out5_combined
I0712 00:08:32.773205 13823 net.cpp:98] Creating Layer out3_out5_combined
I0712 00:08:32.773206 13823 net.cpp:439] out3_out5_combined <- out5a_up2
I0712 00:08:32.773208 13823 net.cpp:439] out3_out5_combined <- out3a/bn
I0712 00:08:32.773211 13823 net.cpp:413] out3_out5_combined -> out3_out5_combined
I0712 00:08:32.773236 13823 net.cpp:148] Setting up out3_out5_combined
I0712 00:08:32.773239 13823 net.cpp:155] Top shape: 1 64 128 256 (2097152)
I0712 00:08:32.773241 13823 net.cpp:163] Memory required for data: 1025507328
I0712 00:08:32.773242 13823 layer_factory.hpp:77] Creating layer ctx_conv1
I0712 00:08:32.773247 13823 net.cpp:98] Creating Layer ctx_conv1
I0712 00:08:32.773248 13823 net.cpp:439] ctx_conv1 <- out3_out5_combined
I0712 00:08:32.773250 13823 net.cpp:413] ctx_conv1 -> ctx_conv1
I0712 00:08:32.774272 13823 net.cpp:148] Setting up ctx_conv1
I0712 00:08:32.774277 13823 net.cpp:155] Top shape: 1 64 128 256 (2097152)
I0712 00:08:32.774279 13823 net.cpp:163] Memory required for data: 1033895936
I0712 00:08:32.774282 13823 layer_factory.hpp:77] Creating layer ctx_conv1/bn
I0712 00:08:32.774286 13823 net.cpp:98] Creating Layer ctx_conv1/bn
I0712 00:08:32.774287 13823 net.cpp:439] ctx_conv1/bn <- ctx_conv1
I0712 00:08:32.774289 13823 net.cpp:413] ctx_conv1/bn -> ctx_conv1/bn
I0712 00:08:32.775010 13823 net.cpp:148] Setting up ctx_conv1/bn
I0712 00:08:32.775017 13823 net.cpp:155] Top shape: 1 64 128 256 (2097152)
I0712 00:08:32.775019 13823 net.cpp:163] Memory required for data: 1042284544
I0712 00:08:32.775024 13823 layer_factory.hpp:77] Creating layer ctx_conv1/relu
I0712 00:08:32.775027 13823 net.cpp:98] Creating Layer ctx_conv1/relu
I0712 00:08:32.775029 13823 net.cpp:439] ctx_conv1/relu <- ctx_conv1/bn
I0712 00:08:32.775032 13823 net.cpp:400] ctx_conv1/relu -> ctx_conv1/bn (in-place)
I0712 00:08:32.775034 13823 net.cpp:148] Setting up ctx_conv1/relu
I0712 00:08:32.775038 13823 net.cpp:155] Top shape: 1 64 128 256 (2097152)
I0712 00:08:32.775038 13823 net.cpp:163] Memory required for data: 1050673152
I0712 00:08:32.775040 13823 layer_factory.hpp:77] Creating layer ctx_conv2
I0712 00:08:32.775044 13823 net.cpp:98] Creating Layer ctx_conv2
I0712 00:08:32.775045 13823 net.cpp:439] ctx_conv2 <- ctx_conv1/bn
I0712 00:08:32.775048 13823 net.cpp:413] ctx_conv2 -> ctx_conv2
I0712 00:08:32.776073 13823 net.cpp:148] Setting up ctx_conv2
I0712 00:08:32.776078 13823 net.cpp:155] Top shape: 1 64 128 256 (2097152)
I0712 00:08:32.776079 13823 net.cpp:163] Memory required for data: 1059061760
I0712 00:08:32.776082 13823 layer_factory.hpp:77] Creating layer ctx_conv2/bn
I0712 00:08:32.776085 13823 net.cpp:98] Creating Layer ctx_conv2/bn
I0712 00:08:32.776087 13823 net.cpp:439] ctx_conv2/bn <- ctx_conv2
I0712 00:08:32.776089 13823 net.cpp:413] ctx_conv2/bn -> ctx_conv2/bn
I0712 00:08:32.776804 13823 net.cpp:148] Setting up ctx_conv2/bn
I0712 00:08:32.776809 13823 net.cpp:155] Top shape: 1 64 128 256 (2097152)
I0712 00:08:32.776811 13823 net.cpp:163] Memory required for data: 1067450368
I0712 00:08:32.776819 13823 layer_factory.hpp:77] Creating layer ctx_conv2/relu
I0712 00:08:32.776823 13823 net.cpp:98] Creating Layer ctx_conv2/relu
I0712 00:08:32.776824 13823 net.cpp:439] ctx_conv2/relu <- ctx_conv2/bn
I0712 00:08:32.776826 13823 net.cpp:400] ctx_conv2/relu -> ctx_conv2/bn (in-place)
I0712 00:08:32.776829 13823 net.cpp:148] Setting up ctx_conv2/relu
I0712 00:08:32.776831 13823 net.cpp:155] Top shape: 1 64 128 256 (2097152)
I0712 00:08:32.776834 13823 net.cpp:163] Memory required for data: 1075838976
I0712 00:08:32.776834 13823 layer_factory.hpp:77] Creating layer ctx_conv3
I0712 00:08:32.776839 13823 net.cpp:98] Creating Layer ctx_conv3
I0712 00:08:32.776840 13823 net.cpp:439] ctx_conv3 <- ctx_conv2/bn
I0712 00:08:32.776844 13823 net.cpp:413] ctx_conv3 -> ctx_conv3
I0712 00:08:32.778775 13823 net.cpp:148] Setting up ctx_conv3
I0712 00:08:32.778784 13823 net.cpp:155] Top shape: 1 64 128 256 (2097152)
I0712 00:08:32.778786 13823 net.cpp:163] Memory required for data: 1084227584
I0712 00:08:32.778789 13823 layer_factory.hpp:77] Creating layer ctx_conv3/bn
I0712 00:08:32.778794 13823 net.cpp:98] Creating Layer ctx_conv3/bn
I0712 00:08:32.778795 13823 net.cpp:439] ctx_conv3/bn <- ctx_conv3
I0712 00:08:32.778798 13823 net.cpp:413] ctx_conv3/bn -> ctx_conv3/bn
I0712 00:08:32.779531 13823 net.cpp:148] Setting up ctx_conv3/bn
I0712 00:08:32.779536 13823 net.cpp:155] Top shape: 1 64 128 256 (2097152)
I0712 00:08:32.779538 13823 net.cpp:163] Memory required for data: 1092616192
I0712 00:08:32.779542 13823 layer_factory.hpp:77] Creating layer ctx_conv3/relu
I0712 00:08:32.779546 13823 net.cpp:98] Creating Layer ctx_conv3/relu
I0712 00:08:32.779547 13823 net.cpp:439] ctx_conv3/relu <- ctx_conv3/bn
I0712 00:08:32.779549 13823 net.cpp:400] ctx_conv3/relu -> ctx_conv3/bn (in-place)
I0712 00:08:32.779552 13823 net.cpp:148] Setting up ctx_conv3/relu
I0712 00:08:32.779554 13823 net.cpp:155] Top shape: 1 64 128 256 (2097152)
I0712 00:08:32.779556 13823 net.cpp:163] Memory required for data: 1101004800
I0712 00:08:32.779557 13823 layer_factory.hpp:77] Creating layer ctx_conv4
I0712 00:08:32.779561 13823 net.cpp:98] Creating Layer ctx_conv4
I0712 00:08:32.779563 13823 net.cpp:439] ctx_conv4 <- ctx_conv3/bn
I0712 00:08:32.779567 13823 net.cpp:413] ctx_conv4 -> ctx_conv4
I0712 00:08:32.780586 13823 net.cpp:148] Setting up ctx_conv4
I0712 00:08:32.780593 13823 net.cpp:155] Top shape: 1 64 128 256 (2097152)
I0712 00:08:32.780596 13823 net.cpp:163] Memory required for data: 1109393408
I0712 00:08:32.780601 13823 layer_factory.hpp:77] Creating layer ctx_conv4/bn
I0712 00:08:32.780606 13823 net.cpp:98] Creating Layer ctx_conv4/bn
I0712 00:08:32.780609 13823 net.cpp:439] ctx_conv4/bn <- ctx_conv4
I0712 00:08:32.780625 13823 net.cpp:413] ctx_conv4/bn -> ctx_conv4/bn
I0712 00:08:32.781388 13823 net.cpp:148] Setting up ctx_conv4/bn
I0712 00:08:32.781396 13823 net.cpp:155] Top shape: 1 64 128 256 (2097152)
I0712 00:08:32.781399 13823 net.cpp:163] Memory required for data: 1117782016
I0712 00:08:32.781406 13823 layer_factory.hpp:77] Creating layer ctx_conv4/relu
I0712 00:08:32.781411 13823 net.cpp:98] Creating Layer ctx_conv4/relu
I0712 00:08:32.781415 13823 net.cpp:439] ctx_conv4/relu <- ctx_conv4/bn
I0712 00:08:32.781424 13823 net.cpp:400] ctx_conv4/relu -> ctx_conv4/bn (in-place)
I0712 00:08:32.781431 13823 net.cpp:148] Setting up ctx_conv4/relu
I0712 00:08:32.781436 13823 net.cpp:155] Top shape: 1 64 128 256 (2097152)
I0712 00:08:32.781440 13823 net.cpp:163] Memory required for data: 1126170624
I0712 00:08:32.781443 13823 layer_factory.hpp:77] Creating layer ctx_final
I0712 00:08:32.781451 13823 net.cpp:98] Creating Layer ctx_final
I0712 00:08:32.781455 13823 net.cpp:439] ctx_final <- ctx_conv4/bn
I0712 00:08:32.781458 13823 net.cpp:413] ctx_final -> ctx_final
I0712 00:08:32.782106 13823 net.cpp:148] Setting up ctx_final
I0712 00:08:32.782115 13823 net.cpp:155] Top shape: 1 8 128 256 (262144)
I0712 00:08:32.782119 13823 net.cpp:163] Memory required for data: 1127219200
I0712 00:08:32.782124 13823 layer_factory.hpp:77] Creating layer ctx_final/relu
I0712 00:08:32.782129 13823 net.cpp:98] Creating Layer ctx_final/relu
I0712 00:08:32.782132 13823 net.cpp:439] ctx_final/relu <- ctx_final
I0712 00:08:32.782136 13823 net.cpp:400] ctx_final/relu -> ctx_final (in-place)
I0712 00:08:32.782143 13823 net.cpp:148] Setting up ctx_final/relu
I0712 00:08:32.782148 13823 net.cpp:155] Top shape: 1 8 128 256 (262144)
I0712 00:08:32.782150 13823 net.cpp:163] Memory required for data: 1128267776
I0712 00:08:32.782153 13823 layer_factory.hpp:77] Creating layer out_deconv_final_up2
I0712 00:08:32.782160 13823 net.cpp:98] Creating Layer out_deconv_final_up2
I0712 00:08:32.782163 13823 net.cpp:439] out_deconv_final_up2 <- ctx_final
I0712 00:08:32.782167 13823 net.cpp:413] out_deconv_final_up2 -> out_deconv_final_up2
I0712 00:08:32.782413 13823 net.cpp:148] Setting up out_deconv_final_up2
I0712 00:08:32.782420 13823 net.cpp:155] Top shape: 1 8 256 512 (1048576)
I0712 00:08:32.782423 13823 net.cpp:163] Memory required for data: 1132462080
I0712 00:08:32.782428 13823 layer_factory.hpp:77] Creating layer out_deconv_final_up4
I0712 00:08:32.782433 13823 net.cpp:98] Creating Layer out_deconv_final_up4
I0712 00:08:32.782438 13823 net.cpp:439] out_deconv_final_up4 <- out_deconv_final_up2
I0712 00:08:32.782443 13823 net.cpp:413] out_deconv_final_up4 -> out_deconv_final_up4
I0712 00:08:32.782682 13823 net.cpp:148] Setting up out_deconv_final_up4
I0712 00:08:32.782688 13823 net.cpp:155] Top shape: 1 8 512 1024 (4194304)
I0712 00:08:32.782691 13823 net.cpp:163] Memory required for data: 1149239296
I0712 00:08:32.782696 13823 layer_factory.hpp:77] Creating layer out_deconv_final_up8
I0712 00:08:32.782701 13823 net.cpp:98] Creating Layer out_deconv_final_up8
I0712 00:08:32.782706 13823 net.cpp:439] out_deconv_final_up8 <- out_deconv_final_up4
I0712 00:08:32.782711 13823 net.cpp:413] out_deconv_final_up8 -> out_deconv_final_up8
I0712 00:08:32.782948 13823 net.cpp:148] Setting up out_deconv_final_up8
I0712 00:08:32.782953 13823 net.cpp:155] Top shape: 1 8 1024 2048 (16777216)
I0712 00:08:32.782956 13823 net.cpp:163] Memory required for data: 1216348160
I0712 00:08:32.782961 13823 layer_factory.hpp:77] Creating layer prob
I0712 00:08:32.782966 13823 net.cpp:98] Creating Layer prob
I0712 00:08:32.782970 13823 net.cpp:439] prob <- out_deconv_final_up8
I0712 00:08:32.782975 13823 net.cpp:413] prob -> prob
I0712 00:08:32.783051 13823 net.cpp:148] Setting up prob
I0712 00:08:32.783056 13823 net.cpp:155] Top shape: 1 8 1024 2048 (16777216)
I0712 00:08:32.783058 13823 net.cpp:163] Memory required for data: 1283457024
I0712 00:08:32.783062 13823 net.cpp:226] prob does not need backward computation.
I0712 00:08:32.783066 13823 net.cpp:226] out_deconv_final_up8 does not need backward computation.
I0712 00:08:32.783071 13823 net.cpp:226] out_deconv_final_up4 does not need backward computation.
I0712 00:08:32.783073 13823 net.cpp:226] out_deconv_final_up2 does not need backward computation.
…
