…
W0702 23:02:43.376744 13779 parallel.cpp:400] Batch size must be divisible by the number of solvers (GPUs)
I0702 23:02:43.377065 13779 net.cpp:56] Initializing net from parameters: 
name: "jsegnet21v2_train"
state {
  phase: TRAIN
}
layer {
  name: "data"
  type: "ImageLabelData"
  top: "data"
  top: "label"
  transform_param {
    mirror: true
    crop_size: 640
    mean_value: 0
  }
  image_label_data_param {
    image_list_path: "data/train-image-lmdb"
    label_list_path: "data/train-label-lmdb"
    batch_size: 8
    threads: 4
    backend: LMDB
  }
}
layer {
  name: "data/bias"
  type: "Bias"
  bottom: "data"
  top: "data/bias"
  param {
    lr_mult: 0
    decay_mult: 0
  }
  bias_param {
    filler {
      type: "constant"
      value: -128
    }
  }
}
layer {
  name: "conv1a"
  type: "Convolution"
  bottom: "data/bias"
  top: "conv1a"
  param {
    lr_mult: 1
    decay_mult: 1
  }
  param {
    lr_mult: 2
    decay_mult: 0
  }
  convolution_param {
    num_output: 32
    bias_term: true
    pad: 2
    kernel_size: 5
    group: 1
    stride: 2
    weight_filler {
      type: "msra"
    }
    bias_filler {
      type: "constant"
      value: 0
    }
    dilation: 1
  }
}
layer {
  name: "conv1a/bn"
  type: "BatchNorm"
  bottom: "conv1a"
  top: "conv1a/bn"
  param {
    lr_mult: 1
    decay_mult: 1
  }
  param {
    lr_mult: 1
    decay_mult: 1
  }
  param {
    lr_mult: 0
    decay_mult: 0
  }
  param {
    lr_mult: 0
    decay_mult: 0
  }
  batch_norm_param {
    moving_average_fraction: 0.99
    eps: 0.0001
    scale_filler {
      type: "constant"
      value: 1
    }
    bias_filler {
      type: "constant"
      value: 0
    }
  }
}
layer {
  name: "conv1a/relu"
  type: "ReLU"
  bottom: "conv1a/bn"
  top: "conv1a/bn"
}
layer {
  name: "conv1b"
  type: "Convolution"
  bottom: "conv1a/bn"
  top: "conv1b"
  param {
    lr_mult: 1
    decay_mult: 1
  }
  param {
    lr_mult: 2
    decay_mult: 0
  }
  convolution_param {
    num_output: 32
    bias_term: true
    pad: 1
    kernel_size: 3
    group: 4
    stride: 1
    weight_filler {
      type: "msra"
    }
    bias_filler {
      type: "constant"
      value: 0
    }
    dilation: 1
  }
}
layer {
  name: "conv1b/bn"
  type: "BatchNorm"
  bottom: "conv1b"
  top: "conv1b/bn"
  param {
    lr_mult: 1
    decay_mult: 1
  }
  param {
    lr_mult: 1
    decay_mult: 1
  }
  param {
    lr_mult: 0
    decay_mult: 0
  }
  param {
    lr_mult: 0
    decay_mult: 0
  }
  batch_norm_param {
    moving_average_fraction: 0.99
    eps: 0.0001
    scale_filler {
      type: "constant"
      value: 1
    }
    bias_filler {
      type: "constant"
      value: 0
    }
  }
}
layer {
  name: "conv1b/relu"
  type: "ReLU"
  bottom: "conv1b/bn"
  top: "conv1b/bn"
}
layer {
  name: "pool1"
  type: "Pooling"
  bottom: "conv1b/bn"
  top: "pool1"
  pooling_param {
    pool: MAX
    kernel_size: 2
    stride: 2
  }
}
layer {
  name: "res2a_branch2a"
  type: "Convolution"
  bottom: "pool1"
  top: "res2a_branch2a"
  param {
    lr_mult: 1
    decay_mult: 1
  }
  param {
    lr_mult: 2
    decay_mult: 0
  }
  convolution_param {
    num_output: 64
    bias_term: true
    pad: 1
    kernel_size: 3
    group: 1
    stride: 1
    weight_filler {
      type: "msra"
    }
    bias_filler {
      type: "constant"
      value: 0
    }
    dilation: 1
  }
}
layer {
  name: "res2a_branch2a/bn"
  type: "BatchNorm"
  bottom: "res2a_branch2a"
  top: "res2a_branch2a/bn"
  param {
    lr_mult: 1
    decay_mult: 1
  }
  param {
    lr_mult: 1
    decay_mult: 1
  }
  param {
    lr_mult: 0
    decay_mult: 0
  }
  param {
    lr_mult: 0
    decay_mult: 0
  }
  batch_norm_param {
    moving_average_fraction: 0.99
    eps: 0.0001
    scale_filler {
      type: "constant"
      value: 1
    }
    bias_filler {
      type: "constant"
      value: 0
    }
  }
}
layer {
  name: "res2a_branch2a/relu"
  type: "ReLU"
  bottom: "res2a_branch2a/bn"
  top: "res2a_branch2a/bn"
}
layer {
  name: "res2a_branch2b"
  type: "Convolution"
  bottom: "res2a_branch2a/bn"
  top: "res2a_branch2b"
  param {
    lr_mult: 1
    decay_mult: 1
  }
  param {
    lr_mult: 2
    decay_mult: 0
  }
  convolution_param {
    num_output: 64
    bias_term: true
    pad: 1
    kernel_size: 3
    group: 4
    stride: 1
    weight_filler {
      type: "msra"
    }
    bias_filler {
      type: "constant"
      value: 0
    }
    dilation: 1
  }
}
layer {
  name: "res2a_branch2b/bn"
  type: "BatchNorm"
  bottom: "res2a_branch2b"
  top: "res2a_branch2b/bn"
  param {
    lr_mult: 1
    decay_mult: 1
  }
  param {
    lr_mult: 1
    decay_mult: 1
  }
  param {
    lr_mult: 0
    decay_mult: 0
  }
  param {
    lr_mult: 0
    decay_mult: 0
  }
  batch_norm_param {
    moving_average_fraction: 0.99
    eps: 0.0001
    scale_filler {
      type: "constant"
      value: 1
    }
    bias_filler {
      type: "constant"
      value: 0
    }
  }
}
layer {
  name: "res2a_branch2b/relu"
  type: "ReLU"
  bottom: "res2a_branch2b/bn"
  top: "res2a_branch2b/bn"
}
layer {
  name: "pool2"
  type: "Pooling"
  bottom: "res2a_branch2b/bn"
  top: "pool2"
  pooling_param {
    pool: MAX
    kernel_size: 2
    stride: 2
  }
}
layer {
  name: "res3a_branch2a"
  type: "Convolution"
  bottom: "pool2"
  top: "res3a_branch2a"
  param {
    lr_mult: 1
    decay_mult: 1
  }
  param {
    lr_mult: 2
    decay_mult: 0
  }
  convolution_param {
    num_output: 128
    bias_term: true
    pad: 1
    kernel_size: 3
    group: 1
    stride: 1
    weight_filler {
      type: "msra"
    }
    bias_filler {
      type: "constant"
      value: 0
    }
    dilation: 1
  }
}
layer {
  name: "res3a_branch2a/bn"
  type: "BatchNorm"
  bottom: "res3a_branch2a"
  top: "res3a_branch2a/bn"
  param {
    lr_mult: 1
    decay_mult: 1
  }
  param {
    lr_mult: 1
    decay_mult: 1
  }
  param {
    lr_mult: 0
    decay_mult: 0
  }
  param {
    lr_mult: 0
    decay_mult: 0
  }
  batch_norm_param {
    moving_average_fraction: 0.99
    eps: 0.0001
    scale_filler {
      type: "constant"
      value: 1
    }
    bias_filler {
      type: "constant"
      value: 0
    }
  }
}
layer {
  name: "res3a_branch2a/relu"
  type: "ReLU"
  bottom: "res3a_branch2a/bn"
  top: "res3a_branch2a/bn"
}
layer {
  name: "res3a_branch2b"
  type: "Convolution"
  bottom: "res3a_branch2a/bn"
  top: "res3a_branch2b"
  param {
    lr_mult: 1
    decay_mult: 1
  }
  param {
    lr_mult: 2
    decay_mult: 0
  }
  convolution_param {
    num_output: 128
    bias_term: true
    pad: 1
    kernel_size: 3
    group: 4
    stride: 1
    weight_filler {
      type: "msra"
    }
    bias_filler {
      type: "constant"
      value: 0
    }
    dilation: 1
  }
}
layer {
  name: "res3a_branch2b/bn"
  type: "BatchNorm"
  bottom: "res3a_branch2b"
  top: "res3a_branch2b/bn"
  param {
    lr_mult: 1
    decay_mult: 1
  }
  param {
    lr_mult: 1
    decay_mult: 1
  }
  param {
    lr_mult: 0
    decay_mult: 0
  }
  param {
    lr_mult: 0
    decay_mult: 0
  }
  batch_norm_param {
    moving_average_fraction: 0.99
    eps: 0.0001
    scale_filler {
      type: "constant"
      value: 1
    }
    bias_filler {
      type: "constant"
      value: 0
    }
  }
}
layer {
  name: "res3a_branch2b/relu"
  type: "ReLU"
  bottom: "res3a_branch2b/bn"
  top: "res3a_branch2b/bn"
}
layer {
  name: "pool3"
  type: "Pooling"
  bottom: "res3a_branch2b/bn"
  top: "pool3"
  pooling_param {
    pool: MAX
    kernel_size: 2
    stride: 2
  }
}
layer {
  name: "res4a_branch2a"
  type: "Convolution"
  bottom: "pool3"
  top: "res4a_branch2a"
  param {
    lr_mult: 1
    decay_mult: 1
  }
  param {
    lr_mult: 2
    decay_mult: 0
  }
  convolution_param {
    num_output: 256
    bias_term: true
    pad: 1
    kernel_size: 3
    group: 1
    stride: 1
    weight_filler {
      type: "msra"
    }
    bias_filler {
      type: "constant"
      value: 0
    }
    dilation: 1
  }
}
layer {
  name: "res4a_branch2a/bn"
  type: "BatchNorm"
  bottom: "res4a_branch2a"
  top: "res4a_branch2a/bn"
  param {
    lr_mult: 1
    decay_mult: 1
  }
  param {
    lr_mult: 1
    decay_mult: 1
  }
  param {
    lr_mult: 0
    decay_mult: 0
  }
  param {
    lr_mult: 0
    decay_mult: 0
  }
  batch_norm_param {
    moving_average_fraction: 0.99
    eps: 0.0001
    scale_filler {
      type: "constant"
      value: 1
    }
    bias_filler {
      type: "constant"
      value: 0
    }
  }
}
layer {
  name: "res4a_branch2a/relu"
  type: "ReLU"
  bottom: "res4a_branch2a/bn"
  top: "res4a_branch2a/bn"
}
layer {
  name: "res4a_branch2b"
  type: "Convolution"
  bottom: "res4a_branch2a/bn"
  top: "res4a_branch2b"
  param {
    lr_mult: 1
    decay_mult: 1
  }
  param {
    lr_mult: 2
    decay_mult: 0
  }
  convolution_param {
    num_output: 256
    bias_term: true
    pad: 1
    kernel_size: 3
    group: 4
    stride: 1
    weight_filler {
      type: "msra"
    }
    bias_filler {
      type: "constant"
      value: 0
    }
    dilation: 1
  }
}
layer {
  name: "res4a_branch2b/bn"
  type: "BatchNorm"
  bottom: "res4a_branch2b"
  top: "res4a_branch2b/bn"
  param {
    lr_mult: 1
    decay_mult: 1
  }
  param {
    lr_mult: 1
    decay_mult: 1
  }
  param {
    lr_mult: 0
    decay_mult: 0
  }
  param {
    lr_mult: 0
    decay_mult: 0
  }
  batch_norm_param {
    moving_average_fraction: 0.99
    eps: 0.0001
    scale_filler {
      type: "constant"
      value: 1
    }
    bias_filler {
      type: "constant"
      value: 0
    }
  }
}
layer {
  name: "res4a_branch2b/relu"
  type: "ReLU"
  bottom: "res4a_branch2b/bn"
  top: "res4a_branch2b/bn"
}
layer {
  name: "pool4"
  type: "Pooling"
  bottom: "res4a_branch2b/bn"
  top: "pool4"
  pooling_param {
    pool: MAX
    kernel_size: 1
    stride: 1
  }
}
layer {
  name: "res5a_branch2a"
  type: "Convolution"
  bottom: "pool4"
  top: "res5a_branch2a"
  param {
    lr_mult: 1
    decay_mult: 1
  }
  param {
    lr_mult: 2
    decay_mult: 0
  }
  convolution_param {
    num_output: 512
    bias_term: true
    pad: 2
    kernel_size: 3
    group: 1
    stride: 1
    weight_filler {
      type: "msra"
    }
    bias_filler {
      type: "constant"
      value: 0
    }
    dilation: 2
  }
}
layer {
  name: "res5a_branch2a/bn"
  type: "BatchNorm"
  bottom: "res5a_branch2a"
  top: "res5a_branch2a/bn"
  param {
    lr_mult: 1
    decay_mult: 1
  }
  param {
    lr_mult: 1
    decay_mult: 1
  }
  param {
    lr_mult: 0
    decay_mult: 0
  }
  param {
    lr_mult: 0
    decay_mult: 0
  }
  batch_norm_param {
    moving_average_fraction: 0.99
    eps: 0.0001
    scale_filler {
      type: "constant"
      value: 1
    }
    bias_filler {
      type: "constant"
      value: 0
    }
  }
}
layer {
  name: "res5a_branch2a/relu"
  type: "ReLU"
  bottom: "res5a_branch2a/bn"
  top: "res5a_branch2a/bn"
}
layer {
  name: "res5a_branch2b"
  type: "Convolution"
  bottom: "res5a_branch2a/bn"
  top: "res5a_branch2b"
  param {
    lr_mult: 1
    decay_mult: 1
  }
  param {
    lr_mult: 2
    decay_mult: 0
  }
  convolution_param {
    num_output: 512
    bias_term: true
    pad: 2
    kernel_size: 3
    group: 4
    stride: 1
    weight_filler {
      type: "msra"
    }
    bias_filler {
      type: "constant"
      value: 0
    }
    dilation: 2
  }
}
layer {
  name: "res5a_branch2b/bn"
  type: "BatchNorm"
  bottom: "res5a_branch2b"
  top: "res5a_branch2b/bn"
  param {
    lr_mult: 1
    decay_mult: 1
  }
  param {
    lr_mult: 1
    decay_mult: 1
  }
  param {
    lr_mult: 0
    decay_mult: 0
  }
  param {
    lr_mult: 0
    decay_mult: 0
  }
  batch_norm_param {
    moving_average_fraction: 0.99
    eps: 0.0001
    scale_filler {
      type: "constant"
      value: 1
    }
    bias_filler {
      type: "constant"
      value: 0
    }
  }
}
layer {
  name: "res5a_branch2b/relu"
  type: "ReLU"
  bottom: "res5a_branch2b/bn"
  top: "res5a_branch2b/bn"
}
layer {
  name: "out5a"
  type: "Convolution"
  bottom: "res5a_branch2b/bn"
  top: "out5a"
  param {
    lr_mult: 1
    decay_mult: 1
  }
  param {
    lr_mult: 2
    decay_mult: 0
  }
  convolution_param {
    num_output: 64
    bias_term: true
    pad: 4
    kernel_size: 3
    group: 2
    stride: 1
    weight_filler {
      type: "msra"
    }
    bias_filler {
      type: "constant"
      value: 0
    }
    dilation: 4
  }
}
layer {
  name: "out5a/bn"
  type: "BatchNorm"
  bottom: "out5a"
  top: "out5a/bn"
  param {
    lr_mult: 1
    decay_mult: 1
  }
  param {
    lr_mult: 1
    decay_mult: 1
  }
  param {
    lr_mult: 0
    decay_mult: 0
  }
  param {
    lr_mult: 0
    decay_mult: 0
  }
  batch_norm_param {
    moving_average_fraction: 0.99
    eps: 0.0001
    scale_filler {
      type: "constant"
      value: 1
    }
    bias_filler {
      type: "constant"
      value: 0
    }
  }
}
layer {
  name: "out5a/relu"
  type: "ReLU"
  bottom: "out5a/bn"
  top: "out5a/bn"
}
layer {
  name: "out5a_up2"
  type: "Deconvolution"
  bottom: "out5a/bn"
  top: "out5a_up2"
  param {
    lr_mult: 0
    decay_mult: 0
  }
  convolution_param {
    num_output: 64
    bias_term: false
    pad: 1
    kernel_size: 4
    group: 64
    stride: 2
    weight_filler {
      type: "bilinear"
    }
  }
}
layer {
  name: "out3a"
  type: "Convolution"
  bottom: "res3a_branch2b/bn"
  top: "out3a"
  param {
    lr_mult: 1
    decay_mult: 1
  }
  param {
    lr_mult: 2
    decay_mult: 0
  }
  convolution_param {
    num_output: 64
    bias_term: true
    pad: 1
    kernel_size: 3
    group: 2
    stride: 1
    weight_filler {
      type: "msra"
    }
    bias_filler {
      type: "constant"
      value: 0
    }
    dilation: 1
  }
}
layer {
  name: "out3a/bn"
  type: "BatchNorm"
  bottom: "out3a"
  top: "out3a/bn"
  param {
    lr_mult: 1
    decay_mult: 1
  }
  param {
    lr_mult: 1
    decay_mult: 1
  }
  param {
    lr_mult: 0
    decay_mult: 0
  }
  param {
    lr_mult: 0
    decay_mult: 0
  }
  batch_norm_param {
    moving_average_fraction: 0.99
    eps: 0.0001
    scale_filler {
      type: "constant"
      value: 1
    }
    bias_filler {
      type: "constant"
      value: 0
    }
  }
}
layer {
  name: "out3a/relu"
  type: "ReLU"
  bottom: "out3a/bn"
  top: "out3a/bn"
}
layer {
  name: "out3_out5_combined"
  type: "Eltwise"
  bottom: "out5a_up2"
  bottom: "out3a/bn"
  top: "out3_out5_combined"
}
layer {
  name: "ctx_conv1"
  type: "Convolution"
  bottom: "out3_out5_combined"
  top: "ctx_conv1"
  param {
    lr_mult: 1
    decay_mult: 1
  }
  param {
    lr_mult: 2
    decay_mult: 0
  }
  convolution_param {
    num_output: 64
    bias_term: true
    pad: 1
    kernel_size: 3
    group: 1
    stride: 1
    weight_filler {
      type: "msra"
    }
    bias_filler {
      type: "constant"
      value: 0
    }
    dilation: 1
  }
}
layer {
  name: "ctx_conv1/bn"
  type: "BatchNorm"
  bottom: "ctx_conv1"
  top: "ctx_conv1/bn"
  param {
    lr_mult: 1
    decay_mult: 1
  }
  param {
    lr_mult: 1
    decay_mult: 1
  }
  param {
    lr_mult: 0
    decay_mult: 0
  }
  param {
    lr_mult: 0
    decay_mult: 0
  }
  batch_norm_param {
    moving_average_fraction: 0.99
    eps: 0.0001
    scale_filler {
      type: "constant"
      value: 1
    }
    bias_filler {
      type: "constant"
      value: 0
    }
  }
}
layer {
  name: "ctx_conv1/relu"
  type: "ReLU"
  bottom: "ctx_conv1/bn"
  top: "ctx_conv1/bn"
}
layer {
  name: "ctx_conv2"
  type: "Convolution"
  bottom: "ctx_conv1/bn"
  top: "ctx_conv2"
  param {
    lr_mult: 1
    decay_mult: 1
  }
  param {
    lr_mult: 2
    decay_mult: 0
  }
  convolution_param {
    num_output: 64
    bias_term: true
    pad: 4
    kernel_size: 3
    group: 1
    stride: 1
    weight_filler {
      type: "msra"
    }
    bias_filler {
      type: "constant"
      value: 0
    }
    dilation: 4
  }
}
layer {
  name: "ctx_conv2/bn"
  type: "BatchNorm"
  bottom: "ctx_conv2"
  top: "ctx_conv2/bn"
  param {
    lr_mult: 1
    decay_mult: 1
  }
  param {
    lr_mult: 1
    decay_mult: 1
  }
  param {
    lr_mult: 0
    decay_mult: 0
  }
  param {
    lr_mult: 0
    decay_mult: 0
  }
  batch_norm_param {
    moving_average_fraction: 0.99
    eps: 0.0001
    scale_filler {
      type: "constant"
      value: 1
    }
    bias_filler {
      type: "constant"
      value: 0
    }
  }
}
layer {
  name: "ctx_conv2/relu"
  type: "ReLU"
  bottom: "ctx_conv2/bn"
  top: "ctx_conv2/bn"
}
layer {
  name: "ctx_conv3"
  type: "Convolution"
  bottom: "ctx_conv2/bn"
  top: "ctx_conv3"
  param {
    lr_mult: 1
    decay_mult: 1
  }
  param {
    lr_mult: 2
    decay_mult: 0
  }
  convolution_param {
    num_output: 64
    bias_term: true
    pad: 4
    kernel_size: 3
    group: 1
    stride: 1
    weight_filler {
      type: "msra"
    }
    bias_filler {
      type: "constant"
      value: 0
    }
    dilation: 4
  }
}
layer {
  name: "ctx_conv3/bn"
  type: "BatchNorm"
  bottom: "ctx_conv3"
  top: "ctx_conv3/bn"
  param {
    lr_mult: 1
    decay_mult: 1
  }
  param {
    lr_mult: 1
    decay_mult: 1
  }
  param {
    lr_mult: 0
    decay_mult: 0
  }
  param {
    lr_mult: 0
    decay_mult: 0
  }
  batch_norm_param {
    moving_average_fraction: 0.99
    eps: 0.0001
    scale_filler {
      type: "constant"
      value: 1
    }
    bias_filler {
      type: "constant"
      value: 0
    }
  }
}
layer {
  name: "ctx_conv3/relu"
  type: "ReLU"
  bottom: "ctx_conv3/bn"
  top: "ctx_conv3/bn"
}
layer {
  name: "ctx_conv4"
  type: "Convolution"
  bottom: "ctx_conv3/bn"
  top: "ctx_conv4"
  param {
    lr_mult: 1
    decay_mult: 1
  }
  param {
    lr_mult: 2
    decay_mult: 0
  }
  convolution_param {
    num_output: 64
    bias_term: true
    pad: 4
    kernel_size: 3
    group: 1
    stride: 1
    weight_filler {
      type: "msra"
    }
    bias_filler {
      type: "constant"
      value: 0
    }
    dilation: 4
  }
}
layer {
  name: "ctx_conv4/bn"
  type: "BatchNorm"
  bottom: "ctx_conv4"
  top: "ctx_conv4/bn"
  param {
    lr_mult: 1
    decay_mult: 1
  }
  param {
    lr_mult: 1
    decay_mult: 1
  }
  param {
    lr_mult: 0
    decay_mult: 0
  }
  param {
    lr_mult: 0
    decay_mult: 0
  }
  batch_norm_param {
    moving_average_fraction: 0.99
    eps: 0.0001
    scale_filler {
      type: "constant"
      value: 1
    }
    bias_filler {
      type: "constant"
      value: 0
    }
  }
}
layer {
  name: "ctx_conv4/relu"
  type: "ReLU"
  bottom: "ctx_conv4/bn"
  top: "ctx_conv4/bn"
}
layer {
  name: "ctx_final"
  type: "Convolution"
  bottom: "ctx_conv4/bn"
  top: "ctx_final"
  param {
    lr_mult: 1
    decay_mult: 1
  }
  param {
    lr_mult: 2
    decay_mult: 0
  }
  convolution_param {
    num_output: 8
    bias_term: true
    pad: 1
    kernel_size: 3
    kernel_size: 3
    group: 1
    stride: 1
    weight_filler {
      type: "msra"
    }
    bias_filler {
      type: "constant"
      value: 0
    }
    dilation: 1
  }
}
layer {
  name: "ctx_final/relu"
  type: "ReLU"
  bottom: "ctx_final"
  top: "ctx_final"
}
layer {
  name: "out_deconv_final_up2"
  type: "Deconvolution"
  bottom: "ctx_final"
  top: "out_deconv_final_up2"
  param {
    lr_mult: 0
    decay_mult: 0
  }
  convolution_param {
    num_output: 8
    bias_term: false
    pad: 1
    kernel_size: 4
    group: 8
    stride: 2
    weight_filler {
      type: "bilinear"
    }
  }
}
layer {
  name: "out_deconv_final_up4"
  type: "Deconvolution"
  bottom: "out_deconv_final_up2"
  top: "out_deconv_final_up4"
  param {
    lr_mult: 0
    decay_mult: 0
  }
  convolution_param {
    num_output: 8
    bias_term: false
    pad: 1
    kernel_size: 4
    group: 8
    stride: 2
    weight_filler {
      type: "bilinear"
    }
  }
}
layer {
  name: "out_deconv_final_up8"
  type: "Deconvolution"
  bottom: "out_deconv_final_up4"
  top: "out_deconv_final_up8"
  param {
    lr_mult: 0
    decay_mult: 0
  }
  convolution_param {
    num_output: 8
    bias_term: false
    pad: 1
    kernel_size: 4
    group: 8
    stride: 2
    weight_filler {
      type: "bilinear"
    }
  }
}
layer {
  name: "loss"
  type: "SoftmaxWithLoss"
  bottom: "out_deconv_final_up8"
  bottom: "label"
  top: "loss"
  propagate_down: true
  propagate_down: false
  loss_param {
    ignore_label: 255
    normalization: VALID
  }
}
I0702 23:02:43.377203 13779 layer_factory.hpp:77] Creating layer data
I0702 23:02:43.377215 13779 net.cpp:98] Creating Layer data
I0702 23:02:43.377220 13779 net.cpp:413] data -> data
I0702 23:02:43.377238 13779 net.cpp:413] data -> label
I0702 23:02:43.378918 13794 db_lmdb.cpp:35] Opened lmdb data/train-image-lmdb
I0702 23:02:43.378918 13799 db_lmdb.cpp:35] Opened lmdb data/train-label-lmdb
I0702 23:02:43.382324 13779 data_layer.cpp:78] ReshapePrefetch 8, 3, 640, 640
I0702 23:02:43.382370 13779 data_layer.cpp:83] output data size: 8,3,640,640
I0702 23:02:43.422585 13779 data_layer.cpp:78] ReshapePrefetch 8, 1, 640, 640
I0702 23:02:43.422629 13779 data_layer.cpp:83] output data size: 8,1,640,640
I0702 23:02:43.431246 13815 blocking_queue.cpp:50] Waiting for data
I0702 23:02:43.440179 13779 net.cpp:148] Setting up data
I0702 23:02:43.440198 13779 net.cpp:155] Top shape: 8 3 640 640 (9830400)
I0702 23:02:43.440201 13779 net.cpp:155] Top shape: 8 1 640 640 (3276800)
I0702 23:02:43.440203 13779 net.cpp:163] Memory required for data: 52428800
I0702 23:02:43.440212 13779 layer_factory.hpp:77] Creating layer data/bias
I0702 23:02:43.440219 13779 net.cpp:98] Creating Layer data/bias
I0702 23:02:43.440223 13779 net.cpp:439] data/bias <- data
I0702 23:02:43.440230 13779 net.cpp:413] data/bias -> data/bias
I0702 23:02:43.441210 13779 net.cpp:148] Setting up data/bias
I0702 23:02:43.441218 13779 net.cpp:155] Top shape: 8 3 640 640 (9830400)
I0702 23:02:43.441220 13779 net.cpp:163] Memory required for data: 91750400
I0702 23:02:43.441229 13779 layer_factory.hpp:77] Creating layer conv1a
I0702 23:02:43.441239 13779 net.cpp:98] Creating Layer conv1a
I0702 23:02:43.441242 13779 net.cpp:439] conv1a <- data/bias
I0702 23:02:43.441246 13779 net.cpp:413] conv1a -> conv1a
I0702 23:02:43.443279 13779 net.cpp:148] Setting up conv1a
I0702 23:02:43.443294 13779 net.cpp:155] Top shape: 8 32 320 320 (26214400)
I0702 23:02:43.443296 13779 net.cpp:163] Memory required for data: 196608000
I0702 23:02:43.443302 13779 layer_factory.hpp:77] Creating layer conv1a/bn
I0702 23:02:43.443308 13779 net.cpp:98] Creating Layer conv1a/bn
I0702 23:02:43.443310 13779 net.cpp:439] conv1a/bn <- conv1a
I0702 23:02:43.443315 13779 net.cpp:413] conv1a/bn -> conv1a/bn
I0702 23:02:43.444597 13779 net.cpp:148] Setting up conv1a/bn
I0702 23:02:43.444607 13779 net.cpp:155] Top shape: 8 32 320 320 (26214400)
I0702 23:02:43.444609 13779 net.cpp:163] Memory required for data: 301465600
I0702 23:02:43.444615 13779 layer_factory.hpp:77] Creating layer conv1a/relu
I0702 23:02:43.444620 13779 net.cpp:98] Creating Layer conv1a/relu
I0702 23:02:43.444622 13779 net.cpp:439] conv1a/relu <- conv1a/bn
I0702 23:02:43.444625 13779 net.cpp:400] conv1a/relu -> conv1a/bn (in-place)
I0702 23:02:43.444638 13779 net.cpp:148] Setting up conv1a/relu
I0702 23:02:43.444640 13779 net.cpp:155] Top shape: 8 32 320 320 (26214400)
I0702 23:02:43.444643 13779 net.cpp:163] Memory required for data: 406323200
I0702 23:02:43.444645 13779 layer_factory.hpp:77] Creating layer conv1b
I0702 23:02:43.444651 13779 net.cpp:98] Creating Layer conv1b
I0702 23:02:43.444653 13779 net.cpp:439] conv1b <- conv1a/bn
I0702 23:02:43.444656 13779 net.cpp:413] conv1b -> conv1b
I0702 23:02:43.444949 13779 net.cpp:148] Setting up conv1b
I0702 23:02:43.444955 13779 net.cpp:155] Top shape: 8 32 320 320 (26214400)
I0702 23:02:43.444957 13779 net.cpp:163] Memory required for data: 511180800
I0702 23:02:43.444962 13779 layer_factory.hpp:77] Creating layer conv1b/bn
I0702 23:02:43.444965 13779 net.cpp:98] Creating Layer conv1b/bn
I0702 23:02:43.444967 13779 net.cpp:439] conv1b/bn <- conv1b
I0702 23:02:43.444970 13779 net.cpp:413] conv1b/bn -> conv1b/bn
I0702 23:02:43.445454 13779 net.cpp:148] Setting up conv1b/bn
I0702 23:02:43.445461 13779 net.cpp:155] Top shape: 8 32 320 320 (26214400)
I0702 23:02:43.445462 13779 net.cpp:163] Memory required for data: 616038400
I0702 23:02:43.445467 13779 layer_factory.hpp:77] Creating layer conv1b/relu
I0702 23:02:43.445469 13779 net.cpp:98] Creating Layer conv1b/relu
I0702 23:02:43.445472 13779 net.cpp:439] conv1b/relu <- conv1b/bn
I0702 23:02:43.445474 13779 net.cpp:400] conv1b/relu -> conv1b/bn (in-place)
I0702 23:02:43.445477 13779 net.cpp:148] Setting up conv1b/relu
I0702 23:02:43.445479 13779 net.cpp:155] Top shape: 8 32 320 320 (26214400)
I0702 23:02:43.445482 13779 net.cpp:163] Memory required for data: 720896000
I0702 23:02:43.445483 13779 layer_factory.hpp:77] Creating layer pool1
I0702 23:02:43.445488 13779 net.cpp:98] Creating Layer pool1
I0702 23:02:43.445490 13779 net.cpp:439] pool1 <- conv1b/bn
I0702 23:02:43.445493 13779 net.cpp:413] pool1 -> pool1
I0702 23:02:43.445523 13779 net.cpp:148] Setting up pool1
I0702 23:02:43.445528 13779 net.cpp:155] Top shape: 8 32 160 160 (6553600)
I0702 23:02:43.445529 13779 net.cpp:163] Memory required for data: 747110400
I0702 23:02:43.445531 13779 layer_factory.hpp:77] Creating layer res2a_branch2a
I0702 23:02:43.445535 13779 net.cpp:98] Creating Layer res2a_branch2a
I0702 23:02:43.445538 13779 net.cpp:439] res2a_branch2a <- pool1
I0702 23:02:43.445540 13779 net.cpp:413] res2a_branch2a -> res2a_branch2a
I0702 23:02:43.446800 13779 net.cpp:148] Setting up res2a_branch2a
I0702 23:02:43.446810 13779 net.cpp:155] Top shape: 8 64 160 160 (13107200)
I0702 23:02:43.446811 13779 net.cpp:163] Memory required for data: 799539200
I0702 23:02:43.446816 13779 layer_factory.hpp:77] Creating layer res2a_branch2a/bn
I0702 23:02:43.446820 13779 net.cpp:98] Creating Layer res2a_branch2a/bn
I0702 23:02:43.446822 13779 net.cpp:439] res2a_branch2a/bn <- res2a_branch2a
I0702 23:02:43.446825 13779 net.cpp:413] res2a_branch2a/bn -> res2a_branch2a/bn
I0702 23:02:43.447300 13779 net.cpp:148] Setting up res2a_branch2a/bn
I0702 23:02:43.447305 13779 net.cpp:155] Top shape: 8 64 160 160 (13107200)
I0702 23:02:43.447307 13779 net.cpp:163] Memory required for data: 851968000
I0702 23:02:43.447312 13779 layer_factory.hpp:77] Creating layer res2a_branch2a/relu
I0702 23:02:43.447314 13779 net.cpp:98] Creating Layer res2a_branch2a/relu
I0702 23:02:43.447316 13779 net.cpp:439] res2a_branch2a/relu <- res2a_branch2a/bn
I0702 23:02:43.447319 13779 net.cpp:400] res2a_branch2a/relu -> res2a_branch2a/bn (in-place)
I0702 23:02:43.447322 13779 net.cpp:148] Setting up res2a_branch2a/relu
I0702 23:02:43.447324 13779 net.cpp:155] Top shape: 8 64 160 160 (13107200)
I0702 23:02:43.447326 13779 net.cpp:163] Memory required for data: 904396800
I0702 23:02:43.447329 13779 layer_factory.hpp:77] Creating layer res2a_branch2b
I0702 23:02:43.447335 13779 net.cpp:98] Creating Layer res2a_branch2b
I0702 23:02:43.447336 13779 net.cpp:439] res2a_branch2b <- res2a_branch2a/bn
I0702 23:02:43.447340 13779 net.cpp:413] res2a_branch2b -> res2a_branch2b
I0702 23:02:43.448400 13779 net.cpp:148] Setting up res2a_branch2b
I0702 23:02:43.448407 13779 net.cpp:155] Top shape: 8 64 160 160 (13107200)
I0702 23:02:43.448410 13779 net.cpp:163] Memory required for data: 956825600
I0702 23:02:43.448413 13779 layer_factory.hpp:77] Creating layer res2a_branch2b/bn
I0702 23:02:43.448417 13779 net.cpp:98] Creating Layer res2a_branch2b/bn
I0702 23:02:43.448420 13779 net.cpp:439] res2a_branch2b/bn <- res2a_branch2b
I0702 23:02:43.448422 13779 net.cpp:413] res2a_branch2b/bn -> res2a_branch2b/bn
I0702 23:02:43.448909 13779 net.cpp:148] Setting up res2a_branch2b/bn
I0702 23:02:43.448915 13779 net.cpp:155] Top shape: 8 64 160 160 (13107200)
I0702 23:02:43.448917 13779 net.cpp:163] Memory required for data: 1009254400
I0702 23:02:43.448922 13779 layer_factory.hpp:77] Creating layer res2a_branch2b/relu
I0702 23:02:43.448925 13779 net.cpp:98] Creating Layer res2a_branch2b/relu
I0702 23:02:43.448927 13779 net.cpp:439] res2a_branch2b/relu <- res2a_branch2b/bn
I0702 23:02:43.448930 13779 net.cpp:400] res2a_branch2b/relu -> res2a_branch2b/bn (in-place)
I0702 23:02:43.448933 13779 net.cpp:148] Setting up res2a_branch2b/relu
I0702 23:02:43.448935 13779 net.cpp:155] Top shape: 8 64 160 160 (13107200)
I0702 23:02:43.448937 13779 net.cpp:163] Memory required for data: 1061683200
I0702 23:02:43.448940 13779 layer_factory.hpp:77] Creating layer pool2
I0702 23:02:43.448942 13779 net.cpp:98] Creating Layer pool2
I0702 23:02:43.448945 13779 net.cpp:439] pool2 <- res2a_branch2b/bn
I0702 23:02:43.448946 13779 net.cpp:413] pool2 -> pool2
I0702 23:02:43.448971 13779 net.cpp:148] Setting up pool2
I0702 23:02:43.448976 13779 net.cpp:155] Top shape: 8 64 80 80 (3276800)
I0702 23:02:43.448977 13779 net.cpp:163] Memory required for data: 1074790400
I0702 23:02:43.448979 13779 layer_factory.hpp:77] Creating layer res3a_branch2a
I0702 23:02:43.448983 13779 net.cpp:98] Creating Layer res3a_branch2a
I0702 23:02:43.448985 13779 net.cpp:439] res3a_branch2a <- pool2
I0702 23:02:43.448988 13779 net.cpp:413] res3a_branch2a -> res3a_branch2a
I0702 23:02:43.450639 13779 net.cpp:148] Setting up res3a_branch2a
I0702 23:02:43.450645 13779 net.cpp:155] Top shape: 8 128 80 80 (6553600)
I0702 23:02:43.450647 13779 net.cpp:163] Memory required for data: 1101004800
I0702 23:02:43.450650 13779 layer_factory.hpp:77] Creating layer res3a_branch2a/bn
I0702 23:02:43.450654 13779 net.cpp:98] Creating Layer res3a_branch2a/bn
I0702 23:02:43.450655 13779 net.cpp:439] res3a_branch2a/bn <- res3a_branch2a
I0702 23:02:43.450659 13779 net.cpp:413] res3a_branch2a/bn -> res3a_branch2a/bn
I0702 23:02:43.451082 13779 net.cpp:148] Setting up res3a_branch2a/bn
I0702 23:02:43.451087 13779 net.cpp:155] Top shape: 8 128 80 80 (6553600)
I0702 23:02:43.451089 13779 net.cpp:163] Memory required for data: 1127219200
I0702 23:02:43.451097 13779 layer_factory.hpp:77] Creating layer res3a_branch2a/relu
I0702 23:02:43.451098 13779 net.cpp:98] Creating Layer res3a_branch2a/relu
I0702 23:02:43.451100 13779 net.cpp:439] res3a_branch2a/relu <- res3a_branch2a/bn
I0702 23:02:43.451103 13779 net.cpp:400] res3a_branch2a/relu -> res3a_branch2a/bn (in-place)
I0702 23:02:43.451107 13779 net.cpp:148] Setting up res3a_branch2a/relu
I0702 23:02:43.451110 13779 net.cpp:155] Top shape: 8 128 80 80 (6553600)
I0702 23:02:43.451112 13779 net.cpp:163] Memory required for data: 1153433600
I0702 23:02:43.451113 13779 layer_factory.hpp:77] Creating layer res3a_branch2b
I0702 23:02:43.451118 13779 net.cpp:98] Creating Layer res3a_branch2b
I0702 23:02:43.451120 13779 net.cpp:439] res3a_branch2b <- res3a_branch2a/bn
I0702 23:02:43.451124 13779 net.cpp:413] res3a_branch2b -> res3a_branch2b
I0702 23:02:43.452039 13779 net.cpp:148] Setting up res3a_branch2b
I0702 23:02:43.452044 13779 net.cpp:155] Top shape: 8 128 80 80 (6553600)
I0702 23:02:43.452046 13779 net.cpp:163] Memory required for data: 1179648000
I0702 23:02:43.452049 13779 layer_factory.hpp:77] Creating layer res3a_branch2b/bn
I0702 23:02:43.452052 13779 net.cpp:98] Creating Layer res3a_branch2b/bn
I0702 23:02:43.452054 13779 net.cpp:439] res3a_branch2b/bn <- res3a_branch2b
I0702 23:02:43.452056 13779 net.cpp:413] res3a_branch2b/bn -> res3a_branch2b/bn
I0702 23:02:43.452476 13779 net.cpp:148] Setting up res3a_branch2b/bn
I0702 23:02:43.452482 13779 net.cpp:155] Top shape: 8 128 80 80 (6553600)
I0702 23:02:43.452484 13779 net.cpp:163] Memory required for data: 1205862400
I0702 23:02:43.452488 13779 layer_factory.hpp:77] Creating layer res3a_branch2b/relu
I0702 23:02:43.452491 13779 net.cpp:98] Creating Layer res3a_branch2b/relu
I0702 23:02:43.452498 13779 net.cpp:439] res3a_branch2b/relu <- res3a_branch2b/bn
I0702 23:02:43.452502 13779 net.cpp:400] res3a_branch2b/relu -> res3a_branch2b/bn (in-place)
I0702 23:02:43.452505 13779 net.cpp:148] Setting up res3a_branch2b/relu
I0702 23:02:43.452507 13779 net.cpp:155] Top shape: 8 128 80 80 (6553600)
I0702 23:02:43.452509 13779 net.cpp:163] Memory required for data: 1232076800
I0702 23:02:43.452510 13779 layer_factory.hpp:77] Creating layer res3a_branch2b/bn_res3a_branch2b/relu_0_split
I0702 23:02:43.452513 13779 net.cpp:98] Creating Layer res3a_branch2b/bn_res3a_branch2b/relu_0_split
I0702 23:02:43.452515 13779 net.cpp:439] res3a_branch2b/bn_res3a_branch2b/relu_0_split <- res3a_branch2b/bn
I0702 23:02:43.452517 13779 net.cpp:413] res3a_branch2b/bn_res3a_branch2b/relu_0_split -> res3a_branch2b/bn_res3a_branch2b/relu_0_split_0
I0702 23:02:43.452520 13779 net.cpp:413] res3a_branch2b/bn_res3a_branch2b/relu_0_split -> res3a_branch2b/bn_res3a_branch2b/relu_0_split_1
I0702 23:02:43.452545 13779 net.cpp:148] Setting up res3a_branch2b/bn_res3a_branch2b/relu_0_split
I0702 23:02:43.452548 13779 net.cpp:155] Top shape: 8 128 80 80 (6553600)
I0702 23:02:43.452551 13779 net.cpp:155] Top shape: 8 128 80 80 (6553600)
I0702 23:02:43.452553 13779 net.cpp:163] Memory required for data: 1284505600
I0702 23:02:43.452554 13779 layer_factory.hpp:77] Creating layer pool3
I0702 23:02:43.452558 13779 net.cpp:98] Creating Layer pool3
I0702 23:02:43.452559 13779 net.cpp:439] pool3 <- res3a_branch2b/bn_res3a_branch2b/relu_0_split_0
I0702 23:02:43.452561 13779 net.cpp:413] pool3 -> pool3
I0702 23:02:43.452585 13779 net.cpp:148] Setting up pool3
I0702 23:02:43.452589 13779 net.cpp:155] Top shape: 8 128 40 40 (1638400)
I0702 23:02:43.452590 13779 net.cpp:163] Memory required for data: 1291059200
I0702 23:02:43.452592 13779 layer_factory.hpp:77] Creating layer res4a_branch2a
I0702 23:02:43.452597 13779 net.cpp:98] Creating Layer res4a_branch2a
I0702 23:02:43.452600 13779 net.cpp:439] res4a_branch2a <- pool3
I0702 23:02:43.452602 13779 net.cpp:413] res4a_branch2a -> res4a_branch2a
I0702 23:02:43.459278 13779 net.cpp:148] Setting up res4a_branch2a
I0702 23:02:43.459286 13779 net.cpp:155] Top shape: 8 256 40 40 (3276800)
I0702 23:02:43.459288 13779 net.cpp:163] Memory required for data: 1304166400
I0702 23:02:43.459292 13779 layer_factory.hpp:77] Creating layer res4a_branch2a/bn
I0702 23:02:43.459296 13779 net.cpp:98] Creating Layer res4a_branch2a/bn
I0702 23:02:43.459298 13779 net.cpp:439] res4a_branch2a/bn <- res4a_branch2a
I0702 23:02:43.459302 13779 net.cpp:413] res4a_branch2a/bn -> res4a_branch2a/bn
I0702 23:02:43.459734 13779 net.cpp:148] Setting up res4a_branch2a/bn
I0702 23:02:43.459739 13779 net.cpp:155] Top shape: 8 256 40 40 (3276800)
I0702 23:02:43.459741 13779 net.cpp:163] Memory required for data: 1317273600
I0702 23:02:43.459746 13779 layer_factory.hpp:77] Creating layer res4a_branch2a/relu
I0702 23:02:43.459749 13779 net.cpp:98] Creating Layer res4a_branch2a/relu
I0702 23:02:43.459751 13779 net.cpp:439] res4a_branch2a/relu <- res4a_branch2a/bn
I0702 23:02:43.459753 13779 net.cpp:400] res4a_branch2a/relu -> res4a_branch2a/bn (in-place)
I0702 23:02:43.459758 13779 net.cpp:148] Setting up res4a_branch2a/relu
I0702 23:02:43.459759 13779 net.cpp:155] Top shape: 8 256 40 40 (3276800)
I0702 23:02:43.459761 13779 net.cpp:163] Memory required for data: 1330380800
I0702 23:02:43.459763 13779 layer_factory.hpp:77] Creating layer res4a_branch2b
I0702 23:02:43.459766 13779 net.cpp:98] Creating Layer res4a_branch2b
I0702 23:02:43.459769 13779 net.cpp:439] res4a_branch2b <- res4a_branch2a/bn
I0702 23:02:43.459771 13779 net.cpp:413] res4a_branch2b -> res4a_branch2b
I0702 23:02:43.462853 13779 net.cpp:148] Setting up res4a_branch2b
I0702 23:02:43.462859 13779 net.cpp:155] Top shape: 8 256 40 40 (3276800)
I0702 23:02:43.462862 13779 net.cpp:163] Memory required for data: 1343488000
I0702 23:02:43.462864 13779 layer_factory.hpp:77] Creating layer res4a_branch2b/bn
I0702 23:02:43.462868 13779 net.cpp:98] Creating Layer res4a_branch2b/bn
I0702 23:02:43.462877 13779 net.cpp:439] res4a_branch2b/bn <- res4a_branch2b
I0702 23:02:43.462879 13779 net.cpp:413] res4a_branch2b/bn -> res4a_branch2b/bn
I0702 23:02:43.463330 13779 net.cpp:148] Setting up res4a_branch2b/bn
I0702 23:02:43.463336 13779 net.cpp:155] Top shape: 8 256 40 40 (3276800)
I0702 23:02:43.463338 13779 net.cpp:163] Memory required for data: 1356595200
I0702 23:02:43.463343 13779 layer_factory.hpp:77] Creating layer res4a_branch2b/relu
I0702 23:02:43.463346 13779 net.cpp:98] Creating Layer res4a_branch2b/relu
I0702 23:02:43.463348 13779 net.cpp:439] res4a_branch2b/relu <- res4a_branch2b/bn
I0702 23:02:43.463351 13779 net.cpp:400] res4a_branch2b/relu -> res4a_branch2b/bn (in-place)
I0702 23:02:43.463354 13779 net.cpp:148] Setting up res4a_branch2b/relu
I0702 23:02:43.463356 13779 net.cpp:155] Top shape: 8 256 40 40 (3276800)
I0702 23:02:43.463358 13779 net.cpp:163] Memory required for data: 1369702400
I0702 23:02:43.463361 13779 layer_factory.hpp:77] Creating layer pool4
I0702 23:02:43.463363 13779 net.cpp:98] Creating Layer pool4
I0702 23:02:43.463366 13779 net.cpp:439] pool4 <- res4a_branch2b/bn
I0702 23:02:43.463367 13779 net.cpp:413] pool4 -> pool4
I0702 23:02:43.463392 13779 net.cpp:148] Setting up pool4
I0702 23:02:43.463397 13779 net.cpp:155] Top shape: 8 256 40 40 (3276800)
I0702 23:02:43.463398 13779 net.cpp:163] Memory required for data: 1382809600
I0702 23:02:43.463400 13779 layer_factory.hpp:77] Creating layer res5a_branch2a
I0702 23:02:43.463404 13779 net.cpp:98] Creating Layer res5a_branch2a
I0702 23:02:43.463407 13779 net.cpp:439] res5a_branch2a <- pool4
I0702 23:02:43.463408 13779 net.cpp:413] res5a_branch2a -> res5a_branch2a
I0702 23:02:43.488729 13779 net.cpp:148] Setting up res5a_branch2a
I0702 23:02:43.488747 13779 net.cpp:155] Top shape: 8 512 40 40 (6553600)
I0702 23:02:43.488749 13779 net.cpp:163] Memory required for data: 1409024000
I0702 23:02:43.488755 13779 layer_factory.hpp:77] Creating layer res5a_branch2a/bn
I0702 23:02:43.488764 13779 net.cpp:98] Creating Layer res5a_branch2a/bn
I0702 23:02:43.488766 13779 net.cpp:439] res5a_branch2a/bn <- res5a_branch2a
I0702 23:02:43.488770 13779 net.cpp:413] res5a_branch2a/bn -> res5a_branch2a/bn
I0702 23:02:43.489228 13779 net.cpp:148] Setting up res5a_branch2a/bn
I0702 23:02:43.489234 13779 net.cpp:155] Top shape: 8 512 40 40 (6553600)
I0702 23:02:43.489236 13779 net.cpp:163] Memory required for data: 1435238400
I0702 23:02:43.489241 13779 layer_factory.hpp:77] Creating layer res5a_branch2a/relu
I0702 23:02:43.489244 13779 net.cpp:98] Creating Layer res5a_branch2a/relu
I0702 23:02:43.489248 13779 net.cpp:439] res5a_branch2a/relu <- res5a_branch2a/bn
I0702 23:02:43.489249 13779 net.cpp:400] res5a_branch2a/relu -> res5a_branch2a/bn (in-place)
I0702 23:02:43.489253 13779 net.cpp:148] Setting up res5a_branch2a/relu
I0702 23:02:43.489255 13779 net.cpp:155] Top shape: 8 512 40 40 (6553600)
I0702 23:02:43.489258 13779 net.cpp:163] Memory required for data: 1461452800
I0702 23:02:43.489259 13779 layer_factory.hpp:77] Creating layer res5a_branch2b
I0702 23:02:43.489264 13779 net.cpp:98] Creating Layer res5a_branch2b
I0702 23:02:43.489266 13779 net.cpp:439] res5a_branch2b <- res5a_branch2a/bn
I0702 23:02:43.489269 13779 net.cpp:413] res5a_branch2b -> res5a_branch2b
I0702 23:02:43.501873 13779 net.cpp:148] Setting up res5a_branch2b
I0702 23:02:43.501894 13779 net.cpp:155] Top shape: 8 512 40 40 (6553600)
I0702 23:02:43.501896 13779 net.cpp:163] Memory required for data: 1487667200
I0702 23:02:43.501906 13779 layer_factory.hpp:77] Creating layer res5a_branch2b/bn
I0702 23:02:43.501914 13779 net.cpp:98] Creating Layer res5a_branch2b/bn
I0702 23:02:43.501916 13779 net.cpp:439] res5a_branch2b/bn <- res5a_branch2b
I0702 23:02:43.501920 13779 net.cpp:413] res5a_branch2b/bn -> res5a_branch2b/bn
I0702 23:02:43.502379 13779 net.cpp:148] Setting up res5a_branch2b/bn
I0702 23:02:43.502390 13779 net.cpp:155] Top shape: 8 512 40 40 (6553600)
I0702 23:02:43.502394 13779 net.cpp:163] Memory required for data: 1513881600
I0702 23:02:43.502401 13779 layer_factory.hpp:77] Creating layer res5a_branch2b/relu
I0702 23:02:43.502413 13779 net.cpp:98] Creating Layer res5a_branch2b/relu
I0702 23:02:43.502416 13779 net.cpp:439] res5a_branch2b/relu <- res5a_branch2b/bn
I0702 23:02:43.502418 13779 net.cpp:400] res5a_branch2b/relu -> res5a_branch2b/bn (in-place)
I0702 23:02:43.502424 13779 net.cpp:148] Setting up res5a_branch2b/relu
I0702 23:02:43.502427 13779 net.cpp:155] Top shape: 8 512 40 40 (6553600)
I0702 23:02:43.502429 13779 net.cpp:163] Memory required for data: 1540096000
I0702 23:02:43.502431 13779 layer_factory.hpp:77] Creating layer out5a
I0702 23:02:43.502437 13779 net.cpp:98] Creating Layer out5a
I0702 23:02:43.502439 13779 net.cpp:439] out5a <- res5a_branch2b/bn
I0702 23:02:43.502442 13779 net.cpp:413] out5a -> out5a
I0702 23:02:43.506292 13779 net.cpp:148] Setting up out5a
I0702 23:02:43.506300 13779 net.cpp:155] Top shape: 8 64 40 40 (819200)
I0702 23:02:43.506302 13779 net.cpp:163] Memory required for data: 1543372800
I0702 23:02:43.506306 13779 layer_factory.hpp:77] Creating layer out5a/bn
I0702 23:02:43.506310 13779 net.cpp:98] Creating Layer out5a/bn
I0702 23:02:43.506312 13779 net.cpp:439] out5a/bn <- out5a
I0702 23:02:43.506315 13779 net.cpp:413] out5a/bn -> out5a/bn
I0702 23:02:43.506817 13779 net.cpp:148] Setting up out5a/bn
I0702 23:02:43.506824 13779 net.cpp:155] Top shape: 8 64 40 40 (819200)
I0702 23:02:43.506825 13779 net.cpp:163] Memory required for data: 1546649600
I0702 23:02:43.506830 13779 layer_factory.hpp:77] Creating layer out5a/relu
I0702 23:02:43.506834 13779 net.cpp:98] Creating Layer out5a/relu
I0702 23:02:43.506836 13779 net.cpp:439] out5a/relu <- out5a/bn
I0702 23:02:43.506839 13779 net.cpp:400] out5a/relu -> out5a/bn (in-place)
I0702 23:02:43.506841 13779 net.cpp:148] Setting up out5a/relu
I0702 23:02:43.506844 13779 net.cpp:155] Top shape: 8 64 40 40 (819200)
I0702 23:02:43.506845 13779 net.cpp:163] Memory required for data: 1549926400
I0702 23:02:43.506847 13779 layer_factory.hpp:77] Creating layer out5a_up2
I0702 23:02:43.506855 13779 net.cpp:98] Creating Layer out5a_up2
I0702 23:02:43.506858 13779 net.cpp:439] out5a_up2 <- out5a/bn
I0702 23:02:43.506861 13779 net.cpp:413] out5a_up2 -> out5a_up2
I0702 23:02:43.507040 13779 net.cpp:148] Setting up out5a_up2
I0702 23:02:43.507045 13779 net.cpp:155] Top shape: 8 64 80 80 (3276800)
I0702 23:02:43.507046 13779 net.cpp:163] Memory required for data: 1563033600
I0702 23:02:43.507050 13779 layer_factory.hpp:77] Creating layer out3a
I0702 23:02:43.507055 13779 net.cpp:98] Creating Layer out3a
I0702 23:02:43.507058 13779 net.cpp:439] out3a <- res3a_branch2b/bn_res3a_branch2b/relu_0_split_1
I0702 23:02:43.507062 13779 net.cpp:413] out3a -> out3a
I0702 23:02:43.508002 13779 net.cpp:148] Setting up out3a
I0702 23:02:43.508008 13779 net.cpp:155] Top shape: 8 64 80 80 (3276800)
I0702 23:02:43.508009 13779 net.cpp:163] Memory required for data: 1576140800
I0702 23:02:43.508013 13779 layer_factory.hpp:77] Creating layer out3a/bn
I0702 23:02:43.508015 13779 net.cpp:98] Creating Layer out3a/bn
I0702 23:02:43.508018 13779 net.cpp:439] out3a/bn <- out3a
I0702 23:02:43.508020 13779 net.cpp:413] out3a/bn -> out3a/bn
I0702 23:02:43.508508 13779 net.cpp:148] Setting up out3a/bn
I0702 23:02:43.508513 13779 net.cpp:155] Top shape: 8 64 80 80 (3276800)
I0702 23:02:43.508515 13779 net.cpp:163] Memory required for data: 1589248000
I0702 23:02:43.508520 13779 layer_factory.hpp:77] Creating layer out3a/relu
I0702 23:02:43.508522 13779 net.cpp:98] Creating Layer out3a/relu
I0702 23:02:43.508525 13779 net.cpp:439] out3a/relu <- out3a/bn
I0702 23:02:43.508527 13779 net.cpp:400] out3a/relu -> out3a/bn (in-place)
I0702 23:02:43.508530 13779 net.cpp:148] Setting up out3a/relu
I0702 23:02:43.508533 13779 net.cpp:155] Top shape: 8 64 80 80 (3276800)
I0702 23:02:43.508534 13779 net.cpp:163] Memory required for data: 1602355200
I0702 23:02:43.508536 13779 layer_factory.hpp:77] Creating layer out3_out5_combined
I0702 23:02:43.508541 13779 net.cpp:98] Creating Layer out3_out5_combined
I0702 23:02:43.508543 13779 net.cpp:439] out3_out5_combined <- out5a_up2
I0702 23:02:43.508553 13779 net.cpp:439] out3_out5_combined <- out3a/bn
I0702 23:02:43.508556 13779 net.cpp:413] out3_out5_combined -> out3_out5_combined
I0702 23:02:43.508574 13779 net.cpp:148] Setting up out3_out5_combined
I0702 23:02:43.508579 13779 net.cpp:155] Top shape: 8 64 80 80 (3276800)
I0702 23:02:43.508580 13779 net.cpp:163] Memory required for data: 1615462400
I0702 23:02:43.508582 13779 layer_factory.hpp:77] Creating layer ctx_conv1
I0702 23:02:43.508586 13779 net.cpp:98] Creating Layer ctx_conv1
I0702 23:02:43.508589 13779 net.cpp:439] ctx_conv1 <- out3_out5_combined
I0702 23:02:43.508590 13779 net.cpp:413] ctx_conv1 -> ctx_conv1
I0702 23:02:43.509518 13779 net.cpp:148] Setting up ctx_conv1
I0702 23:02:43.509523 13779 net.cpp:155] Top shape: 8 64 80 80 (3276800)
I0702 23:02:43.509526 13779 net.cpp:163] Memory required for data: 1628569600
I0702 23:02:43.509528 13779 layer_factory.hpp:77] Creating layer ctx_conv1/bn
I0702 23:02:43.509531 13779 net.cpp:98] Creating Layer ctx_conv1/bn
I0702 23:02:43.509533 13779 net.cpp:439] ctx_conv1/bn <- ctx_conv1
I0702 23:02:43.509536 13779 net.cpp:413] ctx_conv1/bn -> ctx_conv1/bn
I0702 23:02:43.510020 13779 net.cpp:148] Setting up ctx_conv1/bn
I0702 23:02:43.510025 13779 net.cpp:155] Top shape: 8 64 80 80 (3276800)
I0702 23:02:43.510026 13779 net.cpp:163] Memory required for data: 1641676800
I0702 23:02:43.510031 13779 layer_factory.hpp:77] Creating layer ctx_conv1/relu
I0702 23:02:43.510035 13779 net.cpp:98] Creating Layer ctx_conv1/relu
I0702 23:02:43.510036 13779 net.cpp:439] ctx_conv1/relu <- ctx_conv1/bn
I0702 23:02:43.510040 13779 net.cpp:400] ctx_conv1/relu -> ctx_conv1/bn (in-place)
I0702 23:02:43.510042 13779 net.cpp:148] Setting up ctx_conv1/relu
I0702 23:02:43.510044 13779 net.cpp:155] Top shape: 8 64 80 80 (3276800)
I0702 23:02:43.510046 13779 net.cpp:163] Memory required for data: 1654784000
I0702 23:02:43.510048 13779 layer_factory.hpp:77] Creating layer ctx_conv2
I0702 23:02:43.510051 13779 net.cpp:98] Creating Layer ctx_conv2
I0702 23:02:43.510054 13779 net.cpp:439] ctx_conv2 <- ctx_conv1/bn
I0702 23:02:43.510056 13779 net.cpp:413] ctx_conv2 -> ctx_conv2
I0702 23:02:43.510993 13779 net.cpp:148] Setting up ctx_conv2
I0702 23:02:43.510998 13779 net.cpp:155] Top shape: 8 64 80 80 (3276800)
I0702 23:02:43.511000 13779 net.cpp:163] Memory required for data: 1667891200
I0702 23:02:43.511003 13779 layer_factory.hpp:77] Creating layer ctx_conv2/bn
I0702 23:02:43.511006 13779 net.cpp:98] Creating Layer ctx_conv2/bn
I0702 23:02:43.511008 13779 net.cpp:439] ctx_conv2/bn <- ctx_conv2
I0702 23:02:43.511011 13779 net.cpp:413] ctx_conv2/bn -> ctx_conv2/bn
I0702 23:02:43.511502 13779 net.cpp:148] Setting up ctx_conv2/bn
I0702 23:02:43.511507 13779 net.cpp:155] Top shape: 8 64 80 80 (3276800)
I0702 23:02:43.511509 13779 net.cpp:163] Memory required for data: 1680998400
I0702 23:02:43.511514 13779 layer_factory.hpp:77] Creating layer ctx_conv2/relu
I0702 23:02:43.511518 13779 net.cpp:98] Creating Layer ctx_conv2/relu
I0702 23:02:43.511519 13779 net.cpp:439] ctx_conv2/relu <- ctx_conv2/bn
I0702 23:02:43.511523 13779 net.cpp:400] ctx_conv2/relu -> ctx_conv2/bn (in-place)
I0702 23:02:43.511526 13779 net.cpp:148] Setting up ctx_conv2/relu
I0702 23:02:43.511528 13779 net.cpp:155] Top shape: 8 64 80 80 (3276800)
I0702 23:02:43.511530 13779 net.cpp:163] Memory required for data: 1694105600
I0702 23:02:43.511533 13779 layer_factory.hpp:77] Creating layer ctx_conv3
I0702 23:02:43.511535 13779 net.cpp:98] Creating Layer ctx_conv3
I0702 23:02:43.511538 13779 net.cpp:439] ctx_conv3 <- ctx_conv2/bn
I0702 23:02:43.511540 13779 net.cpp:413] ctx_conv3 -> ctx_conv3
I0702 23:02:43.512468 13779 net.cpp:148] Setting up ctx_conv3
I0702 23:02:43.512472 13779 net.cpp:155] Top shape: 8 64 80 80 (3276800)
I0702 23:02:43.512475 13779 net.cpp:163] Memory required for data: 1707212800
I0702 23:02:43.512478 13779 layer_factory.hpp:77] Creating layer ctx_conv3/bn
I0702 23:02:43.512481 13779 net.cpp:98] Creating Layer ctx_conv3/bn
I0702 23:02:43.512483 13779 net.cpp:439] ctx_conv3/bn <- ctx_conv3
I0702 23:02:43.512491 13779 net.cpp:413] ctx_conv3/bn -> ctx_conv3/bn
I0702 23:02:43.512979 13779 net.cpp:148] Setting up ctx_conv3/bn
I0702 23:02:43.512984 13779 net.cpp:155] Top shape: 8 64 80 80 (3276800)
I0702 23:02:43.512985 13779 net.cpp:163] Memory required for data: 1720320000
I0702 23:02:43.512990 13779 layer_factory.hpp:77] Creating layer ctx_conv3/relu
I0702 23:02:43.512992 13779 net.cpp:98] Creating Layer ctx_conv3/relu
I0702 23:02:43.512995 13779 net.cpp:439] ctx_conv3/relu <- ctx_conv3/bn
I0702 23:02:43.512997 13779 net.cpp:400] ctx_conv3/relu -> ctx_conv3/bn (in-place)
I0702 23:02:43.513000 13779 net.cpp:148] Setting up ctx_conv3/relu
I0702 23:02:43.513002 13779 net.cpp:155] Top shape: 8 64 80 80 (3276800)
I0702 23:02:43.513005 13779 net.cpp:163] Memory required for data: 1733427200
I0702 23:02:43.513005 13779 layer_factory.hpp:77] Creating layer ctx_conv4
I0702 23:02:43.513010 13779 net.cpp:98] Creating Layer ctx_conv4
I0702 23:02:43.513011 13779 net.cpp:439] ctx_conv4 <- ctx_conv3/bn
I0702 23:02:43.513013 13779 net.cpp:413] ctx_conv4 -> ctx_conv4
I0702 23:02:43.513944 13779 net.cpp:148] Setting up ctx_conv4
I0702 23:02:43.513948 13779 net.cpp:155] Top shape: 8 64 80 80 (3276800)
I0702 23:02:43.513950 13779 net.cpp:163] Memory required for data: 1746534400
I0702 23:02:43.513953 13779 layer_factory.hpp:77] Creating layer ctx_conv4/bn
I0702 23:02:43.513957 13779 net.cpp:98] Creating Layer ctx_conv4/bn
I0702 23:02:43.513959 13779 net.cpp:439] ctx_conv4/bn <- ctx_conv4
I0702 23:02:43.513962 13779 net.cpp:413] ctx_conv4/bn -> ctx_conv4/bn
I0702 23:02:43.514461 13779 net.cpp:148] Setting up ctx_conv4/bn
I0702 23:02:43.514467 13779 net.cpp:155] Top shape: 8 64 80 80 (3276800)
I0702 23:02:43.514468 13779 net.cpp:163] Memory required for data: 1759641600
I0702 23:02:43.514473 13779 layer_factory.hpp:77] Creating layer ctx_conv4/relu
I0702 23:02:43.514475 13779 net.cpp:98] Creating Layer ctx_conv4/relu
I0702 23:02:43.514477 13779 net.cpp:439] ctx_conv4/relu <- ctx_conv4/bn
I0702 23:02:43.514480 13779 net.cpp:400] ctx_conv4/relu -> ctx_conv4/bn (in-place)
I0702 23:02:43.514483 13779 net.cpp:148] Setting up ctx_conv4/relu
I0702 23:02:43.514485 13779 net.cpp:155] Top shape: 8 64 80 80 (3276800)
I0702 23:02:43.514487 13779 net.cpp:163] Memory required for data: 1772748800
I0702 23:02:43.514489 13779 layer_factory.hpp:77] Creating layer ctx_final
I0702 23:02:43.514492 13779 net.cpp:98] Creating Layer ctx_final
I0702 23:02:43.514494 13779 net.cpp:439] ctx_final <- ctx_conv4/bn
I0702 23:02:43.514497 13779 net.cpp:413] ctx_final -> ctx_final
I0702 23:02:43.514791 13779 net.cpp:148] Setting up ctx_final
I0702 23:02:43.514796 13779 net.cpp:155] Top shape: 8 8 80 80 (409600)
I0702 23:02:43.514797 13779 net.cpp:163] Memory required for data: 1774387200
I0702 23:02:43.514801 13779 layer_factory.hpp:77] Creating layer ctx_final/relu
I0702 23:02:43.514802 13779 net.cpp:98] Creating Layer ctx_final/relu
I0702 23:02:43.514804 13779 net.cpp:439] ctx_final/relu <- ctx_final
I0702 23:02:43.514806 13779 net.cpp:400] ctx_final/relu -> ctx_final (in-place)
I0702 23:02:43.514809 13779 net.cpp:148] Setting up ctx_final/relu
I0702 23:02:43.514812 13779 net.cpp:155] Top shape: 8 8 80 80 (409600)
I0702 23:02:43.514813 13779 net.cpp:163] Memory required for data: 1776025600
I0702 23:02:43.514816 13779 layer_factory.hpp:77] Creating layer out_deconv_final_up2
I0702 23:02:43.514818 13779 net.cpp:98] Creating Layer out_deconv_final_up2
I0702 23:02:43.514820 13779 net.cpp:439] out_deconv_final_up2 <- ctx_final
I0702 23:02:43.514822 13779 net.cpp:413] out_deconv_final_up2 -> out_deconv_final_up2
I0702 23:02:43.514978 13779 net.cpp:148] Setting up out_deconv_final_up2
I0702 23:02:43.514982 13779 net.cpp:155] Top shape: 8 8 160 160 (1638400)
I0702 23:02:43.514984 13779 net.cpp:163] Memory required for data: 1782579200
I0702 23:02:43.514987 13779 layer_factory.hpp:77] Creating layer out_deconv_final_up4
I0702 23:02:43.514991 13779 net.cpp:98] Creating Layer out_deconv_final_up4
I0702 23:02:43.514992 13779 net.cpp:439] out_deconv_final_up4 <- out_deconv_final_up2
I0702 23:02:43.515000 13779 net.cpp:413] out_deconv_final_up4 -> out_deconv_final_up4
I0702 23:02:43.515154 13779 net.cpp:148] Setting up out_deconv_final_up4
I0702 23:02:43.515159 13779 net.cpp:155] Top shape: 8 8 320 320 (6553600)
I0702 23:02:43.515161 13779 net.cpp:163] Memory required for data: 1808793600
I0702 23:02:43.515163 13779 layer_factory.hpp:77] Creating layer out_deconv_final_up8
I0702 23:02:43.515166 13779 net.cpp:98] Creating Layer out_deconv_final_up8
I0702 23:02:43.515168 13779 net.cpp:439] out_deconv_final_up8 <- out_deconv_final_up4
I0702 23:02:43.515171 13779 net.cpp:413] out_deconv_final_up8 -> out_deconv_final_up8
I0702 23:02:43.515324 13779 net.cpp:148] Setting up out_deconv_final_up8
I0702 23:02:43.515328 13779 net.cpp:155] Top shape: 8 8 640 640 (26214400)
I0702 23:02:43.515331 13779 net.cpp:163] Memory required for data: 1913651200
I0702 23:02:43.515332 13779 layer_factory.hpp:77] Creating layer loss
I0702 23:02:43.515338 13779 net.cpp:98] Creating Layer loss
I0702 23:02:43.515341 13779 net.cpp:439] loss <- out_deconv_final_up8
I0702 23:02:43.515342 13779 net.cpp:439] loss <- label
I0702 23:02:43.515347 13779 net.cpp:413] loss -> loss
…
I0702 23:02:43.547479 13779 solver.cpp:182] Creating test net (#0) specified by test_net file: training/cityscapes5_jsegnet21v2_2017-07-02_23-02-42/initial/test.prototxt
I0702 23:02:43.547762 13779 net.cpp:56] Initializing net from parameters: 
name: "jsegnet21v2_test"
state {
  phase: TEST
}
layer {
  name: "data"
  type: "ImageLabelData"
  top: "data"
  top: "label"
  transform_param {
    mirror: false
    crop_size: 640
    mean_value: 0
  }
  image_label_data_param {
    image_list_path: "data/val-image-lmdb"
    label_list_path: "data/val-label-lmdb"
    batch_size: 4
    threads: 4
    backend: LMDB
  }
}
layer {
  name: "data/bias"
  type: "Bias"
  bottom: "data"
  top: "data/bias"
  param {
    lr_mult: 0
    decay_mult: 0
  }
  bias_param {
    filler {
      type: "constant"
      value: -128
    }
  }
}
layer {
  name: "conv1a"
  type: "Convolution"
  bottom: "data/bias"
  top: "conv1a"
  param {
    lr_mult: 1
    decay_mult: 1
  }
  param {
    lr_mult: 2
    decay_mult: 0
  }
  convolution_param {
    num_output: 32
    bias_term: true
    pad: 2
    kernel_size: 5
    group: 1
    stride: 2
    weight_filler {
      type: "msra"
    }
    bias_filler {
      type: "constant"
      value: 0
    }
    dilation: 1
  }
}
layer {
  name: "conv1a/bn"
  type: "BatchNorm"
  bottom: "conv1a"
  top: "conv1a/bn"
  param {
    lr_mult: 1
    decay_mult: 1
  }
  param {
    lr_mult: 1
    decay_mult: 1
  }
  param {
    lr_mult: 0
    decay_mult: 0
  }
  param {
    lr_mult: 0
    decay_mult: 0
  }
  batch_norm_param {
    moving_average_fraction: 0.99
    eps: 0.0001
    scale_filler {
      type: "constant"
      value: 1
    }
    bias_filler {
      type: "constant"
      value: 0
    }
  }
}
layer {
  name: "conv1a/relu"
  type: "ReLU"
  bottom: "conv1a/bn"
  top: "conv1a/bn"
}
layer {
  name: "conv1b"
  type: "Convolution"
  bottom: "conv1a/bn"
  top: "conv1b"
  param {
    lr_mult: 1
    decay_mult: 1
  }
  param {
    lr_mult: 2
    decay_mult: 0
  }
  convolution_param {
    num_output: 32
    bias_term: true
    pad: 1
    kernel_size: 3
    group: 4
    stride: 1
    weight_filler {
      type: "msra"
    }
    bias_filler {
      type: "constant"
      value: 0
    }
    dilation: 1
  }
}
layer {
  name: "conv1b/bn"
  type: "BatchNorm"
  bottom: "conv1b"
  top: "conv1b/bn"
  param {
    lr_mult: 1
    decay_mult: 1
  }
  param {
    lr_mult: 1
    decay_mult: 1
  }
  param {
    lr_mult: 0
    decay_mult: 0
  }
  param {
    lr_mult: 0
    decay_mult: 0
  }
  batch_norm_param {
    moving_average_fraction: 0.99
    eps: 0.0001
    scale_filler {
      type: "constant"
      value: 1
    }
    bias_filler {
      type: "constant"
      value: 0
    }
  }
}
layer {
  name: "conv1b/relu"
  type: "ReLU"
  bottom: "conv1b/bn"
  top: "conv1b/bn"
}
layer {
  name: "pool1"
  type: "Pooling"
  bottom: "conv1b/bn"
  top: "pool1"
  pooling_param {
    pool: MAX
    kernel_size: 2
    stride: 2
  }
}
layer {
  name: "res2a_branch2a"
  type: "Convolution"
  bottom: "pool1"
  top: "res2a_branch2a"
  param {
    lr_mult: 1
    decay_mult: 1
  }
  param {
    lr_mult: 2
    decay_mult: 0
  }
  convolution_param {
    num_output: 64
    bias_term: true
    pad: 1
    kernel_size: 3
    group: 1
    stride: 1
    weight_filler {
      type: "msra"
    }
    bias_filler {
      type: "constant"
      value: 0
    }
    dilation: 1
  }
}
layer {
  name: "res2a_branch2a/bn"
  type: "BatchNorm"
  bottom: "res2a_branch2a"
  top: "res2a_branch2a/bn"
  param {
    lr_mult: 1
    decay_mult: 1
  }
  param {
    lr_mult: 1
    decay_mult: 1
  }
  param {
    lr_mult: 0
    decay_mult: 0
  }
  param {
    lr_mult: 0
    decay_mult: 0
  }
  batch_norm_param {
    moving_average_fraction: 0.99
    eps: 0.0001
    scale_filler {
      type: "constant"
      value: 1
    }
    bias_filler {
      type: "constant"
      value: 0
    }
  }
}
layer {
  name: "res2a_branch2a/relu"
  type: "ReLU"
  bottom: "res2a_branch2a/bn"
  top: "res2a_branch2a/bn"
}
layer {
  name: "res2a_branch2b"
  type: "Convolution"
  bottom: "res2a_branch2a/bn"
  top: "res2a_branch2b"
  param {
    lr_mult: 1
    decay_mult: 1
  }
  param {
    lr_mult: 2
    decay_mult: 0
  }
  convolution_param {
    num_output: 64
    bias_term: true
    pad: 1
    kernel_size: 3
    group: 4
    stride: 1
    weight_filler {
      type: "msra"
    }
    bias_filler {
      type: "constant"
      value: 0
    }
    dilation: 1
  }
}
layer {
  name: "res2a_branch2b/bn"
  type: "BatchNorm"
  bottom: "res2a_branch2b"
  top: "res2a_branch2b/bn"
  param {
    lr_mult: 1
    decay_mult: 1
  }
  param {
    lr_mult: 1
    decay_mult: 1
  }
  param {
    lr_mult: 0
    decay_mult: 0
  }
  param {
    lr_mult: 0
    decay_mult: 0
  }
  batch_norm_param {
    moving_average_fraction: 0.99
    eps: 0.0001
    scale_filler {
      type: "constant"
      value: 1
    }
    bias_filler {
      type: "constant"
      value: 0
    }
  }
}
layer {
  name: "res2a_branch2b/relu"
  type: "ReLU"
  bottom: "res2a_branch2b/bn"
  top: "res2a_branch2b/bn"
}
layer {
  name: "pool2"
  type: "Pooling"
  bottom: "res2a_branch2b/bn"
  top: "pool2"
  pooling_param {
    pool: MAX
    kernel_size: 2
    stride: 2
  }
}
layer {
  name: "res3a_branch2a"
  type: "Convolution"
  bottom: "pool2"
  top: "res3a_branch2a"
  param {
    lr_mult: 1
    decay_mult: 1
  }
  param {
    lr_mult: 2
    decay_mult: 0
  }
  convolution_param {
    num_output: 128
    bias_term: true
    pad: 1
    kernel_size: 3
    group: 1
    stride: 1
    weight_filler {
      type: "msra"
    }
    bias_filler {
      type: "constant"
      value: 0
    }
    dilation: 1
  }
}
layer {
  name: "res3a_branch2a/bn"
  type: "BatchNorm"
  bottom: "res3a_branch2a"
  top: "res3a_branch2a/bn"
  param {
    lr_mult: 1
    decay_mult: 1
  }
  param {
    lr_mult: 1
    decay_mult: 1
  }
  param {
    lr_mult: 0
    decay_mult: 0
  }
  param {
    lr_mult: 0
    decay_mult: 0
  }
  batch_norm_param {
    moving_average_fraction: 0.99
    eps: 0.0001
    scale_filler {
      type: "constant"
      value: 1
    }
    bias_filler {
      type: "constant"
      value: 0
    }
  }
}
layer {
  name: "res3a_branch2a/relu"
  type: "ReLU"
  bottom: "res3a_branch2a/bn"
  top: "res3a_branch2a/bn"
}
layer {
  name: "res3a_branch2b"
  type: "Convolution"
  bottom: "res3a_branch2a/bn"
  top: "res3a_branch2b"
  param {
    lr_mult: 1
    decay_mult: 1
  }
  param {
    lr_mult: 2
    decay_mult: 0
  }
  convolution_param {
    num_output: 128
    bias_term: true
    pad: 1
    kernel_size: 3
    group: 4
    stride: 1
    weight_filler {
      type: "msra"
    }
    bias_filler {
      type: "constant"
      value: 0
    }
    dilation: 1
  }
}
layer {
  name: "res3a_branch2b/bn"
  type: "BatchNorm"
  bottom: "res3a_branch2b"
  top: "res3a_branch2b/bn"
  param {
    lr_mult: 1
    decay_mult: 1
  }
  param {
    lr_mult: 1
    decay_mult: 1
  }
  param {
    lr_mult: 0
    decay_mult: 0
  }
  param {
    lr_mult: 0
    decay_mult: 0
  }
  batch_norm_param {
    moving_average_fraction: 0.99
    eps: 0.0001
    scale_filler {
      type: "constant"
      value: 1
    }
    bias_filler {
      type: "constant"
      value: 0
    }
  }
}
layer {
  name: "res3a_branch2b/relu"
  type: "ReLU"
  bottom: "res3a_branch2b/bn"
  top: "res3a_branch2b/bn"
}
layer {
  name: "pool3"
  type: "Pooling"
  bottom: "res3a_branch2b/bn"
  top: "pool3"
  pooling_param {
    pool: MAX
    kernel_size: 2
    stride: 2
  }
}
layer {
  name: "res4a_branch2a"
  type: "Convolution"
  bottom: "pool3"
  top: "res4a_branch2a"
  param {
    lr_mult: 1
    decay_mult: 1
  }
  param {
    lr_mult: 2
    decay_mult: 0
  }
  convolution_param {
    num_output: 256
    bias_term: true
    pad: 1
    kernel_size: 3
    group: 1
    stride: 1
    weight_filler {
      type: "msra"
    }
    bias_filler {
      type: "constant"
      value: 0
    }
    dilation: 1
  }
}
layer {
  name: "res4a_branch2a/bn"
  type: "BatchNorm"
  bottom: "res4a_branch2a"
  top: "res4a_branch2a/bn"
  param {
    lr_mult: 1
    decay_mult: 1
  }
  param {
    lr_mult: 1
    decay_mult: 1
  }
  param {
    lr_mult: 0
    decay_mult: 0
  }
  param {
    lr_mult: 0
    decay_mult: 0
  }
  batch_norm_param {
    moving_average_fraction: 0.99
    eps: 0.0001
    scale_filler {
      type: "constant"
      value: 1
    }
    bias_filler {
      type: "constant"
      value: 0
    }
  }
}
layer {
  name: "res4a_branch2a/relu"
  type: "ReLU"
  bottom: "res4a_branch2a/bn"
  top: "res4a_branch2a/bn"
}
layer {
  name: "res4a_branch2b"
  type: "Convolution"
  bottom: "res4a_branch2a/bn"
  top: "res4a_branch2b"
  param {
    lr_mult: 1
    decay_mult: 1
  }
  param {
    lr_mult: 2
    decay_mult: 0
  }
  convolution_param {
    num_output: 256
    bias_term: true
    pad: 1
    kernel_size: 3
    group: 4
    stride: 1
    weight_filler {
      type: "msra"
    }
    bias_filler {
      type: "constant"
      value: 0
    }
    dilation: 1
  }
}
layer {
  name: "res4a_branch2b/bn"
  type: "BatchNorm"
  bottom: "res4a_branch2b"
  top: "res4a_branch2b/bn"
  param {
    lr_mult: 1
    decay_mult: 1
  }
  param {
    lr_mult: 1
    decay_mult: 1
  }
  param {
    lr_mult: 0
    decay_mult: 0
  }
  param {
    lr_mult: 0
    decay_mult: 0
  }
  batch_norm_param {
    moving_average_fraction: 0.99
    eps: 0.0001
    scale_filler {
      type: "constant"
      value: 1
    }
    bias_filler {
      type: "constant"
      value: 0
    }
  }
}
layer {
  name: "res4a_branch2b/relu"
  type: "ReLU"
  bottom: "res4a_branch2b/bn"
  top: "res4a_branch2b/bn"
}
layer {
  name: "pool4"
  type: "Pooling"
  bottom: "res4a_branch2b/bn"
  top: "pool4"
  pooling_param {
    pool: MAX
    kernel_size: 1
    stride: 1
  }
}
layer {
  name: "res5a_branch2a"
  type: "Convolution"
  bottom: "pool4"
  top: "res5a_branch2a"
  param {
    lr_mult: 1
    decay_mult: 1
  }
  param {
    lr_mult: 2
    decay_mult: 0
  }
  convolution_param {
    num_output: 512
    bias_term: true
    pad: 2
    kernel_size: 3
    group: 1
    stride: 1
    weight_filler {
      type: "msra"
    }
    bias_filler {
      type: "constant"
      value: 0
    }
    dilation: 2
  }
}
layer {
  name: "res5a_branch2a/bn"
  type: "BatchNorm"
  bottom: "res5a_branch2a"
  top: "res5a_branch2a/bn"
  param {
    lr_mult: 1
    decay_mult: 1
  }
  param {
    lr_mult: 1
    decay_mult: 1
  }
  param {
    lr_mult: 0
    decay_mult: 0
  }
  param {
    lr_mult: 0
    decay_mult: 0
  }
  batch_norm_param {
    moving_average_fraction: 0.99
    eps: 0.0001
    scale_filler {
      type: "constant"
      value: 1
    }
    bias_filler {
      type: "constant"
      value: 0
    }
  }
}
layer {
  name: "res5a_branch2a/relu"
  type: "ReLU"
  bottom: "res5a_branch2a/bn"
  top: "res5a_branch2a/bn"
}
layer {
  name: "res5a_branch2b"
  type: "Convolution"
  bottom: "res5a_branch2a/bn"
  top: "res5a_branch2b"
  param {
    lr_mult: 1
    decay_mult: 1
  }
  param {
    lr_mult: 2
    decay_mult: 0
  }
  convolution_param {
    num_output: 512
    bias_term: true
    pad: 2
    kernel_size: 3
    group: 4
    stride: 1
    weight_filler {
      type: "msra"
    }
    bias_filler {
      type: "constant"
      value: 0
    }
    dilation: 2
  }
}
layer {
  name: "res5a_branch2b/bn"
  type: "BatchNorm"
  bottom: "res5a_branch2b"
  top: "res5a_branch2b/bn"
  param {
    lr_mult: 1
    decay_mult: 1
  }
  param {
    lr_mult: 1
    decay_mult: 1
  }
  param {
    lr_mult: 0
    decay_mult: 0
  }
  param {
    lr_mult: 0
    decay_mult: 0
  }
  batch_norm_param {
    moving_average_fraction: 0.99
    eps: 0.0001
    scale_filler {
      type: "constant"
      value: 1
    }
    bias_filler {
      type: "constant"
      value: 0
    }
  }
}
layer {
  name: "res5a_branch2b/relu"
  type: "ReLU"
  bottom: "res5a_branch2b/bn"
  top: "res5a_branch2b/bn"
}
layer {
  name: "out5a"
  type: "Convolution"
  bottom: "res5a_branch2b/bn"
  top: "out5a"
  param {
    lr_mult: 1
    decay_mult: 1
  }
  param {
    lr_mult: 2
    decay_mult: 0
  }
  convolution_param {
    num_output: 64
    bias_term: true
    pad: 4
    kernel_size: 3
    group: 2
    stride: 1
    weight_filler {
      type: "msra"
    }
    bias_filler {
      type: "constant"
      value: 0
    }
    dilation: 4
  }
}
layer {
  name: "out5a/bn"
  type: "BatchNorm"
  bottom: "out5a"
  top: "out5a/bn"
  param {
    lr_mult: 1
    decay_mult: 1
  }
  param {
    lr_mult: 1
    decay_mult: 1
  }
  param {
    lr_mult: 0
    decay_mult: 0
  }
  param {
    lr_mult: 0
    decay_mult: 0
  }
  batch_norm_param {
    moving_average_fraction: 0.99
    eps: 0.0001
    scale_filler {
      type: "constant"
      value: 1
    }
    bias_filler {
      type: "constant"
      value: 0
    }
  }
}
layer {
  name: "out5a/relu"
  type: "ReLU"
  bottom: "out5a/bn"
  top: "out5a/bn"
}
layer {
  name: "out5a_up2"
  type: "Deconvolution"
  bottom: "out5a/bn"
  top: "out5a_up2"
  param {
    lr_mult: 0
    decay_mult: 0
  }
  convolution_param {
    num_output: 64
    bias_term: false
    pad: 1
    kernel_size: 4
    group: 64
    stride: 2
    weight_filler {
      type: "bilinear"
    }
  }
}
layer {
  name: "out3a"
  type: "Convolution"
  bottom: "res3a_branch2b/bn"
  top: "out3a"
  param {
    lr_mult: 1
    decay_mult: 1
  }
  param {
    lr_mult: 2
    decay_mult: 0
  }
  convolution_param {
    num_output: 64
    bias_term: true
    pad: 1
    kernel_size: 3
    group: 2
    stride: 1
    weight_filler {
      type: "msra"
    }
    bias_filler {
      type: "constant"
      value: 0
    }
    dilation: 1
  }
}
layer {
  name: "out3a/bn"
  type: "BatchNorm"
  bottom: "out3a"
  top: "out3a/bn"
  param {
    lr_mult: 1
    decay_mult: 1
  }
  param {
    lr_mult: 1
    decay_mult: 1
  }
  param {
    lr_mult: 0
    decay_mult: 0
  }
  param {
    lr_mult: 0
    decay_mult: 0
  }
  batch_norm_param {
    moving_average_fraction: 0.99
    eps: 0.0001
    scale_filler {
      type: "constant"
      value: 1
    }
    bias_filler {
      type: "constant"
      value: 0
    }
  }
}
layer {
  name: "out3a/relu"
  type: "ReLU"
  bottom: "out3a/bn"
  top: "out3a/bn"
}
layer {
  name: "out3_out5_combined"
  type: "Eltwise"
  bottom: "out5a_up2"
  bottom: "out3a/bn"
  top: "out3_out5_combined"
}
layer {
  name: "ctx_conv1"
  type: "Convolution"
  bottom: "out3_out5_combined"
  top: "ctx_conv1"
  param {
    lr_mult: 1
    decay_mult: 1
  }
  param {
    lr_mult: 2
    decay_mult: 0
  }
  convolution_param {
    num_output: 64
    bias_term: true
    pad: 1
    kernel_size: 3
    group: 1
    stride: 1
    weight_filler {
      type: "msra"
    }
    bias_filler {
      type: "constant"
      value: 0
    }
    dilation: 1
  }
}
layer {
  name: "ctx_conv1/bn"
  type: "BatchNorm"
  bottom: "ctx_conv1"
  top: "ctx_conv1/bn"
  param {
    lr_mult: 1
    decay_mult: 1
  }
  param {
    lr_mult: 1
    decay_mult: 1
  }
  param {
    lr_mult: 0
    decay_mult: 0
  }
  param {
    lr_mult: 0
    decay_mult: 0
  }
  batch_norm_param {
    moving_average_fraction: 0.99
    eps: 0.0001
    scale_filler {
      type: "constant"
      value: 1
    }
    bias_filler {
      type: "constant"
      value: 0
    }
  }
}
layer {
  name: "ctx_conv1/relu"
  type: "ReLU"
  bottom: "ctx_conv1/bn"
  top: "ctx_conv1/bn"
}
layer {
  name: "ctx_conv2"
  type: "Convolution"
  bottom: "ctx_conv1/bn"
  top: "ctx_conv2"
  param {
    lr_mult: 1
    decay_mult: 1
  }
  param {
    lr_mult: 2
    decay_mult: 0
  }
  convolution_param {
    num_output: 64
    bias_term: true
    pad: 4
    kernel_size: 3
    group: 1
    stride: 1
    weight_filler {
      type: "msra"
    }
    bias_filler {
      type: "constant"
      value: 0
    }
    dilation: 4
  }
}
layer {
  name: "ctx_conv2/bn"
  type: "BatchNorm"
  bottom: "ctx_conv2"
  top: "ctx_conv2/bn"
  param {
    lr_mult: 1
    decay_mult: 1
  }
  param {
    lr_mult: 1
    decay_mult: 1
  }
  param {
    lr_mult: 0
    decay_mult: 0
  }
  param {
    lr_mult: 0
    decay_mult: 0
  }
  batch_norm_param {
    moving_average_fraction: 0.99
    eps: 0.0001
    scale_filler {
      type: "constant"
      value: 1
    }
    bias_filler {
      type: "constant"
      value: 0
    }
  }
}
layer {
  name: "ctx_conv2/relu"
  type: "ReLU"
  bottom: "ctx_conv2/bn"
  top: "ctx_conv2/bn"
}
layer {
  name: "ctx_conv3"
  type: "Convolution"
  bottom: "ctx_conv2/bn"
  top: "ctx_conv3"
  param {
    lr_mult: 1
    decay_mult: 1
  }
  param {
    lr_mult: 2
    decay_mult: 0
  }
  convolution_param {
    num_output: 64
    bias_term: true
    pad: 4
    kernel_size: 3
    group: 1
    stride: 1
    weight_filler {
      type: "msra"
    }
    bias_filler {
      type: "constant"
      value: 0
    }
    dilation: 4
  }
}
layer {
  name: "ctx_conv3/bn"
  type: "BatchNorm"
  bottom: "ctx_conv3"
  top: "ctx_conv3/bn"
  param {
    lr_mult: 1
    decay_mult: 1
  }
  param {
    lr_mult: 1
    decay_mult: 1
  }
  param {
    lr_mult: 0
    decay_mult: 0
  }
  param {
    lr_mult: 0
    decay_mult: 0
  }
  batch_norm_param {
    moving_average_fraction: 0.99
    eps: 0.0001
    scale_filler {
      type: "constant"
      value: 1
    }
    bias_filler {
      type: "constant"
      value: 0
    }
  }
}
layer {
  name: "ctx_conv3/relu"
  type: "ReLU"
  bottom: "ctx_conv3/bn"
  top: "ctx_conv3/bn"
}
layer {
  name: "ctx_conv4"
  type: "Convolution"
  bottom: "ctx_conv3/bn"
  top: "ctx_conv4"
  param {
    lr_mult: 1
    decay_mult: 1
  }
  param {
    lr_mult: 2
    decay_mult: 0
  }
  convolution_param {
    num_output: 64
    bias_term: true
    pad: 4
    kernel_size: 3
    group: 1
    stride: 1
    weight_filler {
      type: "msra"
    }
    bias_filler {
      type: "constant"
      value: 0
    }
    dilation: 4
  }
}
layer {
  name: "ctx_conv4/bn"
  type: "BatchNorm"
  bottom: "ctx_conv4"
  top: "ctx_conv4/bn"
  param {
    lr_mult: 1
    decay_mult: 1
  }
  param {
    lr_mult: 1
    decay_mult: 1
  }
  param {
    lr_mult: 0
    decay_mult: 0
  }
  param {
    lr_mult: 0
    decay_mult: 0
  }
  batch_norm_param {
    moving_average_fraction: 0.99
    eps: 0.0001
    scale_filler {
      type: "constant"
      value: 1
    }
    bias_filler {
      type: "constant"
      value: 0
    }
  }
}
layer {
  name: "ctx_conv4/relu"
  type: "ReLU"
  bottom: "ctx_conv4/bn"
  top: "ctx_conv4/bn"
}
layer {
  name: "ctx_final"
  type: "Convolution"
  bottom: "ctx_conv4/bn"
  top: "ctx_final"
  param {
    lr_mult: 1
    decay_mult: 1
  }
  param {
    lr_mult: 2
    decay_mult: 0
  }
  convolution_param {
    num_output: 8
    bias_term: true
    pad: 1
    kernel_size: 3
    kernel_size: 3
    group: 1
    stride: 1
    weight_filler {
      type: "msra"
    }
    bias_filler {
      type: "constant"
      value: 0
    }
    dilation: 1
  }
}
layer {
  name: "ctx_final/relu"
  type: "ReLU"
  bottom: "ctx_final"
  top: "ctx_final"
}
layer {
  name: "out_deconv_final_up2"
  type: "Deconvolution"
  bottom: "ctx_final"
  top: "out_deconv_final_up2"
  param {
    lr_mult: 0
    decay_mult: 0
  }
  convolution_param {
    num_output: 8
    bias_term: false
    pad: 1
    kernel_size: 4
    group: 8
    stride: 2
    weight_filler {
      type: "bilinear"
    }
  }
}
layer {
  name: "out_deconv_final_up4"
  type: "Deconvolution"
  bottom: "out_deconv_final_up2"
  top: "out_deconv_final_up4"
  param {
    lr_mult: 0
    decay_mult: 0
  }
  convolution_param {
    num_output: 8
    bias_term: false
    pad: 1
    kernel_size: 4
    group: 8
    stride: 2
    weight_filler {
      type: "bilinear"
    }
  }
}
layer {
  name: "out_deconv_final_up8"
  type: "Deconvolution"
  bottom: "out_deconv_final_up4"
  top: "out_deconv_final_up8"
  param {
    lr_mult: 0
    decay_mult: 0
  }
  convolution_param {
    num_output: 8
    bias_term: false
    pad: 1
    kernel_size: 4
    group: 8
    stride: 2
    weight_filler {
      type: "bilinear"
    }
  }
}
layer {
  name: "loss"
  type: "SoftmaxWithLoss"
  bottom: "out_deconv_final_up8"
  bottom: "label"
  top: "loss"
  propagate_down: true
  propagate_down: false
  loss_param {
    ignore_label: 255
    normalization: VALID
  }
}
layer {
  name: "accuracy/top1"
  type: "Accuracy"
  bottom: "out_deconv_final_up8"
  bottom: "label"
  top: "accuracy/top1"
  include {
    phase: TEST
  }
  accuracy_param {
    ignore_label: 255
  }
}
layer {
  name: "accuracy/top5"
  type: "Accuracy"
  bottom: "out_deconv_final_up8"
  bottom: "label"
  top: "accuracy/top5"
  include {
    phase: TEST
  }
  accuracy_param {
    top_k: 5
    ignore_label: 255
  }
}
I0702 23:02:43.547879 13779 layer_factory.hpp:77] Creating layer data
I0702 23:02:43.547886 13779 net.cpp:98] Creating Layer data
I0702 23:02:43.547890 13779 net.cpp:413] data -> data
I0702 23:02:43.547894 13779 net.cpp:413] data -> label
I0702 23:02:43.549422 13817 db_lmdb.cpp:35] Opened lmdb data/val-image-lmdb
I0702 23:02:43.549422 13822 db_lmdb.cpp:35] Opened lmdb data/val-label-lmdb
I0702 23:02:43.553217 13779 data_layer.cpp:78] ReshapePrefetch 4, 3, 640, 640
I0702 23:02:43.553303 13779 data_layer.cpp:83] output data size: 4,3,640,640
I0702 23:02:43.578783 13779 data_layer.cpp:78] ReshapePrefetch 4, 1, 640, 640
I0702 23:02:43.578850 13779 data_layer.cpp:83] output data size: 4,1,640,640
I0702 23:02:43.591603 13779 net.cpp:148] Setting up data
I0702 23:02:43.591652 13779 net.cpp:155] Top shape: 4 3 640 640 (4915200)
I0702 23:02:43.591658 13779 net.cpp:155] Top shape: 4 1 640 640 (1638400)
I0702 23:02:43.591661 13779 net.cpp:163] Memory required for data: 26214400
I0702 23:02:43.591670 13779 layer_factory.hpp:77] Creating layer label_data_1_split
I0702 23:02:43.591691 13779 net.cpp:98] Creating Layer label_data_1_split
I0702 23:02:43.591723 13779 net.cpp:439] label_data_1_split <- label
I0702 23:02:43.591733 13779 net.cpp:413] label_data_1_split -> label_data_1_split_0
I0702 23:02:43.591744 13779 net.cpp:413] label_data_1_split -> label_data_1_split_1
I0702 23:02:43.591750 13779 net.cpp:413] label_data_1_split -> label_data_1_split_2
I0702 23:02:43.591907 13779 net.cpp:148] Setting up label_data_1_split
I0702 23:02:43.591912 13779 net.cpp:155] Top shape: 4 1 640 640 (1638400)
I0702 23:02:43.591917 13779 net.cpp:155] Top shape: 4 1 640 640 (1638400)
I0702 23:02:43.591919 13779 net.cpp:155] Top shape: 4 1 640 640 (1638400)
I0702 23:02:43.591928 13779 net.cpp:163] Memory required for data: 45875200
I0702 23:02:43.591931 13779 layer_factory.hpp:77] Creating layer data/bias
I0702 23:02:43.591944 13779 net.cpp:98] Creating Layer data/bias
I0702 23:02:43.591948 13779 net.cpp:439] data/bias <- data
I0702 23:02:43.591953 13779 net.cpp:413] data/bias -> data/bias
I0702 23:02:43.593540 13779 net.cpp:148] Setting up data/bias
I0702 23:02:43.593571 13779 net.cpp:155] Top shape: 4 3 640 640 (4915200)
I0702 23:02:43.593575 13779 net.cpp:163] Memory required for data: 65536000
I0702 23:02:43.593590 13779 layer_factory.hpp:77] Creating layer conv1a
I0702 23:02:43.593607 13779 net.cpp:98] Creating Layer conv1a
I0702 23:02:43.593611 13779 net.cpp:439] conv1a <- data/bias
I0702 23:02:43.593617 13779 net.cpp:413] conv1a -> conv1a
I0702 23:02:43.594122 13779 net.cpp:148] Setting up conv1a
I0702 23:02:43.594131 13779 net.cpp:155] Top shape: 4 32 320 320 (13107200)
I0702 23:02:43.594135 13779 net.cpp:163] Memory required for data: 117964800
I0702 23:02:43.594142 13779 layer_factory.hpp:77] Creating layer conv1a/bn
I0702 23:02:43.594151 13779 net.cpp:98] Creating Layer conv1a/bn
I0702 23:02:43.594154 13779 net.cpp:439] conv1a/bn <- conv1a
I0702 23:02:43.594161 13779 net.cpp:413] conv1a/bn -> conv1a/bn
I0702 23:02:43.594952 13779 net.cpp:148] Setting up conv1a/bn
I0702 23:02:43.594961 13779 net.cpp:155] Top shape: 4 32 320 320 (13107200)
I0702 23:02:43.594964 13779 net.cpp:163] Memory required for data: 170393600
I0702 23:02:43.594974 13779 layer_factory.hpp:77] Creating layer conv1a/relu
I0702 23:02:43.594979 13779 net.cpp:98] Creating Layer conv1a/relu
I0702 23:02:43.594983 13779 net.cpp:439] conv1a/relu <- conv1a/bn
I0702 23:02:43.594987 13779 net.cpp:400] conv1a/relu -> conv1a/bn (in-place)
I0702 23:02:43.594995 13779 net.cpp:148] Setting up conv1a/relu
I0702 23:02:43.595000 13779 net.cpp:155] Top shape: 4 32 320 320 (13107200)
I0702 23:02:43.595002 13779 net.cpp:163] Memory required for data: 222822400
I0702 23:02:43.595006 13779 layer_factory.hpp:77] Creating layer conv1b
I0702 23:02:43.595015 13779 net.cpp:98] Creating Layer conv1b
I0702 23:02:43.595017 13779 net.cpp:439] conv1b <- conv1a/bn
I0702 23:02:43.595021 13779 net.cpp:413] conv1b -> conv1b
I0702 23:02:43.595425 13779 net.cpp:148] Setting up conv1b
I0702 23:02:43.595432 13779 net.cpp:155] Top shape: 4 32 320 320 (13107200)
I0702 23:02:43.595437 13779 net.cpp:163] Memory required for data: 275251200
I0702 23:02:43.595444 13779 layer_factory.hpp:77] Creating layer conv1b/bn
I0702 23:02:43.595449 13779 net.cpp:98] Creating Layer conv1b/bn
I0702 23:02:43.595453 13779 net.cpp:439] conv1b/bn <- conv1b
I0702 23:02:43.595458 13779 net.cpp:413] conv1b/bn -> conv1b/bn
I0702 23:02:43.596349 13779 net.cpp:148] Setting up conv1b/bn
I0702 23:02:43.596357 13779 net.cpp:155] Top shape: 4 32 320 320 (13107200)
I0702 23:02:43.596360 13779 net.cpp:163] Memory required for data: 327680000
I0702 23:02:43.596369 13779 layer_factory.hpp:77] Creating layer conv1b/relu
I0702 23:02:43.596376 13779 net.cpp:98] Creating Layer conv1b/relu
I0702 23:02:43.596380 13779 net.cpp:439] conv1b/relu <- conv1b/bn
I0702 23:02:43.596385 13779 net.cpp:400] conv1b/relu -> conv1b/bn (in-place)
I0702 23:02:43.596390 13779 net.cpp:148] Setting up conv1b/relu
I0702 23:02:43.596395 13779 net.cpp:155] Top shape: 4 32 320 320 (13107200)
I0702 23:02:43.596398 13779 net.cpp:163] Memory required for data: 380108800
I0702 23:02:43.596401 13779 layer_factory.hpp:77] Creating layer pool1
I0702 23:02:43.596421 13779 net.cpp:98] Creating Layer pool1
I0702 23:02:43.596423 13779 net.cpp:439] pool1 <- conv1b/bn
I0702 23:02:43.596428 13779 net.cpp:413] pool1 -> pool1
I0702 23:02:43.596462 13779 net.cpp:148] Setting up pool1
I0702 23:02:43.596467 13779 net.cpp:155] Top shape: 4 32 160 160 (3276800)
I0702 23:02:43.596470 13779 net.cpp:163] Memory required for data: 393216000
I0702 23:02:43.596473 13779 layer_factory.hpp:77] Creating layer res2a_branch2a
I0702 23:02:43.596482 13779 net.cpp:98] Creating Layer res2a_branch2a
I0702 23:02:43.596484 13779 net.cpp:439] res2a_branch2a <- pool1
I0702 23:02:43.596489 13779 net.cpp:413] res2a_branch2a -> res2a_branch2a
I0702 23:02:43.597143 13779 net.cpp:148] Setting up res2a_branch2a
I0702 23:02:43.597151 13779 net.cpp:155] Top shape: 4 64 160 160 (6553600)
I0702 23:02:43.597153 13779 net.cpp:163] Memory required for data: 419430400
I0702 23:02:43.597162 13779 layer_factory.hpp:77] Creating layer res2a_branch2a/bn
I0702 23:02:43.597169 13779 net.cpp:98] Creating Layer res2a_branch2a/bn
I0702 23:02:43.597172 13779 net.cpp:439] res2a_branch2a/bn <- res2a_branch2a
I0702 23:02:43.597178 13779 net.cpp:413] res2a_branch2a/bn -> res2a_branch2a/bn
I0702 23:02:43.601799 13779 net.cpp:148] Setting up res2a_branch2a/bn
I0702 23:02:43.601842 13779 net.cpp:155] Top shape: 4 64 160 160 (6553600)
I0702 23:02:43.601864 13779 net.cpp:163] Memory required for data: 445644800
I0702 23:02:43.601898 13779 layer_factory.hpp:77] Creating layer res2a_branch2a/relu
I0702 23:02:43.601917 13779 net.cpp:98] Creating Layer res2a_branch2a/relu
I0702 23:02:43.601928 13779 net.cpp:439] res2a_branch2a/relu <- res2a_branch2a/bn
I0702 23:02:43.601943 13779 net.cpp:400] res2a_branch2a/relu -> res2a_branch2a/bn (in-place)
I0702 23:02:43.601958 13779 net.cpp:148] Setting up res2a_branch2a/relu
I0702 23:02:43.601974 13779 net.cpp:155] Top shape: 4 64 160 160 (6553600)
I0702 23:02:43.601985 13779 net.cpp:163] Memory required for data: 471859200
I0702 23:02:43.601997 13779 layer_factory.hpp:77] Creating layer res2a_branch2b
I0702 23:02:43.602015 13779 net.cpp:98] Creating Layer res2a_branch2b
I0702 23:02:43.602030 13779 net.cpp:439] res2a_branch2b <- res2a_branch2a/bn
I0702 23:02:43.602043 13779 net.cpp:413] res2a_branch2b -> res2a_branch2b
I0702 23:02:43.602808 13779 net.cpp:148] Setting up res2a_branch2b
I0702 23:02:43.602821 13779 net.cpp:155] Top shape: 4 64 160 160 (6553600)
I0702 23:02:43.602825 13779 net.cpp:163] Memory required for data: 498073600
I0702 23:02:43.602833 13779 layer_factory.hpp:77] Creating layer res2a_branch2b/bn
I0702 23:02:43.602843 13779 net.cpp:98] Creating Layer res2a_branch2b/bn
I0702 23:02:43.602847 13779 net.cpp:439] res2a_branch2b/bn <- res2a_branch2b
I0702 23:02:43.602855 13779 net.cpp:413] res2a_branch2b/bn -> res2a_branch2b/bn
I0702 23:02:43.606034 13779 net.cpp:148] Setting up res2a_branch2b/bn
I0702 23:02:43.606045 13779 net.cpp:155] Top shape: 4 64 160 160 (6553600)
I0702 23:02:43.606047 13779 net.cpp:163] Memory required for data: 524288000
I0702 23:02:43.606058 13779 layer_factory.hpp:77] Creating layer res2a_branch2b/relu
I0702 23:02:43.606066 13779 net.cpp:98] Creating Layer res2a_branch2b/relu
I0702 23:02:43.606070 13779 net.cpp:439] res2a_branch2b/relu <- res2a_branch2b/bn
I0702 23:02:43.606075 13779 net.cpp:400] res2a_branch2b/relu -> res2a_branch2b/bn (in-place)
I0702 23:02:43.606082 13779 net.cpp:148] Setting up res2a_branch2b/relu
I0702 23:02:43.606086 13779 net.cpp:155] Top shape: 4 64 160 160 (6553600)
I0702 23:02:43.606091 13779 net.cpp:163] Memory required for data: 550502400
I0702 23:02:43.606094 13779 layer_factory.hpp:77] Creating layer pool2
I0702 23:02:43.606106 13779 net.cpp:98] Creating Layer pool2
I0702 23:02:43.606109 13779 net.cpp:439] pool2 <- res2a_branch2b/bn
I0702 23:02:43.606117 13779 net.cpp:413] pool2 -> pool2
I0702 23:02:43.606166 13779 net.cpp:148] Setting up pool2
I0702 23:02:43.606173 13779 net.cpp:155] Top shape: 4 64 80 80 (1638400)
I0702 23:02:43.606175 13779 net.cpp:163] Memory required for data: 557056000
I0702 23:02:43.606200 13779 layer_factory.hpp:77] Creating layer res3a_branch2a
I0702 23:02:43.606211 13779 net.cpp:98] Creating Layer res3a_branch2a
I0702 23:02:43.606215 13779 net.cpp:439] res3a_branch2a <- pool2
I0702 23:02:43.606220 13779 net.cpp:413] res3a_branch2a -> res3a_branch2a
I0702 23:02:43.608044 13779 net.cpp:148] Setting up res3a_branch2a
I0702 23:02:43.608055 13779 net.cpp:155] Top shape: 4 128 80 80 (3276800)
I0702 23:02:43.608058 13779 net.cpp:163] Memory required for data: 570163200
I0702 23:02:43.608065 13779 layer_factory.hpp:77] Creating layer res3a_branch2a/bn
I0702 23:02:43.608074 13779 net.cpp:98] Creating Layer res3a_branch2a/bn
I0702 23:02:43.608078 13779 net.cpp:439] res3a_branch2a/bn <- res3a_branch2a
I0702 23:02:43.608083 13779 net.cpp:413] res3a_branch2a/bn -> res3a_branch2a/bn
I0702 23:02:43.608610 13779 net.cpp:148] Setting up res3a_branch2a/bn
I0702 23:02:43.608618 13779 net.cpp:155] Top shape: 4 128 80 80 (3276800)
I0702 23:02:43.608621 13779 net.cpp:163] Memory required for data: 583270400
I0702 23:02:43.608633 13779 layer_factory.hpp:77] Creating layer res3a_branch2a/relu
I0702 23:02:43.608639 13779 net.cpp:98] Creating Layer res3a_branch2a/relu
I0702 23:02:43.608644 13779 net.cpp:439] res3a_branch2a/relu <- res3a_branch2a/bn
I0702 23:02:43.608647 13779 net.cpp:400] res3a_branch2a/relu -> res3a_branch2a/bn (in-place)
I0702 23:02:43.608654 13779 net.cpp:148] Setting up res3a_branch2a/relu
I0702 23:02:43.608659 13779 net.cpp:155] Top shape: 4 128 80 80 (3276800)
I0702 23:02:43.608660 13779 net.cpp:163] Memory required for data: 596377600
I0702 23:02:43.608664 13779 layer_factory.hpp:77] Creating layer res3a_branch2b
I0702 23:02:43.608675 13779 net.cpp:98] Creating Layer res3a_branch2b
I0702 23:02:43.608677 13779 net.cpp:439] res3a_branch2b <- res3a_branch2a/bn
I0702 23:02:43.608682 13779 net.cpp:413] res3a_branch2b -> res3a_branch2b
I0702 23:02:43.609699 13779 net.cpp:148] Setting up res3a_branch2b
I0702 23:02:43.609707 13779 net.cpp:155] Top shape: 4 128 80 80 (3276800)
I0702 23:02:43.609710 13779 net.cpp:163] Memory required for data: 609484800
I0702 23:02:43.609716 13779 layer_factory.hpp:77] Creating layer res3a_branch2b/bn
I0702 23:02:43.609724 13779 net.cpp:98] Creating Layer res3a_branch2b/bn
I0702 23:02:43.609728 13779 net.cpp:439] res3a_branch2b/bn <- res3a_branch2b
I0702 23:02:43.609733 13779 net.cpp:413] res3a_branch2b/bn -> res3a_branch2b/bn
I0702 23:02:43.610414 13779 net.cpp:148] Setting up res3a_branch2b/bn
I0702 23:02:43.610445 13779 net.cpp:155] Top shape: 4 128 80 80 (3276800)
I0702 23:02:43.610455 13779 net.cpp:163] Memory required for data: 622592000
I0702 23:02:43.610474 13779 layer_factory.hpp:77] Creating layer res3a_branch2b/relu
I0702 23:02:43.610487 13779 net.cpp:98] Creating Layer res3a_branch2b/relu
I0702 23:02:43.610497 13779 net.cpp:439] res3a_branch2b/relu <- res3a_branch2b/bn
I0702 23:02:43.610507 13779 net.cpp:400] res3a_branch2b/relu -> res3a_branch2b/bn (in-place)
I0702 23:02:43.610519 13779 net.cpp:148] Setting up res3a_branch2b/relu
I0702 23:02:43.610529 13779 net.cpp:155] Top shape: 4 128 80 80 (3276800)
I0702 23:02:43.610538 13779 net.cpp:163] Memory required for data: 635699200
I0702 23:02:43.610546 13779 layer_factory.hpp:77] Creating layer res3a_branch2b/bn_res3a_branch2b/relu_0_split
I0702 23:02:43.610560 13779 net.cpp:98] Creating Layer res3a_branch2b/bn_res3a_branch2b/relu_0_split
I0702 23:02:43.610570 13779 net.cpp:439] res3a_branch2b/bn_res3a_branch2b/relu_0_split <- res3a_branch2b/bn
I0702 23:02:43.610582 13779 net.cpp:413] res3a_branch2b/bn_res3a_branch2b/relu_0_split -> res3a_branch2b/bn_res3a_branch2b/relu_0_split_0
I0702 23:02:43.610594 13779 net.cpp:413] res3a_branch2b/bn_res3a_branch2b/relu_0_split -> res3a_branch2b/bn_res3a_branch2b/relu_0_split_1
I0702 23:02:43.610651 13779 net.cpp:148] Setting up res3a_branch2b/bn_res3a_branch2b/relu_0_split
I0702 23:02:43.610663 13779 net.cpp:155] Top shape: 4 128 80 80 (3276800)
I0702 23:02:43.610672 13779 net.cpp:155] Top shape: 4 128 80 80 (3276800)
I0702 23:02:43.610688 13779 net.cpp:163] Memory required for data: 661913600
I0702 23:02:43.610715 13779 layer_factory.hpp:77] Creating layer pool3
I0702 23:02:43.610729 13779 net.cpp:98] Creating Layer pool3
I0702 23:02:43.610738 13779 net.cpp:439] pool3 <- res3a_branch2b/bn_res3a_branch2b/relu_0_split_0
I0702 23:02:43.610750 13779 net.cpp:413] pool3 -> pool3
I0702 23:02:43.610810 13779 net.cpp:148] Setting up pool3
I0702 23:02:43.610822 13779 net.cpp:155] Top shape: 4 128 40 40 (819200)
I0702 23:02:43.610831 13779 net.cpp:163] Memory required for data: 665190400
I0702 23:02:43.610841 13779 layer_factory.hpp:77] Creating layer res4a_branch2a
I0702 23:02:43.611178 13779 net.cpp:98] Creating Layer res4a_branch2a
I0702 23:02:43.611196 13779 net.cpp:439] res4a_branch2a <- pool3
I0702 23:02:43.611207 13779 net.cpp:413] res4a_branch2a -> res4a_branch2a
I0702 23:02:43.621978 13779 net.cpp:148] Setting up res4a_branch2a
I0702 23:02:43.622012 13779 net.cpp:155] Top shape: 4 256 40 40 (1638400)
I0702 23:02:43.622016 13779 net.cpp:163] Memory required for data: 671744000
I0702 23:02:43.622027 13779 layer_factory.hpp:77] Creating layer res4a_branch2a/bn
I0702 23:02:43.622045 13779 net.cpp:98] Creating Layer res4a_branch2a/bn
I0702 23:02:43.622050 13779 net.cpp:439] res4a_branch2a/bn <- res4a_branch2a
I0702 23:02:43.622057 13779 net.cpp:413] res4a_branch2a/bn -> res4a_branch2a/bn
I0702 23:02:43.625102 13779 net.cpp:148] Setting up res4a_branch2a/bn
I0702 23:02:43.625145 13779 net.cpp:155] Top shape: 4 256 40 40 (1638400)
I0702 23:02:43.625149 13779 net.cpp:163] Memory required for data: 678297600
I0702 23:02:43.625164 13779 layer_factory.hpp:77] Creating layer res4a_branch2a/relu
I0702 23:02:43.625185 13779 net.cpp:98] Creating Layer res4a_branch2a/relu
I0702 23:02:43.625196 13779 net.cpp:439] res4a_branch2a/relu <- res4a_branch2a/bn
I0702 23:02:43.625203 13779 net.cpp:400] res4a_branch2a/relu -> res4a_branch2a/bn (in-place)
I0702 23:02:43.625218 13779 net.cpp:148] Setting up res4a_branch2a/relu
I0702 23:02:43.625228 13779 net.cpp:155] Top shape: 4 256 40 40 (1638400)
I0702 23:02:43.625234 13779 net.cpp:163] Memory required for data: 684851200
I0702 23:02:43.625239 13779 layer_factory.hpp:77] Creating layer res4a_branch2b
I0702 23:02:43.625262 13779 net.cpp:98] Creating Layer res4a_branch2b
I0702 23:02:43.625272 13779 net.cpp:439] res4a_branch2b <- res4a_branch2a/bn
I0702 23:02:43.625283 13779 net.cpp:413] res4a_branch2b -> res4a_branch2b
I0702 23:02:43.630349 13779 net.cpp:148] Setting up res4a_branch2b
I0702 23:02:43.630362 13779 net.cpp:155] Top shape: 4 256 40 40 (1638400)
I0702 23:02:43.630367 13779 net.cpp:163] Memory required for data: 691404800
I0702 23:02:43.630373 13779 layer_factory.hpp:77] Creating layer res4a_branch2b/bn
I0702 23:02:43.630398 13779 net.cpp:98] Creating Layer res4a_branch2b/bn
I0702 23:02:43.630403 13779 net.cpp:439] res4a_branch2b/bn <- res4a_branch2b
I0702 23:02:43.630409 13779 net.cpp:413] res4a_branch2b/bn -> res4a_branch2b/bn
I0702 23:02:43.631119 13779 net.cpp:148] Setting up res4a_branch2b/bn
I0702 23:02:43.631129 13779 net.cpp:155] Top shape: 4 256 40 40 (1638400)
I0702 23:02:43.631131 13779 net.cpp:163] Memory required for data: 697958400
I0702 23:02:43.631139 13779 layer_factory.hpp:77] Creating layer res4a_branch2b/relu
I0702 23:02:43.631145 13779 net.cpp:98] Creating Layer res4a_branch2b/relu
I0702 23:02:43.631147 13779 net.cpp:439] res4a_branch2b/relu <- res4a_branch2b/bn
I0702 23:02:43.631152 13779 net.cpp:400] res4a_branch2b/relu -> res4a_branch2b/bn (in-place)
I0702 23:02:43.631157 13779 net.cpp:148] Setting up res4a_branch2b/relu
I0702 23:02:43.631161 13779 net.cpp:155] Top shape: 4 256 40 40 (1638400)
I0702 23:02:43.631165 13779 net.cpp:163] Memory required for data: 704512000
I0702 23:02:43.631168 13779 layer_factory.hpp:77] Creating layer pool4
I0702 23:02:43.631176 13779 net.cpp:98] Creating Layer pool4
I0702 23:02:43.631180 13779 net.cpp:439] pool4 <- res4a_branch2b/bn
I0702 23:02:43.631183 13779 net.cpp:413] pool4 -> pool4
I0702 23:02:43.631224 13779 net.cpp:148] Setting up pool4
I0702 23:02:43.631229 13779 net.cpp:155] Top shape: 4 256 40 40 (1638400)
I0702 23:02:43.631247 13779 net.cpp:163] Memory required for data: 711065600
I0702 23:02:43.631252 13779 layer_factory.hpp:77] Creating layer res5a_branch2a
I0702 23:02:43.631261 13779 net.cpp:98] Creating Layer res5a_branch2a
I0702 23:02:43.631265 13779 net.cpp:439] res5a_branch2a <- pool4
I0702 23:02:43.631269 13779 net.cpp:413] res5a_branch2a -> res5a_branch2a
I0702 23:02:43.659397 13779 net.cpp:148] Setting up res5a_branch2a
I0702 23:02:43.659420 13779 net.cpp:155] Top shape: 4 512 40 40 (3276800)
I0702 23:02:43.659421 13779 net.cpp:163] Memory required for data: 724172800
I0702 23:02:43.659427 13779 layer_factory.hpp:77] Creating layer res5a_branch2a/bn
I0702 23:02:43.659435 13779 net.cpp:98] Creating Layer res5a_branch2a/bn
I0702 23:02:43.659437 13779 net.cpp:439] res5a_branch2a/bn <- res5a_branch2a
I0702 23:02:43.659440 13779 net.cpp:413] res5a_branch2a/bn -> res5a_branch2a/bn
I0702 23:02:43.659955 13779 net.cpp:148] Setting up res5a_branch2a/bn
I0702 23:02:43.659962 13779 net.cpp:155] Top shape: 4 512 40 40 (3276800)
I0702 23:02:43.659965 13779 net.cpp:163] Memory required for data: 737280000
I0702 23:02:43.659970 13779 layer_factory.hpp:77] Creating layer res5a_branch2a/relu
I0702 23:02:43.659973 13779 net.cpp:98] Creating Layer res5a_branch2a/relu
I0702 23:02:43.659976 13779 net.cpp:439] res5a_branch2a/relu <- res5a_branch2a/bn
I0702 23:02:43.659977 13779 net.cpp:400] res5a_branch2a/relu -> res5a_branch2a/bn (in-place)
I0702 23:02:43.659981 13779 net.cpp:148] Setting up res5a_branch2a/relu
I0702 23:02:43.659984 13779 net.cpp:155] Top shape: 4 512 40 40 (3276800)
I0702 23:02:43.659986 13779 net.cpp:163] Memory required for data: 750387200
I0702 23:02:43.659987 13779 layer_factory.hpp:77] Creating layer res5a_branch2b
I0702 23:02:43.659992 13779 net.cpp:98] Creating Layer res5a_branch2b
I0702 23:02:43.659994 13779 net.cpp:439] res5a_branch2b <- res5a_branch2a/bn
I0702 23:02:43.659998 13779 net.cpp:413] res5a_branch2b -> res5a_branch2b
I0702 23:02:43.673339 13779 net.cpp:148] Setting up res5a_branch2b
I0702 23:02:43.673348 13779 net.cpp:155] Top shape: 4 512 40 40 (3276800)
I0702 23:02:43.673351 13779 net.cpp:163] Memory required for data: 763494400
I0702 23:02:43.673357 13779 layer_factory.hpp:77] Creating layer res5a_branch2b/bn
I0702 23:02:43.673362 13779 net.cpp:98] Creating Layer res5a_branch2b/bn
I0702 23:02:43.673363 13779 net.cpp:439] res5a_branch2b/bn <- res5a_branch2b
I0702 23:02:43.673367 13779 net.cpp:413] res5a_branch2b/bn -> res5a_branch2b/bn
I0702 23:02:43.673861 13779 net.cpp:148] Setting up res5a_branch2b/bn
I0702 23:02:43.673866 13779 net.cpp:155] Top shape: 4 512 40 40 (3276800)
I0702 23:02:43.673868 13779 net.cpp:163] Memory required for data: 776601600
I0702 23:02:43.673873 13779 layer_factory.hpp:77] Creating layer res5a_branch2b/relu
I0702 23:02:43.673877 13779 net.cpp:98] Creating Layer res5a_branch2b/relu
I0702 23:02:43.673878 13779 net.cpp:439] res5a_branch2b/relu <- res5a_branch2b/bn
I0702 23:02:43.673882 13779 net.cpp:400] res5a_branch2b/relu -> res5a_branch2b/bn (in-place)
I0702 23:02:43.673884 13779 net.cpp:148] Setting up res5a_branch2b/relu
I0702 23:02:43.673887 13779 net.cpp:155] Top shape: 4 512 40 40 (3276800)
I0702 23:02:43.673889 13779 net.cpp:163] Memory required for data: 789708800
I0702 23:02:43.673892 13779 layer_factory.hpp:77] Creating layer out5a
I0702 23:02:43.673895 13779 net.cpp:98] Creating Layer out5a
I0702 23:02:43.673897 13779 net.cpp:439] out5a <- res5a_branch2b/bn
I0702 23:02:43.673900 13779 net.cpp:413] out5a -> out5a
I0702 23:02:43.678200 13779 net.cpp:148] Setting up out5a
I0702 23:02:43.678218 13779 net.cpp:155] Top shape: 4 64 40 40 (409600)
I0702 23:02:43.678220 13779 net.cpp:163] Memory required for data: 791347200
I0702 23:02:43.678226 13779 layer_factory.hpp:77] Creating layer out5a/bn
I0702 23:02:43.678233 13779 net.cpp:98] Creating Layer out5a/bn
I0702 23:02:43.678236 13779 net.cpp:439] out5a/bn <- out5a
I0702 23:02:43.678241 13779 net.cpp:413] out5a/bn -> out5a/bn
I0702 23:02:43.678848 13779 net.cpp:148] Setting up out5a/bn
I0702 23:02:43.678864 13779 net.cpp:155] Top shape: 4 64 40 40 (409600)
I0702 23:02:43.678867 13779 net.cpp:163] Memory required for data: 792985600
I0702 23:02:43.678875 13779 layer_factory.hpp:77] Creating layer out5a/relu
I0702 23:02:43.678879 13779 net.cpp:98] Creating Layer out5a/relu
I0702 23:02:43.678881 13779 net.cpp:439] out5a/relu <- out5a/bn
I0702 23:02:43.678884 13779 net.cpp:400] out5a/relu -> out5a/bn (in-place)
I0702 23:02:43.678890 13779 net.cpp:148] Setting up out5a/relu
I0702 23:02:43.678894 13779 net.cpp:155] Top shape: 4 64 40 40 (409600)
I0702 23:02:43.678894 13779 net.cpp:163] Memory required for data: 794624000
I0702 23:02:43.678896 13779 layer_factory.hpp:77] Creating layer out5a_up2
I0702 23:02:43.678903 13779 net.cpp:98] Creating Layer out5a_up2
I0702 23:02:43.678905 13779 net.cpp:439] out5a_up2 <- out5a/bn
I0702 23:02:43.678911 13779 net.cpp:413] out5a_up2 -> out5a_up2
I0702 23:02:43.679111 13779 net.cpp:148] Setting up out5a_up2
I0702 23:02:43.679116 13779 net.cpp:155] Top shape: 4 64 80 80 (1638400)
I0702 23:02:43.679117 13779 net.cpp:163] Memory required for data: 801177600
I0702 23:02:43.679121 13779 layer_factory.hpp:77] Creating layer out3a
I0702 23:02:43.679124 13779 net.cpp:98] Creating Layer out3a
I0702 23:02:43.679127 13779 net.cpp:439] out3a <- res3a_branch2b/bn_res3a_branch2b/relu_0_split_1
I0702 23:02:43.679131 13779 net.cpp:413] out3a -> out3a
I0702 23:02:43.680892 13779 net.cpp:148] Setting up out3a
I0702 23:02:43.680902 13779 net.cpp:155] Top shape: 4 64 80 80 (1638400)
I0702 23:02:43.680904 13779 net.cpp:163] Memory required for data: 807731200
I0702 23:02:43.680907 13779 layer_factory.hpp:77] Creating layer out3a/bn
I0702 23:02:43.680912 13779 net.cpp:98] Creating Layer out3a/bn
I0702 23:02:43.680914 13779 net.cpp:439] out3a/bn <- out3a
I0702 23:02:43.680917 13779 net.cpp:413] out3a/bn -> out3a/bn
I0702 23:02:43.681466 13779 net.cpp:148] Setting up out3a/bn
I0702 23:02:43.681473 13779 net.cpp:155] Top shape: 4 64 80 80 (1638400)
I0702 23:02:43.681474 13779 net.cpp:163] Memory required for data: 814284800
I0702 23:02:43.681479 13779 layer_factory.hpp:77] Creating layer out3a/relu
I0702 23:02:43.681483 13779 net.cpp:98] Creating Layer out3a/relu
I0702 23:02:43.681485 13779 net.cpp:439] out3a/relu <- out3a/bn
I0702 23:02:43.681488 13779 net.cpp:400] out3a/relu -> out3a/bn (in-place)
I0702 23:02:43.681491 13779 net.cpp:148] Setting up out3a/relu
I0702 23:02:43.681493 13779 net.cpp:155] Top shape: 4 64 80 80 (1638400)
I0702 23:02:43.681495 13779 net.cpp:163] Memory required for data: 820838400
I0702 23:02:43.681498 13779 layer_factory.hpp:77] Creating layer out3_out5_combined
I0702 23:02:43.681500 13779 net.cpp:98] Creating Layer out3_out5_combined
I0702 23:02:43.681502 13779 net.cpp:439] out3_out5_combined <- out5a_up2
I0702 23:02:43.681504 13779 net.cpp:439] out3_out5_combined <- out3a/bn
I0702 23:02:43.681509 13779 net.cpp:413] out3_out5_combined -> out3_out5_combined
I0702 23:02:43.681529 13779 net.cpp:148] Setting up out3_out5_combined
I0702 23:02:43.681532 13779 net.cpp:155] Top shape: 4 64 80 80 (1638400)
I0702 23:02:43.681535 13779 net.cpp:163] Memory required for data: 827392000
I0702 23:02:43.681536 13779 layer_factory.hpp:77] Creating layer ctx_conv1
I0702 23:02:43.681540 13779 net.cpp:98] Creating Layer ctx_conv1
I0702 23:02:43.681542 13779 net.cpp:439] ctx_conv1 <- out3_out5_combined
I0702 23:02:43.681545 13779 net.cpp:413] ctx_conv1 -> ctx_conv1
I0702 23:02:43.682533 13779 net.cpp:148] Setting up ctx_conv1
I0702 23:02:43.682541 13779 net.cpp:155] Top shape: 4 64 80 80 (1638400)
I0702 23:02:43.682545 13779 net.cpp:163] Memory required for data: 833945600
I0702 23:02:43.682548 13779 layer_factory.hpp:77] Creating layer ctx_conv1/bn
I0702 23:02:43.682552 13779 net.cpp:98] Creating Layer ctx_conv1/bn
I0702 23:02:43.682554 13779 net.cpp:439] ctx_conv1/bn <- ctx_conv1
I0702 23:02:43.682557 13779 net.cpp:413] ctx_conv1/bn -> ctx_conv1/bn
I0702 23:02:43.683099 13779 net.cpp:148] Setting up ctx_conv1/bn
I0702 23:02:43.683104 13779 net.cpp:155] Top shape: 4 64 80 80 (1638400)
I0702 23:02:43.683113 13779 net.cpp:163] Memory required for data: 840499200
I0702 23:02:43.683120 13779 layer_factory.hpp:77] Creating layer ctx_conv1/relu
I0702 23:02:43.683121 13779 net.cpp:98] Creating Layer ctx_conv1/relu
I0702 23:02:43.683125 13779 net.cpp:439] ctx_conv1/relu <- ctx_conv1/bn
I0702 23:02:43.683126 13779 net.cpp:400] ctx_conv1/relu -> ctx_conv1/bn (in-place)
I0702 23:02:43.683130 13779 net.cpp:148] Setting up ctx_conv1/relu
I0702 23:02:43.683132 13779 net.cpp:155] Top shape: 4 64 80 80 (1638400)
I0702 23:02:43.683135 13779 net.cpp:163] Memory required for data: 847052800
I0702 23:02:43.683136 13779 layer_factory.hpp:77] Creating layer ctx_conv2
I0702 23:02:43.683140 13779 net.cpp:98] Creating Layer ctx_conv2
I0702 23:02:43.683142 13779 net.cpp:439] ctx_conv2 <- ctx_conv1/bn
I0702 23:02:43.683145 13779 net.cpp:413] ctx_conv2 -> ctx_conv2
I0702 23:02:43.684139 13779 net.cpp:148] Setting up ctx_conv2
I0702 23:02:43.684144 13779 net.cpp:155] Top shape: 4 64 80 80 (1638400)
I0702 23:02:43.684146 13779 net.cpp:163] Memory required for data: 853606400
I0702 23:02:43.684149 13779 layer_factory.hpp:77] Creating layer ctx_conv2/bn
I0702 23:02:43.684152 13779 net.cpp:98] Creating Layer ctx_conv2/bn
I0702 23:02:43.684154 13779 net.cpp:439] ctx_conv2/bn <- ctx_conv2
I0702 23:02:43.684157 13779 net.cpp:413] ctx_conv2/bn -> ctx_conv2/bn
I0702 23:02:43.684690 13779 net.cpp:148] Setting up ctx_conv2/bn
I0702 23:02:43.684695 13779 net.cpp:155] Top shape: 4 64 80 80 (1638400)
I0702 23:02:43.684697 13779 net.cpp:163] Memory required for data: 860160000
I0702 23:02:43.684701 13779 layer_factory.hpp:77] Creating layer ctx_conv2/relu
I0702 23:02:43.684705 13779 net.cpp:98] Creating Layer ctx_conv2/relu
I0702 23:02:43.684707 13779 net.cpp:439] ctx_conv2/relu <- ctx_conv2/bn
I0702 23:02:43.684710 13779 net.cpp:400] ctx_conv2/relu -> ctx_conv2/bn (in-place)
I0702 23:02:43.684712 13779 net.cpp:148] Setting up ctx_conv2/relu
I0702 23:02:43.684715 13779 net.cpp:155] Top shape: 4 64 80 80 (1638400)
I0702 23:02:43.684716 13779 net.cpp:163] Memory required for data: 866713600
I0702 23:02:43.684718 13779 layer_factory.hpp:77] Creating layer ctx_conv3
I0702 23:02:43.684722 13779 net.cpp:98] Creating Layer ctx_conv3
I0702 23:02:43.684725 13779 net.cpp:439] ctx_conv3 <- ctx_conv2/bn
I0702 23:02:43.684727 13779 net.cpp:413] ctx_conv3 -> ctx_conv3
I0702 23:02:43.685719 13779 net.cpp:148] Setting up ctx_conv3
I0702 23:02:43.685724 13779 net.cpp:155] Top shape: 4 64 80 80 (1638400)
I0702 23:02:43.685726 13779 net.cpp:163] Memory required for data: 873267200
I0702 23:02:43.685729 13779 layer_factory.hpp:77] Creating layer ctx_conv3/bn
I0702 23:02:43.685734 13779 net.cpp:98] Creating Layer ctx_conv3/bn
I0702 23:02:43.685735 13779 net.cpp:439] ctx_conv3/bn <- ctx_conv3
I0702 23:02:43.685739 13779 net.cpp:413] ctx_conv3/bn -> ctx_conv3/bn
I0702 23:02:43.686264 13779 net.cpp:148] Setting up ctx_conv3/bn
I0702 23:02:43.686269 13779 net.cpp:155] Top shape: 4 64 80 80 (1638400)
I0702 23:02:43.686270 13779 net.cpp:163] Memory required for data: 879820800
I0702 23:02:43.686275 13779 layer_factory.hpp:77] Creating layer ctx_conv3/relu
I0702 23:02:43.686277 13779 net.cpp:98] Creating Layer ctx_conv3/relu
I0702 23:02:43.686280 13779 net.cpp:439] ctx_conv3/relu <- ctx_conv3/bn
I0702 23:02:43.686285 13779 net.cpp:400] ctx_conv3/relu -> ctx_conv3/bn (in-place)
I0702 23:02:43.686287 13779 net.cpp:148] Setting up ctx_conv3/relu
I0702 23:02:43.686290 13779 net.cpp:155] Top shape: 4 64 80 80 (1638400)
I0702 23:02:43.686291 13779 net.cpp:163] Memory required for data: 886374400
I0702 23:02:43.686293 13779 layer_factory.hpp:77] Creating layer ctx_conv4
I0702 23:02:43.686297 13779 net.cpp:98] Creating Layer ctx_conv4
I0702 23:02:43.686300 13779 net.cpp:439] ctx_conv4 <- ctx_conv3/bn
I0702 23:02:43.686301 13779 net.cpp:413] ctx_conv4 -> ctx_conv4
I0702 23:02:43.687295 13779 net.cpp:148] Setting up ctx_conv4
I0702 23:02:43.687300 13779 net.cpp:155] Top shape: 4 64 80 80 (1638400)
I0702 23:02:43.687302 13779 net.cpp:163] Memory required for data: 892928000
I0702 23:02:43.687310 13779 layer_factory.hpp:77] Creating layer ctx_conv4/bn
I0702 23:02:43.687314 13779 net.cpp:98] Creating Layer ctx_conv4/bn
I0702 23:02:43.687316 13779 net.cpp:439] ctx_conv4/bn <- ctx_conv4
I0702 23:02:43.687319 13779 net.cpp:413] ctx_conv4/bn -> ctx_conv4/bn
I0702 23:02:43.687840 13779 net.cpp:148] Setting up ctx_conv4/bn
I0702 23:02:43.687845 13779 net.cpp:155] Top shape: 4 64 80 80 (1638400)
I0702 23:02:43.687847 13779 net.cpp:163] Memory required for data: 899481600
I0702 23:02:43.687851 13779 layer_factory.hpp:77] Creating layer ctx_conv4/relu
I0702 23:02:43.687855 13779 net.cpp:98] Creating Layer ctx_conv4/relu
I0702 23:02:43.687856 13779 net.cpp:439] ctx_conv4/relu <- ctx_conv4/bn
I0702 23:02:43.687858 13779 net.cpp:400] ctx_conv4/relu -> ctx_conv4/bn (in-place)
I0702 23:02:43.687861 13779 net.cpp:148] Setting up ctx_conv4/relu
I0702 23:02:43.687863 13779 net.cpp:155] Top shape: 4 64 80 80 (1638400)
I0702 23:02:43.687865 13779 net.cpp:163] Memory required for data: 906035200
I0702 23:02:43.687867 13779 layer_factory.hpp:77] Creating layer ctx_final
I0702 23:02:43.687871 13779 net.cpp:98] Creating Layer ctx_final
I0702 23:02:43.687872 13779 net.cpp:439] ctx_final <- ctx_conv4/bn
I0702 23:02:43.687875 13779 net.cpp:413] ctx_final -> ctx_final
I0702 23:02:43.688194 13779 net.cpp:148] Setting up ctx_final
I0702 23:02:43.688199 13779 net.cpp:155] Top shape: 4 8 80 80 (204800)
I0702 23:02:43.688200 13779 net.cpp:163] Memory required for data: 906854400
I0702 23:02:43.688204 13779 layer_factory.hpp:77] Creating layer ctx_final/relu
I0702 23:02:43.688205 13779 net.cpp:98] Creating Layer ctx_final/relu
I0702 23:02:43.688207 13779 net.cpp:439] ctx_final/relu <- ctx_final
I0702 23:02:43.688210 13779 net.cpp:400] ctx_final/relu -> ctx_final (in-place)
I0702 23:02:43.688212 13779 net.cpp:148] Setting up ctx_final/relu
I0702 23:02:43.688215 13779 net.cpp:155] Top shape: 4 8 80 80 (204800)
I0702 23:02:43.688216 13779 net.cpp:163] Memory required for data: 907673600
I0702 23:02:43.688218 13779 layer_factory.hpp:77] Creating layer out_deconv_final_up2
I0702 23:02:43.688221 13779 net.cpp:98] Creating Layer out_deconv_final_up2
I0702 23:02:43.688223 13779 net.cpp:439] out_deconv_final_up2 <- ctx_final
I0702 23:02:43.688225 13779 net.cpp:413] out_deconv_final_up2 -> out_deconv_final_up2
I0702 23:02:43.688393 13779 net.cpp:148] Setting up out_deconv_final_up2
I0702 23:02:43.688397 13779 net.cpp:155] Top shape: 4 8 160 160 (819200)
I0702 23:02:43.688400 13779 net.cpp:163] Memory required for data: 910950400
I0702 23:02:43.688402 13779 layer_factory.hpp:77] Creating layer out_deconv_final_up4
I0702 23:02:43.688405 13779 net.cpp:98] Creating Layer out_deconv_final_up4
I0702 23:02:43.688406 13779 net.cpp:439] out_deconv_final_up4 <- out_deconv_final_up2
I0702 23:02:43.688410 13779 net.cpp:413] out_deconv_final_up4 -> out_deconv_final_up4
I0702 23:02:43.688575 13779 net.cpp:148] Setting up out_deconv_final_up4
I0702 23:02:43.688578 13779 net.cpp:155] Top shape: 4 8 320 320 (3276800)
I0702 23:02:43.688580 13779 net.cpp:163] Memory required for data: 924057600
I0702 23:02:43.688583 13779 layer_factory.hpp:77] Creating layer out_deconv_final_up8
I0702 23:02:43.688585 13779 net.cpp:98] Creating Layer out_deconv_final_up8
I0702 23:02:43.688587 13779 net.cpp:439] out_deconv_final_up8 <- out_deconv_final_up4
I0702 23:02:43.688591 13779 net.cpp:413] out_deconv_final_up8 -> out_deconv_final_up8
I0702 23:02:43.688752 13779 net.cpp:148] Setting up out_deconv_final_up8
I0702 23:02:43.688757 13779 net.cpp:155] Top shape: 4 8 640 640 (13107200)
I0702 23:02:43.688758 13779 net.cpp:163] Memory required for data: 976486400
I0702 23:02:43.688761 13779 layer_factory.hpp:77] Creating layer out_deconv_final_up8_out_deconv_final_up8_0_split
I0702 23:02:43.688765 13779 net.cpp:98] Creating Layer out_deconv_final_up8_out_deconv_final_up8_0_split
I0702 23:02:43.688766 13779 net.cpp:439] out_deconv_final_up8_out_deconv_final_up8_0_split <- out_deconv_final_up8
I0702 23:02:43.688768 13779 net.cpp:413] out_deconv_final_up8_out_deconv_final_up8_0_split -> out_deconv_final_up8_out_deconv_final_up8_0_split_0
I0702 23:02:43.688776 13779 net.cpp:413] out_deconv_final_up8_out_deconv_final_up8_0_split -> out_deconv_final_up8_out_deconv_final_up8_0_split_1
I0702 23:02:43.688779 13779 net.cpp:413] out_deconv_final_up8_out_deconv_final_up8_0_split -> out_deconv_final_up8_out_deconv_final_up8_0_split_2
I0702 23:02:43.688819 13779 net.cpp:148] Setting up out_deconv_final_up8_out_deconv_final_up8_0_split
I0702 23:02:43.688823 13779 net.cpp:155] Top shape: 4 8 640 640 (13107200)
I0702 23:02:43.688825 13779 net.cpp:155] Top shape: 4 8 640 640 (13107200)
I0702 23:02:43.688827 13779 net.cpp:155] Top shape: 4 8 640 640 (13107200)
I0702 23:02:43.688829 13779 net.cpp:163] Memory required for data: 1133772800
I0702 23:02:43.688832 13779 layer_factory.hpp:77] Creating layer loss
I0702 23:02:43.688835 13779 net.cpp:98] Creating Layer loss
I0702 23:02:43.688838 13779 net.cpp:439] loss <- out_deconv_final_up8_out_deconv_final_up8_0_split_0
I0702 23:02:43.688839 13779 net.cpp:439] loss <- label_data_1_split_0
…
