…
I0711 18:09:31.133249  7290 net.cpp:327] The NetState phase (0) differed from the phase (1) specified by a rule in layer accuracy/top5
I0711 18:09:31.133507  7290 net.cpp:56] Initializing net from parameters: 
name: "jsegnet21v2_train"
state {
  phase: TRAIN
}
layer {
  name: "data"
  type: "ImageLabelData"
  top: "data"
  top: "label"
  transform_param {
    mirror: true
    crop_size: 640
    mean_value: 0
  }
  image_label_data_param {
    image_list_path: "data/train-image-lmdb"
    label_list_path: "data/train-label-lmdb"
    batch_size: 5
    shuffle: false
    threads: 4
    backend: LMDB
  }
}
layer {
  name: "data/bias"
  type: "Bias"
  bottom: "data"
  top: "data/bias"
  param {
    lr_mult: 0
    decay_mult: 0
  }
  bias_param {
    filler {
      type: "constant"
      value: -128
    }
  }
}
layer {
  name: "conv1a"
  type: "Convolution"
  bottom: "data/bias"
  top: "conv1a"
  param {
    lr_mult: 1
    decay_mult: 1
  }
  param {
    lr_mult: 2
    decay_mult: 0
  }
  convolution_param {
    num_output: 32
    bias_term: true
    pad: 2
    kernel_size: 5
    group: 1
    stride: 2
    weight_filler {
      type: "msra"
    }
    bias_filler {
      type: "constant"
      value: 0
    }
    dilation: 1
  }
}
layer {
  name: "conv1a/bn"
  type: "BatchNorm"
  bottom: "conv1a"
  top: "conv1a/bn"
  param {
    lr_mult: 1
    decay_mult: 1
  }
  param {
    lr_mult: 1
    decay_mult: 1
  }
  param {
    lr_mult: 0
    decay_mult: 0
  }
  param {
    lr_mult: 0
    decay_mult: 0
  }
  batch_norm_param {
    moving_average_fraction: 0.99
    eps: 0.0001
    scale_filler {
      type: "constant"
      value: 1
    }
    bias_filler {
      type: "constant"
      value: 0
    }
  }
}
layer {
  name: "conv1a/relu"
  type: "ReLU"
  bottom: "conv1a/bn"
  top: "conv1a/bn"
}
layer {
  name: "conv1b"
  type: "Convolution"
  bottom: "conv1a/bn"
  top: "conv1b"
  param {
    lr_mult: 1
    decay_mult: 1
  }
  param {
    lr_mult: 2
    decay_mult: 0
  }
  convolution_param {
    num_output: 32
    bias_term: true
    pad: 1
    kernel_size: 3
    group: 4
    stride: 1
    weight_filler {
      type: "msra"
    }
    bias_filler {
      type: "constant"
      value: 0
    }
    dilation: 1
  }
}
layer {
  name: "conv1b/bn"
  type: "BatchNorm"
  bottom: "conv1b"
  top: "conv1b/bn"
  param {
    lr_mult: 1
    decay_mult: 1
  }
  param {
    lr_mult: 1
    decay_mult: 1
  }
  param {
    lr_mult: 0
    decay_mult: 0
  }
  param {
    lr_mult: 0
    decay_mult: 0
  }
  batch_norm_param {
    moving_average_fraction: 0.99
    eps: 0.0001
    scale_filler {
      type: "constant"
      value: 1
    }
    bias_filler {
      type: "constant"
      value: 0
    }
  }
}
layer {
  name: "conv1b/relu"
  type: "ReLU"
  bottom: "conv1b/bn"
  top: "conv1b/bn"
}
layer {
  name: "pool1"
  type: "Pooling"
  bottom: "conv1b/bn"
  top: "pool1"
  pooling_param {
    pool: MAX
    kernel_size: 2
    stride: 2
  }
}
layer {
  name: "res2a_branch2a"
  type: "Convolution"
  bottom: "pool1"
  top: "res2a_branch2a"
  param {
    lr_mult: 1
    decay_mult: 1
  }
  param {
    lr_mult: 2
    decay_mult: 0
  }
  convolution_param {
    num_output: 64
    bias_term: true
    pad: 1
    kernel_size: 3
    group: 1
    stride: 1
    weight_filler {
      type: "msra"
    }
    bias_filler {
      type: "constant"
      value: 0
    }
    dilation: 1
  }
}
layer {
  name: "res2a_branch2a/bn"
  type: "BatchNorm"
  bottom: "res2a_branch2a"
  top: "res2a_branch2a/bn"
  param {
    lr_mult: 1
    decay_mult: 1
  }
  param {
    lr_mult: 1
    decay_mult: 1
  }
  param {
    lr_mult: 0
    decay_mult: 0
  }
  param {
    lr_mult: 0
    decay_mult: 0
  }
  batch_norm_param {
    moving_average_fraction: 0.99
    eps: 0.0001
    scale_filler {
      type: "constant"
      value: 1
    }
    bias_filler {
      type: "constant"
      value: 0
    }
  }
}
layer {
  name: "res2a_branch2a/relu"
  type: "ReLU"
  bottom: "res2a_branch2a/bn"
  top: "res2a_branch2a/bn"
}
layer {
  name: "res2a_branch2b"
  type: "Convolution"
  bottom: "res2a_branch2a/bn"
  top: "res2a_branch2b"
  param {
    lr_mult: 1
    decay_mult: 1
  }
  param {
    lr_mult: 2
    decay_mult: 0
  }
  convolution_param {
    num_output: 64
    bias_term: true
    pad: 1
    kernel_size: 3
    group: 4
    stride: 1
    weight_filler {
      type: "msra"
    }
    bias_filler {
      type: "constant"
      value: 0
    }
    dilation: 1
  }
}
layer {
  name: "res2a_branch2b/bn"
  type: "BatchNorm"
  bottom: "res2a_branch2b"
  top: "res2a_branch2b/bn"
  param {
    lr_mult: 1
    decay_mult: 1
  }
  param {
    lr_mult: 1
    decay_mult: 1
  }
  param {
    lr_mult: 0
    decay_mult: 0
  }
  param {
    lr_mult: 0
    decay_mult: 0
  }
  batch_norm_param {
    moving_average_fraction: 0.99
    eps: 0.0001
    scale_filler {
      type: "constant"
      value: 1
    }
    bias_filler {
      type: "constant"
      value: 0
    }
  }
}
layer {
  name: "res2a_branch2b/relu"
  type: "ReLU"
  bottom: "res2a_branch2b/bn"
  top: "res2a_branch2b/bn"
}
layer {
  name: "pool2"
  type: "Pooling"
  bottom: "res2a_branch2b/bn"
  top: "pool2"
  pooling_param {
    pool: MAX
    kernel_size: 2
    stride: 2
  }
}
layer {
  name: "res3a_branch2a"
  type: "Convolution"
  bottom: "pool2"
  top: "res3a_branch2a"
  param {
    lr_mult: 1
    decay_mult: 1
  }
  param {
    lr_mult: 2
    decay_mult: 0
  }
  convolution_param {
    num_output: 128
    bias_term: true
    pad: 1
    kernel_size: 3
    group: 1
    stride: 1
    weight_filler {
      type: "msra"
    }
    bias_filler {
      type: "constant"
      value: 0
    }
    dilation: 1
  }
}
layer {
  name: "res3a_branch2a/bn"
  type: "BatchNorm"
  bottom: "res3a_branch2a"
  top: "res3a_branch2a/bn"
  param {
    lr_mult: 1
    decay_mult: 1
  }
  param {
    lr_mult: 1
    decay_mult: 1
  }
  param {
    lr_mult: 0
    decay_mult: 0
  }
  param {
    lr_mult: 0
    decay_mult: 0
  }
  batch_norm_param {
    moving_average_fraction: 0.99
    eps: 0.0001
    scale_filler {
      type: "constant"
      value: 1
    }
    bias_filler {
      type: "constant"
      value: 0
    }
  }
}
layer {
  name: "res3a_branch2a/relu"
  type: "ReLU"
  bottom: "res3a_branch2a/bn"
  top: "res3a_branch2a/bn"
}
layer {
  name: "res3a_branch2b"
  type: "Convolution"
  bottom: "res3a_branch2a/bn"
  top: "res3a_branch2b"
  param {
    lr_mult: 1
    decay_mult: 1
  }
  param {
    lr_mult: 2
    decay_mult: 0
  }
  convolution_param {
    num_output: 128
    bias_term: true
    pad: 1
    kernel_size: 3
    group: 4
    stride: 1
    weight_filler {
      type: "msra"
    }
    bias_filler {
      type: "constant"
      value: 0
    }
    dilation: 1
  }
}
layer {
  name: "res3a_branch2b/bn"
  type: "BatchNorm"
  bottom: "res3a_branch2b"
  top: "res3a_branch2b/bn"
  param {
    lr_mult: 1
    decay_mult: 1
  }
  param {
    lr_mult: 1
    decay_mult: 1
  }
  param {
    lr_mult: 0
    decay_mult: 0
  }
  param {
    lr_mult: 0
    decay_mult: 0
  }
  batch_norm_param {
    moving_average_fraction: 0.99
    eps: 0.0001
    scale_filler {
      type: "constant"
      value: 1
    }
    bias_filler {
      type: "constant"
      value: 0
    }
  }
}
layer {
  name: "res3a_branch2b/relu"
  type: "ReLU"
  bottom: "res3a_branch2b/bn"
  top: "res3a_branch2b/bn"
}
layer {
  name: "pool3"
  type: "Pooling"
  bottom: "res3a_branch2b/bn"
  top: "pool3"
  pooling_param {
    pool: MAX
    kernel_size: 2
    stride: 2
  }
}
layer {
  name: "res4a_branch2a"
  type: "Convolution"
  bottom: "pool3"
  top: "res4a_branch2a"
  param {
    lr_mult: 1
    decay_mult: 1
  }
  param {
    lr_mult: 2
    decay_mult: 0
  }
  convolution_param {
    num_output: 256
    bias_term: true
    pad: 1
    kernel_size: 3
    group: 1
    stride: 1
    weight_filler {
      type: "msra"
    }
    bias_filler {
      type: "constant"
      value: 0
    }
    dilation: 1
  }
}
layer {
  name: "res4a_branch2a/bn"
  type: "BatchNorm"
  bottom: "res4a_branch2a"
  top: "res4a_branch2a/bn"
  param {
    lr_mult: 1
    decay_mult: 1
  }
  param {
    lr_mult: 1
    decay_mult: 1
  }
  param {
    lr_mult: 0
    decay_mult: 0
  }
  param {
    lr_mult: 0
    decay_mult: 0
  }
  batch_norm_param {
    moving_average_fraction: 0.99
    eps: 0.0001
    scale_filler {
      type: "constant"
      value: 1
    }
    bias_filler {
      type: "constant"
      value: 0
    }
  }
}
layer {
  name: "res4a_branch2a/relu"
  type: "ReLU"
  bottom: "res4a_branch2a/bn"
  top: "res4a_branch2a/bn"
}
layer {
  name: "res4a_branch2b"
  type: "Convolution"
  bottom: "res4a_branch2a/bn"
  top: "res4a_branch2b"
  param {
    lr_mult: 1
    decay_mult: 1
  }
  param {
    lr_mult: 2
    decay_mult: 0
  }
  convolution_param {
    num_output: 256
    bias_term: true
    pad: 1
    kernel_size: 3
    group: 4
    stride: 1
    weight_filler {
      type: "msra"
    }
    bias_filler {
      type: "constant"
      value: 0
    }
    dilation: 1
  }
}
layer {
  name: "res4a_branch2b/bn"
  type: "BatchNorm"
  bottom: "res4a_branch2b"
  top: "res4a_branch2b/bn"
  param {
    lr_mult: 1
    decay_mult: 1
  }
  param {
    lr_mult: 1
    decay_mult: 1
  }
  param {
    lr_mult: 0
    decay_mult: 0
  }
  param {
    lr_mult: 0
    decay_mult: 0
  }
  batch_norm_param {
    moving_average_fraction: 0.99
    eps: 0.0001
    scale_filler {
      type: "constant"
      value: 1
    }
    bias_filler {
      type: "constant"
      value: 0
    }
  }
}
layer {
  name: "res4a_branch2b/relu"
  type: "ReLU"
  bottom: "res4a_branch2b/bn"
  top: "res4a_branch2b/bn"
}
layer {
  name: "pool4"
  type: "Pooling"
  bottom: "res4a_branch2b/bn"
  top: "pool4"
  pooling_param {
    pool: MAX
    kernel_size: 1
    stride: 1
  }
}
layer {
  name: "res5a_branch2a"
  type: "Convolution"
  bottom: "pool4"
  top: "res5a_branch2a"
  param {
    lr_mult: 1
    decay_mult: 1
  }
  param {
    lr_mult: 2
    decay_mult: 0
  }
  convolution_param {
    num_output: 512
    bias_term: true
    pad: 2
    kernel_size: 3
    group: 1
    stride: 1
    weight_filler {
      type: "msra"
    }
    bias_filler {
      type: "constant"
      value: 0
    }
    dilation: 2
  }
}
layer {
  name: "res5a_branch2a/bn"
  type: "BatchNorm"
  bottom: "res5a_branch2a"
  top: "res5a_branch2a/bn"
  param {
    lr_mult: 1
    decay_mult: 1
  }
  param {
    lr_mult: 1
    decay_mult: 1
  }
  param {
    lr_mult: 0
    decay_mult: 0
  }
  param {
    lr_mult: 0
    decay_mult: 0
  }
  batch_norm_param {
    moving_average_fraction: 0.99
    eps: 0.0001
    scale_filler {
      type: "constant"
      value: 1
    }
    bias_filler {
      type: "constant"
      value: 0
    }
  }
}
layer {
  name: "res5a_branch2a/relu"
  type: "ReLU"
  bottom: "res5a_branch2a/bn"
  top: "res5a_branch2a/bn"
}
layer {
  name: "res5a_branch2b"
  type: "Convolution"
  bottom: "res5a_branch2a/bn"
  top: "res5a_branch2b"
  param {
    lr_mult: 1
    decay_mult: 1
  }
  param {
    lr_mult: 2
    decay_mult: 0
  }
  convolution_param {
    num_output: 512
    bias_term: true
    pad: 2
    kernel_size: 3
    group: 4
    stride: 1
    weight_filler {
      type: "msra"
    }
    bias_filler {
      type: "constant"
      value: 0
    }
    dilation: 2
  }
}
layer {
  name: "res5a_branch2b/bn"
  type: "BatchNorm"
  bottom: "res5a_branch2b"
  top: "res5a_branch2b/bn"
  param {
    lr_mult: 1
    decay_mult: 1
  }
  param {
    lr_mult: 1
    decay_mult: 1
  }
  param {
    lr_mult: 0
    decay_mult: 0
  }
  param {
    lr_mult: 0
    decay_mult: 0
  }
  batch_norm_param {
    moving_average_fraction: 0.99
    eps: 0.0001
    scale_filler {
      type: "constant"
      value: 1
    }
    bias_filler {
      type: "constant"
      value: 0
    }
  }
}
layer {
  name: "res5a_branch2b/relu"
  type: "ReLU"
  bottom: "res5a_branch2b/bn"
  top: "res5a_branch2b/bn"
}
layer {
  name: "out5a"
  type: "Convolution"
  bottom: "res5a_branch2b/bn"
  top: "out5a"
  param {
    lr_mult: 1
    decay_mult: 1
  }
  param {
    lr_mult: 2
    decay_mult: 0
  }
  convolution_param {
    num_output: 64
    bias_term: true
    pad: 4
    kernel_size: 3
    group: 2
    stride: 1
    weight_filler {
      type: "msra"
    }
    bias_filler {
      type: "constant"
      value: 0
    }
    dilation: 4
  }
}
layer {
  name: "out5a/bn"
  type: "BatchNorm"
  bottom: "out5a"
  top: "out5a/bn"
  param {
    lr_mult: 1
    decay_mult: 1
  }
  param {
    lr_mult: 1
    decay_mult: 1
  }
  param {
    lr_mult: 0
    decay_mult: 0
  }
  param {
    lr_mult: 0
    decay_mult: 0
  }
  batch_norm_param {
    moving_average_fraction: 0.99
    eps: 0.0001
    scale_filler {
      type: "constant"
      value: 1
    }
    bias_filler {
      type: "constant"
      value: 0
    }
  }
}
layer {
  name: "out5a/relu"
  type: "ReLU"
  bottom: "out5a/bn"
  top: "out5a/bn"
}
layer {
  name: "out5a_up2"
  type: "Deconvolution"
  bottom: "out5a/bn"
  top: "out5a_up2"
  param {
    lr_mult: 0
    decay_mult: 0
  }
  convolution_param {
    num_output: 64
    bias_term: false
    pad: 1
    kernel_size: 4
    group: 64
    stride: 2
    weight_filler {
      type: "bilinear"
    }
  }
}
layer {
  name: "out3a"
  type: "Convolution"
  bottom: "res3a_branch2b/bn"
  top: "out3a"
  param {
    lr_mult: 1
    decay_mult: 1
  }
  param {
    lr_mult: 2
    decay_mult: 0
  }
  convolution_param {
    num_output: 64
    bias_term: true
    pad: 1
    kernel_size: 3
    group: 2
    stride: 1
    weight_filler {
      type: "msra"
    }
    bias_filler {
      type: "constant"
      value: 0
    }
    dilation: 1
  }
}
layer {
  name: "out3a/bn"
  type: "BatchNorm"
  bottom: "out3a"
  top: "out3a/bn"
  param {
    lr_mult: 1
    decay_mult: 1
  }
  param {
    lr_mult: 1
    decay_mult: 1
  }
  param {
    lr_mult: 0
    decay_mult: 0
  }
  param {
    lr_mult: 0
    decay_mult: 0
  }
  batch_norm_param {
    moving_average_fraction: 0.99
    eps: 0.0001
    scale_filler {
      type: "constant"
      value: 1
    }
    bias_filler {
      type: "constant"
      value: 0
    }
  }
}
layer {
  name: "out3a/relu"
  type: "ReLU"
  bottom: "out3a/bn"
  top: "out3a/bn"
}
layer {
  name: "out3_out5_combined"
  type: "Eltwise"
  bottom: "out5a_up2"
  bottom: "out3a/bn"
  top: "out3_out5_combined"
}
layer {
  name: "ctx_conv1"
  type: "Convolution"
  bottom: "out3_out5_combined"
  top: "ctx_conv1"
  param {
    lr_mult: 1
    decay_mult: 1
  }
  param {
    lr_mult: 2
    decay_mult: 0
  }
  convolution_param {
    num_output: 64
    bias_term: true
    pad: 1
    kernel_size: 3
    group: 1
    stride: 1
    weight_filler {
      type: "msra"
    }
    bias_filler {
      type: "constant"
      value: 0
    }
    dilation: 1
  }
}
layer {
  name: "ctx_conv1/bn"
  type: "BatchNorm"
  bottom: "ctx_conv1"
  top: "ctx_conv1/bn"
  param {
    lr_mult: 1
    decay_mult: 1
  }
  param {
    lr_mult: 1
    decay_mult: 1
  }
  param {
    lr_mult: 0
    decay_mult: 0
  }
  param {
    lr_mult: 0
    decay_mult: 0
  }
  batch_norm_param {
    moving_average_fraction: 0.99
    eps: 0.0001
    scale_filler {
      type: "constant"
      value: 1
    }
    bias_filler {
      type: "constant"
      value: 0
    }
  }
}
layer {
  name: "ctx_conv1/relu"
  type: "ReLU"
  bottom: "ctx_conv1/bn"
  top: "ctx_conv1/bn"
}
layer {
  name: "ctx_conv2"
  type: "Convolution"
  bottom: "ctx_conv1/bn"
  top: "ctx_conv2"
  param {
    lr_mult: 1
    decay_mult: 1
  }
  param {
    lr_mult: 2
    decay_mult: 0
  }
  convolution_param {
    num_output: 64
    bias_term: true
    pad: 4
    kernel_size: 3
    group: 1
    stride: 1
    weight_filler {
      type: "msra"
    }
    bias_filler {
      type: "constant"
      value: 0
    }
    dilation: 4
  }
}
layer {
  name: "ctx_conv2/bn"
  type: "BatchNorm"
  bottom: "ctx_conv2"
  top: "ctx_conv2/bn"
  param {
    lr_mult: 1
    decay_mult: 1
  }
  param {
    lr_mult: 1
    decay_mult: 1
  }
  param {
    lr_mult: 0
    decay_mult: 0
  }
  param {
    lr_mult: 0
    decay_mult: 0
  }
  batch_norm_param {
    moving_average_fraction: 0.99
    eps: 0.0001
    scale_filler {
      type: "constant"
      value: 1
    }
    bias_filler {
      type: "constant"
      value: 0
    }
  }
}
layer {
  name: "ctx_conv2/relu"
  type: "ReLU"
  bottom: "ctx_conv2/bn"
  top: "ctx_conv2/bn"
}
layer {
  name: "ctx_conv3"
  type: "Convolution"
  bottom: "ctx_conv2/bn"
  top: "ctx_conv3"
  param {
    lr_mult: 1
    decay_mult: 1
  }
  param {
    lr_mult: 2
    decay_mult: 0
  }
  convolution_param {
    num_output: 64
    bias_term: true
    pad: 4
    kernel_size: 3
    group: 1
    stride: 1
    weight_filler {
      type: "msra"
    }
    bias_filler {
      type: "constant"
      value: 0
    }
    dilation: 4
  }
}
layer {
  name: "ctx_conv3/bn"
  type: "BatchNorm"
  bottom: "ctx_conv3"
  top: "ctx_conv3/bn"
  param {
    lr_mult: 1
    decay_mult: 1
  }
  param {
    lr_mult: 1
    decay_mult: 1
  }
  param {
    lr_mult: 0
    decay_mult: 0
  }
  param {
    lr_mult: 0
    decay_mult: 0
  }
  batch_norm_param {
    moving_average_fraction: 0.99
    eps: 0.0001
    scale_filler {
      type: "constant"
      value: 1
    }
    bias_filler {
      type: "constant"
      value: 0
    }
  }
}
layer {
  name: "ctx_conv3/relu"
  type: "ReLU"
  bottom: "ctx_conv3/bn"
  top: "ctx_conv3/bn"
}
layer {
  name: "ctx_conv4"
  type: "Convolution"
  bottom: "ctx_conv3/bn"
  top: "ctx_conv4"
  param {
    lr_mult: 1
    decay_mult: 1
  }
  param {
    lr_mult: 2
    decay_mult: 0
  }
  convolution_param {
    num_output: 64
    bias_term: true
    pad: 4
    kernel_size: 3
    group: 1
    stride: 1
    weight_filler {
      type: "msra"
    }
    bias_filler {
      type: "constant"
      value: 0
    }
    dilation: 4
  }
}
layer {
  name: "ctx_conv4/bn"
  type: "BatchNorm"
  bottom: "ctx_conv4"
  top: "ctx_conv4/bn"
  param {
    lr_mult: 1
    decay_mult: 1
  }
  param {
    lr_mult: 1
    decay_mult: 1
  }
  param {
    lr_mult: 0
    decay_mult: 0
  }
  param {
    lr_mult: 0
    decay_mult: 0
  }
  batch_norm_param {
    moving_average_fraction: 0.99
    eps: 0.0001
    scale_filler {
      type: "constant"
      value: 1
    }
    bias_filler {
      type: "constant"
      value: 0
    }
  }
}
layer {
  name: "ctx_conv4/relu"
  type: "ReLU"
  bottom: "ctx_conv4/bn"
  top: "ctx_conv4/bn"
}
layer {
  name: "ctx_final"
  type: "Convolution"
  bottom: "ctx_conv4/bn"
  top: "ctx_final"
  param {
    lr_mult: 1
    decay_mult: 1
  }
  param {
    lr_mult: 2
    decay_mult: 0
  }
  convolution_param {
    num_output: 8
    bias_term: true
    pad: 1
    kernel_size: 3
    kernel_size: 3
    group: 1
    stride: 1
    weight_filler {
      type: "msra"
    }
    bias_filler {
      type: "constant"
      value: 0
    }
    dilation: 1
  }
}
layer {
  name: "ctx_final/relu"
  type: "ReLU"
  bottom: "ctx_final"
  top: "ctx_final"
}
layer {
  name: "out_deconv_final_up2"
  type: "Deconvolution"
  bottom: "ctx_final"
  top: "out_deconv_final_up2"
  param {
    lr_mult: 0
    decay_mult: 0
  }
  convolution_param {
    num_output: 8
    bias_term: false
    pad: 1
    kernel_size: 4
    group: 8
    stride: 2
    weight_filler {
      type: "bilinear"
    }
  }
}
layer {
  name: "out_deconv_final_up4"
  type: "Deconvolution"
  bottom: "out_deconv_final_up2"
  top: "out_deconv_final_up4"
  param {
    lr_mult: 0
    decay_mult: 0
  }
  convolution_param {
    num_output: 8
    bias_term: false
    pad: 1
    kernel_size: 4
    group: 8
    stride: 2
    weight_filler {
      type: "bilinear"
    }
  }
}
layer {
  name: "out_deconv_final_up8"
  type: "Deconvolution"
  bottom: "out_deconv_final_up4"
  top: "out_deconv_final_up8"
  param {
    lr_mult: 0
    decay_mult: 0
  }
  convolution_param {
    num_output: 8
    bias_term: false
    pad: 1
    kernel_size: 4
    group: 8
    stride: 2
    weight_filler {
      type: "bilinear"
    }
  }
}
layer {
  name: "loss"
  type: "SoftmaxWithLoss"
  bottom: "out_deconv_final_up8"
  bottom: "label"
  top: "loss"
  propagate_down: true
  propagate_down: false
  loss_param {
    ignore_label: 255
    normalization: VALID
  }
}
I0711 18:09:31.133642  7290 layer_factory.hpp:77] Creating layer data
I0711 18:09:31.133656  7290 net.cpp:98] Creating Layer data
I0711 18:09:31.133659  7290 net.cpp:413] data -> data
I0711 18:09:31.133675  7290 net.cpp:413] data -> label
I0711 18:09:31.135936  7342 db_lmdb.cpp:35] Opened lmdb data/train-image-lmdb
I0711 18:09:31.165035  7347 db_lmdb.cpp:35] Opened lmdb data/train-label-lmdb
I0711 18:09:31.225064  7290 data_layer.cpp:78] ReshapePrefetch 5, 3, 640, 640
I0711 18:09:31.225127  7290 data_layer.cpp:83] output data size: 5,3,640,640
I0711 18:09:31.253641  7290 data_layer.cpp:78] ReshapePrefetch 5, 1, 640, 640
I0711 18:09:31.253711  7290 data_layer.cpp:83] output data size: 5,1,640,640
I0711 18:09:31.263092  7352 blocking_queue.cpp:50] Waiting for data
I0711 18:09:31.294282  7290 net.cpp:148] Setting up data
I0711 18:09:31.294306  7290 net.cpp:155] Top shape: 5 3 640 640 (6144000)
I0711 18:09:31.294308  7290 net.cpp:155] Top shape: 5 1 640 640 (2048000)
I0711 18:09:31.294311  7290 net.cpp:163] Memory required for data: 32768000
I0711 18:09:31.294317  7290 layer_factory.hpp:77] Creating layer data/bias
I0711 18:09:31.294332  7290 net.cpp:98] Creating Layer data/bias
I0711 18:09:31.294337  7290 net.cpp:439] data/bias <- data
I0711 18:09:31.294347  7290 net.cpp:413] data/bias -> data/bias
I0711 18:09:31.295812  7290 net.cpp:148] Setting up data/bias
I0711 18:09:31.295826  7290 net.cpp:155] Top shape: 5 3 640 640 (6144000)
I0711 18:09:31.295828  7290 net.cpp:163] Memory required for data: 57344000
I0711 18:09:31.295840  7290 layer_factory.hpp:77] Creating layer conv1a
I0711 18:09:31.295855  7290 net.cpp:98] Creating Layer conv1a
I0711 18:09:31.295866  7290 net.cpp:439] conv1a <- data/bias
I0711 18:09:31.295872  7290 net.cpp:413] conv1a -> conv1a
I0711 18:09:31.297780  7290 net.cpp:148] Setting up conv1a
I0711 18:09:31.297801  7290 net.cpp:155] Top shape: 5 32 320 320 (16384000)
I0711 18:09:31.297804  7290 net.cpp:163] Memory required for data: 122880000
I0711 18:09:31.297812  7290 layer_factory.hpp:77] Creating layer conv1a/bn
I0711 18:09:31.297821  7290 net.cpp:98] Creating Layer conv1a/bn
I0711 18:09:31.297827  7290 net.cpp:439] conv1a/bn <- conv1a
I0711 18:09:31.297832  7290 net.cpp:413] conv1a/bn -> conv1a/bn
I0711 18:09:31.299615  7290 net.cpp:148] Setting up conv1a/bn
I0711 18:09:31.299628  7290 net.cpp:155] Top shape: 5 32 320 320 (16384000)
I0711 18:09:31.299631  7290 net.cpp:163] Memory required for data: 188416000
I0711 18:09:31.299638  7290 layer_factory.hpp:77] Creating layer conv1a/relu
I0711 18:09:31.299643  7290 net.cpp:98] Creating Layer conv1a/relu
I0711 18:09:31.299645  7290 net.cpp:439] conv1a/relu <- conv1a/bn
I0711 18:09:31.299649  7290 net.cpp:400] conv1a/relu -> conv1a/bn (in-place)
I0711 18:09:31.299662  7290 net.cpp:148] Setting up conv1a/relu
I0711 18:09:31.299665  7290 net.cpp:155] Top shape: 5 32 320 320 (16384000)
I0711 18:09:31.299679  7290 net.cpp:163] Memory required for data: 253952000
I0711 18:09:31.299681  7290 layer_factory.hpp:77] Creating layer conv1b
I0711 18:09:31.299690  7290 net.cpp:98] Creating Layer conv1b
I0711 18:09:31.299695  7290 net.cpp:439] conv1b <- conv1a/bn
I0711 18:09:31.299700  7290 net.cpp:413] conv1b -> conv1b
I0711 18:09:31.300189  7290 net.cpp:148] Setting up conv1b
I0711 18:09:31.300195  7290 net.cpp:155] Top shape: 5 32 320 320 (16384000)
I0711 18:09:31.300199  7290 net.cpp:163] Memory required for data: 319488000
I0711 18:09:31.300202  7290 layer_factory.hpp:77] Creating layer conv1b/bn
I0711 18:09:31.300206  7290 net.cpp:98] Creating Layer conv1b/bn
I0711 18:09:31.300209  7290 net.cpp:439] conv1b/bn <- conv1b
I0711 18:09:31.300211  7290 net.cpp:413] conv1b/bn -> conv1b/bn
I0711 18:09:31.301023  7290 net.cpp:148] Setting up conv1b/bn
I0711 18:09:31.301030  7290 net.cpp:155] Top shape: 5 32 320 320 (16384000)
I0711 18:09:31.301033  7290 net.cpp:163] Memory required for data: 385024000
I0711 18:09:31.301038  7290 layer_factory.hpp:77] Creating layer conv1b/relu
I0711 18:09:31.301040  7290 net.cpp:98] Creating Layer conv1b/relu
I0711 18:09:31.301043  7290 net.cpp:439] conv1b/relu <- conv1b/bn
I0711 18:09:31.301045  7290 net.cpp:400] conv1b/relu -> conv1b/bn (in-place)
I0711 18:09:31.301049  7290 net.cpp:148] Setting up conv1b/relu
I0711 18:09:31.301051  7290 net.cpp:155] Top shape: 5 32 320 320 (16384000)
I0711 18:09:31.301054  7290 net.cpp:163] Memory required for data: 450560000
I0711 18:09:31.301055  7290 layer_factory.hpp:77] Creating layer pool1
I0711 18:09:31.301060  7290 net.cpp:98] Creating Layer pool1
I0711 18:09:31.301062  7290 net.cpp:439] pool1 <- conv1b/bn
I0711 18:09:31.301064  7290 net.cpp:413] pool1 -> pool1
I0711 18:09:31.301126  7290 net.cpp:148] Setting up pool1
I0711 18:09:31.301133  7290 net.cpp:155] Top shape: 5 32 160 160 (4096000)
I0711 18:09:31.301136  7290 net.cpp:163] Memory required for data: 466944000
I0711 18:09:31.301139  7290 layer_factory.hpp:77] Creating layer res2a_branch2a
I0711 18:09:31.301146  7290 net.cpp:98] Creating Layer res2a_branch2a
I0711 18:09:31.301149  7290 net.cpp:439] res2a_branch2a <- pool1
I0711 18:09:31.301154  7290 net.cpp:413] res2a_branch2a -> res2a_branch2a
I0711 18:09:31.302872  7290 net.cpp:148] Setting up res2a_branch2a
I0711 18:09:31.302883  7290 net.cpp:155] Top shape: 5 64 160 160 (8192000)
I0711 18:09:31.302886  7290 net.cpp:163] Memory required for data: 499712000
I0711 18:09:31.302891  7290 layer_factory.hpp:77] Creating layer res2a_branch2a/bn
I0711 18:09:31.302896  7290 net.cpp:98] Creating Layer res2a_branch2a/bn
I0711 18:09:31.302898  7290 net.cpp:439] res2a_branch2a/bn <- res2a_branch2a
I0711 18:09:31.302902  7290 net.cpp:413] res2a_branch2a/bn -> res2a_branch2a/bn
I0711 18:09:31.303670  7290 net.cpp:148] Setting up res2a_branch2a/bn
I0711 18:09:31.303678  7290 net.cpp:155] Top shape: 5 64 160 160 (8192000)
I0711 18:09:31.303680  7290 net.cpp:163] Memory required for data: 532480000
I0711 18:09:31.303688  7290 layer_factory.hpp:77] Creating layer res2a_branch2a/relu
I0711 18:09:31.303692  7290 net.cpp:98] Creating Layer res2a_branch2a/relu
I0711 18:09:31.303696  7290 net.cpp:439] res2a_branch2a/relu <- res2a_branch2a/bn
I0711 18:09:31.303701  7290 net.cpp:400] res2a_branch2a/relu -> res2a_branch2a/bn (in-place)
I0711 18:09:31.303707  7290 net.cpp:148] Setting up res2a_branch2a/relu
I0711 18:09:31.303712  7290 net.cpp:155] Top shape: 5 64 160 160 (8192000)
I0711 18:09:31.303715  7290 net.cpp:163] Memory required for data: 565248000
I0711 18:09:31.303719  7290 layer_factory.hpp:77] Creating layer res2a_branch2b
I0711 18:09:31.303725  7290 net.cpp:98] Creating Layer res2a_branch2b
I0711 18:09:31.303730  7290 net.cpp:439] res2a_branch2b <- res2a_branch2a/bn
I0711 18:09:31.303735  7290 net.cpp:413] res2a_branch2b -> res2a_branch2b
I0711 18:09:31.305222  7290 net.cpp:148] Setting up res2a_branch2b
I0711 18:09:31.305232  7290 net.cpp:155] Top shape: 5 64 160 160 (8192000)
I0711 18:09:31.305234  7290 net.cpp:163] Memory required for data: 598016000
I0711 18:09:31.305240  7290 layer_factory.hpp:77] Creating layer res2a_branch2b/bn
I0711 18:09:31.305248  7290 net.cpp:98] Creating Layer res2a_branch2b/bn
I0711 18:09:31.305253  7290 net.cpp:439] res2a_branch2b/bn <- res2a_branch2b
I0711 18:09:31.305258  7290 net.cpp:413] res2a_branch2b/bn -> res2a_branch2b/bn
I0711 18:09:31.306046  7290 net.cpp:148] Setting up res2a_branch2b/bn
I0711 18:09:31.306053  7290 net.cpp:155] Top shape: 5 64 160 160 (8192000)
I0711 18:09:31.306056  7290 net.cpp:163] Memory required for data: 630784000
I0711 18:09:31.306063  7290 layer_factory.hpp:77] Creating layer res2a_branch2b/relu
I0711 18:09:31.306069  7290 net.cpp:98] Creating Layer res2a_branch2b/relu
I0711 18:09:31.306073  7290 net.cpp:439] res2a_branch2b/relu <- res2a_branch2b/bn
I0711 18:09:31.306078  7290 net.cpp:400] res2a_branch2b/relu -> res2a_branch2b/bn (in-place)
I0711 18:09:31.306084  7290 net.cpp:148] Setting up res2a_branch2b/relu
I0711 18:09:31.306089  7290 net.cpp:155] Top shape: 5 64 160 160 (8192000)
I0711 18:09:31.306093  7290 net.cpp:163] Memory required for data: 663552000
I0711 18:09:31.306097  7290 layer_factory.hpp:77] Creating layer pool2
I0711 18:09:31.306102  7290 net.cpp:98] Creating Layer pool2
I0711 18:09:31.306105  7290 net.cpp:439] pool2 <- res2a_branch2b/bn
I0711 18:09:31.306109  7290 net.cpp:413] pool2 -> pool2
I0711 18:09:31.306165  7290 net.cpp:148] Setting up pool2
I0711 18:09:31.306172  7290 net.cpp:155] Top shape: 5 64 80 80 (2048000)
I0711 18:09:31.306176  7290 net.cpp:163] Memory required for data: 671744000
I0711 18:09:31.306180  7290 layer_factory.hpp:77] Creating layer res3a_branch2a
I0711 18:09:31.306187  7290 net.cpp:98] Creating Layer res3a_branch2a
I0711 18:09:31.306191  7290 net.cpp:439] res3a_branch2a <- pool2
I0711 18:09:31.306197  7290 net.cpp:413] res3a_branch2a -> res3a_branch2a
I0711 18:09:31.308032  7290 net.cpp:148] Setting up res3a_branch2a
I0711 18:09:31.308039  7290 net.cpp:155] Top shape: 5 128 80 80 (4096000)
I0711 18:09:31.308042  7290 net.cpp:163] Memory required for data: 688128000
I0711 18:09:31.308046  7290 layer_factory.hpp:77] Creating layer res3a_branch2a/bn
I0711 18:09:31.308053  7290 net.cpp:98] Creating Layer res3a_branch2a/bn
I0711 18:09:31.308056  7290 net.cpp:439] res3a_branch2a/bn <- res3a_branch2a
I0711 18:09:31.308061  7290 net.cpp:413] res3a_branch2a/bn -> res3a_branch2a/bn
I0711 18:09:31.308746  7290 net.cpp:148] Setting up res3a_branch2a/bn
I0711 18:09:31.308753  7290 net.cpp:155] Top shape: 5 128 80 80 (4096000)
I0711 18:09:31.308756  7290 net.cpp:163] Memory required for data: 704512000
I0711 18:09:31.308765  7290 layer_factory.hpp:77] Creating layer res3a_branch2a/relu
I0711 18:09:31.308771  7290 net.cpp:98] Creating Layer res3a_branch2a/relu
I0711 18:09:31.308775  7290 net.cpp:439] res3a_branch2a/relu <- res3a_branch2a/bn
I0711 18:09:31.308779  7290 net.cpp:400] res3a_branch2a/relu -> res3a_branch2a/bn (in-place)
I0711 18:09:31.308785  7290 net.cpp:148] Setting up res3a_branch2a/relu
I0711 18:09:31.308790  7290 net.cpp:155] Top shape: 5 128 80 80 (4096000)
I0711 18:09:31.308794  7290 net.cpp:163] Memory required for data: 720896000
I0711 18:09:31.308799  7290 layer_factory.hpp:77] Creating layer res3a_branch2b
I0711 18:09:31.308805  7290 net.cpp:98] Creating Layer res3a_branch2b
I0711 18:09:31.308809  7290 net.cpp:439] res3a_branch2b <- res3a_branch2a/bn
I0711 18:09:31.308817  7290 net.cpp:413] res3a_branch2b -> res3a_branch2b
I0711 18:09:31.309854  7290 net.cpp:148] Setting up res3a_branch2b
I0711 18:09:31.309860  7290 net.cpp:155] Top shape: 5 128 80 80 (4096000)
I0711 18:09:31.309864  7290 net.cpp:163] Memory required for data: 737280000
I0711 18:09:31.309867  7290 layer_factory.hpp:77] Creating layer res3a_branch2b/bn
I0711 18:09:31.309875  7290 net.cpp:98] Creating Layer res3a_branch2b/bn
I0711 18:09:31.309880  7290 net.cpp:439] res3a_branch2b/bn <- res3a_branch2b
I0711 18:09:31.309885  7290 net.cpp:413] res3a_branch2b/bn -> res3a_branch2b/bn
I0711 18:09:31.310531  7290 net.cpp:148] Setting up res3a_branch2b/bn
I0711 18:09:31.310539  7290 net.cpp:155] Top shape: 5 128 80 80 (4096000)
I0711 18:09:31.310541  7290 net.cpp:163] Memory required for data: 753664000
I0711 18:09:31.310549  7290 layer_factory.hpp:77] Creating layer res3a_branch2b/relu
I0711 18:09:31.310554  7290 net.cpp:98] Creating Layer res3a_branch2b/relu
I0711 18:09:31.310557  7290 net.cpp:439] res3a_branch2b/relu <- res3a_branch2b/bn
I0711 18:09:31.310571  7290 net.cpp:400] res3a_branch2b/relu -> res3a_branch2b/bn (in-place)
I0711 18:09:31.310578  7290 net.cpp:148] Setting up res3a_branch2b/relu
I0711 18:09:31.310582  7290 net.cpp:155] Top shape: 5 128 80 80 (4096000)
I0711 18:09:31.310586  7290 net.cpp:163] Memory required for data: 770048000
I0711 18:09:31.310590  7290 layer_factory.hpp:77] Creating layer res3a_branch2b/bn_res3a_branch2b/relu_0_split
I0711 18:09:31.310595  7290 net.cpp:98] Creating Layer res3a_branch2b/bn_res3a_branch2b/relu_0_split
I0711 18:09:31.310600  7290 net.cpp:439] res3a_branch2b/bn_res3a_branch2b/relu_0_split <- res3a_branch2b/bn
I0711 18:09:31.310605  7290 net.cpp:413] res3a_branch2b/bn_res3a_branch2b/relu_0_split -> res3a_branch2b/bn_res3a_branch2b/relu_0_split_0
I0711 18:09:31.310609  7290 net.cpp:413] res3a_branch2b/bn_res3a_branch2b/relu_0_split -> res3a_branch2b/bn_res3a_branch2b/relu_0_split_1
I0711 18:09:31.310659  7290 net.cpp:148] Setting up res3a_branch2b/bn_res3a_branch2b/relu_0_split
I0711 18:09:31.310667  7290 net.cpp:155] Top shape: 5 128 80 80 (4096000)
I0711 18:09:31.310670  7290 net.cpp:155] Top shape: 5 128 80 80 (4096000)
I0711 18:09:31.310674  7290 net.cpp:163] Memory required for data: 802816000
I0711 18:09:31.310678  7290 layer_factory.hpp:77] Creating layer pool3
I0711 18:09:31.310683  7290 net.cpp:98] Creating Layer pool3
I0711 18:09:31.310688  7290 net.cpp:439] pool3 <- res3a_branch2b/bn_res3a_branch2b/relu_0_split_0
I0711 18:09:31.310691  7290 net.cpp:413] pool3 -> pool3
I0711 18:09:31.310744  7290 net.cpp:148] Setting up pool3
I0711 18:09:31.310750  7290 net.cpp:155] Top shape: 5 128 40 40 (1024000)
I0711 18:09:31.310753  7290 net.cpp:163] Memory required for data: 806912000
I0711 18:09:31.310756  7290 layer_factory.hpp:77] Creating layer res4a_branch2a
I0711 18:09:31.310763  7290 net.cpp:98] Creating Layer res4a_branch2a
I0711 18:09:31.310767  7290 net.cpp:439] res4a_branch2a <- pool3
I0711 18:09:31.310772  7290 net.cpp:413] res4a_branch2a -> res4a_branch2a
I0711 18:09:31.317945  7290 net.cpp:148] Setting up res4a_branch2a
I0711 18:09:31.317966  7290 net.cpp:155] Top shape: 5 256 40 40 (2048000)
I0711 18:09:31.317970  7290 net.cpp:163] Memory required for data: 815104000
I0711 18:09:31.317975  7290 layer_factory.hpp:77] Creating layer res4a_branch2a/bn
I0711 18:09:31.317986  7290 net.cpp:98] Creating Layer res4a_branch2a/bn
I0711 18:09:31.317992  7290 net.cpp:439] res4a_branch2a/bn <- res4a_branch2a
I0711 18:09:31.317998  7290 net.cpp:413] res4a_branch2a/bn -> res4a_branch2a/bn
I0711 18:09:31.318740  7290 net.cpp:148] Setting up res4a_branch2a/bn
I0711 18:09:31.318748  7290 net.cpp:155] Top shape: 5 256 40 40 (2048000)
I0711 18:09:31.318750  7290 net.cpp:163] Memory required for data: 823296000
I0711 18:09:31.318756  7290 layer_factory.hpp:77] Creating layer res4a_branch2a/relu
I0711 18:09:31.318763  7290 net.cpp:98] Creating Layer res4a_branch2a/relu
I0711 18:09:31.318765  7290 net.cpp:439] res4a_branch2a/relu <- res4a_branch2a/bn
I0711 18:09:31.318769  7290 net.cpp:400] res4a_branch2a/relu -> res4a_branch2a/bn (in-place)
I0711 18:09:31.318776  7290 net.cpp:148] Setting up res4a_branch2a/relu
I0711 18:09:31.318781  7290 net.cpp:155] Top shape: 5 256 40 40 (2048000)
I0711 18:09:31.318784  7290 net.cpp:163] Memory required for data: 831488000
I0711 18:09:31.318789  7290 layer_factory.hpp:77] Creating layer res4a_branch2b
I0711 18:09:31.318797  7290 net.cpp:98] Creating Layer res4a_branch2b
I0711 18:09:31.318801  7290 net.cpp:439] res4a_branch2b <- res4a_branch2a/bn
I0711 18:09:31.318806  7290 net.cpp:413] res4a_branch2b -> res4a_branch2b
I0711 18:09:31.322146  7290 net.cpp:148] Setting up res4a_branch2b
I0711 18:09:31.322154  7290 net.cpp:155] Top shape: 5 256 40 40 (2048000)
I0711 18:09:31.322156  7290 net.cpp:163] Memory required for data: 839680000
I0711 18:09:31.322160  7290 layer_factory.hpp:77] Creating layer res4a_branch2b/bn
I0711 18:09:31.322165  7290 net.cpp:98] Creating Layer res4a_branch2b/bn
I0711 18:09:31.322168  7290 net.cpp:439] res4a_branch2b/bn <- res4a_branch2b
I0711 18:09:31.322186  7290 net.cpp:413] res4a_branch2b/bn -> res4a_branch2b/bn
I0711 18:09:31.322883  7290 net.cpp:148] Setting up res4a_branch2b/bn
I0711 18:09:31.322890  7290 net.cpp:155] Top shape: 5 256 40 40 (2048000)
I0711 18:09:31.322892  7290 net.cpp:163] Memory required for data: 847872000
I0711 18:09:31.322898  7290 layer_factory.hpp:77] Creating layer res4a_branch2b/relu
I0711 18:09:31.322903  7290 net.cpp:98] Creating Layer res4a_branch2b/relu
I0711 18:09:31.322907  7290 net.cpp:439] res4a_branch2b/relu <- res4a_branch2b/bn
I0711 18:09:31.322912  7290 net.cpp:400] res4a_branch2b/relu -> res4a_branch2b/bn (in-place)
I0711 18:09:31.322918  7290 net.cpp:148] Setting up res4a_branch2b/relu
I0711 18:09:31.322923  7290 net.cpp:155] Top shape: 5 256 40 40 (2048000)
I0711 18:09:31.322926  7290 net.cpp:163] Memory required for data: 856064000
I0711 18:09:31.322931  7290 layer_factory.hpp:77] Creating layer pool4
I0711 18:09:31.322937  7290 net.cpp:98] Creating Layer pool4
I0711 18:09:31.322940  7290 net.cpp:439] pool4 <- res4a_branch2b/bn
I0711 18:09:31.322944  7290 net.cpp:413] pool4 -> pool4
I0711 18:09:31.322995  7290 net.cpp:148] Setting up pool4
I0711 18:09:31.323001  7290 net.cpp:155] Top shape: 5 256 40 40 (2048000)
I0711 18:09:31.323005  7290 net.cpp:163] Memory required for data: 864256000
I0711 18:09:31.323009  7290 layer_factory.hpp:77] Creating layer res5a_branch2a
I0711 18:09:31.323016  7290 net.cpp:98] Creating Layer res5a_branch2a
I0711 18:09:31.323021  7290 net.cpp:439] res5a_branch2a <- pool4
I0711 18:09:31.323026  7290 net.cpp:413] res5a_branch2a -> res5a_branch2a
I0711 18:09:31.349087  7290 net.cpp:148] Setting up res5a_branch2a
I0711 18:09:31.349112  7290 net.cpp:155] Top shape: 5 512 40 40 (4096000)
I0711 18:09:31.349114  7290 net.cpp:163] Memory required for data: 880640000
I0711 18:09:31.349122  7290 layer_factory.hpp:77] Creating layer res5a_branch2a/bn
I0711 18:09:31.349135  7290 net.cpp:98] Creating Layer res5a_branch2a/bn
I0711 18:09:31.349151  7290 net.cpp:439] res5a_branch2a/bn <- res5a_branch2a
I0711 18:09:31.349162  7290 net.cpp:413] res5a_branch2a/bn -> res5a_branch2a/bn
I0711 18:09:31.349946  7290 net.cpp:148] Setting up res5a_branch2a/bn
I0711 18:09:31.349956  7290 net.cpp:155] Top shape: 5 512 40 40 (4096000)
I0711 18:09:31.349958  7290 net.cpp:163] Memory required for data: 897024000
I0711 18:09:31.349964  7290 layer_factory.hpp:77] Creating layer res5a_branch2a/relu
I0711 18:09:31.349970  7290 net.cpp:98] Creating Layer res5a_branch2a/relu
I0711 18:09:31.349975  7290 net.cpp:439] res5a_branch2a/relu <- res5a_branch2a/bn
I0711 18:09:31.349979  7290 net.cpp:400] res5a_branch2a/relu -> res5a_branch2a/bn (in-place)
I0711 18:09:31.349985  7290 net.cpp:148] Setting up res5a_branch2a/relu
I0711 18:09:31.349990  7290 net.cpp:155] Top shape: 5 512 40 40 (4096000)
I0711 18:09:31.349994  7290 net.cpp:163] Memory required for data: 913408000
I0711 18:09:31.349997  7290 layer_factory.hpp:77] Creating layer res5a_branch2b
I0711 18:09:31.350008  7290 net.cpp:98] Creating Layer res5a_branch2b
I0711 18:09:31.350011  7290 net.cpp:439] res5a_branch2b <- res5a_branch2a/bn
I0711 18:09:31.350016  7290 net.cpp:413] res5a_branch2b -> res5a_branch2b
I0711 18:09:31.363626  7290 net.cpp:148] Setting up res5a_branch2b
I0711 18:09:31.363646  7290 net.cpp:155] Top shape: 5 512 40 40 (4096000)
I0711 18:09:31.363649  7290 net.cpp:163] Memory required for data: 929792000
I0711 18:09:31.363661  7290 layer_factory.hpp:77] Creating layer res5a_branch2b/bn
I0711 18:09:31.363672  7290 net.cpp:98] Creating Layer res5a_branch2b/bn
I0711 18:09:31.363677  7290 net.cpp:439] res5a_branch2b/bn <- res5a_branch2b
I0711 18:09:31.363682  7290 net.cpp:413] res5a_branch2b/bn -> res5a_branch2b/bn
I0711 18:09:31.364440  7290 net.cpp:148] Setting up res5a_branch2b/bn
I0711 18:09:31.364449  7290 net.cpp:155] Top shape: 5 512 40 40 (4096000)
I0711 18:09:31.364451  7290 net.cpp:163] Memory required for data: 946176000
I0711 18:09:31.364456  7290 layer_factory.hpp:77] Creating layer res5a_branch2b/relu
I0711 18:09:31.364470  7290 net.cpp:98] Creating Layer res5a_branch2b/relu
I0711 18:09:31.364472  7290 net.cpp:439] res5a_branch2b/relu <- res5a_branch2b/bn
I0711 18:09:31.364475  7290 net.cpp:400] res5a_branch2b/relu -> res5a_branch2b/bn (in-place)
I0711 18:09:31.364480  7290 net.cpp:148] Setting up res5a_branch2b/relu
I0711 18:09:31.364482  7290 net.cpp:155] Top shape: 5 512 40 40 (4096000)
I0711 18:09:31.364485  7290 net.cpp:163] Memory required for data: 962560000
I0711 18:09:31.364487  7290 layer_factory.hpp:77] Creating layer out5a
I0711 18:09:31.364496  7290 net.cpp:98] Creating Layer out5a
I0711 18:09:31.364500  7290 net.cpp:439] out5a <- res5a_branch2b/bn
I0711 18:09:31.364506  7290 net.cpp:413] out5a -> out5a
I0711 18:09:31.368798  7290 net.cpp:148] Setting up out5a
I0711 18:09:31.368808  7290 net.cpp:155] Top shape: 5 64 40 40 (512000)
I0711 18:09:31.368811  7290 net.cpp:163] Memory required for data: 964608000
I0711 18:09:31.368821  7290 layer_factory.hpp:77] Creating layer out5a/bn
I0711 18:09:31.368830  7290 net.cpp:98] Creating Layer out5a/bn
I0711 18:09:31.368835  7290 net.cpp:439] out5a/bn <- out5a
I0711 18:09:31.368841  7290 net.cpp:413] out5a/bn -> out5a/bn
I0711 18:09:31.369621  7290 net.cpp:148] Setting up out5a/bn
I0711 18:09:31.369629  7290 net.cpp:155] Top shape: 5 64 40 40 (512000)
I0711 18:09:31.369632  7290 net.cpp:163] Memory required for data: 966656000
I0711 18:09:31.369637  7290 layer_factory.hpp:77] Creating layer out5a/relu
I0711 18:09:31.369640  7290 net.cpp:98] Creating Layer out5a/relu
I0711 18:09:31.369642  7290 net.cpp:439] out5a/relu <- out5a/bn
I0711 18:09:31.369647  7290 net.cpp:400] out5a/relu -> out5a/bn (in-place)
I0711 18:09:31.369650  7290 net.cpp:148] Setting up out5a/relu
I0711 18:09:31.369653  7290 net.cpp:155] Top shape: 5 64 40 40 (512000)
I0711 18:09:31.369657  7290 net.cpp:163] Memory required for data: 968704000
I0711 18:09:31.369658  7290 layer_factory.hpp:77] Creating layer out5a_up2
I0711 18:09:31.369668  7290 net.cpp:98] Creating Layer out5a_up2
I0711 18:09:31.369673  7290 net.cpp:439] out5a_up2 <- out5a/bn
I0711 18:09:31.369680  7290 net.cpp:413] out5a_up2 -> out5a_up2
I0711 18:09:31.370033  7290 net.cpp:148] Setting up out5a_up2
I0711 18:09:31.370039  7290 net.cpp:155] Top shape: 5 64 80 80 (2048000)
I0711 18:09:31.370041  7290 net.cpp:163] Memory required for data: 976896000
I0711 18:09:31.370045  7290 layer_factory.hpp:77] Creating layer out3a
I0711 18:09:31.370050  7290 net.cpp:98] Creating Layer out3a
I0711 18:09:31.370054  7290 net.cpp:439] out3a <- res3a_branch2b/bn_res3a_branch2b/relu_0_split_1
I0711 18:09:31.370056  7290 net.cpp:413] out3a -> out3a
I0711 18:09:31.371141  7290 net.cpp:148] Setting up out3a
I0711 18:09:31.371150  7290 net.cpp:155] Top shape: 5 64 80 80 (2048000)
I0711 18:09:31.371151  7290 net.cpp:163] Memory required for data: 985088000
I0711 18:09:31.371155  7290 layer_factory.hpp:77] Creating layer out3a/bn
I0711 18:09:31.371175  7290 net.cpp:98] Creating Layer out3a/bn
I0711 18:09:31.371181  7290 net.cpp:439] out3a/bn <- out3a
I0711 18:09:31.371187  7290 net.cpp:413] out3a/bn -> out3a/bn
I0711 18:09:31.371954  7290 net.cpp:148] Setting up out3a/bn
I0711 18:09:31.371961  7290 net.cpp:155] Top shape: 5 64 80 80 (2048000)
I0711 18:09:31.371964  7290 net.cpp:163] Memory required for data: 993280000
I0711 18:09:31.371971  7290 layer_factory.hpp:77] Creating layer out3a/relu
I0711 18:09:31.371976  7290 net.cpp:98] Creating Layer out3a/relu
I0711 18:09:31.371980  7290 net.cpp:439] out3a/relu <- out3a/bn
I0711 18:09:31.371985  7290 net.cpp:400] out3a/relu -> out3a/bn (in-place)
I0711 18:09:31.371991  7290 net.cpp:148] Setting up out3a/relu
I0711 18:09:31.371996  7290 net.cpp:155] Top shape: 5 64 80 80 (2048000)
I0711 18:09:31.372000  7290 net.cpp:163] Memory required for data: 1001472000
I0711 18:09:31.372004  7290 layer_factory.hpp:77] Creating layer out3_out5_combined
I0711 18:09:31.372014  7290 net.cpp:98] Creating Layer out3_out5_combined
I0711 18:09:31.372017  7290 net.cpp:439] out3_out5_combined <- out5a_up2
I0711 18:09:31.372021  7290 net.cpp:439] out3_out5_combined <- out3a/bn
I0711 18:09:31.372035  7290 net.cpp:413] out3_out5_combined -> out3_out5_combined
I0711 18:09:31.372067  7290 net.cpp:148] Setting up out3_out5_combined
I0711 18:09:31.372074  7290 net.cpp:155] Top shape: 5 64 80 80 (2048000)
I0711 18:09:31.372077  7290 net.cpp:163] Memory required for data: 1009664000
I0711 18:09:31.372081  7290 layer_factory.hpp:77] Creating layer ctx_conv1
I0711 18:09:31.372087  7290 net.cpp:98] Creating Layer ctx_conv1
I0711 18:09:31.372092  7290 net.cpp:439] ctx_conv1 <- out3_out5_combined
I0711 18:09:31.372098  7290 net.cpp:413] ctx_conv1 -> ctx_conv1
I0711 18:09:31.373149  7290 net.cpp:148] Setting up ctx_conv1
I0711 18:09:31.373157  7290 net.cpp:155] Top shape: 5 64 80 80 (2048000)
I0711 18:09:31.373158  7290 net.cpp:163] Memory required for data: 1017856000
I0711 18:09:31.373162  7290 layer_factory.hpp:77] Creating layer ctx_conv1/bn
I0711 18:09:31.373167  7290 net.cpp:98] Creating Layer ctx_conv1/bn
I0711 18:09:31.373170  7290 net.cpp:439] ctx_conv1/bn <- ctx_conv1
I0711 18:09:31.373176  7290 net.cpp:413] ctx_conv1/bn -> ctx_conv1/bn
I0711 18:09:31.373924  7290 net.cpp:148] Setting up ctx_conv1/bn
I0711 18:09:31.373932  7290 net.cpp:155] Top shape: 5 64 80 80 (2048000)
I0711 18:09:31.373935  7290 net.cpp:163] Memory required for data: 1026048000
I0711 18:09:31.373944  7290 layer_factory.hpp:77] Creating layer ctx_conv1/relu
I0711 18:09:31.373958  7290 net.cpp:98] Creating Layer ctx_conv1/relu
I0711 18:09:31.373965  7290 net.cpp:439] ctx_conv1/relu <- ctx_conv1/bn
I0711 18:09:31.373968  7290 net.cpp:400] ctx_conv1/relu -> ctx_conv1/bn (in-place)
I0711 18:09:31.373977  7290 net.cpp:148] Setting up ctx_conv1/relu
I0711 18:09:31.373982  7290 net.cpp:155] Top shape: 5 64 80 80 (2048000)
I0711 18:09:31.373987  7290 net.cpp:163] Memory required for data: 1034240000
I0711 18:09:31.373991  7290 layer_factory.hpp:77] Creating layer ctx_conv2
I0711 18:09:31.374001  7290 net.cpp:98] Creating Layer ctx_conv2
I0711 18:09:31.374004  7290 net.cpp:439] ctx_conv2 <- ctx_conv1/bn
I0711 18:09:31.374008  7290 net.cpp:413] ctx_conv2 -> ctx_conv2
I0711 18:09:31.375102  7290 net.cpp:148] Setting up ctx_conv2
I0711 18:09:31.375110  7290 net.cpp:155] Top shape: 5 64 80 80 (2048000)
I0711 18:09:31.375113  7290 net.cpp:163] Memory required for data: 1042432000
I0711 18:09:31.375118  7290 layer_factory.hpp:77] Creating layer ctx_conv2/bn
I0711 18:09:31.375133  7290 net.cpp:98] Creating Layer ctx_conv2/bn
I0711 18:09:31.375139  7290 net.cpp:439] ctx_conv2/bn <- ctx_conv2
I0711 18:09:31.375144  7290 net.cpp:413] ctx_conv2/bn -> ctx_conv2/bn
I0711 18:09:31.375896  7290 net.cpp:148] Setting up ctx_conv2/bn
I0711 18:09:31.375902  7290 net.cpp:155] Top shape: 5 64 80 80 (2048000)
I0711 18:09:31.375905  7290 net.cpp:163] Memory required for data: 1050624000
I0711 18:09:31.375912  7290 layer_factory.hpp:77] Creating layer ctx_conv2/relu
I0711 18:09:31.375926  7290 net.cpp:98] Creating Layer ctx_conv2/relu
I0711 18:09:31.375929  7290 net.cpp:439] ctx_conv2/relu <- ctx_conv2/bn
I0711 18:09:31.375932  7290 net.cpp:400] ctx_conv2/relu -> ctx_conv2/bn (in-place)
I0711 18:09:31.375941  7290 net.cpp:148] Setting up ctx_conv2/relu
I0711 18:09:31.375949  7290 net.cpp:155] Top shape: 5 64 80 80 (2048000)
I0711 18:09:31.375954  7290 net.cpp:163] Memory required for data: 1058816000
I0711 18:09:31.375957  7290 layer_factory.hpp:77] Creating layer ctx_conv3
I0711 18:09:31.375964  7290 net.cpp:98] Creating Layer ctx_conv3
I0711 18:09:31.375969  7290 net.cpp:439] ctx_conv3 <- ctx_conv2/bn
I0711 18:09:31.375974  7290 net.cpp:413] ctx_conv3 -> ctx_conv3
I0711 18:09:31.377029  7290 net.cpp:148] Setting up ctx_conv3
I0711 18:09:31.377037  7290 net.cpp:155] Top shape: 5 64 80 80 (2048000)
I0711 18:09:31.377038  7290 net.cpp:163] Memory required for data: 1067008000
I0711 18:09:31.377043  7290 layer_factory.hpp:77] Creating layer ctx_conv3/bn
I0711 18:09:31.377050  7290 net.cpp:98] Creating Layer ctx_conv3/bn
I0711 18:09:31.377054  7290 net.cpp:439] ctx_conv3/bn <- ctx_conv3
I0711 18:09:31.377060  7290 net.cpp:413] ctx_conv3/bn -> ctx_conv3/bn
I0711 18:09:31.377812  7290 net.cpp:148] Setting up ctx_conv3/bn
I0711 18:09:31.377820  7290 net.cpp:155] Top shape: 5 64 80 80 (2048000)
I0711 18:09:31.377822  7290 net.cpp:163] Memory required for data: 1075200000
I0711 18:09:31.377830  7290 layer_factory.hpp:77] Creating layer ctx_conv3/relu
I0711 18:09:31.377836  7290 net.cpp:98] Creating Layer ctx_conv3/relu
I0711 18:09:31.377840  7290 net.cpp:439] ctx_conv3/relu <- ctx_conv3/bn
I0711 18:09:31.377846  7290 net.cpp:400] ctx_conv3/relu -> ctx_conv3/bn (in-place)
I0711 18:09:31.377853  7290 net.cpp:148] Setting up ctx_conv3/relu
I0711 18:09:31.377858  7290 net.cpp:155] Top shape: 5 64 80 80 (2048000)
I0711 18:09:31.377861  7290 net.cpp:163] Memory required for data: 1083392000
I0711 18:09:31.377866  7290 layer_factory.hpp:77] Creating layer ctx_conv4
I0711 18:09:31.377873  7290 net.cpp:98] Creating Layer ctx_conv4
I0711 18:09:31.377877  7290 net.cpp:439] ctx_conv4 <- ctx_conv3/bn
I0711 18:09:31.377882  7290 net.cpp:413] ctx_conv4 -> ctx_conv4
I0711 18:09:31.378926  7290 net.cpp:148] Setting up ctx_conv4
I0711 18:09:31.378931  7290 net.cpp:155] Top shape: 5 64 80 80 (2048000)
I0711 18:09:31.378933  7290 net.cpp:163] Memory required for data: 1091584000
I0711 18:09:31.378938  7290 layer_factory.hpp:77] Creating layer ctx_conv4/bn
I0711 18:09:31.378944  7290 net.cpp:98] Creating Layer ctx_conv4/bn
I0711 18:09:31.378948  7290 net.cpp:439] ctx_conv4/bn <- ctx_conv4
I0711 18:09:31.378954  7290 net.cpp:413] ctx_conv4/bn -> ctx_conv4/bn
I0711 18:09:31.379688  7290 net.cpp:148] Setting up ctx_conv4/bn
I0711 18:09:31.379694  7290 net.cpp:155] Top shape: 5 64 80 80 (2048000)
I0711 18:09:31.379698  7290 net.cpp:163] Memory required for data: 1099776000
I0711 18:09:31.379704  7290 layer_factory.hpp:77] Creating layer ctx_conv4/relu
I0711 18:09:31.379710  7290 net.cpp:98] Creating Layer ctx_conv4/relu
I0711 18:09:31.379714  7290 net.cpp:439] ctx_conv4/relu <- ctx_conv4/bn
I0711 18:09:31.379719  7290 net.cpp:400] ctx_conv4/relu -> ctx_conv4/bn (in-place)
I0711 18:09:31.379726  7290 net.cpp:148] Setting up ctx_conv4/relu
I0711 18:09:31.379731  7290 net.cpp:155] Top shape: 5 64 80 80 (2048000)
I0711 18:09:31.379735  7290 net.cpp:163] Memory required for data: 1107968000
I0711 18:09:31.379739  7290 layer_factory.hpp:77] Creating layer ctx_final
I0711 18:09:31.379745  7290 net.cpp:98] Creating Layer ctx_final
I0711 18:09:31.379750  7290 net.cpp:439] ctx_final <- ctx_conv4/bn
I0711 18:09:31.379753  7290 net.cpp:413] ctx_final -> ctx_final
I0711 18:09:31.380157  7290 net.cpp:148] Setting up ctx_final
I0711 18:09:31.380163  7290 net.cpp:155] Top shape: 5 8 80 80 (256000)
I0711 18:09:31.380165  7290 net.cpp:163] Memory required for data: 1108992000
I0711 18:09:31.380170  7290 layer_factory.hpp:77] Creating layer ctx_final/relu
I0711 18:09:31.380177  7290 net.cpp:98] Creating Layer ctx_final/relu
I0711 18:09:31.380179  7290 net.cpp:439] ctx_final/relu <- ctx_final
I0711 18:09:31.380182  7290 net.cpp:400] ctx_final/relu -> ctx_final (in-place)
I0711 18:09:31.380185  7290 net.cpp:148] Setting up ctx_final/relu
I0711 18:09:31.380187  7290 net.cpp:155] Top shape: 5 8 80 80 (256000)
I0711 18:09:31.380189  7290 net.cpp:163] Memory required for data: 1110016000
I0711 18:09:31.380192  7290 layer_factory.hpp:77] Creating layer out_deconv_final_up2
I0711 18:09:31.380197  7290 net.cpp:98] Creating Layer out_deconv_final_up2
I0711 18:09:31.380198  7290 net.cpp:439] out_deconv_final_up2 <- ctx_final
I0711 18:09:31.380201  7290 net.cpp:413] out_deconv_final_up2 -> out_deconv_final_up2
I0711 18:09:31.380440  7290 net.cpp:148] Setting up out_deconv_final_up2
I0711 18:09:31.380446  7290 net.cpp:155] Top shape: 5 8 160 160 (1024000)
I0711 18:09:31.380448  7290 net.cpp:163] Memory required for data: 1114112000
I0711 18:09:31.380453  7290 layer_factory.hpp:77] Creating layer out_deconv_final_up4
I0711 18:09:31.380466  7290 net.cpp:98] Creating Layer out_deconv_final_up4
I0711 18:09:31.380470  7290 net.cpp:439] out_deconv_final_up4 <- out_deconv_final_up2
I0711 18:09:31.380475  7290 net.cpp:413] out_deconv_final_up4 -> out_deconv_final_up4
I0711 18:09:31.380718  7290 net.cpp:148] Setting up out_deconv_final_up4
I0711 18:09:31.380724  7290 net.cpp:155] Top shape: 5 8 320 320 (4096000)
I0711 18:09:31.380728  7290 net.cpp:163] Memory required for data: 1130496000
I0711 18:09:31.380733  7290 layer_factory.hpp:77] Creating layer out_deconv_final_up8
I0711 18:09:31.380738  7290 net.cpp:98] Creating Layer out_deconv_final_up8
I0711 18:09:31.380743  7290 net.cpp:439] out_deconv_final_up8 <- out_deconv_final_up4
I0711 18:09:31.380746  7290 net.cpp:413] out_deconv_final_up8 -> out_deconv_final_up8
I0711 18:09:31.380987  7290 net.cpp:148] Setting up out_deconv_final_up8
I0711 18:09:31.380995  7290 net.cpp:155] Top shape: 5 8 640 640 (16384000)
I0711 18:09:31.380997  7290 net.cpp:163] Memory required for data: 1196032000
I0711 18:09:31.381002  7290 layer_factory.hpp:77] Creating layer loss
I0711 18:09:31.381007  7290 net.cpp:98] Creating Layer loss
I0711 18:09:31.381011  7290 net.cpp:439] loss <- out_deconv_final_up8
I0711 18:09:31.381014  7290 net.cpp:439] loss <- label
I0711 18:09:31.381021  7290 net.cpp:413] loss -> loss
…
I0711 18:09:31.409572  7290 solver.cpp:182] Creating test net (#0) specified by test_net file: training/cityscapes5_jsegnet21v2_2017-07-11_18-09-28/initial/test.prototxt
I0711 18:09:31.409873  7290 net.cpp:56] Initializing net from parameters: 
name: "jsegnet21v2_test"
state {
  phase: TEST
}
layer {
  name: "data"
  type: "ImageLabelData"
  top: "data"
  top: "label"
  transform_param {
    mirror: false
    crop_size: 640
    mean_value: 0
  }
  image_label_data_param {
    image_list_path: "data/val-image-lmdb"
    label_list_path: "data/val-label-lmdb"
    batch_size: 4
    threads: 4
    backend: LMDB
  }
}
layer {
  name: "data/bias"
  type: "Bias"
  bottom: "data"
  top: "data/bias"
  param {
    lr_mult: 0
    decay_mult: 0
  }
  bias_param {
    filler {
      type: "constant"
      value: -128
    }
  }
}
layer {
  name: "conv1a"
  type: "Convolution"
  bottom: "data/bias"
  top: "conv1a"
  param {
    lr_mult: 1
    decay_mult: 1
  }
  param {
    lr_mult: 2
    decay_mult: 0
  }
  convolution_param {
    num_output: 32
    bias_term: true
    pad: 2
    kernel_size: 5
    group: 1
    stride: 2
    weight_filler {
      type: "msra"
    }
    bias_filler {
      type: "constant"
      value: 0
    }
    dilation: 1
  }
}
layer {
  name: "conv1a/bn"
  type: "BatchNorm"
  bottom: "conv1a"
  top: "conv1a/bn"
  param {
    lr_mult: 1
    decay_mult: 1
  }
  param {
    lr_mult: 1
    decay_mult: 1
  }
  param {
    lr_mult: 0
    decay_mult: 0
  }
  param {
    lr_mult: 0
    decay_mult: 0
  }
  batch_norm_param {
    moving_average_fraction: 0.99
    eps: 0.0001
    scale_filler {
      type: "constant"
      value: 1
    }
    bias_filler {
      type: "constant"
      value: 0
    }
  }
}
layer {
  name: "conv1a/relu"
  type: "ReLU"
  bottom: "conv1a/bn"
  top: "conv1a/bn"
}
layer {
  name: "conv1b"
  type: "Convolution"
  bottom: "conv1a/bn"
  top: "conv1b"
  param {
    lr_mult: 1
    decay_mult: 1
  }
  param {
    lr_mult: 2
    decay_mult: 0
  }
  convolution_param {
    num_output: 32
    bias_term: true
    pad: 1
    kernel_size: 3
    group: 4
    stride: 1
    weight_filler {
      type: "msra"
    }
    bias_filler {
      type: "constant"
      value: 0
    }
    dilation: 1
  }
}
layer {
  name: "conv1b/bn"
  type: "BatchNorm"
  bottom: "conv1b"
  top: "conv1b/bn"
  param {
    lr_mult: 1
    decay_mult: 1
  }
  param {
    lr_mult: 1
    decay_mult: 1
  }
  param {
    lr_mult: 0
    decay_mult: 0
  }
  param {
    lr_mult: 0
    decay_mult: 0
  }
  batch_norm_param {
    moving_average_fraction: 0.99
    eps: 0.0001
    scale_filler {
      type: "constant"
      value: 1
    }
    bias_filler {
      type: "constant"
      value: 0
    }
  }
}
layer {
  name: "conv1b/relu"
  type: "ReLU"
  bottom: "conv1b/bn"
  top: "conv1b/bn"
}
layer {
  name: "pool1"
  type: "Pooling"
  bottom: "conv1b/bn"
  top: "pool1"
  pooling_param {
    pool: MAX
    kernel_size: 2
    stride: 2
  }
}
layer {
  name: "res2a_branch2a"
  type: "Convolution"
  bottom: "pool1"
  top: "res2a_branch2a"
  param {
    lr_mult: 1
    decay_mult: 1
  }
  param {
    lr_mult: 2
    decay_mult: 0
  }
  convolution_param {
    num_output: 64
    bias_term: true
    pad: 1
    kernel_size: 3
    group: 1
    stride: 1
    weight_filler {
      type: "msra"
    }
    bias_filler {
      type: "constant"
      value: 0
    }
    dilation: 1
  }
}
layer {
  name: "res2a_branch2a/bn"
  type: "BatchNorm"
  bottom: "res2a_branch2a"
  top: "res2a_branch2a/bn"
  param {
    lr_mult: 1
    decay_mult: 1
  }
  param {
    lr_mult: 1
    decay_mult: 1
  }
  param {
    lr_mult: 0
    decay_mult: 0
  }
  param {
    lr_mult: 0
    decay_mult: 0
  }
  batch_norm_param {
    moving_average_fraction: 0.99
    eps: 0.0001
    scale_filler {
      type: "constant"
      value: 1
    }
    bias_filler {
      type: "constant"
      value: 0
    }
  }
}
layer {
  name: "res2a_branch2a/relu"
  type: "ReLU"
  bottom: "res2a_branch2a/bn"
  top: "res2a_branch2a/bn"
}
layer {
  name: "res2a_branch2b"
  type: "Convolution"
  bottom: "res2a_branch2a/bn"
  top: "res2a_branch2b"
  param {
    lr_mult: 1
    decay_mult: 1
  }
  param {
    lr_mult: 2
    decay_mult: 0
  }
  convolution_param {
    num_output: 64
    bias_term: true
    pad: 1
    kernel_size: 3
    group: 4
    stride: 1
    weight_filler {
      type: "msra"
    }
    bias_filler {
      type: "constant"
      value: 0
    }
    dilation: 1
  }
}
layer {
  name: "res2a_branch2b/bn"
  type: "BatchNorm"
  bottom: "res2a_branch2b"
  top: "res2a_branch2b/bn"
  param {
    lr_mult: 1
    decay_mult: 1
  }
  param {
    lr_mult: 1
    decay_mult: 1
  }
  param {
    lr_mult: 0
    decay_mult: 0
  }
  param {
    lr_mult: 0
    decay_mult: 0
  }
  batch_norm_param {
    moving_average_fraction: 0.99
    eps: 0.0001
    scale_filler {
      type: "constant"
      value: 1
    }
    bias_filler {
      type: "constant"
      value: 0
    }
  }
}
layer {
  name: "res2a_branch2b/relu"
  type: "ReLU"
  bottom: "res2a_branch2b/bn"
  top: "res2a_branch2b/bn"
}
layer {
  name: "pool2"
  type: "Pooling"
  bottom: "res2a_branch2b/bn"
  top: "pool2"
  pooling_param {
    pool: MAX
    kernel_size: 2
    stride: 2
  }
}
layer {
  name: "res3a_branch2a"
  type: "Convolution"
  bottom: "pool2"
  top: "res3a_branch2a"
  param {
    lr_mult: 1
    decay_mult: 1
  }
  param {
    lr_mult: 2
    decay_mult: 0
  }
  convolution_param {
    num_output: 128
    bias_term: true
    pad: 1
    kernel_size: 3
    group: 1
    stride: 1
    weight_filler {
      type: "msra"
    }
    bias_filler {
      type: "constant"
      value: 0
    }
    dilation: 1
  }
}
layer {
  name: "res3a_branch2a/bn"
  type: "BatchNorm"
  bottom: "res3a_branch2a"
  top: "res3a_branch2a/bn"
  param {
    lr_mult: 1
    decay_mult: 1
  }
  param {
    lr_mult: 1
    decay_mult: 1
  }
  param {
    lr_mult: 0
    decay_mult: 0
  }
  param {
    lr_mult: 0
    decay_mult: 0
  }
  batch_norm_param {
    moving_average_fraction: 0.99
    eps: 0.0001
    scale_filler {
      type: "constant"
      value: 1
    }
    bias_filler {
      type: "constant"
      value: 0
    }
  }
}
layer {
  name: "res3a_branch2a/relu"
  type: "ReLU"
  bottom: "res3a_branch2a/bn"
  top: "res3a_branch2a/bn"
}
layer {
  name: "res3a_branch2b"
  type: "Convolution"
  bottom: "res3a_branch2a/bn"
  top: "res3a_branch2b"
  param {
    lr_mult: 1
    decay_mult: 1
  }
  param {
    lr_mult: 2
    decay_mult: 0
  }
  convolution_param {
    num_output: 128
    bias_term: true
    pad: 1
    kernel_size: 3
    group: 4
    stride: 1
    weight_filler {
      type: "msra"
    }
    bias_filler {
      type: "constant"
      value: 0
    }
    dilation: 1
  }
}
layer {
  name: "res3a_branch2b/bn"
  type: "BatchNorm"
  bottom: "res3a_branch2b"
  top: "res3a_branch2b/bn"
  param {
    lr_mult: 1
    decay_mult: 1
  }
  param {
    lr_mult: 1
    decay_mult: 1
  }
  param {
    lr_mult: 0
    decay_mult: 0
  }
  param {
    lr_mult: 0
    decay_mult: 0
  }
  batch_norm_param {
    moving_average_fraction: 0.99
    eps: 0.0001
    scale_filler {
      type: "constant"
      value: 1
    }
    bias_filler {
      type: "constant"
      value: 0
    }
  }
}
layer {
  name: "res3a_branch2b/relu"
  type: "ReLU"
  bottom: "res3a_branch2b/bn"
  top: "res3a_branch2b/bn"
}
layer {
  name: "pool3"
  type: "Pooling"
  bottom: "res3a_branch2b/bn"
  top: "pool3"
  pooling_param {
    pool: MAX
    kernel_size: 2
    stride: 2
  }
}
layer {
  name: "res4a_branch2a"
  type: "Convolution"
  bottom: "pool3"
  top: "res4a_branch2a"
  param {
    lr_mult: 1
    decay_mult: 1
  }
  param {
    lr_mult: 2
    decay_mult: 0
  }
  convolution_param {
    num_output: 256
    bias_term: true
    pad: 1
    kernel_size: 3
    group: 1
    stride: 1
    weight_filler {
      type: "msra"
    }
    bias_filler {
      type: "constant"
      value: 0
    }
    dilation: 1
  }
}
layer {
  name: "res4a_branch2a/bn"
  type: "BatchNorm"
  bottom: "res4a_branch2a"
  top: "res4a_branch2a/bn"
  param {
    lr_mult: 1
    decay_mult: 1
  }
  param {
    lr_mult: 1
    decay_mult: 1
  }
  param {
    lr_mult: 0
    decay_mult: 0
  }
  param {
    lr_mult: 0
    decay_mult: 0
  }
  batch_norm_param {
    moving_average_fraction: 0.99
    eps: 0.0001
    scale_filler {
      type: "constant"
      value: 1
    }
    bias_filler {
      type: "constant"
      value: 0
    }
  }
}
layer {
  name: "res4a_branch2a/relu"
  type: "ReLU"
  bottom: "res4a_branch2a/bn"
  top: "res4a_branch2a/bn"
}
layer {
  name: "res4a_branch2b"
  type: "Convolution"
  bottom: "res4a_branch2a/bn"
  top: "res4a_branch2b"
  param {
    lr_mult: 1
    decay_mult: 1
  }
  param {
    lr_mult: 2
    decay_mult: 0
  }
  convolution_param {
    num_output: 256
    bias_term: true
    pad: 1
    kernel_size: 3
    group: 4
    stride: 1
    weight_filler {
      type: "msra"
    }
    bias_filler {
      type: "constant"
      value: 0
    }
    dilation: 1
  }
}
layer {
  name: "res4a_branch2b/bn"
  type: "BatchNorm"
  bottom: "res4a_branch2b"
  top: "res4a_branch2b/bn"
  param {
    lr_mult: 1
    decay_mult: 1
  }
  param {
    lr_mult: 1
    decay_mult: 1
  }
  param {
    lr_mult: 0
    decay_mult: 0
  }
  param {
    lr_mult: 0
    decay_mult: 0
  }
  batch_norm_param {
    moving_average_fraction: 0.99
    eps: 0.0001
    scale_filler {
      type: "constant"
      value: 1
    }
    bias_filler {
      type: "constant"
      value: 0
    }
  }
}
layer {
  name: "res4a_branch2b/relu"
  type: "ReLU"
  bottom: "res4a_branch2b/bn"
  top: "res4a_branch2b/bn"
}
layer {
  name: "pool4"
  type: "Pooling"
  bottom: "res4a_branch2b/bn"
  top: "pool4"
  pooling_param {
    pool: MAX
    kernel_size: 1
    stride: 1
  }
}
layer {
  name: "res5a_branch2a"
  type: "Convolution"
  bottom: "pool4"
  top: "res5a_branch2a"
  param {
    lr_mult: 1
    decay_mult: 1
  }
  param {
    lr_mult: 2
    decay_mult: 0
  }
  convolution_param {
    num_output: 512
    bias_term: true
    pad: 2
    kernel_size: 3
    group: 1
    stride: 1
    weight_filler {
      type: "msra"
    }
    bias_filler {
      type: "constant"
      value: 0
    }
    dilation: 2
  }
}
layer {
  name: "res5a_branch2a/bn"
  type: "BatchNorm"
  bottom: "res5a_branch2a"
  top: "res5a_branch2a/bn"
  param {
    lr_mult: 1
    decay_mult: 1
  }
  param {
    lr_mult: 1
    decay_mult: 1
  }
  param {
    lr_mult: 0
    decay_mult: 0
  }
  param {
    lr_mult: 0
    decay_mult: 0
  }
  batch_norm_param {
    moving_average_fraction: 0.99
    eps: 0.0001
    scale_filler {
      type: "constant"
      value: 1
    }
    bias_filler {
      type: "constant"
      value: 0
    }
  }
}
layer {
  name: "res5a_branch2a/relu"
  type: "ReLU"
  bottom: "res5a_branch2a/bn"
  top: "res5a_branch2a/bn"
}
layer {
  name: "res5a_branch2b"
  type: "Convolution"
  bottom: "res5a_branch2a/bn"
  top: "res5a_branch2b"
  param {
    lr_mult: 1
    decay_mult: 1
  }
  param {
    lr_mult: 2
    decay_mult: 0
  }
  convolution_param {
    num_output: 512
    bias_term: true
    pad: 2
    kernel_size: 3
    group: 4
    stride: 1
    weight_filler {
      type: "msra"
    }
    bias_filler {
      type: "constant"
      value: 0
    }
    dilation: 2
  }
}
layer {
  name: "res5a_branch2b/bn"
  type: "BatchNorm"
  bottom: "res5a_branch2b"
  top: "res5a_branch2b/bn"
  param {
    lr_mult: 1
    decay_mult: 1
  }
  param {
    lr_mult: 1
    decay_mult: 1
  }
  param {
    lr_mult: 0
    decay_mult: 0
  }
  param {
    lr_mult: 0
    decay_mult: 0
  }
  batch_norm_param {
    moving_average_fraction: 0.99
    eps: 0.0001
    scale_filler {
      type: "constant"
      value: 1
    }
    bias_filler {
      type: "constant"
      value: 0
    }
  }
}
layer {
  name: "res5a_branch2b/relu"
  type: "ReLU"
  bottom: "res5a_branch2b/bn"
  top: "res5a_branch2b/bn"
}
layer {
  name: "out5a"
  type: "Convolution"
  bottom: "res5a_branch2b/bn"
  top: "out5a"
  param {
    lr_mult: 1
    decay_mult: 1
  }
  param {
    lr_mult: 2
    decay_mult: 0
  }
  convolution_param {
    num_output: 64
    bias_term: true
    pad: 4
    kernel_size: 3
    group: 2
    stride: 1
    weight_filler {
      type: "msra"
    }
    bias_filler {
      type: "constant"
      value: 0
    }
    dilation: 4
  }
}
layer {
  name: "out5a/bn"
  type: "BatchNorm"
  bottom: "out5a"
  top: "out5a/bn"
  param {
    lr_mult: 1
    decay_mult: 1
  }
  param {
    lr_mult: 1
    decay_mult: 1
  }
  param {
    lr_mult: 0
    decay_mult: 0
  }
  param {
    lr_mult: 0
    decay_mult: 0
  }
  batch_norm_param {
    moving_average_fraction: 0.99
    eps: 0.0001
    scale_filler {
      type: "constant"
      value: 1
    }
    bias_filler {
      type: "constant"
      value: 0
    }
  }
}
layer {
  name: "out5a/relu"
  type: "ReLU"
  bottom: "out5a/bn"
  top: "out5a/bn"
}
layer {
  name: "out5a_up2"
  type: "Deconvolution"
  bottom: "out5a/bn"
  top: "out5a_up2"
  param {
    lr_mult: 0
    decay_mult: 0
  }
  convolution_param {
    num_output: 64
    bias_term: false
    pad: 1
    kernel_size: 4
    group: 64
    stride: 2
    weight_filler {
      type: "bilinear"
    }
  }
}
layer {
  name: "out3a"
  type: "Convolution"
  bottom: "res3a_branch2b/bn"
  top: "out3a"
  param {
    lr_mult: 1
    decay_mult: 1
  }
  param {
    lr_mult: 2
    decay_mult: 0
  }
  convolution_param {
    num_output: 64
    bias_term: true
    pad: 1
    kernel_size: 3
    group: 2
    stride: 1
    weight_filler {
      type: "msra"
    }
    bias_filler {
      type: "constant"
      value: 0
    }
    dilation: 1
  }
}
layer {
  name: "out3a/bn"
  type: "BatchNorm"
  bottom: "out3a"
  top: "out3a/bn"
  param {
    lr_mult: 1
    decay_mult: 1
  }
  param {
    lr_mult: 1
    decay_mult: 1
  }
  param {
    lr_mult: 0
    decay_mult: 0
  }
  param {
    lr_mult: 0
    decay_mult: 0
  }
  batch_norm_param {
    moving_average_fraction: 0.99
    eps: 0.0001
    scale_filler {
      type: "constant"
      value: 1
    }
    bias_filler {
      type: "constant"
      value: 0
    }
  }
}
layer {
  name: "out3a/relu"
  type: "ReLU"
  bottom: "out3a/bn"
  top: "out3a/bn"
}
layer {
  name: "out3_out5_combined"
  type: "Eltwise"
  bottom: "out5a_up2"
  bottom: "out3a/bn"
  top: "out3_out5_combined"
}
layer {
  name: "ctx_conv1"
  type: "Convolution"
  bottom: "out3_out5_combined"
  top: "ctx_conv1"
  param {
    lr_mult: 1
    decay_mult: 1
  }
  param {
    lr_mult: 2
    decay_mult: 0
  }
  convolution_param {
    num_output: 64
    bias_term: true
    pad: 1
    kernel_size: 3
    group: 1
    stride: 1
    weight_filler {
      type: "msra"
    }
    bias_filler {
      type: "constant"
      value: 0
    }
    dilation: 1
  }
}
layer {
  name: "ctx_conv1/bn"
  type: "BatchNorm"
  bottom: "ctx_conv1"
  top: "ctx_conv1/bn"
  param {
    lr_mult: 1
    decay_mult: 1
  }
  param {
    lr_mult: 1
    decay_mult: 1
  }
  param {
    lr_mult: 0
    decay_mult: 0
  }
  param {
    lr_mult: 0
    decay_mult: 0
  }
  batch_norm_param {
    moving_average_fraction: 0.99
    eps: 0.0001
    scale_filler {
      type: "constant"
      value: 1
    }
    bias_filler {
      type: "constant"
      value: 0
    }
  }
}
layer {
  name: "ctx_conv1/relu"
  type: "ReLU"
  bottom: "ctx_conv1/bn"
  top: "ctx_conv1/bn"
}
layer {
  name: "ctx_conv2"
  type: "Convolution"
  bottom: "ctx_conv1/bn"
  top: "ctx_conv2"
  param {
    lr_mult: 1
    decay_mult: 1
  }
  param {
    lr_mult: 2
    decay_mult: 0
  }
  convolution_param {
    num_output: 64
    bias_term: true
    pad: 4
    kernel_size: 3
    group: 1
    stride: 1
    weight_filler {
      type: "msra"
    }
    bias_filler {
      type: "constant"
      value: 0
    }
    dilation: 4
  }
}
layer {
  name: "ctx_conv2/bn"
  type: "BatchNorm"
  bottom: "ctx_conv2"
  top: "ctx_conv2/bn"
  param {
    lr_mult: 1
    decay_mult: 1
  }
  param {
    lr_mult: 1
    decay_mult: 1
  }
  param {
    lr_mult: 0
    decay_mult: 0
  }
  param {
    lr_mult: 0
    decay_mult: 0
  }
  batch_norm_param {
    moving_average_fraction: 0.99
    eps: 0.0001
    scale_filler {
      type: "constant"
      value: 1
    }
    bias_filler {
      type: "constant"
      value: 0
    }
  }
}
layer {
  name: "ctx_conv2/relu"
  type: "ReLU"
  bottom: "ctx_conv2/bn"
  top: "ctx_conv2/bn"
}
layer {
  name: "ctx_conv3"
  type: "Convolution"
  bottom: "ctx_conv2/bn"
  top: "ctx_conv3"
  param {
    lr_mult: 1
    decay_mult: 1
  }
  param {
    lr_mult: 2
    decay_mult: 0
  }
  convolution_param {
    num_output: 64
    bias_term: true
    pad: 4
    kernel_size: 3
    group: 1
    stride: 1
    weight_filler {
      type: "msra"
    }
    bias_filler {
      type: "constant"
      value: 0
    }
    dilation: 4
  }
}
layer {
  name: "ctx_conv3/bn"
  type: "BatchNorm"
  bottom: "ctx_conv3"
  top: "ctx_conv3/bn"
  param {
    lr_mult: 1
    decay_mult: 1
  }
  param {
    lr_mult: 1
    decay_mult: 1
  }
  param {
    lr_mult: 0
    decay_mult: 0
  }
  param {
    lr_mult: 0
    decay_mult: 0
  }
  batch_norm_param {
    moving_average_fraction: 0.99
    eps: 0.0001
    scale_filler {
      type: "constant"
      value: 1
    }
    bias_filler {
      type: "constant"
      value: 0
    }
  }
}
layer {
  name: "ctx_conv3/relu"
  type: "ReLU"
  bottom: "ctx_conv3/bn"
  top: "ctx_conv3/bn"
}
layer {
  name: "ctx_conv4"
  type: "Convolution"
  bottom: "ctx_conv3/bn"
  top: "ctx_conv4"
  param {
    lr_mult: 1
    decay_mult: 1
  }
  param {
    lr_mult: 2
    decay_mult: 0
  }
  convolution_param {
    num_output: 64
    bias_term: true
    pad: 4
    kernel_size: 3
    group: 1
    stride: 1
    weight_filler {
      type: "msra"
    }
    bias_filler {
      type: "constant"
      value: 0
    }
    dilation: 4
  }
}
layer {
  name: "ctx_conv4/bn"
  type: "BatchNorm"
  bottom: "ctx_conv4"
  top: "ctx_conv4/bn"
  param {
    lr_mult: 1
    decay_mult: 1
  }
  param {
    lr_mult: 1
    decay_mult: 1
  }
  param {
    lr_mult: 0
    decay_mult: 0
  }
  param {
    lr_mult: 0
    decay_mult: 0
  }
  batch_norm_param {
    moving_average_fraction: 0.99
    eps: 0.0001
    scale_filler {
      type: "constant"
      value: 1
    }
    bias_filler {
      type: "constant"
      value: 0
    }
  }
}
layer {
  name: "ctx_conv4/relu"
  type: "ReLU"
  bottom: "ctx_conv4/bn"
  top: "ctx_conv4/bn"
}
layer {
  name: "ctx_final"
  type: "Convolution"
  bottom: "ctx_conv4/bn"
  top: "ctx_final"
  param {
    lr_mult: 1
    decay_mult: 1
  }
  param {
    lr_mult: 2
    decay_mult: 0
  }
  convolution_param {
    num_output: 8
    bias_term: true
    pad: 1
    kernel_size: 3
    kernel_size: 3
    group: 1
    stride: 1
    weight_filler {
      type: "msra"
    }
    bias_filler {
      type: "constant"
      value: 0
    }
    dilation: 1
  }
}
layer {
  name: "ctx_final/relu"
  type: "ReLU"
  bottom: "ctx_final"
  top: "ctx_final"
}
layer {
  name: "out_deconv_final_up2"
  type: "Deconvolution"
  bottom: "ctx_final"
  top: "out_deconv_final_up2"
  param {
    lr_mult: 0
    decay_mult: 0
  }
  convolution_param {
    num_output: 8
    bias_term: false
    pad: 1
    kernel_size: 4
    group: 8
    stride: 2
    weight_filler {
      type: "bilinear"
    }
  }
}
layer {
  name: "out_deconv_final_up4"
  type: "Deconvolution"
  bottom: "out_deconv_final_up2"
  top: "out_deconv_final_up4"
  param {
    lr_mult: 0
    decay_mult: 0
  }
  convolution_param {
    num_output: 8
    bias_term: false
    pad: 1
    kernel_size: 4
    group: 8
    stride: 2
    weight_filler {
      type: "bilinear"
    }
  }
}
layer {
  name: "out_deconv_final_up8"
  type: "Deconvolution"
  bottom: "out_deconv_final_up4"
  top: "out_deconv_final_up8"
  param {
    lr_mult: 0
    decay_mult: 0
  }
  convolution_param {
    num_output: 8
    bias_term: false
    pad: 1
    kernel_size: 4
    group: 8
    stride: 2
    weight_filler {
      type: "bilinear"
    }
  }
}
layer {
  name: "loss"
  type: "SoftmaxWithLoss"
  bottom: "out_deconv_final_up8"
  bottom: "label"
  top: "loss"
  propagate_down: true
  propagate_down: false
  loss_param {
    ignore_label: 255
    normalization: VALID
  }
}
layer {
  name: "accuracy/top1"
  type: "Accuracy"
  bottom: "out_deconv_final_up8"
  bottom: "label"
  top: "accuracy/top1"
  include {
    phase: TEST
  }
  accuracy_param {
    ignore_label: 255
  }
}
layer {
  name: "accuracy/top5"
  type: "Accuracy"
  bottom: "out_deconv_final_up8"
  bottom: "label"
  top: "accuracy/top5"
  include {
    phase: TEST
  }
  accuracy_param {
    top_k: 5
    ignore_label: 255
  }
}
I0711 18:09:31.410055  7290 layer_factory.hpp:77] Creating layer data
I0711 18:09:31.410071  7290 net.cpp:98] Creating Layer data
I0711 18:09:31.410081  7290 net.cpp:413] data -> data
I0711 18:09:31.410092  7290 net.cpp:413] data -> label
I0711 18:09:31.411417  7360 db_lmdb.cpp:35] Opened lmdb data/val-image-lmdb
I0711 18:09:31.413859  7365 db_lmdb.cpp:35] Opened lmdb data/val-label-lmdb
I0711 18:09:31.446334  7290 data_layer.cpp:78] ReshapePrefetch 4, 3, 640, 640
I0711 18:09:31.446413  7290 data_layer.cpp:83] output data size: 4,3,640,640
I0711 18:09:31.489640  7290 data_layer.cpp:78] ReshapePrefetch 4, 1, 640, 640
I0711 18:09:31.489715  7290 data_layer.cpp:83] output data size: 4,1,640,640
I0711 18:09:31.804074  7290 net.cpp:148] Setting up data
I0711 18:09:31.804158  7290 net.cpp:155] Top shape: 4 3 640 640 (4915200)
I0711 18:09:31.804168  7290 net.cpp:155] Top shape: 4 1 640 640 (1638400)
I0711 18:09:31.804173  7290 net.cpp:163] Memory required for data: 26214400
I0711 18:09:31.804183  7290 layer_factory.hpp:77] Creating layer label_data_1_split
I0711 18:09:31.804210  7290 net.cpp:98] Creating Layer label_data_1_split
I0711 18:09:31.804222  7290 net.cpp:439] label_data_1_split <- label
I0711 18:09:31.804285  7290 net.cpp:413] label_data_1_split -> label_data_1_split_0
I0711 18:09:31.804302  7290 net.cpp:413] label_data_1_split -> label_data_1_split_1
I0711 18:09:31.804311  7290 net.cpp:413] label_data_1_split -> label_data_1_split_2
I0711 18:09:31.804744  7290 net.cpp:148] Setting up label_data_1_split
I0711 18:09:31.804759  7290 net.cpp:155] Top shape: 4 1 640 640 (1638400)
I0711 18:09:31.804766  7290 net.cpp:155] Top shape: 4 1 640 640 (1638400)
I0711 18:09:31.804774  7290 net.cpp:155] Top shape: 4 1 640 640 (1638400)
I0711 18:09:31.804778  7290 net.cpp:163] Memory required for data: 45875200
I0711 18:09:31.804783  7290 layer_factory.hpp:77] Creating layer data/bias
I0711 18:09:31.804813  7290 net.cpp:98] Creating Layer data/bias
I0711 18:09:31.804837  7290 net.cpp:439] data/bias <- data
I0711 18:09:31.804847  7290 net.cpp:413] data/bias -> data/bias
I0711 18:09:31.807446  7290 net.cpp:148] Setting up data/bias
I0711 18:09:31.807462  7290 net.cpp:155] Top shape: 4 3 640 640 (4915200)
I0711 18:09:31.807464  7290 net.cpp:163] Memory required for data: 65536000
I0711 18:09:31.807472  7290 layer_factory.hpp:77] Creating layer conv1a
I0711 18:09:31.807483  7290 net.cpp:98] Creating Layer conv1a
I0711 18:09:31.807487  7290 net.cpp:439] conv1a <- data/bias
I0711 18:09:31.807490  7290 net.cpp:413] conv1a -> conv1a
I0711 18:09:31.808028  7290 net.cpp:148] Setting up conv1a
I0711 18:09:31.808034  7290 net.cpp:155] Top shape: 4 32 320 320 (13107200)
I0711 18:09:31.808037  7290 net.cpp:163] Memory required for data: 117964800
I0711 18:09:31.808042  7290 layer_factory.hpp:77] Creating layer conv1a/bn
I0711 18:09:31.808048  7290 net.cpp:98] Creating Layer conv1a/bn
I0711 18:09:31.808050  7290 net.cpp:439] conv1a/bn <- conv1a
I0711 18:09:31.808053  7290 net.cpp:413] conv1a/bn -> conv1a/bn
I0711 18:09:31.809293  7290 net.cpp:148] Setting up conv1a/bn
I0711 18:09:31.809310  7290 net.cpp:155] Top shape: 4 32 320 320 (13107200)
I0711 18:09:31.809319  7290 net.cpp:163] Memory required for data: 170393600
I0711 18:09:31.809334  7290 layer_factory.hpp:77] Creating layer conv1a/relu
I0711 18:09:31.809342  7290 net.cpp:98] Creating Layer conv1a/relu
I0711 18:09:31.809346  7290 net.cpp:439] conv1a/relu <- conv1a/bn
I0711 18:09:31.809350  7290 net.cpp:400] conv1a/relu -> conv1a/bn (in-place)
I0711 18:09:31.809357  7290 net.cpp:148] Setting up conv1a/relu
I0711 18:09:31.809362  7290 net.cpp:155] Top shape: 4 32 320 320 (13107200)
I0711 18:09:31.809365  7290 net.cpp:163] Memory required for data: 222822400
I0711 18:09:31.809368  7290 layer_factory.hpp:77] Creating layer conv1b
I0711 18:09:31.809377  7290 net.cpp:98] Creating Layer conv1b
I0711 18:09:31.809381  7290 net.cpp:439] conv1b <- conv1a/bn
I0711 18:09:31.809386  7290 net.cpp:413] conv1b -> conv1b
I0711 18:09:31.810032  7290 net.cpp:148] Setting up conv1b
I0711 18:09:31.810044  7290 net.cpp:155] Top shape: 4 32 320 320 (13107200)
I0711 18:09:31.810047  7290 net.cpp:163] Memory required for data: 275251200
I0711 18:09:31.810055  7290 layer_factory.hpp:77] Creating layer conv1b/bn
I0711 18:09:31.810060  7290 net.cpp:98] Creating Layer conv1b/bn
I0711 18:09:31.810065  7290 net.cpp:439] conv1b/bn <- conv1b
I0711 18:09:31.810070  7290 net.cpp:413] conv1b/bn -> conv1b/bn
I0711 18:09:31.811287  7290 net.cpp:148] Setting up conv1b/bn
I0711 18:09:31.811298  7290 net.cpp:155] Top shape: 4 32 320 320 (13107200)
I0711 18:09:31.811305  7290 net.cpp:163] Memory required for data: 327680000
I0711 18:09:31.811312  7290 layer_factory.hpp:77] Creating layer conv1b/relu
I0711 18:09:31.811318  7290 net.cpp:98] Creating Layer conv1b/relu
I0711 18:09:31.811322  7290 net.cpp:439] conv1b/relu <- conv1b/bn
I0711 18:09:31.811327  7290 net.cpp:400] conv1b/relu -> conv1b/bn (in-place)
I0711 18:09:31.811333  7290 net.cpp:148] Setting up conv1b/relu
I0711 18:09:31.811338  7290 net.cpp:155] Top shape: 4 32 320 320 (13107200)
I0711 18:09:31.811342  7290 net.cpp:163] Memory required for data: 380108800
I0711 18:09:31.811345  7290 layer_factory.hpp:77] Creating layer pool1
I0711 18:09:31.811352  7290 net.cpp:98] Creating Layer pool1
I0711 18:09:31.811370  7290 net.cpp:439] pool1 <- conv1b/bn
I0711 18:09:31.811377  7290 net.cpp:413] pool1 -> pool1
I0711 18:09:31.811439  7290 net.cpp:148] Setting up pool1
I0711 18:09:31.811445  7290 net.cpp:155] Top shape: 4 32 160 160 (3276800)
I0711 18:09:31.811450  7290 net.cpp:163] Memory required for data: 393216000
I0711 18:09:31.811453  7290 layer_factory.hpp:77] Creating layer res2a_branch2a
I0711 18:09:31.811461  7290 net.cpp:98] Creating Layer res2a_branch2a
I0711 18:09:31.811466  7290 net.cpp:439] res2a_branch2a <- pool1
I0711 18:09:31.811471  7290 net.cpp:413] res2a_branch2a -> res2a_branch2a
I0711 18:09:31.812367  7290 net.cpp:148] Setting up res2a_branch2a
I0711 18:09:31.812376  7290 net.cpp:155] Top shape: 4 64 160 160 (6553600)
I0711 18:09:31.812378  7290 net.cpp:163] Memory required for data: 419430400
I0711 18:09:31.812388  7290 layer_factory.hpp:77] Creating layer res2a_branch2a/bn
I0711 18:09:31.812396  7290 net.cpp:98] Creating Layer res2a_branch2a/bn
I0711 18:09:31.812400  7290 net.cpp:439] res2a_branch2a/bn <- res2a_branch2a
I0711 18:09:31.812407  7290 net.cpp:413] res2a_branch2a/bn -> res2a_branch2a/bn
I0711 18:09:31.814070  7290 net.cpp:148] Setting up res2a_branch2a/bn
I0711 18:09:31.814081  7290 net.cpp:155] Top shape: 4 64 160 160 (6553600)
I0711 18:09:31.814083  7290 net.cpp:163] Memory required for data: 445644800
I0711 18:09:31.814090  7290 layer_factory.hpp:77] Creating layer res2a_branch2a/relu
I0711 18:09:31.814095  7290 net.cpp:98] Creating Layer res2a_branch2a/relu
I0711 18:09:31.814098  7290 net.cpp:439] res2a_branch2a/relu <- res2a_branch2a/bn
I0711 18:09:31.814101  7290 net.cpp:400] res2a_branch2a/relu -> res2a_branch2a/bn (in-place)
I0711 18:09:31.814105  7290 net.cpp:148] Setting up res2a_branch2a/relu
I0711 18:09:31.814110  7290 net.cpp:155] Top shape: 4 64 160 160 (6553600)
I0711 18:09:31.814110  7290 net.cpp:163] Memory required for data: 471859200
I0711 18:09:31.814112  7290 layer_factory.hpp:77] Creating layer res2a_branch2b
I0711 18:09:31.814118  7290 net.cpp:98] Creating Layer res2a_branch2b
I0711 18:09:31.814121  7290 net.cpp:439] res2a_branch2b <- res2a_branch2a/bn
I0711 18:09:31.814123  7290 net.cpp:413] res2a_branch2b -> res2a_branch2b
I0711 18:09:31.816365  7290 net.cpp:148] Setting up res2a_branch2b
I0711 18:09:31.816382  7290 net.cpp:155] Top shape: 4 64 160 160 (6553600)
I0711 18:09:31.816386  7290 net.cpp:163] Memory required for data: 498073600
I0711 18:09:31.816396  7290 layer_factory.hpp:77] Creating layer res2a_branch2b/bn
I0711 18:09:31.816411  7290 net.cpp:98] Creating Layer res2a_branch2b/bn
I0711 18:09:31.816416  7290 net.cpp:439] res2a_branch2b/bn <- res2a_branch2b
I0711 18:09:31.816426  7290 net.cpp:413] res2a_branch2b/bn -> res2a_branch2b/bn
I0711 18:09:31.841977  7290 net.cpp:148] Setting up res2a_branch2b/bn
I0711 18:09:31.842005  7290 net.cpp:155] Top shape: 4 64 160 160 (6553600)
I0711 18:09:31.842008  7290 net.cpp:163] Memory required for data: 524288000
I0711 18:09:31.842022  7290 layer_factory.hpp:77] Creating layer res2a_branch2b/relu
I0711 18:09:31.842032  7290 net.cpp:98] Creating Layer res2a_branch2b/relu
I0711 18:09:31.842038  7290 net.cpp:439] res2a_branch2b/relu <- res2a_branch2b/bn
I0711 18:09:31.842044  7290 net.cpp:400] res2a_branch2b/relu -> res2a_branch2b/bn (in-place)
I0711 18:09:31.842056  7290 net.cpp:148] Setting up res2a_branch2b/relu
I0711 18:09:31.842062  7290 net.cpp:155] Top shape: 4 64 160 160 (6553600)
I0711 18:09:31.842066  7290 net.cpp:163] Memory required for data: 550502400
I0711 18:09:31.842068  7290 layer_factory.hpp:77] Creating layer pool2
I0711 18:09:31.842077  7290 net.cpp:98] Creating Layer pool2
I0711 18:09:31.842082  7290 net.cpp:439] pool2 <- res2a_branch2b/bn
I0711 18:09:31.842085  7290 net.cpp:413] pool2 -> pool2
I0711 18:09:31.842160  7290 net.cpp:148] Setting up pool2
I0711 18:09:31.842166  7290 net.cpp:155] Top shape: 4 64 80 80 (1638400)
I0711 18:09:31.842170  7290 net.cpp:163] Memory required for data: 557056000
I0711 18:09:31.842172  7290 layer_factory.hpp:77] Creating layer res3a_branch2a
I0711 18:09:31.842193  7290 net.cpp:98] Creating Layer res3a_branch2a
I0711 18:09:31.842198  7290 net.cpp:439] res3a_branch2a <- pool2
I0711 18:09:31.842202  7290 net.cpp:413] res3a_branch2a -> res3a_branch2a
I0711 18:09:31.845340  7290 net.cpp:148] Setting up res3a_branch2a
I0711 18:09:31.845357  7290 net.cpp:155] Top shape: 4 128 80 80 (3276800)
I0711 18:09:31.845360  7290 net.cpp:163] Memory required for data: 570163200
I0711 18:09:31.845367  7290 layer_factory.hpp:77] Creating layer res3a_branch2a/bn
I0711 18:09:31.845376  7290 net.cpp:98] Creating Layer res3a_branch2a/bn
I0711 18:09:31.845381  7290 net.cpp:439] res3a_branch2a/bn <- res3a_branch2a
I0711 18:09:31.845386  7290 net.cpp:413] res3a_branch2a/bn -> res3a_branch2a/bn
I0711 18:09:31.846417  7290 net.cpp:148] Setting up res3a_branch2a/bn
I0711 18:09:31.846427  7290 net.cpp:155] Top shape: 4 128 80 80 (3276800)
I0711 18:09:31.846431  7290 net.cpp:163] Memory required for data: 583270400
I0711 18:09:31.846439  7290 layer_factory.hpp:77] Creating layer res3a_branch2a/relu
I0711 18:09:31.846444  7290 net.cpp:98] Creating Layer res3a_branch2a/relu
I0711 18:09:31.846448  7290 net.cpp:439] res3a_branch2a/relu <- res3a_branch2a/bn
I0711 18:09:31.846452  7290 net.cpp:400] res3a_branch2a/relu -> res3a_branch2a/bn (in-place)
I0711 18:09:31.846458  7290 net.cpp:148] Setting up res3a_branch2a/relu
I0711 18:09:31.846462  7290 net.cpp:155] Top shape: 4 128 80 80 (3276800)
I0711 18:09:31.846465  7290 net.cpp:163] Memory required for data: 596377600
I0711 18:09:31.846469  7290 layer_factory.hpp:77] Creating layer res3a_branch2b
I0711 18:09:31.846477  7290 net.cpp:98] Creating Layer res3a_branch2b
I0711 18:09:31.846480  7290 net.cpp:439] res3a_branch2b <- res3a_branch2a/bn
I0711 18:09:31.846485  7290 net.cpp:413] res3a_branch2b -> res3a_branch2b
I0711 18:09:31.848008  7290 net.cpp:148] Setting up res3a_branch2b
I0711 18:09:31.848016  7290 net.cpp:155] Top shape: 4 128 80 80 (3276800)
I0711 18:09:31.848019  7290 net.cpp:163] Memory required for data: 609484800
I0711 18:09:31.848023  7290 layer_factory.hpp:77] Creating layer res3a_branch2b/bn
I0711 18:09:31.848029  7290 net.cpp:98] Creating Layer res3a_branch2b/bn
I0711 18:09:31.848033  7290 net.cpp:439] res3a_branch2b/bn <- res3a_branch2b
I0711 18:09:31.848039  7290 net.cpp:413] res3a_branch2b/bn -> res3a_branch2b/bn
I0711 18:09:31.848960  7290 net.cpp:148] Setting up res3a_branch2b/bn
I0711 18:09:31.848968  7290 net.cpp:155] Top shape: 4 128 80 80 (3276800)
I0711 18:09:31.848970  7290 net.cpp:163] Memory required for data: 622592000
I0711 18:09:31.848978  7290 layer_factory.hpp:77] Creating layer res3a_branch2b/relu
I0711 18:09:31.848984  7290 net.cpp:98] Creating Layer res3a_branch2b/relu
I0711 18:09:31.848987  7290 net.cpp:439] res3a_branch2b/relu <- res3a_branch2b/bn
I0711 18:09:31.848992  7290 net.cpp:400] res3a_branch2b/relu -> res3a_branch2b/bn (in-place)
I0711 18:09:31.848999  7290 net.cpp:148] Setting up res3a_branch2b/relu
I0711 18:09:31.849004  7290 net.cpp:155] Top shape: 4 128 80 80 (3276800)
I0711 18:09:31.849005  7290 net.cpp:163] Memory required for data: 635699200
I0711 18:09:31.849009  7290 layer_factory.hpp:77] Creating layer res3a_branch2b/bn_res3a_branch2b/relu_0_split
I0711 18:09:31.849014  7290 net.cpp:98] Creating Layer res3a_branch2b/bn_res3a_branch2b/relu_0_split
I0711 18:09:31.849020  7290 net.cpp:439] res3a_branch2b/bn_res3a_branch2b/relu_0_split <- res3a_branch2b/bn
I0711 18:09:31.849023  7290 net.cpp:413] res3a_branch2b/bn_res3a_branch2b/relu_0_split -> res3a_branch2b/bn_res3a_branch2b/relu_0_split_0
I0711 18:09:31.849028  7290 net.cpp:413] res3a_branch2b/bn_res3a_branch2b/relu_0_split -> res3a_branch2b/bn_res3a_branch2b/relu_0_split_1
I0711 18:09:31.849088  7290 net.cpp:148] Setting up res3a_branch2b/bn_res3a_branch2b/relu_0_split
I0711 18:09:31.849094  7290 net.cpp:155] Top shape: 4 128 80 80 (3276800)
I0711 18:09:31.849097  7290 net.cpp:155] Top shape: 4 128 80 80 (3276800)
I0711 18:09:31.849102  7290 net.cpp:163] Memory required for data: 661913600
I0711 18:09:31.849118  7290 layer_factory.hpp:77] Creating layer pool3
I0711 18:09:31.849128  7290 net.cpp:98] Creating Layer pool3
I0711 18:09:31.849133  7290 net.cpp:439] pool3 <- res3a_branch2b/bn_res3a_branch2b/relu_0_split_0
I0711 18:09:31.849139  7290 net.cpp:413] pool3 -> pool3
I0711 18:09:31.849200  7290 net.cpp:148] Setting up pool3
I0711 18:09:31.849206  7290 net.cpp:155] Top shape: 4 128 40 40 (819200)
I0711 18:09:31.849210  7290 net.cpp:163] Memory required for data: 665190400
I0711 18:09:31.849212  7290 layer_factory.hpp:77] Creating layer res4a_branch2a
I0711 18:09:31.849222  7290 net.cpp:98] Creating Layer res4a_branch2a
I0711 18:09:31.849226  7290 net.cpp:439] res4a_branch2a <- pool3
I0711 18:09:31.849231  7290 net.cpp:413] res4a_branch2a -> res4a_branch2a
I0711 18:09:31.886525  7290 net.cpp:148] Setting up res4a_branch2a
I0711 18:09:31.886564  7290 net.cpp:155] Top shape: 4 256 40 40 (1638400)
I0711 18:09:31.886567  7290 net.cpp:163] Memory required for data: 671744000
I0711 18:09:31.886579  7290 layer_factory.hpp:77] Creating layer res4a_branch2a/bn
I0711 18:09:31.886593  7290 net.cpp:98] Creating Layer res4a_branch2a/bn
I0711 18:09:31.886598  7290 net.cpp:439] res4a_branch2a/bn <- res4a_branch2a
I0711 18:09:31.886605  7290 net.cpp:413] res4a_branch2a/bn -> res4a_branch2a/bn
I0711 18:09:31.887536  7290 net.cpp:148] Setting up res4a_branch2a/bn
I0711 18:09:31.887545  7290 net.cpp:155] Top shape: 4 256 40 40 (1638400)
I0711 18:09:31.887547  7290 net.cpp:163] Memory required for data: 678297600
I0711 18:09:31.887554  7290 layer_factory.hpp:77] Creating layer res4a_branch2a/relu
I0711 18:09:31.887560  7290 net.cpp:98] Creating Layer res4a_branch2a/relu
I0711 18:09:31.887563  7290 net.cpp:439] res4a_branch2a/relu <- res4a_branch2a/bn
I0711 18:09:31.887565  7290 net.cpp:400] res4a_branch2a/relu -> res4a_branch2a/bn (in-place)
I0711 18:09:31.887570  7290 net.cpp:148] Setting up res4a_branch2a/relu
I0711 18:09:31.887573  7290 net.cpp:155] Top shape: 4 256 40 40 (1638400)
I0711 18:09:31.887575  7290 net.cpp:163] Memory required for data: 684851200
I0711 18:09:31.887578  7290 layer_factory.hpp:77] Creating layer res4a_branch2b
I0711 18:09:31.887585  7290 net.cpp:98] Creating Layer res4a_branch2b
I0711 18:09:31.887588  7290 net.cpp:439] res4a_branch2b <- res4a_branch2a/bn
I0711 18:09:31.887590  7290 net.cpp:413] res4a_branch2b -> res4a_branch2b
I0711 18:09:31.898526  7290 net.cpp:148] Setting up res4a_branch2b
I0711 18:09:31.898561  7290 net.cpp:155] Top shape: 4 256 40 40 (1638400)
I0711 18:09:31.898567  7290 net.cpp:163] Memory required for data: 691404800
I0711 18:09:31.898583  7290 layer_factory.hpp:77] Creating layer res4a_branch2b/bn
I0711 18:09:31.898602  7290 net.cpp:98] Creating Layer res4a_branch2b/bn
I0711 18:09:31.898610  7290 net.cpp:439] res4a_branch2b/bn <- res4a_branch2b
I0711 18:09:31.898620  7290 net.cpp:413] res4a_branch2b/bn -> res4a_branch2b/bn
I0711 18:09:31.901593  7290 net.cpp:148] Setting up res4a_branch2b/bn
I0711 18:09:31.901643  7290 net.cpp:155] Top shape: 4 256 40 40 (1638400)
I0711 18:09:31.901650  7290 net.cpp:163] Memory required for data: 697958400
I0711 18:09:31.901669  7290 layer_factory.hpp:77] Creating layer res4a_branch2b/relu
I0711 18:09:31.901693  7290 net.cpp:98] Creating Layer res4a_branch2b/relu
I0711 18:09:31.901705  7290 net.cpp:439] res4a_branch2b/relu <- res4a_branch2b/bn
I0711 18:09:31.901715  7290 net.cpp:400] res4a_branch2b/relu -> res4a_branch2b/bn (in-place)
I0711 18:09:31.901736  7290 net.cpp:148] Setting up res4a_branch2b/relu
I0711 18:09:31.901741  7290 net.cpp:155] Top shape: 4 256 40 40 (1638400)
I0711 18:09:31.901744  7290 net.cpp:163] Memory required for data: 704512000
I0711 18:09:31.901748  7290 layer_factory.hpp:77] Creating layer pool4
I0711 18:09:31.901759  7290 net.cpp:98] Creating Layer pool4
I0711 18:09:31.901764  7290 net.cpp:439] pool4 <- res4a_branch2b/bn
I0711 18:09:31.901772  7290 net.cpp:413] pool4 -> pool4
I0711 18:09:31.901862  7290 net.cpp:148] Setting up pool4
I0711 18:09:31.901871  7290 net.cpp:155] Top shape: 4 256 40 40 (1638400)
I0711 18:09:31.901875  7290 net.cpp:163] Memory required for data: 711065600
I0711 18:09:31.901901  7290 layer_factory.hpp:77] Creating layer res5a_branch2a
I0711 18:09:31.901916  7290 net.cpp:98] Creating Layer res5a_branch2a
I0711 18:09:31.901923  7290 net.cpp:439] res5a_branch2a <- pool4
I0711 18:09:31.901929  7290 net.cpp:413] res5a_branch2a -> res5a_branch2a
I0711 18:09:31.938400  7290 net.cpp:148] Setting up res5a_branch2a
I0711 18:09:31.938436  7290 net.cpp:155] Top shape: 4 512 40 40 (3276800)
I0711 18:09:31.938439  7290 net.cpp:163] Memory required for data: 724172800
I0711 18:09:31.938449  7290 layer_factory.hpp:77] Creating layer res5a_branch2a/bn
I0711 18:09:31.938462  7290 net.cpp:98] Creating Layer res5a_branch2a/bn
I0711 18:09:31.938468  7290 net.cpp:439] res5a_branch2a/bn <- res5a_branch2a
I0711 18:09:31.938474  7290 net.cpp:413] res5a_branch2a/bn -> res5a_branch2a/bn
I0711 18:09:31.939641  7290 net.cpp:148] Setting up res5a_branch2a/bn
I0711 18:09:31.939651  7290 net.cpp:155] Top shape: 4 512 40 40 (3276800)
I0711 18:09:31.939653  7290 net.cpp:163] Memory required for data: 737280000
I0711 18:09:31.939666  7290 layer_factory.hpp:77] Creating layer res5a_branch2a/relu
I0711 18:09:31.939671  7290 net.cpp:98] Creating Layer res5a_branch2a/relu
I0711 18:09:31.939677  7290 net.cpp:439] res5a_branch2a/relu <- res5a_branch2a/bn
I0711 18:09:31.939680  7290 net.cpp:400] res5a_branch2a/relu -> res5a_branch2a/bn (in-place)
I0711 18:09:31.939687  7290 net.cpp:148] Setting up res5a_branch2a/relu
I0711 18:09:31.939692  7290 net.cpp:155] Top shape: 4 512 40 40 (3276800)
I0711 18:09:31.939695  7290 net.cpp:163] Memory required for data: 750387200
I0711 18:09:31.939699  7290 layer_factory.hpp:77] Creating layer res5a_branch2b
I0711 18:09:31.939707  7290 net.cpp:98] Creating Layer res5a_branch2b
I0711 18:09:31.939710  7290 net.cpp:439] res5a_branch2b <- res5a_branch2a/bn
I0711 18:09:31.939714  7290 net.cpp:413] res5a_branch2b -> res5a_branch2b
I0711 18:09:31.959228  7290 net.cpp:148] Setting up res5a_branch2b
I0711 18:09:31.959251  7290 net.cpp:155] Top shape: 4 512 40 40 (3276800)
I0711 18:09:31.959254  7290 net.cpp:163] Memory required for data: 763494400
I0711 18:09:31.959264  7290 layer_factory.hpp:77] Creating layer res5a_branch2b/bn
I0711 18:09:31.959271  7290 net.cpp:98] Creating Layer res5a_branch2b/bn
I0711 18:09:31.959276  7290 net.cpp:439] res5a_branch2b/bn <- res5a_branch2b
I0711 18:09:31.959280  7290 net.cpp:413] res5a_branch2b/bn -> res5a_branch2b/bn
I0711 18:09:31.960026  7290 net.cpp:148] Setting up res5a_branch2b/bn
I0711 18:09:31.960032  7290 net.cpp:155] Top shape: 4 512 40 40 (3276800)
I0711 18:09:31.960034  7290 net.cpp:163] Memory required for data: 776601600
I0711 18:09:31.960039  7290 layer_factory.hpp:77] Creating layer res5a_branch2b/relu
I0711 18:09:31.960043  7290 net.cpp:98] Creating Layer res5a_branch2b/relu
I0711 18:09:31.960052  7290 net.cpp:439] res5a_branch2b/relu <- res5a_branch2b/bn
I0711 18:09:31.960054  7290 net.cpp:400] res5a_branch2b/relu -> res5a_branch2b/bn (in-place)
I0711 18:09:31.960058  7290 net.cpp:148] Setting up res5a_branch2b/relu
I0711 18:09:31.960062  7290 net.cpp:155] Top shape: 4 512 40 40 (3276800)
I0711 18:09:31.960063  7290 net.cpp:163] Memory required for data: 789708800
I0711 18:09:31.960065  7290 layer_factory.hpp:77] Creating layer out5a
I0711 18:09:31.960072  7290 net.cpp:98] Creating Layer out5a
I0711 18:09:31.960074  7290 net.cpp:439] out5a <- res5a_branch2b/bn
I0711 18:09:31.960078  7290 net.cpp:413] out5a -> out5a
I0711 18:09:31.964403  7290 net.cpp:148] Setting up out5a
I0711 18:09:31.964421  7290 net.cpp:155] Top shape: 4 64 40 40 (409600)
I0711 18:09:31.964423  7290 net.cpp:163] Memory required for data: 791347200
I0711 18:09:31.964428  7290 layer_factory.hpp:77] Creating layer out5a/bn
I0711 18:09:31.964443  7290 net.cpp:98] Creating Layer out5a/bn
I0711 18:09:31.964447  7290 net.cpp:439] out5a/bn <- out5a
I0711 18:09:31.964450  7290 net.cpp:413] out5a/bn -> out5a/bn
I0711 18:09:31.965260  7290 net.cpp:148] Setting up out5a/bn
I0711 18:09:31.965267  7290 net.cpp:155] Top shape: 4 64 40 40 (409600)
I0711 18:09:31.965279  7290 net.cpp:163] Memory required for data: 792985600
I0711 18:09:31.965284  7290 layer_factory.hpp:77] Creating layer out5a/relu
I0711 18:09:31.965288  7290 net.cpp:98] Creating Layer out5a/relu
I0711 18:09:31.965291  7290 net.cpp:439] out5a/relu <- out5a/bn
I0711 18:09:31.965293  7290 net.cpp:400] out5a/relu -> out5a/bn (in-place)
I0711 18:09:31.965297  7290 net.cpp:148] Setting up out5a/relu
I0711 18:09:31.965299  7290 net.cpp:155] Top shape: 4 64 40 40 (409600)
I0711 18:09:31.965301  7290 net.cpp:163] Memory required for data: 794624000
I0711 18:09:31.965303  7290 layer_factory.hpp:77] Creating layer out5a_up2
I0711 18:09:31.965307  7290 net.cpp:98] Creating Layer out5a_up2
I0711 18:09:31.965309  7290 net.cpp:439] out5a_up2 <- out5a/bn
I0711 18:09:31.965312  7290 net.cpp:413] out5a_up2 -> out5a_up2
I0711 18:09:31.965600  7290 net.cpp:148] Setting up out5a_up2
I0711 18:09:31.965605  7290 net.cpp:155] Top shape: 4 64 80 80 (1638400)
I0711 18:09:31.965606  7290 net.cpp:163] Memory required for data: 801177600
I0711 18:09:31.965610  7290 layer_factory.hpp:77] Creating layer out3a
I0711 18:09:31.965613  7290 net.cpp:98] Creating Layer out3a
I0711 18:09:31.965616  7290 net.cpp:439] out3a <- res3a_branch2b/bn_res3a_branch2b/relu_0_split_1
I0711 18:09:31.965620  7290 net.cpp:413] out3a -> out3a
I0711 18:09:31.967731  7290 net.cpp:148] Setting up out3a
I0711 18:09:31.967742  7290 net.cpp:155] Top shape: 4 64 80 80 (1638400)
I0711 18:09:31.967744  7290 net.cpp:163] Memory required for data: 807731200
I0711 18:09:31.967749  7290 layer_factory.hpp:77] Creating layer out3a/bn
I0711 18:09:31.967754  7290 net.cpp:98] Creating Layer out3a/bn
I0711 18:09:31.967756  7290 net.cpp:439] out3a/bn <- out3a
I0711 18:09:31.967761  7290 net.cpp:413] out3a/bn -> out3a/bn
I0711 18:09:31.968570  7290 net.cpp:148] Setting up out3a/bn
I0711 18:09:31.968577  7290 net.cpp:155] Top shape: 4 64 80 80 (1638400)
I0711 18:09:31.968580  7290 net.cpp:163] Memory required for data: 814284800
I0711 18:09:31.968585  7290 layer_factory.hpp:77] Creating layer out3a/relu
I0711 18:09:31.968587  7290 net.cpp:98] Creating Layer out3a/relu
I0711 18:09:31.968590  7290 net.cpp:439] out3a/relu <- out3a/bn
I0711 18:09:31.968592  7290 net.cpp:400] out3a/relu -> out3a/bn (in-place)
I0711 18:09:31.968596  7290 net.cpp:148] Setting up out3a/relu
I0711 18:09:31.968598  7290 net.cpp:155] Top shape: 4 64 80 80 (1638400)
I0711 18:09:31.968600  7290 net.cpp:163] Memory required for data: 820838400
I0711 18:09:31.968602  7290 layer_factory.hpp:77] Creating layer out3_out5_combined
I0711 18:09:31.968606  7290 net.cpp:98] Creating Layer out3_out5_combined
I0711 18:09:31.968608  7290 net.cpp:439] out3_out5_combined <- out5a_up2
I0711 18:09:31.968611  7290 net.cpp:439] out3_out5_combined <- out3a/bn
I0711 18:09:31.968612  7290 net.cpp:413] out3_out5_combined -> out3_out5_combined
I0711 18:09:31.968637  7290 net.cpp:148] Setting up out3_out5_combined
I0711 18:09:31.968641  7290 net.cpp:155] Top shape: 4 64 80 80 (1638400)
I0711 18:09:31.968643  7290 net.cpp:163] Memory required for data: 827392000
I0711 18:09:31.968646  7290 layer_factory.hpp:77] Creating layer ctx_conv1
I0711 18:09:31.968650  7290 net.cpp:98] Creating Layer ctx_conv1
I0711 18:09:31.968652  7290 net.cpp:439] ctx_conv1 <- out3_out5_combined
I0711 18:09:31.968657  7290 net.cpp:413] ctx_conv1 -> ctx_conv1
I0711 18:09:31.969722  7290 net.cpp:148] Setting up ctx_conv1
I0711 18:09:31.969727  7290 net.cpp:155] Top shape: 4 64 80 80 (1638400)
I0711 18:09:31.969729  7290 net.cpp:163] Memory required for data: 833945600
I0711 18:09:31.969732  7290 layer_factory.hpp:77] Creating layer ctx_conv1/bn
I0711 18:09:31.969735  7290 net.cpp:98] Creating Layer ctx_conv1/bn
I0711 18:09:31.969738  7290 net.cpp:439] ctx_conv1/bn <- ctx_conv1
I0711 18:09:31.969740  7290 net.cpp:413] ctx_conv1/bn -> ctx_conv1/bn
I0711 18:09:31.970549  7290 net.cpp:148] Setting up ctx_conv1/bn
I0711 18:09:31.970554  7290 net.cpp:155] Top shape: 4 64 80 80 (1638400)
I0711 18:09:31.970556  7290 net.cpp:163] Memory required for data: 840499200
I0711 18:09:31.970569  7290 layer_factory.hpp:77] Creating layer ctx_conv1/relu
I0711 18:09:31.970572  7290 net.cpp:98] Creating Layer ctx_conv1/relu
I0711 18:09:31.970576  7290 net.cpp:439] ctx_conv1/relu <- ctx_conv1/bn
I0711 18:09:31.970577  7290 net.cpp:400] ctx_conv1/relu -> ctx_conv1/bn (in-place)
I0711 18:09:31.970580  7290 net.cpp:148] Setting up ctx_conv1/relu
I0711 18:09:31.970583  7290 net.cpp:155] Top shape: 4 64 80 80 (1638400)
I0711 18:09:31.970585  7290 net.cpp:163] Memory required for data: 847052800
I0711 18:09:31.970587  7290 layer_factory.hpp:77] Creating layer ctx_conv2
I0711 18:09:31.970592  7290 net.cpp:98] Creating Layer ctx_conv2
I0711 18:09:31.970595  7290 net.cpp:439] ctx_conv2 <- ctx_conv1/bn
I0711 18:09:31.970598  7290 net.cpp:413] ctx_conv2 -> ctx_conv2
I0711 18:09:31.971653  7290 net.cpp:148] Setting up ctx_conv2
I0711 18:09:31.971658  7290 net.cpp:155] Top shape: 4 64 80 80 (1638400)
I0711 18:09:31.971660  7290 net.cpp:163] Memory required for data: 853606400
I0711 18:09:31.971663  7290 layer_factory.hpp:77] Creating layer ctx_conv2/bn
I0711 18:09:31.971667  7290 net.cpp:98] Creating Layer ctx_conv2/bn
I0711 18:09:31.971668  7290 net.cpp:439] ctx_conv2/bn <- ctx_conv2
I0711 18:09:31.971671  7290 net.cpp:413] ctx_conv2/bn -> ctx_conv2/bn
I0711 18:09:31.972483  7290 net.cpp:148] Setting up ctx_conv2/bn
I0711 18:09:31.972491  7290 net.cpp:155] Top shape: 4 64 80 80 (1638400)
I0711 18:09:31.972492  7290 net.cpp:163] Memory required for data: 860160000
I0711 18:09:31.972496  7290 layer_factory.hpp:77] Creating layer ctx_conv2/relu
I0711 18:09:31.972499  7290 net.cpp:98] Creating Layer ctx_conv2/relu
I0711 18:09:31.972501  7290 net.cpp:439] ctx_conv2/relu <- ctx_conv2/bn
I0711 18:09:31.972503  7290 net.cpp:400] ctx_conv2/relu -> ctx_conv2/bn (in-place)
I0711 18:09:31.972507  7290 net.cpp:148] Setting up ctx_conv2/relu
I0711 18:09:31.972509  7290 net.cpp:155] Top shape: 4 64 80 80 (1638400)
I0711 18:09:31.972512  7290 net.cpp:163] Memory required for data: 866713600
I0711 18:09:31.972513  7290 layer_factory.hpp:77] Creating layer ctx_conv3
I0711 18:09:31.972517  7290 net.cpp:98] Creating Layer ctx_conv3
I0711 18:09:31.972519  7290 net.cpp:439] ctx_conv3 <- ctx_conv2/bn
I0711 18:09:31.972522  7290 net.cpp:413] ctx_conv3 -> ctx_conv3
I0711 18:09:31.973588  7290 net.cpp:148] Setting up ctx_conv3
I0711 18:09:31.973594  7290 net.cpp:155] Top shape: 4 64 80 80 (1638400)
I0711 18:09:31.973597  7290 net.cpp:163] Memory required for data: 873267200
I0711 18:09:31.973599  7290 layer_factory.hpp:77] Creating layer ctx_conv3/bn
I0711 18:09:31.973603  7290 net.cpp:98] Creating Layer ctx_conv3/bn
I0711 18:09:31.973605  7290 net.cpp:439] ctx_conv3/bn <- ctx_conv3
I0711 18:09:31.973608  7290 net.cpp:413] ctx_conv3/bn -> ctx_conv3/bn
I0711 18:09:31.974416  7290 net.cpp:148] Setting up ctx_conv3/bn
I0711 18:09:31.974421  7290 net.cpp:155] Top shape: 4 64 80 80 (1638400)
I0711 18:09:31.974423  7290 net.cpp:163] Memory required for data: 879820800
I0711 18:09:31.974428  7290 layer_factory.hpp:77] Creating layer ctx_conv3/relu
I0711 18:09:31.974432  7290 net.cpp:98] Creating Layer ctx_conv3/relu
I0711 18:09:31.974436  7290 net.cpp:439] ctx_conv3/relu <- ctx_conv3/bn
I0711 18:09:31.974437  7290 net.cpp:400] ctx_conv3/relu -> ctx_conv3/bn (in-place)
I0711 18:09:31.974440  7290 net.cpp:148] Setting up ctx_conv3/relu
I0711 18:09:31.974443  7290 net.cpp:155] Top shape: 4 64 80 80 (1638400)
I0711 18:09:31.974445  7290 net.cpp:163] Memory required for data: 886374400
I0711 18:09:31.974449  7290 layer_factory.hpp:77] Creating layer ctx_conv4
I0711 18:09:31.974452  7290 net.cpp:98] Creating Layer ctx_conv4
I0711 18:09:31.974457  7290 net.cpp:439] ctx_conv4 <- ctx_conv3/bn
I0711 18:09:31.974459  7290 net.cpp:413] ctx_conv4 -> ctx_conv4
I0711 18:09:31.975518  7290 net.cpp:148] Setting up ctx_conv4
I0711 18:09:31.975524  7290 net.cpp:155] Top shape: 4 64 80 80 (1638400)
I0711 18:09:31.975527  7290 net.cpp:163] Memory required for data: 892928000
I0711 18:09:31.975529  7290 layer_factory.hpp:77] Creating layer ctx_conv4/bn
I0711 18:09:31.975539  7290 net.cpp:98] Creating Layer ctx_conv4/bn
I0711 18:09:31.975543  7290 net.cpp:439] ctx_conv4/bn <- ctx_conv4
I0711 18:09:31.975545  7290 net.cpp:413] ctx_conv4/bn -> ctx_conv4/bn
I0711 18:09:31.976346  7290 net.cpp:148] Setting up ctx_conv4/bn
I0711 18:09:31.976351  7290 net.cpp:155] Top shape: 4 64 80 80 (1638400)
I0711 18:09:31.976353  7290 net.cpp:163] Memory required for data: 899481600
I0711 18:09:31.976357  7290 layer_factory.hpp:77] Creating layer ctx_conv4/relu
I0711 18:09:31.976361  7290 net.cpp:98] Creating Layer ctx_conv4/relu
I0711 18:09:31.976363  7290 net.cpp:439] ctx_conv4/relu <- ctx_conv4/bn
I0711 18:09:31.976366  7290 net.cpp:400] ctx_conv4/relu -> ctx_conv4/bn (in-place)
I0711 18:09:31.976369  7290 net.cpp:148] Setting up ctx_conv4/relu
I0711 18:09:31.976372  7290 net.cpp:155] Top shape: 4 64 80 80 (1638400)
I0711 18:09:31.976375  7290 net.cpp:163] Memory required for data: 906035200
I0711 18:09:31.976377  7290 layer_factory.hpp:77] Creating layer ctx_final
I0711 18:09:31.976380  7290 net.cpp:98] Creating Layer ctx_final
I0711 18:09:31.976383  7290 net.cpp:439] ctx_final <- ctx_conv4/bn
I0711 18:09:31.976385  7290 net.cpp:413] ctx_final -> ctx_final
I0711 18:09:31.976821  7290 net.cpp:148] Setting up ctx_final
I0711 18:09:31.976827  7290 net.cpp:155] Top shape: 4 8 80 80 (204800)
I0711 18:09:31.976830  7290 net.cpp:163] Memory required for data: 906854400
I0711 18:09:31.976832  7290 layer_factory.hpp:77] Creating layer ctx_final/relu
I0711 18:09:31.976835  7290 net.cpp:98] Creating Layer ctx_final/relu
I0711 18:09:31.976837  7290 net.cpp:439] ctx_final/relu <- ctx_final
I0711 18:09:31.976840  7290 net.cpp:400] ctx_final/relu -> ctx_final (in-place)
I0711 18:09:31.976843  7290 net.cpp:148] Setting up ctx_final/relu
I0711 18:09:31.976846  7290 net.cpp:155] Top shape: 4 8 80 80 (204800)
I0711 18:09:31.976848  7290 net.cpp:163] Memory required for data: 907673600
I0711 18:09:31.976850  7290 layer_factory.hpp:77] Creating layer out_deconv_final_up2
I0711 18:09:31.976853  7290 net.cpp:98] Creating Layer out_deconv_final_up2
I0711 18:09:31.976856  7290 net.cpp:439] out_deconv_final_up2 <- ctx_final
I0711 18:09:31.976860  7290 net.cpp:413] out_deconv_final_up2 -> out_deconv_final_up2
I0711 18:09:31.977118  7290 net.cpp:148] Setting up out_deconv_final_up2
I0711 18:09:31.977123  7290 net.cpp:155] Top shape: 4 8 160 160 (819200)
I0711 18:09:31.977124  7290 net.cpp:163] Memory required for data: 910950400
I0711 18:09:31.977128  7290 layer_factory.hpp:77] Creating layer out_deconv_final_up4
I0711 18:09:31.977130  7290 net.cpp:98] Creating Layer out_deconv_final_up4
I0711 18:09:31.977133  7290 net.cpp:439] out_deconv_final_up4 <- out_deconv_final_up2
I0711 18:09:31.977136  7290 net.cpp:413] out_deconv_final_up4 -> out_deconv_final_up4
I0711 18:09:31.977394  7290 net.cpp:148] Setting up out_deconv_final_up4
I0711 18:09:31.977399  7290 net.cpp:155] Top shape: 4 8 320 320 (3276800)
I0711 18:09:31.977401  7290 net.cpp:163] Memory required for data: 924057600
I0711 18:09:31.977404  7290 layer_factory.hpp:77] Creating layer out_deconv_final_up8
I0711 18:09:31.977407  7290 net.cpp:98] Creating Layer out_deconv_final_up8
I0711 18:09:31.977411  7290 net.cpp:439] out_deconv_final_up8 <- out_deconv_final_up4
I0711 18:09:31.977413  7290 net.cpp:413] out_deconv_final_up8 -> out_deconv_final_up8
I0711 18:09:31.977661  7290 net.cpp:148] Setting up out_deconv_final_up8
I0711 18:09:31.977666  7290 net.cpp:155] Top shape: 4 8 640 640 (13107200)
I0711 18:09:31.977669  7290 net.cpp:163] Memory required for data: 976486400
I0711 18:09:31.977671  7290 layer_factory.hpp:77] Creating layer out_deconv_final_up8_out_deconv_final_up8_0_split
I0711 18:09:31.977675  7290 net.cpp:98] Creating Layer out_deconv_final_up8_out_deconv_final_up8_0_split
I0711 18:09:31.977677  7290 net.cpp:439] out_deconv_final_up8_out_deconv_final_up8_0_split <- out_deconv_final_up8
I0711 18:09:31.977680  7290 net.cpp:413] out_deconv_final_up8_out_deconv_final_up8_0_split -> out_deconv_final_up8_out_deconv_final_up8_0_split_0
I0711 18:09:31.977689  7290 net.cpp:413] out_deconv_final_up8_out_deconv_final_up8_0_split -> out_deconv_final_up8_out_deconv_final_up8_0_split_1
I0711 18:09:31.977694  7290 net.cpp:413] out_deconv_final_up8_out_deconv_final_up8_0_split -> out_deconv_final_up8_out_deconv_final_up8_0_split_2
I0711 18:09:31.977752  7290 net.cpp:148] Setting up out_deconv_final_up8_out_deconv_final_up8_0_split
I0711 18:09:31.977757  7290 net.cpp:155] Top shape: 4 8 640 640 (13107200)
I0711 18:09:31.977759  7290 net.cpp:155] Top shape: 4 8 640 640 (13107200)
I0711 18:09:31.977762  7290 net.cpp:155] Top shape: 4 8 640 640 (13107200)
I0711 18:09:31.977764  7290 net.cpp:163] Memory required for data: 1133772800
I0711 18:09:31.977766  7290 layer_factory.hpp:77] Creating layer loss
I0711 18:09:31.977771  7290 net.cpp:98] Creating Layer loss
I0711 18:09:31.977774  7290 net.cpp:439] loss <- out_deconv_final_up8_out_deconv_final_up8_0_split_0
I0711 18:09:31.977777  7290 net.cpp:439] loss <- label_data_1_split_0
…
