…
I0614 14:22:18.364290   945 net.cpp:327] The NetState phase (0) differed from the phase (1) specified by a rule in layer accuracy/top1
I0614 14:22:18.364296   945 net.cpp:327] The NetState phase (0) differed from the phase (1) specified by a rule in layer accuracy/top5
I0614 14:22:18.364451   945 net.cpp:56] Initializing net from parameters: 
name: "jacintonet11_train"
state {
  phase: TRAIN
}
layer {
  name: "data"
  type: "Data"
  top: "data"
  top: "label"
  transform_param {
    mirror: true
    crop_size: 224
    mean_value: 0
    mean_value: 0
    mean_value: 0
  }
  data_param {
    source: "./data/ilsvrc12_train_lmdb"
    batch_size: 64
    backend: LMDB
  }
}
layer {
  name: "data/bias"
  type: "Bias"
  bottom: "data"
  top: "data/bias"
  param {
    lr_mult: 0
    decay_mult: 0
  }
  bias_param {
    filler {
      type: "constant"
      value: -128
    }
  }
}
layer {
  name: "conv1a"
  type: "Convolution"
  bottom: "data/bias"
  top: "conv1a"
  param {
    lr_mult: 1
    decay_mult: 1
  }
  param {
    lr_mult: 2
    decay_mult: 0
  }
  convolution_param {
    num_output: 32
    bias_term: true
    pad: 2
    kernel_size: 5
    group: 1
    stride: 2
    weight_filler {
      type: "msra"
    }
    bias_filler {
      type: "constant"
      value: 0
    }
    dilation: 1
  }
}
layer {
  name: "conv1a/bn"
  type: "BatchNorm"
  bottom: "conv1a"
  top: "conv1a/bn"
  param {
    lr_mult: 1
    decay_mult: 1
  }
  param {
    lr_mult: 1
    decay_mult: 1
  }
  param {
    lr_mult: 0
    decay_mult: 0
  }
  param {
    lr_mult: 0
    decay_mult: 0
  }
  batch_norm_param {
    moving_average_fraction: 0.99
    eps: 0.0001
    scale_filler {
      type: "constant"
      value: 1
    }
    bias_filler {
      type: "constant"
      value: 0
    }
  }
}
layer {
  name: "conv1a/relu"
  type: "ReLU"
  bottom: "conv1a/bn"
  top: "conv1a/bn"
}
layer {
  name: "conv1b"
  type: "Convolution"
  bottom: "conv1a/bn"
  top: "conv1b"
  param {
    lr_mult: 1
    decay_mult: 1
  }
  param {
    lr_mult: 2
    decay_mult: 0
  }
  convolution_param {
    num_output: 32
    bias_term: true
    pad: 1
    kernel_size: 3
    group: 4
    stride: 1
    weight_filler {
      type: "msra"
    }
    bias_filler {
      type: "constant"
      value: 0
    }
    dilation: 1
  }
}
layer {
  name: "conv1b/bn"
  type: "BatchNorm"
  bottom: "conv1b"
  top: "conv1b/bn"
  param {
    lr_mult: 1
    decay_mult: 1
  }
  param {
    lr_mult: 1
    decay_mult: 1
  }
  param {
    lr_mult: 0
    decay_mult: 0
  }
  param {
    lr_mult: 0
    decay_mult: 0
  }
  batch_norm_param {
    moving_average_fraction: 0.99
    eps: 0.0001
    scale_filler {
      type: "constant"
      value: 1
    }
    bias_filler {
      type: "constant"
      value: 0
    }
  }
}
layer {
  name: "conv1b/relu"
  type: "ReLU"
  bottom: "conv1b/bn"
  top: "conv1b/bn"
}
layer {
  name: "pool1"
  type: "Pooling"
  bottom: "conv1b/bn"
  top: "pool1"
  pooling_param {
    pool: MAX
    kernel_size: 2
    stride: 2
  }
}
layer {
  name: "res2a_branch2a"
  type: "Convolution"
  bottom: "pool1"
  top: "res2a_branch2a"
  param {
    lr_mult: 1
    decay_mult: 1
  }
  param {
    lr_mult: 2
    decay_mult: 0
  }
  convolution_param {
    num_output: 64
    bias_term: true
    pad: 1
    kernel_size: 3
    group: 1
    stride: 1
    weight_filler {
      type: "msra"
    }
    bias_filler {
      type: "constant"
      value: 0
    }
    dilation: 1
  }
}
layer {
  name: "res2a_branch2a/bn"
  type: "BatchNorm"
  bottom: "res2a_branch2a"
  top: "res2a_branch2a/bn"
  param {
    lr_mult: 1
    decay_mult: 1
  }
  param {
    lr_mult: 1
    decay_mult: 1
  }
  param {
    lr_mult: 0
    decay_mult: 0
  }
  param {
    lr_mult: 0
    decay_mult: 0
  }
  batch_norm_param {
    moving_average_fraction: 0.99
    eps: 0.0001
    scale_filler {
      type: "constant"
      value: 1
    }
    bias_filler {
      type: "constant"
      value: 0
    }
  }
}
layer {
  name: "res2a_branch2a/relu"
  type: "ReLU"
  bottom: "res2a_branch2a/bn"
  top: "res2a_branch2a/bn"
}
layer {
  name: "res2a_branch2b"
  type: "Convolution"
  bottom: "res2a_branch2a/bn"
  top: "res2a_branch2b"
  param {
    lr_mult: 1
    decay_mult: 1
  }
  param {
    lr_mult: 2
    decay_mult: 0
  }
  convolution_param {
    num_output: 64
    bias_term: true
    pad: 1
    kernel_size: 3
    group: 4
    stride: 1
    weight_filler {
      type: "msra"
    }
    bias_filler {
      type: "constant"
      value: 0
    }
    dilation: 1
  }
}
layer {
  name: "res2a_branch2b/bn"
  type: "BatchNorm"
  bottom: "res2a_branch2b"
  top: "res2a_branch2b/bn"
  param {
    lr_mult: 1
    decay_mult: 1
  }
  param {
    lr_mult: 1
    decay_mult: 1
  }
  param {
    lr_mult: 0
    decay_mult: 0
  }
  param {
    lr_mult: 0
    decay_mult: 0
  }
  batch_norm_param {
    moving_average_fraction: 0.99
    eps: 0.0001
    scale_filler {
      type: "constant"
      value: 1
    }
    bias_filler {
      type: "constant"
      value: 0
    }
  }
}
layer {
  name: "res2a_branch2b/relu"
  type: "ReLU"
  bottom: "res2a_branch2b/bn"
  top: "res2a_branch2b/bn"
}
layer {
  name: "pool2"
  type: "Pooling"
  bottom: "res2a_branch2b/bn"
  top: "pool2"
  pooling_param {
    pool: MAX
    kernel_size: 2
    stride: 2
  }
}
layer {
  name: "res3a_branch2a"
  type: "Convolution"
  bottom: "pool2"
  top: "res3a_branch2a"
  param {
    lr_mult: 1
    decay_mult: 1
  }
  param {
    lr_mult: 2
    decay_mult: 0
  }
  convolution_param {
    num_output: 128
    bias_term: true
    pad: 1
    kernel_size: 3
    group: 1
    stride: 1
    weight_filler {
      type: "msra"
    }
    bias_filler {
      type: "constant"
      value: 0
    }
    dilation: 1
  }
}
layer {
  name: "res3a_branch2a/bn"
  type: "BatchNorm"
  bottom: "res3a_branch2a"
  top: "res3a_branch2a/bn"
  param {
    lr_mult: 1
    decay_mult: 1
  }
  param {
    lr_mult: 1
    decay_mult: 1
  }
  param {
    lr_mult: 0
    decay_mult: 0
  }
  param {
    lr_mult: 0
    decay_mult: 0
  }
  batch_norm_param {
    moving_average_fraction: 0.99
    eps: 0.0001
    scale_filler {
      type: "constant"
      value: 1
    }
    bias_filler {
      type: "constant"
      value: 0
    }
  }
}
layer {
  name: "res3a_branch2a/relu"
  type: "ReLU"
  bottom: "res3a_branch2a/bn"
  top: "res3a_branch2a/bn"
}
layer {
  name: "res3a_branch2b"
  type: "Convolution"
  bottom: "res3a_branch2a/bn"
  top: "res3a_branch2b"
  param {
    lr_mult: 1
    decay_mult: 1
  }
  param {
    lr_mult: 2
    decay_mult: 0
  }
  convolution_param {
    num_output: 128
    bias_term: true
    pad: 1
    kernel_size: 3
    group: 4
    stride: 1
    weight_filler {
      type: "msra"
    }
    bias_filler {
      type: "constant"
      value: 0
    }
    dilation: 1
  }
}
layer {
  name: "res3a_branch2b/bn"
  type: "BatchNorm"
  bottom: "res3a_branch2b"
  top: "res3a_branch2b/bn"
  param {
    lr_mult: 1
    decay_mult: 1
  }
  param {
    lr_mult: 1
    decay_mult: 1
  }
  param {
    lr_mult: 0
    decay_mult: 0
  }
  param {
    lr_mult: 0
    decay_mult: 0
  }
  batch_norm_param {
    moving_average_fraction: 0.99
    eps: 0.0001
    scale_filler {
      type: "constant"
      value: 1
    }
    bias_filler {
      type: "constant"
      value: 0
    }
  }
}
layer {
  name: "res3a_branch2b/relu"
  type: "ReLU"
  bottom: "res3a_branch2b/bn"
  top: "res3a_branch2b/bn"
}
layer {
  name: "pool3"
  type: "Pooling"
  bottom: "res3a_branch2b/bn"
  top: "pool3"
  pooling_param {
    pool: MAX
    kernel_size: 2
    stride: 2
  }
}
layer {
  name: "res4a_branch2a"
  type: "Convolution"
  bottom: "pool3"
  top: "res4a_branch2a"
  param {
    lr_mult: 1
    decay_mult: 1
  }
  param {
    lr_mult: 2
    decay_mult: 0
  }
  convolution_param {
    num_output: 256
    bias_term: true
    pad: 1
    kernel_size: 3
    group: 1
    stride: 1
    weight_filler {
      type: "msra"
    }
    bias_filler {
      type: "constant"
      value: 0
    }
    dilation: 1
  }
}
layer {
  name: "res4a_branch2a/bn"
  type: "BatchNorm"
  bottom: "res4a_branch2a"
  top: "res4a_branch2a/bn"
  param {
    lr_mult: 1
    decay_mult: 1
  }
  param {
    lr_mult: 1
    decay_mult: 1
  }
  param {
    lr_mult: 0
    decay_mult: 0
  }
  param {
    lr_mult: 0
    decay_mult: 0
  }
  batch_norm_param {
    moving_average_fraction: 0.99
    eps: 0.0001
    scale_filler {
      type: "constant"
      value: 1
    }
    bias_filler {
      type: "constant"
      value: 0
    }
  }
}
layer {
  name: "res4a_branch2a/relu"
  type: "ReLU"
  bottom: "res4a_branch2a/bn"
  top: "res4a_branch2a/bn"
}
layer {
  name: "res4a_branch2b"
  type: "Convolution"
  bottom: "res4a_branch2a/bn"
  top: "res4a_branch2b"
  param {
    lr_mult: 1
    decay_mult: 1
  }
  param {
    lr_mult: 2
    decay_mult: 0
  }
  convolution_param {
    num_output: 256
    bias_term: true
    pad: 1
    kernel_size: 3
    group: 4
    stride: 1
    weight_filler {
      type: "msra"
    }
    bias_filler {
      type: "constant"
      value: 0
    }
    dilation: 1
  }
}
layer {
  name: "res4a_branch2b/bn"
  type: "BatchNorm"
  bottom: "res4a_branch2b"
  top: "res4a_branch2b/bn"
  param {
    lr_mult: 1
    decay_mult: 1
  }
  param {
    lr_mult: 1
    decay_mult: 1
  }
  param {
    lr_mult: 0
    decay_mult: 0
  }
  param {
    lr_mult: 0
    decay_mult: 0
  }
  batch_norm_param {
    moving_average_fraction: 0.99
    eps: 0.0001
    scale_filler {
      type: "constant"
      value: 1
    }
    bias_filler {
      type: "constant"
      value: 0
    }
  }
}
layer {
  name: "res4a_branch2b/relu"
  type: "ReLU"
  bottom: "res4a_branch2b/bn"
  top: "res4a_branch2b/bn"
}
layer {
  name: "pool4"
  type: "Pooling"
  bottom: "res4a_branch2b/bn"
  top: "pool4"
  pooling_param {
    pool: MAX
    kernel_size: 2
    stride: 2
  }
}
layer {
  name: "res5a_branch2a"
  type: "Convolution"
  bottom: "pool4"
  top: "res5a_branch2a"
  param {
    lr_mult: 1
    decay_mult: 1
  }
  param {
    lr_mult: 2
    decay_mult: 0
  }
  convolution_param {
    num_output: 512
    bias_term: true
    pad: 1
    kernel_size: 3
    group: 1
    stride: 1
    weight_filler {
      type: "msra"
    }
    bias_filler {
      type: "constant"
      value: 0
    }
    dilation: 1
  }
}
layer {
  name: "res5a_branch2a/bn"
  type: "BatchNorm"
  bottom: "res5a_branch2a"
  top: "res5a_branch2a/bn"
  param {
    lr_mult: 1
    decay_mult: 1
  }
  param {
    lr_mult: 1
    decay_mult: 1
  }
  param {
    lr_mult: 0
    decay_mult: 0
  }
  param {
    lr_mult: 0
    decay_mult: 0
  }
  batch_norm_param {
    moving_average_fraction: 0.99
    eps: 0.0001
    scale_filler {
      type: "constant"
      value: 1
    }
    bias_filler {
      type: "constant"
      value: 0
    }
  }
}
layer {
  name: "res5a_branch2a/relu"
  type: "ReLU"
  bottom: "res5a_branch2a/bn"
  top: "res5a_branch2a/bn"
}
layer {
  name: "res5a_branch2b"
  type: "Convolution"
  bottom: "res5a_branch2a/bn"
  top: "res5a_branch2b"
  param {
    lr_mult: 1
    decay_mult: 1
  }
  param {
    lr_mult: 2
    decay_mult: 0
  }
  convolution_param {
    num_output: 512
    bias_term: true
    pad: 1
    kernel_size: 3
    group: 4
    stride: 1
    weight_filler {
      type: "msra"
    }
    bias_filler {
      type: "constant"
      value: 0
    }
    dilation: 1
  }
}
layer {
  name: "res5a_branch2b/bn"
  type: "BatchNorm"
  bottom: "res5a_branch2b"
  top: "res5a_branch2b/bn"
  param {
    lr_mult: 1
    decay_mult: 1
  }
  param {
    lr_mult: 1
    decay_mult: 1
  }
  param {
    lr_mult: 0
    decay_mult: 0
  }
  param {
    lr_mult: 0
    decay_mult: 0
  }
  batch_norm_param {
    moving_average_fraction: 0.99
    eps: 0.0001
    scale_filler {
      type: "constant"
      value: 1
    }
    bias_filler {
      type: "constant"
      value: 0
    }
  }
}
layer {
  name: "res5a_branch2b/relu"
  type: "ReLU"
  bottom: "res5a_branch2b/bn"
  top: "res5a_branch2b/bn"
}
layer {
  name: "pool5"
  type: "Pooling"
  bottom: "res5a_branch2b/bn"
  top: "pool5"
  pooling_param {
    pool: AVE
    global_pooling: true
  }
}
layer {
  name: "fc1000"
  type: "InnerProduct"
  bottom: "pool5"
  top: "fc1000"
  param {
    lr_mult: 1
    decay_mult: 1
  }
  param {
    lr_mult: 2
    decay_mult: 0
  }
  inner_product_param {
    num_output: 1000
    weight_filler {
      type: "msra"
    }
    bias_filler {
      type: "constant"
      value: 0
    }
  }
}
layer {
  name: "loss"
  type: "SoftmaxWithLoss"
  bottom: "fc1000"
  bottom: "label"
  top: "loss"
  propagate_down: true
  propagate_down: false
}
I0614 14:22:18.364534   945 layer_factory.hpp:77] Creating layer data
I0614 14:22:18.364668   945 net.cpp:98] Creating Layer data
I0614 14:22:18.364677   945 net.cpp:413] data -> data
I0614 14:22:18.364697   945 net.cpp:413] data -> label
I0614 14:22:18.365970  1023 db_lmdb.cpp:35] Opened lmdb ./data/ilsvrc12_train_lmdb
I0614 14:22:18.368638   945 data_layer.cpp:79] ReshapePrefetch 64, 3, 224, 224
I0614 14:22:18.368677   945 data_layer.cpp:84] output data size: 64,3,224,224
I0614 14:22:18.406595   945 net.cpp:148] Setting up data
I0614 14:22:18.406615   945 net.cpp:155] Top shape: 64 3 224 224 (9633792)
I0614 14:22:18.406618   945 net.cpp:155] Top shape: 64 (64)
I0614 14:22:18.406620   945 net.cpp:163] Memory required for data: 38535424
I0614 14:22:18.406628   945 layer_factory.hpp:77] Creating layer data/bias
I0614 14:22:18.406641   945 net.cpp:98] Creating Layer data/bias
I0614 14:22:18.406646   945 net.cpp:439] data/bias <- data
I0614 14:22:18.406653   945 net.cpp:413] data/bias -> data/bias
I0614 14:22:18.407495   945 net.cpp:148] Setting up data/bias
I0614 14:22:18.407505   945 net.cpp:155] Top shape: 64 3 224 224 (9633792)
I0614 14:22:18.407506   945 net.cpp:163] Memory required for data: 77070592
I0614 14:22:18.407516   945 layer_factory.hpp:77] Creating layer conv1a
I0614 14:22:18.407526   945 net.cpp:98] Creating Layer conv1a
I0614 14:22:18.407528   945 net.cpp:439] conv1a <- data/bias
I0614 14:22:18.407533   945 net.cpp:413] conv1a -> conv1a
I0614 14:22:18.411834  1028 blocking_queue.cpp:50] Waiting for data
I0614 14:22:18.412528   945 net.cpp:148] Setting up conv1a
I0614 14:22:18.412537   945 net.cpp:155] Top shape: 64 32 112 112 (25690112)
I0614 14:22:18.412539   945 net.cpp:163] Memory required for data: 179831040
I0614 14:22:18.412545   945 layer_factory.hpp:77] Creating layer conv1a/bn
I0614 14:22:18.412552   945 net.cpp:98] Creating Layer conv1a/bn
I0614 14:22:18.412555   945 net.cpp:439] conv1a/bn <- conv1a
I0614 14:22:18.412559   945 net.cpp:413] conv1a/bn -> conv1a/bn
I0614 14:22:18.413049   945 net.cpp:148] Setting up conv1a/bn
I0614 14:22:18.413056   945 net.cpp:155] Top shape: 64 32 112 112 (25690112)
I0614 14:22:18.413058   945 net.cpp:163] Memory required for data: 282591488
I0614 14:22:18.413064   945 layer_factory.hpp:77] Creating layer conv1a/relu
I0614 14:22:18.413067   945 net.cpp:98] Creating Layer conv1a/relu
I0614 14:22:18.413069   945 net.cpp:439] conv1a/relu <- conv1a/bn
I0614 14:22:18.413072   945 net.cpp:400] conv1a/relu -> conv1a/bn (in-place)
I0614 14:22:18.413081   945 net.cpp:148] Setting up conv1a/relu
I0614 14:22:18.413084   945 net.cpp:155] Top shape: 64 32 112 112 (25690112)
I0614 14:22:18.413086   945 net.cpp:163] Memory required for data: 385351936
I0614 14:22:18.413089   945 layer_factory.hpp:77] Creating layer conv1b
I0614 14:22:18.413092   945 net.cpp:98] Creating Layer conv1b
I0614 14:22:18.413094   945 net.cpp:439] conv1b <- conv1a/bn
I0614 14:22:18.413108   945 net.cpp:413] conv1b -> conv1b
I0614 14:22:18.413349   945 net.cpp:148] Setting up conv1b
I0614 14:22:18.413355   945 net.cpp:155] Top shape: 64 32 112 112 (25690112)
I0614 14:22:18.413357   945 net.cpp:163] Memory required for data: 488112384
I0614 14:22:18.413362   945 layer_factory.hpp:77] Creating layer conv1b/bn
I0614 14:22:18.413364   945 net.cpp:98] Creating Layer conv1b/bn
I0614 14:22:18.413367   945 net.cpp:439] conv1b/bn <- conv1b
I0614 14:22:18.413369   945 net.cpp:413] conv1b/bn -> conv1b/bn
I0614 14:22:18.413895   945 net.cpp:148] Setting up conv1b/bn
I0614 14:22:18.413903   945 net.cpp:155] Top shape: 64 32 112 112 (25690112)
I0614 14:22:18.413905   945 net.cpp:163] Memory required for data: 590872832
I0614 14:22:18.413910   945 layer_factory.hpp:77] Creating layer conv1b/relu
I0614 14:22:18.413913   945 net.cpp:98] Creating Layer conv1b/relu
I0614 14:22:18.413915   945 net.cpp:439] conv1b/relu <- conv1b/bn
I0614 14:22:18.413918   945 net.cpp:400] conv1b/relu -> conv1b/bn (in-place)
I0614 14:22:18.413923   945 net.cpp:148] Setting up conv1b/relu
I0614 14:22:18.413924   945 net.cpp:155] Top shape: 64 32 112 112 (25690112)
I0614 14:22:18.413925   945 net.cpp:163] Memory required for data: 693633280
I0614 14:22:18.413928   945 layer_factory.hpp:77] Creating layer pool1
I0614 14:22:18.413933   945 net.cpp:98] Creating Layer pool1
I0614 14:22:18.413934   945 net.cpp:439] pool1 <- conv1b/bn
I0614 14:22:18.413938   945 net.cpp:413] pool1 -> pool1
I0614 14:22:18.413969   945 net.cpp:148] Setting up pool1
I0614 14:22:18.413974   945 net.cpp:155] Top shape: 64 32 56 56 (6422528)
I0614 14:22:18.413975   945 net.cpp:163] Memory required for data: 719323392
I0614 14:22:18.413977   945 layer_factory.hpp:77] Creating layer res2a_branch2a
I0614 14:22:18.413981   945 net.cpp:98] Creating Layer res2a_branch2a
I0614 14:22:18.413985   945 net.cpp:439] res2a_branch2a <- pool1
I0614 14:22:18.413990   945 net.cpp:413] res2a_branch2a -> res2a_branch2a
I0614 14:22:18.414716   945 net.cpp:148] Setting up res2a_branch2a
I0614 14:22:18.414726   945 net.cpp:155] Top shape: 64 64 56 56 (12845056)
I0614 14:22:18.414729   945 net.cpp:163] Memory required for data: 770703616
I0614 14:22:18.414736   945 layer_factory.hpp:77] Creating layer res2a_branch2a/bn
I0614 14:22:18.414741   945 net.cpp:98] Creating Layer res2a_branch2a/bn
I0614 14:22:18.414746   945 net.cpp:439] res2a_branch2a/bn <- res2a_branch2a
I0614 14:22:18.414749   945 net.cpp:413] res2a_branch2a/bn -> res2a_branch2a/bn
I0614 14:22:18.415400   945 net.cpp:148] Setting up res2a_branch2a/bn
I0614 14:22:18.415408   945 net.cpp:155] Top shape: 64 64 56 56 (12845056)
I0614 14:22:18.415412   945 net.cpp:163] Memory required for data: 822083840
I0614 14:22:18.415421   945 layer_factory.hpp:77] Creating layer res2a_branch2a/relu
I0614 14:22:18.415426   945 net.cpp:98] Creating Layer res2a_branch2a/relu
I0614 14:22:18.415431   945 net.cpp:439] res2a_branch2a/relu <- res2a_branch2a/bn
I0614 14:22:18.415436   945 net.cpp:400] res2a_branch2a/relu -> res2a_branch2a/bn (in-place)
I0614 14:22:18.415441   945 net.cpp:148] Setting up res2a_branch2a/relu
I0614 14:22:18.415447   945 net.cpp:155] Top shape: 64 64 56 56 (12845056)
I0614 14:22:18.415452   945 net.cpp:163] Memory required for data: 873464064
I0614 14:22:18.415455   945 layer_factory.hpp:77] Creating layer res2a_branch2b
I0614 14:22:18.415462   945 net.cpp:98] Creating Layer res2a_branch2b
I0614 14:22:18.415467   945 net.cpp:439] res2a_branch2b <- res2a_branch2a/bn
I0614 14:22:18.415472   945 net.cpp:413] res2a_branch2b -> res2a_branch2b
I0614 14:22:18.415946   945 net.cpp:148] Setting up res2a_branch2b
I0614 14:22:18.415952   945 net.cpp:155] Top shape: 64 64 56 56 (12845056)
I0614 14:22:18.415956   945 net.cpp:163] Memory required for data: 924844288
I0614 14:22:18.415959   945 layer_factory.hpp:77] Creating layer res2a_branch2b/bn
I0614 14:22:18.415964   945 net.cpp:98] Creating Layer res2a_branch2b/bn
I0614 14:22:18.415966   945 net.cpp:439] res2a_branch2b/bn <- res2a_branch2b
I0614 14:22:18.415977   945 net.cpp:413] res2a_branch2b/bn -> res2a_branch2b/bn
I0614 14:22:18.416496   945 net.cpp:148] Setting up res2a_branch2b/bn
I0614 14:22:18.416502   945 net.cpp:155] Top shape: 64 64 56 56 (12845056)
I0614 14:22:18.416505   945 net.cpp:163] Memory required for data: 976224512
I0614 14:22:18.416510   945 layer_factory.hpp:77] Creating layer res2a_branch2b/relu
I0614 14:22:18.416513   945 net.cpp:98] Creating Layer res2a_branch2b/relu
I0614 14:22:18.416517   945 net.cpp:439] res2a_branch2b/relu <- res2a_branch2b/bn
I0614 14:22:18.416519   945 net.cpp:400] res2a_branch2b/relu -> res2a_branch2b/bn (in-place)
I0614 14:22:18.416525   945 net.cpp:148] Setting up res2a_branch2b/relu
I0614 14:22:18.416528   945 net.cpp:155] Top shape: 64 64 56 56 (12845056)
I0614 14:22:18.416530   945 net.cpp:163] Memory required for data: 1027604736
I0614 14:22:18.416533   945 layer_factory.hpp:77] Creating layer pool2
I0614 14:22:18.416538   945 net.cpp:98] Creating Layer pool2
I0614 14:22:18.416543   945 net.cpp:439] pool2 <- res2a_branch2b/bn
I0614 14:22:18.416548   945 net.cpp:413] pool2 -> pool2
I0614 14:22:18.416582   945 net.cpp:148] Setting up pool2
I0614 14:22:18.416589   945 net.cpp:155] Top shape: 64 64 28 28 (3211264)
I0614 14:22:18.416592   945 net.cpp:163] Memory required for data: 1040449792
I0614 14:22:18.416596   945 layer_factory.hpp:77] Creating layer res3a_branch2a
I0614 14:22:18.416604   945 net.cpp:98] Creating Layer res3a_branch2a
I0614 14:22:18.416609   945 net.cpp:439] res3a_branch2a <- pool2
I0614 14:22:18.416613   945 net.cpp:413] res3a_branch2a -> res3a_branch2a
I0614 14:22:18.419746   945 net.cpp:148] Setting up res3a_branch2a
I0614 14:22:18.419756   945 net.cpp:155] Top shape: 64 128 28 28 (6422528)
I0614 14:22:18.419759   945 net.cpp:163] Memory required for data: 1066139904
I0614 14:22:18.419764   945 layer_factory.hpp:77] Creating layer res3a_branch2a/bn
I0614 14:22:18.419770   945 net.cpp:98] Creating Layer res3a_branch2a/bn
I0614 14:22:18.419773   945 net.cpp:439] res3a_branch2a/bn <- res3a_branch2a
I0614 14:22:18.419776   945 net.cpp:413] res3a_branch2a/bn -> res3a_branch2a/bn
I0614 14:22:18.420270   945 net.cpp:148] Setting up res3a_branch2a/bn
I0614 14:22:18.420277   945 net.cpp:155] Top shape: 64 128 28 28 (6422528)
I0614 14:22:18.420280   945 net.cpp:163] Memory required for data: 1091830016
I0614 14:22:18.420287   945 layer_factory.hpp:77] Creating layer res3a_branch2a/relu
I0614 14:22:18.420291   945 net.cpp:98] Creating Layer res3a_branch2a/relu
I0614 14:22:18.420295   945 net.cpp:439] res3a_branch2a/relu <- res3a_branch2a/bn
I0614 14:22:18.420297   945 net.cpp:400] res3a_branch2a/relu -> res3a_branch2a/bn (in-place)
I0614 14:22:18.420301   945 net.cpp:148] Setting up res3a_branch2a/relu
I0614 14:22:18.420305   945 net.cpp:155] Top shape: 64 128 28 28 (6422528)
I0614 14:22:18.420306   945 net.cpp:163] Memory required for data: 1117520128
I0614 14:22:18.420310   945 layer_factory.hpp:77] Creating layer res3a_branch2b
I0614 14:22:18.420316   945 net.cpp:98] Creating Layer res3a_branch2b
I0614 14:22:18.420320   945 net.cpp:439] res3a_branch2b <- res3a_branch2a/bn
I0614 14:22:18.420326   945 net.cpp:413] res3a_branch2b -> res3a_branch2b
I0614 14:22:18.421289   945 net.cpp:148] Setting up res3a_branch2b
I0614 14:22:18.421296   945 net.cpp:155] Top shape: 64 128 28 28 (6422528)
I0614 14:22:18.421298   945 net.cpp:163] Memory required for data: 1143210240
I0614 14:22:18.421303   945 layer_factory.hpp:77] Creating layer res3a_branch2b/bn
I0614 14:22:18.421306   945 net.cpp:98] Creating Layer res3a_branch2b/bn
I0614 14:22:18.421309   945 net.cpp:439] res3a_branch2b/bn <- res3a_branch2b
I0614 14:22:18.421314   945 net.cpp:413] res3a_branch2b/bn -> res3a_branch2b/bn
I0614 14:22:18.421769   945 net.cpp:148] Setting up res3a_branch2b/bn
I0614 14:22:18.421777   945 net.cpp:155] Top shape: 64 128 28 28 (6422528)
I0614 14:22:18.421779   945 net.cpp:163] Memory required for data: 1168900352
I0614 14:22:18.421784   945 layer_factory.hpp:77] Creating layer res3a_branch2b/relu
I0614 14:22:18.421787   945 net.cpp:98] Creating Layer res3a_branch2b/relu
I0614 14:22:18.421797   945 net.cpp:439] res3a_branch2b/relu <- res3a_branch2b/bn
I0614 14:22:18.421800   945 net.cpp:400] res3a_branch2b/relu -> res3a_branch2b/bn (in-place)
I0614 14:22:18.421804   945 net.cpp:148] Setting up res3a_branch2b/relu
I0614 14:22:18.421807   945 net.cpp:155] Top shape: 64 128 28 28 (6422528)
I0614 14:22:18.421808   945 net.cpp:163] Memory required for data: 1194590464
I0614 14:22:18.421810   945 layer_factory.hpp:77] Creating layer pool3
I0614 14:22:18.421815   945 net.cpp:98] Creating Layer pool3
I0614 14:22:18.421818   945 net.cpp:439] pool3 <- res3a_branch2b/bn
I0614 14:22:18.421823   945 net.cpp:413] pool3 -> pool3
I0614 14:22:18.421869   945 net.cpp:148] Setting up pool3
I0614 14:22:18.421875   945 net.cpp:155] Top shape: 64 128 14 14 (1605632)
I0614 14:22:18.421878   945 net.cpp:163] Memory required for data: 1201012992
I0614 14:22:18.421881   945 layer_factory.hpp:77] Creating layer res4a_branch2a
I0614 14:22:18.421888   945 net.cpp:98] Creating Layer res4a_branch2a
I0614 14:22:18.421891   945 net.cpp:439] res4a_branch2a <- pool3
I0614 14:22:18.421897   945 net.cpp:413] res4a_branch2a -> res4a_branch2a
I0614 14:22:18.428064   945 net.cpp:148] Setting up res4a_branch2a
I0614 14:22:18.428081   945 net.cpp:155] Top shape: 64 256 14 14 (3211264)
I0614 14:22:18.428083   945 net.cpp:163] Memory required for data: 1213858048
I0614 14:22:18.428088   945 layer_factory.hpp:77] Creating layer res4a_branch2a/bn
I0614 14:22:18.428097   945 net.cpp:98] Creating Layer res4a_branch2a/bn
I0614 14:22:18.428098   945 net.cpp:439] res4a_branch2a/bn <- res4a_branch2a
I0614 14:22:18.428102   945 net.cpp:413] res4a_branch2a/bn -> res4a_branch2a/bn
I0614 14:22:18.428617   945 net.cpp:148] Setting up res4a_branch2a/bn
I0614 14:22:18.428624   945 net.cpp:155] Top shape: 64 256 14 14 (3211264)
I0614 14:22:18.428627   945 net.cpp:163] Memory required for data: 1226703104
I0614 14:22:18.428632   945 layer_factory.hpp:77] Creating layer res4a_branch2a/relu
I0614 14:22:18.428635   945 net.cpp:98] Creating Layer res4a_branch2a/relu
I0614 14:22:18.428637   945 net.cpp:439] res4a_branch2a/relu <- res4a_branch2a/bn
I0614 14:22:18.428640   945 net.cpp:400] res4a_branch2a/relu -> res4a_branch2a/bn (in-place)
I0614 14:22:18.428644   945 net.cpp:148] Setting up res4a_branch2a/relu
I0614 14:22:18.428647   945 net.cpp:155] Top shape: 64 256 14 14 (3211264)
I0614 14:22:18.428648   945 net.cpp:163] Memory required for data: 1239548160
I0614 14:22:18.428649   945 layer_factory.hpp:77] Creating layer res4a_branch2b
I0614 14:22:18.428654   945 net.cpp:98] Creating Layer res4a_branch2b
I0614 14:22:18.428656   945 net.cpp:439] res4a_branch2b <- res4a_branch2a/bn
I0614 14:22:18.428659   945 net.cpp:413] res4a_branch2b -> res4a_branch2b
I0614 14:22:18.431843   945 net.cpp:148] Setting up res4a_branch2b
I0614 14:22:18.431850   945 net.cpp:155] Top shape: 64 256 14 14 (3211264)
I0614 14:22:18.431852   945 net.cpp:163] Memory required for data: 1252393216
I0614 14:22:18.431856   945 layer_factory.hpp:77] Creating layer res4a_branch2b/bn
I0614 14:22:18.431859   945 net.cpp:98] Creating Layer res4a_branch2b/bn
I0614 14:22:18.431861   945 net.cpp:439] res4a_branch2b/bn <- res4a_branch2b
I0614 14:22:18.431864   945 net.cpp:413] res4a_branch2b/bn -> res4a_branch2b/bn
I0614 14:22:18.432351   945 net.cpp:148] Setting up res4a_branch2b/bn
I0614 14:22:18.432358   945 net.cpp:155] Top shape: 64 256 14 14 (3211264)
I0614 14:22:18.432359   945 net.cpp:163] Memory required for data: 1265238272
I0614 14:22:18.432364   945 layer_factory.hpp:77] Creating layer res4a_branch2b/relu
I0614 14:22:18.432368   945 net.cpp:98] Creating Layer res4a_branch2b/relu
I0614 14:22:18.432370   945 net.cpp:439] res4a_branch2b/relu <- res4a_branch2b/bn
I0614 14:22:18.432373   945 net.cpp:400] res4a_branch2b/relu -> res4a_branch2b/bn (in-place)
I0614 14:22:18.432375   945 net.cpp:148] Setting up res4a_branch2b/relu
I0614 14:22:18.432379   945 net.cpp:155] Top shape: 64 256 14 14 (3211264)
I0614 14:22:18.432379   945 net.cpp:163] Memory required for data: 1278083328
I0614 14:22:18.432392   945 layer_factory.hpp:77] Creating layer pool4
I0614 14:22:18.432396   945 net.cpp:98] Creating Layer pool4
I0614 14:22:18.432400   945 net.cpp:439] pool4 <- res4a_branch2b/bn
I0614 14:22:18.432402   945 net.cpp:413] pool4 -> pool4
I0614 14:22:18.432436   945 net.cpp:148] Setting up pool4
I0614 14:22:18.432442   945 net.cpp:155] Top shape: 64 256 7 7 (802816)
I0614 14:22:18.432446   945 net.cpp:163] Memory required for data: 1281294592
I0614 14:22:18.432449   945 layer_factory.hpp:77] Creating layer res5a_branch2a
I0614 14:22:18.432456   945 net.cpp:98] Creating Layer res5a_branch2a
I0614 14:22:18.432461   945 net.cpp:439] res5a_branch2a <- pool4
I0614 14:22:18.432464   945 net.cpp:413] res5a_branch2a -> res5a_branch2a
I0614 14:22:18.457149   945 net.cpp:148] Setting up res5a_branch2a
I0614 14:22:18.457171   945 net.cpp:155] Top shape: 64 512 7 7 (1605632)
I0614 14:22:18.457173   945 net.cpp:163] Memory required for data: 1287717120
I0614 14:22:18.457180   945 layer_factory.hpp:77] Creating layer res5a_branch2a/bn
I0614 14:22:18.457187   945 net.cpp:98] Creating Layer res5a_branch2a/bn
I0614 14:22:18.457191   945 net.cpp:439] res5a_branch2a/bn <- res5a_branch2a
I0614 14:22:18.457195   945 net.cpp:413] res5a_branch2a/bn -> res5a_branch2a/bn
I0614 14:22:18.457717   945 net.cpp:148] Setting up res5a_branch2a/bn
I0614 14:22:18.457725   945 net.cpp:155] Top shape: 64 512 7 7 (1605632)
I0614 14:22:18.457726   945 net.cpp:163] Memory required for data: 1294139648
I0614 14:22:18.457731   945 layer_factory.hpp:77] Creating layer res5a_branch2a/relu
I0614 14:22:18.457737   945 net.cpp:98] Creating Layer res5a_branch2a/relu
I0614 14:22:18.457741   945 net.cpp:439] res5a_branch2a/relu <- res5a_branch2a/bn
I0614 14:22:18.457742   945 net.cpp:400] res5a_branch2a/relu -> res5a_branch2a/bn (in-place)
I0614 14:22:18.457746   945 net.cpp:148] Setting up res5a_branch2a/relu
I0614 14:22:18.457749   945 net.cpp:155] Top shape: 64 512 7 7 (1605632)
I0614 14:22:18.457751   945 net.cpp:163] Memory required for data: 1300562176
I0614 14:22:18.457753   945 layer_factory.hpp:77] Creating layer res5a_branch2b
I0614 14:22:18.457759   945 net.cpp:98] Creating Layer res5a_branch2b
I0614 14:22:18.457762   945 net.cpp:439] res5a_branch2b <- res5a_branch2a/bn
I0614 14:22:18.457765   945 net.cpp:413] res5a_branch2b -> res5a_branch2b
I0614 14:22:18.470526   945 net.cpp:148] Setting up res5a_branch2b
I0614 14:22:18.470536   945 net.cpp:155] Top shape: 64 512 7 7 (1605632)
I0614 14:22:18.470538   945 net.cpp:163] Memory required for data: 1306984704
I0614 14:22:18.470544   945 layer_factory.hpp:77] Creating layer res5a_branch2b/bn
I0614 14:22:18.470549   945 net.cpp:98] Creating Layer res5a_branch2b/bn
I0614 14:22:18.470551   945 net.cpp:439] res5a_branch2b/bn <- res5a_branch2b
I0614 14:22:18.470554   945 net.cpp:413] res5a_branch2b/bn -> res5a_branch2b/bn
I0614 14:22:18.471050   945 net.cpp:148] Setting up res5a_branch2b/bn
I0614 14:22:18.471057   945 net.cpp:155] Top shape: 64 512 7 7 (1605632)
I0614 14:22:18.471060   945 net.cpp:163] Memory required for data: 1313407232
I0614 14:22:18.471065   945 layer_factory.hpp:77] Creating layer res5a_branch2b/relu
I0614 14:22:18.471067   945 net.cpp:98] Creating Layer res5a_branch2b/relu
I0614 14:22:18.471070   945 net.cpp:439] res5a_branch2b/relu <- res5a_branch2b/bn
I0614 14:22:18.471072   945 net.cpp:400] res5a_branch2b/relu -> res5a_branch2b/bn (in-place)
I0614 14:22:18.471076   945 net.cpp:148] Setting up res5a_branch2b/relu
I0614 14:22:18.471078   945 net.cpp:155] Top shape: 64 512 7 7 (1605632)
I0614 14:22:18.471081   945 net.cpp:163] Memory required for data: 1319829760
I0614 14:22:18.471082   945 layer_factory.hpp:77] Creating layer pool5
I0614 14:22:18.471087   945 net.cpp:98] Creating Layer pool5
I0614 14:22:18.471089   945 net.cpp:439] pool5 <- res5a_branch2b/bn
I0614 14:22:18.471091   945 net.cpp:413] pool5 -> pool5
I0614 14:22:18.471115   945 net.cpp:148] Setting up pool5
I0614 14:22:18.471122   945 net.cpp:155] Top shape: 64 512 1 1 (32768)
I0614 14:22:18.471137   945 net.cpp:163] Memory required for data: 1319960832
I0614 14:22:18.471140   945 layer_factory.hpp:77] Creating layer fc1000
I0614 14:22:18.471148   945 net.cpp:98] Creating Layer fc1000
I0614 14:22:18.471153   945 net.cpp:439] fc1000 <- pool5
I0614 14:22:18.471158   945 net.cpp:413] fc1000 -> fc1000
I0614 14:22:18.482110   945 net.cpp:148] Setting up fc1000
I0614 14:22:18.482120   945 net.cpp:155] Top shape: 64 1000 (64000)
I0614 14:22:18.482121   945 net.cpp:163] Memory required for data: 1320216832
I0614 14:22:18.482125   945 layer_factory.hpp:77] Creating layer loss
I0614 14:22:18.482131   945 net.cpp:98] Creating Layer loss
I0614 14:22:18.482132   945 net.cpp:439] loss <- fc1000
I0614 14:22:18.482136   945 net.cpp:439] loss <- label
I0614 14:22:18.482138   945 net.cpp:413] loss -> loss
I0614 14:22:18.482146   945 layer_factory.hpp:77] Creating layer loss
…
I0614 14:22:18.483188   945 solver.cpp:181] Creating test net (#0) specified by test_net file: training/jacintonet11_imagenet_2017.06.12/stage0/test.prototxt
I0614 14:22:18.483391   945 net.cpp:56] Initializing net from parameters: 
name: "jacintonet11_test"
state {
  phase: TEST
}
layer {
  name: "data"
  type: "Data"
  top: "data"
  top: "label"
  transform_param {
    mirror: false
    crop_size: 224
    mean_value: 0
    mean_value: 0
    mean_value: 0
  }
  data_param {
    source: "./data/ilsvrc12_val_lmdb"
    batch_size: 50
    backend: LMDB
  }
}
layer {
  name: "data/bias"
  type: "Bias"
  bottom: "data"
  top: "data/bias"
  param {
    lr_mult: 0
    decay_mult: 0
  }
  bias_param {
    filler {
      type: "constant"
      value: -128
    }
  }
}
layer {
  name: "conv1a"
  type: "Convolution"
  bottom: "data/bias"
  top: "conv1a"
  param {
    lr_mult: 1
    decay_mult: 1
  }
  param {
    lr_mult: 2
    decay_mult: 0
  }
  convolution_param {
    num_output: 32
    bias_term: true
    pad: 2
    kernel_size: 5
    group: 1
    stride: 2
    weight_filler {
      type: "msra"
    }
    bias_filler {
      type: "constant"
      value: 0
    }
    dilation: 1
  }
}
layer {
  name: "conv1a/bn"
  type: "BatchNorm"
  bottom: "conv1a"
  top: "conv1a/bn"
  param {
    lr_mult: 1
    decay_mult: 1
  }
  param {
    lr_mult: 1
    decay_mult: 1
  }
  param {
    lr_mult: 0
    decay_mult: 0
  }
  param {
    lr_mult: 0
    decay_mult: 0
  }
  batch_norm_param {
    moving_average_fraction: 0.99
    eps: 0.0001
    scale_filler {
      type: "constant"
      value: 1
    }
    bias_filler {
      type: "constant"
      value: 0
    }
  }
}
layer {
  name: "conv1a/relu"
  type: "ReLU"
  bottom: "conv1a/bn"
  top: "conv1a/bn"
}
layer {
  name: "conv1b"
  type: "Convolution"
  bottom: "conv1a/bn"
  top: "conv1b"
  param {
    lr_mult: 1
    decay_mult: 1
  }
  param {
    lr_mult: 2
    decay_mult: 0
  }
  convolution_param {
    num_output: 32
    bias_term: true
    pad: 1
    kernel_size: 3
    group: 4
    stride: 1
    weight_filler {
      type: "msra"
    }
    bias_filler {
      type: "constant"
      value: 0
    }
    dilation: 1
  }
}
layer {
  name: "conv1b/bn"
  type: "BatchNorm"
  bottom: "conv1b"
  top: "conv1b/bn"
  param {
    lr_mult: 1
    decay_mult: 1
  }
  param {
    lr_mult: 1
    decay_mult: 1
  }
  param {
    lr_mult: 0
    decay_mult: 0
  }
  param {
    lr_mult: 0
    decay_mult: 0
  }
  batch_norm_param {
    moving_average_fraction: 0.99
    eps: 0.0001
    scale_filler {
      type: "constant"
      value: 1
    }
    bias_filler {
      type: "constant"
      value: 0
    }
  }
}
layer {
  name: "conv1b/relu"
  type: "ReLU"
  bottom: "conv1b/bn"
  top: "conv1b/bn"
}
layer {
  name: "pool1"
  type: "Pooling"
  bottom: "conv1b/bn"
  top: "pool1"
  pooling_param {
    pool: MAX
    kernel_size: 2
    stride: 2
  }
}
layer {
  name: "res2a_branch2a"
  type: "Convolution"
  bottom: "pool1"
  top: "res2a_branch2a"
  param {
    lr_mult: 1
    decay_mult: 1
  }
  param {
    lr_mult: 2
    decay_mult: 0
  }
  convolution_param {
    num_output: 64
    bias_term: true
    pad: 1
    kernel_size: 3
    group: 1
    stride: 1
    weight_filler {
      type: "msra"
    }
    bias_filler {
      type: "constant"
      value: 0
    }
    dilation: 1
  }
}
layer {
  name: "res2a_branch2a/bn"
  type: "BatchNorm"
  bottom: "res2a_branch2a"
  top: "res2a_branch2a/bn"
  param {
    lr_mult: 1
    decay_mult: 1
  }
  param {
    lr_mult: 1
    decay_mult: 1
  }
  param {
    lr_mult: 0
    decay_mult: 0
  }
  param {
    lr_mult: 0
    decay_mult: 0
  }
  batch_norm_param {
    moving_average_fraction: 0.99
    eps: 0.0001
    scale_filler {
      type: "constant"
      value: 1
    }
    bias_filler {
      type: "constant"
      value: 0
    }
  }
}
layer {
  name: "res2a_branch2a/relu"
  type: "ReLU"
  bottom: "res2a_branch2a/bn"
  top: "res2a_branch2a/bn"
}
layer {
  name: "res2a_branch2b"
  type: "Convolution"
  bottom: "res2a_branch2a/bn"
  top: "res2a_branch2b"
  param {
    lr_mult: 1
    decay_mult: 1
  }
  param {
    lr_mult: 2
    decay_mult: 0
  }
  convolution_param {
    num_output: 64
    bias_term: true
    pad: 1
    kernel_size: 3
    group: 4
    stride: 1
    weight_filler {
      type: "msra"
    }
    bias_filler {
      type: "constant"
      value: 0
    }
    dilation: 1
  }
}
layer {
  name: "res2a_branch2b/bn"
  type: "BatchNorm"
  bottom: "res2a_branch2b"
  top: "res2a_branch2b/bn"
  param {
    lr_mult: 1
    decay_mult: 1
  }
  param {
    lr_mult: 1
    decay_mult: 1
  }
  param {
    lr_mult: 0
    decay_mult: 0
  }
  param {
    lr_mult: 0
    decay_mult: 0
  }
  batch_norm_param {
    moving_average_fraction: 0.99
    eps: 0.0001
    scale_filler {
      type: "constant"
      value: 1
    }
    bias_filler {
      type: "constant"
      value: 0
    }
  }
}
layer {
  name: "res2a_branch2b/relu"
  type: "ReLU"
  bottom: "res2a_branch2b/bn"
  top: "res2a_branch2b/bn"
}
layer {
  name: "pool2"
  type: "Pooling"
  bottom: "res2a_branch2b/bn"
  top: "pool2"
  pooling_param {
    pool: MAX
    kernel_size: 2
    stride: 2
  }
}
layer {
  name: "res3a_branch2a"
  type: "Convolution"
  bottom: "pool2"
  top: "res3a_branch2a"
  param {
    lr_mult: 1
    decay_mult: 1
  }
  param {
    lr_mult: 2
    decay_mult: 0
  }
  convolution_param {
    num_output: 128
    bias_term: true
    pad: 1
    kernel_size: 3
    group: 1
    stride: 1
    weight_filler {
      type: "msra"
    }
    bias_filler {
      type: "constant"
      value: 0
    }
    dilation: 1
  }
}
layer {
  name: "res3a_branch2a/bn"
  type: "BatchNorm"
  bottom: "res3a_branch2a"
  top: "res3a_branch2a/bn"
  param {
    lr_mult: 1
    decay_mult: 1
  }
  param {
    lr_mult: 1
    decay_mult: 1
  }
  param {
    lr_mult: 0
    decay_mult: 0
  }
  param {
    lr_mult: 0
    decay_mult: 0
  }
  batch_norm_param {
    moving_average_fraction: 0.99
    eps: 0.0001
    scale_filler {
      type: "constant"
      value: 1
    }
    bias_filler {
      type: "constant"
      value: 0
    }
  }
}
layer {
  name: "res3a_branch2a/relu"
  type: "ReLU"
  bottom: "res3a_branch2a/bn"
  top: "res3a_branch2a/bn"
}
layer {
  name: "res3a_branch2b"
  type: "Convolution"
  bottom: "res3a_branch2a/bn"
  top: "res3a_branch2b"
  param {
    lr_mult: 1
    decay_mult: 1
  }
  param {
    lr_mult: 2
    decay_mult: 0
  }
  convolution_param {
    num_output: 128
    bias_term: true
    pad: 1
    kernel_size: 3
    group: 4
    stride: 1
    weight_filler {
      type: "msra"
    }
    bias_filler {
      type: "constant"
      value: 0
    }
    dilation: 1
  }
}
layer {
  name: "res3a_branch2b/bn"
  type: "BatchNorm"
  bottom: "res3a_branch2b"
  top: "res3a_branch2b/bn"
  param {
    lr_mult: 1
    decay_mult: 1
  }
  param {
    lr_mult: 1
    decay_mult: 1
  }
  param {
    lr_mult: 0
    decay_mult: 0
  }
  param {
    lr_mult: 0
    decay_mult: 0
  }
  batch_norm_param {
    moving_average_fraction: 0.99
    eps: 0.0001
    scale_filler {
      type: "constant"
      value: 1
    }
    bias_filler {
      type: "constant"
      value: 0
    }
  }
}
layer {
  name: "res3a_branch2b/relu"
  type: "ReLU"
  bottom: "res3a_branch2b/bn"
  top: "res3a_branch2b/bn"
}
layer {
  name: "pool3"
  type: "Pooling"
  bottom: "res3a_branch2b/bn"
  top: "pool3"
  pooling_param {
    pool: MAX
    kernel_size: 2
    stride: 2
  }
}
layer {
  name: "res4a_branch2a"
  type: "Convolution"
  bottom: "pool3"
  top: "res4a_branch2a"
  param {
    lr_mult: 1
    decay_mult: 1
  }
  param {
    lr_mult: 2
    decay_mult: 0
  }
  convolution_param {
    num_output: 256
    bias_term: true
    pad: 1
    kernel_size: 3
    group: 1
    stride: 1
    weight_filler {
      type: "msra"
    }
    bias_filler {
      type: "constant"
      value: 0
    }
    dilation: 1
  }
}
layer {
  name: "res4a_branch2a/bn"
  type: "BatchNorm"
  bottom: "res4a_branch2a"
  top: "res4a_branch2a/bn"
  param {
    lr_mult: 1
    decay_mult: 1
  }
  param {
    lr_mult: 1
    decay_mult: 1
  }
  param {
    lr_mult: 0
    decay_mult: 0
  }
  param {
    lr_mult: 0
    decay_mult: 0
  }
  batch_norm_param {
    moving_average_fraction: 0.99
    eps: 0.0001
    scale_filler {
      type: "constant"
      value: 1
    }
    bias_filler {
      type: "constant"
      value: 0
    }
  }
}
layer {
  name: "res4a_branch2a/relu"
  type: "ReLU"
  bottom: "res4a_branch2a/bn"
  top: "res4a_branch2a/bn"
}
layer {
  name: "res4a_branch2b"
  type: "Convolution"
  bottom: "res4a_branch2a/bn"
  top: "res4a_branch2b"
  param {
    lr_mult: 1
    decay_mult: 1
  }
  param {
    lr_mult: 2
    decay_mult: 0
  }
  convolution_param {
    num_output: 256
    bias_term: true
    pad: 1
    kernel_size: 3
    group: 4
    stride: 1
    weight_filler {
      type: "msra"
    }
    bias_filler {
      type: "constant"
      value: 0
    }
    dilation: 1
  }
}
layer {
  name: "res4a_branch2b/bn"
  type: "BatchNorm"
  bottom: "res4a_branch2b"
  top: "res4a_branch2b/bn"
  param {
    lr_mult: 1
    decay_mult: 1
  }
  param {
    lr_mult: 1
    decay_mult: 1
  }
  param {
    lr_mult: 0
    decay_mult: 0
  }
  param {
    lr_mult: 0
    decay_mult: 0
  }
  batch_norm_param {
    moving_average_fraction: 0.99
    eps: 0.0001
    scale_filler {
      type: "constant"
      value: 1
    }
    bias_filler {
      type: "constant"
      value: 0
    }
  }
}
layer {
  name: "res4a_branch2b/relu"
  type: "ReLU"
  bottom: "res4a_branch2b/bn"
  top: "res4a_branch2b/bn"
}
layer {
  name: "pool4"
  type: "Pooling"
  bottom: "res4a_branch2b/bn"
  top: "pool4"
  pooling_param {
    pool: MAX
    kernel_size: 2
    stride: 2
  }
}
layer {
  name: "res5a_branch2a"
  type: "Convolution"
  bottom: "pool4"
  top: "res5a_branch2a"
  param {
    lr_mult: 1
    decay_mult: 1
  }
  param {
    lr_mult: 2
    decay_mult: 0
  }
  convolution_param {
    num_output: 512
    bias_term: true
    pad: 1
    kernel_size: 3
    group: 1
    stride: 1
    weight_filler {
      type: "msra"
    }
    bias_filler {
      type: "constant"
      value: 0
    }
    dilation: 1
  }
}
layer {
  name: "res5a_branch2a/bn"
  type: "BatchNorm"
  bottom: "res5a_branch2a"
  top: "res5a_branch2a/bn"
  param {
    lr_mult: 1
    decay_mult: 1
  }
  param {
    lr_mult: 1
    decay_mult: 1
  }
  param {
    lr_mult: 0
    decay_mult: 0
  }
  param {
    lr_mult: 0
    decay_mult: 0
  }
  batch_norm_param {
    moving_average_fraction: 0.99
    eps: 0.0001
    scale_filler {
      type: "constant"
      value: 1
    }
    bias_filler {
      type: "constant"
      value: 0
    }
  }
}
layer {
  name: "res5a_branch2a/relu"
  type: "ReLU"
  bottom: "res5a_branch2a/bn"
  top: "res5a_branch2a/bn"
}
layer {
  name: "res5a_branch2b"
  type: "Convolution"
  bottom: "res5a_branch2a/bn"
  top: "res5a_branch2b"
  param {
    lr_mult: 1
    decay_mult: 1
  }
  param {
    lr_mult: 2
    decay_mult: 0
  }
  convolution_param {
    num_output: 512
    bias_term: true
    pad: 1
    kernel_size: 3
    group: 4
    stride: 1
    weight_filler {
      type: "msra"
    }
    bias_filler {
      type: "constant"
      value: 0
    }
    dilation: 1
  }
}
layer {
  name: "res5a_branch2b/bn"
  type: "BatchNorm"
  bottom: "res5a_branch2b"
  top: "res5a_branch2b/bn"
  param {
    lr_mult: 1
    decay_mult: 1
  }
  param {
    lr_mult: 1
    decay_mult: 1
  }
  param {
    lr_mult: 0
    decay_mult: 0
  }
  param {
    lr_mult: 0
    decay_mult: 0
  }
  batch_norm_param {
    moving_average_fraction: 0.99
    eps: 0.0001
    scale_filler {
      type: "constant"
      value: 1
    }
    bias_filler {
      type: "constant"
      value: 0
    }
  }
}
layer {
  name: "res5a_branch2b/relu"
  type: "ReLU"
  bottom: "res5a_branch2b/bn"
  top: "res5a_branch2b/bn"
}
layer {
  name: "pool5"
  type: "Pooling"
  bottom: "res5a_branch2b/bn"
  top: "pool5"
  pooling_param {
    pool: AVE
    global_pooling: true
  }
}
layer {
  name: "fc1000"
  type: "InnerProduct"
  bottom: "pool5"
  top: "fc1000"
  param {
    lr_mult: 1
    decay_mult: 1
  }
  param {
    lr_mult: 2
    decay_mult: 0
  }
  inner_product_param {
    num_output: 1000
    weight_filler {
      type: "msra"
    }
    bias_filler {
      type: "constant"
      value: 0
    }
  }
}
layer {
  name: "loss"
  type: "SoftmaxWithLoss"
  bottom: "fc1000"
  bottom: "label"
  top: "loss"
  propagate_down: true
  propagate_down: false
}
layer {
  name: "accuracy/top1"
  type: "Accuracy"
  bottom: "fc1000"
  bottom: "label"
  top: "accuracy/top1"
  include {
    phase: TEST
  }
}
layer {
  name: "accuracy/top5"
  type: "Accuracy"
  bottom: "fc1000"
  bottom: "label"
  top: "accuracy/top5"
  include {
    phase: TEST
  }
  accuracy_param {
    top_k: 5
  }
}
I0614 14:22:18.483494   945 layer_factory.hpp:77] Creating layer data
I0614 14:22:18.483587   945 net.cpp:98] Creating Layer data
I0614 14:22:18.483592   945 net.cpp:413] data -> data
I0614 14:22:18.483597   945 net.cpp:413] data -> label
I0614 14:22:18.486270  1029 db_lmdb.cpp:35] Opened lmdb ./data/ilsvrc12_val_lmdb
I0614 14:22:18.487318   945 data_layer.cpp:79] ReshapePrefetch 50, 3, 224, 224
I0614 14:22:18.487366   945 data_layer.cpp:84] output data size: 50,3,224,224
I0614 14:22:18.517918   945 net.cpp:148] Setting up data
I0614 14:22:18.517938   945 net.cpp:155] Top shape: 50 3 224 224 (7526400)
I0614 14:22:18.517941   945 net.cpp:155] Top shape: 50 (50)
I0614 14:22:18.517943   945 net.cpp:163] Memory required for data: 30105800
I0614 14:22:18.517948   945 layer_factory.hpp:77] Creating layer label_data_1_split
I0614 14:22:18.517957   945 net.cpp:98] Creating Layer label_data_1_split
I0614 14:22:18.517961   945 net.cpp:439] label_data_1_split <- label
I0614 14:22:18.517964   945 net.cpp:413] label_data_1_split -> label_data_1_split_0
I0614 14:22:18.517969   945 net.cpp:413] label_data_1_split -> label_data_1_split_1
I0614 14:22:18.517972   945 net.cpp:413] label_data_1_split -> label_data_1_split_2
I0614 14:22:18.518136   945 net.cpp:148] Setting up label_data_1_split
I0614 14:22:18.518146   945 net.cpp:155] Top shape: 50 (50)
I0614 14:22:18.518148   945 net.cpp:155] Top shape: 50 (50)
I0614 14:22:18.518151   945 net.cpp:155] Top shape: 50 (50)
I0614 14:22:18.518151   945 net.cpp:163] Memory required for data: 30106400
I0614 14:22:18.518154   945 layer_factory.hpp:77] Creating layer data/bias
I0614 14:22:18.518162   945 net.cpp:98] Creating Layer data/bias
I0614 14:22:18.518163   945 net.cpp:439] data/bias <- data
I0614 14:22:18.518167   945 net.cpp:413] data/bias -> data/bias
I0614 14:22:18.518275   945 net.cpp:148] Setting up data/bias
I0614 14:22:18.518280   945 net.cpp:155] Top shape: 50 3 224 224 (7526400)
I0614 14:22:18.518281   945 net.cpp:163] Memory required for data: 60212000
I0614 14:22:18.518285   945 layer_factory.hpp:77] Creating layer conv1a
I0614 14:22:18.518290   945 net.cpp:98] Creating Layer conv1a
I0614 14:22:18.518292   945 net.cpp:439] conv1a <- data/bias
I0614 14:22:18.518296   945 net.cpp:413] conv1a -> conv1a
I0614 14:22:18.518579   945 net.cpp:148] Setting up conv1a
I0614 14:22:18.518584   945 net.cpp:155] Top shape: 50 32 112 112 (20070400)
I0614 14:22:18.518586   945 net.cpp:163] Memory required for data: 140493600
I0614 14:22:18.518590   945 layer_factory.hpp:77] Creating layer conv1a/bn
I0614 14:22:18.518594   945 net.cpp:98] Creating Layer conv1a/bn
I0614 14:22:18.518596   945 net.cpp:439] conv1a/bn <- conv1a
I0614 14:22:18.518599   945 net.cpp:413] conv1a/bn -> conv1a/bn
I0614 14:22:18.519264   945 net.cpp:148] Setting up conv1a/bn
I0614 14:22:18.519271   945 net.cpp:155] Top shape: 50 32 112 112 (20070400)
I0614 14:22:18.519273   945 net.cpp:163] Memory required for data: 220775200
I0614 14:22:18.519279   945 layer_factory.hpp:77] Creating layer conv1a/relu
I0614 14:22:18.519282   945 net.cpp:98] Creating Layer conv1a/relu
I0614 14:22:18.519284   945 net.cpp:439] conv1a/relu <- conv1a/bn
I0614 14:22:18.519297   945 net.cpp:400] conv1a/relu -> conv1a/bn (in-place)
I0614 14:22:18.519302   945 net.cpp:148] Setting up conv1a/relu
I0614 14:22:18.519305   945 net.cpp:155] Top shape: 50 32 112 112 (20070400)
I0614 14:22:18.519306   945 net.cpp:163] Memory required for data: 301056800
I0614 14:22:18.519309   945 layer_factory.hpp:77] Creating layer conv1b
I0614 14:22:18.519312   945 net.cpp:98] Creating Layer conv1b
I0614 14:22:18.519315   945 net.cpp:439] conv1b <- conv1a/bn
I0614 14:22:18.519318   945 net.cpp:413] conv1b -> conv1b
I0614 14:22:18.521885   945 net.cpp:148] Setting up conv1b
I0614 14:22:18.521893   945 net.cpp:155] Top shape: 50 32 112 112 (20070400)
I0614 14:22:18.521894   945 net.cpp:163] Memory required for data: 381338400
I0614 14:22:18.521899   945 layer_factory.hpp:77] Creating layer conv1b/bn
I0614 14:22:18.521903   945 net.cpp:98] Creating Layer conv1b/bn
I0614 14:22:18.521906   945 net.cpp:439] conv1b/bn <- conv1b
I0614 14:22:18.521908   945 net.cpp:413] conv1b/bn -> conv1b/bn
I0614 14:22:18.535795   945 net.cpp:148] Setting up conv1b/bn
I0614 14:22:18.535815   945 net.cpp:155] Top shape: 50 32 112 112 (20070400)
I0614 14:22:18.535818   945 net.cpp:163] Memory required for data: 461620000
I0614 14:22:18.535826   945 layer_factory.hpp:77] Creating layer conv1b/relu
I0614 14:22:18.535832   945 net.cpp:98] Creating Layer conv1b/relu
I0614 14:22:18.535835   945 net.cpp:439] conv1b/relu <- conv1b/bn
I0614 14:22:18.535838   945 net.cpp:400] conv1b/relu -> conv1b/bn (in-place)
I0614 14:22:18.535845   945 net.cpp:148] Setting up conv1b/relu
I0614 14:22:18.535847   945 net.cpp:155] Top shape: 50 32 112 112 (20070400)
I0614 14:22:18.535848   945 net.cpp:163] Memory required for data: 541901600
I0614 14:22:18.535851   945 layer_factory.hpp:77] Creating layer pool1
I0614 14:22:18.535856   945 net.cpp:98] Creating Layer pool1
I0614 14:22:18.535857   945 net.cpp:439] pool1 <- conv1b/bn
I0614 14:22:18.535866   945 net.cpp:413] pool1 -> pool1
I0614 14:22:18.535944   945 net.cpp:148] Setting up pool1
I0614 14:22:18.535954   945 net.cpp:155] Top shape: 50 32 56 56 (5017600)
I0614 14:22:18.535956   945 net.cpp:163] Memory required for data: 561972000
I0614 14:22:18.535959   945 layer_factory.hpp:77] Creating layer res2a_branch2a
I0614 14:22:18.535965   945 net.cpp:98] Creating Layer res2a_branch2a
I0614 14:22:18.535967   945 net.cpp:439] res2a_branch2a <- pool1
I0614 14:22:18.535971   945 net.cpp:413] res2a_branch2a -> res2a_branch2a
I0614 14:22:18.536590   945 net.cpp:148] Setting up res2a_branch2a
I0614 14:22:18.536597   945 net.cpp:155] Top shape: 50 64 56 56 (10035200)
I0614 14:22:18.536598   945 net.cpp:163] Memory required for data: 602112800
I0614 14:22:18.536603   945 layer_factory.hpp:77] Creating layer res2a_branch2a/bn
I0614 14:22:18.536612   945 net.cpp:98] Creating Layer res2a_branch2a/bn
I0614 14:22:18.536613   945 net.cpp:439] res2a_branch2a/bn <- res2a_branch2a
I0614 14:22:18.536617   945 net.cpp:413] res2a_branch2a/bn -> res2a_branch2a/bn
I0614 14:22:18.538610   945 net.cpp:148] Setting up res2a_branch2a/bn
I0614 14:22:18.538616   945 net.cpp:155] Top shape: 50 64 56 56 (10035200)
I0614 14:22:18.538619   945 net.cpp:163] Memory required for data: 642253600
I0614 14:22:18.538624   945 layer_factory.hpp:77] Creating layer res2a_branch2a/relu
I0614 14:22:18.538626   945 net.cpp:98] Creating Layer res2a_branch2a/relu
I0614 14:22:18.538628   945 net.cpp:439] res2a_branch2a/relu <- res2a_branch2a/bn
I0614 14:22:18.538630   945 net.cpp:400] res2a_branch2a/relu -> res2a_branch2a/bn (in-place)
I0614 14:22:18.538635   945 net.cpp:148] Setting up res2a_branch2a/relu
I0614 14:22:18.538636   945 net.cpp:155] Top shape: 50 64 56 56 (10035200)
I0614 14:22:18.538638   945 net.cpp:163] Memory required for data: 682394400
I0614 14:22:18.538640   945 layer_factory.hpp:77] Creating layer res2a_branch2b
I0614 14:22:18.538643   945 net.cpp:98] Creating Layer res2a_branch2b
I0614 14:22:18.538645   945 net.cpp:439] res2a_branch2b <- res2a_branch2a/bn
I0614 14:22:18.538650   945 net.cpp:413] res2a_branch2b -> res2a_branch2b
I0614 14:22:18.539059   945 net.cpp:148] Setting up res2a_branch2b
I0614 14:22:18.539065   945 net.cpp:155] Top shape: 50 64 56 56 (10035200)
I0614 14:22:18.539067   945 net.cpp:163] Memory required for data: 722535200
I0614 14:22:18.539070   945 layer_factory.hpp:77] Creating layer res2a_branch2b/bn
I0614 14:22:18.539074   945 net.cpp:98] Creating Layer res2a_branch2b/bn
I0614 14:22:18.539077   945 net.cpp:439] res2a_branch2b/bn <- res2a_branch2b
I0614 14:22:18.539078   945 net.cpp:413] res2a_branch2b/bn -> res2a_branch2b/bn
I0614 14:22:18.541893   945 net.cpp:148] Setting up res2a_branch2b/bn
I0614 14:22:18.541904   945 net.cpp:155] Top shape: 50 64 56 56 (10035200)
I0614 14:22:18.541908   945 net.cpp:163] Memory required for data: 762676000
I0614 14:22:18.541918   945 layer_factory.hpp:77] Creating layer res2a_branch2b/relu
I0614 14:22:18.541929   945 net.cpp:98] Creating Layer res2a_branch2b/relu
I0614 14:22:18.541934   945 net.cpp:439] res2a_branch2b/relu <- res2a_branch2b/bn
I0614 14:22:18.541939   945 net.cpp:400] res2a_branch2b/relu -> res2a_branch2b/bn (in-place)
I0614 14:22:18.541945   945 net.cpp:148] Setting up res2a_branch2b/relu
I0614 14:22:18.541949   945 net.cpp:155] Top shape: 50 64 56 56 (10035200)
I0614 14:22:18.541952   945 net.cpp:163] Memory required for data: 802816800
I0614 14:22:18.541956   945 layer_factory.hpp:77] Creating layer pool2
I0614 14:22:18.541961   945 net.cpp:98] Creating Layer pool2
I0614 14:22:18.541965   945 net.cpp:439] pool2 <- res2a_branch2b/bn
I0614 14:22:18.541968   945 net.cpp:413] pool2 -> pool2
I0614 14:22:18.542009   945 net.cpp:148] Setting up pool2
I0614 14:22:18.542014   945 net.cpp:155] Top shape: 50 64 28 28 (2508800)
I0614 14:22:18.542017   945 net.cpp:163] Memory required for data: 812852000
I0614 14:22:18.542021   945 layer_factory.hpp:77] Creating layer res3a_branch2a
I0614 14:22:18.542027   945 net.cpp:98] Creating Layer res3a_branch2a
I0614 14:22:18.542031   945 net.cpp:439] res3a_branch2a <- pool2
I0614 14:22:18.542035   945 net.cpp:413] res3a_branch2a -> res3a_branch2a
I0614 14:22:18.544790   945 net.cpp:148] Setting up res3a_branch2a
I0614 14:22:18.544821   945 net.cpp:155] Top shape: 50 128 28 28 (5017600)
I0614 14:22:18.544832   945 net.cpp:163] Memory required for data: 832922400
I0614 14:22:18.544847   945 layer_factory.hpp:77] Creating layer res3a_branch2a/bn
I0614 14:22:18.544862   945 net.cpp:98] Creating Layer res3a_branch2a/bn
I0614 14:22:18.544872   945 net.cpp:439] res3a_branch2a/bn <- res3a_branch2a
I0614 14:22:18.544883   945 net.cpp:413] res3a_branch2a/bn -> res3a_branch2a/bn
I0614 14:22:18.545514   945 net.cpp:148] Setting up res3a_branch2a/bn
I0614 14:22:18.545536   945 net.cpp:155] Top shape: 50 128 28 28 (5017600)
I0614 14:22:18.545547   945 net.cpp:163] Memory required for data: 852992800
I0614 14:22:18.545564   945 layer_factory.hpp:77] Creating layer res3a_branch2a/relu
I0614 14:22:18.545577   945 net.cpp:98] Creating Layer res3a_branch2a/relu
I0614 14:22:18.545586   945 net.cpp:439] res3a_branch2a/relu <- res3a_branch2a/bn
I0614 14:22:18.545598   945 net.cpp:400] res3a_branch2a/relu -> res3a_branch2a/bn (in-place)
I0614 14:22:18.545613   945 net.cpp:148] Setting up res3a_branch2a/relu
I0614 14:22:18.545624   945 net.cpp:155] Top shape: 50 128 28 28 (5017600)
I0614 14:22:18.545631   945 net.cpp:163] Memory required for data: 873063200
I0614 14:22:18.545640   945 layer_factory.hpp:77] Creating layer res3a_branch2b
I0614 14:22:18.545653   945 net.cpp:98] Creating Layer res3a_branch2b
I0614 14:22:18.545663   945 net.cpp:439] res3a_branch2b <- res3a_branch2a/bn
I0614 14:22:18.545675   945 net.cpp:413] res3a_branch2b -> res3a_branch2b
I0614 14:22:18.547008   945 net.cpp:148] Setting up res3a_branch2b
I0614 14:22:18.547019   945 net.cpp:155] Top shape: 50 128 28 28 (5017600)
I0614 14:22:18.547024   945 net.cpp:163] Memory required for data: 893133600
I0614 14:22:18.547029   945 layer_factory.hpp:77] Creating layer res3a_branch2b/bn
I0614 14:22:18.547053   945 net.cpp:98] Creating Layer res3a_branch2b/bn
I0614 14:22:18.547073   945 net.cpp:439] res3a_branch2b/bn <- res3a_branch2b
I0614 14:22:18.547086   945 net.cpp:413] res3a_branch2b/bn -> res3a_branch2b/bn
I0614 14:22:18.547652   945 net.cpp:148] Setting up res3a_branch2b/bn
I0614 14:22:18.547660   945 net.cpp:155] Top shape: 50 128 28 28 (5017600)
I0614 14:22:18.547663   945 net.cpp:163] Memory required for data: 913204000
I0614 14:22:18.547672   945 layer_factory.hpp:77] Creating layer res3a_branch2b/relu
I0614 14:22:18.547686   945 net.cpp:98] Creating Layer res3a_branch2b/relu
I0614 14:22:18.547696   945 net.cpp:439] res3a_branch2b/relu <- res3a_branch2b/bn
I0614 14:22:18.547708   945 net.cpp:400] res3a_branch2b/relu -> res3a_branch2b/bn (in-place)
I0614 14:22:18.547721   945 net.cpp:148] Setting up res3a_branch2b/relu
I0614 14:22:18.547731   945 net.cpp:155] Top shape: 50 128 28 28 (5017600)
I0614 14:22:18.547740   945 net.cpp:163] Memory required for data: 933274400
I0614 14:22:18.547749   945 layer_factory.hpp:77] Creating layer pool3
I0614 14:22:18.547761   945 net.cpp:98] Creating Layer pool3
I0614 14:22:18.547771   945 net.cpp:439] pool3 <- res3a_branch2b/bn
I0614 14:22:18.547783   945 net.cpp:413] pool3 -> pool3
I0614 14:22:18.547833   945 net.cpp:148] Setting up pool3
I0614 14:22:18.547847   945 net.cpp:155] Top shape: 50 128 14 14 (1254400)
I0614 14:22:18.547857   945 net.cpp:163] Memory required for data: 938292000
I0614 14:22:18.547866   945 layer_factory.hpp:77] Creating layer res4a_branch2a
I0614 14:22:18.547879   945 net.cpp:98] Creating Layer res4a_branch2a
I0614 14:22:18.547889   945 net.cpp:439] res4a_branch2a <- pool3
I0614 14:22:18.547901   945 net.cpp:413] res4a_branch2a -> res4a_branch2a
I0614 14:22:18.554107   945 net.cpp:148] Setting up res4a_branch2a
I0614 14:22:18.554121   945 net.cpp:155] Top shape: 50 256 14 14 (2508800)
I0614 14:22:18.554123   945 net.cpp:163] Memory required for data: 948327200
I0614 14:22:18.554129   945 layer_factory.hpp:77] Creating layer res4a_branch2a/bn
I0614 14:22:18.554147   945 net.cpp:98] Creating Layer res4a_branch2a/bn
I0614 14:22:18.554157   945 net.cpp:439] res4a_branch2a/bn <- res4a_branch2a
I0614 14:22:18.554169   945 net.cpp:413] res4a_branch2a/bn -> res4a_branch2a/bn
I0614 14:22:18.554744   945 net.cpp:148] Setting up res4a_branch2a/bn
I0614 14:22:18.554754   945 net.cpp:155] Top shape: 50 256 14 14 (2508800)
I0614 14:22:18.554756   945 net.cpp:163] Memory required for data: 958362400
I0614 14:22:18.554765   945 layer_factory.hpp:77] Creating layer res4a_branch2a/relu
I0614 14:22:18.554780   945 net.cpp:98] Creating Layer res4a_branch2a/relu
I0614 14:22:18.554791   945 net.cpp:439] res4a_branch2a/relu <- res4a_branch2a/bn
I0614 14:22:18.554803   945 net.cpp:400] res4a_branch2a/relu -> res4a_branch2a/bn (in-place)
I0614 14:22:18.554816   945 net.cpp:148] Setting up res4a_branch2a/relu
I0614 14:22:18.554827   945 net.cpp:155] Top shape: 50 256 14 14 (2508800)
I0614 14:22:18.554836   945 net.cpp:163] Memory required for data: 968397600
I0614 14:22:18.554846   945 layer_factory.hpp:77] Creating layer res4a_branch2b
I0614 14:22:18.554859   945 net.cpp:98] Creating Layer res4a_branch2b
I0614 14:22:18.554869   945 net.cpp:439] res4a_branch2b <- res4a_branch2a/bn
I0614 14:22:18.554883   945 net.cpp:413] res4a_branch2b -> res4a_branch2b
I0614 14:22:18.558102   945 net.cpp:148] Setting up res4a_branch2b
I0614 14:22:18.558109   945 net.cpp:155] Top shape: 50 256 14 14 (2508800)
I0614 14:22:18.558111   945 net.cpp:163] Memory required for data: 978432800
I0614 14:22:18.558115   945 layer_factory.hpp:77] Creating layer res4a_branch2b/bn
I0614 14:22:18.558120   945 net.cpp:98] Creating Layer res4a_branch2b/bn
I0614 14:22:18.558121   945 net.cpp:439] res4a_branch2b/bn <- res4a_branch2b
I0614 14:22:18.558125   945 net.cpp:413] res4a_branch2b/bn -> res4a_branch2b/bn
I0614 14:22:18.560950   945 net.cpp:148] Setting up res4a_branch2b/bn
I0614 14:22:18.560961   945 net.cpp:155] Top shape: 50 256 14 14 (2508800)
I0614 14:22:18.560966   945 net.cpp:163] Memory required for data: 988468000
I0614 14:22:18.561038   945 layer_factory.hpp:77] Creating layer res4a_branch2b/relu
I0614 14:22:18.561061   945 net.cpp:98] Creating Layer res4a_branch2b/relu
I0614 14:22:18.561072   945 net.cpp:439] res4a_branch2b/relu <- res4a_branch2b/bn
I0614 14:22:18.561084   945 net.cpp:400] res4a_branch2b/relu -> res4a_branch2b/bn (in-place)
I0614 14:22:18.561098   945 net.cpp:148] Setting up res4a_branch2b/relu
I0614 14:22:18.561110   945 net.cpp:155] Top shape: 50 256 14 14 (2508800)
I0614 14:22:18.561120   945 net.cpp:163] Memory required for data: 998503200
I0614 14:22:18.561128   945 layer_factory.hpp:77] Creating layer pool4
I0614 14:22:18.561141   945 net.cpp:98] Creating Layer pool4
I0614 14:22:18.561151   945 net.cpp:439] pool4 <- res4a_branch2b/bn
I0614 14:22:18.561161   945 net.cpp:413] pool4 -> pool4
I0614 14:22:18.561213   945 net.cpp:148] Setting up pool4
I0614 14:22:18.561226   945 net.cpp:155] Top shape: 50 256 7 7 (627200)
I0614 14:22:18.561235   945 net.cpp:163] Memory required for data: 1001012000
I0614 14:22:18.561245   945 layer_factory.hpp:77] Creating layer res5a_branch2a
I0614 14:22:18.561257   945 net.cpp:98] Creating Layer res5a_branch2a
I0614 14:22:18.561267   945 net.cpp:439] res5a_branch2a <- pool4
I0614 14:22:18.561280   945 net.cpp:413] res5a_branch2a -> res5a_branch2a
I0614 14:22:18.586273   945 net.cpp:148] Setting up res5a_branch2a
I0614 14:22:18.586295   945 net.cpp:155] Top shape: 50 512 7 7 (1254400)
I0614 14:22:18.586298   945 net.cpp:163] Memory required for data: 1006029600
I0614 14:22:18.586303   945 layer_factory.hpp:77] Creating layer res5a_branch2a/bn
I0614 14:22:18.586313   945 net.cpp:98] Creating Layer res5a_branch2a/bn
I0614 14:22:18.586315   945 net.cpp:439] res5a_branch2a/bn <- res5a_branch2a
I0614 14:22:18.586318   945 net.cpp:413] res5a_branch2a/bn -> res5a_branch2a/bn
I0614 14:22:18.586822   945 net.cpp:148] Setting up res5a_branch2a/bn
I0614 14:22:18.586827   945 net.cpp:155] Top shape: 50 512 7 7 (1254400)
I0614 14:22:18.586829   945 net.cpp:163] Memory required for data: 1011047200
I0614 14:22:18.586834   945 layer_factory.hpp:77] Creating layer res5a_branch2a/relu
I0614 14:22:18.586838   945 net.cpp:98] Creating Layer res5a_branch2a/relu
I0614 14:22:18.586840   945 net.cpp:439] res5a_branch2a/relu <- res5a_branch2a/bn
I0614 14:22:18.586843   945 net.cpp:400] res5a_branch2a/relu -> res5a_branch2a/bn (in-place)
I0614 14:22:18.586848   945 net.cpp:148] Setting up res5a_branch2a/relu
I0614 14:22:18.586849   945 net.cpp:155] Top shape: 50 512 7 7 (1254400)
I0614 14:22:18.586851   945 net.cpp:163] Memory required for data: 1016064800
I0614 14:22:18.586853   945 layer_factory.hpp:77] Creating layer res5a_branch2b
I0614 14:22:18.586858   945 net.cpp:98] Creating Layer res5a_branch2b
I0614 14:22:18.586861   945 net.cpp:439] res5a_branch2b <- res5a_branch2a/bn
I0614 14:22:18.586865   945 net.cpp:413] res5a_branch2b -> res5a_branch2b
I0614 14:22:18.599439   945 net.cpp:148] Setting up res5a_branch2b
I0614 14:22:18.599448   945 net.cpp:155] Top shape: 50 512 7 7 (1254400)
I0614 14:22:18.599450   945 net.cpp:163] Memory required for data: 1021082400
I0614 14:22:18.599457   945 layer_factory.hpp:77] Creating layer res5a_branch2b/bn
I0614 14:22:18.599467   945 net.cpp:98] Creating Layer res5a_branch2b/bn
I0614 14:22:18.599470   945 net.cpp:439] res5a_branch2b/bn <- res5a_branch2b
I0614 14:22:18.599473   945 net.cpp:413] res5a_branch2b/bn -> res5a_branch2b/bn
I0614 14:22:18.599956   945 net.cpp:148] Setting up res5a_branch2b/bn
I0614 14:22:18.599962   945 net.cpp:155] Top shape: 50 512 7 7 (1254400)
I0614 14:22:18.599964   945 net.cpp:163] Memory required for data: 1026100000
I0614 14:22:18.599969   945 layer_factory.hpp:77] Creating layer res5a_branch2b/relu
I0614 14:22:18.599972   945 net.cpp:98] Creating Layer res5a_branch2b/relu
I0614 14:22:18.599974   945 net.cpp:439] res5a_branch2b/relu <- res5a_branch2b/bn
I0614 14:22:18.599977   945 net.cpp:400] res5a_branch2b/relu -> res5a_branch2b/bn (in-place)
I0614 14:22:18.599980   945 net.cpp:148] Setting up res5a_branch2b/relu
I0614 14:22:18.599983   945 net.cpp:155] Top shape: 50 512 7 7 (1254400)
I0614 14:22:18.599994   945 net.cpp:163] Memory required for data: 1031117600
I0614 14:22:18.599997   945 layer_factory.hpp:77] Creating layer pool5
I0614 14:22:18.600000   945 net.cpp:98] Creating Layer pool5
I0614 14:22:18.600004   945 net.cpp:439] pool5 <- res5a_branch2b/bn
I0614 14:22:18.600008   945 net.cpp:413] pool5 -> pool5
I0614 14:22:18.600030   945 net.cpp:148] Setting up pool5
I0614 14:22:18.600034   945 net.cpp:155] Top shape: 50 512 1 1 (25600)
I0614 14:22:18.600036   945 net.cpp:163] Memory required for data: 1031220000
I0614 14:22:18.600039   945 layer_factory.hpp:77] Creating layer fc1000
I0614 14:22:18.600041   945 net.cpp:98] Creating Layer fc1000
I0614 14:22:18.600044   945 net.cpp:439] fc1000 <- pool5
I0614 14:22:18.600046   945 net.cpp:413] fc1000 -> fc1000
I0614 14:22:18.610930   945 net.cpp:148] Setting up fc1000
I0614 14:22:18.610951   945 net.cpp:155] Top shape: 50 1000 (50000)
I0614 14:22:18.610954   945 net.cpp:163] Memory required for data: 1031420000
I0614 14:22:18.610961   945 layer_factory.hpp:77] Creating layer fc1000_fc1000_0_split
I0614 14:22:18.610972   945 net.cpp:98] Creating Layer fc1000_fc1000_0_split
I0614 14:22:18.610975   945 net.cpp:439] fc1000_fc1000_0_split <- fc1000
I0614 14:22:18.610980   945 net.cpp:413] fc1000_fc1000_0_split -> fc1000_fc1000_0_split_0
I0614 14:22:18.610986   945 net.cpp:413] fc1000_fc1000_0_split -> fc1000_fc1000_0_split_1
I0614 14:22:18.610990   945 net.cpp:413] fc1000_fc1000_0_split -> fc1000_fc1000_0_split_2
I0614 14:22:18.611042   945 net.cpp:148] Setting up fc1000_fc1000_0_split
I0614 14:22:18.611047   945 net.cpp:155] Top shape: 50 1000 (50000)
I0614 14:22:18.611049   945 net.cpp:155] Top shape: 50 1000 (50000)
I0614 14:22:18.611052   945 net.cpp:155] Top shape: 50 1000 (50000)
I0614 14:22:18.611052   945 net.cpp:163] Memory required for data: 1032020000
I0614 14:22:18.611055   945 layer_factory.hpp:77] Creating layer loss
I0614 14:22:18.611058   945 net.cpp:98] Creating Layer loss
I0614 14:22:18.611060   945 net.cpp:439] loss <- fc1000_fc1000_0_split_0
I0614 14:22:18.611063   945 net.cpp:439] loss <- label_data_1_split_0
I0614 14:22:18.611065   945 net.cpp:413] loss -> loss
…
I0701 15:17:16.159104  6647 net.cpp:327] The NetState phase (0) differed from the phase (1) specified by a rule in layer accuracy/top5
I0701 15:17:16.159262  6647 net.cpp:56] Initializing net from parameters: 
name: "jacintonet11v2_train"
state {
  phase: TRAIN
}
layer {
  name: "data"
  type: "Data"
  top: "data"
  top: "label"
  transform_param {
    mirror: true
    crop_size: 224
    mean_value: 0
    mean_value: 0
    mean_value: 0
  }
  data_param {
    source: "./data/ilsvrc12_train_lmdb"
    batch_size: 42
    backend: LMDB
    threads: 1
  }
}
layer {
  name: "data/bias"
  type: "Bias"
  bottom: "data"
  top: "data/bias"
  param {
    lr_mult: 0
    decay_mult: 0
  }
  bias_param {
    filler {
      type: "constant"
      value: -128
    }
  }
}
layer {
  name: "conv1a"
  type: "Convolution"
  bottom: "data/bias"
  top: "conv1a"
  param {
    lr_mult: 1
    decay_mult: 1
  }
  param {
    lr_mult: 2
    decay_mult: 0
  }
  convolution_param {
    num_output: 32
    bias_term: true
    pad: 2
    kernel_size: 5
    group: 1
    stride: 2
    weight_filler {
      type: "msra"
    }
    bias_filler {
      type: "constant"
      value: 0
    }
    dilation: 1
  }
}
layer {
  name: "conv1a/bn"
  type: "BatchNorm"
  bottom: "conv1a"
  top: "conv1a/bn"
  param {
    lr_mult: 1
    decay_mult: 1
  }
  param {
    lr_mult: 1
    decay_mult: 1
  }
  param {
    lr_mult: 0
    decay_mult: 0
  }
  param {
    lr_mult: 0
    decay_mult: 0
  }
  batch_norm_param {
    moving_average_fraction: 0.99
    eps: 0.0001
    scale_filler {
      type: "constant"
      value: 1
    }
    bias_filler {
      type: "constant"
      value: 0
    }
  }
}
layer {
  name: "conv1a/relu"
  type: "ReLU"
  bottom: "conv1a/bn"
  top: "conv1a/bn"
}
layer {
  name: "conv1b"
  type: "Convolution"
  bottom: "conv1a/bn"
  top: "conv1b"
  param {
    lr_mult: 1
    decay_mult: 1
  }
  param {
    lr_mult: 2
    decay_mult: 0
  }
  convolution_param {
    num_output: 32
    bias_term: true
    pad: 1
    kernel_size: 3
    group: 4
    stride: 1
    weight_filler {
      type: "msra"
    }
    bias_filler {
      type: "constant"
      value: 0
    }
    dilation: 1
  }
}
layer {
  name: "conv1b/bn"
  type: "BatchNorm"
  bottom: "conv1b"
  top: "conv1b/bn"
  param {
    lr_mult: 1
    decay_mult: 1
  }
  param {
    lr_mult: 1
    decay_mult: 1
  }
  param {
    lr_mult: 0
    decay_mult: 0
  }
  param {
    lr_mult: 0
    decay_mult: 0
  }
  batch_norm_param {
    moving_average_fraction: 0.99
    eps: 0.0001
    scale_filler {
      type: "constant"
      value: 1
    }
    bias_filler {
      type: "constant"
      value: 0
    }
  }
}
layer {
  name: "conv1b/relu"
  type: "ReLU"
  bottom: "conv1b/bn"
  top: "conv1b/bn"
}
layer {
  name: "pool1"
  type: "Pooling"
  bottom: "conv1b/bn"
  top: "pool1"
  pooling_param {
    pool: MAX
    kernel_size: 2
    stride: 2
  }
}
layer {
  name: "res2a_branch2a"
  type: "Convolution"
  bottom: "pool1"
  top: "res2a_branch2a"
  param {
    lr_mult: 1
    decay_mult: 1
  }
  param {
    lr_mult: 2
    decay_mult: 0
  }
  convolution_param {
    num_output: 64
    bias_term: true
    pad: 1
    kernel_size: 3
    group: 1
    stride: 1
    weight_filler {
      type: "msra"
    }
    bias_filler {
      type: "constant"
      value: 0
    }
    dilation: 1
  }
}
layer {
  name: "res2a_branch2a/bn"
  type: "BatchNorm"
  bottom: "res2a_branch2a"
  top: "res2a_branch2a/bn"
  param {
    lr_mult: 1
    decay_mult: 1
  }
  param {
    lr_mult: 1
    decay_mult: 1
  }
  param {
    lr_mult: 0
    decay_mult: 0
  }
  param {
    lr_mult: 0
    decay_mult: 0
  }
  batch_norm_param {
    moving_average_fraction: 0.99
    eps: 0.0001
    scale_filler {
      type: "constant"
      value: 1
    }
    bias_filler {
      type: "constant"
      value: 0
    }
  }
}
layer {
  name: "res2a_branch2a/relu"
  type: "ReLU"
  bottom: "res2a_branch2a/bn"
  top: "res2a_branch2a/bn"
}
layer {
  name: "res2a_branch2b"
  type: "Convolution"
  bottom: "res2a_branch2a/bn"
  top: "res2a_branch2b"
  param {
    lr_mult: 1
    decay_mult: 1
  }
  param {
    lr_mult: 2
    decay_mult: 0
  }
  convolution_param {
    num_output: 64
    bias_term: true
    pad: 1
    kernel_size: 3
    group: 4
    stride: 1
    weight_filler {
      type: "msra"
    }
    bias_filler {
      type: "constant"
      value: 0
    }
    dilation: 1
  }
}
layer {
  name: "res2a_branch2b/bn"
  type: "BatchNorm"
  bottom: "res2a_branch2b"
  top: "res2a_branch2b/bn"
  param {
    lr_mult: 1
    decay_mult: 1
  }
  param {
    lr_mult: 1
    decay_mult: 1
  }
  param {
    lr_mult: 0
    decay_mult: 0
  }
  param {
    lr_mult: 0
    decay_mult: 0
  }
  batch_norm_param {
    moving_average_fraction: 0.99
    eps: 0.0001
    scale_filler {
      type: "constant"
      value: 1
    }
    bias_filler {
      type: "constant"
      value: 0
    }
  }
}
layer {
  name: "res2a_branch2b/relu"
  type: "ReLU"
  bottom: "res2a_branch2b/bn"
  top: "res2a_branch2b/bn"
}
layer {
  name: "pool2"
  type: "Pooling"
  bottom: "res2a_branch2b/bn"
  top: "pool2"
  pooling_param {
    pool: MAX
    kernel_size: 2
    stride: 2
  }
}
layer {
  name: "res3a_branch2a"
  type: "Convolution"
  bottom: "pool2"
  top: "res3a_branch2a"
  param {
    lr_mult: 1
    decay_mult: 1
  }
  param {
    lr_mult: 2
    decay_mult: 0
  }
  convolution_param {
    num_output: 128
    bias_term: true
    pad: 1
    kernel_size: 3
    group: 1
    stride: 1
    weight_filler {
      type: "msra"
    }
    bias_filler {
      type: "constant"
      value: 0
    }
    dilation: 1
  }
}
layer {
  name: "res3a_branch2a/bn"
  type: "BatchNorm"
  bottom: "res3a_branch2a"
  top: "res3a_branch2a/bn"
  param {
    lr_mult: 1
    decay_mult: 1
  }
  param {
    lr_mult: 1
    decay_mult: 1
  }
  param {
    lr_mult: 0
    decay_mult: 0
  }
  param {
    lr_mult: 0
    decay_mult: 0
  }
  batch_norm_param {
    moving_average_fraction: 0.99
    eps: 0.0001
    scale_filler {
      type: "constant"
      value: 1
    }
    bias_filler {
      type: "constant"
      value: 0
    }
  }
}
layer {
  name: "res3a_branch2a/relu"
  type: "ReLU"
  bottom: "res3a_branch2a/bn"
  top: "res3a_branch2a/bn"
}
layer {
  name: "res3a_branch2b"
  type: "Convolution"
  bottom: "res3a_branch2a/bn"
  top: "res3a_branch2b"
  param {
    lr_mult: 1
    decay_mult: 1
  }
  param {
    lr_mult: 2
    decay_mult: 0
  }
  convolution_param {
    num_output: 128
    bias_term: true
    pad: 1
    kernel_size: 3
    group: 4
    stride: 1
    weight_filler {
      type: "msra"
    }
    bias_filler {
      type: "constant"
      value: 0
    }
    dilation: 1
  }
}
layer {
  name: "res3a_branch2b/bn"
  type: "BatchNorm"
  bottom: "res3a_branch2b"
  top: "res3a_branch2b/bn"
  param {
    lr_mult: 1
    decay_mult: 1
  }
  param {
    lr_mult: 1
    decay_mult: 1
  }
  param {
    lr_mult: 0
    decay_mult: 0
  }
  param {
    lr_mult: 0
    decay_mult: 0
  }
  batch_norm_param {
    moving_average_fraction: 0.99
    eps: 0.0001
    scale_filler {
      type: "constant"
      value: 1
    }
    bias_filler {
      type: "constant"
      value: 0
    }
  }
}
layer {
  name: "res3a_branch2b/relu"
  type: "ReLU"
  bottom: "res3a_branch2b/bn"
  top: "res3a_branch2b/bn"
}
layer {
  name: "pool3"
  type: "Pooling"
  bottom: "res3a_branch2b/bn"
  top: "pool3"
  pooling_param {
    pool: MAX
    kernel_size: 2
    stride: 2
  }
}
layer {
  name: "res4a_branch2a"
  type: "Convolution"
  bottom: "pool3"
  top: "res4a_branch2a"
  param {
    lr_mult: 1
    decay_mult: 1
  }
  param {
    lr_mult: 2
    decay_mult: 0
  }
  convolution_param {
    num_output: 256
    bias_term: true
    pad: 1
    kernel_size: 3
    group: 1
    stride: 1
    weight_filler {
      type: "msra"
    }
    bias_filler {
      type: "constant"
      value: 0
    }
    dilation: 1
  }
}
layer {
  name: "res4a_branch2a/bn"
  type: "BatchNorm"
  bottom: "res4a_branch2a"
  top: "res4a_branch2a/bn"
  param {
    lr_mult: 1
    decay_mult: 1
  }
  param {
    lr_mult: 1
    decay_mult: 1
  }
  param {
    lr_mult: 0
    decay_mult: 0
  }
  param {
    lr_mult: 0
    decay_mult: 0
  }
  batch_norm_param {
    moving_average_fraction: 0.99
    eps: 0.0001
    scale_filler {
      type: "constant"
      value: 1
    }
    bias_filler {
      type: "constant"
      value: 0
    }
  }
}
layer {
  name: "res4a_branch2a/relu"
  type: "ReLU"
  bottom: "res4a_branch2a/bn"
  top: "res4a_branch2a/bn"
}
layer {
  name: "res4a_branch2b"
  type: "Convolution"
  bottom: "res4a_branch2a/bn"
  top: "res4a_branch2b"
  param {
    lr_mult: 1
    decay_mult: 1
  }
  param {
    lr_mult: 2
    decay_mult: 0
  }
  convolution_param {
    num_output: 256
    bias_term: true
    pad: 1
    kernel_size: 3
    group: 4
    stride: 1
    weight_filler {
      type: "msra"
    }
    bias_filler {
      type: "constant"
      value: 0
    }
    dilation: 1
  }
}
layer {
  name: "res4a_branch2b/bn"
  type: "BatchNorm"
  bottom: "res4a_branch2b"
  top: "res4a_branch2b/bn"
  param {
    lr_mult: 1
    decay_mult: 1
  }
  param {
    lr_mult: 1
    decay_mult: 1
  }
  param {
    lr_mult: 0
    decay_mult: 0
  }
  param {
    lr_mult: 0
    decay_mult: 0
  }
  batch_norm_param {
    moving_average_fraction: 0.99
    eps: 0.0001
    scale_filler {
      type: "constant"
      value: 1
    }
    bias_filler {
      type: "constant"
      value: 0
    }
  }
}
layer {
  name: "res4a_branch2b/relu"
  type: "ReLU"
  bottom: "res4a_branch2b/bn"
  top: "res4a_branch2b/bn"
}
layer {
  name: "pool4"
  type: "Pooling"
  bottom: "res4a_branch2b/bn"
  top: "pool4"
  pooling_param {
    pool: MAX
    kernel_size: 2
    stride: 2
  }
}
layer {
  name: "res5a_branch2a"
  type: "Convolution"
  bottom: "pool4"
  top: "res5a_branch2a"
  param {
    lr_mult: 1
    decay_mult: 1
  }
  param {
    lr_mult: 2
    decay_mult: 0
  }
  convolution_param {
    num_output: 512
    bias_term: true
    pad: 1
    kernel_size: 3
    group: 1
    stride: 1
    weight_filler {
      type: "msra"
    }
    bias_filler {
      type: "constant"
      value: 0
    }
    dilation: 1
  }
}
layer {
  name: "res5a_branch2a/bn"
  type: "BatchNorm"
  bottom: "res5a_branch2a"
  top: "res5a_branch2a/bn"
  param {
    lr_mult: 1
    decay_mult: 1
  }
  param {
    lr_mult: 1
    decay_mult: 1
  }
  param {
    lr_mult: 0
    decay_mult: 0
  }
  param {
    lr_mult: 0
    decay_mult: 0
  }
  batch_norm_param {
    moving_average_fraction: 0.99
    eps: 0.0001
    scale_filler {
      type: "constant"
      value: 1
    }
    bias_filler {
      type: "constant"
      value: 0
    }
  }
}
layer {
  name: "res5a_branch2a/relu"
  type: "ReLU"
  bottom: "res5a_branch2a/bn"
  top: "res5a_branch2a/bn"
}
layer {
  name: "res5a_branch2b"
  type: "Convolution"
  bottom: "res5a_branch2a/bn"
  top: "res5a_branch2b"
  param {
    lr_mult: 1
    decay_mult: 1
  }
  param {
    lr_mult: 2
    decay_mult: 0
  }
  convolution_param {
    num_output: 512
    bias_term: true
    pad: 1
    kernel_size: 3
    group: 4
    stride: 1
    weight_filler {
      type: "msra"
    }
    bias_filler {
      type: "constant"
      value: 0
    }
    dilation: 1
  }
}
layer {
  name: "res5a_branch2b/bn"
  type: "BatchNorm"
  bottom: "res5a_branch2b"
  top: "res5a_branch2b/bn"
  param {
    lr_mult: 1
    decay_mult: 1
  }
  param {
    lr_mult: 1
    decay_mult: 1
  }
  param {
    lr_mult: 0
    decay_mult: 0
  }
  param {
    lr_mult: 0
    decay_mult: 0
  }
  batch_norm_param {
    moving_average_fraction: 0.99
    eps: 0.0001
    scale_filler {
      type: "constant"
      value: 1
    }
    bias_filler {
      type: "constant"
      value: 0
    }
  }
}
layer {
  name: "res5a_branch2b/relu"
  type: "ReLU"
  bottom: "res5a_branch2b/bn"
  top: "res5a_branch2b/bn"
}
layer {
  name: "pool5"
  type: "Pooling"
  bottom: "res5a_branch2b/bn"
  top: "pool5"
  pooling_param {
    pool: AVE
    global_pooling: true
  }
}
layer {
  name: "fc1000"
  type: "InnerProduct"
  bottom: "pool5"
  top: "fc1000"
  param {
    lr_mult: 1
    decay_mult: 1
  }
  param {
    lr_mult: 2
    decay_mult: 0
  }
  inner_product_param {
    num_output: 1000
    weight_filler {
      type: "msra"
    }
    bias_filler {
      type: "constant"
      value: 0
    }
  }
}
layer {
  name: "loss"
  type: "SoftmaxWithLoss"
  bottom: "fc1000"
  bottom: "label"
  top: "loss"
  propagate_down: true
  propagate_down: false
}
I0701 15:17:16.159351  6647 layer_factory.hpp:77] Creating layer data
I0701 15:17:16.159432  6647 net.cpp:98] Creating Layer data
I0701 15:17:16.159440  6647 net.cpp:413] data -> data
I0701 15:17:16.159466  6647 net.cpp:413] data -> label
I0701 15:17:16.161046  6679 db_lmdb.cpp:35] Opened lmdb ./data/ilsvrc12_train_lmdb
I0701 15:17:16.175786  6647 data_layer.cpp:78] ReshapePrefetch 42, 3, 224, 224
I0701 15:17:16.175842  6647 data_layer.cpp:83] output data size: 42,3,224,224
I0701 15:17:16.201246  6647 net.cpp:148] Setting up data
I0701 15:17:16.201267  6647 net.cpp:155] Top shape: 42 3 224 224 (6322176)
I0701 15:17:16.201270  6647 net.cpp:155] Top shape: 42 (42)
I0701 15:17:16.201272  6647 net.cpp:163] Memory required for data: 25288872
I0701 15:17:16.201279  6647 layer_factory.hpp:77] Creating layer data/bias
I0701 15:17:16.201292  6647 net.cpp:98] Creating Layer data/bias
I0701 15:17:16.201294  6647 net.cpp:439] data/bias <- data
I0701 15:17:16.201303  6647 net.cpp:413] data/bias -> data/bias
I0701 15:17:16.202267  6647 net.cpp:148] Setting up data/bias
I0701 15:17:16.202275  6647 net.cpp:155] Top shape: 42 3 224 224 (6322176)
I0701 15:17:16.202278  6647 net.cpp:163] Memory required for data: 50577576
I0701 15:17:16.202286  6647 layer_factory.hpp:77] Creating layer conv1a
I0701 15:17:16.202296  6647 net.cpp:98] Creating Layer conv1a
I0701 15:17:16.202298  6647 net.cpp:439] conv1a <- data/bias
I0701 15:17:16.202301  6647 net.cpp:413] conv1a -> conv1a
I0701 15:17:16.204485  6647 net.cpp:148] Setting up conv1a
I0701 15:17:16.204496  6647 net.cpp:155] Top shape: 42 32 112 112 (16859136)
I0701 15:17:16.204499  6647 net.cpp:163] Memory required for data: 118014120
I0701 15:17:16.204504  6647 layer_factory.hpp:77] Creating layer conv1a/bn
I0701 15:17:16.204510  6647 net.cpp:98] Creating Layer conv1a/bn
I0701 15:17:16.204514  6647 net.cpp:439] conv1a/bn <- conv1a
I0701 15:17:16.204516  6647 net.cpp:413] conv1a/bn -> conv1a/bn
I0701 15:17:16.206179  6681 blocking_queue.cpp:50] Waiting for data
I0701 15:17:16.206861  6647 net.cpp:148] Setting up conv1a/bn
I0701 15:17:16.206868  6647 net.cpp:155] Top shape: 42 32 112 112 (16859136)
I0701 15:17:16.206871  6647 net.cpp:163] Memory required for data: 185450664
I0701 15:17:16.206878  6647 layer_factory.hpp:77] Creating layer conv1a/relu
I0701 15:17:16.206882  6647 net.cpp:98] Creating Layer conv1a/relu
I0701 15:17:16.206885  6647 net.cpp:439] conv1a/relu <- conv1a/bn
I0701 15:17:16.206887  6647 net.cpp:400] conv1a/relu -> conv1a/bn (in-place)
I0701 15:17:16.206897  6647 net.cpp:148] Setting up conv1a/relu
I0701 15:17:16.206909  6647 net.cpp:155] Top shape: 42 32 112 112 (16859136)
I0701 15:17:16.206912  6647 net.cpp:163] Memory required for data: 252887208
I0701 15:17:16.206914  6647 layer_factory.hpp:77] Creating layer conv1b
I0701 15:17:16.206918  6647 net.cpp:98] Creating Layer conv1b
I0701 15:17:16.206921  6647 net.cpp:439] conv1b <- conv1a/bn
I0701 15:17:16.206924  6647 net.cpp:413] conv1b -> conv1b
I0701 15:17:16.207262  6647 net.cpp:148] Setting up conv1b
I0701 15:17:16.207268  6647 net.cpp:155] Top shape: 42 32 112 112 (16859136)
I0701 15:17:16.207270  6647 net.cpp:163] Memory required for data: 320323752
I0701 15:17:16.207275  6647 layer_factory.hpp:77] Creating layer conv1b/bn
I0701 15:17:16.207278  6647 net.cpp:98] Creating Layer conv1b/bn
I0701 15:17:16.207280  6647 net.cpp:439] conv1b/bn <- conv1b
I0701 15:17:16.207283  6647 net.cpp:413] conv1b/bn -> conv1b/bn
I0701 15:17:16.207953  6647 net.cpp:148] Setting up conv1b/bn
I0701 15:17:16.207959  6647 net.cpp:155] Top shape: 42 32 112 112 (16859136)
I0701 15:17:16.207962  6647 net.cpp:163] Memory required for data: 387760296
I0701 15:17:16.207967  6647 layer_factory.hpp:77] Creating layer conv1b/relu
I0701 15:17:16.207969  6647 net.cpp:98] Creating Layer conv1b/relu
I0701 15:17:16.207972  6647 net.cpp:439] conv1b/relu <- conv1b/bn
I0701 15:17:16.207974  6647 net.cpp:400] conv1b/relu -> conv1b/bn (in-place)
I0701 15:17:16.207979  6647 net.cpp:148] Setting up conv1b/relu
I0701 15:17:16.207983  6647 net.cpp:155] Top shape: 42 32 112 112 (16859136)
I0701 15:17:16.207983  6647 net.cpp:163] Memory required for data: 455196840
I0701 15:17:16.207986  6647 layer_factory.hpp:77] Creating layer pool1
I0701 15:17:16.207991  6647 net.cpp:98] Creating Layer pool1
I0701 15:17:16.207993  6647 net.cpp:439] pool1 <- conv1b/bn
I0701 15:17:16.207996  6647 net.cpp:413] pool1 -> pool1
I0701 15:17:16.208039  6647 net.cpp:148] Setting up pool1
I0701 15:17:16.208043  6647 net.cpp:155] Top shape: 42 32 56 56 (4214784)
I0701 15:17:16.208045  6647 net.cpp:163] Memory required for data: 472055976
I0701 15:17:16.208047  6647 layer_factory.hpp:77] Creating layer res2a_branch2a
I0701 15:17:16.208051  6647 net.cpp:98] Creating Layer res2a_branch2a
I0701 15:17:16.208053  6647 net.cpp:439] res2a_branch2a <- pool1
I0701 15:17:16.208056  6647 net.cpp:413] res2a_branch2a -> res2a_branch2a
I0701 15:17:16.208678  6647 net.cpp:148] Setting up res2a_branch2a
I0701 15:17:16.208683  6647 net.cpp:155] Top shape: 42 64 56 56 (8429568)
I0701 15:17:16.208685  6647 net.cpp:163] Memory required for data: 505774248
I0701 15:17:16.208689  6647 layer_factory.hpp:77] Creating layer res2a_branch2a/bn
I0701 15:17:16.208693  6647 net.cpp:98] Creating Layer res2a_branch2a/bn
I0701 15:17:16.208695  6647 net.cpp:439] res2a_branch2a/bn <- res2a_branch2a
I0701 15:17:16.208698  6647 net.cpp:413] res2a_branch2a/bn -> res2a_branch2a/bn
I0701 15:17:16.209348  6647 net.cpp:148] Setting up res2a_branch2a/bn
I0701 15:17:16.209357  6647 net.cpp:155] Top shape: 42 64 56 56 (8429568)
I0701 15:17:16.209358  6647 net.cpp:163] Memory required for data: 539492520
I0701 15:17:16.209362  6647 layer_factory.hpp:77] Creating layer res2a_branch2a/relu
I0701 15:17:16.209365  6647 net.cpp:98] Creating Layer res2a_branch2a/relu
I0701 15:17:16.209367  6647 net.cpp:439] res2a_branch2a/relu <- res2a_branch2a/bn
I0701 15:17:16.209370  6647 net.cpp:400] res2a_branch2a/relu -> res2a_branch2a/bn (in-place)
I0701 15:17:16.209373  6647 net.cpp:148] Setting up res2a_branch2a/relu
I0701 15:17:16.209375  6647 net.cpp:155] Top shape: 42 64 56 56 (8429568)
I0701 15:17:16.209378  6647 net.cpp:163] Memory required for data: 573210792
I0701 15:17:16.209379  6647 layer_factory.hpp:77] Creating layer res2a_branch2b
I0701 15:17:16.209383  6647 net.cpp:98] Creating Layer res2a_branch2b
I0701 15:17:16.209385  6647 net.cpp:439] res2a_branch2b <- res2a_branch2a/bn
I0701 15:17:16.209388  6647 net.cpp:413] res2a_branch2b -> res2a_branch2b
I0701 15:17:16.209838  6647 net.cpp:148] Setting up res2a_branch2b
I0701 15:17:16.209843  6647 net.cpp:155] Top shape: 42 64 56 56 (8429568)
I0701 15:17:16.209851  6647 net.cpp:163] Memory required for data: 606929064
I0701 15:17:16.209854  6647 layer_factory.hpp:77] Creating layer res2a_branch2b/bn
I0701 15:17:16.209858  6647 net.cpp:98] Creating Layer res2a_branch2b/bn
I0701 15:17:16.209861  6647 net.cpp:439] res2a_branch2b/bn <- res2a_branch2b
I0701 15:17:16.209863  6647 net.cpp:413] res2a_branch2b/bn -> res2a_branch2b/bn
I0701 15:17:16.210532  6647 net.cpp:148] Setting up res2a_branch2b/bn
I0701 15:17:16.210538  6647 net.cpp:155] Top shape: 42 64 56 56 (8429568)
I0701 15:17:16.210541  6647 net.cpp:163] Memory required for data: 640647336
I0701 15:17:16.210544  6647 layer_factory.hpp:77] Creating layer res2a_branch2b/relu
I0701 15:17:16.210547  6647 net.cpp:98] Creating Layer res2a_branch2b/relu
I0701 15:17:16.210549  6647 net.cpp:439] res2a_branch2b/relu <- res2a_branch2b/bn
I0701 15:17:16.210551  6647 net.cpp:400] res2a_branch2b/relu -> res2a_branch2b/bn (in-place)
I0701 15:17:16.210554  6647 net.cpp:148] Setting up res2a_branch2b/relu
I0701 15:17:16.210557  6647 net.cpp:155] Top shape: 42 64 56 56 (8429568)
I0701 15:17:16.210558  6647 net.cpp:163] Memory required for data: 674365608
I0701 15:17:16.210561  6647 layer_factory.hpp:77] Creating layer pool2
I0701 15:17:16.210563  6647 net.cpp:98] Creating Layer pool2
I0701 15:17:16.210566  6647 net.cpp:439] pool2 <- res2a_branch2b/bn
I0701 15:17:16.210567  6647 net.cpp:413] pool2 -> pool2
I0701 15:17:16.210602  6647 net.cpp:148] Setting up pool2
I0701 15:17:16.210604  6647 net.cpp:155] Top shape: 42 64 28 28 (2107392)
I0701 15:17:16.210606  6647 net.cpp:163] Memory required for data: 682795176
I0701 15:17:16.210608  6647 layer_factory.hpp:77] Creating layer res3a_branch2a
I0701 15:17:16.210613  6647 net.cpp:98] Creating Layer res3a_branch2a
I0701 15:17:16.210615  6647 net.cpp:439] res3a_branch2a <- pool2
I0701 15:17:16.210618  6647 net.cpp:413] res3a_branch2a -> res3a_branch2a
I0701 15:17:16.213968  6647 net.cpp:148] Setting up res3a_branch2a
I0701 15:17:16.213976  6647 net.cpp:155] Top shape: 42 128 28 28 (4214784)
I0701 15:17:16.213979  6647 net.cpp:163] Memory required for data: 699654312
I0701 15:17:16.213982  6647 layer_factory.hpp:77] Creating layer res3a_branch2a/bn
I0701 15:17:16.213989  6647 net.cpp:98] Creating Layer res3a_branch2a/bn
I0701 15:17:16.213990  6647 net.cpp:439] res3a_branch2a/bn <- res3a_branch2a
I0701 15:17:16.213994  6647 net.cpp:413] res3a_branch2a/bn -> res3a_branch2a/bn
I0701 15:17:16.214630  6647 net.cpp:148] Setting up res3a_branch2a/bn
I0701 15:17:16.214637  6647 net.cpp:155] Top shape: 42 128 28 28 (4214784)
I0701 15:17:16.214639  6647 net.cpp:163] Memory required for data: 716513448
I0701 15:17:16.214645  6647 layer_factory.hpp:77] Creating layer res3a_branch2a/relu
I0701 15:17:16.214649  6647 net.cpp:98] Creating Layer res3a_branch2a/relu
I0701 15:17:16.214651  6647 net.cpp:439] res3a_branch2a/relu <- res3a_branch2a/bn
I0701 15:17:16.214656  6647 net.cpp:400] res3a_branch2a/relu -> res3a_branch2a/bn (in-place)
I0701 15:17:16.214660  6647 net.cpp:148] Setting up res3a_branch2a/relu
I0701 15:17:16.214663  6647 net.cpp:155] Top shape: 42 128 28 28 (4214784)
I0701 15:17:16.214664  6647 net.cpp:163] Memory required for data: 733372584
I0701 15:17:16.214666  6647 layer_factory.hpp:77] Creating layer res3a_branch2b
I0701 15:17:16.214670  6647 net.cpp:98] Creating Layer res3a_branch2b
I0701 15:17:16.214673  6647 net.cpp:439] res3a_branch2b <- res3a_branch2a/bn
I0701 15:17:16.214675  6647 net.cpp:413] res3a_branch2b -> res3a_branch2b
I0701 15:17:16.215683  6647 net.cpp:148] Setting up res3a_branch2b
I0701 15:17:16.215689  6647 net.cpp:155] Top shape: 42 128 28 28 (4214784)
I0701 15:17:16.215692  6647 net.cpp:163] Memory required for data: 750231720
I0701 15:17:16.215694  6647 layer_factory.hpp:77] Creating layer res3a_branch2b/bn
I0701 15:17:16.215698  6647 net.cpp:98] Creating Layer res3a_branch2b/bn
I0701 15:17:16.215699  6647 net.cpp:439] res3a_branch2b/bn <- res3a_branch2b
I0701 15:17:16.215703  6647 net.cpp:413] res3a_branch2b/bn -> res3a_branch2b/bn
I0701 15:17:16.216347  6647 net.cpp:148] Setting up res3a_branch2b/bn
I0701 15:17:16.216353  6647 net.cpp:155] Top shape: 42 128 28 28 (4214784)
I0701 15:17:16.216356  6647 net.cpp:163] Memory required for data: 767090856
I0701 15:17:16.216361  6647 layer_factory.hpp:77] Creating layer res3a_branch2b/relu
I0701 15:17:16.216362  6647 net.cpp:98] Creating Layer res3a_branch2b/relu
I0701 15:17:16.216364  6647 net.cpp:439] res3a_branch2b/relu <- res3a_branch2b/bn
I0701 15:17:16.216367  6647 net.cpp:400] res3a_branch2b/relu -> res3a_branch2b/bn (in-place)
I0701 15:17:16.216370  6647 net.cpp:148] Setting up res3a_branch2b/relu
I0701 15:17:16.216372  6647 net.cpp:155] Top shape: 42 128 28 28 (4214784)
I0701 15:17:16.216374  6647 net.cpp:163] Memory required for data: 783949992
I0701 15:17:16.216377  6647 layer_factory.hpp:77] Creating layer pool3
I0701 15:17:16.216379  6647 net.cpp:98] Creating Layer pool3
I0701 15:17:16.216382  6647 net.cpp:439] pool3 <- res3a_branch2b/bn
I0701 15:17:16.216384  6647 net.cpp:413] pool3 -> pool3
I0701 15:17:16.216423  6647 net.cpp:148] Setting up pool3
I0701 15:17:16.216426  6647 net.cpp:155] Top shape: 42 128 14 14 (1053696)
I0701 15:17:16.216428  6647 net.cpp:163] Memory required for data: 788164776
I0701 15:17:16.216430  6647 layer_factory.hpp:77] Creating layer res4a_branch2a
I0701 15:17:16.216434  6647 net.cpp:98] Creating Layer res4a_branch2a
I0701 15:17:16.216437  6647 net.cpp:439] res4a_branch2a <- pool3
I0701 15:17:16.216440  6647 net.cpp:413] res4a_branch2a -> res4a_branch2a
I0701 15:17:16.222544  6647 net.cpp:148] Setting up res4a_branch2a
I0701 15:17:16.222553  6647 net.cpp:155] Top shape: 42 256 14 14 (2107392)
I0701 15:17:16.222555  6647 net.cpp:163] Memory required for data: 796594344
I0701 15:17:16.222559  6647 layer_factory.hpp:77] Creating layer res4a_branch2a/bn
I0701 15:17:16.222563  6647 net.cpp:98] Creating Layer res4a_branch2a/bn
I0701 15:17:16.222566  6647 net.cpp:439] res4a_branch2a/bn <- res4a_branch2a
I0701 15:17:16.222569  6647 net.cpp:413] res4a_branch2a/bn -> res4a_branch2a/bn
I0701 15:17:16.223218  6647 net.cpp:148] Setting up res4a_branch2a/bn
I0701 15:17:16.223224  6647 net.cpp:155] Top shape: 42 256 14 14 (2107392)
I0701 15:17:16.223227  6647 net.cpp:163] Memory required for data: 805023912
I0701 15:17:16.223233  6647 layer_factory.hpp:77] Creating layer res4a_branch2a/relu
I0701 15:17:16.223237  6647 net.cpp:98] Creating Layer res4a_branch2a/relu
I0701 15:17:16.223238  6647 net.cpp:439] res4a_branch2a/relu <- res4a_branch2a/bn
I0701 15:17:16.223242  6647 net.cpp:400] res4a_branch2a/relu -> res4a_branch2a/bn (in-place)
I0701 15:17:16.223245  6647 net.cpp:148] Setting up res4a_branch2a/relu
I0701 15:17:16.223248  6647 net.cpp:155] Top shape: 42 256 14 14 (2107392)
I0701 15:17:16.223250  6647 net.cpp:163] Memory required for data: 813453480
I0701 15:17:16.223253  6647 layer_factory.hpp:77] Creating layer res4a_branch2b
I0701 15:17:16.223256  6647 net.cpp:98] Creating Layer res4a_branch2b
I0701 15:17:16.223259  6647 net.cpp:439] res4a_branch2b <- res4a_branch2a/bn
I0701 15:17:16.223264  6647 net.cpp:413] res4a_branch2b -> res4a_branch2b
I0701 15:17:16.226442  6647 net.cpp:148] Setting up res4a_branch2b
I0701 15:17:16.226449  6647 net.cpp:155] Top shape: 42 256 14 14 (2107392)
I0701 15:17:16.226450  6647 net.cpp:163] Memory required for data: 821883048
I0701 15:17:16.226454  6647 layer_factory.hpp:77] Creating layer res4a_branch2b/bn
I0701 15:17:16.226459  6647 net.cpp:98] Creating Layer res4a_branch2b/bn
I0701 15:17:16.226461  6647 net.cpp:439] res4a_branch2b/bn <- res4a_branch2b
I0701 15:17:16.226465  6647 net.cpp:413] res4a_branch2b/bn -> res4a_branch2b/bn
I0701 15:17:16.227088  6647 net.cpp:148] Setting up res4a_branch2b/bn
I0701 15:17:16.227094  6647 net.cpp:155] Top shape: 42 256 14 14 (2107392)
I0701 15:17:16.227097  6647 net.cpp:163] Memory required for data: 830312616
I0701 15:17:16.227102  6647 layer_factory.hpp:77] Creating layer res4a_branch2b/relu
I0701 15:17:16.227105  6647 net.cpp:98] Creating Layer res4a_branch2b/relu
I0701 15:17:16.227108  6647 net.cpp:439] res4a_branch2b/relu <- res4a_branch2b/bn
I0701 15:17:16.227118  6647 net.cpp:400] res4a_branch2b/relu -> res4a_branch2b/bn (in-place)
I0701 15:17:16.227123  6647 net.cpp:148] Setting up res4a_branch2b/relu
I0701 15:17:16.227125  6647 net.cpp:155] Top shape: 42 256 14 14 (2107392)
I0701 15:17:16.227128  6647 net.cpp:163] Memory required for data: 838742184
I0701 15:17:16.227129  6647 layer_factory.hpp:77] Creating layer pool4
I0701 15:17:16.227133  6647 net.cpp:98] Creating Layer pool4
I0701 15:17:16.227135  6647 net.cpp:439] pool4 <- res4a_branch2b/bn
I0701 15:17:16.227138  6647 net.cpp:413] pool4 -> pool4
I0701 15:17:16.227246  6647 net.cpp:148] Setting up pool4
I0701 15:17:16.227250  6647 net.cpp:155] Top shape: 42 256 7 7 (526848)
I0701 15:17:16.227252  6647 net.cpp:163] Memory required for data: 840849576
I0701 15:17:16.227254  6647 layer_factory.hpp:77] Creating layer res5a_branch2a
I0701 15:17:16.227258  6647 net.cpp:98] Creating Layer res5a_branch2a
I0701 15:17:16.227262  6647 net.cpp:439] res5a_branch2a <- pool4
I0701 15:17:16.227264  6647 net.cpp:413] res5a_branch2a -> res5a_branch2a
I0701 15:17:16.252014  6647 net.cpp:148] Setting up res5a_branch2a
I0701 15:17:16.252038  6647 net.cpp:155] Top shape: 42 512 7 7 (1053696)
I0701 15:17:16.252040  6647 net.cpp:163] Memory required for data: 845064360
I0701 15:17:16.252048  6647 layer_factory.hpp:77] Creating layer res5a_branch2a/bn
I0701 15:17:16.252055  6647 net.cpp:98] Creating Layer res5a_branch2a/bn
I0701 15:17:16.252058  6647 net.cpp:439] res5a_branch2a/bn <- res5a_branch2a
I0701 15:17:16.252063  6647 net.cpp:413] res5a_branch2a/bn -> res5a_branch2a/bn
I0701 15:17:16.252748  6647 net.cpp:148] Setting up res5a_branch2a/bn
I0701 15:17:16.252753  6647 net.cpp:155] Top shape: 42 512 7 7 (1053696)
I0701 15:17:16.252756  6647 net.cpp:163] Memory required for data: 849279144
I0701 15:17:16.252763  6647 layer_factory.hpp:77] Creating layer res5a_branch2a/relu
I0701 15:17:16.252768  6647 net.cpp:98] Creating Layer res5a_branch2a/relu
I0701 15:17:16.252769  6647 net.cpp:439] res5a_branch2a/relu <- res5a_branch2a/bn
I0701 15:17:16.252773  6647 net.cpp:400] res5a_branch2a/relu -> res5a_branch2a/bn (in-place)
I0701 15:17:16.252777  6647 net.cpp:148] Setting up res5a_branch2a/relu
I0701 15:17:16.252780  6647 net.cpp:155] Top shape: 42 512 7 7 (1053696)
I0701 15:17:16.252782  6647 net.cpp:163] Memory required for data: 853493928
I0701 15:17:16.252784  6647 layer_factory.hpp:77] Creating layer res5a_branch2b
I0701 15:17:16.252789  6647 net.cpp:98] Creating Layer res5a_branch2b
I0701 15:17:16.252792  6647 net.cpp:439] res5a_branch2b <- res5a_branch2a/bn
I0701 15:17:16.252794  6647 net.cpp:413] res5a_branch2b -> res5a_branch2b
I0701 15:17:16.265622  6647 net.cpp:148] Setting up res5a_branch2b
I0701 15:17:16.265632  6647 net.cpp:155] Top shape: 42 512 7 7 (1053696)
I0701 15:17:16.265635  6647 net.cpp:163] Memory required for data: 857708712
I0701 15:17:16.265645  6647 layer_factory.hpp:77] Creating layer res5a_branch2b/bn
I0701 15:17:16.265650  6647 net.cpp:98] Creating Layer res5a_branch2b/bn
I0701 15:17:16.265652  6647 net.cpp:439] res5a_branch2b/bn <- res5a_branch2b
I0701 15:17:16.265656  6647 net.cpp:413] res5a_branch2b/bn -> res5a_branch2b/bn
I0701 15:17:16.266319  6647 net.cpp:148] Setting up res5a_branch2b/bn
I0701 15:17:16.266325  6647 net.cpp:155] Top shape: 42 512 7 7 (1053696)
I0701 15:17:16.266327  6647 net.cpp:163] Memory required for data: 861923496
I0701 15:17:16.266333  6647 layer_factory.hpp:77] Creating layer res5a_branch2b/relu
I0701 15:17:16.266337  6647 net.cpp:98] Creating Layer res5a_branch2b/relu
I0701 15:17:16.266340  6647 net.cpp:439] res5a_branch2b/relu <- res5a_branch2b/bn
I0701 15:17:16.266343  6647 net.cpp:400] res5a_branch2b/relu -> res5a_branch2b/bn (in-place)
I0701 15:17:16.266347  6647 net.cpp:148] Setting up res5a_branch2b/relu
I0701 15:17:16.266350  6647 net.cpp:155] Top shape: 42 512 7 7 (1053696)
I0701 15:17:16.266352  6647 net.cpp:163] Memory required for data: 866138280
I0701 15:17:16.266355  6647 layer_factory.hpp:77] Creating layer pool5
I0701 15:17:16.266368  6647 net.cpp:98] Creating Layer pool5
I0701 15:17:16.266371  6647 net.cpp:439] pool5 <- res5a_branch2b/bn
I0701 15:17:16.266374  6647 net.cpp:413] pool5 -> pool5
I0701 15:17:16.266408  6647 net.cpp:148] Setting up pool5
I0701 15:17:16.266412  6647 net.cpp:155] Top shape: 42 512 1 1 (21504)
I0701 15:17:16.266414  6647 net.cpp:163] Memory required for data: 866224296
I0701 15:17:16.266417  6647 layer_factory.hpp:77] Creating layer fc1000
I0701 15:17:16.266420  6647 net.cpp:98] Creating Layer fc1000
I0701 15:17:16.266422  6647 net.cpp:439] fc1000 <- pool5
I0701 15:17:16.266425  6647 net.cpp:413] fc1000 -> fc1000
I0701 15:17:16.277427  6647 net.cpp:148] Setting up fc1000
I0701 15:17:16.277438  6647 net.cpp:155] Top shape: 42 1000 (42000)
I0701 15:17:16.277441  6647 net.cpp:163] Memory required for data: 866392296
I0701 15:17:16.277446  6647 layer_factory.hpp:77] Creating layer loss
I0701 15:17:16.277451  6647 net.cpp:98] Creating Layer loss
I0701 15:17:16.277453  6647 net.cpp:439] loss <- fc1000
I0701 15:17:16.277456  6647 net.cpp:439] loss <- label
I0701 15:17:16.277462  6647 net.cpp:413] loss -> loss
I0701 15:17:16.277472  6647 layer_factory.hpp:77] Creating layer loss
…
