…
I0630 02:08:24.776849 28163 net.cpp:327] The NetState phase (0) differed from the phase (1) specified by a rule in layer accuracy/top5
I0630 02:08:24.777000 28163 net.cpp:56] Initializing net from parameters: 
name: "jacintonet11v2_train"
state {
  phase: TRAIN
}
layer {
  name: "data"
  type: "Data"
  top: "data"
  top: "label"
  transform_param {
    mirror: true
    crop_size: 224
    mean_value: 0
    mean_value: 0
    mean_value: 0
  }
  data_param {
    source: "./data/ilsvrc12_train_lmdb"
    batch_size: 42
    backend: LMDB
    threads: 1
  }
}
layer {
  name: "data/bias"
  type: "Bias"
  bottom: "data"
  top: "data/bias"
  param {
    lr_mult: 0
    decay_mult: 0
  }
  bias_param {
    filler {
      type: "constant"
      value: -128
    }
  }
}
layer {
  name: "conv1a"
  type: "Convolution"
  bottom: "data/bias"
  top: "conv1a"
  param {
    lr_mult: 1
    decay_mult: 1
  }
  param {
    lr_mult: 2
    decay_mult: 0
  }
  convolution_param {
    num_output: 32
    bias_term: true
    pad: 2
    kernel_size: 5
    group: 1
    stride: 2
    weight_filler {
      type: "msra"
    }
    bias_filler {
      type: "constant"
      value: 0
    }
    dilation: 1
  }
}
layer {
  name: "conv1a/bn"
  type: "BatchNorm"
  bottom: "conv1a"
  top: "conv1a/bn"
  param {
    lr_mult: 1
    decay_mult: 1
  }
  param {
    lr_mult: 1
    decay_mult: 1
  }
  param {
    lr_mult: 0
    decay_mult: 0
  }
  param {
    lr_mult: 0
    decay_mult: 0
  }
  batch_norm_param {
    moving_average_fraction: 0.99
    eps: 0.0001
    scale_filler {
      type: "constant"
      value: 1
    }
    bias_filler {
      type: "constant"
      value: 0
    }
  }
}
layer {
  name: "conv1a/relu"
  type: "ReLU"
  bottom: "conv1a/bn"
  top: "conv1a/bn"
}
layer {
  name: "conv1b"
  type: "Convolution"
  bottom: "conv1a/bn"
  top: "conv1b"
  param {
    lr_mult: 1
    decay_mult: 1
  }
  param {
    lr_mult: 2
    decay_mult: 0
  }
  convolution_param {
    num_output: 32
    bias_term: true
    pad: 1
    kernel_size: 3
    group: 4
    stride: 1
    weight_filler {
      type: "msra"
    }
    bias_filler {
      type: "constant"
      value: 0
    }
    dilation: 1
  }
}
layer {
  name: "conv1b/bn"
  type: "BatchNorm"
  bottom: "conv1b"
  top: "conv1b/bn"
  param {
    lr_mult: 1
    decay_mult: 1
  }
  param {
    lr_mult: 1
    decay_mult: 1
  }
  param {
    lr_mult: 0
    decay_mult: 0
  }
  param {
    lr_mult: 0
    decay_mult: 0
  }
  batch_norm_param {
    moving_average_fraction: 0.99
    eps: 0.0001
    scale_filler {
      type: "constant"
      value: 1
    }
    bias_filler {
      type: "constant"
      value: 0
    }
  }
}
layer {
  name: "conv1b/relu"
  type: "ReLU"
  bottom: "conv1b/bn"
  top: "conv1b/bn"
}
layer {
  name: "pool1"
  type: "Pooling"
  bottom: "conv1b/bn"
  top: "pool1"
  pooling_param {
    pool: MAX
    kernel_size: 2
    stride: 2
  }
}
layer {
  name: "res2a_branch2a"
  type: "Convolution"
  bottom: "pool1"
  top: "res2a_branch2a"
  param {
    lr_mult: 1
    decay_mult: 1
  }
  param {
    lr_mult: 2
    decay_mult: 0
  }
  convolution_param {
    num_output: 64
    bias_term: true
    pad: 1
    kernel_size: 3
    group: 1
    stride: 1
    weight_filler {
      type: "msra"
    }
    bias_filler {
      type: "constant"
      value: 0
    }
    dilation: 1
  }
}
layer {
  name: "res2a_branch2a/bn"
  type: "BatchNorm"
  bottom: "res2a_branch2a"
  top: "res2a_branch2a/bn"
  param {
    lr_mult: 1
    decay_mult: 1
  }
  param {
    lr_mult: 1
    decay_mult: 1
  }
  param {
    lr_mult: 0
    decay_mult: 0
  }
  param {
    lr_mult: 0
    decay_mult: 0
  }
  batch_norm_param {
    moving_average_fraction: 0.99
    eps: 0.0001
    scale_filler {
      type: "constant"
      value: 1
    }
    bias_filler {
      type: "constant"
      value: 0
    }
  }
}
layer {
  name: "res2a_branch2a/relu"
  type: "ReLU"
  bottom: "res2a_branch2a/bn"
  top: "res2a_branch2a/bn"
}
layer {
  name: "res2a_branch2b"
  type: "Convolution"
  bottom: "res2a_branch2a/bn"
  top: "res2a_branch2b"
  param {
    lr_mult: 1
    decay_mult: 1
  }
  param {
    lr_mult: 2
    decay_mult: 0
  }
  convolution_param {
    num_output: 64
    bias_term: true
    pad: 1
    kernel_size: 3
    group: 4
    stride: 1
    weight_filler {
      type: "msra"
    }
    bias_filler {
      type: "constant"
      value: 0
    }
    dilation: 1
  }
}
layer {
  name: "res2a_branch2b/bn"
  type: "BatchNorm"
  bottom: "res2a_branch2b"
  top: "res2a_branch2b/bn"
  param {
    lr_mult: 1
    decay_mult: 1
  }
  param {
    lr_mult: 1
    decay_mult: 1
  }
  param {
    lr_mult: 0
    decay_mult: 0
  }
  param {
    lr_mult: 0
    decay_mult: 0
  }
  batch_norm_param {
    moving_average_fraction: 0.99
    eps: 0.0001
    scale_filler {
      type: "constant"
      value: 1
    }
    bias_filler {
      type: "constant"
      value: 0
    }
  }
}
layer {
  name: "res2a_branch2b/relu"
  type: "ReLU"
  bottom: "res2a_branch2b/bn"
  top: "res2a_branch2b/bn"
}
layer {
  name: "pool2"
  type: "Pooling"
  bottom: "res2a_branch2b/bn"
  top: "pool2"
  pooling_param {
    pool: MAX
    kernel_size: 2
    stride: 2
  }
}
layer {
  name: "res3a_branch2a"
  type: "Convolution"
  bottom: "pool2"
  top: "res3a_branch2a"
  param {
    lr_mult: 1
    decay_mult: 1
  }
  param {
    lr_mult: 2
    decay_mult: 0
  }
  convolution_param {
    num_output: 128
    bias_term: true
    pad: 1
    kernel_size: 3
    group: 1
    stride: 1
    weight_filler {
      type: "msra"
    }
    bias_filler {
      type: "constant"
      value: 0
    }
    dilation: 1
  }
}
layer {
  name: "res3a_branch2a/bn"
  type: "BatchNorm"
  bottom: "res3a_branch2a"
  top: "res3a_branch2a/bn"
  param {
    lr_mult: 1
    decay_mult: 1
  }
  param {
    lr_mult: 1
    decay_mult: 1
  }
  param {
    lr_mult: 0
    decay_mult: 0
  }
  param {
    lr_mult: 0
    decay_mult: 0
  }
  batch_norm_param {
    moving_average_fraction: 0.99
    eps: 0.0001
    scale_filler {
      type: "constant"
      value: 1
    }
    bias_filler {
      type: "constant"
      value: 0
    }
  }
}
layer {
  name: "res3a_branch2a/relu"
  type: "ReLU"
  bottom: "res3a_branch2a/bn"
  top: "res3a_branch2a/bn"
}
layer {
  name: "res3a_branch2b"
  type: "Convolution"
  bottom: "res3a_branch2a/bn"
  top: "res3a_branch2b"
  param {
    lr_mult: 1
    decay_mult: 1
  }
  param {
    lr_mult: 2
    decay_mult: 0
  }
  convolution_param {
    num_output: 128
    bias_term: true
    pad: 1
    kernel_size: 3
    group: 4
    stride: 1
    weight_filler {
      type: "msra"
    }
    bias_filler {
      type: "constant"
      value: 0
    }
    dilation: 1
  }
}
layer {
  name: "res3a_branch2b/bn"
  type: "BatchNorm"
  bottom: "res3a_branch2b"
  top: "res3a_branch2b/bn"
  param {
    lr_mult: 1
    decay_mult: 1
  }
  param {
    lr_mult: 1
    decay_mult: 1
  }
  param {
    lr_mult: 0
    decay_mult: 0
  }
  param {
    lr_mult: 0
    decay_mult: 0
  }
  batch_norm_param {
    moving_average_fraction: 0.99
    eps: 0.0001
    scale_filler {
      type: "constant"
      value: 1
    }
    bias_filler {
      type: "constant"
      value: 0
    }
  }
}
layer {
  name: "res3a_branch2b/relu"
  type: "ReLU"
  bottom: "res3a_branch2b/bn"
  top: "res3a_branch2b/bn"
}
layer {
  name: "pool3"
  type: "Pooling"
  bottom: "res3a_branch2b/bn"
  top: "pool3"
  pooling_param {
    pool: MAX
    kernel_size: 2
    stride: 2
  }
}
layer {
  name: "res4a_branch2a"
  type: "Convolution"
  bottom: "pool3"
  top: "res4a_branch2a"
  param {
    lr_mult: 1
    decay_mult: 1
  }
  param {
    lr_mult: 2
    decay_mult: 0
  }
  convolution_param {
    num_output: 256
    bias_term: true
    pad: 1
    kernel_size: 3
    group: 1
    stride: 1
    weight_filler {
      type: "msra"
    }
    bias_filler {
      type: "constant"
      value: 0
    }
    dilation: 1
  }
}
layer {
  name: "res4a_branch2a/bn"
  type: "BatchNorm"
  bottom: "res4a_branch2a"
  top: "res4a_branch2a/bn"
  param {
    lr_mult: 1
    decay_mult: 1
  }
  param {
    lr_mult: 1
    decay_mult: 1
  }
  param {
    lr_mult: 0
    decay_mult: 0
  }
  param {
    lr_mult: 0
    decay_mult: 0
  }
  batch_norm_param {
    moving_average_fraction: 0.99
    eps: 0.0001
    scale_filler {
      type: "constant"
      value: 1
    }
    bias_filler {
      type: "constant"
      value: 0
    }
  }
}
layer {
  name: "res4a_branch2a/relu"
  type: "ReLU"
  bottom: "res4a_branch2a/bn"
  top: "res4a_branch2a/bn"
}
layer {
  name: "res4a_branch2b"
  type: "Convolution"
  bottom: "res4a_branch2a/bn"
  top: "res4a_branch2b"
  param {
    lr_mult: 1
    decay_mult: 1
  }
  param {
    lr_mult: 2
    decay_mult: 0
  }
  convolution_param {
    num_output: 256
    bias_term: true
    pad: 1
    kernel_size: 3
    group: 4
    stride: 1
    weight_filler {
      type: "msra"
    }
    bias_filler {
      type: "constant"
      value: 0
    }
    dilation: 1
  }
}
layer {
  name: "res4a_branch2b/bn"
  type: "BatchNorm"
  bottom: "res4a_branch2b"
  top: "res4a_branch2b/bn"
  param {
    lr_mult: 1
    decay_mult: 1
  }
  param {
    lr_mult: 1
    decay_mult: 1
  }
  param {
    lr_mult: 0
    decay_mult: 0
  }
  param {
    lr_mult: 0
    decay_mult: 0
  }
  batch_norm_param {
    moving_average_fraction: 0.99
    eps: 0.0001
    scale_filler {
      type: "constant"
      value: 1
    }
    bias_filler {
      type: "constant"
      value: 0
    }
  }
}
layer {
  name: "res4a_branch2b/relu"
  type: "ReLU"
  bottom: "res4a_branch2b/bn"
  top: "res4a_branch2b/bn"
}
layer {
  name: "pool4"
  type: "Pooling"
  bottom: "res4a_branch2b/bn"
  top: "pool4"
  pooling_param {
    pool: MAX
    kernel_size: 2
    stride: 2
  }
}
layer {
  name: "res5a_branch2a"
  type: "Convolution"
  bottom: "pool4"
  top: "res5a_branch2a"
  param {
    lr_mult: 1
    decay_mult: 1
  }
  param {
    lr_mult: 2
    decay_mult: 0
  }
  convolution_param {
    num_output: 512
    bias_term: true
    pad: 1
    kernel_size: 3
    group: 1
    stride: 1
    weight_filler {
      type: "msra"
    }
    bias_filler {
      type: "constant"
      value: 0
    }
    dilation: 1
  }
}
layer {
  name: "res5a_branch2a/bn"
  type: "BatchNorm"
  bottom: "res5a_branch2a"
  top: "res5a_branch2a/bn"
  param {
    lr_mult: 1
    decay_mult: 1
  }
  param {
    lr_mult: 1
    decay_mult: 1
  }
  param {
    lr_mult: 0
    decay_mult: 0
  }
  param {
    lr_mult: 0
    decay_mult: 0
  }
  batch_norm_param {
    moving_average_fraction: 0.99
    eps: 0.0001
    scale_filler {
      type: "constant"
      value: 1
    }
    bias_filler {
      type: "constant"
      value: 0
    }
  }
}
layer {
  name: "res5a_branch2a/relu"
  type: "ReLU"
  bottom: "res5a_branch2a/bn"
  top: "res5a_branch2a/bn"
}
layer {
  name: "res5a_branch2b"
  type: "Convolution"
  bottom: "res5a_branch2a/bn"
  top: "res5a_branch2b"
  param {
    lr_mult: 1
    decay_mult: 1
  }
  param {
    lr_mult: 2
    decay_mult: 0
  }
  convolution_param {
    num_output: 512
    bias_term: true
    pad: 1
    kernel_size: 3
    group: 4
    stride: 1
    weight_filler {
      type: "msra"
    }
    bias_filler {
      type: "constant"
      value: 0
    }
    dilation: 1
  }
}
layer {
  name: "res5a_branch2b/bn"
  type: "BatchNorm"
  bottom: "res5a_branch2b"
  top: "res5a_branch2b/bn"
  param {
    lr_mult: 1
    decay_mult: 1
  }
  param {
    lr_mult: 1
    decay_mult: 1
  }
  param {
    lr_mult: 0
    decay_mult: 0
  }
  param {
    lr_mult: 0
    decay_mult: 0
  }
  batch_norm_param {
    moving_average_fraction: 0.99
    eps: 0.0001
    scale_filler {
      type: "constant"
      value: 1
    }
    bias_filler {
      type: "constant"
      value: 0
    }
  }
}
layer {
  name: "res5a_branch2b/relu"
  type: "ReLU"
  bottom: "res5a_branch2b/bn"
  top: "res5a_branch2b/bn"
}
layer {
  name: "pool5"
  type: "Pooling"
  bottom: "res5a_branch2b/bn"
  top: "pool5"
  pooling_param {
    pool: AVE
    global_pooling: true
  }
}
layer {
  name: "fc1000"
  type: "InnerProduct"
  bottom: "pool5"
  top: "fc1000"
  param {
    lr_mult: 1
    decay_mult: 1
  }
  param {
    lr_mult: 2
    decay_mult: 0
  }
  inner_product_param {
    num_output: 1000
    weight_filler {
      type: "msra"
    }
    bias_filler {
      type: "constant"
      value: 0
    }
  }
}
layer {
  name: "loss"
  type: "SoftmaxWithLoss"
  bottom: "fc1000"
  bottom: "label"
  top: "loss"
  propagate_down: true
  propagate_down: false
}
I0630 02:08:24.777089 28163 layer_factory.hpp:77] Creating layer data
I0630 02:08:24.777180 28163 net.cpp:98] Creating Layer data
I0630 02:08:24.777186 28163 net.cpp:413] data -> data
I0630 02:08:24.777202 28163 net.cpp:413] data -> label
I0630 02:08:24.778026 28196 db_lmdb.cpp:35] Opened lmdb ./data/ilsvrc12_train_lmdb
I0630 02:08:24.780074 28163 data_layer.cpp:78] ReshapePrefetch 42, 3, 224, 224
I0630 02:08:24.780125 28163 data_layer.cpp:83] output data size: 42,3,224,224
I0630 02:08:24.805670 28163 net.cpp:148] Setting up data
I0630 02:08:24.805697 28163 net.cpp:155] Top shape: 42 3 224 224 (6322176)
I0630 02:08:24.805701 28163 net.cpp:155] Top shape: 42 (42)
I0630 02:08:24.805703 28163 net.cpp:163] Memory required for data: 25288872
I0630 02:08:24.805712 28163 layer_factory.hpp:77] Creating layer data/bias
I0630 02:08:24.805728 28163 net.cpp:98] Creating Layer data/bias
I0630 02:08:24.805734 28163 net.cpp:439] data/bias <- data
I0630 02:08:24.805744 28163 net.cpp:413] data/bias -> data/bias
I0630 02:08:24.806771 28163 net.cpp:148] Setting up data/bias
I0630 02:08:24.806779 28163 net.cpp:155] Top shape: 42 3 224 224 (6322176)
I0630 02:08:24.806783 28163 net.cpp:163] Memory required for data: 50577576
I0630 02:08:24.806797 28163 layer_factory.hpp:77] Creating layer conv1a
I0630 02:08:24.806809 28163 net.cpp:98] Creating Layer conv1a
I0630 02:08:24.806813 28163 net.cpp:439] conv1a <- data/bias
I0630 02:08:24.806818 28163 net.cpp:413] conv1a -> conv1a
I0630 02:08:24.809622 28198 blocking_queue.cpp:50] Waiting for data
I0630 02:08:24.810575 28163 net.cpp:148] Setting up conv1a
I0630 02:08:24.810585 28163 net.cpp:155] Top shape: 42 32 112 112 (16859136)
I0630 02:08:24.810588 28163 net.cpp:163] Memory required for data: 118014120
I0630 02:08:24.810598 28163 layer_factory.hpp:77] Creating layer conv1a/bn
I0630 02:08:24.810607 28163 net.cpp:98] Creating Layer conv1a/bn
I0630 02:08:24.810611 28163 net.cpp:439] conv1a/bn <- conv1a
I0630 02:08:24.810617 28163 net.cpp:413] conv1a/bn -> conv1a/bn
I0630 02:08:24.811313 28163 net.cpp:148] Setting up conv1a/bn
I0630 02:08:24.811321 28163 net.cpp:155] Top shape: 42 32 112 112 (16859136)
I0630 02:08:24.811326 28163 net.cpp:163] Memory required for data: 185450664
I0630 02:08:24.811337 28163 layer_factory.hpp:77] Creating layer conv1a/relu
I0630 02:08:24.811342 28163 net.cpp:98] Creating Layer conv1a/relu
I0630 02:08:24.811347 28163 net.cpp:439] conv1a/relu <- conv1a/bn
I0630 02:08:24.811352 28163 net.cpp:400] conv1a/relu -> conv1a/bn (in-place)
I0630 02:08:24.811365 28163 net.cpp:148] Setting up conv1a/relu
I0630 02:08:24.811370 28163 net.cpp:155] Top shape: 42 32 112 112 (16859136)
I0630 02:08:24.811374 28163 net.cpp:163] Memory required for data: 252887208
I0630 02:08:24.811378 28163 layer_factory.hpp:77] Creating layer conv1b
I0630 02:08:24.811393 28163 net.cpp:98] Creating Layer conv1b
I0630 02:08:24.811395 28163 net.cpp:439] conv1b <- conv1a/bn
I0630 02:08:24.811401 28163 net.cpp:413] conv1b -> conv1b
I0630 02:08:24.811715 28163 net.cpp:148] Setting up conv1b
I0630 02:08:24.811722 28163 net.cpp:155] Top shape: 42 32 112 112 (16859136)
I0630 02:08:24.811727 28163 net.cpp:163] Memory required for data: 320323752
I0630 02:08:24.811734 28163 layer_factory.hpp:77] Creating layer conv1b/bn
I0630 02:08:24.811740 28163 net.cpp:98] Creating Layer conv1b/bn
I0630 02:08:24.811744 28163 net.cpp:439] conv1b/bn <- conv1b
I0630 02:08:24.811749 28163 net.cpp:413] conv1b/bn -> conv1b/bn
I0630 02:08:24.812403 28163 net.cpp:148] Setting up conv1b/bn
I0630 02:08:24.812409 28163 net.cpp:155] Top shape: 42 32 112 112 (16859136)
I0630 02:08:24.812413 28163 net.cpp:163] Memory required for data: 387760296
I0630 02:08:24.812422 28163 layer_factory.hpp:77] Creating layer conv1b/relu
I0630 02:08:24.812425 28163 net.cpp:98] Creating Layer conv1b/relu
I0630 02:08:24.812430 28163 net.cpp:439] conv1b/relu <- conv1b/bn
I0630 02:08:24.812436 28163 net.cpp:400] conv1b/relu -> conv1b/bn (in-place)
I0630 02:08:24.812441 28163 net.cpp:148] Setting up conv1b/relu
I0630 02:08:24.812446 28163 net.cpp:155] Top shape: 42 32 112 112 (16859136)
I0630 02:08:24.812449 28163 net.cpp:163] Memory required for data: 455196840
I0630 02:08:24.812453 28163 layer_factory.hpp:77] Creating layer pool1
I0630 02:08:24.812461 28163 net.cpp:98] Creating Layer pool1
I0630 02:08:24.812464 28163 net.cpp:439] pool1 <- conv1b/bn
I0630 02:08:24.812469 28163 net.cpp:413] pool1 -> pool1
I0630 02:08:24.812511 28163 net.cpp:148] Setting up pool1
I0630 02:08:24.812516 28163 net.cpp:155] Top shape: 42 32 56 56 (4214784)
I0630 02:08:24.812520 28163 net.cpp:163] Memory required for data: 472055976
I0630 02:08:24.812525 28163 layer_factory.hpp:77] Creating layer res2a_branch2a
I0630 02:08:24.812531 28163 net.cpp:98] Creating Layer res2a_branch2a
I0630 02:08:24.812535 28163 net.cpp:439] res2a_branch2a <- pool1
I0630 02:08:24.812541 28163 net.cpp:413] res2a_branch2a -> res2a_branch2a
I0630 02:08:24.813169 28163 net.cpp:148] Setting up res2a_branch2a
I0630 02:08:24.813176 28163 net.cpp:155] Top shape: 42 64 56 56 (8429568)
I0630 02:08:24.813180 28163 net.cpp:163] Memory required for data: 505774248
I0630 02:08:24.813187 28163 layer_factory.hpp:77] Creating layer res2a_branch2a/bn
I0630 02:08:24.813192 28163 net.cpp:98] Creating Layer res2a_branch2a/bn
I0630 02:08:24.813196 28163 net.cpp:439] res2a_branch2a/bn <- res2a_branch2a
I0630 02:08:24.813201 28163 net.cpp:413] res2a_branch2a/bn -> res2a_branch2a/bn
I0630 02:08:24.813860 28163 net.cpp:148] Setting up res2a_branch2a/bn
I0630 02:08:24.813868 28163 net.cpp:155] Top shape: 42 64 56 56 (8429568)
I0630 02:08:24.813871 28163 net.cpp:163] Memory required for data: 539492520
I0630 02:08:24.813880 28163 layer_factory.hpp:77] Creating layer res2a_branch2a/relu
I0630 02:08:24.813884 28163 net.cpp:98] Creating Layer res2a_branch2a/relu
I0630 02:08:24.813889 28163 net.cpp:439] res2a_branch2a/relu <- res2a_branch2a/bn
I0630 02:08:24.813894 28163 net.cpp:400] res2a_branch2a/relu -> res2a_branch2a/bn (in-place)
I0630 02:08:24.813899 28163 net.cpp:148] Setting up res2a_branch2a/relu
I0630 02:08:24.813905 28163 net.cpp:155] Top shape: 42 64 56 56 (8429568)
I0630 02:08:24.813908 28163 net.cpp:163] Memory required for data: 573210792
I0630 02:08:24.813912 28163 layer_factory.hpp:77] Creating layer res2a_branch2b
I0630 02:08:24.813923 28163 net.cpp:98] Creating Layer res2a_branch2b
I0630 02:08:24.813926 28163 net.cpp:439] res2a_branch2b <- res2a_branch2a/bn
I0630 02:08:24.813931 28163 net.cpp:413] res2a_branch2b -> res2a_branch2b
I0630 02:08:24.814391 28163 net.cpp:148] Setting up res2a_branch2b
I0630 02:08:24.814398 28163 net.cpp:155] Top shape: 42 64 56 56 (8429568)
I0630 02:08:24.814401 28163 net.cpp:163] Memory required for data: 606929064
I0630 02:08:24.814406 28163 layer_factory.hpp:77] Creating layer res2a_branch2b/bn
I0630 02:08:24.814412 28163 net.cpp:98] Creating Layer res2a_branch2b/bn
I0630 02:08:24.814420 28163 net.cpp:439] res2a_branch2b/bn <- res2a_branch2b
I0630 02:08:24.814426 28163 net.cpp:413] res2a_branch2b/bn -> res2a_branch2b/bn
I0630 02:08:24.815091 28163 net.cpp:148] Setting up res2a_branch2b/bn
I0630 02:08:24.815099 28163 net.cpp:155] Top shape: 42 64 56 56 (8429568)
I0630 02:08:24.815101 28163 net.cpp:163] Memory required for data: 640647336
I0630 02:08:24.815110 28163 layer_factory.hpp:77] Creating layer res2a_branch2b/relu
I0630 02:08:24.815114 28163 net.cpp:98] Creating Layer res2a_branch2b/relu
I0630 02:08:24.815119 28163 net.cpp:439] res2a_branch2b/relu <- res2a_branch2b/bn
I0630 02:08:24.815124 28163 net.cpp:400] res2a_branch2b/relu -> res2a_branch2b/bn (in-place)
I0630 02:08:24.815132 28163 net.cpp:148] Setting up res2a_branch2b/relu
I0630 02:08:24.815136 28163 net.cpp:155] Top shape: 42 64 56 56 (8429568)
I0630 02:08:24.815140 28163 net.cpp:163] Memory required for data: 674365608
I0630 02:08:24.815143 28163 layer_factory.hpp:77] Creating layer pool2
I0630 02:08:24.815148 28163 net.cpp:98] Creating Layer pool2
I0630 02:08:24.815152 28163 net.cpp:439] pool2 <- res2a_branch2b/bn
I0630 02:08:24.815156 28163 net.cpp:413] pool2 -> pool2
I0630 02:08:24.815196 28163 net.cpp:148] Setting up pool2
I0630 02:08:24.815201 28163 net.cpp:155] Top shape: 42 64 28 28 (2107392)
I0630 02:08:24.815206 28163 net.cpp:163] Memory required for data: 682795176
I0630 02:08:24.815209 28163 layer_factory.hpp:77] Creating layer res3a_branch2a
I0630 02:08:24.815219 28163 net.cpp:98] Creating Layer res3a_branch2a
I0630 02:08:24.815223 28163 net.cpp:439] res3a_branch2a <- pool2
I0630 02:08:24.815228 28163 net.cpp:413] res3a_branch2a -> res3a_branch2a
I0630 02:08:24.818584 28163 net.cpp:148] Setting up res3a_branch2a
I0630 02:08:24.818595 28163 net.cpp:155] Top shape: 42 128 28 28 (4214784)
I0630 02:08:24.818599 28163 net.cpp:163] Memory required for data: 699654312
I0630 02:08:24.818605 28163 layer_factory.hpp:77] Creating layer res3a_branch2a/bn
I0630 02:08:24.818612 28163 net.cpp:98] Creating Layer res3a_branch2a/bn
I0630 02:08:24.818616 28163 net.cpp:439] res3a_branch2a/bn <- res3a_branch2a
I0630 02:08:24.818624 28163 net.cpp:413] res3a_branch2a/bn -> res3a_branch2a/bn
I0630 02:08:24.819257 28163 net.cpp:148] Setting up res3a_branch2a/bn
I0630 02:08:24.819265 28163 net.cpp:155] Top shape: 42 128 28 28 (4214784)
I0630 02:08:24.819268 28163 net.cpp:163] Memory required for data: 716513448
I0630 02:08:24.819279 28163 layer_factory.hpp:77] Creating layer res3a_branch2a/relu
I0630 02:08:24.819283 28163 net.cpp:98] Creating Layer res3a_branch2a/relu
I0630 02:08:24.819288 28163 net.cpp:439] res3a_branch2a/relu <- res3a_branch2a/bn
I0630 02:08:24.819298 28163 net.cpp:400] res3a_branch2a/relu -> res3a_branch2a/bn (in-place)
I0630 02:08:24.819303 28163 net.cpp:148] Setting up res3a_branch2a/relu
I0630 02:08:24.819308 28163 net.cpp:155] Top shape: 42 128 28 28 (4214784)
I0630 02:08:24.819311 28163 net.cpp:163] Memory required for data: 733372584
I0630 02:08:24.819315 28163 layer_factory.hpp:77] Creating layer res3a_branch2b
I0630 02:08:24.819322 28163 net.cpp:98] Creating Layer res3a_branch2b
I0630 02:08:24.819326 28163 net.cpp:439] res3a_branch2b <- res3a_branch2a/bn
I0630 02:08:24.819331 28163 net.cpp:413] res3a_branch2b -> res3a_branch2b
I0630 02:08:24.820436 28163 net.cpp:148] Setting up res3a_branch2b
I0630 02:08:24.820444 28163 net.cpp:155] Top shape: 42 128 28 28 (4214784)
I0630 02:08:24.820447 28163 net.cpp:163] Memory required for data: 750231720
I0630 02:08:24.820453 28163 layer_factory.hpp:77] Creating layer res3a_branch2b/bn
I0630 02:08:24.820461 28163 net.cpp:98] Creating Layer res3a_branch2b/bn
I0630 02:08:24.820464 28163 net.cpp:439] res3a_branch2b/bn <- res3a_branch2b
I0630 02:08:24.820469 28163 net.cpp:413] res3a_branch2b/bn -> res3a_branch2b/bn
I0630 02:08:24.821100 28163 net.cpp:148] Setting up res3a_branch2b/bn
I0630 02:08:24.821107 28163 net.cpp:155] Top shape: 42 128 28 28 (4214784)
I0630 02:08:24.821112 28163 net.cpp:163] Memory required for data: 767090856
I0630 02:08:24.821127 28163 layer_factory.hpp:77] Creating layer res3a_branch2b/relu
I0630 02:08:24.821132 28163 net.cpp:98] Creating Layer res3a_branch2b/relu
I0630 02:08:24.821136 28163 net.cpp:439] res3a_branch2b/relu <- res3a_branch2b/bn
I0630 02:08:24.821141 28163 net.cpp:400] res3a_branch2b/relu -> res3a_branch2b/bn (in-place)
I0630 02:08:24.821147 28163 net.cpp:148] Setting up res3a_branch2b/relu
I0630 02:08:24.821151 28163 net.cpp:155] Top shape: 42 128 28 28 (4214784)
I0630 02:08:24.821156 28163 net.cpp:163] Memory required for data: 783949992
I0630 02:08:24.821159 28163 layer_factory.hpp:77] Creating layer pool3
I0630 02:08:24.821164 28163 net.cpp:98] Creating Layer pool3
I0630 02:08:24.821168 28163 net.cpp:439] pool3 <- res3a_branch2b/bn
I0630 02:08:24.821173 28163 net.cpp:413] pool3 -> pool3
I0630 02:08:24.821216 28163 net.cpp:148] Setting up pool3
I0630 02:08:24.821221 28163 net.cpp:155] Top shape: 42 128 14 14 (1053696)
I0630 02:08:24.821225 28163 net.cpp:163] Memory required for data: 788164776
I0630 02:08:24.821229 28163 layer_factory.hpp:77] Creating layer res4a_branch2a
I0630 02:08:24.821236 28163 net.cpp:98] Creating Layer res4a_branch2a
I0630 02:08:24.821239 28163 net.cpp:439] res4a_branch2a <- pool3
I0630 02:08:24.821244 28163 net.cpp:413] res4a_branch2a -> res4a_branch2a
I0630 02:08:24.827327 28163 net.cpp:148] Setting up res4a_branch2a
I0630 02:08:24.827334 28163 net.cpp:155] Top shape: 42 256 14 14 (2107392)
I0630 02:08:24.827337 28163 net.cpp:163] Memory required for data: 796594344
I0630 02:08:24.827344 28163 layer_factory.hpp:77] Creating layer res4a_branch2a/bn
I0630 02:08:24.827350 28163 net.cpp:98] Creating Layer res4a_branch2a/bn
I0630 02:08:24.827354 28163 net.cpp:439] res4a_branch2a/bn <- res4a_branch2a
I0630 02:08:24.827359 28163 net.cpp:413] res4a_branch2a/bn -> res4a_branch2a/bn
I0630 02:08:24.828004 28163 net.cpp:148] Setting up res4a_branch2a/bn
I0630 02:08:24.828011 28163 net.cpp:155] Top shape: 42 256 14 14 (2107392)
I0630 02:08:24.828016 28163 net.cpp:163] Memory required for data: 805023912
I0630 02:08:24.828024 28163 layer_factory.hpp:77] Creating layer res4a_branch2a/relu
I0630 02:08:24.828028 28163 net.cpp:98] Creating Layer res4a_branch2a/relu
I0630 02:08:24.828032 28163 net.cpp:439] res4a_branch2a/relu <- res4a_branch2a/bn
I0630 02:08:24.828037 28163 net.cpp:400] res4a_branch2a/relu -> res4a_branch2a/bn (in-place)
I0630 02:08:24.828043 28163 net.cpp:148] Setting up res4a_branch2a/relu
I0630 02:08:24.828047 28163 net.cpp:155] Top shape: 42 256 14 14 (2107392)
I0630 02:08:24.828052 28163 net.cpp:163] Memory required for data: 813453480
I0630 02:08:24.828055 28163 layer_factory.hpp:77] Creating layer res4a_branch2b
I0630 02:08:24.828061 28163 net.cpp:98] Creating Layer res4a_branch2b
I0630 02:08:24.828065 28163 net.cpp:439] res4a_branch2b <- res4a_branch2a/bn
I0630 02:08:24.828070 28163 net.cpp:413] res4a_branch2b -> res4a_branch2b
I0630 02:08:24.831251 28163 net.cpp:148] Setting up res4a_branch2b
I0630 02:08:24.831259 28163 net.cpp:155] Top shape: 42 256 14 14 (2107392)
I0630 02:08:24.831261 28163 net.cpp:163] Memory required for data: 821883048
I0630 02:08:24.831269 28163 layer_factory.hpp:77] Creating layer res4a_branch2b/bn
I0630 02:08:24.831274 28163 net.cpp:98] Creating Layer res4a_branch2b/bn
I0630 02:08:24.831279 28163 net.cpp:439] res4a_branch2b/bn <- res4a_branch2b
I0630 02:08:24.831284 28163 net.cpp:413] res4a_branch2b/bn -> res4a_branch2b/bn
I0630 02:08:24.831907 28163 net.cpp:148] Setting up res4a_branch2b/bn
I0630 02:08:24.831914 28163 net.cpp:155] Top shape: 42 256 14 14 (2107392)
I0630 02:08:24.831918 28163 net.cpp:163] Memory required for data: 830312616
I0630 02:08:24.831925 28163 layer_factory.hpp:77] Creating layer res4a_branch2b/relu
I0630 02:08:24.831930 28163 net.cpp:98] Creating Layer res4a_branch2b/relu
I0630 02:08:24.831934 28163 net.cpp:439] res4a_branch2b/relu <- res4a_branch2b/bn
I0630 02:08:24.831938 28163 net.cpp:400] res4a_branch2b/relu -> res4a_branch2b/bn (in-place)
I0630 02:08:24.831944 28163 net.cpp:148] Setting up res4a_branch2b/relu
I0630 02:08:24.831954 28163 net.cpp:155] Top shape: 42 256 14 14 (2107392)
I0630 02:08:24.831957 28163 net.cpp:163] Memory required for data: 838742184
I0630 02:08:24.831961 28163 layer_factory.hpp:77] Creating layer pool4
I0630 02:08:24.831967 28163 net.cpp:98] Creating Layer pool4
I0630 02:08:24.831971 28163 net.cpp:439] pool4 <- res4a_branch2b/bn
I0630 02:08:24.831975 28163 net.cpp:413] pool4 -> pool4
I0630 02:08:24.832022 28163 net.cpp:148] Setting up pool4
I0630 02:08:24.832027 28163 net.cpp:155] Top shape: 42 256 7 7 (526848)
I0630 02:08:24.832031 28163 net.cpp:163] Memory required for data: 840849576
I0630 02:08:24.832036 28163 layer_factory.hpp:77] Creating layer res5a_branch2a
I0630 02:08:24.832041 28163 net.cpp:98] Creating Layer res5a_branch2a
I0630 02:08:24.832046 28163 net.cpp:439] res5a_branch2a <- pool4
I0630 02:08:24.832051 28163 net.cpp:413] res5a_branch2a -> res5a_branch2a
I0630 02:08:24.856799 28163 net.cpp:148] Setting up res5a_branch2a
I0630 02:08:24.856820 28163 net.cpp:155] Top shape: 42 512 7 7 (1053696)
I0630 02:08:24.856824 28163 net.cpp:163] Memory required for data: 845064360
I0630 02:08:24.856832 28163 layer_factory.hpp:77] Creating layer res5a_branch2a/bn
I0630 02:08:24.856840 28163 net.cpp:98] Creating Layer res5a_branch2a/bn
I0630 02:08:24.856845 28163 net.cpp:439] res5a_branch2a/bn <- res5a_branch2a
I0630 02:08:24.856853 28163 net.cpp:413] res5a_branch2a/bn -> res5a_branch2a/bn
I0630 02:08:24.857522 28163 net.cpp:148] Setting up res5a_branch2a/bn
I0630 02:08:24.857529 28163 net.cpp:155] Top shape: 42 512 7 7 (1053696)
I0630 02:08:24.857532 28163 net.cpp:163] Memory required for data: 849279144
I0630 02:08:24.857542 28163 layer_factory.hpp:77] Creating layer res5a_branch2a/relu
I0630 02:08:24.857547 28163 net.cpp:98] Creating Layer res5a_branch2a/relu
I0630 02:08:24.857551 28163 net.cpp:439] res5a_branch2a/relu <- res5a_branch2a/bn
I0630 02:08:24.857556 28163 net.cpp:400] res5a_branch2a/relu -> res5a_branch2a/bn (in-place)
I0630 02:08:24.857563 28163 net.cpp:148] Setting up res5a_branch2a/relu
I0630 02:08:24.857568 28163 net.cpp:155] Top shape: 42 512 7 7 (1053696)
I0630 02:08:24.857571 28163 net.cpp:163] Memory required for data: 853493928
I0630 02:08:24.857574 28163 layer_factory.hpp:77] Creating layer res5a_branch2b
I0630 02:08:24.857583 28163 net.cpp:98] Creating Layer res5a_branch2b
I0630 02:08:24.857585 28163 net.cpp:439] res5a_branch2b <- res5a_branch2a/bn
I0630 02:08:24.857591 28163 net.cpp:413] res5a_branch2b -> res5a_branch2b
I0630 02:08:24.870481 28163 net.cpp:148] Setting up res5a_branch2b
I0630 02:08:24.870506 28163 net.cpp:155] Top shape: 42 512 7 7 (1053696)
I0630 02:08:24.870509 28163 net.cpp:163] Memory required for data: 857708712
I0630 02:08:24.870524 28163 layer_factory.hpp:77] Creating layer res5a_branch2b/bn
I0630 02:08:24.870534 28163 net.cpp:98] Creating Layer res5a_branch2b/bn
I0630 02:08:24.870539 28163 net.cpp:439] res5a_branch2b/bn <- res5a_branch2b
I0630 02:08:24.870545 28163 net.cpp:413] res5a_branch2b/bn -> res5a_branch2b/bn
I0630 02:08:24.871232 28163 net.cpp:148] Setting up res5a_branch2b/bn
I0630 02:08:24.871240 28163 net.cpp:155] Top shape: 42 512 7 7 (1053696)
I0630 02:08:24.871243 28163 net.cpp:163] Memory required for data: 861923496
I0630 02:08:24.871253 28163 layer_factory.hpp:77] Creating layer res5a_branch2b/relu
I0630 02:08:24.871258 28163 net.cpp:98] Creating Layer res5a_branch2b/relu
I0630 02:08:24.871261 28163 net.cpp:439] res5a_branch2b/relu <- res5a_branch2b/bn
I0630 02:08:24.871266 28163 net.cpp:400] res5a_branch2b/relu -> res5a_branch2b/bn (in-place)
I0630 02:08:24.871273 28163 net.cpp:148] Setting up res5a_branch2b/relu
I0630 02:08:24.871278 28163 net.cpp:155] Top shape: 42 512 7 7 (1053696)
I0630 02:08:24.871281 28163 net.cpp:163] Memory required for data: 866138280
I0630 02:08:24.871285 28163 layer_factory.hpp:77] Creating layer pool5
I0630 02:08:24.871294 28163 net.cpp:98] Creating Layer pool5
I0630 02:08:24.871297 28163 net.cpp:439] pool5 <- res5a_branch2b/bn
I0630 02:08:24.871302 28163 net.cpp:413] pool5 -> pool5
I0630 02:08:24.871345 28163 net.cpp:148] Setting up pool5
I0630 02:08:24.871350 28163 net.cpp:155] Top shape: 42 512 1 1 (21504)
I0630 02:08:24.871353 28163 net.cpp:163] Memory required for data: 866224296
I0630 02:08:24.871357 28163 layer_factory.hpp:77] Creating layer fc1000
I0630 02:08:24.871368 28163 net.cpp:98] Creating Layer fc1000
I0630 02:08:24.871372 28163 net.cpp:439] fc1000 <- pool5
I0630 02:08:24.871377 28163 net.cpp:413] fc1000 -> fc1000
I0630 02:08:24.882418 28163 net.cpp:148] Setting up fc1000
I0630 02:08:24.882427 28163 net.cpp:155] Top shape: 42 1000 (42000)
I0630 02:08:24.882431 28163 net.cpp:163] Memory required for data: 866392296
I0630 02:08:24.882436 28163 layer_factory.hpp:77] Creating layer loss
I0630 02:08:24.882442 28163 net.cpp:98] Creating Layer loss
I0630 02:08:24.882447 28163 net.cpp:439] loss <- fc1000
I0630 02:08:24.882452 28163 net.cpp:439] loss <- label
I0630 02:08:24.882458 28163 net.cpp:413] loss -> loss
I0630 02:08:24.882468 28163 layer_factory.hpp:77] Creating layer loss
…
I0630 02:08:24.883270 28163 solver.cpp:182] Creating test net (#0) specified by test_net file: training/imagenet_jacintonet11v2_2017-06-30_02-08-23/initial/test.prototxt
I0630 02:08:24.883458 28163 net.cpp:56] Initializing net from parameters: 
name: "jacintonet11v2_test"
state {
  phase: TEST
}
layer {
  name: "data"
  type: "Data"
  top: "data"
  top: "label"
  transform_param {
    mirror: false
    crop_size: 224
    mean_value: 0
    mean_value: 0
    mean_value: 0
  }
  data_param {
    source: "./data/ilsvrc12_val_lmdb"
    batch_size: 50
    backend: LMDB
    threads: 1
  }
}
layer {
  name: "data/bias"
  type: "Bias"
  bottom: "data"
  top: "data/bias"
  param {
    lr_mult: 0
    decay_mult: 0
  }
  bias_param {
    filler {
      type: "constant"
      value: -128
    }
  }
}
layer {
  name: "conv1a"
  type: "Convolution"
  bottom: "data/bias"
  top: "conv1a"
  param {
    lr_mult: 1
    decay_mult: 1
  }
  param {
    lr_mult: 2
    decay_mult: 0
  }
  convolution_param {
    num_output: 32
    bias_term: true
    pad: 2
    kernel_size: 5
    group: 1
    stride: 2
    weight_filler {
      type: "msra"
    }
    bias_filler {
      type: "constant"
      value: 0
    }
    dilation: 1
  }
}
layer {
  name: "conv1a/bn"
  type: "BatchNorm"
  bottom: "conv1a"
  top: "conv1a/bn"
  param {
    lr_mult: 1
    decay_mult: 1
  }
  param {
    lr_mult: 1
    decay_mult: 1
  }
  param {
    lr_mult: 0
    decay_mult: 0
  }
  param {
    lr_mult: 0
    decay_mult: 0
  }
  batch_norm_param {
    moving_average_fraction: 0.99
    eps: 0.0001
    scale_filler {
      type: "constant"
      value: 1
    }
    bias_filler {
      type: "constant"
      value: 0
    }
  }
}
layer {
  name: "conv1a/relu"
  type: "ReLU"
  bottom: "conv1a/bn"
  top: "conv1a/bn"
}
layer {
  name: "conv1b"
  type: "Convolution"
  bottom: "conv1a/bn"
  top: "conv1b"
  param {
    lr_mult: 1
    decay_mult: 1
  }
  param {
    lr_mult: 2
    decay_mult: 0
  }
  convolution_param {
    num_output: 32
    bias_term: true
    pad: 1
    kernel_size: 3
    group: 4
    stride: 1
    weight_filler {
      type: "msra"
    }
    bias_filler {
      type: "constant"
      value: 0
    }
    dilation: 1
  }
}
layer {
  name: "conv1b/bn"
  type: "BatchNorm"
  bottom: "conv1b"
  top: "conv1b/bn"
  param {
    lr_mult: 1
    decay_mult: 1
  }
  param {
    lr_mult: 1
    decay_mult: 1
  }
  param {
    lr_mult: 0
    decay_mult: 0
  }
  param {
    lr_mult: 0
    decay_mult: 0
  }
  batch_norm_param {
    moving_average_fraction: 0.99
    eps: 0.0001
    scale_filler {
      type: "constant"
      value: 1
    }
    bias_filler {
      type: "constant"
      value: 0
    }
  }
}
layer {
  name: "conv1b/relu"
  type: "ReLU"
  bottom: "conv1b/bn"
  top: "conv1b/bn"
}
layer {
  name: "pool1"
  type: "Pooling"
  bottom: "conv1b/bn"
  top: "pool1"
  pooling_param {
    pool: MAX
    kernel_size: 2
    stride: 2
  }
}
layer {
  name: "res2a_branch2a"
  type: "Convolution"
  bottom: "pool1"
  top: "res2a_branch2a"
  param {
    lr_mult: 1
    decay_mult: 1
  }
  param {
    lr_mult: 2
    decay_mult: 0
  }
  convolution_param {
    num_output: 64
    bias_term: true
    pad: 1
    kernel_size: 3
    group: 1
    stride: 1
    weight_filler {
      type: "msra"
    }
    bias_filler {
      type: "constant"
      value: 0
    }
    dilation: 1
  }
}
layer {
  name: "res2a_branch2a/bn"
  type: "BatchNorm"
  bottom: "res2a_branch2a"
  top: "res2a_branch2a/bn"
  param {
    lr_mult: 1
    decay_mult: 1
  }
  param {
    lr_mult: 1
    decay_mult: 1
  }
  param {
    lr_mult: 0
    decay_mult: 0
  }
  param {
    lr_mult: 0
    decay_mult: 0
  }
  batch_norm_param {
    moving_average_fraction: 0.99
    eps: 0.0001
    scale_filler {
      type: "constant"
      value: 1
    }
    bias_filler {
      type: "constant"
      value: 0
    }
  }
}
layer {
  name: "res2a_branch2a/relu"
  type: "ReLU"
  bottom: "res2a_branch2a/bn"
  top: "res2a_branch2a/bn"
}
layer {
  name: "res2a_branch2b"
  type: "Convolution"
  bottom: "res2a_branch2a/bn"
  top: "res2a_branch2b"
  param {
    lr_mult: 1
    decay_mult: 1
  }
  param {
    lr_mult: 2
    decay_mult: 0
  }
  convolution_param {
    num_output: 64
    bias_term: true
    pad: 1
    kernel_size: 3
    group: 4
    stride: 1
    weight_filler {
      type: "msra"
    }
    bias_filler {
      type: "constant"
      value: 0
    }
    dilation: 1
  }
}
layer {
  name: "res2a_branch2b/bn"
  type: "BatchNorm"
  bottom: "res2a_branch2b"
  top: "res2a_branch2b/bn"
  param {
    lr_mult: 1
    decay_mult: 1
  }
  param {
    lr_mult: 1
    decay_mult: 1
  }
  param {
    lr_mult: 0
    decay_mult: 0
  }
  param {
    lr_mult: 0
    decay_mult: 0
  }
  batch_norm_param {
    moving_average_fraction: 0.99
    eps: 0.0001
    scale_filler {
      type: "constant"
      value: 1
    }
    bias_filler {
      type: "constant"
      value: 0
    }
  }
}
layer {
  name: "res2a_branch2b/relu"
  type: "ReLU"
  bottom: "res2a_branch2b/bn"
  top: "res2a_branch2b/bn"
}
layer {
  name: "pool2"
  type: "Pooling"
  bottom: "res2a_branch2b/bn"
  top: "pool2"
  pooling_param {
    pool: MAX
    kernel_size: 2
    stride: 2
  }
}
layer {
  name: "res3a_branch2a"
  type: "Convolution"
  bottom: "pool2"
  top: "res3a_branch2a"
  param {
    lr_mult: 1
    decay_mult: 1
  }
  param {
    lr_mult: 2
    decay_mult: 0
  }
  convolution_param {
    num_output: 128
    bias_term: true
    pad: 1
    kernel_size: 3
    group: 1
    stride: 1
    weight_filler {
      type: "msra"
    }
    bias_filler {
      type: "constant"
      value: 0
    }
    dilation: 1
  }
}
layer {
  name: "res3a_branch2a/bn"
  type: "BatchNorm"
  bottom: "res3a_branch2a"
  top: "res3a_branch2a/bn"
  param {
    lr_mult: 1
    decay_mult: 1
  }
  param {
    lr_mult: 1
    decay_mult: 1
  }
  param {
    lr_mult: 0
    decay_mult: 0
  }
  param {
    lr_mult: 0
    decay_mult: 0
  }
  batch_norm_param {
    moving_average_fraction: 0.99
    eps: 0.0001
    scale_filler {
      type: "constant"
      value: 1
    }
    bias_filler {
      type: "constant"
      value: 0
    }
  }
}
layer {
  name: "res3a_branch2a/relu"
  type: "ReLU"
  bottom: "res3a_branch2a/bn"
  top: "res3a_branch2a/bn"
}
layer {
  name: "res3a_branch2b"
  type: "Convolution"
  bottom: "res3a_branch2a/bn"
  top: "res3a_branch2b"
  param {
    lr_mult: 1
    decay_mult: 1
  }
  param {
    lr_mult: 2
    decay_mult: 0
  }
  convolution_param {
    num_output: 128
    bias_term: true
    pad: 1
    kernel_size: 3
    group: 4
    stride: 1
    weight_filler {
      type: "msra"
    }
    bias_filler {
      type: "constant"
      value: 0
    }
    dilation: 1
  }
}
layer {
  name: "res3a_branch2b/bn"
  type: "BatchNorm"
  bottom: "res3a_branch2b"
  top: "res3a_branch2b/bn"
  param {
    lr_mult: 1
    decay_mult: 1
  }
  param {
    lr_mult: 1
    decay_mult: 1
  }
  param {
    lr_mult: 0
    decay_mult: 0
  }
  param {
    lr_mult: 0
    decay_mult: 0
  }
  batch_norm_param {
    moving_average_fraction: 0.99
    eps: 0.0001
    scale_filler {
      type: "constant"
      value: 1
    }
    bias_filler {
      type: "constant"
      value: 0
    }
  }
}
layer {
  name: "res3a_branch2b/relu"
  type: "ReLU"
  bottom: "res3a_branch2b/bn"
  top: "res3a_branch2b/bn"
}
layer {
  name: "pool3"
  type: "Pooling"
  bottom: "res3a_branch2b/bn"
  top: "pool3"
  pooling_param {
    pool: MAX
    kernel_size: 2
    stride: 2
  }
}
layer {
  name: "res4a_branch2a"
  type: "Convolution"
  bottom: "pool3"
  top: "res4a_branch2a"
  param {
    lr_mult: 1
    decay_mult: 1
  }
  param {
    lr_mult: 2
    decay_mult: 0
  }
  convolution_param {
    num_output: 256
    bias_term: true
    pad: 1
    kernel_size: 3
    group: 1
    stride: 1
    weight_filler {
      type: "msra"
    }
    bias_filler {
      type: "constant"
      value: 0
    }
    dilation: 1
  }
}
layer {
  name: "res4a_branch2a/bn"
  type: "BatchNorm"
  bottom: "res4a_branch2a"
  top: "res4a_branch2a/bn"
  param {
    lr_mult: 1
    decay_mult: 1
  }
  param {
    lr_mult: 1
    decay_mult: 1
  }
  param {
    lr_mult: 0
    decay_mult: 0
  }
  param {
    lr_mult: 0
    decay_mult: 0
  }
  batch_norm_param {
    moving_average_fraction: 0.99
    eps: 0.0001
    scale_filler {
      type: "constant"
      value: 1
    }
    bias_filler {
      type: "constant"
      value: 0
    }
  }
}
layer {
  name: "res4a_branch2a/relu"
  type: "ReLU"
  bottom: "res4a_branch2a/bn"
  top: "res4a_branch2a/bn"
}
layer {
  name: "res4a_branch2b"
  type: "Convolution"
  bottom: "res4a_branch2a/bn"
  top: "res4a_branch2b"
  param {
    lr_mult: 1
    decay_mult: 1
  }
  param {
    lr_mult: 2
    decay_mult: 0
  }
  convolution_param {
    num_output: 256
    bias_term: true
    pad: 1
    kernel_size: 3
    group: 4
    stride: 1
    weight_filler {
      type: "msra"
    }
    bias_filler {
      type: "constant"
      value: 0
    }
    dilation: 1
  }
}
layer {
  name: "res4a_branch2b/bn"
  type: "BatchNorm"
  bottom: "res4a_branch2b"
  top: "res4a_branch2b/bn"
  param {
    lr_mult: 1
    decay_mult: 1
  }
  param {
    lr_mult: 1
    decay_mult: 1
  }
  param {
    lr_mult: 0
    decay_mult: 0
  }
  param {
    lr_mult: 0
    decay_mult: 0
  }
  batch_norm_param {
    moving_average_fraction: 0.99
    eps: 0.0001
    scale_filler {
      type: "constant"
      value: 1
    }
    bias_filler {
      type: "constant"
      value: 0
    }
  }
}
layer {
  name: "res4a_branch2b/relu"
  type: "ReLU"
  bottom: "res4a_branch2b/bn"
  top: "res4a_branch2b/bn"
}
layer {
  name: "pool4"
  type: "Pooling"
  bottom: "res4a_branch2b/bn"
  top: "pool4"
  pooling_param {
    pool: MAX
    kernel_size: 2
    stride: 2
  }
}
layer {
  name: "res5a_branch2a"
  type: "Convolution"
  bottom: "pool4"
  top: "res5a_branch2a"
  param {
    lr_mult: 1
    decay_mult: 1
  }
  param {
    lr_mult: 2
    decay_mult: 0
  }
  convolution_param {
    num_output: 512
    bias_term: true
    pad: 1
    kernel_size: 3
    group: 1
    stride: 1
    weight_filler {
      type: "msra"
    }
    bias_filler {
      type: "constant"
      value: 0
    }
    dilation: 1
  }
}
layer {
  name: "res5a_branch2a/bn"
  type: "BatchNorm"
  bottom: "res5a_branch2a"
  top: "res5a_branch2a/bn"
  param {
    lr_mult: 1
    decay_mult: 1
  }
  param {
    lr_mult: 1
    decay_mult: 1
  }
  param {
    lr_mult: 0
    decay_mult: 0
  }
  param {
    lr_mult: 0
    decay_mult: 0
  }
  batch_norm_param {
    moving_average_fraction: 0.99
    eps: 0.0001
    scale_filler {
      type: "constant"
      value: 1
    }
    bias_filler {
      type: "constant"
      value: 0
    }
  }
}
layer {
  name: "res5a_branch2a/relu"
  type: "ReLU"
  bottom: "res5a_branch2a/bn"
  top: "res5a_branch2a/bn"
}
layer {
  name: "res5a_branch2b"
  type: "Convolution"
  bottom: "res5a_branch2a/bn"
  top: "res5a_branch2b"
  param {
    lr_mult: 1
    decay_mult: 1
  }
  param {
    lr_mult: 2
    decay_mult: 0
  }
  convolution_param {
    num_output: 512
    bias_term: true
    pad: 1
    kernel_size: 3
    group: 4
    stride: 1
    weight_filler {
      type: "msra"
    }
    bias_filler {
      type: "constant"
      value: 0
    }
    dilation: 1
  }
}
layer {
  name: "res5a_branch2b/bn"
  type: "BatchNorm"
  bottom: "res5a_branch2b"
  top: "res5a_branch2b/bn"
  param {
    lr_mult: 1
    decay_mult: 1
  }
  param {
    lr_mult: 1
    decay_mult: 1
  }
  param {
    lr_mult: 0
    decay_mult: 0
  }
  param {
    lr_mult: 0
    decay_mult: 0
  }
  batch_norm_param {
    moving_average_fraction: 0.99
    eps: 0.0001
    scale_filler {
      type: "constant"
      value: 1
    }
    bias_filler {
      type: "constant"
      value: 0
    }
  }
}
layer {
  name: "res5a_branch2b/relu"
  type: "ReLU"
  bottom: "res5a_branch2b/bn"
  top: "res5a_branch2b/bn"
}
layer {
  name: "pool5"
  type: "Pooling"
  bottom: "res5a_branch2b/bn"
  top: "pool5"
  pooling_param {
    pool: AVE
    global_pooling: true
  }
}
layer {
  name: "fc1000"
  type: "InnerProduct"
  bottom: "pool5"
  top: "fc1000"
  param {
    lr_mult: 1
    decay_mult: 1
  }
  param {
    lr_mult: 2
    decay_mult: 0
  }
  inner_product_param {
    num_output: 1000
    weight_filler {
      type: "msra"
    }
    bias_filler {
      type: "constant"
      value: 0
    }
  }
}
layer {
  name: "loss"
  type: "SoftmaxWithLoss"
  bottom: "fc1000"
  bottom: "label"
  top: "loss"
  propagate_down: true
  propagate_down: false
}
layer {
  name: "accuracy/top1"
  type: "Accuracy"
  bottom: "fc1000"
  bottom: "label"
  top: "accuracy/top1"
  include {
    phase: TEST
  }
}
layer {
  name: "accuracy/top5"
  type: "Accuracy"
  bottom: "fc1000"
  bottom: "label"
  top: "accuracy/top5"
  include {
    phase: TEST
  }
  accuracy_param {
    top_k: 5
  }
}
I0630 02:08:24.883601 28163 layer_factory.hpp:77] Creating layer data
I0630 02:08:24.883661 28163 net.cpp:98] Creating Layer data
I0630 02:08:24.883666 28163 net.cpp:413] data -> data
I0630 02:08:24.883672 28163 net.cpp:413] data -> label
I0630 02:08:24.902891 28199 db_lmdb.cpp:35] Opened lmdb ./data/ilsvrc12_val_lmdb
I0630 02:08:24.903990 28163 data_layer.cpp:78] ReshapePrefetch 50, 3, 224, 224
I0630 02:08:24.904057 28163 data_layer.cpp:83] output data size: 50,3,224,224
I0630 02:08:24.935562 28163 net.cpp:148] Setting up data
I0630 02:08:24.935583 28163 net.cpp:155] Top shape: 50 3 224 224 (7526400)
I0630 02:08:24.935588 28163 net.cpp:155] Top shape: 50 (50)
I0630 02:08:24.935590 28163 net.cpp:163] Memory required for data: 30105800
I0630 02:08:24.935596 28163 layer_factory.hpp:77] Creating layer label_data_1_split
I0630 02:08:24.935607 28163 net.cpp:98] Creating Layer label_data_1_split
I0630 02:08:24.935611 28163 net.cpp:439] label_data_1_split <- label
I0630 02:08:24.935616 28163 net.cpp:413] label_data_1_split -> label_data_1_split_0
I0630 02:08:24.935626 28163 net.cpp:413] label_data_1_split -> label_data_1_split_1
I0630 02:08:24.935631 28163 net.cpp:413] label_data_1_split -> label_data_1_split_2
I0630 02:08:24.935765 28163 net.cpp:148] Setting up label_data_1_split
I0630 02:08:24.935775 28163 net.cpp:155] Top shape: 50 (50)
I0630 02:08:24.935781 28163 net.cpp:155] Top shape: 50 (50)
I0630 02:08:24.935784 28163 net.cpp:155] Top shape: 50 (50)
I0630 02:08:24.935788 28163 net.cpp:163] Memory required for data: 30106400
I0630 02:08:24.935792 28163 layer_factory.hpp:77] Creating layer data/bias
I0630 02:08:24.935801 28163 net.cpp:98] Creating Layer data/bias
I0630 02:08:24.935804 28163 net.cpp:439] data/bias <- data
I0630 02:08:24.935811 28163 net.cpp:413] data/bias -> data/bias
I0630 02:08:24.935963 28163 net.cpp:148] Setting up data/bias
I0630 02:08:24.935968 28163 net.cpp:155] Top shape: 50 3 224 224 (7526400)
I0630 02:08:24.935972 28163 net.cpp:163] Memory required for data: 60212000
I0630 02:08:24.935979 28163 layer_factory.hpp:77] Creating layer conv1a
I0630 02:08:24.935987 28163 net.cpp:98] Creating Layer conv1a
I0630 02:08:24.935992 28163 net.cpp:439] conv1a <- data/bias
I0630 02:08:24.935997 28163 net.cpp:413] conv1a -> conv1a
I0630 02:08:24.936503 28163 net.cpp:148] Setting up conv1a
I0630 02:08:24.936511 28163 net.cpp:155] Top shape: 50 32 112 112 (20070400)
I0630 02:08:24.936514 28163 net.cpp:163] Memory required for data: 140493600
I0630 02:08:24.936522 28163 layer_factory.hpp:77] Creating layer conv1a/bn
I0630 02:08:24.936529 28163 net.cpp:98] Creating Layer conv1a/bn
I0630 02:08:24.936533 28163 net.cpp:439] conv1a/bn <- conv1a
I0630 02:08:24.936538 28163 net.cpp:413] conv1a/bn -> conv1a/bn
I0630 02:08:24.939589 28163 net.cpp:148] Setting up conv1a/bn
I0630 02:08:24.939596 28163 net.cpp:155] Top shape: 50 32 112 112 (20070400)
I0630 02:08:24.939599 28163 net.cpp:163] Memory required for data: 220775200
I0630 02:08:24.939610 28163 layer_factory.hpp:77] Creating layer conv1a/relu
I0630 02:08:24.939621 28163 net.cpp:98] Creating Layer conv1a/relu
I0630 02:08:24.939625 28163 net.cpp:439] conv1a/relu <- conv1a/bn
I0630 02:08:24.939630 28163 net.cpp:400] conv1a/relu -> conv1a/bn (in-place)
I0630 02:08:24.939637 28163 net.cpp:148] Setting up conv1a/relu
I0630 02:08:24.939642 28163 net.cpp:155] Top shape: 50 32 112 112 (20070400)
I0630 02:08:24.939646 28163 net.cpp:163] Memory required for data: 301056800
I0630 02:08:24.939649 28163 layer_factory.hpp:77] Creating layer conv1b
I0630 02:08:24.939656 28163 net.cpp:98] Creating Layer conv1b
I0630 02:08:24.939661 28163 net.cpp:439] conv1b <- conv1a/bn
I0630 02:08:24.939666 28163 net.cpp:413] conv1b -> conv1b
I0630 02:08:24.940027 28163 net.cpp:148] Setting up conv1b
I0630 02:08:24.940034 28163 net.cpp:155] Top shape: 50 32 112 112 (20070400)
I0630 02:08:24.940038 28163 net.cpp:163] Memory required for data: 381338400
I0630 02:08:24.940045 28163 layer_factory.hpp:77] Creating layer conv1b/bn
I0630 02:08:24.940052 28163 net.cpp:98] Creating Layer conv1b/bn
I0630 02:08:24.940055 28163 net.cpp:439] conv1b/bn <- conv1b
I0630 02:08:24.940062 28163 net.cpp:413] conv1b/bn -> conv1b/bn
I0630 02:08:24.940778 28163 net.cpp:148] Setting up conv1b/bn
I0630 02:08:24.940785 28163 net.cpp:155] Top shape: 50 32 112 112 (20070400)
I0630 02:08:24.940789 28163 net.cpp:163] Memory required for data: 461620000
I0630 02:08:24.940800 28163 layer_factory.hpp:77] Creating layer conv1b/relu
I0630 02:08:24.940805 28163 net.cpp:98] Creating Layer conv1b/relu
I0630 02:08:24.940810 28163 net.cpp:439] conv1b/relu <- conv1b/bn
I0630 02:08:24.940814 28163 net.cpp:400] conv1b/relu -> conv1b/bn (in-place)
I0630 02:08:24.940820 28163 net.cpp:148] Setting up conv1b/relu
I0630 02:08:24.940825 28163 net.cpp:155] Top shape: 50 32 112 112 (20070400)
I0630 02:08:24.940829 28163 net.cpp:163] Memory required for data: 541901600
I0630 02:08:24.940832 28163 layer_factory.hpp:77] Creating layer pool1
I0630 02:08:24.940840 28163 net.cpp:98] Creating Layer pool1
I0630 02:08:24.940842 28163 net.cpp:439] pool1 <- conv1b/bn
I0630 02:08:24.940846 28163 net.cpp:413] pool1 -> pool1
I0630 02:08:24.940888 28163 net.cpp:148] Setting up pool1
I0630 02:08:24.940893 28163 net.cpp:155] Top shape: 50 32 56 56 (5017600)
I0630 02:08:24.940897 28163 net.cpp:163] Memory required for data: 561972000
I0630 02:08:24.940901 28163 layer_factory.hpp:77] Creating layer res2a_branch2a
I0630 02:08:24.940908 28163 net.cpp:98] Creating Layer res2a_branch2a
I0630 02:08:24.940912 28163 net.cpp:439] res2a_branch2a <- pool1
I0630 02:08:24.940917 28163 net.cpp:413] res2a_branch2a -> res2a_branch2a
I0630 02:08:24.941573 28163 net.cpp:148] Setting up res2a_branch2a
I0630 02:08:24.941579 28163 net.cpp:155] Top shape: 50 64 56 56 (10035200)
I0630 02:08:24.941583 28163 net.cpp:163] Memory required for data: 602112800
I0630 02:08:24.941591 28163 layer_factory.hpp:77] Creating layer res2a_branch2a/bn
I0630 02:08:24.941596 28163 net.cpp:98] Creating Layer res2a_branch2a/bn
I0630 02:08:24.941601 28163 net.cpp:439] res2a_branch2a/bn <- res2a_branch2a
I0630 02:08:24.941606 28163 net.cpp:413] res2a_branch2a/bn -> res2a_branch2a/bn
I0630 02:08:24.942334 28163 net.cpp:148] Setting up res2a_branch2a/bn
I0630 02:08:24.942342 28163 net.cpp:155] Top shape: 50 64 56 56 (10035200)
I0630 02:08:24.942345 28163 net.cpp:163] Memory required for data: 642253600
I0630 02:08:24.942353 28163 layer_factory.hpp:77] Creating layer res2a_branch2a/relu
I0630 02:08:24.942358 28163 net.cpp:98] Creating Layer res2a_branch2a/relu
I0630 02:08:24.942363 28163 net.cpp:439] res2a_branch2a/relu <- res2a_branch2a/bn
I0630 02:08:24.942366 28163 net.cpp:400] res2a_branch2a/relu -> res2a_branch2a/bn (in-place)
I0630 02:08:24.942373 28163 net.cpp:148] Setting up res2a_branch2a/relu
I0630 02:08:24.942378 28163 net.cpp:155] Top shape: 50 64 56 56 (10035200)
I0630 02:08:24.942380 28163 net.cpp:163] Memory required for data: 682394400
I0630 02:08:24.942384 28163 layer_factory.hpp:77] Creating layer res2a_branch2b
I0630 02:08:24.942390 28163 net.cpp:98] Creating Layer res2a_branch2b
I0630 02:08:24.942399 28163 net.cpp:439] res2a_branch2b <- res2a_branch2a/bn
I0630 02:08:24.942404 28163 net.cpp:413] res2a_branch2b -> res2a_branch2b
I0630 02:08:24.942905 28163 net.cpp:148] Setting up res2a_branch2b
I0630 02:08:24.942912 28163 net.cpp:155] Top shape: 50 64 56 56 (10035200)
I0630 02:08:24.942916 28163 net.cpp:163] Memory required for data: 722535200
I0630 02:08:24.942921 28163 layer_factory.hpp:77] Creating layer res2a_branch2b/bn
I0630 02:08:24.942927 28163 net.cpp:98] Creating Layer res2a_branch2b/bn
I0630 02:08:24.942931 28163 net.cpp:439] res2a_branch2b/bn <- res2a_branch2b
I0630 02:08:24.942936 28163 net.cpp:413] res2a_branch2b/bn -> res2a_branch2b/bn
I0630 02:08:24.943667 28163 net.cpp:148] Setting up res2a_branch2b/bn
I0630 02:08:24.943675 28163 net.cpp:155] Top shape: 50 64 56 56 (10035200)
I0630 02:08:24.943678 28163 net.cpp:163] Memory required for data: 762676000
I0630 02:08:24.943687 28163 layer_factory.hpp:77] Creating layer res2a_branch2b/relu
I0630 02:08:24.943691 28163 net.cpp:98] Creating Layer res2a_branch2b/relu
I0630 02:08:24.943696 28163 net.cpp:439] res2a_branch2b/relu <- res2a_branch2b/bn
I0630 02:08:24.943701 28163 net.cpp:400] res2a_branch2b/relu -> res2a_branch2b/bn (in-place)
I0630 02:08:24.943706 28163 net.cpp:148] Setting up res2a_branch2b/relu
I0630 02:08:24.943711 28163 net.cpp:155] Top shape: 50 64 56 56 (10035200)
I0630 02:08:24.943714 28163 net.cpp:163] Memory required for data: 802816800
I0630 02:08:24.943717 28163 layer_factory.hpp:77] Creating layer pool2
I0630 02:08:24.943723 28163 net.cpp:98] Creating Layer pool2
I0630 02:08:24.943727 28163 net.cpp:439] pool2 <- res2a_branch2b/bn
I0630 02:08:24.943730 28163 net.cpp:413] pool2 -> pool2
I0630 02:08:24.943778 28163 net.cpp:148] Setting up pool2
I0630 02:08:24.943783 28163 net.cpp:155] Top shape: 50 64 28 28 (2508800)
I0630 02:08:24.943787 28163 net.cpp:163] Memory required for data: 812852000
I0630 02:08:24.943791 28163 layer_factory.hpp:77] Creating layer res3a_branch2a
I0630 02:08:24.943799 28163 net.cpp:98] Creating Layer res3a_branch2a
I0630 02:08:24.943802 28163 net.cpp:439] res3a_branch2a <- pool2
I0630 02:08:24.943807 28163 net.cpp:413] res3a_branch2a -> res3a_branch2a
I0630 02:08:24.946485 28163 net.cpp:148] Setting up res3a_branch2a
I0630 02:08:24.946494 28163 net.cpp:155] Top shape: 50 128 28 28 (5017600)
I0630 02:08:24.946498 28163 net.cpp:163] Memory required for data: 832922400
I0630 02:08:24.946504 28163 layer_factory.hpp:77] Creating layer res3a_branch2a/bn
I0630 02:08:24.946511 28163 net.cpp:98] Creating Layer res3a_branch2a/bn
I0630 02:08:24.946514 28163 net.cpp:439] res3a_branch2a/bn <- res3a_branch2a
I0630 02:08:24.946526 28163 net.cpp:413] res3a_branch2a/bn -> res3a_branch2a/bn
I0630 02:08:24.947228 28163 net.cpp:148] Setting up res3a_branch2a/bn
I0630 02:08:24.947237 28163 net.cpp:155] Top shape: 50 128 28 28 (5017600)
I0630 02:08:24.947239 28163 net.cpp:163] Memory required for data: 852992800
I0630 02:08:24.947249 28163 layer_factory.hpp:77] Creating layer res3a_branch2a/relu
I0630 02:08:24.947257 28163 net.cpp:98] Creating Layer res3a_branch2a/relu
I0630 02:08:24.947262 28163 net.cpp:439] res3a_branch2a/relu <- res3a_branch2a/bn
I0630 02:08:24.947266 28163 net.cpp:400] res3a_branch2a/relu -> res3a_branch2a/bn (in-place)
I0630 02:08:24.947273 28163 net.cpp:148] Setting up res3a_branch2a/relu
I0630 02:08:24.947278 28163 net.cpp:155] Top shape: 50 128 28 28 (5017600)
I0630 02:08:24.947281 28163 net.cpp:163] Memory required for data: 873063200
I0630 02:08:24.947284 28163 layer_factory.hpp:77] Creating layer res3a_branch2b
I0630 02:08:24.947291 28163 net.cpp:98] Creating Layer res3a_branch2b
I0630 02:08:24.947294 28163 net.cpp:439] res3a_branch2b <- res3a_branch2a/bn
I0630 02:08:24.947299 28163 net.cpp:413] res3a_branch2b -> res3a_branch2b
I0630 02:08:24.948344 28163 net.cpp:148] Setting up res3a_branch2b
I0630 02:08:24.948355 28163 net.cpp:155] Top shape: 50 128 28 28 (5017600)
I0630 02:08:24.948359 28163 net.cpp:163] Memory required for data: 893133600
I0630 02:08:24.948372 28163 layer_factory.hpp:77] Creating layer res3a_branch2b/bn
I0630 02:08:24.948379 28163 net.cpp:98] Creating Layer res3a_branch2b/bn
I0630 02:08:24.948382 28163 net.cpp:439] res3a_branch2b/bn <- res3a_branch2b
I0630 02:08:24.948387 28163 net.cpp:413] res3a_branch2b/bn -> res3a_branch2b/bn
I0630 02:08:24.949074 28163 net.cpp:148] Setting up res3a_branch2b/bn
I0630 02:08:24.949081 28163 net.cpp:155] Top shape: 50 128 28 28 (5017600)
I0630 02:08:24.949085 28163 net.cpp:163] Memory required for data: 913204000
I0630 02:08:24.949093 28163 layer_factory.hpp:77] Creating layer res3a_branch2b/relu
I0630 02:08:24.949105 28163 net.cpp:98] Creating Layer res3a_branch2b/relu
I0630 02:08:24.949108 28163 net.cpp:439] res3a_branch2b/relu <- res3a_branch2b/bn
I0630 02:08:24.949113 28163 net.cpp:400] res3a_branch2b/relu -> res3a_branch2b/bn (in-place)
I0630 02:08:24.949118 28163 net.cpp:148] Setting up res3a_branch2b/relu
I0630 02:08:24.949123 28163 net.cpp:155] Top shape: 50 128 28 28 (5017600)
I0630 02:08:24.949126 28163 net.cpp:163] Memory required for data: 933274400
I0630 02:08:24.949131 28163 layer_factory.hpp:77] Creating layer pool3
I0630 02:08:24.949136 28163 net.cpp:98] Creating Layer pool3
I0630 02:08:24.949139 28163 net.cpp:439] pool3 <- res3a_branch2b/bn
I0630 02:08:24.949144 28163 net.cpp:413] pool3 -> pool3
I0630 02:08:24.949188 28163 net.cpp:148] Setting up pool3
I0630 02:08:24.949193 28163 net.cpp:155] Top shape: 50 128 14 14 (1254400)
I0630 02:08:24.949198 28163 net.cpp:163] Memory required for data: 938292000
I0630 02:08:24.949201 28163 layer_factory.hpp:77] Creating layer res4a_branch2a
I0630 02:08:24.949208 28163 net.cpp:98] Creating Layer res4a_branch2a
I0630 02:08:24.949211 28163 net.cpp:439] res4a_branch2a <- pool3
I0630 02:08:24.949218 28163 net.cpp:413] res4a_branch2a -> res4a_branch2a
I0630 02:08:24.955292 28163 net.cpp:148] Setting up res4a_branch2a
I0630 02:08:24.955301 28163 net.cpp:155] Top shape: 50 256 14 14 (2508800)
I0630 02:08:24.955304 28163 net.cpp:163] Memory required for data: 948327200
I0630 02:08:24.955310 28163 layer_factory.hpp:77] Creating layer res4a_branch2a/bn
I0630 02:08:24.955317 28163 net.cpp:98] Creating Layer res4a_branch2a/bn
I0630 02:08:24.955320 28163 net.cpp:439] res4a_branch2a/bn <- res4a_branch2a
I0630 02:08:24.955325 28163 net.cpp:413] res4a_branch2a/bn -> res4a_branch2a/bn
I0630 02:08:24.956022 28163 net.cpp:148] Setting up res4a_branch2a/bn
I0630 02:08:24.956030 28163 net.cpp:155] Top shape: 50 256 14 14 (2508800)
I0630 02:08:24.956033 28163 net.cpp:163] Memory required for data: 958362400
I0630 02:08:24.956043 28163 layer_factory.hpp:77] Creating layer res4a_branch2a/relu
I0630 02:08:24.956048 28163 net.cpp:98] Creating Layer res4a_branch2a/relu
I0630 02:08:24.956053 28163 net.cpp:439] res4a_branch2a/relu <- res4a_branch2a/bn
I0630 02:08:24.956058 28163 net.cpp:400] res4a_branch2a/relu -> res4a_branch2a/bn (in-place)
I0630 02:08:24.956065 28163 net.cpp:148] Setting up res4a_branch2a/relu
I0630 02:08:24.956069 28163 net.cpp:155] Top shape: 50 256 14 14 (2508800)
I0630 02:08:24.956073 28163 net.cpp:163] Memory required for data: 968397600
I0630 02:08:24.956077 28163 layer_factory.hpp:77] Creating layer res4a_branch2b
I0630 02:08:24.956084 28163 net.cpp:98] Creating Layer res4a_branch2b
I0630 02:08:24.956089 28163 net.cpp:439] res4a_branch2b <- res4a_branch2a/bn
I0630 02:08:24.956094 28163 net.cpp:413] res4a_branch2b -> res4a_branch2b
I0630 02:08:24.959396 28163 net.cpp:148] Setting up res4a_branch2b
I0630 02:08:24.959408 28163 net.cpp:155] Top shape: 50 256 14 14 (2508800)
I0630 02:08:24.959411 28163 net.cpp:163] Memory required for data: 978432800
I0630 02:08:24.959417 28163 layer_factory.hpp:77] Creating layer res4a_branch2b/bn
I0630 02:08:24.959424 28163 net.cpp:98] Creating Layer res4a_branch2b/bn
I0630 02:08:24.959429 28163 net.cpp:439] res4a_branch2b/bn <- res4a_branch2b
I0630 02:08:24.959434 28163 net.cpp:413] res4a_branch2b/bn -> res4a_branch2b/bn
I0630 02:08:24.960139 28163 net.cpp:148] Setting up res4a_branch2b/bn
I0630 02:08:24.960146 28163 net.cpp:155] Top shape: 50 256 14 14 (2508800)
I0630 02:08:24.960160 28163 net.cpp:163] Memory required for data: 988468000
I0630 02:08:24.960167 28163 layer_factory.hpp:77] Creating layer res4a_branch2b/relu
I0630 02:08:24.960172 28163 net.cpp:98] Creating Layer res4a_branch2b/relu
I0630 02:08:24.960176 28163 net.cpp:439] res4a_branch2b/relu <- res4a_branch2b/bn
I0630 02:08:24.960181 28163 net.cpp:400] res4a_branch2b/relu -> res4a_branch2b/bn (in-place)
I0630 02:08:24.960188 28163 net.cpp:148] Setting up res4a_branch2b/relu
I0630 02:08:24.960192 28163 net.cpp:155] Top shape: 50 256 14 14 (2508800)
I0630 02:08:24.960196 28163 net.cpp:163] Memory required for data: 998503200
I0630 02:08:24.960201 28163 layer_factory.hpp:77] Creating layer pool4
I0630 02:08:24.960206 28163 net.cpp:98] Creating Layer pool4
I0630 02:08:24.960211 28163 net.cpp:439] pool4 <- res4a_branch2b/bn
I0630 02:08:24.960216 28163 net.cpp:413] pool4 -> pool4
I0630 02:08:24.960261 28163 net.cpp:148] Setting up pool4
I0630 02:08:24.960266 28163 net.cpp:155] Top shape: 50 256 7 7 (627200)
I0630 02:08:24.960270 28163 net.cpp:163] Memory required for data: 1001012000
I0630 02:08:24.960274 28163 layer_factory.hpp:77] Creating layer res5a_branch2a
I0630 02:08:24.960281 28163 net.cpp:98] Creating Layer res5a_branch2a
I0630 02:08:24.960284 28163 net.cpp:439] res5a_branch2a <- pool4
I0630 02:08:24.960289 28163 net.cpp:413] res5a_branch2a -> res5a_branch2a
I0630 02:08:24.985337 28163 net.cpp:148] Setting up res5a_branch2a
I0630 02:08:24.985357 28163 net.cpp:155] Top shape: 50 512 7 7 (1254400)
I0630 02:08:24.985360 28163 net.cpp:163] Memory required for data: 1006029600
I0630 02:08:24.985368 28163 layer_factory.hpp:77] Creating layer res5a_branch2a/bn
I0630 02:08:24.985378 28163 net.cpp:98] Creating Layer res5a_branch2a/bn
I0630 02:08:24.985383 28163 net.cpp:439] res5a_branch2a/bn <- res5a_branch2a
I0630 02:08:24.985389 28163 net.cpp:413] res5a_branch2a/bn -> res5a_branch2a/bn
I0630 02:08:24.986106 28163 net.cpp:148] Setting up res5a_branch2a/bn
I0630 02:08:24.986114 28163 net.cpp:155] Top shape: 50 512 7 7 (1254400)
I0630 02:08:24.986117 28163 net.cpp:163] Memory required for data: 1011047200
I0630 02:08:24.986125 28163 layer_factory.hpp:77] Creating layer res5a_branch2a/relu
I0630 02:08:24.986137 28163 net.cpp:98] Creating Layer res5a_branch2a/relu
I0630 02:08:24.986141 28163 net.cpp:439] res5a_branch2a/relu <- res5a_branch2a/bn
I0630 02:08:24.986145 28163 net.cpp:400] res5a_branch2a/relu -> res5a_branch2a/bn (in-place)
I0630 02:08:24.986151 28163 net.cpp:148] Setting up res5a_branch2a/relu
I0630 02:08:24.986155 28163 net.cpp:155] Top shape: 50 512 7 7 (1254400)
I0630 02:08:24.986156 28163 net.cpp:163] Memory required for data: 1016064800
I0630 02:08:24.986158 28163 layer_factory.hpp:77] Creating layer res5a_branch2b
I0630 02:08:24.986165 28163 net.cpp:98] Creating Layer res5a_branch2b
I0630 02:08:24.986166 28163 net.cpp:439] res5a_branch2b <- res5a_branch2a/bn
I0630 02:08:24.986169 28163 net.cpp:413] res5a_branch2b -> res5a_branch2b
I0630 02:08:25.001201 28163 net.cpp:148] Setting up res5a_branch2b
I0630 02:08:25.001217 28163 net.cpp:155] Top shape: 50 512 7 7 (1254400)
I0630 02:08:25.001219 28163 net.cpp:163] Memory required for data: 1021082400
I0630 02:08:25.001227 28163 layer_factory.hpp:77] Creating layer res5a_branch2b/bn
I0630 02:08:25.001235 28163 net.cpp:98] Creating Layer res5a_branch2b/bn
I0630 02:08:25.001237 28163 net.cpp:439] res5a_branch2b/bn <- res5a_branch2b
I0630 02:08:25.001240 28163 net.cpp:413] res5a_branch2b/bn -> res5a_branch2b/bn
I0630 02:08:25.001971 28163 net.cpp:148] Setting up res5a_branch2b/bn
I0630 02:08:25.001977 28163 net.cpp:155] Top shape: 50 512 7 7 (1254400)
I0630 02:08:25.001979 28163 net.cpp:163] Memory required for data: 1026100000
I0630 02:08:25.001984 28163 layer_factory.hpp:77] Creating layer res5a_branch2b/relu
I0630 02:08:25.001988 28163 net.cpp:98] Creating Layer res5a_branch2b/relu
I0630 02:08:25.001991 28163 net.cpp:439] res5a_branch2b/relu <- res5a_branch2b/bn
I0630 02:08:25.001992 28163 net.cpp:400] res5a_branch2b/relu -> res5a_branch2b/bn (in-place)
I0630 02:08:25.002007 28163 net.cpp:148] Setting up res5a_branch2b/relu
I0630 02:08:25.002012 28163 net.cpp:155] Top shape: 50 512 7 7 (1254400)
I0630 02:08:25.002013 28163 net.cpp:163] Memory required for data: 1031117600
I0630 02:08:25.002017 28163 layer_factory.hpp:77] Creating layer pool5
I0630 02:08:25.002023 28163 net.cpp:98] Creating Layer pool5
I0630 02:08:25.002027 28163 net.cpp:439] pool5 <- res5a_branch2b/bn
I0630 02:08:25.002032 28163 net.cpp:413] pool5 -> pool5
I0630 02:08:25.002063 28163 net.cpp:148] Setting up pool5
I0630 02:08:25.002068 28163 net.cpp:155] Top shape: 50 512 1 1 (25600)
I0630 02:08:25.002069 28163 net.cpp:163] Memory required for data: 1031220000
I0630 02:08:25.002073 28163 layer_factory.hpp:77] Creating layer fc1000
I0630 02:08:25.002075 28163 net.cpp:98] Creating Layer fc1000
I0630 02:08:25.002077 28163 net.cpp:439] fc1000 <- pool5
I0630 02:08:25.002081 28163 net.cpp:413] fc1000 -> fc1000
I0630 02:08:25.013155 28163 net.cpp:148] Setting up fc1000
I0630 02:08:25.013167 28163 net.cpp:155] Top shape: 50 1000 (50000)
I0630 02:08:25.013170 28163 net.cpp:163] Memory required for data: 1031420000
I0630 02:08:25.013175 28163 layer_factory.hpp:77] Creating layer fc1000_fc1000_0_split
I0630 02:08:25.013178 28163 net.cpp:98] Creating Layer fc1000_fc1000_0_split
I0630 02:08:25.013180 28163 net.cpp:439] fc1000_fc1000_0_split <- fc1000
I0630 02:08:25.013183 28163 net.cpp:413] fc1000_fc1000_0_split -> fc1000_fc1000_0_split_0
I0630 02:08:25.013188 28163 net.cpp:413] fc1000_fc1000_0_split -> fc1000_fc1000_0_split_1
I0630 02:08:25.013191 28163 net.cpp:413] fc1000_fc1000_0_split -> fc1000_fc1000_0_split_2
I0630 02:08:25.013255 28163 net.cpp:148] Setting up fc1000_fc1000_0_split
I0630 02:08:25.013260 28163 net.cpp:155] Top shape: 50 1000 (50000)
I0630 02:08:25.013262 28163 net.cpp:155] Top shape: 50 1000 (50000)
I0630 02:08:25.013264 28163 net.cpp:155] Top shape: 50 1000 (50000)
I0630 02:08:25.013267 28163 net.cpp:163] Memory required for data: 1032020000
I0630 02:08:25.013268 28163 layer_factory.hpp:77] Creating layer loss
I0630 02:08:25.013273 28163 net.cpp:98] Creating Layer loss
I0630 02:08:25.013274 28163 net.cpp:439] loss <- fc1000_fc1000_0_split_0
I0630 02:08:25.013276 28163 net.cpp:439] loss <- label_data_1_split_0
I0630 02:08:25.013279 28163 net.cpp:413] loss -> loss
…
